…
weight_decay: 0.0005
stepsize: 50000
snapshot: 0
snapshot_prefix: "zf_faster_rcnn"
average_loss: 100
iter_size: 2
I0409 21:47:43.681434 21587 solver.cpp:81] Creating training net from train_net file: models/full1_D2/original.pt
I0409 21:47:43.685132 21587 net.cpp:58] Initializing net from parameters: 
name: "PVANET"
state {
  phase: TRAIN
}
layer {
  name: "input-data"
  type: "Python"
  top: "data"
  top: "im_info"
  top: "gt_boxes"
  python_param {
    module: "roi_data_layer.layer"
    layer: "RoIDataLayer"
    param_str: "\'num_classes\': 2"
  }
}
layer {
  name: "conv1_1/conv"
  type: "Convolution"
  bottom: "data"
  top: "conv1_1/conv"
  param {
    lr_mult: 0.1
    decay_mult: 0.1
  }
  convolution_param {
    num_output: 16
    bias_term: false
    weight_filler {
      type: "xavier"
    }
    pad_h: 3
    pad_w: 3
    kernel_h: 7
    kernel_w: 7
    stride_h: 2
    stride_w: 2
  }
}
layer {
  name: "conv1_1/bn"
  type: "BatchNorm"
  bottom: "conv1_1/conv"
  top: "conv1_1/conv"
  param {
    lr_mult: 0
    decay_mult: 0
  }
  param {
    lr_mult: 0
    decay_mult: 0
  }
  param {
    lr_mult: 0
    decay_mult: 0
  }
  batch_norm_param {
    use_global_stats: true
  }
}
layer {
  name: "conv1_1/neg"
  type: "Power"
  bottom: "conv1_1/conv"
  top: "conv1_1/neg"
  power_param {
    power: 1
    scale: -1
    shift: 0
  }
}
layer {
  name: "conv1_1/concat"
  type: "Concat"
  bottom: "conv1_1/conv"
  bottom: "conv1_1/neg"
  top: "conv1_1"
}
layer {
  name: "conv1_1/scale"
  type: "Scale"
  bottom: "conv1_1"
  top: "conv1_1"
  param {
    lr_mult: 0.1
    decay_mult: 0
  }
  param {
    lr_mult: 0.2
    decay_mult: 0
  }
  scale_param {
    bias_term: true
  }
}
layer {
  name: "conv1_1/relu"
  type: "ReLU"
  bottom: "conv1_1"
  top: "conv1_1"
}
layer {
  name: "pool1"
  type: "Pooling"
  bottom: "conv1_1"
  top: "pool1"
  pooling_param {
    pool: MAX
    kernel_size: 3
    stride: 2
    pad: 0
  }
}
layer {
  name: "conv2_1/1/conv"
  type: "Convolution"
  bottom: "pool1"
  top: "conv2_1/1"
  param {
    lr_mult: 0.1
    decay_mult: 0.1
  }
  convolution_param {
    num_output: 24
    bias_term: false
    weight_filler {
      type: "xavier"
    }
    pad_h: 0
    pad_w: 0
    kernel_h: 1
    kernel_w: 1
    stride_h: 1
    stride_w: 1
  }
}
layer {
  name: "conv2_1/1/bn"
  type: "BatchNorm"
  bottom: "conv2_1/1"
  top: "conv2_1/1"
  param {
    lr_mult: 0
    decay_mult: 0
  }
  param {
    lr_mult: 0
    decay_mult: 0
  }
  param {
    lr_mult: 0
    decay_mult: 0
  }
  batch_norm_param {
    use_global_stats: true
  }
}
layer {
  name: "conv2_1/1/bn_scale"
  type: "Scale"
  bottom: "conv2_1/1"
  top: "conv2_1/1"
  param {
    lr_mult: 0.1
    decay_mult: 0
  }
  param {
    lr_mult: 0.1
    decay_mult: 0
  }
  scale_param {
    bias_term: true
  }
}
layer {
  name: "conv2_1/1/relu"
  type: "ReLU"
  bottom: "conv2_1/1"
  top: "conv2_1/1"
}
layer {
  name: "conv2_1/2/conv"
  type: "Convolution"
  bottom: "conv2_1/1"
  top: "conv2_1/2/conv"
  param {
    lr_mult: 0.1
    decay_mult: 0.1
  }
  convolution_param {
    num_output: 24
    bias_term: false
    weight_filler {
      type: "xavier"
    }
    pad_h: 1
    pad_w: 1
    kernel_h: 3
    kernel_w: 3
    stride_h: 1
    stride_w: 1
  }
}
layer {
  name: "conv2_1/2/bn"
  type: "BatchNorm"
  bottom: "conv2_1/2/conv"
  top: "conv2_1/2/conv"
  param {
    lr_mult: 0
    decay_mult: 0
  }
  param {
    lr_mult: 0
    decay_mult: 0
  }
  param {
    lr_mult: 0
    decay_mult: 0
  }
  batch_norm_param {
    use_global_stats: true
  }
}
layer {
  name: "conv2_1/2/neg"
  type: "Power"
  bottom: "conv2_1/2/conv"
  top: "conv2_1/2/neg"
  power_param {
    power: 1
    scale: -1
    shift: 0
  }
}
layer {
  name: "conv2_1/2/concat"
  type: "Concat"
  bottom: "conv2_1/2/conv"
  bottom: "conv2_1/2/neg"
  top: "conv2_1/2"
}
layer {
  name: "conv2_1/2/scale"
  type: "Scale"
  bottom: "conv2_1/2"
  top: "conv2_1/2"
  param {
    lr_mult: 0.1
    decay_mult: 0
  }
  param {
    lr_mult: 0.2
    decay_mult: 0
  }
  scale_param {
    bias_term: true
  }
}
layer {
  name: "conv2_1/2/relu"
  type: "ReLU"
  bottom: "conv2_1/2"
  top: "conv2_1/2"
}
layer {
  name: "conv2_1/3/conv"
  type: "Convolution"
  bottom: "conv2_1/2"
  top: "conv2_1/3"
  param {
    lr_mult: 0.1
    decay_mult: 0.1
  }
  convolution_param {
    num_output: 64
    bias_term: false
    weight_filler {
      type: "xavier"
    }
    pad_h: 0
    pad_w: 0
    kernel_h: 1
    kernel_w: 1
    stride_h: 1
    stride_w: 1
  }
}
layer {
  name: "conv2_1/3/bn"
  type: "BatchNorm"
  bottom: "conv2_1/3"
  top: "conv2_1/3"
  param {
    lr_mult: 0
    decay_mult: 0
  }
  param {
    lr_mult: 0
    decay_mult: 0
  }
  param {
    lr_mult: 0
    decay_mult: 0
  }
  batch_norm_param {
    use_global_stats: true
  }
}
layer {
  name: "conv2_1/3/bn_scale"
  type: "Scale"
  bottom: "conv2_1/3"
  top: "conv2_1/3"
  param {
    lr_mult: 0.1
    decay_mult: 0
  }
  param {
    lr_mult: 0.1
    decay_mult: 0
  }
  scale_param {
    bias_term: true
  }
}
layer {
  name: "conv2_1/proj"
  type: "Convolution"
  bottom: "pool1"
  top: "conv2_1/proj"
  param {
    lr_mult: 0.1
    decay_mult: 0.1
  }
  param {
    lr_mult: 0.2
    decay_mult: 0
  }
  convolution_param {
    num_output: 64
    weight_filler {
      type: "xavier"
    }
    bias_filler {
      type: "constant"
      value: 0.1
    }
    pad_h: 0
    pad_w: 0
    kernel_h: 1
    kernel_w: 1
    stride_h: 1
    stride_w: 1
  }
}
layer {
  name: "conv2_1/proj_bn"
  type: "BatchNorm"
  bottom: "conv2_1/proj"
  top: "conv2_1/proj"
  param {
    lr_mult: 0
    decay_mult: 0
  }
  param {
    lr_mult: 0
    decay_mult: 0
  }
  param {
    lr_mult: 0
    decay_mult: 0
  }
  batch_norm_param {
    use_global_stats: true
  }
}
layer {
  name: "conv2_1/proj_bn_scale"
  type: "Scale"
  bottom: "conv2_1/proj"
  top: "conv2_1/proj"
  param {
    lr_mult: 0.1
    decay_mult: 0
  }
  param {
    lr_mult: 0.1
    decay_mult: 0
  }
  scale_param {
    bias_term: true
  }
}
layer {
  name: "conv2_1"
  type: "Eltwise"
  bottom: "conv2_1/3"
  bottom: "conv2_1/proj"
  top: "conv2_1"
  eltwise_param {
    operation: SUM
    coeff: 1
    coeff: 1
  }
}
layer {
  name: "conv2_2/1/conv"
  type: "Convolution"
  bottom: "conv2_1"
  top: "conv2_2/1"
  param {
    lr_mult: 0.1
    decay_mult: 0.1
  }
  convolution_param {
    num_output: 24
    bias_term: false
    weight_filler {
      type: "xavier"
    }
    pad_h: 0
    pad_w: 0
    kernel_h: 1
    kernel_w: 1
    stride_h: 1
    stride_w: 1
  }
}
layer {
  name: "conv2_2/1/bn"
  type: "BatchNorm"
  bottom: "conv2_2/1"
  top: "conv2_2/1"
  param {
    lr_mult: 0
    decay_mult: 0
  }
  param {
    lr_mult: 0
    decay_mult: 0
  }
  param {
    lr_mult: 0
    decay_mult: 0
  }
  batch_norm_param {
    use_global_stats: true
  }
}
layer {
  name: "conv2_2/1/bn_scale"
  type: "Scale"
  bottom: "conv2_2/1"
  top: "conv2_2/1"
  param {
    lr_mult: 0.1
    decay_mult: 0
  }
  param {
    lr_mult: 0.1
    decay_mult: 0
  }
  scale_param {
    bias_term: true
  }
}
layer {
  name: "conv2_2/1/relu"
  type: "ReLU"
  bottom: "conv2_2/1"
  top: "conv2_2/1"
}
layer {
  name: "conv2_2/2/conv"
  type: "Convolution"
  bottom: "conv2_2/1"
  top: "conv2_2/2/conv"
  param {
    lr_mult: 0.1
    decay_mult: 0.1
  }
  convolution_param {
    num_output: 24
    bias_term: false
    weight_filler {
      type: "xavier"
    }
    pad_h: 1
    pad_w: 1
    kernel_h: 3
    kernel_w: 3
    stride_h: 1
    stride_w: 1
  }
}
layer {
  name: "conv2_2/2/bn"
  type: "BatchNorm"
  bottom: "conv2_2/2/conv"
  top: "conv2_2/2/conv"
  param {
    lr_mult: 0
    decay_mult: 0
  }
  param {
    lr_mult: 0
    decay_mult: 0
  }
  param {
    lr_mult: 0
    decay_mult: 0
  }
  batch_norm_param {
    use_global_stats: true
  }
}
layer {
  name: "conv2_2/2/neg"
  type: "Power"
  bottom: "conv2_2/2/conv"
  top: "conv2_2/2/neg"
  power_param {
    power: 1
    scale: -1
    shift: 0
  }
}
layer {
  name: "conv2_2/2/concat"
  type: "Concat"
  bottom: "conv2_2/2/conv"
  bottom: "conv2_2/2/neg"
  top: "conv2_2/2"
}
layer {
  name: "conv2_2/2/scale"
  type: "Scale"
  bottom: "conv2_2/2"
  top: "conv2_2/2"
  param {
    lr_mult: 0.1
    decay_mult: 0
  }
  param {
    lr_mult: 0.2
    decay_mult: 0
  }
  scale_param {
    bias_term: true
  }
}
layer {
  name: "conv2_2/2/relu"
  type: "ReLU"
  bottom: "conv2_2/2"
  top: "conv2_2/2"
}
layer {
  name: "conv2_2/3/conv"
  type: "Convolution"
  bottom: "conv2_2/2"
  top: "conv2_2/3"
  param {
    lr_mult: 0.1
    decay_mult: 0.1
  }
  convolution_param {
    num_output: 64
    bias_term: false
    weight_filler {
      type: "xavier"
    }
    pad_h: 0
    pad_w: 0
    kernel_h: 1
    kernel_w: 1
    stride_h: 1
    stride_w: 1
  }
}
layer {
  name: "conv2_2/3/bn"
  type: "BatchNorm"
  bottom: "conv2_2/3"
  top: "conv2_2/3"
  param {
    lr_mult: 0
    decay_mult: 0
  }
  param {
    lr_mult: 0
    decay_mult: 0
  }
  param {
    lr_mult: 0
    decay_mult: 0
  }
  batch_norm_param {
    use_global_stats: true
  }
}
layer {
  name: "conv2_2/3/bn_scale"
  type: "Scale"
  bottom: "conv2_2/3"
  top: "conv2_2/3"
  param {
    lr_mult: 0.1
    decay_mult: 0
  }
  param {
    lr_mult: 0.1
    decay_mult: 0
  }
  scale_param {
    bias_term: true
  }
}
layer {
  name: "conv2_2/input"
  type: "Power"
  bottom: "conv2_1"
  top: "conv2_2/input"
  power_param {
    power: 1
    scale: 1
    shift: 0
  }
}
layer {
  name: "conv2_2"
  type: "Eltwise"
  bottom: "conv2_2/3"
  bottom: "conv2_2/input"
  top: "conv2_2"
  eltwise_param {
    operation: SUM
    coeff: 1
    coeff: 1
  }
}
layer {
  name: "conv2_3/1/conv"
  type: "Convolution"
  bottom: "conv2_2"
  top: "conv2_3/1"
  param {
    lr_mult: 0.1
    decay_mult: 0.1
  }
  convolution_param {
    num_output: 24
    bias_term: false
    weight_filler {
      type: "xavier"
    }
    pad_h: 0
    pad_w: 0
    kernel_h: 1
    kernel_w: 1
    stride_h: 1
    stride_w: 1
  }
}
layer {
  name: "conv2_3/1/bn"
  type: "BatchNorm"
  bottom: "conv2_3/1"
  top: "conv2_3/1"
  param {
    lr_mult: 0
    decay_mult: 0
  }
  param {
    lr_mult: 0
    decay_mult: 0
  }
  param {
    lr_mult: 0
    decay_mult: 0
  }
  batch_norm_param {
    use_global_stats: true
  }
}
layer {
  name: "conv2_3/1/bn_scale"
  type: "Scale"
  bottom: "conv2_3/1"
  top: "conv2_3/1"
  param {
    lr_mult: 0.1
    decay_mult: 0
  }
  param {
    lr_mult: 0.1
    decay_mult: 0
  }
  scale_param {
    bias_term: true
  }
}
layer {
  name: "conv2_3/1/relu"
  type: "ReLU"
  bottom: "conv2_3/1"
  top: "conv2_3/1"
}
layer {
  name: "conv2_3/2/conv"
  type: "Convolution"
  bottom: "conv2_3/1"
  top: "conv2_3/2/conv"
  param {
    lr_mult: 0.1
    decay_mult: 0.1
  }
  convolution_param {
    num_output: 24
    bias_term: false
    weight_filler {
      type: "xavier"
    }
    pad_h: 1
    pad_w: 1
    kernel_h: 3
    kernel_w: 3
    stride_h: 1
    stride_w: 1
  }
}
layer {
  name: "conv2_3/2/bn"
  type: "BatchNorm"
  bottom: "conv2_3/2/conv"
  top: "conv2_3/2/conv"
  param {
    lr_mult: 0
    decay_mult: 0
  }
  param {
    lr_mult: 0
    decay_mult: 0
  }
  param {
    lr_mult: 0
    decay_mult: 0
  }
  batch_norm_param {
    use_global_stats: true
  }
}
layer {
  name: "conv2_3/2/neg"
  type: "Power"
  bottom: "conv2_3/2/conv"
  top: "conv2_3/2/neg"
  power_param {
    power: 1
    scale: -1
    shift: 0
  }
}
layer {
  name: "conv2_3/2/concat"
  type: "Concat"
  bottom: "conv2_3/2/conv"
  bottom: "conv2_3/2/neg"
  top: "conv2_3/2"
}
layer {
  name: "conv2_3/2/scale"
  type: "Scale"
  bottom: "conv2_3/2"
  top: "conv2_3/2"
  param {
    lr_mult: 0.1
    decay_mult: 0
  }
  param {
    lr_mult: 0.2
    decay_mult: 0
  }
  scale_param {
    bias_term: true
  }
}
layer {
  name: "conv2_3/2/relu"
  type: "ReLU"
  bottom: "conv2_3/2"
  top: "conv2_3/2"
}
layer {
  name: "conv2_3/3/conv"
  type: "Convolution"
  bottom: "conv2_3/2"
  top: "conv2_3/3"
  param {
    lr_mult: 0.1
    decay_mult: 0.1
  }
  convolution_param {
    num_output: 64
    bias_term: false
    weight_filler {
      type: "xavier"
    }
    pad_h: 0
    pad_w: 0
    kernel_h: 1
    kernel_w: 1
    stride_h: 1
    stride_w: 1
  }
}
layer {
  name: "conv2_3/3/bn"
  type: "BatchNorm"
  bottom: "conv2_3/3"
  top: "conv2_3/3"
  param {
    lr_mult: 0
    decay_mult: 0
  }
  param {
    lr_mult: 0
    decay_mult: 0
  }
  param {
    lr_mult: 0
    decay_mult: 0
  }
  batch_norm_param {
    use_global_stats: true
  }
}
layer {
  name: "conv2_3/3/bn_scale"
  type: "Scale"
  bottom: "conv2_3/3"
  top: "conv2_3/3"
  param {
    lr_mult: 0.1
    decay_mult: 0
  }
  param {
    lr_mult: 0.1
    decay_mult: 0
  }
  scale_param {
    bias_term: true
  }
}
layer {
  name: "conv2_3/input"
  type: "Power"
  bottom: "conv2_2"
  top: "conv2_3/input"
  power_param {
    power: 1
    scale: 1
    shift: 0
  }
}
layer {
  name: "conv2_3"
  type: "Eltwise"
  bottom: "conv2_3/3"
  bottom: "conv2_3/input"
  top: "conv2_3"
  eltwise_param {
    operation: SUM
    coeff: 1
    coeff: 1
  }
}
layer {
  name: "conv3_1/1/conv"
  type: "Convolution"
  bottom: "conv2_3"
  top: "conv3_1/1"
  param {
    lr_mult: 0.1
    decay_mult: 0.1
  }
  convolution_param {
    num_output: 48
    bias_term: false
    weight_filler {
      type: "xavier"
    }
    pad_h: 0
    pad_w: 0
    kernel_h: 1
    kernel_w: 1
    stride_h: 2
    stride_w: 2
  }
}
layer {
  name: "conv3_1/1/bn"
  type: "BatchNorm"
  bottom: "conv3_1/1"
  top: "conv3_1/1"
  param {
    lr_mult: 0
    decay_mult: 0
  }
  param {
    lr_mult: 0
    decay_mult: 0
  }
  param {
    lr_mult: 0
    decay_mult: 0
  }
  batch_norm_param {
    use_global_stats: true
  }
}
layer {
  name: "conv3_1/1/bn_scale"
  type: "Scale"
  bottom: "conv3_1/1"
  top: "conv3_1/1"
  param {
    lr_mult: 0.1
    decay_mult: 0
  }
  param {
    lr_mult: 0.1
    decay_mult: 0
  }
  scale_param {
    bias_term: true
  }
}
layer {
  name: "conv3_1/1/relu"
  type: "ReLU"
  bottom: "conv3_1/1"
  top: "conv3_1/1"
}
layer {
  name: "conv3_1/2/conv"
  type: "Convolution"
  bottom: "conv3_1/1"
  top: "conv3_1/2/conv"
  param {
    lr_mult: 0.1
    decay_mult: 0.1
  }
  convolution_param {
    num_output: 48
    bias_term: false
    weight_filler {
      type: "xavier"
    }
    pad_h: 1
    pad_w: 1
    kernel_h: 3
    kernel_w: 3
    stride_h: 1
    stride_w: 1
  }
}
layer {
  name: "conv3_1/2/bn"
  type: "BatchNorm"
  bottom: "conv3_1/2/conv"
  top: "conv3_1/2/conv"
  param {
    lr_mult: 0
    decay_mult: 0
  }
  param {
    lr_mult: 0
    decay_mult: 0
  }
  param {
    lr_mult: 0
    decay_mult: 0
  }
  batch_norm_param {
    use_global_stats: true
  }
}
layer {
  name: "conv3_1/2/neg"
  type: "Power"
  bottom: "conv3_1/2/conv"
  top: "conv3_1/2/neg"
  power_param {
    power: 1
    scale: -1
    shift: 0
  }
}
layer {
  name: "conv3_1/2/concat"
  type: "Concat"
  bottom: "conv3_1/2/conv"
  bottom: "conv3_1/2/neg"
  top: "conv3_1/2"
}
layer {
  name: "conv3_1/2/scale"
  type: "Scale"
  bottom: "conv3_1/2"
  top: "conv3_1/2"
  param {
    lr_mult: 0.1
    decay_mult: 0
  }
  param {
    lr_mult: 0.2
    decay_mult: 0
  }
  scale_param {
    bias_term: true
  }
}
layer {
  name: "conv3_1/2/relu"
  type: "ReLU"
  bottom: "conv3_1/2"
  top: "conv3_1/2"
}
layer {
  name: "conv3_1/3/conv"
  type: "Convolution"
  bottom: "conv3_1/2"
  top: "conv3_1/3"
  param {
    lr_mult: 0.1
    decay_mult: 0.1
  }
  convolution_param {
    num_output: 128
    bias_term: false
    weight_filler {
      type: "xavier"
    }
    pad_h: 0
    pad_w: 0
    kernel_h: 1
    kernel_w: 1
    stride_h: 1
    stride_w: 1
  }
}
layer {
  name: "conv3_1/3/bn"
  type: "BatchNorm"
  bottom: "conv3_1/3"
  top: "conv3_1/3"
  param {
    lr_mult: 0
    decay_mult: 0
  }
  param {
    lr_mult: 0
    decay_mult: 0
  }
  param {
    lr_mult: 0
    decay_mult: 0
  }
  batch_norm_param {
    use_global_stats: true
  }
}
layer {
  name: "conv3_1/3/bn_scale"
  type: "Scale"
  bottom: "conv3_1/3"
  top: "conv3_1/3"
  param {
    lr_mult: 0.1
    decay_mult: 0
  }
  param {
    lr_mult: 0.1
    decay_mult: 0
  }
  scale_param {
    bias_term: true
  }
}
layer {
  name: "conv3_1/proj"
  type: "Convolution"
  bottom: "conv2_3"
  top: "conv3_1/proj"
  param {
    lr_mult: 0.1
    decay_mult: 0.1
  }
  param {
    lr_mult: 0.2
    decay_mult: 0
  }
  convolution_param {
    num_output: 128
    weight_filler {
      type: "xavier"
    }
    bias_filler {
      type: "constant"
      value: 0.1
    }
    pad_h: 0
    pad_w: 0
    kernel_h: 1
    kernel_w: 1
    stride_h: 2
    stride_w: 2
  }
}
layer {
  name: "conv3_1/proj_bn"
  type: "BatchNorm"
  bottom: "conv3_1/proj"
  top: "conv3_1/proj"
  param {
    lr_mult: 0
    decay_mult: 0
  }
  param {
    lr_mult: 0
    decay_mult: 0
  }
  param {
    lr_mult: 0
    decay_mult: 0
  }
  batch_norm_param {
    use_global_stats: true
  }
}
layer {
  name: "conv3_1/proj_bn_scale"
  type: "Scale"
  bottom: "conv3_1/proj"
  top: "conv3_1/proj"
  param {
    lr_mult: 0.1
    decay_mult: 0
  }
  param {
    lr_mult: 0.1
    decay_mult: 0
  }
  scale_param {
    bias_term: true
  }
}
layer {
  name: "conv3_1"
  type: "Eltwise"
  bottom: "conv3_1/3"
  bottom: "conv3_1/proj"
  top: "conv3_1"
  eltwise_param {
    operation: SUM
    coeff: 1
    coeff: 1
  }
}
layer {
  name: "conv3_2/1/conv"
  type: "Convolution"
  bottom: "conv3_1"
  top: "conv3_2/1"
  param {
    lr_mult: 0.1
    decay_mult: 0.1
  }
  convolution_param {
    num_output: 48
    bias_term: false
    weight_filler {
      type: "xavier"
    }
    pad_h: 0
    pad_w: 0
    kernel_h: 1
    kernel_w: 1
    stride_h: 1
    stride_w: 1
  }
}
layer {
  name: "conv3_2/1/bn"
  type: "BatchNorm"
  bottom: "conv3_2/1"
  top: "conv3_2/1"
  param {
    lr_mult: 0
    decay_mult: 0
  }
  param {
    lr_mult: 0
    decay_mult: 0
  }
  param {
    lr_mult: 0
    decay_mult: 0
  }
  batch_norm_param {
    use_global_stats: true
  }
}
layer {
  name: "conv3_2/1/bn_scale"
  type: "Scale"
  bottom: "conv3_2/1"
  top: "conv3_2/1"
  param {
    lr_mult: 0.1
    decay_mult: 0
  }
  param {
    lr_mult: 0.1
    decay_mult: 0
  }
  scale_param {
    bias_term: true
  }
}
layer {
  name: "conv3_2/1/relu"
  type: "ReLU"
  bottom: "conv3_2/1"
  top: "conv3_2/1"
}
layer {
  name: "conv3_2/2/conv"
  type: "Convolution"
  bottom: "conv3_2/1"
  top: "conv3_2/2/conv"
  param {
    lr_mult: 0.1
    decay_mult: 0.1
  }
  convolution_param {
    num_output: 48
    bias_term: false
    weight_filler {
      type: "xavier"
    }
    pad_h: 1
    pad_w: 1
    kernel_h: 3
    kernel_w: 3
    stride_h: 1
    stride_w: 1
  }
}
layer {
  name: "conv3_2/2/bn"
  type: "BatchNorm"
  bottom: "conv3_2/2/conv"
  top: "conv3_2/2/conv"
  param {
    lr_mult: 0
    decay_mult: 0
  }
  param {
    lr_mult: 0
    decay_mult: 0
  }
  param {
    lr_mult: 0
    decay_mult: 0
  }
  batch_norm_param {
    use_global_stats: true
  }
}
layer {
  name: "conv3_2/2/neg"
  type: "Power"
  bottom: "conv3_2/2/conv"
  top: "conv3_2/2/neg"
  power_param {
    power: 1
    scale: -1
    shift: 0
  }
}
layer {
  name: "conv3_2/2/concat"
  type: "Concat"
  bottom: "conv3_2/2/conv"
  bottom: "conv3_2/2/neg"
  top: "conv3_2/2"
}
layer {
  name: "conv3_2/2/scale"
  type: "Scale"
  bottom: "conv3_2/2"
  top: "conv3_2/2"
  param {
    lr_mult: 0.1
    decay_mult: 0
  }
  param {
    lr_mult: 0.2
    decay_mult: 0
  }
  scale_param {
    bias_term: true
  }
}
layer {
  name: "conv3_2/2/relu"
  type: "ReLU"
  bottom: "conv3_2/2"
  top: "conv3_2/2"
}
layer {
  name: "conv3_2/3/conv"
  type: "Convolution"
  bottom: "conv3_2/2"
  top: "conv3_2/3"
  param {
    lr_mult: 0.1
    decay_mult: 0.1
  }
  convolution_param {
    num_output: 128
    bias_term: false
    weight_filler {
      type: "xavier"
    }
    pad_h: 0
    pad_w: 0
    kernel_h: 1
    kernel_w: 1
    stride_h: 1
    stride_w: 1
  }
}
layer {
  name: "conv3_2/3/bn"
  type: "BatchNorm"
  bottom: "conv3_2/3"
  top: "conv3_2/3"
  param {
    lr_mult: 0
    decay_mult: 0
  }
  param {
    lr_mult: 0
    decay_mult: 0
  }
  param {
    lr_mult: 0
    decay_mult: 0
  }
  batch_norm_param {
    use_global_stats: true
  }
}
layer {
  name: "conv3_2/3/bn_scale"
  type: "Scale"
  bottom: "conv3_2/3"
  top: "conv3_2/3"
  param {
    lr_mult: 0.1
    decay_mult: 0
  }
  param {
    lr_mult: 0.1
    decay_mult: 0
  }
  scale_param {
    bias_term: true
  }
}
layer {
  name: "conv3_2/input"
  type: "Power"
  bottom: "conv3_1"
  top: "conv3_2/input"
  power_param {
    power: 1
    scale: 1
    shift: 0
  }
}
layer {
  name: "conv3_2"
  type: "Eltwise"
  bottom: "conv3_2/3"
  bottom: "conv3_2/input"
  top: "conv3_2"
  eltwise_param {
    operation: SUM
    coeff: 1
    coeff: 1
  }
}
layer {
  name: "conv3_3/1/conv"
  type: "Convolution"
  bottom: "conv3_2"
  top: "conv3_3/1"
  param {
    lr_mult: 0.1
    decay_mult: 0.1
  }
  convolution_param {
    num_output: 48
    bias_term: false
    weight_filler {
      type: "xavier"
    }
    pad_h: 0
    pad_w: 0
    kernel_h: 1
    kernel_w: 1
    stride_h: 1
    stride_w: 1
  }
}
layer {
  name: "conv3_3/1/bn"
  type: "BatchNorm"
  bottom: "conv3_3/1"
  top: "conv3_3/1"
  param {
    lr_mult: 0
    decay_mult: 0
  }
  param {
    lr_mult: 0
    decay_mult: 0
  }
  param {
    lr_mult: 0
    decay_mult: 0
  }
  batch_norm_param {
    use_global_stats: true
  }
}
layer {
  name: "conv3_3/1/bn_scale"
  type: "Scale"
  bottom: "conv3_3/1"
  top: "conv3_3/1"
  param {
    lr_mult: 0.1
    decay_mult: 0
  }
  param {
    lr_mult: 0.1
    decay_mult: 0
  }
  scale_param {
    bias_term: true
  }
}
layer {
  name: "conv3_3/1/relu"
  type: "ReLU"
  bottom: "conv3_3/1"
  top: "conv3_3/1"
}
layer {
  name: "conv3_3/2/conv"
  type: "Convolution"
  bottom: "conv3_3/1"
  top: "conv3_3/2/conv"
  param {
    lr_mult: 0.1
    decay_mult: 0.1
  }
  convolution_param {
    num_output: 48
    bias_term: false
    weight_filler {
      type: "xavier"
    }
    pad_h: 1
    pad_w: 1
    kernel_h: 3
    kernel_w: 3
    stride_h: 1
    stride_w: 1
  }
}
layer {
  name: "conv3_3/2/bn"
  type: "BatchNorm"
  bottom: "conv3_3/2/conv"
  top: "conv3_3/2/conv"
  param {
    lr_mult: 0
    decay_mult: 0
  }
  param {
    lr_mult: 0
    decay_mult: 0
  }
  param {
    lr_mult: 0
    decay_mult: 0
  }
  batch_norm_param {
    use_global_stats: true
  }
}
layer {
  name: "conv3_3/2/neg"
  type: "Power"
  bottom: "conv3_3/2/conv"
  top: "conv3_3/2/neg"
  power_param {
    power: 1
    scale: -1
    shift: 0
  }
}
layer {
  name: "conv3_3/2/concat"
  type: "Concat"
  bottom: "conv3_3/2/conv"
  bottom: "conv3_3/2/neg"
  top: "conv3_3/2"
}
layer {
  name: "conv3_3/2/scale"
  type: "Scale"
  bottom: "conv3_3/2"
  top: "conv3_3/2"
  param {
    lr_mult: 0.1
    decay_mult: 0
  }
  param {
    lr_mult: 0.2
    decay_mult: 0
  }
  scale_param {
    bias_term: true
  }
}
layer {
  name: "conv3_3/2/relu"
  type: "ReLU"
  bottom: "conv3_3/2"
  top: "conv3_3/2"
}
layer {
  name: "conv3_3/3/conv"
  type: "Convolution"
  bottom: "conv3_3/2"
  top: "conv3_3/3"
  param {
    lr_mult: 0.1
    decay_mult: 0.1
  }
  convolution_param {
    num_output: 128
    bias_term: false
    weight_filler {
      type: "xavier"
    }
    pad_h: 0
    pad_w: 0
    kernel_h: 1
    kernel_w: 1
    stride_h: 1
    stride_w: 1
  }
}
layer {
  name: "conv3_3/3/bn"
  type: "BatchNorm"
  bottom: "conv3_3/3"
  top: "conv3_3/3"
  param {
    lr_mult: 0
    decay_mult: 0
  }
  param {
    lr_mult: 0
    decay_mult: 0
  }
  param {
    lr_mult: 0
    decay_mult: 0
  }
  batch_norm_param {
    use_global_stats: true
  }
}
layer {
  name: "conv3_3/3/bn_scale"
  type: "Scale"
  bottom: "conv3_3/3"
  top: "conv3_3/3"
  param {
    lr_mult: 0.1
    decay_mult: 0
  }
  param {
    lr_mult: 0.1
    decay_mult: 0
  }
  scale_param {
    bias_term: true
  }
}
layer {
  name: "conv3_3/input"
  type: "Power"
  bottom: "conv3_2"
  top: "conv3_3/input"
  power_param {
    power: 1
    scale: 1
    shift: 0
  }
}
layer {
  name: "conv3_3"
  type: "Eltwise"
  bottom: "conv3_3/3"
  bottom: "conv3_3/input"
  top: "conv3_3"
  eltwise_param {
    operation: SUM
    coeff: 1
    coeff: 1
  }
}
layer {
  name: "conv3_4/1/conv"
  type: "Convolution"
  bottom: "conv3_3"
  top: "conv3_4/1"
  param {
    lr_mult: 0.1
    decay_mult: 0.1
  }
  convolution_param {
    num_output: 48
    bias_term: false
    weight_filler {
      type: "xavier"
    }
    pad_h: 0
    pad_w: 0
    kernel_h: 1
    kernel_w: 1
    stride_h: 1
    stride_w: 1
  }
}
layer {
  name: "conv3_4/1/bn"
  type: "BatchNorm"
  bottom: "conv3_4/1"
  top: "conv3_4/1"
  param {
    lr_mult: 0
    decay_mult: 0
  }
  param {
    lr_mult: 0
    decay_mult: 0
  }
  param {
    lr_mult: 0
    decay_mult: 0
  }
  batch_norm_param {
    use_global_stats: true
  }
}
layer {
  name: "conv3_4/1/bn_scale"
  type: "Scale"
  bottom: "conv3_4/1"
  top: "conv3_4/1"
  param {
    lr_mult: 0.1
    decay_mult: 0
  }
  param {
    lr_mult: 0.1
    decay_mult: 0
  }
  scale_param {
    bias_term: true
  }
}
layer {
  name: "conv3_4/1/relu"
  type: "ReLU"
  bottom: "conv3_4/1"
  top: "conv3_4/1"
}
layer {
  name: "conv3_4/2/conv"
  type: "Convolution"
  bottom: "conv3_4/1"
  top: "conv3_4/2/conv"
  param {
    lr_mult: 0.1
    decay_mult: 0.1
  }
  convolution_param {
    num_output: 48
    bias_term: false
    weight_filler {
      type: "xavier"
    }
    pad_h: 1
    pad_w: 1
    kernel_h: 3
    kernel_w: 3
    stride_h: 1
    stride_w: 1
  }
}
layer {
  name: "conv3_4/2/bn"
  type: "BatchNorm"
  bottom: "conv3_4/2/conv"
  top: "conv3_4/2/conv"
  param {
    lr_mult: 0
    decay_mult: 0
  }
  param {
    lr_mult: 0
    decay_mult: 0
  }
  param {
    lr_mult: 0
    decay_mult: 0
  }
  batch_norm_param {
    use_global_stats: true
  }
}
layer {
  name: "conv3_4/2/neg"
  type: "Power"
  bottom: "conv3_4/2/conv"
  top: "conv3_4/2/neg"
  power_param {
    power: 1
    scale: -1
    shift: 0
  }
}
layer {
  name: "conv3_4/2/concat"
  type: "Concat"
  bottom: "conv3_4/2/conv"
  bottom: "conv3_4/2/neg"
  top: "conv3_4/2"
}
layer {
  name: "conv3_4/2/scale"
  type: "Scale"
  bottom: "conv3_4/2"
  top: "conv3_4/2"
  param {
    lr_mult: 0.1
    decay_mult: 0
  }
  param {
    lr_mult: 0.2
    decay_mult: 0
  }
  scale_param {
    bias_term: true
  }
}
layer {
  name: "conv3_4/2/relu"
  type: "ReLU"
  bottom: "conv3_4/2"
  top: "conv3_4/2"
}
layer {
  name: "conv3_4/3/conv"
  type: "Convolution"
  bottom: "conv3_4/2"
  top: "conv3_4/3"
  param {
    lr_mult: 0.1
    decay_mult: 0.1
  }
  convolution_param {
    num_output: 128
    bias_term: false
    weight_filler {
      type: "xavier"
    }
    pad_h: 0
    pad_w: 0
    kernel_h: 1
    kernel_w: 1
    stride_h: 1
    stride_w: 1
  }
}
layer {
  name: "conv3_4/3/bn"
  type: "BatchNorm"
  bottom: "conv3_4/3"
  top: "conv3_4/3"
  param {
    lr_mult: 0
    decay_mult: 0
  }
  param {
    lr_mult: 0
    decay_mult: 0
  }
  param {
    lr_mult: 0
    decay_mult: 0
  }
  batch_norm_param {
    use_global_stats: true
  }
}
layer {
  name: "conv3_4/3/bn_scale"
  type: "Scale"
  bottom: "conv3_4/3"
  top: "conv3_4/3"
  param {
    lr_mult: 0.1
    decay_mult: 0
  }
  param {
    lr_mult: 0.1
    decay_mult: 0
  }
  scale_param {
    bias_term: true
  }
}
layer {
  name: "conv3_4/input"
  type: "Power"
  bottom: "conv3_3"
  top: "conv3_4/input"
  power_param {
    power: 1
    scale: 1
    shift: 0
  }
}
layer {
  name: "conv3_4"
  type: "Eltwise"
  bottom: "conv3_4/3"
  bottom: "conv3_4/input"
  top: "conv3_4"
  eltwise_param {
    operation: SUM
    coeff: 1
    coeff: 1
  }
}
layer {
  name: "conv4_1/incep/0/conv"
  type: "Convolution"
  bottom: "conv3_4"
  top: "conv4_1/incep/0"
  param {
    lr_mult: 0.1
    decay_mult: 0.1
  }
  convolution_param {
    num_output: 64
    bias_term: false
    weight_filler {
      type: "xavier"
    }
    pad_h: 0
    pad_w: 0
    kernel_h: 1
    kernel_w: 1
    stride_h: 2
    stride_w: 2
  }
}
layer {
  name: "conv4_1/incep/0/bn"
  type: "BatchNorm"
  bottom: "conv4_1/incep/0"
  top: "conv4_1/incep/0"
  param {
    lr_mult: 0
    decay_mult: 0
  }
  param {
    lr_mult: 0
    decay_mult: 0
  }
  param {
    lr_mult: 0
    decay_mult: 0
  }
  batch_norm_param {
    use_global_stats: true
  }
}
layer {
  name: "conv4_1/incep/0/bn_scale"
  type: "Scale"
  bottom: "conv4_1/incep/0"
  top: "conv4_1/incep/0"
  param {
    lr_mult: 0.1
    decay_mult: 0
  }
  param {
    lr_mult: 0.1
    decay_mult: 0
  }
  scale_param {
    bias_term: true
  }
}
layer {
  name: "conv4_1/incep/0/relu"
  type: "ReLU"
  bottom: "conv4_1/incep/0"
  top: "conv4_1/incep/0"
}
layer {
  name: "conv4_1/incep/1_reduce/conv"
  type: "Convolution"
  bottom: "conv3_4"
  top: "conv4_1/incep/1_reduce"
  param {
    lr_mult: 0.1
    decay_mult: 0.1
  }
  convolution_param {
    num_output: 48
    bias_term: false
    weight_filler {
      type: "xavier"
    }
    pad_h: 0
    pad_w: 0
    kernel_h: 1
    kernel_w: 1
    stride_h: 2
    stride_w: 2
  }
}
layer {
  name: "conv4_1/incep/1_reduce/bn"
  type: "BatchNorm"
  bottom: "conv4_1/incep/1_reduce"
  top: "conv4_1/incep/1_reduce"
  param {
    lr_mult: 0
    decay_mult: 0
  }
  param {
    lr_mult: 0
    decay_mult: 0
  }
  param {
    lr_mult: 0
    decay_mult: 0
  }
  batch_norm_param {
    use_global_stats: true
  }
}
layer {
  name: "conv4_1/incep/1_reduce/bn_scale"
  type: "Scale"
  bottom: "conv4_1/incep/1_reduce"
  top: "conv4_1/incep/1_reduce"
  param {
    lr_mult: 0.1
    decay_mult: 0
  }
  param {
    lr_mult: 0.1
    decay_mult: 0
  }
  scale_param {
    bias_term: true
  }
}
layer {
  name: "conv4_1/incep/1_reduce/relu"
  type: "ReLU"
  bottom: "conv4_1/incep/1_reduce"
  top: "conv4_1/incep/1_reduce"
}
layer {
  name: "conv4_1/incep/1_0/conv"
  type: "Convolution"
  bottom: "conv4_1/incep/1_reduce"
  top: "conv4_1/incep/1_0"
  param {
    lr_mult: 0.1
    decay_mult: 0.1
  }
  convolution_param {
    num_output: 128
    bias_term: false
    weight_filler {
      type: "xavier"
    }
    pad_h: 1
    pad_w: 1
    kernel_h: 3
    kernel_w: 3
    stride_h: 1
    stride_w: 1
  }
}
layer {
  name: "conv4_1/incep/1_0/bn"
  type: "BatchNorm"
  bottom: "conv4_1/incep/1_0"
  top: "conv4_1/incep/1_0"
  param {
I0409 21:47:43.686216 21587 layer_factory.hpp:77] Creating layer input-data
I0409 21:47:43.692391 21587 net.cpp:100] Creating Layer input-data
I0409 21:47:43.692414 21587 net.cpp:408] input-data -> data
I0409 21:47:43.692421 21587 net.cpp:408] input-data -> im_info
I0409 21:47:43.692426 21587 net.cpp:408] input-data -> gt_boxes
I0409 21:47:43.699486 21587 net.cpp:150] Setting up input-data
I0409 21:47:43.699512 21587 net.cpp:157] Top shape: 1 3 864 1440 (3732480)
I0409 21:47:43.699514 21587 net.cpp:157] Top shape: 1 3 (3)
I0409 21:47:43.699517 21587 net.cpp:157] Top shape: 1 4 (4)
I0409 21:47:43.699519 21587 net.cpp:165] Memory required for data: 14929948
I0409 21:47:43.699523 21587 layer_factory.hpp:77] Creating layer data_input-data_0_split
I0409 21:47:43.699532 21587 net.cpp:100] Creating Layer data_input-data_0_split
I0409 21:47:43.699535 21587 net.cpp:434] data_input-data_0_split <- data
I0409 21:47:43.699542 21587 net.cpp:408] data_input-data_0_split -> data_input-data_0_split_0
I0409 21:47:43.699548 21587 net.cpp:408] data_input-data_0_split -> data_input-data_0_split_1
I0409 21:47:43.699571 21587 net.cpp:150] Setting up data_input-data_0_split
I0409 21:47:43.699575 21587 net.cpp:157] Top shape: 1 3 864 1440 (3732480)
I0409 21:47:43.699579 21587 net.cpp:157] Top shape: 1 3 864 1440 (3732480)
I0409 21:47:43.699580 21587 net.cpp:165] Memory required for data: 44789788
I0409 21:47:43.699582 21587 layer_factory.hpp:77] Creating layer im_info_input-data_1_split
I0409 21:47:43.699587 21587 net.cpp:100] Creating Layer im_info_input-data_1_split
I0409 21:47:43.699589 21587 net.cpp:434] im_info_input-data_1_split <- im_info
I0409 21:47:43.699594 21587 net.cpp:408] im_info_input-data_1_split -> im_info_input-data_1_split_0
I0409 21:47:43.699597 21587 net.cpp:408] im_info_input-data_1_split -> im_info_input-data_1_split_1
I0409 21:47:43.699616 21587 net.cpp:150] Setting up im_info_input-data_1_split
I0409 21:47:43.699620 21587 net.cpp:157] Top shape: 1 3 (3)
I0409 21:47:43.699621 21587 net.cpp:157] Top shape: 1 3 (3)
I0409 21:47:43.699623 21587 net.cpp:165] Memory required for data: 44789812
I0409 21:47:43.699625 21587 layer_factory.hpp:77] Creating layer gt_boxes_input-data_2_split
I0409 21:47:43.699630 21587 net.cpp:100] Creating Layer gt_boxes_input-data_2_split
I0409 21:47:43.699637 21587 net.cpp:434] gt_boxes_input-data_2_split <- gt_boxes
I0409 21:47:43.699641 21587 net.cpp:408] gt_boxes_input-data_2_split -> gt_boxes_input-data_2_split_0
I0409 21:47:43.699645 21587 net.cpp:408] gt_boxes_input-data_2_split -> gt_boxes_input-data_2_split_1
I0409 21:47:43.699666 21587 net.cpp:150] Setting up gt_boxes_input-data_2_split
I0409 21:47:43.699669 21587 net.cpp:157] Top shape: 1 4 (4)
I0409 21:47:43.699671 21587 net.cpp:157] Top shape: 1 4 (4)
I0409 21:47:43.699673 21587 net.cpp:165] Memory required for data: 44789844
I0409 21:47:43.699676 21587 layer_factory.hpp:77] Creating layer conv1_1/conv
I0409 21:47:43.699684 21587 net.cpp:100] Creating Layer conv1_1/conv
I0409 21:47:43.699687 21587 net.cpp:434] conv1_1/conv <- data_input-data_0_split_0
I0409 21:47:43.699692 21587 net.cpp:408] conv1_1/conv -> conv1_1/conv
I0409 21:47:43.812667 21587 net.cpp:150] Setting up conv1_1/conv
I0409 21:47:43.812696 21587 net.cpp:157] Top shape: 1 16 432 720 (4976640)
I0409 21:47:43.812698 21587 net.cpp:165] Memory required for data: 64696404
I0409 21:47:43.812710 21587 layer_factory.hpp:77] Creating layer conv1_1/bn
I0409 21:47:43.812718 21587 net.cpp:100] Creating Layer conv1_1/bn
I0409 21:47:43.812722 21587 net.cpp:434] conv1_1/bn <- conv1_1/conv
I0409 21:47:43.812727 21587 net.cpp:395] conv1_1/bn -> conv1_1/conv (in-place)
I0409 21:47:43.813271 21587 net.cpp:150] Setting up conv1_1/bn
I0409 21:47:43.813278 21587 net.cpp:157] Top shape: 1 16 432 720 (4976640)
I0409 21:47:43.813282 21587 net.cpp:165] Memory required for data: 84602964
I0409 21:47:43.813288 21587 layer_factory.hpp:77] Creating layer conv1_1/conv_conv1_1/bn_0_split
I0409 21:47:43.813293 21587 net.cpp:100] Creating Layer conv1_1/conv_conv1_1/bn_0_split
I0409 21:47:43.813297 21587 net.cpp:434] conv1_1/conv_conv1_1/bn_0_split <- conv1_1/conv
I0409 21:47:43.813299 21587 net.cpp:408] conv1_1/conv_conv1_1/bn_0_split -> conv1_1/conv_conv1_1/bn_0_split_0
I0409 21:47:43.813305 21587 net.cpp:408] conv1_1/conv_conv1_1/bn_0_split -> conv1_1/conv_conv1_1/bn_0_split_1
I0409 21:47:43.813328 21587 net.cpp:150] Setting up conv1_1/conv_conv1_1/bn_0_split
I0409 21:47:43.813331 21587 net.cpp:157] Top shape: 1 16 432 720 (4976640)
I0409 21:47:43.813333 21587 net.cpp:157] Top shape: 1 16 432 720 (4976640)
I0409 21:47:43.813335 21587 net.cpp:165] Memory required for data: 124416084
I0409 21:47:43.813338 21587 layer_factory.hpp:77] Creating layer conv1_1/neg
I0409 21:47:43.813343 21587 net.cpp:100] Creating Layer conv1_1/neg
I0409 21:47:43.813344 21587 net.cpp:434] conv1_1/neg <- conv1_1/conv_conv1_1/bn_0_split_0
I0409 21:47:43.813349 21587 net.cpp:408] conv1_1/neg -> conv1_1/neg
I0409 21:47:43.813361 21587 net.cpp:150] Setting up conv1_1/neg
I0409 21:47:43.813364 21587 net.cpp:157] Top shape: 1 16 432 720 (4976640)
I0409 21:47:43.813366 21587 net.cpp:165] Memory required for data: 144322644
I0409 21:47:43.813369 21587 layer_factory.hpp:77] Creating layer conv1_1/concat
I0409 21:47:43.813374 21587 net.cpp:100] Creating Layer conv1_1/concat
I0409 21:47:43.813376 21587 net.cpp:434] conv1_1/concat <- conv1_1/conv_conv1_1/bn_0_split_1
I0409 21:47:43.813380 21587 net.cpp:434] conv1_1/concat <- conv1_1/neg
I0409 21:47:43.813382 21587 net.cpp:408] conv1_1/concat -> conv1_1
I0409 21:47:43.813395 21587 net.cpp:150] Setting up conv1_1/concat
I0409 21:47:43.813400 21587 net.cpp:157] Top shape: 1 32 432 720 (9953280)
I0409 21:47:43.813401 21587 net.cpp:165] Memory required for data: 184135764
I0409 21:47:43.813403 21587 layer_factory.hpp:77] Creating layer conv1_1/scale
I0409 21:47:43.813408 21587 net.cpp:100] Creating Layer conv1_1/scale
I0409 21:47:43.813410 21587 net.cpp:434] conv1_1/scale <- conv1_1
I0409 21:47:43.813413 21587 net.cpp:395] conv1_1/scale -> conv1_1 (in-place)
I0409 21:47:43.813439 21587 layer_factory.hpp:77] Creating layer conv1_1/scale
I0409 21:47:43.814296 21587 net.cpp:150] Setting up conv1_1/scale
I0409 21:47:43.814304 21587 net.cpp:157] Top shape: 1 32 432 720 (9953280)
I0409 21:47:43.814307 21587 net.cpp:165] Memory required for data: 223948884
I0409 21:47:43.814318 21587 layer_factory.hpp:77] Creating layer conv1_1/relu
I0409 21:47:43.814323 21587 net.cpp:100] Creating Layer conv1_1/relu
I0409 21:47:43.814327 21587 net.cpp:434] conv1_1/relu <- conv1_1
I0409 21:47:43.814329 21587 net.cpp:395] conv1_1/relu -> conv1_1 (in-place)
I0409 21:47:43.814774 21587 net.cpp:150] Setting up conv1_1/relu
I0409 21:47:43.814782 21587 net.cpp:157] Top shape: 1 32 432 720 (9953280)
I0409 21:47:43.814785 21587 net.cpp:165] Memory required for data: 263762004
I0409 21:47:43.814787 21587 layer_factory.hpp:77] Creating layer pool1
I0409 21:47:43.814792 21587 net.cpp:100] Creating Layer pool1
I0409 21:47:43.814795 21587 net.cpp:434] pool1 <- conv1_1
I0409 21:47:43.814798 21587 net.cpp:408] pool1 -> pool1
I0409 21:47:43.814826 21587 net.cpp:150] Setting up pool1
I0409 21:47:43.814831 21587 net.cpp:157] Top shape: 1 32 216 360 (2488320)
I0409 21:47:43.814832 21587 net.cpp:165] Memory required for data: 273715284
I0409 21:47:43.814834 21587 layer_factory.hpp:77] Creating layer pool1_pool1_0_split
I0409 21:47:43.814838 21587 net.cpp:100] Creating Layer pool1_pool1_0_split
I0409 21:47:43.814841 21587 net.cpp:434] pool1_pool1_0_split <- pool1
I0409 21:47:43.814843 21587 net.cpp:408] pool1_pool1_0_split -> pool1_pool1_0_split_0
I0409 21:47:43.814847 21587 net.cpp:408] pool1_pool1_0_split -> pool1_pool1_0_split_1
I0409 21:47:43.814870 21587 net.cpp:150] Setting up pool1_pool1_0_split
I0409 21:47:43.814873 21587 net.cpp:157] Top shape: 1 32 216 360 (2488320)
I0409 21:47:43.814877 21587 net.cpp:157] Top shape: 1 32 216 360 (2488320)
I0409 21:47:43.814878 21587 net.cpp:165] Memory required for data: 293621844
I0409 21:47:43.814880 21587 layer_factory.hpp:77] Creating layer conv2_1/1/conv
I0409 21:47:43.814887 21587 net.cpp:100] Creating Layer conv2_1/1/conv
I0409 21:47:43.814889 21587 net.cpp:434] conv2_1/1/conv <- pool1_pool1_0_split_0
I0409 21:47:43.814893 21587 net.cpp:408] conv2_1/1/conv -> conv2_1/1
I0409 21:47:43.816566 21587 net.cpp:150] Setting up conv2_1/1/conv
I0409 21:47:43.816576 21587 net.cpp:157] Top shape: 1 24 216 360 (1866240)
I0409 21:47:43.816578 21587 net.cpp:165] Memory required for data: 301086804
I0409 21:47:43.816582 21587 layer_factory.hpp:77] Creating layer conv2_1/1/bn
I0409 21:47:43.816588 21587 net.cpp:100] Creating Layer conv2_1/1/bn
I0409 21:47:43.816591 21587 net.cpp:434] conv2_1/1/bn <- conv2_1/1
I0409 21:47:43.816594 21587 net.cpp:395] conv2_1/1/bn -> conv2_1/1 (in-place)
I0409 21:47:43.816985 21587 net.cpp:150] Setting up conv2_1/1/bn
I0409 21:47:43.816993 21587 net.cpp:157] Top shape: 1 24 216 360 (1866240)
I0409 21:47:43.816995 21587 net.cpp:165] Memory required for data: 308551764
I0409 21:47:43.817003 21587 layer_factory.hpp:77] Creating layer conv2_1/1/bn_scale
I0409 21:47:43.817008 21587 net.cpp:100] Creating Layer conv2_1/1/bn_scale
I0409 21:47:43.817010 21587 net.cpp:434] conv2_1/1/bn_scale <- conv2_1/1
I0409 21:47:43.817013 21587 net.cpp:395] conv2_1/1/bn_scale -> conv2_1/1 (in-place)
I0409 21:47:43.817039 21587 layer_factory.hpp:77] Creating layer conv2_1/1/bn_scale
I0409 21:47:43.817173 21587 net.cpp:150] Setting up conv2_1/1/bn_scale
I0409 21:47:43.817178 21587 net.cpp:157] Top shape: 1 24 216 360 (1866240)
I0409 21:47:43.817179 21587 net.cpp:165] Memory required for data: 316016724
I0409 21:47:43.817183 21587 layer_factory.hpp:77] Creating layer conv2_1/1/relu
I0409 21:47:43.817188 21587 net.cpp:100] Creating Layer conv2_1/1/relu
I0409 21:47:43.817190 21587 net.cpp:434] conv2_1/1/relu <- conv2_1/1
I0409 21:47:43.817193 21587 net.cpp:395] conv2_1/1/relu -> conv2_1/1 (in-place)
I0409 21:47:43.817306 21587 net.cpp:150] Setting up conv2_1/1/relu
I0409 21:47:43.817312 21587 net.cpp:157] Top shape: 1 24 216 360 (1866240)
I0409 21:47:43.817313 21587 net.cpp:165] Memory required for data: 323481684
I0409 21:47:43.817315 21587 layer_factory.hpp:77] Creating layer conv2_1/2/conv
I0409 21:47:43.817322 21587 net.cpp:100] Creating Layer conv2_1/2/conv
I0409 21:47:43.817323 21587 net.cpp:434] conv2_1/2/conv <- conv2_1/1
I0409 21:47:43.817327 21587 net.cpp:408] conv2_1/2/conv -> conv2_1/2/conv
I0409 21:47:43.818966 21587 net.cpp:150] Setting up conv2_1/2/conv
I0409 21:47:43.818975 21587 net.cpp:157] Top shape: 1 24 216 360 (1866240)
I0409 21:47:43.818977 21587 net.cpp:165] Memory required for data: 330946644
I0409 21:47:43.818981 21587 layer_factory.hpp:77] Creating layer conv2_1/2/bn
I0409 21:47:43.818986 21587 net.cpp:100] Creating Layer conv2_1/2/bn
I0409 21:47:43.818989 21587 net.cpp:434] conv2_1/2/bn <- conv2_1/2/conv
I0409 21:47:43.818994 21587 net.cpp:395] conv2_1/2/bn -> conv2_1/2/conv (in-place)
I0409 21:47:43.819382 21587 net.cpp:150] Setting up conv2_1/2/bn
I0409 21:47:43.819391 21587 net.cpp:157] Top shape: 1 24 216 360 (1866240)
I0409 21:47:43.819392 21587 net.cpp:165] Memory required for data: 338411604
I0409 21:47:43.819398 21587 layer_factory.hpp:77] Creating layer conv2_1/2/conv_conv2_1/2/bn_0_split
I0409 21:47:43.819402 21587 net.cpp:100] Creating Layer conv2_1/2/conv_conv2_1/2/bn_0_split
I0409 21:47:43.819404 21587 net.cpp:434] conv2_1/2/conv_conv2_1/2/bn_0_split <- conv2_1/2/conv
I0409 21:47:43.819408 21587 net.cpp:408] conv2_1/2/conv_conv2_1/2/bn_0_split -> conv2_1/2/conv_conv2_1/2/bn_0_split_0
I0409 21:47:43.819413 21587 net.cpp:408] conv2_1/2/conv_conv2_1/2/bn_0_split -> conv2_1/2/conv_conv2_1/2/bn_0_split_1
I0409 21:47:43.819435 21587 net.cpp:150] Setting up conv2_1/2/conv_conv2_1/2/bn_0_split
I0409 21:47:43.819439 21587 net.cpp:157] Top shape: 1 24 216 360 (1866240)
I0409 21:47:43.819442 21587 net.cpp:157] Top shape: 1 24 216 360 (1866240)
I0409 21:47:43.819443 21587 net.cpp:165] Memory required for data: 353341524
I0409 21:47:43.819445 21587 layer_factory.hpp:77] Creating layer conv2_1/2/neg
I0409 21:47:43.819450 21587 net.cpp:100] Creating Layer conv2_1/2/neg
I0409 21:47:43.819453 21587 net.cpp:434] conv2_1/2/neg <- conv2_1/2/conv_conv2_1/2/bn_0_split_0
I0409 21:47:43.819455 21587 net.cpp:408] conv2_1/2/neg -> conv2_1/2/neg
I0409 21:47:43.819468 21587 net.cpp:150] Setting up conv2_1/2/neg
I0409 21:47:43.819473 21587 net.cpp:157] Top shape: 1 24 216 360 (1866240)
I0409 21:47:43.819474 21587 net.cpp:165] Memory required for data: 360806484
I0409 21:47:43.819476 21587 layer_factory.hpp:77] Creating layer conv2_1/2/concat
I0409 21:47:43.819479 21587 net.cpp:100] Creating Layer conv2_1/2/concat
I0409 21:47:43.819483 21587 net.cpp:434] conv2_1/2/concat <- conv2_1/2/conv_conv2_1/2/bn_0_split_1
I0409 21:47:43.819485 21587 net.cpp:434] conv2_1/2/concat <- conv2_1/2/neg
I0409 21:47:43.819489 21587 net.cpp:408] conv2_1/2/concat -> conv2_1/2
I0409 21:47:43.819501 21587 net.cpp:150] Setting up conv2_1/2/concat
I0409 21:47:43.819504 21587 net.cpp:157] Top shape: 1 48 216 360 (3732480)
I0409 21:47:43.819506 21587 net.cpp:165] Memory required for data: 375736404
I0409 21:47:43.819509 21587 layer_factory.hpp:77] Creating layer conv2_1/2/scale
I0409 21:47:43.819512 21587 net.cpp:100] Creating Layer conv2_1/2/scale
I0409 21:47:43.819514 21587 net.cpp:434] conv2_1/2/scale <- conv2_1/2
I0409 21:47:43.819519 21587 net.cpp:395] conv2_1/2/scale -> conv2_1/2 (in-place)
I0409 21:47:43.819543 21587 layer_factory.hpp:77] Creating layer conv2_1/2/scale
I0409 21:47:43.819676 21587 net.cpp:150] Setting up conv2_1/2/scale
I0409 21:47:43.819681 21587 net.cpp:157] Top shape: 1 48 216 360 (3732480)
I0409 21:47:43.819684 21587 net.cpp:165] Memory required for data: 390666324
I0409 21:47:43.819689 21587 layer_factory.hpp:77] Creating layer conv2_1/2/relu
I0409 21:47:43.819694 21587 net.cpp:100] Creating Layer conv2_1/2/relu
I0409 21:47:43.819695 21587 net.cpp:434] conv2_1/2/relu <- conv2_1/2
I0409 21:47:43.819699 21587 net.cpp:395] conv2_1/2/relu -> conv2_1/2 (in-place)
I0409 21:47:43.819811 21587 net.cpp:150] Setting up conv2_1/2/relu
I0409 21:47:43.819816 21587 net.cpp:157] Top shape: 1 48 216 360 (3732480)
I0409 21:47:43.819818 21587 net.cpp:165] Memory required for data: 405596244
I0409 21:47:43.819821 21587 layer_factory.hpp:77] Creating layer conv2_1/3/conv
I0409 21:47:43.819826 21587 net.cpp:100] Creating Layer conv2_1/3/conv
I0409 21:47:43.819829 21587 net.cpp:434] conv2_1/3/conv <- conv2_1/2
I0409 21:47:43.819836 21587 net.cpp:408] conv2_1/3/conv -> conv2_1/3
I0409 21:47:43.821266 21587 net.cpp:150] Setting up conv2_1/3/conv
I0409 21:47:43.821276 21587 net.cpp:157] Top shape: 1 64 216 360 (4976640)
I0409 21:47:43.821279 21587 net.cpp:165] Memory required for data: 425502804
I0409 21:47:43.821282 21587 layer_factory.hpp:77] Creating layer conv2_1/3/bn
I0409 21:47:43.821287 21587 net.cpp:100] Creating Layer conv2_1/3/bn
I0409 21:47:43.821290 21587 net.cpp:434] conv2_1/3/bn <- conv2_1/3
I0409 21:47:43.821293 21587 net.cpp:395] conv2_1/3/bn -> conv2_1/3 (in-place)
I0409 21:47:43.821686 21587 net.cpp:150] Setting up conv2_1/3/bn
I0409 21:47:43.821693 21587 net.cpp:157] Top shape: 1 64 216 360 (4976640)
I0409 21:47:43.821696 21587 net.cpp:165] Memory required for data: 445409364
I0409 21:47:43.821702 21587 layer_factory.hpp:77] Creating layer conv2_1/3/bn_scale
I0409 21:47:43.821707 21587 net.cpp:100] Creating Layer conv2_1/3/bn_scale
I0409 21:47:43.821708 21587 net.cpp:434] conv2_1/3/bn_scale <- conv2_1/3
I0409 21:47:43.821712 21587 net.cpp:395] conv2_1/3/bn_scale -> conv2_1/3 (in-place)
I0409 21:47:43.821738 21587 layer_factory.hpp:77] Creating layer conv2_1/3/bn_scale
I0409 21:47:43.821869 21587 net.cpp:150] Setting up conv2_1/3/bn_scale
I0409 21:47:43.821874 21587 net.cpp:157] Top shape: 1 64 216 360 (4976640)
I0409 21:47:43.821877 21587 net.cpp:165] Memory required for data: 465315924
I0409 21:47:43.821880 21587 layer_factory.hpp:77] Creating layer conv2_1/proj
I0409 21:47:43.821885 21587 net.cpp:100] Creating Layer conv2_1/proj
I0409 21:47:43.821888 21587 net.cpp:434] conv2_1/proj <- pool1_pool1_0_split_1
I0409 21:47:43.821892 21587 net.cpp:408] conv2_1/proj -> conv2_1/proj
I0409 21:47:43.823647 21587 net.cpp:150] Setting up conv2_1/proj
I0409 21:47:43.823655 21587 net.cpp:157] Top shape: 1 64 216 360 (4976640)
I0409 21:47:43.823658 21587 net.cpp:165] Memory required for data: 485222484
I0409 21:47:43.823662 21587 layer_factory.hpp:77] Creating layer conv2_1/proj_bn
I0409 21:47:43.823668 21587 net.cpp:100] Creating Layer conv2_1/proj_bn
I0409 21:47:43.823670 21587 net.cpp:434] conv2_1/proj_bn <- conv2_1/proj
I0409 21:47:43.823674 21587 net.cpp:395] conv2_1/proj_bn -> conv2_1/proj (in-place)
I0409 21:47:43.823832 21587 net.cpp:150] Setting up conv2_1/proj_bn
I0409 21:47:43.823837 21587 net.cpp:157] Top shape: 1 64 216 360 (4976640)
I0409 21:47:43.823838 21587 net.cpp:165] Memory required for data: 505129044
I0409 21:47:43.823843 21587 layer_factory.hpp:77] Creating layer conv2_1/proj_bn_scale
I0409 21:47:43.823848 21587 net.cpp:100] Creating Layer conv2_1/proj_bn_scale
I0409 21:47:43.823849 21587 net.cpp:434] conv2_1/proj_bn_scale <- conv2_1/proj
I0409 21:47:43.823853 21587 net.cpp:395] conv2_1/proj_bn_scale -> conv2_1/proj (in-place)
I0409 21:47:43.823879 21587 layer_factory.hpp:77] Creating layer conv2_1/proj_bn_scale
I0409 21:47:43.824259 21587 net.cpp:150] Setting up conv2_1/proj_bn_scale
I0409 21:47:43.824267 21587 net.cpp:157] Top shape: 1 64 216 360 (4976640)
I0409 21:47:43.824270 21587 net.cpp:165] Memory required for data: 525035604
I0409 21:47:43.824273 21587 layer_factory.hpp:77] Creating layer conv2_1
I0409 21:47:43.824280 21587 net.cpp:100] Creating Layer conv2_1
I0409 21:47:43.824282 21587 net.cpp:434] conv2_1 <- conv2_1/3
I0409 21:47:43.824285 21587 net.cpp:434] conv2_1 <- conv2_1/proj
I0409 21:47:43.824288 21587 net.cpp:408] conv2_1 -> conv2_1
I0409 21:47:43.824309 21587 net.cpp:150] Setting up conv2_1
I0409 21:47:43.824313 21587 net.cpp:157] Top shape: 1 64 216 360 (4976640)
I0409 21:47:43.824316 21587 net.cpp:165] Memory required for data: 544942164
I0409 21:47:43.824317 21587 layer_factory.hpp:77] Creating layer conv2_1_conv2_1_0_split
I0409 21:47:43.824321 21587 net.cpp:100] Creating Layer conv2_1_conv2_1_0_split
I0409 21:47:43.824323 21587 net.cpp:434] conv2_1_conv2_1_0_split <- conv2_1
I0409 21:47:43.824327 21587 net.cpp:408] conv2_1_conv2_1_0_split -> conv2_1_conv2_1_0_split_0
I0409 21:47:43.824331 21587 net.cpp:408] conv2_1_conv2_1_0_split -> conv2_1_conv2_1_0_split_1
I0409 21:47:43.824358 21587 net.cpp:150] Setting up conv2_1_conv2_1_0_split
I0409 21:47:43.824362 21587 net.cpp:157] Top shape: 1 64 216 360 (4976640)
I0409 21:47:43.824364 21587 net.cpp:157] Top shape: 1 64 216 360 (4976640)
I0409 21:47:43.824367 21587 net.cpp:165] Memory required for data: 584755284
I0409 21:47:43.824369 21587 layer_factory.hpp:77] Creating layer conv2_2/1/conv
I0409 21:47:43.824379 21587 net.cpp:100] Creating Layer conv2_2/1/conv
I0409 21:47:43.824381 21587 net.cpp:434] conv2_2/1/conv <- conv2_1_conv2_1_0_split_0
I0409 21:47:43.824385 21587 net.cpp:408] conv2_2/1/conv -> conv2_2/1
I0409 21:47:43.825827 21587 net.cpp:150] Setting up conv2_2/1/conv
I0409 21:47:43.825836 21587 net.cpp:157] Top shape: 1 24 216 360 (1866240)
I0409 21:47:43.825839 21587 net.cpp:165] Memory required for data: 592220244
I0409 21:47:43.825844 21587 layer_factory.hpp:77] Creating layer conv2_2/1/bn
I0409 21:47:43.825848 21587 net.cpp:100] Creating Layer conv2_2/1/bn
I0409 21:47:43.825850 21587 net.cpp:434] conv2_2/1/bn <- conv2_2/1
I0409 21:47:43.825855 21587 net.cpp:395] conv2_2/1/bn -> conv2_2/1 (in-place)
I0409 21:47:43.826014 21587 net.cpp:150] Setting up conv2_2/1/bn
I0409 21:47:43.826020 21587 net.cpp:157] Top shape: 1 24 216 360 (1866240)
I0409 21:47:43.826021 21587 net.cpp:165] Memory required for data: 599685204
I0409 21:47:43.826030 21587 layer_factory.hpp:77] Creating layer conv2_2/1/bn_scale
I0409 21:47:43.826033 21587 net.cpp:100] Creating Layer conv2_2/1/bn_scale
I0409 21:47:43.826035 21587 net.cpp:434] conv2_2/1/bn_scale <- conv2_2/1
I0409 21:47:43.826040 21587 net.cpp:395] conv2_2/1/bn_scale -> conv2_2/1 (in-place)
I0409 21:47:43.826064 21587 layer_factory.hpp:77] Creating layer conv2_2/1/bn_scale
I0409 21:47:43.826441 21587 net.cpp:150] Setting up conv2_2/1/bn_scale
I0409 21:47:43.826449 21587 net.cpp:157] Top shape: 1 24 216 360 (1866240)
I0409 21:47:43.826452 21587 net.cpp:165] Memory required for data: 607150164
I0409 21:47:43.826455 21587 layer_factory.hpp:77] Creating layer conv2_2/1/relu
I0409 21:47:43.826459 21587 net.cpp:100] Creating Layer conv2_2/1/relu
I0409 21:47:43.826462 21587 net.cpp:434] conv2_2/1/relu <- conv2_2/1
I0409 21:47:43.826465 21587 net.cpp:395] conv2_2/1/relu -> conv2_2/1 (in-place)
I0409 21:47:43.826587 21587 net.cpp:150] Setting up conv2_2/1/relu
I0409 21:47:43.826593 21587 net.cpp:157] Top shape: 1 24 216 360 (1866240)
I0409 21:47:43.826596 21587 net.cpp:165] Memory required for data: 614615124
I0409 21:47:43.826597 21587 layer_factory.hpp:77] Creating layer conv2_2/2/conv
I0409 21:47:43.826603 21587 net.cpp:100] Creating Layer conv2_2/2/conv
I0409 21:47:43.826606 21587 net.cpp:434] conv2_2/2/conv <- conv2_2/1
I0409 21:47:43.826611 21587 net.cpp:408] conv2_2/2/conv -> conv2_2/2/conv
I0409 21:47:43.828084 21587 net.cpp:150] Setting up conv2_2/2/conv
I0409 21:47:43.828094 21587 net.cpp:157] Top shape: 1 24 216 360 (1866240)
I0409 21:47:43.828097 21587 net.cpp:165] Memory required for data: 622080084
I0409 21:47:43.828101 21587 layer_factory.hpp:77] Creating layer conv2_2/2/bn
I0409 21:47:43.828105 21587 net.cpp:100] Creating Layer conv2_2/2/bn
I0409 21:47:43.828107 21587 net.cpp:434] conv2_2/2/bn <- conv2_2/2/conv
I0409 21:47:43.828112 21587 net.cpp:395] conv2_2/2/bn -> conv2_2/2/conv (in-place)
I0409 21:47:43.828275 21587 net.cpp:150] Setting up conv2_2/2/bn
I0409 21:47:43.828280 21587 net.cpp:157] Top shape: 1 24 216 360 (1866240)
I0409 21:47:43.828282 21587 net.cpp:165] Memory required for data: 629545044
I0409 21:47:43.828287 21587 layer_factory.hpp:77] Creating layer conv2_2/2/conv_conv2_2/2/bn_0_split
I0409 21:47:43.828291 21587 net.cpp:100] Creating Layer conv2_2/2/conv_conv2_2/2/bn_0_split
I0409 21:47:43.828294 21587 net.cpp:434] conv2_2/2/conv_conv2_2/2/bn_0_split <- conv2_2/2/conv
I0409 21:47:43.828299 21587 net.cpp:408] conv2_2/2/conv_conv2_2/2/bn_0_split -> conv2_2/2/conv_conv2_2/2/bn_0_split_0
I0409 21:47:43.828302 21587 net.cpp:408] conv2_2/2/conv_conv2_2/2/bn_0_split -> conv2_2/2/conv_conv2_2/2/bn_0_split_1
I0409 21:47:43.828325 21587 net.cpp:150] Setting up conv2_2/2/conv_conv2_2/2/bn_0_split
I0409 21:47:43.828331 21587 net.cpp:157] Top shape: 1 24 216 360 (1866240)
I0409 21:47:43.828335 21587 net.cpp:157] Top shape: 1 24 216 360 (1866240)
I0409 21:47:43.828336 21587 net.cpp:165] Memory required for data: 644474964
I0409 21:47:43.828338 21587 layer_factory.hpp:77] Creating layer conv2_2/2/neg
I0409 21:47:43.828343 21587 net.cpp:100] Creating Layer conv2_2/2/neg
I0409 21:47:43.828346 21587 net.cpp:434] conv2_2/2/neg <- conv2_2/2/conv_conv2_2/2/bn_0_split_0
I0409 21:47:43.828349 21587 net.cpp:408] conv2_2/2/neg -> conv2_2/2/neg
I0409 21:47:43.828368 21587 net.cpp:150] Setting up conv2_2/2/neg
I0409 21:47:43.828373 21587 net.cpp:157] Top shape: 1 24 216 360 (1866240)
I0409 21:47:43.828375 21587 net.cpp:165] Memory required for data: 651939924
I0409 21:47:43.828377 21587 layer_factory.hpp:77] Creating layer conv2_2/2/concat
I0409 21:47:43.828382 21587 net.cpp:100] Creating Layer conv2_2/2/concat
I0409 21:47:43.828383 21587 net.cpp:434] conv2_2/2/concat <- conv2_2/2/conv_conv2_2/2/bn_0_split_1
I0409 21:47:43.828387 21587 net.cpp:434] conv2_2/2/concat <- conv2_2/2/neg
I0409 21:47:43.828389 21587 net.cpp:408] conv2_2/2/concat -> conv2_2/2
I0409 21:47:43.828404 21587 net.cpp:150] Setting up conv2_2/2/concat
I0409 21:47:43.828408 21587 net.cpp:157] Top shape: 1 48 216 360 (3732480)
I0409 21:47:43.828410 21587 net.cpp:165] Memory required for data: 666869844
I0409 21:47:43.828413 21587 layer_factory.hpp:77] Creating layer conv2_2/2/scale
I0409 21:47:43.828416 21587 net.cpp:100] Creating Layer conv2_2/2/scale
I0409 21:47:43.828418 21587 net.cpp:434] conv2_2/2/scale <- conv2_2/2
I0409 21:47:43.828423 21587 net.cpp:395] conv2_2/2/scale -> conv2_2/2 (in-place)
I0409 21:47:43.828449 21587 layer_factory.hpp:77] Creating layer conv2_2/2/scale
I0409 21:47:43.828829 21587 net.cpp:150] Setting up conv2_2/2/scale
I0409 21:47:43.828836 21587 net.cpp:157] Top shape: 1 48 216 360 (3732480)
I0409 21:47:43.828840 21587 net.cpp:165] Memory required for data: 681799764
I0409 21:47:43.828843 21587 layer_factory.hpp:77] Creating layer conv2_2/2/relu
I0409 21:47:43.828847 21587 net.cpp:100] Creating Layer conv2_2/2/relu
I0409 21:47:43.828850 21587 net.cpp:434] conv2_2/2/relu <- conv2_2/2
I0409 21:47:43.828855 21587 net.cpp:395] conv2_2/2/relu -> conv2_2/2 (in-place)
I0409 21:47:43.829301 21587 net.cpp:150] Setting up conv2_2/2/relu
I0409 21:47:43.829310 21587 net.cpp:157] Top shape: 1 48 216 360 (3732480)
I0409 21:47:43.829313 21587 net.cpp:165] Memory required for data: 696729684
I0409 21:47:43.829314 21587 layer_factory.hpp:77] Creating layer conv2_2/3/conv
I0409 21:47:43.829320 21587 net.cpp:100] Creating Layer conv2_2/3/conv
I0409 21:47:43.829324 21587 net.cpp:434] conv2_2/3/conv <- conv2_2/2
I0409 21:47:43.829327 21587 net.cpp:408] conv2_2/3/conv -> conv2_2/3
I0409 21:47:43.830468 21587 net.cpp:150] Setting up conv2_2/3/conv
I0409 21:47:43.830477 21587 net.cpp:157] Top shape: 1 64 216 360 (4976640)
I0409 21:47:43.830480 21587 net.cpp:165] Memory required for data: 716636244
I0409 21:47:43.830483 21587 layer_factory.hpp:77] Creating layer conv2_2/3/bn
I0409 21:47:43.830490 21587 net.cpp:100] Creating Layer conv2_2/3/bn
I0409 21:47:43.830494 21587 net.cpp:434] conv2_2/3/bn <- conv2_2/3
I0409 21:47:43.830500 21587 net.cpp:395] conv2_2/3/bn -> conv2_2/3 (in-place)
I0409 21:47:43.830698 21587 net.cpp:150] Setting up conv2_2/3/bn
I0409 21:47:43.830703 21587 net.cpp:157] Top shape: 1 64 216 360 (4976640)
I0409 21:47:43.830705 21587 net.cpp:165] Memory required for data: 736542804
I0409 21:47:43.830710 21587 layer_factory.hpp:77] Creating layer conv2_2/3/bn_scale
I0409 21:47:43.830715 21587 net.cpp:100] Creating Layer conv2_2/3/bn_scale
I0409 21:47:43.830718 21587 net.cpp:434] conv2_2/3/bn_scale <- conv2_2/3
I0409 21:47:43.830721 21587 net.cpp:395] conv2_2/3/bn_scale -> conv2_2/3 (in-place)
I0409 21:47:43.830746 21587 layer_factory.hpp:77] Creating layer conv2_2/3/bn_scale
I0409 21:47:43.831148 21587 net.cpp:150] Setting up conv2_2/3/bn_scale
I0409 21:47:43.831167 21587 net.cpp:157] Top shape: 1 64 216 360 (4976640)
I0409 21:47:43.831172 21587 net.cpp:165] Memory required for data: 756449364
I0409 21:47:43.831176 21587 layer_factory.hpp:77] Creating layer conv2_2/input
I0409 21:47:43.831182 21587 net.cpp:100] Creating Layer conv2_2/input
I0409 21:47:43.831184 21587 net.cpp:434] conv2_2/input <- conv2_1_conv2_1_0_split_1
I0409 21:47:43.831188 21587 net.cpp:408] conv2_2/input -> conv2_2/input
I0409 21:47:43.831208 21587 net.cpp:150] Setting up conv2_2/input
I0409 21:47:43.831212 21587 net.cpp:157] Top shape: 1 64 216 360 (4976640)
I0409 21:47:43.831225 21587 net.cpp:165] Memory required for data: 776355924
I0409 21:47:43.831228 21587 layer_factory.hpp:77] Creating layer conv2_2
I0409 21:47:43.831233 21587 net.cpp:100] Creating Layer conv2_2
I0409 21:47:43.831235 21587 net.cpp:434] conv2_2 <- conv2_2/3
I0409 21:47:43.831238 21587 net.cpp:434] conv2_2 <- conv2_2/input
I0409 21:47:43.831241 21587 net.cpp:408] conv2_2 -> conv2_2
I0409 21:47:43.831259 21587 net.cpp:150] Setting up conv2_2
I0409 21:47:43.831262 21587 net.cpp:157] Top shape: 1 64 216 360 (4976640)
I0409 21:47:43.831264 21587 net.cpp:165] Memory required for data: 796262484
I0409 21:47:43.831266 21587 layer_factory.hpp:77] Creating layer conv2_2_conv2_2_0_split
I0409 21:47:43.831270 21587 net.cpp:100] Creating Layer conv2_2_conv2_2_0_split
I0409 21:47:43.831282 21587 net.cpp:434] conv2_2_conv2_2_0_split <- conv2_2
I0409 21:47:43.831285 21587 net.cpp:408] conv2_2_conv2_2_0_split -> conv2_2_conv2_2_0_split_0
I0409 21:47:43.831290 21587 net.cpp:408] conv2_2_conv2_2_0_split -> conv2_2_conv2_2_0_split_1
I0409 21:47:43.831321 21587 net.cpp:150] Setting up conv2_2_conv2_2_0_split
I0409 21:47:43.831326 21587 net.cpp:157] Top shape: 1 64 216 360 (4976640)
I0409 21:47:43.831327 21587 net.cpp:157] Top shape: 1 64 216 360 (4976640)
I0409 21:47:43.831329 21587 net.cpp:165] Memory required for data: 836075604
I0409 21:47:43.831331 21587 layer_factory.hpp:77] Creating layer conv2_3/1/conv
I0409 21:47:43.831337 21587 net.cpp:100] Creating Layer conv2_3/1/conv
I0409 21:47:43.831341 21587 net.cpp:434] conv2_3/1/conv <- conv2_2_conv2_2_0_split_0
I0409 21:47:43.831344 21587 net.cpp:408] conv2_3/1/conv -> conv2_3/1
I0409 21:47:43.833448 21587 net.cpp:150] Setting up conv2_3/1/conv
I0409 21:47:43.833459 21587 net.cpp:157] Top shape: 1 24 216 360 (1866240)
I0409 21:47:43.833461 21587 net.cpp:165] Memory required for data: 843540564
I0409 21:47:43.833465 21587 layer_factory.hpp:77] Creating layer conv2_3/1/bn
I0409 21:47:43.833472 21587 net.cpp:100] Creating Layer conv2_3/1/bn
I0409 21:47:43.833474 21587 net.cpp:434] conv2_3/1/bn <- conv2_3/1
I0409 21:47:43.833478 21587 net.cpp:395] conv2_3/1/bn -> conv2_3/1 (in-place)
I0409 21:47:43.833709 21587 net.cpp:150] Setting up conv2_3/1/bn
I0409 21:47:43.833714 21587 net.cpp:157] Top shape: 1 24 216 360 (1866240)
I0409 21:47:43.833715 21587 net.cpp:165] Memory required for data: 851005524
I0409 21:47:43.833731 21587 layer_factory.hpp:77] Creating layer conv2_3/1/bn_scale
I0409 21:47:43.833735 21587 net.cpp:100] Creating Layer conv2_3/1/bn_scale
I0409 21:47:43.833747 21587 net.cpp:434] conv2_3/1/bn_scale <- conv2_3/1
I0409 21:47:43.833750 21587 net.cpp:395] conv2_3/1/bn_scale -> conv2_3/1 (in-place)
I0409 21:47:43.833798 21587 layer_factory.hpp:77] Creating layer conv2_3/1/bn_scale
I0409 21:47:43.834475 21587 net.cpp:150] Setting up conv2_3/1/bn_scale
I0409 21:47:43.834484 21587 net.cpp:157] Top shape: 1 24 216 360 (1866240)
I0409 21:47:43.834487 21587 net.cpp:165] Memory required for data: 858470484
I0409 21:47:43.834491 21587 layer_factory.hpp:77] Creating layer conv2_3/1/relu
I0409 21:47:43.834497 21587 net.cpp:100] Creating Layer conv2_3/1/relu
I0409 21:47:43.834501 21587 net.cpp:434] conv2_3/1/relu <- conv2_3/1
I0409 21:47:43.834504 21587 net.cpp:395] conv2_3/1/relu -> conv2_3/1 (in-place)
I0409 21:47:43.836824 21587 net.cpp:150] Setting up conv2_3/1/relu
I0409 21:47:43.836836 21587 net.cpp:157] Top shape: 1 24 216 360 (1866240)
I0409 21:47:43.836838 21587 net.cpp:165] Memory required for data: 865935444
I0409 21:47:43.836841 21587 layer_factory.hpp:77] Creating layer conv2_3/2/conv
I0409 21:47:43.836853 21587 net.cpp:100] Creating Layer conv2_3/2/conv
I0409 21:47:43.836855 21587 net.cpp:434] conv2_3/2/conv <- conv2_3/1
I0409 21:47:43.836861 21587 net.cpp:408] conv2_3/2/conv -> conv2_3/2/conv
I0409 21:47:43.839576 21587 net.cpp:150] Setting up conv2_3/2/conv
I0409 21:47:43.839586 21587 net.cpp:157] Top shape: 1 24 216 360 (1866240)
I0409 21:47:43.839589 21587 net.cpp:165] Memory required for data: 873400404
I0409 21:47:43.839593 21587 layer_factory.hpp:77] Creating layer conv2_3/2/bn
I0409 21:47:43.839601 21587 net.cpp:100] Creating Layer conv2_3/2/bn
I0409 21:47:43.839604 21587 net.cpp:434] conv2_3/2/bn <- conv2_3/2/conv
I0409 21:47:43.839609 21587 net.cpp:395] conv2_3/2/bn -> conv2_3/2/conv (in-place)
I0409 21:47:43.839799 21587 net.cpp:150] Setting up conv2_3/2/bn
I0409 21:47:43.839805 21587 net.cpp:157] Top shape: 1 24 216 360 (1866240)
I0409 21:47:43.839807 21587 net.cpp:165] Memory required for data: 880865364
I0409 21:47:43.839813 21587 layer_factory.hpp:77] Creating layer conv2_3/2/conv_conv2_3/2/bn_0_split
I0409 21:47:43.839818 21587 net.cpp:100] Creating Layer conv2_3/2/conv_conv2_3/2/bn_0_split
I0409 21:47:43.839821 21587 net.cpp:434] conv2_3/2/conv_conv2_3/2/bn_0_split <- conv2_3/2/conv
I0409 21:47:43.839825 21587 net.cpp:408] conv2_3/2/conv_conv2_3/2/bn_0_split -> conv2_3/2/conv_conv2_3/2/bn_0_split_0
I0409 21:47:43.839830 21587 net.cpp:408] conv2_3/2/conv_conv2_3/2/bn_0_split -> conv2_3/2/conv_conv2_3/2/bn_0_split_1
I0409 21:47:43.839857 21587 net.cpp:150] Setting up conv2_3/2/conv_conv2_3/2/bn_0_split
I0409 21:47:43.839861 21587 net.cpp:157] Top shape: 1 24 216 360 (1866240)
I0409 21:47:43.839864 21587 net.cpp:157] Top shape: 1 24 216 360 (1866240)
I0409 21:47:43.839866 21587 net.cpp:165] Memory required for data: 895795284
I0409 21:47:43.839869 21587 layer_factory.hpp:77] Creating layer conv2_3/2/neg
I0409 21:47:43.839874 21587 net.cpp:100] Creating Layer conv2_3/2/neg
I0409 21:47:43.839877 21587 net.cpp:434] conv2_3/2/neg <- conv2_3/2/conv_conv2_3/2/bn_0_split_0
I0409 21:47:43.839881 21587 net.cpp:408] conv2_3/2/neg -> conv2_3/2/neg
I0409 21:47:43.839898 21587 net.cpp:150] Setting up conv2_3/2/neg
I0409 21:47:43.839902 21587 net.cpp:157] Top shape: 1 24 216 360 (1866240)
I0409 21:47:43.839905 21587 net.cpp:165] Memory required for data: 903260244
I0409 21:47:43.839906 21587 layer_factory.hpp:77] Creating layer conv2_3/2/concat
I0409 21:47:43.839910 21587 net.cpp:100] Creating Layer conv2_3/2/concat
I0409 21:47:43.839913 21587 net.cpp:434] conv2_3/2/concat <- conv2_3/2/conv_conv2_3/2/bn_0_split_1
I0409 21:47:43.839916 21587 net.cpp:434] conv2_3/2/concat <- conv2_3/2/neg
I0409 21:47:43.839920 21587 net.cpp:408] conv2_3/2/concat -> conv2_3/2
I0409 21:47:43.839937 21587 net.cpp:150] Setting up conv2_3/2/concat
I0409 21:47:43.839941 21587 net.cpp:157] Top shape: 1 48 216 360 (3732480)
I0409 21:47:43.839943 21587 net.cpp:165] Memory required for data: 918190164
I0409 21:47:43.839946 21587 layer_factory.hpp:77] Creating layer conv2_3/2/scale
I0409 21:47:43.839951 21587 net.cpp:100] Creating Layer conv2_3/2/scale
I0409 21:47:43.839953 21587 net.cpp:434] conv2_3/2/scale <- conv2_3/2
I0409 21:47:43.839957 21587 net.cpp:395] conv2_3/2/scale -> conv2_3/2 (in-place)
I0409 21:47:43.839989 21587 layer_factory.hpp:77] Creating layer conv2_3/2/scale
I0409 21:47:43.840430 21587 net.cpp:150] Setting up conv2_3/2/scale
I0409 21:47:43.840438 21587 net.cpp:157] Top shape: 1 48 216 360 (3732480)
I0409 21:47:43.840440 21587 net.cpp:165] Memory required for data: 933120084
I0409 21:47:43.840445 21587 layer_factory.hpp:77] Creating layer conv2_3/2/relu
I0409 21:47:43.840450 21587 net.cpp:100] Creating Layer conv2_3/2/relu
I0409 21:47:43.840452 21587 net.cpp:434] conv2_3/2/relu <- conv2_3/2
I0409 21:47:43.840456 21587 net.cpp:395] conv2_3/2/relu -> conv2_3/2 (in-place)
I0409 21:47:43.840575 21587 net.cpp:150] Setting up conv2_3/2/relu
I0409 21:47:43.840581 21587 net.cpp:157] Top shape: 1 48 216 360 (3732480)
I0409 21:47:43.840584 21587 net.cpp:165] Memory required for data: 948050004
I0409 21:47:43.840589 21587 layer_factory.hpp:77] Creating layer conv2_3/3/conv
I0409 21:47:43.840595 21587 net.cpp:100] Creating Layer conv2_3/3/conv
I0409 21:47:43.840597 21587 net.cpp:434] conv2_3/3/conv <- conv2_3/2
I0409 21:47:43.840602 21587 net.cpp:408] conv2_3/3/conv -> conv2_3/3
I0409 21:47:43.842082 21587 net.cpp:150] Setting up conv2_3/3/conv
I0409 21:47:43.842090 21587 net.cpp:157] Top shape: 1 64 216 360 (4976640)
I0409 21:47:43.842092 21587 net.cpp:165] Memory required for data: 967956564
I0409 21:47:43.842097 21587 layer_factory.hpp:77] Creating layer conv2_3/3/bn
I0409 21:47:43.842103 21587 net.cpp:100] Creating Layer conv2_3/3/bn
I0409 21:47:43.842104 21587 net.cpp:434] conv2_3/3/bn <- conv2_3/3
I0409 21:47:43.842108 21587 net.cpp:395] conv2_3/3/bn -> conv2_3/3 (in-place)
I0409 21:47:43.842280 21587 net.cpp:150] Setting up conv2_3/3/bn
I0409 21:47:43.842286 21587 net.cpp:157] Top shape: 1 64 216 360 (4976640)
I0409 21:47:43.842288 21587 net.cpp:165] Memory required for data: 987863124
I0409 21:47:43.842299 21587 layer_factory.hpp:77] Creating layer conv2_3/3/bn_scale
I0409 21:47:43.842304 21587 net.cpp:100] Creating Layer conv2_3/3/bn_scale
I0409 21:47:43.842308 21587 net.cpp:434] conv2_3/3/bn_scale <- conv2_3/3
I0409 21:47:43.842310 21587 net.cpp:395] conv2_3/3/bn_scale -> conv2_3/3 (in-place)
I0409 21:47:43.842339 21587 layer_factory.hpp:77] Creating layer conv2_3/3/bn_scale
I0409 21:47:43.842720 21587 net.cpp:150] Setting up conv2_3/3/bn_scale
I0409 21:47:43.842727 21587 net.cpp:157] Top shape: 1 64 216 360 (4976640)
I0409 21:47:43.842730 21587 net.cpp:165] Memory required for data: 1007769684
I0409 21:47:43.842734 21587 layer_factory.hpp:77] Creating layer conv2_3/input
I0409 21:47:43.842739 21587 net.cpp:100] Creating Layer conv2_3/input
I0409 21:47:43.842742 21587 net.cpp:434] conv2_3/input <- conv2_2_conv2_2_0_split_1
I0409 21:47:43.842746 21587 net.cpp:408] conv2_3/input -> conv2_3/input
I0409 21:47:43.842767 21587 net.cpp:150] Setting up conv2_3/input
I0409 21:47:43.842770 21587 net.cpp:157] Top shape: 1 64 216 360 (4976640)
I0409 21:47:43.842772 21587 net.cpp:165] Memory required for data: 1027676244
I0409 21:47:43.842774 21587 layer_factory.hpp:77] Creating layer conv2_3
I0409 21:47:43.842785 21587 net.cpp:100] Creating Layer conv2_3
I0409 21:47:43.842788 21587 net.cpp:434] conv2_3 <- conv2_3/3
I0409 21:47:43.842792 21587 net.cpp:434] conv2_3 <- conv2_3/input
I0409 21:47:43.842794 21587 net.cpp:408] conv2_3 -> conv2_3
I0409 21:47:43.842813 21587 net.cpp:150] Setting up conv2_3
I0409 21:47:43.842815 21587 net.cpp:157] Top shape: 1 64 216 360 (4976640)
I0409 21:47:43.842818 21587 net.cpp:165] Memory required for data: 1047582804
I0409 21:47:43.842820 21587 layer_factory.hpp:77] Creating layer conv2_3_conv2_3_0_split
I0409 21:47:43.842823 21587 net.cpp:100] Creating Layer conv2_3_conv2_3_0_split
I0409 21:47:43.842826 21587 net.cpp:434] conv2_3_conv2_3_0_split <- conv2_3
I0409 21:47:43.842829 21587 net.cpp:408] conv2_3_conv2_3_0_split -> conv2_3_conv2_3_0_split_0
I0409 21:47:43.842833 21587 net.cpp:408] conv2_3_conv2_3_0_split -> conv2_3_conv2_3_0_split_1
I0409 21:47:43.842859 21587 net.cpp:150] Setting up conv2_3_conv2_3_0_split
I0409 21:47:43.842861 21587 net.cpp:157] Top shape: 1 64 216 360 (4976640)
I0409 21:47:43.842864 21587 net.cpp:157] Top shape: 1 64 216 360 (4976640)
I0409 21:47:43.842866 21587 net.cpp:165] Memory required for data: 1087395924
I0409 21:47:43.842869 21587 layer_factory.hpp:77] Creating layer conv3_1/1/conv
I0409 21:47:43.842885 21587 net.cpp:100] Creating Layer conv3_1/1/conv
I0409 21:47:43.842888 21587 net.cpp:434] conv3_1/1/conv <- conv2_3_conv2_3_0_split_0
I0409 21:47:43.842901 21587 net.cpp:408] conv3_1/1/conv -> conv3_1/1
I0409 21:47:43.844490 21587 net.cpp:150] Setting up conv3_1/1/conv
I0409 21:47:43.844499 21587 net.cpp:157] Top shape: 1 48 108 180 (933120)
I0409 21:47:43.844501 21587 net.cpp:165] Memory required for data: 1091128404
I0409 21:47:43.844506 21587 layer_factory.hpp:77] Creating layer conv3_1/1/bn
I0409 21:47:43.844511 21587 net.cpp:100] Creating Layer conv3_1/1/bn
I0409 21:47:43.844517 21587 net.cpp:434] conv3_1/1/bn <- conv3_1/1
I0409 21:47:43.844521 21587 net.cpp:395] conv3_1/1/bn -> conv3_1/1 (in-place)
I0409 21:47:43.844919 21587 net.cpp:150] Setting up conv3_1/1/bn
I0409 21:47:43.844928 21587 net.cpp:157] Top shape: 1 48 108 180 (933120)
I0409 21:47:43.844929 21587 net.cpp:165] Memory required for data: 1094860884
I0409 21:47:43.844934 21587 layer_factory.hpp:77] Creating layer conv3_1/1/bn_scale
I0409 21:47:43.844939 21587 net.cpp:100] Creating Layer conv3_1/1/bn_scale
I0409 21:47:43.844941 21587 net.cpp:434] conv3_1/1/bn_scale <- conv3_1/1
I0409 21:47:43.844945 21587 net.cpp:395] conv3_1/1/bn_scale -> conv3_1/1 (in-place)
I0409 21:47:43.844974 21587 layer_factory.hpp:77] Creating layer conv3_1/1/bn_scale
I0409 21:47:43.845073 21587 net.cpp:150] Setting up conv3_1/1/bn_scale
I0409 21:47:43.845078 21587 net.cpp:157] Top shape: 1 48 108 180 (933120)
I0409 21:47:43.845080 21587 net.cpp:165] Memory required for data: 1098593364
I0409 21:47:43.845084 21587 layer_factory.hpp:77] Creating layer conv3_1/1/relu
I0409 21:47:43.845088 21587 net.cpp:100] Creating Layer conv3_1/1/relu
I0409 21:47:43.845090 21587 net.cpp:434] conv3_1/1/relu <- conv3_1/1
I0409 21:47:43.845093 21587 net.cpp:395] conv3_1/1/relu -> conv3_1/1 (in-place)
I0409 21:47:43.845218 21587 net.cpp:150] Setting up conv3_1/1/relu
I0409 21:47:43.845224 21587 net.cpp:157] Top shape: 1 48 108 180 (933120)
I0409 21:47:43.845227 21587 net.cpp:165] Memory required for data: 1102325844
I0409 21:47:43.845229 21587 layer_factory.hpp:77] Creating layer conv3_1/2/conv
I0409 21:47:43.845235 21587 net.cpp:100] Creating Layer conv3_1/2/conv
I0409 21:47:43.845237 21587 net.cpp:434] conv3_1/2/conv <- conv3_1/1
I0409 21:47:43.845242 21587 net.cpp:408] conv3_1/2/conv -> conv3_1/2/conv
I0409 21:47:43.846477 21587 net.cpp:150] Setting up conv3_1/2/conv
I0409 21:47:43.846487 21587 net.cpp:157] Top shape: 1 48 108 180 (933120)
I0409 21:47:43.846488 21587 net.cpp:165] Memory required for data: 1106058324
I0409 21:47:43.846493 21587 layer_factory.hpp:77] Creating layer conv3_1/2/bn
I0409 21:47:43.846496 21587 net.cpp:100] Creating Layer conv3_1/2/bn
I0409 21:47:43.846499 21587 net.cpp:434] conv3_1/2/bn <- conv3_1/2/conv
I0409 21:47:43.846503 21587 net.cpp:395] conv3_1/2/bn -> conv3_1/2/conv (in-place)
I0409 21:47:43.846644 21587 net.cpp:150] Setting up conv3_1/2/bn
I0409 21:47:43.846649 21587 net.cpp:157] Top shape: 1 48 108 180 (933120)
I0409 21:47:43.846652 21587 net.cpp:165] Memory required for data: 1109790804
I0409 21:47:43.846657 21587 layer_factory.hpp:77] Creating layer conv3_1/2/conv_conv3_1/2/bn_0_split
I0409 21:47:43.846660 21587 net.cpp:100] Creating Layer conv3_1/2/conv_conv3_1/2/bn_0_split
I0409 21:47:43.846662 21587 net.cpp:434] conv3_1/2/conv_conv3_1/2/bn_0_split <- conv3_1/2/conv
I0409 21:47:43.846665 21587 net.cpp:408] conv3_1/2/conv_conv3_1/2/bn_0_split -> conv3_1/2/conv_conv3_1/2/bn_0_split_0
I0409 21:47:43.846671 21587 net.cpp:408] conv3_1/2/conv_conv3_1/2/bn_0_split -> conv3_1/2/conv_conv3_1/2/bn_0_split_1
I0409 21:47:43.846694 21587 net.cpp:150] Setting up conv3_1/2/conv_conv3_1/2/bn_0_split
I0409 21:47:43.846698 21587 net.cpp:157] Top shape: 1 48 108 180 (933120)
I0409 21:47:43.846700 21587 net.cpp:157] Top shape: 1 48 108 180 (933120)
I0409 21:47:43.846702 21587 net.cpp:165] Memory required for data: 1117255764
I0409 21:47:43.846704 21587 layer_factory.hpp:77] Creating layer conv3_1/2/neg
I0409 21:47:43.846709 21587 net.cpp:100] Creating Layer conv3_1/2/neg
I0409 21:47:43.846711 21587 net.cpp:434] conv3_1/2/neg <- conv3_1/2/conv_conv3_1/2/bn_0_split_0
I0409 21:47:43.846715 21587 net.cpp:408] conv3_1/2/neg -> conv3_1/2/neg
I0409 21:47:43.846730 21587 net.cpp:150] Setting up conv3_1/2/neg
I0409 21:47:43.846734 21587 net.cpp:157] Top shape: 1 48 108 180 (933120)
I0409 21:47:43.846735 21587 net.cpp:165] Memory required for data: 1120988244
I0409 21:47:43.846737 21587 layer_factory.hpp:77] Creating layer conv3_1/2/concat
I0409 21:47:43.846741 21587 net.cpp:100] Creating Layer conv3_1/2/concat
I0409 21:47:43.846746 21587 net.cpp:434] conv3_1/2/concat <- conv3_1/2/conv_conv3_1/2/bn_0_split_1
I0409 21:47:43.846750 21587 net.cpp:434] conv3_1/2/concat <- conv3_1/2/neg
I0409 21:47:43.846753 21587 net.cpp:408] conv3_1/2/concat -> conv3_1/2
I0409 21:47:43.846770 21587 net.cpp:150] Setting up conv3_1/2/concat
I0409 21:47:43.846773 21587 net.cpp:157] Top shape: 1 96 108 180 (1866240)
I0409 21:47:43.846776 21587 net.cpp:165] Memory required for data: 1128453204
I0409 21:47:43.846777 21587 layer_factory.hpp:77] Creating layer conv3_1/2/scale
I0409 21:47:43.846781 21587 net.cpp:100] Creating Layer conv3_1/2/scale
I0409 21:47:43.846783 21587 net.cpp:434] conv3_1/2/scale <- conv3_1/2
I0409 21:47:43.846787 21587 net.cpp:395] conv3_1/2/scale -> conv3_1/2 (in-place)
I0409 21:47:43.846815 21587 layer_factory.hpp:77] Creating layer conv3_1/2/scale
I0409 21:47:43.846910 21587 net.cpp:150] Setting up conv3_1/2/scale
I0409 21:47:43.846915 21587 net.cpp:157] Top shape: 1 96 108 180 (1866240)
I0409 21:47:43.846916 21587 net.cpp:165] Memory required for data: 1135918164
I0409 21:47:43.846920 21587 layer_factory.hpp:77] Creating layer conv3_1/2/relu
I0409 21:47:43.846925 21587 net.cpp:100] Creating Layer conv3_1/2/relu
I0409 21:47:43.846926 21587 net.cpp:434] conv3_1/2/relu <- conv3_1/2
I0409 21:47:43.846930 21587 net.cpp:395] conv3_1/2/relu -> conv3_1/2 (in-place)
I0409 21:47:43.847378 21587 net.cpp:150] Setting up conv3_1/2/relu
I0409 21:47:43.847386 21587 net.cpp:157] Top shape: 1 96 108 180 (1866240)
I0409 21:47:43.847388 21587 net.cpp:165] Memory required for data: 1143383124
I0409 21:47:43.847390 21587 layer_factory.hpp:77] Creating layer conv3_1/3/conv
I0409 21:47:43.847396 21587 net.cpp:100] Creating Layer conv3_1/3/conv
I0409 21:47:43.847399 21587 net.cpp:434] conv3_1/3/conv <- conv3_1/2
I0409 21:47:43.847404 21587 net.cpp:408] conv3_1/3/conv -> conv3_1/3
I0409 21:47:43.848641 21587 net.cpp:150] Setting up conv3_1/3/conv
I0409 21:47:43.848650 21587 net.cpp:157] Top shape: 1 128 108 180 (2488320)
I0409 21:47:43.848654 21587 net.cpp:165] Memory required for data: 1153336404
I0409 21:47:43.848656 21587 layer_factory.hpp:77] Creating layer conv3_1/3/bn
I0409 21:47:43.848662 21587 net.cpp:100] Creating Layer conv3_1/3/bn
I0409 21:47:43.848664 21587 net.cpp:434] conv3_1/3/bn <- conv3_1/3
I0409 21:47:43.848668 21587 net.cpp:395] conv3_1/3/bn -> conv3_1/3 (in-place)
I0409 21:47:43.848811 21587 net.cpp:150] Setting up conv3_1/3/bn
I0409 21:47:43.848816 21587 net.cpp:157] Top shape: 1 128 108 180 (2488320)
I0409 21:47:43.848819 21587 net.cpp:165] Memory required for data: 1163289684
I0409 21:47:43.848822 21587 layer_factory.hpp:77] Creating layer conv3_1/3/bn_scale
I0409 21:47:43.848827 21587 net.cpp:100] Creating Layer conv3_1/3/bn_scale
I0409 21:47:43.848829 21587 net.cpp:434] conv3_1/3/bn_scale <- conv3_1/3
I0409 21:47:43.848834 21587 net.cpp:395] conv3_1/3/bn_scale -> conv3_1/3 (in-place)
I0409 21:47:43.848860 21587 layer_factory.hpp:77] Creating layer conv3_1/3/bn_scale
I0409 21:47:43.848949 21587 net.cpp:150] Setting up conv3_1/3/bn_scale
I0409 21:47:43.848953 21587 net.cpp:157] Top shape: 1 128 108 180 (2488320)
I0409 21:47:43.848956 21587 net.cpp:165] Memory required for data: 1173242964
I0409 21:47:43.848959 21587 layer_factory.hpp:77] Creating layer conv3_1/proj
I0409 21:47:43.848966 21587 net.cpp:100] Creating Layer conv3_1/proj
I0409 21:47:43.848969 21587 net.cpp:434] conv3_1/proj <- conv2_3_conv2_3_0_split_1
I0409 21:47:43.848973 21587 net.cpp:408] conv3_1/proj -> conv3_1/proj
I0409 21:47:43.850188 21587 net.cpp:150] Setting up conv3_1/proj
I0409 21:47:43.850198 21587 net.cpp:157] Top shape: 1 128 108 180 (2488320)
I0409 21:47:43.850199 21587 net.cpp:165] Memory required for data: 1183196244
I0409 21:47:43.850204 21587 layer_factory.hpp:77] Creating layer conv3_1/proj_bn
I0409 21:47:43.850209 21587 net.cpp:100] Creating Layer conv3_1/proj_bn
I0409 21:47:43.850213 21587 net.cpp:434] conv3_1/proj_bn <- conv3_1/proj
I0409 21:47:43.850215 21587 net.cpp:395] conv3_1/proj_bn -> conv3_1/proj (in-place)
I0409 21:47:43.850356 21587 net.cpp:150] Setting up conv3_1/proj_bn
I0409 21:47:43.850363 21587 net.cpp:157] Top shape: 1 128 108 180 (2488320)
I0409 21:47:43.850365 21587 net.cpp:165] Memory required for data: 1193149524
I0409 21:47:43.850370 21587 layer_factory.hpp:77] Creating layer conv3_1/proj_bn_scale
I0409 21:47:43.850375 21587 net.cpp:100] Creating Layer conv3_1/proj_bn_scale
I0409 21:47:43.850378 21587 net.cpp:434] conv3_1/proj_bn_scale <- conv3_1/proj
I0409 21:47:43.850381 21587 net.cpp:395] conv3_1/proj_bn_scale -> conv3_1/proj (in-place)
I0409 21:47:43.850409 21587 layer_factory.hpp:77] Creating layer conv3_1/proj_bn_scale
I0409 21:47:43.850764 21587 net.cpp:150] Setting up conv3_1/proj_bn_scale
I0409 21:47:43.850772 21587 net.cpp:157] Top shape: 1 128 108 180 (2488320)
I0409 21:47:43.850775 21587 net.cpp:165] Memory required for data: 1203102804
I0409 21:47:43.850780 21587 layer_factory.hpp:77] Creating layer conv3_1
I0409 21:47:43.850785 21587 net.cpp:100] Creating Layer conv3_1
I0409 21:47:43.850787 21587 net.cpp:434] conv3_1 <- conv3_1/3
I0409 21:47:43.850790 21587 net.cpp:434] conv3_1 <- conv3_1/proj
I0409 21:47:43.850793 21587 net.cpp:408] conv3_1 -> conv3_1
I0409 21:47:43.850814 21587 net.cpp:150] Setting up conv3_1
I0409 21:47:43.850818 21587 net.cpp:157] Top shape: 1 128 108 180 (2488320)
I0409 21:47:43.850821 21587 net.cpp:165] Memory required for data: 1213056084
I0409 21:47:43.850822 21587 layer_factory.hpp:77] Creating layer conv3_1_conv3_1_0_split
I0409 21:47:43.850826 21587 net.cpp:100] Creating Layer conv3_1_conv3_1_0_split
I0409 21:47:43.850828 21587 net.cpp:434] conv3_1_conv3_1_0_split <- conv3_1
I0409 21:47:43.850832 21587 net.cpp:408] conv3_1_conv3_1_0_split -> conv3_1_conv3_1_0_split_0
I0409 21:47:43.850836 21587 net.cpp:408] conv3_1_conv3_1_0_split -> conv3_1_conv3_1_0_split_1
I0409 21:47:43.850862 21587 net.cpp:150] Setting up conv3_1_conv3_1_0_split
I0409 21:47:43.850864 21587 net.cpp:157] Top shape: 1 128 108 180 (2488320)
I0409 21:47:43.850867 21587 net.cpp:157] Top shape: 1 128 108 180 (2488320)
I0409 21:47:43.850869 21587 net.cpp:165] Memory required for data: 1232962644
I0409 21:47:43.850872 21587 layer_factory.hpp:77] Creating layer conv3_2/1/conv
I0409 21:47:43.850878 21587 net.cpp:100] Creating Layer conv3_2/1/conv
I0409 21:47:43.850879 21587 net.cpp:434] conv3_2/1/conv <- conv3_1_conv3_1_0_split_0
I0409 21:47:43.850883 21587 net.cpp:408] conv3_2/1/conv -> conv3_2/1
I0409 21:47:43.852409 21587 net.cpp:150] Setting up conv3_2/1/conv
I0409 21:47:43.852418 21587 net.cpp:157] Top shape: 1 48 108 180 (933120)
I0409 21:47:43.852421 21587 net.cpp:165] Memory required for data: 1236695124
I0409 21:47:43.852425 21587 layer_factory.hpp:77] Creating layer conv3_2/1/bn
I0409 21:47:43.852430 21587 net.cpp:100] Creating Layer conv3_2/1/bn
I0409 21:47:43.852433 21587 net.cpp:434] conv3_2/1/bn <- conv3_2/1
I0409 21:47:43.852438 21587 net.cpp:395] conv3_2/1/bn -> conv3_2/1 (in-place)
I0409 21:47:43.852592 21587 net.cpp:150] Setting up conv3_2/1/bn
I0409 21:47:43.852597 21587 net.cpp:157] Top shape: 1 48 108 180 (933120)
I0409 21:47:43.852599 21587 net.cpp:165] Memory required for data: 1240427604
I0409 21:47:43.852604 21587 layer_factory.hpp:77] Creating layer conv3_2/1/bn_scale
I0409 21:47:43.852609 21587 net.cpp:100] Creating Layer conv3_2/1/bn_scale
I0409 21:47:43.852612 21587 net.cpp:434] conv3_2/1/bn_scale <- conv3_2/1
I0409 21:47:43.852615 21587 net.cpp:395] conv3_2/1/bn_scale -> conv3_2/1 (in-place)
I0409 21:47:43.852643 21587 layer_factory.hpp:77] Creating layer conv3_2/1/bn_scale
I0409 21:47:43.852742 21587 net.cpp:150] Setting up conv3_2/1/bn_scale
I0409 21:47:43.852747 21587 net.cpp:157] Top shape: 1 48 108 180 (933120)
I0409 21:47:43.852749 21587 net.cpp:165] Memory required for data: 1244160084
I0409 21:47:43.852753 21587 layer_factory.hpp:77] Creating layer conv3_2/1/relu
I0409 21:47:43.852757 21587 net.cpp:100] Creating Layer conv3_2/1/relu
I0409 21:47:43.852759 21587 net.cpp:434] conv3_2/1/relu <- conv3_2/1
I0409 21:47:43.852763 21587 net.cpp:395] conv3_2/1/relu -> conv3_2/1 (in-place)
I0409 21:47:43.853224 21587 net.cpp:150] Setting up conv3_2/1/relu
I0409 21:47:43.853235 21587 net.cpp:157] Top shape: 1 48 108 180 (933120)
I0409 21:47:43.853237 21587 net.cpp:165] Memory required for data: 1247892564
I0409 21:47:43.853240 21587 layer_factory.hpp:77] Creating layer conv3_2/2/conv
I0409 21:47:43.853245 21587 net.cpp:100] Creating Layer conv3_2/2/conv
I0409 21:47:43.853248 21587 net.cpp:434] conv3_2/2/conv <- conv3_2/1
I0409 21:47:43.853253 21587 net.cpp:408] conv3_2/2/conv -> conv3_2/2/conv
I0409 21:47:43.854163 21587 net.cpp:150] Setting up conv3_2/2/conv
I0409 21:47:43.854172 21587 net.cpp:157] Top shape: 1 48 108 180 (933120)
I0409 21:47:43.854174 21587 net.cpp:165] Memory required for data: 1251625044
I0409 21:47:43.854178 21587 layer_factory.hpp:77] Creating layer conv3_2/2/bn
I0409 21:47:43.854183 21587 net.cpp:100] Creating Layer conv3_2/2/bn
I0409 21:47:43.854185 21587 net.cpp:434] conv3_2/2/bn <- conv3_2/2/conv
I0409 21:47:43.854189 21587 net.cpp:395] conv3_2/2/bn -> conv3_2/2/conv (in-place)
I0409 21:47:43.854336 21587 net.cpp:150] Setting up conv3_2/2/bn
I0409 21:47:43.854339 21587 net.cpp:157] Top shape: 1 48 108 180 (933120)
I0409 21:47:43.854341 21587 net.cpp:165] Memory required for data: 1255357524
I0409 21:47:43.854346 21587 layer_factory.hpp:77] Creating layer conv3_2/2/conv_conv3_2/2/bn_0_split
I0409 21:47:43.854351 21587 net.cpp:100] Creating Layer conv3_2/2/conv_conv3_2/2/bn_0_split
I0409 21:47:43.854353 21587 net.cpp:434] conv3_2/2/conv_conv3_2/2/bn_0_split <- conv3_2/2/conv
I0409 21:47:43.854357 21587 net.cpp:408] conv3_2/2/conv_conv3_2/2/bn_0_split -> conv3_2/2/conv_conv3_2/2/bn_0_split_0
I0409 21:47:43.854362 21587 net.cpp:408] conv3_2/2/conv_conv3_2/2/bn_0_split -> conv3_2/2/conv_conv3_2/2/bn_0_split_1
I0409 21:47:43.854394 21587 net.cpp:150] Setting up conv3_2/2/conv_conv3_2/2/bn_0_split
I0409 21:47:43.854398 21587 net.cpp:157] Top shape: 1 48 108 180 (933120)
I0409 21:47:43.854401 21587 net.cpp:157] Top shape: 1 48 108 180 (933120)
I0409 21:47:43.854403 21587 net.cpp:165] Memory required for data: 1262822484
I0409 21:47:43.854405 21587 layer_factory.hpp:77] Creating layer conv3_2/2/neg
I0409 21:47:43.854409 21587 net.cpp:100] Creating Layer conv3_2/2/neg
I0409 21:47:43.854413 21587 net.cpp:434] conv3_2/2/neg <- conv3_2/2/conv_conv3_2/2/bn_0_split_0
I0409 21:47:43.854415 21587 net.cpp:408] conv3_2/2/neg -> conv3_2/2/neg
I0409 21:47:43.854434 21587 net.cpp:150] Setting up conv3_2/2/neg
I0409 21:47:43.854437 21587 net.cpp:157] Top shape: 1 48 108 180 (933120)
I0409 21:47:43.854439 21587 net.cpp:165] Memory required for data: 1266554964
I0409 21:47:43.854441 21587 layer_factory.hpp:77] Creating layer conv3_2/2/concat
I0409 21:47:43.854445 21587 net.cpp:100] Creating Layer conv3_2/2/concat
I0409 21:47:43.854447 21587 net.cpp:434] conv3_2/2/concat <- conv3_2/2/conv_conv3_2/2/bn_0_split_1
I0409 21:47:43.854450 21587 net.cpp:434] conv3_2/2/concat <- conv3_2/2/neg
I0409 21:47:43.854454 21587 net.cpp:408] conv3_2/2/concat -> conv3_2/2
I0409 21:47:43.854470 21587 net.cpp:150] Setting up conv3_2/2/concat
I0409 21:47:43.854473 21587 net.cpp:157] Top shape: 1 96 108 180 (1866240)
I0409 21:47:43.854475 21587 net.cpp:165] Memory required for data: 1274019924
I0409 21:47:43.854477 21587 layer_factory.hpp:77] Creating layer conv3_2/2/scale
I0409 21:47:43.854482 21587 net.cpp:100] Creating Layer conv3_2/2/scale
I0409 21:47:43.854485 21587 net.cpp:434] conv3_2/2/scale <- conv3_2/2
I0409 21:47:43.854488 21587 net.cpp:395] conv3_2/2/scale -> conv3_2/2 (in-place)
I0409 21:47:43.854516 21587 layer_factory.hpp:77] Creating layer conv3_2/2/scale
I0409 21:47:43.854612 21587 net.cpp:150] Setting up conv3_2/2/scale
I0409 21:47:43.854616 21587 net.cpp:157] Top shape: 1 96 108 180 (1866240)
I0409 21:47:43.854619 21587 net.cpp:165] Memory required for data: 1281484884
I0409 21:47:43.854622 21587 layer_factory.hpp:77] Creating layer conv3_2/2/relu
I0409 21:47:43.854626 21587 net.cpp:100] Creating Layer conv3_2/2/relu
I0409 21:47:43.854629 21587 net.cpp:434] conv3_2/2/relu <- conv3_2/2
I0409 21:47:43.854631 21587 net.cpp:395] conv3_2/2/relu -> conv3_2/2 (in-place)
I0409 21:47:43.855083 21587 net.cpp:150] Setting up conv3_2/2/relu
I0409 21:47:43.855092 21587 net.cpp:157] Top shape: 1 96 108 180 (1866240)
I0409 21:47:43.855093 21587 net.cpp:165] Memory required for data: 1288949844
I0409 21:47:43.855096 21587 layer_factory.hpp:77] Creating layer conv3_2/3/conv
I0409 21:47:43.855103 21587 net.cpp:100] Creating Layer conv3_2/3/conv
I0409 21:47:43.855105 21587 net.cpp:434] conv3_2/3/conv <- conv3_2/2
I0409 21:47:43.855109 21587 net.cpp:408] conv3_2/3/conv -> conv3_2/3
I0409 21:47:43.856998 21587 net.cpp:150] Setting up conv3_2/3/conv
I0409 21:47:43.857007 21587 net.cpp:157] Top shape: 1 128 108 180 (2488320)
I0409 21:47:43.857010 21587 net.cpp:165] Memory required for data: 1298903124
I0409 21:47:43.857013 21587 layer_factory.hpp:77] Creating layer conv3_2/3/bn
I0409 21:47:43.857019 21587 net.cpp:100] Creating Layer conv3_2/3/bn
I0409 21:47:43.857023 21587 net.cpp:434] conv3_2/3/bn <- conv3_2/3
I0409 21:47:43.857025 21587 net.cpp:395] conv3_2/3/bn -> conv3_2/3 (in-place)
I0409 21:47:43.857172 21587 net.cpp:150] Setting up conv3_2/3/bn
I0409 21:47:43.857177 21587 net.cpp:157] Top shape: 1 128 108 180 (2488320)
I0409 21:47:43.857179 21587 net.cpp:165] Memory required for data: 1308856404
I0409 21:47:43.857183 21587 layer_factory.hpp:77] Creating layer conv3_2/3/bn_scale
I0409 21:47:43.857188 21587 net.cpp:100] Creating Layer conv3_2/3/bn_scale
I0409 21:47:43.857192 21587 net.cpp:434] conv3_2/3/bn_scale <- conv3_2/3
I0409 21:47:43.857194 21587 net.cpp:395] conv3_2/3/bn_scale -> conv3_2/3 (in-place)
I0409 21:47:43.857221 21587 layer_factory.hpp:77] Creating layer conv3_2/3/bn_scale
I0409 21:47:43.857313 21587 net.cpp:150] Setting up conv3_2/3/bn_scale
I0409 21:47:43.857318 21587 net.cpp:157] Top shape: 1 128 108 180 (2488320)
I0409 21:47:43.857321 21587 net.cpp:165] Memory required for data: 1318809684
I0409 21:47:43.857324 21587 layer_factory.hpp:77] Creating layer conv3_2/input
I0409 21:47:43.857329 21587 net.cpp:100] Creating Layer conv3_2/input
I0409 21:47:43.857331 21587 net.cpp:434] conv3_2/input <- conv3_1_conv3_1_0_split_1
I0409 21:47:43.857336 21587 net.cpp:408] conv3_2/input -> conv3_2/input
I0409 21:47:43.857353 21587 net.cpp:150] Setting up conv3_2/input
I0409 21:47:43.857357 21587 net.cpp:157] Top shape: 1 128 108 180 (2488320)
I0409 21:47:43.857359 21587 net.cpp:165] Memory required for data: 1328762964
I0409 21:47:43.857362 21587 layer_factory.hpp:77] Creating layer conv3_2
I0409 21:47:43.857365 21587 net.cpp:100] Creating Layer conv3_2
I0409 21:47:43.857367 21587 net.cpp:434] conv3_2 <- conv3_2/3
I0409 21:47:43.857370 21587 net.cpp:434] conv3_2 <- conv3_2/input
I0409 21:47:43.857374 21587 net.cpp:408] conv3_2 -> conv3_2
I0409 21:47:43.857389 21587 net.cpp:150] Setting up conv3_2
I0409 21:47:43.857393 21587 net.cpp:157] Top shape: 1 128 108 180 (2488320)
I0409 21:47:43.857395 21587 net.cpp:165] Memory required for data: 1338716244
I0409 21:47:43.857398 21587 layer_factory.hpp:77] Creating layer conv3_2_conv3_2_0_split
I0409 21:47:43.857401 21587 net.cpp:100] Creating Layer conv3_2_conv3_2_0_split
I0409 21:47:43.857403 21587 net.cpp:434] conv3_2_conv3_2_0_split <- conv3_2
I0409 21:47:43.857409 21587 net.cpp:408] conv3_2_conv3_2_0_split -> conv3_2_conv3_2_0_split_0
I0409 21:47:43.857414 21587 net.cpp:408] conv3_2_conv3_2_0_split -> conv3_2_conv3_2_0_split_1
I0409 21:47:43.857439 21587 net.cpp:150] Setting up conv3_2_conv3_2_0_split
I0409 21:47:43.857441 21587 net.cpp:157] Top shape: 1 128 108 180 (2488320)
I0409 21:47:43.857445 21587 net.cpp:157] Top shape: 1 128 108 180 (2488320)
I0409 21:47:43.857446 21587 net.cpp:165] Memory required for data: 1358622804
I0409 21:47:43.857448 21587 layer_factory.hpp:77] Creating layer conv3_3/1/conv
I0409 21:47:43.857453 21587 net.cpp:100] Creating Layer conv3_3/1/conv
I0409 21:47:43.857455 21587 net.cpp:434] conv3_3/1/conv <- conv3_2_conv3_2_0_split_0
I0409 21:47:43.857460 21587 net.cpp:408] conv3_3/1/conv -> conv3_3/1
I0409 21:47:43.858320 21587 net.cpp:150] Setting up conv3_3/1/conv
I0409 21:47:43.858330 21587 net.cpp:157] Top shape: 1 48 108 180 (933120)
I0409 21:47:43.858335 21587 net.cpp:165] Memory required for data: 1362355284
I0409 21:47:43.858338 21587 layer_factory.hpp:77] Creating layer conv3_3/1/bn
I0409 21:47:43.858343 21587 net.cpp:100] Creating Layer conv3_3/1/bn
I0409 21:47:43.858345 21587 net.cpp:434] conv3_3/1/bn <- conv3_3/1
I0409 21:47:43.858350 21587 net.cpp:395] conv3_3/1/bn -> conv3_3/1 (in-place)
I0409 21:47:43.858503 21587 net.cpp:150] Setting up conv3_3/1/bn
I0409 21:47:43.858508 21587 net.cpp:157] Top shape: 1 48 108 180 (933120)
I0409 21:47:43.858510 21587 net.cpp:165] Memory required for data: 1366087764
I0409 21:47:43.858515 21587 layer_factory.hpp:77] Creating layer conv3_3/1/bn_scale
I0409 21:47:43.858520 21587 net.cpp:100] Creating Layer conv3_3/1/bn_scale
I0409 21:47:43.858521 21587 net.cpp:434] conv3_3/1/bn_scale <- conv3_3/1
I0409 21:47:43.858525 21587 net.cpp:395] conv3_3/1/bn_scale -> conv3_3/1 (in-place)
I0409 21:47:43.858552 21587 layer_factory.hpp:77] Creating layer conv3_3/1/bn_scale
I0409 21:47:43.858922 21587 net.cpp:150] Setting up conv3_3/1/bn_scale
I0409 21:47:43.858940 21587 net.cpp:157] Top shape: 1 48 108 180 (933120)
I0409 21:47:43.858942 21587 net.cpp:165] Memory required for data: 1369820244
I0409 21:47:43.858947 21587 layer_factory.hpp:77] Creating layer conv3_3/1/relu
I0409 21:47:43.858952 21587 net.cpp:100] Creating Layer conv3_3/1/relu
I0409 21:47:43.858953 21587 net.cpp:434] conv3_3/1/relu <- conv3_3/1
I0409 21:47:43.858958 21587 net.cpp:395] conv3_3/1/relu -> conv3_3/1 (in-place)
I0409 21:47:43.859434 21587 net.cpp:150] Setting up conv3_3/1/relu
I0409 21:47:43.859442 21587 net.cpp:157] Top shape: 1 48 108 180 (933120)
I0409 21:47:43.859444 21587 net.cpp:165] Memory required for data: 1373552724
I0409 21:47:43.859447 21587 layer_factory.hpp:77] Creating layer conv3_3/2/conv
I0409 21:47:43.859453 21587 net.cpp:100] Creating Layer conv3_3/2/conv
I0409 21:47:43.859455 21587 net.cpp:434] conv3_3/2/conv <- conv3_3/1
I0409 21:47:43.859462 21587 net.cpp:408] conv3_3/2/conv -> conv3_3/2/conv
I0409 21:47:43.861232 21587 net.cpp:150] Setting up conv3_3/2/conv
I0409 21:47:43.861240 21587 net.cpp:157] Top shape: 1 48 108 180 (933120)
I0409 21:47:43.861243 21587 net.cpp:165] Memory required for data: 1377285204
I0409 21:47:43.861246 21587 layer_factory.hpp:77] Creating layer conv3_3/2/bn
I0409 21:47:43.861251 21587 net.cpp:100] Creating Layer conv3_3/2/bn
I0409 21:47:43.861254 21587 net.cpp:434] conv3_3/2/bn <- conv3_3/2/conv
I0409 21:47:43.861258 21587 net.cpp:395] conv3_3/2/bn -> conv3_3/2/conv (in-place)
I0409 21:47:43.861454 21587 net.cpp:150] Setting up conv3_3/2/bn
I0409 21:47:43.861459 21587 net.cpp:157] Top shape: 1 48 108 180 (933120)
I0409 21:47:43.861460 21587 net.cpp:165] Memory required for data: 1381017684
I0409 21:47:43.861465 21587 layer_factory.hpp:77] Creating layer conv3_3/2/conv_conv3_3/2/bn_0_split
I0409 21:47:43.861469 21587 net.cpp:100] Creating Layer conv3_3/2/conv_conv3_3/2/bn_0_split
I0409 21:47:43.861471 21587 net.cpp:434] conv3_3/2/conv_conv3_3/2/bn_0_split <- conv3_3/2/conv
I0409 21:47:43.861475 21587 net.cpp:408] conv3_3/2/conv_conv3_3/2/bn_0_split -> conv3_3/2/conv_conv3_3/2/bn_0_split_0
I0409 21:47:43.861480 21587 net.cpp:408] conv3_3/2/conv_conv3_3/2/bn_0_split -> conv3_3/2/conv_conv3_3/2/bn_0_split_1
I0409 21:47:43.861507 21587 net.cpp:150] Setting up conv3_3/2/conv_conv3_3/2/bn_0_split
I0409 21:47:43.861511 21587 net.cpp:157] Top shape: 1 48 108 180 (933120)
I0409 21:47:43.861515 21587 net.cpp:157] Top shape: 1 48 108 180 (933120)
I0409 21:47:43.861516 21587 net.cpp:165] Memory required for data: 1388482644
I0409 21:47:43.861518 21587 layer_factory.hpp:77] Creating layer conv3_3/2/neg
I0409 21:47:43.861522 21587 net.cpp:100] Creating Layer conv3_3/2/neg
I0409 21:47:43.861526 21587 net.cpp:434] conv3_3/2/neg <- conv3_3/2/conv_conv3_3/2/bn_0_split_0
I0409 21:47:43.861528 21587 net.cpp:408] conv3_3/2/neg -> conv3_3/2/neg
I0409 21:47:43.861546 21587 net.cpp:150] Setting up conv3_3/2/neg
I0409 21:47:43.861548 21587 net.cpp:157] Top shape: 1 48 108 180 (933120)
I0409 21:47:43.861553 21587 net.cpp:165] Memory required for data: 1392215124
I0409 21:47:43.861555 21587 layer_factory.hpp:77] Creating layer conv3_3/2/concat
I0409 21:47:43.861559 21587 net.cpp:100] Creating Layer conv3_3/2/concat
I0409 21:47:43.861562 21587 net.cpp:434] conv3_3/2/concat <- conv3_3/2/conv_conv3_3/2/bn_0_split_1
I0409 21:47:43.861564 21587 net.cpp:434] conv3_3/2/concat <- conv3_3/2/neg
I0409 21:47:43.861568 21587 net.cpp:408] conv3_3/2/concat -> conv3_3/2
I0409 21:47:43.861584 21587 net.cpp:150] Setting up conv3_3/2/concat
I0409 21:47:43.861588 21587 net.cpp:157] Top shape: 1 96 108 180 (1866240)
I0409 21:47:43.861590 21587 net.cpp:165] Memory required for data: 1399680084
I0409 21:47:43.861593 21587 layer_factory.hpp:77] Creating layer conv3_3/2/scale
I0409 21:47:43.861598 21587 net.cpp:100] Creating Layer conv3_3/2/scale
I0409 21:47:43.861599 21587 net.cpp:434] conv3_3/2/scale <- conv3_3/2
I0409 21:47:43.861603 21587 net.cpp:395] conv3_3/2/scale -> conv3_3/2 (in-place)
I0409 21:47:43.861631 21587 layer_factory.hpp:77] Creating layer conv3_3/2/scale
I0409 21:47:43.861732 21587 net.cpp:150] Setting up conv3_3/2/scale
I0409 21:47:43.861737 21587 net.cpp:157] Top shape: 1 96 108 180 (1866240)
I0409 21:47:43.861738 21587 net.cpp:165] Memory required for data: 1407145044
I0409 21:47:43.861742 21587 layer_factory.hpp:77] Creating layer conv3_3/2/relu
I0409 21:47:43.861747 21587 net.cpp:100] Creating Layer conv3_3/2/relu
I0409 21:47:43.861748 21587 net.cpp:434] conv3_3/2/relu <- conv3_3/2
I0409 21:47:43.861752 21587 net.cpp:395] conv3_3/2/relu -> conv3_3/2 (in-place)
I0409 21:47:43.861874 21587 net.cpp:150] Setting up conv3_3/2/relu
I0409 21:47:43.861881 21587 net.cpp:157] Top shape: 1 96 108 180 (1866240)
I0409 21:47:43.861882 21587 net.cpp:165] Memory required for data: 1414610004
I0409 21:47:43.861886 21587 layer_factory.hpp:77] Creating layer conv3_3/3/conv
I0409 21:47:43.861891 21587 net.cpp:100] Creating Layer conv3_3/3/conv
I0409 21:47:43.861893 21587 net.cpp:434] conv3_3/3/conv <- conv3_3/2
I0409 21:47:43.861897 21587 net.cpp:408] conv3_3/3/conv -> conv3_3/3
I0409 21:47:43.863116 21587 net.cpp:150] Setting up conv3_3/3/conv
I0409 21:47:43.863126 21587 net.cpp:157] Top shape: 1 128 108 180 (2488320)
I0409 21:47:43.863128 21587 net.cpp:165] Memory required for data: 1424563284
I0409 21:47:43.863131 21587 layer_factory.hpp:77] Creating layer conv3_3/3/bn
I0409 21:47:43.863137 21587 net.cpp:100] Creating Layer conv3_3/3/bn
I0409 21:47:43.863139 21587 net.cpp:434] conv3_3/3/bn <- conv3_3/3
I0409 21:47:43.863143 21587 net.cpp:395] conv3_3/3/bn -> conv3_3/3 (in-place)
I0409 21:47:43.863291 21587 net.cpp:150] Setting up conv3_3/3/bn
I0409 21:47:43.863294 21587 net.cpp:157] Top shape: 1 128 108 180 (2488320)
I0409 21:47:43.863296 21587 net.cpp:165] Memory required for data: 1434516564
I0409 21:47:43.863301 21587 layer_factory.hpp:77] Creating layer conv3_3/3/bn_scale
I0409 21:47:43.863306 21587 net.cpp:100] Creating Layer conv3_3/3/bn_scale
I0409 21:47:43.863308 21587 net.cpp:434] conv3_3/3/bn_scale <- conv3_3/3
I0409 21:47:43.863312 21587 net.cpp:395] conv3_3/3/bn_scale -> conv3_3/3 (in-place)
I0409 21:47:43.863339 21587 layer_factory.hpp:77] Creating layer conv3_3/3/bn_scale
I0409 21:47:43.863433 21587 net.cpp:150] Setting up conv3_3/3/bn_scale
I0409 21:47:43.863437 21587 net.cpp:157] Top shape: 1 128 108 180 (2488320)
I0409 21:47:43.863440 21587 net.cpp:165] Memory required for data: 1444469844
I0409 21:47:43.863443 21587 layer_factory.hpp:77] Creating layer conv3_3/input
I0409 21:47:43.863447 21587 net.cpp:100] Creating Layer conv3_3/input
I0409 21:47:43.863450 21587 net.cpp:434] conv3_3/input <- conv3_2_conv3_2_0_split_1
I0409 21:47:43.863456 21587 net.cpp:408] conv3_3/input -> conv3_3/input
I0409 21:47:43.863476 21587 net.cpp:150] Setting up conv3_3/input
I0409 21:47:43.863479 21587 net.cpp:157] Top shape: 1 128 108 180 (2488320)
I0409 21:47:43.863481 21587 net.cpp:165] Memory required for data: 1454423124
I0409 21:47:43.863483 21587 layer_factory.hpp:77] Creating layer conv3_3
I0409 21:47:43.863487 21587 net.cpp:100] Creating Layer conv3_3
I0409 21:47:43.863493 21587 net.cpp:434] conv3_3 <- conv3_3/3
I0409 21:47:43.863497 21587 net.cpp:434] conv3_3 <- conv3_3/input
I0409 21:47:43.863500 21587 net.cpp:408] conv3_3 -> conv3_3
I0409 21:47:43.863517 21587 net.cpp:150] Setting up conv3_3
I0409 21:47:43.863521 21587 net.cpp:157] Top shape: 1 128 108 180 (2488320)
I0409 21:47:43.863523 21587 net.cpp:165] Memory required for data: 1464376404
I0409 21:47:43.863525 21587 layer_factory.hpp:77] Creating layer conv3_3_conv3_3_0_split
I0409 21:47:43.863529 21587 net.cpp:100] Creating Layer conv3_3_conv3_3_0_split
I0409 21:47:43.863531 21587 net.cpp:434] conv3_3_conv3_3_0_split <- conv3_3
I0409 21:47:43.863534 21587 net.cpp:408] conv3_3_conv3_3_0_split -> conv3_3_conv3_3_0_split_0
I0409 21:47:43.863539 21587 net.cpp:408] conv3_3_conv3_3_0_split -> conv3_3_conv3_3_0_split_1
I0409 21:47:43.863564 21587 net.cpp:150] Setting up conv3_3_conv3_3_0_split
I0409 21:47:43.863567 21587 net.cpp:157] Top shape: 1 128 108 180 (2488320)
I0409 21:47:43.863569 21587 net.cpp:157] Top shape: 1 128 108 180 (2488320)
I0409 21:47:43.863571 21587 net.cpp:165] Memory required for data: 1484282964
I0409 21:47:43.863574 21587 layer_factory.hpp:77] Creating layer conv3_4/1/conv
I0409 21:47:43.863579 21587 net.cpp:100] Creating Layer conv3_4/1/conv
I0409 21:47:43.863581 21587 net.cpp:434] conv3_4/1/conv <- conv3_3_conv3_3_0_split_0
I0409 21:47:43.863585 21587 net.cpp:408] conv3_4/1/conv -> conv3_4/1
I0409 21:47:43.865116 21587 net.cpp:150] Setting up conv3_4/1/conv
I0409 21:47:43.865128 21587 net.cpp:157] Top shape: 1 48 108 180 (933120)
I0409 21:47:43.865129 21587 net.cpp:165] Memory required for data: 1488015444
I0409 21:47:43.865144 21587 layer_factory.hpp:77] Creating layer conv3_4/1/bn
I0409 21:47:43.865150 21587 net.cpp:100] Creating Layer conv3_4/1/bn
I0409 21:47:43.865154 21587 net.cpp:434] conv3_4/1/bn <- conv3_4/1
I0409 21:47:43.865156 21587 net.cpp:395] conv3_4/1/bn -> conv3_4/1 (in-place)
I0409 21:47:43.865315 21587 net.cpp:150] Setting up conv3_4/1/bn
I0409 21:47:43.865320 21587 net.cpp:157] Top shape: 1 48 108 180 (933120)
I0409 21:47:43.865322 21587 net.cpp:165] Memory required for data: 1491747924
I0409 21:47:43.865327 21587 layer_factory.hpp:77] Creating layer conv3_4/1/bn_scale
I0409 21:47:43.865331 21587 net.cpp:100] Creating Layer conv3_4/1/bn_scale
I0409 21:47:43.865334 21587 net.cpp:434] conv3_4/1/bn_scale <- conv3_4/1
I0409 21:47:43.865337 21587 net.cpp:395] conv3_4/1/bn_scale -> conv3_4/1 (in-place)
I0409 21:47:43.865366 21587 layer_factory.hpp:77] Creating layer conv3_4/1/bn_scale
I0409 21:47:43.865465 21587 net.cpp:150] Setting up conv3_4/1/bn_scale
I0409 21:47:43.865470 21587 net.cpp:157] Top shape: 1 48 108 180 (933120)
I0409 21:47:43.865473 21587 net.cpp:165] Memory required for data: 1495480404
I0409 21:47:43.865476 21587 layer_factory.hpp:77] Creating layer conv3_4/1/relu
I0409 21:47:43.865481 21587 net.cpp:100] Creating Layer conv3_4/1/relu
I0409 21:47:43.865483 21587 net.cpp:434] conv3_4/1/relu <- conv3_4/1
I0409 21:47:43.865486 21587 net.cpp:395] conv3_4/1/relu -> conv3_4/1 (in-place)
I0409 21:47:43.865613 21587 net.cpp:150] Setting up conv3_4/1/relu
I0409 21:47:43.865619 21587 net.cpp:157] Top shape: 1 48 108 180 (933120)
I0409 21:47:43.865622 21587 net.cpp:165] Memory required for data: 1499212884
I0409 21:47:43.865624 21587 layer_factory.hpp:77] Creating layer conv3_4/2/conv
I0409 21:47:43.865630 21587 net.cpp:100] Creating Layer conv3_4/2/conv
I0409 21:47:43.865633 21587 net.cpp:434] conv3_4/2/conv <- conv3_4/1
I0409 21:47:43.865636 21587 net.cpp:408] conv3_4/2/conv -> conv3_4/2/conv
I0409 21:47:43.866889 21587 net.cpp:150] Setting up conv3_4/2/conv
I0409 21:47:43.866899 21587 net.cpp:157] Top shape: 1 48 108 180 (933120)
I0409 21:47:43.866900 21587 net.cpp:165] Memory required for data: 1502945364
I0409 21:47:43.866904 21587 layer_factory.hpp:77] Creating layer conv3_4/2/bn
I0409 21:47:43.866909 21587 net.cpp:100] Creating Layer conv3_4/2/bn
I0409 21:47:43.866912 21587 net.cpp:434] conv3_4/2/bn <- conv3_4/2/conv
I0409 21:47:43.866919 21587 net.cpp:395] conv3_4/2/bn -> conv3_4/2/conv (in-place)
I0409 21:47:43.867074 21587 net.cpp:150] Setting up conv3_4/2/bn
I0409 21:47:43.867079 21587 net.cpp:157] Top shape: 1 48 108 180 (933120)
I0409 21:47:43.867081 21587 net.cpp:165] Memory required for data: 1506677844
I0409 21:47:43.867086 21587 layer_factory.hpp:77] Creating layer conv3_4/2/conv_conv3_4/2/bn_0_split
I0409 21:47:43.867090 21587 net.cpp:100] Creating Layer conv3_4/2/conv_conv3_4/2/bn_0_split
I0409 21:47:43.867092 21587 net.cpp:434] conv3_4/2/conv_conv3_4/2/bn_0_split <- conv3_4/2/conv
I0409 21:47:43.867097 21587 net.cpp:408] conv3_4/2/conv_conv3_4/2/bn_0_split -> conv3_4/2/conv_conv3_4/2/bn_0_split_0
I0409 21:47:43.867101 21587 net.cpp:408] conv3_4/2/conv_conv3_4/2/bn_0_split -> conv3_4/2/conv_conv3_4/2/bn_0_split_1
I0409 21:47:43.867128 21587 net.cpp:150] Setting up conv3_4/2/conv_conv3_4/2/bn_0_split
I0409 21:47:43.867132 21587 net.cpp:157] Top shape: 1 48 108 180 (933120)
I0409 21:47:43.867135 21587 net.cpp:157] Top shape: 1 48 108 180 (933120)
I0409 21:47:43.867136 21587 net.cpp:165] Memory required for data: 1514142804
I0409 21:47:43.867139 21587 layer_factory.hpp:77] Creating layer conv3_4/2/neg
I0409 21:47:43.867142 21587 net.cpp:100] Creating Layer conv3_4/2/neg
I0409 21:47:43.867146 21587 net.cpp:434] conv3_4/2/neg <- conv3_4/2/conv_conv3_4/2/bn_0_split_0
I0409 21:47:43.867149 21587 net.cpp:408] conv3_4/2/neg -> conv3_4/2/neg
I0409 21:47:43.867164 21587 net.cpp:150] Setting up conv3_4/2/neg
I0409 21:47:43.867168 21587 net.cpp:157] Top shape: 1 48 108 180 (933120)
I0409 21:47:43.867171 21587 net.cpp:165] Memory required for data: 1517875284
I0409 21:47:43.867172 21587 layer_factory.hpp:77] Creating layer conv3_4/2/concat
I0409 21:47:43.867177 21587 net.cpp:100] Creating Layer conv3_4/2/concat
I0409 21:47:43.867178 21587 net.cpp:434] conv3_4/2/concat <- conv3_4/2/conv_conv3_4/2/bn_0_split_1
I0409 21:47:43.867182 21587 net.cpp:434] conv3_4/2/concat <- conv3_4/2/neg
I0409 21:47:43.867185 21587 net.cpp:408] conv3_4/2/concat -> conv3_4/2
I0409 21:47:43.867200 21587 net.cpp:150] Setting up conv3_4/2/concat
I0409 21:47:43.867204 21587 net.cpp:157] Top shape: 1 96 108 180 (1866240)
I0409 21:47:43.867207 21587 net.cpp:165] Memory required for data: 1525340244
I0409 21:47:43.867208 21587 layer_factory.hpp:77] Creating layer conv3_4/2/scale
I0409 21:47:43.867224 21587 net.cpp:100] Creating Layer conv3_4/2/scale
I0409 21:47:43.867228 21587 net.cpp:434] conv3_4/2/scale <- conv3_4/2
I0409 21:47:43.867230 21587 net.cpp:395] conv3_4/2/scale -> conv3_4/2 (in-place)
I0409 21:47:43.867259 21587 layer_factory.hpp:77] Creating layer conv3_4/2/scale
I0409 21:47:43.867617 21587 net.cpp:150] Setting up conv3_4/2/scale
I0409 21:47:43.867626 21587 net.cpp:157] Top shape: 1 96 108 180 (1866240)
I0409 21:47:43.867629 21587 net.cpp:165] Memory required for data: 1532805204
I0409 21:47:43.867632 21587 layer_factory.hpp:77] Creating layer conv3_4/2/relu
I0409 21:47:43.867637 21587 net.cpp:100] Creating Layer conv3_4/2/relu
I0409 21:47:43.867640 21587 net.cpp:434] conv3_4/2/relu <- conv3_4/2
I0409 21:47:43.867643 21587 net.cpp:395] conv3_4/2/relu -> conv3_4/2 (in-place)
I0409 21:47:43.868136 21587 net.cpp:150] Setting up conv3_4/2/relu
I0409 21:47:43.868146 21587 net.cpp:157] Top shape: 1 96 108 180 (1866240)
I0409 21:47:43.868149 21587 net.cpp:165] Memory required for data: 1540270164
I0409 21:47:43.868151 21587 layer_factory.hpp:77] Creating layer conv3_4/3/conv
I0409 21:47:43.868156 21587 net.cpp:100] Creating Layer conv3_4/3/conv
I0409 21:47:43.868160 21587 net.cpp:434] conv3_4/3/conv <- conv3_4/2
I0409 21:47:43.868165 21587 net.cpp:408] conv3_4/3/conv -> conv3_4/3
I0409 21:47:43.869709 21587 net.cpp:150] Setting up conv3_4/3/conv
I0409 21:47:43.869716 21587 net.cpp:157] Top shape: 1 128 108 180 (2488320)
I0409 21:47:43.869719 21587 net.cpp:165] Memory required for data: 1550223444
I0409 21:47:43.869722 21587 layer_factory.hpp:77] Creating layer conv3_4/3/bn
I0409 21:47:43.869729 21587 net.cpp:100] Creating Layer conv3_4/3/bn
I0409 21:47:43.869730 21587 net.cpp:434] conv3_4/3/bn <- conv3_4/3
I0409 21:47:43.869737 21587 net.cpp:395] conv3_4/3/bn -> conv3_4/3 (in-place)
I0409 21:47:43.869891 21587 net.cpp:150] Setting up conv3_4/3/bn
I0409 21:47:43.869896 21587 net.cpp:157] Top shape: 1 128 108 180 (2488320)
I0409 21:47:43.869899 21587 net.cpp:165] Memory required for data: 1560176724
I0409 21:47:43.869902 21587 layer_factory.hpp:77] Creating layer conv3_4/3/bn_scale
I0409 21:47:43.869906 21587 net.cpp:100] Creating Layer conv3_4/3/bn_scale
I0409 21:47:43.869910 21587 net.cpp:434] conv3_4/3/bn_scale <- conv3_4/3
I0409 21:47:43.869913 21587 net.cpp:395] conv3_4/3/bn_scale -> conv3_4/3 (in-place)
I0409 21:47:43.869940 21587 layer_factory.hpp:77] Creating layer conv3_4/3/bn_scale
I0409 21:47:43.870038 21587 net.cpp:150] Setting up conv3_4/3/bn_scale
I0409 21:47:43.870043 21587 net.cpp:157] Top shape: 1 128 108 180 (2488320)
I0409 21:47:43.870045 21587 net.cpp:165] Memory required for data: 1570130004
I0409 21:47:43.870049 21587 layer_factory.hpp:77] Creating layer conv3_4/input
I0409 21:47:43.870054 21587 net.cpp:100] Creating Layer conv3_4/input
I0409 21:47:43.870056 21587 net.cpp:434] conv3_4/input <- conv3_3_conv3_3_0_split_1
I0409 21:47:43.870059 21587 net.cpp:408] conv3_4/input -> conv3_4/input
I0409 21:47:43.870079 21587 net.cpp:150] Setting up conv3_4/input
I0409 21:47:43.870082 21587 net.cpp:157] Top shape: 1 128 108 180 (2488320)
I0409 21:47:43.870085 21587 net.cpp:165] Memory required for data: 1580083284
I0409 21:47:43.870086 21587 layer_factory.hpp:77] Creating layer conv3_4
I0409 21:47:43.870090 21587 net.cpp:100] Creating Layer conv3_4
I0409 21:47:43.870093 21587 net.cpp:434] conv3_4 <- conv3_4/3
I0409 21:47:43.870096 21587 net.cpp:434] conv3_4 <- conv3_4/input
I0409 21:47:43.870100 21587 net.cpp:408] conv3_4 -> conv3_4
I0409 21:47:43.870116 21587 net.cpp:150] Setting up conv3_4
I0409 21:47:43.870121 21587 net.cpp:157] Top shape: 1 128 108 180 (2488320)
I0409 21:47:43.870122 21587 net.cpp:165] Memory required for data: 1590036564
I0409 21:47:43.870124 21587 layer_factory.hpp:77] Creating layer conv3_4_conv3_4_0_split
I0409 21:47:43.870128 21587 net.cpp:100] Creating Layer conv3_4_conv3_4_0_split
I0409 21:47:43.870131 21587 net.cpp:434] conv3_4_conv3_4_0_split <- conv3_4
I0409 21:47:43.870134 21587 net.cpp:408] conv3_4_conv3_4_0_split -> conv3_4_conv3_4_0_split_0
I0409 21:47:43.870138 21587 net.cpp:408] conv3_4_conv3_4_0_split -> conv3_4_conv3_4_0_split_1
I0409 21:47:43.870143 21587 net.cpp:408] conv3_4_conv3_4_0_split -> conv3_4_conv3_4_0_split_2
I0409 21:47:43.870147 21587 net.cpp:408] conv3_4_conv3_4_0_split -> conv3_4_conv3_4_0_split_3
I0409 21:47:43.870151 21587 net.cpp:408] conv3_4_conv3_4_0_split -> conv3_4_conv3_4_0_split_4
I0409 21:47:43.870156 21587 net.cpp:408] conv3_4_conv3_4_0_split -> conv3_4_conv3_4_0_split_5
I0409 21:47:43.870215 21587 net.cpp:150] Setting up conv3_4_conv3_4_0_split
I0409 21:47:43.870219 21587 net.cpp:157] Top shape: 1 128 108 180 (2488320)
I0409 21:47:43.870223 21587 net.cpp:157] Top shape: 1 128 108 180 (2488320)
I0409 21:47:43.870224 21587 net.cpp:157] Top shape: 1 128 108 180 (2488320)
I0409 21:47:43.870227 21587 net.cpp:157] Top shape: 1 128 108 180 (2488320)
I0409 21:47:43.870229 21587 net.cpp:157] Top shape: 1 128 108 180 (2488320)
I0409 21:47:43.870232 21587 net.cpp:157] Top shape: 1 128 108 180 (2488320)
I0409 21:47:43.870234 21587 net.cpp:165] Memory required for data: 1649756244
I0409 21:47:43.870236 21587 layer_factory.hpp:77] Creating layer conv4_1/incep/0/conv
I0409 21:47:43.870241 21587 net.cpp:100] Creating Layer conv4_1/incep/0/conv
I0409 21:47:43.870246 21587 net.cpp:434] conv4_1/incep/0/conv <- conv3_4_conv3_4_0_split_0
I0409 21:47:43.870249 21587 net.cpp:408] conv4_1/incep/0/conv -> conv4_1/incep/0
I0409 21:47:43.871455 21587 net.cpp:150] Setting up conv4_1/incep/0/conv
I0409 21:47:43.871464 21587 net.cpp:157] Top shape: 1 64 54 90 (311040)
I0409 21:47:43.871467 21587 net.cpp:165] Memory required for data: 1651000404
I0409 21:47:43.871470 21587 layer_factory.hpp:77] Creating layer conv4_1/incep/0/bn
I0409 21:47:43.871479 21587 net.cpp:100] Creating Layer conv4_1/incep/0/bn
I0409 21:47:43.871481 21587 net.cpp:434] conv4_1/incep/0/bn <- conv4_1/incep/0
I0409 21:47:43.871485 21587 net.cpp:395] conv4_1/incep/0/bn -> conv4_1/incep/0 (in-place)
I0409 21:47:43.871642 21587 net.cpp:150] Setting up conv4_1/incep/0/bn
I0409 21:47:43.871647 21587 net.cpp:157] Top shape: 1 64 54 90 (311040)
I0409 21:47:43.871649 21587 net.cpp:165] Memory required for data: 1652244564
I0409 21:47:43.871654 21587 layer_factory.hpp:77] Creating layer conv4_1/incep/0/bn_scale
I0409 21:47:43.871659 21587 net.cpp:100] Creating Layer conv4_1/incep/0/bn_scale
I0409 21:47:43.871660 21587 net.cpp:434] conv4_1/incep/0/bn_scale <- conv4_1/incep/0
I0409 21:47:43.871665 21587 net.cpp:395] conv4_1/incep/0/bn_scale -> conv4_1/incep/0 (in-place)
I0409 21:47:43.871692 21587 layer_factory.hpp:77] Creating layer conv4_1/incep/0/bn_scale
I0409 21:47:43.871783 21587 net.cpp:150] Setting up conv4_1/incep/0/bn_scale
I0409 21:47:43.871788 21587 net.cpp:157] Top shape: 1 64 54 90 (311040)
I0409 21:47:43.871789 21587 net.cpp:165] Memory required for data: 1653488724
I0409 21:47:43.871793 21587 layer_factory.hpp:77] Creating layer conv4_1/incep/0/relu
I0409 21:47:43.871796 21587 net.cpp:100] Creating Layer conv4_1/incep/0/relu
I0409 21:47:43.871799 21587 net.cpp:434] conv4_1/incep/0/relu <- conv4_1/incep/0
I0409 21:47:43.871803 21587 net.cpp:395] conv4_1/incep/0/relu -> conv4_1/incep/0 (in-place)
I0409 21:47:43.872295 21587 net.cpp:150] Setting up conv4_1/incep/0/relu
I0409 21:47:43.872304 21587 net.cpp:157] Top shape: 1 64 54 90 (311040)
I0409 21:47:43.872306 21587 net.cpp:165] Memory required for data: 1654732884
I0409 21:47:43.872309 21587 layer_factory.hpp:77] Creating layer conv4_1/incep/1_reduce/conv
I0409 21:47:43.872315 21587 net.cpp:100] Creating Layer conv4_1/incep/1_reduce/conv
I0409 21:47:43.872318 21587 net.cpp:434] conv4_1/incep/1_reduce/conv <- conv3_4_conv3_4_0_split_1
I0409 21:47:43.872323 21587 net.cpp:408] conv4_1/incep/1_reduce/conv -> conv4_1/incep/1_reduce
I0409 21:47:43.873530 21587 net.cpp:150] Setting up conv4_1/incep/1_reduce/conv
I0409 21:47:43.873538 21587 net.cpp:157] Top shape: 1 48 54 90 (233280)
I0409 21:47:43.873540 21587 net.cpp:165] Memory required for data: 1655666004
I0409 21:47:43.873544 21587 layer_factory.hpp:77] Creating layer conv4_1/incep/1_reduce/bn
I0409 21:47:43.873550 21587 net.cpp:100] Creating Layer conv4_1/incep/1_reduce/bn
I0409 21:47:43.873553 21587 net.cpp:434] conv4_1/incep/1_reduce/bn <- conv4_1/incep/1_reduce
I0409 21:47:43.873556 21587 net.cpp:395] conv4_1/incep/1_reduce/bn -> conv4_1/incep/1_reduce (in-place)
I0409 21:47:43.873708 21587 net.cpp:150] Setting up conv4_1/incep/1_reduce/bn
I0409 21:47:43.873713 21587 net.cpp:157] Top shape: 1 48 54 90 (233280)
I0409 21:47:43.873714 21587 net.cpp:165] Memory required for data: 1656599124
I0409 21:47:43.873719 21587 layer_factory.hpp:77] Creating layer conv4_1/incep/1_reduce/bn_scale
I0409 21:47:43.873723 21587 net.cpp:100] Creating Layer conv4_1/incep/1_reduce/bn_scale
I0409 21:47:43.873726 21587 net.cpp:434] conv4_1/incep/1_reduce/bn_scale <- conv4_1/incep/1_reduce
I0409 21:47:43.873729 21587 net.cpp:395] conv4_1/incep/1_reduce/bn_scale -> conv4_1/incep/1_reduce (in-place)
I0409 21:47:43.873759 21587 layer_factory.hpp:77] Creating layer conv4_1/incep/1_reduce/bn_scale
I0409 21:47:43.873852 21587 net.cpp:150] Setting up conv4_1/incep/1_reduce/bn_scale
I0409 21:47:43.873857 21587 net.cpp:157] Top shape: 1 48 54 90 (233280)
I0409 21:47:43.873858 21587 net.cpp:165] Memory required for data: 1657532244
I0409 21:47:43.873862 21587 layer_factory.hpp:77] Creating layer conv4_1/incep/1_reduce/relu
I0409 21:47:43.873865 21587 net.cpp:100] Creating Layer conv4_1/incep/1_reduce/relu
I0409 21:47:43.873868 21587 net.cpp:434] conv4_1/incep/1_reduce/relu <- conv4_1/incep/1_reduce
I0409 21:47:43.873872 21587 net.cpp:395] conv4_1/incep/1_reduce/relu -> conv4_1/incep/1_reduce (in-place)
I0409 21:47:43.873991 21587 net.cpp:150] Setting up conv4_1/incep/1_reduce/relu
I0409 21:47:43.873996 21587 net.cpp:157] Top shape: 1 48 54 90 (233280)
I0409 21:47:43.874001 21587 net.cpp:165] Memory required for data: 1658465364
I0409 21:47:43.874004 21587 layer_factory.hpp:77] Creating layer conv4_1/incep/1_0/conv
I0409 21:47:43.874011 21587 net.cpp:100] Creating Layer conv4_1/incep/1_0/conv
I0409 21:47:43.874013 21587 net.cpp:434] conv4_1/incep/1_0/conv <- conv4_1/incep/1_reduce
I0409 21:47:43.874017 21587 net.cpp:408] conv4_1/incep/1_0/conv -> conv4_1/incep/1_0
I0409 21:47:43.875743 21587 net.cpp:150] Setting up conv4_1/incep/1_0/conv
I0409 21:47:43.875753 21587 net.cpp:157] Top shape: 1 128 54 90 (622080)
I0409 21:47:43.875756 21587 net.cpp:165] Memory required for data: 1660953684
I0409 21:47:43.875759 21587 layer_factory.hpp:77] Creating layer conv4_1/incep/1_0/bn
I0409 21:47:43.875764 21587 net.cpp:100] Creating Layer conv4_1/incep/1_0/bn
I0409 21:47:43.875766 21587 net.cpp:434] conv4_1/incep/1_0/bn <- conv4_1/incep/1_0
I0409 21:47:43.875771 21587 net.cpp:395] conv4_1/incep/1_0/bn -> conv4_1/incep/1_0 (in-place)
I0409 21:47:43.875919 21587 net.cpp:150] Setting up conv4_1/incep/1_0/bn
I0409 21:47:43.875923 21587 net.cpp:157] Top shape: 1 128 54 90 (622080)
I0409 21:47:43.875926 21587 net.cpp:165] Memory required for data: 1663442004
I0409 21:47:43.875931 21587 layer_factory.hpp:77] Creating layer conv4_1/incep/1_0/bn_scale
I0409 21:47:43.875936 21587 net.cpp:100] Creating Layer conv4_1/incep/1_0/bn_scale
I0409 21:47:43.875937 21587 net.cpp:434] conv4_1/incep/1_0/bn_scale <- conv4_1/incep/1_0
I0409 21:47:43.875941 21587 net.cpp:395] conv4_1/incep/1_0/bn_scale -> conv4_1/incep/1_0 (in-place)
I0409 21:47:43.875970 21587 layer_factory.hpp:77] Creating layer conv4_1/incep/1_0/bn_scale
I0409 21:47:43.876085 21587 net.cpp:150] Setting up conv4_1/incep/1_0/bn_scale
I0409 21:47:43.876091 21587 net.cpp:157] Top shape: 1 128 54 90 (622080)
I0409 21:47:43.876092 21587 net.cpp:165] Memory required for data: 1665930324
I0409 21:47:43.876096 21587 layer_factory.hpp:77] Creating layer conv4_1/incep/1_0/relu
I0409 21:47:43.876101 21587 net.cpp:100] Creating Layer conv4_1/incep/1_0/relu
I0409 21:47:43.876103 21587 net.cpp:434] conv4_1/incep/1_0/relu <- conv4_1/incep/1_0
I0409 21:47:43.876107 21587 net.cpp:395] conv4_1/incep/1_0/relu -> conv4_1/incep/1_0 (in-place)
I0409 21:47:43.876561 21587 net.cpp:150] Setting up conv4_1/incep/1_0/relu
I0409 21:47:43.876569 21587 net.cpp:157] Top shape: 1 128 54 90 (622080)
I0409 21:47:43.876571 21587 net.cpp:165] Memory required for data: 1668418644
I0409 21:47:43.876574 21587 layer_factory.hpp:77] Creating layer conv4_1/incep/2_reduce/conv
I0409 21:47:43.876580 21587 net.cpp:100] Creating Layer conv4_1/incep/2_reduce/conv
I0409 21:47:43.876583 21587 net.cpp:434] conv4_1/incep/2_reduce/conv <- conv3_4_conv3_4_0_split_2
I0409 21:47:43.876588 21587 net.cpp:408] conv4_1/incep/2_reduce/conv -> conv4_1/incep/2_reduce
I0409 21:47:43.877475 21587 net.cpp:150] Setting up conv4_1/incep/2_reduce/conv
I0409 21:47:43.877483 21587 net.cpp:157] Top shape: 1 24 54 90 (116640)
I0409 21:47:43.877485 21587 net.cpp:165] Memory required for data: 1668885204
I0409 21:47:43.877490 21587 layer_factory.hpp:77] Creating layer conv4_1/incep/2_reduce/bn
I0409 21:47:43.877496 21587 net.cpp:100] Creating Layer conv4_1/incep/2_reduce/bn
I0409 21:47:43.877498 21587 net.cpp:434] conv4_1/incep/2_reduce/bn <- conv4_1/incep/2_reduce
I0409 21:47:43.877502 21587 net.cpp:395] conv4_1/incep/2_reduce/bn -> conv4_1/incep/2_reduce (in-place)
I0409 21:47:43.877665 21587 net.cpp:150] Setting up conv4_1/incep/2_reduce/bn
I0409 21:47:43.877670 21587 net.cpp:157] Top shape: 1 24 54 90 (116640)
I0409 21:47:43.877671 21587 net.cpp:165] Memory required for data: 1669351764
I0409 21:47:43.877676 21587 layer_factory.hpp:77] Creating layer conv4_1/incep/2_reduce/bn_scale
I0409 21:47:43.877681 21587 net.cpp:100] Creating Layer conv4_1/incep/2_reduce/bn_scale
I0409 21:47:43.877683 21587 net.cpp:434] conv4_1/incep/2_reduce/bn_scale <- conv4_1/incep/2_reduce
I0409 21:47:43.877686 21587 net.cpp:395] conv4_1/incep/2_reduce/bn_scale -> conv4_1/incep/2_reduce (in-place)
I0409 21:47:43.877719 21587 layer_factory.hpp:77] Creating layer conv4_1/incep/2_reduce/bn_scale
I0409 21:47:43.877815 21587 net.cpp:150] Setting up conv4_1/incep/2_reduce/bn_scale
I0409 21:47:43.877820 21587 net.cpp:157] Top shape: 1 24 54 90 (116640)
I0409 21:47:43.877821 21587 net.cpp:165] Memory required for data: 1669818324
I0409 21:47:43.877825 21587 layer_factory.hpp:77] Creating layer conv4_1/incep/2_reduce/relu
I0409 21:47:43.877828 21587 net.cpp:100] Creating Layer conv4_1/incep/2_reduce/relu
I0409 21:47:43.877830 21587 net.cpp:434] conv4_1/incep/2_reduce/relu <- conv4_1/incep/2_reduce
I0409 21:47:43.877835 21587 net.cpp:395] conv4_1/incep/2_reduce/relu -> conv4_1/incep/2_reduce (in-place)
I0409 21:47:43.878288 21587 net.cpp:150] Setting up conv4_1/incep/2_reduce/relu
I0409 21:47:43.878295 21587 net.cpp:157] Top shape: 1 24 54 90 (116640)
I0409 21:47:43.878298 21587 net.cpp:165] Memory required for data: 1670284884
I0409 21:47:43.878300 21587 layer_factory.hpp:77] Creating layer conv4_1/incep/2_0/conv
I0409 21:47:43.878307 21587 net.cpp:100] Creating Layer conv4_1/incep/2_0/conv
I0409 21:47:43.878310 21587 net.cpp:434] conv4_1/incep/2_0/conv <- conv4_1/incep/2_reduce
I0409 21:47:43.878314 21587 net.cpp:408] conv4_1/incep/2_0/conv -> conv4_1/incep/2_0
I0409 21:47:43.879544 21587 net.cpp:150] Setting up conv4_1/incep/2_0/conv
I0409 21:47:43.879551 21587 net.cpp:157] Top shape: 1 48 54 90 (233280)
I0409 21:47:43.879554 21587 net.cpp:165] Memory required for data: 1671218004
I0409 21:47:43.879557 21587 layer_factory.hpp:77] Creating layer conv4_1/incep/2_0/bn
I0409 21:47:43.879562 21587 net.cpp:100] Creating Layer conv4_1/incep/2_0/bn
I0409 21:47:43.879565 21587 net.cpp:434] conv4_1/incep/2_0/bn <- conv4_1/incep/2_0
I0409 21:47:43.879570 21587 net.cpp:395] conv4_1/incep/2_0/bn -> conv4_1/incep/2_0 (in-place)
I0409 21:47:43.879725 21587 net.cpp:150] Setting up conv4_1/incep/2_0/bn
I0409 21:47:43.879729 21587 net.cpp:157] Top shape: 1 48 54 90 (233280)
I0409 21:47:43.879731 21587 net.cpp:165] Memory required for data: 1672151124
I0409 21:47:43.879736 21587 layer_factory.hpp:77] Creating layer conv4_1/incep/2_0/bn_scale
I0409 21:47:43.879740 21587 net.cpp:100] Creating Layer conv4_1/incep/2_0/bn_scale
I0409 21:47:43.879743 21587 net.cpp:434] conv4_1/incep/2_0/bn_scale <- conv4_1/incep/2_0
I0409 21:47:43.879747 21587 net.cpp:395] conv4_1/incep/2_0/bn_scale -> conv4_1/incep/2_0 (in-place)
I0409 21:47:43.879776 21587 layer_factory.hpp:77] Creating layer conv4_1/incep/2_0/bn_scale
I0409 21:47:43.879870 21587 net.cpp:150] Setting up conv4_1/incep/2_0/bn_scale
I0409 21:47:43.879875 21587 net.cpp:157] Top shape: 1 48 54 90 (233280)
I0409 21:47:43.879878 21587 net.cpp:165] Memory required for data: 1673084244
I0409 21:47:43.879881 21587 layer_factory.hpp:77] Creating layer conv4_1/incep/2_0/relu
I0409 21:47:43.879885 21587 net.cpp:100] Creating Layer conv4_1/incep/2_0/relu
I0409 21:47:43.879889 21587 net.cpp:434] conv4_1/incep/2_0/relu <- conv4_1/incep/2_0
I0409 21:47:43.879891 21587 net.cpp:395] conv4_1/incep/2_0/relu -> conv4_1/incep/2_0 (in-place)
I0409 21:47:43.880028 21587 net.cpp:150] Setting up conv4_1/incep/2_0/relu
I0409 21:47:43.880034 21587 net.cpp:157] Top shape: 1 48 54 90 (233280)
I0409 21:47:43.880036 21587 net.cpp:165] Memory required for data: 1674017364
I0409 21:47:43.880038 21587 layer_factory.hpp:77] Creating layer conv4_1/incep/2_1/conv
I0409 21:47:43.880045 21587 net.cpp:100] Creating Layer conv4_1/incep/2_1/conv
I0409 21:47:43.880048 21587 net.cpp:434] conv4_1/incep/2_1/conv <- conv4_1/incep/2_0
I0409 21:47:43.880061 21587 net.cpp:408] conv4_1/incep/2_1/conv -> conv4_1/incep/2_1
I0409 21:47:43.881320 21587 net.cpp:150] Setting up conv4_1/incep/2_1/conv
I0409 21:47:43.881330 21587 net.cpp:157] Top shape: 1 48 54 90 (233280)
I0409 21:47:43.881331 21587 net.cpp:165] Memory required for data: 1674950484
I0409 21:47:43.881335 21587 layer_factory.hpp:77] Creating layer conv4_1/incep/2_1/bn
I0409 21:47:43.881340 21587 net.cpp:100] Creating Layer conv4_1/incep/2_1/bn
I0409 21:47:43.881343 21587 net.cpp:434] conv4_1/incep/2_1/bn <- conv4_1/incep/2_1
I0409 21:47:43.881350 21587 net.cpp:395] conv4_1/incep/2_1/bn -> conv4_1/incep/2_1 (in-place)
I0409 21:47:43.881510 21587 net.cpp:150] Setting up conv4_1/incep/2_1/bn
I0409 21:47:43.881513 21587 net.cpp:157] Top shape: 1 48 54 90 (233280)
I0409 21:47:43.881515 21587 net.cpp:165] Memory required for data: 1675883604
I0409 21:47:43.881520 21587 layer_factory.hpp:77] Creating layer conv4_1/incep/2_1/bn_scale
I0409 21:47:43.881525 21587 net.cpp:100] Creating Layer conv4_1/incep/2_1/bn_scale
I0409 21:47:43.881527 21587 net.cpp:434] conv4_1/incep/2_1/bn_scale <- conv4_1/incep/2_1
I0409 21:47:43.881531 21587 net.cpp:395] conv4_1/incep/2_1/bn_scale -> conv4_1/incep/2_1 (in-place)
I0409 21:47:43.881562 21587 layer_factory.hpp:77] Creating layer conv4_1/incep/2_1/bn_scale
I0409 21:47:43.881659 21587 net.cpp:150] Setting up conv4_1/incep/2_1/bn_scale
I0409 21:47:43.881662 21587 net.cpp:157] Top shape: 1 48 54 90 (233280)
I0409 21:47:43.881664 21587 net.cpp:165] Memory required for data: 1676816724
I0409 21:47:43.881669 21587 layer_factory.hpp:77] Creating layer conv4_1/incep/2_1/relu
I0409 21:47:43.881672 21587 net.cpp:100] Creating Layer conv4_1/incep/2_1/relu
I0409 21:47:43.881675 21587 net.cpp:434] conv4_1/incep/2_1/relu <- conv4_1/incep/2_1
I0409 21:47:43.881678 21587 net.cpp:395] conv4_1/incep/2_1/relu -> conv4_1/incep/2_1 (in-place)
I0409 21:47:43.882136 21587 net.cpp:150] Setting up conv4_1/incep/2_1/relu
I0409 21:47:43.882144 21587 net.cpp:157] Top shape: 1 48 54 90 (233280)
I0409 21:47:43.882146 21587 net.cpp:165] Memory required for data: 1677749844
I0409 21:47:43.882148 21587 layer_factory.hpp:77] Creating layer conv4_1/incep/pool
I0409 21:47:43.882154 21587 net.cpp:100] Creating Layer conv4_1/incep/pool
I0409 21:47:43.882158 21587 net.cpp:434] conv4_1/incep/pool <- conv3_4_conv3_4_0_split_3
I0409 21:47:43.882161 21587 net.cpp:408] conv4_1/incep/pool -> conv4_1/incep/pool
I0409 21:47:43.882197 21587 net.cpp:150] Setting up conv4_1/incep/pool
I0409 21:47:43.882201 21587 net.cpp:157] Top shape: 1 128 54 90 (622080)
I0409 21:47:43.882205 21587 net.cpp:165] Memory required for data: 1680238164
I0409 21:47:43.882206 21587 layer_factory.hpp:77] Creating layer conv4_1/incep/poolproj/conv
I0409 21:47:43.882211 21587 net.cpp:100] Creating Layer conv4_1/incep/poolproj/conv
I0409 21:47:43.882215 21587 net.cpp:434] conv4_1/incep/poolproj/conv <- conv4_1/incep/pool
I0409 21:47:43.882218 21587 net.cpp:408] conv4_1/incep/poolproj/conv -> conv4_1/incep/poolproj
I0409 21:47:43.883147 21587 net.cpp:150] Setting up conv4_1/incep/poolproj/conv
I0409 21:47:43.883155 21587 net.cpp:157] Top shape: 1 128 54 90 (622080)
I0409 21:47:43.883157 21587 net.cpp:165] Memory required for data: 1682726484
I0409 21:47:43.883162 21587 layer_factory.hpp:77] Creating layer conv4_1/incep/poolproj/bn
I0409 21:47:43.883167 21587 net.cpp:100] Creating Layer conv4_1/incep/poolproj/bn
I0409 21:47:43.883168 21587 net.cpp:434] conv4_1/incep/poolproj/bn <- conv4_1/incep/poolproj
I0409 21:47:43.883173 21587 net.cpp:395] conv4_1/incep/poolproj/bn -> conv4_1/incep/poolproj (in-place)
I0409 21:47:43.883323 21587 net.cpp:150] Setting up conv4_1/incep/poolproj/bn
I0409 21:47:43.883328 21587 net.cpp:157] Top shape: 1 128 54 90 (622080)
I0409 21:47:43.883330 21587 net.cpp:165] Memory required for data: 1685214804
I0409 21:47:43.883334 21587 layer_factory.hpp:77] Creating layer conv4_1/incep/poolproj/bn_scale
I0409 21:47:43.883339 21587 net.cpp:100] Creating Layer conv4_1/incep/poolproj/bn_scale
I0409 21:47:43.883342 21587 net.cpp:434] conv4_1/incep/poolproj/bn_scale <- conv4_1/incep/poolproj
I0409 21:47:43.883345 21587 net.cpp:395] conv4_1/incep/poolproj/bn_scale -> conv4_1/incep/poolproj (in-place)
I0409 21:47:43.883374 21587 layer_factory.hpp:77] Creating layer conv4_1/incep/poolproj/bn_scale
I0409 21:47:43.883462 21587 net.cpp:150] Setting up conv4_1/incep/poolproj/bn_scale
I0409 21:47:43.883466 21587 net.cpp:157] Top shape: 1 128 54 90 (622080)
I0409 21:47:43.883468 21587 net.cpp:165] Memory required for data: 1687703124
I0409 21:47:43.883474 21587 layer_factory.hpp:77] Creating layer conv4_1/incep/poolproj/relu
I0409 21:47:43.883479 21587 net.cpp:100] Creating Layer conv4_1/incep/poolproj/relu
I0409 21:47:43.883481 21587 net.cpp:434] conv4_1/incep/poolproj/relu <- conv4_1/incep/poolproj
I0409 21:47:43.883484 21587 net.cpp:395] conv4_1/incep/poolproj/relu -> conv4_1/incep/poolproj (in-place)
I0409 21:47:43.883944 21587 net.cpp:150] Setting up conv4_1/incep/poolproj/relu
I0409 21:47:43.883951 21587 net.cpp:157] Top shape: 1 128 54 90 (622080)
I0409 21:47:43.883954 21587 net.cpp:165] Memory required for data: 1690191444
I0409 21:47:43.883956 21587 layer_factory.hpp:77] Creating layer conv4_1/incep
I0409 21:47:43.883961 21587 net.cpp:100] Creating Layer conv4_1/incep
I0409 21:47:43.883965 21587 net.cpp:434] conv4_1/incep <- conv4_1/incep/0
I0409 21:47:43.883967 21587 net.cpp:434] conv4_1/incep <- conv4_1/incep/1_0
I0409 21:47:43.883970 21587 net.cpp:434] conv4_1/incep <- conv4_1/incep/2_1
I0409 21:47:43.883973 21587 net.cpp:434] conv4_1/incep <- conv4_1/incep/poolproj
I0409 21:47:43.883976 21587 net.cpp:408] conv4_1/incep -> conv4_1/incep
I0409 21:47:43.884001 21587 net.cpp:150] Setting up conv4_1/incep
I0409 21:47:43.884004 21587 net.cpp:157] Top shape: 1 368 54 90 (1788480)
I0409 21:47:43.884006 21587 net.cpp:165] Memory required for data: 1697345364
I0409 21:47:43.884008 21587 layer_factory.hpp:77] Creating layer conv4_1/out/conv
I0409 21:47:43.884029 21587 net.cpp:100] Creating Layer conv4_1/out/conv
I0409 21:47:43.884033 21587 net.cpp:434] conv4_1/out/conv <- conv4_1/incep
I0409 21:47:43.884038 21587 net.cpp:408] conv4_1/out/conv -> conv4_1/out
I0409 21:47:43.885624 21587 net.cpp:150] Setting up conv4_1/out/conv
I0409 21:47:43.885633 21587 net.cpp:157] Top shape: 1 256 54 90 (1244160)
I0409 21:47:43.885635 21587 net.cpp:165] Memory required for data: 1702322004
I0409 21:47:43.885639 21587 layer_factory.hpp:77] Creating layer conv4_1/out/bn
I0409 21:47:43.885644 21587 net.cpp:100] Creating Layer conv4_1/out/bn
I0409 21:47:43.885646 21587 net.cpp:434] conv4_1/out/bn <- conv4_1/out
I0409 21:47:43.885651 21587 net.cpp:395] conv4_1/out/bn -> conv4_1/out (in-place)
I0409 21:47:43.885805 21587 net.cpp:150] Setting up conv4_1/out/bn
I0409 21:47:43.885809 21587 net.cpp:157] Top shape: 1 256 54 90 (1244160)
I0409 21:47:43.885812 21587 net.cpp:165] Memory required for data: 1707298644
I0409 21:47:43.885817 21587 layer_factory.hpp:77] Creating layer conv4_1/out/bn_scale
I0409 21:47:43.885821 21587 net.cpp:100] Creating Layer conv4_1/out/bn_scale
I0409 21:47:43.885823 21587 net.cpp:434] conv4_1/out/bn_scale <- conv4_1/out
I0409 21:47:43.885826 21587 net.cpp:395] conv4_1/out/bn_scale -> conv4_1/out (in-place)
I0409 21:47:43.885855 21587 layer_factory.hpp:77] Creating layer conv4_1/out/bn_scale
I0409 21:47:43.885944 21587 net.cpp:150] Setting up conv4_1/out/bn_scale
I0409 21:47:43.885949 21587 net.cpp:157] Top shape: 1 256 54 90 (1244160)
I0409 21:47:43.885951 21587 net.cpp:165] Memory required for data: 1712275284
I0409 21:47:43.885954 21587 layer_factory.hpp:77] Creating layer conv4_1/proj
I0409 21:47:43.885960 21587 net.cpp:100] Creating Layer conv4_1/proj
I0409 21:47:43.885963 21587 net.cpp:434] conv4_1/proj <- conv3_4_conv3_4_0_split_4
I0409 21:47:43.885968 21587 net.cpp:408] conv4_1/proj -> conv4_1/proj
I0409 21:47:43.887326 21587 net.cpp:150] Setting up conv4_1/proj
I0409 21:47:43.887334 21587 net.cpp:157] Top shape: 1 256 54 90 (1244160)
I0409 21:47:43.887336 21587 net.cpp:165] Memory required for data: 1717251924
I0409 21:47:43.887341 21587 layer_factory.hpp:77] Creating layer conv4_1/proj_bn
I0409 21:47:43.887346 21587 net.cpp:100] Creating Layer conv4_1/proj_bn
I0409 21:47:43.887348 21587 net.cpp:434] conv4_1/proj_bn <- conv4_1/proj
I0409 21:47:43.887353 21587 net.cpp:395] conv4_1/proj_bn -> conv4_1/proj (in-place)
I0409 21:47:43.887508 21587 net.cpp:150] Setting up conv4_1/proj_bn
I0409 21:47:43.887512 21587 net.cpp:157] Top shape: 1 256 54 90 (1244160)
I0409 21:47:43.887514 21587 net.cpp:165] Memory required for data: 1722228564
I0409 21:47:43.887522 21587 layer_factory.hpp:77] Creating layer conv4_1/proj_bn_scale
I0409 21:47:43.887526 21587 net.cpp:100] Creating Layer conv4_1/proj_bn_scale
I0409 21:47:43.887529 21587 net.cpp:434] conv4_1/proj_bn_scale <- conv4_1/proj
I0409 21:47:43.887532 21587 net.cpp:395] conv4_1/proj_bn_scale -> conv4_1/proj (in-place)
I0409 21:47:43.887562 21587 layer_factory.hpp:77] Creating layer conv4_1/proj_bn_scale
I0409 21:47:43.887914 21587 net.cpp:150] Setting up conv4_1/proj_bn_scale
I0409 21:47:43.887923 21587 net.cpp:157] Top shape: 1 256 54 90 (1244160)
I0409 21:47:43.887924 21587 net.cpp:165] Memory required for data: 1727205204
I0409 21:47:43.887928 21587 layer_factory.hpp:77] Creating layer conv4_1
I0409 21:47:43.887933 21587 net.cpp:100] Creating Layer conv4_1
I0409 21:47:43.887935 21587 net.cpp:434] conv4_1 <- conv4_1/out
I0409 21:47:43.887939 21587 net.cpp:434] conv4_1 <- conv4_1/proj
I0409 21:47:43.887943 21587 net.cpp:408] conv4_1 -> conv4_1
I0409 21:47:43.887964 21587 net.cpp:150] Setting up conv4_1
I0409 21:47:43.887969 21587 net.cpp:157] Top shape: 1 256 54 90 (1244160)
I0409 21:47:43.887970 21587 net.cpp:165] Memory required for data: 1732181844
I0409 21:47:43.887972 21587 layer_factory.hpp:77] Creating layer conv4_1_conv4_1_0_split
I0409 21:47:43.887976 21587 net.cpp:100] Creating Layer conv4_1_conv4_1_0_split
I0409 21:47:43.887979 21587 net.cpp:434] conv4_1_conv4_1_0_split <- conv4_1
I0409 21:47:43.887984 21587 net.cpp:408] conv4_1_conv4_1_0_split -> conv4_1_conv4_1_0_split_0
I0409 21:47:43.887989 21587 net.cpp:408] conv4_1_conv4_1_0_split -> conv4_1_conv4_1_0_split_1
I0409 21:47:43.887992 21587 net.cpp:408] conv4_1_conv4_1_0_split -> conv4_1_conv4_1_0_split_2
I0409 21:47:43.887996 21587 net.cpp:408] conv4_1_conv4_1_0_split -> conv4_1_conv4_1_0_split_3
I0409 21:47:43.888067 21587 net.cpp:150] Setting up conv4_1_conv4_1_0_split
I0409 21:47:43.888072 21587 net.cpp:157] Top shape: 1 256 54 90 (1244160)
I0409 21:47:43.888075 21587 net.cpp:157] Top shape: 1 256 54 90 (1244160)
I0409 21:47:43.888078 21587 net.cpp:157] Top shape: 1 256 54 90 (1244160)
I0409 21:47:43.888080 21587 net.cpp:157] Top shape: 1 256 54 90 (1244160)
I0409 21:47:43.888082 21587 net.cpp:165] Memory required for data: 1752088404
I0409 21:47:43.888084 21587 layer_factory.hpp:77] Creating layer conv4_2/incep/0/conv
I0409 21:47:43.888090 21587 net.cpp:100] Creating Layer conv4_2/incep/0/conv
I0409 21:47:43.888092 21587 net.cpp:434] conv4_2/incep/0/conv <- conv4_1_conv4_1_0_split_0
I0409 21:47:43.888098 21587 net.cpp:408] conv4_2/incep/0/conv -> conv4_2/incep/0
I0409 21:47:43.889025 21587 net.cpp:150] Setting up conv4_2/incep/0/conv
I0409 21:47:43.889034 21587 net.cpp:157] Top shape: 1 64 54 90 (311040)
I0409 21:47:43.889036 21587 net.cpp:165] Memory required for data: 1753332564
I0409 21:47:43.889040 21587 layer_factory.hpp:77] Creating layer conv4_2/incep/0/bn
I0409 21:47:43.889045 21587 net.cpp:100] Creating Layer conv4_2/incep/0/bn
I0409 21:47:43.889048 21587 net.cpp:434] conv4_2/incep/0/bn <- conv4_2/incep/0
I0409 21:47:43.889052 21587 net.cpp:395] conv4_2/incep/0/bn -> conv4_2/incep/0 (in-place)
I0409 21:47:43.889209 21587 net.cpp:150] Setting up conv4_2/incep/0/bn
I0409 21:47:43.889212 21587 net.cpp:157] Top shape: 1 64 54 90 (311040)
I0409 21:47:43.889214 21587 net.cpp:165] Memory required for data: 1754576724
I0409 21:47:43.889219 21587 layer_factory.hpp:77] Creating layer conv4_2/incep/0/bn_scale
I0409 21:47:43.889225 21587 net.cpp:100] Creating Layer conv4_2/incep/0/bn_scale
I0409 21:47:43.889226 21587 net.cpp:434] conv4_2/incep/0/bn_scale <- conv4_2/incep/0
I0409 21:47:43.889230 21587 net.cpp:395] conv4_2/incep/0/bn_scale -> conv4_2/incep/0 (in-place)
I0409 21:47:43.889259 21587 layer_factory.hpp:77] Creating layer conv4_2/incep/0/bn_scale
I0409 21:47:43.889353 21587 net.cpp:150] Setting up conv4_2/incep/0/bn_scale
I0409 21:47:43.889356 21587 net.cpp:157] Top shape: 1 64 54 90 (311040)
I0409 21:47:43.889358 21587 net.cpp:165] Memory required for data: 1755820884
I0409 21:47:43.889363 21587 layer_factory.hpp:77] Creating layer conv4_2/incep/0/relu
I0409 21:47:43.889370 21587 net.cpp:100] Creating Layer conv4_2/incep/0/relu
I0409 21:47:43.889372 21587 net.cpp:434] conv4_2/incep/0/relu <- conv4_2/incep/0
I0409 21:47:43.889376 21587 net.cpp:395] conv4_2/incep/0/relu -> conv4_2/incep/0 (in-place)
I0409 21:47:43.889832 21587 net.cpp:150] Setting up conv4_2/incep/0/relu
I0409 21:47:43.889840 21587 net.cpp:157] Top shape: 1 64 54 90 (311040)
I0409 21:47:43.889843 21587 net.cpp:165] Memory required for data: 1757065044
I0409 21:47:43.889845 21587 layer_factory.hpp:77] Creating layer conv4_2/incep/1_reduce/conv
I0409 21:47:43.889852 21587 net.cpp:100] Creating Layer conv4_2/incep/1_reduce/conv
I0409 21:47:43.889854 21587 net.cpp:434] conv4_2/incep/1_reduce/conv <- conv4_1_conv4_1_0_split_1
I0409 21:47:43.889859 21587 net.cpp:408] conv4_2/incep/1_reduce/conv -> conv4_2/incep/1_reduce
I0409 21:47:43.891443 21587 net.cpp:150] Setting up conv4_2/incep/1_reduce/conv
I0409 21:47:43.891453 21587 net.cpp:157] Top shape: 1 64 54 90 (311040)
I0409 21:47:43.891454 21587 net.cpp:165] Memory required for data: 1758309204
I0409 21:47:43.891458 21587 layer_factory.hpp:77] Creating layer conv4_2/incep/1_reduce/bn
I0409 21:47:43.891463 21587 net.cpp:100] Creating Layer conv4_2/incep/1_reduce/bn
I0409 21:47:43.891466 21587 net.cpp:434] conv4_2/incep/1_reduce/bn <- conv4_2/incep/1_reduce
I0409 21:47:43.891471 21587 net.cpp:395] conv4_2/incep/1_reduce/bn -> conv4_2/incep/1_reduce (in-place)
I0409 21:47:43.891626 21587 net.cpp:150] Setting up conv4_2/incep/1_reduce/bn
I0409 21:47:43.891630 21587 net.cpp:157] Top shape: 1 64 54 90 (311040)
I0409 21:47:43.891633 21587 net.cpp:165] Memory required for data: 1759553364
I0409 21:47:43.891638 21587 layer_factory.hpp:77] Creating layer conv4_2/incep/1_reduce/bn_scale
I0409 21:47:43.891644 21587 net.cpp:100] Creating Layer conv4_2/incep/1_reduce/bn_scale
I0409 21:47:43.891645 21587 net.cpp:434] conv4_2/incep/1_reduce/bn_scale <- conv4_2/incep/1_reduce
I0409 21:47:43.891649 21587 net.cpp:395] conv4_2/incep/1_reduce/bn_scale -> conv4_2/incep/1_reduce (in-place)
I0409 21:47:43.891680 21587 layer_factory.hpp:77] Creating layer conv4_2/incep/1_reduce/bn_scale
I0409 21:47:43.891773 21587 net.cpp:150] Setting up conv4_2/incep/1_reduce/bn_scale
I0409 21:47:43.891777 21587 net.cpp:157] Top shape: 1 64 54 90 (311040)
I0409 21:47:43.891779 21587 net.cpp:165] Memory required for data: 1760797524
I0409 21:47:43.891783 21587 layer_factory.hpp:77] Creating layer conv4_2/incep/1_reduce/relu
I0409 21:47:43.891788 21587 net.cpp:100] Creating Layer conv4_2/incep/1_reduce/relu
I0409 21:47:43.891790 21587 net.cpp:434] conv4_2/incep/1_reduce/relu <- conv4_2/incep/1_reduce
I0409 21:47:43.891794 21587 net.cpp:395] conv4_2/incep/1_reduce/relu -> conv4_2/incep/1_reduce (in-place)
I0409 21:47:43.891921 21587 net.cpp:150] Setting up conv4_2/incep/1_reduce/relu
I0409 21:47:43.891927 21587 net.cpp:157] Top shape: 1 64 54 90 (311040)
I0409 21:47:43.891929 21587 net.cpp:165] Memory required for data: 1762041684
I0409 21:47:43.891932 21587 layer_factory.hpp:77] Creating layer conv4_2/incep/1_0/conv
I0409 21:47:43.891937 21587 net.cpp:100] Creating Layer conv4_2/incep/1_0/conv
I0409 21:47:43.891940 21587 net.cpp:434] conv4_2/incep/1_0/conv <- conv4_2/incep/1_reduce
I0409 21:47:43.891945 21587 net.cpp:408] conv4_2/incep/1_0/conv -> conv4_2/incep/1_0
I0409 21:47:43.893777 21587 net.cpp:150] Setting up conv4_2/incep/1_0/conv
I0409 21:47:43.893786 21587 net.cpp:157] Top shape: 1 128 54 90 (622080)
I0409 21:47:43.893788 21587 net.cpp:165] Memory required for data: 1764530004
I0409 21:47:43.893792 21587 layer_factory.hpp:77] Creating layer conv4_2/incep/1_0/bn
I0409 21:47:43.893797 21587 net.cpp:100] Creating Layer conv4_2/incep/1_0/bn
I0409 21:47:43.893800 21587 net.cpp:434] conv4_2/incep/1_0/bn <- conv4_2/incep/1_0
I0409 21:47:43.893805 21587 net.cpp:395] conv4_2/incep/1_0/bn -> conv4_2/incep/1_0 (in-place)
I0409 21:47:43.893967 21587 net.cpp:150] Setting up conv4_2/incep/1_0/bn
I0409 21:47:43.893972 21587 net.cpp:157] Top shape: 1 128 54 90 (622080)
I0409 21:47:43.893975 21587 net.cpp:165] Memory required for data: 1767018324
I0409 21:47:43.893982 21587 layer_factory.hpp:77] Creating layer conv4_2/incep/1_0/bn_scale
I0409 21:47:43.893986 21587 net.cpp:100] Creating Layer conv4_2/incep/1_0/bn_scale
I0409 21:47:43.893990 21587 net.cpp:434] conv4_2/incep/1_0/bn_scale <- conv4_2/incep/1_0
I0409 21:47:43.893992 21587 net.cpp:395] conv4_2/incep/1_0/bn_scale -> conv4_2/incep/1_0 (in-place)
I0409 21:47:43.894023 21587 layer_factory.hpp:77] Creating layer conv4_2/incep/1_0/bn_scale
I0409 21:47:43.894110 21587 net.cpp:150] Setting up conv4_2/incep/1_0/bn_scale
I0409 21:47:43.894115 21587 net.cpp:157] Top shape: 1 128 54 90 (622080)
I0409 21:47:43.894117 21587 net.cpp:165] Memory required for data: 1769506644
I0409 21:47:43.894120 21587 layer_factory.hpp:77] Creating layer conv4_2/incep/1_0/relu
I0409 21:47:43.894124 21587 net.cpp:100] Creating Layer conv4_2/incep/1_0/relu
I0409 21:47:43.894127 21587 net.cpp:434] conv4_2/incep/1_0/relu <- conv4_2/incep/1_0
I0409 21:47:43.894131 21587 net.cpp:395] conv4_2/incep/1_0/relu -> conv4_2/incep/1_0 (in-place)
I0409 21:47:43.894592 21587 net.cpp:150] Setting up conv4_2/incep/1_0/relu
I0409 21:47:43.894599 21587 net.cpp:157] Top shape: 1 128 54 90 (622080)
I0409 21:47:43.894603 21587 net.cpp:165] Memory required for data: 1771994964
I0409 21:47:43.894604 21587 layer_factory.hpp:77] Creating layer conv4_2/incep/2_reduce/conv
I0409 21:47:43.894611 21587 net.cpp:100] Creating Layer conv4_2/incep/2_reduce/conv
I0409 21:47:43.894614 21587 net.cpp:434] conv4_2/incep/2_reduce/conv <- conv4_1_conv4_1_0_split_2
I0409 21:47:43.894619 21587 net.cpp:408] conv4_2/incep/2_reduce/conv -> conv4_2/incep/2_reduce
I0409 21:47:43.895517 21587 net.cpp:150] Setting up conv4_2/incep/2_reduce/conv
I0409 21:47:43.895525 21587 net.cpp:157] Top shape: 1 24 54 90 (116640)
I0409 21:47:43.895527 21587 net.cpp:165] Memory required for data: 1772461524
I0409 21:47:43.895531 21587 layer_factory.hpp:77] Creating layer conv4_2/incep/2_reduce/bn
I0409 21:47:43.895537 21587 net.cpp:100] Creating Layer conv4_2/incep/2_reduce/bn
I0409 21:47:43.895539 21587 net.cpp:434] conv4_2/incep/2_reduce/bn <- conv4_2/incep/2_reduce
I0409 21:47:43.895545 21587 net.cpp:395] conv4_2/incep/2_reduce/bn -> conv4_2/incep/2_reduce (in-place)
I0409 21:47:43.895705 21587 net.cpp:150] Setting up conv4_2/incep/2_reduce/bn
I0409 21:47:43.895709 21587 net.cpp:157] Top shape: 1 24 54 90 (116640)
I0409 21:47:43.895711 21587 net.cpp:165] Memory required for data: 1772928084
I0409 21:47:43.895716 21587 layer_factory.hpp:77] Creating layer conv4_2/incep/2_reduce/bn_scale
I0409 21:47:43.895720 21587 net.cpp:100] Creating Layer conv4_2/incep/2_reduce/bn_scale
I0409 21:47:43.895723 21587 net.cpp:434] conv4_2/incep/2_reduce/bn_scale <- conv4_2/incep/2_reduce
I0409 21:47:43.895726 21587 net.cpp:395] conv4_2/incep/2_reduce/bn_scale -> conv4_2/incep/2_reduce (in-place)
I0409 21:47:43.895756 21587 layer_factory.hpp:77] Creating layer conv4_2/incep/2_reduce/bn_scale
I0409 21:47:43.895853 21587 net.cpp:150] Setting up conv4_2/incep/2_reduce/bn_scale
I0409 21:47:43.895858 21587 net.cpp:157] Top shape: 1 24 54 90 (116640)
I0409 21:47:43.895859 21587 net.cpp:165] Memory required for data: 1773394644
I0409 21:47:43.895864 21587 layer_factory.hpp:77] Creating layer conv4_2/incep/2_reduce/relu
I0409 21:47:43.895866 21587 net.cpp:100] Creating Layer conv4_2/incep/2_reduce/relu
I0409 21:47:43.895869 21587 net.cpp:434] conv4_2/incep/2_reduce/relu <- conv4_2/incep/2_reduce
I0409 21:47:43.895874 21587 net.cpp:395] conv4_2/incep/2_reduce/relu -> conv4_2/incep/2_reduce (in-place)
I0409 21:47:43.896358 21587 net.cpp:150] Setting up conv4_2/incep/2_reduce/relu
I0409 21:47:43.896365 21587 net.cpp:157] Top shape: 1 24 54 90 (116640)
I0409 21:47:43.896368 21587 net.cpp:165] Memory required for data: 1773861204
I0409 21:47:43.896370 21587 layer_factory.hpp:77] Creating layer conv4_2/incep/2_0/conv
I0409 21:47:43.896378 21587 net.cpp:100] Creating Layer conv4_2/incep/2_0/conv
I0409 21:47:43.896379 21587 net.cpp:434] conv4_2/incep/2_0/conv <- conv4_2/incep/2_reduce
I0409 21:47:43.896386 21587 net.cpp:408] conv4_2/incep/2_0/conv -> conv4_2/incep/2_0
I0409 21:47:43.897631 21587 net.cpp:150] Setting up conv4_2/incep/2_0/conv
I0409 21:47:43.897640 21587 net.cpp:157] Top shape: 1 48 54 90 (233280)
I0409 21:47:43.897644 21587 net.cpp:165] Memory required for data: 1774794324
I0409 21:47:43.897647 21587 layer_factory.hpp:77] Creating layer conv4_2/incep/2_0/bn
I0409 21:47:43.897651 21587 net.cpp:100] Creating Layer conv4_2/incep/2_0/bn
I0409 21:47:43.897656 21587 net.cpp:434] conv4_2/incep/2_0/bn <- conv4_2/incep/2_0
I0409 21:47:43.897660 21587 net.cpp:395] conv4_2/incep/2_0/bn -> conv4_2/incep/2_0 (in-place)
I0409 21:47:43.897820 21587 net.cpp:150] Setting up conv4_2/incep/2_0/bn
I0409 21:47:43.897825 21587 net.cpp:157] Top shape: 1 48 54 90 (233280)
I0409 21:47:43.897827 21587 net.cpp:165] Memory required for data: 1775727444
I0409 21:47:43.897831 21587 layer_factory.hpp:77] Creating layer conv4_2/incep/2_0/bn_scale
I0409 21:47:43.897836 21587 net.cpp:100] Creating Layer conv4_2/incep/2_0/bn_scale
I0409 21:47:43.897840 21587 net.cpp:434] conv4_2/incep/2_0/bn_scale <- conv4_2/incep/2_0
I0409 21:47:43.897842 21587 net.cpp:395] conv4_2/incep/2_0/bn_scale -> conv4_2/incep/2_0 (in-place)
I0409 21:47:43.897873 21587 layer_factory.hpp:77] Creating layer conv4_2/incep/2_0/bn_scale
I0409 21:47:43.897969 21587 net.cpp:150] Setting up conv4_2/incep/2_0/bn_scale
I0409 21:47:43.897974 21587 net.cpp:157] Top shape: 1 48 54 90 (233280)
I0409 21:47:43.897975 21587 net.cpp:165] Memory required for data: 1776660564
I0409 21:47:43.897979 21587 layer_factory.hpp:77] Creating layer conv4_2/incep/2_0/relu
I0409 21:47:43.897984 21587 net.cpp:100] Creating Layer conv4_2/incep/2_0/relu
I0409 21:47:43.897986 21587 net.cpp:434] conv4_2/incep/2_0/relu <- conv4_2/incep/2_0
I0409 21:47:43.897989 21587 net.cpp:395] conv4_2/incep/2_0/relu -> conv4_2/incep/2_0 (in-place)
I0409 21:47:43.898111 21587 net.cpp:150] Setting up conv4_2/incep/2_0/relu
I0409 21:47:43.898118 21587 net.cpp:157] Top shape: 1 48 54 90 (233280)
I0409 21:47:43.898120 21587 net.cpp:165] Memory required for data: 1777593684
I0409 21:47:43.898123 21587 layer_factory.hpp:77] Creating layer conv4_2/incep/2_1/conv
I0409 21:47:43.898128 21587 net.cpp:100] Creating Layer conv4_2/incep/2_1/conv
I0409 21:47:43.898130 21587 net.cpp:434] conv4_2/incep/2_1/conv <- conv4_2/incep/2_0
I0409 21:47:43.898135 21587 net.cpp:408] conv4_2/incep/2_1/conv -> conv4_2/incep/2_1
I0409 21:47:43.899353 21587 net.cpp:150] Setting up conv4_2/incep/2_1/conv
I0409 21:47:43.899363 21587 net.cpp:157] Top shape: 1 48 54 90 (233280)
I0409 21:47:43.899364 21587 net.cpp:165] Memory required for data: 1778526804
I0409 21:47:43.899369 21587 layer_factory.hpp:77] Creating layer conv4_2/incep/2_1/bn
I0409 21:47:43.899374 21587 net.cpp:100] Creating Layer conv4_2/incep/2_1/bn
I0409 21:47:43.899376 21587 net.cpp:434] conv4_2/incep/2_1/bn <- conv4_2/incep/2_1
I0409 21:47:43.899380 21587 net.cpp:395] conv4_2/incep/2_1/bn -> conv4_2/incep/2_1 (in-place)
I0409 21:47:43.899545 21587 net.cpp:150] Setting up conv4_2/incep/2_1/bn
I0409 21:47:43.899550 21587 net.cpp:157] Top shape: 1 48 54 90 (233280)
I0409 21:47:43.899552 21587 net.cpp:165] Memory required for data: 1779459924
I0409 21:47:43.899557 21587 layer_factory.hpp:77] Creating layer conv4_2/incep/2_1/bn_scale
I0409 21:47:43.899561 21587 net.cpp:100] Creating Layer conv4_2/incep/2_1/bn_scale
I0409 21:47:43.899564 21587 net.cpp:434] conv4_2/incep/2_1/bn_scale <- conv4_2/incep/2_1
I0409 21:47:43.899567 21587 net.cpp:395] conv4_2/incep/2_1/bn_scale -> conv4_2/incep/2_1 (in-place)
I0409 21:47:43.899600 21587 layer_factory.hpp:77] Creating layer conv4_2/incep/2_1/bn_scale
I0409 21:47:43.899696 21587 net.cpp:150] Setting up conv4_2/incep/2_1/bn_scale
I0409 21:47:43.899700 21587 net.cpp:157] Top shape: 1 48 54 90 (233280)
I0409 21:47:43.899703 21587 net.cpp:165] Memory required for data: 1780393044
I0409 21:47:43.899706 21587 layer_factory.hpp:77] Creating layer conv4_2/incep/2_1/relu
I0409 21:47:43.899710 21587 net.cpp:100] Creating Layer conv4_2/incep/2_1/relu
I0409 21:47:43.899715 21587 net.cpp:434] conv4_2/incep/2_1/relu <- conv4_2/incep/2_1
I0409 21:47:43.899718 21587 net.cpp:395] conv4_2/incep/2_1/relu -> conv4_2/incep/2_1 (in-place)
I0409 21:47:43.900223 21587 net.cpp:150] Setting up conv4_2/incep/2_1/relu
I0409 21:47:43.900231 21587 net.cpp:157] Top shape: 1 48 54 90 (233280)
I0409 21:47:43.900233 21587 net.cpp:165] Memory required for data: 1781326164
I0409 21:47:43.900236 21587 layer_factory.hpp:77] Creating layer conv4_2/incep
I0409 21:47:43.900240 21587 net.cpp:100] Creating Layer conv4_2/incep
I0409 21:47:43.900243 21587 net.cpp:434] conv4_2/incep <- conv4_2/incep/0
I0409 21:47:43.900246 21587 net.cpp:434] conv4_2/incep <- conv4_2/incep/1_0
I0409 21:47:43.900249 21587 net.cpp:434] conv4_2/incep <- conv4_2/incep/2_1
I0409 21:47:43.900254 21587 net.cpp:408] conv4_2/incep -> conv4_2/incep
I0409 21:47:43.900277 21587 net.cpp:150] Setting up conv4_2/incep
I0409 21:47:43.900281 21587 net.cpp:157] Top shape: 1 240 54 90 (1166400)
I0409 21:47:43.900283 21587 net.cpp:165] Memory required for data: 1785991764
I0409 21:47:43.900285 21587 layer_factory.hpp:77] Creating layer conv4_2/out/conv
I0409 21:47:43.900291 21587 net.cpp:100] Creating Layer conv4_2/out/conv
I0409 21:47:43.900295 21587 net.cpp:434] conv4_2/out/conv <- conv4_2/incep
I0409 21:47:43.900298 21587 net.cpp:408] conv4_2/out/conv -> conv4_2/out
I0409 21:47:43.901981 21587 net.cpp:150] Setting up conv4_2/out/conv
I0409 21:47:43.901991 21587 net.cpp:157] Top shape: 1 256 54 90 (1244160)
I0409 21:47:43.901993 21587 net.cpp:165] Memory required for data: 1790968404
I0409 21:47:43.901998 21587 layer_factory.hpp:77] Creating layer conv4_2/out/bn
I0409 21:47:43.902003 21587 net.cpp:100] Creating Layer conv4_2/out/bn
I0409 21:47:43.902005 21587 net.cpp:434] conv4_2/out/bn <- conv4_2/out
I0409 21:47:43.902009 21587 net.cpp:395] conv4_2/out/bn -> conv4_2/out (in-place)
I0409 21:47:43.902171 21587 net.cpp:150] Setting up conv4_2/out/bn
I0409 21:47:43.902176 21587 net.cpp:157] Top shape: 1 256 54 90 (1244160)
I0409 21:47:43.902179 21587 net.cpp:165] Memory required for data: 1795945044
I0409 21:47:43.902182 21587 layer_factory.hpp:77] Creating layer conv4_2/out/bn_scale
I0409 21:47:43.902187 21587 net.cpp:100] Creating Layer conv4_2/out/bn_scale
I0409 21:47:43.902190 21587 net.cpp:434] conv4_2/out/bn_scale <- conv4_2/out
I0409 21:47:43.902194 21587 net.cpp:395] conv4_2/out/bn_scale -> conv4_2/out (in-place)
I0409 21:47:43.902225 21587 layer_factory.hpp:77] Creating layer conv4_2/out/bn_scale
I0409 21:47:43.902315 21587 net.cpp:150] Setting up conv4_2/out/bn_scale
I0409 21:47:43.902319 21587 net.cpp:157] Top shape: 1 256 54 90 (1244160)
I0409 21:47:43.902321 21587 net.cpp:165] Memory required for data: 1800921684
…
I0409 21:47:43.983304 21587 net.cpp:395] conv5_4/incep/0/bn -> conv5_4/incep/0 (in-place)
I0409 21:47:43.983456 21587 net.cpp:150] Setting up conv5_4/incep/0/bn
I0409 21:47:43.983461 21587 net.cpp:157] Top shape: 1 64 27 45 (77760)
I0409 21:47:43.983464 21587 net.cpp:165] Memory required for data: 2091744084
I0409 21:47:43.983469 21587 layer_factory.hpp:77] Creating layer conv5_4/incep/0/bn_scale
I0409 21:47:43.983472 21587 net.cpp:100] Creating Layer conv5_4/incep/0/bn_scale
I0409 21:47:43.983475 21587 net.cpp:434] conv5_4/incep/0/bn_scale <- conv5_4/incep/0
I0409 21:47:43.983479 21587 net.cpp:395] conv5_4/incep/0/bn_scale -> conv5_4/incep/0 (in-place)
I0409 21:47:43.983506 21587 layer_factory.hpp:77] Creating layer conv5_4/incep/0/bn_scale
I0409 21:47:43.983608 21587 net.cpp:150] Setting up conv5_4/incep/0/bn_scale
I0409 21:47:43.983611 21587 net.cpp:157] Top shape: 1 64 27 45 (77760)
I0409 21:47:43.983613 21587 net.cpp:165] Memory required for data: 2092055124
I0409 21:47:43.983619 21587 layer_factory.hpp:77] Creating layer conv5_4/incep/0/relu
I0409 21:47:43.983623 21587 net.cpp:100] Creating Layer conv5_4/incep/0/relu
I0409 21:47:43.983626 21587 net.cpp:434] conv5_4/incep/0/relu <- conv5_4/incep/0
I0409 21:47:43.983629 21587 net.cpp:395] conv5_4/incep/0/relu -> conv5_4/incep/0 (in-place)
I0409 21:47:43.984113 21587 net.cpp:150] Setting up conv5_4/incep/0/relu
I0409 21:47:43.984122 21587 net.cpp:157] Top shape: 1 64 27 45 (77760)
I0409 21:47:43.984124 21587 net.cpp:165] Memory required for data: 2092366164
I0409 21:47:43.984127 21587 layer_factory.hpp:77] Creating layer conv5_4/incep/1_reduce/conv
I0409 21:47:43.984133 21587 net.cpp:100] Creating Layer conv5_4/incep/1_reduce/conv
I0409 21:47:43.984136 21587 net.cpp:434] conv5_4/incep/1_reduce/conv <- conv5_3_conv5_3_0_split_1
I0409 21:47:43.984141 21587 net.cpp:408] conv5_4/incep/1_reduce/conv -> conv5_4/incep/1_reduce
I0409 21:47:43.985772 21587 net.cpp:150] Setting up conv5_4/incep/1_reduce/conv
I0409 21:47:43.985780 21587 net.cpp:157] Top shape: 1 96 27 45 (116640)
I0409 21:47:43.985783 21587 net.cpp:165] Memory required for data: 2092832724
I0409 21:47:43.985786 21587 layer_factory.hpp:77] Creating layer conv5_4/incep/1_reduce/bn
I0409 21:47:43.985792 21587 net.cpp:100] Creating Layer conv5_4/incep/1_reduce/bn
I0409 21:47:43.985795 21587 net.cpp:434] conv5_4/incep/1_reduce/bn <- conv5_4/incep/1_reduce
I0409 21:47:43.985800 21587 net.cpp:395] conv5_4/incep/1_reduce/bn -> conv5_4/incep/1_reduce (in-place)
I0409 21:47:43.985958 21587 net.cpp:150] Setting up conv5_4/incep/1_reduce/bn
I0409 21:47:43.985963 21587 net.cpp:157] Top shape: 1 96 27 45 (116640)
I0409 21:47:43.985965 21587 net.cpp:165] Memory required for data: 2093299284
I0409 21:47:43.985970 21587 layer_factory.hpp:77] Creating layer conv5_4/incep/1_reduce/bn_scale
I0409 21:47:43.985975 21587 net.cpp:100] Creating Layer conv5_4/incep/1_reduce/bn_scale
I0409 21:47:43.985977 21587 net.cpp:434] conv5_4/incep/1_reduce/bn_scale <- conv5_4/incep/1_reduce
I0409 21:47:43.985980 21587 net.cpp:395] conv5_4/incep/1_reduce/bn_scale -> conv5_4/incep/1_reduce (in-place)
I0409 21:47:43.986009 21587 layer_factory.hpp:77] Creating layer conv5_4/incep/1_reduce/bn_scale
I0409 21:47:43.986114 21587 net.cpp:150] Setting up conv5_4/incep/1_reduce/bn_scale
I0409 21:47:43.986119 21587 net.cpp:157] Top shape: 1 96 27 45 (116640)
I0409 21:47:43.986120 21587 net.cpp:165] Memory required for data: 2093765844
I0409 21:47:43.986124 21587 layer_factory.hpp:77] Creating layer conv5_4/incep/1_reduce/relu
I0409 21:47:43.986129 21587 net.cpp:100] Creating Layer conv5_4/incep/1_reduce/relu
I0409 21:47:43.986131 21587 net.cpp:434] conv5_4/incep/1_reduce/relu <- conv5_4/incep/1_reduce
I0409 21:47:43.986135 21587 net.cpp:395] conv5_4/incep/1_reduce/relu -> conv5_4/incep/1_reduce (in-place)
I0409 21:47:43.986282 21587 net.cpp:150] Setting up conv5_4/incep/1_reduce/relu
I0409 21:47:43.986289 21587 net.cpp:157] Top shape: 1 96 27 45 (116640)
I0409 21:47:43.986290 21587 net.cpp:165] Memory required for data: 2094232404
I0409 21:47:43.986292 21587 layer_factory.hpp:77] Creating layer conv5_4/incep/1_0/conv
I0409 21:47:43.986299 21587 net.cpp:100] Creating Layer conv5_4/incep/1_0/conv
I0409 21:47:43.986301 21587 net.cpp:434] conv5_4/incep/1_0/conv <- conv5_4/incep/1_reduce
I0409 21:47:43.986305 21587 net.cpp:408] conv5_4/incep/1_0/conv -> conv5_4/incep/1_0
I0409 21:47:43.988409 21587 net.cpp:150] Setting up conv5_4/incep/1_0/conv
I0409 21:47:43.988418 21587 net.cpp:157] Top shape: 1 192 27 45 (233280)
I0409 21:47:43.988421 21587 net.cpp:165] Memory required for data: 2095165524
I0409 21:47:43.988425 21587 layer_factory.hpp:77] Creating layer conv5_4/incep/1_0/bn
I0409 21:47:43.988430 21587 net.cpp:100] Creating Layer conv5_4/incep/1_0/bn
I0409 21:47:43.988433 21587 net.cpp:434] conv5_4/incep/1_0/bn <- conv5_4/incep/1_0
I0409 21:47:43.988438 21587 net.cpp:395] conv5_4/incep/1_0/bn -> conv5_4/incep/1_0 (in-place)
I0409 21:47:43.988595 21587 net.cpp:150] Setting up conv5_4/incep/1_0/bn
I0409 21:47:43.988600 21587 net.cpp:157] Top shape: 1 192 27 45 (233280)
I0409 21:47:43.988605 21587 net.cpp:165] Memory required for data: 2096098644
I0409 21:47:43.988608 21587 layer_factory.hpp:77] Creating layer conv5_4/incep/1_0/bn_scale
I0409 21:47:43.988615 21587 net.cpp:100] Creating Layer conv5_4/incep/1_0/bn_scale
I0409 21:47:43.988618 21587 net.cpp:434] conv5_4/incep/1_0/bn_scale <- conv5_4/incep/1_0
I0409 21:47:43.988621 21587 net.cpp:395] conv5_4/incep/1_0/bn_scale -> conv5_4/incep/1_0 (in-place)
I0409 21:47:43.988651 21587 layer_factory.hpp:77] Creating layer conv5_4/incep/1_0/bn_scale
I0409 21:47:43.988757 21587 net.cpp:150] Setting up conv5_4/incep/1_0/bn_scale
I0409 21:47:43.988762 21587 net.cpp:157] Top shape: 1 192 27 45 (233280)
I0409 21:47:43.988765 21587 net.cpp:165] Memory required for data: 2097031764
I0409 21:47:43.988768 21587 layer_factory.hpp:77] Creating layer conv5_4/incep/1_0/relu
I0409 21:47:43.988772 21587 net.cpp:100] Creating Layer conv5_4/incep/1_0/relu
I0409 21:47:43.988775 21587 net.cpp:434] conv5_4/incep/1_0/relu <- conv5_4/incep/1_0
I0409 21:47:43.988778 21587 net.cpp:395] conv5_4/incep/1_0/relu -> conv5_4/incep/1_0 (in-place)
I0409 21:47:43.988919 21587 net.cpp:150] Setting up conv5_4/incep/1_0/relu
I0409 21:47:43.988925 21587 net.cpp:157] Top shape: 1 192 27 45 (233280)
I0409 21:47:43.988929 21587 net.cpp:165] Memory required for data: 2097964884
I0409 21:47:43.988930 21587 layer_factory.hpp:77] Creating layer conv5_4/incep/2_reduce/conv
I0409 21:47:43.988937 21587 net.cpp:100] Creating Layer conv5_4/incep/2_reduce/conv
I0409 21:47:43.988940 21587 net.cpp:434] conv5_4/incep/2_reduce/conv <- conv5_3_conv5_3_0_split_2
I0409 21:47:43.988943 21587 net.cpp:408] conv5_4/incep/2_reduce/conv -> conv5_4/incep/2_reduce
I0409 21:47:43.990487 21587 net.cpp:150] Setting up conv5_4/incep/2_reduce/conv
I0409 21:47:43.990496 21587 net.cpp:157] Top shape: 1 32 27 45 (38880)
I0409 21:47:43.990499 21587 net.cpp:165] Memory required for data: 2098120404
I0409 21:47:43.990502 21587 layer_factory.hpp:77] Creating layer conv5_4/incep/2_reduce/bn
I0409 21:47:43.990509 21587 net.cpp:100] Creating Layer conv5_4/incep/2_reduce/bn
I0409 21:47:43.990511 21587 net.cpp:434] conv5_4/incep/2_reduce/bn <- conv5_4/incep/2_reduce
I0409 21:47:43.990515 21587 net.cpp:395] conv5_4/incep/2_reduce/bn -> conv5_4/incep/2_reduce (in-place)
I0409 21:47:43.990677 21587 net.cpp:150] Setting up conv5_4/incep/2_reduce/bn
I0409 21:47:43.990682 21587 net.cpp:157] Top shape: 1 32 27 45 (38880)
I0409 21:47:43.990684 21587 net.cpp:165] Memory required for data: 2098275924
I0409 21:47:43.990689 21587 layer_factory.hpp:77] Creating layer conv5_4/incep/2_reduce/bn_scale
I0409 21:47:43.990694 21587 net.cpp:100] Creating Layer conv5_4/incep/2_reduce/bn_scale
I0409 21:47:43.990697 21587 net.cpp:434] conv5_4/incep/2_reduce/bn_scale <- conv5_4/incep/2_reduce
I0409 21:47:43.990700 21587 net.cpp:395] conv5_4/incep/2_reduce/bn_scale -> conv5_4/incep/2_reduce (in-place)
I0409 21:47:43.990730 21587 layer_factory.hpp:77] Creating layer conv5_4/incep/2_reduce/bn_scale
I0409 21:47:43.990834 21587 net.cpp:150] Setting up conv5_4/incep/2_reduce/bn_scale
I0409 21:47:43.990839 21587 net.cpp:157] Top shape: 1 32 27 45 (38880)
I0409 21:47:43.990841 21587 net.cpp:165] Memory required for data: 2098431444
I0409 21:47:43.990845 21587 layer_factory.hpp:77] Creating layer conv5_4/incep/2_reduce/relu
I0409 21:47:43.990849 21587 net.cpp:100] Creating Layer conv5_4/incep/2_reduce/relu
I0409 21:47:43.990852 21587 net.cpp:434] conv5_4/incep/2_reduce/relu <- conv5_4/incep/2_reduce
I0409 21:47:43.990855 21587 net.cpp:395] conv5_4/incep/2_reduce/relu -> conv5_4/incep/2_reduce (in-place)
I0409 21:47:43.991335 21587 net.cpp:150] Setting up conv5_4/incep/2_reduce/relu
I0409 21:47:43.991343 21587 net.cpp:157] Top shape: 1 32 27 45 (38880)
I0409 21:47:43.991345 21587 net.cpp:165] Memory required for data: 2098586964
I0409 21:47:43.991348 21587 layer_factory.hpp:77] Creating layer conv5_4/incep/2_0/conv
I0409 21:47:43.991354 21587 net.cpp:100] Creating Layer conv5_4/incep/2_0/conv
I0409 21:47:43.991358 21587 net.cpp:434] conv5_4/incep/2_0/conv <- conv5_4/incep/2_reduce
I0409 21:47:43.991364 21587 net.cpp:408] conv5_4/incep/2_0/conv -> conv5_4/incep/2_0
I0409 21:47:43.992647 21587 net.cpp:150] Setting up conv5_4/incep/2_0/conv
I0409 21:47:43.992656 21587 net.cpp:157] Top shape: 1 64 27 45 (77760)
I0409 21:47:43.992658 21587 net.cpp:165] Memory required for data: 2098898004
I0409 21:47:43.992662 21587 layer_factory.hpp:77] Creating layer conv5_4/incep/2_0/bn
I0409 21:47:43.992668 21587 net.cpp:100] Creating Layer conv5_4/incep/2_0/bn
I0409 21:47:43.992671 21587 net.cpp:434] conv5_4/incep/2_0/bn <- conv5_4/incep/2_0
I0409 21:47:43.992676 21587 net.cpp:395] conv5_4/incep/2_0/bn -> conv5_4/incep/2_0 (in-place)
I0409 21:47:43.992835 21587 net.cpp:150] Setting up conv5_4/incep/2_0/bn
I0409 21:47:43.992840 21587 net.cpp:157] Top shape: 1 64 27 45 (77760)
I0409 21:47:43.992841 21587 net.cpp:165] Memory required for data: 2099209044
I0409 21:47:43.992846 21587 layer_factory.hpp:77] Creating layer conv5_4/incep/2_0/bn_scale
I0409 21:47:43.992851 21587 net.cpp:100] Creating Layer conv5_4/incep/2_0/bn_scale
I0409 21:47:43.992853 21587 net.cpp:434] conv5_4/incep/2_0/bn_scale <- conv5_4/incep/2_0
I0409 21:47:43.992857 21587 net.cpp:395] conv5_4/incep/2_0/bn_scale -> conv5_4/incep/2_0 (in-place)
I0409 21:47:43.992885 21587 layer_factory.hpp:77] Creating layer conv5_4/incep/2_0/bn_scale
I0409 21:47:43.992990 21587 net.cpp:150] Setting up conv5_4/incep/2_0/bn_scale
I0409 21:47:43.992995 21587 net.cpp:157] Top shape: 1 64 27 45 (77760)
I0409 21:47:43.992997 21587 net.cpp:165] Memory required for data: 2099520084
I0409 21:47:43.993000 21587 layer_factory.hpp:77] Creating layer conv5_4/incep/2_0/relu
I0409 21:47:43.993005 21587 net.cpp:100] Creating Layer conv5_4/incep/2_0/relu
I0409 21:47:43.993007 21587 net.cpp:434] conv5_4/incep/2_0/relu <- conv5_4/incep/2_0
I0409 21:47:43.993011 21587 net.cpp:395] conv5_4/incep/2_0/relu -> conv5_4/incep/2_0 (in-place)
I0409 21:47:43.993154 21587 net.cpp:150] Setting up conv5_4/incep/2_0/relu
I0409 21:47:43.993160 21587 net.cpp:157] Top shape: 1 64 27 45 (77760)
I0409 21:47:43.993161 21587 net.cpp:165] Memory required for data: 2099831124
I0409 21:47:43.993163 21587 layer_factory.hpp:77] Creating layer conv5_4/incep/2_1/conv
I0409 21:47:43.993170 21587 net.cpp:100] Creating Layer conv5_4/incep/2_1/conv
I0409 21:47:43.993173 21587 net.cpp:434] conv5_4/incep/2_1/conv <- conv5_4/incep/2_0
I0409 21:47:43.993177 21587 net.cpp:408] conv5_4/incep/2_1/conv -> conv5_4/incep/2_1
I0409 21:47:43.994554 21587 net.cpp:150] Setting up conv5_4/incep/2_1/conv
I0409 21:47:43.994562 21587 net.cpp:157] Top shape: 1 64 27 45 (77760)
I0409 21:47:43.994565 21587 net.cpp:165] Memory required for data: 2100142164
I0409 21:47:43.994568 21587 layer_factory.hpp:77] Creating layer conv5_4/incep/2_1/bn
I0409 21:47:43.994573 21587 net.cpp:100] Creating Layer conv5_4/incep/2_1/bn
I0409 21:47:43.994576 21587 net.cpp:434] conv5_4/incep/2_1/bn <- conv5_4/incep/2_1
I0409 21:47:43.994580 21587 net.cpp:395] conv5_4/incep/2_1/bn -> conv5_4/incep/2_1 (in-place)
I0409 21:47:43.994740 21587 net.cpp:150] Setting up conv5_4/incep/2_1/bn
I0409 21:47:43.994745 21587 net.cpp:157] Top shape: 1 64 27 45 (77760)
I0409 21:47:43.994747 21587 net.cpp:165] Memory required for data: 2100453204
I0409 21:47:43.994752 21587 layer_factory.hpp:77] Creating layer conv5_4/incep/2_1/bn_scale
I0409 21:47:43.994756 21587 net.cpp:100] Creating Layer conv5_4/incep/2_1/bn_scale
I0409 21:47:43.994760 21587 net.cpp:434] conv5_4/incep/2_1/bn_scale <- conv5_4/incep/2_1
I0409 21:47:43.994762 21587 net.cpp:395] conv5_4/incep/2_1/bn_scale -> conv5_4/incep/2_1 (in-place)
I0409 21:47:43.994791 21587 layer_factory.hpp:77] Creating layer conv5_4/incep/2_1/bn_scale
I0409 21:47:43.994894 21587 net.cpp:150] Setting up conv5_4/incep/2_1/bn_scale
I0409 21:47:43.994899 21587 net.cpp:157] Top shape: 1 64 27 45 (77760)
I0409 21:47:43.994901 21587 net.cpp:165] Memory required for data: 2100764244
I0409 21:47:43.994904 21587 layer_factory.hpp:77] Creating layer conv5_4/incep/2_1/relu
I0409 21:47:43.994911 21587 net.cpp:100] Creating Layer conv5_4/incep/2_1/relu
I0409 21:47:43.994915 21587 net.cpp:434] conv5_4/incep/2_1/relu <- conv5_4/incep/2_1
I0409 21:47:43.994918 21587 net.cpp:395] conv5_4/incep/2_1/relu -> conv5_4/incep/2_1 (in-place)
I0409 21:47:43.995059 21587 net.cpp:150] Setting up conv5_4/incep/2_1/relu
I0409 21:47:43.995065 21587 net.cpp:157] Top shape: 1 64 27 45 (77760)
I0409 21:47:43.995069 21587 net.cpp:165] Memory required for data: 2101075284
I0409 21:47:43.995070 21587 layer_factory.hpp:77] Creating layer conv5_4/incep
I0409 21:47:43.995074 21587 net.cpp:100] Creating Layer conv5_4/incep
I0409 21:47:43.995077 21587 net.cpp:434] conv5_4/incep <- conv5_4/incep/0
I0409 21:47:43.995080 21587 net.cpp:434] conv5_4/incep <- conv5_4/incep/1_0
I0409 21:47:43.995084 21587 net.cpp:434] conv5_4/incep <- conv5_4/incep/2_1
I0409 21:47:43.995086 21587 net.cpp:408] conv5_4/incep -> conv5_4/incep
I0409 21:47:43.995110 21587 net.cpp:150] Setting up conv5_4/incep
I0409 21:47:43.995113 21587 net.cpp:157] Top shape: 1 320 27 45 (388800)
I0409 21:47:43.995115 21587 net.cpp:165] Memory required for data: 2102630484
I0409 21:47:43.995117 21587 layer_factory.hpp:77] Creating layer conv5_4/out/conv
I0409 21:47:43.995123 21587 net.cpp:100] Creating Layer conv5_4/out/conv
I0409 21:47:43.995126 21587 net.cpp:434] conv5_4/out/conv <- conv5_4/incep
I0409 21:47:43.995131 21587 net.cpp:408] conv5_4/out/conv -> conv5_4/out
I0409 21:47:43.997082 21587 net.cpp:150] Setting up conv5_4/out/conv
I0409 21:47:43.997092 21587 net.cpp:157] Top shape: 1 384 27 45 (466560)
I0409 21:47:43.997094 21587 net.cpp:165] Memory required for data: 2104496724
I0409 21:47:43.997098 21587 layer_factory.hpp:77] Creating layer conv5_4/out/bn
I0409 21:47:43.997103 21587 net.cpp:100] Creating Layer conv5_4/out/bn
I0409 21:47:43.997107 21587 net.cpp:434] conv5_4/out/bn <- conv5_4/out
I0409 21:47:43.997110 21587 net.cpp:395] conv5_4/out/bn -> conv5_4/out (in-place)
I0409 21:47:43.997282 21587 net.cpp:150] Setting up conv5_4/out/bn
I0409 21:47:43.997287 21587 net.cpp:157] Top shape: 1 384 27 45 (466560)
I0409 21:47:43.997288 21587 net.cpp:165] Memory required for data: 2106362964
I0409 21:47:43.997293 21587 layer_factory.hpp:77] Creating layer conv5_4/out/bn_scale
I0409 21:47:43.997298 21587 net.cpp:100] Creating Layer conv5_4/out/bn_scale
I0409 21:47:43.997299 21587 net.cpp:434] conv5_4/out/bn_scale <- conv5_4/out
I0409 21:47:43.997303 21587 net.cpp:395] conv5_4/out/bn_scale -> conv5_4/out (in-place)
I0409 21:47:43.997337 21587 layer_factory.hpp:77] Creating layer conv5_4/out/bn_scale
I0409 21:47:43.997445 21587 net.cpp:150] Setting up conv5_4/out/bn_scale
I0409 21:47:43.997449 21587 net.cpp:157] Top shape: 1 384 27 45 (466560)
I0409 21:47:43.997452 21587 net.cpp:165] Memory required for data: 2108229204
I0409 21:47:43.997455 21587 layer_factory.hpp:77] Creating layer conv5_4/input
I0409 21:47:43.997460 21587 net.cpp:100] Creating Layer conv5_4/input
I0409 21:47:43.997462 21587 net.cpp:434] conv5_4/input <- conv5_3_conv5_3_0_split_3
I0409 21:47:43.997467 21587 net.cpp:408] conv5_4/input -> conv5_4/input
I0409 21:47:43.997485 21587 net.cpp:150] Setting up conv5_4/input
I0409 21:47:43.997489 21587 net.cpp:157] Top shape: 1 384 27 45 (466560)
I0409 21:47:43.997491 21587 net.cpp:165] Memory required for data: 2110095444
I0409 21:47:43.997493 21587 layer_factory.hpp:77] Creating layer conv5_4
I0409 21:47:43.997498 21587 net.cpp:100] Creating Layer conv5_4
I0409 21:47:43.997501 21587 net.cpp:434] conv5_4 <- conv5_4/out
I0409 21:47:43.997504 21587 net.cpp:434] conv5_4 <- conv5_4/input
I0409 21:47:43.997508 21587 net.cpp:408] conv5_4 -> conv5_4
I0409 21:47:43.997524 21587 net.cpp:150] Setting up conv5_4
I0409 21:47:43.997529 21587 net.cpp:157] Top shape: 1 384 27 45 (466560)
I0409 21:47:43.997530 21587 net.cpp:165] Memory required for data: 2111961684
I0409 21:47:43.997532 21587 layer_factory.hpp:77] Creating layer upsample/conv3_4
I0409 21:47:43.997539 21587 net.cpp:100] Creating Layer upsample/conv3_4
I0409 21:47:43.997541 21587 net.cpp:434] upsample/conv3_4 <- conv3_4_conv3_4_0_split_5
I0409 21:47:43.997548 21587 net.cpp:408] upsample/conv3_4 -> upsample/conv3_4
I0409 21:47:43.997748 21587 net.cpp:150] Setting up upsample/conv3_4
I0409 21:47:43.997753 21587 net.cpp:157] Top shape: 1 128 216 360 (9953280)
I0409 21:47:43.997756 21587 net.cpp:165] Memory required for data: 2151774804
I0409 21:47:43.997759 21587 layer_factory.hpp:77] Creating layer upsample/conv4_4
I0409 21:47:43.997763 21587 net.cpp:100] Creating Layer upsample/conv4_4
I0409 21:47:43.997766 21587 net.cpp:434] upsample/conv4_4 <- conv4_4_conv4_4_0_split_5
I0409 21:47:43.997771 21587 net.cpp:408] upsample/conv4_4 -> upsample/conv4_4
I0409 21:47:43.998314 21587 net.cpp:150] Setting up upsample/conv4_4
I0409 21:47:43.998319 21587 net.cpp:157] Top shape: 1 256 216 360 (19906560)
I0409 21:47:43.998322 21587 net.cpp:165] Memory required for data: 2231401044
I0409 21:47:43.998324 21587 layer_factory.hpp:77] Creating layer upsample/conv5_4
I0409 21:47:43.998329 21587 net.cpp:100] Creating Layer upsample/conv5_4
I0409 21:47:43.998332 21587 net.cpp:434] upsample/conv5_4 <- conv5_4
I0409 21:47:43.998335 21587 net.cpp:408] upsample/conv5_4 -> upsample/conv5_4
I0409 21:47:44.000941 21587 net.cpp:150] Setting up upsample/conv5_4
I0409 21:47:44.000946 21587 net.cpp:157] Top shape: 1 384 216 360 (29859840)
I0409 21:47:44.000948 21587 net.cpp:165] Memory required for data: 2350840404
I0409 21:47:44.000952 21587 layer_factory.hpp:77] Creating layer concat
I0409 21:47:44.000957 21587 net.cpp:100] Creating Layer concat
I0409 21:47:44.000958 21587 net.cpp:434] concat <- upsample/conv3_4
I0409 21:47:44.000962 21587 net.cpp:434] concat <- upsample/conv4_4
I0409 21:47:44.000964 21587 net.cpp:434] concat <- upsample/conv5_4
I0409 21:47:44.000969 21587 net.cpp:408] concat -> concat
I0409 21:47:44.000988 21587 net.cpp:150] Setting up concat
I0409 21:47:44.000990 21587 net.cpp:157] Top shape: 1 768 216 360 (59719680)
I0409 21:47:44.000993 21587 net.cpp:165] Memory required for data: 2589719124
I0409 21:47:44.000994 21587 layer_factory.hpp:77] Creating layer concat_concat_0_split
I0409 21:47:44.000998 21587 net.cpp:100] Creating Layer concat_concat_0_split
I0409 21:47:44.001001 21587 net.cpp:434] concat_concat_0_split <- concat
I0409 21:47:44.001004 21587 net.cpp:408] concat_concat_0_split -> concat_concat_0_split_0
I0409 21:47:44.001008 21587 net.cpp:408] concat_concat_0_split -> concat_concat_0_split_1
I0409 21:47:44.001034 21587 net.cpp:150] Setting up concat_concat_0_split
I0409 21:47:44.001039 21587 net.cpp:157] Top shape: 1 768 216 360 (59719680)
I0409 21:47:44.001041 21587 net.cpp:157] Top shape: 1 768 216 360 (59719680)
I0409 21:47:44.001044 21587 net.cpp:165] Memory required for data: 3067476564
I0409 21:47:44.001045 21587 layer_factory.hpp:77] Creating layer convf_rpn
I0409 21:47:44.001051 21587 net.cpp:100] Creating Layer convf_rpn
I0409 21:47:44.001054 21587 net.cpp:434] convf_rpn <- concat_concat_0_split_0
I0409 21:47:44.001057 21587 net.cpp:408] convf_rpn -> convf_rpn
I0409 21:47:44.003319 21587 net.cpp:150] Setting up convf_rpn
I0409 21:47:44.003327 21587 net.cpp:157] Top shape: 1 128 216 360 (9953280)
I0409 21:47:44.003330 21587 net.cpp:165] Memory required for data: 3107289684
I0409 21:47:44.003382 21587 layer_factory.hpp:77] Creating layer reluf_rpn
I0409 21:47:44.003387 21587 net.cpp:100] Creating Layer reluf_rpn
I0409 21:47:44.003389 21587 net.cpp:434] reluf_rpn <- convf_rpn
I0409 21:47:44.003393 21587 net.cpp:395] reluf_rpn -> convf_rpn (in-place)
I0409 21:47:44.003880 21587 net.cpp:150] Setting up reluf_rpn
I0409 21:47:44.003887 21587 net.cpp:157] Top shape: 1 128 216 360 (9953280)
I0409 21:47:44.003890 21587 net.cpp:165] Memory required for data: 3147102804
I0409 21:47:44.003892 21587 layer_factory.hpp:77] Creating layer convf_rpn_reluf_rpn_0_split
I0409 21:47:44.003896 21587 net.cpp:100] Creating Layer convf_rpn_reluf_rpn_0_split
I0409 21:47:44.003900 21587 net.cpp:434] convf_rpn_reluf_rpn_0_split <- convf_rpn
I0409 21:47:44.003904 21587 net.cpp:408] convf_rpn_reluf_rpn_0_split -> convf_rpn_reluf_rpn_0_split_0
I0409 21:47:44.003911 21587 net.cpp:408] convf_rpn_reluf_rpn_0_split -> convf_rpn_reluf_rpn_0_split_1
I0409 21:47:44.003947 21587 net.cpp:150] Setting up convf_rpn_reluf_rpn_0_split
I0409 21:47:44.003952 21587 net.cpp:157] Top shape: 1 128 216 360 (9953280)
I0409 21:47:44.003953 21587 net.cpp:157] Top shape: 1 128 216 360 (9953280)
I0409 21:47:44.003955 21587 net.cpp:165] Memory required for data: 3226729044
I0409 21:47:44.003957 21587 layer_factory.hpp:77] Creating layer convf_2
I0409 21:47:44.003964 21587 net.cpp:100] Creating Layer convf_2
I0409 21:47:44.003968 21587 net.cpp:434] convf_2 <- concat_concat_0_split_1
I0409 21:47:44.003971 21587 net.cpp:408] convf_2 -> convf_2
I0409 21:47:44.006968 21587 net.cpp:150] Setting up convf_2
I0409 21:47:44.006978 21587 net.cpp:157] Top shape: 1 384 216 360 (29859840)
I0409 21:47:44.006980 21587 net.cpp:165] Memory required for data: 3346168404
I0409 21:47:44.006984 21587 layer_factory.hpp:77] Creating layer reluf_2
I0409 21:47:44.006989 21587 net.cpp:100] Creating Layer reluf_2
I0409 21:47:44.006991 21587 net.cpp:434] reluf_2 <- convf_2
I0409 21:47:44.006995 21587 net.cpp:395] reluf_2 -> convf_2 (in-place)
I0409 21:47:44.007474 21587 net.cpp:150] Setting up reluf_2
I0409 21:47:44.007483 21587 net.cpp:157] Top shape: 1 384 216 360 (29859840)
I0409 21:47:44.007484 21587 net.cpp:165] Memory required for data: 3465607764
I0409 21:47:44.007488 21587 layer_factory.hpp:77] Creating layer concat_convf
I0409 21:47:44.007493 21587 net.cpp:100] Creating Layer concat_convf
I0409 21:47:44.007494 21587 net.cpp:434] concat_convf <- convf_rpn_reluf_rpn_0_split_0
I0409 21:47:44.007498 21587 net.cpp:434] concat_convf <- convf_2
I0409 21:47:44.007503 21587 net.cpp:408] concat_convf -> convf
I0409 21:47:44.007525 21587 net.cpp:150] Setting up concat_convf
I0409 21:47:44.007529 21587 net.cpp:157] Top shape: 1 512 216 360 (39813120)
I0409 21:47:44.007531 21587 net.cpp:165] Memory required for data: 3624860244
I0409 21:47:44.007534 21587 layer_factory.hpp:77] Creating layer convf_concat_convf_0_split
I0409 21:47:44.007539 21587 net.cpp:100] Creating Layer convf_concat_convf_0_split
I0409 21:47:44.007540 21587 net.cpp:434] convf_concat_convf_0_split <- convf
I0409 21:47:44.007544 21587 net.cpp:408] convf_concat_convf_0_split -> convf_concat_convf_0_split_0
I0409 21:47:44.007550 21587 net.cpp:408] convf_concat_convf_0_split -> convf_concat_convf_0_split_1
I0409 21:47:44.007577 21587 net.cpp:150] Setting up convf_concat_convf_0_split
I0409 21:47:44.007582 21587 net.cpp:157] Top shape: 1 512 216 360 (39813120)
I0409 21:47:44.007585 21587 net.cpp:157] Top shape: 1 512 216 360 (39813120)
I0409 21:47:44.007586 21587 net.cpp:165] Memory required for data: 3943365204
I0409 21:47:44.007588 21587 layer_factory.hpp:77] Creating layer rpn_conv1
I0409 21:47:44.007596 21587 net.cpp:100] Creating Layer rpn_conv1
I0409 21:47:44.007598 21587 net.cpp:434] rpn_conv1 <- convf_rpn_reluf_rpn_0_split_1
I0409 21:47:44.007602 21587 net.cpp:408] rpn_conv1 -> rpn_conv1
I0409 21:47:44.012691 21587 net.cpp:150] Setting up rpn_conv1
I0409 21:47:44.012701 21587 net.cpp:157] Top shape: 1 384 216 360 (29859840)
I0409 21:47:44.012702 21587 net.cpp:165] Memory required for data: 4062804564
I0409 21:47:44.012707 21587 layer_factory.hpp:77] Creating layer rpn_relu1
I0409 21:47:44.012712 21587 net.cpp:100] Creating Layer rpn_relu1
I0409 21:47:44.012714 21587 net.cpp:434] rpn_relu1 <- rpn_conv1
I0409 21:47:44.012718 21587 net.cpp:395] rpn_relu1 -> rpn_conv1 (in-place)
I0409 21:47:44.012866 21587 net.cpp:150] Setting up rpn_relu1
I0409 21:47:44.012873 21587 net.cpp:157] Top shape: 1 384 216 360 (29859840)
I0409 21:47:44.012876 21587 net.cpp:165] Memory required for data: 4182243924
I0409 21:47:44.012878 21587 layer_factory.hpp:77] Creating layer rpn_conv1_rpn_relu1_0_split
I0409 21:47:44.012881 21587 net.cpp:100] Creating Layer rpn_conv1_rpn_relu1_0_split
I0409 21:47:44.012884 21587 net.cpp:434] rpn_conv1_rpn_relu1_0_split <- rpn_conv1
I0409 21:47:44.012888 21587 net.cpp:408] rpn_conv1_rpn_relu1_0_split -> rpn_conv1_rpn_relu1_0_split_0
I0409 21:47:44.012897 21587 net.cpp:408] rpn_conv1_rpn_relu1_0_split -> rpn_conv1_rpn_relu1_0_split_1
I0409 21:47:44.012931 21587 net.cpp:150] Setting up rpn_conv1_rpn_relu1_0_split
I0409 21:47:44.012935 21587 net.cpp:157] Top shape: 1 384 216 360 (29859840)
I0409 21:47:44.012938 21587 net.cpp:157] Top shape: 1 384 216 360 (29859840)
I0409 21:47:44.012939 21587 net.cpp:165] Memory required for data: 4421122644
I0409 21:47:44.012941 21587 layer_factory.hpp:77] Creating layer rpn_cls_score_D2
I0409 21:47:44.012949 21587 net.cpp:100] Creating Layer rpn_cls_score_D2
I0409 21:47:44.012953 21587 net.cpp:434] rpn_cls_score_D2 <- rpn_conv1_rpn_relu1_0_split_0
I0409 21:47:44.012956 21587 net.cpp:408] rpn_cls_score_D2 -> rpn_cls_score
I0409 21:47:44.014837 21587 net.cpp:150] Setting up rpn_cls_score_D2
I0409 21:47:44.014845 21587 net.cpp:157] Top shape: 1 84 216 360 (6531840)
I0409 21:47:44.014848 21587 net.cpp:165] Memory required for data: 4447250004
I0409 21:47:44.014853 21587 layer_factory.hpp:77] Creating layer rpn_cls_score_rpn_cls_score_D2_0_split
I0409 21:47:44.014858 21587 net.cpp:100] Creating Layer rpn_cls_score_rpn_cls_score_D2_0_split
I0409 21:47:44.014859 21587 net.cpp:434] rpn_cls_score_rpn_cls_score_D2_0_split <- rpn_cls_score
I0409 21:47:44.014864 21587 net.cpp:408] rpn_cls_score_rpn_cls_score_D2_0_split -> rpn_cls_score_rpn_cls_score_D2_0_split_0
I0409 21:47:44.014869 21587 net.cpp:408] rpn_cls_score_rpn_cls_score_D2_0_split -> rpn_cls_score_rpn_cls_score_D2_0_split_1
I0409 21:47:44.014905 21587 net.cpp:150] Setting up rpn_cls_score_rpn_cls_score_D2_0_split
I0409 21:47:44.014909 21587 net.cpp:157] Top shape: 1 84 216 360 (6531840)
I0409 21:47:44.014911 21587 net.cpp:157] Top shape: 1 84 216 360 (6531840)
I0409 21:47:44.014914 21587 net.cpp:165] Memory required for data: 4499504724
I0409 21:47:44.014916 21587 layer_factory.hpp:77] Creating layer rpn_bbox_pred_D2
I0409 21:47:44.014922 21587 net.cpp:100] Creating Layer rpn_bbox_pred_D2
I0409 21:47:44.014925 21587 net.cpp:434] rpn_bbox_pred_D2 <- rpn_conv1_rpn_relu1_0_split_1
I0409 21:47:44.014930 21587 net.cpp:408] rpn_bbox_pred_D2 -> rpn_bbox_pred
I0409 21:47:44.017302 21587 net.cpp:150] Setting up rpn_bbox_pred_D2
I0409 21:47:44.017313 21587 net.cpp:157] Top shape: 1 168 216 360 (13063680)
I0409 21:47:44.017314 21587 net.cpp:165] Memory required for data: 4551759444
I0409 21:47:44.017319 21587 layer_factory.hpp:77] Creating layer rpn_bbox_pred_rpn_bbox_pred_D2_0_split
I0409 21:47:44.017323 21587 net.cpp:100] Creating Layer rpn_bbox_pred_rpn_bbox_pred_D2_0_split
I0409 21:47:44.017325 21587 net.cpp:434] rpn_bbox_pred_rpn_bbox_pred_D2_0_split <- rpn_bbox_pred
I0409 21:47:44.017331 21587 net.cpp:408] rpn_bbox_pred_rpn_bbox_pred_D2_0_split -> rpn_bbox_pred_rpn_bbox_pred_D2_0_split_0
I0409 21:47:44.017336 21587 net.cpp:408] rpn_bbox_pred_rpn_bbox_pred_D2_0_split -> rpn_bbox_pred_rpn_bbox_pred_D2_0_split_1
I0409 21:47:44.017374 21587 net.cpp:150] Setting up rpn_bbox_pred_rpn_bbox_pred_D2_0_split
I0409 21:47:44.017377 21587 net.cpp:157] Top shape: 1 168 216 360 (13063680)
I0409 21:47:44.017380 21587 net.cpp:157] Top shape: 1 168 216 360 (13063680)
I0409 21:47:44.017382 21587 net.cpp:165] Memory required for data: 4656268884
I0409 21:47:44.017385 21587 layer_factory.hpp:77] Creating layer rpn_cls_score_reshape
I0409 21:47:44.017390 21587 net.cpp:100] Creating Layer rpn_cls_score_reshape
I0409 21:47:44.017392 21587 net.cpp:434] rpn_cls_score_reshape <- rpn_cls_score_rpn_cls_score_D2_0_split_0
I0409 21:47:44.017397 21587 net.cpp:408] rpn_cls_score_reshape -> rpn_cls_score_reshape
I0409 21:47:44.017418 21587 net.cpp:150] Setting up rpn_cls_score_reshape
I0409 21:47:44.017422 21587 net.cpp:157] Top shape: 1 2 9072 360 (6531840)
I0409 21:47:44.017424 21587 net.cpp:165] Memory required for data: 4682396244
I0409 21:47:44.017426 21587 layer_factory.hpp:77] Creating layer rpn_cls_score_reshape_rpn_cls_score_reshape_0_split
I0409 21:47:44.017431 21587 net.cpp:100] Creating Layer rpn_cls_score_reshape_rpn_cls_score_reshape_0_split
I0409 21:47:44.017432 21587 net.cpp:434] rpn_cls_score_reshape_rpn_cls_score_reshape_0_split <- rpn_cls_score_reshape
I0409 21:47:44.017441 21587 net.cpp:408] rpn_cls_score_reshape_rpn_cls_score_reshape_0_split -> rpn_cls_score_reshape_rpn_cls_score_reshape_0_split_0
I0409 21:47:44.017446 21587 net.cpp:408] rpn_cls_score_reshape_rpn_cls_score_reshape_0_split -> rpn_cls_score_reshape_rpn_cls_score_reshape_0_split_1
I0409 21:47:44.017472 21587 net.cpp:150] Setting up rpn_cls_score_reshape_rpn_cls_score_reshape_0_split
I0409 21:47:44.017477 21587 net.cpp:157] Top shape: 1 2 9072 360 (6531840)
I0409 21:47:44.017479 21587 net.cpp:157] Top shape: 1 2 9072 360 (6531840)
I0409 21:47:44.017482 21587 net.cpp:165] Memory required for data: 4734650964
I0409 21:47:44.017483 21587 layer_factory.hpp:77] Creating layer rpn-data
I0409 21:47:44.017824 21587 net.cpp:100] Creating Layer rpn-data
I0409 21:47:44.017832 21587 net.cpp:434] rpn-data <- rpn_cls_score_rpn_cls_score_D2_0_split_1
I0409 21:47:44.017837 21587 net.cpp:434] rpn-data <- gt_boxes_input-data_2_split_0
I0409 21:47:44.017840 21587 net.cpp:434] rpn-data <- im_info_input-data_1_split_0
I0409 21:47:44.017843 21587 net.cpp:434] rpn-data <- data_input-data_0_split_1
I0409 21:47:44.017848 21587 net.cpp:408] rpn-data -> rpn_labels
I0409 21:47:44.017853 21587 net.cpp:408] rpn-data -> rpn_bbox_targets
I0409 21:47:44.017858 21587 net.cpp:408] rpn-data -> rpn_bbox_inside_weights
I0409 21:47:44.017863 21587 net.cpp:408] rpn-data -> rpn_bbox_outside_weights
I0409 21:47:44.025133 21587 net.cpp:150] Setting up rpn-data
I0409 21:47:44.025167 21587 net.cpp:157] Top shape: 1 1 9072 360 (3265920)
I0409 21:47:44.025171 21587 net.cpp:157] Top shape: 1 168 216 360 (13063680)
I0409 21:47:44.025173 21587 net.cpp:157] Top shape: 1 168 216 360 (13063680)
I0409 21:47:44.025177 21587 net.cpp:157] Top shape: 1 168 216 360 (13063680)
I0409 21:47:44.025178 21587 net.cpp:165] Memory required for data: 4904478804
I0409 21:47:44.025182 21587 layer_factory.hpp:77] Creating layer rpn_loss_cls
I0409 21:47:44.025192 21587 net.cpp:100] Creating Layer rpn_loss_cls
I0409 21:47:44.025197 21587 net.cpp:434] rpn_loss_cls <- rpn_cls_score_reshape_rpn_cls_score_reshape_0_split_0
I0409 21:47:44.025202 21587 net.cpp:434] rpn_loss_cls <- rpn_labels
…
I0409 21:47:44.099572 21587 net.cpp:157] Top shape: (1)
I0409 21:47:44.099575 21587 net.cpp:160]     with loss weight 1
I0409 21:47:44.099584 21587 net.cpp:165] Memory required for data: 4904478812
I0409 21:47:44.099589 21587 layer_factory.hpp:77] Creating layer rpn_cls_prob
I0409 21:47:44.099601 21587 net.cpp:100] Creating Layer rpn_cls_prob
I0409 21:47:44.099607 21587 net.cpp:434] rpn_cls_prob <- rpn_cls_score_reshape_rpn_cls_score_reshape_0_split_1
I0409 21:47:44.099616 21587 net.cpp:408] rpn_cls_prob -> rpn_cls_prob
I0409 21:47:44.100491 21587 net.cpp:150] Setting up rpn_cls_prob
I0409 21:47:44.100504 21587 net.cpp:157] Top shape: 1 2 9072 360 (6531840)
I0409 21:47:44.100507 21587 net.cpp:165] Memory required for data: 4930606172
I0409 21:47:44.100510 21587 layer_factory.hpp:77] Creating layer rpn_cls_prob_reshape
I0409 21:47:44.100524 21587 net.cpp:100] Creating Layer rpn_cls_prob_reshape
I0409 21:47:44.100528 21587 net.cpp:434] rpn_cls_prob_reshape <- rpn_cls_prob
I0409 21:47:44.100534 21587 net.cpp:408] rpn_cls_prob_reshape -> rpn_cls_prob_reshape
I0409 21:47:44.100565 21587 net.cpp:150] Setting up rpn_cls_prob_reshape
I0409 21:47:44.100570 21587 net.cpp:157] Top shape: 1 84 216 360 (6531840)
I0409 21:47:44.100574 21587 net.cpp:165] Memory required for data: 4956733532
I0409 21:47:44.100575 21587 layer_factory.hpp:77] Creating layer proposal
I0409 21:47:44.100582 21587 net.cpp:100] Creating Layer proposal
I0409 21:47:44.100585 21587 net.cpp:434] proposal <- rpn_cls_prob_reshape
I0409 21:47:44.100589 21587 net.cpp:434] proposal <- rpn_bbox_pred_rpn_bbox_pred_D2_0_split_1
I0409 21:47:44.100592 21587 net.cpp:434] proposal <- im_info_input-data_1_split_1
I0409 21:47:44.100596 21587 net.cpp:408] proposal -> rpn_rois
I0409 21:47:44.100602 21587 net.cpp:408] proposal -> rpn_scores
I0409 21:47:44.100675 21587 net.cpp:150] Setting up proposal
I0409 21:47:44.100679 21587 net.cpp:157] Top shape: 2000 5 (10000)
I0409 21:47:44.100682 21587 net.cpp:157] Top shape: 2000 (2000)
I0409 21:47:44.100684 21587 net.cpp:165] Memory required for data: 4956781532
I0409 21:47:44.100687 21587 layer_factory.hpp:77] Creating layer mute_rpn_scores
I0409 21:47:44.100692 21587 net.cpp:100] Creating Layer mute_rpn_scores
I0409 21:47:44.100694 21587 net.cpp:434] mute_rpn_scores <- rpn_scores
I0409 21:47:44.100697 21587 net.cpp:150] Setting up mute_rpn_scores
I0409 21:47:44.100699 21587 net.cpp:165] Memory required for data: 4956781532
I0409 21:47:44.100702 21587 layer_factory.hpp:77] Creating layer roi-data
I0409 21:47:44.100893 21587 net.cpp:100] Creating Layer roi-data
I0409 21:47:44.100900 21587 net.cpp:434] roi-data <- rpn_rois
I0409 21:47:44.100905 21587 net.cpp:434] roi-data <- gt_boxes_input-data_2_split_1
I0409 21:47:44.100909 21587 net.cpp:408] roi-data -> rois
I0409 21:47:44.100914 21587 net.cpp:408] roi-data -> labels
I0409 21:47:44.100919 21587 net.cpp:408] roi-data -> bbox_targets
I0409 21:47:44.100924 21587 net.cpp:408] roi-data -> bbox_inside_weights
I0409 21:47:44.100929 21587 net.cpp:408] roi-data -> bbox_outside_weights
I0409 21:47:44.101325 21587 net.cpp:150] Setting up roi-data
I0409 21:47:44.101335 21587 net.cpp:157] Top shape: 128 5 (640)
I0409 21:47:44.101336 21587 net.cpp:157] Top shape: 128 1 (128)
I0409 21:47:44.101339 21587 net.cpp:157] Top shape: 128 8 (1024)
I0409 21:47:44.101341 21587 net.cpp:157] Top shape: 128 8 (1024)
I0409 21:47:44.101343 21587 net.cpp:157] Top shape: 128 8 (1024)
I0409 21:47:44.101346 21587 net.cpp:165] Memory required for data: 4956796892
I0409 21:47:44.101348 21587 layer_factory.hpp:77] Creating layer rois_roi-data_0_split
I0409 21:47:44.101353 21587 net.cpp:100] Creating Layer rois_roi-data_0_split
I0409 21:47:44.101356 21587 net.cpp:434] rois_roi-data_0_split <- rois
I0409 21:47:44.101361 21587 net.cpp:408] rois_roi-data_0_split -> rois_roi-data_0_split_0
I0409 21:47:44.101366 21587 net.cpp:408] rois_roi-data_0_split -> rois_roi-data_0_split_1
I0409 21:47:44.101394 21587 net.cpp:150] Setting up rois_roi-data_0_split
I0409 21:47:44.101398 21587 net.cpp:157] Top shape: 128 5 (640)
I0409 21:47:44.101400 21587 net.cpp:157] Top shape: 128 5 (640)
I0409 21:47:44.101402 21587 net.cpp:165] Memory required for data: 4956802012
I0409 21:47:44.101404 21587 layer_factory.hpp:77] Creating layer roi_pool5_readonly
I0409 21:47:44.101409 21587 net.cpp:100] Creating Layer roi_pool5_readonly
I0409 21:47:44.101413 21587 net.cpp:434] roi_pool5_readonly <- convf_concat_convf_0_split_0
I0409 21:47:44.101416 21587 net.cpp:434] roi_pool5_readonly <- rois_roi-data_0_split_0
I0409 21:47:44.101419 21587 net.cpp:408] roi_pool5_readonly -> pool5_readonly
I0409 21:47:44.101425 21587 roi_pooling_layer.cpp:34] Spatial scale: 0.25
I0409 21:47:44.101459 21587 net.cpp:150] Setting up roi_pool5_readonly
I0409 21:47:44.101462 21587 net.cpp:157] Top shape: 128 512 6 6 (2359296)
I0409 21:47:44.101464 21587 net.cpp:165] Memory required for data: 4966239196
I0409 21:47:44.101470 21587 layer_factory.hpp:77] Creating layer fc6_readonly
I0409 21:47:44.101477 21587 net.cpp:100] Creating Layer fc6_readonly
I0409 21:47:44.101480 21587 net.cpp:434] fc6_readonly <- pool5_readonly
I0409 21:47:44.101485 21587 net.cpp:408] fc6_readonly -> fc6_readonly
I0409 21:47:44.187068 21587 net.cpp:150] Setting up fc6_readonly
I0409 21:47:44.187099 21587 net.cpp:157] Top shape: 128 4096 (524288)
I0409 21:47:44.187103 21587 net.cpp:165] Memory required for data: 4968336348
I0409 21:47:44.187110 21587 layer_factory.hpp:77] Creating layer relu6_readonly
I0409 21:47:44.187117 21587 net.cpp:100] Creating Layer relu6_readonly
I0409 21:47:44.187121 21587 net.cpp:434] relu6_readonly <- fc6_readonly
I0409 21:47:44.187127 21587 net.cpp:395] relu6_readonly -> fc6_readonly (in-place)
I0409 21:47:44.187345 21587 net.cpp:150] Setting up relu6_readonly
I0409 21:47:44.187351 21587 net.cpp:157] Top shape: 128 4096 (524288)
I0409 21:47:44.187353 21587 net.cpp:165] Memory required for data: 4970433500
I0409 21:47:44.187356 21587 layer_factory.hpp:77] Creating layer drop6_readonly
I0409 21:47:44.187362 21587 net.cpp:100] Creating Layer drop6_readonly
I0409 21:47:44.187364 21587 net.cpp:434] drop6_readonly <- fc6_readonly
I0409 21:47:44.187368 21587 net.cpp:395] drop6_readonly -> fc6_readonly (in-place)
I0409 21:47:44.187386 21587 net.cpp:150] Setting up drop6_readonly
I0409 21:47:44.187391 21587 net.cpp:157] Top shape: 128 4096 (524288)
I0409 21:47:44.187393 21587 net.cpp:165] Memory required for data: 4972530652
I0409 21:47:44.187396 21587 layer_factory.hpp:77] Creating layer fc7_readonly
I0409 21:47:44.187400 21587 net.cpp:100] Creating Layer fc7_readonly
I0409 21:47:44.187403 21587 net.cpp:434] fc7_readonly <- fc6_readonly
I0409 21:47:44.187407 21587 net.cpp:408] fc7_readonly -> fc7_readonly
I0409 21:47:44.206750 21587 net.cpp:150] Setting up fc7_readonly
I0409 21:47:44.206782 21587 net.cpp:157] Top shape: 128 4096 (524288)
I0409 21:47:44.206785 21587 net.cpp:165] Memory required for data: 4974627804
I0409 21:47:44.206794 21587 layer_factory.hpp:77] Creating layer relu7_readonly
I0409 21:47:44.206802 21587 net.cpp:100] Creating Layer relu7_readonly
I0409 21:47:44.206806 21587 net.cpp:434] relu7_readonly <- fc7_readonly
I0409 21:47:44.206811 21587 net.cpp:395] relu7_readonly -> fc7_readonly (in-place)
I0409 21:47:44.207540 21587 net.cpp:150] Setting up relu7_readonly
I0409 21:47:44.207552 21587 net.cpp:157] Top shape: 128 4096 (524288)
I0409 21:47:44.207556 21587 net.cpp:165] Memory required for data: 4976724956
I0409 21:47:44.207558 21587 layer_factory.hpp:77] Creating layer drop7_readonly
I0409 21:47:44.207566 21587 net.cpp:100] Creating Layer drop7_readonly
I0409 21:47:44.207568 21587 net.cpp:434] drop7_readonly <- fc7_readonly
I0409 21:47:44.207573 21587 net.cpp:395] drop7_readonly -> fc7_readonly (in-place)
I0409 21:47:44.207610 21587 net.cpp:150] Setting up drop7_readonly
I0409 21:47:44.207615 21587 net.cpp:157] Top shape: 128 4096 (524288)
I0409 21:47:44.207617 21587 net.cpp:165] Memory required for data: 4978822108
I0409 21:47:44.207619 21587 layer_factory.hpp:77] Creating layer fc7_readonly_drop7_readonly_0_split
I0409 21:47:44.207623 21587 net.cpp:100] Creating Layer fc7_readonly_drop7_readonly_0_split
I0409 21:47:44.207626 21587 net.cpp:434] fc7_readonly_drop7_readonly_0_split <- fc7_readonly
I0409 21:47:44.207630 21587 net.cpp:408] fc7_readonly_drop7_readonly_0_split -> fc7_readonly_drop7_readonly_0_split_0
I0409 21:47:44.207635 21587 net.cpp:408] fc7_readonly_drop7_readonly_0_split -> fc7_readonly_drop7_readonly_0_split_1
I0409 21:47:44.207669 21587 net.cpp:150] Setting up fc7_readonly_drop7_readonly_0_split
I0409 21:47:44.207674 21587 net.cpp:157] Top shape: 128 4096 (524288)
I0409 21:47:44.207677 21587 net.cpp:157] Top shape: 128 4096 (524288)
I0409 21:47:44.207679 21587 net.cpp:165] Memory required for data: 4983016412
I0409 21:47:44.207681 21587 layer_factory.hpp:77] Creating layer cls_score_readonly
I0409 21:47:44.207689 21587 net.cpp:100] Creating Layer cls_score_readonly
I0409 21:47:44.207691 21587 net.cpp:434] cls_score_readonly <- fc7_readonly_drop7_readonly_0_split_0
I0409 21:47:44.207701 21587 net.cpp:408] cls_score_readonly -> cls_score_readonly
I0409 21:47:44.207852 21587 net.cpp:150] Setting up cls_score_readonly
I0409 21:47:44.207856 21587 net.cpp:157] Top shape: 128 2 (256)
I0409 21:47:44.207859 21587 net.cpp:165] Memory required for data: 4983017436
I0409 21:47:44.207862 21587 layer_factory.hpp:77] Creating layer bbox_pred_readonly
I0409 21:47:44.207867 21587 net.cpp:100] Creating Layer bbox_pred_readonly
I0409 21:47:44.207870 21587 net.cpp:434] bbox_pred_readonly <- fc7_readonly_drop7_readonly_0_split_1
I0409 21:47:44.207875 21587 net.cpp:408] bbox_pred_readonly -> bbox_pred_readonly
I0409 21:47:44.208206 21587 net.cpp:150] Setting up bbox_pred_readonly
I0409 21:47:44.208212 21587 net.cpp:157] Top shape: 128 8 (1024)
I0409 21:47:44.208214 21587 net.cpp:165] Memory required for data: 4983021532
I0409 21:47:44.208217 21587 layer_factory.hpp:77] Creating layer cls_prob_readonly
I0409 21:47:44.208223 21587 net.cpp:100] Creating Layer cls_prob_readonly
I0409 21:47:44.208226 21587 net.cpp:434] cls_prob_readonly <- cls_score_readonly
I0409 21:47:44.208230 21587 net.cpp:408] cls_prob_readonly -> cls_prob_readonly
I0409 21:47:44.208879 21587 net.cpp:150] Setting up cls_prob_readonly
I0409 21:47:44.208889 21587 net.cpp:157] Top shape: 128 2 (256)
I0409 21:47:44.208890 21587 net.cpp:165] Memory required for data: 4983022556
I0409 21:47:44.208894 21587 layer_factory.hpp:77] Creating layer hard_roi_mining
I0409 21:47:44.208935 21587 net.cpp:100] Creating Layer hard_roi_mining
I0409 21:47:44.208940 21587 net.cpp:434] hard_roi_mining <- cls_prob_readonly
I0409 21:47:44.208943 21587 net.cpp:434] hard_roi_mining <- bbox_pred_readonly
I0409 21:47:44.208947 21587 net.cpp:434] hard_roi_mining <- rois_roi-data_0_split_1
I0409 21:47:44.208950 21587 net.cpp:434] hard_roi_mining <- labels
I0409 21:47:44.208952 21587 net.cpp:434] hard_roi_mining <- bbox_targets
I0409 21:47:44.208956 21587 net.cpp:434] hard_roi_mining <- bbox_inside_weights
I0409 21:47:44.208957 21587 net.cpp:434] hard_roi_mining <- bbox_outside_weights
I0409 21:47:44.208962 21587 net.cpp:408] hard_roi_mining -> rois_hard
I0409 21:47:44.208968 21587 net.cpp:408] hard_roi_mining -> labels_hard
I0409 21:47:44.208973 21587 net.cpp:408] hard_roi_mining -> bbox_targets_hard
I0409 21:47:44.208978 21587 net.cpp:408] hard_roi_mining -> bbox_inside_weights_hard
I0409 21:47:44.208984 21587 net.cpp:408] hard_roi_mining -> bbox_outside_weights_hard
I0409 21:47:44.209408 21587 net.cpp:150] Setting up hard_roi_mining
I0409 21:47:44.209416 21587 net.cpp:157] Top shape: 128 5 (640)
I0409 21:47:44.209419 21587 net.cpp:157] Top shape: 128 (128)
I0409 21:47:44.209421 21587 net.cpp:157] Top shape: 128 8 (1024)
I0409 21:47:44.209424 21587 net.cpp:157] Top shape: 128 8 (1024)
I0409 21:47:44.209426 21587 net.cpp:157] Top shape: 128 8 (1024)
I0409 21:47:44.209427 21587 net.cpp:165] Memory required for data: 4983037916
I0409 21:47:44.209430 21587 layer_factory.hpp:77] Creating layer roi_pool5
I0409 21:47:44.209435 21587 net.cpp:100] Creating Layer roi_pool5
I0409 21:47:44.209439 21587 net.cpp:434] roi_pool5 <- convf_concat_convf_0_split_1
I0409 21:47:44.209442 21587 net.cpp:434] roi_pool5 <- rois_hard
I0409 21:47:44.209448 21587 net.cpp:408] roi_pool5 -> pool5
I0409 21:47:44.209453 21587 roi_pooling_layer.cpp:34] Spatial scale: 0.25
I0409 21:47:44.209501 21587 net.cpp:150] Setting up roi_pool5
I0409 21:47:44.209506 21587 net.cpp:157] Top shape: 128 512 6 6 (2359296)
I0409 21:47:44.209507 21587 net.cpp:165] Memory required for data: 4992475100
I0409 21:47:44.209509 21587 layer_factory.hpp:77] Creating layer fc6
I0409 21:47:44.209519 21587 net.cpp:100] Creating Layer fc6
I0409 21:47:44.209522 21587 net.cpp:434] fc6 <- pool5
I0409 21:47:44.209527 21587 net.cpp:408] fc6 -> fc6
I0409 21:47:44.295125 21587 net.cpp:150] Setting up fc6
I0409 21:47:44.295156 21587 net.cpp:157] Top shape: 128 4096 (524288)
I0409 21:47:44.295157 21587 net.cpp:165] Memory required for data: 4994572252
I0409 21:47:44.295169 21587 net.cpp:493] Sharing parameters 'fc6_w' owned by layer 'fc6_readonly', param index 0
I0409 21:47:44.295173 21587 net.cpp:493] Sharing parameters 'fc6_b' owned by layer 'fc6_readonly', param index 1
I0409 21:47:44.295176 21587 layer_factory.hpp:77] Creating layer relu6
I0409 21:47:44.295184 21587 net.cpp:100] Creating Layer relu6
I0409 21:47:44.295188 21587 net.cpp:434] relu6 <- fc6
I0409 21:47:44.295193 21587 net.cpp:395] relu6 -> fc6 (in-place)
I0409 21:47:44.295410 21587 net.cpp:150] Setting up relu6
I0409 21:47:44.295418 21587 net.cpp:157] Top shape: 128 4096 (524288)
I0409 21:47:44.295419 21587 net.cpp:165] Memory required for data: 4996669404
I0409 21:47:44.295421 21587 layer_factory.hpp:77] Creating layer drop6
I0409 21:47:44.295426 21587 net.cpp:100] Creating Layer drop6
I0409 21:47:44.295429 21587 net.cpp:434] drop6 <- fc6
I0409 21:47:44.295433 21587 net.cpp:395] drop6 -> fc6 (in-place)
I0409 21:47:44.295451 21587 net.cpp:150] Setting up drop6
I0409 21:47:44.295454 21587 net.cpp:157] Top shape: 128 4096 (524288)
I0409 21:47:44.295456 21587 net.cpp:165] Memory required for data: 4998766556
I0409 21:47:44.295459 21587 layer_factory.hpp:77] Creating layer fc7
I0409 21:47:44.295465 21587 net.cpp:100] Creating Layer fc7
I0409 21:47:44.295469 21587 net.cpp:434] fc7 <- fc6
I0409 21:47:44.295471 21587 net.cpp:408] fc7 -> fc7
I0409 21:47:44.314599 21587 net.cpp:150] Setting up fc7
I0409 21:47:44.314631 21587 net.cpp:157] Top shape: 128 4096 (524288)
I0409 21:47:44.314635 21587 net.cpp:165] Memory required for data: 5000863708
I0409 21:47:44.314640 21587 net.cpp:493] Sharing parameters 'fc7_w' owned by layer 'fc7_readonly', param index 0
I0409 21:47:44.314644 21587 net.cpp:493] Sharing parameters 'fc7_b' owned by layer 'fc7_readonly', param index 1
I0409 21:47:44.314648 21587 layer_factory.hpp:77] Creating layer relu7
I0409 21:47:44.314657 21587 net.cpp:100] Creating Layer relu7
I0409 21:47:44.314661 21587 net.cpp:434] relu7 <- fc7
I0409 21:47:44.314667 21587 net.cpp:395] relu7 -> fc7 (in-place)
I0409 21:47:44.315389 21587 net.cpp:150] Setting up relu7
I0409 21:47:44.315403 21587 net.cpp:157] Top shape: 128 4096 (524288)
I0409 21:47:44.315407 21587 net.cpp:165] Memory required for data: 5002960860
I0409 21:47:44.315409 21587 layer_factory.hpp:77] Creating layer drop7
I0409 21:47:44.315417 21587 net.cpp:100] Creating Layer drop7
I0409 21:47:44.315420 21587 net.cpp:434] drop7 <- fc7
I0409 21:47:44.315424 21587 net.cpp:395] drop7 -> fc7 (in-place)
I0409 21:47:44.315450 21587 net.cpp:150] Setting up drop7
I0409 21:47:44.315455 21587 net.cpp:157] Top shape: 128 4096 (524288)
I0409 21:47:44.315457 21587 net.cpp:165] Memory required for data: 5005058012
I0409 21:47:44.315459 21587 layer_factory.hpp:77] Creating layer fc7_drop7_0_split
I0409 21:47:44.315464 21587 net.cpp:100] Creating Layer fc7_drop7_0_split
I0409 21:47:44.315466 21587 net.cpp:434] fc7_drop7_0_split <- fc7
I0409 21:47:44.315470 21587 net.cpp:408] fc7_drop7_0_split -> fc7_drop7_0_split_0
I0409 21:47:44.315475 21587 net.cpp:408] fc7_drop7_0_split -> fc7_drop7_0_split_1
I0409 21:47:44.315510 21587 net.cpp:150] Setting up fc7_drop7_0_split
I0409 21:47:44.315515 21587 net.cpp:157] Top shape: 128 4096 (524288)
I0409 21:47:44.315516 21587 net.cpp:157] Top shape: 128 4096 (524288)
I0409 21:47:44.315518 21587 net.cpp:165] Memory required for data: 5009252316
I0409 21:47:44.315521 21587 layer_factory.hpp:77] Creating layer full1_cls_score
I0409 21:47:44.315526 21587 net.cpp:100] Creating Layer full1_cls_score
I0409 21:47:44.315528 21587 net.cpp:434] full1_cls_score <- fc7_drop7_0_split_0
I0409 21:47:44.315533 21587 net.cpp:408] full1_cls_score -> cls_score
I0409 21:47:44.315683 21587 net.cpp:150] Setting up full1_cls_score
I0409 21:47:44.315688 21587 net.cpp:157] Top shape: 128 2 (256)
I0409 21:47:44.315690 21587 net.cpp:165] Memory required for data: 5009253340
I0409 21:47:44.315693 21587 net.cpp:493] Sharing parameters 'cls_score_w' owned by layer 'cls_score_readonly', param index 0
I0409 21:47:44.315696 21587 net.cpp:493] Sharing parameters 'cls_score_b' owned by layer 'cls_score_readonly', param index 1
I0409 21:47:44.315706 21587 layer_factory.hpp:77] Creating layer sjtuOhem_cg_bbox_pred
I0409 21:47:44.315709 21587 net.cpp:100] Creating Layer sjtuOhem_cg_bbox_pred
I0409 21:47:44.315712 21587 net.cpp:434] sjtuOhem_cg_bbox_pred <- fc7_drop7_0_split_1
I0409 21:47:44.315716 21587 net.cpp:408] sjtuOhem_cg_bbox_pred -> bbox_pred
I0409 21:47:44.316051 21587 net.cpp:150] Setting up sjtuOhem_cg_bbox_pred
I0409 21:47:44.316056 21587 net.cpp:157] Top shape: 128 8 (1024)
I0409 21:47:44.316057 21587 net.cpp:165] Memory required for data: 5009257436
I0409 21:47:44.316061 21587 net.cpp:493] Sharing parameters 'bbox_pred_w' owned by layer 'bbox_pred_readonly', param index 0
I0409 21:47:44.316063 21587 net.cpp:493] Sharing parameters 'bbox_pred_b' owned by layer 'bbox_pred_readonly', param index 1
I0409 21:47:44.316066 21587 layer_factory.hpp:77] Creating layer loss_cls
…
