…
I0316 17:21:08.902169  5556 upgrade_proto.cpp:69] Successfully upgraded file specified using deprecated input fields.
W0316 17:21:08.902173  5556 upgrade_proto.cpp:71] Note that future Caffe releases will only support input layers and not input fields.
I0316 17:21:08.903255  5556 net.cpp:58] Initializing net from parameters: 
name: "PVANET"
state {
  phase: TEST
  level: 0
}
layer {
  name: "input"
  type: "Input"
  top: "data"
  top: "im_info"
  input_param {
    shape {
      dim: 1
      dim: 3
      dim: 640
      dim: 1056
    }
    shape {
      dim: 1
      dim: 6
    }
  }
}
layer {
  name: "conv1_1/conv"
  type: "Convolution"
  bottom: "data"
  top: "conv1_1/conv"
  param {
    lr_mult: 0.1
    decay_mult: 0.1
  }
  convolution_param {
    num_output: 16
    bias_term: true
    weight_filler {
      type: "xavier"
    }
    bias_filler {
      type: "constant"
      value: 0
    }
    pad_h: 3
    pad_w: 3
    kernel_h: 7
    kernel_w: 7
    stride_h: 2
    stride_w: 2
  }
}
layer {
  name: "conv1_1/neg"
  type: "Power"
  bottom: "conv1_1/conv"
  top: "conv1_1/neg"
  power_param {
    power: 1
    scale: -1
    shift: 0
  }
}
layer {
  name: "conv1_1/concat"
  type: "Concat"
  bottom: "conv1_1/conv"
  bottom: "conv1_1/neg"
  top: "conv1_1"
}
layer {
  name: "conv1_1/scale"
  type: "Scale"
  bottom: "conv1_1"
  top: "conv1_1"
  param {
    lr_mult: 0.1
    decay_mult: 0
  }
  param {
    lr_mult: 0.2
    decay_mult: 0
  }
  scale_param {
    bias_term: true
  }
}
layer {
  name: "conv1_1/relu"
  type: "ReLU"
  bottom: "conv1_1"
  top: "conv1_1"
}
layer {
  name: "pool1"
  type: "Pooling"
  bottom: "conv1_1"
  top: "pool1"
  pooling_param {
    pool: MAX
    kernel_size: 3
    stride: 2
    pad: 0
  }
}
layer {
  name: "conv2_1/1/conv"
  type: "Convolution"
  bottom: "pool1"
  top: "conv2_1/1"
  param {
    lr_mult: 0.1
    decay_mult: 0.1
  }
  convolution_param {
    num_output: 24
    bias_term: true
    weight_filler {
      type: "xavier"
    }
    bias_filler {
      type: "constant"
      value: 0
    }
    pad_h: 0
    pad_w: 0
    kernel_h: 1
    kernel_w: 1
    stride_h: 1
    stride_w: 1
    engine: CAFFE
  }
}
layer {
  name: "conv2_1/1/relu"
  type: "ReLU"
  bottom: "conv2_1/1"
  top: "conv2_1/1"
}
layer {
  name: "conv2_1/2/conv"
  type: "Convolution"
  bottom: "conv2_1/1"
  top: "conv2_1/2/conv"
  param {
    lr_mult: 0.1
    decay_mult: 0.1
  }
  convolution_param {
    num_output: 24
    bias_term: true
    weight_filler {
      type: "xavier"
    }
    bias_filler {
      type: "constant"
      value: 0
    }
    pad_h: 1
    pad_w: 1
    kernel_h: 3
    kernel_w: 3
    stride_h: 1
    stride_w: 1
  }
}
layer {
  name: "conv2_1/2/neg"
  type: "Power"
  bottom: "conv2_1/2/conv"
  top: "conv2_1/2/neg"
  power_param {
    power: 1
    scale: -1
    shift: 0
  }
}
layer {
  name: "conv2_1/2/concat"
  type: "Concat"
  bottom: "conv2_1/2/conv"
  bottom: "conv2_1/2/neg"
  top: "conv2_1/2"
}
layer {
  name: "conv2_1/2/scale"
  type: "Scale"
  bottom: "conv2_1/2"
  top: "conv2_1/2"
  param {
    lr_mult: 0.1
    decay_mult: 0
  }
  param {
    lr_mult: 0.2
    decay_mult: 0
  }
  scale_param {
    bias_term: true
  }
}
layer {
  name: "conv2_1/2/relu"
  type: "ReLU"
  bottom: "conv2_1/2"
  top: "conv2_1/2"
}
layer {
  name: "conv2_1/3/conv"
  type: "Convolution"
  bottom: "conv2_1/2"
  top: "conv2_1/3"
  param {
    lr_mult: 0.1
    decay_mult: 0.1
  }
  convolution_param {
    num_output: 64
    bias_term: true
    weight_filler {
      type: "xavier"
    }
    bias_filler {
      type: "constant"
      value: 0
    }
    pad_h: 0
    pad_w: 0
    kernel_h: 1
    kernel_w: 1
    stride_h: 1
    stride_w: 1
    engine: CAFFE
  }
}
layer {
  name: "conv2_1/proj"
  type: "Convolution"
  bottom: "pool1"
  top: "conv2_1/proj"
  param {
    lr_mult: 0.1
    decay_mult: 0.1
  }
  param {
    lr_mult: 0.2
    decay_mult: 0
  }
  convolution_param {
    num_output: 64
    weight_filler {
      type: "xavier"
    }
    bias_filler {
      type: "constant"
      value: 0.1
    }
    pad_h: 0
    pad_w: 0
    kernel_h: 1
    kernel_w: 1
    stride_h: 1
    stride_w: 1
    engine: CAFFE
  }
}
layer {
  name: "conv2_1"
  type: "Eltwise"
  bottom: "conv2_1/3"
  bottom: "conv2_1/proj"
  top: "conv2_1"
  eltwise_param {
    operation: SUM
    coeff: 1
    coeff: 1
  }
}
layer {
  name: "conv2_2/1/conv"
  type: "Convolution"
  bottom: "conv2_1"
  top: "conv2_2/1"
  param {
    lr_mult: 0.1
    decay_mult: 0.1
  }
  convolution_param {
    num_output: 24
    bias_term: true
    weight_filler {
      type: "xavier"
    }
    bias_filler {
      type: "constant"
      value: 0
    }
    pad_h: 0
    pad_w: 0
    kernel_h: 1
    kernel_w: 1
    stride_h: 1
    stride_w: 1
    engine: CAFFE
  }
}
layer {
  name: "conv2_2/1/relu"
  type: "ReLU"
  bottom: "conv2_2/1"
  top: "conv2_2/1"
}
layer {
  name: "conv2_2/2/conv"
  type: "Convolution"
  bottom: "conv2_2/1"
  top: "conv2_2/2/conv"
  param {
    lr_mult: 0.1
    decay_mult: 0.1
  }
  convolution_param {
    num_output: 24
    bias_term: true
    weight_filler {
      type: "xavier"
    }
    bias_filler {
      type: "constant"
      value: 0
    }
    pad_h: 1
    pad_w: 1
    kernel_h: 3
    kernel_w: 3
    stride_h: 1
    stride_w: 1
  }
}
layer {
  name: "conv2_2/2/neg"
  type: "Power"
  bottom: "conv2_2/2/conv"
  top: "conv2_2/2/neg"
  power_param {
    power: 1
    scale: -1
    shift: 0
  }
}
layer {
  name: "conv2_2/2/concat"
  type: "Concat"
  bottom: "conv2_2/2/conv"
  bottom: "conv2_2/2/neg"
  top: "conv2_2/2"
}
layer {
  name: "conv2_2/2/scale"
  type: "Scale"
  bottom: "conv2_2/2"
  top: "conv2_2/2"
  param {
    lr_mult: 0.1
    decay_mult: 0
  }
  param {
    lr_mult: 0.2
    decay_mult: 0
  }
  scale_param {
    bias_term: true
  }
}
layer {
  name: "conv2_2/2/relu"
  type: "ReLU"
  bottom: "conv2_2/2"
  top: "conv2_2/2"
}
layer {
  name: "conv2_2/3/conv"
  type: "Convolution"
  bottom: "conv2_2/2"
  top: "conv2_2/3"
  param {
    lr_mult: 0.1
    decay_mult: 0.1
  }
  convolution_param {
    num_output: 64
    bias_term: true
    weight_filler {
      type: "xavier"
    }
    bias_filler {
      type: "constant"
      value: 0
    }
    pad_h: 0
    pad_w: 0
    kernel_h: 1
    kernel_w: 1
    stride_h: 1
    stride_w: 1
    engine: CAFFE
  }
}
layer {
  name: "conv2_2/input"
  type: "Power"
  bottom: "conv2_1"
  top: "conv2_2/input"
  power_param {
    power: 1
    scale: 1
    shift: 0
  }
}
layer {
  name: "conv2_2"
  type: "Eltwise"
  bottom: "conv2_2/3"
  bottom: "conv2_2/input"
  top: "conv2_2"
  eltwise_param {
    operation: SUM
    coeff: 1
    coeff: 1
  }
}
layer {
  name: "conv2_3/1/conv"
  type: "Convolution"
  bottom: "conv2_2"
  top: "conv2_3/1"
  param {
    lr_mult: 0.1
    decay_mult: 0.1
  }
  convolution_param {
    num_output: 24
    bias_term: true
    weight_filler {
      type: "xavier"
    }
    bias_filler {
      type: "constant"
      value: 0
    }
    pad_h: 0
    pad_w: 0
    kernel_h: 1
    kernel_w: 1
    stride_h: 1
    stride_w: 1
    engine: CAFFE
  }
}
layer {
  name: "conv2_3/1/relu"
  type: "ReLU"
  bottom: "conv2_3/1"
  top: "conv2_3/1"
}
layer {
  name: "conv2_3/2/conv"
  type: "Convolution"
  bottom: "conv2_3/1"
  top: "conv2_3/2/conv"
  param {
    lr_mult: 0.1
    decay_mult: 0.1
  }
  convolution_param {
    num_output: 24
    bias_term: true
    weight_filler {
      type: "xavier"
    }
    bias_filler {
      type: "constant"
      value: 0
    }
    pad_h: 1
    pad_w: 1
    kernel_h: 3
    kernel_w: 3
    stride_h: 1
    stride_w: 1
  }
}
layer {
  name: "conv2_3/2/neg"
  type: "Power"
  bottom: "conv2_3/2/conv"
  top: "conv2_3/2/neg"
  power_param {
    power: 1
    scale: -1
    shift: 0
  }
}
layer {
  name: "conv2_3/2/concat"
  type: "Concat"
  bottom: "conv2_3/2/conv"
  bottom: "conv2_3/2/neg"
  top: "conv2_3/2"
}
layer {
  name: "conv2_3/2/scale"
  type: "Scale"
  bottom: "conv2_3/2"
  top: "conv2_3/2"
  param {
    lr_mult: 0.1
    decay_mult: 0
  }
  param {
    lr_mult: 0.2
    decay_mult: 0
  }
  scale_param {
    bias_term: true
  }
}
layer {
  name: "conv2_3/2/relu"
  type: "ReLU"
  bottom: "conv2_3/2"
  top: "conv2_3/2"
}
layer {
  name: "conv2_3/3/conv"
  type: "Convolution"
  bottom: "conv2_3/2"
  top: "conv2_3/3"
  param {
    lr_mult: 0.1
    decay_mult: 0.1
  }
  convolution_param {
    num_output: 64
    bias_term: true
    weight_filler {
      type: "xavier"
    }
    bias_filler {
      type: "constant"
      value: 0
    }
    pad_h: 0
    pad_w: 0
    kernel_h: 1
    kernel_w: 1
    stride_h: 1
    stride_w: 1
    engine: CAFFE
  }
}
layer {
  name: "conv2_3/input"
  type: "Power"
  bottom: "conv2_2"
  top: "conv2_3/input"
  power_param {
    power: 1
    scale: 1
    shift: 0
  }
}
layer {
  name: "conv2_3"
  type: "Eltwise"
  bottom: "conv2_3/3"
  bottom: "conv2_3/input"
  top: "conv2_3"
  eltwise_param {
    operation: SUM
    coeff: 1
    coeff: 1
  }
}
layer {
  name: "conv3_1/1/conv"
  type: "Convolution"
  bottom: "conv2_3"
  top: "conv3_1/1"
  param {
    lr_mult: 0.1
    decay_mult: 0.1
  }
  convolution_param {
    num_output: 48
    bias_term: true
    weight_filler {
      type: "xavier"
    }
    bias_filler {
      type: "constant"
      value: 0
    }
    pad_h: 0
    pad_w: 0
    kernel_h: 1
    kernel_w: 1
    stride_h: 2
    stride_w: 2
    engine: CAFFE
  }
}
layer {
  name: "conv3_1/1/relu"
  type: "ReLU"
  bottom: "conv3_1/1"
  top: "conv3_1/1"
}
layer {
  name: "conv3_1/2/conv"
  type: "Convolution"
  bottom: "conv3_1/1"
  top: "conv3_1/2/conv"
  param {
    lr_mult: 0.1
    decay_mult: 0.1
  }
  convolution_param {
    num_output: 48
    bias_term: true
    weight_filler {
      type: "xavier"
    }
    bias_filler {
      type: "constant"
      value: 0
    }
    pad_h: 1
    pad_w: 1
    kernel_h: 3
    kernel_w: 3
    stride_h: 1
    stride_w: 1
  }
}
layer {
  name: "conv3_1/2/neg"
  type: "Power"
  bottom: "conv3_1/2/conv"
  top: "conv3_1/2/neg"
  power_param {
    power: 1
    scale: -1
    shift: 0
  }
}
layer {
  name: "conv3_1/2/concat"
  type: "Concat"
  bottom: "conv3_1/2/conv"
  bottom: "conv3_1/2/neg"
  top: "conv3_1/2"
}
layer {
  name: "conv3_1/2/scale"
  type: "Scale"
  bottom: "conv3_1/2"
  top: "conv3_1/2"
  param {
    lr_mult: 0.1
    decay_mult: 0
  }
  param {
    lr_mult: 0.2
    decay_mult: 0
  }
  scale_param {
    bias_term: true
  }
}
layer {
  name: "conv3_1/2/relu"
  type: "ReLU"
  bottom: "conv3_1/2"
  top: "conv3_1/2"
}
layer {
  name: "conv3_1/3/conv"
  type: "Convolution"
  bottom: "conv3_1/2"
  top: "conv3_1/3"
  param {
    lr_mult: 0.1
    decay_mult: 0.1
  }
  convolution_param {
    num_output: 128
    bias_term: true
    weight_filler {
      type: "xavier"
    }
    bias_filler {
      type: "constant"
      value: 0
    }
    pad_h: 0
    pad_w: 0
    kernel_h: 1
    kernel_w: 1
    stride_h: 1
    stride_w: 1
    engine: CAFFE
  }
}
layer {
  name: "conv3_1/proj"
  type: "Convolution"
  bottom: "conv2_3"
  top: "conv3_1/proj"
  param {
    lr_mult: 0.1
    decay_mult: 0.1
  }
  param {
    lr_mult: 0.2
    decay_mult: 0
  }
  convolution_param {
    num_output: 128
    weight_filler {
      type: "xavier"
    }
    bias_filler {
      type: "constant"
      value: 0.1
    }
    pad_h: 0
    pad_w: 0
    kernel_h: 1
    kernel_w: 1
    stride_h: 2
    stride_w: 2
    engine: CAFFE
  }
}
layer {
  name: "conv3_1"
  type: "Eltwise"
  bottom: "conv3_1/3"
  bottom: "conv3_1/proj"
  top: "conv3_1"
  eltwise_param {
    operation: SUM
    coeff: 1
    coeff: 1
  }
}
layer {
  name: "conv3_2/1/conv"
  type: "Convolution"
  bottom: "conv3_1"
  top: "conv3_2/1"
  param {
    lr_mult: 0.1
    decay_mult: 0.1
  }
  convolution_param {
    num_output: 48
    bias_term: true
    weight_filler {
      type: "xavier"
    }
    bias_filler {
      type: "constant"
      value: 0
    }
    pad_h: 0
    pad_w: 0
    kernel_h: 1
    kernel_w: 1
    stride_h: 1
    stride_w: 1
    engine: CAFFE
  }
}
layer {
  name: "conv3_2/1/relu"
  type: "ReLU"
  bottom: "conv3_2/1"
  top: "conv3_2/1"
}
layer {
  name: "conv3_2/2/conv"
  type: "Convolution"
  bottom: "conv3_2/1"
  top: "conv3_2/2/conv"
  param {
    lr_mult: 0.1
    decay_mult: 0.1
  }
  convolution_param {
    num_output: 48
    bias_term: true
    weight_filler {
      type: "xavier"
    }
    bias_filler {
      type: "constant"
      value: 0
    }
    pad_h: 1
    pad_w: 1
    kernel_h: 3
    kernel_w: 3
    stride_h: 1
    stride_w: 1
  }
}
layer {
  name: "conv3_2/2/neg"
  type: "Power"
  bottom: "conv3_2/2/conv"
  top: "conv3_2/2/neg"
  power_param {
    power: 1
    scale: -1
    shift: 0
  }
}
layer {
  name: "conv3_2/2/concat"
  type: "Concat"
  bottom: "conv3_2/2/conv"
  bottom: "conv3_2/2/neg"
  top: "conv3_2/2"
}
layer {
  name: "conv3_2/2/scale"
  type: "Scale"
  bottom: "conv3_2/2"
  top: "conv3_2/2"
  param {
    lr_mult: 0.1
    decay_mult: 0
  }
  param {
    lr_mult: 0.2
    decay_mult: 0
  }
  scale_param {
    bias_term: true
  }
}
layer {
  name: "conv3_2/2/relu"
  type: "ReLU"
  bottom: "conv3_2/2"
  top: "conv3_2/2"
}
layer {
  name: "conv3_2/3/conv"
  type: "Convolution"
  bottom: "conv3_2/2"
  top: "conv3_2/3"
  param {
    lr_mult: 0.1
    decay_mult: 0.1
  }
  convolution_param {
    num_output: 128
    bias_term: true
    weight_filler {
      type: "xavier"
    }
    bias_filler {
      type: "constant"
      value: 0
    }
    pad_h: 0
    pad_w: 0
    kernel_h: 1
    kernel_w: 1
    stride_h: 1
    stride_w: 1
    engine: CAFFE
  }
}
layer {
  name: "conv3_2/input"
  type: "Power"
  bottom: "conv3_1"
  top: "conv3_2/input"
  power_param {
    power: 1
    scale: 1
    shift: 0
  }
}
layer {
  name: "conv3_2"
  type: "Eltwise"
  bottom: "conv3_2/3"
  bottom: "conv3_2/input"
  top: "conv3_2"
  eltwise_param {
    operation: SUM
    coeff: 1
    coeff: 1
  }
}
layer {
  name: "conv3_3/1/conv"
  type: "Convolution"
  bottom: "conv3_2"
  top: "conv3_3/1"
  param {
    lr_mult: 0.1
    decay_mult: 0.1
  }
  convolution_param {
    num_output: 48
    bias_term: true
    weight_filler {
      type: "xavier"
    }
    bias_filler {
      type: "constant"
      value: 0
    }
    pad_h: 0
    pad_w: 0
    kernel_h: 1
    kernel_w: 1
    stride_h: 1
    stride_w: 1
    engine: CAFFE
  }
}
layer {
  name: "conv3_3/1/relu"
  type: "ReLU"
  bottom: "conv3_3/1"
  top: "conv3_3/1"
}
layer {
  name: "conv3_3/2/conv"
  type: "Convolution"
  bottom: "conv3_3/1"
  top: "conv3_3/2/conv"
  param {
    lr_mult: 0.1
    decay_mult: 0.1
  }
  convolution_param {
    num_output: 48
    bias_term: true
    weight_filler {
      type: "xavier"
    }
    bias_filler {
      type: "constant"
      value: 0
    }
    pad_h: 1
    pad_w: 1
    kernel_h: 3
    kernel_w: 3
    stride_h: 1
    stride_w: 1
  }
}
layer {
  name: "conv3_3/2/neg"
  type: "Power"
  bottom: "conv3_3/2/conv"
  top: "conv3_3/2/neg"
  power_param {
    power: 1
    scale: -1
    shift: 0
  }
}
layer {
  name: "conv3_3/2/concat"
  type: "Concat"
  bottom: "conv3_3/2/conv"
  bottom: "conv3_3/2/neg"
  top: "conv3_3/2"
}
layer {
  name: "conv3_3/2/scale"
  type: "Scale"
  bottom: "conv3_3/2"
  top: "conv3_3/2"
  param {
    lr_mult: 0.1
    decay_mult: 0
  }
  param {
    lr_mult: 0.2
    decay_mult: 0
  }
  scale_param {
    bias_term: true
  }
}
layer {
  name: "conv3_3/2/relu"
  type: "ReLU"
  bottom: "conv3_3/2"
  top: "conv3_3/2"
}
layer {
  name: "conv3_3/3/conv"
  type: "Convolution"
  bottom: "conv3_3/2"
  top: "conv3_3/3"
  param {
    lr_mult: 0.1
    decay_mult: 0.1
  }
  convolution_param {
    num_output: 128
    bias_term: true
    weight_filler {
      type: "xavier"
    }
    bias_filler {
      type: "constant"
      value: 0
    }
    pad_h: 0
    pad_w: 0
    kernel_h: 1
    kernel_w: 1
    stride_h: 1
    stride_w: 1
    engine: CAFFE
  }
}
layer {
  name: "conv3_3/input"
  type: "Power"
  bottom: "conv3_2"
  top: "conv3_3/input"
  power_param {
    power: 1
    scale: 1
    shift: 0
  }
}
layer {
  name: "conv3_3"
  type: "Eltwise"
  bottom: "conv3_3/3"
  bottom: "conv3_3/input"
  top: "conv3_3"
  eltwise_param {
    operation: SUM
    coeff: 1
    coeff: 1
  }
}
layer {
  name: "conv3_4/1/conv"
  type: "Convolution"
  bottom: "conv3_3"
  top: "conv3_4/1"
  param {
    lr_mult: 0.1
    decay_mult: 0.1
  }
  convolution_param {
    num_output: 48
    bias_term: true
    weight_filler {
      type: "xavier"
    }
    bias_filler {
      type: "constant"
      value: 0
    }
    pad_h: 0
    pad_w: 0
    kernel_h: 1
    kernel_w: 1
    stride_h: 1
    stride_w: 1
    engine: CAFFE
  }
}
layer {
  name: "conv3_4/1/relu"
  type: "ReLU"
  bottom: "conv3_4/1"
  top: "conv3_4/1"
}
layer {
  name: "conv3_4/2/conv"
  type: "Convolution"
  bottom: "conv3_4/1"
  top: "conv3_4/2/conv"
  param {
    lr_mult: 0.1
    decay_mult: 0.1
  }
  convolution_param {
    num_output: 48
    bias_term: true
    weight_filler {
      type: "xavier"
    }
    bias_filler {
      type: "constant"
      value: 0
    }
    pad_h: 1
    pad_w: 1
    kernel_h: 3
    kernel_w: 3
    stride_h: 1
    stride_w: 1
  }
}
layer {
  name: "conv3_4/2/neg"
  type: "Power"
  bottom: "conv3_4/2/conv"
  top: "conv3_4/2/neg"
  power_param {
    power: 1
    scale: -1
    shift: 0
  }
}
layer {
  name: "conv3_4/2/concat"
  type: "Concat"
  bottom: "conv3_4/2/conv"
  bottom: "conv3_4/2/neg"
  top: "conv3_4/2"
}
layer {
  name: "conv3_4/2/scale"
  type: "Scale"
  bottom: "conv3_4/2"
  top: "conv3_4/2"
  param {
    lr_mult: 0.1
    decay_mult: 0
  }
  param {
    lr_mult: 0.2
    decay_mult: 0
  }
  scale_param {
    bias_term: true
  }
}
layer {
  name: "conv3_4/2/relu"
  type: "ReLU"
  bottom: "conv3_4/2"
  top: "conv3_4/2"
}
layer {
  name: "conv3_4/3/conv"
  type: "Convolution"
  bottom: "conv3_4/2"
  top: "conv3_4/3"
  param {
    lr_mult: 0.1
    decay_mult: 0.1
  }
  convolution_param {
    num_output: 128
    bias_term: true
    weight_filler {
      type: "xavier"
    }
    bias_filler {
      type: "constant"
      value: 0
    }
    pad_h: 0
    pad_w: 0
    kernel_h: 1
    kernel_w: 1
    stride_h: 1
    stride_w: 1
    engine: CAFFE
  }
}
layer {
  name: "conv3_4/input"
  type: "Power"
  bottom: "conv3_3"
  top: "conv3_4/input"
  power_param {
    power: 1
    scale: 1
    shift: 0
  }
}
layer {
  name: "conv3_4"
  type: "Eltwise"
  bottom: "conv3_4/3"
  bottom: "conv3_4/input"
  top: "conv3_4"
  eltwise_param {
    operation: SUM
    coeff: 1
    coeff: 1
  }
}
layer {
  name: "conv4_1/incep/0/conv"
  type: "Convolution"
  bottom: "conv3_4"
  top: "conv4_1/incep/0"
  param {
    lr_mult: 0.1
    decay_mult: 0.1
  }
  convolution_param {
    num_output: 64
    bias_term: true
    weight_filler {
      type: "xavier"
    }
    bias_filler {
      type: "constant"
      value: 0
    }
    pad_h: 0
    pad_w: 0
    kernel_h: 1
    kernel_w: 1
    stride_h: 2
    stride_w: 2
    engine: CAFFE
  }
}
layer {
  name: "conv4_1/incep/0/relu"
  type: "ReLU"
  bottom: "conv4_1/incep/0"
  top: "conv4_1/incep/0"
}
layer {
  name: "conv4_1/incep/1_reduce/conv"
  type: "Convolution"
  bottom: "conv3_4"
  top: "conv4_1/incep/1_reduce"
  param {
    lr_mult: 0.1
    decay_mult: 0.1
  }
  convolution_param {
    num_output: 48
    bias_term: true
    weight_filler {
      type: "xavier"
    }
    bias_filler {
      type: "constant"
      value: 0
    }
    pad_h: 0
    pad_w: 0
    kernel_h: 1
    kernel_w: 1
    stride_h: 2
    stride_w: 2
    engine: CAFFE
  }
}
layer {
  name: "conv4_1/incep/1_reduce/relu"
  type: "ReLU"
  bottom: "conv4_1/incep/1_reduce"
  top: "conv4_1/incep/1_reduce"
}
layer {
  name: "conv4_1/incep/1_0/conv"
  type: "Convolution"
  bottom: "conv4_1/incep/1_reduce"
  top: "conv4_1/incep/1_0"
  param {
    lr_mult: 0.1
    decay_mult: 0.1
  }
  convolution_param {
    num_output: 128
    bias_term: true
    weight_filler {
      type: "xavier"
    }
    bias_filler {
      type: "constant"
      value: 0
    }
    pad_h: 1
    pad_w: 1
    kernel_h: 3
    kernel_w: 3
    stride_h: 1
    stride_w: 1
  }
}
layer {
  name: "conv4_1/incep/1_0/relu"
  type: "ReLU"
  bottom: "conv4_1/incep/1_0"
  top: "conv4_1/incep/1_0"
}
layer {
  name: "conv4_1/incep/2_reduce/conv"
  type: "Convolution"
  bottom: "conv3_4"
  top: "conv4_1/incep/2_reduce"
  param {
    lr_mult: 0.1
    decay_mult: 0.1
  }
  convolution_param {
    num_output: 24
    bias_term: true
    weight_filler {
      type: "xavier"
    }
    bias_filler {
      type: "constant"
      value: 0
    }
    pad_h: 0
    pad_w: 0
    kernel_h: 1
    kernel_w: 1
    stride_h: 2
    stride_w: 2
    engine: CAFFE
  }
}
layer {
  name: "conv4_1/incep/2_reduce/relu"
  type: "ReLU"
  bottom: "conv4_1/incep/2_reduce"
  top: "conv4_1/incep/2_reduce"
}
layer {
  name: "conv4_1/incep/2_0/conv"
  type: "Convolution"
  bottom: "conv4_1/incep/2_reduce"
  top: "conv4_1/incep/2_0"
  param {
    lr_mult: 0.1
    decay_mult: 0.1
  }
  convolution_param {
    num_output: 48
    bias_term: true
    weight_filler {
      type: "xavier"
    }
    bias_filler {
      type: "constant"
      value: 0
    }
    pad_h: 1
    pad_w: 1
    kernel_h: 3
    kernel_w: 3
    stride_h: 1
    stride_w: 1
  }
}
layer {
  name: "conv4_1/incep/2_0/relu"
  type: "ReLU"
  bottom: "conv4_1/incep/2_0"
  top: "conv4_1/incep/2_0"
}
layer {
  name: "conv4_1/incep/2_1/conv"
  type: "Convolution"
  bottom: "conv4_1/incep/2_0"
  top: "conv4_1/incep/2_1"
  param {
    lr_mult: 0.1
    decay_mult: 0.1
  }
  convolution_param {
    num_output: 48
    bias_term: true
    weight_filler {
      type: "xavier"
    }
    bias_filler {
      type: "constant"
      value: 0
    }
    pad_h: 1
    pad_w: 1
    kernel_h: 3
    kernel_w: 3
    stride_h: 1
    stride_w: 1
  }
}
layer {
  name: "conv4_1/incep/2_1/relu"
  type: "ReLU"
  bottom: "conv4_1/incep/2_1"
  top: "conv4_1/incep/2_1"
}
layer {
  name: "conv4_1/incep/pool"
  type: "Pooling"
  bottom: "conv3_4"
  top: "conv4_1/incep/pool"
  pooling_param {
    pool: MAX
    kernel_size: 3
    stride: 2
    pad: 0
  }
}
layer {
  name: "conv4_1/incep/poolproj/conv"
  type: "Convolution"
  bottom: "conv4_1/incep/pool"
  top: "conv4_1/incep/poolproj"
  param {
    lr_mult: 0.1
    decay_mult: 0.1
  }
  convolution_param {
    num_output: 128
    bias_term: true
    weight_filler {
      type: "xavier"
    }
    bias_filler {
      type: "constant"
      value: 0
    }
    pad_h: 0
    pad_w: 0
    kernel_h: 1
    kernel_w: 1
    stride_h: 1
    stride_w: 1
    engine: CAFFE
  }
}
layer {
  name: "conv4_1/incep/poolproj/relu"
  type: "ReLU"
  bottom: "conv4_1/incep/poolproj"
  top: "conv4_1/incep/poolproj"
}
layer {
  name: "conv4_1/incep"
  type: "Concat"
  bottom: "conv4_1/incep/0"
  bottom: "conv4_1/incep/1_0"
  bottom: "conv4_1/incep/2_1"
  bottom: "conv4_1/incep/poolproj"
  top: "conv4_1/incep"
}
layer {
  name: "conv4_1/out/conv"
  type: "Convolution"
  bottom: "conv4_1/incep"
  top: "conv4_1/out"
  param {
    lr_mult: 0.1
    decay_mult: 0.1
  }
  convolution_param {
    num_output: 256
    bias_term: true
    weight_filler {
      type: "xavier"
    }
    bias_filler {
      type: "constant"
      value: 0
    }
    pad_h: 0
    pad_w: 0
    kernel_h: 1
    kernel_w: 1
    stride_h: 1
    stride_w: 1
    engine: CAFFE
  }
}
layer {
  name: "conv4_1/proj"
  type: "Convolution"
  bottom: "conv3_4"
  top: "conv4_1/proj"
  param {
    lr_mult: 0.1
    decay_mult: 0.1
  }
  param {
    lr_mult: 0.2
    decay_mult: 0
  }
  convolution_param {
    num_output: 256
    weight_filler {
      type: "xavier"
    }
    bias_filler {
      type: "constant"
      value: 0.1
    }
    pad_h: 0
    pad_w: 0
    kernel_h: 1
    kernel_w: 1
    stride_h: 2
    stride_w: 2
    engine: CAFFE
  }
}
layer {
  name: "conv4_1"
  type: "Eltwise"
  bottom: "conv4_1/out"
  bottom: "conv4_1/proj"
  top: "conv4_1"
  eltwise_param {
    operation: SUM
    coeff: 1
    coeff: 1
  }
}
layer {
  name: "conv4_2/incep/0/conv"
  type: "Convolution"
  bottom: "conv4_1"
  top: "conv4_2/incep/0"
  param {
    lr_mult: 0.1
    decay_mult: 0.1
  }
  convolution_param {
    num_output: 64
    bias_term: true
    weight_filler {
      type: "xavier"
    }
    bias_filler {
      type: "constant"
      value: 0
    }
    pad_h: 0
    pad_w: 0
    kernel_h: 1
    kernel_w: 1
    stride_h: 1
    stride_w: 1
    engine: CAFFE
  }
}
layer {
  name: "conv4_2/incep/0/relu"
  type: "ReLU"
  bottom: "conv4_2/incep/0"
  top: "conv4_2/incep/0"
}
layer {
  name: "conv4_2/incep/1_reduce/conv"
  type: "Convolution"
  bottom: "conv4_1"
  top: "conv4_2/incep/1_reduce"
  param {
    lr_mult: 0.1
    decay_mult: 0.1
  }
  convolution_param {
    num_output: 64
    bias_term: true
    weight_filler {
      type: "xavier"
    }
    bias_filler {
      type: "constant"
      value: 0
    }
    pad_h: 0
    pad_w: 0
    kernel_h: 1
    kernel_w: 1
    stride_h: 1
    stride_w: 1
    engine: CAFFE
  }
}
layer {
  name: "conv4_2/incep/1_reduce/relu"
  type: "ReLU"
  bottom: "conv4_2/incep/1_reduce"
  top: "conv4_2/incep/1_reduce"
}
layer {
  name: "conv4_2/incep/1_0/conv"
  type: "Convolution"
  bottom: "conv4_2/incep/1_reduce"
  top: "conv4_2/incep/1_0"
  param {
    lr_mult: 0.1
    decay_mult: 0.1
  }
  convolution_param {
    num_output: 128
    bias_term: true
    weight_filler {
      type: "xavier"
    }
    bias_filler {
      type: "constant"
      value: 0
    }
    pad_h: 1
    pad_w: 1
    kernel_h: 3
    kernel_w: 3
    stride_h: 1
    stride_w: 1
  }
}
layer {
  name: "conv4_2/incep/1_0/relu"
  type: "ReLU"
  bottom: "conv4_2/incep/1_0"
  top: "conv4_2/incep/1_0"
}
layer {
  name: "conv4_2/incep/2_reduce/conv"
  type: "Convolution"
  bottom: "conv4_1"
  top: "conv4_2/incep/2_reduce"
  param {
    lr_mult: 0.1
    decay_mult: 0.1
  }
  convolution_param {
    num_output: 24
    bias_term: true
    weight_filler {
      type: "xavier"
    }
    bias_filler {
      type: "constant"
      value: 0
    }
    pad_h: 0
    pad_w: 0
    kernel_h: 1
    kernel_w: 1
    stride_h: 1
    stride_w: 1
    engine: CAFFE
  }
}
layer {
  name: "conv4_2/incep/2_reduce/relu"
  type: "ReLU"
  bottom: "conv4_2/incep/2_reduce"
  top: "conv4_2/incep/2_reduce"
}
layer {
  name: "conv4_2/incep/2_0/conv"
  type: "Convolution"
  bottom: "conv4_2/incep/2_reduce"
  top: "conv4_2/incep/2_0"
  param {
    lr_mult: 0.1
    decay_mult: 0.1
  }
  convolution_param {
    num_output: 48
    bias_term: true
    weight_filler {
      type: "xavier"
    }
    bias_filler {
      type: "constant"
      value: 0
    }
    pad_h: 1
    pad_w: 1
    kernel_h: 3
    kernel_w: 3
    stride_h: 1
    stride_w: 1
  }
}
layer {
  name: "conv4_2/incep/2_0/relu"
  type: "ReLU"
  bottom: "conv4_2/incep/2_0"
  top: "conv4_2/incep/2_0"
}
layer {
  name: "conv4_2/incep/2_1/conv"
  type: "Convolution"
  bottom: "conv4_2/incep/2_0"
  top: "conv4_2/incep/2_1"
  param {
    lr_mult: 0.1
    decay_mult: 0.1
  }
  convolution_param {
    num_output: 48
    bias_term: true
    weight_filler {
      type: "xavier"
    }
    bias_filler {
      type: "constant"
      value: 0
    }
    pad_h: 1
    pad_w: 1
    kernel_h: 3
    kernel_w: 3
    stride_h: 1
    stride_w: 1
  }
}
layer {
  name: "conv4_2/incep/2_1/relu"
  type: "ReLU"
  bottom: "conv4_2/incep/2_1"
  top: "conv4_2/incep/2_1"
}
layer {
  name: "conv4_2/incep"
  type: "Concat"
  bottom: "conv4_2/incep/0"
  bottom: "conv4_2/incep/1_0"
  bottom: "conv4_2/incep/2_1"
  top: "conv4_2/incep"
}
layer {
  name: "conv4_2/out/conv"
  type: "Convolution"
  bottom: "conv4_2/incep"
  top: "conv4_2/out"
  param {
    lr_mult: 0.1
    decay_mult: 0.1
  }
  convolution_param {
    num_output: 256
    bias_term: true
    weight_filler {
      type: "xavier"
    }
    bias_filler {
      type: "constant"
      value: 0
    }
    pad_h: 0
    pad_w: 0
    kernel_h: 1
    kernel_w: 1
    stride_h: 1
    stride_w: 1
    engine: CAFFE
  }
}
layer {
  name: "conv4_2/input"
  type: "Power"
  bottom: "conv4_1"
  top: "conv4_2/input"
  power_param {
    power: 1
    scale: 1
    shift: 0
  }
}
layer {
  name: "conv4_2"
  type: "Eltwise"
  bottom: "conv4_2/out"
  bottom: "conv4_2/input"
  top: "conv4_2"
  eltwise_param {
    operation: SUM
    coeff: 1
    coeff: 1
  }
}
layer {
  name: "conv4_3/incep/0/conv"
  type: "Convolution"
  bottom: "conv4_2"
  top: "conv4_3/incep/0"
  param {
    lr_mult: 0.1
    decay_mult: 0.1
  }
  convolution_param {
    num_output: 64
    bias_term: true
    weight_filler {
      type: "xavier"
    }
    bias_filler {
      type: "constant"
      value: 0
    }
    pad_h: 0
    pad_w: 0
    kernel_h: 1
    kernel_w: 1
    stride_h: 1
    stride_w: 1
    engine: CAFFE
  }
}
layer {
  name: "conv4_3/incep/0/relu"
  type: "ReLU"
  bottom: "conv4_3/incep/0"
  top: "conv4_3/incep/0"
}
layer {
  name: "conv4_3/incep/1_reduce/conv"
  type: "Convolution"
  bottom: "conv4_2"
  top: "conv4_3/incep/1_reduce"
  param {
    lr_mult: 0.1
    decay_mult: 0.1
  }
  convolution_param {
    num_output: 64
    bias_term: true
    weight_filler {
      type: "xavier"
    }
    bias_filler {
      type: "constant"
      value: 0
    }
    pad_h: 0
    pad_w: 0
    kernel_h: 1
    kernel_w: 1
    stride_h: 1
    stride_w: 1
    engine: CAFFE
  }
}
layer {
  name: "conv4_3/incep/1_reduce/relu"
  type: "ReLU"
  bottom: "conv4_3/incep/1_reduce"
  top: "conv4_3/incep/1_reduce"
}
layer {
  name: "conv4_3/incep/1_0/conv"
  type: "Convolution"
  bottom: "conv4_3/incep/1_reduce"
  top: "conv4_3/incep/1_0"
  param {
    lr_mult: 0.1
    decay_mult: 0.1
  }
  convolution_param {
    num_output: 128
    bias_term: true
    weight_filler {
      type: "xavier"
    }
    bias_filler {
      type: "constant"
      value: 0
    }
    pad_h: 1
    pad_w: 1
    kernel_h: 3
    kernel_w: 3
    stride_h: 1
    stride_w: 1
  }
}
layer {
  name: "conv4_3/incep/1_0/relu"
  type: "ReLU"
  bottom: "conv4_3/incep/1_0"
  top: "conv4_3/incep/1_0"
}
layer {
  name: "conv4_3/incep/2_reduce/conv"
  type: "Convolution"
  bottom: "conv4_2"
  top: "conv4_3/incep/2_reduce"
  param {
    lr_mult: 0.1
    decay_mult: 0.1
  }
  convolution_param {
    num_output: 24
    bias_term: true
    weight_filler {
      type: "xavier"
    }
    b
I0316 17:21:08.903909  5556 layer_factory.hpp:77] Creating layer input
I0316 17:21:08.903920  5556 net.cpp:100] Creating Layer input
I0316 17:21:08.903924  5556 net.cpp:408] input -> data
I0316 17:21:08.903931  5556 net.cpp:408] input -> im_info
I0316 17:21:08.910187  5556 net.cpp:150] Setting up input
I0316 17:21:08.910204  5556 net.cpp:157] Top shape: 1 3 640 1056 (2027520)
I0316 17:21:08.910208  5556 net.cpp:157] Top shape: 1 6 (6)
I0316 17:21:08.910210  5556 net.cpp:165] Memory required for data: 8110104
I0316 17:21:08.910214  5556 layer_factory.hpp:77] Creating layer conv1_1/conv
I0316 17:21:08.910228  5556 net.cpp:100] Creating Layer conv1_1/conv
I0316 17:21:08.910230  5556 net.cpp:434] conv1_1/conv <- data
I0316 17:21:08.910236  5556 net.cpp:408] conv1_1/conv -> conv1_1/conv
I0316 17:21:09.012599  5556 net.cpp:150] Setting up conv1_1/conv
I0316 17:21:09.012626  5556 net.cpp:157] Top shape: 1 16 320 528 (2703360)
I0316 17:21:09.012629  5556 net.cpp:165] Memory required for data: 18923544
I0316 17:21:09.012641  5556 layer_factory.hpp:77] Creating layer conv1_1/conv_conv1_1/conv_0_split
I0316 17:21:09.012650  5556 net.cpp:100] Creating Layer conv1_1/conv_conv1_1/conv_0_split
I0316 17:21:09.012655  5556 net.cpp:434] conv1_1/conv_conv1_1/conv_0_split <- conv1_1/conv
I0316 17:21:09.012658  5556 net.cpp:408] conv1_1/conv_conv1_1/conv_0_split -> conv1_1/conv_conv1_1/conv_0_split_0
I0316 17:21:09.012665  5556 net.cpp:408] conv1_1/conv_conv1_1/conv_0_split -> conv1_1/conv_conv1_1/conv_0_split_1
I0316 17:21:09.012693  5556 net.cpp:150] Setting up conv1_1/conv_conv1_1/conv_0_split
I0316 17:21:09.012697  5556 net.cpp:157] Top shape: 1 16 320 528 (2703360)
I0316 17:21:09.012701  5556 net.cpp:157] Top shape: 1 16 320 528 (2703360)
I0316 17:21:09.012702  5556 net.cpp:165] Memory required for data: 40550424
I0316 17:21:09.012706  5556 layer_factory.hpp:77] Creating layer conv1_1/neg
I0316 17:21:09.012709  5556 net.cpp:100] Creating Layer conv1_1/neg
I0316 17:21:09.012717  5556 net.cpp:434] conv1_1/neg <- conv1_1/conv_conv1_1/conv_0_split_0
I0316 17:21:09.012722  5556 net.cpp:408] conv1_1/neg -> conv1_1/neg
I0316 17:21:09.012735  5556 net.cpp:150] Setting up conv1_1/neg
I0316 17:21:09.012739  5556 net.cpp:157] Top shape: 1 16 320 528 (2703360)
I0316 17:21:09.012742  5556 net.cpp:165] Memory required for data: 51363864
I0316 17:21:09.012744  5556 layer_factory.hpp:77] Creating layer conv1_1/concat
I0316 17:21:09.012748  5556 net.cpp:100] Creating Layer conv1_1/concat
I0316 17:21:09.012751  5556 net.cpp:434] conv1_1/concat <- conv1_1/conv_conv1_1/conv_0_split_1
I0316 17:21:09.012754  5556 net.cpp:434] conv1_1/concat <- conv1_1/neg
I0316 17:21:09.012758  5556 net.cpp:408] conv1_1/concat -> conv1_1
I0316 17:21:09.012770  5556 net.cpp:150] Setting up conv1_1/concat
I0316 17:21:09.012773  5556 net.cpp:157] Top shape: 1 32 320 528 (5406720)
I0316 17:21:09.012776  5556 net.cpp:165] Memory required for data: 72990744
I0316 17:21:09.012778  5556 layer_factory.hpp:77] Creating layer conv1_1/scale
I0316 17:21:09.012784  5556 net.cpp:100] Creating Layer conv1_1/scale
I0316 17:21:09.012785  5556 net.cpp:434] conv1_1/scale <- conv1_1
I0316 17:21:09.012789  5556 net.cpp:395] conv1_1/scale -> conv1_1 (in-place)
I0316 17:21:09.012815  5556 layer_factory.hpp:77] Creating layer conv1_1/scale
I0316 17:21:09.013489  5556 net.cpp:150] Setting up conv1_1/scale
I0316 17:21:09.013499  5556 net.cpp:157] Top shape: 1 32 320 528 (5406720)
I0316 17:21:09.013500  5556 net.cpp:165] Memory required for data: 94617624
I0316 17:21:09.013506  5556 layer_factory.hpp:77] Creating layer conv1_1/relu
I0316 17:21:09.013511  5556 net.cpp:100] Creating Layer conv1_1/relu
I0316 17:21:09.013514  5556 net.cpp:434] conv1_1/relu <- conv1_1
I0316 17:21:09.013517  5556 net.cpp:395] conv1_1/relu -> conv1_1 (in-place)
I0316 17:21:09.013721  5556 net.cpp:150] Setting up conv1_1/relu
I0316 17:21:09.013731  5556 net.cpp:157] Top shape: 1 32 320 528 (5406720)
I0316 17:21:09.013732  5556 net.cpp:165] Memory required for data: 116244504
I0316 17:21:09.013734  5556 layer_factory.hpp:77] Creating layer pool1
I0316 17:21:09.013739  5556 net.cpp:100] Creating Layer pool1
I0316 17:21:09.013742  5556 net.cpp:434] pool1 <- conv1_1
I0316 17:21:09.013746  5556 net.cpp:408] pool1 -> pool1
I0316 17:21:09.013775  5556 net.cpp:150] Setting up pool1
I0316 17:21:09.013780  5556 net.cpp:157] Top shape: 1 32 160 264 (1351680)
I0316 17:21:09.013782  5556 net.cpp:165] Memory required for data: 121651224
I0316 17:21:09.013784  5556 layer_factory.hpp:77] Creating layer pool1_pool1_0_split
I0316 17:21:09.013790  5556 net.cpp:100] Creating Layer pool1_pool1_0_split
I0316 17:21:09.013792  5556 net.cpp:434] pool1_pool1_0_split <- pool1
I0316 17:21:09.013797  5556 net.cpp:408] pool1_pool1_0_split -> pool1_pool1_0_split_0
I0316 17:21:09.013802  5556 net.cpp:408] pool1_pool1_0_split -> pool1_pool1_0_split_1
I0316 17:21:09.013823  5556 net.cpp:150] Setting up pool1_pool1_0_split
I0316 17:21:09.013828  5556 net.cpp:157] Top shape: 1 32 160 264 (1351680)
I0316 17:21:09.013831  5556 net.cpp:157] Top shape: 1 32 160 264 (1351680)
I0316 17:21:09.013833  5556 net.cpp:165] Memory required for data: 132464664
I0316 17:21:09.013835  5556 layer_factory.hpp:77] Creating layer conv2_1/1/conv
I0316 17:21:09.013842  5556 net.cpp:100] Creating Layer conv2_1/1/conv
I0316 17:21:09.013845  5556 net.cpp:434] conv2_1/1/conv <- pool1_pool1_0_split_0
I0316 17:21:09.013849  5556 net.cpp:408] conv2_1/1/conv -> conv2_1/1
I0316 17:21:09.014477  5556 net.cpp:150] Setting up conv2_1/1/conv
I0316 17:21:09.014485  5556 net.cpp:157] Top shape: 1 24 160 264 (1013760)
I0316 17:21:09.014487  5556 net.cpp:165] Memory required for data: 136519704
I0316 17:21:09.014493  5556 layer_factory.hpp:77] Creating layer conv2_1/1/relu
I0316 17:21:09.014498  5556 net.cpp:100] Creating Layer conv2_1/1/relu
I0316 17:21:09.014502  5556 net.cpp:434] conv2_1/1/relu <- conv2_1/1
I0316 17:21:09.014505  5556 net.cpp:395] conv2_1/1/relu -> conv2_1/1 (in-place)
I0316 17:21:09.014623  5556 net.cpp:150] Setting up conv2_1/1/relu
I0316 17:21:09.014631  5556 net.cpp:157] Top shape: 1 24 160 264 (1013760)
I0316 17:21:09.014632  5556 net.cpp:165] Memory required for data: 140574744
I0316 17:21:09.014634  5556 layer_factory.hpp:77] Creating layer conv2_1/2/conv
I0316 17:21:09.014642  5556 net.cpp:100] Creating Layer conv2_1/2/conv
I0316 17:21:09.014643  5556 net.cpp:434] conv2_1/2/conv <- conv2_1/1
I0316 17:21:09.014648  5556 net.cpp:408] conv2_1/2/conv -> conv2_1/2/conv
I0316 17:21:09.015684  5556 net.cpp:150] Setting up conv2_1/2/conv
I0316 17:21:09.015694  5556 net.cpp:157] Top shape: 1 24 160 264 (1013760)
I0316 17:21:09.015697  5556 net.cpp:165] Memory required for data: 144629784
I0316 17:21:09.015702  5556 layer_factory.hpp:77] Creating layer conv2_1/2/conv_conv2_1/2/conv_0_split
I0316 17:21:09.015705  5556 net.cpp:100] Creating Layer conv2_1/2/conv_conv2_1/2/conv_0_split
I0316 17:21:09.015708  5556 net.cpp:434] conv2_1/2/conv_conv2_1/2/conv_0_split <- conv2_1/2/conv
I0316 17:21:09.015712  5556 net.cpp:408] conv2_1/2/conv_conv2_1/2/conv_0_split -> conv2_1/2/conv_conv2_1/2/conv_0_split_0
I0316 17:21:09.015717  5556 net.cpp:408] conv2_1/2/conv_conv2_1/2/conv_0_split -> conv2_1/2/conv_conv2_1/2/conv_0_split_1
I0316 17:21:09.015744  5556 net.cpp:150] Setting up conv2_1/2/conv_conv2_1/2/conv_0_split
I0316 17:21:09.015748  5556 net.cpp:157] Top shape: 1 24 160 264 (1013760)
I0316 17:21:09.015751  5556 net.cpp:157] Top shape: 1 24 160 264 (1013760)
I0316 17:21:09.015753  5556 net.cpp:165] Memory required for data: 152739864
I0316 17:21:09.015756  5556 layer_factory.hpp:77] Creating layer conv2_1/2/neg
I0316 17:21:09.015760  5556 net.cpp:100] Creating Layer conv2_1/2/neg
I0316 17:21:09.015763  5556 net.cpp:434] conv2_1/2/neg <- conv2_1/2/conv_conv2_1/2/conv_0_split_0
I0316 17:21:09.015766  5556 net.cpp:408] conv2_1/2/neg -> conv2_1/2/neg
I0316 17:21:09.015779  5556 net.cpp:150] Setting up conv2_1/2/neg
I0316 17:21:09.015784  5556 net.cpp:157] Top shape: 1 24 160 264 (1013760)
I0316 17:21:09.015785  5556 net.cpp:165] Memory required for data: 156794904
I0316 17:21:09.015789  5556 layer_factory.hpp:77] Creating layer conv2_1/2/concat
I0316 17:21:09.015792  5556 net.cpp:100] Creating Layer conv2_1/2/concat
I0316 17:21:09.015795  5556 net.cpp:434] conv2_1/2/concat <- conv2_1/2/conv_conv2_1/2/conv_0_split_1
I0316 17:21:09.015797  5556 net.cpp:434] conv2_1/2/concat <- conv2_1/2/neg
I0316 17:21:09.015802  5556 net.cpp:408] conv2_1/2/concat -> conv2_1/2
I0316 17:21:09.015815  5556 net.cpp:150] Setting up conv2_1/2/concat
I0316 17:21:09.015820  5556 net.cpp:157] Top shape: 1 48 160 264 (2027520)
I0316 17:21:09.015821  5556 net.cpp:165] Memory required for data: 164904984
I0316 17:21:09.015823  5556 layer_factory.hpp:77] Creating layer conv2_1/2/scale
I0316 17:21:09.015828  5556 net.cpp:100] Creating Layer conv2_1/2/scale
I0316 17:21:09.015830  5556 net.cpp:434] conv2_1/2/scale <- conv2_1/2
I0316 17:21:09.015833  5556 net.cpp:395] conv2_1/2/scale -> conv2_1/2 (in-place)
I0316 17:21:09.015862  5556 layer_factory.hpp:77] Creating layer conv2_1/2/scale
I0316 17:21:09.015962  5556 net.cpp:150] Setting up conv2_1/2/scale
I0316 17:21:09.015967  5556 net.cpp:157] Top shape: 1 48 160 264 (2027520)
I0316 17:21:09.015969  5556 net.cpp:165] Memory required for data: 173015064
I0316 17:21:09.015975  5556 layer_factory.hpp:77] Creating layer conv2_1/2/relu
I0316 17:21:09.015980  5556 net.cpp:100] Creating Layer conv2_1/2/relu
I0316 17:21:09.015983  5556 net.cpp:434] conv2_1/2/relu <- conv2_1/2
I0316 17:21:09.015986  5556 net.cpp:395] conv2_1/2/relu -> conv2_1/2 (in-place)
I0316 17:21:09.016191  5556 net.cpp:150] Setting up conv2_1/2/relu
I0316 17:21:09.016199  5556 net.cpp:157] Top shape: 1 48 160 264 (2027520)
I0316 17:21:09.016201  5556 net.cpp:165] Memory required for data: 181125144
I0316 17:21:09.016204  5556 layer_factory.hpp:77] Creating layer conv2_1/3/conv
I0316 17:21:09.016211  5556 net.cpp:100] Creating Layer conv2_1/3/conv
I0316 17:21:09.016213  5556 net.cpp:434] conv2_1/3/conv <- conv2_1/2
I0316 17:21:09.016218  5556 net.cpp:408] conv2_1/3/conv -> conv2_1/3
I0316 17:21:09.016398  5556 net.cpp:150] Setting up conv2_1/3/conv
I0316 17:21:09.016405  5556 net.cpp:157] Top shape: 1 64 160 264 (2703360)
I0316 17:21:09.016408  5556 net.cpp:165] Memory required for data: 191938584
I0316 17:21:09.016412  5556 layer_factory.hpp:77] Creating layer conv2_1/proj
I0316 17:21:09.016418  5556 net.cpp:100] Creating Layer conv2_1/proj
I0316 17:21:09.016422  5556 net.cpp:434] conv2_1/proj <- pool1_pool1_0_split_1
I0316 17:21:09.016425  5556 net.cpp:408] conv2_1/proj -> conv2_1/proj
I0316 17:21:09.016587  5556 net.cpp:150] Setting up conv2_1/proj
I0316 17:21:09.016592  5556 net.cpp:157] Top shape: 1 64 160 264 (2703360)
I0316 17:21:09.016595  5556 net.cpp:165] Memory required for data: 202752024
I0316 17:21:09.016599  5556 layer_factory.hpp:77] Creating layer conv2_1
I0316 17:21:09.016604  5556 net.cpp:100] Creating Layer conv2_1
I0316 17:21:09.016607  5556 net.cpp:434] conv2_1 <- conv2_1/3
I0316 17:21:09.016609  5556 net.cpp:434] conv2_1 <- conv2_1/proj
I0316 17:21:09.016613  5556 net.cpp:408] conv2_1 -> conv2_1
I0316 17:21:09.016629  5556 net.cpp:150] Setting up conv2_1
I0316 17:21:09.016633  5556 net.cpp:157] Top shape: 1 64 160 264 (2703360)
I0316 17:21:09.016635  5556 net.cpp:165] Memory required for data: 213565464
I0316 17:21:09.016638  5556 layer_factory.hpp:77] Creating layer conv2_1_conv2_1_0_split
I0316 17:21:09.016643  5556 net.cpp:100] Creating Layer conv2_1_conv2_1_0_split
I0316 17:21:09.016644  5556 net.cpp:434] conv2_1_conv2_1_0_split <- conv2_1
I0316 17:21:09.016649  5556 net.cpp:408] conv2_1_conv2_1_0_split -> conv2_1_conv2_1_0_split_0
I0316 17:21:09.016654  5556 net.cpp:408] conv2_1_conv2_1_0_split -> conv2_1_conv2_1_0_split_1
I0316 17:21:09.016674  5556 net.cpp:150] Setting up conv2_1_conv2_1_0_split
I0316 17:21:09.016679  5556 net.cpp:157] Top shape: 1 64 160 264 (2703360)
I0316 17:21:09.016681  5556 net.cpp:157] Top shape: 1 64 160 264 (2703360)
I0316 17:21:09.016683  5556 net.cpp:165] Memory required for data: 235192344
I0316 17:21:09.016685  5556 layer_factory.hpp:77] Creating layer conv2_2/1/conv
I0316 17:21:09.016690  5556 net.cpp:100] Creating Layer conv2_2/1/conv
I0316 17:21:09.016693  5556 net.cpp:434] conv2_2/1/conv <- conv2_1_conv2_1_0_split_0
I0316 17:21:09.016698  5556 net.cpp:408] conv2_2/1/conv -> conv2_2/1
I0316 17:21:09.017093  5556 net.cpp:150] Setting up conv2_2/1/conv
I0316 17:21:09.017101  5556 net.cpp:157] Top shape: 1 24 160 264 (1013760)
I0316 17:21:09.017103  5556 net.cpp:165] Memory required for data: 239247384
I0316 17:21:09.017107  5556 layer_factory.hpp:77] Creating layer conv2_2/1/relu
I0316 17:21:09.017112  5556 net.cpp:100] Creating Layer conv2_2/1/relu
I0316 17:21:09.017114  5556 net.cpp:434] conv2_2/1/relu <- conv2_2/1
I0316 17:21:09.017118  5556 net.cpp:395] conv2_2/1/relu -> conv2_2/1 (in-place)
I0316 17:21:09.017238  5556 net.cpp:150] Setting up conv2_2/1/relu
I0316 17:21:09.017244  5556 net.cpp:157] Top shape: 1 24 160 264 (1013760)
I0316 17:21:09.017247  5556 net.cpp:165] Memory required for data: 243302424
I0316 17:21:09.017249  5556 layer_factory.hpp:77] Creating layer conv2_2/2/conv
I0316 17:21:09.017256  5556 net.cpp:100] Creating Layer conv2_2/2/conv
I0316 17:21:09.017258  5556 net.cpp:434] conv2_2/2/conv <- conv2_2/1
I0316 17:21:09.017262  5556 net.cpp:408] conv2_2/2/conv -> conv2_2/2/conv
I0316 17:21:09.018045  5556 net.cpp:150] Setting up conv2_2/2/conv
I0316 17:21:09.018054  5556 net.cpp:157] Top shape: 1 24 160 264 (1013760)
I0316 17:21:09.018057  5556 net.cpp:165] Memory required for data: 247357464
I0316 17:21:09.018064  5556 layer_factory.hpp:77] Creating layer conv2_2/2/conv_conv2_2/2/conv_0_split
I0316 17:21:09.018069  5556 net.cpp:100] Creating Layer conv2_2/2/conv_conv2_2/2/conv_0_split
I0316 17:21:09.018071  5556 net.cpp:434] conv2_2/2/conv_conv2_2/2/conv_0_split <- conv2_2/2/conv
I0316 17:21:09.018075  5556 net.cpp:408] conv2_2/2/conv_conv2_2/2/conv_0_split -> conv2_2/2/conv_conv2_2/2/conv_0_split_0
I0316 17:21:09.018081  5556 net.cpp:408] conv2_2/2/conv_conv2_2/2/conv_0_split -> conv2_2/2/conv_conv2_2/2/conv_0_split_1
I0316 17:21:09.018110  5556 net.cpp:150] Setting up conv2_2/2/conv_conv2_2/2/conv_0_split
I0316 17:21:09.018115  5556 net.cpp:157] Top shape: 1 24 160 264 (1013760)
I0316 17:21:09.018118  5556 net.cpp:157] Top shape: 1 24 160 264 (1013760)
I0316 17:21:09.018121  5556 net.cpp:165] Memory required for data: 255467544
I0316 17:21:09.018122  5556 layer_factory.hpp:77] Creating layer conv2_2/2/neg
I0316 17:21:09.018127  5556 net.cpp:100] Creating Layer conv2_2/2/neg
I0316 17:21:09.018129  5556 net.cpp:434] conv2_2/2/neg <- conv2_2/2/conv_conv2_2/2/conv_0_split_0
I0316 17:21:09.018133  5556 net.cpp:408] conv2_2/2/neg -> conv2_2/2/neg
I0316 17:21:09.018147  5556 net.cpp:150] Setting up conv2_2/2/neg
I0316 17:21:09.018152  5556 net.cpp:157] Top shape: 1 24 160 264 (1013760)
I0316 17:21:09.018154  5556 net.cpp:165] Memory required for data: 259522584
I0316 17:21:09.018157  5556 layer_factory.hpp:77] Creating layer conv2_2/2/concat
I0316 17:21:09.018159  5556 net.cpp:100] Creating Layer conv2_2/2/concat
I0316 17:21:09.018162  5556 net.cpp:434] conv2_2/2/concat <- conv2_2/2/conv_conv2_2/2/conv_0_split_1
I0316 17:21:09.018165  5556 net.cpp:434] conv2_2/2/concat <- conv2_2/2/neg
I0316 17:21:09.018169  5556 net.cpp:408] conv2_2/2/concat -> conv2_2/2
I0316 17:21:09.018183  5556 net.cpp:150] Setting up conv2_2/2/concat
I0316 17:21:09.018187  5556 net.cpp:157] Top shape: 1 48 160 264 (2027520)
I0316 17:21:09.018189  5556 net.cpp:165] Memory required for data: 267632664
I0316 17:21:09.018191  5556 layer_factory.hpp:77] Creating layer conv2_2/2/scale
I0316 17:21:09.018195  5556 net.cpp:100] Creating Layer conv2_2/2/scale
I0316 17:21:09.018198  5556 net.cpp:434] conv2_2/2/scale <- conv2_2/2
I0316 17:21:09.018203  5556 net.cpp:395] conv2_2/2/scale -> conv2_2/2 (in-place)
I0316 17:21:09.018227  5556 layer_factory.hpp:77] Creating layer conv2_2/2/scale
I0316 17:21:09.018326  5556 net.cpp:150] Setting up conv2_2/2/scale
I0316 17:21:09.018332  5556 net.cpp:157] Top shape: 1 48 160 264 (2027520)
I0316 17:21:09.018333  5556 net.cpp:165] Memory required for data: 275742744
I0316 17:21:09.018337  5556 layer_factory.hpp:77] Creating layer conv2_2/2/relu
I0316 17:21:09.018342  5556 net.cpp:100] Creating Layer conv2_2/2/relu
I0316 17:21:09.018343  5556 net.cpp:434] conv2_2/2/relu <- conv2_2/2
I0316 17:21:09.018347  5556 net.cpp:395] conv2_2/2/relu -> conv2_2/2 (in-place)
I0316 17:21:09.018465  5556 net.cpp:150] Setting up conv2_2/2/relu
I0316 17:21:09.018471  5556 net.cpp:157] Top shape: 1 48 160 264 (2027520)
I0316 17:21:09.018473  5556 net.cpp:165] Memory required for data: 283852824
I0316 17:21:09.018476  5556 layer_factory.hpp:77] Creating layer conv2_2/3/conv
I0316 17:21:09.018482  5556 net.cpp:100] Creating Layer conv2_2/3/conv
I0316 17:21:09.018486  5556 net.cpp:434] conv2_2/3/conv <- conv2_2/2
I0316 17:21:09.018489  5556 net.cpp:408] conv2_2/3/conv -> conv2_2/3
I0316 17:21:09.018663  5556 net.cpp:150] Setting up conv2_2/3/conv
I0316 17:21:09.018669  5556 net.cpp:157] Top shape: 1 64 160 264 (2703360)
I0316 17:21:09.018672  5556 net.cpp:165] Memory required for data: 294666264
I0316 17:21:09.018676  5556 layer_factory.hpp:77] Creating layer conv2_2/input
I0316 17:21:09.018681  5556 net.cpp:100] Creating Layer conv2_2/input
I0316 17:21:09.018682  5556 net.cpp:434] conv2_2/input <- conv2_1_conv2_1_0_split_1
I0316 17:21:09.018687  5556 net.cpp:408] conv2_2/input -> conv2_2/input
I0316 17:21:09.018702  5556 net.cpp:150] Setting up conv2_2/input
I0316 17:21:09.018707  5556 net.cpp:157] Top shape: 1 64 160 264 (2703360)
I0316 17:21:09.018709  5556 net.cpp:165] Memory required for data: 305479704
I0316 17:21:09.018712  5556 layer_factory.hpp:77] Creating layer conv2_2
I0316 17:21:09.018715  5556 net.cpp:100] Creating Layer conv2_2
I0316 17:21:09.018718  5556 net.cpp:434] conv2_2 <- conv2_2/3
I0316 17:21:09.018720  5556 net.cpp:434] conv2_2 <- conv2_2/input
I0316 17:21:09.018724  5556 net.cpp:408] conv2_2 -> conv2_2
I0316 17:21:09.018738  5556 net.cpp:150] Setting up conv2_2
I0316 17:21:09.018743  5556 net.cpp:157] Top shape: 1 64 160 264 (2703360)
I0316 17:21:09.018746  5556 net.cpp:165] Memory required for data: 316293144
I0316 17:21:09.018749  5556 layer_factory.hpp:77] Creating layer conv2_2_conv2_2_0_split
I0316 17:21:09.018756  5556 net.cpp:100] Creating Layer conv2_2_conv2_2_0_split
I0316 17:21:09.018759  5556 net.cpp:434] conv2_2_conv2_2_0_split <- conv2_2
I0316 17:21:09.018762  5556 net.cpp:408] conv2_2_conv2_2_0_split -> conv2_2_conv2_2_0_split_0
I0316 17:21:09.018766  5556 net.cpp:408] conv2_2_conv2_2_0_split -> conv2_2_conv2_2_0_split_1
I0316 17:21:09.018788  5556 net.cpp:150] Setting up conv2_2_conv2_2_0_split
I0316 17:21:09.018792  5556 net.cpp:157] Top shape: 1 64 160 264 (2703360)
I0316 17:21:09.018795  5556 net.cpp:157] Top shape: 1 64 160 264 (2703360)
I0316 17:21:09.018797  5556 net.cpp:165] Memory required for data: 337920024
I0316 17:21:09.018800  5556 layer_factory.hpp:77] Creating layer conv2_3/1/conv
I0316 17:21:09.018805  5556 net.cpp:100] Creating Layer conv2_3/1/conv
I0316 17:21:09.018808  5556 net.cpp:434] conv2_3/1/conv <- conv2_2_conv2_2_0_split_0
I0316 17:21:09.018812  5556 net.cpp:408] conv2_3/1/conv -> conv2_3/1
I0316 17:21:09.018972  5556 net.cpp:150] Setting up conv2_3/1/conv
I0316 17:21:09.018978  5556 net.cpp:157] Top shape: 1 24 160 264 (1013760)
I0316 17:21:09.018980  5556 net.cpp:165] Memory required for data: 341975064
I0316 17:21:09.018985  5556 layer_factory.hpp:77] Creating layer conv2_3/1/relu
I0316 17:21:09.018988  5556 net.cpp:100] Creating Layer conv2_3/1/relu
I0316 17:21:09.018990  5556 net.cpp:434] conv2_3/1/relu <- conv2_3/1
I0316 17:21:09.018995  5556 net.cpp:395] conv2_3/1/relu -> conv2_3/1 (in-place)
I0316 17:21:09.019204  5556 net.cpp:150] Setting up conv2_3/1/relu
I0316 17:21:09.019212  5556 net.cpp:157] Top shape: 1 24 160 264 (1013760)
I0316 17:21:09.019214  5556 net.cpp:165] Memory required for data: 346030104
I0316 17:21:09.019217  5556 layer_factory.hpp:77] Creating layer conv2_3/2/conv
I0316 17:21:09.019224  5556 net.cpp:100] Creating Layer conv2_3/2/conv
I0316 17:21:09.019227  5556 net.cpp:434] conv2_3/2/conv <- conv2_3/1
I0316 17:21:09.019232  5556 net.cpp:408] conv2_3/2/conv -> conv2_3/2/conv
I0316 17:21:09.020252  5556 net.cpp:150] Setting up conv2_3/2/conv
I0316 17:21:09.020262  5556 net.cpp:157] Top shape: 1 24 160 264 (1013760)
I0316 17:21:09.020265  5556 net.cpp:165] Memory required for data: 350085144
I0316 17:21:09.020270  5556 layer_factory.hpp:77] Creating layer conv2_3/2/conv_conv2_3/2/conv_0_split
I0316 17:21:09.020274  5556 net.cpp:100] Creating Layer conv2_3/2/conv_conv2_3/2/conv_0_split
I0316 17:21:09.020277  5556 net.cpp:434] conv2_3/2/conv_conv2_3/2/conv_0_split <- conv2_3/2/conv
I0316 17:21:09.020280  5556 net.cpp:408] conv2_3/2/conv_conv2_3/2/conv_0_split -> conv2_3/2/conv_conv2_3/2/conv_0_split_0
I0316 17:21:09.020287  5556 net.cpp:408] conv2_3/2/conv_conv2_3/2/conv_0_split -> conv2_3/2/conv_conv2_3/2/conv_0_split_1
I0316 17:21:09.020314  5556 net.cpp:150] Setting up conv2_3/2/conv_conv2_3/2/conv_0_split
I0316 17:21:09.020318  5556 net.cpp:157] Top shape: 1 24 160 264 (1013760)
I0316 17:21:09.020321  5556 net.cpp:157] Top shape: 1 24 160 264 (1013760)
I0316 17:21:09.020323  5556 net.cpp:165] Memory required for data: 358195224
I0316 17:21:09.020325  5556 layer_factory.hpp:77] Creating layer conv2_3/2/neg
I0316 17:21:09.020330  5556 net.cpp:100] Creating Layer conv2_3/2/neg
I0316 17:21:09.020333  5556 net.cpp:434] conv2_3/2/neg <- conv2_3/2/conv_conv2_3/2/conv_0_split_0
I0316 17:21:09.020336  5556 net.cpp:408] conv2_3/2/neg -> conv2_3/2/neg
I0316 17:21:09.020350  5556 net.cpp:150] Setting up conv2_3/2/neg
I0316 17:21:09.020355  5556 net.cpp:157] Top shape: 1 24 160 264 (1013760)
I0316 17:21:09.020357  5556 net.cpp:165] Memory required for data: 362250264
I0316 17:21:09.020359  5556 layer_factory.hpp:77] Creating layer conv2_3/2/concat
I0316 17:21:09.020364  5556 net.cpp:100] Creating Layer conv2_3/2/concat
I0316 17:21:09.020365  5556 net.cpp:434] conv2_3/2/concat <- conv2_3/2/conv_conv2_3/2/conv_0_split_1
I0316 17:21:09.020368  5556 net.cpp:434] conv2_3/2/concat <- conv2_3/2/neg
I0316 17:21:09.020375  5556 net.cpp:408] conv2_3/2/concat -> conv2_3/2
I0316 17:21:09.020390  5556 net.cpp:150] Setting up conv2_3/2/concat
I0316 17:21:09.020395  5556 net.cpp:157] Top shape: 1 48 160 264 (2027520)
I0316 17:21:09.020396  5556 net.cpp:165] Memory required for data: 370360344
I0316 17:21:09.020398  5556 layer_factory.hpp:77] Creating layer conv2_3/2/scale
I0316 17:21:09.020402  5556 net.cpp:100] Creating Layer conv2_3/2/scale
I0316 17:21:09.020404  5556 net.cpp:434] conv2_3/2/scale <- conv2_3/2
I0316 17:21:09.020409  5556 net.cpp:395] conv2_3/2/scale -> conv2_3/2 (in-place)
I0316 17:21:09.020436  5556 layer_factory.hpp:77] Creating layer conv2_3/2/scale
I0316 17:21:09.020535  5556 net.cpp:150] Setting up conv2_3/2/scale
I0316 17:21:09.020540  5556 net.cpp:157] Top shape: 1 48 160 264 (2027520)
I0316 17:21:09.020542  5556 net.cpp:165] Memory required for data: 378470424
I0316 17:21:09.020546  5556 layer_factory.hpp:77] Creating layer conv2_3/2/relu
I0316 17:21:09.020550  5556 net.cpp:100] Creating Layer conv2_3/2/relu
I0316 17:21:09.020552  5556 net.cpp:434] conv2_3/2/relu <- conv2_3/2
I0316 17:21:09.020555  5556 net.cpp:395] conv2_3/2/relu -> conv2_3/2 (in-place)
I0316 17:21:09.020674  5556 net.cpp:150] Setting up conv2_3/2/relu
I0316 17:21:09.020681  5556 net.cpp:157] Top shape: 1 48 160 264 (2027520)
I0316 17:21:09.020684  5556 net.cpp:165] Memory required for data: 386580504
I0316 17:21:09.020685  5556 layer_factory.hpp:77] Creating layer conv2_3/3/conv
I0316 17:21:09.020691  5556 net.cpp:100] Creating Layer conv2_3/3/conv
I0316 17:21:09.020694  5556 net.cpp:434] conv2_3/3/conv <- conv2_3/2
I0316 17:21:09.020699  5556 net.cpp:408] conv2_3/3/conv -> conv2_3/3
I0316 17:21:09.020874  5556 net.cpp:150] Setting up conv2_3/3/conv
I0316 17:21:09.020880  5556 net.cpp:157] Top shape: 1 64 160 264 (2703360)
I0316 17:21:09.020884  5556 net.cpp:165] Memory required for data: 397393944
I0316 17:21:09.020887  5556 layer_factory.hpp:77] Creating layer conv2_3/input
I0316 17:21:09.020891  5556 net.cpp:100] Creating Layer conv2_3/input
I0316 17:21:09.020894  5556 net.cpp:434] conv2_3/input <- conv2_2_conv2_2_0_split_1
I0316 17:21:09.020897  5556 net.cpp:408] conv2_3/input -> conv2_3/input
I0316 17:21:09.020915  5556 net.cpp:150] Setting up conv2_3/input
I0316 17:21:09.020918  5556 net.cpp:157] Top shape: 1 64 160 264 (2703360)
I0316 17:21:09.020920  5556 net.cpp:165] Memory required for data: 408207384
I0316 17:21:09.020922  5556 layer_factory.hpp:77] Creating layer conv2_3
I0316 17:21:09.020926  5556 net.cpp:100] Creating Layer conv2_3
I0316 17:21:09.020928  5556 net.cpp:434] conv2_3 <- conv2_3/3
I0316 17:21:09.020931  5556 net.cpp:434] conv2_3 <- conv2_3/input
I0316 17:21:09.020936  5556 net.cpp:408] conv2_3 -> conv2_3
I0316 17:21:09.020949  5556 net.cpp:150] Setting up conv2_3
I0316 17:21:09.020954  5556 net.cpp:157] Top shape: 1 64 160 264 (2703360)
I0316 17:21:09.020956  5556 net.cpp:165] Memory required for data: 419020824
I0316 17:21:09.020958  5556 layer_factory.hpp:77] Creating layer conv2_3_conv2_3_0_split
I0316 17:21:09.020962  5556 net.cpp:100] Creating Layer conv2_3_conv2_3_0_split
I0316 17:21:09.020964  5556 net.cpp:434] conv2_3_conv2_3_0_split <- conv2_3
I0316 17:21:09.020967  5556 net.cpp:408] conv2_3_conv2_3_0_split -> conv2_3_conv2_3_0_split_0
I0316 17:21:09.020972  5556 net.cpp:408] conv2_3_conv2_3_0_split -> conv2_3_conv2_3_0_split_1
I0316 17:21:09.020993  5556 net.cpp:150] Setting up conv2_3_conv2_3_0_split
I0316 17:21:09.020998  5556 net.cpp:157] Top shape: 1 64 160 264 (2703360)
I0316 17:21:09.021000  5556 net.cpp:157] Top shape: 1 64 160 264 (2703360)
I0316 17:21:09.021003  5556 net.cpp:165] Memory required for data: 440647704
I0316 17:21:09.021004  5556 layer_factory.hpp:77] Creating layer conv3_1/1/conv
I0316 17:21:09.021010  5556 net.cpp:100] Creating Layer conv3_1/1/conv
I0316 17:21:09.021013  5556 net.cpp:434] conv3_1/1/conv <- conv2_3_conv2_3_0_split_0
I0316 17:21:09.021018  5556 net.cpp:408] conv3_1/1/conv -> conv3_1/1
I0316 17:21:09.021174  5556 net.cpp:150] Setting up conv3_1/1/conv
I0316 17:21:09.021183  5556 net.cpp:157] Top shape: 1 48 80 132 (506880)
I0316 17:21:09.021184  5556 net.cpp:165] Memory required for data: 442675224
I0316 17:21:09.021188  5556 layer_factory.hpp:77] Creating layer conv3_1/1/relu
I0316 17:21:09.021193  5556 net.cpp:100] Creating Layer conv3_1/1/relu
I0316 17:21:09.021195  5556 net.cpp:434] conv3_1/1/relu <- conv3_1/1
I0316 17:21:09.021199  5556 net.cpp:395] conv3_1/1/relu -> conv3_1/1 (in-place)
I0316 17:21:09.021409  5556 net.cpp:150] Setting up conv3_1/1/relu
I0316 17:21:09.021417  5556 net.cpp:157] Top shape: 1 48 80 132 (506880)
I0316 17:21:09.021420  5556 net.cpp:165] Memory required for data: 444702744
I0316 17:21:09.021422  5556 layer_factory.hpp:77] Creating layer conv3_1/2/conv
I0316 17:21:09.021428  5556 net.cpp:100] Creating Layer conv3_1/2/conv
I0316 17:21:09.021431  5556 net.cpp:434] conv3_1/2/conv <- conv3_1/1
I0316 17:21:09.021435  5556 net.cpp:408] conv3_1/2/conv -> conv3_1/2/conv
I0316 17:21:09.022307  5556 net.cpp:150] Setting up conv3_1/2/conv
I0316 17:21:09.022317  5556 net.cpp:157] Top shape: 1 48 80 132 (506880)
I0316 17:21:09.022320  5556 net.cpp:165] Memory required for data: 446730264
I0316 17:21:09.022328  5556 layer_factory.hpp:77] Creating layer conv3_1/2/conv_conv3_1/2/conv_0_split
I0316 17:21:09.022332  5556 net.cpp:100] Creating Layer conv3_1/2/conv_conv3_1/2/conv_0_split
I0316 17:21:09.022336  5556 net.cpp:434] conv3_1/2/conv_conv3_1/2/conv_0_split <- conv3_1/2/conv
I0316 17:21:09.022341  5556 net.cpp:408] conv3_1/2/conv_conv3_1/2/conv_0_split -> conv3_1/2/conv_conv3_1/2/conv_0_split_0
I0316 17:21:09.022346  5556 net.cpp:408] conv3_1/2/conv_conv3_1/2/conv_0_split -> conv3_1/2/conv_conv3_1/2/conv_0_split_1
I0316 17:21:09.022374  5556 net.cpp:150] Setting up conv3_1/2/conv_conv3_1/2/conv_0_split
I0316 17:21:09.022378  5556 net.cpp:157] Top shape: 1 48 80 132 (506880)
I0316 17:21:09.022382  5556 net.cpp:157] Top shape: 1 48 80 132 (506880)
I0316 17:21:09.022384  5556 net.cpp:165] Memory required for data: 450785304
I0316 17:21:09.022387  5556 layer_factory.hpp:77] Creating layer conv3_1/2/neg
I0316 17:21:09.022390  5556 net.cpp:100] Creating Layer conv3_1/2/neg
I0316 17:21:09.022392  5556 net.cpp:434] conv3_1/2/neg <- conv3_1/2/conv_conv3_1/2/conv_0_split_0
I0316 17:21:09.022397  5556 net.cpp:408] conv3_1/2/neg -> conv3_1/2/neg
I0316 17:21:09.022411  5556 net.cpp:150] Setting up conv3_1/2/neg
I0316 17:21:09.022418  5556 net.cpp:157] Top shape: 1 48 80 132 (506880)
I0316 17:21:09.022419  5556 net.cpp:165] Memory required for data: 452812824
I0316 17:21:09.022421  5556 layer_factory.hpp:77] Creating layer conv3_1/2/concat
I0316 17:21:09.022425  5556 net.cpp:100] Creating Layer conv3_1/2/concat
I0316 17:21:09.022428  5556 net.cpp:434] conv3_1/2/concat <- conv3_1/2/conv_conv3_1/2/conv_0_split_1
I0316 17:21:09.022430  5556 net.cpp:434] conv3_1/2/concat <- conv3_1/2/neg
I0316 17:21:09.022433  5556 net.cpp:408] conv3_1/2/concat -> conv3_1/2
I0316 17:21:09.022449  5556 net.cpp:150] Setting up conv3_1/2/concat
I0316 17:21:09.022452  5556 net.cpp:157] Top shape: 1 96 80 132 (1013760)
I0316 17:21:09.022454  5556 net.cpp:165] Memory required for data: 456867864
I0316 17:21:09.022456  5556 layer_factory.hpp:77] Creating layer conv3_1/2/scale
I0316 17:21:09.022461  5556 net.cpp:100] Creating Layer conv3_1/2/scale
I0316 17:21:09.022464  5556 net.cpp:434] conv3_1/2/scale <- conv3_1/2
I0316 17:21:09.022475  5556 net.cpp:395] conv3_1/2/scale -> conv3_1/2 (in-place)
I0316 17:21:09.022502  5556 layer_factory.hpp:77] Creating layer conv3_1/2/scale
I0316 17:21:09.022586  5556 net.cpp:150] Setting up conv3_1/2/scale
I0316 17:21:09.022591  5556 net.cpp:157] Top shape: 1 96 80 132 (1013760)
I0316 17:21:09.022593  5556 net.cpp:165] Memory required for data: 460922904
I0316 17:21:09.022598  5556 layer_factory.hpp:77] Creating layer conv3_1/2/relu
I0316 17:21:09.022601  5556 net.cpp:100] Creating Layer conv3_1/2/relu
I0316 17:21:09.022603  5556 net.cpp:434] conv3_1/2/relu <- conv3_1/2
I0316 17:21:09.022606  5556 net.cpp:395] conv3_1/2/relu -> conv3_1/2 (in-place)
I0316 17:21:09.022727  5556 net.cpp:150] Setting up conv3_1/2/relu
I0316 17:21:09.022733  5556 net.cpp:157] Top shape: 1 96 80 132 (1013760)
I0316 17:21:09.022735  5556 net.cpp:165] Memory required for data: 464977944
I0316 17:21:09.022737  5556 layer_factory.hpp:77] Creating layer conv3_1/3/conv
I0316 17:21:09.022745  5556 net.cpp:100] Creating Layer conv3_1/3/conv
I0316 17:21:09.022748  5556 net.cpp:434] conv3_1/3/conv <- conv3_1/2
I0316 17:21:09.022753  5556 net.cpp:408] conv3_1/3/conv -> conv3_1/3
I0316 17:21:09.022954  5556 net.cpp:150] Setting up conv3_1/3/conv
I0316 17:21:09.022960  5556 net.cpp:157] Top shape: 1 128 80 132 (1351680)
I0316 17:21:09.022963  5556 net.cpp:165] Memory required for data: 470384664
I0316 17:21:09.022966  5556 layer_factory.hpp:77] Creating layer conv3_1/proj
I0316 17:21:09.022972  5556 net.cpp:100] Creating Layer conv3_1/proj
I0316 17:21:09.022975  5556 net.cpp:434] conv3_1/proj <- conv2_3_conv2_3_0_split_1
I0316 17:21:09.022980  5556 net.cpp:408] conv3_1/proj -> conv3_1/proj
I0316 17:21:09.023157  5556 net.cpp:150] Setting up conv3_1/proj
I0316 17:21:09.023162  5556 net.cpp:157] Top shape: 1 128 80 132 (1351680)
I0316 17:21:09.023165  5556 net.cpp:165] Memory required for data: 475791384
I0316 17:21:09.023169  5556 layer_factory.hpp:77] Creating layer conv3_1
I0316 17:21:09.023172  5556 net.cpp:100] Creating Layer conv3_1
I0316 17:21:09.023175  5556 net.cpp:434] conv3_1 <- conv3_1/3
I0316 17:21:09.023178  5556 net.cpp:434] conv3_1 <- conv3_1/proj
I0316 17:21:09.023182  5556 net.cpp:408] conv3_1 -> conv3_1
I0316 17:21:09.023198  5556 net.cpp:150] Setting up conv3_1
I0316 17:21:09.023202  5556 net.cpp:157] Top shape: 1 128 80 132 (1351680)
I0316 17:21:09.023205  5556 net.cpp:165] Memory required for data: 481198104
I0316 17:21:09.023206  5556 layer_factory.hpp:77] Creating layer conv3_1_conv3_1_0_split
I0316 17:21:09.023211  5556 net.cpp:100] Creating Layer conv3_1_conv3_1_0_split
I0316 17:21:09.023212  5556 net.cpp:434] conv3_1_conv3_1_0_split <- conv3_1
I0316 17:21:09.023216  5556 net.cpp:408] conv3_1_conv3_1_0_split -> conv3_1_conv3_1_0_split_0
I0316 17:21:09.023221  5556 net.cpp:408] conv3_1_conv3_1_0_split -> conv3_1_conv3_1_0_split_1
I0316 17:21:09.023242  5556 net.cpp:150] Setting up conv3_1_conv3_1_0_split
I0316 17:21:09.023247  5556 net.cpp:157] Top shape: 1 128 80 132 (1351680)
I0316 17:21:09.023249  5556 net.cpp:157] Top shape: 1 128 80 132 (1351680)
I0316 17:21:09.023252  5556 net.cpp:165] Memory required for data: 492011544
I0316 17:21:09.023253  5556 layer_factory.hpp:77] Creating layer conv3_2/1/conv
I0316 17:21:09.023260  5556 net.cpp:100] Creating Layer conv3_2/1/conv
I0316 17:21:09.023262  5556 net.cpp:434] conv3_2/1/conv <- conv3_1_conv3_1_0_split_0
I0316 17:21:09.023267  5556 net.cpp:408] conv3_2/1/conv -> conv3_2/1
I0316 17:21:09.023433  5556 net.cpp:150] Setting up conv3_2/1/conv
I0316 17:21:09.023438  5556 net.cpp:157] Top shape: 1 48 80 132 (506880)
I0316 17:21:09.023440  5556 net.cpp:165] Memory required for data: 494039064
I0316 17:21:09.023444  5556 layer_factory.hpp:77] Creating layer conv3_2/1/relu
I0316 17:21:09.023448  5556 net.cpp:100] Creating Layer conv3_2/1/relu
I0316 17:21:09.023452  5556 net.cpp:434] conv3_2/1/relu <- conv3_2/1
I0316 17:21:09.023454  5556 net.cpp:395] conv3_2/1/relu -> conv3_2/1 (in-place)
I0316 17:21:09.023676  5556 net.cpp:150] Setting up conv3_2/1/relu
I0316 17:21:09.023685  5556 net.cpp:157] Top shape: 1 48 80 132 (506880)
I0316 17:21:09.023687  5556 net.cpp:165] Memory required for data: 496066584
I0316 17:21:09.023690  5556 layer_factory.hpp:77] Creating layer conv3_2/2/conv
I0316 17:21:09.023696  5556 net.cpp:100] Creating Layer conv3_2/2/conv
I0316 17:21:09.023699  5556 net.cpp:434] conv3_2/2/conv <- conv3_2/1
I0316 17:21:09.023705  5556 net.cpp:408] conv3_2/2/conv -> conv3_2/2/conv
I0316 17:21:09.024471  5556 net.cpp:150] Setting up conv3_2/2/conv
I0316 17:21:09.024480  5556 net.cpp:157] Top shape: 1 48 80 132 (506880)
I0316 17:21:09.024482  5556 net.cpp:165] Memory required for data: 498094104
I0316 17:21:09.024489  5556 layer_factory.hpp:77] Creating layer conv3_2/2/conv_conv3_2/2/conv_0_split
I0316 17:21:09.024495  5556 net.cpp:100] Creating Layer conv3_2/2/conv_conv3_2/2/conv_0_split
I0316 17:21:09.024497  5556 net.cpp:434] conv3_2/2/conv_conv3_2/2/conv_0_split <- conv3_2/2/conv
I0316 17:21:09.024502  5556 net.cpp:408] conv3_2/2/conv_conv3_2/2/conv_0_split -> conv3_2/2/conv_conv3_2/2/conv_0_split_0
I0316 17:21:09.024507  5556 net.cpp:408] conv3_2/2/conv_conv3_2/2/conv_0_split -> conv3_2/2/conv_conv3_2/2/conv_0_split_1
I0316 17:21:09.024534  5556 net.cpp:150] Setting up conv3_2/2/conv_conv3_2/2/conv_0_split
I0316 17:21:09.024538  5556 net.cpp:157] Top shape: 1 48 80 132 (506880)
I0316 17:21:09.024541  5556 net.cpp:157] Top shape: 1 48 80 132 (506880)
I0316 17:21:09.024544  5556 net.cpp:165] Memory required for data: 502149144
I0316 17:21:09.024545  5556 layer_factory.hpp:77] Creating layer conv3_2/2/neg
I0316 17:21:09.024549  5556 net.cpp:100] Creating Layer conv3_2/2/neg
I0316 17:21:09.024552  5556 net.cpp:434] conv3_2/2/neg <- conv3_2/2/conv_conv3_2/2/conv_0_split_0
I0316 17:21:09.024556  5556 net.cpp:408] conv3_2/2/neg -> conv3_2/2/neg
I0316 17:21:09.024571  5556 net.cpp:150] Setting up conv3_2/2/neg
I0316 17:21:09.024575  5556 net.cpp:157] Top shape: 1 48 80 132 (506880)
I0316 17:21:09.024577  5556 net.cpp:165] Memory required for data: 504176664
I0316 17:21:09.024580  5556 layer_factory.hpp:77] Creating layer conv3_2/2/concat
I0316 17:21:09.024583  5556 net.cpp:100] Creating Layer conv3_2/2/concat
I0316 17:21:09.024585  5556 net.cpp:434] conv3_2/2/concat <- conv3_2/2/conv_conv3_2/2/conv_0_split_1
I0316 17:21:09.024588  5556 net.cpp:434] conv3_2/2/concat <- conv3_2/2/neg
I0316 17:21:09.024592  5556 net.cpp:408] conv3_2/2/concat -> conv3_2/2
I0316 17:21:09.024606  5556 net.cpp:150] Setting up conv3_2/2/concat
I0316 17:21:09.024611  5556 net.cpp:157] Top shape: 1 96 80 132 (1013760)
I0316 17:21:09.024613  5556 net.cpp:165] Memory required for data: 508231704
I0316 17:21:09.024616  5556 layer_factory.hpp:77] Creating layer conv3_2/2/scale
I0316 17:21:09.024619  5556 net.cpp:100] Creating Layer conv3_2/2/scale
I0316 17:21:09.024622  5556 net.cpp:434] conv3_2/2/scale <- conv3_2/2
I0316 17:21:09.024626  5556 net.cpp:395] conv3_2/2/scale -> conv3_2/2 (in-place)
I0316 17:21:09.024652  5556 layer_factory.hpp:77] Creating layer conv3_2/2/scale
I0316 17:21:09.024737  5556 net.cpp:150] Setting up conv3_2/2/scale
I0316 17:21:09.024744  5556 net.cpp:157] Top shape: 1 96 80 132 (1013760)
I0316 17:21:09.024745  5556 net.cpp:165] Memory required for data: 512286744
I0316 17:21:09.024749  5556 layer_factory.hpp:77] Creating layer conv3_2/2/relu
I0316 17:21:09.024757  5556 net.cpp:100] Creating Layer conv3_2/2/relu
I0316 17:21:09.024760  5556 net.cpp:434] conv3_2/2/relu <- conv3_2/2
I0316 17:21:09.024763  5556 net.cpp:395] conv3_2/2/relu -> conv3_2/2 (in-place)
I0316 17:21:09.024878  5556 net.cpp:150] Setting up conv3_2/2/relu
I0316 17:21:09.024884  5556 net.cpp:157] Top shape: 1 96 80 132 (1013760)
I0316 17:21:09.024888  5556 net.cpp:165] Memory required for data: 516341784
I0316 17:21:09.024889  5556 layer_factory.hpp:77] Creating layer conv3_2/3/conv
I0316 17:21:09.024895  5556 net.cpp:100] Creating Layer conv3_2/3/conv
I0316 17:21:09.024897  5556 net.cpp:434] conv3_2/3/conv <- conv3_2/2
I0316 17:21:09.024902  5556 net.cpp:408] conv3_2/3/conv -> conv3_2/3
I0316 17:21:09.025106  5556 net.cpp:150] Setting up conv3_2/3/conv
I0316 17:21:09.025112  5556 net.cpp:157] Top shape: 1 128 80 132 (1351680)
I0316 17:21:09.025115  5556 net.cpp:165] Memory required for data: 521748504
I0316 17:21:09.025118  5556 layer_factory.hpp:77] Creating layer conv3_2/input
I0316 17:21:09.025122  5556 net.cpp:100] Creating Layer conv3_2/input
I0316 17:21:09.025125  5556 net.cpp:434] conv3_2/input <- conv3_1_conv3_1_0_split_1
I0316 17:21:09.025128  5556 net.cpp:408] conv3_2/input -> conv3_2/input
I0316 17:21:09.025146  5556 net.cpp:150] Setting up conv3_2/input
I0316 17:21:09.025149  5556 net.cpp:157] Top shape: 1 128 80 132 (1351680)
I0316 17:21:09.025154  5556 net.cpp:165] Memory required for data: 527155224
I0316 17:21:09.025156  5556 layer_factory.hpp:77] Creating layer conv3_2
I0316 17:21:09.025161  5556 net.cpp:100] Creating Layer conv3_2
I0316 17:21:09.025164  5556 net.cpp:434] conv3_2 <- conv3_2/3
I0316 17:21:09.025166  5556 net.cpp:434] conv3_2 <- conv3_2/input
I0316 17:21:09.025171  5556 net.cpp:408] conv3_2 -> conv3_2
I0316 17:21:09.025185  5556 net.cpp:150] Setting up conv3_2
I0316 17:21:09.025189  5556 net.cpp:157] Top shape: 1 128 80 132 (1351680)
I0316 17:21:09.025192  5556 net.cpp:165] Memory required for data: 532561944
I0316 17:21:09.025194  5556 layer_factory.hpp:77] Creating layer conv3_2_conv3_2_0_split
I0316 17:21:09.025197  5556 net.cpp:100] Creating Layer conv3_2_conv3_2_0_split
I0316 17:21:09.025200  5556 net.cpp:434] conv3_2_conv3_2_0_split <- conv3_2
I0316 17:21:09.025204  5556 net.cpp:408] conv3_2_conv3_2_0_split -> conv3_2_conv3_2_0_split_0
I0316 17:21:09.025208  5556 net.cpp:408] conv3_2_conv3_2_0_split -> conv3_2_conv3_2_0_split_1
I0316 17:21:09.025235  5556 net.cpp:150] Setting up conv3_2_conv3_2_0_split
I0316 17:21:09.025240  5556 net.cpp:157] Top shape: 1 128 80 132 (1351680)
I0316 17:21:09.025243  5556 net.cpp:157] Top shape: 1 128 80 132 (1351680)
I0316 17:21:09.025245  5556 net.cpp:165] Memory required for data: 543375384
I0316 17:21:09.025248  5556 layer_factory.hpp:77] Creating layer conv3_3/1/conv
I0316 17:21:09.025254  5556 net.cpp:100] Creating Layer conv3_3/1/conv
I0316 17:21:09.025255  5556 net.cpp:434] conv3_3/1/conv <- conv3_2_conv3_2_0_split_0
I0316 17:21:09.025259  5556 net.cpp:408] conv3_3/1/conv -> conv3_3/1
I0316 17:21:09.025434  5556 net.cpp:150] Setting up conv3_3/1/conv
I0316 17:21:09.025440  5556 net.cpp:157] Top shape: 1 48 80 132 (506880)
I0316 17:21:09.025442  5556 net.cpp:165] Memory required for data: 545402904
I0316 17:21:09.025446  5556 layer_factory.hpp:77] Creating layer conv3_3/1/relu
I0316 17:21:09.025450  5556 net.cpp:100] Creating Layer conv3_3/1/relu
I0316 17:21:09.025452  5556 net.cpp:434] conv3_3/1/relu <- conv3_3/1
I0316 17:21:09.025456  5556 net.cpp:395] conv3_3/1/relu -> conv3_3/1 (in-place)
I0316 17:21:09.025671  5556 net.cpp:150] Setting up conv3_3/1/relu
I0316 17:21:09.025678  5556 net.cpp:157] Top shape: 1 48 80 132 (506880)
I0316 17:21:09.025681  5556 net.cpp:165] Memory required for data: 547430424
I0316 17:21:09.025683  5556 layer_factory.hpp:77] Creating layer conv3_3/2/conv
I0316 17:21:09.025691  5556 net.cpp:100] Creating Layer conv3_3/2/conv
I0316 17:21:09.025692  5556 net.cpp:434] conv3_3/2/conv <- conv3_3/1
I0316 17:21:09.025698  5556 net.cpp:408] conv3_3/2/conv -> conv3_3/2/conv
I0316 17:21:09.026465  5556 net.cpp:150] Setting up conv3_3/2/conv
I0316 17:21:09.026474  5556 net.cpp:157] Top shape: 1 48 80 132 (506880)
I0316 17:21:09.026477  5556 net.cpp:165] Memory required for data: 549457944
I0316 17:21:09.026481  5556 layer_factory.hpp:77] Creating layer conv3_3/2/conv_conv3_3/2/conv_0_split
I0316 17:21:09.026485  5556 net.cpp:100] Creating Layer conv3_3/2/conv_conv3_3/2/conv_0_split
I0316 17:21:09.026489  5556 net.cpp:434] conv3_3/2/conv_conv3_3/2/conv_0_split <- conv3_3/2/conv
I0316 17:21:09.026494  5556 net.cpp:408] conv3_3/2/conv_conv3_3/2/conv_0_split -> conv3_3/2/conv_conv3_3/2/conv_0_split_0
I0316 17:21:09.026499  5556 net.cpp:408] conv3_3/2/conv_conv3_3/2/conv_0_split -> conv3_3/2/conv_conv3_3/2/conv_0_split_1
I0316 17:21:09.026525  5556 net.cpp:150] Setting up conv3_3/2/conv_conv3_3/2/conv_0_split
I0316 17:21:09.026530  5556 net.cpp:157] Top shape: 1 48 80 132 (506880)
I0316 17:21:09.026532  5556 net.cpp:157] Top shape: 1 48 80 132 (506880)
I0316 17:21:09.026535  5556 net.cpp:165] Memory required for data: 553512984
I0316 17:21:09.026536  5556 layer_factory.hpp:77] Creating layer conv3_3/2/neg
I0316 17:21:09.026541  5556 net.cpp:100] Creating Layer conv3_3/2/neg
I0316 17:21:09.026543  5556 net.cpp:434] conv3_3/2/neg <- conv3_3/2/conv_conv3_3/2/conv_0_split_0
I0316 17:21:09.026547  5556 net.cpp:408] conv3_3/2/neg -> conv3_3/2/neg
I0316 17:21:09.026562  5556 net.cpp:150] Setting up conv3_3/2/neg
I0316 17:21:09.026569  5556 net.cpp:157] Top shape: 1 48 80 132 (506880)
I0316 17:21:09.026571  5556 net.cpp:165] Memory required for data: 555540504
I0316 17:21:09.026574  5556 layer_factory.hpp:77] Creating layer conv3_3/2/concat
I0316 17:21:09.026578  5556 net.cpp:100] Creating Layer conv3_3/2/concat
I0316 17:21:09.026582  5556 net.cpp:434] conv3_3/2/concat <- conv3_3/2/conv_conv3_3/2/conv_0_split_1
I0316 17:21:09.026584  5556 net.cpp:434] conv3_3/2/concat <- conv3_3/2/neg
I0316 17:21:09.026587  5556 net.cpp:408] conv3_3/2/concat -> conv3_3/2
I0316 17:21:09.026603  5556 net.cpp:150] Setting up conv3_3/2/concat
I0316 17:21:09.026607  5556 net.cpp:157] Top shape: 1 96 80 132 (1013760)
I0316 17:21:09.026609  5556 net.cpp:165] Memory required for data: 559595544
I0316 17:21:09.026612  5556 layer_factory.hpp:77] Creating layer conv3_3/2/scale
I0316 17:21:09.026615  5556 net.cpp:100] Creating Layer conv3_3/2/scale
I0316 17:21:09.026618  5556 net.cpp:434] conv3_3/2/scale <- conv3_3/2
I0316 17:21:09.026621  5556 net.cpp:395] conv3_3/2/scale -> conv3_3/2 (in-place)
I0316 17:21:09.026649  5556 layer_factory.hpp:77] Creating layer conv3_3/2/scale
I0316 17:21:09.026736  5556 net.cpp:150] Setting up conv3_3/2/scale
I0316 17:21:09.026741  5556 net.cpp:157] Top shape: 1 96 80 132 (1013760)
I0316 17:21:09.026742  5556 net.cpp:165] Memory required for data: 563650584
I0316 17:21:09.026746  5556 layer_factory.hpp:77] Creating layer conv3_3/2/relu
I0316 17:21:09.026751  5556 net.cpp:100] Creating Layer conv3_3/2/relu
I0316 17:21:09.026753  5556 net.cpp:434] conv3_3/2/relu <- conv3_3/2
I0316 17:21:09.026757  5556 net.cpp:395] conv3_3/2/relu -> conv3_3/2 (in-place)
I0316 17:21:09.026962  5556 net.cpp:150] Setting up conv3_3/2/relu
I0316 17:21:09.026971  5556 net.cpp:157] Top shape: 1 96 80 132 (1013760)
I0316 17:21:09.026973  5556 net.cpp:165] Memory required for data: 567705624
I0316 17:21:09.026976  5556 layer_factory.hpp:77] Creating layer conv3_3/3/conv
I0316 17:21:09.026983  5556 net.cpp:100] Creating Layer conv3_3/3/conv
I0316 17:21:09.026985  5556 net.cpp:434] conv3_3/3/conv <- conv3_3/2
I0316 17:21:09.026990  5556 net.cpp:408] conv3_3/3/conv -> conv3_3/3
I0316 17:21:09.027196  5556 net.cpp:150] Setting up conv3_3/3/conv
I0316 17:21:09.027202  5556 net.cpp:157] Top shape: 1 128 80 132 (1351680)
I0316 17:21:09.027204  5556 net.cpp:165] Memory required for data: 573112344
I0316 17:21:09.027209  5556 layer_factory.hpp:77] Creating layer conv3_3/input
I0316 17:21:09.027214  5556 net.cpp:100] Creating Layer conv3_3/input
I0316 17:21:09.027215  5556 net.cpp:434] conv3_3/input <- conv3_2_conv3_2_0_split_1
I0316 17:21:09.027220  5556 net.cpp:408] conv3_3/input -> conv3_3/input
I0316 17:21:09.027235  5556 net.cpp:150] Setting up conv3_3/input
I0316 17:21:09.027240  5556 net.cpp:157] Top shape: 1 128 80 132 (1351680)
I0316 17:21:09.027242  5556 net.cpp:165] Memory required for data: 578519064
I0316 17:21:09.027245  5556 layer_factory.hpp:77] Creating layer conv3_3
I0316 17:21:09.027248  5556 net.cpp:100] Creating Layer conv3_3
I0316 17:21:09.027251  5556 net.cpp:434] conv3_3 <- conv3_3/3
I0316 17:21:09.027254  5556 net.cpp:434] conv3_3 <- conv3_3/input
I0316 17:21:09.027257  5556 net.cpp:408] conv3_3 -> conv3_3
I0316 17:21:09.027272  5556 net.cpp:150] Setting up conv3_3
I0316 17:21:09.027276  5556 net.cpp:157] Top shape: 1 128 80 132 (1351680)
I0316 17:21:09.027278  5556 net.cpp:165] Memory required for data: 583925784
I0316 17:21:09.027281  5556 layer_factory.hpp:77] Creating layer conv3_3_conv3_3_0_split
I0316 17:21:09.027284  5556 net.cpp:100] Creating Layer conv3_3_conv3_3_0_split
I0316 17:21:09.027287  5556 net.cpp:434] conv3_3_conv3_3_0_split <- conv3_3
I0316 17:21:09.027292  5556 net.cpp:408] conv3_3_conv3_3_0_split -> conv3_3_conv3_3_0_split_0
I0316 17:21:09.027295  5556 net.cpp:408] conv3_3_conv3_3_0_split -> conv3_3_conv3_3_0_split_1
I0316 17:21:09.027318  5556 net.cpp:150] Setting up conv3_3_conv3_3_0_split
I0316 17:21:09.027323  5556 net.cpp:157] Top shape: 1 128 80 132 (1351680)
I0316 17:21:09.027325  5556 net.cpp:157] Top shape: 1 128 80 132 (1351680)
I0316 17:21:09.027329  5556 net.cpp:165] Memory required for data: 594739224
I0316 17:21:09.027333  5556 layer_factory.hpp:77] Creating layer conv3_4/1/conv
I0316 17:21:09.027338  5556 net.cpp:100] Creating Layer conv3_4/1/conv
I0316 17:21:09.027340  5556 net.cpp:434] conv3_4/1/conv <- conv3_3_conv3_3_0_split_0
I0316 17:21:09.027345  5556 net.cpp:408] conv3_4/1/conv -> conv3_4/1
I0316 17:21:09.027521  5556 net.cpp:150] Setting up conv3_4/1/conv
I0316 17:21:09.027528  5556 net.cpp:157] Top shape: 1 48 80 132 (506880)
I0316 17:21:09.027529  5556 net.cpp:165] Memory required for data: 596766744
I0316 17:21:09.027534  5556 layer_factory.hpp:77] Creating layer conv3_4/1/relu
I0316 17:21:09.027537  5556 net.cpp:100] Creating Layer conv3_4/1/relu
I0316 17:21:09.027540  5556 net.cpp:434] conv3_4/1/relu <- conv3_4/1
I0316 17:21:09.027544  5556 net.cpp:395] conv3_4/1/relu -> conv3_4/1 (in-place)
I0316 17:21:09.027665  5556 net.cpp:150] Setting up conv3_4/1/relu
I0316 17:21:09.027671  5556 net.cpp:157] Top shape: 1 48 80 132 (506880)
I0316 17:21:09.027674  5556 net.cpp:165] Memory required for data: 598794264
I0316 17:21:09.027676  5556 layer_factory.hpp:77] Creating layer conv3_4/2/conv
I0316 17:21:09.027683  5556 net.cpp:100] Creating Layer conv3_4/2/conv
I0316 17:21:09.027685  5556 net.cpp:434] conv3_4/2/conv <- conv3_4/1
I0316 17:21:09.027690  5556 net.cpp:408] conv3_4/2/conv -> conv3_4/2/conv
I0316 17:21:09.028694  5556 net.cpp:150] Setting up conv3_4/2/conv
I0316 17:21:09.028703  5556 net.cpp:157] Top shape: 1 48 80 132 (506880)
I0316 17:21:09.028705  5556 net.cpp:165] Memory required for data: 600821784
I0316 17:21:09.028710  5556 layer_factory.hpp:77] Creating layer conv3_4/2/conv_conv3_4/2/conv_0_split
I0316 17:21:09.028715  5556 net.cpp:100] Creating Layer conv3_4/2/conv_conv3_4/2/conv_0_split
I0316 17:21:09.028717  5556 net.cpp:434] conv3_4/2/conv_conv3_4/2/conv_0_split <- conv3_4/2/conv
I0316 17:21:09.028722  5556 net.cpp:408] conv3_4/2/conv_conv3_4/2/conv_0_split -> conv3_4/2/conv_conv3_4/2/conv_0_split_0
I0316 17:21:09.028728  5556 net.cpp:408] conv3_4/2/conv_conv3_4/2/conv_0_split -> conv3_4/2/conv_conv3_4/2/conv_0_split_1
I0316 17:21:09.028755  5556 net.cpp:150] Setting up conv3_4/2/conv_conv3_4/2/conv_0_split
I0316 17:21:09.028760  5556 net.cpp:157] Top shape: 1 48 80 132 (506880)
I0316 17:21:09.028762  5556 net.cpp:157] Top shape: 1 48 80 132 (506880)
I0316 17:21:09.028764  5556 net.cpp:165] Memory required for data: 604876824
I0316 17:21:09.028767  5556 layer_factory.hpp:77] Creating layer conv3_4/2/neg
I0316 17:21:09.028771  5556 net.cpp:100] Creating Layer conv3_4/2/neg
I0316 17:21:09.028774  5556 net.cpp:434] conv3_4/2/neg <- conv3_4/2/conv_conv3_4/2/conv_0_split_0
I0316 17:21:09.028777  5556 net.cpp:408] conv3_4/2/neg -> conv3_4/2/neg
I0316 17:21:09.028794  5556 net.cpp:150] Setting up conv3_4/2/neg
I0316 17:21:09.028797  5556 net.cpp:157] Top shape: 1 48 80 132 (506880)
I0316 17:21:09.028800  5556 net.cpp:165] Memory required for data: 606904344
I0316 17:21:09.028801  5556 layer_factory.hpp:77] Creating layer conv3_4/2/concat
I0316 17:21:09.028805  5556 net.cpp:100] Creating Layer conv3_4/2/concat
I0316 17:21:09.028807  5556 net.cpp:434] conv3_4/2/concat <- conv3_4/2/conv_conv3_4/2/conv_0_split_1
I0316 17:21:09.028810  5556 net.cpp:434] conv3_4/2/concat <- conv3_4/2/neg
I0316 17:21:09.028815  5556 net.cpp:408] conv3_4/2/concat -> conv3_4/2
I0316 17:21:09.028828  5556 net.cpp:150] Setting up conv3_4/2/concat
I0316 17:21:09.028832  5556 net.cpp:157] Top shape: 1 96 80 132 (1013760)
I0316 17:21:09.028834  5556 net.cpp:165] Memory required for data: 610959384
I0316 17:21:09.028836  5556 layer_factory.hpp:77] Creating layer conv3_4/2/scale
I0316 17:21:09.028841  5556 net.cpp:100] Creating Layer conv3_4/2/scale
I0316 17:21:09.028844  5556 net.cpp:434] conv3_4/2/scale <- conv3_4/2
I0316 17:21:09.028848  5556 net.cpp:395] conv3_4/2/scale -> conv3_4/2 (in-place)
I0316 17:21:09.028874  5556 layer_factory.hpp:77] Creating layer conv3_4/2/scale
I0316 17:21:09.028959  5556 net.cpp:150] Setting up conv3_4/2/scale
I0316 17:21:09.028966  5556 net.cpp:157] Top shape: 1 96 80 132 (1013760)
I0316 17:21:09.028970  5556 net.cpp:165] Memory required for data: 615014424
I0316 17:21:09.028972  5556 layer_factory.hpp:77] Creating layer conv3_4/2/relu
I0316 17:21:09.028976  5556 net.cpp:100] Creating Layer conv3_4/2/relu
I0316 17:21:09.028978  5556 net.cpp:434] conv3_4/2/relu <- conv3_4/2
I0316 17:21:09.028982  5556 net.cpp:395] conv3_4/2/relu -> conv3_4/2 (in-place)
I0316 17:21:09.029186  5556 net.cpp:150] Setting up conv3_4/2/relu
I0316 17:21:09.029194  5556 net.cpp:157] Top shape: 1 96 80 132 (1013760)
I0316 17:21:09.029196  5556 net.cpp:165] Memory required for data: 619069464
I0316 17:21:09.029199  5556 layer_factory.hpp:77] Creating layer conv3_4/3/conv
I0316 17:21:09.029206  5556 net.cpp:100] Creating Layer conv3_4/3/conv
I0316 17:21:09.029208  5556 net.cpp:434] conv3_4/3/conv <- conv3_4/2
I0316 17:21:09.029213  5556 net.cpp:408] conv3_4/3/conv -> conv3_4/3
I0316 17:21:09.029422  5556 net.cpp:150] Setting up conv3_4/3/conv
I0316 17:21:09.029428  5556 net.cpp:157] Top shape: 1 128 80 132 (1351680)
I0316 17:21:09.029429  5556 net.cpp:165] Memory required for data: 624476184
I0316 17:21:09.029433  5556 layer_factory.hpp:77] Creating layer conv3_4/input
I0316 17:21:09.029438  5556 net.cpp:100] Creating Layer conv3_4/input
I0316 17:21:09.029440  5556 net.cpp:434] conv3_4/input <- conv3_3_conv3_3_0_split_1
I0316 17:21:09.029444  5556 net.cpp:408] conv3_4/input -> conv3_4/input
I0316 17:21:09.029461  5556 net.cpp:150] Setting up conv3_4/input
I0316 17:21:09.029466  5556 net.cpp:157] Top shape: 1 128 80 132 (1351680)
I0316 17:21:09.029469  5556 net.cpp:165] Memory required for data: 629882904
I0316 17:21:09.029470  5556 layer_factory.hpp:77] Creating layer conv3_4
I0316 17:21:09.029474  5556 net.cpp:100] Creating Layer conv3_4
I0316 17:21:09.029477  5556 net.cpp:434] conv3_4 <- conv3_4/3
I0316 17:21:09.029479  5556 net.cpp:434] conv3_4 <- conv3_4/input
I0316 17:21:09.029484  5556 net.cpp:408] conv3_4 -> conv3_4
I0316 17:21:09.029498  5556 net.cpp:150] Setting up conv3_4
I0316 17:21:09.029503  5556 net.cpp:157] Top shape: 1 128 80 132 (1351680)
I0316 17:21:09.029506  5556 net.cpp:165] Memory required for data: 635289624
I0316 17:21:09.029508  5556 layer_factory.hpp:77] Creating layer conv3_4_conv3_4_0_split
I0316 17:21:09.029512  5556 net.cpp:100] Creating Layer conv3_4_conv3_4_0_split
I0316 17:21:09.029515  5556 net.cpp:434] conv3_4_conv3_4_0_split <- conv3_4
I0316 17:21:09.029518  5556 net.cpp:408] conv3_4_conv3_4_0_split -> conv3_4_conv3_4_0_split_0
I0316 17:21:09.029523  5556 net.cpp:408] conv3_4_conv3_4_0_split -> conv3_4_conv3_4_0_split_1
I0316 17:21:09.029527  5556 net.cpp:408] conv3_4_conv3_4_0_split -> conv3_4_conv3_4_0_split_2
I0316 17:21:09.029532  5556 net.cpp:408] conv3_4_conv3_4_0_split -> conv3_4_conv3_4_0_split_3
I0316 17:21:09.029536  5556 net.cpp:408] conv3_4_conv3_4_0_split -> conv3_4_conv3_4_0_split_4
I0316 17:21:09.029541  5556 net.cpp:408] conv3_4_conv3_4_0_split -> conv3_4_conv3_4_0_split_5
I0316 17:21:09.029593  5556 net.cpp:150] Setting up conv3_4_conv3_4_0_split
I0316 17:21:09.029597  5556 net.cpp:157] Top shape: 1 128 80 132 (1351680)
I0316 17:21:09.029600  5556 net.cpp:157] Top shape: 1 128 80 132 (1351680)
I0316 17:21:09.029603  5556 net.cpp:157] Top shape: 1 128 80 132 (1351680)
I0316 17:21:09.029606  5556 net.cpp:157] Top shape: 1 128 80 132 (1351680)
I0316 17:21:09.029609  5556 net.cpp:157] Top shape: 1 128 80 132 (1351680)
I0316 17:21:09.029611  5556 net.cpp:157] Top shape: 1 128 80 132 (1351680)
I0316 17:21:09.029613  5556 net.cpp:165] Memory required for data: 667729944
I0316 17:21:09.029616  5556 layer_factory.hpp:77] Creating layer conv4_1/incep/0/conv
I0316 17:21:09.029623  5556 net.cpp:100] Creating Layer conv4_1/incep/0/conv
I0316 17:21:09.029624  5556 net.cpp:434] conv4_1/incep/0/conv <- conv3_4_conv3_4_0_split_0
I0316 17:21:09.029631  5556 net.cpp:408] conv4_1/incep/0/conv -> conv4_1/incep/0
I0316 17:21:09.029814  5556 net.cpp:150] Setting up conv4_1/incep/0/conv
I0316 17:21:09.029822  5556 net.cpp:157] Top shape: 1 64 40 66 (168960)
I0316 17:21:09.029824  5556 net.cpp:165] Memory required for data: 668405784
I0316 17:21:09.029834  5556 layer_factory.hpp:77] Creating layer conv4_1/incep/0/relu
I0316 17:21:09.029839  5556 net.cpp:100] Creating Layer conv4_1/incep/0/relu
I0316 17:21:09.029841  5556 net.cpp:434] conv4_1/incep/0/relu <- conv4_1/incep/0
I0316 17:21:09.029844  5556 net.cpp:395] conv4_1/incep/0/relu -> conv4_1/incep/0 (in-place)
I0316 17:21:09.029963  5556 net.cpp:150] Setting up conv4_1/incep/0/relu
I0316 17:21:09.029968  5556 net.cpp:157] Top shape: 1 64 40 66 (168960)
I0316 17:21:09.029970  5556 net.cpp:165] Memory required for data: 669081624
I0316 17:21:09.029973  5556 layer_factory.hpp:77] Creating layer conv4_1/incep/1_reduce/conv
I0316 17:21:09.029978  5556 net.cpp:100] Creating Layer conv4_1/incep/1_reduce/conv
I0316 17:21:09.029981  5556 net.cpp:434] conv4_1/incep/1_reduce/conv <- conv3_4_conv3_4_0_split_1
I0316 17:21:09.029986  5556 net.cpp:408] conv4_1/incep/1_reduce/conv -> conv4_1/incep/1_reduce
I0316 17:21:09.030170  5556 net.cpp:150] Setting up conv4_1/incep/1_reduce/conv
I0316 17:21:09.030176  5556 net.cpp:157] Top shape: 1 48 40 66 (126720)
I0316 17:21:09.030179  5556 net.cpp:165] Memory required for data: 669588504
I0316 17:21:09.030182  5556 layer_factory.hpp:77] Creating layer conv4_1/incep/1_reduce/relu
I0316 17:21:09.030186  5556 net.cpp:100] Creating Layer conv4_1/incep/1_reduce/relu
I0316 17:21:09.030189  5556 net.cpp:434] conv4_1/incep/1_reduce/relu <- conv4_1/incep/1_reduce
I0316 17:21:09.030194  5556 net.cpp:395] conv4_1/incep/1_reduce/relu -> conv4_1/incep/1_reduce (in-place)
I0316 17:21:09.030400  5556 net.cpp:150] Setting up conv4_1/incep/1_reduce/relu
I0316 17:21:09.030408  5556 net.cpp:157] Top shape: 1 48 40 66 (126720)
I0316 17:21:09.030411  5556 net.cpp:165] Memory required for data: 670095384
I0316 17:21:09.030413  5556 layer_factory.hpp:77] Creating layer conv4_1/incep/1_0/conv
I0316 17:21:09.030419  5556 net.cpp:100] Creating Layer conv4_1/incep/1_0/conv
I0316 17:21:09.030422  5556 net.cpp:434] conv4_1/incep/1_0/conv <- conv4_1/incep/1_reduce
I0316 17:21:09.030428  5556 net.cpp:408] conv4_1/incep/1_0/conv -> conv4_1/incep/1_0
I0316 17:21:09.031581  5556 net.cpp:150] Setting up conv4_1/incep/1_0/conv
I0316 17:21:09.031591  5556 net.cpp:157] Top shape: 1 128 40 66 (337920)
I0316 17:21:09.031594  5556 net.cpp:165] Memory required for data: 671447064
I0316 17:21:09.031599  5556 layer_factory.hpp:77] Creating layer conv4_1/incep/1_0/relu
I0316 17:21:09.031605  5556 net.cpp:100] Creating Layer conv4_1/incep/1_0/relu
I0316 17:21:09.031606  5556 net.cpp:434] conv4_1/incep/1_0/relu <- conv4_1/incep/1_0
I0316 17:21:09.031610  5556 net.cpp:395] conv4_1/incep/1_0/relu -> conv4_1/incep/1_0 (in-place)
I0316 17:21:09.031731  5556 net.cpp:150] Setting up conv4_1/incep/1_0/relu
I0316 17:21:09.031738  5556 net.cpp:157] Top shape: 1 128 40 66 (337920)
I0316 17:21:09.031740  5556 net.cpp:165] Memory required for data: 672798744
I0316 17:21:09.031743  5556 layer_factory.hpp:77] Creating layer conv4_1/incep/2_reduce/conv
I0316 17:21:09.031749  5556 net.cpp:100] Creating Layer conv4_1/incep/2_reduce/conv
I0316 17:21:09.031751  5556 net.cpp:434] conv4_1/incep/2_reduce/conv <- conv3_4_conv3_4_0_split_2
I0316 17:21:09.031757  5556 net.cpp:408] conv4_1/incep/2_reduce/conv -> conv4_1/incep/2_reduce
I0316 17:21:09.031934  5556 net.cpp:150] Setting up conv4_1/incep/2_reduce/conv
I0316 17:21:09.031940  5556 net.cpp:157] Top shape: 1 24 40 66 (63360)
I0316 17:21:09.031944  5556 net.cpp:165] Memory required for data: 673052184
I0316 17:21:09.031946  5556 layer_factory.hpp:77] Creating layer conv4_1/incep/2_reduce/relu
I0316 17:21:09.031951  5556 net.cpp:100] Creating Layer conv4_1/incep/2_reduce/relu
I0316 17:21:09.031955  5556 net.cpp:434] conv4_1/incep/2_reduce/relu <- conv4_1/incep/2_reduce
I0316 17:21:09.031957  5556 net.cpp:395] conv4_1/incep/2_reduce/relu -> conv4_1/incep/2_reduce (in-place)
I0316 17:21:09.032168  5556 net.cpp:150] Setting up conv4_1/incep/2_reduce/relu
I0316 17:21:09.032179  5556 net.cpp:157] Top shape: 1 24 40 66 (63360)
I0316 17:21:09.032181  5556 net.cpp:165] Memory required for data: 673305624
I0316 17:21:09.032184  5556 layer_factory.hpp:77] Creating layer conv4_1/incep/2_0/conv
I0316 17:21:09.032191  5556 net.cpp:100] Creating Layer conv4_1/incep/2_0/conv
I0316 17:21:09.032194  5556 net.cpp:434] conv4_1/incep/2_0/conv <- conv4_1/incep/2_reduce
I0316 17:21:09.032198  5556 net.cpp:408] conv4_1/incep/2_0/conv -> conv4_1/incep/2_0
I0316 17:21:09.032935  5556 net.cpp:150] Setting up conv4_1/incep/2_0/conv
I0316 17:21:09.032944  5556 net.cpp:157] Top shape: 1 48 40 66 (126720)
I0316 17:21:09.032946  5556 net.cpp:165] Memory required for data: 673812504
I0316 17:21:09.032951  5556 layer_factory.hpp:77] Creating layer conv4_1/incep/2_0/relu
I0316 17:21:09.032956  5556 net.cpp:100] Creating Layer conv4_1/incep/2_0/relu
I0316 17:21:09.032959  5556 net.cpp:434] conv4_1/incep/2_0/relu <- conv4_1/incep/2_0
I0316 17:21:09.032963  5556 net.cpp:395] conv4_1/incep/2_0/relu -> conv4_1/incep/2_0 (in-place)
I0316 17:21:09.033082  5556 net.cpp:150] Setting up conv4_1/incep/2_0/relu
I0316 17:21:09.033087  5556 net.cpp:157] Top shape: 1 48 40 66 (126720)
I0316 17:21:09.033089  5556 net.cpp:165] Memory required for data: 674319384
I0316 17:21:09.033092  5556 layer_factory.hpp:77] Creating layer conv4_1/incep/2_1/conv
I0316 17:21:09.033098  5556 net.cpp:100] Creating Layer conv4_1/incep/2_1/conv
I0316 17:21:09.033102  5556 net.cpp:434] conv4_1/incep/2_1/conv <- conv4_1/incep/2_0
I0316 17:21:09.033107  5556 net.cpp:408] conv4_1/incep/2_1/conv -> conv4_1/incep/2_1
I0316 17:21:09.033879  5556 net.cpp:150] Setting up conv4_1/incep/2_1/conv
I0316 17:21:09.033887  5556 net.cpp:157] Top shape: 1 48 40 66 (126720)
I0316 17:21:09.033890  5556 net.cpp:165] Memory required for data: 674826264
I0316 17:21:09.033895  5556 layer_factory.hpp:77] Creating layer conv4_1/incep/2_1/relu
I0316 17:21:09.033898  5556 net.cpp:100] Creating Layer conv4_1/incep/2_1/relu
I0316 17:21:09.033901  5556 net.cpp:434] conv4_1/incep/2_1/relu <- conv4_1/incep/2_1
I0316 17:21:09.033905  5556 net.cpp:395] conv4_1/incep/2_1/relu -> conv4_1/incep/2_1 (in-place)
I0316 17:21:09.034024  5556 net.cpp:150] Setting up conv4_1/incep/2_1/relu
I0316 17:21:09.034029  5556 net.cpp:157] Top shape: 1 48 40 66 (126720)
I0316 17:21:09.034031  5556 net.cpp:165] Memory required for data: 675333144
I0316 17:21:09.034034  5556 layer_factory.hpp:77] Creating layer conv4_1/incep/pool
I0316 17:21:09.034039  5556 net.cpp:100] Creating Layer conv4_1/incep/pool
I0316 17:21:09.034041  5556 net.cpp:434] conv4_1/incep/pool <- conv3_4_conv3_4_0_split_3
I0316 17:21:09.034046  5556 net.cpp:408] conv4_1/incep/pool -> conv4_1/incep/pool
I0316 17:21:09.034077  5556 net.cpp:150] Setting up conv4_1/incep/pool
I0316 17:21:09.034082  5556 net.cpp:157] Top shape: 1 128 40 66 (337920)
I0316 17:21:09.034085  5556 net.cpp:165] Memory required for data: 676684824
I0316 17:21:09.034086  5556 layer_factory.hpp:77] Creating layer conv4_1/incep/poolproj/conv
I0316 17:21:09.034093  5556 net.cpp:100] Creating Layer conv4_1/incep/poolproj/conv
I0316 17:21:09.034096  5556 net.cpp:434] conv4_1/incep/poolproj/conv <- conv4_1/incep/pool
I0316 17:21:09.034101  5556 net.cpp:408] conv4_1/incep/poolproj/conv -> conv4_1/incep/poolproj
I0316 17:21:09.034323  5556 net.cpp:150] Setting up conv4_1/incep/poolproj/conv
I0316 17:21:09.034329  5556 net.cpp:157] Top shape: 1 128 40 66 (337920)
I0316 17:21:09.034332  5556 net.cpp:165] Memory required for data: 678036504
I0316 17:21:09.034335  5556 layer_factory.hpp:77] Creating layer conv4_1/incep/poolproj/relu
I0316 17:21:09.034339  5556 net.cpp:100] Creating Layer conv4_1/incep/poolproj/relu
I0316 17:21:09.034343  5556 net.cpp:434] conv4_1/incep/poolproj/relu <- conv4_1/incep/poolproj
I0316 17:21:09.034345  5556 net.cpp:395] conv4_1/incep/poolproj/relu -> conv4_1/incep/poolproj (in-place)
I0316 17:21:09.034556  5556 net.cpp:150] Setting up conv4_1/incep/poolproj/relu
I0316 17:21:09.034564  5556 net.cpp:157] Top shape: 1 128 40 66 (337920)
I0316 17:21:09.034569  5556 net.cpp:165] Memory required for data: 679388184
I0316 17:21:09.034572  5556 layer_factory.hpp:77] Creating layer conv4_1/incep
I0316 17:21:09.034577  5556 net.cpp:100] Creating Layer conv4_1/incep
I0316 17:21:09.034579  5556 net.cpp:434] conv4_1/incep <- conv4_1/incep/0
I0316 17:21:09.034584  5556 net.cpp:434] conv4_1/incep <- conv4_1/incep/1_0
I0316 17:21:09.034586  5556 net.cpp:434] conv4_1/incep <- conv4_1/incep/2_1
I0316 17:21:09.034588  5556 net.cpp:434] conv4_1/incep <- conv4_1/incep/poolproj
I0316 17:21:09.034592  5556 net.cpp:408] conv4_1/incep -> conv4_1/incep
I0316 17:21:09.034612  5556 net.cpp:150] Setting up conv4_1/incep
I0316 17:21:09.034617  5556 net.cpp:157] Top shape: 1 368 40 66 (971520)
I0316 17:21:09.034620  5556 net.cpp:165] Memory required for data: 683274264
I0316 17:21:09.034621  5556 layer_factory.hpp:77] Creating layer conv4_1/out/conv
I0316 17:21:09.034628  5556 net.cpp:100] Creating Layer conv4_1/out/conv
I0316 17:21:09.034631  5556 net.cpp:434] conv4_1/out/conv <- conv4_1/incep
I0316 17:21:09.034636  5556 net.cpp:408] conv4_1/out/conv -> conv4_1/out
I0316 17:21:09.035395  5556 net.cpp:150] Setting up conv4_1/out/conv
I0316 17:21:09.035404  5556 net.cpp:157] Top shape: 1 256 40 66 (675840)
I0316 17:21:09.035406  5556 net.cpp:165] Memory required for data: 685977624
I0316 17:21:09.035411  5556 layer_factory.hpp:77] Creating layer conv4_1/proj
I0316 17:21:09.035416  5556 net.cpp:100] Creating Layer conv4_1/proj
I0316 17:21:09.035419  5556 net.cpp:434] conv4_1/proj <- conv3_4_conv3_4_0_split_4
I0316 17:21:09.035424  5556 net.cpp:408] conv4_1/proj -> conv4_1/proj
I0316 17:21:09.035717  5556 net.cpp:150] Setting up conv4_1/proj
I0316 17:21:09.035723  5556 net.cpp:157] Top shape: 1 256 40 66 (675840)
I0316 17:21:09.035727  5556 net.cpp:165] Memory required for data: 688680984
I0316 17:21:09.035729  5556 layer_factory.hpp:77] Creating layer conv4_1
I0316 17:21:09.035734  5556 net.cpp:100] Creating Layer conv4_1
I0316 17:21:09.035737  5556 net.cpp:434] conv4_1 <- conv4_1/out
I0316 17:21:09.035739  5556 net.cpp:434] conv4_1 <- conv4_1/proj
I0316 17:21:09.035743  5556 net.cpp:408] conv4_1 -> conv4_1
I0316 17:21:09.035761  5556 net.cpp:150] Setting up conv4_1
I0316 17:21:09.035765  5556 net.cpp:157] Top shape: 1 256 40 66 (675840)
I0316 17:21:09.035768  5556 net.cpp:165] Memory required for data: 691384344
I0316 17:21:09.035770  5556 layer_factory.hpp:77] Creating layer conv4_1_conv4_1_0_split
I0316 17:21:09.035774  5556 net.cpp:100] Creating Layer conv4_1_conv4_1_0_split
I0316 17:21:09.035778  5556 net.cpp:434] conv4_1_conv4_1_0_split <- conv4_1
I0316 17:21:09.035781  5556 net.cpp:408] conv4_1_conv4_1_0_split -> conv4_1_conv4_1_0_split_0
I0316 17:21:09.035786  5556 net.cpp:408] conv4_1_conv4_1_0_split -> conv4_1_conv4_1_0_split_1
I0316 17:21:09.035790  5556 net.cpp:408] conv4_1_conv4_1_0_split -> conv4_1_conv4_1_0_split_2
I0316 17:21:09.035794  5556 net.cpp:408] conv4_1_conv4_1_0_split -> conv4_1_conv4_1_0_split_3
I0316 17:21:09.035835  5556 net.cpp:150] Setting up conv4_1_conv4_1_0_split
I0316 17:21:09.035840  5556 net.cpp:157] Top shape: 1 256 40 66 (675840)
I0316 17:21:09.035842  5556 net.cpp:157] Top shape: 1 256 40 66 (675840)
I0316 17:21:09.035845  5556 net.cpp:157] Top shape: 1 256 40 66 (675840)
I0316 17:21:09.035847  5556 net.cpp:157] Top shape: 1 256 40 66 (675840)
I0316 17:21:09.035850  5556 net.cpp:165] Memory required for data: 702197784
I0316 17:21:09.035851  5556 layer_factory.hpp:77] Creating layer conv4_2/incep/0/conv
I0316 17:21:09.035858  5556 net.cpp:100] Creating Layer conv4_2/incep/0/conv
I0316 17:21:09.035861  5556 net.cpp:434] conv4_2/incep/0/conv <- conv4_1_conv4_1_0_split_0
I0316 17:21:09.035866  5556 net.cpp:408] conv4_2/incep/0/conv -> conv4_2/incep/0
I0316 17:21:09.036087  5556 net.cpp:150] Setting up conv4_2/incep/0/conv
I0316 17:21:09.036093  5556 net.cpp:157] Top shape: 1 64 40 66 (168960)
I0316 17:21:09.036095  5556 net.cpp:165] Memory required for data: 702873624
I0316 17:21:09.036099  5556 layer_factory.hpp:77] Creating layer conv4_2/incep/0/relu
I0316 17:21:09.036106  5556 net.cpp:100] Creating Layer conv4_2/incep/0/relu
I0316 17:21:09.036108  5556 net.cpp:434] conv4_2/incep/0/relu <- conv4_2/incep/0
I0316 17:21:09.036113  5556 net.cpp:395] conv4_2/incep/0/relu -> conv4_2/incep/0 (in-place)
I0316 17:21:09.036233  5556 net.cpp:150] Setting up conv4_2/incep/0/relu
I0316 17:21:09.036239  5556 net.cpp:157] Top shape: 1 64 40 66 (168960)
I0316 17:21:09.036242  5556 net.cpp:165] Memory required for data: 703549464
I0316 17:21:09.036244  5556 layer_factory.hpp:77] Creating layer conv4_2/incep/1_reduce/conv
I0316 17:21:09.036250  5556 net.cpp:100] Creating Layer conv4_2/incep/1_reduce/conv
I0316 17:21:09.036252  5556 net.cpp:434] conv4_2/incep/1_reduce/conv <- conv4_1_conv4_1_0_split_1
I0316 17:21:09.036258  5556 net.cpp:408] conv4_2/incep/1_reduce/conv -> conv4_2/incep/1_reduce
I0316 17:21:09.036489  5556 net.cpp:150] Setting up conv4_2/incep/1_reduce/conv
I0316 17:21:09.036494  5556 net.cpp:157] Top shape: 1 64 40 66 (168960)
I0316 17:21:09.036496  5556 net.cpp:165] Memory required for data: 704225304
I0316 17:21:09.036500  5556 layer_factory.hpp:77] Creating layer conv4_2/incep/1_reduce/relu
I0316 17:21:09.036504  5556 net.cpp:100] Creating Layer conv4_2/incep/1_reduce/relu
I0316 17:21:09.036506  5556 net.cpp:434] conv4_2/incep/1_reduce/relu <- conv4_2/incep/1_reduce
I0316 17:21:09.036510  5556 net.cpp:395] conv4_2/incep/1_reduce/relu -> conv4_2/incep/1_reduce (in-place)
I0316 17:21:09.036716  5556 net.cpp:150] Setting up conv4_2/incep/1_reduce/relu
I0316 17:21:09.036725  5556 net.cpp:157] Top shape: 1 64 40 66 (168960)
I0316 17:21:09.036727  5556 net.cpp:165] Memory required for data: 704901144
I0316 17:21:09.036730  5556 layer_factory.hpp:77] Creating layer conv4_2/incep/1_0/conv
I0316 17:21:09.036736  5556 net.cpp:100] Creating Layer conv4_2/incep/1_0/conv
I0316 17:21:09.036739  5556 net.cpp:434] conv4_2/incep/1_0/conv <- conv4_2/incep/1_reduce
I0316 17:21:09.036744  5556 net.cpp:408] conv4_2/incep/1_0/conv -> conv4_2/incep/1_0
I0316 17:21:09.037824  5556 net.cpp:150] Setting up conv4_2/incep/1_0/conv
I0316 17:21:09.037833  5556 net.cpp:157] Top shape: 1 128 40 66 (337920)
I0316 17:21:09.037835  5556 net.cpp:165] Memory required for data: 706252824
I0316 17:21:09.037840  5556 layer_factory.hpp:77] Creating layer conv4_2/incep/1_0/relu
I0316 17:21:09.037845  5556 net.cpp:100] Creating Layer conv4_2/incep/1_0/relu
I0316 17:21:09.037848  5556 net.cpp:434] conv4_2/incep/1_0/relu <- conv4_2/incep/1_0
I0316 17:21:09.037852  5556 net.cpp:395] conv4_2/incep/1_0/relu -> conv4_2/incep/1_0 (in-place)
I0316 17:21:09.037969  5556 net.cpp:150] Setting up conv4_2/incep/1_0/relu
I0316 17:21:09.037976  5556 net.cpp:157] Top shape: 1 128 40 66 (337920)
I0316 17:21:09.037978  5556 net.cpp:165] Memory required for data: 707604504
I0316 17:21:09.037981  5556 layer_factory.hpp:77] Creating layer conv4_2/incep/2_reduce/conv
I0316 17:21:09.037986  5556 net.cpp:100] Creating Layer conv4_2/incep/2_reduce/conv
I0316 17:21:09.037989  5556 net.cpp:434] conv4_2/incep/2_reduce/conv <- conv4_1_conv4_1_0_split_2
I0316 17:21:09.037994  5556 net.cpp:408] conv4_2/incep/2_reduce/conv -> conv4_2/incep/2_reduce
I0316 17:21:09.038188  5556 net.cpp:150] Setting up conv4_2/incep/2_reduce/conv
I0316 17:21:09.038195  5556 net.cpp:157] Top shape: 1 24 40 66 (63360)
I0316 17:21:09.038197  5556 net.cpp:165] Memory required for data: 707857944
I0316 17:21:09.038202  5556 layer_factory.hpp:77] Creating layer conv4_2/incep/2_reduce/relu
I0316 17:21:09.038205  5556 net.cpp:100] Creating Layer conv4_2/incep/2_reduce/relu
I0316 17:21:09.038208  5556 net.cpp:434] conv4_2/incep/2_reduce/relu <- conv4_2/incep/2_reduce
I0316 17:21:09.038211  5556 net.cpp:395] conv4_2/incep/2_reduce/relu -> conv4_2/incep/2_reduce (in-place)
I0316 17:21:09.038421  5556 net.cpp:150] Setting up conv4_2/incep/2_reduce/relu
I0316 17:21:09.038429  5556 net.cpp:157] Top shape: 1 24 40 66 (63360)
I0316 17:21:09.038431  5556 net.cpp:165] Memory required for data: 708111384
I0316 17:21:09.038434  5556 layer_factory.hpp:77] Creating layer conv4_2/incep/2_0/conv
I0316 17:21:09.038444  5556 net.cpp:100] Creating Layer conv4_2/incep/2_0/conv
I0316 17:21:09.038446  5556 net.cpp:434] conv4_2/incep/2_0/conv <- conv4_2/incep/2_reduce
I0316 17:21:09.038451  5556 net.cpp:408] conv4_2/incep/2_0/conv -> conv4_2/incep/2_0
I0316 17:21:09.039189  5556 net.cpp:150] Setting up conv4_2/incep/2_0/conv
I0316 17:21:09.039198  5556 net.cpp:157] Top shape: 1 48 40 66 (126720)
I0316 17:21:09.039201  5556 net.cpp:165] Memory required for data: 708618264
I0316 17:21:09.039206  5556 layer_factory.hpp:77] Creating layer conv4_2/incep/2_0/relu
I0316 17:21:09.039211  5556 net.cpp:100] Creating Layer conv4_2/incep/2_0/relu
I0316 17:21:09.039213  5556 net.cpp:434] conv4_2/incep/2_0/relu <- conv4_2/incep/2_0
I0316 17:21:09.039216  5556 net.cpp:395] conv4_2/incep/2_0/relu -> conv4_2/incep/2_0 (in-place)
I0316 17:21:09.039337  5556 net.cpp:150] Setting up conv4_2/incep/2_0/relu
I0316 17:21:09.039343  5556 net.cpp:157] Top shape: 1 48 40 66 (126720)
I0316 17:21:09.039345  5556 net.cpp:165] Memory required for data: 709125144
I0316 17:21:09.039347  5556 layer_factory.hpp:77] Creating layer conv4_2/incep/2_1/conv
I0316 17:21:09.039355  5556 net.cpp:100] Creating Layer conv4_2/incep/2_1/conv
I0316 17:21:09.039356  5556 net.cpp:434] conv4_2/incep/2_1/conv <- conv4_2/incep/2_0
I0316 17:21:09.039362  5556 net.cpp:408] conv4_2/incep/2_1/conv -> conv4_2/incep/2_1
I0316 17:21:09.040148  5556 net.cpp:150] Setting up conv4_2/incep/2_1/conv
I0316 17:21:09.040158  5556 net.cpp:157] Top shape: 1 48 40 66 (126720)
I0316 17:21:09.040160  5556 net.cpp:165] Memory required for data: 709632024
I0316 17:21:09.040164  5556 layer_factory.hpp:77] Creating layer conv4_2/incep/2_1/relu
I0316 17:21:09.040169  5556 net.cpp:100] Creating Layer conv4_2/incep/2_1/relu
I0316 17:21:09.040171  5556 net.cpp:434] conv4_2/incep/2_1/relu <- conv4_2/incep/2_1
I0316 17:21:09.040176  5556 net.cpp:395] conv4_2/incep/2_1/relu -> conv4_2/incep/2_1 (in-place)
I0316 17:21:09.040383  5556 net.cpp:150] Setting up conv4_2/incep/2_1/relu
I0316 17:21:09.040391  5556 net.cpp:157] Top shape: 1 48 40 66 (126720)
I0316 17:21:09.040393  5556 net.cpp:165] Memory required for data: 710138904
I0316 17:21:09.040395  5556 layer_factory.hpp:77] Creating layer conv4_2/incep
I0316 17:21:09.040400  5556 net.cpp:100] Creating Layer conv4_2/incep
I0316 17:21:09.040402  5556 net.cpp:434] conv4_2/incep <- conv4_2/incep/0
I0316 17:21:09.040406  5556 net.cpp:434] conv4_2/incep <- conv4_2/incep/1_0
I0316 17:21:09.040408  5556 net.cpp:434] conv4_2/incep <- conv4_2/incep/2_1
I0316 17:21:09.040413  5556 net.cpp:408] conv4_2/incep -> conv4_2/incep
I0316 17:21:09.040434  5556 net.cpp:150] Setting up conv4_2/incep
I0316 17:21:09.040439  5556 net.cpp:157] Top shape: 1 240 40 66 (633600)
I0316 17:21:09.040441  5556 net.cpp:165] Memory required for data: 712673304
I0316 17:21:09.040443  5556 layer_factory.hpp:77] Creating layer conv4_2/out/conv
I0316 17:21:09.040451  5556 net.cpp:100] Creating Layer conv4_2/out/conv
I0316 17:21:09.040452  5556 net.cpp:434] conv4_2/out/conv <- conv4_2/incep
I0316 17:21:09.040457  5556 net.cpp:408] conv4_2/out/conv -> conv4_2/out
I0316 17:21:09.040858  5556 net.cpp:150] Setting up conv4_2/out/conv
I0316 17:21:09.040863  5556 net.cpp:157] Top shape: 1 256 40 66 (675840)
I0316 17:21:09.040865  5556 net.cpp:165] Memory required for data: 715376664
I0316 17:21:09.040869  5556 layer_factory.hpp:77] Creating layer conv4_2/input
I0316 17:21:09.040874  5556 net.cpp:100] Creating Layer conv4_2/input
I0316 17:21:09.040876  5556 net.cpp:434] conv4_2/input <- conv4_1_conv4_1_0_split_3
I0316 17:21:09.040881  5556 net.cpp:408] conv4_2/input -> conv4_2/input
I0316 17:21:09.040899  5556 net.cpp:150] Setting up conv4_2/input
I0316 17:21:09.040904  5556 net.cpp:157] Top shape: 1 256 40 66 (675840)
I0316 17:21:09.040906  5556 net.cpp:165] Memory required for data: 718080024
I0316 17:21:09.040908  5556 layer_factory.hpp:77] Creating layer conv4_2
I0316 17:21:09.040925  5556 net.cpp:100] Creating Layer conv4_2
I0316 17:21:09.040928  5556 net.cpp:434] conv4_2 <- conv4_2/out
I0316 17:21:09.040935  5556 net.cpp:434] conv4_2 <- conv4_2/input
I0316 17:21:09.040938  5556 net.cpp:408] conv4_2 -> conv4_2
I0316 17:21:09.040956  5556 net.cpp:150] Setting up conv4_2
I0316 17:21:09.040961  5556 net.cpp:157] Top shape: 1 256 40 66 (675840)
I0316 17:21:09.040963  5556 net.cpp:165] Memory required for data: 720783384
I0316 17:21:09.040966  5556 layer_factory.hpp:77] Creating layer conv4_2_conv4_2_0_split
I0316 17:21:09.040969  5556 net.cpp:100] Creating Layer conv4_2_conv4_2_0_split
I0316 17:21:09.040972  5556 net.cpp:434] conv4_2_conv4_2_0_split <- conv4_2
I0316 17:21:09.040976  5556 net.cpp:408] conv4_2_conv4_2_0_split -> conv4_2_conv4_2_0_split_0
I0316 17:21:09.040980  5556 net.cpp:408] conv4_2_conv4_2_0_split -> conv4_2_conv4_2_0_split_1
I0316 17:21:09.040984  5556 net.cpp:408] conv4_2_conv4_2_0_split -> conv4_2_conv4_2_0_split_2
I0316 17:21:09.040988  5556 net.cpp:408] conv4_2_conv4_2_0_split -> conv4_2_conv4_2_0_split_3
I0316 17:21:09.041028  5556 net.cpp:150] Setting up conv4_2_conv4_2_0_split
I0316 17:21:09.041033  5556 net.cpp:157] Top shape: 1 256 40 66 (675840)
I0316 17:21:09.041036  5556 net.cpp:157] Top shape: 1 256 40 66 (675840)
I0316 17:21:09.041039  5556 net.cpp:157] Top shape: 1 256 40 66 (675840)
I0316 17:21:09.041043  5556 net.cpp:157] Top shape: 1 256 40 66 (675840)
I0316 17:21:09.041044  5556 net.cpp:165] Memory required for data: 731596824
I0316 17:21:09.041046  5556 layer_factory.hpp:77] Creating layer conv4_3/incep/0/conv
I0316 17:21:09.041052  5556 net.cpp:100] Creating Layer conv4_3/incep/0/conv
I0316 17:21:09.041054  5556 net.cpp:434] conv4_3/incep/0/conv <- conv4_2_conv4_2_0_split_0
I0316 17:21:09.041059  5556 net.cpp:408] conv4_3/incep/0/conv -> conv4_3/incep/0
I0316 17:21:09.041285  5556 net.cpp:150] Setting up conv4_3/incep/0/conv
I0316 17:21:09.041291  5556 net.cpp:157] Top shape: 1 64 40 66 (168960)
I0316 17:21:09.041293  5556 net.cpp:165] Memory required for data: 732272664
I0316 17:21:09.041297  5556 layer_factory.hpp:77] Creating layer conv4_3/incep/0/relu
I0316 17:21:09.041301  5556 net.cpp:100] Creating Layer conv4_3/incep/0/relu
I0316 17:21:09.041303  5556 net.cpp:434] conv4_3/incep/0/relu <- conv4_3/incep/0
I0316 17:21:09.041307  5556 net.cpp:395] conv4_3/incep/0/relu -> conv4_3/incep/0 (in-place)
I0316 17:21:09.041426  5556 net.cpp:150] Setting up conv4_3/incep/0/relu
I0316 17:21:09.041432  5556 net.cpp:157] Top shape: 1 64 40 66 (168960)
I0316 17:21:09.041435  5556 net.cpp:165] Memory required for data: 732948504
I0316 17:21:09.041437  5556 layer_factory.hpp:77] Creating layer conv4_3/incep/1_reduce/conv
I0316 17:21:09.041443  5556 net.cpp:100] Creating Layer conv4_3/incep/1_reduce/conv
I0316 17:21:09.041446  5556 net.cpp:434] conv4_3/incep/1_reduce/conv <- conv4_2_conv4_2_0_split_1
I0316 17:21:09.041451  5556 net.cpp:408] conv4_3/incep/1_reduce/conv -> conv4_3/incep/1_reduce
I0316 17:21:09.041684  5556 net.cpp:150] Setting up conv4_3/incep/1_reduce/conv
I0316 17:21:09.041690  5556 net.cpp:157] Top shape: 1 64 40 66 (168960)
I0316 17:21:09.041692  5556 net.cpp:165] Memory required for data: 733624344
I0316 17:21:09.041697  5556 layer_factory.hpp:77] Creating layer conv4_3/incep/1_reduce/relu
I0316 17:21:09.041700  5556 net.cpp:100] Creating Layer conv4_3/incep/1_reduce/relu
I0316 17:21:09.041703  5556 net.cpp:434] conv4_3/incep/1_reduce/relu <- conv4_3/incep/1_reduce
I0316 17:21:09.041707  5556 net.cpp:395] conv4_3/incep/1_reduce/relu -> conv4_3/incep/1_reduce (in-place)
I0316 17:21:09.041919  5556 net.cpp:150] Setting up conv4_3/incep/1_reduce/relu
I0316 17:21:09.041927  5556 net.cpp:157] Top shape: 1 64 40 66 (168960)
I0316 17:21:09.041929  5556 net.cpp:165] Memory required for data: 734300184
I0316 17:21:09.041932  5556 layer_factory.hpp:77] Creating layer conv4_3/incep/1_0/conv
I0316 17:21:09.041939  5556 net.cpp:100] Creating Layer conv4_3/incep/1_0/conv
I0316 17:21:09.041941  5556 net.cpp:434] conv4_3/incep/1_0/conv <- conv4_3/incep/1_reduce
I0316 17:21:09.041949  5556 net.cpp:408] conv4_3/incep/1_0/conv -> conv4_3/incep/1_0
I0316 17:21:09.042848  5556 net.cpp:150] Setting up conv4_3/incep/1_0/conv
I0316 17:21:09.042857  5556 net.cpp:157] Top shape: 1 128 40 66 (337920)
I0316 17:21:09.042860  5556 net.cpp:165] Memory required for data: 735651864
I0316 17:21:09.042865  5556 layer_factory.hpp:77] Creating layer conv4_3/incep/1_0/relu
I0316 17:21:09.042870  5556 net.cpp:100] Creating Layer conv4_3/incep/1_0/relu
I0316 17:21:09.042871  5556 net.cpp:434] conv4_3/incep/1_0/relu <- conv4_3/incep/1_0
I0316 17:21:09.042876  5556 net.cpp:395] conv4_3/incep/1_0/relu -> conv4_3/incep/1_0 (in-place)
I0316 17:21:09.043087  5556 net.cpp:150] Setting up conv4_3/incep/1_0/relu
I0316 17:21:09.043094  5556 net.cpp:157] Top shape: 1 128 40 66 (337920)
I0316 17:21:09.043097  5556 net.cpp:165] Memory required for data: 737003544
I0316 17:21:09.043099  5556 layer_factory.hpp:77] Creating layer conv4_3/incep/2_reduce/conv
I0316 17:21:09.043107  5556 net.cpp:100] Creating Layer conv4_3/incep/2_reduce/conv
I0316 17:21:09.043109  5556 net.cpp:434] conv4_3/incep/2_reduce/conv <- conv4_2_conv4_2_0_split_2
I0316 17:21:09.043114  5556 net.cpp:408] conv4_3/incep/2_reduce/conv -> conv4_3/incep/2_reduce
I0316 17:21:09.043310  5556 net.cpp:150] Setting up conv4_3/incep/2_reduce/conv
I0316 17:21:09.043315  5556 net.cpp:157] Top shape: 1 24 40 66 (63360)
I0316 17:21:09.043318  5556 net.cpp:165] Memory required for data: 737256984
I0316 17:21:09.043323  5556 layer_factory.hpp:77] Creating layer conv4_3/incep/2_reduce/relu
I0316 17:21:09.043326  5556 net.cpp:100] Creating Layer conv4_3/incep/2_reduce/relu
I0316 17:21:09.043329  5556 net.cpp:434] conv4_3/incep/2_reduce/relu <- conv4_3/incep/2_reduce
I0316 17:21:09.043334  5556 net.cpp:395] conv4_3/incep/2_reduce/relu -> conv4_3/incep/2_reduce (in-place)
I0316 17:21:09.043454  5556 net.cpp:150] Setting up conv4_3/incep/2_reduce/relu
I0316 17:21:09.043462  5556 net.cpp:157] Top shape: 1 24 40 66 (63360)
I0316 17:21:09.043463  5556 net.cpp:165] Memory required for data: 737510424
I0316 17:21:09.043465  5556 layer_factory.hpp:77] Creating layer conv4_3/incep/2_0/conv
I0316 17:21:09.043472  5556 net.cpp:100] Creating Layer conv4_3/incep/2_0/conv
I0316 17:21:09.043474  5556 net.cpp:434] conv4_3/incep/2_0/conv <- conv4_3/incep/2_reduce
I0316 17:21:09.043479  5556 net.cpp:408] conv4_3/incep/2_0/conv -> conv4_3/incep/2_0
I0316 17:21:09.044236  5556 net.cpp:150] Setting up conv4_3/incep/2_0/conv
I0316 17:21:09.044245  5556 net.cpp:157] Top shape: 1 48 40 66 (126720)
I0316 17:21:09.044248  5556 net.cpp:165] Memory required for data: 738017304
I0316 17:21:09.044252  5556 layer_factory.hpp:77] Creating layer conv4_3/incep/2_0/relu
I0316 17:21:09.044257  5556 net.cpp:100] Creating Layer conv4_3/incep/2_0/relu
I0316 17:21:09.044260  5556 net.cpp:434] conv4_3/incep/2_0/relu <- conv4_3/incep/2_0
I0316 17:21:09.044265  5556 net.cpp:395] conv4_3/incep/2_0/relu -> conv4_3/incep/2_0 (in-place)
I0316 17:21:09.044479  5556 net.cpp:150] Setting up conv4_3/incep/2_0/relu
I0316 17:21:09.044486  5556 net.cpp:157] Top shape: 1 48 40 66 (126720)
I0316 17:21:09.044489  5556 net.cpp:165] Memory required for data: 738524184
I0316 17:21:09.044492  5556 layer_factory.hpp:77] Creating layer conv4_3/incep/2_1/conv
I0316 17:21:09.044498  5556 net.cpp:100] Creating Layer conv4_3/incep/2_1/conv
I0316 17:21:09.044502  5556 net.cpp:434] conv4_3/incep/2_1/conv <- conv4_3/incep/2_0
I0316 17:21:09.044507  5556 net.cpp:408] conv4_3/incep/2_1/conv -> conv4_3/incep/2_1
I0316 17:21:09.045398  5556 net.cpp:150] Setting up conv4_3/incep/2_1/conv
I0316 17:21:09.045408  5556 net.cpp:157] Top shape: 1 48 40 66 (126720)
I0316 17:21:09.045410  5556 net.cpp:165] Memory required for data: 739031064
I0316 17:21:09.045414  5556 layer_factory.hpp:77] Creating layer conv4_3/incep/2_1/relu
I0316 17:21:09.045419  5556 net.cpp:100] Creating Layer conv4_3/incep/2_1/relu
I0316 17:21:09.045423  5556 net.cpp:434] conv4_3/incep/2_1/relu <- conv4_3/incep/2_1
I0316 17:21:09.045425  5556 net.cpp:395] conv4_3/incep/2_1/relu -> conv4_3/incep/2_1 (in-place)
I0316 17:21:09.045548  5556 net.cpp:150] Setting up conv4_3/incep/2_1/relu
I0316 17:21:09.045557  5556 net.cpp:157] Top shape: 1 48 40 66 (126720)
I0316 17:21:09.045559  5556 net.cpp:165] Memory required for data: 739537944
I0316 17:21:09.045562  5556 layer_factory.hpp:77] Creating layer conv4_3/incep
I0316 17:21:09.045567  5556 net.cpp:100] Creating Layer conv4_3/incep
I0316 17:21:09.045568  5556 net.cpp:434] conv4_3/incep <- conv4_3/incep/0
I0316 17:21:09.045572  5556 net.cpp:434] conv4_3/incep <- conv4_3/incep/1_0
I0316 17:21:09.045575  5556 net.cpp:434] conv4_3/incep <- conv4_3/incep/2_1
I0316 17:21:09.045579  5556 net.cpp:408] conv4_3/incep -> conv4_3/incep
I0316 17:21:09.045601  5556 net.cpp:150] Setting up conv4_3/incep
I0316 17:21:09.045605  5556 net.cpp:157] Top shape: 1 240 40 66 (633600)
I0316 17:21:09.045608  5556 net.cpp:165] Memory required for data: 742072344
I0316 17:21:09.045609  5556 layer_factory.hpp:77] Creating layer conv4_3/out/conv
I0316 17:21:09.045616  5556 net.cpp:100] Creating Layer conv4_3/out/conv
I0316 17:21:09.045619  5556 net.cpp:434] conv4_3/out/conv <- conv4_3/incep
I0316 17:21:09.045624  5556 net.cpp:408] conv4_3/out/conv -> conv4_3/out
I0316 17:21:09.046293  5556 net.cpp:150] Setting up conv4_3/out/conv
I0316 17:21:09.046301  5556 net.cpp:157] Top shape: 1 256 40 66 (675840)
I0316 17:21:09.046304  5556 net.cpp:165] Memory required for data: 744775704
I0316 17:21:09.046308  5556 layer_factory.hpp:77] Creating layer conv4_3/input
I0316 17:21:09.046314  5556 net.cpp:100] Creating Layer conv4_3/input
I0316 17:21:09.046316  5556 net.cpp:434] conv4_3/input <- conv4_2_conv4_2_0_split_3
I0316 17:21:09.046320  5556 net.cpp:408] conv4_3/input -> conv4_3/input
I0316 17:21:09.046340  5556 net.cpp:150] Setting up conv4_3/input
I0316 17:21:09.046345  5556 net.cpp:157] Top shape: 1 256 40 66 (675840)
I0316 17:21:09.046347  5556 net.cpp:165] Memory required for data: 747479064
I0316 17:21:09.046350  5556 layer_factory.hpp:77] Creating layer conv4_3
I0316 17:21:09.046353  5556 net.cpp:100] Creating Layer conv4_3
I0316 17:21:09.046356  5556 net.cpp:434] conv4_3 <- conv4_3/out
I0316 17:21:09.046360  5556 net.cpp:434] conv4_3 <- conv4_3/input
I0316 17:21:09.046363  5556 net.cpp:408] conv4_3 -> conv4_3
I0316 17:21:09.046380  5556 net.cpp:150] Setting up conv4_3
I0316 17:21:09.046385  5556 net.cpp:157] Top shape: 1 256 40 66 (675840)
I0316 17:21:09.046386  5556 net.cpp:165] Memory required for data: 750182424
I0316 17:21:09.046388  5556 layer_factory.hpp:77] Creating layer conv4_3_conv4_3_0_split
I0316 17:21:09.046392  5556 net.cpp:100] Creating Layer conv4_3_conv4_3_0_split
I0316 17:21:09.046396  5556 net.cpp:434] conv4_3_conv4_3_0_split <- conv4_3
I0316 17:21:09.046399  5556 net.cpp:408] conv4_3_conv4_3_0_split -> conv4_3_conv4_3_0_split_0
I0316 17:21:09.046404  5556 net.cpp:408] conv4_3_conv4_3_0_split -> conv4_3_conv4_3_0_split_1
I0316 17:21:09.046408  5556 net.cpp:408] conv4_3_conv4_3_0_split -> conv4_3_conv4_3_0_split_2
I0316 17:21:09.046412  5556 net.cpp:408] conv4_3_conv4_3_0_split -> conv4_3_conv4_3_0_split_3
I0316 17:21:09.046455  5556 net.cpp:150] Setting up conv4_3_conv4_3_0_split
I0316 17:21:09.046459  5556 net.cpp:157] Top shape: 1 256 40 66 (675840)
I0316 17:21:09.046463  5556 net.cpp:157] Top shape: 1 256 40 66 (675840)
I0316 17:21:09.046464  5556 net.cpp:157] Top shape: 1 256 40 66 (675840)
I0316 17:21:09.046468  5556 net.cpp:157] Top shape: 1 256 40 66 (675840)
I0316 17:21:09.046469  5556 net.cpp:165] Memory required for data: 760995864
I0316 17:21:09.046471  5556 layer_factory.hpp:77] Creating layer conv4_4/incep/0/conv
I0316 17:21:09.046478  5556 net.cpp:100] Creating Layer conv4_4/incep/0/conv
I0316 17:21:09.046481  5556 net.cpp:434] conv4_4/incep/0/conv <- conv4_3_conv4_3_0_split_0
I0316 17:21:09.046485  5556 net.cpp:408] conv4_4/incep/0/conv -> conv4_4/incep/0
I0316 17:21:09.046712  5556 net.cpp:150] Setting up conv4_4/incep/0/conv
I0316 17:21:09.046718  5556 net.cpp:157] Top shape: 1 64 40 66 (168960)
I0316 17:21:09.046720  5556 net.cpp:165] Memory required for data: 761671704
I0316 17:21:09.046725  5556 layer_factory.hpp:77] Creating layer conv4_4/incep/0/relu
I0316 17:21:09.046731  5556 net.cpp:100] Creating Layer conv4_4/incep/0/relu
I0316 17:21:09.046735  5556 net.cpp:434] conv4_4/incep/0/relu <- conv4_4/incep/0
I0316 17:21:09.046737  5556 net.cpp:395] conv4_4/incep/0/relu -> conv4_4/incep/0 (in-place)
I0316 17:21:09.046954  5556 net.cpp:150] Setting up conv4_4/incep/0/relu
I0316 17:21:09.046962  5556 net.cpp:157] Top shape: 1 64 40 66 (168960)
I0316 17:21:09.046964  5556 net.cpp:165] Memory required for data: 762347544
I0316 17:21:09.046967  5556 layer_factory.hpp:77] Creating layer conv4_4/incep/1_reduce/conv
I0316 17:21:09.046974  5556 net.cpp:100] Creating Layer conv4_4/incep/1_reduce/conv
I0316 17:21:09.046977  5556 net.cpp:434] conv4_4/incep/1_reduce/conv <- conv4_3_conv4_3_0_split_1
I0316 17:21:09.046983  5556 net.cpp:408] conv4_4/incep/1_reduce/conv -> conv4_4/incep/1_reduce
I0316 17:21:09.047224  5556 net.cpp:150] Setting up conv4_4/incep/1_reduce/conv
I0316 17:21:09.047230  5556 net.cpp:157] Top shape: 1 64 40 66 (168960)
I0316 17:21:09.047231  5556 net.cpp:165] Memory required for data: 763023384
I0316 17:21:09.047235  5556 layer_factory.hpp:77] Creating layer conv4_4/incep/1_reduce/relu
I0316 17:21:09.047240  5556 net.cpp:100] Creating Layer conv4_4/incep/1_reduce/relu
I0316 17:21:09.047242  5556 net.cpp:434] conv4_4/incep/1_reduce/relu <- conv4_4/incep/1_reduce
I0316 17:21:09.047246  5556 net.cpp:395] conv4_4/incep/1_reduce/relu -> conv4_4/incep/1_reduce (in-place)
I0316 17:21:09.047369  5556 net.cpp:150] Setting up conv4_4/incep/1_reduce/relu
I0316 17:21:09.047375  5556 net.cpp:157] Top shape: 1 64 40 66 (168960)
I0316 17:21:09.047379  5556 net.cpp:165] Memory required for data: 763699224
I0316 17:21:09.047380  5556 layer_factory.hpp:77] Creating layer conv4_4/incep/1_0/conv
I0316 17:21:09.047386  5556 net.cpp:100] Creating Layer conv4_4/incep/1_0/conv
I0316 17:21:09.047389  5556 net.cpp:434] conv4_4/incep/1_0/conv <- conv4_4/incep/1_reduce
I0316 17:21:09.047394  5556 net.cpp:408] conv4_4/incep/1_0/conv -> conv4_4/incep/1_0
I0316 17:21:09.048403  5556 net.cpp:150] Setting up conv4_4/incep/1_0/conv
I0316 17:21:09.048411  5556 net.cpp:157] Top shape: 1 128 40 66 (337920)
I0316 17:21:09.048414  5556 net.cpp:165] Memory required for data: 765050904
I0316 17:21:09.048418  5556 layer_factory.hpp:77] Creating layer conv4_4/incep/1_0/relu
I0316 17:21:09.048424  5556 net.cpp:100] Creating Layer conv4_4/incep/1_0/relu
I0316 17:21:09.048426  5556 net.cpp:434] conv4_4/incep/1_0/relu <- conv4_4/incep/1_0
I0316 17:21:09.048430  5556 net.cpp:395] conv4_4/incep/1_0/relu -> conv4_4/incep/1_0 (in-place)
I0316 17:21:09.048643  5556 net.cpp:150] Setting up conv4_4/incep/1_0/relu
I0316 17:21:09.048651  5556 net.cpp:157] Top shape: 1 128 40 66 (337920)
I0316 17:21:09.048653  5556 net.cpp:165] Memory required for data: 766402584
I0316 17:21:09.048655  5556 layer_factory.hpp:77] Creating layer conv4_4/incep/2_reduce/conv
I0316 17:21:09.048662  5556 net.cpp:100] Creating Layer conv4_4/incep/2_reduce/conv
I0316 17:21:09.048666  5556 net.cpp:434] conv4_4/incep/2_reduce/conv <- conv4_3_conv4_3_0_split_2
I0316 17:21:09.048671  5556 net.cpp:408] conv4_4/incep/2_reduce/conv -> conv4_4/incep/2_reduce
I0316 17:21:09.048876  5556 net.cpp:150] Setting up conv4_4/incep/2_reduce/conv
I0316 17:21:09.048882  5556 net.cpp:157] Top shape: 1 24 40 66 (63360)
I0316 17:21:09.048883  5556 net.cpp:165] Memory required for data: 766656024
I0316 17:21:09.048887  5556 layer_factory.hpp:77] Creating layer conv4_4/incep/2_reduce/relu
I0316 17:21:09.048892  5556 net.cpp:100] Creating Layer conv4_4/incep/2_reduce/relu
I0316 17:21:09.048894  5556 net.cpp:434] conv4_4/incep/2_reduce/relu <- conv4_4/incep/2_reduce
I0316 17:21:09.048897  5556 net.cpp:395] conv4_4/incep/2_reduce/relu -> conv4_4/incep/2_reduce (in-place)
I0316 17:21:09.049021  5556 net.cpp:150] Setting up conv4_4/incep/2_reduce/relu
I0316 17:21:09.049026  5556 net.cpp:157] Top shape: 1 24 40 66 (63360)
I0316 17:21:09.049028  5556 net.cpp:165] Memory required for data: 766909464
I0316 17:21:09.049031  5556 layer_factory.hpp:77] Creating layer conv4_4/incep/2_0/conv
I0316 17:21:09.049041  5556 net.cpp:100] Creating Layer conv4_4/incep/2_0/conv
I0316 17:21:09.049043  5556 net.cpp:434] conv4_4/incep/2_0/conv <- conv4_4/incep/2_reduce
I0316 17:21:09.049048  5556 net.cpp:408] conv4_4/incep/2_0/conv -> conv4_4/incep/2_0
I0316 17:21:09.049813  5556 net.cpp:150] Setting up conv4_4/incep/2_0/conv
I0316 17:21:09.049823  5556 net.cpp:157] Top shape: 1 48 40 66 (126720)
I0316 17:21:09.049824  5556 net.cpp:165] Memory required for data: 767416344
I0316 17:21:09.049829  5556 layer_factory.hpp:77] Creating layer conv4_4/incep/2_0/relu
I0316 17:21:09.049834  5556 net.cpp:100] Creating Layer conv4_4/incep/2_0/relu
I0316 17:21:09.049836  5556 net.cpp:434] conv4_4/incep/2_0/relu <- conv4_4/incep/2_0
I0316 17:21:09.049840  5556 net.cpp:395] conv4_4/incep/2_0/relu -> conv4_4/incep/2_0 (in-place)
I0316 17:21:09.049962  5556 net.cpp:150] Setting up conv4_4/incep/2_0/relu
I0316 17:21:09.049968  5556 net.cpp:157] Top shape: 1 48 40 66 (126720)
I0316 17:21:09.049970  5556 net.cpp:165] Memory required for data: 767923224
I0316 17:21:09.049973  5556 layer_factory.hpp:77] Creating layer conv4_4/incep/2_1/conv
I0316 17:21:09.049979  5556 net.cpp:100] Creating Layer conv4_4/incep/2_1/conv
I0316 17:21:09.049983  5556 net.cpp:434] conv4_4/incep/2_1/conv <- conv4_4/incep/2_0
I0316 17:21:09.049988  5556 net.cpp:408] conv4_4/incep/2_1/conv -> conv4_4/incep/2_1
I0316 17:21:09.050792  5556 net.cpp:150] Setting up conv4_4/incep/2_1/conv
I0316 17:21:09.050801  5556 net.cpp:157] Top shape: 1 48 40 66 (126720)
I0316 17:21:09.050803  5556 net.cpp:165] Memory required for data: 768430104
I0316 17:21:09.050807  5556 layer_factory.hpp:77] Creating layer conv4_4/incep/2_1/relu
I0316 17:21:09.050812  5556 net.cpp:100] Creating Layer conv4_4/incep/2_1/relu
I0316 17:21:09.050814  5556 net.cpp:434] conv4_4/incep/2_1/relu <- conv4_4/incep/2_1
I0316 17:21:09.050818  5556 net.cpp:395] conv4_4/incep/2_1/relu -> conv4_4/incep/2_1 (in-place)
I0316 17:21:09.051033  5556 net.cpp:150] Setting up conv4_4/incep/2_1/relu
I0316 17:21:09.051040  5556 net.cpp:157] Top shape: 1 48 40 66 (126720)
I0316 17:21:09.051043  5556 net.cpp:165] Memory required for data: 768936984
I0316 17:21:09.051045  5556 layer_factory.hpp:77] Creating layer conv4_4/incep
I0316 17:21:09.051050  5556 net.cpp:100] Creating Layer conv4_4/incep
I0316 17:21:09.051054  5556 net.cpp:434] conv4_4/incep <- conv4_4/incep/0
I0316 17:21:09.051056  5556 net.cpp:434] conv4_4/incep <- conv4_4/incep/1_0
I0316 17:21:09.051059  5556 net.cpp:434] conv4_4/incep <- conv4_4/incep/2_1
I0316 17:21:09.051064  5556 net.cpp:408] conv4_4/incep -> conv4_4/incep
I0316 17:21:09.051085  5556 net.cpp:150] Setting up conv4_4/incep
I0316 17:21:09.051090  5556 net.cpp:157] Top shape: 1 240 40 66 (633600)
I0316 17:21:09.051092  5556 net.cpp:165] Memory required for data: 771471384
I0316 17:21:09.051095  5556 layer_factory.hpp:77] Creating layer conv4_4/out/conv
I0316 17:21:09.051100  5556 net.cpp:100] Creating Layer conv4_4/out/conv
I0316 17:21:09.051103  5556 net.cpp:434] conv4_4/out/conv <- conv4_4/incep
I0316 17:21:09.051108  5556 net.cpp:408] conv4_4/out/conv -> conv4_4/out
I0316 17:21:09.051513  5556 net.cpp:150] Setting up conv4_4/out/conv
I0316 17:21:09.051518  5556 net.cpp:157] Top shape: 1 256 40 66 (675840)
I0316 17:21:09.051522  5556 net.cpp:165] Memory required for data: 774174744
I0316 17:21:09.051525  5556 layer_factory.hpp:77] Creating layer conv4_4/input
I0316 17:21:09.051529  5556 net.cpp:100] Creating Layer conv4_4/input
I0316 17:21:09.051532  5556 net.cpp:434] conv4_4/input <- conv4_3_conv4_3_0_split_3
I0316 17:21:09.051535  5556 net.cpp:408] conv4_4/input -> conv4_4/input
I0316 17:21:09.051555  5556 net.cpp:150] Setting up conv4_4/input
I0316 17:21:09.051560  5556 net.cpp:157] Top shape: 1 256 40 66 (675840)
I0316 17:21:09.051563  5556 net.cpp:165] Memory required for data: 776878104
I0316 17:21:09.051564  5556 layer_factory.hpp:77] Creating layer conv4_4
I0316 17:21:09.051568  5556 net.cpp:100] Creating Layer conv4_4
I0316 17:21:09.051571  5556 net.cpp:434] conv4_4 <- conv4_4/out
I0316 17:21:09.051580  5556 net.cpp:434] conv4_4 <- conv4_4/input
I0316 17:21:09.051585  5556 net.cpp:408] conv4_4 -> conv4_4
I0316 17:21:09.051604  5556 net.cpp:150] Setting up conv4_4
I0316 17:21:09.051609  5556 net.cpp:157] Top shape: 1 256 40 66 (675840)
I0316 17:21:09.051611  5556 net.cpp:165] Memory required for data: 779581464
I0316 17:21:09.051614  5556 layer_factory.hpp:77] Creating layer conv4_4_conv4_4_0_split
I0316 17:21:09.051618  5556 net.cpp:100] Creating Layer conv4_4_conv4_4_0_split
I0316 17:21:09.051620  5556 net.cpp:434] conv4_4_conv4_4_0_split <- conv4_4
I0316 17:21:09.051625  5556 net.cpp:408] conv4_4_conv4_4_0_split -> conv4_4_conv4_4_0_split_0
I0316 17:21:09.051630  5556 net.cpp:408] conv4_4_conv4_4_0_split -> conv4_4_conv4_4_0_split_1
I0316 17:21:09.051635  5556 net.cpp:408] conv4_4_conv4_4_0_split -> conv4_4_conv4_4_0_split_2
I0316 17:21:09.051638  5556 net.cpp:408] conv4_4_conv4_4_0_split -> conv4_4_conv4_4_0_split_3
I0316 17:21:09.051643  5556 net.cpp:408] conv4_4_conv4_4_0_split -> conv4_4_conv4_4_0_split_4
I0316 17:21:09.051647  5556 net.cpp:408] conv4_4_conv4_4_0_split -> conv4_4_conv4_4_0_split_5
I0316 17:21:09.051707  5556 net.cpp:150] Setting up conv4_4_conv4_4_0_split
I0316 17:21:09.051710  5556 net.cpp:157] Top shape: 1 256 40 66 (675840)
I0316 17:21:09.051713  5556 net.cpp:157] Top shape: 1 256 40 66 (675840)
I0316 17:21:09.051717  5556 net.cpp:157] Top shape: 1 256 40 66 (675840)
I0316 17:21:09.051719  5556 net.cpp:157] Top shape: 1 256 40 66 (675840)
I0316 17:21:09.051722  5556 net.cpp:157] Top shape: 1 256 40 66 (675840)
I0316 17:21:09.051724  5556 net.cpp:157] Top shape: 1 256 40 66 (675840)
I0316 17:21:09.051726  5556 net.cpp:165] Memory required for data: 795801624
I0316 17:21:09.051728  5556 layer_factory.hpp:77] Creating layer conv5_1/incep/0/conv
I0316 17:21:09.051734  5556 net.cpp:100] Creating Layer conv5_1/incep/0/conv
I0316 17:21:09.051738  5556 net.cpp:434] conv5_1/incep/0/conv <- conv4_4_conv4_4_0_split_0
I0316 17:21:09.051743  5556 net.cpp:408] conv5_1/incep/0/conv -> conv5_1/incep/0
I0316 17:21:09.051969  5556 net.cpp:150] Setting up conv5_1/incep/0/conv
I0316 17:21:09.051975  5556 net.cpp:157] Top shape: 1 64 20 33 (42240)
I0316 17:21:09.051976  5556 net.cpp:165] Memory required for data: 795970584
I0316 17:21:09.051980  5556 layer_factory.hpp:77] Creating layer conv5_1/incep/0/relu
I0316 17:21:09.051985  5556 net.cpp:100] Creating Layer conv5_1/incep/0/relu
I0316 17:21:09.051987  5556 net.cpp:434] conv5_1/incep/0/relu <- conv5_1/incep/0
I0316 17:21:09.051991  5556 net.cpp:395] conv5_1/incep/0/relu -> conv5_1/incep/0 (in-place)
I0316 17:21:09.052114  5556 net.cpp:150] Setting up conv5_1/incep/0/relu
I0316 17:21:09.052120  5556 net.cpp:157] Top shape: 1 64 20 33 (42240)
I0316 17:21:09.052122  5556 net.cpp:165] Memory required for data: 796139544
I0316 17:21:09.052124  5556 layer_factory.hpp:77] Creating layer conv5_1/incep/1_reduce/conv
I0316 17:21:09.052131  5556 net.cpp:100] Creating Layer conv5_1/incep/1_reduce/conv
I0316 17:21:09.052134  5556 net.cpp:434] conv5_1/incep/1_reduce/conv <- conv4_4_conv4_4_0_split_1
I0316 17:21:09.052139  5556 net.cpp:408] conv5_1/incep/1_reduce/conv -> conv5_1/incep/1_reduce
I0316 17:21:09.052408  5556 net.cpp:150] Setting up conv5_1/incep/1_reduce/conv
I0316 17:21:09.052414  5556 net.cpp:157] Top shape: 1 96 20 33 (63360)
I0316 17:21:09.052417  5556 net.cpp:165] Memory required for data: 796392984
I0316 17:21:09.052420  5556 layer_factory.hpp:77] Creating layer conv5_1/incep/1_reduce/relu
I0316 17:21:09.052424  5556 net.cpp:100] Creating Layer conv5_1/incep/1_reduce/relu
I0316 17:21:09.052428  5556 net.cpp:434] conv5_1/incep/1_reduce/relu <- conv5_1/incep/1_reduce
I0316 17:21:09.052431  5556 net.cpp:395] conv5_1/incep/1_reduce/relu -> conv5_1/incep/1_reduce (in-place)
I0316 17:21:09.052649  5556 net.cpp:150] Setting up conv5_1/incep/1_reduce/relu
I0316 17:21:09.052657  5556 net.cpp:157] Top shape: 1 96 20 33 (63360)
I0316 17:21:09.052659  5556 net.cpp:165] Memory required for data: 796646424
I0316 17:21:09.052664  5556 layer_factory.hpp:77] Creating layer conv5_1/incep/1_0/conv
I0316 17:21:09.052671  5556 net.cpp:100] Creating Layer conv5_1/incep/1_0/conv
I0316 17:21:09.052675  5556 net.cpp:434] conv5_1/incep/1_0/conv <- conv5_1/incep/1_reduce
I0316 17:21:09.052680  5556 net.cpp:408] conv5_1/incep/1_0/conv -> conv5_1/incep/1_0
I0316 17:21:09.054294  5556 net.cpp:150] Setting up conv5_1/incep/1_0/conv
I0316 17:21:09.054302  5556 net.cpp:157] Top shape: 1 192 20 33 (126720)
I0316 17:21:09.054306  5556 net.cpp:165] Memory required for data: 797153304
I0316 17:21:09.054321  5556 layer_factory.hpp:77] Creating layer conv5_1/incep/1_0/relu
I0316 17:21:09.054325  5556 net.cpp:100] Creating Layer conv5_1/incep/1_0/relu
I0316 17:21:09.054328  5556 net.cpp:434] conv5_1/incep/1_0/relu <- conv5_1/incep/1_0
I0316 17:21:09.054332  5556 net.cpp:395] conv5_1/incep/1_0/relu -> conv5_1/incep/1_0 (in-place)
I0316 17:21:09.054456  5556 net.cpp:150] Setting up conv5_1/incep/1_0/relu
I0316 17:21:09.054463  5556 net.cpp:157] Top shape: 1 192 20 33 (126720)
I0316 17:21:09.054466  5556 net.cpp:165] Memory required for data: 797660184
I0316 17:21:09.054468  5556 layer_factory.hpp:77] Creating layer conv5_1/incep/2_reduce/conv
I0316 17:21:09.054474  5556 net.cpp:100] Creating Layer conv5_1/incep/2_reduce/conv
I0316 17:21:09.054477  5556 net.cpp:434] conv5_1/incep/2_reduce/conv <- conv4_4_conv4_4_0_split_2
I0316 17:21:09.054482  5556 net.cpp:408] conv5_1/incep/2_reduce/conv -> conv5_1/incep/2_reduce
I0316 17:21:09.054949  5556 net.cpp:150] Setting up conv5_1/incep/2_reduce/conv
I0316 17:21:09.054957  5556 net.cpp:157] Top shape: 1 32 20 33 (21120)
I0316 17:21:09.054960  5556 net.cpp:165] Memory required for data: 797744664
I0316 17:21:09.054965  5556 layer_factory.hpp:77] Creating layer conv5_1/incep/2_reduce/relu
I0316 17:21:09.054968  5556 net.cpp:100] Creating Layer conv5_1/incep/2_reduce/relu
I0316 17:21:09.054971  5556 net.cpp:434] conv5_1/incep/2_reduce/relu <- conv5_1/incep/2_reduce
I0316 17:21:09.054975  5556 net.cpp:395] conv5_1/incep/2_reduce/relu -> conv5_1/incep/2_reduce (in-place)
I0316 17:21:09.055197  5556 net.cpp:150] Setting up conv5_1/incep/2_reduce/relu
I0316 17:21:09.055205  5556 net.cpp:157] Top shape: 1 32 20 33 (21120)
I0316 17:21:09.055207  5556 net.cpp:165] Memory required for data: 797829144
I0316 17:21:09.055210  5556 layer_factory.hpp:77] Creating layer conv5_1/incep/2_0/conv
I0316 17:21:09.055217  5556 net.cpp:100] Creating Layer conv5_1/incep/2_0/conv
I0316 17:21:09.055220  5556 net.cpp:434] conv5_1/incep/2_0/conv <- conv5_1/incep/2_reduce
I0316 17:21:09.055225  5556 net.cpp:408] conv5_1/incep/2_0/conv -> conv5_1/incep/2_0
I0316 17:21:09.056032  5556 net.cpp:150] Setting up conv5_1/incep/2_0/conv
I0316 17:21:09.056042  5556 net.cpp:157] Top shape: 1 64 20 33 (42240)
I0316 17:21:09.056044  5556 net.cpp:165] Memory required for data: 797998104
I0316 17:21:09.056049  5556 layer_factory.hpp:77] Creating layer conv5_1/incep/2_0/relu
I0316 17:21:09.056053  5556 net.cpp:100] Creating Layer conv5_1/incep/2_0/relu
I0316 17:21:09.056056  5556 net.cpp:434] conv5_1/incep/2_0/relu <- conv5_1/incep/2_0
I0316 17:21:09.056059  5556 net.cpp:395] conv5_1/incep/2_0/relu -> conv5_1/incep/2_0 (in-place)
I0316 17:21:09.056273  5556 net.cpp:150] Setting up conv5_1/incep/2_0/relu
I0316 17:21:09.056282  5556 net.cpp:157] Top shape: 1 64 20 33 (42240)
I0316 17:21:09.056283  5556 net.cpp:165] Memory required for data: 798167064
I0316 17:21:09.056285  5556 layer_factory.hpp:77] Creating layer conv5_1/incep/2_1/conv
I0316 17:21:09.056293  5556 net.cpp:100] Creating Layer conv5_1/incep/2_1/conv
I0316 17:21:09.056295  5556 net.cpp:434] conv5_1/incep/2_1/conv <- conv5_1/incep/2_0
I0316 17:21:09.056301  5556 net.cpp:408] conv5_1/incep/2_1/conv -> conv5_1/incep/2_1
I0316 17:21:09.057169  5556 net.cpp:150] Setting up conv5_1/incep/2_1/conv
I0316 17:21:09.057178  5556 net.cpp:157] Top shape: 1 64 20 33 (42240)
I0316 17:21:09.057180  5556 net.cpp:165] Memory required for data: 798336024
I0316 17:21:09.057185  5556 layer_factory.hpp:77] Creating layer conv5_1/incep/2_1/relu
I0316 17:21:09.057193  5556 net.cpp:100] Creating Layer conv5_1/incep/2_1/relu
I0316 17:21:09.057195  5556 net.cpp:434] conv5_1/incep/2_1/relu <- conv5_1/incep/2_1
I0316 17:21:09.057199  5556 net.cpp:395] conv5_1/incep/2_1/relu -> conv5_1/incep/2_1 (in-place)
I0316 17:21:09.057322  5556 net.cpp:150] Setting up conv5_1/incep/2_1/relu
I0316 17:21:09.057328  5556 net.cpp:157] Top shape: 1 64 20 33 (42240)
I0316 17:21:09.057330  5556 net.cpp:165] Memory required for data: 798504984
I0316 17:21:09.057332  5556 layer_factory.hpp:77] Creating layer conv5_1/incep/pool
I0316 17:21:09.057337  5556 net.cpp:100] Creating Layer conv5_1/incep/pool
I0316 17:21:09.057340  5556 net.cpp:434] conv5_1/incep/pool <- conv4_4_conv4_4_0_split_3
I0316 17:21:09.057344  5556 net.cpp:408] conv5_1/incep/pool -> conv5_1/incep/pool
I0316 17:21:09.057379  5556 net.cpp:150] Setting up conv5_1/incep/pool
I0316 17:21:09.057384  5556 net.cpp:157] Top shape: 1 256 20 33 (168960)
I0316 17:21:09.057387  5556 net.cpp:165] Memory required for data: 799180824
I0316 17:21:09.057389  5556 layer_factory.hpp:77] Creating layer conv5_1/incep/poolproj/conv
I0316 17:21:09.057395  5556 net.cpp:100] Creating Layer conv5_1/incep/poolproj/conv
I0316 17:21:09.057399  5556 net.cpp:434] conv5_1/incep/poolproj/conv <- conv5_1/incep/pool
I0316 17:21:09.057402  5556 net.cpp:408] conv5_1/incep/poolproj/conv -> conv5_1/incep/poolproj
I0316 17:21:09.057716  5556 net.cpp:150] Setting up conv5_1/incep/poolproj/conv
I0316 17:21:09.057723  5556 net.cpp:157] Top shape: 1 128 20 33 (84480)
I0316 17:21:09.057725  5556 net.cpp:165] Memory required for data: 799518744
I0316 17:21:09.057729  5556 layer_factory.hpp:77] Creating layer conv5_1/incep/poolproj/relu
I0316 17:21:09.057734  5556 net.cpp:100] Creating Layer conv5_1/incep/poolproj/relu
I0316 17:21:09.057737  5556 net.cpp:434] conv5_1/incep/poolproj/relu <- conv5_1/incep/poolproj
I0316 17:21:09.057740  5556 net.cpp:395] conv5_1/incep/poolproj/relu -> conv5_1/incep/poolproj (in-place)
I0316 17:21:09.057960  5556 net.cpp:150] Setting up conv5_1/incep/poolproj/relu
I0316 17:21:09.057968  5556 net.cpp:157] Top shape: 1 128 20 33 (84480)
I0316 17:21:09.057971  5556 net.cpp:165] Memory required for data: 799856664
I0316 17:21:09.057973  5556 layer_factory.hpp:77] Creating layer conv5_1/incep
I0316 17:21:09.057977  5556 net.cpp:100] Creating Layer conv5_1/incep
I0316 17:21:09.057981  5556 net.cpp:434] conv5_1/incep <- conv5_1/incep/0
I0316 17:21:09.057984  5556 net.cpp:434] conv5_1/incep <- conv5_1/incep/1_0
I0316 17:21:09.057987  5556 net.cpp:434] conv5_1/incep <- conv5_1/incep/2_1
I0316 17:21:09.057991  5556 net.cpp:434] conv5_1/incep <- conv5_1/incep/poolproj
I0316 17:21:09.057994  5556 net.cpp:408] conv5_1/incep -> conv5_1/incep
I0316 17:21:09.058017  5556 net.cpp:150] Setting up conv5_1/incep
I0316 17:21:09.058022  5556 net.cpp:157] Top shape: 1 448 20 33 (295680)
I0316 17:21:09.058024  5556 net.cpp:165] Memory required for data: 801039384
I0316 17:21:09.058027  5556 layer_factory.hpp:77] Creating layer conv5_1/out/conv
I0316 17:21:09.058032  5556 net.cpp:100] Creating Layer conv5_1/out/conv
I0316 17:21:09.058035  5556 net.cpp:434] conv5_1/out/conv <- conv5_1/incep
I0316 17:21:09.058039  5556 net.cpp:408] conv5_1/out/conv -> conv5_1/out
I0316 17:21:09.059126  5556 net.cpp:150] Setting up conv5_1/out/conv
I0316 17:21:09.059134  5556 net.cpp:157] Top shape: 1 384 20 33 (253440)
I0316 17:21:09.059137  5556 net.cpp:165] Memory required for data: 802053144
I0316 17:21:09.059141  5556 layer_factory.hpp:77] Creating layer conv5_1/proj
I0316 17:21:09.059149  5556 net.cpp:100] Creating Layer conv5_1/proj
I0316 17:21:09.059151  5556 net.cpp:434] conv5_1/proj <- conv4_4_conv4_4_0_split_4
I0316 17:21:09.059156  5556 net.cpp:408] conv5_1/proj -> conv5_1/proj
I0316 17:21:09.059970  5556 net.cpp:150] Setting up conv5_1/proj
I0316 17:21:09.059979  5556 net.cpp:157] Top shape: 1 384 20 33 (253440)
I0316 17:21:09.059981  5556 net.cpp:165] Memory required for data: 803066904
I0316 17:21:09.059985  5556 layer_factory.hpp:77] Creating layer conv5_1
I0316 17:21:09.059994  5556 net.cpp:100] Creating Layer conv5_1
I0316 17:21:09.059998  5556 net.cpp:434] conv5_1 <- conv5_1/out
I0316 17:21:09.060000  5556 net.cpp:434] conv5_1 <- conv5_1/proj
I0316 17:21:09.060004  5556 net.cpp:408] conv5_1 -> conv5_1
I0316 17:21:09.060024  5556 net.cpp:150] Setting up conv5_1
I0316 17:21:09.060029  5556 net.cpp:157] Top shape: 1 384 20 33 (253440)
I0316 17:21:09.060030  5556 net.cpp:165] Memory required for data: 804080664
I0316 17:21:09.060032  5556 layer_factory.hpp:77] Creating layer conv5_1_conv5_1_0_split
I0316 17:21:09.060036  5556 net.cpp:100] Creating Layer conv5_1_conv5_1_0_split
I0316 17:21:09.060039  5556 net.cpp:434] conv5_1_conv5_1_0_split <- conv5_1
I0316 17:21:09.060044  5556 net.cpp:408] conv5_1_conv5_1_0_split -> conv5_1_conv5_1_0_split_0
I0316 17:21:09.060048  5556 net.cpp:408] conv5_1_conv5_1_0_split -> conv5_1_conv5_1_0_split_1
I0316 17:21:09.060053  5556 net.cpp:408] conv5_1_conv5_1_0_split -> conv5_1_conv5_1_0_split_2
I0316 17:21:09.060057  5556 net.cpp:408] conv5_1_conv5_1_0_split -> conv5_1_conv5_1_0_split_3
I0316 17:21:09.060101  5556 net.cpp:150] Setting up conv5_1_conv5_1_0_split
I0316 17:21:09.060104  5556 net.cpp:157] Top shape: 1 384 20 33 (253440)
I0316 17:21:09.060107  5556 net.cpp:157] Top shape: 1 384 20 33 (253440)
I0316 17:21:09.060111  5556 net.cpp:157] Top shape: 1 384 20 33 (253440)
I0316 17:21:09.060113  5556 net.cpp:157] Top shape: 1 384 20 33 (253440)
I0316 17:21:09.060115  5556 net.cpp:165] Memory required for data: 808135704
I0316 17:21:09.060117  5556 layer_factory.hpp:77] Creating layer conv5_2/incep/0/conv
I0316 17:21:09.060123  5556 net.cpp:100] Creating Layer conv5_2/incep/0/conv
I0316 17:21:09.060127  5556 net.cpp:434] conv5_2/incep/0/conv <- conv5_1_conv5_1_0_split_0
I0316 17:21:09.060132  5556 net.cpp:408] conv5_2/incep/0/conv -> conv5_2/incep/0
I0316 17:21:09.060400  5556 net.cpp:150] Setting up conv5_2/incep/0/conv
I0316 17:21:09.060405  5556 net.cpp:157] Top shape: 1 64 20 33 (42240)
I0316 17:21:09.060407  5556 net.cpp:165] Memory required for data: 808304664
I0316 17:21:09.060411  5556 layer_factory.hpp:77] Creating layer conv5_2/incep/0/relu
I0316 17:21:09.060415  5556 net.cpp:100] Creating Layer conv5_2/incep/0/relu
I0316 17:21:09.060417  5556 net.cpp:434] conv5_2/incep/0/relu <- conv5_2/incep/0
I0316 17:21:09.060420  5556 net.cpp:395] conv5_2/incep/0/relu -> conv5_2/incep/0 (in-place)
I0316 17:21:09.060549  5556 net.cpp:150] Setting up conv5_2/incep/0/relu
I0316 17:21:09.060564  5556 net.cpp:157] Top shape: 1 64 20 33 (42240)
I0316 17:21:09.060566  5556 net.cpp:165] Memory required for data: 808473624
I0316 17:21:09.060570  5556 layer_factory.hpp:77] Creating layer conv5_2/incep/1_reduce/conv
I0316 17:21:09.060575  5556 net.cpp:100] Creating Layer conv5_2/incep/1_reduce/conv
I0316 17:21:09.060578  5556 net.cpp:434] conv5_2/incep/1_reduce/conv <- conv5_1_conv5_1_0_split_1
I0316 17:21:09.060583  5556 net.cpp:408] conv5_2/incep/1_reduce/conv -> conv5_2/incep/1_reduce
I0316 17:21:09.061166  5556 net.cpp:150] Setting up conv5_2/incep/1_reduce/conv
I0316 17:21:09.061174  5556 net.cpp:157] Top shape: 1 96 20 33 (63360)
I0316 17:21:09.061177  5556 net.cpp:165] Memory required for data: 808727064
I0316 17:21:09.061182  5556 layer_factory.hpp:77] Creating layer conv5_2/incep/1_reduce/relu
I0316 17:21:09.061187  5556 net.cpp:100] Creating Layer conv5_2/incep/1_reduce/relu
I0316 17:21:09.061188  5556 net.cpp:434] conv5_2/incep/1_reduce/relu <- conv5_2/incep/1_reduce
I0316 17:21:09.061192  5556 net.cpp:395] conv5_2/incep/1_reduce/relu -> conv5_2/incep/1_reduce (in-place)
I0316 17:21:09.061419  5556 net.cpp:150] Setting up conv5_2/incep/1_reduce/relu
I0316 17:21:09.061427  5556 net.cpp:157] Top shape: 1 96 20 33 (63360)
I0316 17:21:09.061429  5556 net.cpp:165] Memory required for data: 808980504
I0316 17:21:09.061432  5556 layer_factory.hpp:77] Creating layer conv5_2/incep/1_0/conv
I0316 17:21:09.061440  5556 net.cpp:100] Creating Layer conv5_2/incep/1_0/conv
I0316 17:21:09.061444  5556 net.cpp:434] conv5_2/incep/1_0/conv <- conv5_2/incep/1_reduce
I0316 17:21:09.061451  5556 net.cpp:408] conv5_2/incep/1_0/conv -> conv5_2/incep/1_0
I0316 17:21:09.063081  5556 net.cpp:150] Setting up conv5_2/incep/1_0/conv
I0316 17:21:09.063091  5556 net.cpp:157] Top shape: 1 192 20 33 (126720)
I0316 17:21:09.063093  5556 net.cpp:165] Memory required for data: 809487384
I0316 17:21:09.063097  5556 layer_factory.hpp:77] Creating layer conv5_2/incep/1_0/relu
I0316 17:21:09.063102  5556 net.cpp:100] Creating Layer conv5_2/incep/1_0/relu
I0316 17:21:09.063104  5556 net.cpp:434] conv5_2/incep/1_0/relu <- conv5_2/incep/1_0
I0316 17:21:09.063109  5556 net.cpp:395] conv5_2/incep/1_0/relu -> conv5_2/incep/1_0 (in-place)
I0316 17:21:09.063235  5556 net.cpp:150] Setting up conv5_2/incep/1_0/relu
I0316 17:21:09.063241  5556 net.cpp:157] Top shape: 1 192 20 33 (126720)
I0316 17:21:09.063244  5556 net.cpp:165] Memory required for data: 809994264
I0316 17:21:09.063246  5556 layer_factory.hpp:77] Creating layer conv5_2/incep/2_reduce/conv
I0316 17:21:09.063253  5556 net.cpp:100] Creating Layer conv5_2/incep/2_reduce/conv
I0316 17:21:09.063256  5556 net.cpp:434] conv5_2/incep/2_reduce/conv <- conv5_1_conv5_1_0_split_2
I0316 17:21:09.063261  5556 net.cpp:408] conv5_2/incep/2_reduce/conv -> conv5_2/incep/2_reduce
I0316 17:21:09.063494  5556 net.cpp:150] Setting up conv5_2/incep/2_reduce/conv
I0316 17:21:09.063500  5556 net.cpp:157] Top shape: 1 32 20 33 (21120)
I0316 17:21:09.063503  5556 net.cpp:165] Memory required for data: 810078744
I0316 17:21:09.063508  5556 layer_factory.hpp:77] Creating layer conv5_2/incep/2_reduce/relu
I0316 17:21:09.063511  5556 net.cpp:100] Creating Layer conv5_2/incep/2_reduce/relu
I0316 17:21:09.063514  5556 net.cpp:434] conv5_2/incep/2_reduce/relu <- conv5_2/incep/2_reduce
I0316 17:21:09.063519  5556 net.cpp:395] conv5_2/incep/2_reduce/relu -> conv5_2/incep/2_reduce (in-place)
I0316 17:21:09.063762  5556 net.cpp:150] Setting up conv5_2/incep/2_reduce/relu
I0316 17:21:09.063771  5556 net.cpp:157] Top shape: 1 32 20 33 (21120)
I0316 17:21:09.063772  5556 net.cpp:165] Memory required for data: 810163224
I0316 17:21:09.063776  5556 layer_factory.hpp:77] Creating layer conv5_2/incep/2_0/conv
I0316 17:21:09.063781  5556 net.cpp:100] Creating Layer conv5_2/incep/2_0/conv
I0316 17:21:09.063784  5556 net.cpp:434] conv5_2/incep/2_0/conv <- conv5_2/incep/2_reduce
I0316 17:21:09.063791  5556 net.cpp:408] conv5_2/incep/2_0/conv -> conv5_2/incep/2_0
I0316 17:21:09.064611  5556 net.cpp:150] Setting up conv5_2/incep/2_0/conv
I0316 17:21:09.064621  5556 net.cpp:157] Top shape: 1 64 20 33 (42240)
I0316 17:21:09.064625  5556 net.cpp:165] Memory required for data: 810332184
I0316 17:21:09.064628  5556 layer_factory.hpp:77] Creating layer conv5_2/incep/2_0/relu
I0316 17:21:09.064633  5556 net.cpp:100] Creating Layer conv5_2/incep/2_0/relu
I0316 17:21:09.064636  5556 net.cpp:434] conv5_2/incep/2_0/relu <- conv5_2/incep/2_0
I0316 17:21:09.064640  5556 net.cpp:395] conv5_2/incep/2_0/relu -> conv5_2/incep/2_0 (in-place)
I0316 17:21:09.064767  5556 net.cpp:150] Setting up conv5_2/incep/2_0/relu
I0316 17:21:09.064774  5556 net.cpp:157] Top shape: 1 64 20 33 (42240)
I0316 17:21:09.064775  5556 net.cpp:165] Memory required for data: 810501144
I0316 17:21:09.064779  5556 layer_factory.hpp:77] Creating layer conv5_2/incep/2_1/conv
I0316 17:21:09.064786  5556 net.cpp:100] Creating Layer conv5_2/incep/2_1/conv
I0316 17:21:09.064790  5556 net.cpp:434] conv5_2/incep/2_1/conv <- conv5_2/incep/2_0
I0316 17:21:09.064795  5556 net.cpp:408] conv5_2/incep/2_1/conv -> conv5_2/incep/2_1
I0316 17:21:09.065692  5556 net.cpp:150] Setting up conv5_2/incep/2_1/conv
I0316 17:21:09.065701  5556 net.cpp:157] Top shape: 1 64 20 33 (42240)
I0316 17:21:09.065704  5556 net.cpp:165] Memory required for data: 810670104
I0316 17:21:09.065708  5556 layer_factory.hpp:77] Creating layer conv5_2/incep/2_1/relu
I0316 17:21:09.065713  5556 net.cpp:100] Creating Layer conv5_2/incep/2_1/relu
I0316 17:21:09.065716  5556 net.cpp:434] conv5_2/incep/2_1/relu <- conv5_2/incep/2_1
I0316 17:21:09.065721  5556 net.cpp:395] conv5_2/incep/2_1/relu -> conv5_2/incep/2_1 (in-place)
I0316 17:21:09.065847  5556 net.cpp:150] Setting up conv5_2/incep/2_1/relu
I0316 17:21:09.065855  5556 net.cpp:157] Top shape: 1 64 20 33 (42240)
I0316 17:21:09.065857  5556 net.cpp:165] Memory required for data: 810839064
I0316 17:21:09.065860  5556 layer_factory.hpp:77] Creating layer conv5_2/incep
I0316 17:21:09.065865  5556 net.cpp:100] Creating Layer conv5_2/incep
I0316 17:21:09.065866  5556 net.cpp:434] conv5_2/incep <- conv5_2/incep/0
I0316 17:21:09.065871  5556 net.cpp:434] conv5_2/incep <- conv5_2/incep/1_0
I0316 17:21:09.065873  5556 net.cpp:434] conv5_2/incep <- conv5_2/incep/2_1
I0316 17:21:09.065876  5556 net.cpp:408] conv5_2/incep -> conv5_2/incep
I0316 17:21:09.065899  5556 net.cpp:150] Setting up conv5_2/incep
I0316 17:21:09.065904  5556 net.cpp:157] Top shape: 1 320 20 33 (211200)
I0316 17:21:09.065907  5556 net.cpp:165] Memory required for data: 811683864
I0316 17:21:09.065908  5556 layer_factory.hpp:77] Creating layer conv5_2/out/conv
I0316 17:21:09.065915  5556 net.cpp:100] Creating Layer conv5_2/out/conv
I0316 17:21:09.065917  5556 net.cpp:434] conv5_2/out/conv <- conv5_2/incep
I0316 17:21:09.065922  5556 net.cpp:408] conv5_2/out/conv -> conv5_2/out
I0316 17:21:09.066591  5556 net.cpp:150] Setting up conv5_2/out/conv
I0316 17:21:09.066597  5556 net.cpp:157] Top shape: 1 384 20 33 (253440)
I0316 17:21:09.066599  5556 net.cpp:165] Memory required for data: 812697624
I0316 17:21:09.066603  5556 layer_factory.hpp:77] Creating layer conv5_2/input
I0316 17:21:09.066608  5556 net.cpp:100] Creating Layer conv5_2/input
I0316 17:21:09.066612  5556 net.cpp:434] conv5_2/input <- conv5_1_conv5_1_0_split_3
I0316 17:21:09.066615  5556 net.cpp:408] conv5_2/input -> conv5_2/input
I0316 17:21:09.066635  5556 net.cpp:150] Setting up conv5_2/input
I0316 17:21:09.066639  5556 net.cpp:157] Top shape: 1 384 20 33 (253440)
I0316 17:21:09.066642  5556 net.cpp:165] Memory required for data: 813711384
I0316 17:21:09.066644  5556 layer_factory.hpp:77] Creating layer conv5_2
I0316 17:21:09.066648  5556 net.cpp:100] Creating Layer conv5_2
I0316 17:21:09.066650  5556 net.cpp:434] conv5_2 <- conv5_2/out
I0316 17:21:09.066653  5556 net.cpp:434] conv5_2 <- conv5_2/input
I0316 17:21:09.066658  5556 net.cpp:408] conv5_2 -> conv5_2
I0316 17:21:09.066675  5556 net.cpp:150] Setting up conv5_2
I0316 17:21:09.066679  5556 net.cpp:157] Top shape: 1 384 20 33 (253440)
I0316 17:21:09.066681  5556 net.cpp:165] Memory required for data: 814725144
I0316 17:21:09.066684  5556 layer_factory.hpp:77] Creating layer conv5_2_conv5_2_0_split
I0316 17:21:09.066689  5556 net.cpp:100] Creating Layer conv5_2_conv5_2_0_split
I0316 17:21:09.066690  5556 net.cpp:434] conv5_2_conv5_2_0_split <- conv5_2
I0316 17:21:09.066695  5556 net.cpp:408] conv5_2_conv5_2_0_split -> conv5_2_conv5_2_0_split_0
I0316 17:21:09.066699  5556 net.cpp:408] conv5_2_conv5_2_0_split -> conv5_2_conv5_2_0_split_1
I0316 17:21:09.066704  5556 net.cpp:408] conv5_2_conv5_2_0_split -> conv5_2_conv5_2_0_split_2
I0316 17:21:09.066707  5556 net.cpp:408] conv5_2_conv5_2_0_split -> conv5_2_conv5_2_0_split_3
I0316 17:21:09.066753  5556 net.cpp:150] Setting up conv5_2_conv5_2_0_split
I0316 17:21:09.066757  5556 net.cpp:157] Top shape: 1 384 20 33 (253440)
I0316 17:21:09.066761  5556 net.cpp:157] Top shape: 1 384 20 33 (253440)
I0316 17:21:09.066762  5556 net.cpp:157] Top shape: 1 384 20 33 (253440)
I0316 17:21:09.066766  5556 net.cpp:157] Top shape: 1 384 20 33 (253440)
I0316 17:21:09.066767  5556 net.cpp:165] Memory required for data: 818780184
I0316 17:21:09.066769  5556 layer_factory.hpp:77] Creating layer conv5_3/incep/0/conv
I0316 17:21:09.066776  5556 net.cpp:100] Creating Layer conv5_3/incep/0/conv
I0316 17:21:09.066778  5556 net.cpp:434] conv5_3/incep/0/conv <- conv5_2_conv5_2_0_split_0
I0316 17:21:09.066783  5556 net.cpp:408] conv5_3/incep/0/conv -> conv5_3/incep/0
I0316 17:21:09.067056  5556 net.cpp:150] Setting up conv5_3/incep/0/conv
I0316 17:21:09.067061  5556 net.cpp:157] Top shape: 1 64 20 33 (42240)
I0316 17:21:09.067065  5556 net.cpp:165] Memory required for data: 818949144
I0316 17:21:09.067070  5556 layer_factory.hpp:77] Creating layer conv5_3/incep/0/relu
I0316 17:21:09.067075  5556 net.cpp:100] Creating Layer conv5_3/incep/0/relu
I0316 17:21:09.067077  5556 net.cpp:434] conv5_3/incep/0/relu <- conv5_3/incep/0
I0316 17:21:09.067081  5556 net.cpp:395] conv5_3/incep/0/relu -> conv5_3/incep/0 (in-place)
I0316 17:21:09.067298  5556 net.cpp:150] Setting up conv5_3/incep/0/relu
I0316 17:21:09.067306  5556 net.cpp:157] Top shape: 1 64 20 33 (42240)
I0316 17:21:09.067308  5556 net.cpp:165] Memory required for data: 819118104
I0316 17:21:09.067312  5556 layer_factory.hpp:77] Creating layer conv5_3/incep/1_reduce/conv
I0316 17:21:09.067317  5556 net.cpp:100] Creating Layer conv5_3/incep/1_reduce/conv
I0316 17:21:09.067320  5556 net.cpp:434] conv5_3/incep/1_reduce/conv <- conv5_2_conv5_2_0_split_1
I0316 17:21:09.067327  5556 net.cpp:408] conv5_3/incep/1_reduce/conv -> conv5_3/incep/1_reduce
I0316 17:21:09.067685  5556 net.cpp:150] Setting up conv5_3/incep/1_reduce/conv
I0316 17:21:09.067692  5556 net.cpp:157] Top shape: 1 96 20 33 (63360)
I0316 17:21:09.067694  5556 net.cpp:165] Memory required for data: 819371544
I0316 17:21:09.067698  5556 layer_factory.hpp:77] Creating layer conv5_3/incep/1_reduce/relu
I0316 17:21:09.067703  5556 net.cpp:100] Creating Layer conv5_3/incep/1_reduce/relu
I0316 17:21:09.067705  5556 net.cpp:434] conv5_3/incep/1_reduce/relu <- conv5_3/incep/1_reduce
I0316 17:21:09.067709  5556 net.cpp:395] conv5_3/incep/1_reduce/relu -> conv5_3/incep/1_reduce (in-place)
I0316 17:21:09.067927  5556 net.cpp:150] Setting up conv5_3/incep/1_reduce/relu
I0316 17:21:09.067935  5556 net.cpp:157] Top shape: 1 96 20 33 (63360)
I0316 17:21:09.067937  5556 net.cpp:165] Memory required for data: 819624984
I0316 17:21:09.067939  5556 layer_factory.hpp:77] Creating layer conv5_3/incep/1_0/conv
I0316 17:21:09.067946  5556 net.cpp:100] Creating Layer conv5_3/incep/1_0/conv
I0316 17:21:09.067950  5556 net.cpp:434] conv5_3/incep/1_0/conv <- conv5_3/incep/1_reduce
I0316 17:21:09.067955  5556 net.cpp:408] conv5_3/incep/1_0/conv -> conv5_3/incep/1_0
I0316 17:21:09.069586  5556 net.cpp:150] Setting up conv5_3/incep/1_0/conv
I0316 17:21:09.069595  5556 net.cpp:157] Top shape: 1 192 20 33 (126720)
I0316 17:21:09.069598  5556 net.cpp:165] Memory required for data: 820131864
I0316 17:21:09.069602  5556 layer_factory.hpp:77] Creating layer conv5_3/incep/1_0/relu
I0316 17:21:09.069608  5556 net.cpp:100] Creating Layer conv5_3/incep/1_0/relu
I0316 17:21:09.069610  5556 net.cpp:434] conv5_3/incep/1_0/relu <- conv5_3/incep/1_0
I0316 17:21:09.069614  5556 net.cpp:395] conv5_3/incep/1_0/relu -> conv5_3/incep/1_0 (in-place)
I0316 17:21:09.069849  5556 net.cpp:150] Setting up conv5_3/incep/1_0/relu
I0316 17:21:09.069856  5556 net.cpp:157] Top shape: 1 192 20 33 (126720)
I0316 17:21:09.069859  5556 net.cpp:165] Memory required for data: 820638744
I0316 17:21:09.069861  5556 layer_factory.hpp:77] Creating layer conv5_3/incep/2_reduce/conv
I0316 17:21:09.069870  5556 net.cpp:100] Creating Layer conv5_3/incep/2_reduce/conv
I0316 17:21:09.069875  5556 net.cpp:434] conv5_3/incep/2_reduce/conv <- conv5_2_conv5_2_0_split_2
I0316 17:21:09.069880  5556 net.cpp:408] conv5_3/incep/2_reduce/conv -> conv5_3/incep/2_reduce
I0316 17:21:09.070117  5556 net.cpp:150] Setting up conv5_3/incep/2_reduce/conv
I0316 17:21:09.070123  5556 net.cpp:157] Top shape: 1 32 20 33 (21120)
I0316 17:21:09.070127  5556 net.cpp:165] Memory required for data: 820723224
I0316 17:21:09.070130  5556 layer_factory.hpp:77] Creating layer conv5_3/incep/2_reduce/relu
I0316 17:21:09.070135  5556 net.cpp:100] Creating Layer conv5_3/incep/2_reduce/relu
I0316 17:21:09.070137  5556 net.cpp:434] conv5_3/incep/2_reduce/relu <- conv5_3/incep/2_reduce
I0316 17:21:09.070142  5556 net.cpp:395] conv5_3/incep/2_reduce/relu -> conv5_3/incep/2_reduce (in-place)
I0316 17:21:09.070263  5556 net.cpp:150] Setting up conv5_3/incep/2_reduce/relu
I0316 17:21:09.070269  5556 net.cpp:157] Top shape: 1 32 20 33 (21120)
I0316 17:21:09.070274  5556 net.cpp:165] Memory required for data: 820807704
I0316 17:21:09.070277  5556 layer_factory.hpp:77] Creating layer conv5_3/incep/2_0/conv
I0316 17:21:09.070283  5556 net.cpp:100] Creating Layer conv5_3/incep/2_0/conv
I0316 17:21:09.070286  5556 net.cpp:434] conv5_3/incep/2_0/conv <- conv5_3/incep/2_reduce
I0316 17:21:09.070291  5556 net.cpp:408] conv5_3/incep/2_0/conv -> conv5_3/incep/2_0
I0316 17:21:09.071106  5556 net.cpp:150] Setting up conv5_3/incep/2_0/conv
I0316 17:21:09.071115  5556 net.cpp:157] Top shape: 1 64 20 33 (42240)
I0316 17:21:09.071117  5556 net.cpp:165] Memory required for data: 820976664
I0316 17:21:09.071121  5556 layer_factory.hpp:77] Creating layer conv5_3/incep/2_0/relu
I0316 17:21:09.071126  5556 net.cpp:100] Creating Layer conv5_3/incep/2_0/relu
I0316 17:21:09.071128  5556 net.cpp:434] conv5_3/incep/2_0/relu <- conv5_3/incep/2_0
I0316 17:21:09.071133  5556 net.cpp:395] conv5_3/incep/2_0/relu -> conv5_3/incep/2_0 (in-place)
I0316 17:21:09.071347  5556 net.cpp:150] Setting up conv5_3/incep/2_0/relu
I0316 17:21:09.071355  5556 net.cpp:157] Top shape: 1 64 20 33 (42240)
I0316 17:21:09.071357  5556 net.cpp:165] Memory required for data: 821145624
I0316 17:21:09.071359  5556 layer_factory.hpp:77] Creating layer conv5_3/incep/2_1/conv
I0316 17:21:09.071367  5556 net.cpp:100] Creating Layer conv5_3/incep/2_1/conv
I0316 17:21:09.071370  5556 net.cpp:434] conv5_3/incep/2_1/conv <- conv5_3/incep/2_0
I0316 17:21:09.071377  5556 net.cpp:408] conv5_3/incep/2_1/conv -> conv5_3/incep/2_1
I0316 17:21:09.072270  5556 net.cpp:150] Setting up conv5_3/incep/2_1/conv
I0316 17:21:09.072279  5556 net.cpp:157] Top shape: 1 64 20 33 (42240)
I0316 17:21:09.072281  5556 net.cpp:165] Memory required for data: 821314584
I0316 17:21:09.072285  5556 layer_factory.hpp:77] Creating layer conv5_3/incep/2_1/relu
I0316 17:21:09.072291  5556 net.cpp:100] Creating Layer conv5_3/incep/2_1/relu
I0316 17:21:09.072294  5556 net.cpp:434] conv5_3/incep/2_1/relu <- conv5_3/incep/2_1
I0316 17:21:09.072299  5556 net.cpp:395] conv5_3/incep/2_1/relu -> conv5_3/incep/2_1 (in-place)
I0316 17:21:09.072420  5556 net.cpp:150] Setting up conv5_3/incep/2_1/relu
I0316 17:21:09.072427  5556 net.cpp:157] Top shape: 1 64 20 33 (42240)
I0316 17:21:09.072429  5556 net.cpp:165] Memory required for data: 821483544
I0316 17:21:09.072432  5556 layer_factory.hpp:77] Creating layer conv5_3/incep
I0316 17:21:09.072437  5556 net.cpp:100] Creating Layer conv5_3/incep
I0316 17:21:09.072438  5556 net.cpp:434] conv5_3/incep <- conv5_3/incep/0
I0316 17:21:09.072441  5556 net.cpp:434] conv5_3/incep <- conv5_3/incep/1_0
I0316 17:21:09.072444  5556 net.cpp:434] conv5_3/incep <- conv5_3/incep/2_1
I0316 17:21:09.072448  5556 net.cpp:408] conv5_3/incep -> conv5_3/incep
I0316 17:21:09.072470  5556 net.cpp:150] Setting up conv5_3/incep
I0316 17:21:09.072474  5556 net.cpp:157] Top shape: 1 320 20 33 (211200)
I0316 17:21:09.072477  5556 net.cpp:165] Memory required for data: 822328344
I0316 17:21:09.072479  5556 layer_factory.hpp:77] Creating layer conv5_3/out/conv
I0316 17:21:09.072485  5556 net.cpp:100] Creating Layer conv5_3/out/conv
I0316 17:21:09.072489  5556 net.cpp:434] conv5_3/out/conv <- conv5_3/incep
I0316 17:21:09.072494  5556 net.cpp:408] conv5_3/out/conv -> conv5_3/out
I0316 17:21:09.073390  5556 net.cpp:150] Setting up conv5_3/out/conv
I0316 17:21:09.073398  5556 net.cpp:157] Top shape: 1 384 20 33 (253440)
I0316 17:21:09.073401  5556 net.cpp:165] Memory required for data: 823342104
I0316 17:21:09.073405  5556 layer_factory.hpp:77] Creating layer conv5_3/input
I0316 17:21:09.073410  5556 net.cpp:100] Creating Layer conv5_3/input
I0316 17:21:09.073412  5556 net.cpp:434] conv5_3/input <- conv5_2_conv5_2_0_split_3
I0316 17:21:09.073416  5556 net.cpp:408] conv5_3/input -> conv5_3/input
I0316 17:21:09.073437  5556 net.cpp:150] Setting up conv5_3/input
I0316 17:21:09.073442  5556 net.cpp:157] Top shape: 1 384 20 33 (253440)
I0316 17:21:09.073444  5556 net.cpp:165] Memory required for data: 824355864
I0316 17:21:09.073446  5556 layer_factory.hpp:77] Creating layer conv5_3
I0316 17:21:09.073453  5556 net.cpp:100] Creating Layer conv5_3
I0316 17:21:09.073457  5556 net.cpp:434] conv5_3 <- conv5_3/out
I0316 17:21:09.073459  5556 net.cpp:434] conv5_3 <- conv5_3/input
I0316 17:21:09.073463  5556 net.cpp:408] conv5_3 -> conv5_3
I0316 17:21:09.073483  5556 net.cpp:150] Setting up conv5_3
I0316 17:21:09.073487  5556 net.cpp:157] Top shape: 1 384 20 33 (253440)
I0316 17:21:09.073489  5556 net.cpp:165] Memory required for data: 825369624
I0316 17:21:09.073492  5556 layer_factory.hpp:77] Creating layer conv5_3_conv5_3_0_split
I0316 17:21:09.073496  5556 net.cpp:100] Creating Layer conv5_3_conv5_3_0_split
I0316 17:21:09.073499  5556 net.cpp:434] conv5_3_conv5_3_0_split <- conv5_3
I0316 17:21:09.073503  5556 net.cpp:408] conv5_3_conv5_3_0_split -> conv5_3_conv5_3_0_split_0
I0316 17:21:09.073508  5556 net.cpp:408] conv5_3_conv5_3_0_split -> conv5_3_conv5_3_0_split_1
I0316 17:21:09.073513  5556 net.cpp:408] conv5_3_conv5_3_0_split -> conv5_3_conv5_3_0_split_2
I0316 17:21:09.073518  5556 net.cpp:408] conv5_3_conv5_3_0_split -> conv5_3_conv5_3_0_split_3
I0316 17:21:09.073563  5556 net.cpp:150] Setting up conv5_3_conv5_3_0_split
I0316 17:21:09.073567  5556 net.cpp:157] Top shape: 1 384 20 33 (253440)
I0316 17:21:09.073570  5556 net.cpp:157] Top shape: 1 384 20 33 (253440)
I0316 17:21:09.073573  5556 net.cpp:157] Top shape: 1 384 20 33 (253440)
I0316 17:21:09.073576  5556 net.cpp:157] Top shape: 1 384 20 33 (253440)
I0316 17:21:09.073578  5556 net.cpp:165] Memory required for data: 829424664
I0316 17:21:09.073580  5556 layer_factory.hpp:77] Creating layer conv5_4/incep/0/conv
I0316 17:21:09.073586  5556 net.cpp:100] Creating Layer conv5_4/incep/0/conv
I0316 17:21:09.073590  5556 net.cpp:434] conv5_4/incep/0/conv <- conv5_3_conv5_3_0_split_0
I0316 17:21:09.073593  5556 net.cpp:408] conv5_4/incep/0/conv -> conv5_4/incep/0
I0316 17:21:09.073869  5556 net.cpp:150] Setting up conv5_4/incep/0/conv
I0316 17:21:09.073875  5556 net.cpp:157] Top shape: 1 64 20 33 (42240)
I0316 17:21:09.073878  5556 net.cpp:165] Memory required for data: 829593624
I0316 17:21:09.073881  5556 layer_factory.hpp:77] Creating layer conv5_4/incep/0/relu
I0316 17:21:09.073885  5556 net.cpp:100] Creating Layer conv5_4/incep/0/relu
I0316 17:21:09.073887  5556 net.cpp:434] conv5_4/incep/0/relu <- conv5_4/incep/0
I0316 17:21:09.073892  5556 net.cpp:395] conv5_4/incep/0/relu -> conv5_4/incep/0 (in-place)
I0316 17:21:09.074115  5556 net.cpp:150] Setting up conv5_4/incep/0/relu
I0316 17:21:09.074122  5556 net.cpp:157] Top shape: 1 64 20 33 (42240)
I0316 17:21:09.074125  5556 net.cpp:165] Memory required for data: 829762584
I0316 17:21:09.074127  5556 layer_factory.hpp:77] Creating layer conv5_4/incep/1_reduce/conv
I0316 17:21:09.074133  5556 net.cpp:100] Creating Layer conv5_4/incep/1_reduce/conv
I0316 17:21:09.074136  5556 net.cpp:434] conv5_4/incep/1_reduce/conv <- conv5_3_conv5_3_0_split_1
I0316 17:21:09.074142  5556 net.cpp:408] conv5_4/incep/1_reduce/conv -> conv5_4/incep/1_reduce
I0316 17:21:09.074728  5556 net.cpp:150] Setting up conv5_4/incep/1_reduce/conv
I0316 17:21:09.074735  5556 net.cpp:157] Top shape: 1 96 20 33 (63360)
I0316 17:21:09.074738  5556 net.cpp:165] Memory required for data: 830016024
I0316 17:21:09.074743  5556 layer_factory.hpp:77] Creating layer conv5_4/incep/1_reduce/relu
I0316 17:21:09.074748  5556 net.cpp:100] Creating Layer conv5_4/incep/1_reduce/relu
I0316 17:21:09.074749  5556 net.cpp:434] conv5_4/incep/1_reduce/relu <- conv5_4/incep/1_reduce
I0316 17:21:09.074753  5556 net.cpp:395] conv5_4/incep/1_reduce/relu -> conv5_4/incep/1_reduce (in-place)
I0316 17:21:09.074880  5556 net.cpp:150] Setting up conv5_4/incep/1_reduce/relu
I0316 17:21:09.074887  5556 net.cpp:157] Top shape: 1 96 20 33 (63360)
I0316 17:21:09.074888  5556 net.cpp:165] Memory required for data: 830269464
I0316 17:21:09.074890  5556 layer_factory.hpp:77] Creating layer conv5_4/incep/1_0/conv
I0316 17:21:09.074898  5556 net.cpp:100] Creating Layer conv5_4/incep/1_0/conv
I0316 17:21:09.074900  5556 net.cpp:434] conv5_4/incep/1_0/conv <- conv5_4/incep/1_reduce
I0316 17:21:09.074908  5556 net.cpp:408] conv5_4/incep/1_0/conv -> conv5_4/incep/1_0
I0316 17:21:09.076527  5556 net.cpp:150] Setting up conv5_4/incep/1_0/conv
I0316 17:21:09.076536  5556 net.cpp:157] Top shape: 1 192 20 33 (126720)
I0316 17:21:09.076539  5556 net.cpp:165] Memory required for data: 830776344
I0316 17:21:09.076544  5556 layer_factory.hpp:77] Creating layer conv5_4/incep/1_0/relu
I0316 17:21:09.076548  5556 net.cpp:100] Creating Layer conv5_4/incep/1_0/relu
I0316 17:21:09.076550  5556 net.cpp:434] conv5_4/incep/1_0/relu <- conv5_4/incep/1_0
I0316 17:21:09.076555  5556 net.cpp:395] conv5_4/incep/1_0/relu -> conv5_4/incep/1_0 (in-place)
I0316 17:21:09.076684  5556 net.cpp:150] Setting up conv5_4/incep/1_0/relu
I0316 17:21:09.076691  5556 net.cpp:157] Top shape: 1 192 20 33 (126720)
I0316 17:21:09.076694  5556 net.cpp:165] Memory required for data: 831283224
I0316 17:21:09.076695  5556 layer_factory.hpp:77] Creating layer conv5_4/incep/2_reduce/conv
I0316 17:21:09.076702  5556 net.cpp:100] Creating Layer conv5_4/incep/2_reduce/conv
I0316 17:21:09.076704  5556 net.cpp:434] conv5_4/incep/2_reduce/conv <- conv5_3_conv5_3_0_split_2
I0316 17:21:09.076710  5556 net.cpp:408] conv5_4/incep/2_reduce/conv -> conv5_4/incep/2_reduce
I0316 17:21:09.076952  5556 net.cpp:150] Setting up conv5_4/incep/2_reduce/conv
I0316 17:21:09.076958  5556 net.cpp:157] Top shape: 1 32 20 33 (21120)
I0316 17:21:09.076961  5556 net.cpp:165] Memory required for data: 831367704
I0316 17:21:09.076966  5556 layer_factory.hpp:77] Creating layer conv5_4/incep/2_reduce/relu
I0316 17:21:09.076969  5556 net.cpp:100] Creating Layer conv5_4/incep/2_reduce/relu
I0316 17:21:09.076972  5556 net.cpp:434] conv5_4/incep/2_reduce/relu <- conv5_4/incep/2_reduce
I0316 17:21:09.076977  5556 net.cpp:395] conv5_4/incep/2_reduce/relu -> conv5_4/incep/2_reduce (in-place)
I0316 17:21:09.077193  5556 net.cpp:150] Setting up conv5_4/incep/2_reduce/relu
I0316 17:21:09.077200  5556 net.cpp:157] Top shape: 1 32 20 33 (21120)
I0316 17:21:09.077203  5556 net.cpp:165] Memory required for data: 831452184
I0316 17:21:09.077205  5556 layer_factory.hpp:77] Creating layer conv5_4/incep/2_0/conv
I0316 17:21:09.077211  5556 net.cpp:100] Creating Layer conv5_4/incep/2_0/conv
I0316 17:21:09.077214  5556 net.cpp:434] conv5_4/incep/2_0/conv <- conv5_4/incep/2_reduce
I0316 17:21:09.077220  5556 net.cpp:408] conv5_4/incep/2_0/conv -> conv5_4/incep/2_0
I0316 17:21:09.078052  5556 net.cpp:150] Setting up conv5_4/incep/2_0/conv
I0316 17:21:09.078060  5556 net.cpp:157] Top shape: 1 64 20 33 (42240)
I0316 17:21:09.078063  5556 net.cpp:165] Memory required for data: 831621144
I0316 17:21:09.078068  5556 layer_factory.hpp:77] Creating layer conv5_4/incep/2_0/relu
I0316 17:21:09.078073  5556 net.cpp:100] Creating Layer conv5_4/incep/2_0/relu
I0316 17:21:09.078074  5556 net.cpp:434] conv5_4/incep/2_0/relu <- conv5_4/incep/2_0
I0316 17:21:09.078079  5556 net.cpp:395] conv5_4/incep/2_0/relu -> conv5_4/incep/2_0 (in-place)
I0316 17:21:09.078203  5556 net.cpp:150] Setting up conv5_4/incep/2_0/relu
I0316 17:21:09.078210  5556 net.cpp:157] Top shape: 1 64 20 33 (42240)
I0316 17:21:09.078212  5556 net.cpp:165] Memory required for data: 831790104
I0316 17:21:09.078214  5556 layer_factory.hpp:77] Creating layer conv5_4/incep/2_1/conv
I0316 17:21:09.078222  5556 net.cpp:100] Creating Layer conv5_4/incep/2_1/conv
I0316 17:21:09.078224  5556 net.cpp:434] conv5_4/incep/2_1/conv <- conv5_4/incep/2_0
I0316 17:21:09.078229  5556 net.cpp:408] conv5_4/incep/2_1/conv -> conv5_4/incep/2_1
I0316 17:21:09.079133  5556 net.cpp:150] Setting up conv5_4/incep/2_1/conv
I0316 17:21:09.079143  5556 net.cpp:157] Top shape: 1 64 20 33 (42240)
I0316 17:21:09.079144  5556 net.cpp:165] Memory required for data: 831959064
I0316 17:21:09.079149  5556 layer_factory.hpp:77] Creating layer conv5_4/incep/2_1/relu
I0316 17:21:09.079154  5556 net.cpp:100] Creating Layer conv5_4/incep/2_1/relu
I0316 17:21:09.079156  5556 net.cpp:434] conv5_4/incep/2_1/relu <- conv5_4/incep/2_1
I0316 17:21:09.079160  5556 net.cpp:395] conv5_4/incep/2_1/relu -> conv5_4/incep/2_1 (in-place)
I0316 17:21:09.079464  5556 net.cpp:150] Setting up conv5_4/incep/2_1/relu
I0316 17:21:09.079473  5556 net.cpp:157] Top shape: 1 64 20 33 (42240)
I0316 17:21:09.079474  5556 net.cpp:165] Memory required for data: 832128024
I0316 17:21:09.079478  5556 layer_factory.hpp:77] Creating layer conv5_4/incep
I0316 17:21:09.079483  5556 net.cpp:100] Creating Layer conv5_4/incep
I0316 17:21:09.079484  5556 net.cpp:434] conv5_4/incep <- conv5_4/incep/0
I0316 17:21:09.079488  5556 net.cpp:434] conv5_4/incep <- conv5_4/incep/1_0
I0316 17:21:09.079491  5556 net.cpp:434] conv5_4/incep <- conv5_4/incep/2_1
I0316 17:21:09.079495  5556 net.cpp:408] conv5_4/incep -> conv5_4/incep
I0316 17:21:09.079520  5556 net.cpp:150] Setting up conv5_4/incep
I0316 17:21:09.079525  5556 net.cpp:157] Top shape: 1 320 20 33 (211200)
I0316 17:21:09.079527  5556 net.cpp:165] Memory required for data: 832972824
I0316 17:21:09.079530  5556 layer_factory.hpp:77] Creating layer conv5_4/out/conv
I0316 17:21:09.079535  5556 net.cpp:100] Creating Layer conv5_4/out/conv
I0316 17:21:09.079538  5556 net.cpp:434] conv5_4/out/conv <- conv5_4/incep
I0316 17:21:09.079542  5556 net.cpp:408] conv5_4/out/conv -> conv5_4/out
I0316 17:21:09.080204  5556 net.cpp:150] Setting up conv5_4/out/conv
I0316 17:21:09.080211  5556 net.cpp:157] Top shape: 1 384 20 33 (253440)
I0316 17:21:09.080214  5556 net.cpp:165] Memory required for data: 833986584
I0316 17:21:09.080217  5556 layer_factory.hpp:77] Creating layer conv5_4/input
I0316 17:21:09.080221  5556 net.cpp:100] Creating Layer conv5_4/input
I0316 17:21:09.080224  5556 net.cpp:434] conv5_4/input <- conv5_3_conv5_3_0_split_3
I0316 17:21:09.080229  5556 net.cpp:408] conv5_4/input -> conv5_4/input
I0316 17:21:09.080248  5556 net.cpp:150] Setting up conv5_4/input
I0316 17:21:09.080255  5556 net.cpp:157] Top shape: 1 384 20 33 (253440)
I0316 17:21:09.080256  5556 net.cpp:165] Memory required for data: 835000344
I0316 17:21:09.080258  5556 layer_factory.hpp:77] Creating layer conv5_4
I0316 17:21:09.080263  5556 net.cpp:100] Creating Layer conv5_4
I0316 17:21:09.080265  5556 net.cpp:434] conv5_4 <- conv5_4/out
I0316 17:21:09.080268  5556 net.cpp:434] conv5_4 <- conv5_4/input
I0316 17:21:09.080272  5556 net.cpp:408] conv5_4 -> conv5_4
I0316 17:21:09.080291  5556 net.cpp:150] Setting up conv5_4
I0316 17:21:09.080296  5556 net.cpp:157] Top shape: 1 384 20 33 (253440)
I0316 17:21:09.080298  5556 net.cpp:165] Memory required for data: 836014104
I0316 17:21:09.080301  5556 layer_factory.hpp:77] Creating layer downsample
I0316 17:21:09.080305  5556 net.cpp:100] Creating Layer downsample
I0316 17:21:09.080308  5556 net.cpp:434] downsample <- conv3_4_conv3_4_0_split_5
I0316 17:21:09.080312  5556 net.cpp:408] downsample -> downsample
I0316 17:21:09.080343  5556 net.cpp:150] Setting up downsample
I0316 17:21:09.080348  5556 net.cpp:157] Top shape: 1 128 40 66 (337920)
I0316 17:21:09.080349  5556 net.cpp:165] Memory required for data: 837365784
I0316 17:21:09.080351  5556 layer_factory.hpp:77] Creating layer upsample
I0316 17:21:09.080358  5556 net.cpp:100] Creating Layer upsample
I0316 17:21:09.080359  5556 net.cpp:434] upsample <- conv5_4
I0316 17:21:09.080364  5556 net.cpp:408] upsample -> upsample
I0316 17:21:09.080663  5556 net.cpp:150] Setting up upsample
I0316 17:21:09.080668  5556 net.cpp:157] Top shape: 1 384 40 66 (1013760)
I0316 17:21:09.080672  5556 net.cpp:165] Memory required for data: 841420824
I0316 17:21:09.080674  5556 layer_factory.hpp:77] Creating layer concat
I0316 17:21:09.080678  5556 net.cpp:100] Creating Layer concat
I0316 17:21:09.080680  5556 net.cpp:434] concat <- downsample
I0316 17:21:09.080684  5556 net.cpp:434] concat <- conv4_4_conv4_4_0_split_5
I0316 17:21:09.080687  5556 net.cpp:434] concat <- upsample
I0316 17:21:09.080690  5556 net.cpp:408] concat -> concat
I0316 17:21:09.080709  5556 net.cpp:150] Setting up concat
I0316 17:21:09.080713  5556 net.cpp:157] Top shape: 1 768 40 66 (2027520)
I0316 17:21:09.080716  5556 net.cpp:165] Memory required for data: 849530904
I0316 17:21:09.080720  5556 layer_factory.hpp:77] Creating layer concat_concat_0_split
I0316 17:21:09.080725  5556 net.cpp:100] Creating Layer concat_concat_0_split
I0316 17:21:09.080729  5556 net.cpp:434] concat_concat_0_split <- concat
I0316 17:21:09.080731  5556 net.cpp:408] concat_concat_0_split -> concat_concat_0_split_0
I0316 17:21:09.080735  5556 net.cpp:408] concat_concat_0_split -> concat_concat_0_split_1
I0316 17:21:09.080765  5556 net.cpp:150] Setting up concat_concat_0_split
I0316 17:21:09.080770  5556 net.cpp:157] Top shape: 1 768 40 66 (2027520)
I0316 17:21:09.080772  5556 net.cpp:157] Top shape: 1 768 40 66 (2027520)
I0316 17:21:09.080775  5556 net.cpp:165] Memory required for data: 865751064
I0316 17:21:09.080777  5556 layer_factory.hpp:77] Creating layer convf_rpn
I0316 17:21:09.080783  5556 net.cpp:100] Creating Layer convf_rpn
I0316 17:21:09.080786  5556 net.cpp:434] convf_rpn <- concat_concat_0_split_0
I0316 17:21:09.080790  5556 net.cpp:408] convf_rpn -> convf_rpn
I0316 17:21:09.082090  5556 net.cpp:150] Setting up convf_rpn
I0316 17:21:09.082099  5556 net.cpp:157] Top shape: 1 128 40 66 (337920)
I0316 17:21:09.082101  5556 net.cpp:165] Memory required for data: 867102744
I0316 17:21:09.082106  5556 layer_factory.hpp:77] Creating layer reluf_rpn
I0316 17:21:09.082110  5556 net.cpp:100] Creating Layer reluf_rpn
I0316 17:21:09.082113  5556 net.cpp:434] reluf_rpn <- convf_rpn
I0316 17:21:09.082118  5556 net.cpp:395] reluf_rpn -> convf_rpn (in-place)
I0316 17:21:09.082340  5556 net.cpp:150] Setting up reluf_rpn
I0316 17:21:09.082348  5556 net.cpp:157] Top shape: 1 128 40 66 (337920)
I0316 17:21:09.082351  5556 net.cpp:165] Memory required for data: 868454424
I0316 17:21:09.082353  5556 layer_factory.hpp:77] Creating layer convf_rpn_reluf_rpn_0_split
I0316 17:21:09.082358  5556 net.cpp:100] Creating Layer convf_rpn_reluf_rpn_0_split
I0316 17:21:09.082361  5556 net.cpp:434] convf_rpn_reluf_rpn_0_split <- convf_rpn
I0316 17:21:09.082365  5556 net.cpp:408] convf_rpn_reluf_rpn_0_split -> convf_rpn_reluf_rpn_0_split_0
I0316 17:21:09.082371  5556 net.cpp:408] convf_rpn_reluf_rpn_0_split -> convf_rpn_reluf_rpn_0_split_1
I0316 17:21:09.082406  5556 net.cpp:150] Setting up convf_rpn_reluf_rpn_0_split
I0316 17:21:09.082411  5556 net.cpp:157] Top shape: 1 128 40 66 (337920)
I0316 17:21:09.082413  5556 net.cpp:157] Top shape: 1 128 40 66 (337920)
I0316 17:21:09.082415  5556 net.cpp:165] Memory required for data: 871157784
I0316 17:21:09.082418  5556 layer_factory.hpp:77] Creating layer convf_2
I0316 17:21:09.082425  5556 net.cpp:100] Creating Layer convf_2
I0316 17:21:09.082428  5556 net.cpp:434] convf_2 <- concat_concat_0_split_1
I0316 17:21:09.082432  5556 net.cpp:408] convf_2 -> convf_2
I0316 17:21:09.084571  5556 net.cpp:150] Setting up convf_2
I0316 17:21:09.084580  5556 net.cpp:157] Top shape: 1 384 40 66 (1013760)
I0316 17:21:09.084583  5556 net.cpp:165] Memory required for data: 875212824
I0316 17:21:09.084588  5556 layer_factory.hpp:77] Creating layer reluf_2
I0316 17:21:09.084592  5556 net.cpp:100] Creating Layer reluf_2
I0316 17:21:09.084595  5556 net.cpp:434] reluf_2 <- convf_2
I0316 17:21:09.084599  5556 net.cpp:395] reluf_2 -> convf_2 (in-place)
I0316 17:21:09.084728  5556 net.cpp:150] Setting up reluf_2
I0316 17:21:09.084735  5556 net.cpp:157] Top shape: 1 384 40 66 (1013760)
I0316 17:21:09.084738  5556 net.cpp:165] Memory required for data: 879267864
I0316 17:21:09.084739  5556 layer_factory.hpp:77] Creating layer concat_convf
I0316 17:21:09.084744  5556 net.cpp:100] Creating Layer concat_convf
I0316 17:21:09.084748  5556 net.cpp:434] concat_convf <- convf_rpn_reluf_rpn_0_split_0
I0316 17:21:09.084750  5556 net.cpp:434] concat_convf <- convf_2
I0316 17:21:09.084754  5556 net.cpp:408] concat_convf -> convf
I0316 17:21:09.084776  5556 net.cpp:150] Setting up concat_convf
I0316 17:21:09.084781  5556 net.cpp:157] Top shape: 1 512 40 66 (1351680)
I0316 17:21:09.084784  5556 net.cpp:165] Memory required for data: 884674584
I0316 17:21:09.084785  5556 layer_factory.hpp:77] Creating layer rpn_conv1
I0316 17:21:09.084795  5556 net.cpp:100] Creating Layer rpn_conv1
I0316 17:21:09.084799  5556 net.cpp:434] rpn_conv1 <- convf_rpn_reluf_rpn_0_split_1
I0316 17:21:09.084803  5556 net.cpp:408] rpn_conv1 -> rpn_conv1
I0316 17:21:09.088976  5556 net.cpp:150] Setting up rpn_conv1
I0316 17:21:09.088985  5556 net.cpp:157] Top shape: 1 384 40 66 (1013760)
I0316 17:21:09.088989  5556 net.cpp:165] Memory required for data: 888729624
I0316 17:21:09.088992  5556 layer_factory.hpp:77] Creating layer rpn_relu1
I0316 17:21:09.088997  5556 net.cpp:100] Creating Layer rpn_relu1
I0316 17:21:09.088999  5556 net.cpp:434] rpn_relu1 <- rpn_conv1
I0316 17:21:09.089004  5556 net.cpp:395] rpn_relu1 -> rpn_conv1 (in-place)
I0316 17:21:09.089227  5556 net.cpp:150] Setting up rpn_relu1
I0316 17:21:09.089236  5556 net.cpp:157] Top shape: 1 384 40 66 (1013760)
I0316 17:21:09.089238  5556 net.cpp:165] Memory required for data: 892784664
I0316 17:21:09.089241  5556 layer_factory.hpp:77] Creating layer rpn_conv1_rpn_relu1_0_split
I0316 17:21:09.089246  5556 net.cpp:100] Creating Layer rpn_conv1_rpn_relu1_0_split
I0316 17:21:09.089248  5556 net.cpp:434] rpn_conv1_rpn_relu1_0_split <- rpn_conv1
I0316 17:21:09.089252  5556 net.cpp:408] rpn_conv1_rpn_relu1_0_split -> rpn_conv1_rpn_relu1_0_split_0
I0316 17:21:09.089257  5556 net.cpp:408] rpn_conv1_rpn_relu1_0_split -> rpn_conv1_rpn_relu1_0_split_1
I0316 17:21:09.089293  5556 net.cpp:150] Setting up rpn_conv1_rpn_relu1_0_split
I0316 17:21:09.089298  5556 net.cpp:157] Top shape: 1 384 40 66 (1013760)
I0316 17:21:09.089301  5556 net.cpp:157] Top shape: 1 384 40 66 (1013760)
I0316 17:21:09.089303  5556 net.cpp:165] Memory required for data: 900894744
I0316 17:21:09.089305  5556 layer_factory.hpp:77] Creating layer rpn_cls_score
I0316 17:21:09.089313  5556 net.cpp:100] Creating Layer rpn_cls_score
I0316 17:21:09.089315  5556 net.cpp:434] rpn_cls_score <- rpn_conv1_rpn_relu1_0_split_0
I0316 17:21:09.089320  5556 net.cpp:408] rpn_cls_score -> rpn_cls_score
I0316 17:21:09.090137  5556 net.cpp:150] Setting up rpn_cls_score
I0316 17:21:09.090145  5556 net.cpp:157] Top shape: 1 50 40 66 (132000)
I0316 17:21:09.090147  5556 net.cpp:165] Memory required for data: 901422744
I0316 17:21:09.090152  5556 layer_factory.hpp:77] Creating layer rpn_bbox_pred
I0316 17:21:09.090159  5556 net.cpp:100] Creating Layer rpn_bbox_pred
I0316 17:21:09.090162  5556 net.cpp:434] rpn_bbox_pred <- rpn_conv1_rpn_relu1_0_split_1
I0316 17:21:09.090167  5556 net.cpp:408] rpn_bbox_pred -> rpn_bbox_pred
I0316 17:21:09.091210  5556 net.cpp:150] Setting up rpn_bbox_pred
I0316 17:21:09.091218  5556 net.cpp:157] Top shape: 1 100 40 66 (264000)
I0316 17:21:09.091222  5556 net.cpp:165] Memory required for data: 902478744
I0316 17:21:09.091225  5556 layer_factory.hpp:77] Creating layer rpn_cls_score_reshape
I0316 17:21:09.091231  5556 net.cpp:100] Creating Layer rpn_cls_score_reshape
I0316 17:21:09.091234  5556 net.cpp:434] rpn_cls_score_reshape <- rpn_cls_score
I0316 17:21:09.091238  5556 net.cpp:408] rpn_cls_score_reshape -> rpn_cls_score_reshape
I0316 17:21:09.091264  5556 net.cpp:150] Setting up rpn_cls_score_reshape
I0316 17:21:09.091269  5556 net.cpp:157] Top shape: 1 2 1000 66 (132000)
I0316 17:21:09.091271  5556 net.cpp:165] Memory required for data: 903006744
I0316 17:21:09.091274  5556 layer_factory.hpp:77] Creating layer rpn_cls_prob
I0316 17:21:09.091279  5556 net.cpp:100] Creating Layer rpn_cls_prob
I0316 17:21:09.091280  5556 net.cpp:434] rpn_cls_prob <- rpn_cls_score_reshape
I0316 17:21:09.091285  5556 net.cpp:408] rpn_cls_prob -> rpn_cls_prob
I0316 17:21:09.091554  5556 net.cpp:150] Setting up rpn_cls_prob
I0316 17:21:09.091563  5556 net.cpp:157] Top shape: 1 2 1000 66 (132000)
I0316 17:21:09.091567  5556 net.cpp:165] Memory required for data: 903534744
I0316 17:21:09.091568  5556 layer_factory.hpp:77] Creating layer rpn_cls_prob_reshape
I0316 17:21:09.091573  5556 net.cpp:100] Creating Layer rpn_cls_prob_reshape
I0316 17:21:09.091591  5556 net.cpp:434] rpn_cls_prob_reshape <- rpn_cls_prob
I0316 17:21:09.091596  5556 net.cpp:408] rpn_cls_prob_reshape -> rpn_cls_prob_reshape
I0316 17:21:09.091624  5556 net.cpp:150] Setting up rpn_cls_prob_reshape
I0316 17:21:09.091629  5556 net.cpp:157] Top shape: 1 50 40 66 (132000)
I0316 17:21:09.091631  5556 net.cpp:165] Memory required for data: 904062744
I0316 17:21:09.091634  5556 layer_factory.hpp:77] Creating layer proposal
I0316 17:21:09.091639  5556 net.cpp:100] Creating Layer proposal
I0316 17:21:09.091641  5556 net.cpp:434] proposal <- rpn_cls_prob_reshape
I0316 17:21:09.091645  5556 net.cpp:434] proposal <- rpn_bbox_pred
I0316 17:21:09.091647  5556 net.cpp:434] proposal <- im_info
I0316 17:21:09.091651  5556 net.cpp:408] proposal -> rois
I0316 17:21:09.091658  5556 net.cpp:408] proposal -> scores
I0316 17:21:09.091723  5556 net.cpp:150] Setting up proposal
I0316 17:21:09.091728  5556 net.cpp:157] Top shape: 200 5 (1000)
I0316 17:21:09.091732  5556 net.cpp:157] Top shape: 200 (200)
I0316 17:21:09.091733  5556 net.cpp:165] Memory required for data: 904067544
I0316 17:21:09.091735  5556 layer_factory.hpp:77] Creating layer roi_pool5
I0316 17:21:09.091739  5556 net.cpp:100] Creating Layer roi_pool5
I0316 17:21:09.091742  5556 net.cpp:434] roi_pool5 <- convf
I0316 17:21:09.091745  5556 net.cpp:434] roi_pool5 <- rois
I0316 17:21:09.091749  5556 net.cpp:408] roi_pool5 -> pool5
I0316 17:21:09.091754  5556 roi_pooling_layer.cpp:34] Spatial scale: 0.0625
I0316 17:21:09.091789  5556 net.cpp:150] Setting up roi_pool5
I0316 17:21:09.091794  5556 net.cpp:157] Top shape: 200 512 6 6 (3686400)
I0316 17:21:09.091796  5556 net.cpp:165] Memory required for data: 918813144
I0316 17:21:09.091799  5556 layer_factory.hpp:77] Creating layer fc6
I0316 17:21:09.091805  5556 net.cpp:100] Creating Layer fc6
I0316 17:21:09.091807  5556 net.cpp:434] fc6 <- pool5
I0316 17:21:09.091811  5556 net.cpp:408] fc6 -> fc6
I0316 17:21:09.177500  5556 net.cpp:150] Setting up fc6
I0316 17:21:09.177531  5556 net.cpp:157] Top shape: 200 4096 (819200)
I0316 17:21:09.177534  5556 net.cpp:165] Memory required for data: 922089944
I0316 17:21:09.177542  5556 layer_factory.hpp:77] Creating layer relu6
I0316 17:21:09.177551  5556 net.cpp:100] Creating Layer relu6
I0316 17:21:09.177554  5556 net.cpp:434] relu6 <- fc6
I0316 17:21:09.177559  5556 net.cpp:395] relu6 -> fc6 (in-place)
I0316 17:21:09.177752  5556 net.cpp:150] Setting up relu6
I0316 17:21:09.177759  5556 net.cpp:157] Top shape: 200 4096 (819200)
I0316 17:21:09.177762  5556 net.cpp:165] Memory required for data: 925366744
I0316 17:21:09.177764  5556 layer_factory.hpp:77] Creating layer drop6
I0316 17:21:09.177814  5556 net.cpp:100] Creating Layer drop6
I0316 17:21:09.177816  5556 net.cpp:434] drop6 <- fc6
I0316 17:21:09.177819  5556 net.cpp:395] drop6 -> fc6 (in-place)
I0316 17:21:09.177847  5556 net.cpp:150] Setting up drop6
I0316 17:21:09.177851  5556 net.cpp:157] Top shape: 200 4096 (819200)
I0316 17:21:09.177853  5556 net.cpp:165] Memory required for data: 928643544
I0316 17:21:09.177856  5556 layer_factory.hpp:77] Creating layer fc7
I0316 17:21:09.177861  5556 net.cpp:100] Creating Layer fc7
I0316 17:21:09.177863  5556 net.cpp:434] fc7 <- fc6
I0316 17:21:09.177867  5556 net.cpp:408] fc7 -> fc7
I0316 17:21:09.197296  5556 net.cpp:150] Setting up fc7
I0316 17:21:09.197329  5556 net.cpp:157] Top shape: 200 4096 (819200)
I0316 17:21:09.197330  5556 net.cpp:165] Memory required for data: 931920344
I0316 17:21:09.197340  5556 layer_factory.hpp:77] Creating layer relu7
I0316 17:21:09.197346  5556 net.cpp:100] Creating Layer relu7
I0316 17:21:09.197350  5556 net.cpp:434] relu7 <- fc7
I0316 17:21:09.197357  5556 net.cpp:395] relu7 -> fc7 (in-place)
I0316 17:21:09.197741  5556 net.cpp:150] Setting up relu7
I0316 17:21:09.197749  5556 net.cpp:157] Top shape: 200 4096 (819200)
I0316 17:21:09.197751  5556 net.cpp:165] Memory required for data: 935197144
I0316 17:21:09.197754  5556 layer_factory.hpp:77] Creating layer drop7
I0316 17:21:09.197759  5556 net.cpp:100] Creating Layer drop7
I0316 17:21:09.197762  5556 net.cpp:434] drop7 <- fc7
I0316 17:21:09.197765  5556 net.cpp:395] drop7 -> fc7 (in-place)
I0316 17:21:09.197803  5556 net.cpp:150] Setting up drop7
I0316 17:21:09.197808  5556 net.cpp:157] Top shape: 200 4096 (819200)
I0316 17:21:09.197809  5556 net.cpp:165] Memory required for data: 938473944
I0316 17:21:09.197811  5556 layer_factory.hpp:77] Creating layer fc7_drop7_0_split
I0316 17:21:09.197816  5556 net.cpp:100] Creating Layer fc7_drop7_0_split
I0316 17:21:09.197818  5556 net.cpp:434] fc7_drop7_0_split <- fc7
I0316 17:21:09.197823  5556 net.cpp:408] fc7_drop7_0_split -> fc7_drop7_0_split_0
I0316 17:21:09.197827  5556 net.cpp:408] fc7_drop7_0_split -> fc7_drop7_0_split_1
I0316 17:21:09.197860  5556 net.cpp:150] Setting up fc7_drop7_0_split
I0316 17:21:09.197863  5556 net.cpp:157] Top shape: 200 4096 (819200)
I0316 17:21:09.197866  5556 net.cpp:157] Top shape: 200 4096 (819200)
I0316 17:21:09.197868  5556 net.cpp:165] Memory required for data: 945027544
I0316 17:21:09.197871  5556 layer_factory.hpp:77] Creating layer full1_cls_score
I0316 17:21:09.197877  5556 net.cpp:100] Creating Layer full1_cls_score
I0316 17:21:09.197880  5556 net.cpp:434] full1_cls_score <- fc7_drop7_0_split_0
I0316 17:21:09.197885  5556 net.cpp:408] full1_cls_score -> cls_score
I0316 17:21:09.198035  5556 net.cpp:150] Setting up full1_cls_score
I0316 17:21:09.198040  5556 net.cpp:157] Top shape: 200 2 (400)
I0316 17:21:09.198042  5556 net.cpp:165] Memory required for data: 945029144
I0316 17:21:09.198046  5556 layer_factory.hpp:77] Creating layer sjtuOhem_cg_bbox_pred
I0316 17:21:09.198051  5556 net.cpp:100] Creating Layer sjtuOhem_cg_bbox_pred
I0316 17:21:09.198053  5556 net.cpp:434] sjtuOhem_cg_bbox_pred <- fc7_drop7_0_split_1
I0316 17:21:09.198057  5556 net.cpp:408] sjtuOhem_cg_bbox_pred -> bbox_pred
I0316 17:21:09.198376  5556 net.cpp:150] Setting up sjtuOhem_cg_bbox_pred
I0316 17:21:09.198381  5556 net.cpp:157] Top shape: 200 8 (1600)
I0316 17:21:09.198384  5556 net.cpp:165] Memory required for data: 945035544
I0316 17:21:09.198387  5556 layer_factory.hpp:77] Creating layer cls_prob
I0316 17:21:09.198391  5556 net.cpp:100] Creating Layer cls_prob
I0316 17:21:09.198395  5556 net.cpp:434] cls_prob <- cls_score
I0316 17:21:09.198398  5556 net.cpp:408] cls_prob -> cls_prob
I0316 17:21:09.198572  5556 net.cpp:150] Setting up cls_prob
I0316 17:21:09.198578  5556 net.cpp:157] Top shape: 200 2 (400)
I0316 17:21:09.198580  5556 net.cpp:165] Memory required for data: 945037144
I0316 17:21:09.198582  5556 net.cpp:228] cls_prob does not need backward computation.
I0316 17:21:09.198585  5556 net.cpp:228] sjtuOhem_cg_bbox_pred does not need backward computation.
I0316 17:21:09.198588  5556 net.cpp:228] full1_cls_score does not need backward computation.
I0316 17:21:09.198590  5556 net.cpp:228] fc7_drop7_0_split does not need backward computation.
…
