…
I0316 17:30:03.915132  5916 upgrade_proto.cpp:69] Successfully upgraded file specified using deprecated input fields.
W0316 17:30:03.915135  5916 upgrade_proto.cpp:71] Note that future Caffe releases will only support input layers and not input fields.
I0316 17:30:03.916435  5916 net.cpp:58] Initializing net from parameters: 
name: "PVANET"
state {
  phase: TEST
  level: 0
}
layer {
  name: "input"
  type: "Input"
  top: "data"
  top: "im_info"
  input_param {
    shape {
      dim: 1
      dim: 3
      dim: 640
      dim: 1056
    }
    shape {
      dim: 1
      dim: 6
    }
  }
}
layer {
  name: "conv1_1/conv"
  type: "Convolution"
  bottom: "data"
  top: "conv1_1/conv"
  param {
    lr_mult: 0.1
    decay_mult: 0.1
  }
  convolution_param {
    num_output: 16
    bias_term: true
    weight_filler {
      type: "xavier"
    }
    bias_filler {
      type: "constant"
      value: 0
    }
    pad_h: 3
    pad_w: 3
    kernel_h: 7
    kernel_w: 7
    stride_h: 2
    stride_w: 2
  }
}
layer {
  name: "conv1_1/neg"
  type: "Power"
  bottom: "conv1_1/conv"
  top: "conv1_1/neg"
  power_param {
    power: 1
    scale: -1
    shift: 0
  }
}
layer {
  name: "conv1_1/concat"
  type: "Concat"
  bottom: "conv1_1/conv"
  bottom: "conv1_1/neg"
  top: "conv1_1"
}
layer {
  name: "conv1_1/scale"
  type: "Scale"
  bottom: "conv1_1"
  top: "conv1_1"
  param {
    lr_mult: 0.1
    decay_mult: 0
  }
  param {
    lr_mult: 0.2
    decay_mult: 0
  }
  scale_param {
    bias_term: true
  }
}
layer {
  name: "conv1_1/relu"
  type: "ReLU"
  bottom: "conv1_1"
  top: "conv1_1"
}
layer {
  name: "pool1"
  type: "Pooling"
  bottom: "conv1_1"
  top: "pool1"
  pooling_param {
    pool: MAX
    kernel_size: 3
    stride: 2
    pad: 0
  }
}
layer {
  name: "conv2_1/1/conv"
  type: "Convolution"
  bottom: "pool1"
  top: "conv2_1/1"
  param {
    lr_mult: 0.1
    decay_mult: 0.1
  }
  convolution_param {
    num_output: 24
    bias_term: true
    weight_filler {
      type: "xavier"
    }
    bias_filler {
      type: "constant"
      value: 0
    }
    pad_h: 0
    pad_w: 0
    kernel_h: 1
    kernel_w: 1
    stride_h: 1
    stride_w: 1
    engine: CAFFE
  }
}
layer {
  name: "conv2_1/1/relu"
  type: "ReLU"
  bottom: "conv2_1/1"
  top: "conv2_1/1"
}
layer {
  name: "conv2_1/2/conv"
  type: "Convolution"
  bottom: "conv2_1/1"
  top: "conv2_1/2/conv"
  param {
    lr_mult: 0.1
    decay_mult: 0.1
  }
  convolution_param {
    num_output: 24
    bias_term: true
    weight_filler {
      type: "xavier"
    }
    bias_filler {
      type: "constant"
      value: 0
    }
    pad_h: 1
    pad_w: 1
    kernel_h: 3
    kernel_w: 3
    stride_h: 1
    stride_w: 1
  }
}
layer {
  name: "conv2_1/2/neg"
  type: "Power"
  bottom: "conv2_1/2/conv"
  top: "conv2_1/2/neg"
  power_param {
    power: 1
    scale: -1
    shift: 0
  }
}
layer {
  name: "conv2_1/2/concat"
  type: "Concat"
  bottom: "conv2_1/2/conv"
  bottom: "conv2_1/2/neg"
  top: "conv2_1/2"
}
layer {
  name: "conv2_1/2/scale"
  type: "Scale"
  bottom: "conv2_1/2"
  top: "conv2_1/2"
  param {
    lr_mult: 0.1
    decay_mult: 0
  }
  param {
    lr_mult: 0.2
    decay_mult: 0
  }
  scale_param {
    bias_term: true
  }
}
layer {
  name: "conv2_1/2/relu"
  type: "ReLU"
  bottom: "conv2_1/2"
  top: "conv2_1/2"
}
layer {
  name: "conv2_1/3/conv"
  type: "Convolution"
  bottom: "conv2_1/2"
  top: "conv2_1/3"
  param {
    lr_mult: 0.1
    decay_mult: 0.1
  }
  convolution_param {
    num_output: 64
    bias_term: true
    weight_filler {
      type: "xavier"
    }
    bias_filler {
      type: "constant"
      value: 0
    }
    pad_h: 0
    pad_w: 0
    kernel_h: 1
    kernel_w: 1
    stride_h: 1
    stride_w: 1
    engine: CAFFE
  }
}
layer {
  name: "conv2_1/proj"
  type: "Convolution"
  bottom: "pool1"
  top: "conv2_1/proj"
  param {
    lr_mult: 0.1
    decay_mult: 0.1
  }
  param {
    lr_mult: 0.2
    decay_mult: 0
  }
  convolution_param {
    num_output: 64
    weight_filler {
      type: "xavier"
    }
    bias_filler {
      type: "constant"
      value: 0.1
    }
    pad_h: 0
    pad_w: 0
    kernel_h: 1
    kernel_w: 1
    stride_h: 1
    stride_w: 1
    engine: CAFFE
  }
}
layer {
  name: "conv2_1"
  type: "Eltwise"
  bottom: "conv2_1/3"
  bottom: "conv2_1/proj"
  top: "conv2_1"
  eltwise_param {
    operation: SUM
    coeff: 1
    coeff: 1
  }
}
layer {
  name: "conv2_2/1/conv"
  type: "Convolution"
  bottom: "conv2_1"
  top: "conv2_2/1"
  param {
    lr_mult: 0.1
    decay_mult: 0.1
  }
  convolution_param {
    num_output: 24
    bias_term: true
    weight_filler {
      type: "xavier"
    }
    bias_filler {
      type: "constant"
      value: 0
    }
    pad_h: 0
    pad_w: 0
    kernel_h: 1
    kernel_w: 1
    stride_h: 1
    stride_w: 1
    engine: CAFFE
  }
}
layer {
  name: "conv2_2/1/relu"
  type: "ReLU"
  bottom: "conv2_2/1"
  top: "conv2_2/1"
}
layer {
  name: "conv2_2/2/conv"
  type: "Convolution"
  bottom: "conv2_2/1"
  top: "conv2_2/2/conv"
  param {
    lr_mult: 0.1
    decay_mult: 0.1
  }
  convolution_param {
    num_output: 24
    bias_term: true
    weight_filler {
      type: "xavier"
    }
    bias_filler {
      type: "constant"
      value: 0
    }
    pad_h: 1
    pad_w: 1
    kernel_h: 3
    kernel_w: 3
    stride_h: 1
    stride_w: 1
  }
}
layer {
  name: "conv2_2/2/neg"
  type: "Power"
  bottom: "conv2_2/2/conv"
  top: "conv2_2/2/neg"
  power_param {
    power: 1
    scale: -1
    shift: 0
  }
}
layer {
  name: "conv2_2/2/concat"
  type: "Concat"
  bottom: "conv2_2/2/conv"
  bottom: "conv2_2/2/neg"
  top: "conv2_2/2"
}
layer {
  name: "conv2_2/2/scale"
  type: "Scale"
  bottom: "conv2_2/2"
  top: "conv2_2/2"
  param {
    lr_mult: 0.1
    decay_mult: 0
  }
  param {
    lr_mult: 0.2
    decay_mult: 0
  }
  scale_param {
    bias_term: true
  }
}
layer {
  name: "conv2_2/2/relu"
  type: "ReLU"
  bottom: "conv2_2/2"
  top: "conv2_2/2"
}
layer {
  name: "conv2_2/3/conv"
  type: "Convolution"
  bottom: "conv2_2/2"
  top: "conv2_2/3"
  param {
    lr_mult: 0.1
    decay_mult: 0.1
  }
  convolution_param {
    num_output: 64
    bias_term: true
    weight_filler {
      type: "xavier"
    }
    bias_filler {
      type: "constant"
      value: 0
    }
    pad_h: 0
    pad_w: 0
    kernel_h: 1
    kernel_w: 1
    stride_h: 1
    stride_w: 1
    engine: CAFFE
  }
}
layer {
  name: "conv2_2/input"
  type: "Power"
  bottom: "conv2_1"
  top: "conv2_2/input"
  power_param {
    power: 1
    scale: 1
    shift: 0
  }
}
layer {
  name: "conv2_2"
  type: "Eltwise"
  bottom: "conv2_2/3"
  bottom: "conv2_2/input"
  top: "conv2_2"
  eltwise_param {
    operation: SUM
    coeff: 1
    coeff: 1
  }
}
layer {
  name: "conv2_3/1/conv"
  type: "Convolution"
  bottom: "conv2_2"
  top: "conv2_3/1"
  param {
    lr_mult: 0.1
    decay_mult: 0.1
  }
  convolution_param {
    num_output: 24
    bias_term: true
    weight_filler {
      type: "xavier"
    }
    bias_filler {
      type: "constant"
      value: 0
    }
    pad_h: 0
    pad_w: 0
    kernel_h: 1
    kernel_w: 1
    stride_h: 1
    stride_w: 1
    engine: CAFFE
  }
}
layer {
  name: "conv2_3/1/relu"
  type: "ReLU"
  bottom: "conv2_3/1"
  top: "conv2_3/1"
}
layer {
  name: "conv2_3/2/conv"
  type: "Convolution"
  bottom: "conv2_3/1"
  top: "conv2_3/2/conv"
  param {
    lr_mult: 0.1
    decay_mult: 0.1
  }
  convolution_param {
    num_output: 24
    bias_term: true
    weight_filler {
      type: "xavier"
    }
    bias_filler {
      type: "constant"
      value: 0
    }
    pad_h: 1
    pad_w: 1
    kernel_h: 3
    kernel_w: 3
    stride_h: 1
    stride_w: 1
  }
}
layer {
  name: "conv2_3/2/neg"
  type: "Power"
  bottom: "conv2_3/2/conv"
  top: "conv2_3/2/neg"
  power_param {
    power: 1
    scale: -1
    shift: 0
  }
}
layer {
  name: "conv2_3/2/concat"
  type: "Concat"
  bottom: "conv2_3/2/conv"
  bottom: "conv2_3/2/neg"
  top: "conv2_3/2"
}
layer {
  name: "conv2_3/2/scale"
  type: "Scale"
  bottom: "conv2_3/2"
  top: "conv2_3/2"
  param {
    lr_mult: 0.1
    decay_mult: 0
  }
  param {
    lr_mult: 0.2
    decay_mult: 0
  }
  scale_param {
    bias_term: true
  }
}
layer {
  name: "conv2_3/2/relu"
  type: "ReLU"
  bottom: "conv2_3/2"
  top: "conv2_3/2"
}
layer {
  name: "conv2_3/3/conv"
  type: "Convolution"
  bottom: "conv2_3/2"
  top: "conv2_3/3"
  param {
    lr_mult: 0.1
    decay_mult: 0.1
  }
  convolution_param {
    num_output: 64
    bias_term: true
    weight_filler {
      type: "xavier"
    }
    bias_filler {
      type: "constant"
      value: 0
    }
    pad_h: 0
    pad_w: 0
    kernel_h: 1
    kernel_w: 1
    stride_h: 1
    stride_w: 1
    engine: CAFFE
  }
}
layer {
  name: "conv2_3/input"
  type: "Power"
  bottom: "conv2_2"
  top: "conv2_3/input"
  power_param {
    power: 1
    scale: 1
    shift: 0
  }
}
layer {
  name: "conv2_3"
  type: "Eltwise"
  bottom: "conv2_3/3"
  bottom: "conv2_3/input"
  top: "conv2_3"
  eltwise_param {
    operation: SUM
    coeff: 1
    coeff: 1
  }
}
layer {
  name: "conv3_1/1/conv"
  type: "Convolution"
  bottom: "conv2_3"
  top: "conv3_1/1"
  param {
    lr_mult: 0.1
    decay_mult: 0.1
  }
  convolution_param {
    num_output: 48
    bias_term: true
    weight_filler {
      type: "xavier"
    }
    bias_filler {
      type: "constant"
      value: 0
    }
    pad_h: 0
    pad_w: 0
    kernel_h: 1
    kernel_w: 1
    stride_h: 2
    stride_w: 2
    engine: CAFFE
  }
}
layer {
  name: "conv3_1/1/relu"
  type: "ReLU"
  bottom: "conv3_1/1"
  top: "conv3_1/1"
}
layer {
  name: "conv3_1/2/conv"
  type: "Convolution"
  bottom: "conv3_1/1"
  top: "conv3_1/2/conv"
  param {
    lr_mult: 0.1
    decay_mult: 0.1
  }
  convolution_param {
    num_output: 48
    bias_term: true
    weight_filler {
      type: "xavier"
    }
    bias_filler {
      type: "constant"
      value: 0
    }
    pad_h: 1
    pad_w: 1
    kernel_h: 3
    kernel_w: 3
    stride_h: 1
    stride_w: 1
  }
}
layer {
  name: "conv3_1/2/neg"
  type: "Power"
  bottom: "conv3_1/2/conv"
  top: "conv3_1/2/neg"
  power_param {
    power: 1
    scale: -1
    shift: 0
  }
}
layer {
  name: "conv3_1/2/concat"
  type: "Concat"
  bottom: "conv3_1/2/conv"
  bottom: "conv3_1/2/neg"
  top: "conv3_1/2"
}
layer {
  name: "conv3_1/2/scale"
  type: "Scale"
  bottom: "conv3_1/2"
  top: "conv3_1/2"
  param {
    lr_mult: 0.1
    decay_mult: 0
  }
  param {
    lr_mult: 0.2
    decay_mult: 0
  }
  scale_param {
    bias_term: true
  }
}
layer {
  name: "conv3_1/2/relu"
  type: "ReLU"
  bottom: "conv3_1/2"
  top: "conv3_1/2"
}
layer {
  name: "conv3_1/3/conv"
  type: "Convolution"
  bottom: "conv3_1/2"
  top: "conv3_1/3"
  param {
    lr_mult: 0.1
    decay_mult: 0.1
  }
  convolution_param {
    num_output: 128
    bias_term: true
    weight_filler {
      type: "xavier"
    }
    bias_filler {
      type: "constant"
      value: 0
    }
    pad_h: 0
    pad_w: 0
    kernel_h: 1
    kernel_w: 1
    stride_h: 1
    stride_w: 1
    engine: CAFFE
  }
}
layer {
  name: "conv3_1/proj"
  type: "Convolution"
  bottom: "conv2_3"
  top: "conv3_1/proj"
  param {
    lr_mult: 0.1
    decay_mult: 0.1
  }
  param {
    lr_mult: 0.2
    decay_mult: 0
  }
  convolution_param {
    num_output: 128
    weight_filler {
      type: "xavier"
    }
    bias_filler {
      type: "constant"
      value: 0.1
    }
    pad_h: 0
    pad_w: 0
    kernel_h: 1
    kernel_w: 1
    stride_h: 2
    stride_w: 2
    engine: CAFFE
  }
}
layer {
  name: "conv3_1"
  type: "Eltwise"
  bottom: "conv3_1/3"
  bottom: "conv3_1/proj"
  top: "conv3_1"
  eltwise_param {
    operation: SUM
    coeff: 1
    coeff: 1
  }
}
layer {
  name: "conv3_2/1/conv"
  type: "Convolution"
  bottom: "conv3_1"
  top: "conv3_2/1"
  param {
    lr_mult: 0.1
    decay_mult: 0.1
  }
  convolution_param {
    num_output: 48
    bias_term: true
    weight_filler {
      type: "xavier"
    }
    bias_filler {
      type: "constant"
      value: 0
    }
    pad_h: 0
    pad_w: 0
    kernel_h: 1
    kernel_w: 1
    stride_h: 1
    stride_w: 1
    engine: CAFFE
  }
}
layer {
  name: "conv3_2/1/relu"
  type: "ReLU"
  bottom: "conv3_2/1"
  top: "conv3_2/1"
}
layer {
  name: "conv3_2/2/conv"
  type: "Convolution"
  bottom: "conv3_2/1"
  top: "conv3_2/2/conv"
  param {
    lr_mult: 0.1
    decay_mult: 0.1
  }
  convolution_param {
    num_output: 48
    bias_term: true
    weight_filler {
      type: "xavier"
    }
    bias_filler {
      type: "constant"
      value: 0
    }
    pad_h: 1
    pad_w: 1
    kernel_h: 3
    kernel_w: 3
    stride_h: 1
    stride_w: 1
  }
}
layer {
  name: "conv3_2/2/neg"
  type: "Power"
  bottom: "conv3_2/2/conv"
  top: "conv3_2/2/neg"
  power_param {
    power: 1
    scale: -1
    shift: 0
  }
}
layer {
  name: "conv3_2/2/concat"
  type: "Concat"
  bottom: "conv3_2/2/conv"
  bottom: "conv3_2/2/neg"
  top: "conv3_2/2"
}
layer {
  name: "conv3_2/2/scale"
  type: "Scale"
  bottom: "conv3_2/2"
  top: "conv3_2/2"
  param {
    lr_mult: 0.1
    decay_mult: 0
  }
  param {
    lr_mult: 0.2
    decay_mult: 0
  }
  scale_param {
    bias_term: true
  }
}
layer {
  name: "conv3_2/2/relu"
  type: "ReLU"
  bottom: "conv3_2/2"
  top: "conv3_2/2"
}
layer {
  name: "conv3_2/3/conv"
  type: "Convolution"
  bottom: "conv3_2/2"
  top: "conv3_2/3"
  param {
    lr_mult: 0.1
    decay_mult: 0.1
  }
  convolution_param {
    num_output: 128
    bias_term: true
    weight_filler {
      type: "xavier"
    }
    bias_filler {
      type: "constant"
      value: 0
    }
    pad_h: 0
    pad_w: 0
    kernel_h: 1
    kernel_w: 1
    stride_h: 1
    stride_w: 1
    engine: CAFFE
  }
}
layer {
  name: "conv3_2/input"
  type: "Power"
  bottom: "conv3_1"
  top: "conv3_2/input"
  power_param {
    power: 1
    scale: 1
    shift: 0
  }
}
layer {
  name: "conv3_2"
  type: "Eltwise"
  bottom: "conv3_2/3"
  bottom: "conv3_2/input"
  top: "conv3_2"
  eltwise_param {
    operation: SUM
    coeff: 1
    coeff: 1
  }
}
layer {
  name: "conv3_3/1/conv"
  type: "Convolution"
  bottom: "conv3_2"
  top: "conv3_3/1"
  param {
    lr_mult: 0.1
    decay_mult: 0.1
  }
  convolution_param {
    num_output: 48
    bias_term: true
    weight_filler {
      type: "xavier"
    }
    bias_filler {
      type: "constant"
      value: 0
    }
    pad_h: 0
    pad_w: 0
    kernel_h: 1
    kernel_w: 1
    stride_h: 1
    stride_w: 1
    engine: CAFFE
  }
}
layer {
  name: "conv3_3/1/relu"
  type: "ReLU"
  bottom: "conv3_3/1"
  top: "conv3_3/1"
}
layer {
  name: "conv3_3/2/conv"
  type: "Convolution"
  bottom: "conv3_3/1"
  top: "conv3_3/2/conv"
  param {
    lr_mult: 0.1
    decay_mult: 0.1
  }
  convolution_param {
    num_output: 48
    bias_term: true
    weight_filler {
      type: "xavier"
    }
    bias_filler {
      type: "constant"
      value: 0
    }
    pad_h: 1
    pad_w: 1
    kernel_h: 3
    kernel_w: 3
    stride_h: 1
    stride_w: 1
  }
}
layer {
  name: "conv3_3/2/neg"
  type: "Power"
  bottom: "conv3_3/2/conv"
  top: "conv3_3/2/neg"
  power_param {
    power: 1
    scale: -1
    shift: 0
  }
}
layer {
  name: "conv3_3/2/concat"
  type: "Concat"
  bottom: "conv3_3/2/conv"
  bottom: "conv3_3/2/neg"
  top: "conv3_3/2"
}
layer {
  name: "conv3_3/2/scale"
  type: "Scale"
  bottom: "conv3_3/2"
  top: "conv3_3/2"
  param {
    lr_mult: 0.1
    decay_mult: 0
  }
  param {
    lr_mult: 0.2
    decay_mult: 0
  }
  scale_param {
    bias_term: true
  }
}
layer {
  name: "conv3_3/2/relu"
  type: "ReLU"
  bottom: "conv3_3/2"
  top: "conv3_3/2"
}
layer {
  name: "conv3_3/3/conv"
  type: "Convolution"
  bottom: "conv3_3/2"
  top: "conv3_3/3"
  param {
    lr_mult: 0.1
    decay_mult: 0.1
  }
  convolution_param {
    num_output: 128
    bias_term: true
    weight_filler {
      type: "xavier"
    }
    bias_filler {
      type: "constant"
      value: 0
    }
    pad_h: 0
    pad_w: 0
    kernel_h: 1
    kernel_w: 1
    stride_h: 1
    stride_w: 1
    engine: CAFFE
  }
}
layer {
  name: "conv3_3/input"
  type: "Power"
  bottom: "conv3_2"
  top: "conv3_3/input"
  power_param {
    power: 1
    scale: 1
    shift: 0
  }
}
layer {
  name: "conv3_3"
  type: "Eltwise"
  bottom: "conv3_3/3"
  bottom: "conv3_3/input"
  top: "conv3_3"
  eltwise_param {
    operation: SUM
    coeff: 1
    coeff: 1
  }
}
layer {
  name: "conv3_4/1/conv"
  type: "Convolution"
  bottom: "conv3_3"
  top: "conv3_4/1"
  param {
    lr_mult: 0.1
    decay_mult: 0.1
  }
  convolution_param {
    num_output: 48
    bias_term: true
    weight_filler {
      type: "xavier"
    }
    bias_filler {
      type: "constant"
      value: 0
    }
    pad_h: 0
    pad_w: 0
    kernel_h: 1
    kernel_w: 1
    stride_h: 1
    stride_w: 1
    engine: CAFFE
  }
}
layer {
  name: "conv3_4/1/relu"
  type: "ReLU"
  bottom: "conv3_4/1"
  top: "conv3_4/1"
}
layer {
  name: "conv3_4/2/conv"
  type: "Convolution"
  bottom: "conv3_4/1"
  top: "conv3_4/2/conv"
  param {
    lr_mult: 0.1
    decay_mult: 0.1
  }
  convolution_param {
    num_output: 48
    bias_term: true
    weight_filler {
      type: "xavier"
    }
    bias_filler {
      type: "constant"
      value: 0
    }
    pad_h: 1
    pad_w: 1
    kernel_h: 3
    kernel_w: 3
    stride_h: 1
    stride_w: 1
  }
}
layer {
  name: "conv3_4/2/neg"
  type: "Power"
  bottom: "conv3_4/2/conv"
  top: "conv3_4/2/neg"
  power_param {
    power: 1
    scale: -1
    shift: 0
  }
}
layer {
  name: "conv3_4/2/concat"
  type: "Concat"
  bottom: "conv3_4/2/conv"
  bottom: "conv3_4/2/neg"
  top: "conv3_4/2"
}
layer {
  name: "conv3_4/2/scale"
  type: "Scale"
  bottom: "conv3_4/2"
  top: "conv3_4/2"
  param {
    lr_mult: 0.1
    decay_mult: 0
  }
  param {
    lr_mult: 0.2
    decay_mult: 0
  }
  scale_param {
    bias_term: true
  }
}
layer {
  name: "conv3_4/2/relu"
  type: "ReLU"
  bottom: "conv3_4/2"
  top: "conv3_4/2"
}
layer {
  name: "conv3_4/3/conv"
  type: "Convolution"
  bottom: "conv3_4/2"
  top: "conv3_4/3"
  param {
    lr_mult: 0.1
    decay_mult: 0.1
  }
  convolution_param {
    num_output: 128
    bias_term: true
    weight_filler {
      type: "xavier"
    }
    bias_filler {
      type: "constant"
      value: 0
    }
    pad_h: 0
    pad_w: 0
    kernel_h: 1
    kernel_w: 1
    stride_h: 1
    stride_w: 1
    engine: CAFFE
  }
}
layer {
  name: "conv3_4/input"
  type: "Power"
  bottom: "conv3_3"
  top: "conv3_4/input"
  power_param {
    power: 1
    scale: 1
    shift: 0
  }
}
layer {
  name: "conv3_4"
  type: "Eltwise"
  bottom: "conv3_4/3"
  bottom: "conv3_4/input"
  top: "conv3_4"
  eltwise_param {
    operation: SUM
    coeff: 1
    coeff: 1
  }
}
layer {
  name: "conv4_1/incep/0/conv"
  type: "Convolution"
  bottom: "conv3_4"
  top: "conv4_1/incep/0"
  param {
    lr_mult: 0.1
    decay_mult: 0.1
  }
  convolution_param {
    num_output: 64
    bias_term: true
    weight_filler {
      type: "xavier"
    }
    bias_filler {
      type: "constant"
      value: 0
    }
    pad_h: 0
    pad_w: 0
    kernel_h: 1
    kernel_w: 1
    stride_h: 2
    stride_w: 2
    engine: CAFFE
  }
}
layer {
  name: "conv4_1/incep/0/relu"
  type: "ReLU"
  bottom: "conv4_1/incep/0"
  top: "conv4_1/incep/0"
}
layer {
  name: "conv4_1/incep/1_reduce/conv"
  type: "Convolution"
  bottom: "conv3_4"
  top: "conv4_1/incep/1_reduce"
  param {
    lr_mult: 0.1
    decay_mult: 0.1
  }
  convolution_param {
    num_output: 48
    bias_term: true
    weight_filler {
      type: "xavier"
    }
    bias_filler {
      type: "constant"
      value: 0
    }
    pad_h: 0
    pad_w: 0
    kernel_h: 1
    kernel_w: 1
    stride_h: 2
    stride_w: 2
    engine: CAFFE
  }
}
layer {
  name: "conv4_1/incep/1_reduce/relu"
  type: "ReLU"
  bottom: "conv4_1/incep/1_reduce"
  top: "conv4_1/incep/1_reduce"
}
layer {
  name: "conv4_1/incep/1_0/conv"
  type: "Convolution"
  bottom: "conv4_1/incep/1_reduce"
  top: "conv4_1/incep/1_0"
  param {
    lr_mult: 0.1
    decay_mult: 0.1
  }
  convolution_param {
    num_output: 128
    bias_term: true
    weight_filler {
      type: "xavier"
    }
    bias_filler {
      type: "constant"
      value: 0
    }
    pad_h: 1
    pad_w: 1
    kernel_h: 3
    kernel_w: 3
    stride_h: 1
    stride_w: 1
  }
}
layer {
  name: "conv4_1/incep/1_0/relu"
  type: "ReLU"
  bottom: "conv4_1/incep/1_0"
  top: "conv4_1/incep/1_0"
}
layer {
  name: "conv4_1/incep/2_reduce/conv"
  type: "Convolution"
  bottom: "conv3_4"
  top: "conv4_1/incep/2_reduce"
  param {
    lr_mult: 0.1
    decay_mult: 0.1
  }
  convolution_param {
    num_output: 24
    bias_term: true
    weight_filler {
      type: "xavier"
    }
    bias_filler {
      type: "constant"
      value: 0
    }
    pad_h: 0
    pad_w: 0
    kernel_h: 1
    kernel_w: 1
    stride_h: 2
    stride_w: 2
    engine: CAFFE
  }
}
layer {
  name: "conv4_1/incep/2_reduce/relu"
  type: "ReLU"
  bottom: "conv4_1/incep/2_reduce"
  top: "conv4_1/incep/2_reduce"
}
layer {
  name: "conv4_1/incep/2_0/conv"
  type: "Convolution"
  bottom: "conv4_1/incep/2_reduce"
  top: "conv4_1/incep/2_0"
  param {
    lr_mult: 0.1
    decay_mult: 0.1
  }
  convolution_param {
    num_output: 48
    bias_term: true
    weight_filler {
      type: "xavier"
    }
    bias_filler {
      type: "constant"
      value: 0
    }
    pad_h: 1
    pad_w: 1
    kernel_h: 3
    kernel_w: 3
    stride_h: 1
    stride_w: 1
  }
}
layer {
  name: "conv4_1/incep/2_0/relu"
  type: "ReLU"
  bottom: "conv4_1/incep/2_0"
  top: "conv4_1/incep/2_0"
}
layer {
  name: "conv4_1/incep/2_1/conv"
  type: "Convolution"
  bottom: "conv4_1/incep/2_0"
  top: "conv4_1/incep/2_1"
  param {
    lr_mult: 0.1
    decay_mult: 0.1
  }
  convolution_param {
    num_output: 48
    bias_term: true
    weight_filler {
      type: "xavier"
    }
    bias_filler {
      type: "constant"
      value: 0
    }
    pad_h: 1
    pad_w: 1
    kernel_h: 3
    kernel_w: 3
    stride_h: 1
    stride_w: 1
  }
}
layer {
  name: "conv4_1/incep/2_1/relu"
  type: "ReLU"
  bottom: "conv4_1/incep/2_1"
  top: "conv4_1/incep/2_1"
}
layer {
  name: "conv4_1/incep/pool"
  type: "Pooling"
  bottom: "conv3_4"
  top: "conv4_1/incep/pool"
  pooling_param {
    pool: MAX
    kernel_size: 3
    stride: 2
    pad: 0
  }
}
layer {
  name: "conv4_1/incep/poolproj/conv"
  type: "Convolution"
  bottom: "conv4_1/incep/pool"
  top: "conv4_1/incep/poolproj"
  param {
    lr_mult: 0.1
    decay_mult: 0.1
  }
  convolution_param {
    num_output: 128
    bias_term: true
    weight_filler {
      type: "xavier"
    }
    bias_filler {
      type: "constant"
      value: 0
    }
    pad_h: 0
    pad_w: 0
    kernel_h: 1
    kernel_w: 1
    stride_h: 1
    stride_w: 1
    engine: CAFFE
  }
}
layer {
  name: "conv4_1/incep/poolproj/relu"
  type: "ReLU"
  bottom: "conv4_1/incep/poolproj"
  top: "conv4_1/incep/poolproj"
}
layer {
  name: "conv4_1/incep"
  type: "Concat"
  bottom: "conv4_1/incep/0"
  bottom: "conv4_1/incep/1_0"
  bottom: "conv4_1/incep/2_1"
  bottom: "conv4_1/incep/poolproj"
  top: "conv4_1/incep"
}
layer {
  name: "conv4_1/out/conv"
  type: "Convolution"
  bottom: "conv4_1/incep"
  top: "conv4_1/out"
  param {
    lr_mult: 0.1
    decay_mult: 0.1
  }
  convolution_param {
    num_output: 256
    bias_term: true
    weight_filler {
      type: "xavier"
    }
    bias_filler {
      type: "constant"
      value: 0
    }
    pad_h: 0
    pad_w: 0
    kernel_h: 1
    kernel_w: 1
    stride_h: 1
    stride_w: 1
    engine: CAFFE
  }
}
layer {
  name: "conv4_1/proj"
  type: "Convolution"
  bottom: "conv3_4"
  top: "conv4_1/proj"
  param {
    lr_mult: 0.1
    decay_mult: 0.1
  }
  param {
    lr_mult: 0.2
    decay_mult: 0
  }
  convolution_param {
    num_output: 256
    weight_filler {
      type: "xavier"
    }
    bias_filler {
      type: "constant"
      value: 0.1
    }
    pad_h: 0
    pad_w: 0
    kernel_h: 1
    kernel_w: 1
    stride_h: 2
    stride_w: 2
    engine: CAFFE
  }
}
layer {
  name: "conv4_1"
  type: "Eltwise"
  bottom: "conv4_1/out"
  bottom: "conv4_1/proj"
  top: "conv4_1"
  eltwise_param {
    operation: SUM
    coeff: 1
    coeff: 1
  }
}
layer {
  name: "conv4_2/incep/0/conv"
  type: "Convolution"
  bottom: "conv4_1"
  top: "conv4_2/incep/0"
  param {
    lr_mult: 0.1
    decay_mult: 0.1
  }
  convolution_param {
    num_output: 64
    bias_term: true
    weight_filler {
      type: "xavier"
    }
    bias_filler {
      type: "constant"
      value: 0
    }
    pad_h: 0
    pad_w: 0
    kernel_h: 1
    kernel_w: 1
    stride_h: 1
    stride_w: 1
    engine: CAFFE
  }
}
layer {
  name: "conv4_2/incep/0/relu"
  type: "ReLU"
  bottom: "conv4_2/incep/0"
  top: "conv4_2/incep/0"
}
layer {
  name: "conv4_2/incep/1_reduce/conv"
  type: "Convolution"
  bottom: "conv4_1"
  top: "conv4_2/incep/1_reduce"
  param {
    lr_mult: 0.1
    decay_mult: 0.1
  }
  convolution_param {
    num_output: 64
    bias_term: true
    weight_filler {
      type: "xavier"
    }
    bias_filler {
      type: "constant"
      value: 0
    }
    pad_h: 0
    pad_w: 0
    kernel_h: 1
    kernel_w: 1
    stride_h: 1
    stride_w: 1
    engine: CAFFE
  }
}
layer {
  name: "conv4_2/incep/1_reduce/relu"
  type: "ReLU"
  bottom: "conv4_2/incep/1_reduce"
  top: "conv4_2/incep/1_reduce"
}
layer {
  name: "conv4_2/incep/1_0/conv"
  type: "Convolution"
  bottom: "conv4_2/incep/1_reduce"
  top: "conv4_2/incep/1_0"
  param {
    lr_mult: 0.1
    decay_mult: 0.1
  }
  convolution_param {
    num_output: 128
    bias_term: true
    weight_filler {
      type: "xavier"
    }
    bias_filler {
      type: "constant"
      value: 0
    }
    pad_h: 1
    pad_w: 1
    kernel_h: 3
    kernel_w: 3
    stride_h: 1
    stride_w: 1
  }
}
layer {
  name: "conv4_2/incep/1_0/relu"
  type: "ReLU"
  bottom: "conv4_2/incep/1_0"
  top: "conv4_2/incep/1_0"
}
layer {
  name: "conv4_2/incep/2_reduce/conv"
  type: "Convolution"
  bottom: "conv4_1"
  top: "conv4_2/incep/2_reduce"
  param {
    lr_mult: 0.1
    decay_mult: 0.1
  }
  convolution_param {
    num_output: 24
    bias_term: true
    weight_filler {
      type: "xavier"
    }
    bias_filler {
      type: "constant"
      value: 0
    }
    pad_h: 0
    pad_w: 0
    kernel_h: 1
    kernel_w: 1
    stride_h: 1
    stride_w: 1
    engine: CAFFE
  }
}
layer {
  name: "conv4_2/incep/2_reduce/relu"
  type: "ReLU"
  bottom: "conv4_2/incep/2_reduce"
  top: "conv4_2/incep/2_reduce"
}
layer {
  name: "conv4_2/incep/2_0/conv"
  type: "Convolution"
  bottom: "conv4_2/incep/2_reduce"
  top: "conv4_2/incep/2_0"
  param {
    lr_mult: 0.1
    decay_mult: 0.1
  }
  convolution_param {
    num_output: 48
    bias_term: true
    weight_filler {
      type: "xavier"
    }
    bias_filler {
      type: "constant"
      value: 0
    }
    pad_h: 1
    pad_w: 1
    kernel_h: 3
    kernel_w: 3
    stride_h: 1
    stride_w: 1
  }
}
layer {
  name: "conv4_2/incep/2_0/relu"
  type: "ReLU"
  bottom: "conv4_2/incep/2_0"
  top: "conv4_2/incep/2_0"
}
layer {
  name: "conv4_2/incep/2_1/conv"
  type: "Convolution"
  bottom: "conv4_2/incep/2_0"
  top: "conv4_2/incep/2_1"
  param {
    lr_mult: 0.1
    decay_mult: 0.1
  }
  convolution_param {
    num_output: 48
    bias_term: true
    weight_filler {
      type: "xavier"
    }
    bias_filler {
      type: "constant"
      value: 0
    }
    pad_h: 1
    pad_w: 1
    kernel_h: 3
    kernel_w: 3
    stride_h: 1
    stride_w: 1
  }
}
layer {
  name: "conv4_2/incep/2_1/relu"
  type: "ReLU"
  bottom: "conv4_2/incep/2_1"
  top: "conv4_2/incep/2_1"
}
layer {
  name: "conv4_2/incep"
  type: "Concat"
  bottom: "conv4_2/incep/0"
  bottom: "conv4_2/incep/1_0"
  bottom: "conv4_2/incep/2_1"
  top: "conv4_2/incep"
}
layer {
  name: "conv4_2/out/conv"
  type: "Convolution"
  bottom: "conv4_2/incep"
  top: "conv4_2/out"
  param {
    lr_mult: 0.1
    decay_mult: 0.1
  }
  convolution_param {
    num_output: 256
    bias_term: true
    weight_filler {
      type: "xavier"
    }
    bias_filler {
      type: "constant"
      value: 0
    }
    pad_h: 0
    pad_w: 0
    kernel_h: 1
    kernel_w: 1
    stride_h: 1
    stride_w: 1
    engine: CAFFE
  }
}
layer {
  name: "conv4_2/input"
  type: "Power"
  bottom: "conv4_1"
  top: "conv4_2/input"
  power_param {
    power: 1
    scale: 1
    shift: 0
  }
}
layer {
  name: "conv4_2"
  type: "Eltwise"
  bottom: "conv4_2/out"
  bottom: "conv4_2/input"
  top: "conv4_2"
  eltwise_param {
    operation: SUM
    coeff: 1
    coeff: 1
  }
}
layer {
  name: "conv4_3/incep/0/conv"
  type: "Convolution"
  bottom: "conv4_2"
  top: "conv4_3/incep/0"
  param {
    lr_mult: 0.1
    decay_mult: 0.1
  }
  convolution_param {
    num_output: 64
    bias_term: true
    weight_filler {
      type: "xavier"
    }
    bias_filler {
      type: "constant"
      value: 0
    }
    pad_h: 0
    pad_w: 0
    kernel_h: 1
    kernel_w: 1
    stride_h: 1
    stride_w: 1
    engine: CAFFE
  }
}
layer {
  name: "conv4_3/incep/0/relu"
  type: "ReLU"
  bottom: "conv4_3/incep/0"
  top: "conv4_3/incep/0"
}
layer {
  name: "conv4_3/incep/1_reduce/conv"
  type: "Convolution"
  bottom: "conv4_2"
  top: "conv4_3/incep/1_reduce"
  param {
    lr_mult: 0.1
    decay_mult: 0.1
  }
  convolution_param {
    num_output: 64
    bias_term: true
    weight_filler {
      type: "xavier"
    }
    bias_filler {
      type: "constant"
      value: 0
    }
    pad_h: 0
    pad_w: 0
    kernel_h: 1
    kernel_w: 1
    stride_h: 1
    stride_w: 1
    engine: CAFFE
  }
}
layer {
  name: "conv4_3/incep/1_reduce/relu"
  type: "ReLU"
  bottom: "conv4_3/incep/1_reduce"
  top: "conv4_3/incep/1_reduce"
}
layer {
  name: "conv4_3/incep/1_0/conv"
  type: "Convolution"
  bottom: "conv4_3/incep/1_reduce"
  top: "conv4_3/incep/1_0"
  param {
    lr_mult: 0.1
    decay_mult: 0.1
  }
  convolution_param {
    num_output: 128
    bias_term: true
    weight_filler {
      type: "xavier"
    }
    bias_filler {
      type: "constant"
      value: 0
    }
    pad_h: 1
    pad_w: 1
    kernel_h: 3
    kernel_w: 3
    stride_h: 1
    stride_w: 1
  }
}
layer {
  name: "conv4_3/incep/1_0/relu"
  type: "ReLU"
  bottom: "conv4_3/incep/1_0"
  top: "conv4_3/incep/1_0"
}
layer {
  name: "conv4_3/incep/2_reduce/conv"
  type: "Convolution"
  bottom: "conv4_2"
  top: "conv4_3/incep/2_reduce"
  param {
    lr_mult: 0.1
    decay_mult: 0.1
  }
  convolution_param {
    num_output: 24
    bias_term: true
    weight_filler {
      type: "xavier"
    }
    b
I0316 17:30:03.917656  5916 layer_factory.hpp:77] Creating layer input
I0316 17:30:03.917696  5916 net.cpp:100] Creating Layer input
I0316 17:30:03.917706  5916 net.cpp:408] input -> data
I0316 17:30:03.917724  5916 net.cpp:408] input -> im_info
I0316 17:30:03.959107  5916 net.cpp:150] Setting up input
I0316 17:30:03.959136  5916 net.cpp:157] Top shape: 1 3 640 1056 (2027520)
I0316 17:30:03.959141  5916 net.cpp:157] Top shape: 1 6 (6)
I0316 17:30:03.959142  5916 net.cpp:165] Memory required for data: 8110104
I0316 17:30:03.959148  5916 layer_factory.hpp:77] Creating layer conv1_1/conv
I0316 17:30:03.959162  5916 net.cpp:100] Creating Layer conv1_1/conv
I0316 17:30:03.959167  5916 net.cpp:434] conv1_1/conv <- data
I0316 17:30:03.959172  5916 net.cpp:408] conv1_1/conv -> conv1_1/conv
I0316 17:30:04.126194  5916 net.cpp:150] Setting up conv1_1/conv
I0316 17:30:04.126220  5916 net.cpp:157] Top shape: 1 16 320 528 (2703360)
I0316 17:30:04.126224  5916 net.cpp:165] Memory required for data: 18923544
I0316 17:30:04.126236  5916 layer_factory.hpp:77] Creating layer conv1_1/conv_conv1_1/conv_0_split
I0316 17:30:04.126245  5916 net.cpp:100] Creating Layer conv1_1/conv_conv1_1/conv_0_split
I0316 17:30:04.126248  5916 net.cpp:434] conv1_1/conv_conv1_1/conv_0_split <- conv1_1/conv
I0316 17:30:04.126253  5916 net.cpp:408] conv1_1/conv_conv1_1/conv_0_split -> conv1_1/conv_conv1_1/conv_0_split_0
I0316 17:30:04.126260  5916 net.cpp:408] conv1_1/conv_conv1_1/conv_0_split -> conv1_1/conv_conv1_1/conv_0_split_1
I0316 17:30:04.126288  5916 net.cpp:150] Setting up conv1_1/conv_conv1_1/conv_0_split
I0316 17:30:04.126292  5916 net.cpp:157] Top shape: 1 16 320 528 (2703360)
I0316 17:30:04.126296  5916 net.cpp:157] Top shape: 1 16 320 528 (2703360)
I0316 17:30:04.126298  5916 net.cpp:165] Memory required for data: 40550424
I0316 17:30:04.126301  5916 layer_factory.hpp:77] Creating layer conv1_1/neg
I0316 17:30:04.126305  5916 net.cpp:100] Creating Layer conv1_1/neg
I0316 17:30:04.126313  5916 net.cpp:434] conv1_1/neg <- conv1_1/conv_conv1_1/conv_0_split_0
I0316 17:30:04.126317  5916 net.cpp:408] conv1_1/neg -> conv1_1/neg
I0316 17:30:04.126332  5916 net.cpp:150] Setting up conv1_1/neg
I0316 17:30:04.126337  5916 net.cpp:157] Top shape: 1 16 320 528 (2703360)
I0316 17:30:04.126338  5916 net.cpp:165] Memory required for data: 51363864
I0316 17:30:04.126340  5916 layer_factory.hpp:77] Creating layer conv1_1/concat
I0316 17:30:04.126345  5916 net.cpp:100] Creating Layer conv1_1/concat
I0316 17:30:04.126348  5916 net.cpp:434] conv1_1/concat <- conv1_1/conv_conv1_1/conv_0_split_1
I0316 17:30:04.126350  5916 net.cpp:434] conv1_1/concat <- conv1_1/neg
I0316 17:30:04.126353  5916 net.cpp:408] conv1_1/concat -> conv1_1
I0316 17:30:04.126368  5916 net.cpp:150] Setting up conv1_1/concat
I0316 17:30:04.126371  5916 net.cpp:157] Top shape: 1 32 320 528 (5406720)
I0316 17:30:04.126374  5916 net.cpp:165] Memory required for data: 72990744
I0316 17:30:04.126375  5916 layer_factory.hpp:77] Creating layer conv1_1/scale
I0316 17:30:04.126380  5916 net.cpp:100] Creating Layer conv1_1/scale
I0316 17:30:04.126382  5916 net.cpp:434] conv1_1/scale <- conv1_1
I0316 17:30:04.126386  5916 net.cpp:395] conv1_1/scale -> conv1_1 (in-place)
I0316 17:30:04.126413  5916 layer_factory.hpp:77] Creating layer conv1_1/scale
I0316 17:30:04.127121  5916 net.cpp:150] Setting up conv1_1/scale
I0316 17:30:04.127130  5916 net.cpp:157] Top shape: 1 32 320 528 (5406720)
I0316 17:30:04.127133  5916 net.cpp:165] Memory required for data: 94617624
I0316 17:30:04.127140  5916 layer_factory.hpp:77] Creating layer conv1_1/relu
I0316 17:30:04.127144  5916 net.cpp:100] Creating Layer conv1_1/relu
I0316 17:30:04.127146  5916 net.cpp:434] conv1_1/relu <- conv1_1
I0316 17:30:04.127151  5916 net.cpp:395] conv1_1/relu -> conv1_1 (in-place)
I0316 17:30:04.127360  5916 net.cpp:150] Setting up conv1_1/relu
I0316 17:30:04.127368  5916 net.cpp:157] Top shape: 1 32 320 528 (5406720)
I0316 17:30:04.127372  5916 net.cpp:165] Memory required for data: 116244504
I0316 17:30:04.127373  5916 layer_factory.hpp:77] Creating layer pool1
I0316 17:30:04.127378  5916 net.cpp:100] Creating Layer pool1
I0316 17:30:04.127382  5916 net.cpp:434] pool1 <- conv1_1
I0316 17:30:04.127385  5916 net.cpp:408] pool1 -> pool1
I0316 17:30:04.127411  5916 net.cpp:150] Setting up pool1
I0316 17:30:04.127416  5916 net.cpp:157] Top shape: 1 32 160 264 (1351680)
I0316 17:30:04.127419  5916 net.cpp:165] Memory required for data: 121651224
I0316 17:30:04.127421  5916 layer_factory.hpp:77] Creating layer pool1_pool1_0_split
I0316 17:30:04.127426  5916 net.cpp:100] Creating Layer pool1_pool1_0_split
I0316 17:30:04.127429  5916 net.cpp:434] pool1_pool1_0_split <- pool1
I0316 17:30:04.127432  5916 net.cpp:408] pool1_pool1_0_split -> pool1_pool1_0_split_0
I0316 17:30:04.127437  5916 net.cpp:408] pool1_pool1_0_split -> pool1_pool1_0_split_1
I0316 17:30:04.127457  5916 net.cpp:150] Setting up pool1_pool1_0_split
I0316 17:30:04.127461  5916 net.cpp:157] Top shape: 1 32 160 264 (1351680)
I0316 17:30:04.127465  5916 net.cpp:157] Top shape: 1 32 160 264 (1351680)
I0316 17:30:04.127467  5916 net.cpp:165] Memory required for data: 132464664
I0316 17:30:04.127470  5916 layer_factory.hpp:77] Creating layer conv2_1/1/conv
I0316 17:30:04.127476  5916 net.cpp:100] Creating Layer conv2_1/1/conv
I0316 17:30:04.127480  5916 net.cpp:434] conv2_1/1/conv <- pool1_pool1_0_split_0
I0316 17:30:04.127483  5916 net.cpp:408] conv2_1/1/conv -> conv2_1/1
I0316 17:30:04.128167  5916 net.cpp:150] Setting up conv2_1/1/conv
I0316 17:30:04.128176  5916 net.cpp:157] Top shape: 1 24 160 264 (1013760)
I0316 17:30:04.128180  5916 net.cpp:165] Memory required for data: 136519704
I0316 17:30:04.128185  5916 layer_factory.hpp:77] Creating layer conv2_1/1/relu
I0316 17:30:04.128190  5916 net.cpp:100] Creating Layer conv2_1/1/relu
I0316 17:30:04.128192  5916 net.cpp:434] conv2_1/1/relu <- conv2_1/1
I0316 17:30:04.128196  5916 net.cpp:395] conv2_1/1/relu -> conv2_1/1 (in-place)
I0316 17:30:04.128473  5916 net.cpp:150] Setting up conv2_1/1/relu
I0316 17:30:04.128479  5916 net.cpp:157] Top shape: 1 24 160 264 (1013760)
I0316 17:30:04.128481  5916 net.cpp:165] Memory required for data: 140574744
I0316 17:30:04.128484  5916 layer_factory.hpp:77] Creating layer conv2_1/2/conv
I0316 17:30:04.128490  5916 net.cpp:100] Creating Layer conv2_1/2/conv
I0316 17:30:04.128492  5916 net.cpp:434] conv2_1/2/conv <- conv2_1/1
I0316 17:30:04.128496  5916 net.cpp:408] conv2_1/2/conv -> conv2_1/2/conv
I0316 17:30:04.135216  5916 net.cpp:150] Setting up conv2_1/2/conv
I0316 17:30:04.135226  5916 net.cpp:157] Top shape: 1 24 160 264 (1013760)
I0316 17:30:04.135229  5916 net.cpp:165] Memory required for data: 144629784
I0316 17:30:04.135234  5916 layer_factory.hpp:77] Creating layer conv2_1/2/conv_conv2_1/2/conv_0_split
I0316 17:30:04.135238  5916 net.cpp:100] Creating Layer conv2_1/2/conv_conv2_1/2/conv_0_split
I0316 17:30:04.135241  5916 net.cpp:434] conv2_1/2/conv_conv2_1/2/conv_0_split <- conv2_1/2/conv
I0316 17:30:04.135246  5916 net.cpp:408] conv2_1/2/conv_conv2_1/2/conv_0_split -> conv2_1/2/conv_conv2_1/2/conv_0_split_0
I0316 17:30:04.135251  5916 net.cpp:408] conv2_1/2/conv_conv2_1/2/conv_0_split -> conv2_1/2/conv_conv2_1/2/conv_0_split_1
I0316 17:30:04.135277  5916 net.cpp:150] Setting up conv2_1/2/conv_conv2_1/2/conv_0_split
I0316 17:30:04.135280  5916 net.cpp:157] Top shape: 1 24 160 264 (1013760)
I0316 17:30:04.135283  5916 net.cpp:157] Top shape: 1 24 160 264 (1013760)
I0316 17:30:04.135285  5916 net.cpp:165] Memory required for data: 152739864
I0316 17:30:04.135288  5916 layer_factory.hpp:77] Creating layer conv2_1/2/neg
I0316 17:30:04.135293  5916 net.cpp:100] Creating Layer conv2_1/2/neg
I0316 17:30:04.135294  5916 net.cpp:434] conv2_1/2/neg <- conv2_1/2/conv_conv2_1/2/conv_0_split_0
I0316 17:30:04.135298  5916 net.cpp:408] conv2_1/2/neg -> conv2_1/2/neg
I0316 17:30:04.135311  5916 net.cpp:150] Setting up conv2_1/2/neg
I0316 17:30:04.135314  5916 net.cpp:157] Top shape: 1 24 160 264 (1013760)
I0316 17:30:04.135318  5916 net.cpp:165] Memory required for data: 156794904
I0316 17:30:04.135319  5916 layer_factory.hpp:77] Creating layer conv2_1/2/concat
I0316 17:30:04.135324  5916 net.cpp:100] Creating Layer conv2_1/2/concat
I0316 17:30:04.135325  5916 net.cpp:434] conv2_1/2/concat <- conv2_1/2/conv_conv2_1/2/conv_0_split_1
I0316 17:30:04.135329  5916 net.cpp:434] conv2_1/2/concat <- conv2_1/2/neg
I0316 17:30:04.135332  5916 net.cpp:408] conv2_1/2/concat -> conv2_1/2
I0316 17:30:04.135345  5916 net.cpp:150] Setting up conv2_1/2/concat
I0316 17:30:04.135349  5916 net.cpp:157] Top shape: 1 48 160 264 (2027520)
I0316 17:30:04.135351  5916 net.cpp:165] Memory required for data: 164904984
I0316 17:30:04.135354  5916 layer_factory.hpp:77] Creating layer conv2_1/2/scale
I0316 17:30:04.135359  5916 net.cpp:100] Creating Layer conv2_1/2/scale
I0316 17:30:04.135361  5916 net.cpp:434] conv2_1/2/scale <- conv2_1/2
I0316 17:30:04.135365  5916 net.cpp:395] conv2_1/2/scale -> conv2_1/2 (in-place)
I0316 17:30:04.135393  5916 layer_factory.hpp:77] Creating layer conv2_1/2/scale
I0316 17:30:04.135495  5916 net.cpp:150] Setting up conv2_1/2/scale
I0316 17:30:04.135500  5916 net.cpp:157] Top shape: 1 48 160 264 (2027520)
I0316 17:30:04.135504  5916 net.cpp:165] Memory required for data: 173015064
I0316 17:30:04.135509  5916 layer_factory.hpp:77] Creating layer conv2_1/2/relu
I0316 17:30:04.135514  5916 net.cpp:100] Creating Layer conv2_1/2/relu
I0316 17:30:04.135516  5916 net.cpp:434] conv2_1/2/relu <- conv2_1/2
I0316 17:30:04.135519  5916 net.cpp:395] conv2_1/2/relu -> conv2_1/2 (in-place)
I0316 17:30:04.136229  5916 net.cpp:150] Setting up conv2_1/2/relu
I0316 17:30:04.136237  5916 net.cpp:157] Top shape: 1 48 160 264 (2027520)
I0316 17:30:04.136240  5916 net.cpp:165] Memory required for data: 181125144
I0316 17:30:04.136242  5916 layer_factory.hpp:77] Creating layer conv2_1/3/conv
I0316 17:30:04.136248  5916 net.cpp:100] Creating Layer conv2_1/3/conv
I0316 17:30:04.136251  5916 net.cpp:434] conv2_1/3/conv <- conv2_1/2
I0316 17:30:04.136258  5916 net.cpp:408] conv2_1/3/conv -> conv2_1/3
I0316 17:30:04.136435  5916 net.cpp:150] Setting up conv2_1/3/conv
I0316 17:30:04.136441  5916 net.cpp:157] Top shape: 1 64 160 264 (2703360)
I0316 17:30:04.136445  5916 net.cpp:165] Memory required for data: 191938584
I0316 17:30:04.136448  5916 layer_factory.hpp:77] Creating layer conv2_1/proj
I0316 17:30:04.136453  5916 net.cpp:100] Creating Layer conv2_1/proj
I0316 17:30:04.136456  5916 net.cpp:434] conv2_1/proj <- pool1_pool1_0_split_1
I0316 17:30:04.136461  5916 net.cpp:408] conv2_1/proj -> conv2_1/proj
I0316 17:30:04.136621  5916 net.cpp:150] Setting up conv2_1/proj
I0316 17:30:04.136627  5916 net.cpp:157] Top shape: 1 64 160 264 (2703360)
I0316 17:30:04.136629  5916 net.cpp:165] Memory required for data: 202752024
I0316 17:30:04.136633  5916 layer_factory.hpp:77] Creating layer conv2_1
I0316 17:30:04.136638  5916 net.cpp:100] Creating Layer conv2_1
I0316 17:30:04.136641  5916 net.cpp:434] conv2_1 <- conv2_1/3
I0316 17:30:04.136644  5916 net.cpp:434] conv2_1 <- conv2_1/proj
I0316 17:30:04.136647  5916 net.cpp:408] conv2_1 -> conv2_1
I0316 17:30:04.136664  5916 net.cpp:150] Setting up conv2_1
I0316 17:30:04.136668  5916 net.cpp:157] Top shape: 1 64 160 264 (2703360)
I0316 17:30:04.136670  5916 net.cpp:165] Memory required for data: 213565464
I0316 17:30:04.136672  5916 layer_factory.hpp:77] Creating layer conv2_1_conv2_1_0_split
I0316 17:30:04.136677  5916 net.cpp:100] Creating Layer conv2_1_conv2_1_0_split
I0316 17:30:04.136679  5916 net.cpp:434] conv2_1_conv2_1_0_split <- conv2_1
I0316 17:30:04.136682  5916 net.cpp:408] conv2_1_conv2_1_0_split -> conv2_1_conv2_1_0_split_0
I0316 17:30:04.136687  5916 net.cpp:408] conv2_1_conv2_1_0_split -> conv2_1_conv2_1_0_split_1
I0316 17:30:04.136708  5916 net.cpp:150] Setting up conv2_1_conv2_1_0_split
I0316 17:30:04.136711  5916 net.cpp:157] Top shape: 1 64 160 264 (2703360)
I0316 17:30:04.136714  5916 net.cpp:157] Top shape: 1 64 160 264 (2703360)
I0316 17:30:04.136716  5916 net.cpp:165] Memory required for data: 235192344
I0316 17:30:04.136718  5916 layer_factory.hpp:77] Creating layer conv2_2/1/conv
I0316 17:30:04.136723  5916 net.cpp:100] Creating Layer conv2_2/1/conv
I0316 17:30:04.136726  5916 net.cpp:434] conv2_2/1/conv <- conv2_1_conv2_1_0_split_0
I0316 17:30:04.136730  5916 net.cpp:408] conv2_2/1/conv -> conv2_2/1
I0316 17:30:04.137141  5916 net.cpp:150] Setting up conv2_2/1/conv
I0316 17:30:04.137151  5916 net.cpp:157] Top shape: 1 24 160 264 (1013760)
I0316 17:30:04.137152  5916 net.cpp:165] Memory required for data: 239247384
I0316 17:30:04.137156  5916 layer_factory.hpp:77] Creating layer conv2_2/1/relu
I0316 17:30:04.137161  5916 net.cpp:100] Creating Layer conv2_2/1/relu
I0316 17:30:04.137164  5916 net.cpp:434] conv2_2/1/relu <- conv2_2/1
I0316 17:30:04.137167  5916 net.cpp:395] conv2_2/1/relu -> conv2_2/1 (in-place)
I0316 17:30:04.137487  5916 net.cpp:150] Setting up conv2_2/1/relu
I0316 17:30:04.137493  5916 net.cpp:157] Top shape: 1 24 160 264 (1013760)
I0316 17:30:04.137495  5916 net.cpp:165] Memory required for data: 243302424
I0316 17:30:04.137498  5916 layer_factory.hpp:77] Creating layer conv2_2/2/conv
I0316 17:30:04.137503  5916 net.cpp:100] Creating Layer conv2_2/2/conv
I0316 17:30:04.137506  5916 net.cpp:434] conv2_2/2/conv <- conv2_2/1
I0316 17:30:04.137511  5916 net.cpp:408] conv2_2/2/conv -> conv2_2/2/conv
I0316 17:30:04.143662  5916 net.cpp:150] Setting up conv2_2/2/conv
I0316 17:30:04.143672  5916 net.cpp:157] Top shape: 1 24 160 264 (1013760)
I0316 17:30:04.143676  5916 net.cpp:165] Memory required for data: 247357464
I0316 17:30:04.143682  5916 layer_factory.hpp:77] Creating layer conv2_2/2/conv_conv2_2/2/conv_0_split
I0316 17:30:04.143687  5916 net.cpp:100] Creating Layer conv2_2/2/conv_conv2_2/2/conv_0_split
I0316 17:30:04.143690  5916 net.cpp:434] conv2_2/2/conv_conv2_2/2/conv_0_split <- conv2_2/2/conv
I0316 17:30:04.143694  5916 net.cpp:408] conv2_2/2/conv_conv2_2/2/conv_0_split -> conv2_2/2/conv_conv2_2/2/conv_0_split_0
I0316 17:30:04.143699  5916 net.cpp:408] conv2_2/2/conv_conv2_2/2/conv_0_split -> conv2_2/2/conv_conv2_2/2/conv_0_split_1
I0316 17:30:04.143728  5916 net.cpp:150] Setting up conv2_2/2/conv_conv2_2/2/conv_0_split
I0316 17:30:04.143733  5916 net.cpp:157] Top shape: 1 24 160 264 (1013760)
I0316 17:30:04.143736  5916 net.cpp:157] Top shape: 1 24 160 264 (1013760)
I0316 17:30:04.143738  5916 net.cpp:165] Memory required for data: 255467544
I0316 17:30:04.143740  5916 layer_factory.hpp:77] Creating layer conv2_2/2/neg
I0316 17:30:04.143745  5916 net.cpp:100] Creating Layer conv2_2/2/neg
I0316 17:30:04.143748  5916 net.cpp:434] conv2_2/2/neg <- conv2_2/2/conv_conv2_2/2/conv_0_split_0
I0316 17:30:04.143751  5916 net.cpp:408] conv2_2/2/neg -> conv2_2/2/neg
I0316 17:30:04.143764  5916 net.cpp:150] Setting up conv2_2/2/neg
I0316 17:30:04.143769  5916 net.cpp:157] Top shape: 1 24 160 264 (1013760)
I0316 17:30:04.143770  5916 net.cpp:165] Memory required for data: 259522584
I0316 17:30:04.143774  5916 layer_factory.hpp:77] Creating layer conv2_2/2/concat
I0316 17:30:04.143776  5916 net.cpp:100] Creating Layer conv2_2/2/concat
I0316 17:30:04.143779  5916 net.cpp:434] conv2_2/2/concat <- conv2_2/2/conv_conv2_2/2/conv_0_split_1
I0316 17:30:04.143782  5916 net.cpp:434] conv2_2/2/concat <- conv2_2/2/neg
I0316 17:30:04.143785  5916 net.cpp:408] conv2_2/2/concat -> conv2_2/2
I0316 17:30:04.143798  5916 net.cpp:150] Setting up conv2_2/2/concat
I0316 17:30:04.143802  5916 net.cpp:157] Top shape: 1 48 160 264 (2027520)
I0316 17:30:04.143805  5916 net.cpp:165] Memory required for data: 267632664
I0316 17:30:04.143806  5916 layer_factory.hpp:77] Creating layer conv2_2/2/scale
I0316 17:30:04.143811  5916 net.cpp:100] Creating Layer conv2_2/2/scale
I0316 17:30:04.143813  5916 net.cpp:434] conv2_2/2/scale <- conv2_2/2
I0316 17:30:04.143817  5916 net.cpp:395] conv2_2/2/scale -> conv2_2/2 (in-place)
I0316 17:30:04.143841  5916 layer_factory.hpp:77] Creating layer conv2_2/2/scale
I0316 17:30:04.143941  5916 net.cpp:150] Setting up conv2_2/2/scale
I0316 17:30:04.143946  5916 net.cpp:157] Top shape: 1 48 160 264 (2027520)
I0316 17:30:04.143949  5916 net.cpp:165] Memory required for data: 275742744
I0316 17:30:04.143954  5916 layer_factory.hpp:77] Creating layer conv2_2/2/relu
I0316 17:30:04.143956  5916 net.cpp:100] Creating Layer conv2_2/2/relu
I0316 17:30:04.143959  5916 net.cpp:434] conv2_2/2/relu <- conv2_2/2
I0316 17:30:04.143962  5916 net.cpp:395] conv2_2/2/relu -> conv2_2/2 (in-place)
I0316 17:30:04.145778  5916 net.cpp:150] Setting up conv2_2/2/relu
I0316 17:30:04.145784  5916 net.cpp:157] Top shape: 1 48 160 264 (2027520)
I0316 17:30:04.145787  5916 net.cpp:165] Memory required for data: 283852824
I0316 17:30:04.145789  5916 layer_factory.hpp:77] Creating layer conv2_2/3/conv
I0316 17:30:04.145795  5916 net.cpp:100] Creating Layer conv2_2/3/conv
I0316 17:30:04.145797  5916 net.cpp:434] conv2_2/3/conv <- conv2_2/2
I0316 17:30:04.145802  5916 net.cpp:408] conv2_2/3/conv -> conv2_2/3
I0316 17:30:04.145972  5916 net.cpp:150] Setting up conv2_2/3/conv
I0316 17:30:04.145978  5916 net.cpp:157] Top shape: 1 64 160 264 (2703360)
I0316 17:30:04.145980  5916 net.cpp:165] Memory required for data: 294666264
I0316 17:30:04.145984  5916 layer_factory.hpp:77] Creating layer conv2_2/input
I0316 17:30:04.145988  5916 net.cpp:100] Creating Layer conv2_2/input
I0316 17:30:04.145992  5916 net.cpp:434] conv2_2/input <- conv2_1_conv2_1_0_split_1
I0316 17:30:04.145995  5916 net.cpp:408] conv2_2/input -> conv2_2/input
I0316 17:30:04.146010  5916 net.cpp:150] Setting up conv2_2/input
I0316 17:30:04.146014  5916 net.cpp:157] Top shape: 1 64 160 264 (2703360)
I0316 17:30:04.146016  5916 net.cpp:165] Memory required for data: 305479704
I0316 17:30:04.146018  5916 layer_factory.hpp:77] Creating layer conv2_2
I0316 17:30:04.146023  5916 net.cpp:100] Creating Layer conv2_2
I0316 17:30:04.146025  5916 net.cpp:434] conv2_2 <- conv2_2/3
I0316 17:30:04.146028  5916 net.cpp:434] conv2_2 <- conv2_2/input
I0316 17:30:04.146031  5916 net.cpp:408] conv2_2 -> conv2_2
I0316 17:30:04.146045  5916 net.cpp:150] Setting up conv2_2
I0316 17:30:04.146049  5916 net.cpp:157] Top shape: 1 64 160 264 (2703360)
I0316 17:30:04.146054  5916 net.cpp:165] Memory required for data: 316293144
I0316 17:30:04.146056  5916 layer_factory.hpp:77] Creating layer conv2_2_conv2_2_0_split
I0316 17:30:04.146064  5916 net.cpp:100] Creating Layer conv2_2_conv2_2_0_split
I0316 17:30:04.146065  5916 net.cpp:434] conv2_2_conv2_2_0_split <- conv2_2
I0316 17:30:04.146070  5916 net.cpp:408] conv2_2_conv2_2_0_split -> conv2_2_conv2_2_0_split_0
I0316 17:30:04.146073  5916 net.cpp:408] conv2_2_conv2_2_0_split -> conv2_2_conv2_2_0_split_1
I0316 17:30:04.146095  5916 net.cpp:150] Setting up conv2_2_conv2_2_0_split
I0316 17:30:04.146098  5916 net.cpp:157] Top shape: 1 64 160 264 (2703360)
I0316 17:30:04.146101  5916 net.cpp:157] Top shape: 1 64 160 264 (2703360)
I0316 17:30:04.146103  5916 net.cpp:165] Memory required for data: 337920024
I0316 17:30:04.146106  5916 layer_factory.hpp:77] Creating layer conv2_3/1/conv
I0316 17:30:04.146111  5916 net.cpp:100] Creating Layer conv2_3/1/conv
I0316 17:30:04.146113  5916 net.cpp:434] conv2_3/1/conv <- conv2_2_conv2_2_0_split_0
I0316 17:30:04.146117  5916 net.cpp:408] conv2_3/1/conv -> conv2_3/1
I0316 17:30:04.146277  5916 net.cpp:150] Setting up conv2_3/1/conv
I0316 17:30:04.146283  5916 net.cpp:157] Top shape: 1 24 160 264 (1013760)
I0316 17:30:04.146286  5916 net.cpp:165] Memory required for data: 341975064
I0316 17:30:04.146291  5916 layer_factory.hpp:77] Creating layer conv2_3/1/relu
I0316 17:30:04.146294  5916 net.cpp:100] Creating Layer conv2_3/1/relu
I0316 17:30:04.146296  5916 net.cpp:434] conv2_3/1/relu <- conv2_3/1
I0316 17:30:04.146301  5916 net.cpp:395] conv2_3/1/relu -> conv2_3/1 (in-place)
I0316 17:30:04.148056  5916 net.cpp:150] Setting up conv2_3/1/relu
I0316 17:30:04.148066  5916 net.cpp:157] Top shape: 1 24 160 264 (1013760)
I0316 17:30:04.148068  5916 net.cpp:165] Memory required for data: 346030104
I0316 17:30:04.148071  5916 layer_factory.hpp:77] Creating layer conv2_3/2/conv
I0316 17:30:04.148077  5916 net.cpp:100] Creating Layer conv2_3/2/conv
I0316 17:30:04.148079  5916 net.cpp:434] conv2_3/2/conv <- conv2_3/1
I0316 17:30:04.148083  5916 net.cpp:408] conv2_3/2/conv -> conv2_3/2/conv
I0316 17:30:04.163421  5916 net.cpp:150] Setting up conv2_3/2/conv
I0316 17:30:04.163432  5916 net.cpp:157] Top shape: 1 24 160 264 (1013760)
I0316 17:30:04.163434  5916 net.cpp:165] Memory required for data: 350085144
I0316 17:30:04.163439  5916 layer_factory.hpp:77] Creating layer conv2_3/2/conv_conv2_3/2/conv_0_split
I0316 17:30:04.163444  5916 net.cpp:100] Creating Layer conv2_3/2/conv_conv2_3/2/conv_0_split
I0316 17:30:04.163446  5916 net.cpp:434] conv2_3/2/conv_conv2_3/2/conv_0_split <- conv2_3/2/conv
I0316 17:30:04.163451  5916 net.cpp:408] conv2_3/2/conv_conv2_3/2/conv_0_split -> conv2_3/2/conv_conv2_3/2/conv_0_split_0
I0316 17:30:04.163456  5916 net.cpp:408] conv2_3/2/conv_conv2_3/2/conv_0_split -> conv2_3/2/conv_conv2_3/2/conv_0_split_1
I0316 17:30:04.163485  5916 net.cpp:150] Setting up conv2_3/2/conv_conv2_3/2/conv_0_split
I0316 17:30:04.163489  5916 net.cpp:157] Top shape: 1 24 160 264 (1013760)
I0316 17:30:04.163492  5916 net.cpp:157] Top shape: 1 24 160 264 (1013760)
I0316 17:30:04.163494  5916 net.cpp:165] Memory required for data: 358195224
I0316 17:30:04.163496  5916 layer_factory.hpp:77] Creating layer conv2_3/2/neg
I0316 17:30:04.163501  5916 net.cpp:100] Creating Layer conv2_3/2/neg
I0316 17:30:04.163503  5916 net.cpp:434] conv2_3/2/neg <- conv2_3/2/conv_conv2_3/2/conv_0_split_0
I0316 17:30:04.163507  5916 net.cpp:408] conv2_3/2/neg -> conv2_3/2/neg
I0316 17:30:04.163522  5916 net.cpp:150] Setting up conv2_3/2/neg
I0316 17:30:04.163527  5916 net.cpp:157] Top shape: 1 24 160 264 (1013760)
I0316 17:30:04.163528  5916 net.cpp:165] Memory required for data: 362250264
I0316 17:30:04.163532  5916 layer_factory.hpp:77] Creating layer conv2_3/2/concat
I0316 17:30:04.163534  5916 net.cpp:100] Creating Layer conv2_3/2/concat
I0316 17:30:04.163537  5916 net.cpp:434] conv2_3/2/concat <- conv2_3/2/conv_conv2_3/2/conv_0_split_1
I0316 17:30:04.163540  5916 net.cpp:434] conv2_3/2/concat <- conv2_3/2/neg
I0316 17:30:04.163547  5916 net.cpp:408] conv2_3/2/concat -> conv2_3/2
I0316 17:30:04.163561  5916 net.cpp:150] Setting up conv2_3/2/concat
I0316 17:30:04.163565  5916 net.cpp:157] Top shape: 1 48 160 264 (2027520)
I0316 17:30:04.163568  5916 net.cpp:165] Memory required for data: 370360344
I0316 17:30:04.163570  5916 layer_factory.hpp:77] Creating layer conv2_3/2/scale
I0316 17:30:04.163579  5916 net.cpp:100] Creating Layer conv2_3/2/scale
I0316 17:30:04.163583  5916 net.cpp:434] conv2_3/2/scale <- conv2_3/2
I0316 17:30:04.163586  5916 net.cpp:395] conv2_3/2/scale -> conv2_3/2 (in-place)
I0316 17:30:04.163614  5916 layer_factory.hpp:77] Creating layer conv2_3/2/scale
I0316 17:30:04.163719  5916 net.cpp:150] Setting up conv2_3/2/scale
I0316 17:30:04.163725  5916 net.cpp:157] Top shape: 1 48 160 264 (2027520)
I0316 17:30:04.163727  5916 net.cpp:165] Memory required for data: 378470424
I0316 17:30:04.163731  5916 layer_factory.hpp:77] Creating layer conv2_3/2/relu
I0316 17:30:04.163735  5916 net.cpp:100] Creating Layer conv2_3/2/relu
I0316 17:30:04.163738  5916 net.cpp:434] conv2_3/2/relu <- conv2_3/2
I0316 17:30:04.163740  5916 net.cpp:395] conv2_3/2/relu -> conv2_3/2 (in-place)
I0316 17:30:04.169608  5916 net.cpp:150] Setting up conv2_3/2/relu
I0316 17:30:04.169615  5916 net.cpp:157] Top shape: 1 48 160 264 (2027520)
I0316 17:30:04.169617  5916 net.cpp:165] Memory required for data: 386580504
I0316 17:30:04.169620  5916 layer_factory.hpp:77] Creating layer conv2_3/3/conv
I0316 17:30:04.169626  5916 net.cpp:100] Creating Layer conv2_3/3/conv
I0316 17:30:04.169630  5916 net.cpp:434] conv2_3/3/conv <- conv2_3/2
I0316 17:30:04.169634  5916 net.cpp:408] conv2_3/3/conv -> conv2_3/3
I0316 17:30:04.169813  5916 net.cpp:150] Setting up conv2_3/3/conv
I0316 17:30:04.169821  5916 net.cpp:157] Top shape: 1 64 160 264 (2703360)
I0316 17:30:04.169822  5916 net.cpp:165] Memory required for data: 397393944
I0316 17:30:04.169826  5916 layer_factory.hpp:77] Creating layer conv2_3/input
I0316 17:30:04.169831  5916 net.cpp:100] Creating Layer conv2_3/input
I0316 17:30:04.169833  5916 net.cpp:434] conv2_3/input <- conv2_2_conv2_2_0_split_1
I0316 17:30:04.169837  5916 net.cpp:408] conv2_3/input -> conv2_3/input
I0316 17:30:04.169853  5916 net.cpp:150] Setting up conv2_3/input
I0316 17:30:04.169858  5916 net.cpp:157] Top shape: 1 64 160 264 (2703360)
I0316 17:30:04.169860  5916 net.cpp:165] Memory required for data: 408207384
I0316 17:30:04.169862  5916 layer_factory.hpp:77] Creating layer conv2_3
I0316 17:30:04.169867  5916 net.cpp:100] Creating Layer conv2_3
I0316 17:30:04.169869  5916 net.cpp:434] conv2_3 <- conv2_3/3
I0316 17:30:04.169872  5916 net.cpp:434] conv2_3 <- conv2_3/input
I0316 17:30:04.169876  5916 net.cpp:408] conv2_3 -> conv2_3
I0316 17:30:04.169890  5916 net.cpp:150] Setting up conv2_3
I0316 17:30:04.169894  5916 net.cpp:157] Top shape: 1 64 160 264 (2703360)
I0316 17:30:04.169896  5916 net.cpp:165] Memory required for data: 419020824
I0316 17:30:04.169898  5916 layer_factory.hpp:77] Creating layer conv2_3_conv2_3_0_split
I0316 17:30:04.169903  5916 net.cpp:100] Creating Layer conv2_3_conv2_3_0_split
I0316 17:30:04.169906  5916 net.cpp:434] conv2_3_conv2_3_0_split <- conv2_3
I0316 17:30:04.169910  5916 net.cpp:408] conv2_3_conv2_3_0_split -> conv2_3_conv2_3_0_split_0
I0316 17:30:04.169915  5916 net.cpp:408] conv2_3_conv2_3_0_split -> conv2_3_conv2_3_0_split_1
I0316 17:30:04.169936  5916 net.cpp:150] Setting up conv2_3_conv2_3_0_split
I0316 17:30:04.169941  5916 net.cpp:157] Top shape: 1 64 160 264 (2703360)
I0316 17:30:04.169945  5916 net.cpp:157] Top shape: 1 64 160 264 (2703360)
I0316 17:30:04.169946  5916 net.cpp:165] Memory required for data: 440647704
I0316 17:30:04.169948  5916 layer_factory.hpp:77] Creating layer conv3_1/1/conv
I0316 17:30:04.169955  5916 net.cpp:100] Creating Layer conv3_1/1/conv
I0316 17:30:04.169956  5916 net.cpp:434] conv3_1/1/conv <- conv2_3_conv2_3_0_split_0
I0316 17:30:04.169960  5916 net.cpp:408] conv3_1/1/conv -> conv3_1/1
I0316 17:30:04.170120  5916 net.cpp:150] Setting up conv3_1/1/conv
I0316 17:30:04.170127  5916 net.cpp:157] Top shape: 1 48 80 132 (506880)
I0316 17:30:04.170130  5916 net.cpp:165] Memory required for data: 442675224
I0316 17:30:04.170133  5916 layer_factory.hpp:77] Creating layer conv3_1/1/relu
I0316 17:30:04.170137  5916 net.cpp:100] Creating Layer conv3_1/1/relu
I0316 17:30:04.170140  5916 net.cpp:434] conv3_1/1/relu <- conv3_1/1
I0316 17:30:04.170145  5916 net.cpp:395] conv3_1/1/relu -> conv3_1/1 (in-place)
I0316 17:30:04.170900  5916 net.cpp:150] Setting up conv3_1/1/relu
I0316 17:30:04.170909  5916 net.cpp:157] Top shape: 1 48 80 132 (506880)
I0316 17:30:04.170912  5916 net.cpp:165] Memory required for data: 444702744
I0316 17:30:04.170914  5916 layer_factory.hpp:77] Creating layer conv3_1/2/conv
I0316 17:30:04.170920  5916 net.cpp:100] Creating Layer conv3_1/2/conv
I0316 17:30:04.170923  5916 net.cpp:434] conv3_1/2/conv <- conv3_1/1
I0316 17:30:04.170928  5916 net.cpp:408] conv3_1/2/conv -> conv3_1/2/conv
I0316 17:30:04.172305  5916 net.cpp:150] Setting up conv3_1/2/conv
I0316 17:30:04.172315  5916 net.cpp:157] Top shape: 1 48 80 132 (506880)
I0316 17:30:04.172318  5916 net.cpp:165] Memory required for data: 446730264
I0316 17:30:04.172328  5916 layer_factory.hpp:77] Creating layer conv3_1/2/conv_conv3_1/2/conv_0_split
I0316 17:30:04.172333  5916 net.cpp:100] Creating Layer conv3_1/2/conv_conv3_1/2/conv_0_split
I0316 17:30:04.172336  5916 net.cpp:434] conv3_1/2/conv_conv3_1/2/conv_0_split <- conv3_1/2/conv
I0316 17:30:04.172340  5916 net.cpp:408] conv3_1/2/conv_conv3_1/2/conv_0_split -> conv3_1/2/conv_conv3_1/2/conv_0_split_0
I0316 17:30:04.172345  5916 net.cpp:408] conv3_1/2/conv_conv3_1/2/conv_0_split -> conv3_1/2/conv_conv3_1/2/conv_0_split_1
I0316 17:30:04.172374  5916 net.cpp:150] Setting up conv3_1/2/conv_conv3_1/2/conv_0_split
I0316 17:30:04.172379  5916 net.cpp:157] Top shape: 1 48 80 132 (506880)
I0316 17:30:04.172382  5916 net.cpp:157] Top shape: 1 48 80 132 (506880)
I0316 17:30:04.172384  5916 net.cpp:165] Memory required for data: 450785304
I0316 17:30:04.172386  5916 layer_factory.hpp:77] Creating layer conv3_1/2/neg
I0316 17:30:04.172390  5916 net.cpp:100] Creating Layer conv3_1/2/neg
I0316 17:30:04.172394  5916 net.cpp:434] conv3_1/2/neg <- conv3_1/2/conv_conv3_1/2/conv_0_split_0
I0316 17:30:04.172397  5916 net.cpp:408] conv3_1/2/neg -> conv3_1/2/neg
I0316 17:30:04.172415  5916 net.cpp:150] Setting up conv3_1/2/neg
I0316 17:30:04.172418  5916 net.cpp:157] Top shape: 1 48 80 132 (506880)
I0316 17:30:04.172420  5916 net.cpp:165] Memory required for data: 452812824
I0316 17:30:04.172422  5916 layer_factory.hpp:77] Creating layer conv3_1/2/concat
I0316 17:30:04.172427  5916 net.cpp:100] Creating Layer conv3_1/2/concat
I0316 17:30:04.172430  5916 net.cpp:434] conv3_1/2/concat <- conv3_1/2/conv_conv3_1/2/conv_0_split_1
I0316 17:30:04.172432  5916 net.cpp:434] conv3_1/2/concat <- conv3_1/2/neg
I0316 17:30:04.172436  5916 net.cpp:408] conv3_1/2/concat -> conv3_1/2
I0316 17:30:04.172451  5916 net.cpp:150] Setting up conv3_1/2/concat
I0316 17:30:04.172454  5916 net.cpp:157] Top shape: 1 96 80 132 (1013760)
I0316 17:30:04.172457  5916 net.cpp:165] Memory required for data: 456867864
I0316 17:30:04.172459  5916 layer_factory.hpp:77] Creating layer conv3_1/2/scale
I0316 17:30:04.172464  5916 net.cpp:100] Creating Layer conv3_1/2/scale
I0316 17:30:04.172467  5916 net.cpp:434] conv3_1/2/scale <- conv3_1/2
I0316 17:30:04.172472  5916 net.cpp:395] conv3_1/2/scale -> conv3_1/2 (in-place)
I0316 17:30:04.172498  5916 layer_factory.hpp:77] Creating layer conv3_1/2/scale
I0316 17:30:04.172585  5916 net.cpp:150] Setting up conv3_1/2/scale
I0316 17:30:04.172590  5916 net.cpp:157] Top shape: 1 96 80 132 (1013760)
I0316 17:30:04.172592  5916 net.cpp:165] Memory required for data: 460922904
I0316 17:30:04.172596  5916 layer_factory.hpp:77] Creating layer conv3_1/2/relu
I0316 17:30:04.172600  5916 net.cpp:100] Creating Layer conv3_1/2/relu
I0316 17:30:04.172602  5916 net.cpp:434] conv3_1/2/relu <- conv3_1/2
I0316 17:30:04.172605  5916 net.cpp:395] conv3_1/2/relu -> conv3_1/2 (in-place)
I0316 17:30:04.172726  5916 net.cpp:150] Setting up conv3_1/2/relu
I0316 17:30:04.172734  5916 net.cpp:157] Top shape: 1 96 80 132 (1013760)
I0316 17:30:04.172735  5916 net.cpp:165] Memory required for data: 464977944
I0316 17:30:04.172739  5916 layer_factory.hpp:77] Creating layer conv3_1/3/conv
I0316 17:30:04.172744  5916 net.cpp:100] Creating Layer conv3_1/3/conv
I0316 17:30:04.172747  5916 net.cpp:434] conv3_1/3/conv <- conv3_1/2
I0316 17:30:04.172752  5916 net.cpp:408] conv3_1/3/conv -> conv3_1/3
I0316 17:30:04.172956  5916 net.cpp:150] Setting up conv3_1/3/conv
I0316 17:30:04.172962  5916 net.cpp:157] Top shape: 1 128 80 132 (1351680)
I0316 17:30:04.172965  5916 net.cpp:165] Memory required for data: 470384664
I0316 17:30:04.172968  5916 layer_factory.hpp:77] Creating layer conv3_1/proj
I0316 17:30:04.172973  5916 net.cpp:100] Creating Layer conv3_1/proj
I0316 17:30:04.172976  5916 net.cpp:434] conv3_1/proj <- conv2_3_conv2_3_0_split_1
I0316 17:30:04.172981  5916 net.cpp:408] conv3_1/proj -> conv3_1/proj
I0316 17:30:04.173164  5916 net.cpp:150] Setting up conv3_1/proj
I0316 17:30:04.173169  5916 net.cpp:157] Top shape: 1 128 80 132 (1351680)
I0316 17:30:04.173172  5916 net.cpp:165] Memory required for data: 475791384
I0316 17:30:04.173176  5916 layer_factory.hpp:77] Creating layer conv3_1
I0316 17:30:04.173180  5916 net.cpp:100] Creating Layer conv3_1
I0316 17:30:04.173183  5916 net.cpp:434] conv3_1 <- conv3_1/3
I0316 17:30:04.173187  5916 net.cpp:434] conv3_1 <- conv3_1/proj
I0316 17:30:04.173189  5916 net.cpp:408] conv3_1 -> conv3_1
I0316 17:30:04.173207  5916 net.cpp:150] Setting up conv3_1
I0316 17:30:04.173213  5916 net.cpp:157] Top shape: 1 128 80 132 (1351680)
I0316 17:30:04.173214  5916 net.cpp:165] Memory required for data: 481198104
I0316 17:30:04.173216  5916 layer_factory.hpp:77] Creating layer conv3_1_conv3_1_0_split
I0316 17:30:04.173220  5916 net.cpp:100] Creating Layer conv3_1_conv3_1_0_split
I0316 17:30:04.173223  5916 net.cpp:434] conv3_1_conv3_1_0_split <- conv3_1
I0316 17:30:04.173228  5916 net.cpp:408] conv3_1_conv3_1_0_split -> conv3_1_conv3_1_0_split_0
I0316 17:30:04.173233  5916 net.cpp:408] conv3_1_conv3_1_0_split -> conv3_1_conv3_1_0_split_1
I0316 17:30:04.173256  5916 net.cpp:150] Setting up conv3_1_conv3_1_0_split
I0316 17:30:04.173260  5916 net.cpp:157] Top shape: 1 128 80 132 (1351680)
I0316 17:30:04.173264  5916 net.cpp:157] Top shape: 1 128 80 132 (1351680)
I0316 17:30:04.173265  5916 net.cpp:165] Memory required for data: 492011544
I0316 17:30:04.173267  5916 layer_factory.hpp:77] Creating layer conv3_2/1/conv
I0316 17:30:04.173274  5916 net.cpp:100] Creating Layer conv3_2/1/conv
I0316 17:30:04.173275  5916 net.cpp:434] conv3_2/1/conv <- conv3_1_conv3_1_0_split_0
I0316 17:30:04.173280  5916 net.cpp:408] conv3_2/1/conv -> conv3_2/1
I0316 17:30:04.173454  5916 net.cpp:150] Setting up conv3_2/1/conv
I0316 17:30:04.173458  5916 net.cpp:157] Top shape: 1 48 80 132 (506880)
I0316 17:30:04.173460  5916 net.cpp:165] Memory required for data: 494039064
I0316 17:30:04.173465  5916 layer_factory.hpp:77] Creating layer conv3_2/1/relu
I0316 17:30:04.173470  5916 net.cpp:100] Creating Layer conv3_2/1/relu
I0316 17:30:04.173471  5916 net.cpp:434] conv3_2/1/relu <- conv3_2/1
I0316 17:30:04.173475  5916 net.cpp:395] conv3_2/1/relu -> conv3_2/1 (in-place)
I0316 17:30:04.174121  5916 net.cpp:150] Setting up conv3_2/1/relu
I0316 17:30:04.174130  5916 net.cpp:157] Top shape: 1 48 80 132 (506880)
I0316 17:30:04.174132  5916 net.cpp:165] Memory required for data: 496066584
I0316 17:30:04.174135  5916 layer_factory.hpp:77] Creating layer conv3_2/2/conv
I0316 17:30:04.174142  5916 net.cpp:100] Creating Layer conv3_2/2/conv
I0316 17:30:04.174144  5916 net.cpp:434] conv3_2/2/conv <- conv3_2/1
I0316 17:30:04.174149  5916 net.cpp:408] conv3_2/2/conv -> conv3_2/2/conv
I0316 17:30:04.177789  5916 net.cpp:150] Setting up conv3_2/2/conv
I0316 17:30:04.177803  5916 net.cpp:157] Top shape: 1 48 80 132 (506880)
I0316 17:30:04.177805  5916 net.cpp:165] Memory required for data: 498094104
I0316 17:30:04.177817  5916 layer_factory.hpp:77] Creating layer conv3_2/2/conv_conv3_2/2/conv_0_split
I0316 17:30:04.177826  5916 net.cpp:100] Creating Layer conv3_2/2/conv_conv3_2/2/conv_0_split
I0316 17:30:04.177831  5916 net.cpp:434] conv3_2/2/conv_conv3_2/2/conv_0_split <- conv3_2/2/conv
I0316 17:30:04.177839  5916 net.cpp:408] conv3_2/2/conv_conv3_2/2/conv_0_split -> conv3_2/2/conv_conv3_2/2/conv_0_split_0
I0316 17:30:04.177848  5916 net.cpp:408] conv3_2/2/conv_conv3_2/2/conv_0_split -> conv3_2/2/conv_conv3_2/2/conv_0_split_1
I0316 17:30:04.177886  5916 net.cpp:150] Setting up conv3_2/2/conv_conv3_2/2/conv_0_split
I0316 17:30:04.177901  5916 net.cpp:157] Top shape: 1 48 80 132 (506880)
I0316 17:30:04.177903  5916 net.cpp:157] Top shape: 1 48 80 132 (506880)
I0316 17:30:04.177906  5916 net.cpp:165] Memory required for data: 502149144
I0316 17:30:04.177908  5916 layer_factory.hpp:77] Creating layer conv3_2/2/neg
I0316 17:30:04.177914  5916 net.cpp:100] Creating Layer conv3_2/2/neg
I0316 17:30:04.177917  5916 net.cpp:434] conv3_2/2/neg <- conv3_2/2/conv_conv3_2/2/conv_0_split_0
I0316 17:30:04.177920  5916 net.cpp:408] conv3_2/2/neg -> conv3_2/2/neg
I0316 17:30:04.177937  5916 net.cpp:150] Setting up conv3_2/2/neg
I0316 17:30:04.177942  5916 net.cpp:157] Top shape: 1 48 80 132 (506880)
I0316 17:30:04.177943  5916 net.cpp:165] Memory required for data: 504176664
I0316 17:30:04.177945  5916 layer_factory.hpp:77] Creating layer conv3_2/2/concat
I0316 17:30:04.177949  5916 net.cpp:100] Creating Layer conv3_2/2/concat
I0316 17:30:04.177952  5916 net.cpp:434] conv3_2/2/concat <- conv3_2/2/conv_conv3_2/2/conv_0_split_1
I0316 17:30:04.177956  5916 net.cpp:434] conv3_2/2/concat <- conv3_2/2/neg
I0316 17:30:04.177960  5916 net.cpp:408] conv3_2/2/concat -> conv3_2/2
I0316 17:30:04.177975  5916 net.cpp:150] Setting up conv3_2/2/concat
I0316 17:30:04.177979  5916 net.cpp:157] Top shape: 1 96 80 132 (1013760)
I0316 17:30:04.177983  5916 net.cpp:165] Memory required for data: 508231704
I0316 17:30:04.177984  5916 layer_factory.hpp:77] Creating layer conv3_2/2/scale
I0316 17:30:04.177989  5916 net.cpp:100] Creating Layer conv3_2/2/scale
I0316 17:30:04.177990  5916 net.cpp:434] conv3_2/2/scale <- conv3_2/2
I0316 17:30:04.177994  5916 net.cpp:395] conv3_2/2/scale -> conv3_2/2 (in-place)
I0316 17:30:04.178022  5916 layer_factory.hpp:77] Creating layer conv3_2/2/scale
I0316 17:30:04.178112  5916 net.cpp:150] Setting up conv3_2/2/scale
I0316 17:30:04.178117  5916 net.cpp:157] Top shape: 1 96 80 132 (1013760)
I0316 17:30:04.178118  5916 net.cpp:165] Memory required for data: 512286744
I0316 17:30:04.178122  5916 layer_factory.hpp:77] Creating layer conv3_2/2/relu
I0316 17:30:04.178133  5916 net.cpp:100] Creating Layer conv3_2/2/relu
I0316 17:30:04.178135  5916 net.cpp:434] conv3_2/2/relu <- conv3_2/2
I0316 17:30:04.178139  5916 net.cpp:395] conv3_2/2/relu -> conv3_2/2 (in-place)
I0316 17:30:04.178685  5916 net.cpp:150] Setting up conv3_2/2/relu
I0316 17:30:04.178691  5916 net.cpp:157] Top shape: 1 96 80 132 (1013760)
I0316 17:30:04.178694  5916 net.cpp:165] Memory required for data: 516341784
I0316 17:30:04.178696  5916 layer_factory.hpp:77] Creating layer conv3_2/3/conv
I0316 17:30:04.178704  5916 net.cpp:100] Creating Layer conv3_2/3/conv
I0316 17:30:04.178706  5916 net.cpp:434] conv3_2/3/conv <- conv3_2/2
I0316 17:30:04.178710  5916 net.cpp:408] conv3_2/3/conv -> conv3_2/3
I0316 17:30:04.178917  5916 net.cpp:150] Setting up conv3_2/3/conv
I0316 17:30:04.178923  5916 net.cpp:157] Top shape: 1 128 80 132 (1351680)
I0316 17:30:04.178925  5916 net.cpp:165] Memory required for data: 521748504
I0316 17:30:04.178930  5916 layer_factory.hpp:77] Creating layer conv3_2/input
I0316 17:30:04.178933  5916 net.cpp:100] Creating Layer conv3_2/input
I0316 17:30:04.178936  5916 net.cpp:434] conv3_2/input <- conv3_1_conv3_1_0_split_1
I0316 17:30:04.178941  5916 net.cpp:408] conv3_2/input -> conv3_2/input
I0316 17:30:04.178957  5916 net.cpp:150] Setting up conv3_2/input
I0316 17:30:04.178961  5916 net.cpp:157] Top shape: 1 128 80 132 (1351680)
I0316 17:30:04.178966  5916 net.cpp:165] Memory required for data: 527155224
I0316 17:30:04.178968  5916 layer_factory.hpp:77] Creating layer conv3_2
I0316 17:30:04.178973  5916 net.cpp:100] Creating Layer conv3_2
I0316 17:30:04.178977  5916 net.cpp:434] conv3_2 <- conv3_2/3
I0316 17:30:04.178979  5916 net.cpp:434] conv3_2 <- conv3_2/input
I0316 17:30:04.178983  5916 net.cpp:408] conv3_2 -> conv3_2
I0316 17:30:04.178999  5916 net.cpp:150] Setting up conv3_2
I0316 17:30:04.179003  5916 net.cpp:157] Top shape: 1 128 80 132 (1351680)
I0316 17:30:04.179005  5916 net.cpp:165] Memory required for data: 532561944
I0316 17:30:04.179008  5916 layer_factory.hpp:77] Creating layer conv3_2_conv3_2_0_split
I0316 17:30:04.179013  5916 net.cpp:100] Creating Layer conv3_2_conv3_2_0_split
I0316 17:30:04.179014  5916 net.cpp:434] conv3_2_conv3_2_0_split <- conv3_2
I0316 17:30:04.179018  5916 net.cpp:408] conv3_2_conv3_2_0_split -> conv3_2_conv3_2_0_split_0
I0316 17:30:04.179023  5916 net.cpp:408] conv3_2_conv3_2_0_split -> conv3_2_conv3_2_0_split_1
I0316 17:30:04.179052  5916 net.cpp:150] Setting up conv3_2_conv3_2_0_split
I0316 17:30:04.179056  5916 net.cpp:157] Top shape: 1 128 80 132 (1351680)
I0316 17:30:04.179060  5916 net.cpp:157] Top shape: 1 128 80 132 (1351680)
I0316 17:30:04.179062  5916 net.cpp:165] Memory required for data: 543375384
I0316 17:30:04.179065  5916 layer_factory.hpp:77] Creating layer conv3_3/1/conv
I0316 17:30:04.179070  5916 net.cpp:100] Creating Layer conv3_3/1/conv
I0316 17:30:04.179072  5916 net.cpp:434] conv3_3/1/conv <- conv3_2_conv3_2_0_split_0
I0316 17:30:04.179076  5916 net.cpp:408] conv3_3/1/conv -> conv3_3/1
I0316 17:30:04.179255  5916 net.cpp:150] Setting up conv3_3/1/conv
I0316 17:30:04.179260  5916 net.cpp:157] Top shape: 1 48 80 132 (506880)
I0316 17:30:04.179263  5916 net.cpp:165] Memory required for data: 545402904
I0316 17:30:04.179267  5916 layer_factory.hpp:77] Creating layer conv3_3/1/relu
I0316 17:30:04.179271  5916 net.cpp:100] Creating Layer conv3_3/1/relu
I0316 17:30:04.179273  5916 net.cpp:434] conv3_3/1/relu <- conv3_3/1
I0316 17:30:04.179276  5916 net.cpp:395] conv3_3/1/relu -> conv3_3/1 (in-place)
I0316 17:30:04.179517  5916 net.cpp:150] Setting up conv3_3/1/relu
I0316 17:30:04.179525  5916 net.cpp:157] Top shape: 1 48 80 132 (506880)
I0316 17:30:04.179528  5916 net.cpp:165] Memory required for data: 547430424
I0316 17:30:04.179530  5916 layer_factory.hpp:77] Creating layer conv3_3/2/conv
I0316 17:30:04.179538  5916 net.cpp:100] Creating Layer conv3_3/2/conv
I0316 17:30:04.179540  5916 net.cpp:434] conv3_3/2/conv <- conv3_3/1
I0316 17:30:04.179545  5916 net.cpp:408] conv3_3/2/conv -> conv3_3/2/conv
I0316 17:30:04.180380  5916 net.cpp:150] Setting up conv3_3/2/conv
I0316 17:30:04.180390  5916 net.cpp:157] Top shape: 1 48 80 132 (506880)
I0316 17:30:04.180392  5916 net.cpp:165] Memory required for data: 549457944
I0316 17:30:04.180397  5916 layer_factory.hpp:77] Creating layer conv3_3/2/conv_conv3_3/2/conv_0_split
I0316 17:30:04.180402  5916 net.cpp:100] Creating Layer conv3_3/2/conv_conv3_3/2/conv_0_split
I0316 17:30:04.180404  5916 net.cpp:434] conv3_3/2/conv_conv3_3/2/conv_0_split <- conv3_3/2/conv
I0316 17:30:04.180409  5916 net.cpp:408] conv3_3/2/conv_conv3_3/2/conv_0_split -> conv3_3/2/conv_conv3_3/2/conv_0_split_0
I0316 17:30:04.180414  5916 net.cpp:408] conv3_3/2/conv_conv3_3/2/conv_0_split -> conv3_3/2/conv_conv3_3/2/conv_0_split_1
I0316 17:30:04.180441  5916 net.cpp:150] Setting up conv3_3/2/conv_conv3_3/2/conv_0_split
I0316 17:30:04.180446  5916 net.cpp:157] Top shape: 1 48 80 132 (506880)
I0316 17:30:04.180449  5916 net.cpp:157] Top shape: 1 48 80 132 (506880)
I0316 17:30:04.180451  5916 net.cpp:165] Memory required for data: 553512984
I0316 17:30:04.180454  5916 layer_factory.hpp:77] Creating layer conv3_3/2/neg
I0316 17:30:04.180457  5916 net.cpp:100] Creating Layer conv3_3/2/neg
I0316 17:30:04.180460  5916 net.cpp:434] conv3_3/2/neg <- conv3_3/2/conv_conv3_3/2/conv_0_split_0
I0316 17:30:04.180464  5916 net.cpp:408] conv3_3/2/neg -> conv3_3/2/neg
I0316 17:30:04.180480  5916 net.cpp:150] Setting up conv3_3/2/neg
I0316 17:30:04.180487  5916 net.cpp:157] Top shape: 1 48 80 132 (506880)
I0316 17:30:04.180490  5916 net.cpp:165] Memory required for data: 555540504
I0316 17:30:04.180492  5916 layer_factory.hpp:77] Creating layer conv3_3/2/concat
I0316 17:30:04.180495  5916 net.cpp:100] Creating Layer conv3_3/2/concat
I0316 17:30:04.180498  5916 net.cpp:434] conv3_3/2/concat <- conv3_3/2/conv_conv3_3/2/conv_0_split_1
I0316 17:30:04.180501  5916 net.cpp:434] conv3_3/2/concat <- conv3_3/2/neg
I0316 17:30:04.180505  5916 net.cpp:408] conv3_3/2/concat -> conv3_3/2
I0316 17:30:04.180521  5916 net.cpp:150] Setting up conv3_3/2/concat
I0316 17:30:04.180524  5916 net.cpp:157] Top shape: 1 96 80 132 (1013760)
I0316 17:30:04.180526  5916 net.cpp:165] Memory required for data: 559595544
I0316 17:30:04.180529  5916 layer_factory.hpp:77] Creating layer conv3_3/2/scale
I0316 17:30:04.180533  5916 net.cpp:100] Creating Layer conv3_3/2/scale
I0316 17:30:04.180536  5916 net.cpp:434] conv3_3/2/scale <- conv3_3/2
I0316 17:30:04.180539  5916 net.cpp:395] conv3_3/2/scale -> conv3_3/2 (in-place)
I0316 17:30:04.180568  5916 layer_factory.hpp:77] Creating layer conv3_3/2/scale
I0316 17:30:04.180655  5916 net.cpp:150] Setting up conv3_3/2/scale
I0316 17:30:04.180660  5916 net.cpp:157] Top shape: 1 96 80 132 (1013760)
I0316 17:30:04.180661  5916 net.cpp:165] Memory required for data: 563650584
I0316 17:30:04.180665  5916 layer_factory.hpp:77] Creating layer conv3_3/2/relu
I0316 17:30:04.180670  5916 net.cpp:100] Creating Layer conv3_3/2/relu
I0316 17:30:04.180671  5916 net.cpp:434] conv3_3/2/relu <- conv3_3/2
I0316 17:30:04.180675  5916 net.cpp:395] conv3_3/2/relu -> conv3_3/2 (in-place)
I0316 17:30:04.181339  5916 net.cpp:150] Setting up conv3_3/2/relu
I0316 17:30:04.181346  5916 net.cpp:157] Top shape: 1 96 80 132 (1013760)
I0316 17:30:04.181349  5916 net.cpp:165] Memory required for data: 567705624
I0316 17:30:04.181351  5916 layer_factory.hpp:77] Creating layer conv3_3/3/conv
I0316 17:30:04.181360  5916 net.cpp:100] Creating Layer conv3_3/3/conv
I0316 17:30:04.181362  5916 net.cpp:434] conv3_3/3/conv <- conv3_3/2
I0316 17:30:04.181366  5916 net.cpp:408] conv3_3/3/conv -> conv3_3/3
I0316 17:30:04.181578  5916 net.cpp:150] Setting up conv3_3/3/conv
I0316 17:30:04.181584  5916 net.cpp:157] Top shape: 1 128 80 132 (1351680)
I0316 17:30:04.181586  5916 net.cpp:165] Memory required for data: 573112344
I0316 17:30:04.181591  5916 layer_factory.hpp:77] Creating layer conv3_3/input
I0316 17:30:04.181596  5916 net.cpp:100] Creating Layer conv3_3/input
I0316 17:30:04.181597  5916 net.cpp:434] conv3_3/input <- conv3_2_conv3_2_0_split_1
I0316 17:30:04.181602  5916 net.cpp:408] conv3_3/input -> conv3_3/input
I0316 17:30:04.181618  5916 net.cpp:150] Setting up conv3_3/input
I0316 17:30:04.181622  5916 net.cpp:157] Top shape: 1 128 80 132 (1351680)
I0316 17:30:04.181624  5916 net.cpp:165] Memory required for data: 578519064
I0316 17:30:04.181627  5916 layer_factory.hpp:77] Creating layer conv3_3
I0316 17:30:04.181632  5916 net.cpp:100] Creating Layer conv3_3
I0316 17:30:04.181634  5916 net.cpp:434] conv3_3 <- conv3_3/3
I0316 17:30:04.181638  5916 net.cpp:434] conv3_3 <- conv3_3/input
I0316 17:30:04.181640  5916 net.cpp:408] conv3_3 -> conv3_3
I0316 17:30:04.181656  5916 net.cpp:150] Setting up conv3_3
I0316 17:30:04.181660  5916 net.cpp:157] Top shape: 1 128 80 132 (1351680)
I0316 17:30:04.181663  5916 net.cpp:165] Memory required for data: 583925784
I0316 17:30:04.181664  5916 layer_factory.hpp:77] Creating layer conv3_3_conv3_3_0_split
I0316 17:30:04.181669  5916 net.cpp:100] Creating Layer conv3_3_conv3_3_0_split
I0316 17:30:04.181673  5916 net.cpp:434] conv3_3_conv3_3_0_split <- conv3_3
I0316 17:30:04.181675  5916 net.cpp:408] conv3_3_conv3_3_0_split -> conv3_3_conv3_3_0_split_0
I0316 17:30:04.181679  5916 net.cpp:408] conv3_3_conv3_3_0_split -> conv3_3_conv3_3_0_split_1
I0316 17:30:04.181704  5916 net.cpp:150] Setting up conv3_3_conv3_3_0_split
I0316 17:30:04.181707  5916 net.cpp:157] Top shape: 1 128 80 132 (1351680)
I0316 17:30:04.181712  5916 net.cpp:157] Top shape: 1 128 80 132 (1351680)
I0316 17:30:04.181715  5916 net.cpp:165] Memory required for data: 594739224
I0316 17:30:04.181717  5916 layer_factory.hpp:77] Creating layer conv3_4/1/conv
I0316 17:30:04.181723  5916 net.cpp:100] Creating Layer conv3_4/1/conv
I0316 17:30:04.181725  5916 net.cpp:434] conv3_4/1/conv <- conv3_3_conv3_3_0_split_0
I0316 17:30:04.181730  5916 net.cpp:408] conv3_4/1/conv -> conv3_4/1
I0316 17:30:04.181908  5916 net.cpp:150] Setting up conv3_4/1/conv
I0316 17:30:04.181915  5916 net.cpp:157] Top shape: 1 48 80 132 (506880)
I0316 17:30:04.181916  5916 net.cpp:165] Memory required for data: 596766744
I0316 17:30:04.181921  5916 layer_factory.hpp:77] Creating layer conv3_4/1/relu
I0316 17:30:04.181924  5916 net.cpp:100] Creating Layer conv3_4/1/relu
I0316 17:30:04.181926  5916 net.cpp:434] conv3_4/1/relu <- conv3_4/1
I0316 17:30:04.181929  5916 net.cpp:395] conv3_4/1/relu -> conv3_4/1 (in-place)
I0316 17:30:04.190023  5916 net.cpp:150] Setting up conv3_4/1/relu
I0316 17:30:04.190031  5916 net.cpp:157] Top shape: 1 48 80 132 (506880)
I0316 17:30:04.190032  5916 net.cpp:165] Memory required for data: 598794264
I0316 17:30:04.190035  5916 layer_factory.hpp:77] Creating layer conv3_4/2/conv
I0316 17:30:04.190042  5916 net.cpp:100] Creating Layer conv3_4/2/conv
I0316 17:30:04.190044  5916 net.cpp:434] conv3_4/2/conv <- conv3_4/1
I0316 17:30:04.190049  5916 net.cpp:408] conv3_4/2/conv -> conv3_4/2/conv
I0316 17:30:04.198684  5916 net.cpp:150] Setting up conv3_4/2/conv
I0316 17:30:04.198717  5916 net.cpp:157] Top shape: 1 48 80 132 (506880)
I0316 17:30:04.198720  5916 net.cpp:165] Memory required for data: 600821784
I0316 17:30:04.198729  5916 layer_factory.hpp:77] Creating layer conv3_4/2/conv_conv3_4/2/conv_0_split
I0316 17:30:04.198737  5916 net.cpp:100] Creating Layer conv3_4/2/conv_conv3_4/2/conv_0_split
I0316 17:30:04.198740  5916 net.cpp:434] conv3_4/2/conv_conv3_4/2/conv_0_split <- conv3_4/2/conv
I0316 17:30:04.198747  5916 net.cpp:408] conv3_4/2/conv_conv3_4/2/conv_0_split -> conv3_4/2/conv_conv3_4/2/conv_0_split_0
I0316 17:30:04.198755  5916 net.cpp:408] conv3_4/2/conv_conv3_4/2/conv_0_split -> conv3_4/2/conv_conv3_4/2/conv_0_split_1
I0316 17:30:04.198788  5916 net.cpp:150] Setting up conv3_4/2/conv_conv3_4/2/conv_0_split
I0316 17:30:04.198792  5916 net.cpp:157] Top shape: 1 48 80 132 (506880)
I0316 17:30:04.198796  5916 net.cpp:157] Top shape: 1 48 80 132 (506880)
I0316 17:30:04.198797  5916 net.cpp:165] Memory required for data: 604876824
I0316 17:30:04.198801  5916 layer_factory.hpp:77] Creating layer conv3_4/2/neg
I0316 17:30:04.198807  5916 net.cpp:100] Creating Layer conv3_4/2/neg
I0316 17:30:04.198809  5916 net.cpp:434] conv3_4/2/neg <- conv3_4/2/conv_conv3_4/2/conv_0_split_0
I0316 17:30:04.198812  5916 net.cpp:408] conv3_4/2/neg -> conv3_4/2/neg
I0316 17:30:04.198828  5916 net.cpp:150] Setting up conv3_4/2/neg
I0316 17:30:04.198832  5916 net.cpp:157] Top shape: 1 48 80 132 (506880)
I0316 17:30:04.198834  5916 net.cpp:165] Memory required for data: 606904344
I0316 17:30:04.198837  5916 layer_factory.hpp:77] Creating layer conv3_4/2/concat
I0316 17:30:04.198843  5916 net.cpp:100] Creating Layer conv3_4/2/concat
I0316 17:30:04.198844  5916 net.cpp:434] conv3_4/2/concat <- conv3_4/2/conv_conv3_4/2/conv_0_split_1
I0316 17:30:04.198848  5916 net.cpp:434] conv3_4/2/concat <- conv3_4/2/neg
I0316 17:30:04.198851  5916 net.cpp:408] conv3_4/2/concat -> conv3_4/2
I0316 17:30:04.198868  5916 net.cpp:150] Setting up conv3_4/2/concat
I0316 17:30:04.198871  5916 net.cpp:157] Top shape: 1 96 80 132 (1013760)
I0316 17:30:04.198874  5916 net.cpp:165] Memory required for data: 610959384
I0316 17:30:04.198876  5916 layer_factory.hpp:77] Creating layer conv3_4/2/scale
I0316 17:30:04.198881  5916 net.cpp:100] Creating Layer conv3_4/2/scale
I0316 17:30:04.198884  5916 net.cpp:434] conv3_4/2/scale <- conv3_4/2
I0316 17:30:04.198889  5916 net.cpp:395] conv3_4/2/scale -> conv3_4/2 (in-place)
I0316 17:30:04.198922  5916 layer_factory.hpp:77] Creating layer conv3_4/2/scale
I0316 17:30:04.199025  5916 net.cpp:150] Setting up conv3_4/2/scale
I0316 17:30:04.199031  5916 net.cpp:157] Top shape: 1 96 80 132 (1013760)
I0316 17:30:04.199033  5916 net.cpp:165] Memory required for data: 615014424
I0316 17:30:04.199038  5916 layer_factory.hpp:77] Creating layer conv3_4/2/relu
I0316 17:30:04.199043  5916 net.cpp:100] Creating Layer conv3_4/2/relu
I0316 17:30:04.199045  5916 net.cpp:434] conv3_4/2/relu <- conv3_4/2
I0316 17:30:04.199049  5916 net.cpp:395] conv3_4/2/relu -> conv3_4/2 (in-place)
I0316 17:30:04.199285  5916 net.cpp:150] Setting up conv3_4/2/relu
I0316 17:30:04.199303  5916 net.cpp:157] Top shape: 1 96 80 132 (1013760)
I0316 17:30:04.199306  5916 net.cpp:165] Memory required for data: 619069464
I0316 17:30:04.199309  5916 layer_factory.hpp:77] Creating layer conv3_4/3/conv
I0316 17:30:04.199317  5916 net.cpp:100] Creating Layer conv3_4/3/conv
I0316 17:30:04.199321  5916 net.cpp:434] conv3_4/3/conv <- conv3_4/2
I0316 17:30:04.199326  5916 net.cpp:408] conv3_4/3/conv -> conv3_4/3
I0316 17:30:04.199550  5916 net.cpp:150] Setting up conv3_4/3/conv
I0316 17:30:04.199556  5916 net.cpp:157] Top shape: 1 128 80 132 (1351680)
I0316 17:30:04.199559  5916 net.cpp:165] Memory required for data: 624476184
I0316 17:30:04.199563  5916 layer_factory.hpp:77] Creating layer conv3_4/input
I0316 17:30:04.199568  5916 net.cpp:100] Creating Layer conv3_4/input
I0316 17:30:04.199570  5916 net.cpp:434] conv3_4/input <- conv3_3_conv3_3_0_split_1
I0316 17:30:04.199582  5916 net.cpp:408] conv3_4/input -> conv3_4/input
I0316 17:30:04.199601  5916 net.cpp:150] Setting up conv3_4/input
I0316 17:30:04.199605  5916 net.cpp:157] Top shape: 1 128 80 132 (1351680)
I0316 17:30:04.199607  5916 net.cpp:165] Memory required for data: 629882904
I0316 17:30:04.199610  5916 layer_factory.hpp:77] Creating layer conv3_4
I0316 17:30:04.199616  5916 net.cpp:100] Creating Layer conv3_4
I0316 17:30:04.199618  5916 net.cpp:434] conv3_4 <- conv3_4/3
I0316 17:30:04.199621  5916 net.cpp:434] conv3_4 <- conv3_4/input
I0316 17:30:04.199625  5916 net.cpp:408] conv3_4 -> conv3_4
I0316 17:30:04.199643  5916 net.cpp:150] Setting up conv3_4
I0316 17:30:04.199647  5916 net.cpp:157] Top shape: 1 128 80 132 (1351680)
I0316 17:30:04.199650  5916 net.cpp:165] Memory required for data: 635289624
I0316 17:30:04.199651  5916 layer_factory.hpp:77] Creating layer conv3_4_conv3_4_0_split
I0316 17:30:04.199656  5916 net.cpp:100] Creating Layer conv3_4_conv3_4_0_split
I0316 17:30:04.199659  5916 net.cpp:434] conv3_4_conv3_4_0_split <- conv3_4
I0316 17:30:04.199663  5916 net.cpp:408] conv3_4_conv3_4_0_split -> conv3_4_conv3_4_0_split_0
I0316 17:30:04.199668  5916 net.cpp:408] conv3_4_conv3_4_0_split -> conv3_4_conv3_4_0_split_1
I0316 17:30:04.199673  5916 net.cpp:408] conv3_4_conv3_4_0_split -> conv3_4_conv3_4_0_split_2
I0316 17:30:04.199678  5916 net.cpp:408] conv3_4_conv3_4_0_split -> conv3_4_conv3_4_0_split_3
I0316 17:30:04.199682  5916 net.cpp:408] conv3_4_conv3_4_0_split -> conv3_4_conv3_4_0_split_4
I0316 17:30:04.199687  5916 net.cpp:408] conv3_4_conv3_4_0_split -> conv3_4_conv3_4_0_split_5
I0316 17:30:04.199743  5916 net.cpp:150] Setting up conv3_4_conv3_4_0_split
I0316 17:30:04.199748  5916 net.cpp:157] Top shape: 1 128 80 132 (1351680)
I0316 17:30:04.199750  5916 net.cpp:157] Top shape: 1 128 80 132 (1351680)
I0316 17:30:04.199753  5916 net.cpp:157] Top shape: 1 128 80 132 (1351680)
I0316 17:30:04.199755  5916 net.cpp:157] Top shape: 1 128 80 132 (1351680)
I0316 17:30:04.199759  5916 net.cpp:157] Top shape: 1 128 80 132 (1351680)
I0316 17:30:04.199761  5916 net.cpp:157] Top shape: 1 128 80 132 (1351680)
I0316 17:30:04.199764  5916 net.cpp:165] Memory required for data: 667729944
I0316 17:30:04.199765  5916 layer_factory.hpp:77] Creating layer conv4_1/incep/0/conv
I0316 17:30:04.199772  5916 net.cpp:100] Creating Layer conv4_1/incep/0/conv
I0316 17:30:04.199775  5916 net.cpp:434] conv4_1/incep/0/conv <- conv3_4_conv3_4_0_split_0
I0316 17:30:04.199779  5916 net.cpp:408] conv4_1/incep/0/conv -> conv4_1/incep/0
I0316 17:30:04.200001  5916 net.cpp:150] Setting up conv4_1/incep/0/conv
I0316 17:30:04.200014  5916 net.cpp:157] Top shape: 1 64 40 66 (168960)
I0316 17:30:04.200019  5916 net.cpp:165] Memory required for data: 668405784
I0316 17:30:04.200042  5916 layer_factory.hpp:77] Creating layer conv4_1/incep/0/relu
I0316 17:30:04.200049  5916 net.cpp:100] Creating Layer conv4_1/incep/0/relu
I0316 17:30:04.200052  5916 net.cpp:434] conv4_1/incep/0/relu <- conv4_1/incep/0
I0316 17:30:04.200057  5916 net.cpp:395] conv4_1/incep/0/relu -> conv4_1/incep/0 (in-place)
I0316 17:30:04.200242  5916 net.cpp:150] Setting up conv4_1/incep/0/relu
I0316 17:30:04.200251  5916 net.cpp:157] Top shape: 1 64 40 66 (168960)
I0316 17:30:04.200253  5916 net.cpp:165] Memory required for data: 669081624
I0316 17:30:04.200256  5916 layer_factory.hpp:77] Creating layer conv4_1/incep/1_reduce/conv
I0316 17:30:04.200263  5916 net.cpp:100] Creating Layer conv4_1/incep/1_reduce/conv
I0316 17:30:04.200268  5916 net.cpp:434] conv4_1/incep/1_reduce/conv <- conv3_4_conv3_4_0_split_1
I0316 17:30:04.200273  5916 net.cpp:408] conv4_1/incep/1_reduce/conv -> conv4_1/incep/1_reduce
I0316 17:30:04.200623  5916 net.cpp:150] Setting up conv4_1/incep/1_reduce/conv
I0316 17:30:04.200634  5916 net.cpp:157] Top shape: 1 48 40 66 (126720)
I0316 17:30:04.200639  5916 net.cpp:165] Memory required for data: 669588504
I0316 17:30:04.200645  5916 layer_factory.hpp:77] Creating layer conv4_1/incep/1_reduce/relu
I0316 17:30:04.200654  5916 net.cpp:100] Creating Layer conv4_1/incep/1_reduce/relu
I0316 17:30:04.200657  5916 net.cpp:434] conv4_1/incep/1_reduce/relu <- conv4_1/incep/1_reduce
I0316 17:30:04.200664  5916 net.cpp:395] conv4_1/incep/1_reduce/relu -> conv4_1/incep/1_reduce (in-place)
I0316 17:30:04.200925  5916 net.cpp:150] Setting up conv4_1/incep/1_reduce/relu
I0316 17:30:04.200934  5916 net.cpp:157] Top shape: 1 48 40 66 (126720)
I0316 17:30:04.200937  5916 net.cpp:165] Memory required for data: 670095384
I0316 17:30:04.200939  5916 layer_factory.hpp:77] Creating layer conv4_1/incep/1_0/conv
I0316 17:30:04.200947  5916 net.cpp:100] Creating Layer conv4_1/incep/1_0/conv
I0316 17:30:04.200950  5916 net.cpp:434] conv4_1/incep/1_0/conv <- conv4_1/incep/1_reduce
I0316 17:30:04.200955  5916 net.cpp:408] conv4_1/incep/1_0/conv -> conv4_1/incep/1_0
I0316 17:30:04.202214  5916 net.cpp:150] Setting up conv4_1/incep/1_0/conv
I0316 17:30:04.202225  5916 net.cpp:157] Top shape: 1 128 40 66 (337920)
I0316 17:30:04.202229  5916 net.cpp:165] Memory required for data: 671447064
I0316 17:30:04.202234  5916 layer_factory.hpp:77] Creating layer conv4_1/incep/1_0/relu
I0316 17:30:04.202239  5916 net.cpp:100] Creating Layer conv4_1/incep/1_0/relu
I0316 17:30:04.202241  5916 net.cpp:434] conv4_1/incep/1_0/relu <- conv4_1/incep/1_0
I0316 17:30:04.202245  5916 net.cpp:395] conv4_1/incep/1_0/relu -> conv4_1/incep/1_0 (in-place)
I0316 17:30:04.202366  5916 net.cpp:150] Setting up conv4_1/incep/1_0/relu
I0316 17:30:04.202373  5916 net.cpp:157] Top shape: 1 128 40 66 (337920)
I0316 17:30:04.202375  5916 net.cpp:165] Memory required for data: 672798744
I0316 17:30:04.202378  5916 layer_factory.hpp:77] Creating layer conv4_1/incep/2_reduce/conv
I0316 17:30:04.202384  5916 net.cpp:100] Creating Layer conv4_1/incep/2_reduce/conv
I0316 17:30:04.202388  5916 net.cpp:434] conv4_1/incep/2_reduce/conv <- conv3_4_conv3_4_0_split_2
I0316 17:30:04.202394  5916 net.cpp:408] conv4_1/incep/2_reduce/conv -> conv4_1/incep/2_reduce
I0316 17:30:04.202577  5916 net.cpp:150] Setting up conv4_1/incep/2_reduce/conv
I0316 17:30:04.202584  5916 net.cpp:157] Top shape: 1 24 40 66 (63360)
I0316 17:30:04.202585  5916 net.cpp:165] Memory required for data: 673052184
I0316 17:30:04.202589  5916 layer_factory.hpp:77] Creating layer conv4_1/incep/2_reduce/relu
I0316 17:30:04.202594  5916 net.cpp:100] Creating Layer conv4_1/incep/2_reduce/relu
I0316 17:30:04.202596  5916 net.cpp:434] conv4_1/incep/2_reduce/relu <- conv4_1/incep/2_reduce
I0316 17:30:04.202600  5916 net.cpp:395] conv4_1/incep/2_reduce/relu -> conv4_1/incep/2_reduce (in-place)
I0316 17:30:04.202812  5916 net.cpp:150] Setting up conv4_1/incep/2_reduce/relu
I0316 17:30:04.202824  5916 net.cpp:157] Top shape: 1 24 40 66 (63360)
I0316 17:30:04.202827  5916 net.cpp:165] Memory required for data: 673305624
I0316 17:30:04.202831  5916 layer_factory.hpp:77] Creating layer conv4_1/incep/2_0/conv
I0316 17:30:04.202836  5916 net.cpp:100] Creating Layer conv4_1/incep/2_0/conv
I0316 17:30:04.202839  5916 net.cpp:434] conv4_1/incep/2_0/conv <- conv4_1/incep/2_reduce
I0316 17:30:04.202846  5916 net.cpp:408] conv4_1/incep/2_0/conv -> conv4_1/incep/2_0
I0316 17:30:04.203655  5916 net.cpp:150] Setting up conv4_1/incep/2_0/conv
I0316 17:30:04.203665  5916 net.cpp:157] Top shape: 1 48 40 66 (126720)
I0316 17:30:04.203667  5916 net.cpp:165] Memory required for data: 673812504
I0316 17:30:04.203672  5916 layer_factory.hpp:77] Creating layer conv4_1/incep/2_0/relu
I0316 17:30:04.203676  5916 net.cpp:100] Creating Layer conv4_1/incep/2_0/relu
I0316 17:30:04.203680  5916 net.cpp:434] conv4_1/incep/2_0/relu <- conv4_1/incep/2_0
I0316 17:30:04.203683  5916 net.cpp:395] conv4_1/incep/2_0/relu -> conv4_1/incep/2_0 (in-place)
I0316 17:30:04.203804  5916 net.cpp:150] Setting up conv4_1/incep/2_0/relu
I0316 17:30:04.203810  5916 net.cpp:157] Top shape: 1 48 40 66 (126720)
I0316 17:30:04.203814  5916 net.cpp:165] Memory required for data: 674319384
I0316 17:30:04.203815  5916 layer_factory.hpp:77] Creating layer conv4_1/incep/2_1/conv
I0316 17:30:04.203824  5916 net.cpp:100] Creating Layer conv4_1/incep/2_1/conv
I0316 17:30:04.203826  5916 net.cpp:434] conv4_1/incep/2_1/conv <- conv4_1/incep/2_0
I0316 17:30:04.203831  5916 net.cpp:408] conv4_1/incep/2_1/conv -> conv4_1/incep/2_1
I0316 17:30:04.204634  5916 net.cpp:150] Setting up conv4_1/incep/2_1/conv
I0316 17:30:04.204643  5916 net.cpp:157] Top shape: 1 48 40 66 (126720)
I0316 17:30:04.204645  5916 net.cpp:165] Memory required for data: 674826264
I0316 17:30:04.204650  5916 layer_factory.hpp:77] Creating layer conv4_1/incep/2_1/relu
I0316 17:30:04.204655  5916 net.cpp:100] Creating Layer conv4_1/incep/2_1/relu
I0316 17:30:04.204658  5916 net.cpp:434] conv4_1/incep/2_1/relu <- conv4_1/incep/2_1
I0316 17:30:04.204661  5916 net.cpp:395] conv4_1/incep/2_1/relu -> conv4_1/incep/2_1 (in-place)
I0316 17:30:04.204782  5916 net.cpp:150] Setting up conv4_1/incep/2_1/relu
I0316 17:30:04.204787  5916 net.cpp:157] Top shape: 1 48 40 66 (126720)
I0316 17:30:04.204790  5916 net.cpp:165] Memory required for data: 675333144
I0316 17:30:04.204792  5916 layer_factory.hpp:77] Creating layer conv4_1/incep/pool
I0316 17:30:04.204797  5916 net.cpp:100] Creating Layer conv4_1/incep/pool
I0316 17:30:04.204800  5916 net.cpp:434] conv4_1/incep/pool <- conv3_4_conv3_4_0_split_3
I0316 17:30:04.204805  5916 net.cpp:408] conv4_1/incep/pool -> conv4_1/incep/pool
I0316 17:30:04.204838  5916 net.cpp:150] Setting up conv4_1/incep/pool
I0316 17:30:04.204843  5916 net.cpp:157] Top shape: 1 128 40 66 (337920)
I0316 17:30:04.204844  5916 net.cpp:165] Memory required for data: 676684824
I0316 17:30:04.204848  5916 layer_factory.hpp:77] Creating layer conv4_1/incep/poolproj/conv
I0316 17:30:04.204854  5916 net.cpp:100] Creating Layer conv4_1/incep/poolproj/conv
I0316 17:30:04.204857  5916 net.cpp:434] conv4_1/incep/poolproj/conv <- conv4_1/incep/pool
I0316 17:30:04.204861  5916 net.cpp:408] conv4_1/incep/poolproj/conv -> conv4_1/incep/poolproj
I0316 17:30:04.205206  5916 net.cpp:150] Setting up conv4_1/incep/poolproj/conv
I0316 17:30:04.205214  5916 net.cpp:157] Top shape: 1 128 40 66 (337920)
I0316 17:30:04.205217  5916 net.cpp:165] Memory required for data: 678036504
I0316 17:30:04.205221  5916 layer_factory.hpp:77] Creating layer conv4_1/incep/poolproj/relu
I0316 17:30:04.205225  5916 net.cpp:100] Creating Layer conv4_1/incep/poolproj/relu
I0316 17:30:04.205229  5916 net.cpp:434] conv4_1/incep/poolproj/relu <- conv4_1/incep/poolproj
I0316 17:30:04.205234  5916 net.cpp:395] conv4_1/incep/poolproj/relu -> conv4_1/incep/poolproj (in-place)
I0316 17:30:04.205448  5916 net.cpp:150] Setting up conv4_1/incep/poolproj/relu
I0316 17:30:04.205456  5916 net.cpp:157] Top shape: 1 128 40 66 (337920)
I0316 17:30:04.205462  5916 net.cpp:165] Memory required for data: 679388184
I0316 17:30:04.205466  5916 layer_factory.hpp:77] Creating layer conv4_1/incep
I0316 17:30:04.205471  5916 net.cpp:100] Creating Layer conv4_1/incep
I0316 17:30:04.205473  5916 net.cpp:434] conv4_1/incep <- conv4_1/incep/0
I0316 17:30:04.205477  5916 net.cpp:434] conv4_1/incep <- conv4_1/incep/1_0
I0316 17:30:04.205480  5916 net.cpp:434] conv4_1/incep <- conv4_1/incep/2_1
I0316 17:30:04.205483  5916 net.cpp:434] conv4_1/incep <- conv4_1/incep/poolproj
I0316 17:30:04.205487  5916 net.cpp:408] conv4_1/incep -> conv4_1/incep
I0316 17:30:04.205510  5916 net.cpp:150] Setting up conv4_1/incep
I0316 17:30:04.205514  5916 net.cpp:157] Top shape: 1 368 40 66 (971520)
I0316 17:30:04.205518  5916 net.cpp:165] Memory required for data: 683274264
I0316 17:30:04.205519  5916 layer_factory.hpp:77] Creating layer conv4_1/out/conv
I0316 17:30:04.205526  5916 net.cpp:100] Creating Layer conv4_1/out/conv
I0316 17:30:04.205529  5916 net.cpp:434] conv4_1/out/conv <- conv4_1/incep
I0316 17:30:04.205533  5916 net.cpp:408] conv4_1/out/conv -> conv4_1/out
I0316 17:30:04.206336  5916 net.cpp:150] Setting up conv4_1/out/conv
I0316 17:30:04.206344  5916 net.cpp:157] Top shape: 1 256 40 66 (675840)
I0316 17:30:04.206347  5916 net.cpp:165] Memory required for data: 685977624
I0316 17:30:04.206351  5916 layer_factory.hpp:77] Creating layer conv4_1/proj
I0316 17:30:04.206358  5916 net.cpp:100] Creating Layer conv4_1/proj
I0316 17:30:04.206362  5916 net.cpp:434] conv4_1/proj <- conv3_4_conv3_4_0_split_4
I0316 17:30:04.206365  5916 net.cpp:408] conv4_1/proj -> conv4_1/proj
I0316 17:30:04.206658  5916 net.cpp:150] Setting up conv4_1/proj
I0316 17:30:04.206665  5916 net.cpp:157] Top shape: 1 256 40 66 (675840)
I0316 17:30:04.206666  5916 net.cpp:165] Memory required for data: 688680984
I0316 17:30:04.206670  5916 layer_factory.hpp:77] Creating layer conv4_1
I0316 17:30:04.206676  5916 net.cpp:100] Creating Layer conv4_1
I0316 17:30:04.206678  5916 net.cpp:434] conv4_1 <- conv4_1/out
I0316 17:30:04.206681  5916 net.cpp:434] conv4_1 <- conv4_1/proj
I0316 17:30:04.206686  5916 net.cpp:408] conv4_1 -> conv4_1
I0316 17:30:04.206706  5916 net.cpp:150] Setting up conv4_1
I0316 17:30:04.206709  5916 net.cpp:157] Top shape: 1 256 40 66 (675840)
I0316 17:30:04.206712  5916 net.cpp:165] Memory required for data: 691384344
I0316 17:30:04.206714  5916 layer_factory.hpp:77] Creating layer conv4_1_conv4_1_0_split
I0316 17:30:04.206719  5916 net.cpp:100] Creating Layer conv4_1_conv4_1_0_split
I0316 17:30:04.206722  5916 net.cpp:434] conv4_1_conv4_1_0_split <- conv4_1
I0316 17:30:04.206727  5916 net.cpp:408] conv4_1_conv4_1_0_split -> conv4_1_conv4_1_0_split_0
I0316 17:30:04.206732  5916 net.cpp:408] conv4_1_conv4_1_0_split -> conv4_1_conv4_1_0_split_1
I0316 17:30:04.206737  5916 net.cpp:408] conv4_1_conv4_1_0_split -> conv4_1_conv4_1_0_split_2
I0316 17:30:04.206740  5916 net.cpp:408] conv4_1_conv4_1_0_split -> conv4_1_conv4_1_0_split_3
I0316 17:30:04.206782  5916 net.cpp:150] Setting up conv4_1_conv4_1_0_split
I0316 17:30:04.206786  5916 net.cpp:157] Top shape: 1 256 40 66 (675840)
I0316 17:30:04.206789  5916 net.cpp:157] Top shape: 1 256 40 66 (675840)
I0316 17:30:04.206792  5916 net.cpp:157] Top shape: 1 256 40 66 (675840)
I0316 17:30:04.206794  5916 net.cpp:157] Top shape: 1 256 40 66 (675840)
I0316 17:30:04.206797  5916 net.cpp:165] Memory required for data: 702197784
I0316 17:30:04.206799  5916 layer_factory.hpp:77] Creating layer conv4_2/incep/0/conv
I0316 17:30:04.206804  5916 net.cpp:100] Creating Layer conv4_2/incep/0/conv
I0316 17:30:04.206807  5916 net.cpp:434] conv4_2/incep/0/conv <- conv4_1_conv4_1_0_split_0
I0316 17:30:04.206812  5916 net.cpp:408] conv4_2/incep/0/conv -> conv4_2/incep/0
I0316 17:30:04.207044  5916 net.cpp:150] Setting up conv4_2/incep/0/conv
I0316 17:30:04.207049  5916 net.cpp:157] Top shape: 1 64 40 66 (168960)
I0316 17:30:04.207052  5916 net.cpp:165] Memory required for data: 702873624
I0316 17:30:04.207056  5916 layer_factory.hpp:77] Creating layer conv4_2/incep/0/relu
I0316 17:30:04.207063  5916 net.cpp:100] Creating Layer conv4_2/incep/0/relu
I0316 17:30:04.207067  5916 net.cpp:434] conv4_2/incep/0/relu <- conv4_2/incep/0
I0316 17:30:04.207070  5916 net.cpp:395] conv4_2/incep/0/relu -> conv4_2/incep/0 (in-place)
I0316 17:30:04.207195  5916 net.cpp:150] Setting up conv4_2/incep/0/relu
I0316 17:30:04.207201  5916 net.cpp:157] Top shape: 1 64 40 66 (168960)
I0316 17:30:04.207203  5916 net.cpp:165] Memory required for data: 703549464
I0316 17:30:04.207206  5916 layer_factory.hpp:77] Creating layer conv4_2/incep/1_reduce/conv
I0316 17:30:04.207212  5916 net.cpp:100] Creating Layer conv4_2/incep/1_reduce/conv
I0316 17:30:04.207216  5916 net.cpp:434] conv4_2/incep/1_reduce/conv <- conv4_1_conv4_1_0_split_1
I0316 17:30:04.207219  5916 net.cpp:408] conv4_2/incep/1_reduce/conv -> conv4_2/incep/1_reduce
I0316 17:30:04.207454  5916 net.cpp:150] Setting up conv4_2/incep/1_reduce/conv
I0316 17:30:04.207460  5916 net.cpp:157] Top shape: 1 64 40 66 (168960)
I0316 17:30:04.207463  5916 net.cpp:165] Memory required for data: 704225304
I0316 17:30:04.207466  5916 layer_factory.hpp:77] Creating layer conv4_2/incep/1_reduce/relu
I0316 17:30:04.207471  5916 net.cpp:100] Creating Layer conv4_2/incep/1_reduce/relu
I0316 17:30:04.207474  5916 net.cpp:434] conv4_2/incep/1_reduce/relu <- conv4_2/incep/1_reduce
I0316 17:30:04.207478  5916 net.cpp:395] conv4_2/incep/1_reduce/relu -> conv4_2/incep/1_reduce (in-place)
I0316 17:30:04.207722  5916 net.cpp:150] Setting up conv4_2/incep/1_reduce/relu
I0316 17:30:04.207731  5916 net.cpp:157] Top shape: 1 64 40 66 (168960)
I0316 17:30:04.207733  5916 net.cpp:165] Memory required for data: 704901144
I0316 17:30:04.207736  5916 layer_factory.hpp:77] Creating layer conv4_2/incep/1_0/conv
I0316 17:30:04.207743  5916 net.cpp:100] Creating Layer conv4_2/incep/1_0/conv
I0316 17:30:04.207746  5916 net.cpp:434] conv4_2/incep/1_0/conv <- conv4_2/incep/1_reduce
I0316 17:30:04.207751  5916 net.cpp:408] conv4_2/incep/1_0/conv -> conv4_2/incep/1_0
I0316 17:30:04.208859  5916 net.cpp:150] Setting up conv4_2/incep/1_0/conv
I0316 17:30:04.208869  5916 net.cpp:157] Top shape: 1 128 40 66 (337920)
I0316 17:30:04.208871  5916 net.cpp:165] Memory required for data: 706252824
I0316 17:30:04.208876  5916 layer_factory.hpp:77] Creating layer conv4_2/incep/1_0/relu
I0316 17:30:04.208880  5916 net.cpp:100] Creating Layer conv4_2/incep/1_0/relu
I0316 17:30:04.208884  5916 net.cpp:434] conv4_2/incep/1_0/relu <- conv4_2/incep/1_0
I0316 17:30:04.208887  5916 net.cpp:395] conv4_2/incep/1_0/relu -> conv4_2/incep/1_0 (in-place)
I0316 17:30:04.209009  5916 net.cpp:150] Setting up conv4_2/incep/1_0/relu
I0316 17:30:04.209015  5916 net.cpp:157] Top shape: 1 128 40 66 (337920)
I0316 17:30:04.209018  5916 net.cpp:165] Memory required for data: 707604504
I0316 17:30:04.209020  5916 layer_factory.hpp:77] Creating layer conv4_2/incep/2_reduce/conv
I0316 17:30:04.209028  5916 net.cpp:100] Creating Layer conv4_2/incep/2_reduce/conv
I0316 17:30:04.209030  5916 net.cpp:434] conv4_2/incep/2_reduce/conv <- conv4_1_conv4_1_0_split_2
I0316 17:30:04.209035  5916 net.cpp:408] conv4_2/incep/2_reduce/conv -> conv4_2/incep/2_reduce
I0316 17:30:04.209235  5916 net.cpp:150] Setting up conv4_2/incep/2_reduce/conv
I0316 17:30:04.209241  5916 net.cpp:157] Top shape: 1 24 40 66 (63360)
I0316 17:30:04.209244  5916 net.cpp:165] Memory required for data: 707857944
I0316 17:30:04.209247  5916 layer_factory.hpp:77] Creating layer conv4_2/incep/2_reduce/relu
I0316 17:30:04.209252  5916 net.cpp:100] Creating Layer conv4_2/incep/2_reduce/relu
I0316 17:30:04.209255  5916 net.cpp:434] conv4_2/incep/2_reduce/relu <- conv4_2/incep/2_reduce
I0316 17:30:04.209260  5916 net.cpp:395] conv4_2/incep/2_reduce/relu -> conv4_2/incep/2_reduce (in-place)
I0316 17:30:04.209472  5916 net.cpp:150] Setting up conv4_2/incep/2_reduce/relu
I0316 17:30:04.209481  5916 net.cpp:157] Top shape: 1 24 40 66 (63360)
I0316 17:30:04.209483  5916 net.cpp:165] Memory required for data: 708111384
I0316 17:30:04.209486  5916 layer_factory.hpp:77] Creating layer conv4_2/incep/2_0/conv
I0316 17:30:04.209496  5916 net.cpp:100] Creating Layer conv4_2/incep/2_0/conv
I0316 17:30:04.209499  5916 net.cpp:434] conv4_2/incep/2_0/conv <- conv4_2/incep/2_reduce
I0316 17:30:04.209504  5916 net.cpp:408] conv4_2/incep/2_0/conv -> conv4_2/incep/2_0
I0316 17:30:04.210263  5916 net.cpp:150] Setting up conv4_2/incep/2_0/conv
I0316 17:30:04.210273  5916 net.cpp:157] Top shape: 1 48 40 66 (126720)
I0316 17:30:04.210274  5916 net.cpp:165] Memory required for data: 708618264
I0316 17:30:04.210279  5916 layer_factory.hpp:77] Creating layer conv4_2/incep/2_0/relu
I0316 17:30:04.210284  5916 net.cpp:100] Creating Layer conv4_2/incep/2_0/relu
I0316 17:30:04.210286  5916 net.cpp:434] conv4_2/incep/2_0/relu <- conv4_2/incep/2_0
I0316 17:30:04.210291  5916 net.cpp:395] conv4_2/incep/2_0/relu -> conv4_2/incep/2_0 (in-place)
I0316 17:30:04.210414  5916 net.cpp:150] Setting up conv4_2/incep/2_0/relu
I0316 17:30:04.210420  5916 net.cpp:157] Top shape: 1 48 40 66 (126720)
I0316 17:30:04.210422  5916 net.cpp:165] Memory required for data: 709125144
I0316 17:30:04.210425  5916 layer_factory.hpp:77] Creating layer conv4_2/incep/2_1/conv
I0316 17:30:04.210433  5916 net.cpp:100] Creating Layer conv4_2/incep/2_1/conv
I0316 17:30:04.210435  5916 net.cpp:434] conv4_2/incep/2_1/conv <- conv4_2/incep/2_0
I0316 17:30:04.210440  5916 net.cpp:408] conv4_2/incep/2_1/conv -> conv4_2/incep/2_1
I0316 17:30:04.211267  5916 net.cpp:150] Setting up conv4_2/incep/2_1/conv
I0316 17:30:04.211275  5916 net.cpp:157] Top shape: 1 48 40 66 (126720)
I0316 17:30:04.211278  5916 net.cpp:165] Memory required for data: 709632024
I0316 17:30:04.211282  5916 layer_factory.hpp:77] Creating layer conv4_2/incep/2_1/relu
I0316 17:30:04.211287  5916 net.cpp:100] Creating Layer conv4_2/incep/2_1/relu
I0316 17:30:04.211290  5916 net.cpp:434] conv4_2/incep/2_1/relu <- conv4_2/incep/2_1
I0316 17:30:04.211294  5916 net.cpp:395] conv4_2/incep/2_1/relu -> conv4_2/incep/2_1 (in-place)
I0316 17:30:04.211513  5916 net.cpp:150] Setting up conv4_2/incep/2_1/relu
I0316 17:30:04.211524  5916 net.cpp:157] Top shape: 1 48 40 66 (126720)
I0316 17:30:04.211525  5916 net.cpp:165] Memory required for data: 710138904
I0316 17:30:04.211529  5916 layer_factory.hpp:77] Creating layer conv4_2/incep
I0316 17:30:04.211534  5916 net.cpp:100] Creating Layer conv4_2/incep
I0316 17:30:04.211535  5916 net.cpp:434] conv4_2/incep <- conv4_2/incep/0
I0316 17:30:04.211539  5916 net.cpp:434] conv4_2/incep <- conv4_2/incep/1_0
I0316 17:30:04.211542  5916 net.cpp:434] conv4_2/incep <- conv4_2/incep/2_1
I0316 17:30:04.211546  5916 net.cpp:408] conv4_2/incep -> conv4_2/incep
I0316 17:30:04.211568  5916 net.cpp:150] Setting up conv4_2/incep
I0316 17:30:04.211573  5916 net.cpp:157] Top shape: 1 240 40 66 (633600)
I0316 17:30:04.211594  5916 net.cpp:165] Memory required for data: 712673304
I0316 17:30:04.211597  5916 layer_factory.hpp:77] Creating layer conv4_2/out/conv
I0316 17:30:04.211603  5916 net.cpp:100] Creating Layer conv4_2/out/conv
I0316 17:30:04.211616  5916 net.cpp:434] conv4_2/out/conv <- conv4_2/incep
I0316 17:30:04.211621  5916 net.cpp:408] conv4_2/out/conv -> conv4_2/out
I0316 17:30:04.212035  5916 net.cpp:150] Setting up conv4_2/out/conv
I0316 17:30:04.212041  5916 net.cpp:157] Top shape: 1 256 40 66 (675840)
I0316 17:30:04.212044  5916 net.cpp:165] Memory required for data: 715376664
I0316 17:30:04.212049  5916 layer_factory.hpp:77] Creating layer conv4_2/input
I0316 17:30:04.212054  5916 net.cpp:100] Creating Layer conv4_2/input
I0316 17:30:04.212055  5916 net.cpp:434] conv4_2/input <- conv4_1_conv4_1_0_split_3
I0316 17:30:04.212059  5916 net.cpp:408] conv4_2/input -> conv4_2/input
I0316 17:30:04.212079  5916 net.cpp:150] Setting up conv4_2/input
I0316 17:30:04.212083  5916 net.cpp:157] Top shape: 1 256 40 66 (675840)
I0316 17:30:04.212085  5916 net.cpp:165] Memory required for data: 718080024
I0316 17:30:04.212087  5916 layer_factory.hpp:77] Creating layer conv4_2
I0316 17:30:04.212110  5916 net.cpp:100] Creating Layer conv4_2
I0316 17:30:04.212113  5916 net.cpp:434] conv4_2 <- conv4_2/out
I0316 17:30:04.212121  5916 net.cpp:434] conv4_2 <- conv4_2/input
I0316 17:30:04.212124  5916 net.cpp:408] conv4_2 -> conv4_2
I0316 17:30:04.212143  5916 net.cpp:150] Setting up conv4_2
I0316 17:30:04.212147  5916 net.cpp:157] Top shape: 1 256 40 66 (675840)
I0316 17:30:04.212149  5916 net.cpp:165] Memory required for data: 720783384
I0316 17:30:04.212152  5916 layer_factory.hpp:77] Creating layer conv4_2_conv4_2_0_split
I0316 17:30:04.212157  5916 net.cpp:100] Creating Layer conv4_2_conv4_2_0_split
I0316 17:30:04.212158  5916 net.cpp:434] conv4_2_conv4_2_0_split <- conv4_2
I0316 17:30:04.212162  5916 net.cpp:408] conv4_2_conv4_2_0_split -> conv4_2_conv4_2_0_split_0
I0316 17:30:04.212167  5916 net.cpp:408] conv4_2_conv4_2_0_split -> conv4_2_conv4_2_0_split_1
I0316 17:30:04.212172  5916 net.cpp:408] conv4_2_conv4_2_0_split -> conv4_2_conv4_2_0_split_2
I0316 17:30:04.212177  5916 net.cpp:408] conv4_2_conv4_2_0_split -> conv4_2_conv4_2_0_split_3
I0316 17:30:04.212219  5916 net.cpp:150] Setting up conv4_2_conv4_2_0_split
I0316 17:30:04.212224  5916 net.cpp:157] Top shape: 1 256 40 66 (675840)
I0316 17:30:04.212226  5916 net.cpp:157] Top shape: 1 256 40 66 (675840)
I0316 17:30:04.212229  5916 net.cpp:157] Top shape: 1 256 40 66 (675840)
I0316 17:30:04.212231  5916 net.cpp:157] Top shape: 1 256 40 66 (675840)
I0316 17:30:04.212234  5916 net.cpp:165] Memory required for data: 731596824
I0316 17:30:04.212236  5916 layer_factory.hpp:77] Creating layer conv4_3/incep/0/conv
I0316 17:30:04.212242  5916 net.cpp:100] Creating Layer conv4_3/incep/0/conv
I0316 17:30:04.212245  5916 net.cpp:434] conv4_3/incep/0/conv <- conv4_2_conv4_2_0_split_0
I0316 17:30:04.212251  5916 net.cpp:408] conv4_3/incep/0/conv -> conv4_3/incep/0
I0316 17:30:04.212481  5916 net.cpp:150] Setting up conv4_3/incep/0/conv
I0316 17:30:04.212487  5916 net.cpp:157] Top shape: 1 64 40 66 (168960)
I0316 17:30:04.212489  5916 net.cpp:165] Memory required for data: 732272664
I0316 17:30:04.212493  5916 layer_factory.hpp:77] Creating layer conv4_3/incep/0/relu
I0316 17:30:04.212497  5916 net.cpp:100] Creating Layer conv4_3/incep/0/relu
I0316 17:30:04.212501  5916 net.cpp:434] conv4_3/incep/0/relu <- conv4_3/incep/0
I0316 17:30:04.212503  5916 net.cpp:395] conv4_3/incep/0/relu -> conv4_3/incep/0 (in-place)
I0316 17:30:04.212625  5916 net.cpp:150] Setting up conv4_3/incep/0/relu
I0316 17:30:04.212631  5916 net.cpp:157] Top shape: 1 64 40 66 (168960)
I0316 17:30:04.212635  5916 net.cpp:165] Memory required for data: 732948504
I0316 17:30:04.212636  5916 layer_factory.hpp:77] Creating layer conv4_3/incep/1_reduce/conv
I0316 17:30:04.212643  5916 net.cpp:100] Creating Layer conv4_3/incep/1_reduce/conv
I0316 17:30:04.212646  5916 net.cpp:434] conv4_3/incep/1_reduce/conv <- conv4_2_conv4_2_0_split_1
I0316 17:30:04.212651  5916 net.cpp:408] conv4_3/incep/1_reduce/conv -> conv4_3/incep/1_reduce
I0316 17:30:04.212888  5916 net.cpp:150] Setting up conv4_3/incep/1_reduce/conv
I0316 17:30:04.212894  5916 net.cpp:157] Top shape: 1 64 40 66 (168960)
I0316 17:30:04.212896  5916 net.cpp:165] Memory required for data: 733624344
I0316 17:30:04.212900  5916 layer_factory.hpp:77] Creating layer conv4_3/incep/1_reduce/relu
I0316 17:30:04.212904  5916 net.cpp:100] Creating Layer conv4_3/incep/1_reduce/relu
I0316 17:30:04.212908  5916 net.cpp:434] conv4_3/incep/1_reduce/relu <- conv4_3/incep/1_reduce
I0316 17:30:04.212911  5916 net.cpp:395] conv4_3/incep/1_reduce/relu -> conv4_3/incep/1_reduce (in-place)
I0316 17:30:04.213129  5916 net.cpp:150] Setting up conv4_3/incep/1_reduce/relu
I0316 17:30:04.213137  5916 net.cpp:157] Top shape: 1 64 40 66 (168960)
I0316 17:30:04.213140  5916 net.cpp:165] Memory required for data: 734300184
I0316 17:30:04.213142  5916 layer_factory.hpp:77] Creating layer conv4_3/incep/1_0/conv
I0316 17:30:04.213148  5916 net.cpp:100] Creating Layer conv4_3/incep/1_0/conv
I0316 17:30:04.213151  5916 net.cpp:434] conv4_3/incep/1_0/conv <- conv4_3/incep/1_reduce
I0316 17:30:04.213157  5916 net.cpp:408] conv4_3/incep/1_0/conv -> conv4_3/incep/1_0
I0316 17:30:04.214093  5916 net.cpp:150] Setting up conv4_3/incep/1_0/conv
I0316 17:30:04.214103  5916 net.cpp:157] Top shape: 1 128 40 66 (337920)
I0316 17:30:04.214107  5916 net.cpp:165] Memory required for data: 735651864
I0316 17:30:04.214110  5916 layer_factory.hpp:77] Creating layer conv4_3/incep/1_0/relu
I0316 17:30:04.214115  5916 net.cpp:100] Creating Layer conv4_3/incep/1_0/relu
I0316 17:30:04.214118  5916 net.cpp:434] conv4_3/incep/1_0/relu <- conv4_3/incep/1_0
I0316 17:30:04.214123  5916 net.cpp:395] conv4_3/incep/1_0/relu -> conv4_3/incep/1_0 (in-place)
I0316 17:30:04.214339  5916 net.cpp:150] Setting up conv4_3/incep/1_0/relu
I0316 17:30:04.214347  5916 net.cpp:157] Top shape: 1 128 40 66 (337920)
I0316 17:30:04.214350  5916 net.cpp:165] Memory required for data: 737003544
I0316 17:30:04.214352  5916 layer_factory.hpp:77] Creating layer conv4_3/incep/2_reduce/conv
I0316 17:30:04.214360  5916 net.cpp:100] Creating Layer conv4_3/incep/2_reduce/conv
I0316 17:30:04.214363  5916 net.cpp:434] conv4_3/incep/2_reduce/conv <- conv4_2_conv4_2_0_split_2
I0316 17:30:04.214368  5916 net.cpp:408] conv4_3/incep/2_reduce/conv -> conv4_3/incep/2_reduce
I0316 17:30:04.214572  5916 net.cpp:150] Setting up conv4_3/incep/2_reduce/conv
I0316 17:30:04.214578  5916 net.cpp:157] Top shape: 1 24 40 66 (63360)
I0316 17:30:04.214581  5916 net.cpp:165] Memory required for data: 737256984
I0316 17:30:04.214586  5916 layer_factory.hpp:77] Creating layer conv4_3/incep/2_reduce/relu
I0316 17:30:04.214589  5916 net.cpp:100] Creating Layer conv4_3/incep/2_reduce/relu
I0316 17:30:04.214592  5916 net.cpp:434] conv4_3/incep/2_reduce/relu <- conv4_3/incep/2_reduce
I0316 17:30:04.214596  5916 net.cpp:395] conv4_3/incep/2_reduce/relu -> conv4_3/incep/2_reduce (in-place)
I0316 17:30:04.214718  5916 net.cpp:150] Setting up conv4_3/incep/2_reduce/relu
I0316 17:30:04.214725  5916 net.cpp:157] Top shape: 1 24 40 66 (63360)
I0316 17:30:04.214726  5916 net.cpp:165] Memory required for data: 737510424
I0316 17:30:04.214730  5916 layer_factory.hpp:77] Creating layer conv4_3/incep/2_0/conv
I0316 17:30:04.214735  5916 net.cpp:100] Creating Layer conv4_3/incep/2_0/conv
I0316 17:30:04.214738  5916 net.cpp:434] conv4_3/incep/2_0/conv <- conv4_3/incep/2_reduce
I0316 17:30:04.214745  5916 net.cpp:408] conv4_3/incep/2_0/conv -> conv4_3/incep/2_0
I0316 17:30:04.215515  5916 net.cpp:150] Setting up conv4_3/incep/2_0/conv
I0316 17:30:04.215523  5916 net.cpp:157] Top shape: 1 48 40 66 (126720)
I0316 17:30:04.215526  5916 net.cpp:165] Memory required for data: 738017304
I0316 17:30:04.215530  5916 layer_factory.hpp:77] Creating layer conv4_3/incep/2_0/relu
I0316 17:30:04.215535  5916 net.cpp:100] Creating Layer conv4_3/incep/2_0/relu
I0316 17:30:04.215538  5916 net.cpp:434] conv4_3/incep/2_0/relu <- conv4_3/incep/2_0
I0316 17:30:04.215543  5916 net.cpp:395] conv4_3/incep/2_0/relu -> conv4_3/incep/2_0 (in-place)
I0316 17:30:04.215786  5916 net.cpp:150] Setting up conv4_3/incep/2_0/relu
I0316 17:30:04.215795  5916 net.cpp:157] Top shape: 1 48 40 66 (126720)
I0316 17:30:04.215797  5916 net.cpp:165] Memory required for data: 738524184
I0316 17:30:04.215801  5916 layer_factory.hpp:77] Creating layer conv4_3/incep/2_1/conv
I0316 17:30:04.215806  5916 net.cpp:100] Creating Layer conv4_3/incep/2_1/conv
I0316 17:30:04.215811  5916 net.cpp:434] conv4_3/incep/2_1/conv <- conv4_3/incep/2_0
I0316 17:30:04.215816  5916 net.cpp:408] conv4_3/incep/2_1/conv -> conv4_3/incep/2_1
I0316 17:30:04.216727  5916 net.cpp:150] Setting up conv4_3/incep/2_1/conv
I0316 17:30:04.216737  5916 net.cpp:157] Top shape: 1 48 40 66 (126720)
I0316 17:30:04.216739  5916 net.cpp:165] Memory required for data: 739031064
I0316 17:30:04.216744  5916 layer_factory.hpp:77] Creating layer conv4_3/incep/2_1/relu
I0316 17:30:04.216748  5916 net.cpp:100] Creating Layer conv4_3/incep/2_1/relu
I0316 17:30:04.216751  5916 net.cpp:434] conv4_3/incep/2_1/relu <- conv4_3/incep/2_1
I0316 17:30:04.216755  5916 net.cpp:395] conv4_3/incep/2_1/relu -> conv4_3/incep/2_1 (in-place)
I0316 17:30:04.216878  5916 net.cpp:150] Setting up conv4_3/incep/2_1/relu
I0316 17:30:04.216889  5916 net.cpp:157] Top shape: 1 48 40 66 (126720)
I0316 17:30:04.216892  5916 net.cpp:165] Memory required for data: 739537944
I0316 17:30:04.216894  5916 layer_factory.hpp:77] Creating layer conv4_3/incep
I0316 17:30:04.216899  5916 net.cpp:100] Creating Layer conv4_3/incep
I0316 17:30:04.216902  5916 net.cpp:434] conv4_3/incep <- conv4_3/incep/0
I0316 17:30:04.216905  5916 net.cpp:434] conv4_3/incep <- conv4_3/incep/1_0
I0316 17:30:04.216908  5916 net.cpp:434] conv4_3/incep <- conv4_3/incep/2_1
I0316 17:30:04.216912  5916 net.cpp:408] conv4_3/incep -> conv4_3/incep
I0316 17:30:04.216934  5916 net.cpp:150] Setting up conv4_3/incep
I0316 17:30:04.216939  5916 net.cpp:157] Top shape: 1 240 40 66 (633600)
I0316 17:30:04.216941  5916 net.cpp:165] Memory required for data: 742072344
I0316 17:30:04.216943  5916 layer_factory.hpp:77] Creating layer conv4_3/out/conv
I0316 17:30:04.216949  5916 net.cpp:100] Creating Layer conv4_3/out/conv
I0316 17:30:04.216953  5916 net.cpp:434] conv4_3/out/conv <- conv4_3/incep
I0316 17:30:04.216956  5916 net.cpp:408] conv4_3/out/conv -> conv4_3/out
I0316 17:30:04.217664  5916 net.cpp:150] Setting up conv4_3/out/conv
I0316 17:30:04.217672  5916 net.cpp:157] Top shape: 1 256 40 66 (675840)
I0316 17:30:04.217674  5916 net.cpp:165] Memory required for data: 744775704
I0316 17:30:04.217679  5916 layer_factory.hpp:77] Creating layer conv4_3/input
I0316 17:30:04.217684  5916 net.cpp:100] Creating Layer conv4_3/input
I0316 17:30:04.217687  5916 net.cpp:434] conv4_3/input <- conv4_2_conv4_2_0_split_3
I0316 17:30:04.217692  5916 net.cpp:408] conv4_3/input -> conv4_3/input
I0316 17:30:04.217712  5916 net.cpp:150] Setting up conv4_3/input
I0316 17:30:04.217717  5916 net.cpp:157] Top shape: 1 256 40 66 (675840)
I0316 17:30:04.217720  5916 net.cpp:165] Memory required for data: 747479064
I0316 17:30:04.217721  5916 layer_factory.hpp:77] Creating layer conv4_3
I0316 17:30:04.217727  5916 net.cpp:100] Creating Layer conv4_3
I0316 17:30:04.217730  5916 net.cpp:434] conv4_3 <- conv4_3/out
I0316 17:30:04.217733  5916 net.cpp:434] conv4_3 <- conv4_3/input
I0316 17:30:04.217737  5916 net.cpp:408] conv4_3 -> conv4_3
I0316 17:30:04.217756  5916 net.cpp:150] Setting up conv4_3
I0316 17:30:04.217761  5916 net.cpp:157] Top shape: 1 256 40 66 (675840)
I0316 17:30:04.217762  5916 net.cpp:165] Memory required for data: 750182424
I0316 17:30:04.217764  5916 layer_factory.hpp:77] Creating layer conv4_3_conv4_3_0_split
I0316 17:30:04.217769  5916 net.cpp:100] Creating Layer conv4_3_conv4_3_0_split
I0316 17:30:04.217772  5916 net.cpp:434] conv4_3_conv4_3_0_split <- conv4_3
I0316 17:30:04.217777  5916 net.cpp:408] conv4_3_conv4_3_0_split -> conv4_3_conv4_3_0_split_0
I0316 17:30:04.217782  5916 net.cpp:408] conv4_3_conv4_3_0_split -> conv4_3_conv4_3_0_split_1
I0316 17:30:04.217785  5916 net.cpp:408] conv4_3_conv4_3_0_split -> conv4_3_conv4_3_0_split_2
I0316 17:30:04.217790  5916 net.cpp:408] conv4_3_conv4_3_0_split -> conv4_3_conv4_3_0_split_3
I0316 17:30:04.217834  5916 net.cpp:150] Setting up conv4_3_conv4_3_0_split
I0316 17:30:04.217839  5916 net.cpp:157] Top shape: 1 256 40 66 (675840)
I0316 17:30:04.217841  5916 net.cpp:157] Top shape: 1 256 40 66 (675840)
I0316 17:30:04.217844  5916 net.cpp:157] Top shape: 1 256 40 66 (675840)
I0316 17:30:04.217846  5916 net.cpp:157] Top shape: 1 256 40 66 (675840)
I0316 17:30:04.217849  5916 net.cpp:165] Memory required for data: 760995864
I0316 17:30:04.217850  5916 layer_factory.hpp:77] Creating layer conv4_4/incep/0/conv
I0316 17:30:04.217856  5916 net.cpp:100] Creating Layer conv4_4/incep/0/conv
I0316 17:30:04.217859  5916 net.cpp:434] conv4_4/incep/0/conv <- conv4_3_conv4_3_0_split_0
I0316 17:30:04.217864  5916 net.cpp:408] conv4_4/incep/0/conv -> conv4_4/incep/0
I0316 17:30:04.218099  5916 net.cpp:150] Setting up conv4_4/incep/0/conv
I0316 17:30:04.218104  5916 net.cpp:157] Top shape: 1 64 40 66 (168960)
I0316 17:30:04.218107  5916 net.cpp:165] Memory required for data: 761671704
I0316 17:30:04.218111  5916 layer_factory.hpp:77] Creating layer conv4_4/incep/0/relu
I0316 17:30:04.218118  5916 net.cpp:100] Creating Layer conv4_4/incep/0/relu
I0316 17:30:04.218122  5916 net.cpp:434] conv4_4/incep/0/relu <- conv4_4/incep/0
I0316 17:30:04.218125  5916 net.cpp:395] conv4_4/incep/0/relu -> conv4_4/incep/0 (in-place)
I0316 17:30:04.218344  5916 net.cpp:150] Setting up conv4_4/incep/0/relu
I0316 17:30:04.218353  5916 net.cpp:157] Top shape: 1 64 40 66 (168960)
I0316 17:30:04.218356  5916 net.cpp:165] Memory required for data: 762347544
I0316 17:30:04.218358  5916 layer_factory.hpp:77] Creating layer conv4_4/incep/1_reduce/conv
I0316 17:30:04.218365  5916 net.cpp:100] Creating Layer conv4_4/incep/1_reduce/conv
I0316 17:30:04.218369  5916 net.cpp:434] conv4_4/incep/1_reduce/conv <- conv4_3_conv4_3_0_split_1
I0316 17:30:04.218374  5916 net.cpp:408] conv4_4/incep/1_reduce/conv -> conv4_4/incep/1_reduce
I0316 17:30:04.218619  5916 net.cpp:150] Setting up conv4_4/incep/1_reduce/conv
I0316 17:30:04.218626  5916 net.cpp:157] Top shape: 1 64 40 66 (168960)
I0316 17:30:04.218627  5916 net.cpp:165] Memory required for data: 763023384
I0316 17:30:04.218632  5916 layer_factory.hpp:77] Creating layer conv4_4/incep/1_reduce/relu
I0316 17:30:04.218636  5916 net.cpp:100] Creating Layer conv4_4/incep/1_reduce/relu
I0316 17:30:04.218638  5916 net.cpp:434] conv4_4/incep/1_reduce/relu <- conv4_4/incep/1_reduce
I0316 17:30:04.218643  5916 net.cpp:395] conv4_4/incep/1_reduce/relu -> conv4_4/incep/1_reduce (in-place)
I0316 17:30:04.218768  5916 net.cpp:150] Setting up conv4_4/incep/1_reduce/relu
I0316 17:30:04.218775  5916 net.cpp:157] Top shape: 1 64 40 66 (168960)
I0316 17:30:04.218777  5916 net.cpp:165] Memory required for data: 763699224
I0316 17:30:04.218780  5916 layer_factory.hpp:77] Creating layer conv4_4/incep/1_0/conv
I0316 17:30:04.218787  5916 net.cpp:100] Creating Layer conv4_4/incep/1_0/conv
I0316 17:30:04.218789  5916 net.cpp:434] conv4_4/incep/1_0/conv <- conv4_4/incep/1_reduce
I0316 17:30:04.218794  5916 net.cpp:408] conv4_4/incep/1_0/conv -> conv4_4/incep/1_0
I0316 17:30:04.219856  5916 net.cpp:150] Setting up conv4_4/incep/1_0/conv
I0316 17:30:04.219866  5916 net.cpp:157] Top shape: 1 128 40 66 (337920)
I0316 17:30:04.219867  5916 net.cpp:165] Memory required for data: 765050904
I0316 17:30:04.219872  5916 layer_factory.hpp:77] Creating layer conv4_4/incep/1_0/relu
I0316 17:30:04.219877  5916 net.cpp:100] Creating Layer conv4_4/incep/1_0/relu
I0316 17:30:04.219879  5916 net.cpp:434] conv4_4/incep/1_0/relu <- conv4_4/incep/1_0
I0316 17:30:04.219883  5916 net.cpp:395] conv4_4/incep/1_0/relu -> conv4_4/incep/1_0 (in-place)
I0316 17:30:04.220101  5916 net.cpp:150] Setting up conv4_4/incep/1_0/relu
I0316 17:30:04.220109  5916 net.cpp:157] Top shape: 1 128 40 66 (337920)
I0316 17:30:04.220113  5916 net.cpp:165] Memory required for data: 766402584
I0316 17:30:04.220114  5916 layer_factory.hpp:77] Creating layer conv4_4/incep/2_reduce/conv
I0316 17:30:04.220121  5916 net.cpp:100] Creating Layer conv4_4/incep/2_reduce/conv
I0316 17:30:04.220124  5916 net.cpp:434] conv4_4/incep/2_reduce/conv <- conv4_3_conv4_3_0_split_2
I0316 17:30:04.220130  5916 net.cpp:408] conv4_4/incep/2_reduce/conv -> conv4_4/incep/2_reduce
I0316 17:30:04.220343  5916 net.cpp:150] Setting up conv4_4/incep/2_reduce/conv
I0316 17:30:04.220348  5916 net.cpp:157] Top shape: 1 24 40 66 (63360)
I0316 17:30:04.220351  5916 net.cpp:165] Memory required for data: 766656024
I0316 17:30:04.220355  5916 layer_factory.hpp:77] Creating layer conv4_4/incep/2_reduce/relu
I0316 17:30:04.220360  5916 net.cpp:100] Creating Layer conv4_4/incep/2_reduce/relu
I0316 17:30:04.220362  5916 net.cpp:434] conv4_4/incep/2_reduce/relu <- conv4_4/incep/2_reduce
I0316 17:30:04.220366  5916 net.cpp:395] conv4_4/incep/2_reduce/relu -> conv4_4/incep/2_reduce (in-place)
I0316 17:30:04.220489  5916 net.cpp:150] Setting up conv4_4/incep/2_reduce/relu
I0316 17:30:04.220494  5916 net.cpp:157] Top shape: 1 24 40 66 (63360)
I0316 17:30:04.220496  5916 net.cpp:165] Memory required for data: 766909464
I0316 17:30:04.220499  5916 layer_factory.hpp:77] Creating layer conv4_4/incep/2_0/conv
I0316 17:30:04.220508  5916 net.cpp:100] Creating Layer conv4_4/incep/2_0/conv
I0316 17:30:04.220512  5916 net.cpp:434] conv4_4/incep/2_0/conv <- conv4_4/incep/2_reduce
I0316 17:30:04.220517  5916 net.cpp:408] conv4_4/incep/2_0/conv -> conv4_4/incep/2_0
I0316 17:30:04.221300  5916 net.cpp:150] Setting up conv4_4/incep/2_0/conv
I0316 17:30:04.221309  5916 net.cpp:157] Top shape: 1 48 40 66 (126720)
I0316 17:30:04.221312  5916 net.cpp:165] Memory required for data: 767416344
I0316 17:30:04.221316  5916 layer_factory.hpp:77] Creating layer conv4_4/incep/2_0/relu
I0316 17:30:04.221320  5916 net.cpp:100] Creating Layer conv4_4/incep/2_0/relu
I0316 17:30:04.221323  5916 net.cpp:434] conv4_4/incep/2_0/relu <- conv4_4/incep/2_0
I0316 17:30:04.221328  5916 net.cpp:395] conv4_4/incep/2_0/relu -> conv4_4/incep/2_0 (in-place)
I0316 17:30:04.221452  5916 net.cpp:150] Setting up conv4_4/incep/2_0/relu
I0316 17:30:04.221459  5916 net.cpp:157] Top shape: 1 48 40 66 (126720)
I0316 17:30:04.221462  5916 net.cpp:165] Memory required for data: 767923224
I0316 17:30:04.221464  5916 layer_factory.hpp:77] Creating layer conv4_4/incep/2_1/conv
I0316 17:30:04.221470  5916 net.cpp:100] Creating Layer conv4_4/incep/2_1/conv
I0316 17:30:04.221473  5916 net.cpp:434] conv4_4/incep/2_1/conv <- conv4_4/incep/2_0
I0316 17:30:04.221477  5916 net.cpp:408] conv4_4/incep/2_1/conv -> conv4_4/incep/2_1
I0316 17:30:04.222306  5916 net.cpp:150] Setting up conv4_4/incep/2_1/conv
I0316 17:30:04.222314  5916 net.cpp:157] Top shape: 1 48 40 66 (126720)
I0316 17:30:04.222317  5916 net.cpp:165] Memory required for data: 768430104
I0316 17:30:04.222321  5916 layer_factory.hpp:77] Creating layer conv4_4/incep/2_1/relu
I0316 17:30:04.222327  5916 net.cpp:100] Creating Layer conv4_4/incep/2_1/relu
I0316 17:30:04.222329  5916 net.cpp:434] conv4_4/incep/2_1/relu <- conv4_4/incep/2_1
I0316 17:30:04.222333  5916 net.cpp:395] conv4_4/incep/2_1/relu -> conv4_4/incep/2_1 (in-place)
I0316 17:30:04.222553  5916 net.cpp:150] Setting up conv4_4/incep/2_1/relu
I0316 17:30:04.222560  5916 net.cpp:157] Top shape: 1 48 40 66 (126720)
I0316 17:30:04.222563  5916 net.cpp:165] Memory required for data: 768936984
I0316 17:30:04.222565  5916 layer_factory.hpp:77] Creating layer conv4_4/incep
I0316 17:30:04.222570  5916 net.cpp:100] Creating Layer conv4_4/incep
I0316 17:30:04.222573  5916 net.cpp:434] conv4_4/incep <- conv4_4/incep/0
I0316 17:30:04.222578  5916 net.cpp:434] conv4_4/incep <- conv4_4/incep/1_0
I0316 17:30:04.222580  5916 net.cpp:434] conv4_4/incep <- conv4_4/incep/2_1
I0316 17:30:04.222584  5916 net.cpp:408] conv4_4/incep -> conv4_4/incep
I0316 17:30:04.222606  5916 net.cpp:150] Setting up conv4_4/incep
I0316 17:30:04.222611  5916 net.cpp:157] Top shape: 1 240 40 66 (633600)
I0316 17:30:04.222614  5916 net.cpp:165] Memory required for data: 771471384
I0316 17:30:04.222615  5916 layer_factory.hpp:77] Creating layer conv4_4/out/conv
I0316 17:30:04.222622  5916 net.cpp:100] Creating Layer conv4_4/out/conv
I0316 17:30:04.222625  5916 net.cpp:434] conv4_4/out/conv <- conv4_4/incep
I0316 17:30:04.222630  5916 net.cpp:408] conv4_4/out/conv -> conv4_4/out
I0316 17:30:04.223047  5916 net.cpp:150] Setting up conv4_4/out/conv
I0316 17:30:04.223052  5916 net.cpp:157] Top shape: 1 256 40 66 (675840)
I0316 17:30:04.223055  5916 net.cpp:165] Memory required for data: 774174744
I0316 17:30:04.223059  5916 layer_factory.hpp:77] Creating layer conv4_4/input
I0316 17:30:04.223065  5916 net.cpp:100] Creating Layer conv4_4/input
I0316 17:30:04.223068  5916 net.cpp:434] conv4_4/input <- conv4_3_conv4_3_0_split_3
I0316 17:30:04.223071  5916 net.cpp:408] conv4_4/input -> conv4_4/input
I0316 17:30:04.223090  5916 net.cpp:150] Setting up conv4_4/input
I0316 17:30:04.223094  5916 net.cpp:157] Top shape: 1 256 40 66 (675840)
I0316 17:30:04.223098  5916 net.cpp:165] Memory required for data: 776878104
I0316 17:30:04.223099  5916 layer_factory.hpp:77] Creating layer conv4_4
I0316 17:30:04.223104  5916 net.cpp:100] Creating Layer conv4_4
I0316 17:30:04.223110  5916 net.cpp:434] conv4_4 <- conv4_4/out
I0316 17:30:04.223114  5916 net.cpp:434] conv4_4 <- conv4_4/input
I0316 17:30:04.223119  5916 net.cpp:408] conv4_4 -> conv4_4
I0316 17:30:04.223140  5916 net.cpp:150] Setting up conv4_4
I0316 17:30:04.223145  5916 net.cpp:157] Top shape: 1 256 40 66 (675840)
I0316 17:30:04.223146  5916 net.cpp:165] Memory required for data: 779581464
I0316 17:30:04.223148  5916 layer_factory.hpp:77] Creating layer conv4_4_conv4_4_0_split
I0316 17:30:04.223152  5916 net.cpp:100] Creating Layer conv4_4_conv4_4_0_split
I0316 17:30:04.223155  5916 net.cpp:434] conv4_4_conv4_4_0_split <- conv4_4
I0316 17:30:04.223160  5916 net.cpp:408] conv4_4_conv4_4_0_split -> conv4_4_conv4_4_0_split_0
I0316 17:30:04.223165  5916 net.cpp:408] conv4_4_conv4_4_0_split -> conv4_4_conv4_4_0_split_1
I0316 17:30:04.223170  5916 net.cpp:408] conv4_4_conv4_4_0_split -> conv4_4_conv4_4_0_split_2
I0316 17:30:04.223175  5916 net.cpp:408] conv4_4_conv4_4_0_split -> conv4_4_conv4_4_0_split_3
I0316 17:30:04.223179  5916 net.cpp:408] conv4_4_conv4_4_0_split -> conv4_4_conv4_4_0_split_4
I0316 17:30:04.223183  5916 net.cpp:408] conv4_4_conv4_4_0_split -> conv4_4_conv4_4_0_split_5
I0316 17:30:04.223242  5916 net.cpp:150] Setting up conv4_4_conv4_4_0_split
I0316 17:30:04.223248  5916 net.cpp:157] Top shape: 1 256 40 66 (675840)
I0316 17:30:04.223251  5916 net.cpp:157] Top shape: 1 256 40 66 (675840)
I0316 17:30:04.223253  5916 net.cpp:157] Top shape: 1 256 40 66 (675840)
I0316 17:30:04.223256  5916 net.cpp:157] Top shape: 1 256 40 66 (675840)
I0316 17:30:04.223259  5916 net.cpp:157] Top shape: 1 256 40 66 (675840)
I0316 17:30:04.223263  5916 net.cpp:157] Top shape: 1 256 40 66 (675840)
I0316 17:30:04.223264  5916 net.cpp:165] Memory required for data: 795801624
I0316 17:30:04.223266  5916 layer_factory.hpp:77] Creating layer conv5_1/incep/0/conv
I0316 17:30:04.223271  5916 net.cpp:100] Creating Layer conv5_1/incep/0/conv
I0316 17:30:04.223274  5916 net.cpp:434] conv5_1/incep/0/conv <- conv4_4_conv4_4_0_split_0
I0316 17:30:04.223278  5916 net.cpp:408] conv5_1/incep/0/conv -> conv5_1/incep/0
I0316 17:30:04.223513  5916 net.cpp:150] Setting up conv5_1/incep/0/conv
I0316 17:30:04.223520  5916 net.cpp:157] Top shape: 1 64 20 33 (42240)
I0316 17:30:04.223521  5916 net.cpp:165] Memory required for data: 795970584
I0316 17:30:04.223526  5916 layer_factory.hpp:77] Creating layer conv5_1/incep/0/relu
I0316 17:30:04.223529  5916 net.cpp:100] Creating Layer conv5_1/incep/0/relu
I0316 17:30:04.223532  5916 net.cpp:434] conv5_1/incep/0/relu <- conv5_1/incep/0
I0316 17:30:04.223536  5916 net.cpp:395] conv5_1/incep/0/relu -> conv5_1/incep/0 (in-place)
I0316 17:30:04.223697  5916 net.cpp:150] Setting up conv5_1/incep/0/relu
I0316 17:30:04.223704  5916 net.cpp:157] Top shape: 1 64 20 33 (42240)
I0316 17:30:04.223707  5916 net.cpp:165] Memory required for data: 796139544
I0316 17:30:04.223709  5916 layer_factory.hpp:77] Creating layer conv5_1/incep/1_reduce/conv
I0316 17:30:04.223717  5916 net.cpp:100] Creating Layer conv5_1/incep/1_reduce/conv
I0316 17:30:04.223721  5916 net.cpp:434] conv5_1/incep/1_reduce/conv <- conv4_4_conv4_4_0_split_1
I0316 17:30:04.223726  5916 net.cpp:408] conv5_1/incep/1_reduce/conv -> conv5_1/incep/1_reduce
I0316 17:30:04.224023  5916 net.cpp:150] Setting up conv5_1/incep/1_reduce/conv
I0316 17:30:04.224030  5916 net.cpp:157] Top shape: 1 96 20 33 (63360)
I0316 17:30:04.224032  5916 net.cpp:165] Memory required for data: 796392984
I0316 17:30:04.224036  5916 layer_factory.hpp:77] Creating layer conv5_1/incep/1_reduce/relu
I0316 17:30:04.224042  5916 net.cpp:100] Creating Layer conv5_1/incep/1_reduce/relu
I0316 17:30:04.224045  5916 net.cpp:434] conv5_1/incep/1_reduce/relu <- conv5_1/incep/1_reduce
I0316 17:30:04.224048  5916 net.cpp:395] conv5_1/incep/1_reduce/relu -> conv5_1/incep/1_reduce (in-place)
I0316 17:30:04.224303  5916 net.cpp:150] Setting up conv5_1/incep/1_reduce/relu
I0316 17:30:04.224313  5916 net.cpp:157] Top shape: 1 96 20 33 (63360)
I0316 17:30:04.224316  5916 net.cpp:165] Memory required for data: 796646424
I0316 17:30:04.224323  5916 layer_factory.hpp:77] Creating layer conv5_1/incep/1_0/conv
I0316 17:30:04.224330  5916 net.cpp:100] Creating Layer conv5_1/incep/1_0/conv
I0316 17:30:04.224334  5916 net.cpp:434] conv5_1/incep/1_0/conv <- conv5_1/incep/1_reduce
I0316 17:30:04.224339  5916 net.cpp:408] conv5_1/incep/1_0/conv -> conv5_1/incep/1_0
I0316 17:30:04.226352  5916 net.cpp:150] Setting up conv5_1/incep/1_0/conv
I0316 17:30:04.226394  5916 net.cpp:157] Top shape: 1 192 20 33 (126720)
I0316 17:30:04.226397  5916 net.cpp:165] Memory required for data: 797153304
I0316 17:30:04.226429  5916 layer_factory.hpp:77] Creating layer conv5_1/incep/1_0/relu
I0316 17:30:04.226442  5916 net.cpp:100] Creating Layer conv5_1/incep/1_0/relu
I0316 17:30:04.226449  5916 net.cpp:434] conv5_1/incep/1_0/relu <- conv5_1/incep/1_0
I0316 17:30:04.226454  5916 net.cpp:395] conv5_1/incep/1_0/relu -> conv5_1/incep/1_0 (in-place)
I0316 17:30:04.226610  5916 net.cpp:150] Setting up conv5_1/incep/1_0/relu
I0316 17:30:04.226618  5916 net.cpp:157] Top shape: 1 192 20 33 (126720)
I0316 17:30:04.226620  5916 net.cpp:165] Memory required for data: 797660184
I0316 17:30:04.226624  5916 layer_factory.hpp:77] Creating layer conv5_1/incep/2_reduce/conv
I0316 17:30:04.226634  5916 net.cpp:100] Creating Layer conv5_1/incep/2_reduce/conv
I0316 17:30:04.226637  5916 net.cpp:434] conv5_1/incep/2_reduce/conv <- conv4_4_conv4_4_0_split_2
I0316 17:30:04.226644  5916 net.cpp:408] conv5_1/incep/2_reduce/conv -> conv5_1/incep/2_reduce
I0316 17:30:04.227293  5916 net.cpp:150] Setting up conv5_1/incep/2_reduce/conv
I0316 17:30:04.227329  5916 net.cpp:157] Top shape: 1 32 20 33 (21120)
I0316 17:30:04.227331  5916 net.cpp:165] Memory required for data: 797744664
I0316 17:30:04.227339  5916 layer_factory.hpp:77] Creating layer conv5_1/incep/2_reduce/relu
I0316 17:30:04.227351  5916 net.cpp:100] Creating Layer conv5_1/incep/2_reduce/relu
I0316 17:30:04.227356  5916 net.cpp:434] conv5_1/incep/2_reduce/relu <- conv5_1/incep/2_reduce
I0316 17:30:04.227365  5916 net.cpp:395] conv5_1/incep/2_reduce/relu -> conv5_1/incep/2_reduce (in-place)
I0316 17:30:04.227788  5916 net.cpp:150] Setting up conv5_1/incep/2_reduce/relu
I0316 17:30:04.227812  5916 net.cpp:157] Top shape: 1 32 20 33 (21120)
I0316 17:30:04.227814  5916 net.cpp:165] Memory required for data: 797829144
I0316 17:30:04.227819  5916 layer_factory.hpp:77] Creating layer conv5_1/incep/2_0/conv
I0316 17:30:04.227834  5916 net.cpp:100] Creating Layer conv5_1/incep/2_0/conv
I0316 17:30:04.227840  5916 net.cpp:434] conv5_1/incep/2_0/conv <- conv5_1/incep/2_reduce
I0316 17:30:04.227849  5916 net.cpp:408] conv5_1/incep/2_0/conv -> conv5_1/incep/2_0
I0316 17:30:04.229176  5916 net.cpp:150] Setting up conv5_1/incep/2_0/conv
I0316 17:30:04.229214  5916 net.cpp:157] Top shape: 1 64 20 33 (42240)
I0316 17:30:04.229218  5916 net.cpp:165] Memory required for data: 797998104
I0316 17:30:04.229228  5916 layer_factory.hpp:77] Creating layer conv5_1/incep/2_0/relu
I0316 17:30:04.229238  5916 net.cpp:100] Creating Layer conv5_1/incep/2_0/relu
I0316 17:30:04.229243  5916 net.cpp:434] conv5_1/incep/2_0/relu <- conv5_1/incep/2_0
I0316 17:30:04.229252  5916 net.cpp:395] conv5_1/incep/2_0/relu -> conv5_1/incep/2_0 (in-place)
I0316 17:30:04.229580  5916 net.cpp:150] Setting up conv5_1/incep/2_0/relu
I0316 17:30:04.229589  5916 net.cpp:157] Top shape: 1 64 20 33 (42240)
I0316 17:30:04.229591  5916 net.cpp:165] Memory required for data: 798167064
I0316 17:30:04.229594  5916 layer_factory.hpp:77] Creating layer conv5_1/incep/2_1/conv
I0316 17:30:04.229604  5916 net.cpp:100] Creating Layer conv5_1/incep/2_1/conv
I0316 17:30:04.229607  5916 net.cpp:434] conv5_1/incep/2_1/conv <- conv5_1/incep/2_0
I0316 17:30:04.229612  5916 net.cpp:408] conv5_1/incep/2_1/conv -> conv5_1/incep/2_1
I0316 17:30:04.230577  5916 net.cpp:150] Setting up conv5_1/incep/2_1/conv
I0316 17:30:04.230587  5916 net.cpp:157] Top shape: 1 64 20 33 (42240)
I0316 17:30:04.230590  5916 net.cpp:165] Memory required for data: 798336024
I0316 17:30:04.230595  5916 layer_factory.hpp:77] Creating layer conv5_1/incep/2_1/relu
I0316 17:30:04.230607  5916 net.cpp:100] Creating Layer conv5_1/incep/2_1/relu
I0316 17:30:04.230610  5916 net.cpp:434] conv5_1/incep/2_1/relu <- conv5_1/incep/2_1
I0316 17:30:04.230615  5916 net.cpp:395] conv5_1/incep/2_1/relu -> conv5_1/incep/2_1 (in-place)
I0316 17:30:04.230741  5916 net.cpp:150] Setting up conv5_1/incep/2_1/relu
I0316 17:30:04.230746  5916 net.cpp:157] Top shape: 1 64 20 33 (42240)
I0316 17:30:04.230748  5916 net.cpp:165] Memory required for data: 798504984
I0316 17:30:04.230751  5916 layer_factory.hpp:77] Creating layer conv5_1/incep/pool
I0316 17:30:04.230757  5916 net.cpp:100] Creating Layer conv5_1/incep/pool
I0316 17:30:04.230762  5916 net.cpp:434] conv5_1/incep/pool <- conv4_4_conv4_4_0_split_3
I0316 17:30:04.230765  5916 net.cpp:408] conv5_1/incep/pool -> conv5_1/incep/pool
I0316 17:30:04.230803  5916 net.cpp:150] Setting up conv5_1/incep/pool
I0316 17:30:04.230808  5916 net.cpp:157] Top shape: 1 256 20 33 (168960)
I0316 17:30:04.230809  5916 net.cpp:165] Memory required for data: 799180824
I0316 17:30:04.230811  5916 layer_factory.hpp:77] Creating layer conv5_1/incep/poolproj/conv
I0316 17:30:04.230818  5916 net.cpp:100] Creating Layer conv5_1/incep/poolproj/conv
I0316 17:30:04.230821  5916 net.cpp:434] conv5_1/incep/poolproj/conv <- conv5_1/incep/pool
I0316 17:30:04.230825  5916 net.cpp:408] conv5_1/incep/poolproj/conv -> conv5_1/incep/poolproj
I0316 17:30:04.231138  5916 net.cpp:150] Setting up conv5_1/incep/poolproj/conv
I0316 17:30:04.231144  5916 net.cpp:157] Top shape: 1 128 20 33 (84480)
I0316 17:30:04.231147  5916 net.cpp:165] Memory required for data: 799518744
I0316 17:30:04.231150  5916 layer_factory.hpp:77] Creating layer conv5_1/incep/poolproj/relu
I0316 17:30:04.231155  5916 net.cpp:100] Creating Layer conv5_1/incep/poolproj/relu
I0316 17:30:04.231158  5916 net.cpp:434] conv5_1/incep/poolproj/relu <- conv5_1/incep/poolproj
I0316 17:30:04.231161  5916 net.cpp:395] conv5_1/incep/poolproj/relu -> conv5_1/incep/poolproj (in-place)
I0316 17:30:04.231384  5916 net.cpp:150] Setting up conv5_1/incep/poolproj/relu
I0316 17:30:04.231392  5916 net.cpp:157] Top shape: 1 128 20 33 (84480)
I0316 17:30:04.231395  5916 net.cpp:165] Memory required for data: 799856664
I0316 17:30:04.231397  5916 layer_factory.hpp:77] Creating layer conv5_1/incep
I0316 17:30:04.231402  5916 net.cpp:100] Creating Layer conv5_1/incep
I0316 17:30:04.231405  5916 net.cpp:434] conv5_1/incep <- conv5_1/incep/0
I0316 17:30:04.231408  5916 net.cpp:434] conv5_1/incep <- conv5_1/incep/1_0
I0316 17:30:04.231412  5916 net.cpp:434] conv5_1/incep <- conv5_1/incep/2_1
I0316 17:30:04.231415  5916 net.cpp:434] conv5_1/incep <- conv5_1/incep/poolproj
I0316 17:30:04.231418  5916 net.cpp:408] conv5_1/incep -> conv5_1/incep
I0316 17:30:04.231442  5916 net.cpp:150] Setting up conv5_1/incep
I0316 17:30:04.231446  5916 net.cpp:157] Top shape: 1 448 20 33 (295680)
I0316 17:30:04.231449  5916 net.cpp:165] Memory required for data: 801039384
I0316 17:30:04.231451  5916 layer_factory.hpp:77] Creating layer conv5_1/out/conv
I0316 17:30:04.231457  5916 net.cpp:100] Creating Layer conv5_1/out/conv
I0316 17:30:04.231461  5916 net.cpp:434] conv5_1/out/conv <- conv5_1/incep
I0316 17:30:04.231465  5916 net.cpp:408] conv5_1/out/conv -> conv5_1/out
I0316 17:30:04.232619  5916 net.cpp:150] Setting up conv5_1/out/conv
I0316 17:30:04.232628  5916 net.cpp:157] Top shape: 1 384 20 33 (253440)
I0316 17:30:04.232631  5916 net.cpp:165] Memory required for data: 802053144
I0316 17:30:04.232635  5916 layer_factory.hpp:77] Creating layer conv5_1/proj
I0316 17:30:04.232642  5916 net.cpp:100] Creating Layer conv5_1/proj
I0316 17:30:04.232645  5916 net.cpp:434] conv5_1/proj <- conv4_4_conv4_4_0_split_4
I0316 17:30:04.232650  5916 net.cpp:408] conv5_1/proj -> conv5_1/proj
I0316 17:30:04.233459  5916 net.cpp:150] Setting up conv5_1/proj
I0316 17:30:04.233467  5916 net.cpp:157] Top shape: 1 384 20 33 (253440)
I0316 17:30:04.233470  5916 net.cpp:165] Memory required for data: 803066904
I0316 17:30:04.233474  5916 layer_factory.hpp:77] Creating layer conv5_1
I0316 17:30:04.233484  5916 net.cpp:100] Creating Layer conv5_1
I0316 17:30:04.233489  5916 net.cpp:434] conv5_1 <- conv5_1/out
I0316 17:30:04.233491  5916 net.cpp:434] conv5_1 <- conv5_1/proj
I0316 17:30:04.233495  5916 net.cpp:408] conv5_1 -> conv5_1
I0316 17:30:04.233516  5916 net.cpp:150] Setting up conv5_1
I0316 17:30:04.233521  5916 net.cpp:157] Top shape: 1 384 20 33 (253440)
I0316 17:30:04.233523  5916 net.cpp:165] Memory required for data: 804080664
I0316 17:30:04.233525  5916 layer_factory.hpp:77] Creating layer conv5_1_conv5_1_0_split
I0316 17:30:04.233531  5916 net.cpp:100] Creating Layer conv5_1_conv5_1_0_split
I0316 17:30:04.233533  5916 net.cpp:434] conv5_1_conv5_1_0_split <- conv5_1
I0316 17:30:04.233537  5916 net.cpp:408] conv5_1_conv5_1_0_split -> conv5_1_conv5_1_0_split_0
I0316 17:30:04.233543  5916 net.cpp:408] conv5_1_conv5_1_0_split -> conv5_1_conv5_1_0_split_1
I0316 17:30:04.233547  5916 net.cpp:408] conv5_1_conv5_1_0_split -> conv5_1_conv5_1_0_split_2
I0316 17:30:04.233551  5916 net.cpp:408] conv5_1_conv5_1_0_split -> conv5_1_conv5_1_0_split_3
I0316 17:30:04.233597  5916 net.cpp:150] Setting up conv5_1_conv5_1_0_split
I0316 17:30:04.233600  5916 net.cpp:157] Top shape: 1 384 20 33 (253440)
I0316 17:30:04.233603  5916 net.cpp:157] Top shape: 1 384 20 33 (253440)
I0316 17:30:04.233606  5916 net.cpp:157] Top shape: 1 384 20 33 (253440)
I0316 17:30:04.233608  5916 net.cpp:157] Top shape: 1 384 20 33 (253440)
I0316 17:30:04.233611  5916 net.cpp:165] Memory required for data: 808135704
I0316 17:30:04.233613  5916 layer_factory.hpp:77] Creating layer conv5_2/incep/0/conv
I0316 17:30:04.233620  5916 net.cpp:100] Creating Layer conv5_2/incep/0/conv
I0316 17:30:04.233623  5916 net.cpp:434] conv5_2/incep/0/conv <- conv5_1_conv5_1_0_split_0
I0316 17:30:04.233628  5916 net.cpp:408] conv5_2/incep/0/conv -> conv5_2/incep/0
I0316 17:30:04.233907  5916 net.cpp:150] Setting up conv5_2/incep/0/conv
I0316 17:30:04.233913  5916 net.cpp:157] Top shape: 1 64 20 33 (42240)
I0316 17:30:04.233916  5916 net.cpp:165] Memory required for data: 808304664
I0316 17:30:04.233921  5916 layer_factory.hpp:77] Creating layer conv5_2/incep/0/relu
I0316 17:30:04.233924  5916 net.cpp:100] Creating Layer conv5_2/incep/0/relu
I0316 17:30:04.233927  5916 net.cpp:434] conv5_2/incep/0/relu <- conv5_2/incep/0
I0316 17:30:04.233932  5916 net.cpp:395] conv5_2/incep/0/relu -> conv5_2/incep/0 (in-place)
I0316 17:30:04.234086  5916 net.cpp:150] Setting up conv5_2/incep/0/relu
I0316 17:30:04.234093  5916 net.cpp:157] Top shape: 1 64 20 33 (42240)
I0316 17:30:04.234096  5916 net.cpp:165] Memory required for data: 808473624
I0316 17:30:04.234098  5916 layer_factory.hpp:77] Creating layer conv5_2/incep/1_reduce/conv
I0316 17:30:04.234105  5916 net.cpp:100] Creating Layer conv5_2/incep/1_reduce/conv
I0316 17:30:04.234108  5916 net.cpp:434] conv5_2/incep/1_reduce/conv <- conv5_1_conv5_1_0_split_1
I0316 17:30:04.234113  5916 net.cpp:408] conv5_2/incep/1_reduce/conv -> conv5_2/incep/1_reduce
I0316 17:30:04.234722  5916 net.cpp:150] Setting up conv5_2/incep/1_reduce/conv
I0316 17:30:04.234730  5916 net.cpp:157] Top shape: 1 96 20 33 (63360)
I0316 17:30:04.234733  5916 net.cpp:165] Memory required for data: 808727064
I0316 17:30:04.234737  5916 layer_factory.hpp:77] Creating layer conv5_2/incep/1_reduce/relu
I0316 17:30:04.234741  5916 net.cpp:100] Creating Layer conv5_2/incep/1_reduce/relu
I0316 17:30:04.234745  5916 net.cpp:434] conv5_2/incep/1_reduce/relu <- conv5_2/incep/1_reduce
I0316 17:30:04.234750  5916 net.cpp:395] conv5_2/incep/1_reduce/relu -> conv5_2/incep/1_reduce (in-place)
I0316 17:30:04.234995  5916 net.cpp:150] Setting up conv5_2/incep/1_reduce/relu
I0316 17:30:04.235004  5916 net.cpp:157] Top shape: 1 96 20 33 (63360)
I0316 17:30:04.235007  5916 net.cpp:165] Memory required for data: 808980504
I0316 17:30:04.235009  5916 layer_factory.hpp:77] Creating layer conv5_2/incep/1_0/conv
I0316 17:30:04.235016  5916 net.cpp:100] Creating Layer conv5_2/incep/1_0/conv
I0316 17:30:04.235019  5916 net.cpp:434] conv5_2/incep/1_0/conv <- conv5_2/incep/1_reduce
I0316 17:30:04.235028  5916 net.cpp:408] conv5_2/incep/1_0/conv -> conv5_2/incep/1_0
I0316 17:30:04.236758  5916 net.cpp:150] Setting up conv5_2/incep/1_0/conv
I0316 17:30:04.236769  5916 net.cpp:157] Top shape: 1 192 20 33 (126720)
I0316 17:30:04.236773  5916 net.cpp:165] Memory required for data: 809487384
I0316 17:30:04.236778  5916 layer_factory.hpp:77] Creating layer conv5_2/incep/1_0/relu
I0316 17:30:04.236783  5916 net.cpp:100] Creating Layer conv5_2/incep/1_0/relu
I0316 17:30:04.236785  5916 net.cpp:434] conv5_2/incep/1_0/relu <- conv5_2/incep/1_0
I0316 17:30:04.236789  5916 net.cpp:395] conv5_2/incep/1_0/relu -> conv5_2/incep/1_0 (in-place)
I0316 17:30:04.236922  5916 net.cpp:150] Setting up conv5_2/incep/1_0/relu
I0316 17:30:04.236927  5916 net.cpp:157] Top shape: 1 192 20 33 (126720)
I0316 17:30:04.236930  5916 net.cpp:165] Memory required for data: 809994264
I0316 17:30:04.236932  5916 layer_factory.hpp:77] Creating layer conv5_2/incep/2_reduce/conv
I0316 17:30:04.236940  5916 net.cpp:100] Creating Layer conv5_2/incep/2_reduce/conv
I0316 17:30:04.236943  5916 net.cpp:434] conv5_2/incep/2_reduce/conv <- conv5_1_conv5_1_0_split_2
I0316 17:30:04.236948  5916 net.cpp:408] conv5_2/incep/2_reduce/conv -> conv5_2/incep/2_reduce
I0316 17:30:04.237195  5916 net.cpp:150] Setting up conv5_2/incep/2_reduce/conv
I0316 17:30:04.237200  5916 net.cpp:157] Top shape: 1 32 20 33 (21120)
I0316 17:30:04.237203  5916 net.cpp:165] Memory required for data: 810078744
I0316 17:30:04.237207  5916 layer_factory.hpp:77] Creating layer conv5_2/incep/2_reduce/relu
I0316 17:30:04.237211  5916 net.cpp:100] Creating Layer conv5_2/incep/2_reduce/relu
I0316 17:30:04.237215  5916 net.cpp:434] conv5_2/incep/2_reduce/relu <- conv5_2/incep/2_reduce
I0316 17:30:04.237218  5916 net.cpp:395] conv5_2/incep/2_reduce/relu -> conv5_2/incep/2_reduce (in-place)
I0316 17:30:04.237442  5916 net.cpp:150] Setting up conv5_2/incep/2_reduce/relu
I0316 17:30:04.237450  5916 net.cpp:157] Top shape: 1 32 20 33 (21120)
I0316 17:30:04.237452  5916 net.cpp:165] Memory required for data: 810163224
I0316 17:30:04.237455  5916 layer_factory.hpp:77] Creating layer conv5_2/incep/2_0/conv
I0316 17:30:04.237462  5916 net.cpp:100] Creating Layer conv5_2/incep/2_0/conv
I0316 17:30:04.237465  5916 net.cpp:434] conv5_2/incep/2_0/conv <- conv5_2/incep/2_reduce
I0316 17:30:04.237470  5916 net.cpp:408] conv5_2/incep/2_0/conv -> conv5_2/incep/2_0
I0316 17:30:04.238302  5916 net.cpp:150] Setting up conv5_2/incep/2_0/conv
I0316 17:30:04.238312  5916 net.cpp:157] Top shape: 1 64 20 33 (42240)
I0316 17:30:04.238314  5916 net.cpp:165] Memory required for data: 810332184
I0316 17:30:04.238319  5916 layer_factory.hpp:77] Creating layer conv5_2/incep/2_0/relu
I0316 17:30:04.238323  5916 net.cpp:100] Creating Layer conv5_2/incep/2_0/relu
I0316 17:30:04.238327  5916 net.cpp:434] conv5_2/incep/2_0/relu <- conv5_2/incep/2_0
I0316 17:30:04.238330  5916 net.cpp:395] conv5_2/incep/2_0/relu -> conv5_2/incep/2_0 (in-place)
I0316 17:30:04.238458  5916 net.cpp:150] Setting up conv5_2/incep/2_0/relu
I0316 17:30:04.238464  5916 net.cpp:157] Top shape: 1 64 20 33 (42240)
I0316 17:30:04.238467  5916 net.cpp:165] Memory required for data: 810501144
I0316 17:30:04.238469  5916 layer_factory.hpp:77] Creating layer conv5_2/incep/2_1/conv
I0316 17:30:04.238476  5916 net.cpp:100] Creating Layer conv5_2/incep/2_1/conv
I0316 17:30:04.238479  5916 net.cpp:434] conv5_2/incep/2_1/conv <- conv5_2/incep/2_0
I0316 17:30:04.238484  5916 net.cpp:408] conv5_2/incep/2_1/conv -> conv5_2/incep/2_1
I0316 17:30:04.239569  5916 net.cpp:150] Setting up conv5_2/incep/2_1/conv
I0316 17:30:04.239599  5916 net.cpp:157] Top shape: 1 64 20 33 (42240)
I0316 17:30:04.239608  5916 net.cpp:165] Memory required for data: 810670104
I0316 17:30:04.239622  5916 layer_factory.hpp:77] Creating layer conv5_2/incep/2_1/relu
I0316 17:30:04.239634  5916 net.cpp:100] Creating Layer conv5_2/incep/2_1/relu
I0316 17:30:04.239644  5916 net.cpp:434] conv5_2/incep/2_1/relu <- conv5_2/incep/2_1
I0316 17:30:04.239655  5916 net.cpp:395] conv5_2/incep/2_1/relu -> conv5_2/incep/2_1 (in-place)
I0316 17:30:04.239890  5916 net.cpp:150] Setting up conv5_2/incep/2_1/relu
I0316 17:30:04.239903  5916 net.cpp:157] Top shape: 1 64 20 33 (42240)
I0316 17:30:04.239907  5916 net.cpp:165] Memory required for data: 810839064
I0316 17:30:04.239913  5916 layer_factory.hpp:77] Creating layer conv5_2/incep
I0316 17:30:04.239926  5916 net.cpp:100] Creating Layer conv5_2/incep
I0316 17:30:04.239931  5916 net.cpp:434] conv5_2/incep <- conv5_2/incep/0
I0316 17:30:04.239939  5916 net.cpp:434] conv5_2/incep <- conv5_2/incep/1_0
I0316 17:30:04.239946  5916 net.cpp:434] conv5_2/incep <- conv5_2/incep/2_1
I0316 17:30:04.239958  5916 net.cpp:408] conv5_2/incep -> conv5_2/incep
I0316 17:30:04.240000  5916 net.cpp:150] Setting up conv5_2/incep
I0316 17:30:04.240010  5916 net.cpp:157] Top shape: 1 320 20 33 (211200)
I0316 17:30:04.240013  5916 net.cpp:165] Memory required for data: 811683864
I0316 17:30:04.240018  5916 layer_factory.hpp:77] Creating layer conv5_2/out/conv
I0316 17:30:04.240037  5916 net.cpp:100] Creating Layer conv5_2/out/conv
I0316 17:30:04.240042  5916 net.cpp:434] conv5_2/out/conv <- conv5_2/incep
I0316 17:30:04.240052  5916 net.cpp:408] conv5_2/out/conv -> conv5_2/out
I0316 17:30:04.241472  5916 net.cpp:150] Setting up conv5_2/out/conv
I0316 17:30:04.241505  5916 net.cpp:157] Top shape: 1 384 20 33 (253440)
I0316 17:30:04.241511  5916 net.cpp:165] Memory required for data: 812697624
I0316 17:30:04.241523  5916 layer_factory.hpp:77] Creating layer conv5_2/input
I0316 17:30:04.241535  5916 net.cpp:100] Creating Layer conv5_2/input
I0316 17:30:04.241544  5916 net.cpp:434] conv5_2/input <- conv5_1_conv5_1_0_split_3
I0316 17:30:04.241552  5916 net.cpp:408] conv5_2/input -> conv5_2/input
I0316 17:30:04.241590  5916 net.cpp:150] Setting up conv5_2/input
I0316 17:30:04.241597  5916 net.cpp:157] Top shape: 1 384 20 33 (253440)
I0316 17:30:04.241600  5916 net.cpp:165] Memory required for data: 813711384
I0316 17:30:04.241605  5916 layer_factory.hpp:77] Creating layer conv5_2
I0316 17:30:04.241613  5916 net.cpp:100] Creating Layer conv5_2
I0316 17:30:04.241618  5916 net.cpp:434] conv5_2 <- conv5_2/out
I0316 17:30:04.241626  5916 net.cpp:434] conv5_2 <- conv5_2/input
I0316 17:30:04.241632  5916 net.cpp:408] conv5_2 -> conv5_2
I0316 17:30:04.241663  5916 net.cpp:150] Setting up conv5_2
I0316 17:30:04.241672  5916 net.cpp:157] Top shape: 1 384 20 33 (253440)
I0316 17:30:04.241675  5916 net.cpp:165] Memory required for data: 814725144
I0316 17:30:04.241679  5916 layer_factory.hpp:77] Creating layer conv5_2_conv5_2_0_split
I0316 17:30:04.241688  5916 net.cpp:100] Creating Layer conv5_2_conv5_2_0_split
I0316 17:30:04.241693  5916 net.cpp:434] conv5_2_conv5_2_0_split <- conv5_2
I0316 17:30:04.241700  5916 net.cpp:408] conv5_2_conv5_2_0_split -> conv5_2_conv5_2_0_split_0
I0316 17:30:04.241709  5916 net.cpp:408] conv5_2_conv5_2_0_split -> conv5_2_conv5_2_0_split_1
I0316 17:30:04.241719  5916 net.cpp:408] conv5_2_conv5_2_0_split -> conv5_2_conv5_2_0_split_2
I0316 17:30:04.241726  5916 net.cpp:408] conv5_2_conv5_2_0_split -> conv5_2_conv5_2_0_split_3
I0316 17:30:04.241806  5916 net.cpp:150] Setting up conv5_2_conv5_2_0_split
I0316 17:30:04.241813  5916 net.cpp:157] Top shape: 1 384 20 33 (253440)
I0316 17:30:04.241818  5916 net.cpp:157] Top shape: 1 384 20 33 (253440)
I0316 17:30:04.241824  5916 net.cpp:157] Top shape: 1 384 20 33 (253440)
I0316 17:30:04.241829  5916 net.cpp:157] Top shape: 1 384 20 33 (253440)
I0316 17:30:04.241833  5916 net.cpp:165] Memory required for data: 818780184
I0316 17:30:04.241837  5916 layer_factory.hpp:77] Creating layer conv5_3/incep/0/conv
I0316 17:30:04.241849  5916 net.cpp:100] Creating Layer conv5_3/incep/0/conv
I0316 17:30:04.241855  5916 net.cpp:434] conv5_3/incep/0/conv <- conv5_2_conv5_2_0_split_0
I0316 17:30:04.241863  5916 net.cpp:408] conv5_3/incep/0/conv -> conv5_3/incep/0
I0316 17:30:04.242323  5916 net.cpp:150] Setting up conv5_3/incep/0/conv
I0316 17:30:04.242331  5916 net.cpp:157] Top shape: 1 64 20 33 (42240)
I0316 17:30:04.242341  5916 net.cpp:165] Memory required for data: 818949144
I0316 17:30:04.242346  5916 layer_factory.hpp:77] Creating layer conv5_3/incep/0/relu
I0316 17:30:04.242350  5916 net.cpp:100] Creating Layer conv5_3/incep/0/relu
I0316 17:30:04.242352  5916 net.cpp:434] conv5_3/incep/0/relu <- conv5_3/incep/0
I0316 17:30:04.242357  5916 net.cpp:395] conv5_3/incep/0/relu -> conv5_3/incep/0 (in-place)
I0316 17:30:04.242777  5916 net.cpp:150] Setting up conv5_3/incep/0/relu
I0316 17:30:04.242791  5916 net.cpp:157] Top shape: 1 64 20 33 (42240)
I0316 17:30:04.242794  5916 net.cpp:165] Memory required for data: 819118104
I0316 17:30:04.242797  5916 layer_factory.hpp:77] Creating layer conv5_3/incep/1_reduce/conv
I0316 17:30:04.242806  5916 net.cpp:100] Creating Layer conv5_3/incep/1_reduce/conv
I0316 17:30:04.242810  5916 net.cpp:434] conv5_3/incep/1_reduce/conv <- conv5_2_conv5_2_0_split_1
I0316 17:30:04.242815  5916 net.cpp:408] conv5_3/incep/1_reduce/conv -> conv5_3/incep/1_reduce
I0316 17:30:04.243211  5916 net.cpp:150] Setting up conv5_3/incep/1_reduce/conv
I0316 17:30:04.243216  5916 net.cpp:157] Top shape: 1 96 20 33 (63360)
I0316 17:30:04.243219  5916 net.cpp:165] Memory required for data: 819371544
I0316 17:30:04.243224  5916 layer_factory.hpp:77] Creating layer conv5_3/incep/1_reduce/relu
I0316 17:30:04.243230  5916 net.cpp:100] Creating Layer conv5_3/incep/1_reduce/relu
I0316 17:30:04.243233  5916 net.cpp:434] conv5_3/incep/1_reduce/relu <- conv5_3/incep/1_reduce
I0316 17:30:04.243237  5916 net.cpp:395] conv5_3/incep/1_reduce/relu -> conv5_3/incep/1_reduce (in-place)
I0316 17:30:04.243544  5916 net.cpp:150] Setting up conv5_3/incep/1_reduce/relu
I0316 17:30:04.243553  5916 net.cpp:157] Top shape: 1 96 20 33 (63360)
I0316 17:30:04.243556  5916 net.cpp:165] Memory required for data: 819624984
I0316 17:30:04.243558  5916 layer_factory.hpp:77] Creating layer conv5_3/incep/1_0/conv
I0316 17:30:04.243566  5916 net.cpp:100] Creating Layer conv5_3/incep/1_0/conv
I0316 17:30:04.243571  5916 net.cpp:434] conv5_3/incep/1_0/conv <- conv5_3/incep/1_reduce
I0316 17:30:04.243593  5916 net.cpp:408] conv5_3/incep/1_0/conv -> conv5_3/incep/1_0
I0316 17:30:04.245695  5916 net.cpp:150] Setting up conv5_3/incep/1_0/conv
I0316 17:30:04.245729  5916 net.cpp:157] Top shape: 1 192 20 33 (126720)
I0316 17:30:04.245731  5916 net.cpp:165] Memory required for data: 820131864
I0316 17:30:04.245740  5916 layer_factory.hpp:77] Creating layer conv5_3/incep/1_0/relu
I0316 17:30:04.245748  5916 net.cpp:100] Creating Layer conv5_3/incep/1_0/relu
I0316 17:30:04.245754  5916 net.cpp:434] conv5_3/incep/1_0/relu <- conv5_3/incep/1_0
I0316 17:30:04.245760  5916 net.cpp:395] conv5_3/incep/1_0/relu -> conv5_3/incep/1_0 (in-place)
I0316 17:30:04.246451  5916 net.cpp:150] Setting up conv5_3/incep/1_0/relu
I0316 17:30:04.246460  5916 net.cpp:157] Top shape: 1 192 20 33 (126720)
I0316 17:30:04.246462  5916 net.cpp:165] Memory required for data: 820638744
I0316 17:30:04.246465  5916 layer_factory.hpp:77] Creating layer conv5_3/incep/2_reduce/conv
I0316 17:30:04.246475  5916 net.cpp:100] Creating Layer conv5_3/incep/2_reduce/conv
I0316 17:30:04.246479  5916 net.cpp:434] conv5_3/incep/2_reduce/conv <- conv5_2_conv5_2_0_split_2
I0316 17:30:04.246484  5916 net.cpp:408] conv5_3/incep/2_reduce/conv -> conv5_3/incep/2_reduce
I0316 17:30:04.246748  5916 net.cpp:150] Setting up conv5_3/incep/2_reduce/conv
I0316 17:30:04.246754  5916 net.cpp:157] Top shape: 1 32 20 33 (21120)
I0316 17:30:04.246757  5916 net.cpp:165] Memory required for data: 820723224
I0316 17:30:04.246760  5916 layer_factory.hpp:77] Creating layer conv5_3/incep/2_reduce/relu
I0316 17:30:04.246765  5916 net.cpp:100] Creating Layer conv5_3/incep/2_reduce/relu
I0316 17:30:04.246768  5916 net.cpp:434] conv5_3/incep/2_reduce/relu <- conv5_3/incep/2_reduce
I0316 17:30:04.246773  5916 net.cpp:395] conv5_3/incep/2_reduce/relu -> conv5_3/incep/2_reduce (in-place)
I0316 17:30:04.247532  5916 net.cpp:150] Setting up conv5_3/incep/2_reduce/relu
I0316 17:30:04.247539  5916 net.cpp:157] Top shape: 1 32 20 33 (21120)
I0316 17:30:04.247546  5916 net.cpp:165] Memory required for data: 820807704
I0316 17:30:04.247550  5916 layer_factory.hpp:77] Creating layer conv5_3/incep/2_0/conv
I0316 17:30:04.247557  5916 net.cpp:100] Creating Layer conv5_3/incep/2_0/conv
I0316 17:30:04.247560  5916 net.cpp:434] conv5_3/incep/2_0/conv <- conv5_3/incep/2_reduce
I0316 17:30:04.247565  5916 net.cpp:408] conv5_3/incep/2_0/conv -> conv5_3/incep/2_0
I0316 17:30:04.248972  5916 net.cpp:150] Setting up conv5_3/incep/2_0/conv
I0316 17:30:04.248982  5916 net.cpp:157] Top shape: 1 64 20 33 (42240)
I0316 17:30:04.248986  5916 net.cpp:165] Memory required for data: 820976664
I0316 17:30:04.248989  5916 layer_factory.hpp:77] Creating layer conv5_3/incep/2_0/relu
I0316 17:30:04.248996  5916 net.cpp:100] Creating Layer conv5_3/incep/2_0/relu
I0316 17:30:04.248998  5916 net.cpp:434] conv5_3/incep/2_0/relu <- conv5_3/incep/2_0
I0316 17:30:04.249002  5916 net.cpp:395] conv5_3/incep/2_0/relu -> conv5_3/incep/2_0 (in-place)
I0316 17:30:04.249372  5916 net.cpp:150] Setting up conv5_3/incep/2_0/relu
I0316 17:30:04.249380  5916 net.cpp:157] Top shape: 1 64 20 33 (42240)
I0316 17:30:04.249383  5916 net.cpp:165] Memory required for data: 821145624
I0316 17:30:04.249385  5916 layer_factory.hpp:77] Creating layer conv5_3/incep/2_1/conv
I0316 17:30:04.249394  5916 net.cpp:100] Creating Layer conv5_3/incep/2_1/conv
I0316 17:30:04.249397  5916 net.cpp:434] conv5_3/incep/2_1/conv <- conv5_3/incep/2_0
I0316 17:30:04.249402  5916 net.cpp:408] conv5_3/incep/2_1/conv -> conv5_3/incep/2_1
I0316 17:30:04.251426  5916 net.cpp:150] Setting up conv5_3/incep/2_1/conv
I0316 17:30:04.251436  5916 net.cpp:157] Top shape: 1 64 20 33 (42240)
I0316 17:30:04.251440  5916 net.cpp:165] Memory required for data: 821314584
I0316 17:30:04.251443  5916 layer_factory.hpp:77] Creating layer conv5_3/incep/2_1/relu
I0316 17:30:04.251448  5916 net.cpp:100] Creating Layer conv5_3/incep/2_1/relu
I0316 17:30:04.251451  5916 net.cpp:434] conv5_3/incep/2_1/relu <- conv5_3/incep/2_1
I0316 17:30:04.251454  5916 net.cpp:395] conv5_3/incep/2_1/relu -> conv5_3/incep/2_1 (in-place)
I0316 17:30:04.251879  5916 net.cpp:150] Setting up conv5_3/incep/2_1/relu
I0316 17:30:04.251886  5916 net.cpp:157] Top shape: 1 64 20 33 (42240)
I0316 17:30:04.251889  5916 net.cpp:165] Memory required for data: 821483544
I0316 17:30:04.251891  5916 layer_factory.hpp:77] Creating layer conv5_3/incep
I0316 17:30:04.251896  5916 net.cpp:100] Creating Layer conv5_3/incep
I0316 17:30:04.251899  5916 net.cpp:434] conv5_3/incep <- conv5_3/incep/0
I0316 17:30:04.251902  5916 net.cpp:434] conv5_3/incep <- conv5_3/incep/1_0
I0316 17:30:04.251906  5916 net.cpp:434] conv5_3/incep <- conv5_3/incep/2_1
I0316 17:30:04.251910  5916 net.cpp:408] conv5_3/incep -> conv5_3/incep
I0316 17:30:04.251935  5916 net.cpp:150] Setting up conv5_3/incep
I0316 17:30:04.251938  5916 net.cpp:157] Top shape: 1 320 20 33 (211200)
I0316 17:30:04.251940  5916 net.cpp:165] Memory required for data: 822328344
I0316 17:30:04.251943  5916 layer_factory.hpp:77] Creating layer conv5_3/out/conv
I0316 17:30:04.251950  5916 net.cpp:100] Creating Layer conv5_3/out/conv
I0316 17:30:04.251952  5916 net.cpp:434] conv5_3/out/conv <- conv5_3/incep
I0316 17:30:04.251956  5916 net.cpp:408] conv5_3/out/conv -> conv5_3/out
I0316 17:30:04.252898  5916 net.cpp:150] Setting up conv5_3/out/conv
I0316 17:30:04.252907  5916 net.cpp:157] Top shape: 1 384 20 33 (253440)
I0316 17:30:04.252909  5916 net.cpp:165] Memory required for data: 823342104
I0316 17:30:04.252914  5916 layer_factory.hpp:77] Creating layer conv5_3/input
I0316 17:30:04.252920  5916 net.cpp:100] Creating Layer conv5_3/input
I0316 17:30:04.252923  5916 net.cpp:434] conv5_3/input <- conv5_2_conv5_2_0_split_3
I0316 17:30:04.252928  5916 net.cpp:408] conv5_3/input -> conv5_3/input
I0316 17:30:04.252948  5916 net.cpp:150] Setting up conv5_3/input
I0316 17:30:04.252952  5916 net.cpp:157] Top shape: 1 384 20 33 (253440)
I0316 17:30:04.252954  5916 net.cpp:165] Memory required for data: 824355864
I0316 17:30:04.252957  5916 layer_factory.hpp:77] Creating layer conv5_3
I0316 17:30:04.252967  5916 net.cpp:100] Creating Layer conv5_3
I0316 17:30:04.252971  5916 net.cpp:434] conv5_3 <- conv5_3/out
I0316 17:30:04.252974  5916 net.cpp:434] conv5_3 <- conv5_3/input
I0316 17:30:04.252979  5916 net.cpp:408] conv5_3 -> conv5_3
I0316 17:30:04.252998  5916 net.cpp:150] Setting up conv5_3
I0316 17:30:04.253002  5916 net.cpp:157] Top shape: 1 384 20 33 (253440)
I0316 17:30:04.253005  5916 net.cpp:165] Memory required for data: 825369624
I0316 17:30:04.253007  5916 layer_factory.hpp:77] Creating layer conv5_3_conv5_3_0_split
I0316 17:30:04.253012  5916 net.cpp:100] Creating Layer conv5_3_conv5_3_0_split
I0316 17:30:04.253015  5916 net.cpp:434] conv5_3_conv5_3_0_split <- conv5_3
I0316 17:30:04.253020  5916 net.cpp:408] conv5_3_conv5_3_0_split -> conv5_3_conv5_3_0_split_0
I0316 17:30:04.253024  5916 net.cpp:408] conv5_3_conv5_3_0_split -> conv5_3_conv5_3_0_split_1
I0316 17:30:04.253028  5916 net.cpp:408] conv5_3_conv5_3_0_split -> conv5_3_conv5_3_0_split_2
I0316 17:30:04.253033  5916 net.cpp:408] conv5_3_conv5_3_0_split -> conv5_3_conv5_3_0_split_3
I0316 17:30:04.253080  5916 net.cpp:150] Setting up conv5_3_conv5_3_0_split
I0316 17:30:04.253085  5916 net.cpp:157] Top shape: 1 384 20 33 (253440)
I0316 17:30:04.253088  5916 net.cpp:157] Top shape: 1 384 20 33 (253440)
I0316 17:30:04.253090  5916 net.cpp:157] Top shape: 1 384 20 33 (253440)
I0316 17:30:04.253093  5916 net.cpp:157] Top shape: 1 384 20 33 (253440)
I0316 17:30:04.253095  5916 net.cpp:165] Memory required for data: 829424664
I0316 17:30:04.253098  5916 layer_factory.hpp:77] Creating layer conv5_4/incep/0/conv
I0316 17:30:04.253104  5916 net.cpp:100] Creating Layer conv5_4/incep/0/conv
I0316 17:30:04.253106  5916 net.cpp:434] conv5_4/incep/0/conv <- conv5_3_conv5_3_0_split_0
I0316 17:30:04.253110  5916 net.cpp:408] conv5_4/incep/0/conv -> conv5_4/incep/0
I0316 17:30:04.253418  5916 net.cpp:150] Setting up conv5_4/incep/0/conv
I0316 17:30:04.253424  5916 net.cpp:157] Top shape: 1 64 20 33 (42240)
I0316 17:30:04.253427  5916 net.cpp:165] Memory required for data: 829593624
I0316 17:30:04.253432  5916 layer_factory.hpp:77] Creating layer conv5_4/incep/0/relu
I0316 17:30:04.253434  5916 net.cpp:100] Creating Layer conv5_4/incep/0/relu
I0316 17:30:04.253437  5916 net.cpp:434] conv5_4/incep/0/relu <- conv5_4/incep/0
I0316 17:30:04.253442  5916 net.cpp:395] conv5_4/incep/0/relu -> conv5_4/incep/0 (in-place)
I0316 17:30:04.253679  5916 net.cpp:150] Setting up conv5_4/incep/0/relu
I0316 17:30:04.253687  5916 net.cpp:157] Top shape: 1 64 20 33 (42240)
I0316 17:30:04.253690  5916 net.cpp:165] Memory required for data: 829762584
I0316 17:30:04.253692  5916 layer_factory.hpp:77] Creating layer conv5_4/incep/1_reduce/conv
I0316 17:30:04.253700  5916 net.cpp:100] Creating Layer conv5_4/incep/1_reduce/conv
I0316 17:30:04.253702  5916 net.cpp:434] conv5_4/incep/1_reduce/conv <- conv5_3_conv5_3_0_split_1
I0316 17:30:04.253707  5916 net.cpp:408] conv5_4/incep/1_reduce/conv -> conv5_4/incep/1_reduce
I0316 17:30:04.254318  5916 net.cpp:150] Setting up conv5_4/incep/1_reduce/conv
I0316 17:30:04.254328  5916 net.cpp:157] Top shape: 1 96 20 33 (63360)
I0316 17:30:04.254329  5916 net.cpp:165] Memory required for data: 830016024
I0316 17:30:04.254334  5916 layer_factory.hpp:77] Creating layer conv5_4/incep/1_reduce/relu
I0316 17:30:04.254338  5916 net.cpp:100] Creating Layer conv5_4/incep/1_reduce/relu
I0316 17:30:04.254341  5916 net.cpp:434] conv5_4/incep/1_reduce/relu <- conv5_4/incep/1_reduce
I0316 17:30:04.254345  5916 net.cpp:395] conv5_4/incep/1_reduce/relu -> conv5_4/incep/1_reduce (in-place)
I0316 17:30:04.254475  5916 net.cpp:150] Setting up conv5_4/incep/1_reduce/relu
I0316 17:30:04.254482  5916 net.cpp:157] Top shape: 1 96 20 33 (63360)
I0316 17:30:04.254484  5916 net.cpp:165] Memory required for data: 830269464
I0316 17:30:04.254487  5916 layer_factory.hpp:77] Creating layer conv5_4/incep/1_0/conv
I0316 17:30:04.254493  5916 net.cpp:100] Creating Layer conv5_4/incep/1_0/conv
I0316 17:30:04.254497  5916 net.cpp:434] conv5_4/incep/1_0/conv <- conv5_4/incep/1_reduce
I0316 17:30:04.254504  5916 net.cpp:408] conv5_4/incep/1_0/conv -> conv5_4/incep/1_0
I0316 17:30:04.256217  5916 net.cpp:150] Setting up conv5_4/incep/1_0/conv
I0316 17:30:04.256227  5916 net.cpp:157] Top shape: 1 192 20 33 (126720)
I0316 17:30:04.256229  5916 net.cpp:165] Memory required for data: 830776344
I0316 17:30:04.256234  5916 layer_factory.hpp:77] Creating layer conv5_4/incep/1_0/relu
I0316 17:30:04.256239  5916 net.cpp:100] Creating Layer conv5_4/incep/1_0/relu
I0316 17:30:04.256242  5916 net.cpp:434] conv5_4/incep/1_0/relu <- conv5_4/incep/1_0
I0316 17:30:04.256247  5916 net.cpp:395] conv5_4/incep/1_0/relu -> conv5_4/incep/1_0 (in-place)
I0316 17:30:04.256520  5916 net.cpp:150] Setting up conv5_4/incep/1_0/relu
I0316 17:30:04.256527  5916 net.cpp:157] Top shape: 1 192 20 33 (126720)
I0316 17:30:04.256530  5916 net.cpp:165] Memory required for data: 831283224
I0316 17:30:04.256532  5916 layer_factory.hpp:77] Creating layer conv5_4/incep/2_reduce/conv
I0316 17:30:04.256539  5916 net.cpp:100] Creating Layer conv5_4/incep/2_reduce/conv
I0316 17:30:04.256542  5916 net.cpp:434] conv5_4/incep/2_reduce/conv <- conv5_3_conv5_3_0_split_2
I0316 17:30:04.256547  5916 net.cpp:408] conv5_4/incep/2_reduce/conv -> conv5_4/incep/2_reduce
I0316 17:30:04.256821  5916 net.cpp:150] Setting up conv5_4/incep/2_reduce/conv
I0316 17:30:04.256827  5916 net.cpp:157] Top shape: 1 32 20 33 (21120)
I0316 17:30:04.256829  5916 net.cpp:165] Memory required for data: 831367704
I0316 17:30:04.256834  5916 layer_factory.hpp:77] Creating layer conv5_4/incep/2_reduce/relu
I0316 17:30:04.256839  5916 net.cpp:100] Creating Layer conv5_4/incep/2_reduce/relu
I0316 17:30:04.256841  5916 net.cpp:434] conv5_4/incep/2_reduce/relu <- conv5_4/incep/2_reduce
I0316 17:30:04.256844  5916 net.cpp:395] conv5_4/incep/2_reduce/relu -> conv5_4/incep/2_reduce (in-place)
I0316 17:30:04.257067  5916 net.cpp:150] Setting up conv5_4/incep/2_reduce/relu
I0316 17:30:04.257076  5916 net.cpp:157] Top shape: 1 32 20 33 (21120)
I0316 17:30:04.257078  5916 net.cpp:165] Memory required for data: 831452184
I0316 17:30:04.257081  5916 layer_factory.hpp:77] Creating layer conv5_4/incep/2_0/conv
I0316 17:30:04.257087  5916 net.cpp:100] Creating Layer conv5_4/incep/2_0/conv
I0316 17:30:04.257091  5916 net.cpp:434] conv5_4/incep/2_0/conv <- conv5_4/incep/2_reduce
I0316 17:30:04.257097  5916 net.cpp:408] conv5_4/incep/2_0/conv -> conv5_4/incep/2_0
I0316 17:30:04.257948  5916 net.cpp:150] Setting up conv5_4/incep/2_0/conv
I0316 17:30:04.257957  5916 net.cpp:157] Top shape: 1 64 20 33 (42240)
I0316 17:30:04.257961  5916 net.cpp:165] Memory required for data: 831621144
I0316 17:30:04.257964  5916 layer_factory.hpp:77] Creating layer conv5_4/incep/2_0/relu
I0316 17:30:04.257968  5916 net.cpp:100] Creating Layer conv5_4/incep/2_0/relu
I0316 17:30:04.257972  5916 net.cpp:434] conv5_4/incep/2_0/relu <- conv5_4/incep/2_0
I0316 17:30:04.257977  5916 net.cpp:395] conv5_4/incep/2_0/relu -> conv5_4/incep/2_0 (in-place)
I0316 17:30:04.258105  5916 net.cpp:150] Setting up conv5_4/incep/2_0/relu
I0316 17:30:04.258111  5916 net.cpp:157] Top shape: 1 64 20 33 (42240)
I0316 17:30:04.258112  5916 net.cpp:165] Memory required for data: 831790104
I0316 17:30:04.258116  5916 layer_factory.hpp:77] Creating layer conv5_4/incep/2_1/conv
I0316 17:30:04.258124  5916 net.cpp:100] Creating Layer conv5_4/incep/2_1/conv
I0316 17:30:04.258127  5916 net.cpp:434] conv5_4/incep/2_1/conv <- conv5_4/incep/2_0
I0316 17:30:04.258132  5916 net.cpp:408] conv5_4/incep/2_1/conv -> conv5_4/incep/2_1
I0316 17:30:04.259093  5916 net.cpp:150] Setting up conv5_4/incep/2_1/conv
I0316 17:30:04.259102  5916 net.cpp:157] Top shape: 1 64 20 33 (42240)
I0316 17:30:04.259104  5916 net.cpp:165] Memory required for data: 831959064
I0316 17:30:04.259109  5916 layer_factory.hpp:77] Creating layer conv5_4/incep/2_1/relu
I0316 17:30:04.259114  5916 net.cpp:100] Creating Layer conv5_4/incep/2_1/relu
I0316 17:30:04.259117  5916 net.cpp:434] conv5_4/incep/2_1/relu <- conv5_4/incep/2_1
I0316 17:30:04.259120  5916 net.cpp:395] conv5_4/incep/2_1/relu -> conv5_4/incep/2_1 (in-place)
I0316 17:30:04.259456  5916 net.cpp:150] Setting up conv5_4/incep/2_1/relu
I0316 17:30:04.259465  5916 net.cpp:157] Top shape: 1 64 20 33 (42240)
I0316 17:30:04.259467  5916 net.cpp:165] Memory required for data: 832128024
I0316 17:30:04.259470  5916 layer_factory.hpp:77] Creating layer conv5_4/incep
I0316 17:30:04.259475  5916 net.cpp:100] Creating Layer conv5_4/incep
I0316 17:30:04.259479  5916 net.cpp:434] conv5_4/incep <- conv5_4/incep/0
I0316 17:30:04.259481  5916 net.cpp:434] conv5_4/incep <- conv5_4/incep/1_0
I0316 17:30:04.259485  5916 net.cpp:434] conv5_4/incep <- conv5_4/incep/2_1
I0316 17:30:04.259488  5916 net.cpp:408] conv5_4/incep -> conv5_4/incep
I0316 17:30:04.259515  5916 net.cpp:150] Setting up conv5_4/incep
I0316 17:30:04.259518  5916 net.cpp:157] Top shape: 1 320 20 33 (211200)
I0316 17:30:04.259521  5916 net.cpp:165] Memory required for data: 832972824
I0316 17:30:04.259523  5916 layer_factory.hpp:77] Creating layer conv5_4/out/conv
I0316 17:30:04.259529  5916 net.cpp:100] Creating Layer conv5_4/out/conv
I0316 17:30:04.259532  5916 net.cpp:434] conv5_4/out/conv <- conv5_4/incep
I0316 17:30:04.259537  5916 net.cpp:408] conv5_4/out/conv -> conv5_4/out
I0316 17:30:04.260243  5916 net.cpp:150] Setting up conv5_4/out/conv
I0316 17:30:04.260251  5916 net.cpp:157] Top shape: 1 384 20 33 (253440)
I0316 17:30:04.260252  5916 net.cpp:165] Memory required for data: 833986584
I0316 17:30:04.260257  5916 layer_factory.hpp:77] Creating layer conv5_4/input
I0316 17:30:04.260262  5916 net.cpp:100] Creating Layer conv5_4/input
I0316 17:30:04.260265  5916 net.cpp:434] conv5_4/input <- conv5_3_conv5_3_0_split_3
I0316 17:30:04.260268  5916 net.cpp:408] conv5_4/input -> conv5_4/input
I0316 17:30:04.260289  5916 net.cpp:150] Setting up conv5_4/input
I0316 17:30:04.260294  5916 net.cpp:157] Top shape: 1 384 20 33 (253440)
I0316 17:30:04.260296  5916 net.cpp:165] Memory required for data: 835000344
I0316 17:30:04.260298  5916 layer_factory.hpp:77] Creating layer conv5_4
I0316 17:30:04.260303  5916 net.cpp:100] Creating Layer conv5_4
I0316 17:30:04.260306  5916 net.cpp:434] conv5_4 <- conv5_4/out
I0316 17:30:04.260309  5916 net.cpp:434] conv5_4 <- conv5_4/input
I0316 17:30:04.260314  5916 net.cpp:408] conv5_4 -> conv5_4
I0316 17:30:04.260334  5916 net.cpp:150] Setting up conv5_4
I0316 17:30:04.260339  5916 net.cpp:157] Top shape: 1 384 20 33 (253440)
I0316 17:30:04.260340  5916 net.cpp:165] Memory required for data: 836014104
I0316 17:30:04.260344  5916 layer_factory.hpp:77] Creating layer downsample
I0316 17:30:04.260349  5916 net.cpp:100] Creating Layer downsample
I0316 17:30:04.260351  5916 net.cpp:434] downsample <- conv3_4_conv3_4_0_split_5
I0316 17:30:04.260356  5916 net.cpp:408] downsample -> downsample
I0316 17:30:04.260386  5916 net.cpp:150] Setting up downsample
I0316 17:30:04.260391  5916 net.cpp:157] Top shape: 1 128 40 66 (337920)
I0316 17:30:04.260393  5916 net.cpp:165] Memory required for data: 837365784
I0316 17:30:04.260396  5916 layer_factory.hpp:77] Creating layer upsample
I0316 17:30:04.260401  5916 net.cpp:100] Creating Layer upsample
I0316 17:30:04.260403  5916 net.cpp:434] upsample <- conv5_4
I0316 17:30:04.260408  5916 net.cpp:408] upsample -> upsample
I0316 17:30:04.260715  5916 net.cpp:150] Setting up upsample
I0316 17:30:04.260720  5916 net.cpp:157] Top shape: 1 384 40 66 (1013760)
I0316 17:30:04.260721  5916 net.cpp:165] Memory required for data: 841420824
I0316 17:30:04.260725  5916 layer_factory.hpp:77] Creating layer concat
I0316 17:30:04.260730  5916 net.cpp:100] Creating Layer concat
I0316 17:30:04.260732  5916 net.cpp:434] concat <- downsample
I0316 17:30:04.260736  5916 net.cpp:434] concat <- conv4_4_conv4_4_0_split_5
I0316 17:30:04.260740  5916 net.cpp:434] concat <- upsample
I0316 17:30:04.260743  5916 net.cpp:408] concat -> concat
I0316 17:30:04.260762  5916 net.cpp:150] Setting up concat
I0316 17:30:04.260766  5916 net.cpp:157] Top shape: 1 768 40 66 (2027520)
I0316 17:30:04.260769  5916 net.cpp:165] Memory required for data: 849530904
I0316 17:30:04.260774  5916 layer_factory.hpp:77] Creating layer concat_concat_0_split
I0316 17:30:04.260778  5916 net.cpp:100] Creating Layer concat_concat_0_split
I0316 17:30:04.260782  5916 net.cpp:434] concat_concat_0_split <- concat
I0316 17:30:04.260787  5916 net.cpp:408] concat_concat_0_split -> concat_concat_0_split_0
I0316 17:30:04.260790  5916 net.cpp:408] concat_concat_0_split -> concat_concat_0_split_1
I0316 17:30:04.260819  5916 net.cpp:150] Setting up concat_concat_0_split
I0316 17:30:04.260823  5916 net.cpp:157] Top shape: 1 768 40 66 (2027520)
I0316 17:30:04.260826  5916 net.cpp:157] Top shape: 1 768 40 66 (2027520)
I0316 17:30:04.260828  5916 net.cpp:165] Memory required for data: 865751064
I0316 17:30:04.260831  5916 layer_factory.hpp:77] Creating layer convf_rpn
I0316 17:30:04.260838  5916 net.cpp:100] Creating Layer convf_rpn
I0316 17:30:04.260840  5916 net.cpp:434] convf_rpn <- concat_concat_0_split_0
I0316 17:30:04.260845  5916 net.cpp:408] convf_rpn -> convf_rpn
I0316 17:30:04.264075  5916 net.cpp:150] Setting up convf_rpn
I0316 17:30:04.264088  5916 net.cpp:157] Top shape: 1 128 40 66 (337920)
I0316 17:30:04.264091  5916 net.cpp:165] Memory required for data: 867102744
I0316 17:30:04.264096  5916 layer_factory.hpp:77] Creating layer reluf_rpn
I0316 17:30:04.264101  5916 net.cpp:100] Creating Layer reluf_rpn
I0316 17:30:04.264103  5916 net.cpp:434] reluf_rpn <- convf_rpn
I0316 17:30:04.264107  5916 net.cpp:395] reluf_rpn -> convf_rpn (in-place)
I0316 17:30:04.265120  5916 net.cpp:150] Setting up reluf_rpn
I0316 17:30:04.265128  5916 net.cpp:157] Top shape: 1 128 40 66 (337920)
I0316 17:30:04.265131  5916 net.cpp:165] Memory required for data: 868454424
I0316 17:30:04.265133  5916 layer_factory.hpp:77] Creating layer convf_rpn_reluf_rpn_0_split
I0316 17:30:04.265139  5916 net.cpp:100] Creating Layer convf_rpn_reluf_rpn_0_split
I0316 17:30:04.265142  5916 net.cpp:434] convf_rpn_reluf_rpn_0_split <- convf_rpn
I0316 17:30:04.265147  5916 net.cpp:408] convf_rpn_reluf_rpn_0_split -> convf_rpn_reluf_rpn_0_split_0
I0316 17:30:04.265152  5916 net.cpp:408] convf_rpn_reluf_rpn_0_split -> convf_rpn_reluf_rpn_0_split_1
I0316 17:30:04.265189  5916 net.cpp:150] Setting up convf_rpn_reluf_rpn_0_split
I0316 17:30:04.265193  5916 net.cpp:157] Top shape: 1 128 40 66 (337920)
I0316 17:30:04.265197  5916 net.cpp:157] Top shape: 1 128 40 66 (337920)
I0316 17:30:04.265198  5916 net.cpp:165] Memory required for data: 871157784
I0316 17:30:04.265202  5916 layer_factory.hpp:77] Creating layer convf_2
I0316 17:30:04.265208  5916 net.cpp:100] Creating Layer convf_2
I0316 17:30:04.265211  5916 net.cpp:434] convf_2 <- concat_concat_0_split_1
I0316 17:30:04.265216  5916 net.cpp:408] convf_2 -> convf_2
I0316 17:30:04.267513  5916 net.cpp:150] Setting up convf_2
I0316 17:30:04.267524  5916 net.cpp:157] Top shape: 1 384 40 66 (1013760)
I0316 17:30:04.267525  5916 net.cpp:165] Memory required for data: 875212824
I0316 17:30:04.267530  5916 layer_factory.hpp:77] Creating layer reluf_2
I0316 17:30:04.267535  5916 net.cpp:100] Creating Layer reluf_2
I0316 17:30:04.267539  5916 net.cpp:434] reluf_2 <- convf_2
I0316 17:30:04.267541  5916 net.cpp:395] reluf_2 -> convf_2 (in-place)
I0316 17:30:04.267704  5916 net.cpp:150] Setting up reluf_2
I0316 17:30:04.267710  5916 net.cpp:157] Top shape: 1 384 40 66 (1013760)
I0316 17:30:04.267714  5916 net.cpp:165] Memory required for data: 879267864
I0316 17:30:04.267715  5916 layer_factory.hpp:77] Creating layer concat_convf
I0316 17:30:04.267720  5916 net.cpp:100] Creating Layer concat_convf
I0316 17:30:04.267724  5916 net.cpp:434] concat_convf <- convf_rpn_reluf_rpn_0_split_0
I0316 17:30:04.267726  5916 net.cpp:434] concat_convf <- convf_2
I0316 17:30:04.267731  5916 net.cpp:408] concat_convf -> convf
I0316 17:30:04.267756  5916 net.cpp:150] Setting up concat_convf
I0316 17:30:04.267761  5916 net.cpp:157] Top shape: 1 512 40 66 (1351680)
I0316 17:30:04.267763  5916 net.cpp:165] Memory required for data: 884674584
I0316 17:30:04.267765  5916 layer_factory.hpp:77] Creating layer rpn_conv1
I0316 17:30:04.267777  5916 net.cpp:100] Creating Layer rpn_conv1
I0316 17:30:04.267781  5916 net.cpp:434] rpn_conv1 <- convf_rpn_reluf_rpn_0_split_1
I0316 17:30:04.267786  5916 net.cpp:408] rpn_conv1 -> rpn_conv1
I0316 17:30:04.273807  5916 net.cpp:150] Setting up rpn_conv1
I0316 17:30:04.273876  5916 net.cpp:157] Top shape: 1 384 40 66 (1013760)
I0316 17:30:04.273882  5916 net.cpp:165] Memory required for data: 888729624
I0316 17:30:04.273900  5916 layer_factory.hpp:77] Creating layer rpn_relu1
I0316 17:30:04.273918  5916 net.cpp:100] Creating Layer rpn_relu1
I0316 17:30:04.273927  5916 net.cpp:434] rpn_relu1 <- rpn_conv1
I0316 17:30:04.273942  5916 net.cpp:395] rpn_relu1 -> rpn_conv1 (in-place)
I0316 17:30:04.274931  5916 net.cpp:150] Setting up rpn_relu1
I0316 17:30:04.274986  5916 net.cpp:157] Top shape: 1 384 40 66 (1013760)
I0316 17:30:04.274992  5916 net.cpp:165] Memory required for data: 892784664
I0316 17:30:04.275002  5916 layer_factory.hpp:77] Creating layer rpn_conv1_rpn_relu1_0_split
I0316 17:30:04.275023  5916 net.cpp:100] Creating Layer rpn_conv1_rpn_relu1_0_split
I0316 17:30:04.275033  5916 net.cpp:434] rpn_conv1_rpn_relu1_0_split <- rpn_conv1
I0316 17:30:04.275048  5916 net.cpp:408] rpn_conv1_rpn_relu1_0_split -> rpn_conv1_rpn_relu1_0_split_0
I0316 17:30:04.275063  5916 net.cpp:408] rpn_conv1_rpn_relu1_0_split -> rpn_conv1_rpn_relu1_0_split_1
I0316 17:30:04.275189  5916 net.cpp:150] Setting up rpn_conv1_rpn_relu1_0_split
I0316 17:30:04.275200  5916 net.cpp:157] Top shape: 1 384 40 66 (1013760)
I0316 17:30:04.275207  5916 net.cpp:157] Top shape: 1 384 40 66 (1013760)
I0316 17:30:04.275210  5916 net.cpp:165] Memory required for data: 900894744
I0316 17:30:04.275215  5916 layer_factory.hpp:77] Creating layer rpn_cls_score
I0316 17:30:04.275241  5916 net.cpp:100] Creating Layer rpn_cls_score
I0316 17:30:04.275248  5916 net.cpp:434] rpn_cls_score <- rpn_conv1_rpn_relu1_0_split_0
I0316 17:30:04.275256  5916 net.cpp:408] rpn_cls_score -> rpn_cls_score
I0316 17:30:04.277508  5916 net.cpp:150] Setting up rpn_cls_score
I0316 17:30:04.277596  5916 net.cpp:157] Top shape: 1 50 40 66 (132000)
I0316 17:30:04.277602  5916 net.cpp:165] Memory required for data: 901422744
I0316 17:30:04.277623  5916 layer_factory.hpp:77] Creating layer rpn_bbox_pred
I0316 17:30:04.277654  5916 net.cpp:100] Creating Layer rpn_bbox_pred
I0316 17:30:04.277665  5916 net.cpp:434] rpn_bbox_pred <- rpn_conv1_rpn_relu1_0_split_1
I0316 17:30:04.277681  5916 net.cpp:408] rpn_bbox_pred -> rpn_bbox_pred
I0316 17:30:04.294384  5916 net.cpp:150] Setting up rpn_bbox_pred
I0316 17:30:04.294425  5916 net.cpp:157] Top shape: 1 100 40 66 (264000)
I0316 17:30:04.294428  5916 net.cpp:165] Memory required for data: 902478744
I0316 17:30:04.294438  5916 layer_factory.hpp:77] Creating layer rpn_cls_score_reshape
I0316 17:30:04.294451  5916 net.cpp:100] Creating Layer rpn_cls_score_reshape
I0316 17:30:04.294456  5916 net.cpp:434] rpn_cls_score_reshape <- rpn_cls_score
I0316 17:30:04.294462  5916 net.cpp:408] rpn_cls_score_reshape -> rpn_cls_score_reshape
I0316 17:30:04.294497  5916 net.cpp:150] Setting up rpn_cls_score_reshape
I0316 17:30:04.294502  5916 net.cpp:157] Top shape: 1 2 1000 66 (132000)
I0316 17:30:04.294505  5916 net.cpp:165] Memory required for data: 903006744
I0316 17:30:04.294507  5916 layer_factory.hpp:77] Creating layer rpn_cls_prob
I0316 17:30:04.294513  5916 net.cpp:100] Creating Layer rpn_cls_prob
I0316 17:30:04.294515  5916 net.cpp:434] rpn_cls_prob <- rpn_cls_score_reshape
I0316 17:30:04.294520  5916 net.cpp:408] rpn_cls_prob -> rpn_cls_prob
I0316 17:30:04.295512  5916 net.cpp:150] Setting up rpn_cls_prob
I0316 17:30:04.295547  5916 net.cpp:157] Top shape: 1 2 1000 66 (132000)
I0316 17:30:04.295549  5916 net.cpp:165] Memory required for data: 903534744
I0316 17:30:04.295554  5916 layer_factory.hpp:77] Creating layer rpn_cls_prob_reshape
I0316 17:30:04.295565  5916 net.cpp:100] Creating Layer rpn_cls_prob_reshape
I0316 17:30:04.295570  5916 net.cpp:434] rpn_cls_prob_reshape <- rpn_cls_prob
I0316 17:30:04.295598  5916 net.cpp:408] rpn_cls_prob_reshape -> rpn_cls_prob_reshape
I0316 17:30:04.295650  5916 net.cpp:150] Setting up rpn_cls_prob_reshape
I0316 17:30:04.295656  5916 net.cpp:157] Top shape: 1 50 40 66 (132000)
I0316 17:30:04.295658  5916 net.cpp:165] Memory required for data: 904062744
I0316 17:30:04.295661  5916 layer_factory.hpp:77] Creating layer proposal
I0316 17:30:04.295667  5916 net.cpp:100] Creating Layer proposal
I0316 17:30:04.295670  5916 net.cpp:434] proposal <- rpn_cls_prob_reshape
I0316 17:30:04.295673  5916 net.cpp:434] proposal <- rpn_bbox_pred
I0316 17:30:04.295676  5916 net.cpp:434] proposal <- im_info
I0316 17:30:04.295683  5916 net.cpp:408] proposal -> rois
I0316 17:30:04.295689  5916 net.cpp:408] proposal -> scores
I0316 17:30:04.295773  5916 net.cpp:150] Setting up proposal
I0316 17:30:04.295778  5916 net.cpp:157] Top shape: 200 5 (1000)
I0316 17:30:04.295780  5916 net.cpp:157] Top shape: 200 (200)
I0316 17:30:04.295783  5916 net.cpp:165] Memory required for data: 904067544
I0316 17:30:04.295784  5916 layer_factory.hpp:77] Creating layer roi_pool5
I0316 17:30:04.295790  5916 net.cpp:100] Creating Layer roi_pool5
I0316 17:30:04.295794  5916 net.cpp:434] roi_pool5 <- convf
I0316 17:30:04.295796  5916 net.cpp:434] roi_pool5 <- rois
I0316 17:30:04.295801  5916 net.cpp:408] roi_pool5 -> pool5
I0316 17:30:04.295806  5916 roi_pooling_layer.cpp:34] Spatial scale: 0.0625
I0316 17:30:04.295846  5916 net.cpp:150] Setting up roi_pool5
I0316 17:30:04.295852  5916 net.cpp:157] Top shape: 200 512 6 6 (3686400)
I0316 17:30:04.295855  5916 net.cpp:165] Memory required for data: 918813144
I0316 17:30:04.295856  5916 layer_factory.hpp:77] Creating layer fc6
I0316 17:30:04.295862  5916 net.cpp:100] Creating Layer fc6
I0316 17:30:04.295866  5916 net.cpp:434] fc6 <- pool5
I0316 17:30:04.295869  5916 net.cpp:408] fc6 -> fc6
I0316 17:30:04.398434  5916 net.cpp:150] Setting up fc6
I0316 17:30:04.398468  5916 net.cpp:157] Top shape: 200 4096 (819200)
I0316 17:30:04.398471  5916 net.cpp:165] Memory required for data: 922089944
I0316 17:30:04.398479  5916 layer_factory.hpp:77] Creating layer relu6
I0316 17:30:04.398488  5916 net.cpp:100] Creating Layer relu6
I0316 17:30:04.398493  5916 net.cpp:434] relu6 <- fc6
I0316 17:30:04.398499  5916 net.cpp:395] relu6 -> fc6 (in-place)
I0316 17:30:04.398691  5916 net.cpp:150] Setting up relu6
I0316 17:30:04.398699  5916 net.cpp:157] Top shape: 200 4096 (819200)
I0316 17:30:04.398700  5916 net.cpp:165] Memory required for data: 925366744
I0316 17:30:04.398702  5916 layer_factory.hpp:77] Creating layer drop6
I0316 17:30:04.398751  5916 net.cpp:100] Creating Layer drop6
I0316 17:30:04.398754  5916 net.cpp:434] drop6 <- fc6
I0316 17:30:04.398758  5916 net.cpp:395] drop6 -> fc6 (in-place)
I0316 17:30:04.398784  5916 net.cpp:150] Setting up drop6
I0316 17:30:04.398789  5916 net.cpp:157] Top shape: 200 4096 (819200)
I0316 17:30:04.398792  5916 net.cpp:165] Memory required for data: 928643544
I0316 17:30:04.398794  5916 layer_factory.hpp:77] Creating layer fc7
I0316 17:30:04.398799  5916 net.cpp:100] Creating Layer fc7
I0316 17:30:04.398802  5916 net.cpp:434] fc7 <- fc6
I0316 17:30:04.398805  5916 net.cpp:408] fc7 -> fc7
I0316 17:30:04.421169  5916 net.cpp:150] Setting up fc7
I0316 17:30:04.421200  5916 net.cpp:157] Top shape: 200 4096 (819200)
I0316 17:30:04.421203  5916 net.cpp:165] Memory required for data: 931920344
I0316 17:30:04.421212  5916 layer_factory.hpp:77] Creating layer relu7
I0316 17:30:04.421221  5916 net.cpp:100] Creating Layer relu7
I0316 17:30:04.421226  5916 net.cpp:434] relu7 <- fc7
I0316 17:30:04.421231  5916 net.cpp:395] relu7 -> fc7 (in-place)
I0316 17:30:04.421638  5916 net.cpp:150] Setting up relu7
I0316 17:30:04.421646  5916 net.cpp:157] Top shape: 200 4096 (819200)
I0316 17:30:04.421649  5916 net.cpp:165] Memory required for data: 935197144
I0316 17:30:04.421651  5916 layer_factory.hpp:77] Creating layer drop7
I0316 17:30:04.421658  5916 net.cpp:100] Creating Layer drop7
I0316 17:30:04.421660  5916 net.cpp:434] drop7 <- fc7
I0316 17:30:04.421666  5916 net.cpp:395] drop7 -> fc7 (in-place)
I0316 17:30:04.421701  5916 net.cpp:150] Setting up drop7
I0316 17:30:04.421706  5916 net.cpp:157] Top shape: 200 4096 (819200)
I0316 17:30:04.421708  5916 net.cpp:165] Memory required for data: 938473944
I0316 17:30:04.421711  5916 layer_factory.hpp:77] Creating layer fc7_drop7_0_split
I0316 17:30:04.421722  5916 net.cpp:100] Creating Layer fc7_drop7_0_split
I0316 17:30:04.421725  5916 net.cpp:434] fc7_drop7_0_split <- fc7
I0316 17:30:04.421728  5916 net.cpp:408] fc7_drop7_0_split -> fc7_drop7_0_split_0
I0316 17:30:04.421735  5916 net.cpp:408] fc7_drop7_0_split -> fc7_drop7_0_split_1
I0316 17:30:04.421766  5916 net.cpp:150] Setting up fc7_drop7_0_split
I0316 17:30:04.421772  5916 net.cpp:157] Top shape: 200 4096 (819200)
I0316 17:30:04.421774  5916 net.cpp:157] Top shape: 200 4096 (819200)
I0316 17:30:04.421777  5916 net.cpp:165] Memory required for data: 945027544
I0316 17:30:04.421778  5916 layer_factory.hpp:77] Creating layer full1_cls_score
I0316 17:30:04.421785  5916 net.cpp:100] Creating Layer full1_cls_score
I0316 17:30:04.421788  5916 net.cpp:434] full1_cls_score <- fc7_drop7_0_split_0
I0316 17:30:04.421793  5916 net.cpp:408] full1_cls_score -> cls_score
I0316 17:30:04.421946  5916 net.cpp:150] Setting up full1_cls_score
I0316 17:30:04.421950  5916 net.cpp:157] Top shape: 200 2 (400)
I0316 17:30:04.421952  5916 net.cpp:165] Memory required for data: 945029144
I0316 17:30:04.421957  5916 layer_factory.hpp:77] Creating layer sjtuOhem_cg_bbox_pred
I0316 17:30:04.421962  5916 net.cpp:100] Creating Layer sjtuOhem_cg_bbox_pred
I0316 17:30:04.421964  5916 net.cpp:434] sjtuOhem_cg_bbox_pred <- fc7_drop7_0_split_1
I0316 17:30:04.421968  5916 net.cpp:408] sjtuOhem_cg_bbox_pred -> bbox_pred
I0316 17:30:04.422296  5916 net.cpp:150] Setting up sjtuOhem_cg_bbox_pred
I0316 17:30:04.422300  5916 net.cpp:157] Top shape: 200 8 (1600)
I0316 17:30:04.422302  5916 net.cpp:165] Memory required for data: 945035544
I0316 17:30:04.422305  5916 layer_factory.hpp:77] Creating layer cls_prob
I0316 17:30:04.422310  5916 net.cpp:100] Creating Layer cls_prob
I0316 17:30:04.422312  5916 net.cpp:434] cls_prob <- cls_score
I0316 17:30:04.422317  5916 net.cpp:408] cls_prob -> cls_prob
I0316 17:30:04.422756  5916 net.cpp:150] Setting up cls_prob
I0316 17:30:04.422762  5916 net.cpp:157] Top shape: 200 2 (400)
I0316 17:30:04.422765  5916 net.cpp:165] Memory required for data: 945037144
I0316 17:30:04.422767  5916 net.cpp:228] cls_prob does not need backward computation.
I0316 17:30:04.422770  5916 net.cpp:228] sjtuOhem_cg_bbox_pred does not need backward computation.
I0316 17:30:04.422772  5916 net.cpp:228] full1_cls_score does not need backward computation.
I0316 17:30:04.422775  5916 net.cpp:228] fc7_drop7_0_split does not need backward computation.
…
