…
stepsize: 50000
snapshot: 0
snapshot_prefix: "zf_faster_rcnn"
average_loss: 100
iter_size: 2
I0324 22:44:30.849447 13548 solver.cpp:81] Creating training net from train_net file: models/pvanet/full1_ohem_D/original.pt
I0324 22:44:30.853379 13548 net.cpp:58] Initializing net from parameters: 
name: "PVANET"
state {
  phase: TRAIN
}
layer {
  name: "input-data"
  type: "Python"
  top: "data"
  top: "im_info"
  top: "gt_boxes"
  python_param {
    module: "roi_data_layer.layer"
    layer: "RoIDataLayer"
    param_str: "\'num_classes\': 2"
  }
}
layer {
  name: "conv1_1/conv"
  type: "Convolution"
  bottom: "data"
  top: "conv1_1/conv"
  param {
    lr_mult: 0.1
    decay_mult: 0.1
  }
  convolution_param {
    num_output: 16
    bias_term: false
    weight_filler {
      type: "xavier"
    }
    pad_h: 3
    pad_w: 3
    kernel_h: 7
    kernel_w: 7
    stride_h: 2
    stride_w: 2
  }
}
layer {
  name: "conv1_1/bn"
  type: "BatchNorm"
  bottom: "conv1_1/conv"
  top: "conv1_1/conv"
  param {
    lr_mult: 0
    decay_mult: 0
  }
  param {
    lr_mult: 0
    decay_mult: 0
  }
  param {
    lr_mult: 0
    decay_mult: 0
  }
  batch_norm_param {
    use_global_stats: true
  }
}
layer {
  name: "conv1_1/neg"
  type: "Power"
  bottom: "conv1_1/conv"
  top: "conv1_1/neg"
  power_param {
    power: 1
    scale: -1
    shift: 0
  }
}
layer {
  name: "conv1_1/concat"
  type: "Concat"
  bottom: "conv1_1/conv"
  bottom: "conv1_1/neg"
  top: "conv1_1"
}
layer {
  name: "conv1_1/scale"
  type: "Scale"
  bottom: "conv1_1"
  top: "conv1_1"
  param {
    lr_mult: 0.1
    decay_mult: 0
  }
  param {
    lr_mult: 0.2
    decay_mult: 0
  }
  scale_param {
    bias_term: true
  }
}
layer {
  name: "conv1_1/relu"
  type: "ReLU"
  bottom: "conv1_1"
  top: "conv1_1"
}
layer {
  name: "pool1"
  type: "Pooling"
  bottom: "conv1_1"
  top: "pool1"
  pooling_param {
    pool: MAX
    kernel_size: 3
    stride: 2
    pad: 0
  }
}
layer {
  name: "conv2_1/1/conv"
  type: "Convolution"
  bottom: "pool1"
  top: "conv2_1/1"
  param {
    lr_mult: 0.1
    decay_mult: 0.1
  }
  convolution_param {
    num_output: 24
    bias_term: false
    weight_filler {
      type: "xavier"
    }
    pad_h: 0
    pad_w: 0
    kernel_h: 1
    kernel_w: 1
    stride_h: 1
    stride_w: 1
  }
}
layer {
  name: "conv2_1/1/bn"
  type: "BatchNorm"
  bottom: "conv2_1/1"
  top: "conv2_1/1"
  param {
    lr_mult: 0
    decay_mult: 0
  }
  param {
    lr_mult: 0
    decay_mult: 0
  }
  param {
    lr_mult: 0
    decay_mult: 0
  }
  batch_norm_param {
    use_global_stats: true
  }
}
layer {
  name: "conv2_1/1/bn_scale"
  type: "Scale"
  bottom: "conv2_1/1"
  top: "conv2_1/1"
  param {
    lr_mult: 0.1
    decay_mult: 0
  }
  param {
    lr_mult: 0.1
    decay_mult: 0
  }
  scale_param {
    bias_term: true
  }
}
layer {
  name: "conv2_1/1/relu"
  type: "ReLU"
  bottom: "conv2_1/1"
  top: "conv2_1/1"
}
layer {
  name: "conv2_1/2/conv"
  type: "Convolution"
  bottom: "conv2_1/1"
  top: "conv2_1/2/conv"
  param {
    lr_mult: 0.1
    decay_mult: 0.1
  }
  convolution_param {
    num_output: 24
    bias_term: false
    weight_filler {
      type: "xavier"
    }
    pad_h: 1
    pad_w: 1
    kernel_h: 3
    kernel_w: 3
    stride_h: 1
    stride_w: 1
  }
}
layer {
  name: "conv2_1/2/bn"
  type: "BatchNorm"
  bottom: "conv2_1/2/conv"
  top: "conv2_1/2/conv"
  param {
    lr_mult: 0
    decay_mult: 0
  }
  param {
    lr_mult: 0
    decay_mult: 0
  }
  param {
    lr_mult: 0
    decay_mult: 0
  }
  batch_norm_param {
    use_global_stats: true
  }
}
layer {
  name: "conv2_1/2/neg"
  type: "Power"
  bottom: "conv2_1/2/conv"
  top: "conv2_1/2/neg"
  power_param {
    power: 1
    scale: -1
    shift: 0
  }
}
layer {
  name: "conv2_1/2/concat"
  type: "Concat"
  bottom: "conv2_1/2/conv"
  bottom: "conv2_1/2/neg"
  top: "conv2_1/2"
}
layer {
  name: "conv2_1/2/scale"
  type: "Scale"
  bottom: "conv2_1/2"
  top: "conv2_1/2"
  param {
    lr_mult: 0.1
    decay_mult: 0
  }
  param {
    lr_mult: 0.2
    decay_mult: 0
  }
  scale_param {
    bias_term: true
  }
}
layer {
  name: "conv2_1/2/relu"
  type: "ReLU"
  bottom: "conv2_1/2"
  top: "conv2_1/2"
}
layer {
  name: "conv2_1/3/conv"
  type: "Convolution"
  bottom: "conv2_1/2"
  top: "conv2_1/3"
  param {
    lr_mult: 0.1
    decay_mult: 0.1
  }
  convolution_param {
    num_output: 64
    bias_term: false
    weight_filler {
      type: "xavier"
    }
    pad_h: 0
    pad_w: 0
    kernel_h: 1
    kernel_w: 1
    stride_h: 1
    stride_w: 1
  }
}
layer {
  name: "conv2_1/3/bn"
  type: "BatchNorm"
  bottom: "conv2_1/3"
  top: "conv2_1/3"
  param {
    lr_mult: 0
    decay_mult: 0
  }
  param {
    lr_mult: 0
    decay_mult: 0
  }
  param {
    lr_mult: 0
    decay_mult: 0
  }
  batch_norm_param {
    use_global_stats: true
  }
}
layer {
  name: "conv2_1/3/bn_scale"
  type: "Scale"
  bottom: "conv2_1/3"
  top: "conv2_1/3"
  param {
    lr_mult: 0.1
    decay_mult: 0
  }
  param {
    lr_mult: 0.1
    decay_mult: 0
  }
  scale_param {
    bias_term: true
  }
}
layer {
  name: "conv2_1/proj"
  type: "Convolution"
  bottom: "pool1"
  top: "conv2_1/proj"
  param {
    lr_mult: 0.1
    decay_mult: 0.1
  }
  param {
    lr_mult: 0.2
    decay_mult: 0
  }
  convolution_param {
    num_output: 64
    weight_filler {
      type: "xavier"
    }
    bias_filler {
      type: "constant"
      value: 0.1
    }
    pad_h: 0
    pad_w: 0
    kernel_h: 1
    kernel_w: 1
    stride_h: 1
    stride_w: 1
  }
}
layer {
  name: "conv2_1/proj_bn"
  type: "BatchNorm"
  bottom: "conv2_1/proj"
  top: "conv2_1/proj"
  param {
    lr_mult: 0
    decay_mult: 0
  }
  param {
    lr_mult: 0
    decay_mult: 0
  }
  param {
    lr_mult: 0
    decay_mult: 0
  }
  batch_norm_param {
    use_global_stats: true
  }
}
layer {
  name: "conv2_1/proj_bn_scale"
  type: "Scale"
  bottom: "conv2_1/proj"
  top: "conv2_1/proj"
  param {
    lr_mult: 0.1
    decay_mult: 0
  }
  param {
    lr_mult: 0.1
    decay_mult: 0
  }
  scale_param {
    bias_term: true
  }
}
layer {
  name: "conv2_1"
  type: "Eltwise"
  bottom: "conv2_1/3"
  bottom: "conv2_1/proj"
  top: "conv2_1"
  eltwise_param {
    operation: SUM
    coeff: 1
    coeff: 1
  }
}
layer {
  name: "conv2_2/1/conv"
  type: "Convolution"
  bottom: "conv2_1"
  top: "conv2_2/1"
  param {
    lr_mult: 0.1
    decay_mult: 0.1
  }
  convolution_param {
    num_output: 24
    bias_term: false
    weight_filler {
      type: "xavier"
    }
    pad_h: 0
    pad_w: 0
    kernel_h: 1
    kernel_w: 1
    stride_h: 1
    stride_w: 1
  }
}
layer {
  name: "conv2_2/1/bn"
  type: "BatchNorm"
  bottom: "conv2_2/1"
  top: "conv2_2/1"
  param {
    lr_mult: 0
    decay_mult: 0
  }
  param {
    lr_mult: 0
    decay_mult: 0
  }
  param {
    lr_mult: 0
    decay_mult: 0
  }
  batch_norm_param {
    use_global_stats: true
  }
}
layer {
  name: "conv2_2/1/bn_scale"
  type: "Scale"
  bottom: "conv2_2/1"
  top: "conv2_2/1"
  param {
    lr_mult: 0.1
    decay_mult: 0
  }
  param {
    lr_mult: 0.1
    decay_mult: 0
  }
  scale_param {
    bias_term: true
  }
}
layer {
  name: "conv2_2/1/relu"
  type: "ReLU"
  bottom: "conv2_2/1"
  top: "conv2_2/1"
}
layer {
  name: "conv2_2/2/conv"
  type: "Convolution"
  bottom: "conv2_2/1"
  top: "conv2_2/2/conv"
  param {
    lr_mult: 0.1
    decay_mult: 0.1
  }
  convolution_param {
    num_output: 24
    bias_term: false
    weight_filler {
      type: "xavier"
    }
    pad_h: 1
    pad_w: 1
    kernel_h: 3
    kernel_w: 3
    stride_h: 1
    stride_w: 1
  }
}
layer {
  name: "conv2_2/2/bn"
  type: "BatchNorm"
  bottom: "conv2_2/2/conv"
  top: "conv2_2/2/conv"
  param {
    lr_mult: 0
    decay_mult: 0
  }
  param {
    lr_mult: 0
    decay_mult: 0
  }
  param {
    lr_mult: 0
    decay_mult: 0
  }
  batch_norm_param {
    use_global_stats: true
  }
}
layer {
  name: "conv2_2/2/neg"
  type: "Power"
  bottom: "conv2_2/2/conv"
  top: "conv2_2/2/neg"
  power_param {
    power: 1
    scale: -1
    shift: 0
  }
}
layer {
  name: "conv2_2/2/concat"
  type: "Concat"
  bottom: "conv2_2/2/conv"
  bottom: "conv2_2/2/neg"
  top: "conv2_2/2"
}
layer {
  name: "conv2_2/2/scale"
  type: "Scale"
  bottom: "conv2_2/2"
  top: "conv2_2/2"
  param {
    lr_mult: 0.1
    decay_mult: 0
  }
  param {
    lr_mult: 0.2
    decay_mult: 0
  }
  scale_param {
    bias_term: true
  }
}
layer {
  name: "conv2_2/2/relu"
  type: "ReLU"
  bottom: "conv2_2/2"
  top: "conv2_2/2"
}
layer {
  name: "conv2_2/3/conv"
  type: "Convolution"
  bottom: "conv2_2/2"
  top: "conv2_2/3"
  param {
    lr_mult: 0.1
    decay_mult: 0.1
  }
  convolution_param {
    num_output: 64
    bias_term: false
    weight_filler {
      type: "xavier"
    }
    pad_h: 0
    pad_w: 0
    kernel_h: 1
    kernel_w: 1
    stride_h: 1
    stride_w: 1
  }
}
layer {
  name: "conv2_2/3/bn"
  type: "BatchNorm"
  bottom: "conv2_2/3"
  top: "conv2_2/3"
  param {
    lr_mult: 0
    decay_mult: 0
  }
  param {
    lr_mult: 0
    decay_mult: 0
  }
  param {
    lr_mult: 0
    decay_mult: 0
  }
  batch_norm_param {
    use_global_stats: true
  }
}
layer {
  name: "conv2_2/3/bn_scale"
  type: "Scale"
  bottom: "conv2_2/3"
  top: "conv2_2/3"
  param {
    lr_mult: 0.1
    decay_mult: 0
  }
  param {
    lr_mult: 0.1
    decay_mult: 0
  }
  scale_param {
    bias_term: true
  }
}
layer {
  name: "conv2_2/input"
  type: "Power"
  bottom: "conv2_1"
  top: "conv2_2/input"
  power_param {
    power: 1
    scale: 1
    shift: 0
  }
}
layer {
  name: "conv2_2"
  type: "Eltwise"
  bottom: "conv2_2/3"
  bottom: "conv2_2/input"
  top: "conv2_2"
  eltwise_param {
    operation: SUM
    coeff: 1
    coeff: 1
  }
}
layer {
  name: "conv2_3/1/conv"
  type: "Convolution"
  bottom: "conv2_2"
  top: "conv2_3/1"
  param {
    lr_mult: 0.1
    decay_mult: 0.1
  }
  convolution_param {
    num_output: 24
    bias_term: false
    weight_filler {
      type: "xavier"
    }
    pad_h: 0
    pad_w: 0
    kernel_h: 1
    kernel_w: 1
    stride_h: 1
    stride_w: 1
  }
}
layer {
  name: "conv2_3/1/bn"
  type: "BatchNorm"
  bottom: "conv2_3/1"
  top: "conv2_3/1"
  param {
    lr_mult: 0
    decay_mult: 0
  }
  param {
    lr_mult: 0
    decay_mult: 0
  }
  param {
    lr_mult: 0
    decay_mult: 0
  }
  batch_norm_param {
    use_global_stats: true
  }
}
layer {
  name: "conv2_3/1/bn_scale"
  type: "Scale"
  bottom: "conv2_3/1"
  top: "conv2_3/1"
  param {
    lr_mult: 0.1
    decay_mult: 0
  }
  param {
    lr_mult: 0.1
    decay_mult: 0
  }
  scale_param {
    bias_term: true
  }
}
layer {
  name: "conv2_3/1/relu"
  type: "ReLU"
  bottom: "conv2_3/1"
  top: "conv2_3/1"
}
layer {
  name: "conv2_3/2/conv"
  type: "Convolution"
  bottom: "conv2_3/1"
  top: "conv2_3/2/conv"
  param {
    lr_mult: 0.1
    decay_mult: 0.1
  }
  convolution_param {
    num_output: 24
    bias_term: false
    weight_filler {
      type: "xavier"
    }
    pad_h: 1
    pad_w: 1
    kernel_h: 3
    kernel_w: 3
    stride_h: 1
    stride_w: 1
  }
}
layer {
  name: "conv2_3/2/bn"
  type: "BatchNorm"
  bottom: "conv2_3/2/conv"
  top: "conv2_3/2/conv"
  param {
    lr_mult: 0
    decay_mult: 0
  }
  param {
    lr_mult: 0
    decay_mult: 0
  }
  param {
    lr_mult: 0
    decay_mult: 0
  }
  batch_norm_param {
    use_global_stats: true
  }
}
layer {
  name: "conv2_3/2/neg"
  type: "Power"
  bottom: "conv2_3/2/conv"
  top: "conv2_3/2/neg"
  power_param {
    power: 1
    scale: -1
    shift: 0
  }
}
layer {
  name: "conv2_3/2/concat"
  type: "Concat"
  bottom: "conv2_3/2/conv"
  bottom: "conv2_3/2/neg"
  top: "conv2_3/2"
}
layer {
  name: "conv2_3/2/scale"
  type: "Scale"
  bottom: "conv2_3/2"
  top: "conv2_3/2"
  param {
    lr_mult: 0.1
    decay_mult: 0
  }
  param {
    lr_mult: 0.2
    decay_mult: 0
  }
  scale_param {
    bias_term: true
  }
}
layer {
  name: "conv2_3/2/relu"
  type: "ReLU"
  bottom: "conv2_3/2"
  top: "conv2_3/2"
}
layer {
  name: "conv2_3/3/conv"
  type: "Convolution"
  bottom: "conv2_3/2"
  top: "conv2_3/3"
  param {
    lr_mult: 0.1
    decay_mult: 0.1
  }
  convolution_param {
    num_output: 64
    bias_term: false
    weight_filler {
      type: "xavier"
    }
    pad_h: 0
    pad_w: 0
    kernel_h: 1
    kernel_w: 1
    stride_h: 1
    stride_w: 1
  }
}
layer {
  name: "conv2_3/3/bn"
  type: "BatchNorm"
  bottom: "conv2_3/3"
  top: "conv2_3/3"
  param {
    lr_mult: 0
    decay_mult: 0
  }
  param {
    lr_mult: 0
    decay_mult: 0
  }
  param {
    lr_mult: 0
    decay_mult: 0
  }
  batch_norm_param {
    use_global_stats: true
  }
}
layer {
  name: "conv2_3/3/bn_scale"
  type: "Scale"
  bottom: "conv2_3/3"
  top: "conv2_3/3"
  param {
    lr_mult: 0.1
    decay_mult: 0
  }
  param {
    lr_mult: 0.1
    decay_mult: 0
  }
  scale_param {
    bias_term: true
  }
}
layer {
  name: "conv2_3/input"
  type: "Power"
  bottom: "conv2_2"
  top: "conv2_3/input"
  power_param {
    power: 1
    scale: 1
    shift: 0
  }
}
layer {
  name: "conv2_3"
  type: "Eltwise"
  bottom: "conv2_3/3"
  bottom: "conv2_3/input"
  top: "conv2_3"
  eltwise_param {
    operation: SUM
    coeff: 1
    coeff: 1
  }
}
layer {
  name: "conv3_1/1/conv"
  type: "Convolution"
  bottom: "conv2_3"
  top: "conv3_1/1"
  param {
    lr_mult: 0.1
    decay_mult: 0.1
  }
  convolution_param {
    num_output: 48
    bias_term: false
    weight_filler {
      type: "xavier"
    }
    pad_h: 0
    pad_w: 0
    kernel_h: 1
    kernel_w: 1
    stride_h: 2
    stride_w: 2
  }
}
layer {
  name: "conv3_1/1/bn"
  type: "BatchNorm"
  bottom: "conv3_1/1"
  top: "conv3_1/1"
  param {
    lr_mult: 0
    decay_mult: 0
  }
  param {
    lr_mult: 0
    decay_mult: 0
  }
  param {
    lr_mult: 0
    decay_mult: 0
  }
  batch_norm_param {
    use_global_stats: true
  }
}
layer {
  name: "conv3_1/1/bn_scale"
  type: "Scale"
  bottom: "conv3_1/1"
  top: "conv3_1/1"
  param {
    lr_mult: 0.1
    decay_mult: 0
  }
  param {
    lr_mult: 0.1
    decay_mult: 0
  }
  scale_param {
    bias_term: true
  }
}
layer {
  name: "conv3_1/1/relu"
  type: "ReLU"
  bottom: "conv3_1/1"
  top: "conv3_1/1"
}
layer {
  name: "conv3_1/2/conv"
  type: "Convolution"
  bottom: "conv3_1/1"
  top: "conv3_1/2/conv"
  param {
    lr_mult: 0.1
    decay_mult: 0.1
  }
  convolution_param {
    num_output: 48
    bias_term: false
    weight_filler {
      type: "xavier"
    }
    pad_h: 1
    pad_w: 1
    kernel_h: 3
    kernel_w: 3
    stride_h: 1
    stride_w: 1
  }
}
layer {
  name: "conv3_1/2/bn"
  type: "BatchNorm"
  bottom: "conv3_1/2/conv"
  top: "conv3_1/2/conv"
  param {
    lr_mult: 0
    decay_mult: 0
  }
  param {
    lr_mult: 0
    decay_mult: 0
  }
  param {
    lr_mult: 0
    decay_mult: 0
  }
  batch_norm_param {
    use_global_stats: true
  }
}
layer {
  name: "conv3_1/2/neg"
  type: "Power"
  bottom: "conv3_1/2/conv"
  top: "conv3_1/2/neg"
  power_param {
    power: 1
    scale: -1
    shift: 0
  }
}
layer {
  name: "conv3_1/2/concat"
  type: "Concat"
  bottom: "conv3_1/2/conv"
  bottom: "conv3_1/2/neg"
  top: "conv3_1/2"
}
layer {
  name: "conv3_1/2/scale"
  type: "Scale"
  bottom: "conv3_1/2"
  top: "conv3_1/2"
  param {
    lr_mult: 0.1
    decay_mult: 0
  }
  param {
    lr_mult: 0.2
    decay_mult: 0
  }
  scale_param {
    bias_term: true
  }
}
layer {
  name: "conv3_1/2/relu"
  type: "ReLU"
  bottom: "conv3_1/2"
  top: "conv3_1/2"
}
layer {
  name: "conv3_1/3/conv"
  type: "Convolution"
  bottom: "conv3_1/2"
  top: "conv3_1/3"
  param {
    lr_mult: 0.1
    decay_mult: 0.1
  }
  convolution_param {
    num_output: 128
    bias_term: false
    weight_filler {
      type: "xavier"
    }
    pad_h: 0
    pad_w: 0
    kernel_h: 1
    kernel_w: 1
    stride_h: 1
    stride_w: 1
  }
}
layer {
  name: "conv3_1/3/bn"
  type: "BatchNorm"
  bottom: "conv3_1/3"
  top: "conv3_1/3"
  param {
    lr_mult: 0
    decay_mult: 0
  }
  param {
    lr_mult: 0
    decay_mult: 0
  }
  param {
    lr_mult: 0
    decay_mult: 0
  }
  batch_norm_param {
    use_global_stats: true
  }
}
layer {
  name: "conv3_1/3/bn_scale"
  type: "Scale"
  bottom: "conv3_1/3"
  top: "conv3_1/3"
  param {
    lr_mult: 0.1
    decay_mult: 0
  }
  param {
    lr_mult: 0.1
    decay_mult: 0
  }
  scale_param {
    bias_term: true
  }
}
layer {
  name: "conv3_1/proj"
  type: "Convolution"
  bottom: "conv2_3"
  top: "conv3_1/proj"
  param {
    lr_mult: 0.1
    decay_mult: 0.1
  }
  param {
    lr_mult: 0.2
    decay_mult: 0
  }
  convolution_param {
    num_output: 128
    weight_filler {
      type: "xavier"
    }
    bias_filler {
      type: "constant"
      value: 0.1
    }
    pad_h: 0
    pad_w: 0
    kernel_h: 1
    kernel_w: 1
    stride_h: 2
    stride_w: 2
  }
}
layer {
  name: "conv3_1/proj_bn"
  type: "BatchNorm"
  bottom: "conv3_1/proj"
  top: "conv3_1/proj"
  param {
    lr_mult: 0
    decay_mult: 0
  }
  param {
    lr_mult: 0
    decay_mult: 0
  }
  param {
    lr_mult: 0
    decay_mult: 0
  }
  batch_norm_param {
    use_global_stats: true
  }
}
layer {
  name: "conv3_1/proj_bn_scale"
  type: "Scale"
  bottom: "conv3_1/proj"
  top: "conv3_1/proj"
  param {
    lr_mult: 0.1
    decay_mult: 0
  }
  param {
    lr_mult: 0.1
    decay_mult: 0
  }
  scale_param {
    bias_term: true
  }
}
layer {
  name: "conv3_1"
  type: "Eltwise"
  bottom: "conv3_1/3"
  bottom: "conv3_1/proj"
  top: "conv3_1"
  eltwise_param {
    operation: SUM
    coeff: 1
    coeff: 1
  }
}
layer {
  name: "conv3_2/1/conv"
  type: "Convolution"
  bottom: "conv3_1"
  top: "conv3_2/1"
  param {
    lr_mult: 0.1
    decay_mult: 0.1
  }
  convolution_param {
    num_output: 48
    bias_term: false
    weight_filler {
      type: "xavier"
    }
    pad_h: 0
    pad_w: 0
    kernel_h: 1
    kernel_w: 1
    stride_h: 1
    stride_w: 1
  }
}
layer {
  name: "conv3_2/1/bn"
  type: "BatchNorm"
  bottom: "conv3_2/1"
  top: "conv3_2/1"
  param {
    lr_mult: 0
    decay_mult: 0
  }
  param {
    lr_mult: 0
    decay_mult: 0
  }
  param {
    lr_mult: 0
    decay_mult: 0
  }
  batch_norm_param {
    use_global_stats: true
  }
}
layer {
  name: "conv3_2/1/bn_scale"
  type: "Scale"
  bottom: "conv3_2/1"
  top: "conv3_2/1"
  param {
    lr_mult: 0.1
    decay_mult: 0
  }
  param {
    lr_mult: 0.1
    decay_mult: 0
  }
  scale_param {
    bias_term: true
  }
}
layer {
  name: "conv3_2/1/relu"
  type: "ReLU"
  bottom: "conv3_2/1"
  top: "conv3_2/1"
}
layer {
  name: "conv3_2/2/conv"
  type: "Convolution"
  bottom: "conv3_2/1"
  top: "conv3_2/2/conv"
  param {
    lr_mult: 0.1
    decay_mult: 0.1
  }
  convolution_param {
    num_output: 48
    bias_term: false
    weight_filler {
      type: "xavier"
    }
    pad_h: 1
    pad_w: 1
    kernel_h: 3
    kernel_w: 3
    stride_h: 1
    stride_w: 1
  }
}
layer {
  name: "conv3_2/2/bn"
  type: "BatchNorm"
  bottom: "conv3_2/2/conv"
  top: "conv3_2/2/conv"
  param {
    lr_mult: 0
    decay_mult: 0
  }
  param {
    lr_mult: 0
    decay_mult: 0
  }
  param {
    lr_mult: 0
    decay_mult: 0
  }
  batch_norm_param {
    use_global_stats: true
  }
}
layer {
  name: "conv3_2/2/neg"
  type: "Power"
  bottom: "conv3_2/2/conv"
  top: "conv3_2/2/neg"
  power_param {
    power: 1
    scale: -1
    shift: 0
  }
}
layer {
  name: "conv3_2/2/concat"
  type: "Concat"
  bottom: "conv3_2/2/conv"
  bottom: "conv3_2/2/neg"
  top: "conv3_2/2"
}
layer {
  name: "conv3_2/2/scale"
  type: "Scale"
  bottom: "conv3_2/2"
  top: "conv3_2/2"
  param {
    lr_mult: 0.1
    decay_mult: 0
  }
  param {
    lr_mult: 0.2
    decay_mult: 0
  }
  scale_param {
    bias_term: true
  }
}
layer {
  name: "conv3_2/2/relu"
  type: "ReLU"
  bottom: "conv3_2/2"
  top: "conv3_2/2"
}
layer {
  name: "conv3_2/3/conv"
  type: "Convolution"
  bottom: "conv3_2/2"
  top: "conv3_2/3"
  param {
    lr_mult: 0.1
    decay_mult: 0.1
  }
  convolution_param {
    num_output: 128
    bias_term: false
    weight_filler {
      type: "xavier"
    }
    pad_h: 0
    pad_w: 0
    kernel_h: 1
    kernel_w: 1
    stride_h: 1
    stride_w: 1
  }
}
layer {
  name: "conv3_2/3/bn"
  type: "BatchNorm"
  bottom: "conv3_2/3"
  top: "conv3_2/3"
  param {
    lr_mult: 0
    decay_mult: 0
  }
  param {
    lr_mult: 0
    decay_mult: 0
  }
  param {
    lr_mult: 0
    decay_mult: 0
  }
  batch_norm_param {
    use_global_stats: true
  }
}
layer {
  name: "conv3_2/3/bn_scale"
  type: "Scale"
  bottom: "conv3_2/3"
  top: "conv3_2/3"
  param {
    lr_mult: 0.1
    decay_mult: 0
  }
  param {
    lr_mult: 0.1
    decay_mult: 0
  }
  scale_param {
    bias_term: true
  }
}
layer {
  name: "conv3_2/input"
  type: "Power"
  bottom: "conv3_1"
  top: "conv3_2/input"
  power_param {
    power: 1
    scale: 1
    shift: 0
  }
}
layer {
  name: "conv3_2"
  type: "Eltwise"
  bottom: "conv3_2/3"
  bottom: "conv3_2/input"
  top: "conv3_2"
  eltwise_param {
    operation: SUM
    coeff: 1
    coeff: 1
  }
}
layer {
  name: "conv3_3/1/conv"
  type: "Convolution"
  bottom: "conv3_2"
  top: "conv3_3/1"
  param {
    lr_mult: 0.1
    decay_mult: 0.1
  }
  convolution_param {
    num_output: 48
    bias_term: false
    weight_filler {
      type: "xavier"
    }
    pad_h: 0
    pad_w: 0
    kernel_h: 1
    kernel_w: 1
    stride_h: 1
    stride_w: 1
  }
}
layer {
  name: "conv3_3/1/bn"
  type: "BatchNorm"
  bottom: "conv3_3/1"
  top: "conv3_3/1"
  param {
    lr_mult: 0
    decay_mult: 0
  }
  param {
    lr_mult: 0
    decay_mult: 0
  }
  param {
    lr_mult: 0
    decay_mult: 0
  }
  batch_norm_param {
    use_global_stats: true
  }
}
layer {
  name: "conv3_3/1/bn_scale"
  type: "Scale"
  bottom: "conv3_3/1"
  top: "conv3_3/1"
  param {
    lr_mult: 0.1
    decay_mult: 0
  }
  param {
    lr_mult: 0.1
    decay_mult: 0
  }
  scale_param {
    bias_term: true
  }
}
layer {
  name: "conv3_3/1/relu"
  type: "ReLU"
  bottom: "conv3_3/1"
  top: "conv3_3/1"
}
layer {
  name: "conv3_3/2/conv"
  type: "Convolution"
  bottom: "conv3_3/1"
  top: "conv3_3/2/conv"
  param {
    lr_mult: 0.1
    decay_mult: 0.1
  }
  convolution_param {
    num_output: 48
    bias_term: false
    weight_filler {
      type: "xavier"
    }
    pad_h: 1
    pad_w: 1
    kernel_h: 3
    kernel_w: 3
    stride_h: 1
    stride_w: 1
  }
}
layer {
  name: "conv3_3/2/bn"
  type: "BatchNorm"
  bottom: "conv3_3/2/conv"
  top: "conv3_3/2/conv"
  param {
    lr_mult: 0
    decay_mult: 0
  }
  param {
    lr_mult: 0
    decay_mult: 0
  }
  param {
    lr_mult: 0
    decay_mult: 0
  }
  batch_norm_param {
    use_global_stats: true
  }
}
layer {
  name: "conv3_3/2/neg"
  type: "Power"
  bottom: "conv3_3/2/conv"
  top: "conv3_3/2/neg"
  power_param {
    power: 1
    scale: -1
    shift: 0
  }
}
layer {
  name: "conv3_3/2/concat"
  type: "Concat"
  bottom: "conv3_3/2/conv"
  bottom: "conv3_3/2/neg"
  top: "conv3_3/2"
}
layer {
  name: "conv3_3/2/scale"
  type: "Scale"
  bottom: "conv3_3/2"
  top: "conv3_3/2"
  param {
    lr_mult: 0.1
    decay_mult: 0
  }
  param {
    lr_mult: 0.2
    decay_mult: 0
  }
  scale_param {
    bias_term: true
  }
}
layer {
  name: "conv3_3/2/relu"
  type: "ReLU"
  bottom: "conv3_3/2"
  top: "conv3_3/2"
}
layer {
  name: "conv3_3/3/conv"
  type: "Convolution"
  bottom: "conv3_3/2"
  top: "conv3_3/3"
  param {
    lr_mult: 0.1
    decay_mult: 0.1
  }
  convolution_param {
    num_output: 128
    bias_term: false
    weight_filler {
      type: "xavier"
    }
    pad_h: 0
    pad_w: 0
    kernel_h: 1
    kernel_w: 1
    stride_h: 1
    stride_w: 1
  }
}
layer {
  name: "conv3_3/3/bn"
  type: "BatchNorm"
  bottom: "conv3_3/3"
  top: "conv3_3/3"
  param {
    lr_mult: 0
    decay_mult: 0
  }
  param {
    lr_mult: 0
    decay_mult: 0
  }
  param {
    lr_mult: 0
    decay_mult: 0
  }
  batch_norm_param {
    use_global_stats: true
  }
}
layer {
  name: "conv3_3/3/bn_scale"
  type: "Scale"
  bottom: "conv3_3/3"
  top: "conv3_3/3"
  param {
    lr_mult: 0.1
    decay_mult: 0
  }
  param {
    lr_mult: 0.1
    decay_mult: 0
  }
  scale_param {
    bias_term: true
  }
}
layer {
  name: "conv3_3/input"
  type: "Power"
  bottom: "conv3_2"
  top: "conv3_3/input"
  power_param {
    power: 1
    scale: 1
    shift: 0
  }
}
layer {
  name: "conv3_3"
  type: "Eltwise"
  bottom: "conv3_3/3"
  bottom: "conv3_3/input"
  top: "conv3_3"
  eltwise_param {
    operation: SUM
    coeff: 1
    coeff: 1
  }
}
layer {
  name: "conv3_4/1/conv"
  type: "Convolution"
  bottom: "conv3_3"
  top: "conv3_4/1"
  param {
    lr_mult: 0.1
    decay_mult: 0.1
  }
  convolution_param {
    num_output: 48
    bias_term: false
    weight_filler {
      type: "xavier"
    }
    pad_h: 0
    pad_w: 0
    kernel_h: 1
    kernel_w: 1
    stride_h: 1
    stride_w: 1
  }
}
layer {
  name: "conv3_4/1/bn"
  type: "BatchNorm"
  bottom: "conv3_4/1"
  top: "conv3_4/1"
  param {
    lr_mult: 0
    decay_mult: 0
  }
  param {
    lr_mult: 0
    decay_mult: 0
  }
  param {
    lr_mult: 0
    decay_mult: 0
  }
  batch_norm_param {
    use_global_stats: true
  }
}
layer {
  name: "conv3_4/1/bn_scale"
  type: "Scale"
  bottom: "conv3_4/1"
  top: "conv3_4/1"
  param {
    lr_mult: 0.1
    decay_mult: 0
  }
  param {
    lr_mult: 0.1
    decay_mult: 0
  }
  scale_param {
    bias_term: true
  }
}
layer {
  name: "conv3_4/1/relu"
  type: "ReLU"
  bottom: "conv3_4/1"
  top: "conv3_4/1"
}
layer {
  name: "conv3_4/2/conv"
  type: "Convolution"
  bottom: "conv3_4/1"
  top: "conv3_4/2/conv"
  param {
    lr_mult: 0.1
    decay_mult: 0.1
  }
  convolution_param {
    num_output: 48
    bias_term: false
    weight_filler {
      type: "xavier"
    }
    pad_h: 1
    pad_w: 1
    kernel_h: 3
    kernel_w: 3
    stride_h: 1
    stride_w: 1
  }
}
layer {
  name: "conv3_4/2/bn"
  type: "BatchNorm"
  bottom: "conv3_4/2/conv"
  top: "conv3_4/2/conv"
  param {
    lr_mult: 0
    decay_mult: 0
  }
  param {
    lr_mult: 0
    decay_mult: 0
  }
  param {
    lr_mult: 0
    decay_mult: 0
  }
  batch_norm_param {
    use_global_stats: true
  }
}
layer {
  name: "conv3_4/2/neg"
  type: "Power"
  bottom: "conv3_4/2/conv"
  top: "conv3_4/2/neg"
  power_param {
    power: 1
    scale: -1
    shift: 0
  }
}
layer {
  name: "conv3_4/2/concat"
  type: "Concat"
  bottom: "conv3_4/2/conv"
  bottom: "conv3_4/2/neg"
  top: "conv3_4/2"
}
layer {
  name: "conv3_4/2/scale"
  type: "Scale"
  bottom: "conv3_4/2"
  top: "conv3_4/2"
  param {
    lr_mult: 0.1
    decay_mult: 0
  }
  param {
    lr_mult: 0.2
    decay_mult: 0
  }
  scale_param {
    bias_term: true
  }
}
layer {
  name: "conv3_4/2/relu"
  type: "ReLU"
  bottom: "conv3_4/2"
  top: "conv3_4/2"
}
layer {
  name: "conv3_4/3/conv"
  type: "Convolution"
  bottom: "conv3_4/2"
  top: "conv3_4/3"
  param {
    lr_mult: 0.1
    decay_mult: 0.1
  }
  convolution_param {
    num_output: 128
    bias_term: false
    weight_filler {
      type: "xavier"
    }
    pad_h: 0
    pad_w: 0
    kernel_h: 1
    kernel_w: 1
    stride_h: 1
    stride_w: 1
  }
}
layer {
  name: "conv3_4/3/bn"
  type: "BatchNorm"
  bottom: "conv3_4/3"
  top: "conv3_4/3"
  param {
    lr_mult: 0
    decay_mult: 0
  }
  param {
    lr_mult: 0
    decay_mult: 0
  }
  param {
    lr_mult: 0
    decay_mult: 0
  }
  batch_norm_param {
    use_global_stats: true
  }
}
layer {
  name: "conv3_4/3/bn_scale"
  type: "Scale"
  bottom: "conv3_4/3"
  top: "conv3_4/3"
  param {
    lr_mult: 0.1
    decay_mult: 0
  }
  param {
    lr_mult: 0.1
    decay_mult: 0
  }
  scale_param {
    bias_term: true
  }
}
layer {
  name: "conv3_4/input"
  type: "Power"
  bottom: "conv3_3"
  top: "conv3_4/input"
  power_param {
    power: 1
    scale: 1
    shift: 0
  }
}
layer {
  name: "conv3_4"
  type: "Eltwise"
  bottom: "conv3_4/3"
  bottom: "conv3_4/input"
  top: "conv3_4"
  eltwise_param {
    operation: SUM
    coeff: 1
    coeff: 1
  }
}
layer {
  name: "conv4_1/incep/0/conv"
  type: "Convolution"
  bottom: "conv3_4"
  top: "conv4_1/incep/0"
  param {
    lr_mult: 0.1
    decay_mult: 0.1
  }
  convolution_param {
    num_output: 64
    bias_term: false
    weight_filler {
      type: "xavier"
    }
    pad_h: 0
    pad_w: 0
    kernel_h: 1
    kernel_w: 1
    stride_h: 2
    stride_w: 2
  }
}
layer {
  name: "conv4_1/incep/0/bn"
  type: "BatchNorm"
  bottom: "conv4_1/incep/0"
  top: "conv4_1/incep/0"
  param {
    lr_mult: 0
    decay_mult: 0
  }
  param {
    lr_mult: 0
    decay_mult: 0
  }
  param {
    lr_mult: 0
    decay_mult: 0
  }
  batch_norm_param {
    use_global_stats: true
  }
}
layer {
  name: "conv4_1/incep/0/bn_scale"
  type: "Scale"
  bottom: "conv4_1/incep/0"
  top: "conv4_1/incep/0"
  param {
    lr_mult: 0.1
    decay_mult: 0
  }
  param {
    lr_mult: 0.1
    decay_mult: 0
  }
  scale_param {
    bias_term: true
  }
}
layer {
  name: "conv4_1/incep/0/relu"
  type: "ReLU"
  bottom: "conv4_1/incep/0"
  top: "conv4_1/incep/0"
}
layer {
  name: "conv4_1/incep/1_reduce/conv"
  type: "Convolution"
  bottom: "conv3_4"
  top: "conv4_1/incep/1_reduce"
  param {
    lr_mult: 0.1
    decay_mult: 0.1
  }
  convolution_param {
    num_output: 48
    bias_term: false
    weight_filler {
      type: "xavier"
    }
    pad_h: 0
    pad_w: 0
    kernel_h: 1
    kernel_w: 1
    stride_h: 2
    stride_w: 2
  }
}
layer {
  name: "conv4_1/incep/1_reduce/bn"
  type: "BatchNorm"
  bottom: "conv4_1/incep/1_reduce"
  top: "conv4_1/incep/1_reduce"
  param {
    lr_mult: 0
    decay_mult: 0
  }
  param {
    lr_mult: 0
    decay_mult: 0
  }
  param {
    lr_mult: 0
    decay_mult: 0
  }
  batch_norm_param {
    use_global_stats: true
  }
}
layer {
  name: "conv4_1/incep/1_reduce/bn_scale"
  type: "Scale"
  bottom: "conv4_1/incep/1_reduce"
  top: "conv4_1/incep/1_reduce"
  param {
    lr_mult: 0.1
    decay_mult: 0
  }
  param {
    lr_mult: 0.1
    decay_mult: 0
  }
  scale_param {
    bias_term: true
  }
}
layer {
  name: "conv4_1/incep/1_reduce/relu"
  type: "ReLU"
  bottom: "conv4_1/incep/1_reduce"
  top: "conv4_1/incep/1_reduce"
}
layer {
  name: "conv4_1/incep/1_0/conv"
  type: "Convolution"
  bottom: "conv4_1/incep/1_reduce"
  top: "conv4_1/incep/1_0"
  param {
    lr_mult: 0.1
    decay_mult: 0.1
  }
  convolution_param {
    num_output: 128
    bias_term: false
    weight_filler {
      type: "xavier"
    }
    pad_h: 1
    pad_w: 1
    kernel_h: 3
    kernel_w: 3
    stride_h: 1
    stride_w: 1
  }
}
layer {
  name: "conv4_1/incep/1_0/bn"
  type: "BatchNorm"
  bottom: "conv4_1/incep/1_0"
  top: "conv4_1/incep/1_0"
  param {
I0324 22:44:30.854521 13548 layer_factory.hpp:77] Creating layer input-data
I0324 22:44:30.862359 13548 net.cpp:100] Creating Layer input-data
I0324 22:44:30.862387 13548 net.cpp:408] input-data -> data
I0324 22:44:30.862399 13548 net.cpp:408] input-data -> im_info
I0324 22:44:30.862407 13548 net.cpp:408] input-data -> gt_boxes
I0324 22:44:30.872376 13548 net.cpp:150] Setting up input-data
I0324 22:44:30.872406 13548 net.cpp:157] Top shape: 1 3 864 1440 (3732480)
I0324 22:44:30.872412 13548 net.cpp:157] Top shape: 1 3 (3)
I0324 22:44:30.872416 13548 net.cpp:157] Top shape: 1 4 (4)
I0324 22:44:30.872421 13548 net.cpp:165] Memory required for data: 14929948
I0324 22:44:30.872426 13548 layer_factory.hpp:77] Creating layer data_input-data_0_split
I0324 22:44:30.872439 13548 net.cpp:100] Creating Layer data_input-data_0_split
I0324 22:44:30.872444 13548 net.cpp:434] data_input-data_0_split <- data
I0324 22:44:30.872453 13548 net.cpp:408] data_input-data_0_split -> data_input-data_0_split_0
I0324 22:44:30.872463 13548 net.cpp:408] data_input-data_0_split -> data_input-data_0_split_1
I0324 22:44:30.872498 13548 net.cpp:150] Setting up data_input-data_0_split
I0324 22:44:30.872505 13548 net.cpp:157] Top shape: 1 3 864 1440 (3732480)
I0324 22:44:30.872510 13548 net.cpp:157] Top shape: 1 3 864 1440 (3732480)
I0324 22:44:30.872514 13548 net.cpp:165] Memory required for data: 44789788
I0324 22:44:30.872519 13548 layer_factory.hpp:77] Creating layer im_info_input-data_1_split
I0324 22:44:30.872524 13548 net.cpp:100] Creating Layer im_info_input-data_1_split
I0324 22:44:30.872529 13548 net.cpp:434] im_info_input-data_1_split <- im_info
I0324 22:44:30.872534 13548 net.cpp:408] im_info_input-data_1_split -> im_info_input-data_1_split_0
I0324 22:44:30.872541 13548 net.cpp:408] im_info_input-data_1_split -> im_info_input-data_1_split_1
I0324 22:44:30.872570 13548 net.cpp:150] Setting up im_info_input-data_1_split
I0324 22:44:30.872575 13548 net.cpp:157] Top shape: 1 3 (3)
I0324 22:44:30.872580 13548 net.cpp:157] Top shape: 1 3 (3)
I0324 22:44:30.872582 13548 net.cpp:165] Memory required for data: 44789812
I0324 22:44:30.872586 13548 layer_factory.hpp:77] Creating layer gt_boxes_input-data_2_split
I0324 22:44:30.872592 13548 net.cpp:100] Creating Layer gt_boxes_input-data_2_split
I0324 22:44:30.872602 13548 net.cpp:434] gt_boxes_input-data_2_split <- gt_boxes
I0324 22:44:30.872608 13548 net.cpp:408] gt_boxes_input-data_2_split -> gt_boxes_input-data_2_split_0
I0324 22:44:30.872617 13548 net.cpp:408] gt_boxes_input-data_2_split -> gt_boxes_input-data_2_split_1
I0324 22:44:30.872645 13548 net.cpp:150] Setting up gt_boxes_input-data_2_split
I0324 22:44:30.872653 13548 net.cpp:157] Top shape: 1 4 (4)
I0324 22:44:30.872656 13548 net.cpp:157] Top shape: 1 4 (4)
I0324 22:44:30.872660 13548 net.cpp:165] Memory required for data: 44789844
I0324 22:44:30.872664 13548 layer_factory.hpp:77] Creating layer conv1_1/conv
I0324 22:44:30.872678 13548 net.cpp:100] Creating Layer conv1_1/conv
I0324 22:44:30.872681 13548 net.cpp:434] conv1_1/conv <- data_input-data_0_split_0
I0324 22:44:30.872689 13548 net.cpp:408] conv1_1/conv -> conv1_1/conv
I0324 22:44:30.995314 13548 net.cpp:150] Setting up conv1_1/conv
I0324 22:44:30.995342 13548 net.cpp:157] Top shape: 1 16 432 720 (4976640)
I0324 22:44:30.995345 13548 net.cpp:165] Memory required for data: 64696404
I0324 22:44:30.995357 13548 layer_factory.hpp:77] Creating layer conv1_1/bn
I0324 22:44:30.995368 13548 net.cpp:100] Creating Layer conv1_1/bn
I0324 22:44:30.995371 13548 net.cpp:434] conv1_1/bn <- conv1_1/conv
I0324 22:44:30.995376 13548 net.cpp:395] conv1_1/bn -> conv1_1/conv (in-place)
I0324 22:44:30.995934 13548 net.cpp:150] Setting up conv1_1/bn
I0324 22:44:30.995942 13548 net.cpp:157] Top shape: 1 16 432 720 (4976640)
I0324 22:44:30.995945 13548 net.cpp:165] Memory required for data: 84602964
I0324 22:44:30.995954 13548 layer_factory.hpp:77] Creating layer conv1_1/conv_conv1_1/bn_0_split
I0324 22:44:30.995959 13548 net.cpp:100] Creating Layer conv1_1/conv_conv1_1/bn_0_split
I0324 22:44:30.995962 13548 net.cpp:434] conv1_1/conv_conv1_1/bn_0_split <- conv1_1/conv
I0324 22:44:30.995966 13548 net.cpp:408] conv1_1/conv_conv1_1/bn_0_split -> conv1_1/conv_conv1_1/bn_0_split_0
I0324 22:44:30.995972 13548 net.cpp:408] conv1_1/conv_conv1_1/bn_0_split -> conv1_1/conv_conv1_1/bn_0_split_1
I0324 22:44:30.995996 13548 net.cpp:150] Setting up conv1_1/conv_conv1_1/bn_0_split
I0324 22:44:30.996001 13548 net.cpp:157] Top shape: 1 16 432 720 (4976640)
I0324 22:44:30.996003 13548 net.cpp:157] Top shape: 1 16 432 720 (4976640)
I0324 22:44:30.996006 13548 net.cpp:165] Memory required for data: 124416084
I0324 22:44:30.996008 13548 layer_factory.hpp:77] Creating layer conv1_1/neg
I0324 22:44:30.996013 13548 net.cpp:100] Creating Layer conv1_1/neg
I0324 22:44:30.996016 13548 net.cpp:434] conv1_1/neg <- conv1_1/conv_conv1_1/bn_0_split_0
I0324 22:44:30.996019 13548 net.cpp:408] conv1_1/neg -> conv1_1/neg
I0324 22:44:30.996033 13548 net.cpp:150] Setting up conv1_1/neg
I0324 22:44:30.996037 13548 net.cpp:157] Top shape: 1 16 432 720 (4976640)
I0324 22:44:30.996039 13548 net.cpp:165] Memory required for data: 144322644
I0324 22:44:30.996042 13548 layer_factory.hpp:77] Creating layer conv1_1/concat
I0324 22:44:30.996048 13548 net.cpp:100] Creating Layer conv1_1/concat
I0324 22:44:30.996050 13548 net.cpp:434] conv1_1/concat <- conv1_1/conv_conv1_1/bn_0_split_1
I0324 22:44:30.996054 13548 net.cpp:434] conv1_1/concat <- conv1_1/neg
I0324 22:44:30.996057 13548 net.cpp:408] conv1_1/concat -> conv1_1
I0324 22:44:30.996071 13548 net.cpp:150] Setting up conv1_1/concat
I0324 22:44:30.996075 13548 net.cpp:157] Top shape: 1 32 432 720 (9953280)
I0324 22:44:30.996078 13548 net.cpp:165] Memory required for data: 184135764
I0324 22:44:30.996080 13548 layer_factory.hpp:77] Creating layer conv1_1/scale
I0324 22:44:30.996085 13548 net.cpp:100] Creating Layer conv1_1/scale
I0324 22:44:30.996088 13548 net.cpp:434] conv1_1/scale <- conv1_1
I0324 22:44:30.996091 13548 net.cpp:395] conv1_1/scale -> conv1_1 (in-place)
I0324 22:44:30.996119 13548 layer_factory.hpp:77] Creating layer conv1_1/scale
I0324 22:44:30.997020 13548 net.cpp:150] Setting up conv1_1/scale
I0324 22:44:30.997030 13548 net.cpp:157] Top shape: 1 32 432 720 (9953280)
I0324 22:44:30.997033 13548 net.cpp:165] Memory required for data: 223948884
I0324 22:44:30.997045 13548 layer_factory.hpp:77] Creating layer conv1_1/relu
I0324 22:44:30.997051 13548 net.cpp:100] Creating Layer conv1_1/relu
I0324 22:44:30.997053 13548 net.cpp:434] conv1_1/relu <- conv1_1
I0324 22:44:30.997057 13548 net.cpp:395] conv1_1/relu -> conv1_1 (in-place)
I0324 22:44:30.997519 13548 net.cpp:150] Setting up conv1_1/relu
I0324 22:44:30.997527 13548 net.cpp:157] Top shape: 1 32 432 720 (9953280)
I0324 22:44:30.997530 13548 net.cpp:165] Memory required for data: 263762004
I0324 22:44:30.997532 13548 layer_factory.hpp:77] Creating layer pool1
I0324 22:44:30.997539 13548 net.cpp:100] Creating Layer pool1
I0324 22:44:30.997540 13548 net.cpp:434] pool1 <- conv1_1
I0324 22:44:30.997545 13548 net.cpp:408] pool1 -> pool1
I0324 22:44:30.997573 13548 net.cpp:150] Setting up pool1
I0324 22:44:30.997578 13548 net.cpp:157] Top shape: 1 32 216 360 (2488320)
I0324 22:44:30.997581 13548 net.cpp:165] Memory required for data: 273715284
I0324 22:44:30.997582 13548 layer_factory.hpp:77] Creating layer pool1_pool1_0_split
I0324 22:44:30.997586 13548 net.cpp:100] Creating Layer pool1_pool1_0_split
I0324 22:44:30.997588 13548 net.cpp:434] pool1_pool1_0_split <- pool1
I0324 22:44:30.997592 13548 net.cpp:408] pool1_pool1_0_split -> pool1_pool1_0_split_0
I0324 22:44:30.997596 13548 net.cpp:408] pool1_pool1_0_split -> pool1_pool1_0_split_1
I0324 22:44:30.997620 13548 net.cpp:150] Setting up pool1_pool1_0_split
I0324 22:44:30.997625 13548 net.cpp:157] Top shape: 1 32 216 360 (2488320)
I0324 22:44:30.997628 13548 net.cpp:157] Top shape: 1 32 216 360 (2488320)
I0324 22:44:30.997630 13548 net.cpp:165] Memory required for data: 293621844
I0324 22:44:30.997632 13548 layer_factory.hpp:77] Creating layer conv2_1/1/conv
I0324 22:44:30.997639 13548 net.cpp:100] Creating Layer conv2_1/1/conv
I0324 22:44:30.997642 13548 net.cpp:434] conv2_1/1/conv <- pool1_pool1_0_split_0
I0324 22:44:30.997647 13548 net.cpp:408] conv2_1/1/conv -> conv2_1/1
I0324 22:44:30.999388 13548 net.cpp:150] Setting up conv2_1/1/conv
I0324 22:44:30.999398 13548 net.cpp:157] Top shape: 1 24 216 360 (1866240)
I0324 22:44:30.999402 13548 net.cpp:165] Memory required for data: 301086804
I0324 22:44:30.999405 13548 layer_factory.hpp:77] Creating layer conv2_1/1/bn
I0324 22:44:30.999413 13548 net.cpp:100] Creating Layer conv2_1/1/bn
I0324 22:44:30.999415 13548 net.cpp:434] conv2_1/1/bn <- conv2_1/1
I0324 22:44:30.999419 13548 net.cpp:395] conv2_1/1/bn -> conv2_1/1 (in-place)
I0324 22:44:30.999840 13548 net.cpp:150] Setting up conv2_1/1/bn
I0324 22:44:30.999848 13548 net.cpp:157] Top shape: 1 24 216 360 (1866240)
I0324 22:44:30.999850 13548 net.cpp:165] Memory required for data: 308551764
I0324 22:44:30.999858 13548 layer_factory.hpp:77] Creating layer conv2_1/1/bn_scale
I0324 22:44:30.999863 13548 net.cpp:100] Creating Layer conv2_1/1/bn_scale
I0324 22:44:30.999866 13548 net.cpp:434] conv2_1/1/bn_scale <- conv2_1/1
I0324 22:44:30.999871 13548 net.cpp:395] conv2_1/1/bn_scale -> conv2_1/1 (in-place)
I0324 22:44:30.999900 13548 layer_factory.hpp:77] Creating layer conv2_1/1/bn_scale
I0324 22:44:31.000043 13548 net.cpp:150] Setting up conv2_1/1/bn_scale
I0324 22:44:31.000049 13548 net.cpp:157] Top shape: 1 24 216 360 (1866240)
I0324 22:44:31.000051 13548 net.cpp:165] Memory required for data: 316016724
I0324 22:44:31.000056 13548 layer_factory.hpp:77] Creating layer conv2_1/1/relu
I0324 22:44:31.000063 13548 net.cpp:100] Creating Layer conv2_1/1/relu
I0324 22:44:31.000066 13548 net.cpp:434] conv2_1/1/relu <- conv2_1/1
I0324 22:44:31.000069 13548 net.cpp:395] conv2_1/1/relu -> conv2_1/1 (in-place)
I0324 22:44:31.000190 13548 net.cpp:150] Setting up conv2_1/1/relu
I0324 22:44:31.000196 13548 net.cpp:157] Top shape: 1 24 216 360 (1866240)
I0324 22:44:31.000200 13548 net.cpp:165] Memory required for data: 323481684
I0324 22:44:31.000201 13548 layer_factory.hpp:77] Creating layer conv2_1/2/conv
I0324 22:44:31.000207 13548 net.cpp:100] Creating Layer conv2_1/2/conv
I0324 22:44:31.000211 13548 net.cpp:434] conv2_1/2/conv <- conv2_1/1
I0324 22:44:31.000216 13548 net.cpp:408] conv2_1/2/conv -> conv2_1/2/conv
I0324 22:44:31.001986 13548 net.cpp:150] Setting up conv2_1/2/conv
I0324 22:44:31.001996 13548 net.cpp:157] Top shape: 1 24 216 360 (1866240)
I0324 22:44:31.001998 13548 net.cpp:165] Memory required for data: 330946644
I0324 22:44:31.002003 13548 layer_factory.hpp:77] Creating layer conv2_1/2/bn
I0324 22:44:31.002008 13548 net.cpp:100] Creating Layer conv2_1/2/bn
I0324 22:44:31.002012 13548 net.cpp:434] conv2_1/2/bn <- conv2_1/2/conv
I0324 22:44:31.002017 13548 net.cpp:395] conv2_1/2/bn -> conv2_1/2/conv (in-place)
I0324 22:44:31.002420 13548 net.cpp:150] Setting up conv2_1/2/bn
I0324 22:44:31.002429 13548 net.cpp:157] Top shape: 1 24 216 360 (1866240)
I0324 22:44:31.002431 13548 net.cpp:165] Memory required for data: 338411604
I0324 22:44:31.002437 13548 layer_factory.hpp:77] Creating layer conv2_1/2/conv_conv2_1/2/bn_0_split
I0324 22:44:31.002444 13548 net.cpp:100] Creating Layer conv2_1/2/conv_conv2_1/2/bn_0_split
I0324 22:44:31.002445 13548 net.cpp:434] conv2_1/2/conv_conv2_1/2/bn_0_split <- conv2_1/2/conv
I0324 22:44:31.002450 13548 net.cpp:408] conv2_1/2/conv_conv2_1/2/bn_0_split -> conv2_1/2/conv_conv2_1/2/bn_0_split_0
I0324 22:44:31.002455 13548 net.cpp:408] conv2_1/2/conv_conv2_1/2/bn_0_split -> conv2_1/2/conv_conv2_1/2/bn_0_split_1
I0324 22:44:31.002480 13548 net.cpp:150] Setting up conv2_1/2/conv_conv2_1/2/bn_0_split
I0324 22:44:31.002485 13548 net.cpp:157] Top shape: 1 24 216 360 (1866240)
I0324 22:44:31.002488 13548 net.cpp:157] Top shape: 1 24 216 360 (1866240)
I0324 22:44:31.002490 13548 net.cpp:165] Memory required for data: 353341524
I0324 22:44:31.002492 13548 layer_factory.hpp:77] Creating layer conv2_1/2/neg
I0324 22:44:31.002497 13548 net.cpp:100] Creating Layer conv2_1/2/neg
I0324 22:44:31.002501 13548 net.cpp:434] conv2_1/2/neg <- conv2_1/2/conv_conv2_1/2/bn_0_split_0
I0324 22:44:31.002503 13548 net.cpp:408] conv2_1/2/neg -> conv2_1/2/neg
I0324 22:44:31.002519 13548 net.cpp:150] Setting up conv2_1/2/neg
I0324 22:44:31.002523 13548 net.cpp:157] Top shape: 1 24 216 360 (1866240)
I0324 22:44:31.002526 13548 net.cpp:165] Memory required for data: 360806484
I0324 22:44:31.002527 13548 layer_factory.hpp:77] Creating layer conv2_1/2/concat
I0324 22:44:31.002533 13548 net.cpp:100] Creating Layer conv2_1/2/concat
I0324 22:44:31.002535 13548 net.cpp:434] conv2_1/2/concat <- conv2_1/2/conv_conv2_1/2/bn_0_split_1
I0324 22:44:31.002539 13548 net.cpp:434] conv2_1/2/concat <- conv2_1/2/neg
I0324 22:44:31.002542 13548 net.cpp:408] conv2_1/2/concat -> conv2_1/2
I0324 22:44:31.002558 13548 net.cpp:150] Setting up conv2_1/2/concat
I0324 22:44:31.002562 13548 net.cpp:157] Top shape: 1 48 216 360 (3732480)
I0324 22:44:31.002564 13548 net.cpp:165] Memory required for data: 375736404
I0324 22:44:31.002566 13548 layer_factory.hpp:77] Creating layer conv2_1/2/scale
I0324 22:44:31.002571 13548 net.cpp:100] Creating Layer conv2_1/2/scale
I0324 22:44:31.002574 13548 net.cpp:434] conv2_1/2/scale <- conv2_1/2
I0324 22:44:31.002578 13548 net.cpp:395] conv2_1/2/scale -> conv2_1/2 (in-place)
I0324 22:44:31.002607 13548 layer_factory.hpp:77] Creating layer conv2_1/2/scale
I0324 22:44:31.002749 13548 net.cpp:150] Setting up conv2_1/2/scale
I0324 22:44:31.002755 13548 net.cpp:157] Top shape: 1 48 216 360 (3732480)
I0324 22:44:31.002758 13548 net.cpp:165] Memory required for data: 390666324
I0324 22:44:31.002763 13548 layer_factory.hpp:77] Creating layer conv2_1/2/relu
I0324 22:44:31.002769 13548 net.cpp:100] Creating Layer conv2_1/2/relu
I0324 22:44:31.002771 13548 net.cpp:434] conv2_1/2/relu <- conv2_1/2
I0324 22:44:31.002775 13548 net.cpp:395] conv2_1/2/relu -> conv2_1/2 (in-place)
I0324 22:44:31.002897 13548 net.cpp:150] Setting up conv2_1/2/relu
I0324 22:44:31.002903 13548 net.cpp:157] Top shape: 1 48 216 360 (3732480)
I0324 22:44:31.002907 13548 net.cpp:165] Memory required for data: 405596244
I0324 22:44:31.002908 13548 layer_factory.hpp:77] Creating layer conv2_1/3/conv
I0324 22:44:31.002914 13548 net.cpp:100] Creating Layer conv2_1/3/conv
I0324 22:44:31.002918 13548 net.cpp:434] conv2_1/3/conv <- conv2_1/2
I0324 22:44:31.002925 13548 net.cpp:408] conv2_1/3/conv -> conv2_1/3
I0324 22:44:31.004444 13548 net.cpp:150] Setting up conv2_1/3/conv
I0324 22:44:31.004456 13548 net.cpp:157] Top shape: 1 64 216 360 (4976640)
I0324 22:44:31.004458 13548 net.cpp:165] Memory required for data: 425502804
I0324 22:44:31.004462 13548 layer_factory.hpp:77] Creating layer conv2_1/3/bn
I0324 22:44:31.004467 13548 net.cpp:100] Creating Layer conv2_1/3/bn
I0324 22:44:31.004470 13548 net.cpp:434] conv2_1/3/bn <- conv2_1/3
I0324 22:44:31.004474 13548 net.cpp:395] conv2_1/3/bn -> conv2_1/3 (in-place)
I0324 22:44:31.004890 13548 net.cpp:150] Setting up conv2_1/3/bn
I0324 22:44:31.004899 13548 net.cpp:157] Top shape: 1 64 216 360 (4976640)
I0324 22:44:31.004901 13548 net.cpp:165] Memory required for data: 445409364
I0324 22:44:31.004907 13548 layer_factory.hpp:77] Creating layer conv2_1/3/bn_scale
I0324 22:44:31.004912 13548 net.cpp:100] Creating Layer conv2_1/3/bn_scale
I0324 22:44:31.004915 13548 net.cpp:434] conv2_1/3/bn_scale <- conv2_1/3
I0324 22:44:31.004920 13548 net.cpp:395] conv2_1/3/bn_scale -> conv2_1/3 (in-place)
I0324 22:44:31.004947 13548 layer_factory.hpp:77] Creating layer conv2_1/3/bn_scale
I0324 22:44:31.005089 13548 net.cpp:150] Setting up conv2_1/3/bn_scale
I0324 22:44:31.005095 13548 net.cpp:157] Top shape: 1 64 216 360 (4976640)
I0324 22:44:31.005097 13548 net.cpp:165] Memory required for data: 465315924
I0324 22:44:31.005101 13548 layer_factory.hpp:77] Creating layer conv2_1/proj
I0324 22:44:31.005108 13548 net.cpp:100] Creating Layer conv2_1/proj
I0324 22:44:31.005111 13548 net.cpp:434] conv2_1/proj <- pool1_pool1_0_split_1
I0324 22:44:31.005116 13548 net.cpp:408] conv2_1/proj -> conv2_1/proj
I0324 22:44:31.006934 13548 net.cpp:150] Setting up conv2_1/proj
I0324 22:44:31.006947 13548 net.cpp:157] Top shape: 1 64 216 360 (4976640)
I0324 22:44:31.006949 13548 net.cpp:165] Memory required for data: 485222484
I0324 22:44:31.006954 13548 layer_factory.hpp:77] Creating layer conv2_1/proj_bn
I0324 22:44:31.006960 13548 net.cpp:100] Creating Layer conv2_1/proj_bn
I0324 22:44:31.006963 13548 net.cpp:434] conv2_1/proj_bn <- conv2_1/proj
I0324 22:44:31.006968 13548 net.cpp:395] conv2_1/proj_bn -> conv2_1/proj (in-place)
I0324 22:44:31.007134 13548 net.cpp:150] Setting up conv2_1/proj_bn
I0324 22:44:31.007140 13548 net.cpp:157] Top shape: 1 64 216 360 (4976640)
I0324 22:44:31.007143 13548 net.cpp:165] Memory required for data: 505129044
I0324 22:44:31.007148 13548 layer_factory.hpp:77] Creating layer conv2_1/proj_bn_scale
I0324 22:44:31.007153 13548 net.cpp:100] Creating Layer conv2_1/proj_bn_scale
I0324 22:44:31.007155 13548 net.cpp:434] conv2_1/proj_bn_scale <- conv2_1/proj
I0324 22:44:31.007159 13548 net.cpp:395] conv2_1/proj_bn_scale -> conv2_1/proj (in-place)
I0324 22:44:31.007187 13548 layer_factory.hpp:77] Creating layer conv2_1/proj_bn_scale
I0324 22:44:31.007583 13548 net.cpp:150] Setting up conv2_1/proj_bn_scale
I0324 22:44:31.007592 13548 net.cpp:157] Top shape: 1 64 216 360 (4976640)
I0324 22:44:31.007596 13548 net.cpp:165] Memory required for data: 525035604
I0324 22:44:31.007601 13548 layer_factory.hpp:77] Creating layer conv2_1
I0324 22:44:31.007606 13548 net.cpp:100] Creating Layer conv2_1
I0324 22:44:31.007609 13548 net.cpp:434] conv2_1 <- conv2_1/3
I0324 22:44:31.007613 13548 net.cpp:434] conv2_1 <- conv2_1/proj
I0324 22:44:31.007617 13548 net.cpp:408] conv2_1 -> conv2_1
I0324 22:44:31.007637 13548 net.cpp:150] Setting up conv2_1
I0324 22:44:31.007642 13548 net.cpp:157] Top shape: 1 64 216 360 (4976640)
I0324 22:44:31.007644 13548 net.cpp:165] Memory required for data: 544942164
I0324 22:44:31.007647 13548 layer_factory.hpp:77] Creating layer conv2_1_conv2_1_0_split
I0324 22:44:31.007650 13548 net.cpp:100] Creating Layer conv2_1_conv2_1_0_split
I0324 22:44:31.007652 13548 net.cpp:434] conv2_1_conv2_1_0_split <- conv2_1
I0324 22:44:31.007658 13548 net.cpp:408] conv2_1_conv2_1_0_split -> conv2_1_conv2_1_0_split_0
I0324 22:44:31.007663 13548 net.cpp:408] conv2_1_conv2_1_0_split -> conv2_1_conv2_1_0_split_1
I0324 22:44:31.007689 13548 net.cpp:150] Setting up conv2_1_conv2_1_0_split
I0324 22:44:31.007694 13548 net.cpp:157] Top shape: 1 64 216 360 (4976640)
I0324 22:44:31.007697 13548 net.cpp:157] Top shape: 1 64 216 360 (4976640)
I0324 22:44:31.007699 13548 net.cpp:165] Memory required for data: 584755284
I0324 22:44:31.007701 13548 layer_factory.hpp:77] Creating layer conv2_2/1/conv
I0324 22:44:31.007710 13548 net.cpp:100] Creating Layer conv2_2/1/conv
I0324 22:44:31.007714 13548 net.cpp:434] conv2_2/1/conv <- conv2_1_conv2_1_0_split_0
I0324 22:44:31.007719 13548 net.cpp:408] conv2_2/1/conv -> conv2_2/1
I0324 22:44:31.009240 13548 net.cpp:150] Setting up conv2_2/1/conv
I0324 22:44:31.009250 13548 net.cpp:157] Top shape: 1 24 216 360 (1866240)
I0324 22:44:31.009253 13548 net.cpp:165] Memory required for data: 592220244
I0324 22:44:31.009258 13548 layer_factory.hpp:77] Creating layer conv2_2/1/bn
I0324 22:44:31.009263 13548 net.cpp:100] Creating Layer conv2_2/1/bn
I0324 22:44:31.009266 13548 net.cpp:434] conv2_2/1/bn <- conv2_2/1
I0324 22:44:31.009270 13548 net.cpp:395] conv2_2/1/bn -> conv2_2/1 (in-place)
I0324 22:44:31.009438 13548 net.cpp:150] Setting up conv2_2/1/bn
I0324 22:44:31.009443 13548 net.cpp:157] Top shape: 1 24 216 360 (1866240)
I0324 22:44:31.009446 13548 net.cpp:165] Memory required for data: 599685204
I0324 22:44:31.009454 13548 layer_factory.hpp:77] Creating layer conv2_2/1/bn_scale
I0324 22:44:31.009460 13548 net.cpp:100] Creating Layer conv2_2/1/bn_scale
I0324 22:44:31.009462 13548 net.cpp:434] conv2_2/1/bn_scale <- conv2_2/1
I0324 22:44:31.009467 13548 net.cpp:395] conv2_2/1/bn_scale -> conv2_2/1 (in-place)
I0324 22:44:31.009495 13548 layer_factory.hpp:77] Creating layer conv2_2/1/bn_scale
I0324 22:44:31.009892 13548 net.cpp:150] Setting up conv2_2/1/bn_scale
I0324 22:44:31.009902 13548 net.cpp:157] Top shape: 1 24 216 360 (1866240)
I0324 22:44:31.009903 13548 net.cpp:165] Memory required for data: 607150164
I0324 22:44:31.009908 13548 layer_factory.hpp:77] Creating layer conv2_2/1/relu
I0324 22:44:31.009914 13548 net.cpp:100] Creating Layer conv2_2/1/relu
I0324 22:44:31.009917 13548 net.cpp:434] conv2_2/1/relu <- conv2_2/1
I0324 22:44:31.009922 13548 net.cpp:395] conv2_2/1/relu -> conv2_2/1 (in-place)
I0324 22:44:31.010051 13548 net.cpp:150] Setting up conv2_2/1/relu
I0324 22:44:31.010057 13548 net.cpp:157] Top shape: 1 24 216 360 (1866240)
I0324 22:44:31.010059 13548 net.cpp:165] Memory required for data: 614615124
I0324 22:44:31.010062 13548 layer_factory.hpp:77] Creating layer conv2_2/2/conv
I0324 22:44:31.010068 13548 net.cpp:100] Creating Layer conv2_2/2/conv
I0324 22:44:31.010071 13548 net.cpp:434] conv2_2/2/conv <- conv2_2/1
I0324 22:44:31.010076 13548 net.cpp:408] conv2_2/2/conv -> conv2_2/2/conv
I0324 22:44:31.011610 13548 net.cpp:150] Setting up conv2_2/2/conv
I0324 22:44:31.011620 13548 net.cpp:157] Top shape: 1 24 216 360 (1866240)
I0324 22:44:31.011622 13548 net.cpp:165] Memory required for data: 622080084
I0324 22:44:31.011626 13548 layer_factory.hpp:77] Creating layer conv2_2/2/bn
I0324 22:44:31.011632 13548 net.cpp:100] Creating Layer conv2_2/2/bn
I0324 22:44:31.011636 13548 net.cpp:434] conv2_2/2/bn <- conv2_2/2/conv
I0324 22:44:31.011639 13548 net.cpp:395] conv2_2/2/bn -> conv2_2/2/conv (in-place)
I0324 22:44:31.011811 13548 net.cpp:150] Setting up conv2_2/2/bn
I0324 22:44:31.011816 13548 net.cpp:157] Top shape: 1 24 216 360 (1866240)
I0324 22:44:31.011818 13548 net.cpp:165] Memory required for data: 629545044
I0324 22:44:31.011823 13548 layer_factory.hpp:77] Creating layer conv2_2/2/conv_conv2_2/2/bn_0_split
I0324 22:44:31.011827 13548 net.cpp:100] Creating Layer conv2_2/2/conv_conv2_2/2/bn_0_split
I0324 22:44:31.011831 13548 net.cpp:434] conv2_2/2/conv_conv2_2/2/bn_0_split <- conv2_2/2/conv
I0324 22:44:31.011834 13548 net.cpp:408] conv2_2/2/conv_conv2_2/2/bn_0_split -> conv2_2/2/conv_conv2_2/2/bn_0_split_0
I0324 22:44:31.011839 13548 net.cpp:408] conv2_2/2/conv_conv2_2/2/bn_0_split -> conv2_2/2/conv_conv2_2/2/bn_0_split_1
I0324 22:44:31.011865 13548 net.cpp:150] Setting up conv2_2/2/conv_conv2_2/2/bn_0_split
I0324 22:44:31.011873 13548 net.cpp:157] Top shape: 1 24 216 360 (1866240)
I0324 22:44:31.011875 13548 net.cpp:157] Top shape: 1 24 216 360 (1866240)
I0324 22:44:31.011878 13548 net.cpp:165] Memory required for data: 644474964
I0324 22:44:31.011880 13548 layer_factory.hpp:77] Creating layer conv2_2/2/neg
I0324 22:44:31.011886 13548 net.cpp:100] Creating Layer conv2_2/2/neg
I0324 22:44:31.011888 13548 net.cpp:434] conv2_2/2/neg <- conv2_2/2/conv_conv2_2/2/bn_0_split_0
I0324 22:44:31.011893 13548 net.cpp:408] conv2_2/2/neg -> conv2_2/2/neg
I0324 22:44:31.011914 13548 net.cpp:150] Setting up conv2_2/2/neg
I0324 22:44:31.011919 13548 net.cpp:157] Top shape: 1 24 216 360 (1866240)
I0324 22:44:31.011920 13548 net.cpp:165] Memory required for data: 651939924
I0324 22:44:31.011924 13548 layer_factory.hpp:77] Creating layer conv2_2/2/concat
I0324 22:44:31.011927 13548 net.cpp:100] Creating Layer conv2_2/2/concat
I0324 22:44:31.011929 13548 net.cpp:434] conv2_2/2/concat <- conv2_2/2/conv_conv2_2/2/bn_0_split_1
I0324 22:44:31.011934 13548 net.cpp:434] conv2_2/2/concat <- conv2_2/2/neg
I0324 22:44:31.011937 13548 net.cpp:408] conv2_2/2/concat -> conv2_2/2
I0324 22:44:31.011953 13548 net.cpp:150] Setting up conv2_2/2/concat
I0324 22:44:31.011957 13548 net.cpp:157] Top shape: 1 48 216 360 (3732480)
I0324 22:44:31.011960 13548 net.cpp:165] Memory required for data: 666869844
I0324 22:44:31.011961 13548 layer_factory.hpp:77] Creating layer conv2_2/2/scale
I0324 22:44:31.011966 13548 net.cpp:100] Creating Layer conv2_2/2/scale
I0324 22:44:31.011970 13548 net.cpp:434] conv2_2/2/scale <- conv2_2/2
I0324 22:44:31.011973 13548 net.cpp:395] conv2_2/2/scale -> conv2_2/2 (in-place)
I0324 22:44:31.012002 13548 layer_factory.hpp:77] Creating layer conv2_2/2/scale
I0324 22:44:31.012405 13548 net.cpp:150] Setting up conv2_2/2/scale
I0324 22:44:31.012414 13548 net.cpp:157] Top shape: 1 48 216 360 (3732480)
I0324 22:44:31.012418 13548 net.cpp:165] Memory required for data: 681799764
I0324 22:44:31.012423 13548 layer_factory.hpp:77] Creating layer conv2_2/2/relu
I0324 22:44:31.012426 13548 net.cpp:100] Creating Layer conv2_2/2/relu
I0324 22:44:31.012429 13548 net.cpp:434] conv2_2/2/relu <- conv2_2/2
I0324 22:44:31.012434 13548 net.cpp:395] conv2_2/2/relu -> conv2_2/2 (in-place)
I0324 22:44:31.012904 13548 net.cpp:150] Setting up conv2_2/2/relu
I0324 22:44:31.012913 13548 net.cpp:157] Top shape: 1 48 216 360 (3732480)
I0324 22:44:31.012917 13548 net.cpp:165] Memory required for data: 696729684
I0324 22:44:31.012919 13548 layer_factory.hpp:77] Creating layer conv2_2/3/conv
I0324 22:44:31.012926 13548 net.cpp:100] Creating Layer conv2_2/3/conv
I0324 22:44:31.012929 13548 net.cpp:434] conv2_2/3/conv <- conv2_2/2
I0324 22:44:31.012933 13548 net.cpp:408] conv2_2/3/conv -> conv2_2/3
I0324 22:44:31.014123 13548 net.cpp:150] Setting up conv2_2/3/conv
I0324 22:44:31.014132 13548 net.cpp:157] Top shape: 1 64 216 360 (4976640)
I0324 22:44:31.014135 13548 net.cpp:165] Memory required for data: 716636244
I0324 22:44:31.014139 13548 layer_factory.hpp:77] Creating layer conv2_2/3/bn
I0324 22:44:31.014145 13548 net.cpp:100] Creating Layer conv2_2/3/bn
I0324 22:44:31.014148 13548 net.cpp:434] conv2_2/3/bn <- conv2_2/3
I0324 22:44:31.014153 13548 net.cpp:395] conv2_2/3/bn -> conv2_2/3 (in-place)
I0324 22:44:31.014322 13548 net.cpp:150] Setting up conv2_2/3/bn
I0324 22:44:31.014328 13548 net.cpp:157] Top shape: 1 64 216 360 (4976640)
I0324 22:44:31.014330 13548 net.cpp:165] Memory required for data: 736542804
I0324 22:44:31.014335 13548 layer_factory.hpp:77] Creating layer conv2_2/3/bn_scale
I0324 22:44:31.014341 13548 net.cpp:100] Creating Layer conv2_2/3/bn_scale
I0324 22:44:31.014344 13548 net.cpp:434] conv2_2/3/bn_scale <- conv2_2/3
I0324 22:44:31.014348 13548 net.cpp:395] conv2_2/3/bn_scale -> conv2_2/3 (in-place)
I0324 22:44:31.014375 13548 layer_factory.hpp:77] Creating layer conv2_2/3/bn_scale
I0324 22:44:31.014778 13548 net.cpp:150] Setting up conv2_2/3/bn_scale
I0324 22:44:31.014787 13548 net.cpp:157] Top shape: 1 64 216 360 (4976640)
I0324 22:44:31.014792 13548 net.cpp:165] Memory required for data: 756449364
I0324 22:44:31.014797 13548 layer_factory.hpp:77] Creating layer conv2_2/input
I0324 22:44:31.014803 13548 net.cpp:100] Creating Layer conv2_2/input
I0324 22:44:31.014806 13548 net.cpp:434] conv2_2/input <- conv2_1_conv2_1_0_split_1
I0324 22:44:31.014811 13548 net.cpp:408] conv2_2/input -> conv2_2/input
I0324 22:44:31.014832 13548 net.cpp:150] Setting up conv2_2/input
I0324 22:44:31.014837 13548 net.cpp:157] Top shape: 1 64 216 360 (4976640)
I0324 22:44:31.014838 13548 net.cpp:165] Memory required for data: 776355924
I0324 22:44:31.014840 13548 layer_factory.hpp:77] Creating layer conv2_2
I0324 22:44:31.014845 13548 net.cpp:100] Creating Layer conv2_2
I0324 22:44:31.014847 13548 net.cpp:434] conv2_2 <- conv2_2/3
I0324 22:44:31.014850 13548 net.cpp:434] conv2_2 <- conv2_2/input
I0324 22:44:31.014854 13548 net.cpp:408] conv2_2 -> conv2_2
I0324 22:44:31.014873 13548 net.cpp:150] Setting up conv2_2
I0324 22:44:31.014878 13548 net.cpp:157] Top shape: 1 64 216 360 (4976640)
I0324 22:44:31.014879 13548 net.cpp:165] Memory required for data: 796262484
I0324 22:44:31.014881 13548 layer_factory.hpp:77] Creating layer conv2_2_conv2_2_0_split
I0324 22:44:31.014885 13548 net.cpp:100] Creating Layer conv2_2_conv2_2_0_split
I0324 22:44:31.014889 13548 net.cpp:434] conv2_2_conv2_2_0_split <- conv2_2
I0324 22:44:31.014891 13548 net.cpp:408] conv2_2_conv2_2_0_split -> conv2_2_conv2_2_0_split_0
I0324 22:44:31.014896 13548 net.cpp:408] conv2_2_conv2_2_0_split -> conv2_2_conv2_2_0_split_1
I0324 22:44:31.014919 13548 net.cpp:150] Setting up conv2_2_conv2_2_0_split
I0324 22:44:31.014924 13548 net.cpp:157] Top shape: 1 64 216 360 (4976640)
I0324 22:44:31.014926 13548 net.cpp:157] Top shape: 1 64 216 360 (4976640)
I0324 22:44:31.014928 13548 net.cpp:165] Memory required for data: 836075604
I0324 22:44:31.014931 13548 layer_factory.hpp:77] Creating layer conv2_3/1/conv
I0324 22:44:31.014937 13548 net.cpp:100] Creating Layer conv2_3/1/conv
I0324 22:44:31.014940 13548 net.cpp:434] conv2_3/1/conv <- conv2_2_conv2_2_0_split_0
I0324 22:44:31.014945 13548 net.cpp:408] conv2_3/1/conv -> conv2_3/1
I0324 22:44:31.016783 13548 net.cpp:150] Setting up conv2_3/1/conv
I0324 22:44:31.016794 13548 net.cpp:157] Top shape: 1 24 216 360 (1866240)
I0324 22:44:31.016798 13548 net.cpp:165] Memory required for data: 843540564
I0324 22:44:31.016801 13548 layer_factory.hpp:77] Creating layer conv2_3/1/bn
I0324 22:44:31.016808 13548 net.cpp:100] Creating Layer conv2_3/1/bn
I0324 22:44:31.016810 13548 net.cpp:434] conv2_3/1/bn <- conv2_3/1
I0324 22:44:31.016814 13548 net.cpp:395] conv2_3/1/bn -> conv2_3/1 (in-place)
I0324 22:44:31.016988 13548 net.cpp:150] Setting up conv2_3/1/bn
I0324 22:44:31.016993 13548 net.cpp:157] Top shape: 1 24 216 360 (1866240)
I0324 22:44:31.016996 13548 net.cpp:165] Memory required for data: 851005524
I0324 22:44:31.017001 13548 layer_factory.hpp:77] Creating layer conv2_3/1/bn_scale
I0324 22:44:31.017005 13548 net.cpp:100] Creating Layer conv2_3/1/bn_scale
I0324 22:44:31.017009 13548 net.cpp:434] conv2_3/1/bn_scale <- conv2_3/1
I0324 22:44:31.017012 13548 net.cpp:395] conv2_3/1/bn_scale -> conv2_3/1 (in-place)
I0324 22:44:31.017040 13548 layer_factory.hpp:77] Creating layer conv2_3/1/bn_scale
I0324 22:44:31.017443 13548 net.cpp:150] Setting up conv2_3/1/bn_scale
I0324 22:44:31.017452 13548 net.cpp:157] Top shape: 1 24 216 360 (1866240)
I0324 22:44:31.017454 13548 net.cpp:165] Memory required for data: 858470484
I0324 22:44:31.017459 13548 layer_factory.hpp:77] Creating layer conv2_3/1/relu
I0324 22:44:31.017464 13548 net.cpp:100] Creating Layer conv2_3/1/relu
I0324 22:44:31.017467 13548 net.cpp:434] conv2_3/1/relu <- conv2_3/1
I0324 22:44:31.017472 13548 net.cpp:395] conv2_3/1/relu -> conv2_3/1 (in-place)
I0324 22:44:31.017940 13548 net.cpp:150] Setting up conv2_3/1/relu
I0324 22:44:31.017948 13548 net.cpp:157] Top shape: 1 24 216 360 (1866240)
I0324 22:44:31.017951 13548 net.cpp:165] Memory required for data: 865935444
I0324 22:44:31.017953 13548 layer_factory.hpp:77] Creating layer conv2_3/2/conv
I0324 22:44:31.017962 13548 net.cpp:100] Creating Layer conv2_3/2/conv
I0324 22:44:31.017966 13548 net.cpp:434] conv2_3/2/conv <- conv2_3/1
I0324 22:44:31.017971 13548 net.cpp:408] conv2_3/2/conv -> conv2_3/2/conv
I0324 22:44:31.019505 13548 net.cpp:150] Setting up conv2_3/2/conv
I0324 22:44:31.019515 13548 net.cpp:157] Top shape: 1 24 216 360 (1866240)
I0324 22:44:31.019517 13548 net.cpp:165] Memory required for data: 873400404
I0324 22:44:31.019521 13548 layer_factory.hpp:77] Creating layer conv2_3/2/bn
I0324 22:44:31.019527 13548 net.cpp:100] Creating Layer conv2_3/2/bn
I0324 22:44:31.019531 13548 net.cpp:434] conv2_3/2/bn <- conv2_3/2/conv
I0324 22:44:31.019534 13548 net.cpp:395] conv2_3/2/bn -> conv2_3/2/conv (in-place)
I0324 22:44:31.019712 13548 net.cpp:150] Setting up conv2_3/2/bn
I0324 22:44:31.019718 13548 net.cpp:157] Top shape: 1 24 216 360 (1866240)
I0324 22:44:31.019721 13548 net.cpp:165] Memory required for data: 880865364
I0324 22:44:31.019726 13548 layer_factory.hpp:77] Creating layer conv2_3/2/conv_conv2_3/2/bn_0_split
I0324 22:44:31.019731 13548 net.cpp:100] Creating Layer conv2_3/2/conv_conv2_3/2/bn_0_split
I0324 22:44:31.019732 13548 net.cpp:434] conv2_3/2/conv_conv2_3/2/bn_0_split <- conv2_3/2/conv
I0324 22:44:31.019737 13548 net.cpp:408] conv2_3/2/conv_conv2_3/2/bn_0_split -> conv2_3/2/conv_conv2_3/2/bn_0_split_0
I0324 22:44:31.019742 13548 net.cpp:408] conv2_3/2/conv_conv2_3/2/bn_0_split -> conv2_3/2/conv_conv2_3/2/bn_0_split_1
I0324 22:44:31.019768 13548 net.cpp:150] Setting up conv2_3/2/conv_conv2_3/2/bn_0_split
I0324 22:44:31.019773 13548 net.cpp:157] Top shape: 1 24 216 360 (1866240)
I0324 22:44:31.019776 13548 net.cpp:157] Top shape: 1 24 216 360 (1866240)
I0324 22:44:31.019778 13548 net.cpp:165] Memory required for data: 895795284
I0324 22:44:31.019780 13548 layer_factory.hpp:77] Creating layer conv2_3/2/neg
I0324 22:44:31.019784 13548 net.cpp:100] Creating Layer conv2_3/2/neg
I0324 22:44:31.019788 13548 net.cpp:434] conv2_3/2/neg <- conv2_3/2/conv_conv2_3/2/bn_0_split_0
I0324 22:44:31.019793 13548 net.cpp:408] conv2_3/2/neg -> conv2_3/2/neg
I0324 22:44:31.019809 13548 net.cpp:150] Setting up conv2_3/2/neg
I0324 22:44:31.019812 13548 net.cpp:157] Top shape: 1 24 216 360 (1866240)
I0324 22:44:31.019814 13548 net.cpp:165] Memory required for data: 903260244
I0324 22:44:31.019816 13548 layer_factory.hpp:77] Creating layer conv2_3/2/concat
I0324 22:44:31.019821 13548 net.cpp:100] Creating Layer conv2_3/2/concat
I0324 22:44:31.019824 13548 net.cpp:434] conv2_3/2/concat <- conv2_3/2/conv_conv2_3/2/bn_0_split_1
I0324 22:44:31.019827 13548 net.cpp:434] conv2_3/2/concat <- conv2_3/2/neg
I0324 22:44:31.019831 13548 net.cpp:408] conv2_3/2/concat -> conv2_3/2
I0324 22:44:31.019847 13548 net.cpp:150] Setting up conv2_3/2/concat
I0324 22:44:31.019851 13548 net.cpp:157] Top shape: 1 48 216 360 (3732480)
I0324 22:44:31.019853 13548 net.cpp:165] Memory required for data: 918190164
I0324 22:44:31.019855 13548 layer_factory.hpp:77] Creating layer conv2_3/2/scale
I0324 22:44:31.019861 13548 net.cpp:100] Creating Layer conv2_3/2/scale
I0324 22:44:31.019863 13548 net.cpp:434] conv2_3/2/scale <- conv2_3/2
I0324 22:44:31.019868 13548 net.cpp:395] conv2_3/2/scale -> conv2_3/2 (in-place)
I0324 22:44:31.019896 13548 layer_factory.hpp:77] Creating layer conv2_3/2/scale
I0324 22:44:31.020298 13548 net.cpp:150] Setting up conv2_3/2/scale
I0324 22:44:31.020308 13548 net.cpp:157] Top shape: 1 48 216 360 (3732480)
I0324 22:44:31.020309 13548 net.cpp:165] Memory required for data: 933120084
I0324 22:44:31.020314 13548 layer_factory.hpp:77] Creating layer conv2_3/2/relu
I0324 22:44:31.020319 13548 net.cpp:100] Creating Layer conv2_3/2/relu
I0324 22:44:31.020323 13548 net.cpp:434] conv2_3/2/relu <- conv2_3/2
I0324 22:44:31.020325 13548 net.cpp:395] conv2_3/2/relu -> conv2_3/2 (in-place)
I0324 22:44:31.020458 13548 net.cpp:150] Setting up conv2_3/2/relu
I0324 22:44:31.020467 13548 net.cpp:157] Top shape: 1 48 216 360 (3732480)
I0324 22:44:31.020468 13548 net.cpp:165] Memory required for data: 948050004
I0324 22:44:31.020473 13548 layer_factory.hpp:77] Creating layer conv2_3/3/conv
I0324 22:44:31.020480 13548 net.cpp:100] Creating Layer conv2_3/3/conv
I0324 22:44:31.020483 13548 net.cpp:434] conv2_3/3/conv <- conv2_3/2
I0324 22:44:31.020488 13548 net.cpp:408] conv2_3/3/conv -> conv2_3/3
I0324 22:44:31.022027 13548 net.cpp:150] Setting up conv2_3/3/conv
I0324 22:44:31.022037 13548 net.cpp:157] Top shape: 1 64 216 360 (4976640)
I0324 22:44:31.022040 13548 net.cpp:165] Memory required for data: 967956564
I0324 22:44:31.022044 13548 layer_factory.hpp:77] Creating layer conv2_3/3/bn
I0324 22:44:31.022049 13548 net.cpp:100] Creating Layer conv2_3/3/bn
I0324 22:44:31.022053 13548 net.cpp:434] conv2_3/3/bn <- conv2_3/3
I0324 22:44:31.022058 13548 net.cpp:395] conv2_3/3/bn -> conv2_3/3 (in-place)
I0324 22:44:31.022235 13548 net.cpp:150] Setting up conv2_3/3/bn
I0324 22:44:31.022240 13548 net.cpp:157] Top shape: 1 64 216 360 (4976640)
I0324 22:44:31.022243 13548 net.cpp:165] Memory required for data: 987863124
I0324 22:44:31.022254 13548 layer_factory.hpp:77] Creating layer conv2_3/3/bn_scale
I0324 22:44:31.022260 13548 net.cpp:100] Creating Layer conv2_3/3/bn_scale
I0324 22:44:31.022264 13548 net.cpp:434] conv2_3/3/bn_scale <- conv2_3/3
I0324 22:44:31.022267 13548 net.cpp:395] conv2_3/3/bn_scale -> conv2_3/3 (in-place)
I0324 22:44:31.022297 13548 layer_factory.hpp:77] Creating layer conv2_3/3/bn_scale
I0324 22:44:31.022697 13548 net.cpp:150] Setting up conv2_3/3/bn_scale
I0324 22:44:31.022706 13548 net.cpp:157] Top shape: 1 64 216 360 (4976640)
I0324 22:44:31.022709 13548 net.cpp:165] Memory required for data: 1007769684
I0324 22:44:31.022713 13548 layer_factory.hpp:77] Creating layer conv2_3/input
I0324 22:44:31.022718 13548 net.cpp:100] Creating Layer conv2_3/input
I0324 22:44:31.022722 13548 net.cpp:434] conv2_3/input <- conv2_2_conv2_2_0_split_1
I0324 22:44:31.022727 13548 net.cpp:408] conv2_3/input -> conv2_3/input
I0324 22:44:31.022748 13548 net.cpp:150] Setting up conv2_3/input
I0324 22:44:31.022753 13548 net.cpp:157] Top shape: 1 64 216 360 (4976640)
I0324 22:44:31.022755 13548 net.cpp:165] Memory required for data: 1027676244
I0324 22:44:31.022758 13548 layer_factory.hpp:77] Creating layer conv2_3
I0324 22:44:31.022768 13548 net.cpp:100] Creating Layer conv2_3
I0324 22:44:31.022771 13548 net.cpp:434] conv2_3 <- conv2_3/3
I0324 22:44:31.022774 13548 net.cpp:434] conv2_3 <- conv2_3/input
I0324 22:44:31.022778 13548 net.cpp:408] conv2_3 -> conv2_3
I0324 22:44:31.022796 13548 net.cpp:150] Setting up conv2_3
I0324 22:44:31.022800 13548 net.cpp:157] Top shape: 1 64 216 360 (4976640)
I0324 22:44:31.022802 13548 net.cpp:165] Memory required for data: 1047582804
I0324 22:44:31.022805 13548 layer_factory.hpp:77] Creating layer conv2_3_conv2_3_0_split
I0324 22:44:31.022809 13548 net.cpp:100] Creating Layer conv2_3_conv2_3_0_split
I0324 22:44:31.022811 13548 net.cpp:434] conv2_3_conv2_3_0_split <- conv2_3
I0324 22:44:31.022815 13548 net.cpp:408] conv2_3_conv2_3_0_split -> conv2_3_conv2_3_0_split_0
I0324 22:44:31.022820 13548 net.cpp:408] conv2_3_conv2_3_0_split -> conv2_3_conv2_3_0_split_1
I0324 22:44:31.022846 13548 net.cpp:150] Setting up conv2_3_conv2_3_0_split
I0324 22:44:31.022850 13548 net.cpp:157] Top shape: 1 64 216 360 (4976640)
I0324 22:44:31.022853 13548 net.cpp:157] Top shape: 1 64 216 360 (4976640)
I0324 22:44:31.022855 13548 net.cpp:165] Memory required for data: 1087395924
I0324 22:44:31.022857 13548 layer_factory.hpp:77] Creating layer conv3_1/1/conv
I0324 22:44:31.022864 13548 net.cpp:100] Creating Layer conv3_1/1/conv
I0324 22:44:31.022867 13548 net.cpp:434] conv3_1/1/conv <- conv2_3_conv2_3_0_split_0
I0324 22:44:31.022871 13548 net.cpp:408] conv3_1/1/conv -> conv3_1/1
I0324 22:44:31.024416 13548 net.cpp:150] Setting up conv3_1/1/conv
I0324 22:44:31.024426 13548 net.cpp:157] Top shape: 1 48 108 180 (933120)
I0324 22:44:31.024428 13548 net.cpp:165] Memory required for data: 1091128404
I0324 22:44:31.024433 13548 layer_factory.hpp:77] Creating layer conv3_1/1/bn
I0324 22:44:31.024438 13548 net.cpp:100] Creating Layer conv3_1/1/bn
I0324 22:44:31.024444 13548 net.cpp:434] conv3_1/1/bn <- conv3_1/1
I0324 22:44:31.024449 13548 net.cpp:395] conv3_1/1/bn -> conv3_1/1 (in-place)
I0324 22:44:31.024857 13548 net.cpp:150] Setting up conv3_1/1/bn
I0324 22:44:31.024865 13548 net.cpp:157] Top shape: 1 48 108 180 (933120)
I0324 22:44:31.024868 13548 net.cpp:165] Memory required for data: 1094860884
I0324 22:44:31.024873 13548 layer_factory.hpp:77] Creating layer conv3_1/1/bn_scale
I0324 22:44:31.024878 13548 net.cpp:100] Creating Layer conv3_1/1/bn_scale
I0324 22:44:31.024881 13548 net.cpp:434] conv3_1/1/bn_scale <- conv3_1/1
I0324 22:44:31.024885 13548 net.cpp:395] conv3_1/1/bn_scale -> conv3_1/1 (in-place)
I0324 22:44:31.024917 13548 layer_factory.hpp:77] Creating layer conv3_1/1/bn_scale
I0324 22:44:31.025022 13548 net.cpp:150] Setting up conv3_1/1/bn_scale
I0324 22:44:31.025028 13548 net.cpp:157] Top shape: 1 48 108 180 (933120)
I0324 22:44:31.025032 13548 net.cpp:165] Memory required for data: 1098593364
I0324 22:44:31.025035 13548 layer_factory.hpp:77] Creating layer conv3_1/1/relu
I0324 22:44:31.025039 13548 net.cpp:100] Creating Layer conv3_1/1/relu
I0324 22:44:31.025043 13548 net.cpp:434] conv3_1/1/relu <- conv3_1/1
I0324 22:44:31.025046 13548 net.cpp:395] conv3_1/1/relu -> conv3_1/1 (in-place)
I0324 22:44:31.025173 13548 net.cpp:150] Setting up conv3_1/1/relu
I0324 22:44:31.025182 13548 net.cpp:157] Top shape: 1 48 108 180 (933120)
I0324 22:44:31.025183 13548 net.cpp:165] Memory required for data: 1102325844
I0324 22:44:31.025187 13548 layer_factory.hpp:77] Creating layer conv3_1/2/conv
I0324 22:44:31.025192 13548 net.cpp:100] Creating Layer conv3_1/2/conv
I0324 22:44:31.025194 13548 net.cpp:434] conv3_1/2/conv <- conv3_1/1
I0324 22:44:31.025199 13548 net.cpp:408] conv3_1/2/conv -> conv3_1/2/conv
I0324 22:44:31.026484 13548 net.cpp:150] Setting up conv3_1/2/conv
I0324 22:44:31.026492 13548 net.cpp:157] Top shape: 1 48 108 180 (933120)
I0324 22:44:31.026495 13548 net.cpp:165] Memory required for data: 1106058324
I0324 22:44:31.026499 13548 layer_factory.hpp:77] Creating layer conv3_1/2/bn
I0324 22:44:31.026504 13548 net.cpp:100] Creating Layer conv3_1/2/bn
I0324 22:44:31.026507 13548 net.cpp:434] conv3_1/2/bn <- conv3_1/2/conv
I0324 22:44:31.026512 13548 net.cpp:395] conv3_1/2/bn -> conv3_1/2/conv (in-place)
I0324 22:44:31.026664 13548 net.cpp:150] Setting up conv3_1/2/bn
I0324 22:44:31.026669 13548 net.cpp:157] Top shape: 1 48 108 180 (933120)
I0324 22:44:31.026671 13548 net.cpp:165] Memory required for data: 1109790804
I0324 22:44:31.026676 13548 layer_factory.hpp:77] Creating layer conv3_1/2/conv_conv3_1/2/bn_0_split
I0324 22:44:31.026680 13548 net.cpp:100] Creating Layer conv3_1/2/conv_conv3_1/2/bn_0_split
I0324 22:44:31.026684 13548 net.cpp:434] conv3_1/2/conv_conv3_1/2/bn_0_split <- conv3_1/2/conv
I0324 22:44:31.026687 13548 net.cpp:408] conv3_1/2/conv_conv3_1/2/bn_0_split -> conv3_1/2/conv_conv3_1/2/bn_0_split_0
I0324 22:44:31.026692 13548 net.cpp:408] conv3_1/2/conv_conv3_1/2/bn_0_split -> conv3_1/2/conv_conv3_1/2/bn_0_split_1
I0324 22:44:31.026718 13548 net.cpp:150] Setting up conv3_1/2/conv_conv3_1/2/bn_0_split
I0324 22:44:31.026723 13548 net.cpp:157] Top shape: 1 48 108 180 (933120)
I0324 22:44:31.026726 13548 net.cpp:157] Top shape: 1 48 108 180 (933120)
I0324 22:44:31.026728 13548 net.cpp:165] Memory required for data: 1117255764
I0324 22:44:31.026731 13548 layer_factory.hpp:77] Creating layer conv3_1/2/neg
I0324 22:44:31.026736 13548 net.cpp:100] Creating Layer conv3_1/2/neg
I0324 22:44:31.026737 13548 net.cpp:434] conv3_1/2/neg <- conv3_1/2/conv_conv3_1/2/bn_0_split_0
I0324 22:44:31.026742 13548 net.cpp:408] conv3_1/2/neg -> conv3_1/2/neg
I0324 22:44:31.026759 13548 net.cpp:150] Setting up conv3_1/2/neg
I0324 22:44:31.026763 13548 net.cpp:157] Top shape: 1 48 108 180 (933120)
I0324 22:44:31.026767 13548 net.cpp:165] Memory required for data: 1120988244
I0324 22:44:31.026768 13548 layer_factory.hpp:77] Creating layer conv3_1/2/concat
I0324 22:44:31.026772 13548 net.cpp:100] Creating Layer conv3_1/2/concat
I0324 22:44:31.026777 13548 net.cpp:434] conv3_1/2/concat <- conv3_1/2/conv_conv3_1/2/bn_0_split_1
I0324 22:44:31.026782 13548 net.cpp:434] conv3_1/2/concat <- conv3_1/2/neg
I0324 22:44:31.026785 13548 net.cpp:408] conv3_1/2/concat -> conv3_1/2
I0324 22:44:31.026803 13548 net.cpp:150] Setting up conv3_1/2/concat
I0324 22:44:31.026808 13548 net.cpp:157] Top shape: 1 96 108 180 (1866240)
I0324 22:44:31.026809 13548 net.cpp:165] Memory required for data: 1128453204
I0324 22:44:31.026813 13548 layer_factory.hpp:77] Creating layer conv3_1/2/scale
I0324 22:44:31.026816 13548 net.cpp:100] Creating Layer conv3_1/2/scale
I0324 22:44:31.026818 13548 net.cpp:434] conv3_1/2/scale <- conv3_1/2
I0324 22:44:31.026823 13548 net.cpp:395] conv3_1/2/scale -> conv3_1/2 (in-place)
I0324 22:44:31.026854 13548 layer_factory.hpp:77] Creating layer conv3_1/2/scale
I0324 22:44:31.026958 13548 net.cpp:150] Setting up conv3_1/2/scale
I0324 22:44:31.026963 13548 net.cpp:157] Top shape: 1 96 108 180 (1866240)
I0324 22:44:31.026965 13548 net.cpp:165] Memory required for data: 1135918164
I0324 22:44:31.026970 13548 layer_factory.hpp:77] Creating layer conv3_1/2/relu
I0324 22:44:31.026973 13548 net.cpp:100] Creating Layer conv3_1/2/relu
I0324 22:44:31.026976 13548 net.cpp:434] conv3_1/2/relu <- conv3_1/2
I0324 22:44:31.026980 13548 net.cpp:395] conv3_1/2/relu -> conv3_1/2 (in-place)
I0324 22:44:31.027448 13548 net.cpp:150] Setting up conv3_1/2/relu
I0324 22:44:31.027456 13548 net.cpp:157] Top shape: 1 96 108 180 (1866240)
I0324 22:44:31.027459 13548 net.cpp:165] Memory required for data: 1143383124
I0324 22:44:31.027462 13548 layer_factory.hpp:77] Creating layer conv3_1/3/conv
I0324 22:44:31.027468 13548 net.cpp:100] Creating Layer conv3_1/3/conv
I0324 22:44:31.027472 13548 net.cpp:434] conv3_1/3/conv <- conv3_1/2
I0324 22:44:31.027475 13548 net.cpp:408] conv3_1/3/conv -> conv3_1/3
I0324 22:44:31.028724 13548 net.cpp:150] Setting up conv3_1/3/conv
I0324 22:44:31.028734 13548 net.cpp:157] Top shape: 1 128 108 180 (2488320)
I0324 22:44:31.028738 13548 net.cpp:165] Memory required for data: 1153336404
I0324 22:44:31.028743 13548 layer_factory.hpp:77] Creating layer conv3_1/3/bn
I0324 22:44:31.028748 13548 net.cpp:100] Creating Layer conv3_1/3/bn
I0324 22:44:31.028751 13548 net.cpp:434] conv3_1/3/bn <- conv3_1/3
I0324 22:44:31.028755 13548 net.cpp:395] conv3_1/3/bn -> conv3_1/3 (in-place)
I0324 22:44:31.028905 13548 net.cpp:150] Setting up conv3_1/3/bn
I0324 22:44:31.028911 13548 net.cpp:157] Top shape: 1 128 108 180 (2488320)
I0324 22:44:31.028913 13548 net.cpp:165] Memory required for data: 1163289684
I0324 22:44:31.028918 13548 layer_factory.hpp:77] Creating layer conv3_1/3/bn_scale
I0324 22:44:31.028924 13548 net.cpp:100] Creating Layer conv3_1/3/bn_scale
I0324 22:44:31.028928 13548 net.cpp:434] conv3_1/3/bn_scale <- conv3_1/3
I0324 22:44:31.028930 13548 net.cpp:395] conv3_1/3/bn_scale -> conv3_1/3 (in-place)
I0324 22:44:31.028959 13548 layer_factory.hpp:77] Creating layer conv3_1/3/bn_scale
I0324 22:44:31.029054 13548 net.cpp:150] Setting up conv3_1/3/bn_scale
I0324 22:44:31.029059 13548 net.cpp:157] Top shape: 1 128 108 180 (2488320)
I0324 22:44:31.029062 13548 net.cpp:165] Memory required for data: 1173242964
I0324 22:44:31.029067 13548 layer_factory.hpp:77] Creating layer conv3_1/proj
I0324 22:44:31.029072 13548 net.cpp:100] Creating Layer conv3_1/proj
I0324 22:44:31.029075 13548 net.cpp:434] conv3_1/proj <- conv2_3_conv2_3_0_split_1
I0324 22:44:31.029080 13548 net.cpp:408] conv3_1/proj -> conv3_1/proj
I0324 22:44:31.030354 13548 net.cpp:150] Setting up conv3_1/proj
I0324 22:44:31.030364 13548 net.cpp:157] Top shape: 1 128 108 180 (2488320)
I0324 22:44:31.030366 13548 net.cpp:165] Memory required for data: 1183196244
I0324 22:44:31.030370 13548 layer_factory.hpp:77] Creating layer conv3_1/proj_bn
I0324 22:44:31.030375 13548 net.cpp:100] Creating Layer conv3_1/proj_bn
I0324 22:44:31.030380 13548 net.cpp:434] conv3_1/proj_bn <- conv3_1/proj
I0324 22:44:31.030383 13548 net.cpp:395] conv3_1/proj_bn -> conv3_1/proj (in-place)
I0324 22:44:31.030531 13548 net.cpp:150] Setting up conv3_1/proj_bn
I0324 22:44:31.030539 13548 net.cpp:157] Top shape: 1 128 108 180 (2488320)
I0324 22:44:31.030542 13548 net.cpp:165] Memory required for data: 1193149524
I0324 22:44:31.030547 13548 layer_factory.hpp:77] Creating layer conv3_1/proj_bn_scale
I0324 22:44:31.030552 13548 net.cpp:100] Creating Layer conv3_1/proj_bn_scale
I0324 22:44:31.030555 13548 net.cpp:434] conv3_1/proj_bn_scale <- conv3_1/proj
I0324 22:44:31.030560 13548 net.cpp:395] conv3_1/proj_bn_scale -> conv3_1/proj (in-place)
I0324 22:44:31.030588 13548 layer_factory.hpp:77] Creating layer conv3_1/proj_bn_scale
I0324 22:44:31.030941 13548 net.cpp:150] Setting up conv3_1/proj_bn_scale
I0324 22:44:31.030949 13548 net.cpp:157] Top shape: 1 128 108 180 (2488320)
I0324 22:44:31.030952 13548 net.cpp:165] Memory required for data: 1203102804
I0324 22:44:31.030957 13548 layer_factory.hpp:77] Creating layer conv3_1
I0324 22:44:31.030962 13548 net.cpp:100] Creating Layer conv3_1
I0324 22:44:31.030966 13548 net.cpp:434] conv3_1 <- conv3_1/3
I0324 22:44:31.030969 13548 net.cpp:434] conv3_1 <- conv3_1/proj
I0324 22:44:31.030973 13548 net.cpp:408] conv3_1 -> conv3_1
I0324 22:44:31.030995 13548 net.cpp:150] Setting up conv3_1
I0324 22:44:31.031000 13548 net.cpp:157] Top shape: 1 128 108 180 (2488320)
I0324 22:44:31.031003 13548 net.cpp:165] Memory required for data: 1213056084
I0324 22:44:31.031005 13548 layer_factory.hpp:77] Creating layer conv3_1_conv3_1_0_split
I0324 22:44:31.031009 13548 net.cpp:100] Creating Layer conv3_1_conv3_1_0_split
I0324 22:44:31.031011 13548 net.cpp:434] conv3_1_conv3_1_0_split <- conv3_1
I0324 22:44:31.031015 13548 net.cpp:408] conv3_1_conv3_1_0_split -> conv3_1_conv3_1_0_split_0
I0324 22:44:31.031020 13548 net.cpp:408] conv3_1_conv3_1_0_split -> conv3_1_conv3_1_0_split_1
I0324 22:44:31.031046 13548 net.cpp:150] Setting up conv3_1_conv3_1_0_split
I0324 22:44:31.031051 13548 net.cpp:157] Top shape: 1 128 108 180 (2488320)
I0324 22:44:31.031054 13548 net.cpp:157] Top shape: 1 128 108 180 (2488320)
I0324 22:44:31.031056 13548 net.cpp:165] Memory required for data: 1232962644
I0324 22:44:31.031059 13548 layer_factory.hpp:77] Creating layer conv3_2/1/conv
I0324 22:44:31.031066 13548 net.cpp:100] Creating Layer conv3_2/1/conv
I0324 22:44:31.031069 13548 net.cpp:434] conv3_2/1/conv <- conv3_1_conv3_1_0_split_0
I0324 22:44:31.031074 13548 net.cpp:408] conv3_2/1/conv -> conv3_2/1
I0324 22:44:31.032635 13548 net.cpp:150] Setting up conv3_2/1/conv
I0324 22:44:31.032645 13548 net.cpp:157] Top shape: 1 48 108 180 (933120)
I0324 22:44:31.032649 13548 net.cpp:165] Memory required for data: 1236695124
I0324 22:44:31.032652 13548 layer_factory.hpp:77] Creating layer conv3_2/1/bn
I0324 22:44:31.032658 13548 net.cpp:100] Creating Layer conv3_2/1/bn
I0324 22:44:31.032661 13548 net.cpp:434] conv3_2/1/bn <- conv3_2/1
I0324 22:44:31.032665 13548 net.cpp:395] conv3_2/1/bn -> conv3_2/1 (in-place)
I0324 22:44:31.032826 13548 net.cpp:150] Setting up conv3_2/1/bn
I0324 22:44:31.032832 13548 net.cpp:157] Top shape: 1 48 108 180 (933120)
I0324 22:44:31.032835 13548 net.cpp:165] Memory required for data: 1240427604
I0324 22:44:31.032840 13548 layer_factory.hpp:77] Creating layer conv3_2/1/bn_scale
I0324 22:44:31.032845 13548 net.cpp:100] Creating Layer conv3_2/1/bn_scale
I0324 22:44:31.032847 13548 net.cpp:434] conv3_2/1/bn_scale <- conv3_2/1
I0324 22:44:31.032851 13548 net.cpp:395] conv3_2/1/bn_scale -> conv3_2/1 (in-place)
I0324 22:44:31.032881 13548 layer_factory.hpp:77] Creating layer conv3_2/1/bn_scale
I0324 22:44:31.032986 13548 net.cpp:150] Setting up conv3_2/1/bn_scale
I0324 22:44:31.032992 13548 net.cpp:157] Top shape: 1 48 108 180 (933120)
I0324 22:44:31.032994 13548 net.cpp:165] Memory required for data: 1244160084
I0324 22:44:31.032999 13548 layer_factory.hpp:77] Creating layer conv3_2/1/relu
I0324 22:44:31.033002 13548 net.cpp:100] Creating Layer conv3_2/1/relu
I0324 22:44:31.033005 13548 net.cpp:434] conv3_2/1/relu <- conv3_2/1
I0324 22:44:31.033010 13548 net.cpp:395] conv3_2/1/relu -> conv3_2/1 (in-place)
I0324 22:44:31.033495 13548 net.cpp:150] Setting up conv3_2/1/relu
I0324 22:44:31.033504 13548 net.cpp:157] Top shape: 1 48 108 180 (933120)
I0324 22:44:31.033507 13548 net.cpp:165] Memory required for data: 1247892564
I0324 22:44:31.033510 13548 layer_factory.hpp:77] Creating layer conv3_2/2/conv
I0324 22:44:31.033516 13548 net.cpp:100] Creating Layer conv3_2/2/conv
I0324 22:44:31.033519 13548 net.cpp:434] conv3_2/2/conv <- conv3_2/1
I0324 22:44:31.033524 13548 net.cpp:408] conv3_2/2/conv -> conv3_2/2/conv
I0324 22:44:31.034478 13548 net.cpp:150] Setting up conv3_2/2/conv
I0324 22:44:31.034487 13548 net.cpp:157] Top shape: 1 48 108 180 (933120)
I0324 22:44:31.034490 13548 net.cpp:165] Memory required for data: 1251625044
I0324 22:44:31.034494 13548 layer_factory.hpp:77] Creating layer conv3_2/2/bn
I0324 22:44:31.034500 13548 net.cpp:100] Creating Layer conv3_2/2/bn
I0324 22:44:31.034503 13548 net.cpp:434] conv3_2/2/bn <- conv3_2/2/conv
I0324 22:44:31.034507 13548 net.cpp:395] conv3_2/2/bn -> conv3_2/2/conv (in-place)
I0324 22:44:31.034662 13548 net.cpp:150] Setting up conv3_2/2/bn
I0324 22:44:31.034667 13548 net.cpp:157] Top shape: 1 48 108 180 (933120)
I0324 22:44:31.034669 13548 net.cpp:165] Memory required for data: 1255357524
I0324 22:44:31.034674 13548 layer_factory.hpp:77] Creating layer conv3_2/2/conv_conv3_2/2/bn_0_split
I0324 22:44:31.034680 13548 net.cpp:100] Creating Layer conv3_2/2/conv_conv3_2/2/bn_0_split
I0324 22:44:31.034683 13548 net.cpp:434] conv3_2/2/conv_conv3_2/2/bn_0_split <- conv3_2/2/conv
I0324 22:44:31.034687 13548 net.cpp:408] conv3_2/2/conv_conv3_2/2/bn_0_split -> conv3_2/2/conv_conv3_2/2/bn_0_split_0
I0324 22:44:31.034693 13548 net.cpp:408] conv3_2/2/conv_conv3_2/2/bn_0_split -> conv3_2/2/conv_conv3_2/2/bn_0_split_1
I0324 22:44:31.034726 13548 net.cpp:150] Setting up conv3_2/2/conv_conv3_2/2/bn_0_split
I0324 22:44:31.034731 13548 net.cpp:157] Top shape: 1 48 108 180 (933120)
I0324 22:44:31.034735 13548 net.cpp:157] Top shape: 1 48 108 180 (933120)
I0324 22:44:31.034737 13548 net.cpp:165] Memory required for data: 1262822484
I0324 22:44:31.034740 13548 layer_factory.hpp:77] Creating layer conv3_2/2/neg
I0324 22:44:31.034744 13548 net.cpp:100] Creating Layer conv3_2/2/neg
I0324 22:44:31.034746 13548 net.cpp:434] conv3_2/2/neg <- conv3_2/2/conv_conv3_2/2/bn_0_split_0
I0324 22:44:31.034751 13548 net.cpp:408] conv3_2/2/neg -> conv3_2/2/neg
I0324 22:44:31.034767 13548 net.cpp:150] Setting up conv3_2/2/neg
I0324 22:44:31.034771 13548 net.cpp:157] Top shape: 1 48 108 180 (933120)
I0324 22:44:31.034775 13548 net.cpp:165] Memory required for data: 1266554964
I0324 22:44:31.034776 13548 layer_factory.hpp:77] Creating layer conv3_2/2/concat
I0324 22:44:31.034781 13548 net.cpp:100] Creating Layer conv3_2/2/concat
I0324 22:44:31.034783 13548 net.cpp:434] conv3_2/2/concat <- conv3_2/2/conv_conv3_2/2/bn_0_split_1
I0324 22:44:31.034787 13548 net.cpp:434] conv3_2/2/concat <- conv3_2/2/neg
I0324 22:44:31.034790 13548 net.cpp:408] conv3_2/2/concat -> conv3_2/2
I0324 22:44:31.034808 13548 net.cpp:150] Setting up conv3_2/2/concat
I0324 22:44:31.034812 13548 net.cpp:157] Top shape: 1 96 108 180 (1866240)
I0324 22:44:31.034814 13548 net.cpp:165] Memory required for data: 1274019924
I0324 22:44:31.034817 13548 layer_factory.hpp:77] Creating layer conv3_2/2/scale
I0324 22:44:31.034822 13548 net.cpp:100] Creating Layer conv3_2/2/scale
I0324 22:44:31.034824 13548 net.cpp:434] conv3_2/2/scale <- conv3_2/2
I0324 22:44:31.034828 13548 net.cpp:395] conv3_2/2/scale -> conv3_2/2 (in-place)
I0324 22:44:31.034858 13548 layer_factory.hpp:77] Creating layer conv3_2/2/scale
I0324 22:44:31.034960 13548 net.cpp:150] Setting up conv3_2/2/scale
I0324 22:44:31.034965 13548 net.cpp:157] Top shape: 1 96 108 180 (1866240)
I0324 22:44:31.034967 13548 net.cpp:165] Memory required for data: 1281484884
I0324 22:44:31.034971 13548 layer_factory.hpp:77] Creating layer conv3_2/2/relu
I0324 22:44:31.034976 13548 net.cpp:100] Creating Layer conv3_2/2/relu
I0324 22:44:31.034979 13548 net.cpp:434] conv3_2/2/relu <- conv3_2/2
I0324 22:44:31.034983 13548 net.cpp:395] conv3_2/2/relu -> conv3_2/2 (in-place)
I0324 22:44:31.035455 13548 net.cpp:150] Setting up conv3_2/2/relu
I0324 22:44:31.035465 13548 net.cpp:157] Top shape: 1 96 108 180 (1866240)
I0324 22:44:31.035467 13548 net.cpp:165] Memory required for data: 1288949844
I0324 22:44:31.035470 13548 layer_factory.hpp:77] Creating layer conv3_2/3/conv
I0324 22:44:31.035476 13548 net.cpp:100] Creating Layer conv3_2/3/conv
I0324 22:44:31.035480 13548 net.cpp:434] conv3_2/3/conv <- conv3_2/2
I0324 22:44:31.035485 13548 net.cpp:408] conv3_2/3/conv -> conv3_2/3
I0324 22:44:31.037417 13548 net.cpp:150] Setting up conv3_2/3/conv
I0324 22:44:31.037428 13548 net.cpp:157] Top shape: 1 128 108 180 (2488320)
I0324 22:44:31.037431 13548 net.cpp:165] Memory required for data: 1298903124
I0324 22:44:31.037436 13548 layer_factory.hpp:77] Creating layer conv3_2/3/bn
I0324 22:44:31.037441 13548 net.cpp:100] Creating Layer conv3_2/3/bn
I0324 22:44:31.037443 13548 net.cpp:434] conv3_2/3/bn <- conv3_2/3
I0324 22:44:31.037448 13548 net.cpp:395] conv3_2/3/bn -> conv3_2/3 (in-place)
I0324 22:44:31.037602 13548 net.cpp:150] Setting up conv3_2/3/bn
I0324 22:44:31.037608 13548 net.cpp:157] Top shape: 1 128 108 180 (2488320)
I0324 22:44:31.037611 13548 net.cpp:165] Memory required for data: 1308856404
I0324 22:44:31.037616 13548 layer_factory.hpp:77] Creating layer conv3_2/3/bn_scale
I0324 22:44:31.037621 13548 net.cpp:100] Creating Layer conv3_2/3/bn_scale
I0324 22:44:31.037624 13548 net.cpp:434] conv3_2/3/bn_scale <- conv3_2/3
I0324 22:44:31.037627 13548 net.cpp:395] conv3_2/3/bn_scale -> conv3_2/3 (in-place)
I0324 22:44:31.037657 13548 layer_factory.hpp:77] Creating layer conv3_2/3/bn_scale
I0324 22:44:31.037755 13548 net.cpp:150] Setting up conv3_2/3/bn_scale
I0324 22:44:31.037760 13548 net.cpp:157] Top shape: 1 128 108 180 (2488320)
I0324 22:44:31.037763 13548 net.cpp:165] Memory required for data: 1318809684
I0324 22:44:31.037767 13548 layer_factory.hpp:77] Creating layer conv3_2/input
I0324 22:44:31.037773 13548 net.cpp:100] Creating Layer conv3_2/input
I0324 22:44:31.037776 13548 net.cpp:434] conv3_2/input <- conv3_1_conv3_1_0_split_1
I0324 22:44:31.037781 13548 net.cpp:408] conv3_2/input -> conv3_2/input
I0324 22:44:31.037801 13548 net.cpp:150] Setting up conv3_2/input
I0324 22:44:31.037804 13548 net.cpp:157] Top shape: 1 128 108 180 (2488320)
I0324 22:44:31.037806 13548 net.cpp:165] Memory required for data: 1328762964
I0324 22:44:31.037809 13548 layer_factory.hpp:77] Creating layer conv3_2
I0324 22:44:31.037813 13548 net.cpp:100] Creating Layer conv3_2
I0324 22:44:31.037817 13548 net.cpp:434] conv3_2 <- conv3_2/3
I0324 22:44:31.037819 13548 net.cpp:434] conv3_2 <- conv3_2/input
I0324 22:44:31.037823 13548 net.cpp:408] conv3_2 -> conv3_2
I0324 22:44:31.037840 13548 net.cpp:150] Setting up conv3_2
I0324 22:44:31.037845 13548 net.cpp:157] Top shape: 1 128 108 180 (2488320)
I0324 22:44:31.037847 13548 net.cpp:165] Memory required for data: 1338716244
I0324 22:44:31.037849 13548 layer_factory.hpp:77] Creating layer conv3_2_conv3_2_0_split
I0324 22:44:31.037853 13548 net.cpp:100] Creating Layer conv3_2_conv3_2_0_split
I0324 22:44:31.037856 13548 net.cpp:434] conv3_2_conv3_2_0_split <- conv3_2
I0324 22:44:31.037861 13548 net.cpp:408] conv3_2_conv3_2_0_split -> conv3_2_conv3_2_0_split_0
I0324 22:44:31.037865 13548 net.cpp:408] conv3_2_conv3_2_0_split -> conv3_2_conv3_2_0_split_1
I0324 22:44:31.037890 13548 net.cpp:150] Setting up conv3_2_conv3_2_0_split
I0324 22:44:31.037894 13548 net.cpp:157] Top shape: 1 128 108 180 (2488320)
I0324 22:44:31.037897 13548 net.cpp:157] Top shape: 1 128 108 180 (2488320)
I0324 22:44:31.037899 13548 net.cpp:165] Memory required for data: 1358622804
I0324 22:44:31.037902 13548 layer_factory.hpp:77] Creating layer conv3_3/1/conv
I0324 22:44:31.037909 13548 net.cpp:100] Creating Layer conv3_3/1/conv
I0324 22:44:31.037912 13548 net.cpp:434] conv3_3/1/conv <- conv3_2_conv3_2_0_split_0
I0324 22:44:31.037916 13548 net.cpp:408] conv3_3/1/conv -> conv3_3/1
I0324 22:44:31.038818 13548 net.cpp:150] Setting up conv3_3/1/conv
I0324 22:44:31.038831 13548 net.cpp:157] Top shape: 1 48 108 180 (933120)
I0324 22:44:31.038835 13548 net.cpp:165] Memory required for data: 1362355284
I0324 22:44:31.038838 13548 layer_factory.hpp:77] Creating layer conv3_3/1/bn
I0324 22:44:31.038844 13548 net.cpp:100] Creating Layer conv3_3/1/bn
I0324 22:44:31.038847 13548 net.cpp:434] conv3_3/1/bn <- conv3_3/1
I0324 22:44:31.038851 13548 net.cpp:395] conv3_3/1/bn -> conv3_3/1 (in-place)
I0324 22:44:31.039013 13548 net.cpp:150] Setting up conv3_3/1/bn
I0324 22:44:31.039018 13548 net.cpp:157] Top shape: 1 48 108 180 (933120)
I0324 22:44:31.039021 13548 net.cpp:165] Memory required for data: 1366087764
I0324 22:44:31.039026 13548 layer_factory.hpp:77] Creating layer conv3_3/1/bn_scale
I0324 22:44:31.039031 13548 net.cpp:100] Creating Layer conv3_3/1/bn_scale
I0324 22:44:31.039033 13548 net.cpp:434] conv3_3/1/bn_scale <- conv3_3/1
I0324 22:44:31.039037 13548 net.cpp:395] conv3_3/1/bn_scale -> conv3_3/1 (in-place)
I0324 22:44:31.039067 13548 layer_factory.hpp:77] Creating layer conv3_3/1/bn_scale
I0324 22:44:31.039427 13548 net.cpp:150] Setting up conv3_3/1/bn_scale
I0324 22:44:31.039435 13548 net.cpp:157] Top shape: 1 48 108 180 (933120)
I0324 22:44:31.039438 13548 net.cpp:165] Memory required for data: 1369820244
I0324 22:44:31.039443 13548 layer_factory.hpp:77] Creating layer conv3_3/1/relu
I0324 22:44:31.039448 13548 net.cpp:100] Creating Layer conv3_3/1/relu
I0324 22:44:31.039450 13548 net.cpp:434] conv3_3/1/relu <- conv3_3/1
I0324 22:44:31.039455 13548 net.cpp:395] conv3_3/1/relu -> conv3_3/1 (in-place)
I0324 22:44:31.039921 13548 net.cpp:150] Setting up conv3_3/1/relu
I0324 22:44:31.039930 13548 net.cpp:157] Top shape: 1 48 108 180 (933120)
I0324 22:44:31.039932 13548 net.cpp:165] Memory required for data: 1373552724
I0324 22:44:31.039935 13548 layer_factory.hpp:77] Creating layer conv3_3/2/conv
I0324 22:44:31.039942 13548 net.cpp:100] Creating Layer conv3_3/2/conv
I0324 22:44:31.039945 13548 net.cpp:434] conv3_3/2/conv <- conv3_3/1
I0324 22:44:31.039950 13548 net.cpp:408] conv3_3/2/conv -> conv3_3/2/conv
I0324 22:44:31.041589 13548 net.cpp:150] Setting up conv3_3/2/conv
I0324 22:44:31.041599 13548 net.cpp:157] Top shape: 1 48 108 180 (933120)
I0324 22:44:31.041602 13548 net.cpp:165] Memory required for data: 1377285204
I0324 22:44:31.041606 13548 layer_factory.hpp:77] Creating layer conv3_3/2/bn
I0324 22:44:31.041612 13548 net.cpp:100] Creating Layer conv3_3/2/bn
I0324 22:44:31.041615 13548 net.cpp:434] conv3_3/2/bn <- conv3_3/2/conv
I0324 22:44:31.041620 13548 net.cpp:395] conv3_3/2/bn -> conv3_3/2/conv (in-place)
I0324 22:44:31.041779 13548 net.cpp:150] Setting up conv3_3/2/bn
I0324 22:44:31.041785 13548 net.cpp:157] Top shape: 1 48 108 180 (933120)
I0324 22:44:31.041787 13548 net.cpp:165] Memory required for data: 1381017684
I0324 22:44:31.041792 13548 layer_factory.hpp:77] Creating layer conv3_3/2/conv_conv3_3/2/bn_0_split
I0324 22:44:31.041797 13548 net.cpp:100] Creating Layer conv3_3/2/conv_conv3_3/2/bn_0_split
I0324 22:44:31.041800 13548 net.cpp:434] conv3_3/2/conv_conv3_3/2/bn_0_split <- conv3_3/2/conv
I0324 22:44:31.041805 13548 net.cpp:408] conv3_3/2/conv_conv3_3/2/bn_0_split -> conv3_3/2/conv_conv3_3/2/bn_0_split_0
I0324 22:44:31.041810 13548 net.cpp:408] conv3_3/2/conv_conv3_3/2/bn_0_split -> conv3_3/2/conv_conv3_3/2/bn_0_split_1
I0324 22:44:31.041837 13548 net.cpp:150] Setting up conv3_3/2/conv_conv3_3/2/bn_0_split
I0324 22:44:31.041842 13548 net.cpp:157] Top shape: 1 48 108 180 (933120)
I0324 22:44:31.041846 13548 net.cpp:157] Top shape: 1 48 108 180 (933120)
I0324 22:44:31.041847 13548 net.cpp:165] Memory required for data: 1388482644
I0324 22:44:31.041851 13548 layer_factory.hpp:77] Creating layer conv3_3/2/neg
I0324 22:44:31.041854 13548 net.cpp:100] Creating Layer conv3_3/2/neg
I0324 22:44:31.041857 13548 net.cpp:434] conv3_3/2/neg <- conv3_3/2/conv_conv3_3/2/bn_0_split_0
I0324 22:44:31.041862 13548 net.cpp:408] conv3_3/2/neg -> conv3_3/2/neg
I0324 22:44:31.041878 13548 net.cpp:150] Setting up conv3_3/2/neg
I0324 22:44:31.041882 13548 net.cpp:157] Top shape: 1 48 108 180 (933120)
I0324 22:44:31.041888 13548 net.cpp:165] Memory required for data: 1392215124
I0324 22:44:31.041890 13548 layer_factory.hpp:77] Creating layer conv3_3/2/concat
I0324 22:44:31.041895 13548 net.cpp:100] Creating Layer conv3_3/2/concat
I0324 22:44:31.041898 13548 net.cpp:434] conv3_3/2/concat <- conv3_3/2/conv_conv3_3/2/bn_0_split_1
I0324 22:44:31.041903 13548 net.cpp:434] conv3_3/2/concat <- conv3_3/2/neg
I0324 22:44:31.041905 13548 net.cpp:408] conv3_3/2/concat -> conv3_3/2
I0324 22:44:31.041923 13548 net.cpp:150] Setting up conv3_3/2/concat
I0324 22:44:31.041929 13548 net.cpp:157] Top shape: 1 96 108 180 (1866240)
I0324 22:44:31.041930 13548 net.cpp:165] Memory required for data: 1399680084
I0324 22:44:31.041932 13548 layer_factory.hpp:77] Creating layer conv3_3/2/scale
I0324 22:44:31.041937 13548 net.cpp:100] Creating Layer conv3_3/2/scale
I0324 22:44:31.041940 13548 net.cpp:434] conv3_3/2/scale <- conv3_3/2
I0324 22:44:31.041944 13548 net.cpp:395] conv3_3/2/scale -> conv3_3/2 (in-place)
I0324 22:44:31.041975 13548 layer_factory.hpp:77] Creating layer conv3_3/2/scale
I0324 22:44:31.042078 13548 net.cpp:150] Setting up conv3_3/2/scale
I0324 22:44:31.042083 13548 net.cpp:157] Top shape: 1 96 108 180 (1866240)
I0324 22:44:31.042085 13548 net.cpp:165] Memory required for data: 1407145044
I0324 22:44:31.042090 13548 layer_factory.hpp:77] Creating layer conv3_3/2/relu
I0324 22:44:31.042094 13548 net.cpp:100] Creating Layer conv3_3/2/relu
I0324 22:44:31.042098 13548 net.cpp:434] conv3_3/2/relu <- conv3_3/2
I0324 22:44:31.042101 13548 net.cpp:395] conv3_3/2/relu -> conv3_3/2 (in-place)
I0324 22:44:31.042233 13548 net.cpp:150] Setting up conv3_3/2/relu
I0324 22:44:31.042240 13548 net.cpp:157] Top shape: 1 96 108 180 (1866240)
I0324 22:44:31.042243 13548 net.cpp:165] Memory required for data: 1414610004
I0324 22:44:31.042245 13548 layer_factory.hpp:77] Creating layer conv3_3/3/conv
I0324 22:44:31.042251 13548 net.cpp:100] Creating Layer conv3_3/3/conv
I0324 22:44:31.042254 13548 net.cpp:434] conv3_3/3/conv <- conv3_3/2
I0324 22:44:31.042258 13548 net.cpp:408] conv3_3/3/conv -> conv3_3/3
I0324 22:44:31.043524 13548 net.cpp:150] Setting up conv3_3/3/conv
I0324 22:44:31.043534 13548 net.cpp:157] Top shape: 1 128 108 180 (2488320)
I0324 22:44:31.043536 13548 net.cpp:165] Memory required for data: 1424563284
I0324 22:44:31.043540 13548 layer_factory.hpp:77] Creating layer conv3_3/3/bn
I0324 22:44:31.043546 13548 net.cpp:100] Creating Layer conv3_3/3/bn
I0324 22:44:31.043550 13548 net.cpp:434] conv3_3/3/bn <- conv3_3/3
I0324 22:44:31.043555 13548 net.cpp:395] conv3_3/3/bn -> conv3_3/3 (in-place)
I0324 22:44:31.043707 13548 net.cpp:150] Setting up conv3_3/3/bn
I0324 22:44:31.043712 13548 net.cpp:157] Top shape: 1 128 108 180 (2488320)
I0324 22:44:31.043715 13548 net.cpp:165] Memory required for data: 1434516564
I0324 22:44:31.043720 13548 layer_factory.hpp:77] Creating layer conv3_3/3/bn_scale
I0324 22:44:31.043725 13548 net.cpp:100] Creating Layer conv3_3/3/bn_scale
I0324 22:44:31.043727 13548 net.cpp:434] conv3_3/3/bn_scale <- conv3_3/3
I0324 22:44:31.043731 13548 net.cpp:395] conv3_3/3/bn_scale -> conv3_3/3 (in-place)
I0324 22:44:31.043761 13548 layer_factory.hpp:77] Creating layer conv3_3/3/bn_scale
I0324 22:44:31.043859 13548 net.cpp:150] Setting up conv3_3/3/bn_scale
I0324 22:44:31.043865 13548 net.cpp:157] Top shape: 1 128 108 180 (2488320)
I0324 22:44:31.043867 13548 net.cpp:165] Memory required for data: 1444469844
I0324 22:44:31.043871 13548 layer_factory.hpp:77] Creating layer conv3_3/input
I0324 22:44:31.043876 13548 net.cpp:100] Creating Layer conv3_3/input
I0324 22:44:31.043879 13548 net.cpp:434] conv3_3/input <- conv3_2_conv3_2_0_split_1
I0324 22:44:31.043885 13548 net.cpp:408] conv3_3/input -> conv3_3/input
I0324 22:44:31.043905 13548 net.cpp:150] Setting up conv3_3/input
I0324 22:44:31.043910 13548 net.cpp:157] Top shape: 1 128 108 180 (2488320)
I0324 22:44:31.043913 13548 net.cpp:165] Memory required for data: 1454423124
I0324 22:44:31.043915 13548 layer_factory.hpp:77] Creating layer conv3_3
I0324 22:44:31.043922 13548 net.cpp:100] Creating Layer conv3_3
I0324 22:44:31.043926 13548 net.cpp:434] conv3_3 <- conv3_3/3
I0324 22:44:31.043928 13548 net.cpp:434] conv3_3 <- conv3_3/input
I0324 22:44:31.043932 13548 net.cpp:408] conv3_3 -> conv3_3
I0324 22:44:31.043951 13548 net.cpp:150] Setting up conv3_3
I0324 22:44:31.043956 13548 net.cpp:157] Top shape: 1 128 108 180 (2488320)
I0324 22:44:31.043957 13548 net.cpp:165] Memory required for data: 1464376404
I0324 22:44:31.043961 13548 layer_factory.hpp:77] Creating layer conv3_3_conv3_3_0_split
I0324 22:44:31.043964 13548 net.cpp:100] Creating Layer conv3_3_conv3_3_0_split
I0324 22:44:31.043967 13548 net.cpp:434] conv3_3_conv3_3_0_split <- conv3_3
I0324 22:44:31.043970 13548 net.cpp:408] conv3_3_conv3_3_0_split -> conv3_3_conv3_3_0_split_0
I0324 22:44:31.043975 13548 net.cpp:408] conv3_3_conv3_3_0_split -> conv3_3_conv3_3_0_split_1
I0324 22:44:31.044001 13548 net.cpp:150] Setting up conv3_3_conv3_3_0_split
I0324 22:44:31.044006 13548 net.cpp:157] Top shape: 1 128 108 180 (2488320)
I0324 22:44:31.044009 13548 net.cpp:157] Top shape: 1 128 108 180 (2488320)
I0324 22:44:31.044011 13548 net.cpp:165] Memory required for data: 1484282964
I0324 22:44:31.044013 13548 layer_factory.hpp:77] Creating layer conv3_4/1/conv
I0324 22:44:31.044019 13548 net.cpp:100] Creating Layer conv3_4/1/conv
I0324 22:44:31.044023 13548 net.cpp:434] conv3_4/1/conv <- conv3_3_conv3_3_0_split_0
I0324 22:44:31.044026 13548 net.cpp:408] conv3_4/1/conv -> conv3_4/1
I0324 22:44:31.045599 13548 net.cpp:150] Setting up conv3_4/1/conv
I0324 22:44:31.045609 13548 net.cpp:157] Top shape: 1 48 108 180 (933120)
I0324 22:44:31.045613 13548 net.cpp:165] Memory required for data: 1488015444
I0324 22:44:31.045626 13548 layer_factory.hpp:77] Creating layer conv3_4/1/bn
I0324 22:44:31.045634 13548 net.cpp:100] Creating Layer conv3_4/1/bn
I0324 22:44:31.045637 13548 net.cpp:434] conv3_4/1/bn <- conv3_4/1
I0324 22:44:31.045642 13548 net.cpp:395] conv3_4/1/bn -> conv3_4/1 (in-place)
I0324 22:44:31.045811 13548 net.cpp:150] Setting up conv3_4/1/bn
I0324 22:44:31.045816 13548 net.cpp:157] Top shape: 1 48 108 180 (933120)
I0324 22:44:31.045819 13548 net.cpp:165] Memory required for data: 1491747924
I0324 22:44:31.045825 13548 layer_factory.hpp:77] Creating layer conv3_4/1/bn_scale
I0324 22:44:31.045830 13548 net.cpp:100] Creating Layer conv3_4/1/bn_scale
I0324 22:44:31.045831 13548 net.cpp:434] conv3_4/1/bn_scale <- conv3_4/1
I0324 22:44:31.045836 13548 net.cpp:395] conv3_4/1/bn_scale -> conv3_4/1 (in-place)
I0324 22:44:31.045866 13548 layer_factory.hpp:77] Creating layer conv3_4/1/bn_scale
I0324 22:44:31.045974 13548 net.cpp:150] Setting up conv3_4/1/bn_scale
I0324 22:44:31.045979 13548 net.cpp:157] Top shape: 1 48 108 180 (933120)
I0324 22:44:31.045982 13548 net.cpp:165] Memory required for data: 1495480404
I0324 22:44:31.045986 13548 layer_factory.hpp:77] Creating layer conv3_4/1/relu
I0324 22:44:31.045990 13548 net.cpp:100] Creating Layer conv3_4/1/relu
I0324 22:44:31.045994 13548 net.cpp:434] conv3_4/1/relu <- conv3_4/1
I0324 22:44:31.045997 13548 net.cpp:395] conv3_4/1/relu -> conv3_4/1 (in-place)
I0324 22:44:31.046133 13548 net.cpp:150] Setting up conv3_4/1/relu
I0324 22:44:31.046139 13548 net.cpp:157] Top shape: 1 48 108 180 (933120)
I0324 22:44:31.046141 13548 net.cpp:165] Memory required for data: 1499212884
I0324 22:44:31.046144 13548 layer_factory.hpp:77] Creating layer conv3_4/2/conv
I0324 22:44:31.046149 13548 net.cpp:100] Creating Layer conv3_4/2/conv
I0324 22:44:31.046152 13548 net.cpp:434] conv3_4/2/conv <- conv3_4/1
I0324 22:44:31.046157 13548 net.cpp:408] conv3_4/2/conv -> conv3_4/2/conv
I0324 22:44:31.047461 13548 net.cpp:150] Setting up conv3_4/2/conv
I0324 22:44:31.047471 13548 net.cpp:157] Top shape: 1 48 108 180 (933120)
I0324 22:44:31.047473 13548 net.cpp:165] Memory required for data: 1502945364
I0324 22:44:31.047477 13548 layer_factory.hpp:77] Creating layer conv3_4/2/bn
I0324 22:44:31.047482 13548 net.cpp:100] Creating Layer conv3_4/2/bn
I0324 22:44:31.047485 13548 net.cpp:434] conv3_4/2/bn <- conv3_4/2/conv
I0324 22:44:31.047492 13548 net.cpp:395] conv3_4/2/bn -> conv3_4/2/conv (in-place)
I0324 22:44:31.047658 13548 net.cpp:150] Setting up conv3_4/2/bn
I0324 22:44:31.047663 13548 net.cpp:157] Top shape: 1 48 108 180 (933120)
I0324 22:44:31.047667 13548 net.cpp:165] Memory required for data: 1506677844
I0324 22:44:31.047672 13548 layer_factory.hpp:77] Creating layer conv3_4/2/conv_conv3_4/2/bn_0_split
I0324 22:44:31.047675 13548 net.cpp:100] Creating Layer conv3_4/2/conv_conv3_4/2/bn_0_split
I0324 22:44:31.047678 13548 net.cpp:434] conv3_4/2/conv_conv3_4/2/bn_0_split <- conv3_4/2/conv
I0324 22:44:31.047683 13548 net.cpp:408] conv3_4/2/conv_conv3_4/2/bn_0_split -> conv3_4/2/conv_conv3_4/2/bn_0_split_0
I0324 22:44:31.047688 13548 net.cpp:408] conv3_4/2/conv_conv3_4/2/bn_0_split -> conv3_4/2/conv_conv3_4/2/bn_0_split_1
I0324 22:44:31.047715 13548 net.cpp:150] Setting up conv3_4/2/conv_conv3_4/2/bn_0_split
I0324 22:44:31.047720 13548 net.cpp:157] Top shape: 1 48 108 180 (933120)
I0324 22:44:31.047724 13548 net.cpp:157] Top shape: 1 48 108 180 (933120)
I0324 22:44:31.047725 13548 net.cpp:165] Memory required for data: 1514142804
I0324 22:44:31.047729 13548 layer_factory.hpp:77] Creating layer conv3_4/2/neg
I0324 22:44:31.047734 13548 net.cpp:100] Creating Layer conv3_4/2/neg
I0324 22:44:31.047736 13548 net.cpp:434] conv3_4/2/neg <- conv3_4/2/conv_conv3_4/2/bn_0_split_0
I0324 22:44:31.047740 13548 net.cpp:408] conv3_4/2/neg -> conv3_4/2/neg
I0324 22:44:31.047758 13548 net.cpp:150] Setting up conv3_4/2/neg
I0324 22:44:31.047762 13548 net.cpp:157] Top shape: 1 48 108 180 (933120)
I0324 22:44:31.047765 13548 net.cpp:165] Memory required for data: 1517875284
I0324 22:44:31.047766 13548 layer_factory.hpp:77] Creating layer conv3_4/2/concat
I0324 22:44:31.047771 13548 net.cpp:100] Creating Layer conv3_4/2/concat
I0324 22:44:31.047775 13548 net.cpp:434] conv3_4/2/concat <- conv3_4/2/conv_conv3_4/2/bn_0_split_1
I0324 22:44:31.047777 13548 net.cpp:434] conv3_4/2/concat <- conv3_4/2/neg
I0324 22:44:31.047781 13548 net.cpp:408] conv3_4/2/concat -> conv3_4/2
I0324 22:44:31.047799 13548 net.cpp:150] Setting up conv3_4/2/concat
I0324 22:44:31.047803 13548 net.cpp:157] Top shape: 1 96 108 180 (1866240)
I0324 22:44:31.047806 13548 net.cpp:165] Memory required for data: 1525340244
I0324 22:44:31.047808 13548 layer_factory.hpp:77] Creating layer conv3_4/2/scale
I0324 22:44:31.047823 13548 net.cpp:100] Creating Layer conv3_4/2/scale
I0324 22:44:31.047827 13548 net.cpp:434] conv3_4/2/scale <- conv3_4/2
I0324 22:44:31.047830 13548 net.cpp:395] conv3_4/2/scale -> conv3_4/2 (in-place)
I0324 22:44:31.047861 13548 layer_factory.hpp:77] Creating layer conv3_4/2/scale
I0324 22:44:31.048230 13548 net.cpp:150] Setting up conv3_4/2/scale
I0324 22:44:31.048239 13548 net.cpp:157] Top shape: 1 96 108 180 (1866240)
I0324 22:44:31.048243 13548 net.cpp:165] Memory required for data: 1532805204
I0324 22:44:31.048246 13548 layer_factory.hpp:77] Creating layer conv3_4/2/relu
I0324 22:44:31.048252 13548 net.cpp:100] Creating Layer conv3_4/2/relu
I0324 22:44:31.048255 13548 net.cpp:434] conv3_4/2/relu <- conv3_4/2
I0324 22:44:31.048259 13548 net.cpp:395] conv3_4/2/relu -> conv3_4/2 (in-place)
I0324 22:44:31.048737 13548 net.cpp:150] Setting up conv3_4/2/relu
I0324 22:44:31.048745 13548 net.cpp:157] Top shape: 1 96 108 180 (1866240)
I0324 22:44:31.048748 13548 net.cpp:165] Memory required for data: 1540270164
I0324 22:44:31.048750 13548 layer_factory.hpp:77] Creating layer conv3_4/3/conv
I0324 22:44:31.048758 13548 net.cpp:100] Creating Layer conv3_4/3/conv
I0324 22:44:31.048760 13548 net.cpp:434] conv3_4/3/conv <- conv3_4/2
I0324 22:44:31.048766 13548 net.cpp:408] conv3_4/3/conv -> conv3_4/3
I0324 22:44:31.050377 13548 net.cpp:150] Setting up conv3_4/3/conv
I0324 22:44:31.050389 13548 net.cpp:157] Top shape: 1 128 108 180 (2488320)
I0324 22:44:31.050390 13548 net.cpp:165] Memory required for data: 1550223444
I0324 22:44:31.050395 13548 layer_factory.hpp:77] Creating layer conv3_4/3/bn
I0324 22:44:31.050400 13548 net.cpp:100] Creating Layer conv3_4/3/bn
I0324 22:44:31.050405 13548 net.cpp:434] conv3_4/3/bn <- conv3_4/3
I0324 22:44:31.050410 13548 net.cpp:395] conv3_4/3/bn -> conv3_4/3 (in-place)
I0324 22:44:31.050573 13548 net.cpp:150] Setting up conv3_4/3/bn
I0324 22:44:31.050580 13548 net.cpp:157] Top shape: 1 128 108 180 (2488320)
I0324 22:44:31.050581 13548 net.cpp:165] Memory required for data: 1560176724
I0324 22:44:31.050586 13548 layer_factory.hpp:77] Creating layer conv3_4/3/bn_scale
I0324 22:44:31.050591 13548 net.cpp:100] Creating Layer conv3_4/3/bn_scale
I0324 22:44:31.050595 13548 net.cpp:434] conv3_4/3/bn_scale <- conv3_4/3
I0324 22:44:31.050597 13548 net.cpp:395] conv3_4/3/bn_scale -> conv3_4/3 (in-place)
I0324 22:44:31.050628 13548 layer_factory.hpp:77] Creating layer conv3_4/3/bn_scale
I0324 22:44:31.050731 13548 net.cpp:150] Setting up conv3_4/3/bn_scale
I0324 22:44:31.050737 13548 net.cpp:157] Top shape: 1 128 108 180 (2488320)
I0324 22:44:31.050740 13548 net.cpp:165] Memory required for data: 1570130004
I0324 22:44:31.050743 13548 layer_factory.hpp:77] Creating layer conv3_4/input
I0324 22:44:31.050750 13548 net.cpp:100] Creating Layer conv3_4/input
I0324 22:44:31.050752 13548 net.cpp:434] conv3_4/input <- conv3_3_conv3_3_0_split_1
I0324 22:44:31.050756 13548 net.cpp:408] conv3_4/input -> conv3_4/input
I0324 22:44:31.050777 13548 net.cpp:150] Setting up conv3_4/input
I0324 22:44:31.050781 13548 net.cpp:157] Top shape: 1 128 108 180 (2488320)
I0324 22:44:31.050784 13548 net.cpp:165] Memory required for data: 1580083284
I0324 22:44:31.050786 13548 layer_factory.hpp:77] Creating layer conv3_4
I0324 22:44:31.050791 13548 net.cpp:100] Creating Layer conv3_4
I0324 22:44:31.050793 13548 net.cpp:434] conv3_4 <- conv3_4/3
I0324 22:44:31.050796 13548 net.cpp:434] conv3_4 <- conv3_4/input
I0324 22:44:31.050801 13548 net.cpp:408] conv3_4 -> conv3_4
I0324 22:44:31.050819 13548 net.cpp:150] Setting up conv3_4
I0324 22:44:31.050823 13548 net.cpp:157] Top shape: 1 128 108 180 (2488320)
I0324 22:44:31.050825 13548 net.cpp:165] Memory required for data: 1590036564
I0324 22:44:31.050828 13548 layer_factory.hpp:77] Creating layer conv3_4_conv3_4_0_split
I0324 22:44:31.050833 13548 net.cpp:100] Creating Layer conv3_4_conv3_4_0_split
I0324 22:44:31.050837 13548 net.cpp:434] conv3_4_conv3_4_0_split <- conv3_4
I0324 22:44:31.050840 13548 net.cpp:408] conv3_4_conv3_4_0_split -> conv3_4_conv3_4_0_split_0
I0324 22:44:31.050845 13548 net.cpp:408] conv3_4_conv3_4_0_split -> conv3_4_conv3_4_0_split_1
I0324 22:44:31.050849 13548 net.cpp:408] conv3_4_conv3_4_0_split -> conv3_4_conv3_4_0_split_2
I0324 22:44:31.050854 13548 net.cpp:408] conv3_4_conv3_4_0_split -> conv3_4_conv3_4_0_split_3
I0324 22:44:31.050859 13548 net.cpp:408] conv3_4_conv3_4_0_split -> conv3_4_conv3_4_0_split_4
I0324 22:44:31.050863 13548 net.cpp:408] conv3_4_conv3_4_0_split -> conv3_4_conv3_4_0_split_5
I0324 22:44:31.050926 13548 net.cpp:150] Setting up conv3_4_conv3_4_0_split
I0324 22:44:31.050931 13548 net.cpp:157] Top shape: 1 128 108 180 (2488320)
I0324 22:44:31.050935 13548 net.cpp:157] Top shape: 1 128 108 180 (2488320)
I0324 22:44:31.050937 13548 net.cpp:157] Top shape: 1 128 108 180 (2488320)
I0324 22:44:31.050940 13548 net.cpp:157] Top shape: 1 128 108 180 (2488320)
I0324 22:44:31.050942 13548 net.cpp:157] Top shape: 1 128 108 180 (2488320)
I0324 22:44:31.050945 13548 net.cpp:157] Top shape: 1 128 108 180 (2488320)
I0324 22:44:31.050947 13548 net.cpp:165] Memory required for data: 1649756244
I0324 22:44:31.050951 13548 layer_factory.hpp:77] Creating layer conv4_1/incep/0/conv
I0324 22:44:31.050956 13548 net.cpp:100] Creating Layer conv4_1/incep/0/conv
I0324 22:44:31.050958 13548 net.cpp:434] conv4_1/incep/0/conv <- conv3_4_conv3_4_0_split_0
I0324 22:44:31.050963 13548 net.cpp:408] conv4_1/incep/0/conv -> conv4_1/incep/0
I0324 22:44:31.052223 13548 net.cpp:150] Setting up conv4_1/incep/0/conv
I0324 22:44:31.052233 13548 net.cpp:157] Top shape: 1 64 54 90 (311040)
I0324 22:44:31.052235 13548 net.cpp:165] Memory required for data: 1651000404
I0324 22:44:31.052240 13548 layer_factory.hpp:77] Creating layer conv4_1/incep/0/bn
I0324 22:44:31.052248 13548 net.cpp:100] Creating Layer conv4_1/incep/0/bn
I0324 22:44:31.052253 13548 net.cpp:434] conv4_1/incep/0/bn <- conv4_1/incep/0
I0324 22:44:31.052258 13548 net.cpp:395] conv4_1/incep/0/bn -> conv4_1/incep/0 (in-place)
I0324 22:44:31.052424 13548 net.cpp:150] Setting up conv4_1/incep/0/bn
I0324 22:44:31.052431 13548 net.cpp:157] Top shape: 1 64 54 90 (311040)
I0324 22:44:31.052433 13548 net.cpp:165] Memory required for data: 1652244564
I0324 22:44:31.052438 13548 layer_factory.hpp:77] Creating layer conv4_1/incep/0/bn_scale
I0324 22:44:31.052443 13548 net.cpp:100] Creating Layer conv4_1/incep/0/bn_scale
I0324 22:44:31.052446 13548 net.cpp:434] conv4_1/incep/0/bn_scale <- conv4_1/incep/0
I0324 22:44:31.052449 13548 net.cpp:395] conv4_1/incep/0/bn_scale -> conv4_1/incep/0 (in-place)
I0324 22:44:31.052481 13548 layer_factory.hpp:77] Creating layer conv4_1/incep/0/bn_scale
I0324 22:44:31.052577 13548 net.cpp:150] Setting up conv4_1/incep/0/bn_scale
I0324 22:44:31.052582 13548 net.cpp:157] Top shape: 1 64 54 90 (311040)
I0324 22:44:31.052584 13548 net.cpp:165] Memory required for data: 1653488724
I0324 22:44:31.052589 13548 layer_factory.hpp:77] Creating layer conv4_1/incep/0/relu
I0324 22:44:31.052593 13548 net.cpp:100] Creating Layer conv4_1/incep/0/relu
I0324 22:44:31.052597 13548 net.cpp:434] conv4_1/incep/0/relu <- conv4_1/incep/0
I0324 22:44:31.052600 13548 net.cpp:395] conv4_1/incep/0/relu -> conv4_1/incep/0 (in-place)
I0324 22:44:31.053076 13548 net.cpp:150] Setting up conv4_1/incep/0/relu
I0324 22:44:31.053084 13548 net.cpp:157] Top shape: 1 64 54 90 (311040)
I0324 22:44:31.053087 13548 net.cpp:165] Memory required for data: 1654732884
I0324 22:44:31.053091 13548 layer_factory.hpp:77] Creating layer conv4_1/incep/1_reduce/conv
I0324 22:44:31.053097 13548 net.cpp:100] Creating Layer conv4_1/incep/1_reduce/conv
I0324 22:44:31.053099 13548 net.cpp:434] conv4_1/incep/1_reduce/conv <- conv3_4_conv3_4_0_split_1
I0324 22:44:31.053104 13548 net.cpp:408] conv4_1/incep/1_reduce/conv -> conv4_1/incep/1_reduce
I0324 22:44:31.054364 13548 net.cpp:150] Setting up conv4_1/incep/1_reduce/conv
I0324 22:44:31.054374 13548 net.cpp:157] Top shape: 1 48 54 90 (233280)
I0324 22:44:31.054378 13548 net.cpp:165] Memory required for data: 1655666004
I0324 22:44:31.054381 13548 layer_factory.hpp:77] Creating layer conv4_1/incep/1_reduce/bn
I0324 22:44:31.054388 13548 net.cpp:100] Creating Layer conv4_1/incep/1_reduce/bn
I0324 22:44:31.054390 13548 net.cpp:434] conv4_1/incep/1_reduce/bn <- conv4_1/incep/1_reduce
I0324 22:44:31.054395 13548 net.cpp:395] conv4_1/incep/1_reduce/bn -> conv4_1/incep/1_reduce (in-place)
I0324 22:44:31.054553 13548 net.cpp:150] Setting up conv4_1/incep/1_reduce/bn
I0324 22:44:31.054558 13548 net.cpp:157] Top shape: 1 48 54 90 (233280)
I0324 22:44:31.054561 13548 net.cpp:165] Memory required for data: 1656599124
I0324 22:44:31.054566 13548 layer_factory.hpp:77] Creating layer conv4_1/incep/1_reduce/bn_scale
I0324 22:44:31.054571 13548 net.cpp:100] Creating Layer conv4_1/incep/1_reduce/bn_scale
I0324 22:44:31.054574 13548 net.cpp:434] conv4_1/incep/1_reduce/bn_scale <- conv4_1/incep/1_reduce
I0324 22:44:31.054579 13548 net.cpp:395] conv4_1/incep/1_reduce/bn_scale -> conv4_1/incep/1_reduce (in-place)
I0324 22:44:31.054610 13548 layer_factory.hpp:77] Creating layer conv4_1/incep/1_reduce/bn_scale
I0324 22:44:31.054709 13548 net.cpp:150] Setting up conv4_1/incep/1_reduce/bn_scale
I0324 22:44:31.054714 13548 net.cpp:157] Top shape: 1 48 54 90 (233280)
I0324 22:44:31.054718 13548 net.cpp:165] Memory required for data: 1657532244
I0324 22:44:31.054721 13548 layer_factory.hpp:77] Creating layer conv4_1/incep/1_reduce/relu
I0324 22:44:31.054725 13548 net.cpp:100] Creating Layer conv4_1/incep/1_reduce/relu
I0324 22:44:31.054728 13548 net.cpp:434] conv4_1/incep/1_reduce/relu <- conv4_1/incep/1_reduce
I0324 22:44:31.054733 13548 net.cpp:395] conv4_1/incep/1_reduce/relu -> conv4_1/incep/1_reduce (in-place)
I0324 22:44:31.054857 13548 net.cpp:150] Setting up conv4_1/incep/1_reduce/relu
I0324 22:44:31.054865 13548 net.cpp:157] Top shape: 1 48 54 90 (233280)
I0324 22:44:31.054868 13548 net.cpp:165] Memory required for data: 1658465364
I0324 22:44:31.054870 13548 layer_factory.hpp:77] Creating layer conv4_1/incep/1_0/conv
I0324 22:44:31.054877 13548 net.cpp:100] Creating Layer conv4_1/incep/1_0/conv
I0324 22:44:31.054880 13548 net.cpp:434] conv4_1/incep/1_0/conv <- conv4_1/incep/1_reduce
I0324 22:44:31.054885 13548 net.cpp:408] conv4_1/incep/1_0/conv -> conv4_1/incep/1_0
I0324 22:44:31.056694 13548 net.cpp:150] Setting up conv4_1/incep/1_0/conv
I0324 22:44:31.056704 13548 net.cpp:157] Top shape: 1 128 54 90 (622080)
I0324 22:44:31.056706 13548 net.cpp:165] Memory required for data: 1660953684
I0324 22:44:31.056710 13548 layer_factory.hpp:77] Creating layer conv4_1/incep/1_0/bn
I0324 22:44:31.056716 13548 net.cpp:100] Creating Layer conv4_1/incep/1_0/bn
I0324 22:44:31.056720 13548 net.cpp:434] conv4_1/incep/1_0/bn <- conv4_1/incep/1_0
I0324 22:44:31.056725 13548 net.cpp:395] conv4_1/incep/1_0/bn -> conv4_1/incep/1_0 (in-place)
I0324 22:44:31.056879 13548 net.cpp:150] Setting up conv4_1/incep/1_0/bn
I0324 22:44:31.056885 13548 net.cpp:157] Top shape: 1 128 54 90 (622080)
I0324 22:44:31.056887 13548 net.cpp:165] Memory required for data: 1663442004
I0324 22:44:31.056892 13548 layer_factory.hpp:77] Creating layer conv4_1/incep/1_0/bn_scale
I0324 22:44:31.056900 13548 net.cpp:100] Creating Layer conv4_1/incep/1_0/bn_scale
I0324 22:44:31.056902 13548 net.cpp:434] conv4_1/incep/1_0/bn_scale <- conv4_1/incep/1_0
I0324 22:44:31.056906 13548 net.cpp:395] conv4_1/incep/1_0/bn_scale -> conv4_1/incep/1_0 (in-place)
I0324 22:44:31.056939 13548 layer_factory.hpp:77] Creating layer conv4_1/incep/1_0/bn_scale
I0324 22:44:31.057032 13548 net.cpp:150] Setting up conv4_1/incep/1_0/bn_scale
I0324 22:44:31.057037 13548 net.cpp:157] Top shape: 1 128 54 90 (622080)
I0324 22:44:31.057039 13548 net.cpp:165] Memory required for data: 1665930324
I0324 22:44:31.057044 13548 layer_factory.hpp:77] Creating layer conv4_1/incep/1_0/relu
I0324 22:44:31.057047 13548 net.cpp:100] Creating Layer conv4_1/incep/1_0/relu
I0324 22:44:31.057050 13548 net.cpp:434] conv4_1/incep/1_0/relu <- conv4_1/incep/1_0
I0324 22:44:31.057055 13548 net.cpp:395] conv4_1/incep/1_0/relu -> conv4_1/incep/1_0 (in-place)
I0324 22:44:31.057528 13548 net.cpp:150] Setting up conv4_1/incep/1_0/relu
I0324 22:44:31.057535 13548 net.cpp:157] Top shape: 1 128 54 90 (622080)
I0324 22:44:31.057538 13548 net.cpp:165] Memory required for data: 1668418644
I0324 22:44:31.057541 13548 layer_factory.hpp:77] Creating layer conv4_1/incep/2_reduce/conv
I0324 22:44:31.057548 13548 net.cpp:100] Creating Layer conv4_1/incep/2_reduce/conv
I0324 22:44:31.057551 13548 net.cpp:434] conv4_1/incep/2_reduce/conv <- conv3_4_conv3_4_0_split_2
I0324 22:44:31.057556 13548 net.cpp:408] conv4_1/incep/2_reduce/conv -> conv4_1/incep/2_reduce
I0324 22:44:31.058475 13548 net.cpp:150] Setting up conv4_1/incep/2_reduce/conv
I0324 22:44:31.058486 13548 net.cpp:157] Top shape: 1 24 54 90 (116640)
I0324 22:44:31.058488 13548 net.cpp:165] Memory required for data: 1668885204
I0324 22:44:31.058492 13548 layer_factory.hpp:77] Creating layer conv4_1/incep/2_reduce/bn
I0324 22:44:31.058497 13548 net.cpp:100] Creating Layer conv4_1/incep/2_reduce/bn
I0324 22:44:31.058501 13548 net.cpp:434] conv4_1/incep/2_reduce/bn <- conv4_1/incep/2_reduce
I0324 22:44:31.058506 13548 net.cpp:395] conv4_1/incep/2_reduce/bn -> conv4_1/incep/2_reduce (in-place)
I0324 22:44:31.058676 13548 net.cpp:150] Setting up conv4_1/incep/2_reduce/bn
I0324 22:44:31.058681 13548 net.cpp:157] Top shape: 1 24 54 90 (116640)
I0324 22:44:31.058683 13548 net.cpp:165] Memory required for data: 1669351764
I0324 22:44:31.058688 13548 layer_factory.hpp:77] Creating layer conv4_1/incep/2_reduce/bn_scale
I0324 22:44:31.058692 13548 net.cpp:100] Creating Layer conv4_1/incep/2_reduce/bn_scale
I0324 22:44:31.058696 13548 net.cpp:434] conv4_1/incep/2_reduce/bn_scale <- conv4_1/incep/2_reduce
I0324 22:44:31.058701 13548 net.cpp:395] conv4_1/incep/2_reduce/bn_scale -> conv4_1/incep/2_reduce (in-place)
I0324 22:44:31.058735 13548 layer_factory.hpp:77] Creating layer conv4_1/incep/2_reduce/bn_scale
I0324 22:44:31.058836 13548 net.cpp:150] Setting up conv4_1/incep/2_reduce/bn_scale
I0324 22:44:31.058841 13548 net.cpp:157] Top shape: 1 24 54 90 (116640)
I0324 22:44:31.058843 13548 net.cpp:165] Memory required for data: 1669818324
I0324 22:44:31.058847 13548 layer_factory.hpp:77] Creating layer conv4_1/incep/2_reduce/relu
I0324 22:44:31.058852 13548 net.cpp:100] Creating Layer conv4_1/incep/2_reduce/relu
I0324 22:44:31.058856 13548 net.cpp:434] conv4_1/incep/2_reduce/relu <- conv4_1/incep/2_reduce
I0324 22:44:31.058859 13548 net.cpp:395] conv4_1/incep/2_reduce/relu -> conv4_1/incep/2_reduce (in-place)
I0324 22:44:31.059332 13548 net.cpp:150] Setting up conv4_1/incep/2_reduce/relu
I0324 22:44:31.059342 13548 net.cpp:157] Top shape: 1 24 54 90 (116640)
I0324 22:44:31.059345 13548 net.cpp:165] Memory required for data: 1670284884
I0324 22:44:31.059348 13548 layer_factory.hpp:77] Creating layer conv4_1/incep/2_0/conv
I0324 22:44:31.059355 13548 net.cpp:100] Creating Layer conv4_1/incep/2_0/conv
I0324 22:44:31.059358 13548 net.cpp:434] conv4_1/incep/2_0/conv <- conv4_1/incep/2_reduce
I0324 22:44:31.059362 13548 net.cpp:408] conv4_1/incep/2_0/conv -> conv4_1/incep/2_0
I0324 22:44:31.060647 13548 net.cpp:150] Setting up conv4_1/incep/2_0/conv
I0324 22:44:31.060657 13548 net.cpp:157] Top shape: 1 48 54 90 (233280)
I0324 22:44:31.060660 13548 net.cpp:165] Memory required for data: 1671218004
I0324 22:44:31.060664 13548 layer_factory.hpp:77] Creating layer conv4_1/incep/2_0/bn
I0324 22:44:31.060669 13548 net.cpp:100] Creating Layer conv4_1/incep/2_0/bn
I0324 22:44:31.060673 13548 net.cpp:434] conv4_1/incep/2_0/bn <- conv4_1/incep/2_0
I0324 22:44:31.060678 13548 net.cpp:395] conv4_1/incep/2_0/bn -> conv4_1/incep/2_0 (in-place)
I0324 22:44:31.060839 13548 net.cpp:150] Setting up conv4_1/incep/2_0/bn
I0324 22:44:31.060845 13548 net.cpp:157] Top shape: 1 48 54 90 (233280)
I0324 22:44:31.060847 13548 net.cpp:165] Memory required for data: 1672151124
I0324 22:44:31.060853 13548 layer_factory.hpp:77] Creating layer conv4_1/incep/2_0/bn_scale
I0324 22:44:31.060856 13548 net.cpp:100] Creating Layer conv4_1/incep/2_0/bn_scale
I0324 22:44:31.060859 13548 net.cpp:434] conv4_1/incep/2_0/bn_scale <- conv4_1/incep/2_0
I0324 22:44:31.060864 13548 net.cpp:395] conv4_1/incep/2_0/bn_scale -> conv4_1/incep/2_0 (in-place)
I0324 22:44:31.060895 13548 layer_factory.hpp:77] Creating layer conv4_1/incep/2_0/bn_scale
I0324 22:44:31.060997 13548 net.cpp:150] Setting up conv4_1/incep/2_0/bn_scale
I0324 22:44:31.061002 13548 net.cpp:157] Top shape: 1 48 54 90 (233280)
I0324 22:44:31.061003 13548 net.cpp:165] Memory required for data: 1673084244
I0324 22:44:31.061007 13548 layer_factory.hpp:77] Creating layer conv4_1/incep/2_0/relu
I0324 22:44:31.061012 13548 net.cpp:100] Creating Layer conv4_1/incep/2_0/relu
I0324 22:44:31.061014 13548 net.cpp:434] conv4_1/incep/2_0/relu <- conv4_1/incep/2_0
I0324 22:44:31.061018 13548 net.cpp:395] conv4_1/incep/2_0/relu -> conv4_1/incep/2_0 (in-place)
I0324 22:44:31.061147 13548 net.cpp:150] Setting up conv4_1/incep/2_0/relu
I0324 22:44:31.061153 13548 net.cpp:157] Top shape: 1 48 54 90 (233280)
I0324 22:44:31.061156 13548 net.cpp:165] Memory required for data: 1674017364
I0324 22:44:31.061158 13548 layer_factory.hpp:77] Creating layer conv4_1/incep/2_1/conv
I0324 22:44:31.061164 13548 net.cpp:100] Creating Layer conv4_1/incep/2_1/conv
I0324 22:44:31.061167 13548 net.cpp:434] conv4_1/incep/2_1/conv <- conv4_1/incep/2_0
I0324 22:44:31.061172 13548 net.cpp:408] conv4_1/incep/2_1/conv -> conv4_1/incep/2_1
I0324 22:44:31.062484 13548 net.cpp:150] Setting up conv4_1/incep/2_1/conv
I0324 22:44:31.062494 13548 net.cpp:157] Top shape: 1 48 54 90 (233280)
I0324 22:44:31.062496 13548 net.cpp:165] Memory required for data: 1674950484
I0324 22:44:31.062500 13548 layer_factory.hpp:77] Creating layer conv4_1/incep/2_1/bn
I0324 22:44:31.062506 13548 net.cpp:100] Creating Layer conv4_1/incep/2_1/bn
I0324 22:44:31.062512 13548 net.cpp:434] conv4_1/incep/2_1/bn <- conv4_1/incep/2_1
I0324 22:44:31.062516 13548 net.cpp:395] conv4_1/incep/2_1/bn -> conv4_1/incep/2_1 (in-place)
I0324 22:44:31.062683 13548 net.cpp:150] Setting up conv4_1/incep/2_1/bn
I0324 22:44:31.062690 13548 net.cpp:157] Top shape: 1 48 54 90 (233280)
I0324 22:44:31.062691 13548 net.cpp:165] Memory required for data: 1675883604
I0324 22:44:31.062696 13548 layer_factory.hpp:77] Creating layer conv4_1/incep/2_1/bn_scale
I0324 22:44:31.062701 13548 net.cpp:100] Creating Layer conv4_1/incep/2_1/bn_scale
I0324 22:44:31.062705 13548 net.cpp:434] conv4_1/incep/2_1/bn_scale <- conv4_1/incep/2_1
I0324 22:44:31.062708 13548 net.cpp:395] conv4_1/incep/2_1/bn_scale -> conv4_1/incep/2_1 (in-place)
I0324 22:44:31.062742 13548 layer_factory.hpp:77] Creating layer conv4_1/incep/2_1/bn_scale
I0324 22:44:31.062844 13548 net.cpp:150] Setting up conv4_1/incep/2_1/bn_scale
I0324 22:44:31.062850 13548 net.cpp:157] Top shape: 1 48 54 90 (233280)
I0324 22:44:31.062852 13548 net.cpp:165] Memory required for data: 1676816724
I0324 22:44:31.062856 13548 layer_factory.hpp:77] Creating layer conv4_1/incep/2_1/relu
I0324 22:44:31.062860 13548 net.cpp:100] Creating Layer conv4_1/incep/2_1/relu
I0324 22:44:31.062863 13548 net.cpp:434] conv4_1/incep/2_1/relu <- conv4_1/incep/2_1
I0324 22:44:31.062867 13548 net.cpp:395] conv4_1/incep/2_1/relu -> conv4_1/incep/2_1 (in-place)
I0324 22:44:31.063343 13548 net.cpp:150] Setting up conv4_1/incep/2_1/relu
I0324 22:44:31.063351 13548 net.cpp:157] Top shape: 1 48 54 90 (233280)
I0324 22:44:31.063354 13548 net.cpp:165] Memory required for data: 1677749844
I0324 22:44:31.063356 13548 layer_factory.hpp:77] Creating layer conv4_1/incep/pool
I0324 22:44:31.063361 13548 net.cpp:100] Creating Layer conv4_1/incep/pool
I0324 22:44:31.063364 13548 net.cpp:434] conv4_1/incep/pool <- conv3_4_conv3_4_0_split_3
I0324 22:44:31.063369 13548 net.cpp:408] conv4_1/incep/pool -> conv4_1/incep/pool
I0324 22:44:31.063408 13548 net.cpp:150] Setting up conv4_1/incep/pool
I0324 22:44:31.063413 13548 net.cpp:157] Top shape: 1 128 54 90 (622080)
I0324 22:44:31.063416 13548 net.cpp:165] Memory required for data: 1680238164
I0324 22:44:31.063418 13548 layer_factory.hpp:77] Creating layer conv4_1/incep/poolproj/conv
I0324 22:44:31.063426 13548 net.cpp:100] Creating Layer conv4_1/incep/poolproj/conv
I0324 22:44:31.063428 13548 net.cpp:434] conv4_1/incep/poolproj/conv <- conv4_1/incep/pool
I0324 22:44:31.063433 13548 net.cpp:408] conv4_1/incep/poolproj/conv -> conv4_1/incep/poolproj
I0324 22:44:31.064400 13548 net.cpp:150] Setting up conv4_1/incep/poolproj/conv
I0324 22:44:31.064411 13548 net.cpp:157] Top shape: 1 128 54 90 (622080)
I0324 22:44:31.064414 13548 net.cpp:165] Memory required for data: 1682726484
I0324 22:44:31.064419 13548 layer_factory.hpp:77] Creating layer conv4_1/incep/poolproj/bn
I0324 22:44:31.064424 13548 net.cpp:100] Creating Layer conv4_1/incep/poolproj/bn
I0324 22:44:31.064426 13548 net.cpp:434] conv4_1/incep/poolproj/bn <- conv4_1/incep/poolproj
I0324 22:44:31.064431 13548 net.cpp:395] conv4_1/incep/poolproj/bn -> conv4_1/incep/poolproj (in-place)
I0324 22:44:31.064590 13548 net.cpp:150] Setting up conv4_1/incep/poolproj/bn
I0324 22:44:31.064596 13548 net.cpp:157] Top shape: 1 128 54 90 (622080)
I0324 22:44:31.064599 13548 net.cpp:165] Memory required for data: 1685214804
I0324 22:44:31.064604 13548 layer_factory.hpp:77] Creating layer conv4_1/incep/poolproj/bn_scale
I0324 22:44:31.064609 13548 net.cpp:100] Creating Layer conv4_1/incep/poolproj/bn_scale
I0324 22:44:31.064610 13548 net.cpp:434] conv4_1/incep/poolproj/bn_scale <- conv4_1/incep/poolproj
I0324 22:44:31.064615 13548 net.cpp:395] conv4_1/incep/poolproj/bn_scale -> conv4_1/incep/poolproj (in-place)
I0324 22:44:31.064646 13548 layer_factory.hpp:77] Creating layer conv4_1/incep/poolproj/bn_scale
I0324 22:44:31.064741 13548 net.cpp:150] Setting up conv4_1/incep/poolproj/bn_scale
I0324 22:44:31.064746 13548 net.cpp:157] Top shape: 1 128 54 90 (622080)
I0324 22:44:31.064749 13548 net.cpp:165] Memory required for data: 1687703124
I0324 22:44:31.064755 13548 layer_factory.hpp:77] Creating layer conv4_1/incep/poolproj/relu
I0324 22:44:31.064759 13548 net.cpp:100] Creating Layer conv4_1/incep/poolproj/relu
I0324 22:44:31.064762 13548 net.cpp:434] conv4_1/incep/poolproj/relu <- conv4_1/incep/poolproj
I0324 22:44:31.064767 13548 net.cpp:395] conv4_1/incep/poolproj/relu -> conv4_1/incep/poolproj (in-place)
I0324 22:44:31.065243 13548 net.cpp:150] Setting up conv4_1/incep/poolproj/relu
I0324 22:44:31.065251 13548 net.cpp:157] Top shape: 1 128 54 90 (622080)
I0324 22:44:31.065254 13548 net.cpp:165] Memory required for data: 1690191444
I0324 22:44:31.065256 13548 layer_factory.hpp:77] Creating layer conv4_1/incep
I0324 22:44:31.065261 13548 net.cpp:100] Creating Layer conv4_1/incep
I0324 22:44:31.065264 13548 net.cpp:434] conv4_1/incep <- conv4_1/incep/0
I0324 22:44:31.065268 13548 net.cpp:434] conv4_1/incep <- conv4_1/incep/1_0
I0324 22:44:31.065271 13548 net.cpp:434] conv4_1/incep <- conv4_1/incep/2_1
I0324 22:44:31.065274 13548 net.cpp:434] conv4_1/incep <- conv4_1/incep/poolproj
I0324 22:44:31.065280 13548 net.cpp:408] conv4_1/incep -> conv4_1/incep
I0324 22:44:31.065306 13548 net.cpp:150] Setting up conv4_1/incep
I0324 22:44:31.065311 13548 net.cpp:157] Top shape: 1 368 54 90 (1788480)
I0324 22:44:31.065313 13548 net.cpp:165] Memory required for data: 1697345364
I0324 22:44:31.065315 13548 layer_factory.hpp:77] Creating layer conv4_1/out/conv
I0324 22:44:31.065322 13548 net.cpp:100] Creating Layer conv4_1/out/conv
I0324 22:44:31.065325 13548 net.cpp:434] conv4_1/out/conv <- conv4_1/incep
I0324 22:44:31.065330 13548 net.cpp:408] conv4_1/out/conv -> conv4_1/out
I0324 22:44:31.066972 13548 net.cpp:150] Setting up conv4_1/out/conv
I0324 22:44:31.066982 13548 net.cpp:157] Top shape: 1 256 54 90 (1244160)
I0324 22:44:31.066985 13548 net.cpp:165] Memory required for data: 1702322004
I0324 22:44:31.066989 13548 layer_factory.hpp:77] Creating layer conv4_1/out/bn
I0324 22:44:31.066994 13548 net.cpp:100] Creating Layer conv4_1/out/bn
I0324 22:44:31.066998 13548 net.cpp:434] conv4_1/out/bn <- conv4_1/out
I0324 22:44:31.067001 13548 net.cpp:395] conv4_1/out/bn -> conv4_1/out (in-place)
I0324 22:44:31.067164 13548 net.cpp:150] Setting up conv4_1/out/bn
I0324 22:44:31.067169 13548 net.cpp:157] Top shape: 1 256 54 90 (1244160)
I0324 22:44:31.067172 13548 net.cpp:165] Memory required for data: 1707298644
I0324 22:44:31.067176 13548 layer_factory.hpp:77] Creating layer conv4_1/out/bn_scale
I0324 22:44:31.067180 13548 net.cpp:100] Creating Layer conv4_1/out/bn_scale
I0324 22:44:31.067183 13548 net.cpp:434] conv4_1/out/bn_scale <- conv4_1/out
I0324 22:44:31.067188 13548 net.cpp:395] conv4_1/out/bn_scale -> conv4_1/out (in-place)
I0324 22:44:31.067219 13548 layer_factory.hpp:77] Creating layer conv4_1/out/bn_scale
I0324 22:44:31.067313 13548 net.cpp:150] Setting up conv4_1/out/bn_scale
I0324 22:44:31.067318 13548 net.cpp:157] Top shape: 1 256 54 90 (1244160)
I0324 22:44:31.067320 13548 net.cpp:165] Memory required for data: 1712275284
I0324 22:44:31.067324 13548 layer_factory.hpp:77] Creating layer conv4_1/proj
I0324 22:44:31.067332 13548 net.cpp:100] Creating Layer conv4_1/proj
I0324 22:44:31.067334 13548 net.cpp:434] conv4_1/proj <- conv3_4_conv3_4_0_split_4
I0324 22:44:31.067339 13548 net.cpp:408] conv4_1/proj -> conv4_1/proj
I0324 22:44:31.068756 13548 net.cpp:150] Setting up conv4_1/proj
I0324 22:44:31.068768 13548 net.cpp:157] Top shape: 1 256 54 90 (1244160)
I0324 22:44:31.068770 13548 net.cpp:165] Memory required for data: 1717251924
I0324 22:44:31.068774 13548 layer_factory.hpp:77] Creating layer conv4_1/proj_bn
I0324 22:44:31.068779 13548 net.cpp:100] Creating Layer conv4_1/proj_bn
I0324 22:44:31.068783 13548 net.cpp:434] conv4_1/proj_bn <- conv4_1/proj
I0324 22:44:31.068788 13548 net.cpp:395] conv4_1/proj_bn -> conv4_1/proj (in-place)
I0324 22:44:31.068953 13548 net.cpp:150] Setting up conv4_1/proj_bn
I0324 22:44:31.068958 13548 net.cpp:157] Top shape: 1 256 54 90 (1244160)
I0324 22:44:31.068960 13548 net.cpp:165] Memory required for data: 1722228564
I0324 22:44:31.068969 13548 layer_factory.hpp:77] Creating layer conv4_1/proj_bn_scale
I0324 22:44:31.068974 13548 net.cpp:100] Creating Layer conv4_1/proj_bn_scale
I0324 22:44:31.068976 13548 net.cpp:434] conv4_1/proj_bn_scale <- conv4_1/proj
I0324 22:44:31.068980 13548 net.cpp:395] conv4_1/proj_bn_scale -> conv4_1/proj (in-place)
I0324 22:44:31.069012 13548 layer_factory.hpp:77] Creating layer conv4_1/proj_bn_scale
I0324 22:44:31.069386 13548 net.cpp:150] Setting up conv4_1/proj_bn_scale
I0324 22:44:31.069393 13548 net.cpp:157] Top shape: 1 256 54 90 (1244160)
I0324 22:44:31.069396 13548 net.cpp:165] Memory required for data: 1727205204
I0324 22:44:31.069401 13548 layer_factory.hpp:77] Creating layer conv4_1
I0324 22:44:31.069406 13548 net.cpp:100] Creating Layer conv4_1
I0324 22:44:31.069409 13548 net.cpp:434] conv4_1 <- conv4_1/out
I0324 22:44:31.069412 13548 net.cpp:434] conv4_1 <- conv4_1/proj
I0324 22:44:31.069417 13548 net.cpp:408] conv4_1 -> conv4_1
I0324 22:44:31.069440 13548 net.cpp:150] Setting up conv4_1
I0324 22:44:31.069445 13548 net.cpp:157] Top shape: 1 256 54 90 (1244160)
I0324 22:44:31.069447 13548 net.cpp:165] Memory required for data: 1732181844
I0324 22:44:31.069450 13548 layer_factory.hpp:77] Creating layer conv4_1_conv4_1_0_split
I0324 22:44:31.069454 13548 net.cpp:100] Creating Layer conv4_1_conv4_1_0_split
I0324 22:44:31.069456 13548 net.cpp:434] conv4_1_conv4_1_0_split <- conv4_1
I0324 22:44:31.069461 13548 net.cpp:408] conv4_1_conv4_1_0_split -> conv4_1_conv4_1_0_split_0
I0324 22:44:31.069468 13548 net.cpp:408] conv4_1_conv4_1_0_split -> conv4_1_conv4_1_0_split_1
I0324 22:44:31.069471 13548 net.cpp:408] conv4_1_conv4_1_0_split -> conv4_1_conv4_1_0_split_2
I0324 22:44:31.069475 13548 net.cpp:408] conv4_1_conv4_1_0_split -> conv4_1_conv4_1_0_split_3
I0324 22:44:31.069525 13548 net.cpp:150] Setting up conv4_1_conv4_1_0_split
I0324 22:44:31.069530 13548 net.cpp:157] Top shape: 1 256 54 90 (1244160)
I0324 22:44:31.069532 13548 net.cpp:157] Top shape: 1 256 54 90 (1244160)
I0324 22:44:31.069535 13548 net.cpp:157] Top shape: 1 256 54 90 (1244160)
I0324 22:44:31.069537 13548 net.cpp:157] Top shape: 1 256 54 90 (1244160)
I0324 22:44:31.069540 13548 net.cpp:165] Memory required for data: 1752088404
I0324 22:44:31.069542 13548 layer_factory.hpp:77] Creating layer conv4_2/incep/0/conv
I0324 22:44:31.069548 13548 net.cpp:100] Creating Layer conv4_2/incep/0/conv
I0324 22:44:31.069551 13548 net.cpp:434] conv4_2/incep/0/conv <- conv4_1_conv4_1_0_split_0
I0324 22:44:31.069555 13548 net.cpp:408] conv4_2/incep/0/conv -> conv4_2/incep/0
I0324 22:44:31.070521 13548 net.cpp:150] Setting up conv4_2/incep/0/conv
I0324 22:44:31.070530 13548 net.cpp:157] Top shape: 1 64 54 90 (311040)
I0324 22:44:31.070533 13548 net.cpp:165] Memory required for data: 1753332564
I0324 22:44:31.070538 13548 layer_factory.hpp:77] Creating layer conv4_2/incep/0/bn
I0324 22:44:31.070543 13548 net.cpp:100] Creating Layer conv4_2/incep/0/bn
I0324 22:44:31.070545 13548 net.cpp:434] conv4_2/incep/0/bn <- conv4_2/incep/0
I0324 22:44:31.070551 13548 net.cpp:395] conv4_2/incep/0/bn -> conv4_2/incep/0 (in-place)
I0324 22:44:31.070715 13548 net.cpp:150] Setting up conv4_2/incep/0/bn
I0324 22:44:31.070720 13548 net.cpp:157] Top shape: 1 64 54 90 (311040)
I0324 22:44:31.070724 13548 net.cpp:165] Memory required for data: 1754576724
I0324 22:44:31.070729 13548 layer_factory.hpp:77] Creating layer conv4_2/incep/0/bn_scale
I0324 22:44:31.070732 13548 net.cpp:100] Creating Layer conv4_2/incep/0/bn_scale
I0324 22:44:31.070735 13548 net.cpp:434] conv4_2/incep/0/bn_scale <- conv4_2/incep/0
I0324 22:44:31.070740 13548 net.cpp:395] conv4_2/incep/0/bn_scale -> conv4_2/incep/0 (in-place)
I0324 22:44:31.070771 13548 layer_factory.hpp:77] Creating layer conv4_2/incep/0/bn_scale
I0324 22:44:31.070869 13548 net.cpp:150] Setting up conv4_2/incep/0/bn_scale
I0324 22:44:31.070874 13548 net.cpp:157] Top shape: 1 64 54 90 (311040)
I0324 22:44:31.070878 13548 net.cpp:165] Memory required for data: 1755820884
I0324 22:44:31.070881 13548 layer_factory.hpp:77] Creating layer conv4_2/incep/0/relu
I0324 22:44:31.070888 13548 net.cpp:100] Creating Layer conv4_2/incep/0/relu
I0324 22:44:31.070891 13548 net.cpp:434] conv4_2/incep/0/relu <- conv4_2/incep/0
I0324 22:44:31.070895 13548 net.cpp:395] conv4_2/incep/0/relu -> conv4_2/incep/0 (in-place)
I0324 22:44:31.071372 13548 net.cpp:150] Setting up conv4_2/incep/0/relu
I0324 22:44:31.071380 13548 net.cpp:157] Top shape: 1 64 54 90 (311040)
I0324 22:44:31.071383 13548 net.cpp:165] Memory required for data: 1757065044
I0324 22:44:31.071385 13548 layer_factory.hpp:77] Creating layer conv4_2/incep/1_reduce/conv
I0324 22:44:31.071393 13548 net.cpp:100] Creating Layer conv4_2/incep/1_reduce/conv
I0324 22:44:31.071396 13548 net.cpp:434] conv4_2/incep/1_reduce/conv <- conv4_1_conv4_1_0_split_1
I0324 22:44:31.071403 13548 net.cpp:408] conv4_2/incep/1_reduce/conv -> conv4_2/incep/1_reduce
I0324 22:44:31.073053 13548 net.cpp:150] Setting up conv4_2/incep/1_reduce/conv
I0324 22:44:31.073063 13548 net.cpp:157] Top shape: 1 64 54 90 (311040)
I0324 22:44:31.073066 13548 net.cpp:165] Memory required for data: 1758309204
I0324 22:44:31.073071 13548 layer_factory.hpp:77] Creating layer conv4_2/incep/1_reduce/bn
I0324 22:44:31.073076 13548 net.cpp:100] Creating Layer conv4_2/incep/1_reduce/bn
I0324 22:44:31.073079 13548 net.cpp:434] conv4_2/incep/1_reduce/bn <- conv4_2/incep/1_reduce
I0324 22:44:31.073083 13548 net.cpp:395] conv4_2/incep/1_reduce/bn -> conv4_2/incep/1_reduce (in-place)
I0324 22:44:31.073248 13548 net.cpp:150] Setting up conv4_2/incep/1_reduce/bn
I0324 22:44:31.073253 13548 net.cpp:157] Top shape: 1 64 54 90 (311040)
I0324 22:44:31.073256 13548 net.cpp:165] Memory required for data: 1759553364
I0324 22:44:31.073261 13548 layer_factory.hpp:77] Creating layer conv4_2/incep/1_reduce/bn_scale
I0324 22:44:31.073266 13548 net.cpp:100] Creating Layer conv4_2/incep/1_reduce/bn_scale
I0324 22:44:31.073268 13548 net.cpp:434] conv4_2/incep/1_reduce/bn_scale <- conv4_2/incep/1_reduce
I0324 22:44:31.073273 13548 net.cpp:395] conv4_2/incep/1_reduce/bn_scale -> conv4_2/incep/1_reduce (in-place)
I0324 22:44:31.073307 13548 layer_factory.hpp:77] Creating layer conv4_2/incep/1_reduce/bn_scale
I0324 22:44:31.073406 13548 net.cpp:150] Setting up conv4_2/incep/1_reduce/bn_scale
I0324 22:44:31.073411 13548 net.cpp:157] Top shape: 1 64 54 90 (311040)
I0324 22:44:31.073413 13548 net.cpp:165] Memory required for data: 1760797524
I0324 22:44:31.073417 13548 layer_factory.hpp:77] Creating layer conv4_2/incep/1_reduce/relu
I0324 22:44:31.073422 13548 net.cpp:100] Creating Layer conv4_2/incep/1_reduce/relu
I0324 22:44:31.073426 13548 net.cpp:434] conv4_2/incep/1_reduce/relu <- conv4_2/incep/1_reduce
I0324 22:44:31.073429 13548 net.cpp:395] conv4_2/incep/1_reduce/relu -> conv4_2/incep/1_reduce (in-place)
I0324 22:44:31.073565 13548 net.cpp:150] Setting up conv4_2/incep/1_reduce/relu
I0324 22:44:31.073570 13548 net.cpp:157] Top shape: 1 64 54 90 (311040)
I0324 22:44:31.073573 13548 net.cpp:165] Memory required for data: 1762041684
I0324 22:44:31.073575 13548 layer_factory.hpp:77] Creating layer conv4_2/incep/1_0/conv
I0324 22:44:31.073582 13548 net.cpp:100] Creating Layer conv4_2/incep/1_0/conv
I0324 22:44:31.073585 13548 net.cpp:434] conv4_2/incep/1_0/conv <- conv4_2/incep/1_reduce
I0324 22:44:31.073590 13548 net.cpp:408] conv4_2/incep/1_0/conv -> conv4_2/incep/1_0
I0324 22:44:31.075474 13548 net.cpp:150] Setting up conv4_2/incep/1_0/conv
I0324 22:44:31.075484 13548 net.cpp:157] Top shape: 1 128 54 90 (622080)
I0324 22:44:31.075486 13548 net.cpp:165] Memory required for data: 1764530004
I0324 22:44:31.075490 13548 layer_factory.hpp:77] Creating layer conv4_2/incep/1_0/bn
I0324 22:44:31.075496 13548 net.cpp:100] Creating Layer conv4_2/incep/1_0/bn
I0324 22:44:31.075500 13548 net.cpp:434] conv4_2/incep/1_0/bn <- conv4_2/incep/1_0
I0324 22:44:31.075505 13548 net.cpp:395] conv4_2/incep/1_0/bn -> conv4_2/incep/1_0 (in-place)
I0324 22:44:31.075675 13548 net.cpp:150] Setting up conv4_2/incep/1_0/bn
I0324 22:44:31.075680 13548 net.cpp:157] Top shape: 1 128 54 90 (622080)
I0324 22:44:31.075685 13548 net.cpp:165] Memory required for data: 1767018324
I0324 22:44:31.075690 13548 layer_factory.hpp:77] Creating layer conv4_2/incep/1_0/bn_scale
I0324 22:44:31.075697 13548 net.cpp:100] Creating Layer conv4_2/incep/1_0/bn_scale
I0324 22:44:31.075700 13548 net.cpp:434] conv4_2/incep/1_0/bn_scale <- conv4_2/incep/1_0
I0324 22:44:31.075705 13548 net.cpp:395] conv4_2/incep/1_0/bn_scale -> conv4_2/incep/1_0 (in-place)
I0324 22:44:31.075738 13548 layer_factory.hpp:77] Creating layer conv4_2/incep/1_0/bn_scale
I0324 22:44:31.075831 13548 net.cpp:150] Setting up conv4_2/incep/1_0/bn_scale
I0324 22:44:31.075836 13548 net.cpp:157] Top shape: 1 128 54 90 (622080)
I0324 22:44:31.075839 13548 net.cpp:165] Memory required for data: 1769506644
I0324 22:44:31.075844 13548 layer_factory.hpp:77] Creating layer conv4_2/incep/1_0/relu
I0324 22:44:31.075848 13548 net.cpp:100] Creating Layer conv4_2/incep/1_0/relu
I0324 22:44:31.075851 13548 net.cpp:434] conv4_2/incep/1_0/relu <- conv4_2/incep/1_0
I0324 22:44:31.075855 13548 net.cpp:395] conv4_2/incep/1_0/relu -> conv4_2/incep/1_0 (in-place)
I0324 22:44:31.076335 13548 net.cpp:150] Setting up conv4_2/incep/1_0/relu
I0324 22:44:31.076344 13548 net.cpp:157] Top shape: 1 128 54 90 (622080)
I0324 22:44:31.076347 13548 net.cpp:165] Memory required for data: 1771994964
I0324 22:44:31.076349 13548 layer_factory.hpp:77] Creating layer conv4_2/incep/2_reduce/conv
I0324 22:44:31.076356 13548 net.cpp:100] Creating Layer conv4_2/incep/2_reduce/conv
I0324 22:44:31.076359 13548 net.cpp:434] conv4_2/incep/2_reduce/conv <- conv4_1_conv4_1_0_split_2
I0324 22:44:31.076364 13548 net.cpp:408] conv4_2/incep/2_reduce/conv -> conv4_2/incep/2_reduce
I0324 22:44:31.077311 13548 net.cpp:150] Setting up conv4_2/incep/2_reduce/conv
I0324 22:44:31.077319 13548 net.cpp:157] Top shape: 1 24 54 90 (116640)
I0324 22:44:31.077322 13548 net.cpp:165] Memory required for data: 1772461524
I0324 22:44:31.077327 13548 layer_factory.hpp:77] Creating layer conv4_2/incep/2_reduce/bn
I0324 22:44:31.077332 13548 net.cpp:100] Creating Layer conv4_2/incep/2_reduce/bn
I0324 22:44:31.077335 13548 net.cpp:434] conv4_2/incep/2_reduce/bn <- conv4_2/incep/2_reduce
I0324 22:44:31.077339 13548 net.cpp:395] conv4_2/incep/2_reduce/bn -> conv4_2/incep/2_reduce (in-place)
I0324 22:44:31.077510 13548 net.cpp:150] Setting up conv4_2/incep/2_reduce/bn
I0324 22:44:31.077515 13548 net.cpp:157] Top shape: 1 24 54 90 (116640)
I0324 22:44:31.077517 13548 net.cpp:165] Memory required for data: 1772928084
I0324 22:44:31.077522 13548 layer_factory.hpp:77] Creating layer conv4_2/incep/2_reduce/bn_scale
I0324 22:44:31.077528 13548 net.cpp:100] Creating Layer conv4_2/incep/2_reduce/bn_scale
I0324 22:44:31.077531 13548 net.cpp:434] conv4_2/incep/2_reduce/bn_scale <- conv4_2/incep/2_reduce
I0324 22:44:31.077535 13548 net.cpp:395] conv4_2/incep/2_reduce/bn_scale -> conv4_2/incep/2_reduce (in-place)
I0324 22:44:31.077569 13548 layer_factory.hpp:77] Creating layer conv4_2/incep/2_reduce/bn_scale
I0324 22:44:31.077672 13548 net.cpp:150] Setting up conv4_2/incep/2_reduce/bn_scale
I0324 22:44:31.077677 13548 net.cpp:157] Top shape: 1 24 54 90 (116640)
I0324 22:44:31.077679 13548 net.cpp:165] Memory required for data: 1773394644
I0324 22:44:31.077684 13548 layer_factory.hpp:77] Creating layer conv4_2/incep/2_reduce/relu
I0324 22:44:31.077688 13548 net.cpp:100] Creating Layer conv4_2/incep/2_reduce/relu
I0324 22:44:31.077692 13548 net.cpp:434] conv4_2/incep/2_reduce/relu <- conv4_2/incep/2_reduce
I0324 22:44:31.077694 13548 net.cpp:395] conv4_2/incep/2_reduce/relu -> conv4_2/incep/2_reduce (in-place)
I0324 22:44:31.078171 13548 net.cpp:150] Setting up conv4_2/incep/2_reduce/relu
I0324 22:44:31.078181 13548 net.cpp:157] Top shape: 1 24 54 90 (116640)
I0324 22:44:31.078183 13548 net.cpp:165] Memory required for data: 1773861204
I0324 22:44:31.078186 13548 layer_factory.hpp:77] Creating layer conv4_2/incep/2_0/conv
I0324 22:44:31.078193 13548 net.cpp:100] Creating Layer conv4_2/incep/2_0/conv
I0324 22:44:31.078197 13548 net.cpp:434] conv4_2/incep/2_0/conv <- conv4_2/incep/2_reduce
I0324 22:44:31.078204 13548 net.cpp:408] conv4_2/incep/2_0/conv -> conv4_2/incep/2_0
I0324 22:44:31.079504 13548 net.cpp:150] Setting up conv4_2/incep/2_0/conv
I0324 22:44:31.079512 13548 net.cpp:157] Top shape: 1 48 54 90 (233280)
I0324 22:44:31.079515 13548 net.cpp:165] Memory required for data: 1774794324
I0324 22:44:31.079519 13548 layer_factory.hpp:77] Creating layer conv4_2/incep/2_0/bn
I0324 22:44:31.079526 13548 net.cpp:100] Creating Layer conv4_2/incep/2_0/bn
I0324 22:44:31.079530 13548 net.cpp:434] conv4_2/incep/2_0/bn <- conv4_2/incep/2_0
I0324 22:44:31.079535 13548 net.cpp:395] conv4_2/incep/2_0/bn -> conv4_2/incep/2_0 (in-place)
I0324 22:44:31.079704 13548 net.cpp:150] Setting up conv4_2/incep/2_0/bn
I0324 22:44:31.079708 13548 net.cpp:157] Top shape: 1 48 54 90 (233280)
I0324 22:44:31.079711 13548 net.cpp:165] Memory required for data: 1775727444
I0324 22:44:31.079716 13548 layer_factory.hpp:77] Creating layer conv4_2/incep/2_0/bn_scale
I0324 22:44:31.079721 13548 net.cpp:100] Creating Layer conv4_2/incep/2_0/bn_scale
I0324 22:44:31.079725 13548 net.cpp:434] conv4_2/incep/2_0/bn_scale <- conv4_2/incep/2_0
I0324 22:44:31.079728 13548 net.cpp:395] conv4_2/incep/2_0/bn_scale -> conv4_2/incep/2_0 (in-place)
I0324 22:44:31.079761 13548 layer_factory.hpp:77] Creating layer conv4_2/incep/2_0/bn_scale
I0324 22:44:31.079865 13548 net.cpp:150] Setting up conv4_2/incep/2_0/bn_scale
I0324 22:44:31.079870 13548 net.cpp:157] Top shape: 1 48 54 90 (233280)
I0324 22:44:31.079872 13548 net.cpp:165] Memory required for data: 1776660564
I0324 22:44:31.079876 13548 layer_factory.hpp:77] Creating layer conv4_2/incep/2_0/relu
I0324 22:44:31.079880 13548 net.cpp:100] Creating Layer conv4_2/incep/2_0/relu
I0324 22:44:31.079883 13548 net.cpp:434] conv4_2/incep/2_0/relu <- conv4_2/incep/2_0
I0324 22:44:31.079888 13548 net.cpp:395] conv4_2/incep/2_0/relu -> conv4_2/incep/2_0 (in-place)
I0324 22:44:31.080018 13548 net.cpp:150] Setting up conv4_2/incep/2_0/relu
I0324 22:44:31.080024 13548 net.cpp:157] Top shape: 1 48 54 90 (233280)
I0324 22:44:31.080026 13548 net.cpp:165] Memory required for data: 1777593684
I0324 22:44:31.080029 13548 layer_factory.hpp:77] Creating layer conv4_2/incep/2_1/conv
I0324 22:44:31.080035 13548 net.cpp:100] Creating Layer conv4_2/incep/2_1/conv
I0324 22:44:31.080039 13548 net.cpp:434] conv4_2/incep/2_1/conv <- conv4_2/incep/2_0
I0324 22:44:31.080044 13548 net.cpp:408] conv4_2/incep/2_1/conv -> conv4_2/incep/2_1
I0324 22:44:31.081384 13548 net.cpp:150] Setting up conv4_2/incep/2_1/conv
I0324 22:44:31.081395 13548 net.cpp:157] Top shape: 1 48 54 90 (233280)
I0324 22:44:31.081398 13548 net.cpp:165] Memory required for data: 1778526804
I0324 22:44:31.081403 13548 layer_factory.hpp:77] Creating layer conv4_2/incep/2_1/bn
I0324 22:44:31.081408 13548 net.cpp:100] Creating Layer conv4_2/incep/2_1/bn
I0324 22:44:31.081410 13548 net.cpp:434] conv4_2/incep/2_1/bn <- conv4_2/incep/2_1
I0324 22:44:31.081415 13548 net.cpp:395] conv4_2/incep/2_1/bn -> conv4_2/incep/2_1 (in-place)
I0324 22:44:31.081588 13548 net.cpp:150] Setting up conv4_2/incep/2_1/bn
I0324 22:44:31.081593 13548 net.cpp:157] Top shape: 1 48 54 90 (233280)
I0324 22:44:31.081594 13548 net.cpp:165] Memory required for data: 1779459924
I0324 22:44:31.081599 13548 layer_factory.hpp:77] Creating layer conv4_2/incep/2_1/bn_scale
I0324 22:44:31.081606 13548 net.cpp:100] Creating Layer conv4_2/incep/2_1/bn_scale
I0324 22:44:31.081609 13548 net.cpp:434] conv4_2/incep/2_1/bn_scale <- conv4_2/incep/2_1
I0324 22:44:31.081614 13548 net.cpp:395] conv4_2/incep/2_1/bn_scale -> conv4_2/incep/2_1 (in-place)
I0324 22:44:31.081647 13548 layer_factory.hpp:77] Creating layer conv4_2/incep/2_1/bn_scale
I0324 22:44:31.081750 13548 net.cpp:150] Setting up conv4_2/incep/2_1/bn_scale
I0324 22:44:31.081756 13548 net.cpp:157] Top shape: 1 48 54 90 (233280)
I0324 22:44:31.081758 13548 net.cpp:165] Memory required for data: 1780393044
I0324 22:44:31.081763 13548 layer_factory.hpp:77] Creating layer conv4_2/incep/2_1/relu
I0324 22:44:31.081766 13548 net.cpp:100] Creating Layer conv4_2/incep/2_1/relu
I0324 22:44:31.081773 13548 net.cpp:434] conv4_2/incep/2_1/relu <- conv4_2/incep/2_1
I0324 22:44:31.081776 13548 net.cpp:395] conv4_2/incep/2_1/relu -> conv4_2/incep/2_1 (in-place)
I0324 22:44:31.082254 13548 net.cpp:150] Setting up conv4_2/incep/2_1/relu
I0324 22:44:31.082263 13548 net.cpp:157] Top shape: 1 48 54 90 (233280)
I0324 22:44:31.082267 13548 net.cpp:165] Memory required for data: 1781326164
I0324 22:44:31.082268 13548 layer_factory.hpp:77] Creating layer conv4_2/incep
I0324 22:44:31.082274 13548 net.cpp:100] Creating Layer conv4_2/incep
I0324 22:44:31.082278 13548 net.cpp:434] conv4_2/incep <- conv4_2/incep/0
I0324 22:44:31.082281 13548 net.cpp:434] conv4_2/incep <- conv4_2/incep/1_0
I0324 22:44:31.082284 13548 net.cpp:434] conv4_2/incep <- conv4_2/incep/2_1
I0324 22:44:31.082288 13548 net.cpp:408] conv4_2/incep -> conv4_2/incep
I0324 22:44:31.082315 13548 net.cpp:150] Setting up conv4_2/incep
I0324 22:44:31.082319 13548 net.cpp:157] Top shape: 1 240 54 90 (1166400)
I0324 22:44:31.082322 13548 net.cpp:165] Memory required for data: 1785991764
I0324 22:44:31.082324 13548 layer_factory.hpp:77] Creating layer conv4_2/out/conv
I0324 22:44:31.082330 13548 net.cpp:100] Creating Layer conv4_2/out/conv
I0324 22:44:31.082334 13548 net.cpp:434] conv4_2/out/conv <- conv4_2/incep
I0324 22:44:31.082339 13548 net.cpp:408] conv4_2/out/conv -> conv4_2/out
I0324 22:44:31.084094 13548 net.cpp:150] Setting up conv4_2/out/conv
I0324 22:44:31.084103 13548 net.cpp:157] Top shape: 1 256 54 90 (1244160)
I0324 22:44:31.084106 13548 net.cpp:165] Memory required for data: 1790968404
I0324 22:44:31.084110 13548 layer_factory.hpp:77] Creating layer conv4_2/out/bn
I0324 22:44:31.084116 13548 net.cpp:100] Creating Layer conv4_2/out/bn
I0324 22:44:31.084120 13548 net.cpp:434] conv4_2/out/bn <- conv4_2/out
I0324 22:44:31.084125 13548 net.cpp:395] conv4_2/out/bn -> conv4_2/out (in-place)
I0324 22:44:31.084295 13548 net.cpp:150] Setting up conv4_2/out/bn
I0324 22:44:31.084300 13548 net.cpp:157] Top shape: 1 256 54 90 (1244160)
I0324 22:44:31.084301 13548 net.cpp:165] Memory required for data: 1795945044
I0324 22:44:31.084306 13548 layer_factory.hpp:77] Creating layer conv4_2/out/bn_scale
I0324 22:44:31.084312 13548 net.cpp:100] Creating Layer conv4_2/out/bn_scale
I0324 22:44:31.084316 13548 net.cpp:434] conv4_2/out/bn_scale <- conv4_2/out
I0324 22:44:31.084318 13548 net.cpp:395] conv4_2/out/bn_scale -> conv4_2/out (in-place)
I0324 22:44:31.084352 13548 layer_factory.hpp:77] Creating layer conv4_2/out/bn_scale
I0324 22:44:31.084468 13548 net.cpp:150] Setting up conv4_2/out/bn_scale
I0324 22:44:31.084475 13548 net.cpp:157] Top shape: 1 256 54 90 (1244160)
I0324 22:44:31.084477 13548 net.cpp:165] Memory required for data: 1800921684
…
I0324 22:44:31.182507 13548 net.cpp:434] conv5_4/incep/0/relu <- conv5_4/incep/0
I0324 22:44:31.182512 13548 net.cpp:395] conv5_4/incep/0/relu -> conv5_4/incep/0 (in-place)
I0324 22:44:31.183012 13548 net.cpp:150] Setting up conv5_4/incep/0/relu
I0324 22:44:31.183020 13548 net.cpp:157] Top shape: 1 64 27 45 (77760)
I0324 22:44:31.183023 13548 net.cpp:165] Memory required for data: 2092366164
I0324 22:44:31.183025 13548 layer_factory.hpp:77] Creating layer conv5_4/incep/1_reduce/conv
I0324 22:44:31.183032 13548 net.cpp:100] Creating Layer conv5_4/incep/1_reduce/conv
I0324 22:44:31.183037 13548 net.cpp:434] conv5_4/incep/1_reduce/conv <- conv5_3_conv5_3_0_split_1
I0324 22:44:31.183042 13548 net.cpp:408] conv5_4/incep/1_reduce/conv -> conv5_4/incep/1_reduce
I0324 22:44:31.184829 13548 net.cpp:150] Setting up conv5_4/incep/1_reduce/conv
I0324 22:44:31.184839 13548 net.cpp:157] Top shape: 1 96 27 45 (116640)
I0324 22:44:31.184842 13548 net.cpp:165] Memory required for data: 2092832724
I0324 22:44:31.184845 13548 layer_factory.hpp:77] Creating layer conv5_4/incep/1_reduce/bn
I0324 22:44:31.184852 13548 net.cpp:100] Creating Layer conv5_4/incep/1_reduce/bn
I0324 22:44:31.184855 13548 net.cpp:434] conv5_4/incep/1_reduce/bn <- conv5_4/incep/1_reduce
I0324 22:44:31.184861 13548 net.cpp:395] conv5_4/incep/1_reduce/bn -> conv5_4/incep/1_reduce (in-place)
I0324 22:44:31.185024 13548 net.cpp:150] Setting up conv5_4/incep/1_reduce/bn
I0324 22:44:31.185030 13548 net.cpp:157] Top shape: 1 96 27 45 (116640)
I0324 22:44:31.185032 13548 net.cpp:165] Memory required for data: 2093299284
I0324 22:44:31.185037 13548 layer_factory.hpp:77] Creating layer conv5_4/incep/1_reduce/bn_scale
I0324 22:44:31.185044 13548 net.cpp:100] Creating Layer conv5_4/incep/1_reduce/bn_scale
I0324 22:44:31.185046 13548 net.cpp:434] conv5_4/incep/1_reduce/bn_scale <- conv5_4/incep/1_reduce
I0324 22:44:31.185050 13548 net.cpp:395] conv5_4/incep/1_reduce/bn_scale -> conv5_4/incep/1_reduce (in-place)
I0324 22:44:31.185081 13548 layer_factory.hpp:77] Creating layer conv5_4/incep/1_reduce/bn_scale
I0324 22:44:31.185189 13548 net.cpp:150] Setting up conv5_4/incep/1_reduce/bn_scale
I0324 22:44:31.185195 13548 net.cpp:157] Top shape: 1 96 27 45 (116640)
I0324 22:44:31.185197 13548 net.cpp:165] Memory required for data: 2093765844
I0324 22:44:31.185201 13548 layer_factory.hpp:77] Creating layer conv5_4/incep/1_reduce/relu
I0324 22:44:31.185206 13548 net.cpp:100] Creating Layer conv5_4/incep/1_reduce/relu
I0324 22:44:31.185209 13548 net.cpp:434] conv5_4/incep/1_reduce/relu <- conv5_4/incep/1_reduce
I0324 22:44:31.185214 13548 net.cpp:395] conv5_4/incep/1_reduce/relu -> conv5_4/incep/1_reduce (in-place)
I0324 22:44:31.185369 13548 net.cpp:150] Setting up conv5_4/incep/1_reduce/relu
I0324 22:44:31.185377 13548 net.cpp:157] Top shape: 1 96 27 45 (116640)
I0324 22:44:31.185379 13548 net.cpp:165] Memory required for data: 2094232404
I0324 22:44:31.185382 13548 layer_factory.hpp:77] Creating layer conv5_4/incep/1_0/conv
I0324 22:44:31.185389 13548 net.cpp:100] Creating Layer conv5_4/incep/1_0/conv
I0324 22:44:31.185391 13548 net.cpp:434] conv5_4/incep/1_0/conv <- conv5_4/incep/1_reduce
I0324 22:44:31.185396 13548 net.cpp:408] conv5_4/incep/1_0/conv -> conv5_4/incep/1_0
I0324 22:44:31.187614 13548 net.cpp:150] Setting up conv5_4/incep/1_0/conv
I0324 22:44:31.187624 13548 net.cpp:157] Top shape: 1 192 27 45 (233280)
I0324 22:44:31.187626 13548 net.cpp:165] Memory required for data: 2095165524
I0324 22:44:31.187630 13548 layer_factory.hpp:77] Creating layer conv5_4/incep/1_0/bn
I0324 22:44:31.187638 13548 net.cpp:100] Creating Layer conv5_4/incep/1_0/bn
I0324 22:44:31.187640 13548 net.cpp:434] conv5_4/incep/1_0/bn <- conv5_4/incep/1_0
I0324 22:44:31.187645 13548 net.cpp:395] conv5_4/incep/1_0/bn -> conv5_4/incep/1_0 (in-place)
I0324 22:44:31.187808 13548 net.cpp:150] Setting up conv5_4/incep/1_0/bn
I0324 22:44:31.187818 13548 net.cpp:157] Top shape: 1 192 27 45 (233280)
I0324 22:44:31.187820 13548 net.cpp:165] Memory required for data: 2096098644
I0324 22:44:31.187825 13548 layer_factory.hpp:77] Creating layer conv5_4/incep/1_0/bn_scale
I0324 22:44:31.187832 13548 net.cpp:100] Creating Layer conv5_4/incep/1_0/bn_scale
I0324 22:44:31.187836 13548 net.cpp:434] conv5_4/incep/1_0/bn_scale <- conv5_4/incep/1_0
I0324 22:44:31.187840 13548 net.cpp:395] conv5_4/incep/1_0/bn_scale -> conv5_4/incep/1_0 (in-place)
I0324 22:44:31.187871 13548 layer_factory.hpp:77] Creating layer conv5_4/incep/1_0/bn_scale
I0324 22:44:31.187981 13548 net.cpp:150] Setting up conv5_4/incep/1_0/bn_scale
I0324 22:44:31.187986 13548 net.cpp:157] Top shape: 1 192 27 45 (233280)
I0324 22:44:31.187989 13548 net.cpp:165] Memory required for data: 2097031764
I0324 22:44:31.187994 13548 layer_factory.hpp:77] Creating layer conv5_4/incep/1_0/relu
I0324 22:44:31.187997 13548 net.cpp:100] Creating Layer conv5_4/incep/1_0/relu
I0324 22:44:31.188000 13548 net.cpp:434] conv5_4/incep/1_0/relu <- conv5_4/incep/1_0
I0324 22:44:31.188004 13548 net.cpp:395] conv5_4/incep/1_0/relu -> conv5_4/incep/1_0 (in-place)
I0324 22:44:31.188153 13548 net.cpp:150] Setting up conv5_4/incep/1_0/relu
I0324 22:44:31.188159 13548 net.cpp:157] Top shape: 1 192 27 45 (233280)
I0324 22:44:31.188161 13548 net.cpp:165] Memory required for data: 2097964884
I0324 22:44:31.188164 13548 layer_factory.hpp:77] Creating layer conv5_4/incep/2_reduce/conv
I0324 22:44:31.188171 13548 net.cpp:100] Creating Layer conv5_4/incep/2_reduce/conv
I0324 22:44:31.188174 13548 net.cpp:434] conv5_4/incep/2_reduce/conv <- conv5_3_conv5_3_0_split_2
I0324 22:44:31.188179 13548 net.cpp:408] conv5_4/incep/2_reduce/conv -> conv5_4/incep/2_reduce
I0324 22:44:31.189796 13548 net.cpp:150] Setting up conv5_4/incep/2_reduce/conv
I0324 22:44:31.189808 13548 net.cpp:157] Top shape: 1 32 27 45 (38880)
I0324 22:44:31.189810 13548 net.cpp:165] Memory required for data: 2098120404
I0324 22:44:31.189815 13548 layer_factory.hpp:77] Creating layer conv5_4/incep/2_reduce/bn
I0324 22:44:31.189821 13548 net.cpp:100] Creating Layer conv5_4/incep/2_reduce/bn
I0324 22:44:31.189823 13548 net.cpp:434] conv5_4/incep/2_reduce/bn <- conv5_4/incep/2_reduce
I0324 22:44:31.189828 13548 net.cpp:395] conv5_4/incep/2_reduce/bn -> conv5_4/incep/2_reduce (in-place)
I0324 22:44:31.189999 13548 net.cpp:150] Setting up conv5_4/incep/2_reduce/bn
I0324 22:44:31.190004 13548 net.cpp:157] Top shape: 1 32 27 45 (38880)
I0324 22:44:31.190006 13548 net.cpp:165] Memory required for data: 2098275924
I0324 22:44:31.190011 13548 layer_factory.hpp:77] Creating layer conv5_4/incep/2_reduce/bn_scale
I0324 22:44:31.190016 13548 net.cpp:100] Creating Layer conv5_4/incep/2_reduce/bn_scale
I0324 22:44:31.190019 13548 net.cpp:434] conv5_4/incep/2_reduce/bn_scale <- conv5_4/incep/2_reduce
I0324 22:44:31.190023 13548 net.cpp:395] conv5_4/incep/2_reduce/bn_scale -> conv5_4/incep/2_reduce (in-place)
I0324 22:44:31.190054 13548 layer_factory.hpp:77] Creating layer conv5_4/incep/2_reduce/bn_scale
I0324 22:44:31.190165 13548 net.cpp:150] Setting up conv5_4/incep/2_reduce/bn_scale
I0324 22:44:31.190171 13548 net.cpp:157] Top shape: 1 32 27 45 (38880)
I0324 22:44:31.190173 13548 net.cpp:165] Memory required for data: 2098431444
I0324 22:44:31.190177 13548 layer_factory.hpp:77] Creating layer conv5_4/incep/2_reduce/relu
I0324 22:44:31.190182 13548 net.cpp:100] Creating Layer conv5_4/incep/2_reduce/relu
I0324 22:44:31.190186 13548 net.cpp:434] conv5_4/incep/2_reduce/relu <- conv5_4/incep/2_reduce
I0324 22:44:31.190189 13548 net.cpp:395] conv5_4/incep/2_reduce/relu -> conv5_4/incep/2_reduce (in-place)
I0324 22:44:31.190691 13548 net.cpp:150] Setting up conv5_4/incep/2_reduce/relu
I0324 22:44:31.190701 13548 net.cpp:157] Top shape: 1 32 27 45 (38880)
I0324 22:44:31.190703 13548 net.cpp:165] Memory required for data: 2098586964
I0324 22:44:31.190706 13548 layer_factory.hpp:77] Creating layer conv5_4/incep/2_0/conv
I0324 22:44:31.190713 13548 net.cpp:100] Creating Layer conv5_4/incep/2_0/conv
I0324 22:44:31.190719 13548 net.cpp:434] conv5_4/incep/2_0/conv <- conv5_4/incep/2_reduce
I0324 22:44:31.190724 13548 net.cpp:408] conv5_4/incep/2_0/conv -> conv5_4/incep/2_0
I0324 22:44:31.192093 13548 net.cpp:150] Setting up conv5_4/incep/2_0/conv
I0324 22:44:31.192102 13548 net.cpp:157] Top shape: 1 64 27 45 (77760)
I0324 22:44:31.192104 13548 net.cpp:165] Memory required for data: 2098898004
I0324 22:44:31.192108 13548 layer_factory.hpp:77] Creating layer conv5_4/incep/2_0/bn
I0324 22:44:31.192114 13548 net.cpp:100] Creating Layer conv5_4/incep/2_0/bn
I0324 22:44:31.192118 13548 net.cpp:434] conv5_4/incep/2_0/bn <- conv5_4/incep/2_0
I0324 22:44:31.192122 13548 net.cpp:395] conv5_4/incep/2_0/bn -> conv5_4/incep/2_0 (in-place)
I0324 22:44:31.192291 13548 net.cpp:150] Setting up conv5_4/incep/2_0/bn
I0324 22:44:31.192297 13548 net.cpp:157] Top shape: 1 64 27 45 (77760)
I0324 22:44:31.192299 13548 net.cpp:165] Memory required for data: 2099209044
I0324 22:44:31.192304 13548 layer_factory.hpp:77] Creating layer conv5_4/incep/2_0/bn_scale
I0324 22:44:31.192309 13548 net.cpp:100] Creating Layer conv5_4/incep/2_0/bn_scale
I0324 22:44:31.192312 13548 net.cpp:434] conv5_4/incep/2_0/bn_scale <- conv5_4/incep/2_0
I0324 22:44:31.192317 13548 net.cpp:395] conv5_4/incep/2_0/bn_scale -> conv5_4/incep/2_0 (in-place)
I0324 22:44:31.192347 13548 layer_factory.hpp:77] Creating layer conv5_4/incep/2_0/bn_scale
I0324 22:44:31.192461 13548 net.cpp:150] Setting up conv5_4/incep/2_0/bn_scale
I0324 22:44:31.192466 13548 net.cpp:157] Top shape: 1 64 27 45 (77760)
I0324 22:44:31.192469 13548 net.cpp:165] Memory required for data: 2099520084
I0324 22:44:31.192473 13548 layer_factory.hpp:77] Creating layer conv5_4/incep/2_0/relu
I0324 22:44:31.192477 13548 net.cpp:100] Creating Layer conv5_4/incep/2_0/relu
I0324 22:44:31.192481 13548 net.cpp:434] conv5_4/incep/2_0/relu <- conv5_4/incep/2_0
I0324 22:44:31.192484 13548 net.cpp:395] conv5_4/incep/2_0/relu -> conv5_4/incep/2_0 (in-place)
I0324 22:44:31.192633 13548 net.cpp:150] Setting up conv5_4/incep/2_0/relu
I0324 22:44:31.192639 13548 net.cpp:157] Top shape: 1 64 27 45 (77760)
I0324 22:44:31.192642 13548 net.cpp:165] Memory required for data: 2099831124
I0324 22:44:31.192644 13548 layer_factory.hpp:77] Creating layer conv5_4/incep/2_1/conv
I0324 22:44:31.192651 13548 net.cpp:100] Creating Layer conv5_4/incep/2_1/conv
I0324 22:44:31.192656 13548 net.cpp:434] conv5_4/incep/2_1/conv <- conv5_4/incep/2_0
I0324 22:44:31.192659 13548 net.cpp:408] conv5_4/incep/2_1/conv -> conv5_4/incep/2_1
I0324 22:44:31.194098 13548 net.cpp:150] Setting up conv5_4/incep/2_1/conv
I0324 22:44:31.194108 13548 net.cpp:157] Top shape: 1 64 27 45 (77760)
I0324 22:44:31.194110 13548 net.cpp:165] Memory required for data: 2100142164
I0324 22:44:31.194114 13548 layer_factory.hpp:77] Creating layer conv5_4/incep/2_1/bn
I0324 22:44:31.194120 13548 net.cpp:100] Creating Layer conv5_4/incep/2_1/bn
I0324 22:44:31.194123 13548 net.cpp:434] conv5_4/incep/2_1/bn <- conv5_4/incep/2_1
I0324 22:44:31.194128 13548 net.cpp:395] conv5_4/incep/2_1/bn -> conv5_4/incep/2_1 (in-place)
I0324 22:44:31.194295 13548 net.cpp:150] Setting up conv5_4/incep/2_1/bn
I0324 22:44:31.194301 13548 net.cpp:157] Top shape: 1 64 27 45 (77760)
I0324 22:44:31.194303 13548 net.cpp:165] Memory required for data: 2100453204
I0324 22:44:31.194308 13548 layer_factory.hpp:77] Creating layer conv5_4/incep/2_1/bn_scale
I0324 22:44:31.194314 13548 net.cpp:100] Creating Layer conv5_4/incep/2_1/bn_scale
I0324 22:44:31.194317 13548 net.cpp:434] conv5_4/incep/2_1/bn_scale <- conv5_4/incep/2_1
I0324 22:44:31.194320 13548 net.cpp:395] conv5_4/incep/2_1/bn_scale -> conv5_4/incep/2_1 (in-place)
I0324 22:44:31.194353 13548 layer_factory.hpp:77] Creating layer conv5_4/incep/2_1/bn_scale
I0324 22:44:31.194463 13548 net.cpp:150] Setting up conv5_4/incep/2_1/bn_scale
I0324 22:44:31.194469 13548 net.cpp:157] Top shape: 1 64 27 45 (77760)
I0324 22:44:31.194471 13548 net.cpp:165] Memory required for data: 2100764244
I0324 22:44:31.194475 13548 layer_factory.hpp:77] Creating layer conv5_4/incep/2_1/relu
I0324 22:44:31.194483 13548 net.cpp:100] Creating Layer conv5_4/incep/2_1/relu
I0324 22:44:31.194486 13548 net.cpp:434] conv5_4/incep/2_1/relu <- conv5_4/incep/2_1
I0324 22:44:31.194491 13548 net.cpp:395] conv5_4/incep/2_1/relu -> conv5_4/incep/2_1 (in-place)
I0324 22:44:31.194640 13548 net.cpp:150] Setting up conv5_4/incep/2_1/relu
I0324 22:44:31.194648 13548 net.cpp:157] Top shape: 1 64 27 45 (77760)
I0324 22:44:31.194650 13548 net.cpp:165] Memory required for data: 2101075284
I0324 22:44:31.194653 13548 layer_factory.hpp:77] Creating layer conv5_4/incep
I0324 22:44:31.194658 13548 net.cpp:100] Creating Layer conv5_4/incep
I0324 22:44:31.194660 13548 net.cpp:434] conv5_4/incep <- conv5_4/incep/0
I0324 22:44:31.194664 13548 net.cpp:434] conv5_4/incep <- conv5_4/incep/1_0
I0324 22:44:31.194667 13548 net.cpp:434] conv5_4/incep <- conv5_4/incep/2_1
I0324 22:44:31.194671 13548 net.cpp:408] conv5_4/incep -> conv5_4/incep
I0324 22:44:31.194695 13548 net.cpp:150] Setting up conv5_4/incep
I0324 22:44:31.194700 13548 net.cpp:157] Top shape: 1 320 27 45 (388800)
I0324 22:44:31.194702 13548 net.cpp:165] Memory required for data: 2102630484
I0324 22:44:31.194705 13548 layer_factory.hpp:77] Creating layer conv5_4/out/conv
I0324 22:44:31.194710 13548 net.cpp:100] Creating Layer conv5_4/out/conv
I0324 22:44:31.194713 13548 net.cpp:434] conv5_4/out/conv <- conv5_4/incep
I0324 22:44:31.194717 13548 net.cpp:408] conv5_4/out/conv -> conv5_4/out
I0324 22:44:31.196765 13548 net.cpp:150] Setting up conv5_4/out/conv
I0324 22:44:31.196775 13548 net.cpp:157] Top shape: 1 384 27 45 (466560)
I0324 22:44:31.196779 13548 net.cpp:165] Memory required for data: 2104496724
I0324 22:44:31.196782 13548 layer_factory.hpp:77] Creating layer conv5_4/out/bn
I0324 22:44:31.196789 13548 net.cpp:100] Creating Layer conv5_4/out/bn
I0324 22:44:31.196791 13548 net.cpp:434] conv5_4/out/bn <- conv5_4/out
I0324 22:44:31.196795 13548 net.cpp:395] conv5_4/out/bn -> conv5_4/out (in-place)
I0324 22:44:31.196972 13548 net.cpp:150] Setting up conv5_4/out/bn
I0324 22:44:31.196979 13548 net.cpp:157] Top shape: 1 384 27 45 (466560)
I0324 22:44:31.196980 13548 net.cpp:165] Memory required for data: 2106362964
I0324 22:44:31.196985 13548 layer_factory.hpp:77] Creating layer conv5_4/out/bn_scale
I0324 22:44:31.196990 13548 net.cpp:100] Creating Layer conv5_4/out/bn_scale
I0324 22:44:31.196993 13548 net.cpp:434] conv5_4/out/bn_scale <- conv5_4/out
I0324 22:44:31.196997 13548 net.cpp:395] conv5_4/out/bn_scale -> conv5_4/out (in-place)
I0324 22:44:31.197033 13548 layer_factory.hpp:77] Creating layer conv5_4/out/bn_scale
I0324 22:44:31.197147 13548 net.cpp:150] Setting up conv5_4/out/bn_scale
I0324 22:44:31.197152 13548 net.cpp:157] Top shape: 1 384 27 45 (466560)
I0324 22:44:31.197155 13548 net.cpp:165] Memory required for data: 2108229204
I0324 22:44:31.197160 13548 layer_factory.hpp:77] Creating layer conv5_4/input
I0324 22:44:31.197165 13548 net.cpp:100] Creating Layer conv5_4/input
I0324 22:44:31.197168 13548 net.cpp:434] conv5_4/input <- conv5_3_conv5_3_0_split_3
I0324 22:44:31.197172 13548 net.cpp:408] conv5_4/input -> conv5_4/input
I0324 22:44:31.197193 13548 net.cpp:150] Setting up conv5_4/input
I0324 22:44:31.197198 13548 net.cpp:157] Top shape: 1 384 27 45 (466560)
I0324 22:44:31.197201 13548 net.cpp:165] Memory required for data: 2110095444
I0324 22:44:31.197202 13548 layer_factory.hpp:77] Creating layer conv5_4
I0324 22:44:31.197207 13548 net.cpp:100] Creating Layer conv5_4
I0324 22:44:31.197209 13548 net.cpp:434] conv5_4 <- conv5_4/out
I0324 22:44:31.197213 13548 net.cpp:434] conv5_4 <- conv5_4/input
I0324 22:44:31.197217 13548 net.cpp:408] conv5_4 -> conv5_4
I0324 22:44:31.197237 13548 net.cpp:150] Setting up conv5_4
I0324 22:44:31.197242 13548 net.cpp:157] Top shape: 1 384 27 45 (466560)
I0324 22:44:31.197243 13548 net.cpp:165] Memory required for data: 2111961684
I0324 22:44:31.197245 13548 layer_factory.hpp:77] Creating layer conv5_4/deconv
I0324 22:44:31.197252 13548 net.cpp:100] Creating Layer conv5_4/deconv
I0324 22:44:31.197254 13548 net.cpp:434] conv5_4/deconv <- conv5_4
I0324 22:44:31.197262 13548 net.cpp:408] conv5_4/deconv -> conv5_4/deconv
I0324 22:44:31.197566 13548 net.cpp:150] Setting up conv5_4/deconv
I0324 22:44:31.197572 13548 net.cpp:157] Top shape: 1 384 54 90 (1866240)
I0324 22:44:31.197574 13548 net.cpp:165] Memory required for data: 2119426644
I0324 22:44:31.197578 13548 layer_factory.hpp:77] Creating layer conv4_4/concat
I0324 22:44:31.197582 13548 net.cpp:100] Creating Layer conv4_4/concat
I0324 22:44:31.197585 13548 net.cpp:434] conv4_4/concat <- conv4_4_conv4_4_0_split_5
I0324 22:44:31.197589 13548 net.cpp:434] conv4_4/concat <- conv5_4/deconv
I0324 22:44:31.197593 13548 net.cpp:408] conv4_4/concat -> conv4_4/concat
I0324 22:44:31.197612 13548 net.cpp:150] Setting up conv4_4/concat
I0324 22:44:31.197616 13548 net.cpp:157] Top shape: 1 640 54 90 (3110400)
I0324 22:44:31.197618 13548 net.cpp:165] Memory required for data: 2131868244
I0324 22:44:31.197620 13548 layer_factory.hpp:77] Creating layer conv4_4/conv
I0324 22:44:31.197626 13548 net.cpp:100] Creating Layer conv4_4/conv
I0324 22:44:31.197629 13548 net.cpp:434] conv4_4/conv <- conv4_4/concat
I0324 22:44:31.197633 13548 net.cpp:408] conv4_4/conv -> conv4_4/conv
I0324 22:44:31.200178 13548 net.cpp:150] Setting up conv4_4/conv
I0324 22:44:31.200188 13548 net.cpp:157] Top shape: 1 384 54 90 (1866240)
I0324 22:44:31.200191 13548 net.cpp:165] Memory required for data: 2139333204
I0324 22:44:31.200194 13548 layer_factory.hpp:77] Creating layer conv4_4/conv/relu
I0324 22:44:31.200201 13548 net.cpp:100] Creating Layer conv4_4/conv/relu
I0324 22:44:31.200203 13548 net.cpp:434] conv4_4/conv/relu <- conv4_4/conv
I0324 22:44:31.200207 13548 net.cpp:395] conv4_4/conv/relu -> conv4_4/conv (in-place)
I0324 22:44:31.200711 13548 net.cpp:150] Setting up conv4_4/conv/relu
I0324 22:44:31.200721 13548 net.cpp:157] Top shape: 1 384 54 90 (1866240)
I0324 22:44:31.200724 13548 net.cpp:165] Memory required for data: 2146798164
I0324 22:44:31.200726 13548 layer_factory.hpp:77] Creating layer conv4_4/deconv
I0324 22:44:31.200732 13548 net.cpp:100] Creating Layer conv4_4/deconv
I0324 22:44:31.200736 13548 net.cpp:434] conv4_4/deconv <- conv4_4/conv
I0324 22:44:31.200742 13548 net.cpp:408] conv4_4/deconv -> conv4_4/deconv
I0324 22:44:31.201057 13548 net.cpp:150] Setting up conv4_4/deconv
I0324 22:44:31.201062 13548 net.cpp:157] Top shape: 1 384 108 180 (7464960)
I0324 22:44:31.201066 13548 net.cpp:165] Memory required for data: 2176658004
I0324 22:44:31.201068 13548 layer_factory.hpp:77] Creating layer conv3_4/concat
I0324 22:44:31.201073 13548 net.cpp:100] Creating Layer conv3_4/concat
I0324 22:44:31.201076 13548 net.cpp:434] conv3_4/concat <- conv3_4_conv3_4_0_split_5
I0324 22:44:31.201081 13548 net.cpp:434] conv3_4/concat <- conv4_4/deconv
I0324 22:44:31.201083 13548 net.cpp:408] conv3_4/concat -> conv3_4/concat
I0324 22:44:31.201103 13548 net.cpp:150] Setting up conv3_4/concat
I0324 22:44:31.201108 13548 net.cpp:157] Top shape: 1 512 108 180 (9953280)
I0324 22:44:31.201110 13548 net.cpp:165] Memory required for data: 2216471124
I0324 22:44:31.201112 13548 layer_factory.hpp:77] Creating layer conv3_4/concat_conv3_4/concat_0_split
I0324 22:44:31.201117 13548 net.cpp:100] Creating Layer conv3_4/concat_conv3_4/concat_0_split
I0324 22:44:31.201119 13548 net.cpp:434] conv3_4/concat_conv3_4/concat_0_split <- conv3_4/concat
I0324 22:44:31.201123 13548 net.cpp:408] conv3_4/concat_conv3_4/concat_0_split -> conv3_4/concat_conv3_4/concat_0_split_0
I0324 22:44:31.201128 13548 net.cpp:408] conv3_4/concat_conv3_4/concat_0_split -> conv3_4/concat_conv3_4/concat_0_split_1
I0324 22:44:31.201158 13548 net.cpp:150] Setting up conv3_4/concat_conv3_4/concat_0_split
I0324 22:44:31.201161 13548 net.cpp:157] Top shape: 1 512 108 180 (9953280)
I0324 22:44:31.201164 13548 net.cpp:157] Top shape: 1 512 108 180 (9953280)
I0324 22:44:31.201166 13548 net.cpp:165] Memory required for data: 2296097364
I0324 22:44:31.201169 13548 layer_factory.hpp:77] Creating layer convf_rpn_D
I0324 22:44:31.201175 13548 net.cpp:100] Creating Layer convf_rpn_D
I0324 22:44:31.201180 13548 net.cpp:434] convf_rpn_D <- conv3_4/concat_conv3_4/concat_0_split_0
I0324 22:44:31.201187 13548 net.cpp:408] convf_rpn_D -> convf_rpn
I0324 22:44:31.202802 13548 net.cpp:150] Setting up convf_rpn_D
I0324 22:44:31.202812 13548 net.cpp:157] Top shape: 1 128 108 180 (2488320)
I0324 22:44:31.202816 13548 net.cpp:165] Memory required for data: 2306050644
I0324 22:44:31.202864 13548 layer_factory.hpp:77] Creating layer reluf_rpn
I0324 22:44:31.202869 13548 net.cpp:100] Creating Layer reluf_rpn
I0324 22:44:31.202872 13548 net.cpp:434] reluf_rpn <- convf_rpn
I0324 22:44:31.202877 13548 net.cpp:395] reluf_rpn -> convf_rpn (in-place)
I0324 22:44:31.203375 13548 net.cpp:150] Setting up reluf_rpn
I0324 22:44:31.203384 13548 net.cpp:157] Top shape: 1 128 108 180 (2488320)
I0324 22:44:31.203387 13548 net.cpp:165] Memory required for data: 2316003924
I0324 22:44:31.203390 13548 layer_factory.hpp:77] Creating layer convf_rpn_reluf_rpn_0_split
I0324 22:44:31.203394 13548 net.cpp:100] Creating Layer convf_rpn_reluf_rpn_0_split
I0324 22:44:31.203397 13548 net.cpp:434] convf_rpn_reluf_rpn_0_split <- convf_rpn
I0324 22:44:31.203402 13548 net.cpp:408] convf_rpn_reluf_rpn_0_split -> convf_rpn_reluf_rpn_0_split_0
I0324 22:44:31.203408 13548 net.cpp:408] convf_rpn_reluf_rpn_0_split -> convf_rpn_reluf_rpn_0_split_1
I0324 22:44:31.203445 13548 net.cpp:150] Setting up convf_rpn_reluf_rpn_0_split
I0324 22:44:31.203450 13548 net.cpp:157] Top shape: 1 128 108 180 (2488320)
I0324 22:44:31.203454 13548 net.cpp:157] Top shape: 1 128 108 180 (2488320)
I0324 22:44:31.203455 13548 net.cpp:165] Memory required for data: 2335910484
I0324 22:44:31.203457 13548 layer_factory.hpp:77] Creating layer convf_2_D
I0324 22:44:31.203464 13548 net.cpp:100] Creating Layer convf_2_D
I0324 22:44:31.203467 13548 net.cpp:434] convf_2_D <- conv3_4/concat_conv3_4/concat_0_split_1
I0324 22:44:31.203474 13548 net.cpp:408] convf_2_D -> convf_2
I0324 22:44:31.206473 13548 net.cpp:150] Setting up convf_2_D
I0324 22:44:31.206485 13548 net.cpp:157] Top shape: 1 384 108 180 (7464960)
I0324 22:44:31.206487 13548 net.cpp:165] Memory required for data: 2365770324
I0324 22:44:31.206492 13548 layer_factory.hpp:77] Creating layer reluf_2
I0324 22:44:31.206496 13548 net.cpp:100] Creating Layer reluf_2
I0324 22:44:31.206499 13548 net.cpp:434] reluf_2 <- convf_2
I0324 22:44:31.206504 13548 net.cpp:395] reluf_2 -> convf_2 (in-place)
I0324 22:44:31.206660 13548 net.cpp:150] Setting up reluf_2
I0324 22:44:31.206667 13548 net.cpp:157] Top shape: 1 384 108 180 (7464960)
I0324 22:44:31.206670 13548 net.cpp:165] Memory required for data: 2395630164
I0324 22:44:31.206672 13548 layer_factory.hpp:77] Creating layer concat_convf
I0324 22:44:31.206677 13548 net.cpp:100] Creating Layer concat_convf
I0324 22:44:31.206681 13548 net.cpp:434] concat_convf <- convf_rpn_reluf_rpn_0_split_0
I0324 22:44:31.206684 13548 net.cpp:434] concat_convf <- convf_2
I0324 22:44:31.206688 13548 net.cpp:408] concat_convf -> convf
I0324 22:44:31.206713 13548 net.cpp:150] Setting up concat_convf
I0324 22:44:31.206717 13548 net.cpp:157] Top shape: 1 512 108 180 (9953280)
I0324 22:44:31.206720 13548 net.cpp:165] Memory required for data: 2435443284
I0324 22:44:31.206722 13548 layer_factory.hpp:77] Creating layer convf_concat_convf_0_split
I0324 22:44:31.206727 13548 net.cpp:100] Creating Layer convf_concat_convf_0_split
I0324 22:44:31.206728 13548 net.cpp:434] convf_concat_convf_0_split <- convf
I0324 22:44:31.206733 13548 net.cpp:408] convf_concat_convf_0_split -> convf_concat_convf_0_split_0
I0324 22:44:31.206738 13548 net.cpp:408] convf_concat_convf_0_split -> convf_concat_convf_0_split_1
I0324 22:44:31.206769 13548 net.cpp:150] Setting up convf_concat_convf_0_split
I0324 22:44:31.206773 13548 net.cpp:157] Top shape: 1 512 108 180 (9953280)
I0324 22:44:31.206776 13548 net.cpp:157] Top shape: 1 512 108 180 (9953280)
I0324 22:44:31.206779 13548 net.cpp:165] Memory required for data: 2515069524
I0324 22:44:31.206781 13548 layer_factory.hpp:77] Creating layer rpn_conv1
I0324 22:44:31.206789 13548 net.cpp:100] Creating Layer rpn_conv1
I0324 22:44:31.206794 13548 net.cpp:434] rpn_conv1 <- convf_rpn_reluf_rpn_0_split_1
I0324 22:44:31.206800 13548 net.cpp:408] rpn_conv1 -> rpn_conv1
I0324 22:44:31.211793 13548 net.cpp:150] Setting up rpn_conv1
I0324 22:44:31.211805 13548 net.cpp:157] Top shape: 1 384 108 180 (7464960)
I0324 22:44:31.211808 13548 net.cpp:165] Memory required for data: 2544929364
I0324 22:44:31.211813 13548 layer_factory.hpp:77] Creating layer rpn_relu1
I0324 22:44:31.211817 13548 net.cpp:100] Creating Layer rpn_relu1
I0324 22:44:31.211820 13548 net.cpp:434] rpn_relu1 <- rpn_conv1
I0324 22:44:31.211825 13548 net.cpp:395] rpn_relu1 -> rpn_conv1 (in-place)
I0324 22:44:31.212327 13548 net.cpp:150] Setting up rpn_relu1
I0324 22:44:31.212335 13548 net.cpp:157] Top shape: 1 384 108 180 (7464960)
I0324 22:44:31.212338 13548 net.cpp:165] Memory required for data: 2574789204
I0324 22:44:31.212340 13548 layer_factory.hpp:77] Creating layer rpn_conv1_rpn_relu1_0_split
I0324 22:44:31.212345 13548 net.cpp:100] Creating Layer rpn_conv1_rpn_relu1_0_split
I0324 22:44:31.212348 13548 net.cpp:434] rpn_conv1_rpn_relu1_0_split <- rpn_conv1
I0324 22:44:31.212353 13548 net.cpp:408] rpn_conv1_rpn_relu1_0_split -> rpn_conv1_rpn_relu1_0_split_0
I0324 22:44:31.212358 13548 net.cpp:408] rpn_conv1_rpn_relu1_0_split -> rpn_conv1_rpn_relu1_0_split_1
I0324 22:44:31.212407 13548 net.cpp:150] Setting up rpn_conv1_rpn_relu1_0_split
I0324 22:44:31.212414 13548 net.cpp:157] Top shape: 1 384 108 180 (7464960)
I0324 22:44:31.212416 13548 net.cpp:157] Top shape: 1 384 108 180 (7464960)
I0324 22:44:31.212419 13548 net.cpp:165] Memory required for data: 2634508884
I0324 22:44:31.212421 13548 layer_factory.hpp:77] Creating layer rpn_cls_score
I0324 22:44:31.212430 13548 net.cpp:100] Creating Layer rpn_cls_score
I0324 22:44:31.212432 13548 net.cpp:434] rpn_cls_score <- rpn_conv1_rpn_relu1_0_split_0
I0324 22:44:31.212437 13548 net.cpp:408] rpn_cls_score -> rpn_cls_score
I0324 22:44:31.213939 13548 net.cpp:150] Setting up rpn_cls_score
I0324 22:44:31.213949 13548 net.cpp:157] Top shape: 1 50 108 180 (972000)
I0324 22:44:31.213953 13548 net.cpp:165] Memory required for data: 2638396884
I0324 22:44:31.213958 13548 layer_factory.hpp:77] Creating layer rpn_cls_score_rpn_cls_score_0_split
I0324 22:44:31.213963 13548 net.cpp:100] Creating Layer rpn_cls_score_rpn_cls_score_0_split
I0324 22:44:31.213965 13548 net.cpp:434] rpn_cls_score_rpn_cls_score_0_split <- rpn_cls_score
I0324 22:44:31.213969 13548 net.cpp:408] rpn_cls_score_rpn_cls_score_0_split -> rpn_cls_score_rpn_cls_score_0_split_0
I0324 22:44:31.213975 13548 net.cpp:408] rpn_cls_score_rpn_cls_score_0_split -> rpn_cls_score_rpn_cls_score_0_split_1
I0324 22:44:31.214011 13548 net.cpp:150] Setting up rpn_cls_score_rpn_cls_score_0_split
I0324 22:44:31.214016 13548 net.cpp:157] Top shape: 1 50 108 180 (972000)
I0324 22:44:31.214020 13548 net.cpp:157] Top shape: 1 50 108 180 (972000)
I0324 22:44:31.214021 13548 net.cpp:165] Memory required for data: 2646172884
I0324 22:44:31.214023 13548 layer_factory.hpp:77] Creating layer rpn_bbox_pred
I0324 22:44:31.214031 13548 net.cpp:100] Creating Layer rpn_bbox_pred
I0324 22:44:31.214035 13548 net.cpp:434] rpn_bbox_pred <- rpn_conv1_rpn_relu1_0_split_1
I0324 22:44:31.214038 13548 net.cpp:408] rpn_bbox_pred -> rpn_bbox_pred
I0324 22:44:31.215687 13548 net.cpp:150] Setting up rpn_bbox_pred
I0324 22:44:31.215698 13548 net.cpp:157] Top shape: 1 100 108 180 (1944000)
I0324 22:44:31.215701 13548 net.cpp:165] Memory required for data: 2653948884
I0324 22:44:31.215705 13548 layer_factory.hpp:77] Creating layer rpn_bbox_pred_rpn_bbox_pred_0_split
I0324 22:44:31.215710 13548 net.cpp:100] Creating Layer rpn_bbox_pred_rpn_bbox_pred_0_split
I0324 22:44:31.215713 13548 net.cpp:434] rpn_bbox_pred_rpn_bbox_pred_0_split <- rpn_bbox_pred
I0324 22:44:31.215718 13548 net.cpp:408] rpn_bbox_pred_rpn_bbox_pred_0_split -> rpn_bbox_pred_rpn_bbox_pred_0_split_0
I0324 22:44:31.215723 13548 net.cpp:408] rpn_bbox_pred_rpn_bbox_pred_0_split -> rpn_bbox_pred_rpn_bbox_pred_0_split_1
I0324 22:44:31.215759 13548 net.cpp:150] Setting up rpn_bbox_pred_rpn_bbox_pred_0_split
I0324 22:44:31.215765 13548 net.cpp:157] Top shape: 1 100 108 180 (1944000)
I0324 22:44:31.215770 13548 net.cpp:157] Top shape: 1 100 108 180 (1944000)
I0324 22:44:31.215771 13548 net.cpp:165] Memory required for data: 2669500884
I0324 22:44:31.215773 13548 layer_factory.hpp:77] Creating layer rpn_cls_score_reshape
I0324 22:44:31.215780 13548 net.cpp:100] Creating Layer rpn_cls_score_reshape
I0324 22:44:31.215783 13548 net.cpp:434] rpn_cls_score_reshape <- rpn_cls_score_rpn_cls_score_0_split_0
I0324 22:44:31.215788 13548 net.cpp:408] rpn_cls_score_reshape -> rpn_cls_score_reshape
I0324 22:44:31.215809 13548 net.cpp:150] Setting up rpn_cls_score_reshape
I0324 22:44:31.215814 13548 net.cpp:157] Top shape: 1 2 2700 180 (972000)
I0324 22:44:31.215816 13548 net.cpp:165] Memory required for data: 2673388884
I0324 22:44:31.215818 13548 layer_factory.hpp:77] Creating layer rpn_cls_score_reshape_rpn_cls_score_reshape_0_split
I0324 22:44:31.215823 13548 net.cpp:100] Creating Layer rpn_cls_score_reshape_rpn_cls_score_reshape_0_split
I0324 22:44:31.215826 13548 net.cpp:434] rpn_cls_score_reshape_rpn_cls_score_reshape_0_split <- rpn_cls_score_reshape
I0324 22:44:31.215831 13548 net.cpp:408] rpn_cls_score_reshape_rpn_cls_score_reshape_0_split -> rpn_cls_score_reshape_rpn_cls_score_reshape_0_split_0
I0324 22:44:31.215836 13548 net.cpp:408] rpn_cls_score_reshape_rpn_cls_score_reshape_0_split -> rpn_cls_score_reshape_rpn_cls_score_reshape_0_split_1
I0324 22:44:31.215863 13548 net.cpp:150] Setting up rpn_cls_score_reshape_rpn_cls_score_reshape_0_split
I0324 22:44:31.215868 13548 net.cpp:157] Top shape: 1 2 2700 180 (972000)
I0324 22:44:31.215872 13548 net.cpp:157] Top shape: 1 2 2700 180 (972000)
I0324 22:44:31.215873 13548 net.cpp:165] Memory required for data: 2681164884
I0324 22:44:31.215876 13548 layer_factory.hpp:77] Creating layer rpn-data
I0324 22:44:31.216209 13548 net.cpp:100] Creating Layer rpn-data
I0324 22:44:31.216217 13548 net.cpp:434] rpn-data <- rpn_cls_score_rpn_cls_score_0_split_1
I0324 22:44:31.216223 13548 net.cpp:434] rpn-data <- gt_boxes_input-data_2_split_0
I0324 22:44:31.216226 13548 net.cpp:434] rpn-data <- im_info_input-data_1_split_0
I0324 22:44:31.216229 13548 net.cpp:434] rpn-data <- data_input-data_0_split_1
I0324 22:44:31.216233 13548 net.cpp:408] rpn-data -> rpn_labels
I0324 22:44:31.216239 13548 net.cpp:408] rpn-data -> rpn_bbox_targets
I0324 22:44:31.216245 13548 net.cpp:408] rpn-data -> rpn_bbox_inside_weights
I0324 22:44:31.216250 13548 net.cpp:408] rpn-data -> rpn_bbox_outside_weights
I0324 22:44:31.218300 13548 net.cpp:150] Setting up rpn-data
I0324 22:44:31.218317 13548 net.cpp:157] Top shape: 1 1 2700 180 (486000)
I0324 22:44:31.218322 13548 net.cpp:157] Top shape: 1 100 108 180 (1944000)
I0324 22:44:31.218323 13548 net.cpp:157] Top shape: 1 100 108 180 (1944000)
I0324 22:44:31.218327 13548 net.cpp:157] Top shape: 1 100 108 180 (1944000)
I0324 22:44:31.218328 13548 net.cpp:165] Memory required for data: 2706436884
I0324 22:44:31.218333 13548 layer_factory.hpp:77] Creating layer rpn_loss_cls
I0324 22:44:31.218339 13548 net.cpp:100] Creating Layer rpn_loss_cls
I0324 22:44:31.218343 13548 net.cpp:434] rpn_loss_cls <- rpn_cls_score_reshape_rpn_cls_score_reshape_0_split_0
I0324 22:44:31.218348 13548 net.cpp:434] rpn_loss_cls <- rpn_labels
…
I0324 22:44:31.230762 13548 net.cpp:157] Top shape: (1)
I0324 22:44:31.230764 13548 net.cpp:160]     with loss weight 1
I0324 22:44:31.230773 13548 net.cpp:165] Memory required for data: 2706436892
I0324 22:44:31.230778 13548 layer_factory.hpp:77] Creating layer rpn_cls_prob
I0324 22:44:31.230789 13548 net.cpp:100] Creating Layer rpn_cls_prob
I0324 22:44:31.230794 13548 net.cpp:434] rpn_cls_prob <- rpn_cls_score_reshape_rpn_cls_score_reshape_0_split_1
I0324 22:44:31.230803 13548 net.cpp:408] rpn_cls_prob -> rpn_cls_prob
I0324 22:44:31.231132 13548 net.cpp:150] Setting up rpn_cls_prob
I0324 22:44:31.231142 13548 net.cpp:157] Top shape: 1 2 2700 180 (972000)
I0324 22:44:31.231143 13548 net.cpp:165] Memory required for data: 2710324892
I0324 22:44:31.231147 13548 layer_factory.hpp:77] Creating layer rpn_cls_prob_reshape
I0324 22:44:31.231154 13548 net.cpp:100] Creating Layer rpn_cls_prob_reshape
I0324 22:44:31.231158 13548 net.cpp:434] rpn_cls_prob_reshape <- rpn_cls_prob
I0324 22:44:31.231161 13548 net.cpp:408] rpn_cls_prob_reshape -> rpn_cls_prob_reshape
I0324 22:44:31.231185 13548 net.cpp:150] Setting up rpn_cls_prob_reshape
I0324 22:44:31.231190 13548 net.cpp:157] Top shape: 1 50 108 180 (972000)
I0324 22:44:31.231192 13548 net.cpp:165] Memory required for data: 2714212892
I0324 22:44:31.231195 13548 layer_factory.hpp:77] Creating layer proposal
I0324 22:44:31.231201 13548 net.cpp:100] Creating Layer proposal
I0324 22:44:31.231204 13548 net.cpp:434] proposal <- rpn_cls_prob_reshape
I0324 22:44:31.231209 13548 net.cpp:434] proposal <- rpn_bbox_pred_rpn_bbox_pred_0_split_1
I0324 22:44:31.231212 13548 net.cpp:434] proposal <- im_info_input-data_1_split_1
I0324 22:44:31.231216 13548 net.cpp:408] proposal -> rpn_rois
I0324 22:44:31.231222 13548 net.cpp:408] proposal -> rpn_scores
I0324 22:44:31.231292 13548 net.cpp:150] Setting up proposal
I0324 22:44:31.231297 13548 net.cpp:157] Top shape: 2000 5 (10000)
I0324 22:44:31.231298 13548 net.cpp:157] Top shape: 2000 (2000)
I0324 22:44:31.231300 13548 net.cpp:165] Memory required for data: 2714260892
I0324 22:44:31.231303 13548 layer_factory.hpp:77] Creating layer mute_rpn_scores
I0324 22:44:31.231307 13548 net.cpp:100] Creating Layer mute_rpn_scores
I0324 22:44:31.231309 13548 net.cpp:434] mute_rpn_scores <- rpn_scores
I0324 22:44:31.231313 13548 net.cpp:150] Setting up mute_rpn_scores
I0324 22:44:31.231315 13548 net.cpp:165] Memory required for data: 2714260892
I0324 22:44:31.231317 13548 layer_factory.hpp:77] Creating layer roi-data
I0324 22:44:31.231505 13548 net.cpp:100] Creating Layer roi-data
I0324 22:44:31.231513 13548 net.cpp:434] roi-data <- rpn_rois
I0324 22:44:31.231518 13548 net.cpp:434] roi-data <- gt_boxes_input-data_2_split_1
I0324 22:44:31.231523 13548 net.cpp:408] roi-data -> rois
I0324 22:44:31.231528 13548 net.cpp:408] roi-data -> labels
I0324 22:44:31.231534 13548 net.cpp:408] roi-data -> bbox_targets
I0324 22:44:31.231537 13548 net.cpp:408] roi-data -> bbox_inside_weights
I0324 22:44:31.231542 13548 net.cpp:408] roi-data -> bbox_outside_weights
I0324 22:44:31.231922 13548 net.cpp:150] Setting up roi-data
I0324 22:44:31.231931 13548 net.cpp:157] Top shape: 128 5 (640)
I0324 22:44:31.231935 13548 net.cpp:157] Top shape: 128 1 (128)
I0324 22:44:31.231936 13548 net.cpp:157] Top shape: 128 8 (1024)
I0324 22:44:31.231940 13548 net.cpp:157] Top shape: 128 8 (1024)
I0324 22:44:31.231941 13548 net.cpp:157] Top shape: 128 8 (1024)
I0324 22:44:31.231945 13548 net.cpp:165] Memory required for data: 2714276252
I0324 22:44:31.231946 13548 layer_factory.hpp:77] Creating layer rois_roi-data_0_split
I0324 22:44:31.231951 13548 net.cpp:100] Creating Layer rois_roi-data_0_split
I0324 22:44:31.231955 13548 net.cpp:434] rois_roi-data_0_split <- rois
I0324 22:44:31.231966 13548 net.cpp:408] rois_roi-data_0_split -> rois_roi-data_0_split_0
I0324 22:44:31.231971 13548 net.cpp:408] rois_roi-data_0_split -> rois_roi-data_0_split_1
I0324 22:44:31.232000 13548 net.cpp:150] Setting up rois_roi-data_0_split
I0324 22:44:31.232004 13548 net.cpp:157] Top shape: 128 5 (640)
I0324 22:44:31.232007 13548 net.cpp:157] Top shape: 128 5 (640)
I0324 22:44:31.232009 13548 net.cpp:165] Memory required for data: 2714281372
I0324 22:44:31.232012 13548 layer_factory.hpp:77] Creating layer roi_pool5_readonly
I0324 22:44:31.232017 13548 net.cpp:100] Creating Layer roi_pool5_readonly
I0324 22:44:31.232020 13548 net.cpp:434] roi_pool5_readonly <- convf_concat_convf_0_split_0
I0324 22:44:31.232024 13548 net.cpp:434] roi_pool5_readonly <- rois_roi-data_0_split_0
I0324 22:44:31.232028 13548 net.cpp:408] roi_pool5_readonly -> pool5_readonly
I0324 22:44:31.232033 13548 roi_pooling_layer.cpp:34] Spatial scale: 0.0625
I0324 22:44:31.232065 13548 net.cpp:150] Setting up roi_pool5_readonly
I0324 22:44:31.232070 13548 net.cpp:157] Top shape: 128 512 6 6 (2359296)
I0324 22:44:31.232072 13548 net.cpp:165] Memory required for data: 2723718556
I0324 22:44:31.232075 13548 layer_factory.hpp:77] Creating layer fc6_readonly
I0324 22:44:31.232080 13548 net.cpp:100] Creating Layer fc6_readonly
I0324 22:44:31.232084 13548 net.cpp:434] fc6_readonly <- pool5_readonly
I0324 22:44:31.232089 13548 net.cpp:408] fc6_readonly -> fc6_readonly
I0324 22:44:31.319401 13548 net.cpp:150] Setting up fc6_readonly
I0324 22:44:31.319435 13548 net.cpp:157] Top shape: 128 4096 (524288)
I0324 22:44:31.319438 13548 net.cpp:165] Memory required for data: 2725815708
I0324 22:44:31.319447 13548 layer_factory.hpp:77] Creating layer relu6_readonly
I0324 22:44:31.319455 13548 net.cpp:100] Creating Layer relu6_readonly
I0324 22:44:31.319459 13548 net.cpp:434] relu6_readonly <- fc6_readonly
I0324 22:44:31.319464 13548 net.cpp:395] relu6_readonly -> fc6_readonly (in-place)
I0324 22:44:31.320152 13548 net.cpp:150] Setting up relu6_readonly
I0324 22:44:31.320163 13548 net.cpp:157] Top shape: 128 4096 (524288)
I0324 22:44:31.320165 13548 net.cpp:165] Memory required for data: 2727912860
I0324 22:44:31.320168 13548 layer_factory.hpp:77] Creating layer drop6_readonly
I0324 22:44:31.320174 13548 net.cpp:100] Creating Layer drop6_readonly
I0324 22:44:31.320178 13548 net.cpp:434] drop6_readonly <- fc6_readonly
I0324 22:44:31.320181 13548 net.cpp:395] drop6_readonly -> fc6_readonly (in-place)
I0324 22:44:31.320201 13548 net.cpp:150] Setting up drop6_readonly
I0324 22:44:31.320205 13548 net.cpp:157] Top shape: 128 4096 (524288)
I0324 22:44:31.320209 13548 net.cpp:165] Memory required for data: 2730010012
I0324 22:44:31.320210 13548 layer_factory.hpp:77] Creating layer fc7_readonly
I0324 22:44:31.320217 13548 net.cpp:100] Creating Layer fc7_readonly
I0324 22:44:31.320220 13548 net.cpp:434] fc7_readonly <- fc6_readonly
I0324 22:44:31.320225 13548 net.cpp:408] fc7_readonly -> fc7_readonly
I0324 22:44:31.340044 13548 net.cpp:150] Setting up fc7_readonly
I0324 22:44:31.340076 13548 net.cpp:157] Top shape: 128 4096 (524288)
I0324 22:44:31.340080 13548 net.cpp:165] Memory required for data: 2732107164
I0324 22:44:31.340087 13548 layer_factory.hpp:77] Creating layer relu7_readonly
I0324 22:44:31.340096 13548 net.cpp:100] Creating Layer relu7_readonly
I0324 22:44:31.340101 13548 net.cpp:434] relu7_readonly <- fc7_readonly
I0324 22:44:31.340107 13548 net.cpp:395] relu7_readonly -> fc7_readonly (in-place)
I0324 22:44:31.340333 13548 net.cpp:150] Setting up relu7_readonly
I0324 22:44:31.340342 13548 net.cpp:157] Top shape: 128 4096 (524288)
I0324 22:44:31.340343 13548 net.cpp:165] Memory required for data: 2734204316
I0324 22:44:31.340347 13548 layer_factory.hpp:77] Creating layer drop7_readonly
I0324 22:44:31.340351 13548 net.cpp:100] Creating Layer drop7_readonly
I0324 22:44:31.340354 13548 net.cpp:434] drop7_readonly <- fc7_readonly
I0324 22:44:31.340359 13548 net.cpp:395] drop7_readonly -> fc7_readonly (in-place)
I0324 22:44:31.340404 13548 net.cpp:150] Setting up drop7_readonly
I0324 22:44:31.340415 13548 net.cpp:157] Top shape: 128 4096 (524288)
I0324 22:44:31.340418 13548 net.cpp:165] Memory required for data: 2736301468
I0324 22:44:31.340421 13548 layer_factory.hpp:77] Creating layer fc7_readonly_drop7_readonly_0_split
I0324 22:44:31.340425 13548 net.cpp:100] Creating Layer fc7_readonly_drop7_readonly_0_split
I0324 22:44:31.340428 13548 net.cpp:434] fc7_readonly_drop7_readonly_0_split <- fc7_readonly
I0324 22:44:31.340432 13548 net.cpp:408] fc7_readonly_drop7_readonly_0_split -> fc7_readonly_drop7_readonly_0_split_0
I0324 22:44:31.340437 13548 net.cpp:408] fc7_readonly_drop7_readonly_0_split -> fc7_readonly_drop7_readonly_0_split_1
I0324 22:44:31.340469 13548 net.cpp:150] Setting up fc7_readonly_drop7_readonly_0_split
I0324 22:44:31.340474 13548 net.cpp:157] Top shape: 128 4096 (524288)
I0324 22:44:31.340477 13548 net.cpp:157] Top shape: 128 4096 (524288)
I0324 22:44:31.340479 13548 net.cpp:165] Memory required for data: 2740495772
I0324 22:44:31.340481 13548 layer_factory.hpp:77] Creating layer cls_score_readonly
I0324 22:44:31.340494 13548 net.cpp:100] Creating Layer cls_score_readonly
I0324 22:44:31.340497 13548 net.cpp:434] cls_score_readonly <- fc7_readonly_drop7_readonly_0_split_0
I0324 22:44:31.340503 13548 net.cpp:408] cls_score_readonly -> cls_score_readonly
I0324 22:44:31.340651 13548 net.cpp:150] Setting up cls_score_readonly
I0324 22:44:31.340656 13548 net.cpp:157] Top shape: 128 2 (256)
I0324 22:44:31.340659 13548 net.cpp:165] Memory required for data: 2740496796
I0324 22:44:31.340663 13548 layer_factory.hpp:77] Creating layer bbox_pred_readonly
I0324 22:44:31.340667 13548 net.cpp:100] Creating Layer bbox_pred_readonly
I0324 22:44:31.340670 13548 net.cpp:434] bbox_pred_readonly <- fc7_readonly_drop7_readonly_0_split_1
I0324 22:44:31.340675 13548 net.cpp:408] bbox_pred_readonly -> bbox_pred_readonly
I0324 22:44:31.341009 13548 net.cpp:150] Setting up bbox_pred_readonly
I0324 22:44:31.341014 13548 net.cpp:157] Top shape: 128 8 (1024)
I0324 22:44:31.341017 13548 net.cpp:165] Memory required for data: 2740500892
I0324 22:44:31.341020 13548 layer_factory.hpp:77] Creating layer cls_prob_readonly
I0324 22:44:31.341027 13548 net.cpp:100] Creating Layer cls_prob_readonly
I0324 22:44:31.341029 13548 net.cpp:434] cls_prob_readonly <- cls_score_readonly
I0324 22:44:31.341033 13548 net.cpp:408] cls_prob_readonly -> cls_prob_readonly
I0324 22:44:31.341686 13548 net.cpp:150] Setting up cls_prob_readonly
I0324 22:44:31.341696 13548 net.cpp:157] Top shape: 128 2 (256)
I0324 22:44:31.341698 13548 net.cpp:165] Memory required for data: 2740501916
I0324 22:44:31.341701 13548 layer_factory.hpp:77] Creating layer hard_roi_mining
I0324 22:44:31.341745 13548 net.cpp:100] Creating Layer hard_roi_mining
I0324 22:44:31.341749 13548 net.cpp:434] hard_roi_mining <- cls_prob_readonly
I0324 22:44:31.341753 13548 net.cpp:434] hard_roi_mining <- bbox_pred_readonly
I0324 22:44:31.341758 13548 net.cpp:434] hard_roi_mining <- rois_roi-data_0_split_1
I0324 22:44:31.341761 13548 net.cpp:434] hard_roi_mining <- labels
I0324 22:44:31.341764 13548 net.cpp:434] hard_roi_mining <- bbox_targets
I0324 22:44:31.341768 13548 net.cpp:434] hard_roi_mining <- bbox_inside_weights
I0324 22:44:31.341770 13548 net.cpp:434] hard_roi_mining <- bbox_outside_weights
I0324 22:44:31.341775 13548 net.cpp:408] hard_roi_mining -> rois_hard
I0324 22:44:31.341780 13548 net.cpp:408] hard_roi_mining -> labels_hard
I0324 22:44:31.341786 13548 net.cpp:408] hard_roi_mining -> bbox_targets_hard
I0324 22:44:31.341791 13548 net.cpp:408] hard_roi_mining -> bbox_inside_weights_hard
I0324 22:44:31.341796 13548 net.cpp:408] hard_roi_mining -> bbox_outside_weights_hard
I0324 22:44:31.342208 13548 net.cpp:150] Setting up hard_roi_mining
I0324 22:44:31.342217 13548 net.cpp:157] Top shape: 128 5 (640)
I0324 22:44:31.342221 13548 net.cpp:157] Top shape: 128 (128)
I0324 22:44:31.342223 13548 net.cpp:157] Top shape: 128 8 (1024)
I0324 22:44:31.342226 13548 net.cpp:157] Top shape: 128 8 (1024)
I0324 22:44:31.342228 13548 net.cpp:157] Top shape: 128 8 (1024)
I0324 22:44:31.342233 13548 net.cpp:165] Memory required for data: 2740517276
I0324 22:44:31.342236 13548 layer_factory.hpp:77] Creating layer roi_pool5
I0324 22:44:31.342242 13548 net.cpp:100] Creating Layer roi_pool5
I0324 22:44:31.342245 13548 net.cpp:434] roi_pool5 <- convf_concat_convf_0_split_1
I0324 22:44:31.342249 13548 net.cpp:434] roi_pool5 <- rois_hard
I0324 22:44:31.342254 13548 net.cpp:408] roi_pool5 -> pool5
I0324 22:44:31.342260 13548 roi_pooling_layer.cpp:34] Spatial scale: 0.0625
I0324 22:44:31.342308 13548 net.cpp:150] Setting up roi_pool5
I0324 22:44:31.342313 13548 net.cpp:157] Top shape: 128 512 6 6 (2359296)
I0324 22:44:31.342314 13548 net.cpp:165] Memory required for data: 2749954460
I0324 22:44:31.342316 13548 layer_factory.hpp:77] Creating layer fc6
I0324 22:44:31.342322 13548 net.cpp:100] Creating Layer fc6
I0324 22:44:31.342325 13548 net.cpp:434] fc6 <- pool5
I0324 22:44:31.342329 13548 net.cpp:408] fc6 -> fc6
I0324 22:44:31.443228 13548 net.cpp:150] Setting up fc6
I0324 22:44:31.443262 13548 net.cpp:157] Top shape: 128 4096 (524288)
I0324 22:44:31.443265 13548 net.cpp:165] Memory required for data: 2752051612
I0324 22:44:31.443271 13548 net.cpp:493] Sharing parameters 'fc6_w' owned by layer 'fc6_readonly', param index 0
I0324 22:44:31.443275 13548 net.cpp:493] Sharing parameters 'fc6_b' owned by layer 'fc6_readonly', param index 1
I0324 22:44:31.443279 13548 layer_factory.hpp:77] Creating layer relu6
I0324 22:44:31.443287 13548 net.cpp:100] Creating Layer relu6
I0324 22:44:31.443291 13548 net.cpp:434] relu6 <- fc6
I0324 22:44:31.443296 13548 net.cpp:395] relu6 -> fc6 (in-place)
I0324 22:44:31.443526 13548 net.cpp:150] Setting up relu6
I0324 22:44:31.443532 13548 net.cpp:157] Top shape: 128 4096 (524288)
I0324 22:44:31.443536 13548 net.cpp:165] Memory required for data: 2754148764
I0324 22:44:31.443538 13548 layer_factory.hpp:77] Creating layer drop6
I0324 22:44:31.443543 13548 net.cpp:100] Creating Layer drop6
I0324 22:44:31.443547 13548 net.cpp:434] drop6 <- fc6
I0324 22:44:31.443552 13548 net.cpp:395] drop6 -> fc6 (in-place)
I0324 22:44:31.443570 13548 net.cpp:150] Setting up drop6
I0324 22:44:31.443574 13548 net.cpp:157] Top shape: 128 4096 (524288)
I0324 22:44:31.443577 13548 net.cpp:165] Memory required for data: 2756245916
I0324 22:44:31.443579 13548 layer_factory.hpp:77] Creating layer fc7
I0324 22:44:31.443585 13548 net.cpp:100] Creating Layer fc7
I0324 22:44:31.443588 13548 net.cpp:434] fc7 <- fc6
I0324 22:44:31.443593 13548 net.cpp:408] fc7 -> fc7
I0324 22:44:31.463310 13548 net.cpp:150] Setting up fc7
I0324 22:44:31.463342 13548 net.cpp:157] Top shape: 128 4096 (524288)
I0324 22:44:31.463345 13548 net.cpp:165] Memory required for data: 2758343068
I0324 22:44:31.463351 13548 net.cpp:493] Sharing parameters 'fc7_w' owned by layer 'fc7_readonly', param index 0
I0324 22:44:31.463354 13548 net.cpp:493] Sharing parameters 'fc7_b' owned by layer 'fc7_readonly', param index 1
I0324 22:44:31.463358 13548 layer_factory.hpp:77] Creating layer relu7
I0324 22:44:31.463367 13548 net.cpp:100] Creating Layer relu7
I0324 22:44:31.463371 13548 net.cpp:434] relu7 <- fc7
I0324 22:44:31.463377 13548 net.cpp:395] relu7 -> fc7 (in-place)
I0324 22:44:31.464061 13548 net.cpp:150] Setting up relu7
I0324 22:44:31.464071 13548 net.cpp:157] Top shape: 128 4096 (524288)
I0324 22:44:31.464074 13548 net.cpp:165] Memory required for data: 2760440220
I0324 22:44:31.464077 13548 layer_factory.hpp:77] Creating layer drop7
I0324 22:44:31.464082 13548 net.cpp:100] Creating Layer drop7
I0324 22:44:31.464085 13548 net.cpp:434] drop7 <- fc7
I0324 22:44:31.464089 13548 net.cpp:395] drop7 -> fc7 (in-place)
I0324 22:44:31.464109 13548 net.cpp:150] Setting up drop7
I0324 22:44:31.464113 13548 net.cpp:157] Top shape: 128 4096 (524288)
I0324 22:44:31.464115 13548 net.cpp:165] Memory required for data: 2762537372
I0324 22:44:31.464118 13548 layer_factory.hpp:77] Creating layer fc7_drop7_0_split
I0324 22:44:31.464123 13548 net.cpp:100] Creating Layer fc7_drop7_0_split
I0324 22:44:31.464126 13548 net.cpp:434] fc7_drop7_0_split <- fc7
I0324 22:44:31.464136 13548 net.cpp:408] fc7_drop7_0_split -> fc7_drop7_0_split_0
I0324 22:44:31.464143 13548 net.cpp:408] fc7_drop7_0_split -> fc7_drop7_0_split_1
I0324 22:44:31.464174 13548 net.cpp:150] Setting up fc7_drop7_0_split
I0324 22:44:31.464180 13548 net.cpp:157] Top shape: 128 4096 (524288)
I0324 22:44:31.464184 13548 net.cpp:157] Top shape: 128 4096 (524288)
I0324 22:44:31.464185 13548 net.cpp:165] Memory required for data: 2766731676
I0324 22:44:31.464188 13548 layer_factory.hpp:77] Creating layer full1_cls_score
I0324 22:44:31.464195 13548 net.cpp:100] Creating Layer full1_cls_score
I0324 22:44:31.464197 13548 net.cpp:434] full1_cls_score <- fc7_drop7_0_split_0
I0324 22:44:31.464202 13548 net.cpp:408] full1_cls_score -> cls_score
I0324 22:44:31.464354 13548 net.cpp:150] Setting up full1_cls_score
I0324 22:44:31.464359 13548 net.cpp:157] Top shape: 128 2 (256)
I0324 22:44:31.464361 13548 net.cpp:165] Memory required for data: 2766732700
I0324 22:44:31.464365 13548 net.cpp:493] Sharing parameters 'cls_score_w' owned by layer 'cls_score_readonly', param index 0
I0324 22:44:31.464367 13548 net.cpp:493] Sharing parameters 'cls_score_b' owned by layer 'cls_score_readonly', param index 1
I0324 22:44:31.464378 13548 layer_factory.hpp:77] Creating layer sjtuOhem_cg_bbox_pred
I0324 22:44:31.464383 13548 net.cpp:100] Creating Layer sjtuOhem_cg_bbox_pred
I0324 22:44:31.464386 13548 net.cpp:434] sjtuOhem_cg_bbox_pred <- fc7_drop7_0_split_1
I0324 22:44:31.464391 13548 net.cpp:408] sjtuOhem_cg_bbox_pred -> bbox_pred
I0324 22:44:31.464720 13548 net.cpp:150] Setting up sjtuOhem_cg_bbox_pred
I0324 22:44:31.464726 13548 net.cpp:157] Top shape: 128 8 (1024)
I0324 22:44:31.464728 13548 net.cpp:165] Memory required for data: 2766736796
I0324 22:44:31.464731 13548 net.cpp:493] Sharing parameters 'bbox_pred_w' owned by layer 'bbox_pred_readonly', param index 0
I0324 22:44:31.464735 13548 net.cpp:493] Sharing parameters 'bbox_pred_b' owned by layer 'bbox_pred_readonly', param index 1
I0324 22:44:31.464737 13548 layer_factory.hpp:77] Creating layer loss_cls
…
