…
weight_decay: 0.0005
stepsize: 50000
snapshot: 0
snapshot_prefix: "zf_faster_rcnn"
average_loss: 100
iter_size: 2
I0424 18:30:10.667757 17103 solver.cpp:81] Creating training net from train_net file: models/full1_DRoiAlign/original.pt
I0424 18:30:10.671562 17103 net.cpp:58] Initializing net from parameters: 
name: "PVANET"
state {
  phase: TRAIN
}
layer {
  name: "input-data"
  type: "Python"
  top: "data"
  top: "im_info"
  top: "gt_boxes"
  python_param {
    module: "roi_data_layer.layer"
    layer: "RoIDataLayer"
    param_str: "\'num_classes\': 2"
  }
}
layer {
  name: "conv1_1/conv"
  type: "Convolution"
  bottom: "data"
  top: "conv1_1/conv"
  param {
    lr_mult: 0.1
    decay_mult: 0.1
  }
  convolution_param {
    num_output: 16
    bias_term: false
    weight_filler {
      type: "xavier"
    }
    pad_h: 3
    pad_w: 3
    kernel_h: 7
    kernel_w: 7
    stride_h: 2
    stride_w: 2
  }
}
layer {
  name: "conv1_1/bn"
  type: "BatchNorm"
  bottom: "conv1_1/conv"
  top: "conv1_1/conv"
  param {
    lr_mult: 0
    decay_mult: 0
  }
  param {
    lr_mult: 0
    decay_mult: 0
  }
  param {
    lr_mult: 0
    decay_mult: 0
  }
  batch_norm_param {
    use_global_stats: true
  }
}
layer {
  name: "conv1_1/neg"
  type: "Power"
  bottom: "conv1_1/conv"
  top: "conv1_1/neg"
  power_param {
    power: 1
    scale: -1
    shift: 0
  }
}
layer {
  name: "conv1_1/concat"
  type: "Concat"
  bottom: "conv1_1/conv"
  bottom: "conv1_1/neg"
  top: "conv1_1"
}
layer {
  name: "conv1_1/scale"
  type: "Scale"
  bottom: "conv1_1"
  top: "conv1_1"
  param {
    lr_mult: 0.1
    decay_mult: 0
  }
  param {
    lr_mult: 0.2
    decay_mult: 0
  }
  scale_param {
    bias_term: true
  }
}
layer {
  name: "conv1_1/relu"
  type: "ReLU"
  bottom: "conv1_1"
  top: "conv1_1"
}
layer {
  name: "pool1"
  type: "Pooling"
  bottom: "conv1_1"
  top: "pool1"
  pooling_param {
    pool: MAX
    kernel_size: 3
    stride: 2
    pad: 0
  }
}
layer {
  name: "conv2_1/1/conv"
  type: "Convolution"
  bottom: "pool1"
  top: "conv2_1/1"
  param {
    lr_mult: 0.1
    decay_mult: 0.1
  }
  convolution_param {
    num_output: 24
    bias_term: false
    weight_filler {
      type: "xavier"
    }
    pad_h: 0
    pad_w: 0
    kernel_h: 1
    kernel_w: 1
    stride_h: 1
    stride_w: 1
  }
}
layer {
  name: "conv2_1/1/bn"
  type: "BatchNorm"
  bottom: "conv2_1/1"
  top: "conv2_1/1"
  param {
    lr_mult: 0
    decay_mult: 0
  }
  param {
    lr_mult: 0
    decay_mult: 0
  }
  param {
    lr_mult: 0
    decay_mult: 0
  }
  batch_norm_param {
    use_global_stats: true
  }
}
layer {
  name: "conv2_1/1/bn_scale"
  type: "Scale"
  bottom: "conv2_1/1"
  top: "conv2_1/1"
  param {
    lr_mult: 0.1
    decay_mult: 0
  }
  param {
    lr_mult: 0.1
    decay_mult: 0
  }
  scale_param {
    bias_term: true
  }
}
layer {
  name: "conv2_1/1/relu"
  type: "ReLU"
  bottom: "conv2_1/1"
  top: "conv2_1/1"
}
layer {
  name: "conv2_1/2/conv"
  type: "Convolution"
  bottom: "conv2_1/1"
  top: "conv2_1/2/conv"
  param {
    lr_mult: 0.1
    decay_mult: 0.1
  }
  convolution_param {
    num_output: 24
    bias_term: false
    weight_filler {
      type: "xavier"
    }
    pad_h: 1
    pad_w: 1
    kernel_h: 3
    kernel_w: 3
    stride_h: 1
    stride_w: 1
  }
}
layer {
  name: "conv2_1/2/bn"
  type: "BatchNorm"
  bottom: "conv2_1/2/conv"
  top: "conv2_1/2/conv"
  param {
    lr_mult: 0
    decay_mult: 0
  }
  param {
    lr_mult: 0
    decay_mult: 0
  }
  param {
    lr_mult: 0
    decay_mult: 0
  }
  batch_norm_param {
    use_global_stats: true
  }
}
layer {
  name: "conv2_1/2/neg"
  type: "Power"
  bottom: "conv2_1/2/conv"
  top: "conv2_1/2/neg"
  power_param {
    power: 1
    scale: -1
    shift: 0
  }
}
layer {
  name: "conv2_1/2/concat"
  type: "Concat"
  bottom: "conv2_1/2/conv"
  bottom: "conv2_1/2/neg"
  top: "conv2_1/2"
}
layer {
  name: "conv2_1/2/scale"
  type: "Scale"
  bottom: "conv2_1/2"
  top: "conv2_1/2"
  param {
    lr_mult: 0.1
    decay_mult: 0
  }
  param {
    lr_mult: 0.2
    decay_mult: 0
  }
  scale_param {
    bias_term: true
  }
}
layer {
  name: "conv2_1/2/relu"
  type: "ReLU"
  bottom: "conv2_1/2"
  top: "conv2_1/2"
}
layer {
  name: "conv2_1/3/conv"
  type: "Convolution"
  bottom: "conv2_1/2"
  top: "conv2_1/3"
  param {
    lr_mult: 0.1
    decay_mult: 0.1
  }
  convolution_param {
    num_output: 64
    bias_term: false
    weight_filler {
      type: "xavier"
    }
    pad_h: 0
    pad_w: 0
    kernel_h: 1
    kernel_w: 1
    stride_h: 1
    stride_w: 1
  }
}
layer {
  name: "conv2_1/3/bn"
  type: "BatchNorm"
  bottom: "conv2_1/3"
  top: "conv2_1/3"
  param {
    lr_mult: 0
    decay_mult: 0
  }
  param {
    lr_mult: 0
    decay_mult: 0
  }
  param {
    lr_mult: 0
    decay_mult: 0
  }
  batch_norm_param {
    use_global_stats: true
  }
}
layer {
  name: "conv2_1/3/bn_scale"
  type: "Scale"
  bottom: "conv2_1/3"
  top: "conv2_1/3"
  param {
    lr_mult: 0.1
    decay_mult: 0
  }
  param {
    lr_mult: 0.1
    decay_mult: 0
  }
  scale_param {
    bias_term: true
  }
}
layer {
  name: "conv2_1/proj"
  type: "Convolution"
  bottom: "pool1"
  top: "conv2_1/proj"
  param {
    lr_mult: 0.1
    decay_mult: 0.1
  }
  param {
    lr_mult: 0.2
    decay_mult: 0
  }
  convolution_param {
    num_output: 64
    weight_filler {
      type: "xavier"
    }
    bias_filler {
      type: "constant"
      value: 0.1
    }
    pad_h: 0
    pad_w: 0
    kernel_h: 1
    kernel_w: 1
    stride_h: 1
    stride_w: 1
  }
}
layer {
  name: "conv2_1/proj_bn"
  type: "BatchNorm"
  bottom: "conv2_1/proj"
  top: "conv2_1/proj"
  param {
    lr_mult: 0
    decay_mult: 0
  }
  param {
    lr_mult: 0
    decay_mult: 0
  }
  param {
    lr_mult: 0
    decay_mult: 0
  }
  batch_norm_param {
    use_global_stats: true
  }
}
layer {
  name: "conv2_1/proj_bn_scale"
  type: "Scale"
  bottom: "conv2_1/proj"
  top: "conv2_1/proj"
  param {
    lr_mult: 0.1
    decay_mult: 0
  }
  param {
    lr_mult: 0.1
    decay_mult: 0
  }
  scale_param {
    bias_term: true
  }
}
layer {
  name: "conv2_1"
  type: "Eltwise"
  bottom: "conv2_1/3"
  bottom: "conv2_1/proj"
  top: "conv2_1"
  eltwise_param {
    operation: SUM
    coeff: 1
    coeff: 1
  }
}
layer {
  name: "conv2_2/1/conv"
  type: "Convolution"
  bottom: "conv2_1"
  top: "conv2_2/1"
  param {
    lr_mult: 0.1
    decay_mult: 0.1
  }
  convolution_param {
    num_output: 24
    bias_term: false
    weight_filler {
      type: "xavier"
    }
    pad_h: 0
    pad_w: 0
    kernel_h: 1
    kernel_w: 1
    stride_h: 1
    stride_w: 1
  }
}
layer {
  name: "conv2_2/1/bn"
  type: "BatchNorm"
  bottom: "conv2_2/1"
  top: "conv2_2/1"
  param {
    lr_mult: 0
    decay_mult: 0
  }
  param {
    lr_mult: 0
    decay_mult: 0
  }
  param {
    lr_mult: 0
    decay_mult: 0
  }
  batch_norm_param {
    use_global_stats: true
  }
}
layer {
  name: "conv2_2/1/bn_scale"
  type: "Scale"
  bottom: "conv2_2/1"
  top: "conv2_2/1"
  param {
    lr_mult: 0.1
    decay_mult: 0
  }
  param {
    lr_mult: 0.1
    decay_mult: 0
  }
  scale_param {
    bias_term: true
  }
}
layer {
  name: "conv2_2/1/relu"
  type: "ReLU"
  bottom: "conv2_2/1"
  top: "conv2_2/1"
}
layer {
  name: "conv2_2/2/conv"
  type: "Convolution"
  bottom: "conv2_2/1"
  top: "conv2_2/2/conv"
  param {
    lr_mult: 0.1
    decay_mult: 0.1
  }
  convolution_param {
    num_output: 24
    bias_term: false
    weight_filler {
      type: "xavier"
    }
    pad_h: 1
    pad_w: 1
    kernel_h: 3
    kernel_w: 3
    stride_h: 1
    stride_w: 1
  }
}
layer {
  name: "conv2_2/2/bn"
  type: "BatchNorm"
  bottom: "conv2_2/2/conv"
  top: "conv2_2/2/conv"
  param {
    lr_mult: 0
    decay_mult: 0
  }
  param {
    lr_mult: 0
    decay_mult: 0
  }
  param {
    lr_mult: 0
    decay_mult: 0
  }
  batch_norm_param {
    use_global_stats: true
  }
}
layer {
  name: "conv2_2/2/neg"
  type: "Power"
  bottom: "conv2_2/2/conv"
  top: "conv2_2/2/neg"
  power_param {
    power: 1
    scale: -1
    shift: 0
  }
}
layer {
  name: "conv2_2/2/concat"
  type: "Concat"
  bottom: "conv2_2/2/conv"
  bottom: "conv2_2/2/neg"
  top: "conv2_2/2"
}
layer {
  name: "conv2_2/2/scale"
  type: "Scale"
  bottom: "conv2_2/2"
  top: "conv2_2/2"
  param {
    lr_mult: 0.1
    decay_mult: 0
  }
  param {
    lr_mult: 0.2
    decay_mult: 0
  }
  scale_param {
    bias_term: true
  }
}
layer {
  name: "conv2_2/2/relu"
  type: "ReLU"
  bottom: "conv2_2/2"
  top: "conv2_2/2"
}
layer {
  name: "conv2_2/3/conv"
  type: "Convolution"
  bottom: "conv2_2/2"
  top: "conv2_2/3"
  param {
    lr_mult: 0.1
    decay_mult: 0.1
  }
  convolution_param {
    num_output: 64
    bias_term: false
    weight_filler {
      type: "xavier"
    }
    pad_h: 0
    pad_w: 0
    kernel_h: 1
    kernel_w: 1
    stride_h: 1
    stride_w: 1
  }
}
layer {
  name: "conv2_2/3/bn"
  type: "BatchNorm"
  bottom: "conv2_2/3"
  top: "conv2_2/3"
  param {
    lr_mult: 0
    decay_mult: 0
  }
  param {
    lr_mult: 0
    decay_mult: 0
  }
  param {
    lr_mult: 0
    decay_mult: 0
  }
  batch_norm_param {
    use_global_stats: true
  }
}
layer {
  name: "conv2_2/3/bn_scale"
  type: "Scale"
  bottom: "conv2_2/3"
  top: "conv2_2/3"
  param {
    lr_mult: 0.1
    decay_mult: 0
  }
  param {
    lr_mult: 0.1
    decay_mult: 0
  }
  scale_param {
    bias_term: true
  }
}
layer {
  name: "conv2_2/input"
  type: "Power"
  bottom: "conv2_1"
  top: "conv2_2/input"
  power_param {
    power: 1
    scale: 1
    shift: 0
  }
}
layer {
  name: "conv2_2"
  type: "Eltwise"
  bottom: "conv2_2/3"
  bottom: "conv2_2/input"
  top: "conv2_2"
  eltwise_param {
    operation: SUM
    coeff: 1
    coeff: 1
  }
}
layer {
  name: "conv2_3/1/conv"
  type: "Convolution"
  bottom: "conv2_2"
  top: "conv2_3/1"
  param {
    lr_mult: 0.1
    decay_mult: 0.1
  }
  convolution_param {
    num_output: 24
    bias_term: false
    weight_filler {
      type: "xavier"
    }
    pad_h: 0
    pad_w: 0
    kernel_h: 1
    kernel_w: 1
    stride_h: 1
    stride_w: 1
  }
}
layer {
  name: "conv2_3/1/bn"
  type: "BatchNorm"
  bottom: "conv2_3/1"
  top: "conv2_3/1"
  param {
    lr_mult: 0
    decay_mult: 0
  }
  param {
    lr_mult: 0
    decay_mult: 0
  }
  param {
    lr_mult: 0
    decay_mult: 0
  }
  batch_norm_param {
    use_global_stats: true
  }
}
layer {
  name: "conv2_3/1/bn_scale"
  type: "Scale"
  bottom: "conv2_3/1"
  top: "conv2_3/1"
  param {
    lr_mult: 0.1
    decay_mult: 0
  }
  param {
    lr_mult: 0.1
    decay_mult: 0
  }
  scale_param {
    bias_term: true
  }
}
layer {
  name: "conv2_3/1/relu"
  type: "ReLU"
  bottom: "conv2_3/1"
  top: "conv2_3/1"
}
layer {
  name: "conv2_3/2/conv"
  type: "Convolution"
  bottom: "conv2_3/1"
  top: "conv2_3/2/conv"
  param {
    lr_mult: 0.1
    decay_mult: 0.1
  }
  convolution_param {
    num_output: 24
    bias_term: false
    weight_filler {
      type: "xavier"
    }
    pad_h: 1
    pad_w: 1
    kernel_h: 3
    kernel_w: 3
    stride_h: 1
    stride_w: 1
  }
}
layer {
  name: "conv2_3/2/bn"
  type: "BatchNorm"
  bottom: "conv2_3/2/conv"
  top: "conv2_3/2/conv"
  param {
    lr_mult: 0
    decay_mult: 0
  }
  param {
    lr_mult: 0
    decay_mult: 0
  }
  param {
    lr_mult: 0
    decay_mult: 0
  }
  batch_norm_param {
    use_global_stats: true
  }
}
layer {
  name: "conv2_3/2/neg"
  type: "Power"
  bottom: "conv2_3/2/conv"
  top: "conv2_3/2/neg"
  power_param {
    power: 1
    scale: -1
    shift: 0
  }
}
layer {
  name: "conv2_3/2/concat"
  type: "Concat"
  bottom: "conv2_3/2/conv"
  bottom: "conv2_3/2/neg"
  top: "conv2_3/2"
}
layer {
  name: "conv2_3/2/scale"
  type: "Scale"
  bottom: "conv2_3/2"
  top: "conv2_3/2"
  param {
    lr_mult: 0.1
    decay_mult: 0
  }
  param {
    lr_mult: 0.2
    decay_mult: 0
  }
  scale_param {
    bias_term: true
  }
}
layer {
  name: "conv2_3/2/relu"
  type: "ReLU"
  bottom: "conv2_3/2"
  top: "conv2_3/2"
}
layer {
  name: "conv2_3/3/conv"
  type: "Convolution"
  bottom: "conv2_3/2"
  top: "conv2_3/3"
  param {
    lr_mult: 0.1
    decay_mult: 0.1
  }
  convolution_param {
    num_output: 64
    bias_term: false
    weight_filler {
      type: "xavier"
    }
    pad_h: 0
    pad_w: 0
    kernel_h: 1
    kernel_w: 1
    stride_h: 1
    stride_w: 1
  }
}
layer {
  name: "conv2_3/3/bn"
  type: "BatchNorm"
  bottom: "conv2_3/3"
  top: "conv2_3/3"
  param {
    lr_mult: 0
    decay_mult: 0
  }
  param {
    lr_mult: 0
    decay_mult: 0
  }
  param {
    lr_mult: 0
    decay_mult: 0
  }
  batch_norm_param {
    use_global_stats: true
  }
}
layer {
  name: "conv2_3/3/bn_scale"
  type: "Scale"
  bottom: "conv2_3/3"
  top: "conv2_3/3"
  param {
    lr_mult: 0.1
    decay_mult: 0
  }
  param {
    lr_mult: 0.1
    decay_mult: 0
  }
  scale_param {
    bias_term: true
  }
}
layer {
  name: "conv2_3/input"
  type: "Power"
  bottom: "conv2_2"
  top: "conv2_3/input"
  power_param {
    power: 1
    scale: 1
    shift: 0
  }
}
layer {
  name: "conv2_3"
  type: "Eltwise"
  bottom: "conv2_3/3"
  bottom: "conv2_3/input"
  top: "conv2_3"
  eltwise_param {
    operation: SUM
    coeff: 1
    coeff: 1
  }
}
layer {
  name: "conv3_1/1/conv"
  type: "Convolution"
  bottom: "conv2_3"
  top: "conv3_1/1"
  param {
    lr_mult: 0.1
    decay_mult: 0.1
  }
  convolution_param {
    num_output: 48
    bias_term: false
    weight_filler {
      type: "xavier"
    }
    pad_h: 0
    pad_w: 0
    kernel_h: 1
    kernel_w: 1
    stride_h: 2
    stride_w: 2
  }
}
layer {
  name: "conv3_1/1/bn"
  type: "BatchNorm"
  bottom: "conv3_1/1"
  top: "conv3_1/1"
  param {
    lr_mult: 0
    decay_mult: 0
  }
  param {
    lr_mult: 0
    decay_mult: 0
  }
  param {
    lr_mult: 0
    decay_mult: 0
  }
  batch_norm_param {
    use_global_stats: true
  }
}
layer {
  name: "conv3_1/1/bn_scale"
  type: "Scale"
  bottom: "conv3_1/1"
  top: "conv3_1/1"
  param {
    lr_mult: 0.1
    decay_mult: 0
  }
  param {
    lr_mult: 0.1
    decay_mult: 0
  }
  scale_param {
    bias_term: true
  }
}
layer {
  name: "conv3_1/1/relu"
  type: "ReLU"
  bottom: "conv3_1/1"
  top: "conv3_1/1"
}
layer {
  name: "conv3_1/2/conv"
  type: "Convolution"
  bottom: "conv3_1/1"
  top: "conv3_1/2/conv"
  param {
    lr_mult: 0.1
    decay_mult: 0.1
  }
  convolution_param {
    num_output: 48
    bias_term: false
    weight_filler {
      type: "xavier"
    }
    pad_h: 1
    pad_w: 1
    kernel_h: 3
    kernel_w: 3
    stride_h: 1
    stride_w: 1
  }
}
layer {
  name: "conv3_1/2/bn"
  type: "BatchNorm"
  bottom: "conv3_1/2/conv"
  top: "conv3_1/2/conv"
  param {
    lr_mult: 0
    decay_mult: 0
  }
  param {
    lr_mult: 0
    decay_mult: 0
  }
  param {
    lr_mult: 0
    decay_mult: 0
  }
  batch_norm_param {
    use_global_stats: true
  }
}
layer {
  name: "conv3_1/2/neg"
  type: "Power"
  bottom: "conv3_1/2/conv"
  top: "conv3_1/2/neg"
  power_param {
    power: 1
    scale: -1
    shift: 0
  }
}
layer {
  name: "conv3_1/2/concat"
  type: "Concat"
  bottom: "conv3_1/2/conv"
  bottom: "conv3_1/2/neg"
  top: "conv3_1/2"
}
layer {
  name: "conv3_1/2/scale"
  type: "Scale"
  bottom: "conv3_1/2"
  top: "conv3_1/2"
  param {
    lr_mult: 0.1
    decay_mult: 0
  }
  param {
    lr_mult: 0.2
    decay_mult: 0
  }
  scale_param {
    bias_term: true
  }
}
layer {
  name: "conv3_1/2/relu"
  type: "ReLU"
  bottom: "conv3_1/2"
  top: "conv3_1/2"
}
layer {
  name: "conv3_1/3/conv"
  type: "Convolution"
  bottom: "conv3_1/2"
  top: "conv3_1/3"
  param {
    lr_mult: 0.1
    decay_mult: 0.1
  }
  convolution_param {
    num_output: 128
    bias_term: false
    weight_filler {
      type: "xavier"
    }
    pad_h: 0
    pad_w: 0
    kernel_h: 1
    kernel_w: 1
    stride_h: 1
    stride_w: 1
  }
}
layer {
  name: "conv3_1/3/bn"
  type: "BatchNorm"
  bottom: "conv3_1/3"
  top: "conv3_1/3"
  param {
    lr_mult: 0
    decay_mult: 0
  }
  param {
    lr_mult: 0
    decay_mult: 0
  }
  param {
    lr_mult: 0
    decay_mult: 0
  }
  batch_norm_param {
    use_global_stats: true
  }
}
layer {
  name: "conv3_1/3/bn_scale"
  type: "Scale"
  bottom: "conv3_1/3"
  top: "conv3_1/3"
  param {
    lr_mult: 0.1
    decay_mult: 0
  }
  param {
    lr_mult: 0.1
    decay_mult: 0
  }
  scale_param {
    bias_term: true
  }
}
layer {
  name: "conv3_1/proj"
  type: "Convolution"
  bottom: "conv2_3"
  top: "conv3_1/proj"
  param {
    lr_mult: 0.1
    decay_mult: 0.1
  }
  param {
    lr_mult: 0.2
    decay_mult: 0
  }
  convolution_param {
    num_output: 128
    weight_filler {
      type: "xavier"
    }
    bias_filler {
      type: "constant"
      value: 0.1
    }
    pad_h: 0
    pad_w: 0
    kernel_h: 1
    kernel_w: 1
    stride_h: 2
    stride_w: 2
  }
}
layer {
  name: "conv3_1/proj_bn"
  type: "BatchNorm"
  bottom: "conv3_1/proj"
  top: "conv3_1/proj"
  param {
    lr_mult: 0
    decay_mult: 0
  }
  param {
    lr_mult: 0
    decay_mult: 0
  }
  param {
    lr_mult: 0
    decay_mult: 0
  }
  batch_norm_param {
    use_global_stats: true
  }
}
layer {
  name: "conv3_1/proj_bn_scale"
  type: "Scale"
  bottom: "conv3_1/proj"
  top: "conv3_1/proj"
  param {
    lr_mult: 0.1
    decay_mult: 0
  }
  param {
    lr_mult: 0.1
    decay_mult: 0
  }
  scale_param {
    bias_term: true
  }
}
layer {
  name: "conv3_1"
  type: "Eltwise"
  bottom: "conv3_1/3"
  bottom: "conv3_1/proj"
  top: "conv3_1"
  eltwise_param {
    operation: SUM
    coeff: 1
    coeff: 1
  }
}
layer {
  name: "conv3_2/1/conv"
  type: "Convolution"
  bottom: "conv3_1"
  top: "conv3_2/1"
  param {
    lr_mult: 0.1
    decay_mult: 0.1
  }
  convolution_param {
    num_output: 48
    bias_term: false
    weight_filler {
      type: "xavier"
    }
    pad_h: 0
    pad_w: 0
    kernel_h: 1
    kernel_w: 1
    stride_h: 1
    stride_w: 1
  }
}
layer {
  name: "conv3_2/1/bn"
  type: "BatchNorm"
  bottom: "conv3_2/1"
  top: "conv3_2/1"
  param {
    lr_mult: 0
    decay_mult: 0
  }
  param {
    lr_mult: 0
    decay_mult: 0
  }
  param {
    lr_mult: 0
    decay_mult: 0
  }
  batch_norm_param {
    use_global_stats: true
  }
}
layer {
  name: "conv3_2/1/bn_scale"
  type: "Scale"
  bottom: "conv3_2/1"
  top: "conv3_2/1"
  param {
    lr_mult: 0.1
    decay_mult: 0
  }
  param {
    lr_mult: 0.1
    decay_mult: 0
  }
  scale_param {
    bias_term: true
  }
}
layer {
  name: "conv3_2/1/relu"
  type: "ReLU"
  bottom: "conv3_2/1"
  top: "conv3_2/1"
}
layer {
  name: "conv3_2/2/conv"
  type: "Convolution"
  bottom: "conv3_2/1"
  top: "conv3_2/2/conv"
  param {
    lr_mult: 0.1
    decay_mult: 0.1
  }
  convolution_param {
    num_output: 48
    bias_term: false
    weight_filler {
      type: "xavier"
    }
    pad_h: 1
    pad_w: 1
    kernel_h: 3
    kernel_w: 3
    stride_h: 1
    stride_w: 1
  }
}
layer {
  name: "conv3_2/2/bn"
  type: "BatchNorm"
  bottom: "conv3_2/2/conv"
  top: "conv3_2/2/conv"
  param {
    lr_mult: 0
    decay_mult: 0
  }
  param {
    lr_mult: 0
    decay_mult: 0
  }
  param {
    lr_mult: 0
    decay_mult: 0
  }
  batch_norm_param {
    use_global_stats: true
  }
}
layer {
  name: "conv3_2/2/neg"
  type: "Power"
  bottom: "conv3_2/2/conv"
  top: "conv3_2/2/neg"
  power_param {
    power: 1
    scale: -1
    shift: 0
  }
}
layer {
  name: "conv3_2/2/concat"
  type: "Concat"
  bottom: "conv3_2/2/conv"
  bottom: "conv3_2/2/neg"
  top: "conv3_2/2"
}
layer {
  name: "conv3_2/2/scale"
  type: "Scale"
  bottom: "conv3_2/2"
  top: "conv3_2/2"
  param {
    lr_mult: 0.1
    decay_mult: 0
  }
  param {
    lr_mult: 0.2
    decay_mult: 0
  }
  scale_param {
    bias_term: true
  }
}
layer {
  name: "conv3_2/2/relu"
  type: "ReLU"
  bottom: "conv3_2/2"
  top: "conv3_2/2"
}
layer {
  name: "conv3_2/3/conv"
  type: "Convolution"
  bottom: "conv3_2/2"
  top: "conv3_2/3"
  param {
    lr_mult: 0.1
    decay_mult: 0.1
  }
  convolution_param {
    num_output: 128
    bias_term: false
    weight_filler {
      type: "xavier"
    }
    pad_h: 0
    pad_w: 0
    kernel_h: 1
    kernel_w: 1
    stride_h: 1
    stride_w: 1
  }
}
layer {
  name: "conv3_2/3/bn"
  type: "BatchNorm"
  bottom: "conv3_2/3"
  top: "conv3_2/3"
  param {
    lr_mult: 0
    decay_mult: 0
  }
  param {
    lr_mult: 0
    decay_mult: 0
  }
  param {
    lr_mult: 0
    decay_mult: 0
  }
  batch_norm_param {
    use_global_stats: true
  }
}
layer {
  name: "conv3_2/3/bn_scale"
  type: "Scale"
  bottom: "conv3_2/3"
  top: "conv3_2/3"
  param {
    lr_mult: 0.1
    decay_mult: 0
  }
  param {
    lr_mult: 0.1
    decay_mult: 0
  }
  scale_param {
    bias_term: true
  }
}
layer {
  name: "conv3_2/input"
  type: "Power"
  bottom: "conv3_1"
  top: "conv3_2/input"
  power_param {
    power: 1
    scale: 1
    shift: 0
  }
}
layer {
  name: "conv3_2"
  type: "Eltwise"
  bottom: "conv3_2/3"
  bottom: "conv3_2/input"
  top: "conv3_2"
  eltwise_param {
    operation: SUM
    coeff: 1
    coeff: 1
  }
}
layer {
  name: "conv3_3/1/conv"
  type: "Convolution"
  bottom: "conv3_2"
  top: "conv3_3/1"
  param {
    lr_mult: 0.1
    decay_mult: 0.1
  }
  convolution_param {
    num_output: 48
    bias_term: false
    weight_filler {
      type: "xavier"
    }
    pad_h: 0
    pad_w: 0
    kernel_h: 1
    kernel_w: 1
    stride_h: 1
    stride_w: 1
  }
}
layer {
  name: "conv3_3/1/bn"
  type: "BatchNorm"
  bottom: "conv3_3/1"
  top: "conv3_3/1"
  param {
    lr_mult: 0
    decay_mult: 0
  }
  param {
    lr_mult: 0
    decay_mult: 0
  }
  param {
    lr_mult: 0
    decay_mult: 0
  }
  batch_norm_param {
    use_global_stats: true
  }
}
layer {
  name: "conv3_3/1/bn_scale"
  type: "Scale"
  bottom: "conv3_3/1"
  top: "conv3_3/1"
  param {
    lr_mult: 0.1
    decay_mult: 0
  }
  param {
    lr_mult: 0.1
    decay_mult: 0
  }
  scale_param {
    bias_term: true
  }
}
layer {
  name: "conv3_3/1/relu"
  type: "ReLU"
  bottom: "conv3_3/1"
  top: "conv3_3/1"
}
layer {
  name: "conv3_3/2/conv"
  type: "Convolution"
  bottom: "conv3_3/1"
  top: "conv3_3/2/conv"
  param {
    lr_mult: 0.1
    decay_mult: 0.1
  }
  convolution_param {
    num_output: 48
    bias_term: false
    weight_filler {
      type: "xavier"
    }
    pad_h: 1
    pad_w: 1
    kernel_h: 3
    kernel_w: 3
    stride_h: 1
    stride_w: 1
  }
}
layer {
  name: "conv3_3/2/bn"
  type: "BatchNorm"
  bottom: "conv3_3/2/conv"
  top: "conv3_3/2/conv"
  param {
    lr_mult: 0
    decay_mult: 0
  }
  param {
    lr_mult: 0
    decay_mult: 0
  }
  param {
    lr_mult: 0
    decay_mult: 0
  }
  batch_norm_param {
    use_global_stats: true
  }
}
layer {
  name: "conv3_3/2/neg"
  type: "Power"
  bottom: "conv3_3/2/conv"
  top: "conv3_3/2/neg"
  power_param {
    power: 1
    scale: -1
    shift: 0
  }
}
layer {
  name: "conv3_3/2/concat"
  type: "Concat"
  bottom: "conv3_3/2/conv"
  bottom: "conv3_3/2/neg"
  top: "conv3_3/2"
}
layer {
  name: "conv3_3/2/scale"
  type: "Scale"
  bottom: "conv3_3/2"
  top: "conv3_3/2"
  param {
    lr_mult: 0.1
    decay_mult: 0
  }
  param {
    lr_mult: 0.2
    decay_mult: 0
  }
  scale_param {
    bias_term: true
  }
}
layer {
  name: "conv3_3/2/relu"
  type: "ReLU"
  bottom: "conv3_3/2"
  top: "conv3_3/2"
}
layer {
  name: "conv3_3/3/conv"
  type: "Convolution"
  bottom: "conv3_3/2"
  top: "conv3_3/3"
  param {
    lr_mult: 0.1
    decay_mult: 0.1
  }
  convolution_param {
    num_output: 128
    bias_term: false
    weight_filler {
      type: "xavier"
    }
    pad_h: 0
    pad_w: 0
    kernel_h: 1
    kernel_w: 1
    stride_h: 1
    stride_w: 1
  }
}
layer {
  name: "conv3_3/3/bn"
  type: "BatchNorm"
  bottom: "conv3_3/3"
  top: "conv3_3/3"
  param {
    lr_mult: 0
    decay_mult: 0
  }
  param {
    lr_mult: 0
    decay_mult: 0
  }
  param {
    lr_mult: 0
    decay_mult: 0
  }
  batch_norm_param {
    use_global_stats: true
  }
}
layer {
  name: "conv3_3/3/bn_scale"
  type: "Scale"
  bottom: "conv3_3/3"
  top: "conv3_3/3"
  param {
    lr_mult: 0.1
    decay_mult: 0
  }
  param {
    lr_mult: 0.1
    decay_mult: 0
  }
  scale_param {
    bias_term: true
  }
}
layer {
  name: "conv3_3/input"
  type: "Power"
  bottom: "conv3_2"
  top: "conv3_3/input"
  power_param {
    power: 1
    scale: 1
    shift: 0
  }
}
layer {
  name: "conv3_3"
  type: "Eltwise"
  bottom: "conv3_3/3"
  bottom: "conv3_3/input"
  top: "conv3_3"
  eltwise_param {
    operation: SUM
    coeff: 1
    coeff: 1
  }
}
layer {
  name: "conv3_4/1/conv"
  type: "Convolution"
  bottom: "conv3_3"
  top: "conv3_4/1"
  param {
    lr_mult: 0.1
    decay_mult: 0.1
  }
  convolution_param {
    num_output: 48
    bias_term: false
    weight_filler {
      type: "xavier"
    }
    pad_h: 0
    pad_w: 0
    kernel_h: 1
    kernel_w: 1
    stride_h: 1
    stride_w: 1
  }
}
layer {
  name: "conv3_4/1/bn"
  type: "BatchNorm"
  bottom: "conv3_4/1"
  top: "conv3_4/1"
  param {
    lr_mult: 0
    decay_mult: 0
  }
  param {
    lr_mult: 0
    decay_mult: 0
  }
  param {
    lr_mult: 0
    decay_mult: 0
  }
  batch_norm_param {
    use_global_stats: true
  }
}
layer {
  name: "conv3_4/1/bn_scale"
  type: "Scale"
  bottom: "conv3_4/1"
  top: "conv3_4/1"
  param {
    lr_mult: 0.1
    decay_mult: 0
  }
  param {
    lr_mult: 0.1
    decay_mult: 0
  }
  scale_param {
    bias_term: true
  }
}
layer {
  name: "conv3_4/1/relu"
  type: "ReLU"
  bottom: "conv3_4/1"
  top: "conv3_4/1"
}
layer {
  name: "conv3_4/2/conv"
  type: "Convolution"
  bottom: "conv3_4/1"
  top: "conv3_4/2/conv"
  param {
    lr_mult: 0.1
    decay_mult: 0.1
  }
  convolution_param {
    num_output: 48
    bias_term: false
    weight_filler {
      type: "xavier"
    }
    pad_h: 1
    pad_w: 1
    kernel_h: 3
    kernel_w: 3
    stride_h: 1
    stride_w: 1
  }
}
layer {
  name: "conv3_4/2/bn"
  type: "BatchNorm"
  bottom: "conv3_4/2/conv"
  top: "conv3_4/2/conv"
  param {
    lr_mult: 0
    decay_mult: 0
  }
  param {
    lr_mult: 0
    decay_mult: 0
  }
  param {
    lr_mult: 0
    decay_mult: 0
  }
  batch_norm_param {
    use_global_stats: true
  }
}
layer {
  name: "conv3_4/2/neg"
  type: "Power"
  bottom: "conv3_4/2/conv"
  top: "conv3_4/2/neg"
  power_param {
    power: 1
    scale: -1
    shift: 0
  }
}
layer {
  name: "conv3_4/2/concat"
  type: "Concat"
  bottom: "conv3_4/2/conv"
  bottom: "conv3_4/2/neg"
  top: "conv3_4/2"
}
layer {
  name: "conv3_4/2/scale"
  type: "Scale"
  bottom: "conv3_4/2"
  top: "conv3_4/2"
  param {
    lr_mult: 0.1
    decay_mult: 0
  }
  param {
    lr_mult: 0.2
    decay_mult: 0
  }
  scale_param {
    bias_term: true
  }
}
layer {
  name: "conv3_4/2/relu"
  type: "ReLU"
  bottom: "conv3_4/2"
  top: "conv3_4/2"
}
layer {
  name: "conv3_4/3/conv"
  type: "Convolution"
  bottom: "conv3_4/2"
  top: "conv3_4/3"
  param {
    lr_mult: 0.1
    decay_mult: 0.1
  }
  convolution_param {
    num_output: 128
    bias_term: false
    weight_filler {
      type: "xavier"
    }
    pad_h: 0
    pad_w: 0
    kernel_h: 1
    kernel_w: 1
    stride_h: 1
    stride_w: 1
  }
}
layer {
  name: "conv3_4/3/bn"
  type: "BatchNorm"
  bottom: "conv3_4/3"
  top: "conv3_4/3"
  param {
    lr_mult: 0
    decay_mult: 0
  }
  param {
    lr_mult: 0
    decay_mult: 0
  }
  param {
    lr_mult: 0
    decay_mult: 0
  }
  batch_norm_param {
    use_global_stats: true
  }
}
layer {
  name: "conv3_4/3/bn_scale"
  type: "Scale"
  bottom: "conv3_4/3"
  top: "conv3_4/3"
  param {
    lr_mult: 0.1
    decay_mult: 0
  }
  param {
    lr_mult: 0.1
    decay_mult: 0
  }
  scale_param {
    bias_term: true
  }
}
layer {
  name: "conv3_4/input"
  type: "Power"
  bottom: "conv3_3"
  top: "conv3_4/input"
  power_param {
    power: 1
    scale: 1
    shift: 0
  }
}
layer {
  name: "conv3_4"
  type: "Eltwise"
  bottom: "conv3_4/3"
  bottom: "conv3_4/input"
  top: "conv3_4"
  eltwise_param {
    operation: SUM
    coeff: 1
    coeff: 1
  }
}
layer {
  name: "conv4_1/incep/0/conv"
  type: "Convolution"
  bottom: "conv3_4"
  top: "conv4_1/incep/0"
  param {
    lr_mult: 0.1
    decay_mult: 0.1
  }
  convolution_param {
    num_output: 64
    bias_term: false
    weight_filler {
      type: "xavier"
    }
    pad_h: 0
    pad_w: 0
    kernel_h: 1
    kernel_w: 1
    stride_h: 2
    stride_w: 2
  }
}
layer {
  name: "conv4_1/incep/0/bn"
  type: "BatchNorm"
  bottom: "conv4_1/incep/0"
  top: "conv4_1/incep/0"
  param {
    lr_mult: 0
    decay_mult: 0
  }
  param {
    lr_mult: 0
    decay_mult: 0
  }
  param {
    lr_mult: 0
    decay_mult: 0
  }
  batch_norm_param {
    use_global_stats: true
  }
}
layer {
  name: "conv4_1/incep/0/bn_scale"
  type: "Scale"
  bottom: "conv4_1/incep/0"
  top: "conv4_1/incep/0"
  param {
    lr_mult: 0.1
    decay_mult: 0
  }
  param {
    lr_mult: 0.1
    decay_mult: 0
  }
  scale_param {
    bias_term: true
  }
}
layer {
  name: "conv4_1/incep/0/relu"
  type: "ReLU"
  bottom: "conv4_1/incep/0"
  top: "conv4_1/incep/0"
}
layer {
  name: "conv4_1/incep/1_reduce/conv"
  type: "Convolution"
  bottom: "conv3_4"
  top: "conv4_1/incep/1_reduce"
  param {
    lr_mult: 0.1
    decay_mult: 0.1
  }
  convolution_param {
    num_output: 48
    bias_term: false
    weight_filler {
      type: "xavier"
    }
    pad_h: 0
    pad_w: 0
    kernel_h: 1
    kernel_w: 1
    stride_h: 2
    stride_w: 2
  }
}
layer {
  name: "conv4_1/incep/1_reduce/bn"
  type: "BatchNorm"
  bottom: "conv4_1/incep/1_reduce"
  top: "conv4_1/incep/1_reduce"
  param {
    lr_mult: 0
    decay_mult: 0
  }
  param {
    lr_mult: 0
    decay_mult: 0
  }
  param {
    lr_mult: 0
    decay_mult: 0
  }
  batch_norm_param {
    use_global_stats: true
  }
}
layer {
  name: "conv4_1/incep/1_reduce/bn_scale"
  type: "Scale"
  bottom: "conv4_1/incep/1_reduce"
  top: "conv4_1/incep/1_reduce"
  param {
    lr_mult: 0.1
    decay_mult: 0
  }
  param {
    lr_mult: 0.1
    decay_mult: 0
  }
  scale_param {
    bias_term: true
  }
}
layer {
  name: "conv4_1/incep/1_reduce/relu"
  type: "ReLU"
  bottom: "conv4_1/incep/1_reduce"
  top: "conv4_1/incep/1_reduce"
}
layer {
  name: "conv4_1/incep/1_0/conv"
  type: "Convolution"
  bottom: "conv4_1/incep/1_reduce"
  top: "conv4_1/incep/1_0"
  param {
    lr_mult: 0.1
    decay_mult: 0.1
  }
  convolution_param {
    num_output: 128
    bias_term: false
    weight_filler {
      type: "xavier"
    }
    pad_h: 1
    pad_w: 1
    kernel_h: 3
    kernel_w: 3
    stride_h: 1
    stride_w: 1
  }
}
layer {
  name: "conv4_1/incep/1_0/bn"
  type: "BatchNorm"
  bottom: "conv4_1/incep/1_0"
  top: "conv4_1/incep/1_0"
  param {
I0424 18:30:10.672658 17103 layer_factory.hpp:77] Creating layer input-data
I0424 18:30:10.679008 17103 net.cpp:100] Creating Layer input-data
I0424 18:30:10.679023 17103 net.cpp:408] input-data -> data
I0424 18:30:10.679029 17103 net.cpp:408] input-data -> im_info
I0424 18:30:10.679034 17103 net.cpp:408] input-data -> gt_boxes
I0424 18:30:10.686503 17103 net.cpp:150] Setting up input-data
I0424 18:30:10.686523 17103 net.cpp:157] Top shape: 1 3 864 1440 (3732480)
I0424 18:30:10.686527 17103 net.cpp:157] Top shape: 1 3 (3)
I0424 18:30:10.686530 17103 net.cpp:157] Top shape: 1 4 (4)
I0424 18:30:10.686532 17103 net.cpp:165] Memory required for data: 14929948
I0424 18:30:10.686535 17103 layer_factory.hpp:77] Creating layer data_input-data_0_split
I0424 18:30:10.686542 17103 net.cpp:100] Creating Layer data_input-data_0_split
I0424 18:30:10.686545 17103 net.cpp:434] data_input-data_0_split <- data
I0424 18:30:10.686552 17103 net.cpp:408] data_input-data_0_split -> data_input-data_0_split_0
I0424 18:30:10.686556 17103 net.cpp:408] data_input-data_0_split -> data_input-data_0_split_1
I0424 18:30:10.686583 17103 net.cpp:150] Setting up data_input-data_0_split
I0424 18:30:10.686588 17103 net.cpp:157] Top shape: 1 3 864 1440 (3732480)
I0424 18:30:10.686589 17103 net.cpp:157] Top shape: 1 3 864 1440 (3732480)
I0424 18:30:10.686591 17103 net.cpp:165] Memory required for data: 44789788
I0424 18:30:10.686594 17103 layer_factory.hpp:77] Creating layer im_info_input-data_1_split
I0424 18:30:10.686599 17103 net.cpp:100] Creating Layer im_info_input-data_1_split
I0424 18:30:10.686600 17103 net.cpp:434] im_info_input-data_1_split <- im_info
I0424 18:30:10.686604 17103 net.cpp:408] im_info_input-data_1_split -> im_info_input-data_1_split_0
I0424 18:30:10.686609 17103 net.cpp:408] im_info_input-data_1_split -> im_info_input-data_1_split_1
I0424 18:30:10.686627 17103 net.cpp:150] Setting up im_info_input-data_1_split
I0424 18:30:10.686630 17103 net.cpp:157] Top shape: 1 3 (3)
I0424 18:30:10.686633 17103 net.cpp:157] Top shape: 1 3 (3)
I0424 18:30:10.686635 17103 net.cpp:165] Memory required for data: 44789812
I0424 18:30:10.686637 17103 layer_factory.hpp:77] Creating layer gt_boxes_input-data_2_split
I0424 18:30:10.686640 17103 net.cpp:100] Creating Layer gt_boxes_input-data_2_split
I0424 18:30:10.686647 17103 net.cpp:434] gt_boxes_input-data_2_split <- gt_boxes
I0424 18:30:10.686650 17103 net.cpp:408] gt_boxes_input-data_2_split -> gt_boxes_input-data_2_split_0
I0424 18:30:10.686656 17103 net.cpp:408] gt_boxes_input-data_2_split -> gt_boxes_input-data_2_split_1
I0424 18:30:10.686676 17103 net.cpp:150] Setting up gt_boxes_input-data_2_split
I0424 18:30:10.686679 17103 net.cpp:157] Top shape: 1 4 (4)
I0424 18:30:10.686681 17103 net.cpp:157] Top shape: 1 4 (4)
I0424 18:30:10.686683 17103 net.cpp:165] Memory required for data: 44789844
I0424 18:30:10.686686 17103 layer_factory.hpp:77] Creating layer conv1_1/conv
I0424 18:30:10.686694 17103 net.cpp:100] Creating Layer conv1_1/conv
I0424 18:30:10.686697 17103 net.cpp:434] conv1_1/conv <- data_input-data_0_split_0
I0424 18:30:10.686700 17103 net.cpp:408] conv1_1/conv -> conv1_1/conv
I0424 18:30:10.799935 17103 net.cpp:150] Setting up conv1_1/conv
I0424 18:30:10.799962 17103 net.cpp:157] Top shape: 1 16 432 720 (4976640)
I0424 18:30:10.799964 17103 net.cpp:165] Memory required for data: 64696404
I0424 18:30:10.799975 17103 layer_factory.hpp:77] Creating layer conv1_1/bn
I0424 18:30:10.799985 17103 net.cpp:100] Creating Layer conv1_1/bn
I0424 18:30:10.799988 17103 net.cpp:434] conv1_1/bn <- conv1_1/conv
I0424 18:30:10.799993 17103 net.cpp:395] conv1_1/bn -> conv1_1/conv (in-place)
I0424 18:30:10.800539 17103 net.cpp:150] Setting up conv1_1/bn
I0424 18:30:10.800549 17103 net.cpp:157] Top shape: 1 16 432 720 (4976640)
I0424 18:30:10.800550 17103 net.cpp:165] Memory required for data: 84602964
I0424 18:30:10.800559 17103 layer_factory.hpp:77] Creating layer conv1_1/conv_conv1_1/bn_0_split
I0424 18:30:10.800562 17103 net.cpp:100] Creating Layer conv1_1/conv_conv1_1/bn_0_split
I0424 18:30:10.800565 17103 net.cpp:434] conv1_1/conv_conv1_1/bn_0_split <- conv1_1/conv
I0424 18:30:10.800570 17103 net.cpp:408] conv1_1/conv_conv1_1/bn_0_split -> conv1_1/conv_conv1_1/bn_0_split_0
I0424 18:30:10.800575 17103 net.cpp:408] conv1_1/conv_conv1_1/bn_0_split -> conv1_1/conv_conv1_1/bn_0_split_1
I0424 18:30:10.800599 17103 net.cpp:150] Setting up conv1_1/conv_conv1_1/bn_0_split
I0424 18:30:10.800603 17103 net.cpp:157] Top shape: 1 16 432 720 (4976640)
I0424 18:30:10.800606 17103 net.cpp:157] Top shape: 1 16 432 720 (4976640)
I0424 18:30:10.800607 17103 net.cpp:165] Memory required for data: 124416084
I0424 18:30:10.800611 17103 layer_factory.hpp:77] Creating layer conv1_1/neg
I0424 18:30:10.800616 17103 net.cpp:100] Creating Layer conv1_1/neg
I0424 18:30:10.800617 17103 net.cpp:434] conv1_1/neg <- conv1_1/conv_conv1_1/bn_0_split_0
I0424 18:30:10.800621 17103 net.cpp:408] conv1_1/neg -> conv1_1/neg
I0424 18:30:10.800635 17103 net.cpp:150] Setting up conv1_1/neg
I0424 18:30:10.800639 17103 net.cpp:157] Top shape: 1 16 432 720 (4976640)
I0424 18:30:10.800642 17103 net.cpp:165] Memory required for data: 144322644
I0424 18:30:10.800643 17103 layer_factory.hpp:77] Creating layer conv1_1/concat
I0424 18:30:10.800652 17103 net.cpp:100] Creating Layer conv1_1/concat
I0424 18:30:10.800654 17103 net.cpp:434] conv1_1/concat <- conv1_1/conv_conv1_1/bn_0_split_1
I0424 18:30:10.800657 17103 net.cpp:434] conv1_1/concat <- conv1_1/neg
I0424 18:30:10.800660 17103 net.cpp:408] conv1_1/concat -> conv1_1
I0424 18:30:10.800675 17103 net.cpp:150] Setting up conv1_1/concat
I0424 18:30:10.800679 17103 net.cpp:157] Top shape: 1 32 432 720 (9953280)
I0424 18:30:10.800680 17103 net.cpp:165] Memory required for data: 184135764
I0424 18:30:10.800683 17103 layer_factory.hpp:77] Creating layer conv1_1/scale
I0424 18:30:10.800688 17103 net.cpp:100] Creating Layer conv1_1/scale
I0424 18:30:10.800689 17103 net.cpp:434] conv1_1/scale <- conv1_1
I0424 18:30:10.800693 17103 net.cpp:395] conv1_1/scale -> conv1_1 (in-place)
I0424 18:30:10.800721 17103 layer_factory.hpp:77] Creating layer conv1_1/scale
I0424 18:30:10.801581 17103 net.cpp:150] Setting up conv1_1/scale
I0424 18:30:10.801590 17103 net.cpp:157] Top shape: 1 32 432 720 (9953280)
I0424 18:30:10.801592 17103 net.cpp:165] Memory required for data: 223948884
I0424 18:30:10.801604 17103 layer_factory.hpp:77] Creating layer conv1_1/relu
I0424 18:30:10.801609 17103 net.cpp:100] Creating Layer conv1_1/relu
I0424 18:30:10.801612 17103 net.cpp:434] conv1_1/relu <- conv1_1
I0424 18:30:10.801615 17103 net.cpp:395] conv1_1/relu -> conv1_1 (in-place)
I0424 18:30:10.802062 17103 net.cpp:150] Setting up conv1_1/relu
I0424 18:30:10.802069 17103 net.cpp:157] Top shape: 1 32 432 720 (9953280)
I0424 18:30:10.802072 17103 net.cpp:165] Memory required for data: 263762004
I0424 18:30:10.802074 17103 layer_factory.hpp:77] Creating layer pool1
I0424 18:30:10.802079 17103 net.cpp:100] Creating Layer pool1
I0424 18:30:10.802083 17103 net.cpp:434] pool1 <- conv1_1
I0424 18:30:10.802085 17103 net.cpp:408] pool1 -> pool1
I0424 18:30:10.802114 17103 net.cpp:150] Setting up pool1
I0424 18:30:10.802119 17103 net.cpp:157] Top shape: 1 32 216 360 (2488320)
I0424 18:30:10.802120 17103 net.cpp:165] Memory required for data: 273715284
I0424 18:30:10.802122 17103 layer_factory.hpp:77] Creating layer pool1_pool1_0_split
I0424 18:30:10.802125 17103 net.cpp:100] Creating Layer pool1_pool1_0_split
I0424 18:30:10.802127 17103 net.cpp:434] pool1_pool1_0_split <- pool1
I0424 18:30:10.802131 17103 net.cpp:408] pool1_pool1_0_split -> pool1_pool1_0_split_0
I0424 18:30:10.802135 17103 net.cpp:408] pool1_pool1_0_split -> pool1_pool1_0_split_1
I0424 18:30:10.802160 17103 net.cpp:150] Setting up pool1_pool1_0_split
I0424 18:30:10.802165 17103 net.cpp:157] Top shape: 1 32 216 360 (2488320)
I0424 18:30:10.802167 17103 net.cpp:157] Top shape: 1 32 216 360 (2488320)
I0424 18:30:10.802170 17103 net.cpp:165] Memory required for data: 293621844
I0424 18:30:10.802171 17103 layer_factory.hpp:77] Creating layer conv2_1/1/conv
I0424 18:30:10.802177 17103 net.cpp:100] Creating Layer conv2_1/1/conv
I0424 18:30:10.802181 17103 net.cpp:434] conv2_1/1/conv <- pool1_pool1_0_split_0
I0424 18:30:10.802184 17103 net.cpp:408] conv2_1/1/conv -> conv2_1/1
I0424 18:30:10.803892 17103 net.cpp:150] Setting up conv2_1/1/conv
I0424 18:30:10.803902 17103 net.cpp:157] Top shape: 1 24 216 360 (1866240)
I0424 18:30:10.803905 17103 net.cpp:165] Memory required for data: 301086804
I0424 18:30:10.803910 17103 layer_factory.hpp:77] Creating layer conv2_1/1/bn
I0424 18:30:10.803915 17103 net.cpp:100] Creating Layer conv2_1/1/bn
I0424 18:30:10.803917 17103 net.cpp:434] conv2_1/1/bn <- conv2_1/1
I0424 18:30:10.803920 17103 net.cpp:395] conv2_1/1/bn -> conv2_1/1 (in-place)
I0424 18:30:10.804318 17103 net.cpp:150] Setting up conv2_1/1/bn
I0424 18:30:10.804327 17103 net.cpp:157] Top shape: 1 24 216 360 (1866240)
I0424 18:30:10.804328 17103 net.cpp:165] Memory required for data: 308551764
I0424 18:30:10.804335 17103 layer_factory.hpp:77] Creating layer conv2_1/1/bn_scale
I0424 18:30:10.804340 17103 net.cpp:100] Creating Layer conv2_1/1/bn_scale
I0424 18:30:10.804342 17103 net.cpp:434] conv2_1/1/bn_scale <- conv2_1/1
I0424 18:30:10.804347 17103 net.cpp:395] conv2_1/1/bn_scale -> conv2_1/1 (in-place)
I0424 18:30:10.804373 17103 layer_factory.hpp:77] Creating layer conv2_1/1/bn_scale
I0424 18:30:10.804507 17103 net.cpp:150] Setting up conv2_1/1/bn_scale
I0424 18:30:10.804513 17103 net.cpp:157] Top shape: 1 24 216 360 (1866240)
I0424 18:30:10.804515 17103 net.cpp:165] Memory required for data: 316016724
I0424 18:30:10.804519 17103 layer_factory.hpp:77] Creating layer conv2_1/1/relu
I0424 18:30:10.804525 17103 net.cpp:100] Creating Layer conv2_1/1/relu
I0424 18:30:10.804527 17103 net.cpp:434] conv2_1/1/relu <- conv2_1/1
I0424 18:30:10.804532 17103 net.cpp:395] conv2_1/1/relu -> conv2_1/1 (in-place)
I0424 18:30:10.804646 17103 net.cpp:150] Setting up conv2_1/1/relu
I0424 18:30:10.804652 17103 net.cpp:157] Top shape: 1 24 216 360 (1866240)
I0424 18:30:10.804654 17103 net.cpp:165] Memory required for data: 323481684
I0424 18:30:10.804656 17103 layer_factory.hpp:77] Creating layer conv2_1/2/conv
I0424 18:30:10.804662 17103 net.cpp:100] Creating Layer conv2_1/2/conv
I0424 18:30:10.804666 17103 net.cpp:434] conv2_1/2/conv <- conv2_1/1
I0424 18:30:10.804669 17103 net.cpp:408] conv2_1/2/conv -> conv2_1/2/conv
I0424 18:30:10.806351 17103 net.cpp:150] Setting up conv2_1/2/conv
I0424 18:30:10.806361 17103 net.cpp:157] Top shape: 1 24 216 360 (1866240)
I0424 18:30:10.806363 17103 net.cpp:165] Memory required for data: 330946644
I0424 18:30:10.806367 17103 layer_factory.hpp:77] Creating layer conv2_1/2/bn
I0424 18:30:10.806371 17103 net.cpp:100] Creating Layer conv2_1/2/bn
I0424 18:30:10.806375 17103 net.cpp:434] conv2_1/2/bn <- conv2_1/2/conv
I0424 18:30:10.806378 17103 net.cpp:395] conv2_1/2/bn -> conv2_1/2/conv (in-place)
I0424 18:30:10.806779 17103 net.cpp:150] Setting up conv2_1/2/bn
I0424 18:30:10.806787 17103 net.cpp:157] Top shape: 1 24 216 360 (1866240)
I0424 18:30:10.806790 17103 net.cpp:165] Memory required for data: 338411604
I0424 18:30:10.806795 17103 layer_factory.hpp:77] Creating layer conv2_1/2/conv_conv2_1/2/bn_0_split
I0424 18:30:10.806800 17103 net.cpp:100] Creating Layer conv2_1/2/conv_conv2_1/2/bn_0_split
I0424 18:30:10.806802 17103 net.cpp:434] conv2_1/2/conv_conv2_1/2/bn_0_split <- conv2_1/2/conv
I0424 18:30:10.806807 17103 net.cpp:408] conv2_1/2/conv_conv2_1/2/bn_0_split -> conv2_1/2/conv_conv2_1/2/bn_0_split_0
I0424 18:30:10.806812 17103 net.cpp:408] conv2_1/2/conv_conv2_1/2/bn_0_split -> conv2_1/2/conv_conv2_1/2/bn_0_split_1
I0424 18:30:10.806834 17103 net.cpp:150] Setting up conv2_1/2/conv_conv2_1/2/bn_0_split
I0424 18:30:10.806839 17103 net.cpp:157] Top shape: 1 24 216 360 (1866240)
I0424 18:30:10.806843 17103 net.cpp:157] Top shape: 1 24 216 360 (1866240)
I0424 18:30:10.806844 17103 net.cpp:165] Memory required for data: 353341524
I0424 18:30:10.806846 17103 layer_factory.hpp:77] Creating layer conv2_1/2/neg
I0424 18:30:10.806850 17103 net.cpp:100] Creating Layer conv2_1/2/neg
I0424 18:30:10.806852 17103 net.cpp:434] conv2_1/2/neg <- conv2_1/2/conv_conv2_1/2/bn_0_split_0
I0424 18:30:10.806856 17103 net.cpp:408] conv2_1/2/neg -> conv2_1/2/neg
I0424 18:30:10.806871 17103 net.cpp:150] Setting up conv2_1/2/neg
I0424 18:30:10.806875 17103 net.cpp:157] Top shape: 1 24 216 360 (1866240)
I0424 18:30:10.806877 17103 net.cpp:165] Memory required for data: 360806484
I0424 18:30:10.806879 17103 layer_factory.hpp:77] Creating layer conv2_1/2/concat
I0424 18:30:10.806884 17103 net.cpp:100] Creating Layer conv2_1/2/concat
I0424 18:30:10.806886 17103 net.cpp:434] conv2_1/2/concat <- conv2_1/2/conv_conv2_1/2/bn_0_split_1
I0424 18:30:10.806890 17103 net.cpp:434] conv2_1/2/concat <- conv2_1/2/neg
I0424 18:30:10.806892 17103 net.cpp:408] conv2_1/2/concat -> conv2_1/2
I0424 18:30:10.806907 17103 net.cpp:150] Setting up conv2_1/2/concat
I0424 18:30:10.806910 17103 net.cpp:157] Top shape: 1 48 216 360 (3732480)
I0424 18:30:10.806912 17103 net.cpp:165] Memory required for data: 375736404
I0424 18:30:10.806915 17103 layer_factory.hpp:77] Creating layer conv2_1/2/scale
I0424 18:30:10.806920 17103 net.cpp:100] Creating Layer conv2_1/2/scale
I0424 18:30:10.806921 17103 net.cpp:434] conv2_1/2/scale <- conv2_1/2
I0424 18:30:10.806926 17103 net.cpp:395] conv2_1/2/scale -> conv2_1/2 (in-place)
I0424 18:30:10.806953 17103 layer_factory.hpp:77] Creating layer conv2_1/2/scale
I0424 18:30:10.807087 17103 net.cpp:150] Setting up conv2_1/2/scale
I0424 18:30:10.807092 17103 net.cpp:157] Top shape: 1 48 216 360 (3732480)
I0424 18:30:10.807095 17103 net.cpp:165] Memory required for data: 390666324
I0424 18:30:10.807101 17103 layer_factory.hpp:77] Creating layer conv2_1/2/relu
I0424 18:30:10.807104 17103 net.cpp:100] Creating Layer conv2_1/2/relu
I0424 18:30:10.807106 17103 net.cpp:434] conv2_1/2/relu <- conv2_1/2
I0424 18:30:10.807111 17103 net.cpp:395] conv2_1/2/relu -> conv2_1/2 (in-place)
I0424 18:30:10.807240 17103 net.cpp:150] Setting up conv2_1/2/relu
I0424 18:30:10.807248 17103 net.cpp:157] Top shape: 1 48 216 360 (3732480)
I0424 18:30:10.807250 17103 net.cpp:165] Memory required for data: 405596244
I0424 18:30:10.807252 17103 layer_factory.hpp:77] Creating layer conv2_1/3/conv
I0424 18:30:10.807258 17103 net.cpp:100] Creating Layer conv2_1/3/conv
I0424 18:30:10.807260 17103 net.cpp:434] conv2_1/3/conv <- conv2_1/2
I0424 18:30:10.807268 17103 net.cpp:408] conv2_1/3/conv -> conv2_1/3
I0424 18:30:10.808717 17103 net.cpp:150] Setting up conv2_1/3/conv
I0424 18:30:10.808727 17103 net.cpp:157] Top shape: 1 64 216 360 (4976640)
I0424 18:30:10.808729 17103 net.cpp:165] Memory required for data: 425502804
I0424 18:30:10.808733 17103 layer_factory.hpp:77] Creating layer conv2_1/3/bn
I0424 18:30:10.808737 17103 net.cpp:100] Creating Layer conv2_1/3/bn
I0424 18:30:10.808740 17103 net.cpp:434] conv2_1/3/bn <- conv2_1/3
I0424 18:30:10.808744 17103 net.cpp:395] conv2_1/3/bn -> conv2_1/3 (in-place)
I0424 18:30:10.809136 17103 net.cpp:150] Setting up conv2_1/3/bn
I0424 18:30:10.809144 17103 net.cpp:157] Top shape: 1 64 216 360 (4976640)
I0424 18:30:10.809146 17103 net.cpp:165] Memory required for data: 445409364
I0424 18:30:10.809152 17103 layer_factory.hpp:77] Creating layer conv2_1/3/bn_scale
I0424 18:30:10.809156 17103 net.cpp:100] Creating Layer conv2_1/3/bn_scale
I0424 18:30:10.809159 17103 net.cpp:434] conv2_1/3/bn_scale <- conv2_1/3
I0424 18:30:10.809164 17103 net.cpp:395] conv2_1/3/bn_scale -> conv2_1/3 (in-place)
I0424 18:30:10.809188 17103 layer_factory.hpp:77] Creating layer conv2_1/3/bn_scale
I0424 18:30:10.809321 17103 net.cpp:150] Setting up conv2_1/3/bn_scale
I0424 18:30:10.809326 17103 net.cpp:157] Top shape: 1 64 216 360 (4976640)
I0424 18:30:10.809329 17103 net.cpp:165] Memory required for data: 465315924
I0424 18:30:10.809332 17103 layer_factory.hpp:77] Creating layer conv2_1/proj
I0424 18:30:10.809339 17103 net.cpp:100] Creating Layer conv2_1/proj
I0424 18:30:10.809341 17103 net.cpp:434] conv2_1/proj <- pool1_pool1_0_split_1
I0424 18:30:10.809345 17103 net.cpp:408] conv2_1/proj -> conv2_1/proj
I0424 18:30:10.811063 17103 net.cpp:150] Setting up conv2_1/proj
I0424 18:30:10.811072 17103 net.cpp:157] Top shape: 1 64 216 360 (4976640)
I0424 18:30:10.811074 17103 net.cpp:165] Memory required for data: 485222484
I0424 18:30:10.811079 17103 layer_factory.hpp:77] Creating layer conv2_1/proj_bn
I0424 18:30:10.811084 17103 net.cpp:100] Creating Layer conv2_1/proj_bn
I0424 18:30:10.811086 17103 net.cpp:434] conv2_1/proj_bn <- conv2_1/proj
I0424 18:30:10.811090 17103 net.cpp:395] conv2_1/proj_bn -> conv2_1/proj (in-place)
I0424 18:30:10.811260 17103 net.cpp:150] Setting up conv2_1/proj_bn
I0424 18:30:10.811266 17103 net.cpp:157] Top shape: 1 64 216 360 (4976640)
I0424 18:30:10.811269 17103 net.cpp:165] Memory required for data: 505129044
I0424 18:30:10.811272 17103 layer_factory.hpp:77] Creating layer conv2_1/proj_bn_scale
I0424 18:30:10.811278 17103 net.cpp:100] Creating Layer conv2_1/proj_bn_scale
I0424 18:30:10.811280 17103 net.cpp:434] conv2_1/proj_bn_scale <- conv2_1/proj
I0424 18:30:10.811283 17103 net.cpp:395] conv2_1/proj_bn_scale -> conv2_1/proj (in-place)
I0424 18:30:10.811309 17103 layer_factory.hpp:77] Creating layer conv2_1/proj_bn_scale
I0424 18:30:10.811682 17103 net.cpp:150] Setting up conv2_1/proj_bn_scale
I0424 18:30:10.811691 17103 net.cpp:157] Top shape: 1 64 216 360 (4976640)
I0424 18:30:10.811692 17103 net.cpp:165] Memory required for data: 525035604
I0424 18:30:10.811697 17103 layer_factory.hpp:77] Creating layer conv2_1
I0424 18:30:10.811702 17103 net.cpp:100] Creating Layer conv2_1
I0424 18:30:10.811704 17103 net.cpp:434] conv2_1 <- conv2_1/3
I0424 18:30:10.811707 17103 net.cpp:434] conv2_1 <- conv2_1/proj
I0424 18:30:10.811712 17103 net.cpp:408] conv2_1 -> conv2_1
I0424 18:30:10.811730 17103 net.cpp:150] Setting up conv2_1
I0424 18:30:10.811734 17103 net.cpp:157] Top shape: 1 64 216 360 (4976640)
I0424 18:30:10.811736 17103 net.cpp:165] Memory required for data: 544942164
I0424 18:30:10.811738 17103 layer_factory.hpp:77] Creating layer conv2_1_conv2_1_0_split
I0424 18:30:10.811743 17103 net.cpp:100] Creating Layer conv2_1_conv2_1_0_split
I0424 18:30:10.811744 17103 net.cpp:434] conv2_1_conv2_1_0_split <- conv2_1
I0424 18:30:10.811750 17103 net.cpp:408] conv2_1_conv2_1_0_split -> conv2_1_conv2_1_0_split_0
I0424 18:30:10.811755 17103 net.cpp:408] conv2_1_conv2_1_0_split -> conv2_1_conv2_1_0_split_1
I0424 18:30:10.811780 17103 net.cpp:150] Setting up conv2_1_conv2_1_0_split
I0424 18:30:10.811784 17103 net.cpp:157] Top shape: 1 64 216 360 (4976640)
I0424 18:30:10.811787 17103 net.cpp:157] Top shape: 1 64 216 360 (4976640)
I0424 18:30:10.811789 17103 net.cpp:165] Memory required for data: 584755284
I0424 18:30:10.811791 17103 layer_factory.hpp:77] Creating layer conv2_2/1/conv
I0424 18:30:10.811800 17103 net.cpp:100] Creating Layer conv2_2/1/conv
I0424 18:30:10.811802 17103 net.cpp:434] conv2_2/1/conv <- conv2_1_conv2_1_0_split_0
I0424 18:30:10.811806 17103 net.cpp:408] conv2_2/1/conv -> conv2_2/1
I0424 18:30:10.813266 17103 net.cpp:150] Setting up conv2_2/1/conv
I0424 18:30:10.813275 17103 net.cpp:157] Top shape: 1 24 216 360 (1866240)
I0424 18:30:10.813277 17103 net.cpp:165] Memory required for data: 592220244
I0424 18:30:10.813282 17103 layer_factory.hpp:77] Creating layer conv2_2/1/bn
I0424 18:30:10.813287 17103 net.cpp:100] Creating Layer conv2_2/1/bn
I0424 18:30:10.813288 17103 net.cpp:434] conv2_2/1/bn <- conv2_2/1
I0424 18:30:10.813293 17103 net.cpp:395] conv2_2/1/bn -> conv2_2/1 (in-place)
I0424 18:30:10.813455 17103 net.cpp:150] Setting up conv2_2/1/bn
I0424 18:30:10.813460 17103 net.cpp:157] Top shape: 1 24 216 360 (1866240)
I0424 18:30:10.813462 17103 net.cpp:165] Memory required for data: 599685204
I0424 18:30:10.813470 17103 layer_factory.hpp:77] Creating layer conv2_2/1/bn_scale
I0424 18:30:10.813474 17103 net.cpp:100] Creating Layer conv2_2/1/bn_scale
I0424 18:30:10.813477 17103 net.cpp:434] conv2_2/1/bn_scale <- conv2_2/1
I0424 18:30:10.813480 17103 net.cpp:395] conv2_2/1/bn_scale -> conv2_2/1 (in-place)
I0424 18:30:10.813506 17103 layer_factory.hpp:77] Creating layer conv2_2/1/bn_scale
I0424 18:30:10.813887 17103 net.cpp:150] Setting up conv2_2/1/bn_scale
I0424 18:30:10.813896 17103 net.cpp:157] Top shape: 1 24 216 360 (1866240)
I0424 18:30:10.813899 17103 net.cpp:165] Memory required for data: 607150164
I0424 18:30:10.813902 17103 layer_factory.hpp:77] Creating layer conv2_2/1/relu
I0424 18:30:10.813907 17103 net.cpp:100] Creating Layer conv2_2/1/relu
I0424 18:30:10.813910 17103 net.cpp:434] conv2_2/1/relu <- conv2_2/1
I0424 18:30:10.813913 17103 net.cpp:395] conv2_2/1/relu -> conv2_2/1 (in-place)
I0424 18:30:10.814034 17103 net.cpp:150] Setting up conv2_2/1/relu
I0424 18:30:10.814040 17103 net.cpp:157] Top shape: 1 24 216 360 (1866240)
I0424 18:30:10.814043 17103 net.cpp:165] Memory required for data: 614615124
I0424 18:30:10.814044 17103 layer_factory.hpp:77] Creating layer conv2_2/2/conv
I0424 18:30:10.814051 17103 net.cpp:100] Creating Layer conv2_2/2/conv
I0424 18:30:10.814054 17103 net.cpp:434] conv2_2/2/conv <- conv2_2/1
I0424 18:30:10.814057 17103 net.cpp:408] conv2_2/2/conv -> conv2_2/2/conv
I0424 18:30:10.815531 17103 net.cpp:150] Setting up conv2_2/2/conv
I0424 18:30:10.815541 17103 net.cpp:157] Top shape: 1 24 216 360 (1866240)
I0424 18:30:10.815542 17103 net.cpp:165] Memory required for data: 622080084
I0424 18:30:10.815546 17103 layer_factory.hpp:77] Creating layer conv2_2/2/bn
I0424 18:30:10.815551 17103 net.cpp:100] Creating Layer conv2_2/2/bn
I0424 18:30:10.815553 17103 net.cpp:434] conv2_2/2/bn <- conv2_2/2/conv
I0424 18:30:10.815557 17103 net.cpp:395] conv2_2/2/bn -> conv2_2/2/conv (in-place)
I0424 18:30:10.815718 17103 net.cpp:150] Setting up conv2_2/2/bn
I0424 18:30:10.815723 17103 net.cpp:157] Top shape: 1 24 216 360 (1866240)
I0424 18:30:10.815726 17103 net.cpp:165] Memory required for data: 629545044
I0424 18:30:10.815731 17103 layer_factory.hpp:77] Creating layer conv2_2/2/conv_conv2_2/2/bn_0_split
I0424 18:30:10.815734 17103 net.cpp:100] Creating Layer conv2_2/2/conv_conv2_2/2/bn_0_split
I0424 18:30:10.815737 17103 net.cpp:434] conv2_2/2/conv_conv2_2/2/bn_0_split <- conv2_2/2/conv
I0424 18:30:10.815740 17103 net.cpp:408] conv2_2/2/conv_conv2_2/2/bn_0_split -> conv2_2/2/conv_conv2_2/2/bn_0_split_0
I0424 18:30:10.815745 17103 net.cpp:408] conv2_2/2/conv_conv2_2/2/bn_0_split -> conv2_2/2/conv_conv2_2/2/bn_0_split_1
I0424 18:30:10.815769 17103 net.cpp:150] Setting up conv2_2/2/conv_conv2_2/2/bn_0_split
I0424 18:30:10.815775 17103 net.cpp:157] Top shape: 1 24 216 360 (1866240)
I0424 18:30:10.815778 17103 net.cpp:157] Top shape: 1 24 216 360 (1866240)
I0424 18:30:10.815780 17103 net.cpp:165] Memory required for data: 644474964
I0424 18:30:10.815783 17103 layer_factory.hpp:77] Creating layer conv2_2/2/neg
I0424 18:30:10.815788 17103 net.cpp:100] Creating Layer conv2_2/2/neg
I0424 18:30:10.815789 17103 net.cpp:434] conv2_2/2/neg <- conv2_2/2/conv_conv2_2/2/bn_0_split_0
I0424 18:30:10.815793 17103 net.cpp:408] conv2_2/2/neg -> conv2_2/2/neg
I0424 18:30:10.815812 17103 net.cpp:150] Setting up conv2_2/2/neg
I0424 18:30:10.815817 17103 net.cpp:157] Top shape: 1 24 216 360 (1866240)
I0424 18:30:10.815819 17103 net.cpp:165] Memory required for data: 651939924
I0424 18:30:10.815821 17103 layer_factory.hpp:77] Creating layer conv2_2/2/concat
I0424 18:30:10.815825 17103 net.cpp:100] Creating Layer conv2_2/2/concat
I0424 18:30:10.815827 17103 net.cpp:434] conv2_2/2/concat <- conv2_2/2/conv_conv2_2/2/bn_0_split_1
I0424 18:30:10.815830 17103 net.cpp:434] conv2_2/2/concat <- conv2_2/2/neg
I0424 18:30:10.815834 17103 net.cpp:408] conv2_2/2/concat -> conv2_2/2
I0424 18:30:10.815848 17103 net.cpp:150] Setting up conv2_2/2/concat
I0424 18:30:10.815852 17103 net.cpp:157] Top shape: 1 48 216 360 (3732480)
I0424 18:30:10.815855 17103 net.cpp:165] Memory required for data: 666869844
I0424 18:30:10.815856 17103 layer_factory.hpp:77] Creating layer conv2_2/2/scale
I0424 18:30:10.815860 17103 net.cpp:100] Creating Layer conv2_2/2/scale
I0424 18:30:10.815863 17103 net.cpp:434] conv2_2/2/scale <- conv2_2/2
I0424 18:30:10.815867 17103 net.cpp:395] conv2_2/2/scale -> conv2_2/2 (in-place)
I0424 18:30:10.815893 17103 layer_factory.hpp:77] Creating layer conv2_2/2/scale
I0424 18:30:10.816270 17103 net.cpp:150] Setting up conv2_2/2/scale
I0424 18:30:10.816278 17103 net.cpp:157] Top shape: 1 48 216 360 (3732480)
I0424 18:30:10.816280 17103 net.cpp:165] Memory required for data: 681799764
I0424 18:30:10.816284 17103 layer_factory.hpp:77] Creating layer conv2_2/2/relu
I0424 18:30:10.816288 17103 net.cpp:100] Creating Layer conv2_2/2/relu
I0424 18:30:10.816292 17103 net.cpp:434] conv2_2/2/relu <- conv2_2/2
I0424 18:30:10.816294 17103 net.cpp:395] conv2_2/2/relu -> conv2_2/2 (in-place)
I0424 18:30:10.816754 17103 net.cpp:150] Setting up conv2_2/2/relu
I0424 18:30:10.816763 17103 net.cpp:157] Top shape: 1 48 216 360 (3732480)
I0424 18:30:10.816766 17103 net.cpp:165] Memory required for data: 696729684
I0424 18:30:10.816768 17103 layer_factory.hpp:77] Creating layer conv2_2/3/conv
I0424 18:30:10.816774 17103 net.cpp:100] Creating Layer conv2_2/3/conv
I0424 18:30:10.816777 17103 net.cpp:434] conv2_2/3/conv <- conv2_2/2
I0424 18:30:10.816781 17103 net.cpp:408] conv2_2/3/conv -> conv2_2/3
I0424 18:30:10.817941 17103 net.cpp:150] Setting up conv2_2/3/conv
I0424 18:30:10.817950 17103 net.cpp:157] Top shape: 1 64 216 360 (4976640)
I0424 18:30:10.817952 17103 net.cpp:165] Memory required for data: 716636244
I0424 18:30:10.817955 17103 layer_factory.hpp:77] Creating layer conv2_2/3/bn
I0424 18:30:10.817960 17103 net.cpp:100] Creating Layer conv2_2/3/bn
I0424 18:30:10.817963 17103 net.cpp:434] conv2_2/3/bn <- conv2_2/3
I0424 18:30:10.817967 17103 net.cpp:395] conv2_2/3/bn -> conv2_2/3 (in-place)
I0424 18:30:10.818126 17103 net.cpp:150] Setting up conv2_2/3/bn
I0424 18:30:10.818131 17103 net.cpp:157] Top shape: 1 64 216 360 (4976640)
I0424 18:30:10.818133 17103 net.cpp:165] Memory required for data: 736542804
I0424 18:30:10.818138 17103 layer_factory.hpp:77] Creating layer conv2_2/3/bn_scale
I0424 18:30:10.818143 17103 net.cpp:100] Creating Layer conv2_2/3/bn_scale
I0424 18:30:10.818145 17103 net.cpp:434] conv2_2/3/bn_scale <- conv2_2/3
I0424 18:30:10.818148 17103 net.cpp:395] conv2_2/3/bn_scale -> conv2_2/3 (in-place)
I0424 18:30:10.818173 17103 layer_factory.hpp:77] Creating layer conv2_2/3/bn_scale
I0424 18:30:10.818552 17103 net.cpp:150] Setting up conv2_2/3/bn_scale
I0424 18:30:10.818562 17103 net.cpp:157] Top shape: 1 64 216 360 (4976640)
I0424 18:30:10.818567 17103 net.cpp:165] Memory required for data: 756449364
I0424 18:30:10.818570 17103 layer_factory.hpp:77] Creating layer conv2_2/input
I0424 18:30:10.818574 17103 net.cpp:100] Creating Layer conv2_2/input
I0424 18:30:10.818578 17103 net.cpp:434] conv2_2/input <- conv2_1_conv2_1_0_split_1
I0424 18:30:10.818581 17103 net.cpp:408] conv2_2/input -> conv2_2/input
I0424 18:30:10.818601 17103 net.cpp:150] Setting up conv2_2/input
I0424 18:30:10.818605 17103 net.cpp:157] Top shape: 1 64 216 360 (4976640)
I0424 18:30:10.818608 17103 net.cpp:165] Memory required for data: 776355924
I0424 18:30:10.818609 17103 layer_factory.hpp:77] Creating layer conv2_2
I0424 18:30:10.818614 17103 net.cpp:100] Creating Layer conv2_2
I0424 18:30:10.818616 17103 net.cpp:434] conv2_2 <- conv2_2/3
I0424 18:30:10.818619 17103 net.cpp:434] conv2_2 <- conv2_2/input
I0424 18:30:10.818622 17103 net.cpp:408] conv2_2 -> conv2_2
I0424 18:30:10.818639 17103 net.cpp:150] Setting up conv2_2
I0424 18:30:10.818642 17103 net.cpp:157] Top shape: 1 64 216 360 (4976640)
I0424 18:30:10.818645 17103 net.cpp:165] Memory required for data: 796262484
I0424 18:30:10.818646 17103 layer_factory.hpp:77] Creating layer conv2_2_conv2_2_0_split
I0424 18:30:10.818650 17103 net.cpp:100] Creating Layer conv2_2_conv2_2_0_split
I0424 18:30:10.818651 17103 net.cpp:434] conv2_2_conv2_2_0_split <- conv2_2
I0424 18:30:10.818655 17103 net.cpp:408] conv2_2_conv2_2_0_split -> conv2_2_conv2_2_0_split_0
I0424 18:30:10.818660 17103 net.cpp:408] conv2_2_conv2_2_0_split -> conv2_2_conv2_2_0_split_1
I0424 18:30:10.818681 17103 net.cpp:150] Setting up conv2_2_conv2_2_0_split
I0424 18:30:10.818684 17103 net.cpp:157] Top shape: 1 64 216 360 (4976640)
I0424 18:30:10.818687 17103 net.cpp:157] Top shape: 1 64 216 360 (4976640)
I0424 18:30:10.818689 17103 net.cpp:165] Memory required for data: 836075604
I0424 18:30:10.818691 17103 layer_factory.hpp:77] Creating layer conv2_3/1/conv
I0424 18:30:10.818697 17103 net.cpp:100] Creating Layer conv2_3/1/conv
I0424 18:30:10.818699 17103 net.cpp:434] conv2_3/1/conv <- conv2_2_conv2_2_0_split_0
I0424 18:30:10.818703 17103 net.cpp:408] conv2_3/1/conv -> conv2_3/1
I0424 18:30:10.820459 17103 net.cpp:150] Setting up conv2_3/1/conv
I0424 18:30:10.820469 17103 net.cpp:157] Top shape: 1 24 216 360 (1866240)
I0424 18:30:10.820472 17103 net.cpp:165] Memory required for data: 843540564
I0424 18:30:10.820475 17103 layer_factory.hpp:77] Creating layer conv2_3/1/bn
I0424 18:30:10.820479 17103 net.cpp:100] Creating Layer conv2_3/1/bn
I0424 18:30:10.820482 17103 net.cpp:434] conv2_3/1/bn <- conv2_3/1
I0424 18:30:10.820487 17103 net.cpp:395] conv2_3/1/bn -> conv2_3/1 (in-place)
I0424 18:30:10.820650 17103 net.cpp:150] Setting up conv2_3/1/bn
I0424 18:30:10.820655 17103 net.cpp:157] Top shape: 1 24 216 360 (1866240)
I0424 18:30:10.820657 17103 net.cpp:165] Memory required for data: 851005524
I0424 18:30:10.820662 17103 layer_factory.hpp:77] Creating layer conv2_3/1/bn_scale
I0424 18:30:10.820667 17103 net.cpp:100] Creating Layer conv2_3/1/bn_scale
I0424 18:30:10.820668 17103 net.cpp:434] conv2_3/1/bn_scale <- conv2_3/1
I0424 18:30:10.820672 17103 net.cpp:395] conv2_3/1/bn_scale -> conv2_3/1 (in-place)
I0424 18:30:10.820698 17103 layer_factory.hpp:77] Creating layer conv2_3/1/bn_scale
I0424 18:30:10.821086 17103 net.cpp:150] Setting up conv2_3/1/bn_scale
I0424 18:30:10.821094 17103 net.cpp:157] Top shape: 1 24 216 360 (1866240)
I0424 18:30:10.821096 17103 net.cpp:165] Memory required for data: 858470484
I0424 18:30:10.821101 17103 layer_factory.hpp:77] Creating layer conv2_3/1/relu
I0424 18:30:10.821105 17103 net.cpp:100] Creating Layer conv2_3/1/relu
I0424 18:30:10.821107 17103 net.cpp:434] conv2_3/1/relu <- conv2_3/1
I0424 18:30:10.821111 17103 net.cpp:395] conv2_3/1/relu -> conv2_3/1 (in-place)
I0424 18:30:10.821555 17103 net.cpp:150] Setting up conv2_3/1/relu
I0424 18:30:10.821563 17103 net.cpp:157] Top shape: 1 24 216 360 (1866240)
I0424 18:30:10.821566 17103 net.cpp:165] Memory required for data: 865935444
I0424 18:30:10.821568 17103 layer_factory.hpp:77] Creating layer conv2_3/2/conv
I0424 18:30:10.821578 17103 net.cpp:100] Creating Layer conv2_3/2/conv
I0424 18:30:10.821581 17103 net.cpp:434] conv2_3/2/conv <- conv2_3/1
I0424 18:30:10.821586 17103 net.cpp:408] conv2_3/2/conv -> conv2_3/2/conv
I0424 18:30:10.823070 17103 net.cpp:150] Setting up conv2_3/2/conv
I0424 18:30:10.823078 17103 net.cpp:157] Top shape: 1 24 216 360 (1866240)
I0424 18:30:10.823081 17103 net.cpp:165] Memory required for data: 873400404
I0424 18:30:10.823086 17103 layer_factory.hpp:77] Creating layer conv2_3/2/bn
I0424 18:30:10.823089 17103 net.cpp:100] Creating Layer conv2_3/2/bn
I0424 18:30:10.823092 17103 net.cpp:434] conv2_3/2/bn <- conv2_3/2/conv
I0424 18:30:10.823096 17103 net.cpp:395] conv2_3/2/bn -> conv2_3/2/conv (in-place)
I0424 18:30:10.823274 17103 net.cpp:150] Setting up conv2_3/2/bn
I0424 18:30:10.823281 17103 net.cpp:157] Top shape: 1 24 216 360 (1866240)
I0424 18:30:10.823282 17103 net.cpp:165] Memory required for data: 880865364
I0424 18:30:10.823287 17103 layer_factory.hpp:77] Creating layer conv2_3/2/conv_conv2_3/2/bn_0_split
I0424 18:30:10.823292 17103 net.cpp:100] Creating Layer conv2_3/2/conv_conv2_3/2/bn_0_split
I0424 18:30:10.823294 17103 net.cpp:434] conv2_3/2/conv_conv2_3/2/bn_0_split <- conv2_3/2/conv
I0424 18:30:10.823298 17103 net.cpp:408] conv2_3/2/conv_conv2_3/2/bn_0_split -> conv2_3/2/conv_conv2_3/2/bn_0_split_0
I0424 18:30:10.823303 17103 net.cpp:408] conv2_3/2/conv_conv2_3/2/bn_0_split -> conv2_3/2/conv_conv2_3/2/bn_0_split_1
I0424 18:30:10.823328 17103 net.cpp:150] Setting up conv2_3/2/conv_conv2_3/2/bn_0_split
I0424 18:30:10.823333 17103 net.cpp:157] Top shape: 1 24 216 360 (1866240)
I0424 18:30:10.823334 17103 net.cpp:157] Top shape: 1 24 216 360 (1866240)
I0424 18:30:10.823336 17103 net.cpp:165] Memory required for data: 895795284
I0424 18:30:10.823338 17103 layer_factory.hpp:77] Creating layer conv2_3/2/neg
I0424 18:30:10.823343 17103 net.cpp:100] Creating Layer conv2_3/2/neg
I0424 18:30:10.823345 17103 net.cpp:434] conv2_3/2/neg <- conv2_3/2/conv_conv2_3/2/bn_0_split_0
I0424 18:30:10.823349 17103 net.cpp:408] conv2_3/2/neg -> conv2_3/2/neg
I0424 18:30:10.823364 17103 net.cpp:150] Setting up conv2_3/2/neg
I0424 18:30:10.823367 17103 net.cpp:157] Top shape: 1 24 216 360 (1866240)
I0424 18:30:10.823369 17103 net.cpp:165] Memory required for data: 903260244
I0424 18:30:10.823371 17103 layer_factory.hpp:77] Creating layer conv2_3/2/concat
I0424 18:30:10.823376 17103 net.cpp:100] Creating Layer conv2_3/2/concat
I0424 18:30:10.823379 17103 net.cpp:434] conv2_3/2/concat <- conv2_3/2/conv_conv2_3/2/bn_0_split_1
I0424 18:30:10.823381 17103 net.cpp:434] conv2_3/2/concat <- conv2_3/2/neg
I0424 18:30:10.823385 17103 net.cpp:408] conv2_3/2/concat -> conv2_3/2
I0424 18:30:10.823400 17103 net.cpp:150] Setting up conv2_3/2/concat
I0424 18:30:10.823405 17103 net.cpp:157] Top shape: 1 48 216 360 (3732480)
I0424 18:30:10.823406 17103 net.cpp:165] Memory required for data: 918190164
I0424 18:30:10.823408 17103 layer_factory.hpp:77] Creating layer conv2_3/2/scale
I0424 18:30:10.823412 17103 net.cpp:100] Creating Layer conv2_3/2/scale
I0424 18:30:10.823415 17103 net.cpp:434] conv2_3/2/scale <- conv2_3/2
I0424 18:30:10.823418 17103 net.cpp:395] conv2_3/2/scale -> conv2_3/2 (in-place)
I0424 18:30:10.823446 17103 layer_factory.hpp:77] Creating layer conv2_3/2/scale
I0424 18:30:10.823837 17103 net.cpp:150] Setting up conv2_3/2/scale
I0424 18:30:10.823845 17103 net.cpp:157] Top shape: 1 48 216 360 (3732480)
I0424 18:30:10.823848 17103 net.cpp:165] Memory required for data: 933120084
I0424 18:30:10.823851 17103 layer_factory.hpp:77] Creating layer conv2_3/2/relu
I0424 18:30:10.823855 17103 net.cpp:100] Creating Layer conv2_3/2/relu
I0424 18:30:10.823858 17103 net.cpp:434] conv2_3/2/relu <- conv2_3/2
I0424 18:30:10.823861 17103 net.cpp:395] conv2_3/2/relu -> conv2_3/2 (in-place)
I0424 18:30:10.823979 17103 net.cpp:150] Setting up conv2_3/2/relu
I0424 18:30:10.823987 17103 net.cpp:157] Top shape: 1 48 216 360 (3732480)
I0424 18:30:10.823988 17103 net.cpp:165] Memory required for data: 948050004
I0424 18:30:10.823993 17103 layer_factory.hpp:77] Creating layer conv2_3/3/conv
I0424 18:30:10.823999 17103 net.cpp:100] Creating Layer conv2_3/3/conv
I0424 18:30:10.824002 17103 net.cpp:434] conv2_3/3/conv <- conv2_3/2
I0424 18:30:10.824005 17103 net.cpp:408] conv2_3/3/conv -> conv2_3/3
I0424 18:30:10.825467 17103 net.cpp:150] Setting up conv2_3/3/conv
I0424 18:30:10.825476 17103 net.cpp:157] Top shape: 1 64 216 360 (4976640)
I0424 18:30:10.825479 17103 net.cpp:165] Memory required for data: 967956564
I0424 18:30:10.825482 17103 layer_factory.hpp:77] Creating layer conv2_3/3/bn
I0424 18:30:10.825487 17103 net.cpp:100] Creating Layer conv2_3/3/bn
I0424 18:30:10.825490 17103 net.cpp:434] conv2_3/3/bn <- conv2_3/3
I0424 18:30:10.825495 17103 net.cpp:395] conv2_3/3/bn -> conv2_3/3 (in-place)
I0424 18:30:10.825664 17103 net.cpp:150] Setting up conv2_3/3/bn
I0424 18:30:10.825669 17103 net.cpp:157] Top shape: 1 64 216 360 (4976640)
I0424 18:30:10.825670 17103 net.cpp:165] Memory required for data: 987863124
I0424 18:30:10.825681 17103 layer_factory.hpp:77] Creating layer conv2_3/3/bn_scale
I0424 18:30:10.825686 17103 net.cpp:100] Creating Layer conv2_3/3/bn_scale
I0424 18:30:10.825690 17103 net.cpp:434] conv2_3/3/bn_scale <- conv2_3/3
I0424 18:30:10.825692 17103 net.cpp:395] conv2_3/3/bn_scale -> conv2_3/3 (in-place)
I0424 18:30:10.825721 17103 layer_factory.hpp:77] Creating layer conv2_3/3/bn_scale
I0424 18:30:10.826102 17103 net.cpp:150] Setting up conv2_3/3/bn_scale
I0424 18:30:10.826108 17103 net.cpp:157] Top shape: 1 64 216 360 (4976640)
I0424 18:30:10.826112 17103 net.cpp:165] Memory required for data: 1007769684
I0424 18:30:10.826115 17103 layer_factory.hpp:77] Creating layer conv2_3/input
I0424 18:30:10.826119 17103 net.cpp:100] Creating Layer conv2_3/input
I0424 18:30:10.826122 17103 net.cpp:434] conv2_3/input <- conv2_2_conv2_2_0_split_1
I0424 18:30:10.826126 17103 net.cpp:408] conv2_3/input -> conv2_3/input
I0424 18:30:10.826146 17103 net.cpp:150] Setting up conv2_3/input
I0424 18:30:10.826151 17103 net.cpp:157] Top shape: 1 64 216 360 (4976640)
I0424 18:30:10.826153 17103 net.cpp:165] Memory required for data: 1027676244
I0424 18:30:10.826155 17103 layer_factory.hpp:77] Creating layer conv2_3
I0424 18:30:10.826165 17103 net.cpp:100] Creating Layer conv2_3
I0424 18:30:10.826167 17103 net.cpp:434] conv2_3 <- conv2_3/3
I0424 18:30:10.826170 17103 net.cpp:434] conv2_3 <- conv2_3/input
I0424 18:30:10.826174 17103 net.cpp:408] conv2_3 -> conv2_3
I0424 18:30:10.826190 17103 net.cpp:150] Setting up conv2_3
I0424 18:30:10.826195 17103 net.cpp:157] Top shape: 1 64 216 360 (4976640)
I0424 18:30:10.826196 17103 net.cpp:165] Memory required for data: 1047582804
I0424 18:30:10.826198 17103 layer_factory.hpp:77] Creating layer conv2_3_conv2_3_0_split
I0424 18:30:10.826202 17103 net.cpp:100] Creating Layer conv2_3_conv2_3_0_split
I0424 18:30:10.826205 17103 net.cpp:434] conv2_3_conv2_3_0_split <- conv2_3
I0424 18:30:10.826207 17103 net.cpp:408] conv2_3_conv2_3_0_split -> conv2_3_conv2_3_0_split_0
I0424 18:30:10.826211 17103 net.cpp:408] conv2_3_conv2_3_0_split -> conv2_3_conv2_3_0_split_1
I0424 18:30:10.826236 17103 net.cpp:150] Setting up conv2_3_conv2_3_0_split
I0424 18:30:10.826239 17103 net.cpp:157] Top shape: 1 64 216 360 (4976640)
I0424 18:30:10.826241 17103 net.cpp:157] Top shape: 1 64 216 360 (4976640)
I0424 18:30:10.826243 17103 net.cpp:165] Memory required for data: 1087395924
I0424 18:30:10.826246 17103 layer_factory.hpp:77] Creating layer conv3_1/1/conv
I0424 18:30:10.826251 17103 net.cpp:100] Creating Layer conv3_1/1/conv
I0424 18:30:10.826253 17103 net.cpp:434] conv3_1/1/conv <- conv2_3_conv2_3_0_split_0
I0424 18:30:10.826257 17103 net.cpp:408] conv3_1/1/conv -> conv3_1/1
I0424 18:30:10.827764 17103 net.cpp:150] Setting up conv3_1/1/conv
I0424 18:30:10.827774 17103 net.cpp:157] Top shape: 1 48 108 180 (933120)
I0424 18:30:10.827776 17103 net.cpp:165] Memory required for data: 1091128404
I0424 18:30:10.827780 17103 layer_factory.hpp:77] Creating layer conv3_1/1/bn
I0424 18:30:10.827785 17103 net.cpp:100] Creating Layer conv3_1/1/bn
I0424 18:30:10.827790 17103 net.cpp:434] conv3_1/1/bn <- conv3_1/1
I0424 18:30:10.827795 17103 net.cpp:395] conv3_1/1/bn -> conv3_1/1 (in-place)
I0424 18:30:10.828182 17103 net.cpp:150] Setting up conv3_1/1/bn
I0424 18:30:10.828191 17103 net.cpp:157] Top shape: 1 48 108 180 (933120)
I0424 18:30:10.828192 17103 net.cpp:165] Memory required for data: 1094860884
I0424 18:30:10.828197 17103 layer_factory.hpp:77] Creating layer conv3_1/1/bn_scale
I0424 18:30:10.828203 17103 net.cpp:100] Creating Layer conv3_1/1/bn_scale
I0424 18:30:10.828205 17103 net.cpp:434] conv3_1/1/bn_scale <- conv3_1/1
I0424 18:30:10.828209 17103 net.cpp:395] conv3_1/1/bn_scale -> conv3_1/1 (in-place)
I0424 18:30:10.828238 17103 layer_factory.hpp:77] Creating layer conv3_1/1/bn_scale
I0424 18:30:10.828335 17103 net.cpp:150] Setting up conv3_1/1/bn_scale
I0424 18:30:10.828339 17103 net.cpp:157] Top shape: 1 48 108 180 (933120)
I0424 18:30:10.828341 17103 net.cpp:165] Memory required for data: 1098593364
I0424 18:30:10.828346 17103 layer_factory.hpp:77] Creating layer conv3_1/1/relu
I0424 18:30:10.828349 17103 net.cpp:100] Creating Layer conv3_1/1/relu
I0424 18:30:10.828351 17103 net.cpp:434] conv3_1/1/relu <- conv3_1/1
I0424 18:30:10.828354 17103 net.cpp:395] conv3_1/1/relu -> conv3_1/1 (in-place)
I0424 18:30:10.828477 17103 net.cpp:150] Setting up conv3_1/1/relu
I0424 18:30:10.828485 17103 net.cpp:157] Top shape: 1 48 108 180 (933120)
I0424 18:30:10.828487 17103 net.cpp:165] Memory required for data: 1102325844
I0424 18:30:10.828490 17103 layer_factory.hpp:77] Creating layer conv3_1/2/conv
I0424 18:30:10.828495 17103 net.cpp:100] Creating Layer conv3_1/2/conv
I0424 18:30:10.828496 17103 net.cpp:434] conv3_1/2/conv <- conv3_1/1
I0424 18:30:10.828500 17103 net.cpp:408] conv3_1/2/conv -> conv3_1/2/conv
I0424 18:30:10.829717 17103 net.cpp:150] Setting up conv3_1/2/conv
I0424 18:30:10.829726 17103 net.cpp:157] Top shape: 1 48 108 180 (933120)
I0424 18:30:10.829728 17103 net.cpp:165] Memory required for data: 1106058324
I0424 18:30:10.829732 17103 layer_factory.hpp:77] Creating layer conv3_1/2/bn
I0424 18:30:10.829737 17103 net.cpp:100] Creating Layer conv3_1/2/bn
I0424 18:30:10.829740 17103 net.cpp:434] conv3_1/2/bn <- conv3_1/2/conv
I0424 18:30:10.829743 17103 net.cpp:395] conv3_1/2/bn -> conv3_1/2/conv (in-place)
I0424 18:30:10.829883 17103 net.cpp:150] Setting up conv3_1/2/bn
I0424 18:30:10.829888 17103 net.cpp:157] Top shape: 1 48 108 180 (933120)
I0424 18:30:10.829890 17103 net.cpp:165] Memory required for data: 1109790804
I0424 18:30:10.829895 17103 layer_factory.hpp:77] Creating layer conv3_1/2/conv_conv3_1/2/bn_0_split
I0424 18:30:10.829898 17103 net.cpp:100] Creating Layer conv3_1/2/conv_conv3_1/2/bn_0_split
I0424 18:30:10.829901 17103 net.cpp:434] conv3_1/2/conv_conv3_1/2/bn_0_split <- conv3_1/2/conv
I0424 18:30:10.829905 17103 net.cpp:408] conv3_1/2/conv_conv3_1/2/bn_0_split -> conv3_1/2/conv_conv3_1/2/bn_0_split_0
I0424 18:30:10.829908 17103 net.cpp:408] conv3_1/2/conv_conv3_1/2/bn_0_split -> conv3_1/2/conv_conv3_1/2/bn_0_split_1
I0424 18:30:10.829933 17103 net.cpp:150] Setting up conv3_1/2/conv_conv3_1/2/bn_0_split
I0424 18:30:10.829937 17103 net.cpp:157] Top shape: 1 48 108 180 (933120)
I0424 18:30:10.829941 17103 net.cpp:157] Top shape: 1 48 108 180 (933120)
I0424 18:30:10.829942 17103 net.cpp:165] Memory required for data: 1117255764
I0424 18:30:10.829944 17103 layer_factory.hpp:77] Creating layer conv3_1/2/neg
I0424 18:30:10.829948 17103 net.cpp:100] Creating Layer conv3_1/2/neg
I0424 18:30:10.829951 17103 net.cpp:434] conv3_1/2/neg <- conv3_1/2/conv_conv3_1/2/bn_0_split_0
I0424 18:30:10.829954 17103 net.cpp:408] conv3_1/2/neg -> conv3_1/2/neg
I0424 18:30:10.829969 17103 net.cpp:150] Setting up conv3_1/2/neg
I0424 18:30:10.829973 17103 net.cpp:157] Top shape: 1 48 108 180 (933120)
I0424 18:30:10.829975 17103 net.cpp:165] Memory required for data: 1120988244
I0424 18:30:10.829977 17103 layer_factory.hpp:77] Creating layer conv3_1/2/concat
I0424 18:30:10.829982 17103 net.cpp:100] Creating Layer conv3_1/2/concat
I0424 18:30:10.829987 17103 net.cpp:434] conv3_1/2/concat <- conv3_1/2/conv_conv3_1/2/bn_0_split_1
I0424 18:30:10.829989 17103 net.cpp:434] conv3_1/2/concat <- conv3_1/2/neg
I0424 18:30:10.829993 17103 net.cpp:408] conv3_1/2/concat -> conv3_1/2
I0424 18:30:10.830008 17103 net.cpp:150] Setting up conv3_1/2/concat
I0424 18:30:10.830013 17103 net.cpp:157] Top shape: 1 96 108 180 (1866240)
I0424 18:30:10.830015 17103 net.cpp:165] Memory required for data: 1128453204
I0424 18:30:10.830018 17103 layer_factory.hpp:77] Creating layer conv3_1/2/scale
I0424 18:30:10.830021 17103 net.cpp:100] Creating Layer conv3_1/2/scale
I0424 18:30:10.830024 17103 net.cpp:434] conv3_1/2/scale <- conv3_1/2
I0424 18:30:10.830026 17103 net.cpp:395] conv3_1/2/scale -> conv3_1/2 (in-place)
I0424 18:30:10.830055 17103 layer_factory.hpp:77] Creating layer conv3_1/2/scale
I0424 18:30:10.830149 17103 net.cpp:150] Setting up conv3_1/2/scale
I0424 18:30:10.830154 17103 net.cpp:157] Top shape: 1 96 108 180 (1866240)
I0424 18:30:10.830157 17103 net.cpp:165] Memory required for data: 1135918164
I0424 18:30:10.830160 17103 layer_factory.hpp:77] Creating layer conv3_1/2/relu
I0424 18:30:10.830163 17103 net.cpp:100] Creating Layer conv3_1/2/relu
I0424 18:30:10.830166 17103 net.cpp:434] conv3_1/2/relu <- conv3_1/2
I0424 18:30:10.830169 17103 net.cpp:395] conv3_1/2/relu -> conv3_1/2 (in-place)
I0424 18:30:10.830610 17103 net.cpp:150] Setting up conv3_1/2/relu
I0424 18:30:10.830618 17103 net.cpp:157] Top shape: 1 96 108 180 (1866240)
I0424 18:30:10.830621 17103 net.cpp:165] Memory required for data: 1143383124
I0424 18:30:10.830623 17103 layer_factory.hpp:77] Creating layer conv3_1/3/conv
I0424 18:30:10.830629 17103 net.cpp:100] Creating Layer conv3_1/3/conv
I0424 18:30:10.830631 17103 net.cpp:434] conv3_1/3/conv <- conv3_1/2
I0424 18:30:10.830636 17103 net.cpp:408] conv3_1/3/conv -> conv3_1/3
I0424 18:30:10.831842 17103 net.cpp:150] Setting up conv3_1/3/conv
I0424 18:30:10.831851 17103 net.cpp:157] Top shape: 1 128 108 180 (2488320)
I0424 18:30:10.831854 17103 net.cpp:165] Memory required for data: 1153336404
I0424 18:30:10.831858 17103 layer_factory.hpp:77] Creating layer conv3_1/3/bn
I0424 18:30:10.831862 17103 net.cpp:100] Creating Layer conv3_1/3/bn
I0424 18:30:10.831864 17103 net.cpp:434] conv3_1/3/bn <- conv3_1/3
I0424 18:30:10.831868 17103 net.cpp:395] conv3_1/3/bn -> conv3_1/3 (in-place)
I0424 18:30:10.832010 17103 net.cpp:150] Setting up conv3_1/3/bn
I0424 18:30:10.832015 17103 net.cpp:157] Top shape: 1 128 108 180 (2488320)
I0424 18:30:10.832016 17103 net.cpp:165] Memory required for data: 1163289684
I0424 18:30:10.832021 17103 layer_factory.hpp:77] Creating layer conv3_1/3/bn_scale
I0424 18:30:10.832026 17103 net.cpp:100] Creating Layer conv3_1/3/bn_scale
I0424 18:30:10.832028 17103 net.cpp:434] conv3_1/3/bn_scale <- conv3_1/3
I0424 18:30:10.832032 17103 net.cpp:395] conv3_1/3/bn_scale -> conv3_1/3 (in-place)
I0424 18:30:10.832058 17103 layer_factory.hpp:77] Creating layer conv3_1/3/bn_scale
I0424 18:30:10.832149 17103 net.cpp:150] Setting up conv3_1/3/bn_scale
I0424 18:30:10.832154 17103 net.cpp:157] Top shape: 1 128 108 180 (2488320)
I0424 18:30:10.832155 17103 net.cpp:165] Memory required for data: 1173242964
I0424 18:30:10.832159 17103 layer_factory.hpp:77] Creating layer conv3_1/proj
I0424 18:30:10.832165 17103 net.cpp:100] Creating Layer conv3_1/proj
I0424 18:30:10.832168 17103 net.cpp:434] conv3_1/proj <- conv2_3_conv2_3_0_split_1
I0424 18:30:10.832172 17103 net.cpp:408] conv3_1/proj -> conv3_1/proj
I0424 18:30:10.833405 17103 net.cpp:150] Setting up conv3_1/proj
I0424 18:30:10.833415 17103 net.cpp:157] Top shape: 1 128 108 180 (2488320)
I0424 18:30:10.833417 17103 net.cpp:165] Memory required for data: 1183196244
I0424 18:30:10.833421 17103 layer_factory.hpp:77] Creating layer conv3_1/proj_bn
I0424 18:30:10.833425 17103 net.cpp:100] Creating Layer conv3_1/proj_bn
I0424 18:30:10.833428 17103 net.cpp:434] conv3_1/proj_bn <- conv3_1/proj
I0424 18:30:10.833432 17103 net.cpp:395] conv3_1/proj_bn -> conv3_1/proj (in-place)
I0424 18:30:10.833575 17103 net.cpp:150] Setting up conv3_1/proj_bn
I0424 18:30:10.833582 17103 net.cpp:157] Top shape: 1 128 108 180 (2488320)
I0424 18:30:10.833585 17103 net.cpp:165] Memory required for data: 1193149524
I0424 18:30:10.833590 17103 layer_factory.hpp:77] Creating layer conv3_1/proj_bn_scale
I0424 18:30:10.833595 17103 net.cpp:100] Creating Layer conv3_1/proj_bn_scale
I0424 18:30:10.833597 17103 net.cpp:434] conv3_1/proj_bn_scale <- conv3_1/proj
I0424 18:30:10.833600 17103 net.cpp:395] conv3_1/proj_bn_scale -> conv3_1/proj (in-place)
I0424 18:30:10.833627 17103 layer_factory.hpp:77] Creating layer conv3_1/proj_bn_scale
I0424 18:30:10.833968 17103 net.cpp:150] Setting up conv3_1/proj_bn_scale
I0424 18:30:10.833976 17103 net.cpp:157] Top shape: 1 128 108 180 (2488320)
I0424 18:30:10.833978 17103 net.cpp:165] Memory required for data: 1203102804
I0424 18:30:10.833982 17103 layer_factory.hpp:77] Creating layer conv3_1
I0424 18:30:10.833987 17103 net.cpp:100] Creating Layer conv3_1
I0424 18:30:10.833991 17103 net.cpp:434] conv3_1 <- conv3_1/3
I0424 18:30:10.833993 17103 net.cpp:434] conv3_1 <- conv3_1/proj
I0424 18:30:10.833997 17103 net.cpp:408] conv3_1 -> conv3_1
I0424 18:30:10.834018 17103 net.cpp:150] Setting up conv3_1
I0424 18:30:10.834022 17103 net.cpp:157] Top shape: 1 128 108 180 (2488320)
I0424 18:30:10.834024 17103 net.cpp:165] Memory required for data: 1213056084
I0424 18:30:10.834026 17103 layer_factory.hpp:77] Creating layer conv3_1_conv3_1_0_split
I0424 18:30:10.834031 17103 net.cpp:100] Creating Layer conv3_1_conv3_1_0_split
I0424 18:30:10.834033 17103 net.cpp:434] conv3_1_conv3_1_0_split <- conv3_1
I0424 18:30:10.834038 17103 net.cpp:408] conv3_1_conv3_1_0_split -> conv3_1_conv3_1_0_split_0
I0424 18:30:10.834041 17103 net.cpp:408] conv3_1_conv3_1_0_split -> conv3_1_conv3_1_0_split_1
I0424 18:30:10.834067 17103 net.cpp:150] Setting up conv3_1_conv3_1_0_split
I0424 18:30:10.834071 17103 net.cpp:157] Top shape: 1 128 108 180 (2488320)
I0424 18:30:10.834074 17103 net.cpp:157] Top shape: 1 128 108 180 (2488320)
I0424 18:30:10.834075 17103 net.cpp:165] Memory required for data: 1232962644
I0424 18:30:10.834077 17103 layer_factory.hpp:77] Creating layer conv3_2/1/conv
I0424 18:30:10.834084 17103 net.cpp:100] Creating Layer conv3_2/1/conv
I0424 18:30:10.834086 17103 net.cpp:434] conv3_2/1/conv <- conv3_1_conv3_1_0_split_0
I0424 18:30:10.834089 17103 net.cpp:408] conv3_2/1/conv -> conv3_2/1
I0424 18:30:10.835587 17103 net.cpp:150] Setting up conv3_2/1/conv
I0424 18:30:10.835595 17103 net.cpp:157] Top shape: 1 48 108 180 (933120)
I0424 18:30:10.835597 17103 net.cpp:165] Memory required for data: 1236695124
I0424 18:30:10.835602 17103 layer_factory.hpp:77] Creating layer conv3_2/1/bn
I0424 18:30:10.835606 17103 net.cpp:100] Creating Layer conv3_2/1/bn
I0424 18:30:10.835609 17103 net.cpp:434] conv3_2/1/bn <- conv3_2/1
I0424 18:30:10.835613 17103 net.cpp:395] conv3_2/1/bn -> conv3_2/1 (in-place)
I0424 18:30:10.835767 17103 net.cpp:150] Setting up conv3_2/1/bn
I0424 18:30:10.835772 17103 net.cpp:157] Top shape: 1 48 108 180 (933120)
I0424 18:30:10.835773 17103 net.cpp:165] Memory required for data: 1240427604
I0424 18:30:10.835778 17103 layer_factory.hpp:77] Creating layer conv3_2/1/bn_scale
I0424 18:30:10.835783 17103 net.cpp:100] Creating Layer conv3_2/1/bn_scale
I0424 18:30:10.835785 17103 net.cpp:434] conv3_2/1/bn_scale <- conv3_2/1
I0424 18:30:10.835788 17103 net.cpp:395] conv3_2/1/bn_scale -> conv3_2/1 (in-place)
I0424 18:30:10.835816 17103 layer_factory.hpp:77] Creating layer conv3_2/1/bn_scale
I0424 18:30:10.835916 17103 net.cpp:150] Setting up conv3_2/1/bn_scale
I0424 18:30:10.835921 17103 net.cpp:157] Top shape: 1 48 108 180 (933120)
I0424 18:30:10.835922 17103 net.cpp:165] Memory required for data: 1244160084
I0424 18:30:10.835925 17103 layer_factory.hpp:77] Creating layer conv3_2/1/relu
I0424 18:30:10.835930 17103 net.cpp:100] Creating Layer conv3_2/1/relu
I0424 18:30:10.835932 17103 net.cpp:434] conv3_2/1/relu <- conv3_2/1
I0424 18:30:10.835935 17103 net.cpp:395] conv3_2/1/relu -> conv3_2/1 (in-place)
I0424 18:30:10.836391 17103 net.cpp:150] Setting up conv3_2/1/relu
I0424 18:30:10.836403 17103 net.cpp:157] Top shape: 1 48 108 180 (933120)
I0424 18:30:10.836406 17103 net.cpp:165] Memory required for data: 1247892564
I0424 18:30:10.836408 17103 layer_factory.hpp:77] Creating layer conv3_2/2/conv
I0424 18:30:10.836414 17103 net.cpp:100] Creating Layer conv3_2/2/conv
I0424 18:30:10.836416 17103 net.cpp:434] conv3_2/2/conv <- conv3_2/1
I0424 18:30:10.836421 17103 net.cpp:408] conv3_2/2/conv -> conv3_2/2/conv
I0424 18:30:10.837353 17103 net.cpp:150] Setting up conv3_2/2/conv
I0424 18:30:10.837363 17103 net.cpp:157] Top shape: 1 48 108 180 (933120)
I0424 18:30:10.837364 17103 net.cpp:165] Memory required for data: 1251625044
I0424 18:30:10.837368 17103 layer_factory.hpp:77] Creating layer conv3_2/2/bn
I0424 18:30:10.837373 17103 net.cpp:100] Creating Layer conv3_2/2/bn
I0424 18:30:10.837376 17103 net.cpp:434] conv3_2/2/bn <- conv3_2/2/conv
I0424 18:30:10.837380 17103 net.cpp:395] conv3_2/2/bn -> conv3_2/2/conv (in-place)
I0424 18:30:10.837537 17103 net.cpp:150] Setting up conv3_2/2/bn
I0424 18:30:10.837541 17103 net.cpp:157] Top shape: 1 48 108 180 (933120)
I0424 18:30:10.837543 17103 net.cpp:165] Memory required for data: 1255357524
I0424 18:30:10.837548 17103 layer_factory.hpp:77] Creating layer conv3_2/2/conv_conv3_2/2/bn_0_split
I0424 18:30:10.837551 17103 net.cpp:100] Creating Layer conv3_2/2/conv_conv3_2/2/bn_0_split
I0424 18:30:10.837553 17103 net.cpp:434] conv3_2/2/conv_conv3_2/2/bn_0_split <- conv3_2/2/conv
I0424 18:30:10.837558 17103 net.cpp:408] conv3_2/2/conv_conv3_2/2/bn_0_split -> conv3_2/2/conv_conv3_2/2/bn_0_split_0
I0424 18:30:10.837563 17103 net.cpp:408] conv3_2/2/conv_conv3_2/2/bn_0_split -> conv3_2/2/conv_conv3_2/2/bn_0_split_1
I0424 18:30:10.837594 17103 net.cpp:150] Setting up conv3_2/2/conv_conv3_2/2/bn_0_split
I0424 18:30:10.837599 17103 net.cpp:157] Top shape: 1 48 108 180 (933120)
I0424 18:30:10.837602 17103 net.cpp:157] Top shape: 1 48 108 180 (933120)
I0424 18:30:10.837604 17103 net.cpp:165] Memory required for data: 1262822484
I0424 18:30:10.837606 17103 layer_factory.hpp:77] Creating layer conv3_2/2/neg
I0424 18:30:10.837610 17103 net.cpp:100] Creating Layer conv3_2/2/neg
I0424 18:30:10.837612 17103 net.cpp:434] conv3_2/2/neg <- conv3_2/2/conv_conv3_2/2/bn_0_split_0
I0424 18:30:10.837616 17103 net.cpp:408] conv3_2/2/neg -> conv3_2/2/neg
I0424 18:30:10.837631 17103 net.cpp:150] Setting up conv3_2/2/neg
I0424 18:30:10.837635 17103 net.cpp:157] Top shape: 1 48 108 180 (933120)
I0424 18:30:10.837637 17103 net.cpp:165] Memory required for data: 1266554964
I0424 18:30:10.837640 17103 layer_factory.hpp:77] Creating layer conv3_2/2/concat
I0424 18:30:10.837644 17103 net.cpp:100] Creating Layer conv3_2/2/concat
I0424 18:30:10.837647 17103 net.cpp:434] conv3_2/2/concat <- conv3_2/2/conv_conv3_2/2/bn_0_split_1
I0424 18:30:10.837651 17103 net.cpp:434] conv3_2/2/concat <- conv3_2/2/neg
I0424 18:30:10.837653 17103 net.cpp:408] conv3_2/2/concat -> conv3_2/2
I0424 18:30:10.837671 17103 net.cpp:150] Setting up conv3_2/2/concat
I0424 18:30:10.837674 17103 net.cpp:157] Top shape: 1 96 108 180 (1866240)
I0424 18:30:10.837677 17103 net.cpp:165] Memory required for data: 1274019924
I0424 18:30:10.837678 17103 layer_factory.hpp:77] Creating layer conv3_2/2/scale
I0424 18:30:10.837683 17103 net.cpp:100] Creating Layer conv3_2/2/scale
I0424 18:30:10.837685 17103 net.cpp:434] conv3_2/2/scale <- conv3_2/2
I0424 18:30:10.837688 17103 net.cpp:395] conv3_2/2/scale -> conv3_2/2 (in-place)
I0424 18:30:10.837716 17103 layer_factory.hpp:77] Creating layer conv3_2/2/scale
I0424 18:30:10.837811 17103 net.cpp:150] Setting up conv3_2/2/scale
I0424 18:30:10.837816 17103 net.cpp:157] Top shape: 1 96 108 180 (1866240)
I0424 18:30:10.837818 17103 net.cpp:165] Memory required for data: 1281484884
I0424 18:30:10.837822 17103 layer_factory.hpp:77] Creating layer conv3_2/2/relu
I0424 18:30:10.837826 17103 net.cpp:100] Creating Layer conv3_2/2/relu
I0424 18:30:10.837829 17103 net.cpp:434] conv3_2/2/relu <- conv3_2/2
I0424 18:30:10.837832 17103 net.cpp:395] conv3_2/2/relu -> conv3_2/2 (in-place)
I0424 18:30:10.838279 17103 net.cpp:150] Setting up conv3_2/2/relu
I0424 18:30:10.838287 17103 net.cpp:157] Top shape: 1 96 108 180 (1866240)
I0424 18:30:10.838290 17103 net.cpp:165] Memory required for data: 1288949844
I0424 18:30:10.838292 17103 layer_factory.hpp:77] Creating layer conv3_2/3/conv
I0424 18:30:10.838297 17103 net.cpp:100] Creating Layer conv3_2/3/conv
I0424 18:30:10.838300 17103 net.cpp:434] conv3_2/3/conv <- conv3_2/2
I0424 18:30:10.838304 17103 net.cpp:408] conv3_2/3/conv -> conv3_2/3
I0424 18:30:10.840136 17103 net.cpp:150] Setting up conv3_2/3/conv
I0424 18:30:10.840145 17103 net.cpp:157] Top shape: 1 128 108 180 (2488320)
I0424 18:30:10.840148 17103 net.cpp:165] Memory required for data: 1298903124
I0424 18:30:10.840152 17103 layer_factory.hpp:77] Creating layer conv3_2/3/bn
I0424 18:30:10.840157 17103 net.cpp:100] Creating Layer conv3_2/3/bn
I0424 18:30:10.840158 17103 net.cpp:434] conv3_2/3/bn <- conv3_2/3
I0424 18:30:10.840163 17103 net.cpp:395] conv3_2/3/bn -> conv3_2/3 (in-place)
I0424 18:30:10.840308 17103 net.cpp:150] Setting up conv3_2/3/bn
I0424 18:30:10.840313 17103 net.cpp:157] Top shape: 1 128 108 180 (2488320)
I0424 18:30:10.840315 17103 net.cpp:165] Memory required for data: 1308856404
I0424 18:30:10.840320 17103 layer_factory.hpp:77] Creating layer conv3_2/3/bn_scale
I0424 18:30:10.840324 17103 net.cpp:100] Creating Layer conv3_2/3/bn_scale
I0424 18:30:10.840327 17103 net.cpp:434] conv3_2/3/bn_scale <- conv3_2/3
I0424 18:30:10.840330 17103 net.cpp:395] conv3_2/3/bn_scale -> conv3_2/3 (in-place)
I0424 18:30:10.840358 17103 layer_factory.hpp:77] Creating layer conv3_2/3/bn_scale
I0424 18:30:10.840450 17103 net.cpp:150] Setting up conv3_2/3/bn_scale
I0424 18:30:10.840454 17103 net.cpp:157] Top shape: 1 128 108 180 (2488320)
I0424 18:30:10.840456 17103 net.cpp:165] Memory required for data: 1318809684
I0424 18:30:10.840461 17103 layer_factory.hpp:77] Creating layer conv3_2/input
I0424 18:30:10.840464 17103 net.cpp:100] Creating Layer conv3_2/input
I0424 18:30:10.840466 17103 net.cpp:434] conv3_2/input <- conv3_1_conv3_1_0_split_1
I0424 18:30:10.840471 17103 net.cpp:408] conv3_2/input -> conv3_2/input
I0424 18:30:10.840490 17103 net.cpp:150] Setting up conv3_2/input
I0424 18:30:10.840494 17103 net.cpp:157] Top shape: 1 128 108 180 (2488320)
I0424 18:30:10.840497 17103 net.cpp:165] Memory required for data: 1328762964
I0424 18:30:10.840498 17103 layer_factory.hpp:77] Creating layer conv3_2
I0424 18:30:10.840502 17103 net.cpp:100] Creating Layer conv3_2
I0424 18:30:10.840504 17103 net.cpp:434] conv3_2 <- conv3_2/3
I0424 18:30:10.840507 17103 net.cpp:434] conv3_2 <- conv3_2/input
I0424 18:30:10.840512 17103 net.cpp:408] conv3_2 -> conv3_2
I0424 18:30:10.840528 17103 net.cpp:150] Setting up conv3_2
I0424 18:30:10.840531 17103 net.cpp:157] Top shape: 1 128 108 180 (2488320)
I0424 18:30:10.840533 17103 net.cpp:165] Memory required for data: 1338716244
I0424 18:30:10.840534 17103 layer_factory.hpp:77] Creating layer conv3_2_conv3_2_0_split
I0424 18:30:10.840538 17103 net.cpp:100] Creating Layer conv3_2_conv3_2_0_split
I0424 18:30:10.840540 17103 net.cpp:434] conv3_2_conv3_2_0_split <- conv3_2
I0424 18:30:10.840543 17103 net.cpp:408] conv3_2_conv3_2_0_split -> conv3_2_conv3_2_0_split_0
I0424 18:30:10.840550 17103 net.cpp:408] conv3_2_conv3_2_0_split -> conv3_2_conv3_2_0_split_1
I0424 18:30:10.840574 17103 net.cpp:150] Setting up conv3_2_conv3_2_0_split
I0424 18:30:10.840577 17103 net.cpp:157] Top shape: 1 128 108 180 (2488320)
I0424 18:30:10.840580 17103 net.cpp:157] Top shape: 1 128 108 180 (2488320)
I0424 18:30:10.840582 17103 net.cpp:165] Memory required for data: 1358622804
I0424 18:30:10.840584 17103 layer_factory.hpp:77] Creating layer conv3_3/1/conv
I0424 18:30:10.840590 17103 net.cpp:100] Creating Layer conv3_3/1/conv
I0424 18:30:10.840592 17103 net.cpp:434] conv3_3/1/conv <- conv3_2_conv3_2_0_split_0
I0424 18:30:10.840596 17103 net.cpp:408] conv3_3/1/conv -> conv3_3/1
I0424 18:30:10.841446 17103 net.cpp:150] Setting up conv3_3/1/conv
I0424 18:30:10.841455 17103 net.cpp:157] Top shape: 1 48 108 180 (933120)
I0424 18:30:10.841460 17103 net.cpp:165] Memory required for data: 1362355284
I0424 18:30:10.841464 17103 layer_factory.hpp:77] Creating layer conv3_3/1/bn
I0424 18:30:10.841470 17103 net.cpp:100] Creating Layer conv3_3/1/bn
I0424 18:30:10.841471 17103 net.cpp:434] conv3_3/1/bn <- conv3_3/1
I0424 18:30:10.841475 17103 net.cpp:395] conv3_3/1/bn -> conv3_3/1 (in-place)
I0424 18:30:10.841627 17103 net.cpp:150] Setting up conv3_3/1/bn
I0424 18:30:10.841632 17103 net.cpp:157] Top shape: 1 48 108 180 (933120)
I0424 18:30:10.841634 17103 net.cpp:165] Memory required for data: 1366087764
I0424 18:30:10.841639 17103 layer_factory.hpp:77] Creating layer conv3_3/1/bn_scale
I0424 18:30:10.841644 17103 net.cpp:100] Creating Layer conv3_3/1/bn_scale
I0424 18:30:10.841645 17103 net.cpp:434] conv3_3/1/bn_scale <- conv3_3/1
I0424 18:30:10.841648 17103 net.cpp:395] conv3_3/1/bn_scale -> conv3_3/1 (in-place)
I0424 18:30:10.841677 17103 layer_factory.hpp:77] Creating layer conv3_3/1/bn_scale
I0424 18:30:10.842020 17103 net.cpp:150] Setting up conv3_3/1/bn_scale
I0424 18:30:10.842028 17103 net.cpp:157] Top shape: 1 48 108 180 (933120)
I0424 18:30:10.842031 17103 net.cpp:165] Memory required for data: 1369820244
I0424 18:30:10.842034 17103 layer_factory.hpp:77] Creating layer conv3_3/1/relu
I0424 18:30:10.842038 17103 net.cpp:100] Creating Layer conv3_3/1/relu
I0424 18:30:10.842041 17103 net.cpp:434] conv3_3/1/relu <- conv3_3/1
I0424 18:30:10.842044 17103 net.cpp:395] conv3_3/1/relu -> conv3_3/1 (in-place)
I0424 18:30:10.842484 17103 net.cpp:150] Setting up conv3_3/1/relu
I0424 18:30:10.842494 17103 net.cpp:157] Top shape: 1 48 108 180 (933120)
I0424 18:30:10.842495 17103 net.cpp:165] Memory required for data: 1373552724
I0424 18:30:10.842497 17103 layer_factory.hpp:77] Creating layer conv3_3/2/conv
I0424 18:30:10.842504 17103 net.cpp:100] Creating Layer conv3_3/2/conv
I0424 18:30:10.842505 17103 net.cpp:434] conv3_3/2/conv <- conv3_3/1
I0424 18:30:10.842519 17103 net.cpp:408] conv3_3/2/conv -> conv3_3/2/conv
I0424 18:30:10.844100 17103 net.cpp:150] Setting up conv3_3/2/conv
I0424 18:30:10.844110 17103 net.cpp:157] Top shape: 1 48 108 180 (933120)
I0424 18:30:10.844112 17103 net.cpp:165] Memory required for data: 1377285204
I0424 18:30:10.844116 17103 layer_factory.hpp:77] Creating layer conv3_3/2/bn
I0424 18:30:10.844121 17103 net.cpp:100] Creating Layer conv3_3/2/bn
I0424 18:30:10.844123 17103 net.cpp:434] conv3_3/2/bn <- conv3_3/2/conv
I0424 18:30:10.844127 17103 net.cpp:395] conv3_3/2/bn -> conv3_3/2/conv (in-place)
I0424 18:30:10.844279 17103 net.cpp:150] Setting up conv3_3/2/bn
I0424 18:30:10.844283 17103 net.cpp:157] Top shape: 1 48 108 180 (933120)
I0424 18:30:10.844285 17103 net.cpp:165] Memory required for data: 1381017684
I0424 18:30:10.844290 17103 layer_factory.hpp:77] Creating layer conv3_3/2/conv_conv3_3/2/bn_0_split
I0424 18:30:10.844293 17103 net.cpp:100] Creating Layer conv3_3/2/conv_conv3_3/2/bn_0_split
I0424 18:30:10.844296 17103 net.cpp:434] conv3_3/2/conv_conv3_3/2/bn_0_split <- conv3_3/2/conv
I0424 18:30:10.844300 17103 net.cpp:408] conv3_3/2/conv_conv3_3/2/bn_0_split -> conv3_3/2/conv_conv3_3/2/bn_0_split_0
I0424 18:30:10.844305 17103 net.cpp:408] conv3_3/2/conv_conv3_3/2/bn_0_split -> conv3_3/2/conv_conv3_3/2/bn_0_split_1
I0424 18:30:10.844331 17103 net.cpp:150] Setting up conv3_3/2/conv_conv3_3/2/bn_0_split
I0424 18:30:10.844334 17103 net.cpp:157] Top shape: 1 48 108 180 (933120)
I0424 18:30:10.844336 17103 net.cpp:157] Top shape: 1 48 108 180 (933120)
I0424 18:30:10.844338 17103 net.cpp:165] Memory required for data: 1388482644
I0424 18:30:10.844341 17103 layer_factory.hpp:77] Creating layer conv3_3/2/neg
I0424 18:30:10.844346 17103 net.cpp:100] Creating Layer conv3_3/2/neg
I0424 18:30:10.844347 17103 net.cpp:434] conv3_3/2/neg <- conv3_3/2/conv_conv3_3/2/bn_0_split_0
I0424 18:30:10.844352 17103 net.cpp:408] conv3_3/2/neg -> conv3_3/2/neg
I0424 18:30:10.844367 17103 net.cpp:150] Setting up conv3_3/2/neg
I0424 18:30:10.844372 17103 net.cpp:157] Top shape: 1 48 108 180 (933120)
I0424 18:30:10.844375 17103 net.cpp:165] Memory required for data: 1392215124
I0424 18:30:10.844378 17103 layer_factory.hpp:77] Creating layer conv3_3/2/concat
I0424 18:30:10.844383 17103 net.cpp:100] Creating Layer conv3_3/2/concat
I0424 18:30:10.844384 17103 net.cpp:434] conv3_3/2/concat <- conv3_3/2/conv_conv3_3/2/bn_0_split_1
I0424 18:30:10.844388 17103 net.cpp:434] conv3_3/2/concat <- conv3_3/2/neg
I0424 18:30:10.844391 17103 net.cpp:408] conv3_3/2/concat -> conv3_3/2
I0424 18:30:10.844408 17103 net.cpp:150] Setting up conv3_3/2/concat
I0424 18:30:10.844413 17103 net.cpp:157] Top shape: 1 96 108 180 (1866240)
I0424 18:30:10.844414 17103 net.cpp:165] Memory required for data: 1399680084
I0424 18:30:10.844416 17103 layer_factory.hpp:77] Creating layer conv3_3/2/scale
I0424 18:30:10.844421 17103 net.cpp:100] Creating Layer conv3_3/2/scale
I0424 18:30:10.844424 17103 net.cpp:434] conv3_3/2/scale <- conv3_3/2
I0424 18:30:10.844426 17103 net.cpp:395] conv3_3/2/scale -> conv3_3/2 (in-place)
I0424 18:30:10.844455 17103 layer_factory.hpp:77] Creating layer conv3_3/2/scale
I0424 18:30:10.844552 17103 net.cpp:150] Setting up conv3_3/2/scale
I0424 18:30:10.844558 17103 net.cpp:157] Top shape: 1 96 108 180 (1866240)
I0424 18:30:10.844559 17103 net.cpp:165] Memory required for data: 1407145044
I0424 18:30:10.844563 17103 layer_factory.hpp:77] Creating layer conv3_3/2/relu
I0424 18:30:10.844568 17103 net.cpp:100] Creating Layer conv3_3/2/relu
I0424 18:30:10.844569 17103 net.cpp:434] conv3_3/2/relu <- conv3_3/2
I0424 18:30:10.844573 17103 net.cpp:395] conv3_3/2/relu -> conv3_3/2 (in-place)
I0424 18:30:10.844693 17103 net.cpp:150] Setting up conv3_3/2/relu
I0424 18:30:10.844699 17103 net.cpp:157] Top shape: 1 96 108 180 (1866240)
I0424 18:30:10.844702 17103 net.cpp:165] Memory required for data: 1414610004
I0424 18:30:10.844704 17103 layer_factory.hpp:77] Creating layer conv3_3/3/conv
I0424 18:30:10.844710 17103 net.cpp:100] Creating Layer conv3_3/3/conv
I0424 18:30:10.844712 17103 net.cpp:434] conv3_3/3/conv <- conv3_3/2
I0424 18:30:10.844717 17103 net.cpp:408] conv3_3/3/conv -> conv3_3/3
I0424 18:30:10.845912 17103 net.cpp:150] Setting up conv3_3/3/conv
I0424 18:30:10.845921 17103 net.cpp:157] Top shape: 1 128 108 180 (2488320)
I0424 18:30:10.845923 17103 net.cpp:165] Memory required for data: 1424563284
I0424 18:30:10.845927 17103 layer_factory.hpp:77] Creating layer conv3_3/3/bn
I0424 18:30:10.845932 17103 net.cpp:100] Creating Layer conv3_3/3/bn
I0424 18:30:10.845935 17103 net.cpp:434] conv3_3/3/bn <- conv3_3/3
I0424 18:30:10.845939 17103 net.cpp:395] conv3_3/3/bn -> conv3_3/3 (in-place)
I0424 18:30:10.846083 17103 net.cpp:150] Setting up conv3_3/3/bn
I0424 18:30:10.846088 17103 net.cpp:157] Top shape: 1 128 108 180 (2488320)
I0424 18:30:10.846091 17103 net.cpp:165] Memory required for data: 1434516564
I0424 18:30:10.846094 17103 layer_factory.hpp:77] Creating layer conv3_3/3/bn_scale
I0424 18:30:10.846098 17103 net.cpp:100] Creating Layer conv3_3/3/bn_scale
I0424 18:30:10.846101 17103 net.cpp:434] conv3_3/3/bn_scale <- conv3_3/3
I0424 18:30:10.846104 17103 net.cpp:395] conv3_3/3/bn_scale -> conv3_3/3 (in-place)
I0424 18:30:10.846132 17103 layer_factory.hpp:77] Creating layer conv3_3/3/bn_scale
I0424 18:30:10.846225 17103 net.cpp:150] Setting up conv3_3/3/bn_scale
I0424 18:30:10.846230 17103 net.cpp:157] Top shape: 1 128 108 180 (2488320)
I0424 18:30:10.846231 17103 net.cpp:165] Memory required for data: 1444469844
I0424 18:30:10.846235 17103 layer_factory.hpp:77] Creating layer conv3_3/input
I0424 18:30:10.846240 17103 net.cpp:100] Creating Layer conv3_3/input
I0424 18:30:10.846241 17103 net.cpp:434] conv3_3/input <- conv3_2_conv3_2_0_split_1
I0424 18:30:10.846246 17103 net.cpp:408] conv3_3/input -> conv3_3/input
I0424 18:30:10.846266 17103 net.cpp:150] Setting up conv3_3/input
I0424 18:30:10.846269 17103 net.cpp:157] Top shape: 1 128 108 180 (2488320)
I0424 18:30:10.846271 17103 net.cpp:165] Memory required for data: 1454423124
I0424 18:30:10.846273 17103 layer_factory.hpp:77] Creating layer conv3_3
I0424 18:30:10.846281 17103 net.cpp:100] Creating Layer conv3_3
I0424 18:30:10.846283 17103 net.cpp:434] conv3_3 <- conv3_3/3
I0424 18:30:10.846287 17103 net.cpp:434] conv3_3 <- conv3_3/input
I0424 18:30:10.846289 17103 net.cpp:408] conv3_3 -> conv3_3
I0424 18:30:10.846307 17103 net.cpp:150] Setting up conv3_3
I0424 18:30:10.846312 17103 net.cpp:157] Top shape: 1 128 108 180 (2488320)
I0424 18:30:10.846313 17103 net.cpp:165] Memory required for data: 1464376404
I0424 18:30:10.846315 17103 layer_factory.hpp:77] Creating layer conv3_3_conv3_3_0_split
I0424 18:30:10.846319 17103 net.cpp:100] Creating Layer conv3_3_conv3_3_0_split
I0424 18:30:10.846321 17103 net.cpp:434] conv3_3_conv3_3_0_split <- conv3_3
I0424 18:30:10.846324 17103 net.cpp:408] conv3_3_conv3_3_0_split -> conv3_3_conv3_3_0_split_0
I0424 18:30:10.846328 17103 net.cpp:408] conv3_3_conv3_3_0_split -> conv3_3_conv3_3_0_split_1
I0424 18:30:10.846354 17103 net.cpp:150] Setting up conv3_3_conv3_3_0_split
I0424 18:30:10.846356 17103 net.cpp:157] Top shape: 1 128 108 180 (2488320)
I0424 18:30:10.846359 17103 net.cpp:157] Top shape: 1 128 108 180 (2488320)
I0424 18:30:10.846361 17103 net.cpp:165] Memory required for data: 1484282964
I0424 18:30:10.846364 17103 layer_factory.hpp:77] Creating layer conv3_4/1/conv
I0424 18:30:10.846369 17103 net.cpp:100] Creating Layer conv3_4/1/conv
I0424 18:30:10.846371 17103 net.cpp:434] conv3_4/1/conv <- conv3_3_conv3_3_0_split_0
I0424 18:30:10.846374 17103 net.cpp:408] conv3_4/1/conv -> conv3_4/1
I0424 18:30:10.847856 17103 net.cpp:150] Setting up conv3_4/1/conv
I0424 18:30:10.847865 17103 net.cpp:157] Top shape: 1 48 108 180 (933120)
I0424 18:30:10.847868 17103 net.cpp:165] Memory required for data: 1488015444
I0424 18:30:10.847882 17103 layer_factory.hpp:77] Creating layer conv3_4/1/bn
I0424 18:30:10.847888 17103 net.cpp:100] Creating Layer conv3_4/1/bn
I0424 18:30:10.847892 17103 net.cpp:434] conv3_4/1/bn <- conv3_4/1
I0424 18:30:10.847894 17103 net.cpp:395] conv3_4/1/bn -> conv3_4/1 (in-place)
I0424 18:30:10.848053 17103 net.cpp:150] Setting up conv3_4/1/bn
I0424 18:30:10.848058 17103 net.cpp:157] Top shape: 1 48 108 180 (933120)
I0424 18:30:10.848060 17103 net.cpp:165] Memory required for data: 1491747924
I0424 18:30:10.848065 17103 layer_factory.hpp:77] Creating layer conv3_4/1/bn_scale
I0424 18:30:10.848069 17103 net.cpp:100] Creating Layer conv3_4/1/bn_scale
I0424 18:30:10.848071 17103 net.cpp:434] conv3_4/1/bn_scale <- conv3_4/1
I0424 18:30:10.848075 17103 net.cpp:395] conv3_4/1/bn_scale -> conv3_4/1 (in-place)
I0424 18:30:10.848103 17103 layer_factory.hpp:77] Creating layer conv3_4/1/bn_scale
I0424 18:30:10.848202 17103 net.cpp:150] Setting up conv3_4/1/bn_scale
I0424 18:30:10.848207 17103 net.cpp:157] Top shape: 1 48 108 180 (933120)
I0424 18:30:10.848209 17103 net.cpp:165] Memory required for data: 1495480404
I0424 18:30:10.848212 17103 layer_factory.hpp:77] Creating layer conv3_4/1/relu
I0424 18:30:10.848217 17103 net.cpp:100] Creating Layer conv3_4/1/relu
I0424 18:30:10.848218 17103 net.cpp:434] conv3_4/1/relu <- conv3_4/1
I0424 18:30:10.848222 17103 net.cpp:395] conv3_4/1/relu -> conv3_4/1 (in-place)
I0424 18:30:10.848346 17103 net.cpp:150] Setting up conv3_4/1/relu
I0424 18:30:10.848352 17103 net.cpp:157] Top shape: 1 48 108 180 (933120)
I0424 18:30:10.848354 17103 net.cpp:165] Memory required for data: 1499212884
I0424 18:30:10.848356 17103 layer_factory.hpp:77] Creating layer conv3_4/2/conv
I0424 18:30:10.848362 17103 net.cpp:100] Creating Layer conv3_4/2/conv
I0424 18:30:10.848364 17103 net.cpp:434] conv3_4/2/conv <- conv3_4/1
I0424 18:30:10.848369 17103 net.cpp:408] conv3_4/2/conv -> conv3_4/2/conv
I0424 18:30:10.849599 17103 net.cpp:150] Setting up conv3_4/2/conv
I0424 18:30:10.849608 17103 net.cpp:157] Top shape: 1 48 108 180 (933120)
I0424 18:30:10.849611 17103 net.cpp:165] Memory required for data: 1502945364
I0424 18:30:10.849614 17103 layer_factory.hpp:77] Creating layer conv3_4/2/bn
I0424 18:30:10.849618 17103 net.cpp:100] Creating Layer conv3_4/2/bn
I0424 18:30:10.849620 17103 net.cpp:434] conv3_4/2/bn <- conv3_4/2/conv
I0424 18:30:10.849628 17103 net.cpp:395] conv3_4/2/bn -> conv3_4/2/conv (in-place)
I0424 18:30:10.849781 17103 net.cpp:150] Setting up conv3_4/2/bn
I0424 18:30:10.849786 17103 net.cpp:157] Top shape: 1 48 108 180 (933120)
I0424 18:30:10.849788 17103 net.cpp:165] Memory required for data: 1506677844
I0424 18:30:10.849793 17103 layer_factory.hpp:77] Creating layer conv3_4/2/conv_conv3_4/2/bn_0_split
I0424 18:30:10.849797 17103 net.cpp:100] Creating Layer conv3_4/2/conv_conv3_4/2/bn_0_split
I0424 18:30:10.849799 17103 net.cpp:434] conv3_4/2/conv_conv3_4/2/bn_0_split <- conv3_4/2/conv
I0424 18:30:10.849803 17103 net.cpp:408] conv3_4/2/conv_conv3_4/2/bn_0_split -> conv3_4/2/conv_conv3_4/2/bn_0_split_0
I0424 18:30:10.849808 17103 net.cpp:408] conv3_4/2/conv_conv3_4/2/bn_0_split -> conv3_4/2/conv_conv3_4/2/bn_0_split_1
I0424 18:30:10.849833 17103 net.cpp:150] Setting up conv3_4/2/conv_conv3_4/2/bn_0_split
I0424 18:30:10.849838 17103 net.cpp:157] Top shape: 1 48 108 180 (933120)
I0424 18:30:10.849840 17103 net.cpp:157] Top shape: 1 48 108 180 (933120)
I0424 18:30:10.849843 17103 net.cpp:165] Memory required for data: 1514142804
I0424 18:30:10.849844 17103 layer_factory.hpp:77] Creating layer conv3_4/2/neg
I0424 18:30:10.849849 17103 net.cpp:100] Creating Layer conv3_4/2/neg
I0424 18:30:10.849853 17103 net.cpp:434] conv3_4/2/neg <- conv3_4/2/conv_conv3_4/2/bn_0_split_0
I0424 18:30:10.849855 17103 net.cpp:408] conv3_4/2/neg -> conv3_4/2/neg
I0424 18:30:10.849872 17103 net.cpp:150] Setting up conv3_4/2/neg
I0424 18:30:10.849876 17103 net.cpp:157] Top shape: 1 48 108 180 (933120)
I0424 18:30:10.849879 17103 net.cpp:165] Memory required for data: 1517875284
I0424 18:30:10.849880 17103 layer_factory.hpp:77] Creating layer conv3_4/2/concat
I0424 18:30:10.849885 17103 net.cpp:100] Creating Layer conv3_4/2/concat
I0424 18:30:10.849887 17103 net.cpp:434] conv3_4/2/concat <- conv3_4/2/conv_conv3_4/2/bn_0_split_1
I0424 18:30:10.849890 17103 net.cpp:434] conv3_4/2/concat <- conv3_4/2/neg
I0424 18:30:10.849894 17103 net.cpp:408] conv3_4/2/concat -> conv3_4/2
I0424 18:30:10.849910 17103 net.cpp:150] Setting up conv3_4/2/concat
I0424 18:30:10.849915 17103 net.cpp:157] Top shape: 1 96 108 180 (1866240)
I0424 18:30:10.849916 17103 net.cpp:165] Memory required for data: 1525340244
I0424 18:30:10.849918 17103 layer_factory.hpp:77] Creating layer conv3_4/2/scale
I0424 18:30:10.849932 17103 net.cpp:100] Creating Layer conv3_4/2/scale
I0424 18:30:10.849934 17103 net.cpp:434] conv3_4/2/scale <- conv3_4/2
I0424 18:30:10.849938 17103 net.cpp:395] conv3_4/2/scale -> conv3_4/2 (in-place)
I0424 18:30:10.849967 17103 layer_factory.hpp:77] Creating layer conv3_4/2/scale
I0424 18:30:10.850309 17103 net.cpp:150] Setting up conv3_4/2/scale
I0424 18:30:10.850317 17103 net.cpp:157] Top shape: 1 96 108 180 (1866240)
I0424 18:30:10.850319 17103 net.cpp:165] Memory required for data: 1532805204
I0424 18:30:10.850324 17103 layer_factory.hpp:77] Creating layer conv3_4/2/relu
I0424 18:30:10.850328 17103 net.cpp:100] Creating Layer conv3_4/2/relu
I0424 18:30:10.850330 17103 net.cpp:434] conv3_4/2/relu <- conv3_4/2
I0424 18:30:10.850334 17103 net.cpp:395] conv3_4/2/relu -> conv3_4/2 (in-place)
I0424 18:30:10.850780 17103 net.cpp:150] Setting up conv3_4/2/relu
I0424 18:30:10.850788 17103 net.cpp:157] Top shape: 1 96 108 180 (1866240)
I0424 18:30:10.850790 17103 net.cpp:165] Memory required for data: 1540270164
I0424 18:30:10.850793 17103 layer_factory.hpp:77] Creating layer conv3_4/3/conv
I0424 18:30:10.850800 17103 net.cpp:100] Creating Layer conv3_4/3/conv
I0424 18:30:10.850802 17103 net.cpp:434] conv3_4/3/conv <- conv3_4/2
I0424 18:30:10.850807 17103 net.cpp:408] conv3_4/3/conv -> conv3_4/3
I0424 18:30:10.852331 17103 net.cpp:150] Setting up conv3_4/3/conv
I0424 18:30:10.852341 17103 net.cpp:157] Top shape: 1 128 108 180 (2488320)
I0424 18:30:10.852344 17103 net.cpp:165] Memory required for data: 1550223444
I0424 18:30:10.852347 17103 layer_factory.hpp:77] Creating layer conv3_4/3/bn
I0424 18:30:10.852352 17103 net.cpp:100] Creating Layer conv3_4/3/bn
I0424 18:30:10.852358 17103 net.cpp:434] conv3_4/3/bn <- conv3_4/3
I0424 18:30:10.852362 17103 net.cpp:395] conv3_4/3/bn -> conv3_4/3 (in-place)
I0424 18:30:10.852514 17103 net.cpp:150] Setting up conv3_4/3/bn
I0424 18:30:10.852519 17103 net.cpp:157] Top shape: 1 128 108 180 (2488320)
I0424 18:30:10.852520 17103 net.cpp:165] Memory required for data: 1560176724
I0424 18:30:10.852524 17103 layer_factory.hpp:77] Creating layer conv3_4/3/bn_scale
I0424 18:30:10.852537 17103 net.cpp:100] Creating Layer conv3_4/3/bn_scale
I0424 18:30:10.852540 17103 net.cpp:434] conv3_4/3/bn_scale <- conv3_4/3
I0424 18:30:10.852543 17103 net.cpp:395] conv3_4/3/bn_scale -> conv3_4/3 (in-place)
I0424 18:30:10.852572 17103 layer_factory.hpp:77] Creating layer conv3_4/3/bn_scale
I0424 18:30:10.852670 17103 net.cpp:150] Setting up conv3_4/3/bn_scale
I0424 18:30:10.852675 17103 net.cpp:157] Top shape: 1 128 108 180 (2488320)
I0424 18:30:10.852677 17103 net.cpp:165] Memory required for data: 1570130004
I0424 18:30:10.852681 17103 layer_factory.hpp:77] Creating layer conv3_4/input
I0424 18:30:10.852685 17103 net.cpp:100] Creating Layer conv3_4/input
I0424 18:30:10.852689 17103 net.cpp:434] conv3_4/input <- conv3_3_conv3_3_0_split_1
I0424 18:30:10.852692 17103 net.cpp:408] conv3_4/input -> conv3_4/input
I0424 18:30:10.852711 17103 net.cpp:150] Setting up conv3_4/input
I0424 18:30:10.852715 17103 net.cpp:157] Top shape: 1 128 108 180 (2488320)
I0424 18:30:10.852717 17103 net.cpp:165] Memory required for data: 1580083284
I0424 18:30:10.852720 17103 layer_factory.hpp:77] Creating layer conv3_4
I0424 18:30:10.852725 17103 net.cpp:100] Creating Layer conv3_4
I0424 18:30:10.852726 17103 net.cpp:434] conv3_4 <- conv3_4/3
I0424 18:30:10.852730 17103 net.cpp:434] conv3_4 <- conv3_4/input
I0424 18:30:10.852733 17103 net.cpp:408] conv3_4 -> conv3_4
I0424 18:30:10.852751 17103 net.cpp:150] Setting up conv3_4
I0424 18:30:10.852754 17103 net.cpp:157] Top shape: 1 128 108 180 (2488320)
I0424 18:30:10.852756 17103 net.cpp:165] Memory required for data: 1590036564
I0424 18:30:10.852758 17103 layer_factory.hpp:77] Creating layer conv3_4_conv3_4_0_split
I0424 18:30:10.852763 17103 net.cpp:100] Creating Layer conv3_4_conv3_4_0_split
I0424 18:30:10.852766 17103 net.cpp:434] conv3_4_conv3_4_0_split <- conv3_4
I0424 18:30:10.852769 17103 net.cpp:408] conv3_4_conv3_4_0_split -> conv3_4_conv3_4_0_split_0
I0424 18:30:10.852774 17103 net.cpp:408] conv3_4_conv3_4_0_split -> conv3_4_conv3_4_0_split_1
I0424 18:30:10.852778 17103 net.cpp:408] conv3_4_conv3_4_0_split -> conv3_4_conv3_4_0_split_2
I0424 18:30:10.852782 17103 net.cpp:408] conv3_4_conv3_4_0_split -> conv3_4_conv3_4_0_split_3
I0424 18:30:10.852787 17103 net.cpp:408] conv3_4_conv3_4_0_split -> conv3_4_conv3_4_0_split_4
I0424 18:30:10.852792 17103 net.cpp:408] conv3_4_conv3_4_0_split -> conv3_4_conv3_4_0_split_5
I0424 18:30:10.852852 17103 net.cpp:150] Setting up conv3_4_conv3_4_0_split
I0424 18:30:10.852856 17103 net.cpp:157] Top shape: 1 128 108 180 (2488320)
I0424 18:30:10.852859 17103 net.cpp:157] Top shape: 1 128 108 180 (2488320)
I0424 18:30:10.852861 17103 net.cpp:157] Top shape: 1 128 108 180 (2488320)
I0424 18:30:10.852864 17103 net.cpp:157] Top shape: 1 128 108 180 (2488320)
I0424 18:30:10.852867 17103 net.cpp:157] Top shape: 1 128 108 180 (2488320)
I0424 18:30:10.852869 17103 net.cpp:157] Top shape: 1 128 108 180 (2488320)
I0424 18:30:10.852871 17103 net.cpp:165] Memory required for data: 1649756244
I0424 18:30:10.852874 17103 layer_factory.hpp:77] Creating layer conv4_1/incep/0/conv
I0424 18:30:10.852880 17103 net.cpp:100] Creating Layer conv4_1/incep/0/conv
I0424 18:30:10.852881 17103 net.cpp:434] conv4_1/incep/0/conv <- conv3_4_conv3_4_0_split_0
I0424 18:30:10.852885 17103 net.cpp:408] conv4_1/incep/0/conv -> conv4_1/incep/0
I0424 18:30:10.854096 17103 net.cpp:150] Setting up conv4_1/incep/0/conv
I0424 18:30:10.854104 17103 net.cpp:157] Top shape: 1 64 54 90 (311040)
I0424 18:30:10.854107 17103 net.cpp:165] Memory required for data: 1651000404
I0424 18:30:10.854110 17103 layer_factory.hpp:77] Creating layer conv4_1/incep/0/bn
I0424 18:30:10.854118 17103 net.cpp:100] Creating Layer conv4_1/incep/0/bn
I0424 18:30:10.854121 17103 net.cpp:434] conv4_1/incep/0/bn <- conv4_1/incep/0
I0424 18:30:10.854126 17103 net.cpp:395] conv4_1/incep/0/bn -> conv4_1/incep/0 (in-place)
I0424 18:30:10.854279 17103 net.cpp:150] Setting up conv4_1/incep/0/bn
I0424 18:30:10.854284 17103 net.cpp:157] Top shape: 1 64 54 90 (311040)
I0424 18:30:10.854286 17103 net.cpp:165] Memory required for data: 1652244564
I0424 18:30:10.854290 17103 layer_factory.hpp:77] Creating layer conv4_1/incep/0/bn_scale
I0424 18:30:10.854295 17103 net.cpp:100] Creating Layer conv4_1/incep/0/bn_scale
I0424 18:30:10.854297 17103 net.cpp:434] conv4_1/incep/0/bn_scale <- conv4_1/incep/0
I0424 18:30:10.854300 17103 net.cpp:395] conv4_1/incep/0/bn_scale -> conv4_1/incep/0 (in-place)
I0424 18:30:10.854329 17103 layer_factory.hpp:77] Creating layer conv4_1/incep/0/bn_scale
I0424 18:30:10.854418 17103 net.cpp:150] Setting up conv4_1/incep/0/bn_scale
I0424 18:30:10.854423 17103 net.cpp:157] Top shape: 1 64 54 90 (311040)
I0424 18:30:10.854425 17103 net.cpp:165] Memory required for data: 1653488724
I0424 18:30:10.854429 17103 layer_factory.hpp:77] Creating layer conv4_1/incep/0/relu
I0424 18:30:10.854432 17103 net.cpp:100] Creating Layer conv4_1/incep/0/relu
I0424 18:30:10.854434 17103 net.cpp:434] conv4_1/incep/0/relu <- conv4_1/incep/0
I0424 18:30:10.854437 17103 net.cpp:395] conv4_1/incep/0/relu -> conv4_1/incep/0 (in-place)
I0424 18:30:10.854887 17103 net.cpp:150] Setting up conv4_1/incep/0/relu
I0424 18:30:10.854894 17103 net.cpp:157] Top shape: 1 64 54 90 (311040)
I0424 18:30:10.854897 17103 net.cpp:165] Memory required for data: 1654732884
I0424 18:30:10.854899 17103 layer_factory.hpp:77] Creating layer conv4_1/incep/1_reduce/conv
I0424 18:30:10.854907 17103 net.cpp:100] Creating Layer conv4_1/incep/1_reduce/conv
I0424 18:30:10.854909 17103 net.cpp:434] conv4_1/incep/1_reduce/conv <- conv3_4_conv3_4_0_split_1
I0424 18:30:10.854913 17103 net.cpp:408] conv4_1/incep/1_reduce/conv -> conv4_1/incep/1_reduce
I0424 18:30:10.856112 17103 net.cpp:150] Setting up conv4_1/incep/1_reduce/conv
I0424 18:30:10.856120 17103 net.cpp:157] Top shape: 1 48 54 90 (233280)
I0424 18:30:10.856123 17103 net.cpp:165] Memory required for data: 1655666004
I0424 18:30:10.856127 17103 layer_factory.hpp:77] Creating layer conv4_1/incep/1_reduce/bn
I0424 18:30:10.856132 17103 net.cpp:100] Creating Layer conv4_1/incep/1_reduce/bn
I0424 18:30:10.856134 17103 net.cpp:434] conv4_1/incep/1_reduce/bn <- conv4_1/incep/1_reduce
I0424 18:30:10.856138 17103 net.cpp:395] conv4_1/incep/1_reduce/bn -> conv4_1/incep/1_reduce (in-place)
I0424 18:30:10.856287 17103 net.cpp:150] Setting up conv4_1/incep/1_reduce/bn
I0424 18:30:10.856292 17103 net.cpp:157] Top shape: 1 48 54 90 (233280)
I0424 18:30:10.856293 17103 net.cpp:165] Memory required for data: 1656599124
I0424 18:30:10.856298 17103 layer_factory.hpp:77] Creating layer conv4_1/incep/1_reduce/bn_scale
I0424 18:30:10.856303 17103 net.cpp:100] Creating Layer conv4_1/incep/1_reduce/bn_scale
I0424 18:30:10.856305 17103 net.cpp:434] conv4_1/incep/1_reduce/bn_scale <- conv4_1/incep/1_reduce
I0424 18:30:10.856308 17103 net.cpp:395] conv4_1/incep/1_reduce/bn_scale -> conv4_1/incep/1_reduce (in-place)
I0424 18:30:10.856338 17103 layer_factory.hpp:77] Creating layer conv4_1/incep/1_reduce/bn_scale
I0424 18:30:10.856431 17103 net.cpp:150] Setting up conv4_1/incep/1_reduce/bn_scale
I0424 18:30:10.856436 17103 net.cpp:157] Top shape: 1 48 54 90 (233280)
I0424 18:30:10.856437 17103 net.cpp:165] Memory required for data: 1657532244
I0424 18:30:10.856441 17103 layer_factory.hpp:77] Creating layer conv4_1/incep/1_reduce/relu
I0424 18:30:10.856446 17103 net.cpp:100] Creating Layer conv4_1/incep/1_reduce/relu
I0424 18:30:10.856447 17103 net.cpp:434] conv4_1/incep/1_reduce/relu <- conv4_1/incep/1_reduce
I0424 18:30:10.856451 17103 net.cpp:395] conv4_1/incep/1_reduce/relu -> conv4_1/incep/1_reduce (in-place)
I0424 18:30:10.856570 17103 net.cpp:150] Setting up conv4_1/incep/1_reduce/relu
I0424 18:30:10.856578 17103 net.cpp:157] Top shape: 1 48 54 90 (233280)
I0424 18:30:10.856580 17103 net.cpp:165] Memory required for data: 1658465364
I0424 18:30:10.856582 17103 layer_factory.hpp:77] Creating layer conv4_1/incep/1_0/conv
I0424 18:30:10.856590 17103 net.cpp:100] Creating Layer conv4_1/incep/1_0/conv
I0424 18:30:10.856591 17103 net.cpp:434] conv4_1/incep/1_0/conv <- conv4_1/incep/1_reduce
I0424 18:30:10.856596 17103 net.cpp:408] conv4_1/incep/1_0/conv -> conv4_1/incep/1_0
I0424 18:30:10.858299 17103 net.cpp:150] Setting up conv4_1/incep/1_0/conv
I0424 18:30:10.858307 17103 net.cpp:157] Top shape: 1 128 54 90 (622080)
I0424 18:30:10.858309 17103 net.cpp:165] Memory required for data: 1660953684
I0424 18:30:10.858314 17103 layer_factory.hpp:77] Creating layer conv4_1/incep/1_0/bn
I0424 18:30:10.858319 17103 net.cpp:100] Creating Layer conv4_1/incep/1_0/bn
I0424 18:30:10.858321 17103 net.cpp:434] conv4_1/incep/1_0/bn <- conv4_1/incep/1_0
I0424 18:30:10.858325 17103 net.cpp:395] conv4_1/incep/1_0/bn -> conv4_1/incep/1_0 (in-place)
I0424 18:30:10.858470 17103 net.cpp:150] Setting up conv4_1/incep/1_0/bn
I0424 18:30:10.858475 17103 net.cpp:157] Top shape: 1 128 54 90 (622080)
I0424 18:30:10.858477 17103 net.cpp:165] Memory required for data: 1663442004
I0424 18:30:10.858482 17103 layer_factory.hpp:77] Creating layer conv4_1/incep/1_0/bn_scale
I0424 18:30:10.858486 17103 net.cpp:100] Creating Layer conv4_1/incep/1_0/bn_scale
I0424 18:30:10.858489 17103 net.cpp:434] conv4_1/incep/1_0/bn_scale <- conv4_1/incep/1_0
I0424 18:30:10.858494 17103 net.cpp:395] conv4_1/incep/1_0/bn_scale -> conv4_1/incep/1_0 (in-place)
I0424 18:30:10.858523 17103 layer_factory.hpp:77] Creating layer conv4_1/incep/1_0/bn_scale
I0424 18:30:10.858609 17103 net.cpp:150] Setting up conv4_1/incep/1_0/bn_scale
I0424 18:30:10.858613 17103 net.cpp:157] Top shape: 1 128 54 90 (622080)
I0424 18:30:10.858616 17103 net.cpp:165] Memory required for data: 1665930324
I0424 18:30:10.858619 17103 layer_factory.hpp:77] Creating layer conv4_1/incep/1_0/relu
I0424 18:30:10.858623 17103 net.cpp:100] Creating Layer conv4_1/incep/1_0/relu
I0424 18:30:10.858625 17103 net.cpp:434] conv4_1/incep/1_0/relu <- conv4_1/incep/1_0
I0424 18:30:10.858629 17103 net.cpp:395] conv4_1/incep/1_0/relu -> conv4_1/incep/1_0 (in-place)
I0424 18:30:10.859077 17103 net.cpp:150] Setting up conv4_1/incep/1_0/relu
I0424 18:30:10.859086 17103 net.cpp:157] Top shape: 1 128 54 90 (622080)
I0424 18:30:10.859087 17103 net.cpp:165] Memory required for data: 1668418644
I0424 18:30:10.859089 17103 layer_factory.hpp:77] Creating layer conv4_1/incep/2_reduce/conv
I0424 18:30:10.859097 17103 net.cpp:100] Creating Layer conv4_1/incep/2_reduce/conv
I0424 18:30:10.859099 17103 net.cpp:434] conv4_1/incep/2_reduce/conv <- conv3_4_conv3_4_0_split_2
I0424 18:30:10.859104 17103 net.cpp:408] conv4_1/incep/2_reduce/conv -> conv4_1/incep/2_reduce
I0424 18:30:10.859979 17103 net.cpp:150] Setting up conv4_1/incep/2_reduce/conv
I0424 18:30:10.859989 17103 net.cpp:157] Top shape: 1 24 54 90 (116640)
I0424 18:30:10.859992 17103 net.cpp:165] Memory required for data: 1668885204
I0424 18:30:10.859995 17103 layer_factory.hpp:77] Creating layer conv4_1/incep/2_reduce/bn
I0424 18:30:10.859999 17103 net.cpp:100] Creating Layer conv4_1/incep/2_reduce/bn
I0424 18:30:10.860002 17103 net.cpp:434] conv4_1/incep/2_reduce/bn <- conv4_1/incep/2_reduce
I0424 18:30:10.860008 17103 net.cpp:395] conv4_1/incep/2_reduce/bn -> conv4_1/incep/2_reduce (in-place)
I0424 18:30:10.860165 17103 net.cpp:150] Setting up conv4_1/incep/2_reduce/bn
I0424 18:30:10.860170 17103 net.cpp:157] Top shape: 1 24 54 90 (116640)
I0424 18:30:10.860172 17103 net.cpp:165] Memory required for data: 1669351764
I0424 18:30:10.860177 17103 layer_factory.hpp:77] Creating layer conv4_1/incep/2_reduce/bn_scale
I0424 18:30:10.860182 17103 net.cpp:100] Creating Layer conv4_1/incep/2_reduce/bn_scale
I0424 18:30:10.860183 17103 net.cpp:434] conv4_1/incep/2_reduce/bn_scale <- conv4_1/incep/2_reduce
I0424 18:30:10.860188 17103 net.cpp:395] conv4_1/incep/2_reduce/bn_scale -> conv4_1/incep/2_reduce (in-place)
I0424 18:30:10.860220 17103 layer_factory.hpp:77] Creating layer conv4_1/incep/2_reduce/bn_scale
I0424 18:30:10.860313 17103 net.cpp:150] Setting up conv4_1/incep/2_reduce/bn_scale
I0424 18:30:10.860318 17103 net.cpp:157] Top shape: 1 24 54 90 (116640)
I0424 18:30:10.860321 17103 net.cpp:165] Memory required for data: 1669818324
I0424 18:30:10.860324 17103 layer_factory.hpp:77] Creating layer conv4_1/incep/2_reduce/relu
I0424 18:30:10.860328 17103 net.cpp:100] Creating Layer conv4_1/incep/2_reduce/relu
I0424 18:30:10.860332 17103 net.cpp:434] conv4_1/incep/2_reduce/relu <- conv4_1/incep/2_reduce
I0424 18:30:10.860334 17103 net.cpp:395] conv4_1/incep/2_reduce/relu -> conv4_1/incep/2_reduce (in-place)
I0424 18:30:10.860781 17103 net.cpp:150] Setting up conv4_1/incep/2_reduce/relu
I0424 18:30:10.860790 17103 net.cpp:157] Top shape: 1 24 54 90 (116640)
I0424 18:30:10.860793 17103 net.cpp:165] Memory required for data: 1670284884
I0424 18:30:10.860795 17103 layer_factory.hpp:77] Creating layer conv4_1/incep/2_0/conv
I0424 18:30:10.860801 17103 net.cpp:100] Creating Layer conv4_1/incep/2_0/conv
I0424 18:30:10.860803 17103 net.cpp:434] conv4_1/incep/2_0/conv <- conv4_1/incep/2_reduce
I0424 18:30:10.860808 17103 net.cpp:408] conv4_1/incep/2_0/conv -> conv4_1/incep/2_0
I0424 18:30:10.862013 17103 net.cpp:150] Setting up conv4_1/incep/2_0/conv
I0424 18:30:10.862022 17103 net.cpp:157] Top shape: 1 48 54 90 (233280)
I0424 18:30:10.862025 17103 net.cpp:165] Memory required for data: 1671218004
I0424 18:30:10.862028 17103 layer_factory.hpp:77] Creating layer conv4_1/incep/2_0/bn
I0424 18:30:10.862033 17103 net.cpp:100] Creating Layer conv4_1/incep/2_0/bn
I0424 18:30:10.862036 17103 net.cpp:434] conv4_1/incep/2_0/bn <- conv4_1/incep/2_0
I0424 18:30:10.862040 17103 net.cpp:395] conv4_1/incep/2_0/bn -> conv4_1/incep/2_0 (in-place)
I0424 18:30:10.862192 17103 net.cpp:150] Setting up conv4_1/incep/2_0/bn
I0424 18:30:10.862197 17103 net.cpp:157] Top shape: 1 48 54 90 (233280)
I0424 18:30:10.862200 17103 net.cpp:165] Memory required for data: 1672151124
I0424 18:30:10.862203 17103 layer_factory.hpp:77] Creating layer conv4_1/incep/2_0/bn_scale
I0424 18:30:10.862207 17103 net.cpp:100] Creating Layer conv4_1/incep/2_0/bn_scale
I0424 18:30:10.862210 17103 net.cpp:434] conv4_1/incep/2_0/bn_scale <- conv4_1/incep/2_0
I0424 18:30:10.862215 17103 net.cpp:395] conv4_1/incep/2_0/bn_scale -> conv4_1/incep/2_0 (in-place)
I0424 18:30:10.862243 17103 layer_factory.hpp:77] Creating layer conv4_1/incep/2_0/bn_scale
I0424 18:30:10.862335 17103 net.cpp:150] Setting up conv4_1/incep/2_0/bn_scale
I0424 18:30:10.862340 17103 net.cpp:157] Top shape: 1 48 54 90 (233280)
I0424 18:30:10.862342 17103 net.cpp:165] Memory required for data: 1673084244
I0424 18:30:10.862346 17103 layer_factory.hpp:77] Creating layer conv4_1/incep/2_0/relu
I0424 18:30:10.862350 17103 net.cpp:100] Creating Layer conv4_1/incep/2_0/relu
I0424 18:30:10.862352 17103 net.cpp:434] conv4_1/incep/2_0/relu <- conv4_1/incep/2_0
I0424 18:30:10.862356 17103 net.cpp:395] conv4_1/incep/2_0/relu -> conv4_1/incep/2_0 (in-place)
I0424 18:30:10.862476 17103 net.cpp:150] Setting up conv4_1/incep/2_0/relu
I0424 18:30:10.862483 17103 net.cpp:157] Top shape: 1 48 54 90 (233280)
I0424 18:30:10.862484 17103 net.cpp:165] Memory required for data: 1674017364
I0424 18:30:10.862486 17103 layer_factory.hpp:77] Creating layer conv4_1/incep/2_1/conv
I0424 18:30:10.862493 17103 net.cpp:100] Creating Layer conv4_1/incep/2_1/conv
I0424 18:30:10.862496 17103 net.cpp:434] conv4_1/incep/2_1/conv <- conv4_1/incep/2_0
I0424 18:30:10.862501 17103 net.cpp:408] conv4_1/incep/2_1/conv -> conv4_1/incep/2_1
I0424 18:30:10.863790 17103 net.cpp:150] Setting up conv4_1/incep/2_1/conv
I0424 18:30:10.863800 17103 net.cpp:157] Top shape: 1 48 54 90 (233280)
I0424 18:30:10.863802 17103 net.cpp:165] Memory required for data: 1674950484
I0424 18:30:10.863806 17103 layer_factory.hpp:77] Creating layer conv4_1/incep/2_1/bn
I0424 18:30:10.863811 17103 net.cpp:100] Creating Layer conv4_1/incep/2_1/bn
I0424 18:30:10.863813 17103 net.cpp:434] conv4_1/incep/2_1/bn <- conv4_1/incep/2_1
I0424 18:30:10.863821 17103 net.cpp:395] conv4_1/incep/2_1/bn -> conv4_1/incep/2_1 (in-place)
I0424 18:30:10.863976 17103 net.cpp:150] Setting up conv4_1/incep/2_1/bn
I0424 18:30:10.863981 17103 net.cpp:157] Top shape: 1 48 54 90 (233280)
I0424 18:30:10.863982 17103 net.cpp:165] Memory required for data: 1675883604
I0424 18:30:10.863986 17103 layer_factory.hpp:77] Creating layer conv4_1/incep/2_1/bn_scale
I0424 18:30:10.863991 17103 net.cpp:100] Creating Layer conv4_1/incep/2_1/bn_scale
I0424 18:30:10.863994 17103 net.cpp:434] conv4_1/incep/2_1/bn_scale <- conv4_1/incep/2_1
I0424 18:30:10.863997 17103 net.cpp:395] conv4_1/incep/2_1/bn_scale -> conv4_1/incep/2_1 (in-place)
I0424 18:30:10.864029 17103 layer_factory.hpp:77] Creating layer conv4_1/incep/2_1/bn_scale
I0424 18:30:10.864123 17103 net.cpp:150] Setting up conv4_1/incep/2_1/bn_scale
I0424 18:30:10.864128 17103 net.cpp:157] Top shape: 1 48 54 90 (233280)
I0424 18:30:10.864130 17103 net.cpp:165] Memory required for data: 1676816724
I0424 18:30:10.864133 17103 layer_factory.hpp:77] Creating layer conv4_1/incep/2_1/relu
I0424 18:30:10.864138 17103 net.cpp:100] Creating Layer conv4_1/incep/2_1/relu
I0424 18:30:10.864140 17103 net.cpp:434] conv4_1/incep/2_1/relu <- conv4_1/incep/2_1
I0424 18:30:10.864145 17103 net.cpp:395] conv4_1/incep/2_1/relu -> conv4_1/incep/2_1 (in-place)
I0424 18:30:10.864590 17103 net.cpp:150] Setting up conv4_1/incep/2_1/relu
I0424 18:30:10.864598 17103 net.cpp:157] Top shape: 1 48 54 90 (233280)
I0424 18:30:10.864600 17103 net.cpp:165] Memory required for data: 1677749844
I0424 18:30:10.864603 17103 layer_factory.hpp:77] Creating layer conv4_1/incep/pool
I0424 18:30:10.864609 17103 net.cpp:100] Creating Layer conv4_1/incep/pool
I0424 18:30:10.864610 17103 net.cpp:434] conv4_1/incep/pool <- conv3_4_conv3_4_0_split_3
I0424 18:30:10.864615 17103 net.cpp:408] conv4_1/incep/pool -> conv4_1/incep/pool
I0424 18:30:10.864652 17103 net.cpp:150] Setting up conv4_1/incep/pool
I0424 18:30:10.864656 17103 net.cpp:157] Top shape: 1 128 54 90 (622080)
I0424 18:30:10.864658 17103 net.cpp:165] Memory required for data: 1680238164
I0424 18:30:10.864660 17103 layer_factory.hpp:77] Creating layer conv4_1/incep/poolproj/conv
I0424 18:30:10.864667 17103 net.cpp:100] Creating Layer conv4_1/incep/poolproj/conv
I0424 18:30:10.864670 17103 net.cpp:434] conv4_1/incep/poolproj/conv <- conv4_1/incep/pool
I0424 18:30:10.864675 17103 net.cpp:408] conv4_1/incep/poolproj/conv -> conv4_1/incep/poolproj
I0424 18:30:10.865582 17103 net.cpp:150] Setting up conv4_1/incep/poolproj/conv
I0424 18:30:10.865592 17103 net.cpp:157] Top shape: 1 128 54 90 (622080)
I0424 18:30:10.865593 17103 net.cpp:165] Memory required for data: 1682726484
I0424 18:30:10.865597 17103 layer_factory.hpp:77] Creating layer conv4_1/incep/poolproj/bn
I0424 18:30:10.865602 17103 net.cpp:100] Creating Layer conv4_1/incep/poolproj/bn
I0424 18:30:10.865605 17103 net.cpp:434] conv4_1/incep/poolproj/bn <- conv4_1/incep/poolproj
I0424 18:30:10.865610 17103 net.cpp:395] conv4_1/incep/poolproj/bn -> conv4_1/incep/poolproj (in-place)
I0424 18:30:10.865758 17103 net.cpp:150] Setting up conv4_1/incep/poolproj/bn
I0424 18:30:10.865763 17103 net.cpp:157] Top shape: 1 128 54 90 (622080)
I0424 18:30:10.865766 17103 net.cpp:165] Memory required for data: 1685214804
I0424 18:30:10.865769 17103 layer_factory.hpp:77] Creating layer conv4_1/incep/poolproj/bn_scale
I0424 18:30:10.865774 17103 net.cpp:100] Creating Layer conv4_1/incep/poolproj/bn_scale
I0424 18:30:10.865777 17103 net.cpp:434] conv4_1/incep/poolproj/bn_scale <- conv4_1/incep/poolproj
I0424 18:30:10.865780 17103 net.cpp:395] conv4_1/incep/poolproj/bn_scale -> conv4_1/incep/poolproj (in-place)
I0424 18:30:10.865809 17103 layer_factory.hpp:77] Creating layer conv4_1/incep/poolproj/bn_scale
I0424 18:30:10.865897 17103 net.cpp:150] Setting up conv4_1/incep/poolproj/bn_scale
I0424 18:30:10.865901 17103 net.cpp:157] Top shape: 1 128 54 90 (622080)
I0424 18:30:10.865903 17103 net.cpp:165] Memory required for data: 1687703124
I0424 18:30:10.865911 17103 layer_factory.hpp:77] Creating layer conv4_1/incep/poolproj/relu
I0424 18:30:10.865914 17103 net.cpp:100] Creating Layer conv4_1/incep/poolproj/relu
I0424 18:30:10.865916 17103 net.cpp:434] conv4_1/incep/poolproj/relu <- conv4_1/incep/poolproj
I0424 18:30:10.865921 17103 net.cpp:395] conv4_1/incep/poolproj/relu -> conv4_1/incep/poolproj (in-place)
I0424 18:30:10.866369 17103 net.cpp:150] Setting up conv4_1/incep/poolproj/relu
I0424 18:30:10.866377 17103 net.cpp:157] Top shape: 1 128 54 90 (622080)
I0424 18:30:10.866379 17103 net.cpp:165] Memory required for data: 1690191444
I0424 18:30:10.866381 17103 layer_factory.hpp:77] Creating layer conv4_1/incep
I0424 18:30:10.866385 17103 net.cpp:100] Creating Layer conv4_1/incep
I0424 18:30:10.866389 17103 net.cpp:434] conv4_1/incep <- conv4_1/incep/0
I0424 18:30:10.866391 17103 net.cpp:434] conv4_1/incep <- conv4_1/incep/1_0
I0424 18:30:10.866394 17103 net.cpp:434] conv4_1/incep <- conv4_1/incep/2_1
I0424 18:30:10.866397 17103 net.cpp:434] conv4_1/incep <- conv4_1/incep/poolproj
I0424 18:30:10.866401 17103 net.cpp:408] conv4_1/incep -> conv4_1/incep
I0424 18:30:10.866425 17103 net.cpp:150] Setting up conv4_1/incep
I0424 18:30:10.866430 17103 net.cpp:157] Top shape: 1 368 54 90 (1788480)
I0424 18:30:10.866431 17103 net.cpp:165] Memory required for data: 1697345364
I0424 18:30:10.866433 17103 layer_factory.hpp:77] Creating layer conv4_1/out/conv
I0424 18:30:10.866438 17103 net.cpp:100] Creating Layer conv4_1/out/conv
I0424 18:30:10.866441 17103 net.cpp:434] conv4_1/out/conv <- conv4_1/incep
I0424 18:30:10.866446 17103 net.cpp:408] conv4_1/out/conv -> conv4_1/out
I0424 18:30:10.868093 17103 net.cpp:150] Setting up conv4_1/out/conv
I0424 18:30:10.868101 17103 net.cpp:157] Top shape: 1 256 54 90 (1244160)
I0424 18:30:10.868103 17103 net.cpp:165] Memory required for data: 1702322004
I0424 18:30:10.868108 17103 layer_factory.hpp:77] Creating layer conv4_1/out/bn
I0424 18:30:10.868113 17103 net.cpp:100] Creating Layer conv4_1/out/bn
I0424 18:30:10.868114 17103 net.cpp:434] conv4_1/out/bn <- conv4_1/out
I0424 18:30:10.868119 17103 net.cpp:395] conv4_1/out/bn -> conv4_1/out (in-place)
I0424 18:30:10.868271 17103 net.cpp:150] Setting up conv4_1/out/bn
I0424 18:30:10.868276 17103 net.cpp:157] Top shape: 1 256 54 90 (1244160)
I0424 18:30:10.868278 17103 net.cpp:165] Memory required for data: 1707298644
I0424 18:30:10.868283 17103 layer_factory.hpp:77] Creating layer conv4_1/out/bn_scale
I0424 18:30:10.868286 17103 net.cpp:100] Creating Layer conv4_1/out/bn_scale
I0424 18:30:10.868289 17103 net.cpp:434] conv4_1/out/bn_scale <- conv4_1/out
I0424 18:30:10.868293 17103 net.cpp:395] conv4_1/out/bn_scale -> conv4_1/out (in-place)
I0424 18:30:10.868321 17103 layer_factory.hpp:77] Creating layer conv4_1/out/bn_scale
I0424 18:30:10.868409 17103 net.cpp:150] Setting up conv4_1/out/bn_scale
I0424 18:30:10.868414 17103 net.cpp:157] Top shape: 1 256 54 90 (1244160)
I0424 18:30:10.868417 17103 net.cpp:165] Memory required for data: 1712275284
I0424 18:30:10.868419 17103 layer_factory.hpp:77] Creating layer conv4_1/proj
I0424 18:30:10.868425 17103 net.cpp:100] Creating Layer conv4_1/proj
I0424 18:30:10.868428 17103 net.cpp:434] conv4_1/proj <- conv3_4_conv3_4_0_split_4
I0424 18:30:10.868433 17103 net.cpp:408] conv4_1/proj -> conv4_1/proj
I0424 18:30:10.869765 17103 net.cpp:150] Setting up conv4_1/proj
I0424 18:30:10.869773 17103 net.cpp:157] Top shape: 1 256 54 90 (1244160)
I0424 18:30:10.869776 17103 net.cpp:165] Memory required for data: 1717251924
I0424 18:30:10.869781 17103 layer_factory.hpp:77] Creating layer conv4_1/proj_bn
I0424 18:30:10.869786 17103 net.cpp:100] Creating Layer conv4_1/proj_bn
I0424 18:30:10.869787 17103 net.cpp:434] conv4_1/proj_bn <- conv4_1/proj
I0424 18:30:10.869792 17103 net.cpp:395] conv4_1/proj_bn -> conv4_1/proj (in-place)
I0424 18:30:10.869946 17103 net.cpp:150] Setting up conv4_1/proj_bn
I0424 18:30:10.869951 17103 net.cpp:157] Top shape: 1 256 54 90 (1244160)
I0424 18:30:10.869953 17103 net.cpp:165] Memory required for data: 1722228564
I0424 18:30:10.869961 17103 layer_factory.hpp:77] Creating layer conv4_1/proj_bn_scale
I0424 18:30:10.869966 17103 net.cpp:100] Creating Layer conv4_1/proj_bn_scale
I0424 18:30:10.869967 17103 net.cpp:434] conv4_1/proj_bn_scale <- conv4_1/proj
I0424 18:30:10.869971 17103 net.cpp:395] conv4_1/proj_bn_scale -> conv4_1/proj (in-place)
I0424 18:30:10.870002 17103 layer_factory.hpp:77] Creating layer conv4_1/proj_bn_scale
I0424 18:30:10.870348 17103 net.cpp:150] Setting up conv4_1/proj_bn_scale
I0424 18:30:10.870357 17103 net.cpp:157] Top shape: 1 256 54 90 (1244160)
I0424 18:30:10.870358 17103 net.cpp:165] Memory required for data: 1727205204
I0424 18:30:10.870362 17103 layer_factory.hpp:77] Creating layer conv4_1
I0424 18:30:10.870368 17103 net.cpp:100] Creating Layer conv4_1
I0424 18:30:10.870370 17103 net.cpp:434] conv4_1 <- conv4_1/out
I0424 18:30:10.870373 17103 net.cpp:434] conv4_1 <- conv4_1/proj
I0424 18:30:10.870376 17103 net.cpp:408] conv4_1 -> conv4_1
I0424 18:30:10.870398 17103 net.cpp:150] Setting up conv4_1
I0424 18:30:10.870403 17103 net.cpp:157] Top shape: 1 256 54 90 (1244160)
I0424 18:30:10.870404 17103 net.cpp:165] Memory required for data: 1732181844
I0424 18:30:10.870406 17103 layer_factory.hpp:77] Creating layer conv4_1_conv4_1_0_split
I0424 18:30:10.870410 17103 net.cpp:100] Creating Layer conv4_1_conv4_1_0_split
I0424 18:30:10.870412 17103 net.cpp:434] conv4_1_conv4_1_0_split <- conv4_1
I0424 18:30:10.870415 17103 net.cpp:408] conv4_1_conv4_1_0_split -> conv4_1_conv4_1_0_split_0
I0424 18:30:10.870421 17103 net.cpp:408] conv4_1_conv4_1_0_split -> conv4_1_conv4_1_0_split_1
I0424 18:30:10.870425 17103 net.cpp:408] conv4_1_conv4_1_0_split -> conv4_1_conv4_1_0_split_2
I0424 18:30:10.870429 17103 net.cpp:408] conv4_1_conv4_1_0_split -> conv4_1_conv4_1_0_split_3
I0424 18:30:10.870474 17103 net.cpp:150] Setting up conv4_1_conv4_1_0_split
I0424 18:30:10.870478 17103 net.cpp:157] Top shape: 1 256 54 90 (1244160)
I0424 18:30:10.870481 17103 net.cpp:157] Top shape: 1 256 54 90 (1244160)
I0424 18:30:10.870483 17103 net.cpp:157] Top shape: 1 256 54 90 (1244160)
I0424 18:30:10.870486 17103 net.cpp:157] Top shape: 1 256 54 90 (1244160)
I0424 18:30:10.870487 17103 net.cpp:165] Memory required for data: 1752088404
I0424 18:30:10.870489 17103 layer_factory.hpp:77] Creating layer conv4_2/incep/0/conv
I0424 18:30:10.870496 17103 net.cpp:100] Creating Layer conv4_2/incep/0/conv
I0424 18:30:10.870498 17103 net.cpp:434] conv4_2/incep/0/conv <- conv4_1_conv4_1_0_split_0
I0424 18:30:10.870502 17103 net.cpp:408] conv4_2/incep/0/conv -> conv4_2/incep/0
I0424 18:30:10.871456 17103 net.cpp:150] Setting up conv4_2/incep/0/conv
I0424 18:30:10.871466 17103 net.cpp:157] Top shape: 1 64 54 90 (311040)
I0424 18:30:10.871469 17103 net.cpp:165] Memory required for data: 1753332564
I0424 18:30:10.871472 17103 layer_factory.hpp:77] Creating layer conv4_2/incep/0/bn
I0424 18:30:10.871476 17103 net.cpp:100] Creating Layer conv4_2/incep/0/bn
I0424 18:30:10.871479 17103 net.cpp:434] conv4_2/incep/0/bn <- conv4_2/incep/0
I0424 18:30:10.871484 17103 net.cpp:395] conv4_2/incep/0/bn -> conv4_2/incep/0 (in-place)
I0424 18:30:10.871637 17103 net.cpp:150] Setting up conv4_2/incep/0/bn
I0424 18:30:10.871642 17103 net.cpp:157] Top shape: 1 64 54 90 (311040)
I0424 18:30:10.871644 17103 net.cpp:165] Memory required for data: 1754576724
I0424 18:30:10.871649 17103 layer_factory.hpp:77] Creating layer conv4_2/incep/0/bn_scale
I0424 18:30:10.871652 17103 net.cpp:100] Creating Layer conv4_2/incep/0/bn_scale
I0424 18:30:10.871655 17103 net.cpp:434] conv4_2/incep/0/bn_scale <- conv4_2/incep/0
I0424 18:30:10.871659 17103 net.cpp:395] conv4_2/incep/0/bn_scale -> conv4_2/incep/0 (in-place)
I0424 18:30:10.871688 17103 layer_factory.hpp:77] Creating layer conv4_2/incep/0/bn_scale
I0424 18:30:10.871779 17103 net.cpp:150] Setting up conv4_2/incep/0/bn_scale
I0424 18:30:10.871784 17103 net.cpp:157] Top shape: 1 64 54 90 (311040)
I0424 18:30:10.871786 17103 net.cpp:165] Memory required for data: 1755820884
I0424 18:30:10.871789 17103 layer_factory.hpp:77] Creating layer conv4_2/incep/0/relu
I0424 18:30:10.871796 17103 net.cpp:100] Creating Layer conv4_2/incep/0/relu
I0424 18:30:10.871798 17103 net.cpp:434] conv4_2/incep/0/relu <- conv4_2/incep/0
I0424 18:30:10.871803 17103 net.cpp:395] conv4_2/incep/0/relu -> conv4_2/incep/0 (in-place)
I0424 18:30:10.872253 17103 net.cpp:150] Setting up conv4_2/incep/0/relu
I0424 18:30:10.872262 17103 net.cpp:157] Top shape: 1 64 54 90 (311040)
I0424 18:30:10.872264 17103 net.cpp:165] Memory required for data: 1757065044
I0424 18:30:10.872267 17103 layer_factory.hpp:77] Creating layer conv4_2/incep/1_reduce/conv
I0424 18:30:10.872273 17103 net.cpp:100] Creating Layer conv4_2/incep/1_reduce/conv
I0424 18:30:10.872275 17103 net.cpp:434] conv4_2/incep/1_reduce/conv <- conv4_1_conv4_1_0_split_1
I0424 18:30:10.872280 17103 net.cpp:408] conv4_2/incep/1_reduce/conv -> conv4_2/incep/1_reduce
I0424 18:30:10.873868 17103 net.cpp:150] Setting up conv4_2/incep/1_reduce/conv
I0424 18:30:10.873878 17103 net.cpp:157] Top shape: 1 64 54 90 (311040)
I0424 18:30:10.873879 17103 net.cpp:165] Memory required for data: 1758309204
I0424 18:30:10.873883 17103 layer_factory.hpp:77] Creating layer conv4_2/incep/1_reduce/bn
I0424 18:30:10.873888 17103 net.cpp:100] Creating Layer conv4_2/incep/1_reduce/bn
I0424 18:30:10.873891 17103 net.cpp:434] conv4_2/incep/1_reduce/bn <- conv4_2/incep/1_reduce
I0424 18:30:10.873895 17103 net.cpp:395] conv4_2/incep/1_reduce/bn -> conv4_2/incep/1_reduce (in-place)
I0424 18:30:10.874047 17103 net.cpp:150] Setting up conv4_2/incep/1_reduce/bn
I0424 18:30:10.874053 17103 net.cpp:157] Top shape: 1 64 54 90 (311040)
I0424 18:30:10.874054 17103 net.cpp:165] Memory required for data: 1759553364
I0424 18:30:10.874059 17103 layer_factory.hpp:77] Creating layer conv4_2/incep/1_reduce/bn_scale
I0424 18:30:10.874063 17103 net.cpp:100] Creating Layer conv4_2/incep/1_reduce/bn_scale
I0424 18:30:10.874065 17103 net.cpp:434] conv4_2/incep/1_reduce/bn_scale <- conv4_2/incep/1_reduce
I0424 18:30:10.874070 17103 net.cpp:395] conv4_2/incep/1_reduce/bn_scale -> conv4_2/incep/1_reduce (in-place)
I0424 18:30:10.874101 17103 layer_factory.hpp:77] Creating layer conv4_2/incep/1_reduce/bn_scale
I0424 18:30:10.874192 17103 net.cpp:150] Setting up conv4_2/incep/1_reduce/bn_scale
I0424 18:30:10.874197 17103 net.cpp:157] Top shape: 1 64 54 90 (311040)
I0424 18:30:10.874199 17103 net.cpp:165] Memory required for data: 1760797524
I0424 18:30:10.874202 17103 layer_factory.hpp:77] Creating layer conv4_2/incep/1_reduce/relu
I0424 18:30:10.874207 17103 net.cpp:100] Creating Layer conv4_2/incep/1_reduce/relu
I0424 18:30:10.874209 17103 net.cpp:434] conv4_2/incep/1_reduce/relu <- conv4_2/incep/1_reduce
I0424 18:30:10.874212 17103 net.cpp:395] conv4_2/incep/1_reduce/relu -> conv4_2/incep/1_reduce (in-place)
I0424 18:30:10.874338 17103 net.cpp:150] Setting up conv4_2/incep/1_reduce/relu
I0424 18:30:10.874344 17103 net.cpp:157] Top shape: 1 64 54 90 (311040)
I0424 18:30:10.874347 17103 net.cpp:165] Memory required for data: 1762041684
I0424 18:30:10.874349 17103 layer_factory.hpp:77] Creating layer conv4_2/incep/1_0/conv
I0424 18:30:10.874356 17103 net.cpp:100] Creating Layer conv4_2/incep/1_0/conv
I0424 18:30:10.874358 17103 net.cpp:434] conv4_2/incep/1_0/conv <- conv4_2/incep/1_reduce
I0424 18:30:10.874362 17103 net.cpp:408] conv4_2/incep/1_0/conv -> conv4_2/incep/1_0
I0424 18:30:10.876170 17103 net.cpp:150] Setting up conv4_2/incep/1_0/conv
I0424 18:30:10.876180 17103 net.cpp:157] Top shape: 1 128 54 90 (622080)
I0424 18:30:10.876183 17103 net.cpp:165] Memory required for data: 1764530004
I0424 18:30:10.876186 17103 layer_factory.hpp:77] Creating layer conv4_2/incep/1_0/bn
I0424 18:30:10.876191 17103 net.cpp:100] Creating Layer conv4_2/incep/1_0/bn
I0424 18:30:10.876194 17103 net.cpp:434] conv4_2/incep/1_0/bn <- conv4_2/incep/1_0
I0424 18:30:10.876197 17103 net.cpp:395] conv4_2/incep/1_0/bn -> conv4_2/incep/1_0 (in-place)
I0424 18:30:10.876354 17103 net.cpp:150] Setting up conv4_2/incep/1_0/bn
I0424 18:30:10.876359 17103 net.cpp:157] Top shape: 1 128 54 90 (622080)
I0424 18:30:10.876364 17103 net.cpp:165] Memory required for data: 1767018324
I0424 18:30:10.876369 17103 layer_factory.hpp:77] Creating layer conv4_2/incep/1_0/bn_scale
I0424 18:30:10.876375 17103 net.cpp:100] Creating Layer conv4_2/incep/1_0/bn_scale
I0424 18:30:10.876379 17103 net.cpp:434] conv4_2/incep/1_0/bn_scale <- conv4_2/incep/1_0
I0424 18:30:10.876382 17103 net.cpp:395] conv4_2/incep/1_0/bn_scale -> conv4_2/incep/1_0 (in-place)
I0424 18:30:10.876413 17103 layer_factory.hpp:77] Creating layer conv4_2/incep/1_0/bn_scale
I0424 18:30:10.876502 17103 net.cpp:150] Setting up conv4_2/incep/1_0/bn_scale
I0424 18:30:10.876507 17103 net.cpp:157] Top shape: 1 128 54 90 (622080)
I0424 18:30:10.876508 17103 net.cpp:165] Memory required for data: 1769506644
I0424 18:30:10.876513 17103 layer_factory.hpp:77] Creating layer conv4_2/incep/1_0/relu
I0424 18:30:10.876516 17103 net.cpp:100] Creating Layer conv4_2/incep/1_0/relu
I0424 18:30:10.876519 17103 net.cpp:434] conv4_2/incep/1_0/relu <- conv4_2/incep/1_0
I0424 18:30:10.876523 17103 net.cpp:395] conv4_2/incep/1_0/relu -> conv4_2/incep/1_0 (in-place)
I0424 18:30:10.876974 17103 net.cpp:150] Setting up conv4_2/incep/1_0/relu
I0424 18:30:10.876983 17103 net.cpp:157] Top shape: 1 128 54 90 (622080)
I0424 18:30:10.876986 17103 net.cpp:165] Memory required for data: 1771994964
I0424 18:30:10.876988 17103 layer_factory.hpp:77] Creating layer conv4_2/incep/2_reduce/conv
I0424 18:30:10.876994 17103 net.cpp:100] Creating Layer conv4_2/incep/2_reduce/conv
I0424 18:30:10.876997 17103 net.cpp:434] conv4_2/incep/2_reduce/conv <- conv4_1_conv4_1_0_split_2
I0424 18:30:10.877002 17103 net.cpp:408] conv4_2/incep/2_reduce/conv -> conv4_2/incep/2_reduce
I0424 18:30:10.877885 17103 net.cpp:150] Setting up conv4_2/incep/2_reduce/conv
I0424 18:30:10.877894 17103 net.cpp:157] Top shape: 1 24 54 90 (116640)
I0424 18:30:10.877897 17103 net.cpp:165] Memory required for data: 1772461524
I0424 18:30:10.877900 17103 layer_factory.hpp:77] Creating layer conv4_2/incep/2_reduce/bn
I0424 18:30:10.877905 17103 net.cpp:100] Creating Layer conv4_2/incep/2_reduce/bn
I0424 18:30:10.877908 17103 net.cpp:434] conv4_2/incep/2_reduce/bn <- conv4_2/incep/2_reduce
I0424 18:30:10.877912 17103 net.cpp:395] conv4_2/incep/2_reduce/bn -> conv4_2/incep/2_reduce (in-place)
I0424 18:30:10.878069 17103 net.cpp:150] Setting up conv4_2/incep/2_reduce/bn
I0424 18:30:10.878074 17103 net.cpp:157] Top shape: 1 24 54 90 (116640)
I0424 18:30:10.878077 17103 net.cpp:165] Memory required for data: 1772928084
I0424 18:30:10.878080 17103 layer_factory.hpp:77] Creating layer conv4_2/incep/2_reduce/bn_scale
I0424 18:30:10.878085 17103 net.cpp:100] Creating Layer conv4_2/incep/2_reduce/bn_scale
I0424 18:30:10.878087 17103 net.cpp:434] conv4_2/incep/2_reduce/bn_scale <- conv4_2/incep/2_reduce
I0424 18:30:10.878092 17103 net.cpp:395] conv4_2/incep/2_reduce/bn_scale -> conv4_2/incep/2_reduce (in-place)
I0424 18:30:10.878123 17103 layer_factory.hpp:77] Creating layer conv4_2/incep/2_reduce/bn_scale
I0424 18:30:10.878216 17103 net.cpp:150] Setting up conv4_2/incep/2_reduce/bn_scale
I0424 18:30:10.878221 17103 net.cpp:157] Top shape: 1 24 54 90 (116640)
I0424 18:30:10.878223 17103 net.cpp:165] Memory required for data: 1773394644
I0424 18:30:10.878227 17103 layer_factory.hpp:77] Creating layer conv4_2/incep/2_reduce/relu
I0424 18:30:10.878232 17103 net.cpp:100] Creating Layer conv4_2/incep/2_reduce/relu
I0424 18:30:10.878233 17103 net.cpp:434] conv4_2/incep/2_reduce/relu <- conv4_2/incep/2_reduce
I0424 18:30:10.878237 17103 net.cpp:395] conv4_2/incep/2_reduce/relu -> conv4_2/incep/2_reduce (in-place)
I0424 18:30:10.878687 17103 net.cpp:150] Setting up conv4_2/incep/2_reduce/relu
I0424 18:30:10.878695 17103 net.cpp:157] Top shape: 1 24 54 90 (116640)
I0424 18:30:10.878697 17103 net.cpp:165] Memory required for data: 1773861204
I0424 18:30:10.878700 17103 layer_factory.hpp:77] Creating layer conv4_2/incep/2_0/conv
I0424 18:30:10.878706 17103 net.cpp:100] Creating Layer conv4_2/incep/2_0/conv
I0424 18:30:10.878710 17103 net.cpp:434] conv4_2/incep/2_0/conv <- conv4_2/incep/2_reduce
I0424 18:30:10.878716 17103 net.cpp:408] conv4_2/incep/2_0/conv -> conv4_2/incep/2_0
I0424 18:30:10.879966 17103 net.cpp:150] Setting up conv4_2/incep/2_0/conv
I0424 18:30:10.879974 17103 net.cpp:157] Top shape: 1 48 54 90 (233280)
I0424 18:30:10.879977 17103 net.cpp:165] Memory required for data: 1774794324
I0424 18:30:10.879981 17103 layer_factory.hpp:77] Creating layer conv4_2/incep/2_0/bn
I0424 18:30:10.879987 17103 net.cpp:100] Creating Layer conv4_2/incep/2_0/bn
I0424 18:30:10.879989 17103 net.cpp:434] conv4_2/incep/2_0/bn <- conv4_2/incep/2_0
I0424 18:30:10.879993 17103 net.cpp:395] conv4_2/incep/2_0/bn -> conv4_2/incep/2_0 (in-place)
I0424 18:30:10.880151 17103 net.cpp:150] Setting up conv4_2/incep/2_0/bn
I0424 18:30:10.880156 17103 net.cpp:157] Top shape: 1 48 54 90 (233280)
I0424 18:30:10.880158 17103 net.cpp:165] Memory required for data: 1775727444
I0424 18:30:10.880163 17103 layer_factory.hpp:77] Creating layer conv4_2/incep/2_0/bn_scale
I0424 18:30:10.880168 17103 net.cpp:100] Creating Layer conv4_2/incep/2_0/bn_scale
I0424 18:30:10.880172 17103 net.cpp:434] conv4_2/incep/2_0/bn_scale <- conv4_2/incep/2_0
I0424 18:30:10.880174 17103 net.cpp:395] conv4_2/incep/2_0/bn_scale -> conv4_2/incep/2_0 (in-place)
I0424 18:30:10.880205 17103 layer_factory.hpp:77] Creating layer conv4_2/incep/2_0/bn_scale
I0424 18:30:10.880300 17103 net.cpp:150] Setting up conv4_2/incep/2_0/bn_scale
I0424 18:30:10.880306 17103 net.cpp:157] Top shape: 1 48 54 90 (233280)
I0424 18:30:10.880307 17103 net.cpp:165] Memory required for data: 1776660564
I0424 18:30:10.880311 17103 layer_factory.hpp:77] Creating layer conv4_2/incep/2_0/relu
I0424 18:30:10.880314 17103 net.cpp:100] Creating Layer conv4_2/incep/2_0/relu
I0424 18:30:10.880317 17103 net.cpp:434] conv4_2/incep/2_0/relu <- conv4_2/incep/2_0
I0424 18:30:10.880321 17103 net.cpp:395] conv4_2/incep/2_0/relu -> conv4_2/incep/2_0 (in-place)
I0424 18:30:10.880444 17103 net.cpp:150] Setting up conv4_2/incep/2_0/relu
I0424 18:30:10.880450 17103 net.cpp:157] Top shape: 1 48 54 90 (233280)
I0424 18:30:10.880452 17103 net.cpp:165] Memory required for data: 1777593684
I0424 18:30:10.880455 17103 layer_factory.hpp:77] Creating layer conv4_2/incep/2_1/conv
I0424 18:30:10.880460 17103 net.cpp:100] Creating Layer conv4_2/incep/2_1/conv
I0424 18:30:10.880463 17103 net.cpp:434] conv4_2/incep/2_1/conv <- conv4_2/incep/2_0
I0424 18:30:10.880467 17103 net.cpp:408] conv4_2/incep/2_1/conv -> conv4_2/incep/2_1
I0424 18:30:10.881731 17103 net.cpp:150] Setting up conv4_2/incep/2_1/conv
I0424 18:30:10.881741 17103 net.cpp:157] Top shape: 1 48 54 90 (233280)
I0424 18:30:10.881742 17103 net.cpp:165] Memory required for data: 1778526804
I0424 18:30:10.881747 17103 layer_factory.hpp:77] Creating layer conv4_2/incep/2_1/bn
I0424 18:30:10.881752 17103 net.cpp:100] Creating Layer conv4_2/incep/2_1/bn
I0424 18:30:10.881754 17103 net.cpp:434] conv4_2/incep/2_1/bn <- conv4_2/incep/2_1
I0424 18:30:10.881759 17103 net.cpp:395] conv4_2/incep/2_1/bn -> conv4_2/incep/2_1 (in-place)
I0424 18:30:10.881920 17103 net.cpp:150] Setting up conv4_2/incep/2_1/bn
I0424 18:30:10.881925 17103 net.cpp:157] Top shape: 1 48 54 90 (233280)
I0424 18:30:10.881927 17103 net.cpp:165] Memory required for data: 1779459924
I0424 18:30:10.881932 17103 layer_factory.hpp:77] Creating layer conv4_2/incep/2_1/bn_scale
I0424 18:30:10.881938 17103 net.cpp:100] Creating Layer conv4_2/incep/2_1/bn_scale
I0424 18:30:10.881942 17103 net.cpp:434] conv4_2/incep/2_1/bn_scale <- conv4_2/incep/2_1
I0424 18:30:10.881944 17103 net.cpp:395] conv4_2/incep/2_1/bn_scale -> conv4_2/incep/2_1 (in-place)
I0424 18:30:10.881976 17103 layer_factory.hpp:77] Creating layer conv4_2/incep/2_1/bn_scale
I0424 18:30:10.882072 17103 net.cpp:150] Setting up conv4_2/incep/2_1/bn_scale
I0424 18:30:10.882077 17103 net.cpp:157] Top shape: 1 48 54 90 (233280)
I0424 18:30:10.882079 17103 net.cpp:165] Memory required for data: 1780393044
I0424 18:30:10.882082 17103 layer_factory.hpp:77] Creating layer conv4_2/incep/2_1/relu
I0424 18:30:10.882087 17103 net.cpp:100] Creating Layer conv4_2/incep/2_1/relu
I0424 18:30:10.882092 17103 net.cpp:434] conv4_2/incep/2_1/relu <- conv4_2/incep/2_1
I0424 18:30:10.882095 17103 net.cpp:395] conv4_2/incep/2_1/relu -> conv4_2/incep/2_1 (in-place)
I0424 18:30:10.882546 17103 net.cpp:150] Setting up conv4_2/incep/2_1/relu
I0424 18:30:10.882555 17103 net.cpp:157] Top shape: 1 48 54 90 (233280)
I0424 18:30:10.882556 17103 net.cpp:165] Memory required for data: 1781326164
I0424 18:30:10.882558 17103 layer_factory.hpp:77] Creating layer conv4_2/incep
I0424 18:30:10.882565 17103 net.cpp:100] Creating Layer conv4_2/incep
I0424 18:30:10.882567 17103 net.cpp:434] conv4_2/incep <- conv4_2/incep/0
I0424 18:30:10.882570 17103 net.cpp:434] conv4_2/incep <- conv4_2/incep/1_0
I0424 18:30:10.882573 17103 net.cpp:434] conv4_2/incep <- conv4_2/incep/2_1
I0424 18:30:10.882576 17103 net.cpp:408] conv4_2/incep -> conv4_2/incep
I0424 18:30:10.882601 17103 net.cpp:150] Setting up conv4_2/incep
I0424 18:30:10.882606 17103 net.cpp:157] Top shape: 1 240 54 90 (1166400)
I0424 18:30:10.882607 17103 net.cpp:165] Memory required for data: 1785991764
I0424 18:30:10.882609 17103 layer_factory.hpp:77] Creating layer conv4_2/out/conv
I0424 18:30:10.882616 17103 net.cpp:100] Creating Layer conv4_2/out/conv
I0424 18:30:10.882617 17103 net.cpp:434] conv4_2/out/conv <- conv4_2/incep
I0424 18:30:10.882622 17103 net.cpp:408] conv4_2/out/conv -> conv4_2/out
I0424 18:30:10.884320 17103 net.cpp:150] Setting up conv4_2/out/conv
I0424 18:30:10.884330 17103 net.cpp:157] Top shape: 1 256 54 90 (1244160)
I0424 18:30:10.884333 17103 net.cpp:165] Memory required for data: 1790968404
I0424 18:30:10.884336 17103 layer_factory.hpp:77] Creating layer conv4_2/out/bn
I0424 18:30:10.884341 17103 net.cpp:100] Creating Layer conv4_2/out/bn
I0424 18:30:10.884343 17103 net.cpp:434] conv4_2/out/bn <- conv4_2/out
I0424 18:30:10.884348 17103 net.cpp:395] conv4_2/out/bn -> conv4_2/out (in-place)
I0424 18:30:10.884508 17103 net.cpp:150] Setting up conv4_2/out/bn
I0424 18:30:10.884513 17103 net.cpp:157] Top shape: 1 256 54 90 (1244160)
I0424 18:30:10.884516 17103 net.cpp:165] Memory required for data: 1795945044
I0424 18:30:10.884519 17103 layer_factory.hpp:77] Creating layer conv4_2/out/bn_scale
I0424 18:30:10.884526 17103 net.cpp:100] Creating Layer conv4_2/out/bn_scale
I0424 18:30:10.884527 17103 net.cpp:434] conv4_2/out/bn_scale <- conv4_2/out
I0424 18:30:10.884531 17103 net.cpp:395] conv4_2/out/bn_scale -> conv4_2/out (in-place)
I0424 18:30:10.884562 17103 layer_factory.hpp:77] Creating layer conv4_2/out/bn_scale
I0424 18:30:10.884654 17103 net.cpp:150] Setting up conv4_2/out/bn_scale
I0424 18:30:10.884657 17103 net.cpp:157] Top shape: 1 256 54 90 (1244160)
I0424 18:30:10.884660 17103 net.cpp:165] Memory required for data: 1800921684
…
I0424 18:30:10.963289 17103 net.cpp:434] conv5_4/incep/0/conv <- conv5_3_conv5_3_0_split_0
I0424 18:30:10.963294 17103 net.cpp:408] conv5_4/incep/0/conv -> conv5_4/incep/0
I0424 18:30:10.964597 17103 net.cpp:150] Setting up conv5_4/incep/0/conv
I0424 18:30:10.964607 17103 net.cpp:157] Top shape: 1 64 27 45 (77760)
I0424 18:30:10.964608 17103 net.cpp:165] Memory required for data: 2091433044
I0424 18:30:10.964612 17103 layer_factory.hpp:77] Creating layer conv5_4/incep/0/bn
I0424 18:30:10.964617 17103 net.cpp:100] Creating Layer conv5_4/incep/0/bn
I0424 18:30:10.964620 17103 net.cpp:434] conv5_4/incep/0/bn <- conv5_4/incep/0
I0424 18:30:10.964623 17103 net.cpp:395] conv5_4/incep/0/bn -> conv5_4/incep/0 (in-place)
I0424 18:30:10.964771 17103 net.cpp:150] Setting up conv5_4/incep/0/bn
I0424 18:30:10.964776 17103 net.cpp:157] Top shape: 1 64 27 45 (77760)
I0424 18:30:10.964778 17103 net.cpp:165] Memory required for data: 2091744084
I0424 18:30:10.964783 17103 layer_factory.hpp:77] Creating layer conv5_4/incep/0/bn_scale
I0424 18:30:10.964788 17103 net.cpp:100] Creating Layer conv5_4/incep/0/bn_scale
I0424 18:30:10.964790 17103 net.cpp:434] conv5_4/incep/0/bn_scale <- conv5_4/incep/0
I0424 18:30:10.964794 17103 net.cpp:395] conv5_4/incep/0/bn_scale -> conv5_4/incep/0 (in-place)
I0424 18:30:10.964821 17103 layer_factory.hpp:77] Creating layer conv5_4/incep/0/bn_scale
I0424 18:30:10.964920 17103 net.cpp:150] Setting up conv5_4/incep/0/bn_scale
I0424 18:30:10.964925 17103 net.cpp:157] Top shape: 1 64 27 45 (77760)
I0424 18:30:10.964926 17103 net.cpp:165] Memory required for data: 2092055124
I0424 18:30:10.964932 17103 layer_factory.hpp:77] Creating layer conv5_4/incep/0/relu
I0424 18:30:10.964936 17103 net.cpp:100] Creating Layer conv5_4/incep/0/relu
I0424 18:30:10.964939 17103 net.cpp:434] conv5_4/incep/0/relu <- conv5_4/incep/0
I0424 18:30:10.964942 17103 net.cpp:395] conv5_4/incep/0/relu -> conv5_4/incep/0 (in-place)
I0424 18:30:10.965417 17103 net.cpp:150] Setting up conv5_4/incep/0/relu
I0424 18:30:10.965425 17103 net.cpp:157] Top shape: 1 64 27 45 (77760)
I0424 18:30:10.965428 17103 net.cpp:165] Memory required for data: 2092366164
I0424 18:30:10.965430 17103 layer_factory.hpp:77] Creating layer conv5_4/incep/1_reduce/conv
I0424 18:30:10.965436 17103 net.cpp:100] Creating Layer conv5_4/incep/1_reduce/conv
I0424 18:30:10.965440 17103 net.cpp:434] conv5_4/incep/1_reduce/conv <- conv5_3_conv5_3_0_split_1
I0424 18:30:10.965445 17103 net.cpp:408] conv5_4/incep/1_reduce/conv -> conv5_4/incep/1_reduce
I0424 18:30:10.967118 17103 net.cpp:150] Setting up conv5_4/incep/1_reduce/conv
I0424 18:30:10.967128 17103 net.cpp:157] Top shape: 1 96 27 45 (116640)
I0424 18:30:10.967129 17103 net.cpp:165] Memory required for data: 2092832724
I0424 18:30:10.967133 17103 layer_factory.hpp:77] Creating layer conv5_4/incep/1_reduce/bn
I0424 18:30:10.967139 17103 net.cpp:100] Creating Layer conv5_4/incep/1_reduce/bn
I0424 18:30:10.967141 17103 net.cpp:434] conv5_4/incep/1_reduce/bn <- conv5_4/incep/1_reduce
I0424 18:30:10.967146 17103 net.cpp:395] conv5_4/incep/1_reduce/bn -> conv5_4/incep/1_reduce (in-place)
I0424 18:30:10.967303 17103 net.cpp:150] Setting up conv5_4/incep/1_reduce/bn
I0424 18:30:10.967308 17103 net.cpp:157] Top shape: 1 96 27 45 (116640)
I0424 18:30:10.967310 17103 net.cpp:165] Memory required for data: 2093299284
I0424 18:30:10.967314 17103 layer_factory.hpp:77] Creating layer conv5_4/incep/1_reduce/bn_scale
I0424 18:30:10.967319 17103 net.cpp:100] Creating Layer conv5_4/incep/1_reduce/bn_scale
I0424 18:30:10.967322 17103 net.cpp:434] conv5_4/incep/1_reduce/bn_scale <- conv5_4/incep/1_reduce
I0424 18:30:10.967326 17103 net.cpp:395] conv5_4/incep/1_reduce/bn_scale -> conv5_4/incep/1_reduce (in-place)
I0424 18:30:10.967353 17103 layer_factory.hpp:77] Creating layer conv5_4/incep/1_reduce/bn_scale
I0424 18:30:10.967454 17103 net.cpp:150] Setting up conv5_4/incep/1_reduce/bn_scale
I0424 18:30:10.967459 17103 net.cpp:157] Top shape: 1 96 27 45 (116640)
I0424 18:30:10.967461 17103 net.cpp:165] Memory required for data: 2093765844
I0424 18:30:10.967465 17103 layer_factory.hpp:77] Creating layer conv5_4/incep/1_reduce/relu
I0424 18:30:10.967469 17103 net.cpp:100] Creating Layer conv5_4/incep/1_reduce/relu
I0424 18:30:10.967473 17103 net.cpp:434] conv5_4/incep/1_reduce/relu <- conv5_4/incep/1_reduce
I0424 18:30:10.967475 17103 net.cpp:395] conv5_4/incep/1_reduce/relu -> conv5_4/incep/1_reduce (in-place)
I0424 18:30:10.967618 17103 net.cpp:150] Setting up conv5_4/incep/1_reduce/relu
I0424 18:30:10.967624 17103 net.cpp:157] Top shape: 1 96 27 45 (116640)
I0424 18:30:10.967627 17103 net.cpp:165] Memory required for data: 2094232404
I0424 18:30:10.967629 17103 layer_factory.hpp:77] Creating layer conv5_4/incep/1_0/conv
I0424 18:30:10.967635 17103 net.cpp:100] Creating Layer conv5_4/incep/1_0/conv
I0424 18:30:10.967638 17103 net.cpp:434] conv5_4/incep/1_0/conv <- conv5_4/incep/1_reduce
I0424 18:30:10.967643 17103 net.cpp:408] conv5_4/incep/1_0/conv -> conv5_4/incep/1_0
I0424 18:30:10.969744 17103 net.cpp:150] Setting up conv5_4/incep/1_0/conv
I0424 18:30:10.969753 17103 net.cpp:157] Top shape: 1 192 27 45 (233280)
I0424 18:30:10.969755 17103 net.cpp:165] Memory required for data: 2095165524
I0424 18:30:10.969759 17103 layer_factory.hpp:77] Creating layer conv5_4/incep/1_0/bn
I0424 18:30:10.969764 17103 net.cpp:100] Creating Layer conv5_4/incep/1_0/bn
I0424 18:30:10.969768 17103 net.cpp:434] conv5_4/incep/1_0/bn <- conv5_4/incep/1_0
I0424 18:30:10.969770 17103 net.cpp:395] conv5_4/incep/1_0/bn -> conv5_4/incep/1_0 (in-place)
I0424 18:30:10.969923 17103 net.cpp:150] Setting up conv5_4/incep/1_0/bn
I0424 18:30:10.969928 17103 net.cpp:157] Top shape: 1 192 27 45 (233280)
I0424 18:30:10.969933 17103 net.cpp:165] Memory required for data: 2096098644
I0424 18:30:10.969938 17103 layer_factory.hpp:77] Creating layer conv5_4/incep/1_0/bn_scale
I0424 18:30:10.969944 17103 net.cpp:100] Creating Layer conv5_4/incep/1_0/bn_scale
I0424 18:30:10.969947 17103 net.cpp:434] conv5_4/incep/1_0/bn_scale <- conv5_4/incep/1_0
I0424 18:30:10.969950 17103 net.cpp:395] conv5_4/incep/1_0/bn_scale -> conv5_4/incep/1_0 (in-place)
I0424 18:30:10.969980 17103 layer_factory.hpp:77] Creating layer conv5_4/incep/1_0/bn_scale
I0424 18:30:10.970080 17103 net.cpp:150] Setting up conv5_4/incep/1_0/bn_scale
I0424 18:30:10.970085 17103 net.cpp:157] Top shape: 1 192 27 45 (233280)
I0424 18:30:10.970088 17103 net.cpp:165] Memory required for data: 2097031764
I0424 18:30:10.970091 17103 layer_factory.hpp:77] Creating layer conv5_4/incep/1_0/relu
I0424 18:30:10.970095 17103 net.cpp:100] Creating Layer conv5_4/incep/1_0/relu
I0424 18:30:10.970098 17103 net.cpp:434] conv5_4/incep/1_0/relu <- conv5_4/incep/1_0
I0424 18:30:10.970101 17103 net.cpp:395] conv5_4/incep/1_0/relu -> conv5_4/incep/1_0 (in-place)
I0424 18:30:10.970237 17103 net.cpp:150] Setting up conv5_4/incep/1_0/relu
I0424 18:30:10.970243 17103 net.cpp:157] Top shape: 1 192 27 45 (233280)
I0424 18:30:10.970247 17103 net.cpp:165] Memory required for data: 2097964884
I0424 18:30:10.970248 17103 layer_factory.hpp:77] Creating layer conv5_4/incep/2_reduce/conv
I0424 18:30:10.970254 17103 net.cpp:100] Creating Layer conv5_4/incep/2_reduce/conv
I0424 18:30:10.970257 17103 net.cpp:434] conv5_4/incep/2_reduce/conv <- conv5_3_conv5_3_0_split_2
I0424 18:30:10.970262 17103 net.cpp:408] conv5_4/incep/2_reduce/conv -> conv5_4/incep/2_reduce
I0424 18:30:10.971787 17103 net.cpp:150] Setting up conv5_4/incep/2_reduce/conv
I0424 18:30:10.971797 17103 net.cpp:157] Top shape: 1 32 27 45 (38880)
I0424 18:30:10.971799 17103 net.cpp:165] Memory required for data: 2098120404
I0424 18:30:10.971803 17103 layer_factory.hpp:77] Creating layer conv5_4/incep/2_reduce/bn
I0424 18:30:10.971808 17103 net.cpp:100] Creating Layer conv5_4/incep/2_reduce/bn
I0424 18:30:10.971812 17103 net.cpp:434] conv5_4/incep/2_reduce/bn <- conv5_4/incep/2_reduce
I0424 18:30:10.971815 17103 net.cpp:395] conv5_4/incep/2_reduce/bn -> conv5_4/incep/2_reduce (in-place)
I0424 18:30:10.971972 17103 net.cpp:150] Setting up conv5_4/incep/2_reduce/bn
I0424 18:30:10.971977 17103 net.cpp:157] Top shape: 1 32 27 45 (38880)
I0424 18:30:10.971979 17103 net.cpp:165] Memory required for data: 2098275924
I0424 18:30:10.971984 17103 layer_factory.hpp:77] Creating layer conv5_4/incep/2_reduce/bn_scale
I0424 18:30:10.971988 17103 net.cpp:100] Creating Layer conv5_4/incep/2_reduce/bn_scale
I0424 18:30:10.971992 17103 net.cpp:434] conv5_4/incep/2_reduce/bn_scale <- conv5_4/incep/2_reduce
I0424 18:30:10.971995 17103 net.cpp:395] conv5_4/incep/2_reduce/bn_scale -> conv5_4/incep/2_reduce (in-place)
I0424 18:30:10.972023 17103 layer_factory.hpp:77] Creating layer conv5_4/incep/2_reduce/bn_scale
I0424 18:30:10.972122 17103 net.cpp:150] Setting up conv5_4/incep/2_reduce/bn_scale
I0424 18:30:10.972127 17103 net.cpp:157] Top shape: 1 32 27 45 (38880)
I0424 18:30:10.972129 17103 net.cpp:165] Memory required for data: 2098431444
I0424 18:30:10.972133 17103 layer_factory.hpp:77] Creating layer conv5_4/incep/2_reduce/relu
I0424 18:30:10.972137 17103 net.cpp:100] Creating Layer conv5_4/incep/2_reduce/relu
I0424 18:30:10.972141 17103 net.cpp:434] conv5_4/incep/2_reduce/relu <- conv5_4/incep/2_reduce
I0424 18:30:10.972143 17103 net.cpp:395] conv5_4/incep/2_reduce/relu -> conv5_4/incep/2_reduce (in-place)
I0424 18:30:10.972617 17103 net.cpp:150] Setting up conv5_4/incep/2_reduce/relu
I0424 18:30:10.972626 17103 net.cpp:157] Top shape: 1 32 27 45 (38880)
I0424 18:30:10.972628 17103 net.cpp:165] Memory required for data: 2098586964
I0424 18:30:10.972630 17103 layer_factory.hpp:77] Creating layer conv5_4/incep/2_0/conv
I0424 18:30:10.972636 17103 net.cpp:100] Creating Layer conv5_4/incep/2_0/conv
I0424 18:30:10.972641 17103 net.cpp:434] conv5_4/incep/2_0/conv <- conv5_4/incep/2_reduce
I0424 18:30:10.972647 17103 net.cpp:408] conv5_4/incep/2_0/conv -> conv5_4/incep/2_0
I0424 18:30:10.973938 17103 net.cpp:150] Setting up conv5_4/incep/2_0/conv
I0424 18:30:10.973948 17103 net.cpp:157] Top shape: 1 64 27 45 (77760)
I0424 18:30:10.973949 17103 net.cpp:165] Memory required for data: 2098898004
I0424 18:30:10.973953 17103 layer_factory.hpp:77] Creating layer conv5_4/incep/2_0/bn
I0424 18:30:10.973958 17103 net.cpp:100] Creating Layer conv5_4/incep/2_0/bn
I0424 18:30:10.973961 17103 net.cpp:434] conv5_4/incep/2_0/bn <- conv5_4/incep/2_0
I0424 18:30:10.973965 17103 net.cpp:395] conv5_4/incep/2_0/bn -> conv5_4/incep/2_0 (in-place)
I0424 18:30:10.974118 17103 net.cpp:150] Setting up conv5_4/incep/2_0/bn
I0424 18:30:10.974123 17103 net.cpp:157] Top shape: 1 64 27 45 (77760)
I0424 18:30:10.974125 17103 net.cpp:165] Memory required for data: 2099209044
I0424 18:30:10.974130 17103 layer_factory.hpp:77] Creating layer conv5_4/incep/2_0/bn_scale
I0424 18:30:10.974135 17103 net.cpp:100] Creating Layer conv5_4/incep/2_0/bn_scale
I0424 18:30:10.974138 17103 net.cpp:434] conv5_4/incep/2_0/bn_scale <- conv5_4/incep/2_0
I0424 18:30:10.974141 17103 net.cpp:395] conv5_4/incep/2_0/bn_scale -> conv5_4/incep/2_0 (in-place)
I0424 18:30:10.974170 17103 layer_factory.hpp:77] Creating layer conv5_4/incep/2_0/bn_scale
I0424 18:30:10.974272 17103 net.cpp:150] Setting up conv5_4/incep/2_0/bn_scale
I0424 18:30:10.974277 17103 net.cpp:157] Top shape: 1 64 27 45 (77760)
I0424 18:30:10.974278 17103 net.cpp:165] Memory required for data: 2099520084
I0424 18:30:10.974282 17103 layer_factory.hpp:77] Creating layer conv5_4/incep/2_0/relu
I0424 18:30:10.974287 17103 net.cpp:100] Creating Layer conv5_4/incep/2_0/relu
I0424 18:30:10.974288 17103 net.cpp:434] conv5_4/incep/2_0/relu <- conv5_4/incep/2_0
I0424 18:30:10.974292 17103 net.cpp:395] conv5_4/incep/2_0/relu -> conv5_4/incep/2_0 (in-place)
I0424 18:30:10.974432 17103 net.cpp:150] Setting up conv5_4/incep/2_0/relu
I0424 18:30:10.974438 17103 net.cpp:157] Top shape: 1 64 27 45 (77760)
I0424 18:30:10.974442 17103 net.cpp:165] Memory required for data: 2099831124
I0424 18:30:10.974443 17103 layer_factory.hpp:77] Creating layer conv5_4/incep/2_1/conv
I0424 18:30:10.974449 17103 net.cpp:100] Creating Layer conv5_4/incep/2_1/conv
I0424 18:30:10.974452 17103 net.cpp:434] conv5_4/incep/2_1/conv <- conv5_4/incep/2_0
I0424 18:30:10.974457 17103 net.cpp:408] conv5_4/incep/2_1/conv -> conv5_4/incep/2_1
I0424 18:30:10.975821 17103 net.cpp:150] Setting up conv5_4/incep/2_1/conv
I0424 18:30:10.975831 17103 net.cpp:157] Top shape: 1 64 27 45 (77760)
I0424 18:30:10.975832 17103 net.cpp:165] Memory required for data: 2100142164
I0424 18:30:10.975836 17103 layer_factory.hpp:77] Creating layer conv5_4/incep/2_1/bn
I0424 18:30:10.975841 17103 net.cpp:100] Creating Layer conv5_4/incep/2_1/bn
I0424 18:30:10.975843 17103 net.cpp:434] conv5_4/incep/2_1/bn <- conv5_4/incep/2_1
I0424 18:30:10.975847 17103 net.cpp:395] conv5_4/incep/2_1/bn -> conv5_4/incep/2_1 (in-place)
I0424 18:30:10.976003 17103 net.cpp:150] Setting up conv5_4/incep/2_1/bn
I0424 18:30:10.976007 17103 net.cpp:157] Top shape: 1 64 27 45 (77760)
I0424 18:30:10.976009 17103 net.cpp:165] Memory required for data: 2100453204
I0424 18:30:10.976014 17103 layer_factory.hpp:77] Creating layer conv5_4/incep/2_1/bn_scale
I0424 18:30:10.976019 17103 net.cpp:100] Creating Layer conv5_4/incep/2_1/bn_scale
I0424 18:30:10.976022 17103 net.cpp:434] conv5_4/incep/2_1/bn_scale <- conv5_4/incep/2_1
I0424 18:30:10.976025 17103 net.cpp:395] conv5_4/incep/2_1/bn_scale -> conv5_4/incep/2_1 (in-place)
I0424 18:30:10.976055 17103 layer_factory.hpp:77] Creating layer conv5_4/incep/2_1/bn_scale
I0424 18:30:10.976157 17103 net.cpp:150] Setting up conv5_4/incep/2_1/bn_scale
I0424 18:30:10.976162 17103 net.cpp:157] Top shape: 1 64 27 45 (77760)
I0424 18:30:10.976164 17103 net.cpp:165] Memory required for data: 2100764244
I0424 18:30:10.976167 17103 layer_factory.hpp:77] Creating layer conv5_4/incep/2_1/relu
I0424 18:30:10.976176 17103 net.cpp:100] Creating Layer conv5_4/incep/2_1/relu
I0424 18:30:10.976178 17103 net.cpp:434] conv5_4/incep/2_1/relu <- conv5_4/incep/2_1
I0424 18:30:10.976181 17103 net.cpp:395] conv5_4/incep/2_1/relu -> conv5_4/incep/2_1 (in-place)
I0424 18:30:10.976320 17103 net.cpp:150] Setting up conv5_4/incep/2_1/relu
I0424 18:30:10.976327 17103 net.cpp:157] Top shape: 1 64 27 45 (77760)
I0424 18:30:10.976330 17103 net.cpp:165] Memory required for data: 2101075284
I0424 18:30:10.976332 17103 layer_factory.hpp:77] Creating layer conv5_4/incep
I0424 18:30:10.976336 17103 net.cpp:100] Creating Layer conv5_4/incep
I0424 18:30:10.976338 17103 net.cpp:434] conv5_4/incep <- conv5_4/incep/0
I0424 18:30:10.976341 17103 net.cpp:434] conv5_4/incep <- conv5_4/incep/1_0
I0424 18:30:10.976344 17103 net.cpp:434] conv5_4/incep <- conv5_4/incep/2_1
I0424 18:30:10.976348 17103 net.cpp:408] conv5_4/incep -> conv5_4/incep
I0424 18:30:10.976371 17103 net.cpp:150] Setting up conv5_4/incep
I0424 18:30:10.976374 17103 net.cpp:157] Top shape: 1 320 27 45 (388800)
I0424 18:30:10.976377 17103 net.cpp:165] Memory required for data: 2102630484
I0424 18:30:10.976378 17103 layer_factory.hpp:77] Creating layer conv5_4/out/conv
I0424 18:30:10.976384 17103 net.cpp:100] Creating Layer conv5_4/out/conv
I0424 18:30:10.976387 17103 net.cpp:434] conv5_4/out/conv <- conv5_4/incep
I0424 18:30:10.976390 17103 net.cpp:408] conv5_4/out/conv -> conv5_4/out
I0424 18:30:10.978325 17103 net.cpp:150] Setting up conv5_4/out/conv
I0424 18:30:10.978335 17103 net.cpp:157] Top shape: 1 384 27 45 (466560)
I0424 18:30:10.978338 17103 net.cpp:165] Memory required for data: 2104496724
I0424 18:30:10.978341 17103 layer_factory.hpp:77] Creating layer conv5_4/out/bn
I0424 18:30:10.978346 17103 net.cpp:100] Creating Layer conv5_4/out/bn
I0424 18:30:10.978349 17103 net.cpp:434] conv5_4/out/bn <- conv5_4/out
I0424 18:30:10.978353 17103 net.cpp:395] conv5_4/out/bn -> conv5_4/out (in-place)
I0424 18:30:10.978514 17103 net.cpp:150] Setting up conv5_4/out/bn
I0424 18:30:10.978519 17103 net.cpp:157] Top shape: 1 384 27 45 (466560)
I0424 18:30:10.978521 17103 net.cpp:165] Memory required for data: 2106362964
I0424 18:30:10.978526 17103 layer_factory.hpp:77] Creating layer conv5_4/out/bn_scale
I0424 18:30:10.978531 17103 net.cpp:100] Creating Layer conv5_4/out/bn_scale
I0424 18:30:10.978534 17103 net.cpp:434] conv5_4/out/bn_scale <- conv5_4/out
I0424 18:30:10.978538 17103 net.cpp:395] conv5_4/out/bn_scale -> conv5_4/out (in-place)
I0424 18:30:10.978569 17103 layer_factory.hpp:77] Creating layer conv5_4/out/bn_scale
I0424 18:30:10.978673 17103 net.cpp:150] Setting up conv5_4/out/bn_scale
I0424 18:30:10.978678 17103 net.cpp:157] Top shape: 1 384 27 45 (466560)
I0424 18:30:10.978680 17103 net.cpp:165] Memory required for data: 2108229204
I0424 18:30:10.978684 17103 layer_factory.hpp:77] Creating layer conv5_4/input
I0424 18:30:10.978689 17103 net.cpp:100] Creating Layer conv5_4/input
I0424 18:30:10.978693 17103 net.cpp:434] conv5_4/input <- conv5_3_conv5_3_0_split_3
I0424 18:30:10.978695 17103 net.cpp:408] conv5_4/input -> conv5_4/input
I0424 18:30:10.978715 17103 net.cpp:150] Setting up conv5_4/input
I0424 18:30:10.978719 17103 net.cpp:157] Top shape: 1 384 27 45 (466560)
I0424 18:30:10.978721 17103 net.cpp:165] Memory required for data: 2110095444
I0424 18:30:10.978724 17103 layer_factory.hpp:77] Creating layer conv5_4
I0424 18:30:10.978727 17103 net.cpp:100] Creating Layer conv5_4
I0424 18:30:10.978729 17103 net.cpp:434] conv5_4 <- conv5_4/out
I0424 18:30:10.978732 17103 net.cpp:434] conv5_4 <- conv5_4/input
I0424 18:30:10.978736 17103 net.cpp:408] conv5_4 -> conv5_4
I0424 18:30:10.978754 17103 net.cpp:150] Setting up conv5_4
I0424 18:30:10.978757 17103 net.cpp:157] Top shape: 1 384 27 45 (466560)
I0424 18:30:10.978760 17103 net.cpp:165] Memory required for data: 2111961684
I0424 18:30:10.978761 17103 layer_factory.hpp:77] Creating layer upsample/conv4_4
I0424 18:30:10.978767 17103 net.cpp:100] Creating Layer upsample/conv4_4
I0424 18:30:10.978770 17103 net.cpp:434] upsample/conv4_4 <- conv4_4_conv4_4_0_split_5
I0424 18:30:10.978776 17103 net.cpp:408] upsample/conv4_4 -> upsample/conv4_4
I0424 18:30:10.979025 17103 net.cpp:150] Setting up upsample/conv4_4
I0424 18:30:10.979030 17103 net.cpp:157] Top shape: 1 256 108 180 (4976640)
I0424 18:30:10.979032 17103 net.cpp:165] Memory required for data: 2131868244
I0424 18:30:10.979035 17103 layer_factory.hpp:77] Creating layer upsample/conv5_4
I0424 18:30:10.979039 17103 net.cpp:100] Creating Layer upsample/conv5_4
I0424 18:30:10.979043 17103 net.cpp:434] upsample/conv5_4 <- conv5_4
I0424 18:30:10.979046 17103 net.cpp:408] upsample/conv5_4 -> upsample/conv5_4
I0424 18:30:10.979796 17103 net.cpp:150] Setting up upsample/conv5_4
I0424 18:30:10.979802 17103 net.cpp:157] Top shape: 1 384 108 180 (7464960)
I0424 18:30:10.979804 17103 net.cpp:165] Memory required for data: 2161728084
I0424 18:30:10.979807 17103 layer_factory.hpp:77] Creating layer concat
I0424 18:30:10.979812 17103 net.cpp:100] Creating Layer concat
I0424 18:30:10.979815 17103 net.cpp:434] concat <- conv3_4_conv3_4_0_split_5
I0424 18:30:10.979820 17103 net.cpp:434] concat <- upsample/conv4_4
I0424 18:30:10.979821 17103 net.cpp:434] concat <- upsample/conv5_4
I0424 18:30:10.979825 17103 net.cpp:408] concat -> concat
I0424 18:30:10.979842 17103 net.cpp:150] Setting up concat
I0424 18:30:10.979846 17103 net.cpp:157] Top shape: 1 768 108 180 (14929920)
I0424 18:30:10.979848 17103 net.cpp:165] Memory required for data: 2221447764
I0424 18:30:10.979851 17103 layer_factory.hpp:77] Creating layer concat_concat_0_split
I0424 18:30:10.979854 17103 net.cpp:100] Creating Layer concat_concat_0_split
I0424 18:30:10.979856 17103 net.cpp:434] concat_concat_0_split <- concat
I0424 18:30:10.979861 17103 net.cpp:408] concat_concat_0_split -> concat_concat_0_split_0
I0424 18:30:10.979866 17103 net.cpp:408] concat_concat_0_split -> concat_concat_0_split_1
I0424 18:30:10.979890 17103 net.cpp:150] Setting up concat_concat_0_split
I0424 18:30:10.979893 17103 net.cpp:157] Top shape: 1 768 108 180 (14929920)
I0424 18:30:10.979897 17103 net.cpp:157] Top shape: 1 768 108 180 (14929920)
I0424 18:30:10.979898 17103 net.cpp:165] Memory required for data: 2340887124
I0424 18:30:10.979900 17103 layer_factory.hpp:77] Creating layer convf_rpn
I0424 18:30:10.979907 17103 net.cpp:100] Creating Layer convf_rpn
I0424 18:30:10.979909 17103 net.cpp:434] convf_rpn <- concat_concat_0_split_0
I0424 18:30:10.979914 17103 net.cpp:408] convf_rpn -> convf_rpn
I0424 18:30:10.981567 17103 net.cpp:150] Setting up convf_rpn
I0424 18:30:10.981576 17103 net.cpp:157] Top shape: 1 128 108 180 (2488320)
I0424 18:30:10.981578 17103 net.cpp:165] Memory required for data: 2350840404
I0424 18:30:10.981583 17103 layer_factory.hpp:77] Creating layer reluf_rpn
I0424 18:30:10.981587 17103 net.cpp:100] Creating Layer reluf_rpn
I0424 18:30:10.981590 17103 net.cpp:434] reluf_rpn <- convf_rpn
I0424 18:30:10.981592 17103 net.cpp:395] reluf_rpn -> convf_rpn (in-place)
I0424 18:30:10.982065 17103 net.cpp:150] Setting up reluf_rpn
I0424 18:30:10.982074 17103 net.cpp:157] Top shape: 1 128 108 180 (2488320)
I0424 18:30:10.982075 17103 net.cpp:165] Memory required for data: 2360793684
I0424 18:30:10.982079 17103 layer_factory.hpp:77] Creating layer convf_rpn_reluf_rpn_0_split
I0424 18:30:10.982084 17103 net.cpp:100] Creating Layer convf_rpn_reluf_rpn_0_split
I0424 18:30:10.982086 17103 net.cpp:434] convf_rpn_reluf_rpn_0_split <- convf_rpn
I0424 18:30:10.982090 17103 net.cpp:408] convf_rpn_reluf_rpn_0_split -> convf_rpn_reluf_rpn_0_split_0
I0424 18:30:10.982096 17103 net.cpp:408] convf_rpn_reluf_rpn_0_split -> convf_rpn_reluf_rpn_0_split_1
I0424 18:30:10.982128 17103 net.cpp:150] Setting up convf_rpn_reluf_rpn_0_split
I0424 18:30:10.982133 17103 net.cpp:157] Top shape: 1 128 108 180 (2488320)
I0424 18:30:10.982136 17103 net.cpp:157] Top shape: 1 128 108 180 (2488320)
I0424 18:30:10.982137 17103 net.cpp:165] Memory required for data: 2380700244
I0424 18:30:10.982139 17103 layer_factory.hpp:77] Creating layer convf_2
I0424 18:30:10.982146 17103 net.cpp:100] Creating Layer convf_2
I0424 18:30:10.982151 17103 net.cpp:434] convf_2 <- concat_concat_0_split_1
I0424 18:30:10.982156 17103 net.cpp:408] convf_2 -> convf_2
I0424 18:30:10.985153 17103 net.cpp:150] Setting up convf_2
I0424 18:30:10.985163 17103 net.cpp:157] Top shape: 1 384 108 180 (7464960)
I0424 18:30:10.985165 17103 net.cpp:165] Memory required for data: 2410560084
I0424 18:30:10.985224 17103 layer_factory.hpp:77] Creating layer reluf_2
I0424 18:30:10.985229 17103 net.cpp:100] Creating Layer reluf_2
I0424 18:30:10.985231 17103 net.cpp:434] reluf_2 <- convf_2
I0424 18:30:10.985235 17103 net.cpp:395] reluf_2 -> convf_2 (in-place)
I0424 18:30:10.985709 17103 net.cpp:150] Setting up reluf_2
I0424 18:30:10.985718 17103 net.cpp:157] Top shape: 1 384 108 180 (7464960)
I0424 18:30:10.985721 17103 net.cpp:165] Memory required for data: 2440419924
I0424 18:30:10.985723 17103 layer_factory.hpp:77] Creating layer concat_convf
I0424 18:30:10.985728 17103 net.cpp:100] Creating Layer concat_convf
I0424 18:30:10.985730 17103 net.cpp:434] concat_convf <- convf_rpn_reluf_rpn_0_split_0
I0424 18:30:10.985733 17103 net.cpp:434] concat_convf <- convf_2
I0424 18:30:10.985738 17103 net.cpp:408] concat_convf -> convf
I0424 18:30:10.985760 17103 net.cpp:150] Setting up concat_convf
I0424 18:30:10.985764 17103 net.cpp:157] Top shape: 1 512 108 180 (9953280)
I0424 18:30:10.985766 17103 net.cpp:165] Memory required for data: 2480233044
I0424 18:30:10.985769 17103 layer_factory.hpp:77] Creating layer convf_concat_convf_0_split
I0424 18:30:10.985772 17103 net.cpp:100] Creating Layer convf_concat_convf_0_split
I0424 18:30:10.985775 17103 net.cpp:434] convf_concat_convf_0_split <- convf
I0424 18:30:10.985779 17103 net.cpp:408] convf_concat_convf_0_split -> convf_concat_convf_0_split_0
I0424 18:30:10.985783 17103 net.cpp:408] convf_concat_convf_0_split -> convf_concat_convf_0_split_1
I0424 18:30:10.985810 17103 net.cpp:150] Setting up convf_concat_convf_0_split
I0424 18:30:10.985815 17103 net.cpp:157] Top shape: 1 512 108 180 (9953280)
I0424 18:30:10.985817 17103 net.cpp:157] Top shape: 1 512 108 180 (9953280)
I0424 18:30:10.985819 17103 net.cpp:165] Memory required for data: 2559859284
I0424 18:30:10.985821 17103 layer_factory.hpp:77] Creating layer rpn_conv1
I0424 18:30:10.985828 17103 net.cpp:100] Creating Layer rpn_conv1
I0424 18:30:10.985831 17103 net.cpp:434] rpn_conv1 <- convf_rpn_reluf_rpn_0_split_1
I0424 18:30:10.985836 17103 net.cpp:408] rpn_conv1 -> rpn_conv1
I0424 18:30:10.990638 17103 net.cpp:150] Setting up rpn_conv1
I0424 18:30:10.990648 17103 net.cpp:157] Top shape: 1 384 108 180 (7464960)
I0424 18:30:10.990651 17103 net.cpp:165] Memory required for data: 2589719124
I0424 18:30:10.990655 17103 layer_factory.hpp:77] Creating layer rpn_relu1
I0424 18:30:10.990660 17103 net.cpp:100] Creating Layer rpn_relu1
I0424 18:30:10.990664 17103 net.cpp:434] rpn_relu1 <- rpn_conv1
I0424 18:30:10.990666 17103 net.cpp:395] rpn_relu1 -> rpn_conv1 (in-place)
I0424 18:30:10.990805 17103 net.cpp:150] Setting up rpn_relu1
I0424 18:30:10.990813 17103 net.cpp:157] Top shape: 1 384 108 180 (7464960)
I0424 18:30:10.990815 17103 net.cpp:165] Memory required for data: 2619578964
I0424 18:30:10.990818 17103 layer_factory.hpp:77] Creating layer rpn_conv1_rpn_relu1_0_split
I0424 18:30:10.990821 17103 net.cpp:100] Creating Layer rpn_conv1_rpn_relu1_0_split
I0424 18:30:10.990823 17103 net.cpp:434] rpn_conv1_rpn_relu1_0_split <- rpn_conv1
I0424 18:30:10.990828 17103 net.cpp:408] rpn_conv1_rpn_relu1_0_split -> rpn_conv1_rpn_relu1_0_split_0
I0424 18:30:10.990833 17103 net.cpp:408] rpn_conv1_rpn_relu1_0_split -> rpn_conv1_rpn_relu1_0_split_1
I0424 18:30:10.990864 17103 net.cpp:150] Setting up rpn_conv1_rpn_relu1_0_split
I0424 18:30:10.990869 17103 net.cpp:157] Top shape: 1 384 108 180 (7464960)
I0424 18:30:10.990871 17103 net.cpp:157] Top shape: 1 384 108 180 (7464960)
I0424 18:30:10.990873 17103 net.cpp:165] Memory required for data: 2679298644
I0424 18:30:10.990875 17103 layer_factory.hpp:77] Creating layer rpn_cls_score
I0424 18:30:10.990882 17103 net.cpp:100] Creating Layer rpn_cls_score
I0424 18:30:10.990888 17103 net.cpp:434] rpn_cls_score <- rpn_conv1_rpn_relu1_0_split_0
I0424 18:30:10.990893 17103 net.cpp:408] rpn_cls_score -> rpn_cls_score
I0424 18:30:10.992899 17103 net.cpp:150] Setting up rpn_cls_score
I0424 18:30:10.992908 17103 net.cpp:157] Top shape: 1 50 108 180 (972000)
I0424 18:30:10.992910 17103 net.cpp:165] Memory required for data: 2683186644
I0424 18:30:10.992915 17103 layer_factory.hpp:77] Creating layer rpn_cls_score_rpn_cls_score_0_split
I0424 18:30:10.992920 17103 net.cpp:100] Creating Layer rpn_cls_score_rpn_cls_score_0_split
I0424 18:30:10.992923 17103 net.cpp:434] rpn_cls_score_rpn_cls_score_0_split <- rpn_cls_score
I0424 18:30:10.992928 17103 net.cpp:408] rpn_cls_score_rpn_cls_score_0_split -> rpn_cls_score_rpn_cls_score_0_split_0
I0424 18:30:10.992933 17103 net.cpp:408] rpn_cls_score_rpn_cls_score_0_split -> rpn_cls_score_rpn_cls_score_0_split_1
I0424 18:30:10.992965 17103 net.cpp:150] Setting up rpn_cls_score_rpn_cls_score_0_split
I0424 18:30:10.992969 17103 net.cpp:157] Top shape: 1 50 108 180 (972000)
I0424 18:30:10.992972 17103 net.cpp:157] Top shape: 1 50 108 180 (972000)
I0424 18:30:10.992974 17103 net.cpp:165] Memory required for data: 2690962644
I0424 18:30:10.992976 17103 layer_factory.hpp:77] Creating layer rpn_bbox_pred
I0424 18:30:10.992983 17103 net.cpp:100] Creating Layer rpn_bbox_pred
I0424 18:30:10.992986 17103 net.cpp:434] rpn_bbox_pred <- rpn_conv1_rpn_relu1_0_split_1
I0424 18:30:10.992990 17103 net.cpp:408] rpn_bbox_pred -> rpn_bbox_pred
I0424 18:30:10.994547 17103 net.cpp:150] Setting up rpn_bbox_pred
I0424 18:30:10.994556 17103 net.cpp:157] Top shape: 1 100 108 180 (1944000)
I0424 18:30:10.994559 17103 net.cpp:165] Memory required for data: 2698738644
I0424 18:30:10.994562 17103 layer_factory.hpp:77] Creating layer rpn_bbox_pred_rpn_bbox_pred_0_split
I0424 18:30:10.994567 17103 net.cpp:100] Creating Layer rpn_bbox_pred_rpn_bbox_pred_0_split
I0424 18:30:10.994570 17103 net.cpp:434] rpn_bbox_pred_rpn_bbox_pred_0_split <- rpn_bbox_pred
I0424 18:30:10.994575 17103 net.cpp:408] rpn_bbox_pred_rpn_bbox_pred_0_split -> rpn_bbox_pred_rpn_bbox_pred_0_split_0
I0424 18:30:10.994580 17103 net.cpp:408] rpn_bbox_pred_rpn_bbox_pred_0_split -> rpn_bbox_pred_rpn_bbox_pred_0_split_1
I0424 18:30:10.994611 17103 net.cpp:150] Setting up rpn_bbox_pred_rpn_bbox_pred_0_split
I0424 18:30:10.994616 17103 net.cpp:157] Top shape: 1 100 108 180 (1944000)
I0424 18:30:10.994618 17103 net.cpp:157] Top shape: 1 100 108 180 (1944000)
I0424 18:30:10.994621 17103 net.cpp:165] Memory required for data: 2714290644
I0424 18:30:10.994622 17103 layer_factory.hpp:77] Creating layer rpn_cls_score_reshape
I0424 18:30:10.994628 17103 net.cpp:100] Creating Layer rpn_cls_score_reshape
I0424 18:30:10.994630 17103 net.cpp:434] rpn_cls_score_reshape <- rpn_cls_score_rpn_cls_score_0_split_0
I0424 18:30:10.994635 17103 net.cpp:408] rpn_cls_score_reshape -> rpn_cls_score_reshape
I0424 18:30:10.994655 17103 net.cpp:150] Setting up rpn_cls_score_reshape
I0424 18:30:10.994659 17103 net.cpp:157] Top shape: 1 2 2700 180 (972000)
I0424 18:30:10.994662 17103 net.cpp:165] Memory required for data: 2718178644
I0424 18:30:10.994663 17103 layer_factory.hpp:77] Creating layer rpn_cls_score_reshape_rpn_cls_score_reshape_0_split
I0424 18:30:10.994668 17103 net.cpp:100] Creating Layer rpn_cls_score_reshape_rpn_cls_score_reshape_0_split
I0424 18:30:10.994669 17103 net.cpp:434] rpn_cls_score_reshape_rpn_cls_score_reshape_0_split <- rpn_cls_score_reshape
I0424 18:30:10.994673 17103 net.cpp:408] rpn_cls_score_reshape_rpn_cls_score_reshape_0_split -> rpn_cls_score_reshape_rpn_cls_score_reshape_0_split_0
I0424 18:30:10.994678 17103 net.cpp:408] rpn_cls_score_reshape_rpn_cls_score_reshape_0_split -> rpn_cls_score_reshape_rpn_cls_score_reshape_0_split_1
I0424 18:30:10.994705 17103 net.cpp:150] Setting up rpn_cls_score_reshape_rpn_cls_score_reshape_0_split
I0424 18:30:10.994709 17103 net.cpp:157] Top shape: 1 2 2700 180 (972000)
I0424 18:30:10.994711 17103 net.cpp:157] Top shape: 1 2 2700 180 (972000)
I0424 18:30:10.994716 17103 net.cpp:165] Memory required for data: 2725954644
I0424 18:30:10.994719 17103 layer_factory.hpp:77] Creating layer rpn-data
I0424 18:30:10.995061 17103 net.cpp:100] Creating Layer rpn-data
I0424 18:30:10.995069 17103 net.cpp:434] rpn-data <- rpn_cls_score_rpn_cls_score_0_split_1
I0424 18:30:10.995074 17103 net.cpp:434] rpn-data <- gt_boxes_input-data_2_split_0
I0424 18:30:10.995077 17103 net.cpp:434] rpn-data <- im_info_input-data_1_split_0
I0424 18:30:10.995080 17103 net.cpp:434] rpn-data <- data_input-data_0_split_1
I0424 18:30:10.995085 17103 net.cpp:408] rpn-data -> rpn_labels
I0424 18:30:10.995090 17103 net.cpp:408] rpn-data -> rpn_bbox_targets
I0424 18:30:10.995095 17103 net.cpp:408] rpn-data -> rpn_bbox_inside_weights
I0424 18:30:10.995098 17103 net.cpp:408] rpn-data -> rpn_bbox_outside_weights
I0424 18:30:10.997635 17103 net.cpp:150] Setting up rpn-data
I0424 18:30:10.997649 17103 net.cpp:157] Top shape: 1 1 2700 180 (486000)
I0424 18:30:10.997653 17103 net.cpp:157] Top shape: 1 100 108 180 (1944000)
I0424 18:30:10.997654 17103 net.cpp:157] Top shape: 1 100 108 180 (1944000)
I0424 18:30:10.997658 17103 net.cpp:157] Top shape: 1 100 108 180 (1944000)
I0424 18:30:10.997659 17103 net.cpp:165] Memory required for data: 2751226644
I0424 18:30:10.997661 17103 layer_factory.hpp:77] Creating layer rpn_loss_cls
I0424 18:30:10.997668 17103 net.cpp:100] Creating Layer rpn_loss_cls
I0424 18:30:10.997673 17103 net.cpp:434] rpn_loss_cls <- rpn_cls_score_reshape_rpn_cls_score_reshape_0_split_0
I0424 18:30:10.997676 17103 net.cpp:434] rpn_loss_cls <- rpn_labels
…
I0424 18:30:11.008888 17103 net.cpp:157] Top shape: (1)
I0424 18:30:11.008890 17103 net.cpp:160]     with loss weight 1
I0424 18:30:11.008906 17103 net.cpp:165] Memory required for data: 2751226652
I0424 18:30:11.008910 17103 layer_factory.hpp:77] Creating layer rpn_cls_prob
I0424 18:30:11.008919 17103 net.cpp:100] Creating Layer rpn_cls_prob
I0424 18:30:11.008924 17103 net.cpp:434] rpn_cls_prob <- rpn_cls_score_reshape_rpn_cls_score_reshape_0_split_1
I0424 18:30:11.008931 17103 net.cpp:408] rpn_cls_prob -> rpn_cls_prob
I0424 18:30:11.009682 17103 net.cpp:150] Setting up rpn_cls_prob
I0424 18:30:11.009691 17103 net.cpp:157] Top shape: 1 2 2700 180 (972000)
I0424 18:30:11.009694 17103 net.cpp:165] Memory required for data: 2755114652
I0424 18:30:11.009696 17103 layer_factory.hpp:77] Creating layer rpn_cls_prob_reshape
I0424 18:30:11.009704 17103 net.cpp:100] Creating Layer rpn_cls_prob_reshape
I0424 18:30:11.009707 17103 net.cpp:434] rpn_cls_prob_reshape <- rpn_cls_prob
I0424 18:30:11.009711 17103 net.cpp:408] rpn_cls_prob_reshape -> rpn_cls_prob_reshape
I0424 18:30:11.009734 17103 net.cpp:150] Setting up rpn_cls_prob_reshape
I0424 18:30:11.009739 17103 net.cpp:157] Top shape: 1 50 108 180 (972000)
I0424 18:30:11.009742 17103 net.cpp:165] Memory required for data: 2759002652
I0424 18:30:11.009743 17103 layer_factory.hpp:77] Creating layer proposal
I0424 18:30:11.009749 17103 net.cpp:100] Creating Layer proposal
I0424 18:30:11.009752 17103 net.cpp:434] proposal <- rpn_cls_prob_reshape
I0424 18:30:11.009762 17103 net.cpp:434] proposal <- rpn_bbox_pred_rpn_bbox_pred_0_split_1
I0424 18:30:11.009764 17103 net.cpp:434] proposal <- im_info_input-data_1_split_1
I0424 18:30:11.009769 17103 net.cpp:408] proposal -> rpn_rois
I0424 18:30:11.009775 17103 net.cpp:408] proposal -> rpn_scores
I0424 18:30:11.009840 17103 net.cpp:150] Setting up proposal
I0424 18:30:11.009845 17103 net.cpp:157] Top shape: 2000 5 (10000)
I0424 18:30:11.009846 17103 net.cpp:157] Top shape: 2000 (2000)
I0424 18:30:11.009848 17103 net.cpp:165] Memory required for data: 2759050652
I0424 18:30:11.009850 17103 layer_factory.hpp:77] Creating layer mute_rpn_scores
I0424 18:30:11.009855 17103 net.cpp:100] Creating Layer mute_rpn_scores
I0424 18:30:11.009856 17103 net.cpp:434] mute_rpn_scores <- rpn_scores
I0424 18:30:11.009860 17103 net.cpp:150] Setting up mute_rpn_scores
I0424 18:30:11.009861 17103 net.cpp:165] Memory required for data: 2759050652
I0424 18:30:11.009863 17103 layer_factory.hpp:77] Creating layer roi-data
I0424 18:30:11.010046 17103 net.cpp:100] Creating Layer roi-data
I0424 18:30:11.010052 17103 net.cpp:434] roi-data <- rpn_rois
I0424 18:30:11.010056 17103 net.cpp:434] roi-data <- gt_boxes_input-data_2_split_1
I0424 18:30:11.010061 17103 net.cpp:408] roi-data -> rois
I0424 18:30:11.010066 17103 net.cpp:408] roi-data -> labels
I0424 18:30:11.010071 17103 net.cpp:408] roi-data -> bbox_targets
I0424 18:30:11.010074 17103 net.cpp:408] roi-data -> bbox_inside_weights
I0424 18:30:11.010078 17103 net.cpp:408] roi-data -> bbox_outside_weights
I0424 18:30:11.010442 17103 net.cpp:150] Setting up roi-data
I0424 18:30:11.010450 17103 net.cpp:157] Top shape: 128 5 (640)
I0424 18:30:11.010452 17103 net.cpp:157] Top shape: 128 1 (128)
I0424 18:30:11.010455 17103 net.cpp:157] Top shape: 128 8 (1024)
I0424 18:30:11.010457 17103 net.cpp:157] Top shape: 128 8 (1024)
I0424 18:30:11.010459 17103 net.cpp:157] Top shape: 128 8 (1024)
I0424 18:30:11.010462 17103 net.cpp:165] Memory required for data: 2759066012
I0424 18:30:11.010464 17103 layer_factory.hpp:77] Creating layer rois_roi-data_0_split
I0424 18:30:11.010468 17103 net.cpp:100] Creating Layer rois_roi-data_0_split
I0424 18:30:11.010471 17103 net.cpp:434] rois_roi-data_0_split <- rois
I0424 18:30:11.010475 17103 net.cpp:408] rois_roi-data_0_split -> rois_roi-data_0_split_0
I0424 18:30:11.010479 17103 net.cpp:408] rois_roi-data_0_split -> rois_roi-data_0_split_1
I0424 18:30:11.010506 17103 net.cpp:150] Setting up rois_roi-data_0_split
I0424 18:30:11.010510 17103 net.cpp:157] Top shape: 128 5 (640)
I0424 18:30:11.010512 17103 net.cpp:157] Top shape: 128 5 (640)
I0424 18:30:11.010514 17103 net.cpp:165] Memory required for data: 2759071132
I0424 18:30:11.010516 17103 layer_factory.hpp:77] Creating layer roi_pool5_readonly
I0424 18:30:11.010521 17103 net.cpp:100] Creating Layer roi_pool5_readonly
I0424 18:30:11.010524 17103 net.cpp:434] roi_pool5_readonly <- convf_concat_convf_0_split_0
I0424 18:30:11.010527 17103 net.cpp:434] roi_pool5_readonly <- rois_roi-data_0_split_0
I0424 18:30:11.010531 17103 net.cpp:408] roi_pool5_readonly -> pool5_readonly
I0424 18:30:11.010535 17103 roi_align_layer.cpp:35] Spatial scale: 0.125
I0424 18:30:11.010574 17103 net.cpp:150] Setting up roi_pool5_readonly
I0424 18:30:11.010578 17103 net.cpp:157] Top shape: 128 512 6 6 (2359296)
I0424 18:30:11.010581 17103 net.cpp:165] Memory required for data: 2768508316
I0424 18:30:11.010582 17103 layer_factory.hpp:77] Creating layer fc6_readonly
I0424 18:30:11.010589 17103 net.cpp:100] Creating Layer fc6_readonly
I0424 18:30:11.010592 17103 net.cpp:434] fc6_readonly <- pool5_readonly
I0424 18:30:11.010596 17103 net.cpp:408] fc6_readonly -> fc6_readonly
I0424 18:30:11.096669 17103 net.cpp:150] Setting up fc6_readonly
I0424 18:30:11.096701 17103 net.cpp:157] Top shape: 128 4096 (524288)
I0424 18:30:11.096704 17103 net.cpp:165] Memory required for data: 2770605468
I0424 18:30:11.096711 17103 layer_factory.hpp:77] Creating layer relu6_readonly
I0424 18:30:11.096719 17103 net.cpp:100] Creating Layer relu6_readonly
I0424 18:30:11.096730 17103 net.cpp:434] relu6_readonly <- fc6_readonly
I0424 18:30:11.096737 17103 net.cpp:395] relu6_readonly -> fc6_readonly (in-place)
I0424 18:30:11.096952 17103 net.cpp:150] Setting up relu6_readonly
I0424 18:30:11.096959 17103 net.cpp:157] Top shape: 128 4096 (524288)
I0424 18:30:11.096961 17103 net.cpp:165] Memory required for data: 2772702620
I0424 18:30:11.096963 17103 layer_factory.hpp:77] Creating layer drop6_readonly
I0424 18:30:11.096969 17103 net.cpp:100] Creating Layer drop6_readonly
I0424 18:30:11.096972 17103 net.cpp:434] drop6_readonly <- fc6_readonly
I0424 18:30:11.096976 17103 net.cpp:395] drop6_readonly -> fc6_readonly (in-place)
I0424 18:30:11.096992 17103 net.cpp:150] Setting up drop6_readonly
I0424 18:30:11.096997 17103 net.cpp:157] Top shape: 128 4096 (524288)
I0424 18:30:11.096999 17103 net.cpp:165] Memory required for data: 2774799772
I0424 18:30:11.097002 17103 layer_factory.hpp:77] Creating layer fc7_readonly
I0424 18:30:11.097007 17103 net.cpp:100] Creating Layer fc7_readonly
I0424 18:30:11.097008 17103 net.cpp:434] fc7_readonly <- fc6_readonly
I0424 18:30:11.097012 17103 net.cpp:408] fc7_readonly -> fc7_readonly
I0424 18:30:11.116628 17103 net.cpp:150] Setting up fc7_readonly
I0424 18:30:11.116659 17103 net.cpp:157] Top shape: 128 4096 (524288)
I0424 18:30:11.116662 17103 net.cpp:165] Memory required for data: 2776896924
I0424 18:30:11.116669 17103 layer_factory.hpp:77] Creating layer relu7_readonly
I0424 18:30:11.116677 17103 net.cpp:100] Creating Layer relu7_readonly
I0424 18:30:11.116681 17103 net.cpp:434] relu7_readonly <- fc7_readonly
I0424 18:30:11.116688 17103 net.cpp:395] relu7_readonly -> fc7_readonly (in-place)
I0424 18:30:11.117339 17103 net.cpp:150] Setting up relu7_readonly
I0424 18:30:11.117347 17103 net.cpp:157] Top shape: 128 4096 (524288)
I0424 18:30:11.117350 17103 net.cpp:165] Memory required for data: 2778994076
I0424 18:30:11.117352 17103 layer_factory.hpp:77] Creating layer drop7_readonly
I0424 18:30:11.117358 17103 net.cpp:100] Creating Layer drop7_readonly
I0424 18:30:11.117360 17103 net.cpp:434] drop7_readonly <- fc7_readonly
I0424 18:30:11.117367 17103 net.cpp:395] drop7_readonly -> fc7_readonly (in-place)
I0424 18:30:11.117384 17103 net.cpp:150] Setting up drop7_readonly
I0424 18:30:11.117388 17103 net.cpp:157] Top shape: 128 4096 (524288)
I0424 18:30:11.117390 17103 net.cpp:165] Memory required for data: 2781091228
I0424 18:30:11.117393 17103 layer_factory.hpp:77] Creating layer fc7_readonly_drop7_readonly_0_split
I0424 18:30:11.117398 17103 net.cpp:100] Creating Layer fc7_readonly_drop7_readonly_0_split
I0424 18:30:11.117399 17103 net.cpp:434] fc7_readonly_drop7_readonly_0_split <- fc7_readonly
I0424 18:30:11.117403 17103 net.cpp:408] fc7_readonly_drop7_readonly_0_split -> fc7_readonly_drop7_readonly_0_split_0
I0424 18:30:11.117441 17103 net.cpp:408] fc7_readonly_drop7_readonly_0_split -> fc7_readonly_drop7_readonly_0_split_1
I0424 18:30:11.117471 17103 net.cpp:150] Setting up fc7_readonly_drop7_readonly_0_split
I0424 18:30:11.117476 17103 net.cpp:157] Top shape: 128 4096 (524288)
I0424 18:30:11.117478 17103 net.cpp:157] Top shape: 128 4096 (524288)
I0424 18:30:11.117480 17103 net.cpp:165] Memory required for data: 2785285532
I0424 18:30:11.117482 17103 layer_factory.hpp:77] Creating layer cls_score_readonly
I0424 18:30:11.117488 17103 net.cpp:100] Creating Layer cls_score_readonly
I0424 18:30:11.117491 17103 net.cpp:434] cls_score_readonly <- fc7_readonly_drop7_readonly_0_split_0
I0424 18:30:11.117496 17103 net.cpp:408] cls_score_readonly -> cls_score_readonly
I0424 18:30:11.117635 17103 net.cpp:150] Setting up cls_score_readonly
I0424 18:30:11.117640 17103 net.cpp:157] Top shape: 128 2 (256)
I0424 18:30:11.117641 17103 net.cpp:165] Memory required for data: 2785286556
I0424 18:30:11.117645 17103 layer_factory.hpp:77] Creating layer bbox_pred_readonly
I0424 18:30:11.117650 17103 net.cpp:100] Creating Layer bbox_pred_readonly
I0424 18:30:11.117651 17103 net.cpp:434] bbox_pred_readonly <- fc7_readonly_drop7_readonly_0_split_1
I0424 18:30:11.117662 17103 net.cpp:408] bbox_pred_readonly -> bbox_pred_readonly
I0424 18:30:11.117981 17103 net.cpp:150] Setting up bbox_pred_readonly
I0424 18:30:11.117986 17103 net.cpp:157] Top shape: 128 8 (1024)
I0424 18:30:11.117988 17103 net.cpp:165] Memory required for data: 2785290652
I0424 18:30:11.117991 17103 layer_factory.hpp:77] Creating layer cls_prob_readonly
I0424 18:30:11.117995 17103 net.cpp:100] Creating Layer cls_prob_readonly
I0424 18:30:11.117997 17103 net.cpp:434] cls_prob_readonly <- cls_score_readonly
I0424 18:30:11.118001 17103 net.cpp:408] cls_prob_readonly -> cls_prob_readonly
I0424 18:30:11.118520 17103 net.cpp:150] Setting up cls_prob_readonly
I0424 18:30:11.118527 17103 net.cpp:157] Top shape: 128 2 (256)
I0424 18:30:11.118530 17103 net.cpp:165] Memory required for data: 2785291676
I0424 18:30:11.118532 17103 layer_factory.hpp:77] Creating layer hard_roi_mining
I0424 18:30:11.118571 17103 net.cpp:100] Creating Layer hard_roi_mining
I0424 18:30:11.118576 17103 net.cpp:434] hard_roi_mining <- cls_prob_readonly
I0424 18:30:11.118579 17103 net.cpp:434] hard_roi_mining <- bbox_pred_readonly
I0424 18:30:11.118582 17103 net.cpp:434] hard_roi_mining <- rois_roi-data_0_split_1
I0424 18:30:11.118585 17103 net.cpp:434] hard_roi_mining <- labels
I0424 18:30:11.118587 17103 net.cpp:434] hard_roi_mining <- bbox_targets
I0424 18:30:11.118590 17103 net.cpp:434] hard_roi_mining <- bbox_inside_weights
I0424 18:30:11.118592 17103 net.cpp:434] hard_roi_mining <- bbox_outside_weights
I0424 18:30:11.118597 17103 net.cpp:408] hard_roi_mining -> rois_hard
I0424 18:30:11.118602 17103 net.cpp:408] hard_roi_mining -> labels_hard
I0424 18:30:11.118608 17103 net.cpp:408] hard_roi_mining -> bbox_targets_hard
I0424 18:30:11.118613 17103 net.cpp:408] hard_roi_mining -> bbox_inside_weights_hard
I0424 18:30:11.118618 17103 net.cpp:408] hard_roi_mining -> bbox_outside_weights_hard
I0424 18:30:11.119011 17103 net.cpp:150] Setting up hard_roi_mining
I0424 18:30:11.119019 17103 net.cpp:157] Top shape: 128 5 (640)
I0424 18:30:11.119021 17103 net.cpp:157] Top shape: 128 (128)
I0424 18:30:11.119024 17103 net.cpp:157] Top shape: 128 8 (1024)
I0424 18:30:11.119026 17103 net.cpp:157] Top shape: 128 8 (1024)
I0424 18:30:11.119029 17103 net.cpp:157] Top shape: 128 8 (1024)
I0424 18:30:11.119030 17103 net.cpp:165] Memory required for data: 2785307036
I0424 18:30:11.119032 17103 layer_factory.hpp:77] Creating layer roi_pool5
I0424 18:30:11.119038 17103 net.cpp:100] Creating Layer roi_pool5
I0424 18:30:11.119041 17103 net.cpp:434] roi_pool5 <- convf_concat_convf_0_split_1
I0424 18:30:11.119045 17103 net.cpp:434] roi_pool5 <- rois_hard
I0424 18:30:11.119048 17103 net.cpp:408] roi_pool5 -> pool5
I0424 18:30:11.119053 17103 roi_align_layer.cpp:35] Spatial scale: 0.125
I0424 18:30:11.119109 17103 net.cpp:150] Setting up roi_pool5
I0424 18:30:11.119113 17103 net.cpp:157] Top shape: 128 512 6 6 (2359296)
I0424 18:30:11.119115 17103 net.cpp:165] Memory required for data: 2794744220
I0424 18:30:11.119117 17103 layer_factory.hpp:77] Creating layer fc6
I0424 18:30:11.119122 17103 net.cpp:100] Creating Layer fc6
I0424 18:30:11.119124 17103 net.cpp:434] fc6 <- pool5
I0424 18:30:11.119128 17103 net.cpp:408] fc6 -> fc6
I0424 18:30:11.205562 17103 net.cpp:150] Setting up fc6
I0424 18:30:11.205595 17103 net.cpp:157] Top shape: 128 4096 (524288)
I0424 18:30:11.205597 17103 net.cpp:165] Memory required for data: 2796841372
I0424 18:30:11.205602 17103 net.cpp:493] Sharing parameters 'fc6_w' owned by layer 'fc6_readonly', param index 0
I0424 18:30:11.205606 17103 net.cpp:493] Sharing parameters 'fc6_b' owned by layer 'fc6_readonly', param index 1
I0424 18:30:11.205610 17103 layer_factory.hpp:77] Creating layer relu6
I0424 18:30:11.205617 17103 net.cpp:100] Creating Layer relu6
I0424 18:30:11.205621 17103 net.cpp:434] relu6 <- fc6
I0424 18:30:11.205627 17103 net.cpp:395] relu6 -> fc6 (in-place)
I0424 18:30:11.205843 17103 net.cpp:150] Setting up relu6
I0424 18:30:11.205850 17103 net.cpp:157] Top shape: 128 4096 (524288)
I0424 18:30:11.205852 17103 net.cpp:165] Memory required for data: 2798938524
I0424 18:30:11.205862 17103 layer_factory.hpp:77] Creating layer drop6
I0424 18:30:11.205868 17103 net.cpp:100] Creating Layer drop6
I0424 18:30:11.205870 17103 net.cpp:434] drop6 <- fc6
I0424 18:30:11.205873 17103 net.cpp:395] drop6 -> fc6 (in-place)
I0424 18:30:11.205891 17103 net.cpp:150] Setting up drop6
I0424 18:30:11.205895 17103 net.cpp:157] Top shape: 128 4096 (524288)
I0424 18:30:11.205898 17103 net.cpp:165] Memory required for data: 2801035676
I0424 18:30:11.205899 17103 layer_factory.hpp:77] Creating layer fc7
I0424 18:30:11.205907 17103 net.cpp:100] Creating Layer fc7
I0424 18:30:11.205909 17103 net.cpp:434] fc7 <- fc6
I0424 18:30:11.205914 17103 net.cpp:408] fc7 -> fc7
I0424 18:30:11.225358 17103 net.cpp:150] Setting up fc7
I0424 18:30:11.225396 17103 net.cpp:157] Top shape: 128 4096 (524288)
I0424 18:30:11.225399 17103 net.cpp:165] Memory required for data: 2803132828
I0424 18:30:11.225404 17103 net.cpp:493] Sharing parameters 'fc7_w' owned by layer 'fc7_readonly', param index 0
I0424 18:30:11.225409 17103 net.cpp:493] Sharing parameters 'fc7_b' owned by layer 'fc7_readonly', param index 1
I0424 18:30:11.225411 17103 layer_factory.hpp:77] Creating layer relu7
I0424 18:30:11.225419 17103 net.cpp:100] Creating Layer relu7
I0424 18:30:11.225422 17103 net.cpp:434] relu7 <- fc7
I0424 18:30:11.225427 17103 net.cpp:395] relu7 -> fc7 (in-place)
I0424 18:30:11.226094 17103 net.cpp:150] Setting up relu7
I0424 18:30:11.226102 17103 net.cpp:157] Top shape: 128 4096 (524288)
I0424 18:30:11.226104 17103 net.cpp:165] Memory required for data: 2805229980
I0424 18:30:11.226107 17103 layer_factory.hpp:77] Creating layer drop7
I0424 18:30:11.226112 17103 net.cpp:100] Creating Layer drop7
I0424 18:30:11.226115 17103 net.cpp:434] drop7 <- fc7
I0424 18:30:11.226120 17103 net.cpp:395] drop7 -> fc7 (in-place)
I0424 18:30:11.226140 17103 net.cpp:150] Setting up drop7
I0424 18:30:11.226143 17103 net.cpp:157] Top shape: 128 4096 (524288)
I0424 18:30:11.226145 17103 net.cpp:165] Memory required for data: 2807327132
I0424 18:30:11.226147 17103 layer_factory.hpp:77] Creating layer fc7_drop7_0_split
I0424 18:30:11.226152 17103 net.cpp:100] Creating Layer fc7_drop7_0_split
I0424 18:30:11.226155 17103 net.cpp:434] fc7_drop7_0_split <- fc7
I0424 18:30:11.226158 17103 net.cpp:408] fc7_drop7_0_split -> fc7_drop7_0_split_0
I0424 18:30:11.226164 17103 net.cpp:408] fc7_drop7_0_split -> fc7_drop7_0_split_1
I0424 18:30:11.226193 17103 net.cpp:150] Setting up fc7_drop7_0_split
I0424 18:30:11.226198 17103 net.cpp:157] Top shape: 128 4096 (524288)
I0424 18:30:11.226200 17103 net.cpp:157] Top shape: 128 4096 (524288)
I0424 18:30:11.226202 17103 net.cpp:165] Memory required for data: 2811521436
I0424 18:30:11.226204 17103 layer_factory.hpp:77] Creating layer full1_cls_score
I0424 18:30:11.226212 17103 net.cpp:100] Creating Layer full1_cls_score
I0424 18:30:11.226214 17103 net.cpp:434] full1_cls_score <- fc7_drop7_0_split_0
I0424 18:30:11.226218 17103 net.cpp:408] full1_cls_score -> cls_score
I0424 18:30:11.226359 17103 net.cpp:150] Setting up full1_cls_score
I0424 18:30:11.226363 17103 net.cpp:157] Top shape: 128 2 (256)
I0424 18:30:11.226366 17103 net.cpp:165] Memory required for data: 2811522460
I0424 18:30:11.226368 17103 net.cpp:493] Sharing parameters 'cls_score_w' owned by layer 'cls_score_readonly', param index 0
I0424 18:30:11.226372 17103 net.cpp:493] Sharing parameters 'cls_score_b' owned by layer 'cls_score_readonly', param index 1
I0424 18:30:11.226374 17103 layer_factory.hpp:77] Creating layer sjtuOhem_cg_bbox_pred
I0424 18:30:11.226379 17103 net.cpp:100] Creating Layer sjtuOhem_cg_bbox_pred
I0424 18:30:11.226382 17103 net.cpp:434] sjtuOhem_cg_bbox_pred <- fc7_drop7_0_split_1
I0424 18:30:11.226387 17103 net.cpp:408] sjtuOhem_cg_bbox_pred -> bbox_pred
I0424 18:30:11.226704 17103 net.cpp:150] Setting up sjtuOhem_cg_bbox_pred
I0424 18:30:11.226709 17103 net.cpp:157] Top shape: 128 8 (1024)
I0424 18:30:11.226711 17103 net.cpp:165] Memory required for data: 2811526556
I0424 18:30:11.226713 17103 net.cpp:493] Sharing parameters 'bbox_pred_w' owned by layer 'bbox_pred_readonly', param index 0
I0424 18:30:11.226722 17103 net.cpp:493] Sharing parameters 'bbox_pred_b' owned by layer 'bbox_pred_readonly', param index 1
I0424 18:30:11.226725 17103 layer_factory.hpp:77] Creating layer loss_cls
…
