…
weight_decay: 0.0005
stepsize: 50000
snapshot: 0
snapshot_prefix: "zf_faster_rcnn"
average_loss: 100
iter_size: 2
I0223 12:02:52.198112 29804 solver.cpp:81] Creating training net from train_net file: models/pvanet/full1_ohem/original.pt
I0223 12:02:52.203429 29804 net.cpp:58] Initializing net from parameters: 
name: "PVANET"
state {
  phase: TRAIN
}
layer {
  name: "input-data"
  type: "Python"
  top: "data"
  top: "im_info"
  top: "gt_boxes"
  python_param {
    module: "roi_data_layer.layer"
    layer: "RoIDataLayer"
    param_str: "\'num_classes\': 2"
  }
}
layer {
  name: "conv1_1/conv"
  type: "Convolution"
  bottom: "data"
  top: "conv1_1/conv"
  param {
    lr_mult: 0.1
    decay_mult: 0.1
  }
  convolution_param {
    num_output: 16
    bias_term: false
    weight_filler {
      type: "xavier"
    }
    pad_h: 3
    pad_w: 3
    kernel_h: 7
    kernel_w: 7
    stride_h: 2
    stride_w: 2
  }
}
layer {
  name: "conv1_1/bn"
  type: "BatchNorm"
  bottom: "conv1_1/conv"
  top: "conv1_1/conv"
  param {
    lr_mult: 0
    decay_mult: 0
  }
  param {
    lr_mult: 0
    decay_mult: 0
  }
  param {
    lr_mult: 0
    decay_mult: 0
  }
  batch_norm_param {
    use_global_stats: true
  }
}
layer {
  name: "conv1_1/neg"
  type: "Power"
  bottom: "conv1_1/conv"
  top: "conv1_1/neg"
  power_param {
    power: 1
    scale: -1
    shift: 0
  }
}
layer {
  name: "conv1_1/concat"
  type: "Concat"
  bottom: "conv1_1/conv"
  bottom: "conv1_1/neg"
  top: "conv1_1"
}
layer {
  name: "conv1_1/scale"
  type: "Scale"
  bottom: "conv1_1"
  top: "conv1_1"
  param {
    lr_mult: 0.1
    decay_mult: 0
  }
  param {
    lr_mult: 0.2
    decay_mult: 0
  }
  scale_param {
    bias_term: true
  }
}
layer {
  name: "conv1_1/relu"
  type: "ReLU"
  bottom: "conv1_1"
  top: "conv1_1"
}
layer {
  name: "pool1"
  type: "Pooling"
  bottom: "conv1_1"
  top: "pool1"
  pooling_param {
    pool: MAX
    kernel_size: 3
    stride: 2
    pad: 0
  }
}
layer {
  name: "conv2_1/1/conv"
  type: "Convolution"
  bottom: "pool1"
  top: "conv2_1/1"
  param {
    lr_mult: 0.1
    decay_mult: 0.1
  }
  convolution_param {
    num_output: 24
    bias_term: false
    weight_filler {
      type: "xavier"
    }
    pad_h: 0
    pad_w: 0
    kernel_h: 1
    kernel_w: 1
    stride_h: 1
    stride_w: 1
  }
}
layer {
  name: "conv2_1/1/bn"
  type: "BatchNorm"
  bottom: "conv2_1/1"
  top: "conv2_1/1"
  param {
    lr_mult: 0
    decay_mult: 0
  }
  param {
    lr_mult: 0
    decay_mult: 0
  }
  param {
    lr_mult: 0
    decay_mult: 0
  }
  batch_norm_param {
    use_global_stats: true
  }
}
layer {
  name: "conv2_1/1/bn_scale"
  type: "Scale"
  bottom: "conv2_1/1"
  top: "conv2_1/1"
  param {
    lr_mult: 0.1
    decay_mult: 0
  }
  param {
    lr_mult: 0.1
    decay_mult: 0
  }
  scale_param {
    bias_term: true
  }
}
layer {
  name: "conv2_1/1/relu"
  type: "ReLU"
  bottom: "conv2_1/1"
  top: "conv2_1/1"
}
layer {
  name: "conv2_1/2/conv"
  type: "Convolution"
  bottom: "conv2_1/1"
  top: "conv2_1/2/conv"
  param {
    lr_mult: 0.1
    decay_mult: 0.1
  }
  convolution_param {
    num_output: 24
    bias_term: false
    weight_filler {
      type: "xavier"
    }
    pad_h: 1
    pad_w: 1
    kernel_h: 3
    kernel_w: 3
    stride_h: 1
    stride_w: 1
  }
}
layer {
  name: "conv2_1/2/bn"
  type: "BatchNorm"
  bottom: "conv2_1/2/conv"
  top: "conv2_1/2/conv"
  param {
    lr_mult: 0
    decay_mult: 0
  }
  param {
    lr_mult: 0
    decay_mult: 0
  }
  param {
    lr_mult: 0
    decay_mult: 0
  }
  batch_norm_param {
    use_global_stats: true
  }
}
layer {
  name: "conv2_1/2/neg"
  type: "Power"
  bottom: "conv2_1/2/conv"
  top: "conv2_1/2/neg"
  power_param {
    power: 1
    scale: -1
    shift: 0
  }
}
layer {
  name: "conv2_1/2/concat"
  type: "Concat"
  bottom: "conv2_1/2/conv"
  bottom: "conv2_1/2/neg"
  top: "conv2_1/2"
}
layer {
  name: "conv2_1/2/scale"
  type: "Scale"
  bottom: "conv2_1/2"
  top: "conv2_1/2"
  param {
    lr_mult: 0.1
    decay_mult: 0
  }
  param {
    lr_mult: 0.2
    decay_mult: 0
  }
  scale_param {
    bias_term: true
  }
}
layer {
  name: "conv2_1/2/relu"
  type: "ReLU"
  bottom: "conv2_1/2"
  top: "conv2_1/2"
}
layer {
  name: "conv2_1/3/conv"
  type: "Convolution"
  bottom: "conv2_1/2"
  top: "conv2_1/3"
  param {
    lr_mult: 0.1
    decay_mult: 0.1
  }
  convolution_param {
    num_output: 64
    bias_term: false
    weight_filler {
      type: "xavier"
    }
    pad_h: 0
    pad_w: 0
    kernel_h: 1
    kernel_w: 1
    stride_h: 1
    stride_w: 1
  }
}
layer {
  name: "conv2_1/3/bn"
  type: "BatchNorm"
  bottom: "conv2_1/3"
  top: "conv2_1/3"
  param {
    lr_mult: 0
    decay_mult: 0
  }
  param {
    lr_mult: 0
    decay_mult: 0
  }
  param {
    lr_mult: 0
    decay_mult: 0
  }
  batch_norm_param {
    use_global_stats: true
  }
}
layer {
  name: "conv2_1/3/bn_scale"
  type: "Scale"
  bottom: "conv2_1/3"
  top: "conv2_1/3"
  param {
    lr_mult: 0.1
    decay_mult: 0
  }
  param {
    lr_mult: 0.1
    decay_mult: 0
  }
  scale_param {
    bias_term: true
  }
}
layer {
  name: "conv2_1/proj"
  type: "Convolution"
  bottom: "pool1"
  top: "conv2_1/proj"
  param {
    lr_mult: 0.1
    decay_mult: 0.1
  }
  param {
    lr_mult: 0.2
    decay_mult: 0
  }
  convolution_param {
    num_output: 64
    weight_filler {
      type: "xavier"
    }
    bias_filler {
      type: "constant"
      value: 0.1
    }
    pad_h: 0
    pad_w: 0
    kernel_h: 1
    kernel_w: 1
    stride_h: 1
    stride_w: 1
  }
}
layer {
  name: "conv2_1/proj_bn"
  type: "BatchNorm"
  bottom: "conv2_1/proj"
  top: "conv2_1/proj"
  param {
    lr_mult: 0
    decay_mult: 0
  }
  param {
    lr_mult: 0
    decay_mult: 0
  }
  param {
    lr_mult: 0
    decay_mult: 0
  }
  batch_norm_param {
    use_global_stats: true
  }
}
layer {
  name: "conv2_1/proj_bn_scale"
  type: "Scale"
  bottom: "conv2_1/proj"
  top: "conv2_1/proj"
  param {
    lr_mult: 0.1
    decay_mult: 0
  }
  param {
    lr_mult: 0.1
    decay_mult: 0
  }
  scale_param {
    bias_term: true
  }
}
layer {
  name: "conv2_1"
  type: "Eltwise"
  bottom: "conv2_1/3"
  bottom: "conv2_1/proj"
  top: "conv2_1"
  eltwise_param {
    operation: SUM
    coeff: 1
    coeff: 1
  }
}
layer {
  name: "conv2_2/1/conv"
  type: "Convolution"
  bottom: "conv2_1"
  top: "conv2_2/1"
  param {
    lr_mult: 0.1
    decay_mult: 0.1
  }
  convolution_param {
    num_output: 24
    bias_term: false
    weight_filler {
      type: "xavier"
    }
    pad_h: 0
    pad_w: 0
    kernel_h: 1
    kernel_w: 1
    stride_h: 1
    stride_w: 1
  }
}
layer {
  name: "conv2_2/1/bn"
  type: "BatchNorm"
  bottom: "conv2_2/1"
  top: "conv2_2/1"
  param {
    lr_mult: 0
    decay_mult: 0
  }
  param {
    lr_mult: 0
    decay_mult: 0
  }
  param {
    lr_mult: 0
    decay_mult: 0
  }
  batch_norm_param {
    use_global_stats: true
  }
}
layer {
  name: "conv2_2/1/bn_scale"
  type: "Scale"
  bottom: "conv2_2/1"
  top: "conv2_2/1"
  param {
    lr_mult: 0.1
    decay_mult: 0
  }
  param {
    lr_mult: 0.1
    decay_mult: 0
  }
  scale_param {
    bias_term: true
  }
}
layer {
  name: "conv2_2/1/relu"
  type: "ReLU"
  bottom: "conv2_2/1"
  top: "conv2_2/1"
}
layer {
  name: "conv2_2/2/conv"
  type: "Convolution"
  bottom: "conv2_2/1"
  top: "conv2_2/2/conv"
  param {
    lr_mult: 0.1
    decay_mult: 0.1
  }
  convolution_param {
    num_output: 24
    bias_term: false
    weight_filler {
      type: "xavier"
    }
    pad_h: 1
    pad_w: 1
    kernel_h: 3
    kernel_w: 3
    stride_h: 1
    stride_w: 1
  }
}
layer {
  name: "conv2_2/2/bn"
  type: "BatchNorm"
  bottom: "conv2_2/2/conv"
  top: "conv2_2/2/conv"
  param {
    lr_mult: 0
    decay_mult: 0
  }
  param {
    lr_mult: 0
    decay_mult: 0
  }
  param {
    lr_mult: 0
    decay_mult: 0
  }
  batch_norm_param {
    use_global_stats: true
  }
}
layer {
  name: "conv2_2/2/neg"
  type: "Power"
  bottom: "conv2_2/2/conv"
  top: "conv2_2/2/neg"
  power_param {
    power: 1
    scale: -1
    shift: 0
  }
}
layer {
  name: "conv2_2/2/concat"
  type: "Concat"
  bottom: "conv2_2/2/conv"
  bottom: "conv2_2/2/neg"
  top: "conv2_2/2"
}
layer {
  name: "conv2_2/2/scale"
  type: "Scale"
  bottom: "conv2_2/2"
  top: "conv2_2/2"
  param {
    lr_mult: 0.1
    decay_mult: 0
  }
  param {
    lr_mult: 0.2
    decay_mult: 0
  }
  scale_param {
    bias_term: true
  }
}
layer {
  name: "conv2_2/2/relu"
  type: "ReLU"
  bottom: "conv2_2/2"
  top: "conv2_2/2"
}
layer {
  name: "conv2_2/3/conv"
  type: "Convolution"
  bottom: "conv2_2/2"
  top: "conv2_2/3"
  param {
    lr_mult: 0.1
    decay_mult: 0.1
  }
  convolution_param {
    num_output: 64
    bias_term: false
    weight_filler {
      type: "xavier"
    }
    pad_h: 0
    pad_w: 0
    kernel_h: 1
    kernel_w: 1
    stride_h: 1
    stride_w: 1
  }
}
layer {
  name: "conv2_2/3/bn"
  type: "BatchNorm"
  bottom: "conv2_2/3"
  top: "conv2_2/3"
  param {
    lr_mult: 0
    decay_mult: 0
  }
  param {
    lr_mult: 0
    decay_mult: 0
  }
  param {
    lr_mult: 0
    decay_mult: 0
  }
  batch_norm_param {
    use_global_stats: true
  }
}
layer {
  name: "conv2_2/3/bn_scale"
  type: "Scale"
  bottom: "conv2_2/3"
  top: "conv2_2/3"
  param {
    lr_mult: 0.1
    decay_mult: 0
  }
  param {
    lr_mult: 0.1
    decay_mult: 0
  }
  scale_param {
    bias_term: true
  }
}
layer {
  name: "conv2_2/input"
  type: "Power"
  bottom: "conv2_1"
  top: "conv2_2/input"
  power_param {
    power: 1
    scale: 1
    shift: 0
  }
}
layer {
  name: "conv2_2"
  type: "Eltwise"
  bottom: "conv2_2/3"
  bottom: "conv2_2/input"
  top: "conv2_2"
  eltwise_param {
    operation: SUM
    coeff: 1
    coeff: 1
  }
}
layer {
  name: "conv2_3/1/conv"
  type: "Convolution"
  bottom: "conv2_2"
  top: "conv2_3/1"
  param {
    lr_mult: 0.1
    decay_mult: 0.1
  }
  convolution_param {
    num_output: 24
    bias_term: false
    weight_filler {
      type: "xavier"
    }
    pad_h: 0
    pad_w: 0
    kernel_h: 1
    kernel_w: 1
    stride_h: 1
    stride_w: 1
  }
}
layer {
  name: "conv2_3/1/bn"
  type: "BatchNorm"
  bottom: "conv2_3/1"
  top: "conv2_3/1"
  param {
    lr_mult: 0
    decay_mult: 0
  }
  param {
    lr_mult: 0
    decay_mult: 0
  }
  param {
    lr_mult: 0
    decay_mult: 0
  }
  batch_norm_param {
    use_global_stats: true
  }
}
layer {
  name: "conv2_3/1/bn_scale"
  type: "Scale"
  bottom: "conv2_3/1"
  top: "conv2_3/1"
  param {
    lr_mult: 0.1
    decay_mult: 0
  }
  param {
    lr_mult: 0.1
    decay_mult: 0
  }
  scale_param {
    bias_term: true
  }
}
layer {
  name: "conv2_3/1/relu"
  type: "ReLU"
  bottom: "conv2_3/1"
  top: "conv2_3/1"
}
layer {
  name: "conv2_3/2/conv"
  type: "Convolution"
  bottom: "conv2_3/1"
  top: "conv2_3/2/conv"
  param {
    lr_mult: 0.1
    decay_mult: 0.1
  }
  convolution_param {
    num_output: 24
    bias_term: false
    weight_filler {
      type: "xavier"
    }
    pad_h: 1
    pad_w: 1
    kernel_h: 3
    kernel_w: 3
    stride_h: 1
    stride_w: 1
  }
}
layer {
  name: "conv2_3/2/bn"
  type: "BatchNorm"
  bottom: "conv2_3/2/conv"
  top: "conv2_3/2/conv"
  param {
    lr_mult: 0
    decay_mult: 0
  }
  param {
    lr_mult: 0
    decay_mult: 0
  }
  param {
    lr_mult: 0
    decay_mult: 0
  }
  batch_norm_param {
    use_global_stats: true
  }
}
layer {
  name: "conv2_3/2/neg"
  type: "Power"
  bottom: "conv2_3/2/conv"
  top: "conv2_3/2/neg"
  power_param {
    power: 1
    scale: -1
    shift: 0
  }
}
layer {
  name: "conv2_3/2/concat"
  type: "Concat"
  bottom: "conv2_3/2/conv"
  bottom: "conv2_3/2/neg"
  top: "conv2_3/2"
}
layer {
  name: "conv2_3/2/scale"
  type: "Scale"
  bottom: "conv2_3/2"
  top: "conv2_3/2"
  param {
    lr_mult: 0.1
    decay_mult: 0
  }
  param {
    lr_mult: 0.2
    decay_mult: 0
  }
  scale_param {
    bias_term: true
  }
}
layer {
  name: "conv2_3/2/relu"
  type: "ReLU"
  bottom: "conv2_3/2"
  top: "conv2_3/2"
}
layer {
  name: "conv2_3/3/conv"
  type: "Convolution"
  bottom: "conv2_3/2"
  top: "conv2_3/3"
  param {
    lr_mult: 0.1
    decay_mult: 0.1
  }
  convolution_param {
    num_output: 64
    bias_term: false
    weight_filler {
      type: "xavier"
    }
    pad_h: 0
    pad_w: 0
    kernel_h: 1
    kernel_w: 1
    stride_h: 1
    stride_w: 1
  }
}
layer {
  name: "conv2_3/3/bn"
  type: "BatchNorm"
  bottom: "conv2_3/3"
  top: "conv2_3/3"
  param {
    lr_mult: 0
    decay_mult: 0
  }
  param {
    lr_mult: 0
    decay_mult: 0
  }
  param {
    lr_mult: 0
    decay_mult: 0
  }
  batch_norm_param {
    use_global_stats: true
  }
}
layer {
  name: "conv2_3/3/bn_scale"
  type: "Scale"
  bottom: "conv2_3/3"
  top: "conv2_3/3"
  param {
    lr_mult: 0.1
    decay_mult: 0
  }
  param {
    lr_mult: 0.1
    decay_mult: 0
  }
  scale_param {
    bias_term: true
  }
}
layer {
  name: "conv2_3/input"
  type: "Power"
  bottom: "conv2_2"
  top: "conv2_3/input"
  power_param {
    power: 1
    scale: 1
    shift: 0
  }
}
layer {
  name: "conv2_3"
  type: "Eltwise"
  bottom: "conv2_3/3"
  bottom: "conv2_3/input"
  top: "conv2_3"
  eltwise_param {
    operation: SUM
    coeff: 1
    coeff: 1
  }
}
layer {
  name: "conv3_1/1/conv"
  type: "Convolution"
  bottom: "conv2_3"
  top: "conv3_1/1"
  param {
    lr_mult: 0.1
    decay_mult: 0.1
  }
  convolution_param {
    num_output: 48
    bias_term: false
    weight_filler {
      type: "xavier"
    }
    pad_h: 0
    pad_w: 0
    kernel_h: 1
    kernel_w: 1
    stride_h: 2
    stride_w: 2
  }
}
layer {
  name: "conv3_1/1/bn"
  type: "BatchNorm"
  bottom: "conv3_1/1"
  top: "conv3_1/1"
  param {
    lr_mult: 0
    decay_mult: 0
  }
  param {
    lr_mult: 0
    decay_mult: 0
  }
  param {
    lr_mult: 0
    decay_mult: 0
  }
  batch_norm_param {
    use_global_stats: true
  }
}
layer {
  name: "conv3_1/1/bn_scale"
  type: "Scale"
  bottom: "conv3_1/1"
  top: "conv3_1/1"
  param {
    lr_mult: 0.1
    decay_mult: 0
  }
  param {
    lr_mult: 0.1
    decay_mult: 0
  }
  scale_param {
    bias_term: true
  }
}
layer {
  name: "conv3_1/1/relu"
  type: "ReLU"
  bottom: "conv3_1/1"
  top: "conv3_1/1"
}
layer {
  name: "conv3_1/2/conv"
  type: "Convolution"
  bottom: "conv3_1/1"
  top: "conv3_1/2/conv"
  param {
    lr_mult: 0.1
    decay_mult: 0.1
  }
  convolution_param {
    num_output: 48
    bias_term: false
    weight_filler {
      type: "xavier"
    }
    pad_h: 1
    pad_w: 1
    kernel_h: 3
    kernel_w: 3
    stride_h: 1
    stride_w: 1
  }
}
layer {
  name: "conv3_1/2/bn"
  type: "BatchNorm"
  bottom: "conv3_1/2/conv"
  top: "conv3_1/2/conv"
  param {
    lr_mult: 0
    decay_mult: 0
  }
  param {
    lr_mult: 0
    decay_mult: 0
  }
  param {
    lr_mult: 0
    decay_mult: 0
  }
  batch_norm_param {
    use_global_stats: true
  }
}
layer {
  name: "conv3_1/2/neg"
  type: "Power"
  bottom: "conv3_1/2/conv"
  top: "conv3_1/2/neg"
  power_param {
    power: 1
    scale: -1
    shift: 0
  }
}
layer {
  name: "conv3_1/2/concat"
  type: "Concat"
  bottom: "conv3_1/2/conv"
  bottom: "conv3_1/2/neg"
  top: "conv3_1/2"
}
layer {
  name: "conv3_1/2/scale"
  type: "Scale"
  bottom: "conv3_1/2"
  top: "conv3_1/2"
  param {
    lr_mult: 0.1
    decay_mult: 0
  }
  param {
    lr_mult: 0.2
    decay_mult: 0
  }
  scale_param {
    bias_term: true
  }
}
layer {
  name: "conv3_1/2/relu"
  type: "ReLU"
  bottom: "conv3_1/2"
  top: "conv3_1/2"
}
layer {
  name: "conv3_1/3/conv"
  type: "Convolution"
  bottom: "conv3_1/2"
  top: "conv3_1/3"
  param {
    lr_mult: 0.1
    decay_mult: 0.1
  }
  convolution_param {
    num_output: 128
    bias_term: false
    weight_filler {
      type: "xavier"
    }
    pad_h: 0
    pad_w: 0
    kernel_h: 1
    kernel_w: 1
    stride_h: 1
    stride_w: 1
  }
}
layer {
  name: "conv3_1/3/bn"
  type: "BatchNorm"
  bottom: "conv3_1/3"
  top: "conv3_1/3"
  param {
    lr_mult: 0
    decay_mult: 0
  }
  param {
    lr_mult: 0
    decay_mult: 0
  }
  param {
    lr_mult: 0
    decay_mult: 0
  }
  batch_norm_param {
    use_global_stats: true
  }
}
layer {
  name: "conv3_1/3/bn_scale"
  type: "Scale"
  bottom: "conv3_1/3"
  top: "conv3_1/3"
  param {
    lr_mult: 0.1
    decay_mult: 0
  }
  param {
    lr_mult: 0.1
    decay_mult: 0
  }
  scale_param {
    bias_term: true
  }
}
layer {
  name: "conv3_1/proj"
  type: "Convolution"
  bottom: "conv2_3"
  top: "conv3_1/proj"
  param {
    lr_mult: 0.1
    decay_mult: 0.1
  }
  param {
    lr_mult: 0.2
    decay_mult: 0
  }
  convolution_param {
    num_output: 128
    weight_filler {
      type: "xavier"
    }
    bias_filler {
      type: "constant"
      value: 0.1
    }
    pad_h: 0
    pad_w: 0
    kernel_h: 1
    kernel_w: 1
    stride_h: 2
    stride_w: 2
  }
}
layer {
  name: "conv3_1/proj_bn"
  type: "BatchNorm"
  bottom: "conv3_1/proj"
  top: "conv3_1/proj"
  param {
    lr_mult: 0
    decay_mult: 0
  }
  param {
    lr_mult: 0
    decay_mult: 0
  }
  param {
    lr_mult: 0
    decay_mult: 0
  }
  batch_norm_param {
    use_global_stats: true
  }
}
layer {
  name: "conv3_1/proj_bn_scale"
  type: "Scale"
  bottom: "conv3_1/proj"
  top: "conv3_1/proj"
  param {
    lr_mult: 0.1
    decay_mult: 0
  }
  param {
    lr_mult: 0.1
    decay_mult: 0
  }
  scale_param {
    bias_term: true
  }
}
layer {
  name: "conv3_1"
  type: "Eltwise"
  bottom: "conv3_1/3"
  bottom: "conv3_1/proj"
  top: "conv3_1"
  eltwise_param {
    operation: SUM
    coeff: 1
    coeff: 1
  }
}
layer {
  name: "conv3_2/1/conv"
  type: "Convolution"
  bottom: "conv3_1"
  top: "conv3_2/1"
  param {
    lr_mult: 0.1
    decay_mult: 0.1
  }
  convolution_param {
    num_output: 48
    bias_term: false
    weight_filler {
      type: "xavier"
    }
    pad_h: 0
    pad_w: 0
    kernel_h: 1
    kernel_w: 1
    stride_h: 1
    stride_w: 1
  }
}
layer {
  name: "conv3_2/1/bn"
  type: "BatchNorm"
  bottom: "conv3_2/1"
  top: "conv3_2/1"
  param {
    lr_mult: 0
    decay_mult: 0
  }
  param {
    lr_mult: 0
    decay_mult: 0
  }
  param {
    lr_mult: 0
    decay_mult: 0
  }
  batch_norm_param {
    use_global_stats: true
  }
}
layer {
  name: "conv3_2/1/bn_scale"
  type: "Scale"
  bottom: "conv3_2/1"
  top: "conv3_2/1"
  param {
    lr_mult: 0.1
    decay_mult: 0
  }
  param {
    lr_mult: 0.1
    decay_mult: 0
  }
  scale_param {
    bias_term: true
  }
}
layer {
  name: "conv3_2/1/relu"
  type: "ReLU"
  bottom: "conv3_2/1"
  top: "conv3_2/1"
}
layer {
  name: "conv3_2/2/conv"
  type: "Convolution"
  bottom: "conv3_2/1"
  top: "conv3_2/2/conv"
  param {
    lr_mult: 0.1
    decay_mult: 0.1
  }
  convolution_param {
    num_output: 48
    bias_term: false
    weight_filler {
      type: "xavier"
    }
    pad_h: 1
    pad_w: 1
    kernel_h: 3
    kernel_w: 3
    stride_h: 1
    stride_w: 1
  }
}
layer {
  name: "conv3_2/2/bn"
  type: "BatchNorm"
  bottom: "conv3_2/2/conv"
  top: "conv3_2/2/conv"
  param {
    lr_mult: 0
    decay_mult: 0
  }
  param {
    lr_mult: 0
    decay_mult: 0
  }
  param {
    lr_mult: 0
    decay_mult: 0
  }
  batch_norm_param {
    use_global_stats: true
  }
}
layer {
  name: "conv3_2/2/neg"
  type: "Power"
  bottom: "conv3_2/2/conv"
  top: "conv3_2/2/neg"
  power_param {
    power: 1
    scale: -1
    shift: 0
  }
}
layer {
  name: "conv3_2/2/concat"
  type: "Concat"
  bottom: "conv3_2/2/conv"
  bottom: "conv3_2/2/neg"
  top: "conv3_2/2"
}
layer {
  name: "conv3_2/2/scale"
  type: "Scale"
  bottom: "conv3_2/2"
  top: "conv3_2/2"
  param {
    lr_mult: 0.1
    decay_mult: 0
  }
  param {
    lr_mult: 0.2
    decay_mult: 0
  }
  scale_param {
    bias_term: true
  }
}
layer {
  name: "conv3_2/2/relu"
  type: "ReLU"
  bottom: "conv3_2/2"
  top: "conv3_2/2"
}
layer {
  name: "conv3_2/3/conv"
  type: "Convolution"
  bottom: "conv3_2/2"
  top: "conv3_2/3"
  param {
    lr_mult: 0.1
    decay_mult: 0.1
  }
  convolution_param {
    num_output: 128
    bias_term: false
    weight_filler {
      type: "xavier"
    }
    pad_h: 0
    pad_w: 0
    kernel_h: 1
    kernel_w: 1
    stride_h: 1
    stride_w: 1
  }
}
layer {
  name: "conv3_2/3/bn"
  type: "BatchNorm"
  bottom: "conv3_2/3"
  top: "conv3_2/3"
  param {
    lr_mult: 0
    decay_mult: 0
  }
  param {
    lr_mult: 0
    decay_mult: 0
  }
  param {
    lr_mult: 0
    decay_mult: 0
  }
  batch_norm_param {
    use_global_stats: true
  }
}
layer {
  name: "conv3_2/3/bn_scale"
  type: "Scale"
  bottom: "conv3_2/3"
  top: "conv3_2/3"
  param {
    lr_mult: 0.1
    decay_mult: 0
  }
  param {
    lr_mult: 0.1
    decay_mult: 0
  }
  scale_param {
    bias_term: true
  }
}
layer {
  name: "conv3_2/input"
  type: "Power"
  bottom: "conv3_1"
  top: "conv3_2/input"
  power_param {
    power: 1
    scale: 1
    shift: 0
  }
}
layer {
  name: "conv3_2"
  type: "Eltwise"
  bottom: "conv3_2/3"
  bottom: "conv3_2/input"
  top: "conv3_2"
  eltwise_param {
    operation: SUM
    coeff: 1
    coeff: 1
  }
}
layer {
  name: "conv3_3/1/conv"
  type: "Convolution"
  bottom: "conv3_2"
  top: "conv3_3/1"
  param {
    lr_mult: 0.1
    decay_mult: 0.1
  }
  convolution_param {
    num_output: 48
    bias_term: false
    weight_filler {
      type: "xavier"
    }
    pad_h: 0
    pad_w: 0
    kernel_h: 1
    kernel_w: 1
    stride_h: 1
    stride_w: 1
  }
}
layer {
  name: "conv3_3/1/bn"
  type: "BatchNorm"
  bottom: "conv3_3/1"
  top: "conv3_3/1"
  param {
    lr_mult: 0
    decay_mult: 0
  }
  param {
    lr_mult: 0
    decay_mult: 0
  }
  param {
    lr_mult: 0
    decay_mult: 0
  }
  batch_norm_param {
    use_global_stats: true
  }
}
layer {
  name: "conv3_3/1/bn_scale"
  type: "Scale"
  bottom: "conv3_3/1"
  top: "conv3_3/1"
  param {
    lr_mult: 0.1
    decay_mult: 0
  }
  param {
    lr_mult: 0.1
    decay_mult: 0
  }
  scale_param {
    bias_term: true
  }
}
layer {
  name: "conv3_3/1/relu"
  type: "ReLU"
  bottom: "conv3_3/1"
  top: "conv3_3/1"
}
layer {
  name: "conv3_3/2/conv"
  type: "Convolution"
  bottom: "conv3_3/1"
  top: "conv3_3/2/conv"
  param {
    lr_mult: 0.1
    decay_mult: 0.1
  }
  convolution_param {
    num_output: 48
    bias_term: false
    weight_filler {
      type: "xavier"
    }
    pad_h: 1
    pad_w: 1
    kernel_h: 3
    kernel_w: 3
    stride_h: 1
    stride_w: 1
  }
}
layer {
  name: "conv3_3/2/bn"
  type: "BatchNorm"
  bottom: "conv3_3/2/conv"
  top: "conv3_3/2/conv"
  param {
    lr_mult: 0
    decay_mult: 0
  }
  param {
    lr_mult: 0
    decay_mult: 0
  }
  param {
    lr_mult: 0
    decay_mult: 0
  }
  batch_norm_param {
    use_global_stats: true
  }
}
layer {
  name: "conv3_3/2/neg"
  type: "Power"
  bottom: "conv3_3/2/conv"
  top: "conv3_3/2/neg"
  power_param {
    power: 1
    scale: -1
    shift: 0
  }
}
layer {
  name: "conv3_3/2/concat"
  type: "Concat"
  bottom: "conv3_3/2/conv"
  bottom: "conv3_3/2/neg"
  top: "conv3_3/2"
}
layer {
  name: "conv3_3/2/scale"
  type: "Scale"
  bottom: "conv3_3/2"
  top: "conv3_3/2"
  param {
    lr_mult: 0.1
    decay_mult: 0
  }
  param {
    lr_mult: 0.2
    decay_mult: 0
  }
  scale_param {
    bias_term: true
  }
}
layer {
  name: "conv3_3/2/relu"
  type: "ReLU"
  bottom: "conv3_3/2"
  top: "conv3_3/2"
}
layer {
  name: "conv3_3/3/conv"
  type: "Convolution"
  bottom: "conv3_3/2"
  top: "conv3_3/3"
  param {
    lr_mult: 0.1
    decay_mult: 0.1
  }
  convolution_param {
    num_output: 128
    bias_term: false
    weight_filler {
      type: "xavier"
    }
    pad_h: 0
    pad_w: 0
    kernel_h: 1
    kernel_w: 1
    stride_h: 1
    stride_w: 1
  }
}
layer {
  name: "conv3_3/3/bn"
  type: "BatchNorm"
  bottom: "conv3_3/3"
  top: "conv3_3/3"
  param {
    lr_mult: 0
    decay_mult: 0
  }
  param {
    lr_mult: 0
    decay_mult: 0
  }
  param {
    lr_mult: 0
    decay_mult: 0
  }
  batch_norm_param {
    use_global_stats: true
  }
}
layer {
  name: "conv3_3/3/bn_scale"
  type: "Scale"
  bottom: "conv3_3/3"
  top: "conv3_3/3"
  param {
    lr_mult: 0.1
    decay_mult: 0
  }
  param {
    lr_mult: 0.1
    decay_mult: 0
  }
  scale_param {
    bias_term: true
  }
}
layer {
  name: "conv3_3/input"
  type: "Power"
  bottom: "conv3_2"
  top: "conv3_3/input"
  power_param {
    power: 1
    scale: 1
    shift: 0
  }
}
layer {
  name: "conv3_3"
  type: "Eltwise"
  bottom: "conv3_3/3"
  bottom: "conv3_3/input"
  top: "conv3_3"
  eltwise_param {
    operation: SUM
    coeff: 1
    coeff: 1
  }
}
layer {
  name: "conv3_4/1/conv"
  type: "Convolution"
  bottom: "conv3_3"
  top: "conv3_4/1"
  param {
    lr_mult: 0.1
    decay_mult: 0.1
  }
  convolution_param {
    num_output: 48
    bias_term: false
    weight_filler {
      type: "xavier"
    }
    pad_h: 0
    pad_w: 0
    kernel_h: 1
    kernel_w: 1
    stride_h: 1
    stride_w: 1
  }
}
layer {
  name: "conv3_4/1/bn"
  type: "BatchNorm"
  bottom: "conv3_4/1"
  top: "conv3_4/1"
  param {
    lr_mult: 0
    decay_mult: 0
  }
  param {
    lr_mult: 0
    decay_mult: 0
  }
  param {
    lr_mult: 0
    decay_mult: 0
  }
  batch_norm_param {
    use_global_stats: true
  }
}
layer {
  name: "conv3_4/1/bn_scale"
  type: "Scale"
  bottom: "conv3_4/1"
  top: "conv3_4/1"
  param {
    lr_mult: 0.1
    decay_mult: 0
  }
  param {
    lr_mult: 0.1
    decay_mult: 0
  }
  scale_param {
    bias_term: true
  }
}
layer {
  name: "conv3_4/1/relu"
  type: "ReLU"
  bottom: "conv3_4/1"
  top: "conv3_4/1"
}
layer {
  name: "conv3_4/2/conv"
  type: "Convolution"
  bottom: "conv3_4/1"
  top: "conv3_4/2/conv"
  param {
    lr_mult: 0.1
    decay_mult: 0.1
  }
  convolution_param {
    num_output: 48
    bias_term: false
    weight_filler {
      type: "xavier"
    }
    pad_h: 1
    pad_w: 1
    kernel_h: 3
    kernel_w: 3
    stride_h: 1
    stride_w: 1
  }
}
layer {
  name: "conv3_4/2/bn"
  type: "BatchNorm"
  bottom: "conv3_4/2/conv"
  top: "conv3_4/2/conv"
  param {
    lr_mult: 0
    decay_mult: 0
  }
  param {
    lr_mult: 0
    decay_mult: 0
  }
  param {
    lr_mult: 0
    decay_mult: 0
  }
  batch_norm_param {
    use_global_stats: true
  }
}
layer {
  name: "conv3_4/2/neg"
  type: "Power"
  bottom: "conv3_4/2/conv"
  top: "conv3_4/2/neg"
  power_param {
    power: 1
    scale: -1
    shift: 0
  }
}
layer {
  name: "conv3_4/2/concat"
  type: "Concat"
  bottom: "conv3_4/2/conv"
  bottom: "conv3_4/2/neg"
  top: "conv3_4/2"
}
layer {
  name: "conv3_4/2/scale"
  type: "Scale"
  bottom: "conv3_4/2"
  top: "conv3_4/2"
  param {
    lr_mult: 0.1
    decay_mult: 0
  }
  param {
    lr_mult: 0.2
    decay_mult: 0
  }
  scale_param {
    bias_term: true
  }
}
layer {
  name: "conv3_4/2/relu"
  type: "ReLU"
  bottom: "conv3_4/2"
  top: "conv3_4/2"
}
layer {
  name: "conv3_4/3/conv"
  type: "Convolution"
  bottom: "conv3_4/2"
  top: "conv3_4/3"
  param {
    lr_mult: 0.1
    decay_mult: 0.1
  }
  convolution_param {
    num_output: 128
    bias_term: false
    weight_filler {
      type: "xavier"
    }
    pad_h: 0
    pad_w: 0
    kernel_h: 1
    kernel_w: 1
    stride_h: 1
    stride_w: 1
  }
}
layer {
  name: "conv3_4/3/bn"
  type: "BatchNorm"
  bottom: "conv3_4/3"
  top: "conv3_4/3"
  param {
    lr_mult: 0
    decay_mult: 0
  }
  param {
    lr_mult: 0
    decay_mult: 0
  }
  param {
    lr_mult: 0
    decay_mult: 0
  }
  batch_norm_param {
    use_global_stats: true
  }
}
layer {
  name: "conv3_4/3/bn_scale"
  type: "Scale"
  bottom: "conv3_4/3"
  top: "conv3_4/3"
  param {
    lr_mult: 0.1
    decay_mult: 0
  }
  param {
    lr_mult: 0.1
    decay_mult: 0
  }
  scale_param {
    bias_term: true
  }
}
layer {
  name: "conv3_4/input"
  type: "Power"
  bottom: "conv3_3"
  top: "conv3_4/input"
  power_param {
    power: 1
    scale: 1
    shift: 0
  }
}
layer {
  name: "conv3_4"
  type: "Eltwise"
  bottom: "conv3_4/3"
  bottom: "conv3_4/input"
  top: "conv3_4"
  eltwise_param {
    operation: SUM
    coeff: 1
    coeff: 1
  }
}
layer {
  name: "conv4_1/incep/0/conv"
  type: "Convolution"
  bottom: "conv3_4"
  top: "conv4_1/incep/0"
  param {
    lr_mult: 0.1
    decay_mult: 0.1
  }
  convolution_param {
    num_output: 64
    bias_term: false
    weight_filler {
      type: "xavier"
    }
    pad_h: 0
    pad_w: 0
    kernel_h: 1
    kernel_w: 1
    stride_h: 2
    stride_w: 2
  }
}
layer {
  name: "conv4_1/incep/0/bn"
  type: "BatchNorm"
  bottom: "conv4_1/incep/0"
  top: "conv4_1/incep/0"
  param {
    lr_mult: 0
    decay_mult: 0
  }
  param {
    lr_mult: 0
    decay_mult: 0
  }
  param {
    lr_mult: 0
    decay_mult: 0
  }
  batch_norm_param {
    use_global_stats: true
  }
}
layer {
  name: "conv4_1/incep/0/bn_scale"
  type: "Scale"
  bottom: "conv4_1/incep/0"
  top: "conv4_1/incep/0"
  param {
    lr_mult: 0.1
    decay_mult: 0
  }
  param {
    lr_mult: 0.1
    decay_mult: 0
  }
  scale_param {
    bias_term: true
  }
}
layer {
  name: "conv4_1/incep/0/relu"
  type: "ReLU"
  bottom: "conv4_1/incep/0"
  top: "conv4_1/incep/0"
}
layer {
  name: "conv4_1/incep/1_reduce/conv"
  type: "Convolution"
  bottom: "conv3_4"
  top: "conv4_1/incep/1_reduce"
  param {
    lr_mult: 0.1
    decay_mult: 0.1
  }
  convolution_param {
    num_output: 48
    bias_term: false
    weight_filler {
      type: "xavier"
    }
    pad_h: 0
    pad_w: 0
    kernel_h: 1
    kernel_w: 1
    stride_h: 2
    stride_w: 2
  }
}
layer {
  name: "conv4_1/incep/1_reduce/bn"
  type: "BatchNorm"
  bottom: "conv4_1/incep/1_reduce"
  top: "conv4_1/incep/1_reduce"
  param {
    lr_mult: 0
    decay_mult: 0
  }
  param {
    lr_mult: 0
    decay_mult: 0
  }
  param {
    lr_mult: 0
    decay_mult: 0
  }
  batch_norm_param {
    use_global_stats: true
  }
}
layer {
  name: "conv4_1/incep/1_reduce/bn_scale"
  type: "Scale"
  bottom: "conv4_1/incep/1_reduce"
  top: "conv4_1/incep/1_reduce"
  param {
    lr_mult: 0.1
    decay_mult: 0
  }
  param {
    lr_mult: 0.1
    decay_mult: 0
  }
  scale_param {
    bias_term: true
  }
}
layer {
  name: "conv4_1/incep/1_reduce/relu"
  type: "ReLU"
  bottom: "conv4_1/incep/1_reduce"
  top: "conv4_1/incep/1_reduce"
}
layer {
  name: "conv4_1/incep/1_0/conv"
  type: "Convolution"
  bottom: "conv4_1/incep/1_reduce"
  top: "conv4_1/incep/1_0"
  param {
    lr_mult: 0.1
    decay_mult: 0.1
  }
  convolution_param {
    num_output: 128
    bias_term: false
    weight_filler {
      type: "xavier"
    }
    pad_h: 1
    pad_w: 1
    kernel_h: 3
    kernel_w: 3
    stride_h: 1
    stride_w: 1
  }
}
layer {
  name: "conv4_1/incep/1_0/bn"
  type: "BatchNorm"
  bottom: "conv4_1/incep/1_0"
  top: "conv4_1/incep/1_0"
  param {
I0223 12:02:52.205000 29804 layer_factory.hpp:77] Creating layer input-data
I0223 12:02:52.215198 29804 net.cpp:100] Creating Layer input-data
I0223 12:02:52.215216 29804 net.cpp:408] input-data -> data
I0223 12:02:52.215225 29804 net.cpp:408] input-data -> im_info
I0223 12:02:52.215231 29804 net.cpp:408] input-data -> gt_boxes
I0223 12:02:52.227004 29804 net.cpp:150] Setting up input-data
I0223 12:02:52.227022 29804 net.cpp:157] Top shape: 1 3 864 1440 (3732480)
I0223 12:02:52.227027 29804 net.cpp:157] Top shape: 1 3 (3)
I0223 12:02:52.227031 29804 net.cpp:157] Top shape: 1 4 (4)
I0223 12:02:52.227033 29804 net.cpp:165] Memory required for data: 14929948
I0223 12:02:52.227039 29804 layer_factory.hpp:77] Creating layer data_input-data_0_split
I0223 12:02:52.227051 29804 net.cpp:100] Creating Layer data_input-data_0_split
I0223 12:02:52.227054 29804 net.cpp:434] data_input-data_0_split <- data
I0223 12:02:52.227061 29804 net.cpp:408] data_input-data_0_split -> data_input-data_0_split_0
I0223 12:02:52.227069 29804 net.cpp:408] data_input-data_0_split -> data_input-data_0_split_1
I0223 12:02:52.227124 29804 net.cpp:150] Setting up data_input-data_0_split
I0223 12:02:52.227130 29804 net.cpp:157] Top shape: 1 3 864 1440 (3732480)
I0223 12:02:52.227134 29804 net.cpp:157] Top shape: 1 3 864 1440 (3732480)
I0223 12:02:52.227138 29804 net.cpp:165] Memory required for data: 44789788
I0223 12:02:52.227141 29804 layer_factory.hpp:77] Creating layer im_info_input-data_1_split
I0223 12:02:52.227147 29804 net.cpp:100] Creating Layer im_info_input-data_1_split
I0223 12:02:52.227150 29804 net.cpp:434] im_info_input-data_1_split <- im_info
I0223 12:02:52.227157 29804 net.cpp:408] im_info_input-data_1_split -> im_info_input-data_1_split_0
I0223 12:02:52.227164 29804 net.cpp:408] im_info_input-data_1_split -> im_info_input-data_1_split_1
I0223 12:02:52.227205 29804 net.cpp:150] Setting up im_info_input-data_1_split
I0223 12:02:52.227210 29804 net.cpp:157] Top shape: 1 3 (3)
I0223 12:02:52.227215 29804 net.cpp:157] Top shape: 1 3 (3)
I0223 12:02:52.227217 29804 net.cpp:165] Memory required for data: 44789812
I0223 12:02:52.227221 29804 layer_factory.hpp:77] Creating layer gt_boxes_input-data_2_split
I0223 12:02:52.227228 29804 net.cpp:100] Creating Layer gt_boxes_input-data_2_split
I0223 12:02:52.227239 29804 net.cpp:434] gt_boxes_input-data_2_split <- gt_boxes
I0223 12:02:52.227246 29804 net.cpp:408] gt_boxes_input-data_2_split -> gt_boxes_input-data_2_split_0
I0223 12:02:52.227250 29804 net.cpp:408] gt_boxes_input-data_2_split -> gt_boxes_input-data_2_split_1
I0223 12:02:52.227293 29804 net.cpp:150] Setting up gt_boxes_input-data_2_split
I0223 12:02:52.227300 29804 net.cpp:157] Top shape: 1 4 (4)
I0223 12:02:52.227304 29804 net.cpp:157] Top shape: 1 4 (4)
I0223 12:02:52.227308 29804 net.cpp:165] Memory required for data: 44789844
I0223 12:02:52.227310 29804 layer_factory.hpp:77] Creating layer conv1_1/conv
I0223 12:02:52.227324 29804 net.cpp:100] Creating Layer conv1_1/conv
I0223 12:02:52.227327 29804 net.cpp:434] conv1_1/conv <- data_input-data_0_split_0
I0223 12:02:52.227334 29804 net.cpp:408] conv1_1/conv -> conv1_1/conv
I0223 12:02:52.423729 29804 net.cpp:150] Setting up conv1_1/conv
I0223 12:02:52.423775 29804 net.cpp:157] Top shape: 1 16 432 720 (4976640)
I0223 12:02:52.423779 29804 net.cpp:165] Memory required for data: 64696404
I0223 12:02:52.423795 29804 layer_factory.hpp:77] Creating layer conv1_1/bn
I0223 12:02:52.423807 29804 net.cpp:100] Creating Layer conv1_1/bn
I0223 12:02:52.423812 29804 net.cpp:434] conv1_1/bn <- conv1_1/conv
I0223 12:02:52.423821 29804 net.cpp:395] conv1_1/bn -> conv1_1/conv (in-place)
I0223 12:02:52.424999 29804 net.cpp:150] Setting up conv1_1/bn
I0223 12:02:52.425014 29804 net.cpp:157] Top shape: 1 16 432 720 (4976640)
I0223 12:02:52.425019 29804 net.cpp:165] Memory required for data: 84602964
I0223 12:02:52.425029 29804 layer_factory.hpp:77] Creating layer conv1_1/conv_conv1_1/bn_0_split
I0223 12:02:52.425035 29804 net.cpp:100] Creating Layer conv1_1/conv_conv1_1/bn_0_split
I0223 12:02:52.425038 29804 net.cpp:434] conv1_1/conv_conv1_1/bn_0_split <- conv1_1/conv
I0223 12:02:52.425047 29804 net.cpp:408] conv1_1/conv_conv1_1/bn_0_split -> conv1_1/conv_conv1_1/bn_0_split_0
I0223 12:02:52.425055 29804 net.cpp:408] conv1_1/conv_conv1_1/bn_0_split -> conv1_1/conv_conv1_1/bn_0_split_1
I0223 12:02:52.425108 29804 net.cpp:150] Setting up conv1_1/conv_conv1_1/bn_0_split
I0223 12:02:52.425115 29804 net.cpp:157] Top shape: 1 16 432 720 (4976640)
I0223 12:02:52.425119 29804 net.cpp:157] Top shape: 1 16 432 720 (4976640)
I0223 12:02:52.425122 29804 net.cpp:165] Memory required for data: 124416084
I0223 12:02:52.425125 29804 layer_factory.hpp:77] Creating layer conv1_1/neg
I0223 12:02:52.425132 29804 net.cpp:100] Creating Layer conv1_1/neg
I0223 12:02:52.425135 29804 net.cpp:434] conv1_1/neg <- conv1_1/conv_conv1_1/bn_0_split_0
I0223 12:02:52.425142 29804 net.cpp:408] conv1_1/neg -> conv1_1/neg
I0223 12:02:52.425170 29804 net.cpp:150] Setting up conv1_1/neg
I0223 12:02:52.425176 29804 net.cpp:157] Top shape: 1 16 432 720 (4976640)
I0223 12:02:52.425179 29804 net.cpp:165] Memory required for data: 144322644
I0223 12:02:52.425182 29804 layer_factory.hpp:77] Creating layer conv1_1/concat
I0223 12:02:52.425192 29804 net.cpp:100] Creating Layer conv1_1/concat
I0223 12:02:52.425196 29804 net.cpp:434] conv1_1/concat <- conv1_1/conv_conv1_1/bn_0_split_1
I0223 12:02:52.425200 29804 net.cpp:434] conv1_1/concat <- conv1_1/neg
I0223 12:02:52.425204 29804 net.cpp:408] conv1_1/concat -> conv1_1
I0223 12:02:52.425235 29804 net.cpp:150] Setting up conv1_1/concat
I0223 12:02:52.425240 29804 net.cpp:157] Top shape: 1 32 432 720 (9953280)
I0223 12:02:52.425243 29804 net.cpp:165] Memory required for data: 184135764
I0223 12:02:52.425246 29804 layer_factory.hpp:77] Creating layer conv1_1/scale
I0223 12:02:52.425256 29804 net.cpp:100] Creating Layer conv1_1/scale
I0223 12:02:52.425258 29804 net.cpp:434] conv1_1/scale <- conv1_1
I0223 12:02:52.425264 29804 net.cpp:395] conv1_1/scale -> conv1_1 (in-place)
I0223 12:02:52.425331 29804 layer_factory.hpp:77] Creating layer conv1_1/scale
I0223 12:02:52.427022 29804 net.cpp:150] Setting up conv1_1/scale
I0223 12:02:52.427037 29804 net.cpp:157] Top shape: 1 32 432 720 (9953280)
I0223 12:02:52.427040 29804 net.cpp:165] Memory required for data: 223948884
I0223 12:02:52.427058 29804 layer_factory.hpp:77] Creating layer conv1_1/relu
I0223 12:02:52.427067 29804 net.cpp:100] Creating Layer conv1_1/relu
I0223 12:02:52.427072 29804 net.cpp:434] conv1_1/relu <- conv1_1
I0223 12:02:52.427076 29804 net.cpp:395] conv1_1/relu -> conv1_1 (in-place)
I0223 12:02:52.427395 29804 net.cpp:150] Setting up conv1_1/relu
I0223 12:02:52.427407 29804 net.cpp:157] Top shape: 1 32 432 720 (9953280)
I0223 12:02:52.427412 29804 net.cpp:165] Memory required for data: 263762004
I0223 12:02:52.427415 29804 layer_factory.hpp:77] Creating layer pool1
I0223 12:02:52.427423 29804 net.cpp:100] Creating Layer pool1
I0223 12:02:52.427425 29804 net.cpp:434] pool1 <- conv1_1
I0223 12:02:52.427431 29804 net.cpp:408] pool1 -> pool1
I0223 12:02:52.427492 29804 net.cpp:150] Setting up pool1
I0223 12:02:52.427500 29804 net.cpp:157] Top shape: 1 32 216 360 (2488320)
I0223 12:02:52.427502 29804 net.cpp:165] Memory required for data: 273715284
I0223 12:02:52.427505 29804 layer_factory.hpp:77] Creating layer pool1_pool1_0_split
I0223 12:02:52.427511 29804 net.cpp:100] Creating Layer pool1_pool1_0_split
I0223 12:02:52.427515 29804 net.cpp:434] pool1_pool1_0_split <- pool1
I0223 12:02:52.427520 29804 net.cpp:408] pool1_pool1_0_split -> pool1_pool1_0_split_0
I0223 12:02:52.427525 29804 net.cpp:408] pool1_pool1_0_split -> pool1_pool1_0_split_1
I0223 12:02:52.427577 29804 net.cpp:150] Setting up pool1_pool1_0_split
I0223 12:02:52.427583 29804 net.cpp:157] Top shape: 1 32 216 360 (2488320)
I0223 12:02:52.427587 29804 net.cpp:157] Top shape: 1 32 216 360 (2488320)
I0223 12:02:52.427590 29804 net.cpp:165] Memory required for data: 293621844
I0223 12:02:52.427593 29804 layer_factory.hpp:77] Creating layer conv2_1/1/conv
I0223 12:02:52.427603 29804 net.cpp:100] Creating Layer conv2_1/1/conv
I0223 12:02:52.427608 29804 net.cpp:434] conv2_1/1/conv <- pool1_pool1_0_split_0
I0223 12:02:52.427613 29804 net.cpp:408] conv2_1/1/conv -> conv2_1/1
I0223 12:02:52.429306 29804 net.cpp:150] Setting up conv2_1/1/conv
I0223 12:02:52.429321 29804 net.cpp:157] Top shape: 1 24 216 360 (1866240)
I0223 12:02:52.429323 29804 net.cpp:165] Memory required for data: 301086804
I0223 12:02:52.429328 29804 layer_factory.hpp:77] Creating layer conv2_1/1/bn
I0223 12:02:52.429337 29804 net.cpp:100] Creating Layer conv2_1/1/bn
I0223 12:02:52.429340 29804 net.cpp:434] conv2_1/1/bn <- conv2_1/1
I0223 12:02:52.429345 29804 net.cpp:395] conv2_1/1/bn -> conv2_1/1 (in-place)
I0223 12:02:52.430250 29804 net.cpp:150] Setting up conv2_1/1/bn
I0223 12:02:52.430263 29804 net.cpp:157] Top shape: 1 24 216 360 (1866240)
I0223 12:02:52.430268 29804 net.cpp:165] Memory required for data: 308551764
I0223 12:02:52.430277 29804 layer_factory.hpp:77] Creating layer conv2_1/1/bn_scale
I0223 12:02:52.430284 29804 net.cpp:100] Creating Layer conv2_1/1/bn_scale
I0223 12:02:52.430289 29804 net.cpp:434] conv2_1/1/bn_scale <- conv2_1/1
I0223 12:02:52.430294 29804 net.cpp:395] conv2_1/1/bn_scale -> conv2_1/1 (in-place)
I0223 12:02:52.430344 29804 layer_factory.hpp:77] Creating layer conv2_1/1/bn_scale
I0223 12:02:52.430588 29804 net.cpp:150] Setting up conv2_1/1/bn_scale
I0223 12:02:52.430595 29804 net.cpp:157] Top shape: 1 24 216 360 (1866240)
I0223 12:02:52.430598 29804 net.cpp:165] Memory required for data: 316016724
I0223 12:02:52.430604 29804 layer_factory.hpp:77] Creating layer conv2_1/1/relu
I0223 12:02:52.430611 29804 net.cpp:100] Creating Layer conv2_1/1/relu
I0223 12:02:52.430614 29804 net.cpp:434] conv2_1/1/relu <- conv2_1/1
I0223 12:02:52.430619 29804 net.cpp:395] conv2_1/1/relu -> conv2_1/1 (in-place)
I0223 12:02:52.430773 29804 net.cpp:150] Setting up conv2_1/1/relu
I0223 12:02:52.430781 29804 net.cpp:157] Top shape: 1 24 216 360 (1866240)
I0223 12:02:52.430784 29804 net.cpp:165] Memory required for data: 323481684
I0223 12:02:52.430788 29804 layer_factory.hpp:77] Creating layer conv2_1/2/conv
I0223 12:02:52.430795 29804 net.cpp:100] Creating Layer conv2_1/2/conv
I0223 12:02:52.430799 29804 net.cpp:434] conv2_1/2/conv <- conv2_1/1
I0223 12:02:52.430804 29804 net.cpp:408] conv2_1/2/conv -> conv2_1/2/conv
I0223 12:02:52.432504 29804 net.cpp:150] Setting up conv2_1/2/conv
I0223 12:02:52.432519 29804 net.cpp:157] Top shape: 1 24 216 360 (1866240)
I0223 12:02:52.432523 29804 net.cpp:165] Memory required for data: 330946644
I0223 12:02:52.432528 29804 layer_factory.hpp:77] Creating layer conv2_1/2/bn
I0223 12:02:52.432534 29804 net.cpp:100] Creating Layer conv2_1/2/bn
I0223 12:02:52.432538 29804 net.cpp:434] conv2_1/2/bn <- conv2_1/2/conv
I0223 12:02:52.432543 29804 net.cpp:395] conv2_1/2/bn -> conv2_1/2/conv (in-place)
I0223 12:02:52.433462 29804 net.cpp:150] Setting up conv2_1/2/bn
I0223 12:02:52.433475 29804 net.cpp:157] Top shape: 1 24 216 360 (1866240)
I0223 12:02:52.433478 29804 net.cpp:165] Memory required for data: 338411604
I0223 12:02:52.433485 29804 layer_factory.hpp:77] Creating layer conv2_1/2/conv_conv2_1/2/bn_0_split
I0223 12:02:52.433492 29804 net.cpp:100] Creating Layer conv2_1/2/conv_conv2_1/2/bn_0_split
I0223 12:02:52.433495 29804 net.cpp:434] conv2_1/2/conv_conv2_1/2/bn_0_split <- conv2_1/2/conv
I0223 12:02:52.433501 29804 net.cpp:408] conv2_1/2/conv_conv2_1/2/bn_0_split -> conv2_1/2/conv_conv2_1/2/bn_0_split_0
I0223 12:02:52.433506 29804 net.cpp:408] conv2_1/2/conv_conv2_1/2/bn_0_split -> conv2_1/2/conv_conv2_1/2/bn_0_split_1
I0223 12:02:52.433554 29804 net.cpp:150] Setting up conv2_1/2/conv_conv2_1/2/bn_0_split
I0223 12:02:52.433560 29804 net.cpp:157] Top shape: 1 24 216 360 (1866240)
I0223 12:02:52.433564 29804 net.cpp:157] Top shape: 1 24 216 360 (1866240)
I0223 12:02:52.433568 29804 net.cpp:165] Memory required for data: 353341524
I0223 12:02:52.433570 29804 layer_factory.hpp:77] Creating layer conv2_1/2/neg
I0223 12:02:52.433576 29804 net.cpp:100] Creating Layer conv2_1/2/neg
I0223 12:02:52.433579 29804 net.cpp:434] conv2_1/2/neg <- conv2_1/2/conv_conv2_1/2/bn_0_split_0
I0223 12:02:52.433583 29804 net.cpp:408] conv2_1/2/neg -> conv2_1/2/neg
I0223 12:02:52.433610 29804 net.cpp:150] Setting up conv2_1/2/neg
I0223 12:02:52.433615 29804 net.cpp:157] Top shape: 1 24 216 360 (1866240)
I0223 12:02:52.433619 29804 net.cpp:165] Memory required for data: 360806484
I0223 12:02:52.433621 29804 layer_factory.hpp:77] Creating layer conv2_1/2/concat
I0223 12:02:52.433626 29804 net.cpp:100] Creating Layer conv2_1/2/concat
I0223 12:02:52.433630 29804 net.cpp:434] conv2_1/2/concat <- conv2_1/2/conv_conv2_1/2/bn_0_split_1
I0223 12:02:52.433634 29804 net.cpp:434] conv2_1/2/concat <- conv2_1/2/neg
I0223 12:02:52.433639 29804 net.cpp:408] conv2_1/2/concat -> conv2_1/2
I0223 12:02:52.433665 29804 net.cpp:150] Setting up conv2_1/2/concat
I0223 12:02:52.433670 29804 net.cpp:157] Top shape: 1 48 216 360 (3732480)
I0223 12:02:52.433672 29804 net.cpp:165] Memory required for data: 375736404
I0223 12:02:52.433676 29804 layer_factory.hpp:77] Creating layer conv2_1/2/scale
I0223 12:02:52.433681 29804 net.cpp:100] Creating Layer conv2_1/2/scale
I0223 12:02:52.433684 29804 net.cpp:434] conv2_1/2/scale <- conv2_1/2
I0223 12:02:52.433688 29804 net.cpp:395] conv2_1/2/scale -> conv2_1/2 (in-place)
I0223 12:02:52.433749 29804 layer_factory.hpp:77] Creating layer conv2_1/2/scale
I0223 12:02:52.433995 29804 net.cpp:150] Setting up conv2_1/2/scale
I0223 12:02:52.434003 29804 net.cpp:157] Top shape: 1 48 216 360 (3732480)
I0223 12:02:52.434006 29804 net.cpp:165] Memory required for data: 390666324
I0223 12:02:52.434015 29804 layer_factory.hpp:77] Creating layer conv2_1/2/relu
I0223 12:02:52.434020 29804 net.cpp:100] Creating Layer conv2_1/2/relu
I0223 12:02:52.434023 29804 net.cpp:434] conv2_1/2/relu <- conv2_1/2
I0223 12:02:52.434027 29804 net.cpp:395] conv2_1/2/relu -> conv2_1/2 (in-place)
I0223 12:02:52.434187 29804 net.cpp:150] Setting up conv2_1/2/relu
I0223 12:02:52.434196 29804 net.cpp:157] Top shape: 1 48 216 360 (3732480)
I0223 12:02:52.434200 29804 net.cpp:165] Memory required for data: 405596244
I0223 12:02:52.434202 29804 layer_factory.hpp:77] Creating layer conv2_1/3/conv
I0223 12:02:52.434211 29804 net.cpp:100] Creating Layer conv2_1/3/conv
I0223 12:02:52.434213 29804 net.cpp:434] conv2_1/3/conv <- conv2_1/2
I0223 12:02:52.434224 29804 net.cpp:408] conv2_1/3/conv -> conv2_1/3
I0223 12:02:52.435427 29804 net.cpp:150] Setting up conv2_1/3/conv
I0223 12:02:52.435441 29804 net.cpp:157] Top shape: 1 64 216 360 (4976640)
I0223 12:02:52.435444 29804 net.cpp:165] Memory required for data: 425502804
I0223 12:02:52.435449 29804 layer_factory.hpp:77] Creating layer conv2_1/3/bn
I0223 12:02:52.435457 29804 net.cpp:100] Creating Layer conv2_1/3/bn
I0223 12:02:52.435461 29804 net.cpp:434] conv2_1/3/bn <- conv2_1/3
I0223 12:02:52.435467 29804 net.cpp:395] conv2_1/3/bn -> conv2_1/3 (in-place)
I0223 12:02:52.436444 29804 net.cpp:150] Setting up conv2_1/3/bn
I0223 12:02:52.436456 29804 net.cpp:157] Top shape: 1 64 216 360 (4976640)
I0223 12:02:52.436460 29804 net.cpp:165] Memory required for data: 445409364
I0223 12:02:52.436467 29804 layer_factory.hpp:77] Creating layer conv2_1/3/bn_scale
I0223 12:02:52.436475 29804 net.cpp:100] Creating Layer conv2_1/3/bn_scale
I0223 12:02:52.436480 29804 net.cpp:434] conv2_1/3/bn_scale <- conv2_1/3
I0223 12:02:52.436484 29804 net.cpp:395] conv2_1/3/bn_scale -> conv2_1/3 (in-place)
I0223 12:02:52.436542 29804 layer_factory.hpp:77] Creating layer conv2_1/3/bn_scale
I0223 12:02:52.436800 29804 net.cpp:150] Setting up conv2_1/3/bn_scale
I0223 12:02:52.436807 29804 net.cpp:157] Top shape: 1 64 216 360 (4976640)
I0223 12:02:52.436810 29804 net.cpp:165] Memory required for data: 465315924
I0223 12:02:52.436815 29804 layer_factory.hpp:77] Creating layer conv2_1/proj
I0223 12:02:52.436825 29804 net.cpp:100] Creating Layer conv2_1/proj
I0223 12:02:52.436827 29804 net.cpp:434] conv2_1/proj <- pool1_pool1_0_split_1
I0223 12:02:52.436835 29804 net.cpp:408] conv2_1/proj -> conv2_1/proj
I0223 12:02:52.438801 29804 net.cpp:150] Setting up conv2_1/proj
I0223 12:02:52.438814 29804 net.cpp:157] Top shape: 1 64 216 360 (4976640)
I0223 12:02:52.438818 29804 net.cpp:165] Memory required for data: 485222484
I0223 12:02:52.438824 29804 layer_factory.hpp:77] Creating layer conv2_1/proj_bn
I0223 12:02:52.438832 29804 net.cpp:100] Creating Layer conv2_1/proj_bn
I0223 12:02:52.438837 29804 net.cpp:434] conv2_1/proj_bn <- conv2_1/proj
I0223 12:02:52.438841 29804 net.cpp:395] conv2_1/proj_bn -> conv2_1/proj (in-place)
I0223 12:02:52.439185 29804 net.cpp:150] Setting up conv2_1/proj_bn
I0223 12:02:52.439194 29804 net.cpp:157] Top shape: 1 64 216 360 (4976640)
I0223 12:02:52.439198 29804 net.cpp:165] Memory required for data: 505129044
I0223 12:02:52.439203 29804 layer_factory.hpp:77] Creating layer conv2_1/proj_bn_scale
I0223 12:02:52.439211 29804 net.cpp:100] Creating Layer conv2_1/proj_bn_scale
I0223 12:02:52.439215 29804 net.cpp:434] conv2_1/proj_bn_scale <- conv2_1/proj
I0223 12:02:52.439221 29804 net.cpp:395] conv2_1/proj_bn_scale -> conv2_1/proj (in-place)
I0223 12:02:52.439277 29804 layer_factory.hpp:77] Creating layer conv2_1/proj_bn_scale
I0223 12:02:52.440171 29804 net.cpp:150] Setting up conv2_1/proj_bn_scale
I0223 12:02:52.440183 29804 net.cpp:157] Top shape: 1 64 216 360 (4976640)
I0223 12:02:52.440186 29804 net.cpp:165] Memory required for data: 525035604
I0223 12:02:52.440192 29804 layer_factory.hpp:77] Creating layer conv2_1
I0223 12:02:52.440199 29804 net.cpp:100] Creating Layer conv2_1
I0223 12:02:52.440203 29804 net.cpp:434] conv2_1 <- conv2_1/3
I0223 12:02:52.440207 29804 net.cpp:434] conv2_1 <- conv2_1/proj
I0223 12:02:52.440212 29804 net.cpp:408] conv2_1 -> conv2_1
I0223 12:02:52.440254 29804 net.cpp:150] Setting up conv2_1
I0223 12:02:52.440263 29804 net.cpp:157] Top shape: 1 64 216 360 (4976640)
I0223 12:02:52.440265 29804 net.cpp:165] Memory required for data: 544942164
I0223 12:02:52.440268 29804 layer_factory.hpp:77] Creating layer conv2_1_conv2_1_0_split
I0223 12:02:52.440274 29804 net.cpp:100] Creating Layer conv2_1_conv2_1_0_split
I0223 12:02:52.440279 29804 net.cpp:434] conv2_1_conv2_1_0_split <- conv2_1
I0223 12:02:52.440284 29804 net.cpp:408] conv2_1_conv2_1_0_split -> conv2_1_conv2_1_0_split_0
I0223 12:02:52.440289 29804 net.cpp:408] conv2_1_conv2_1_0_split -> conv2_1_conv2_1_0_split_1
I0223 12:02:52.440346 29804 net.cpp:150] Setting up conv2_1_conv2_1_0_split
I0223 12:02:52.440353 29804 net.cpp:157] Top shape: 1 64 216 360 (4976640)
I0223 12:02:52.440357 29804 net.cpp:157] Top shape: 1 64 216 360 (4976640)
I0223 12:02:52.440361 29804 net.cpp:165] Memory required for data: 584755284
I0223 12:02:52.440363 29804 layer_factory.hpp:77] Creating layer conv2_2/1/conv
I0223 12:02:52.440377 29804 net.cpp:100] Creating Layer conv2_2/1/conv
I0223 12:02:52.440382 29804 net.cpp:434] conv2_2/1/conv <- conv2_1_conv2_1_0_split_0
I0223 12:02:52.440387 29804 net.cpp:408] conv2_2/1/conv -> conv2_2/1
I0223 12:02:52.441620 29804 net.cpp:150] Setting up conv2_2/1/conv
I0223 12:02:52.441634 29804 net.cpp:157] Top shape: 1 24 216 360 (1866240)
I0223 12:02:52.441637 29804 net.cpp:165] Memory required for data: 592220244
I0223 12:02:52.441642 29804 layer_factory.hpp:77] Creating layer conv2_2/1/bn
I0223 12:02:52.441650 29804 net.cpp:100] Creating Layer conv2_2/1/bn
I0223 12:02:52.441655 29804 net.cpp:434] conv2_2/1/bn <- conv2_2/1
I0223 12:02:52.441659 29804 net.cpp:395] conv2_2/1/bn -> conv2_2/1 (in-place)
I0223 12:02:52.442005 29804 net.cpp:150] Setting up conv2_2/1/bn
I0223 12:02:52.442013 29804 net.cpp:157] Top shape: 1 24 216 360 (1866240)
I0223 12:02:52.442016 29804 net.cpp:165] Memory required for data: 599685204
I0223 12:02:52.442029 29804 layer_factory.hpp:77] Creating layer conv2_2/1/bn_scale
I0223 12:02:52.442035 29804 net.cpp:100] Creating Layer conv2_2/1/bn_scale
I0223 12:02:52.442039 29804 net.cpp:434] conv2_2/1/bn_scale <- conv2_2/1
I0223 12:02:52.442045 29804 net.cpp:395] conv2_2/1/bn_scale -> conv2_2/1 (in-place)
I0223 12:02:52.442102 29804 layer_factory.hpp:77] Creating layer conv2_2/1/bn_scale
I0223 12:02:52.443032 29804 net.cpp:150] Setting up conv2_2/1/bn_scale
I0223 12:02:52.443044 29804 net.cpp:157] Top shape: 1 24 216 360 (1866240)
I0223 12:02:52.443048 29804 net.cpp:165] Memory required for data: 607150164
I0223 12:02:52.443054 29804 layer_factory.hpp:77] Creating layer conv2_2/1/relu
I0223 12:02:52.443060 29804 net.cpp:100] Creating Layer conv2_2/1/relu
I0223 12:02:52.443063 29804 net.cpp:434] conv2_2/1/relu <- conv2_2/1
I0223 12:02:52.443070 29804 net.cpp:395] conv2_2/1/relu -> conv2_2/1 (in-place)
I0223 12:02:52.443249 29804 net.cpp:150] Setting up conv2_2/1/relu
I0223 12:02:52.443258 29804 net.cpp:157] Top shape: 1 24 216 360 (1866240)
I0223 12:02:52.443260 29804 net.cpp:165] Memory required for data: 614615124
I0223 12:02:52.443264 29804 layer_factory.hpp:77] Creating layer conv2_2/2/conv
I0223 12:02:52.443274 29804 net.cpp:100] Creating Layer conv2_2/2/conv
I0223 12:02:52.443277 29804 net.cpp:434] conv2_2/2/conv <- conv2_2/1
I0223 12:02:52.443284 29804 net.cpp:408] conv2_2/2/conv -> conv2_2/2/conv
I0223 12:02:52.444878 29804 net.cpp:150] Setting up conv2_2/2/conv
I0223 12:02:52.444941 29804 net.cpp:157] Top shape: 1 24 216 360 (1866240)
I0223 12:02:52.444949 29804 net.cpp:165] Memory required for data: 622080084
I0223 12:02:52.444967 29804 layer_factory.hpp:77] Creating layer conv2_2/2/bn
I0223 12:02:52.444993 29804 net.cpp:100] Creating Layer conv2_2/2/bn
I0223 12:02:52.445003 29804 net.cpp:434] conv2_2/2/bn <- conv2_2/2/conv
I0223 12:02:52.445020 29804 net.cpp:395] conv2_2/2/bn -> conv2_2/2/conv (in-place)
I0223 12:02:52.445998 29804 net.cpp:150] Setting up conv2_2/2/bn
I0223 12:02:52.446017 29804 net.cpp:157] Top shape: 1 24 216 360 (1866240)
I0223 12:02:52.446025 29804 net.cpp:165] Memory required for data: 629545044
I0223 12:02:52.446041 29804 layer_factory.hpp:77] Creating layer conv2_2/2/conv_conv2_2/2/bn_0_split
I0223 12:02:52.446058 29804 net.cpp:100] Creating Layer conv2_2/2/conv_conv2_2/2/bn_0_split
I0223 12:02:52.446068 29804 net.cpp:434] conv2_2/2/conv_conv2_2/2/bn_0_split <- conv2_2/2/conv
I0223 12:02:52.446082 29804 net.cpp:408] conv2_2/2/conv_conv2_2/2/bn_0_split -> conv2_2/2/conv_conv2_2/2/bn_0_split_0
I0223 12:02:52.446099 29804 net.cpp:408] conv2_2/2/conv_conv2_2/2/bn_0_split -> conv2_2/2/conv_conv2_2/2/bn_0_split_1
I0223 12:02:52.446260 29804 net.cpp:150] Setting up conv2_2/2/conv_conv2_2/2/bn_0_split
I0223 12:02:52.446291 29804 net.cpp:157] Top shape: 1 24 216 360 (1866240)
I0223 12:02:52.446301 29804 net.cpp:157] Top shape: 1 24 216 360 (1866240)
I0223 12:02:52.446308 29804 net.cpp:165] Memory required for data: 644474964
I0223 12:02:52.446316 29804 layer_factory.hpp:77] Creating layer conv2_2/2/neg
I0223 12:02:52.446331 29804 net.cpp:100] Creating Layer conv2_2/2/neg
I0223 12:02:52.446338 29804 net.cpp:434] conv2_2/2/neg <- conv2_2/2/conv_conv2_2/2/bn_0_split_0
I0223 12:02:52.446355 29804 net.cpp:408] conv2_2/2/neg -> conv2_2/2/neg
I0223 12:02:52.446441 29804 net.cpp:150] Setting up conv2_2/2/neg
I0223 12:02:52.446457 29804 net.cpp:157] Top shape: 1 24 216 360 (1866240)
I0223 12:02:52.446465 29804 net.cpp:165] Memory required for data: 651939924
I0223 12:02:52.446471 29804 layer_factory.hpp:77] Creating layer conv2_2/2/concat
I0223 12:02:52.446487 29804 net.cpp:100] Creating Layer conv2_2/2/concat
I0223 12:02:52.446496 29804 net.cpp:434] conv2_2/2/concat <- conv2_2/2/conv_conv2_2/2/bn_0_split_1
I0223 12:02:52.446507 29804 net.cpp:434] conv2_2/2/concat <- conv2_2/2/neg
I0223 12:02:52.446518 29804 net.cpp:408] conv2_2/2/concat -> conv2_2/2
I0223 12:02:52.446588 29804 net.cpp:150] Setting up conv2_2/2/concat
I0223 12:02:52.446600 29804 net.cpp:157] Top shape: 1 48 216 360 (3732480)
I0223 12:02:52.446607 29804 net.cpp:165] Memory required for data: 666869844
I0223 12:02:52.446615 29804 layer_factory.hpp:77] Creating layer conv2_2/2/scale
I0223 12:02:52.446642 29804 net.cpp:100] Creating Layer conv2_2/2/scale
I0223 12:02:52.446651 29804 net.cpp:434] conv2_2/2/scale <- conv2_2/2
I0223 12:02:52.446666 29804 net.cpp:395] conv2_2/2/scale -> conv2_2/2 (in-place)
I0223 12:02:52.446794 29804 layer_factory.hpp:77] Creating layer conv2_2/2/scale
I0223 12:02:52.448606 29804 net.cpp:150] Setting up conv2_2/2/scale
I0223 12:02:52.448637 29804 net.cpp:157] Top shape: 1 48 216 360 (3732480)
I0223 12:02:52.448643 29804 net.cpp:165] Memory required for data: 681799764
I0223 12:02:52.448658 29804 layer_factory.hpp:77] Creating layer conv2_2/2/relu
I0223 12:02:52.448675 29804 net.cpp:100] Creating Layer conv2_2/2/relu
I0223 12:02:52.448685 29804 net.cpp:434] conv2_2/2/relu <- conv2_2/2
I0223 12:02:52.448696 29804 net.cpp:395] conv2_2/2/relu -> conv2_2/2 (in-place)
I0223 12:02:52.449440 29804 net.cpp:150] Setting up conv2_2/2/relu
I0223 12:02:52.449470 29804 net.cpp:157] Top shape: 1 48 216 360 (3732480)
I0223 12:02:52.449478 29804 net.cpp:165] Memory required for data: 696729684
I0223 12:02:52.449486 29804 layer_factory.hpp:77] Creating layer conv2_2/3/conv
I0223 12:02:52.449506 29804 net.cpp:100] Creating Layer conv2_2/3/conv
I0223 12:02:52.449513 29804 net.cpp:434] conv2_2/3/conv <- conv2_2/2
I0223 12:02:52.449529 29804 net.cpp:408] conv2_2/3/conv -> conv2_2/3
I0223 12:02:52.452028 29804 net.cpp:150] Setting up conv2_2/3/conv
I0223 12:02:52.452062 29804 net.cpp:157] Top shape: 1 64 216 360 (4976640)
I0223 12:02:52.452071 29804 net.cpp:165] Memory required for data: 716636244
I0223 12:02:52.452085 29804 layer_factory.hpp:77] Creating layer conv2_2/3/bn
I0223 12:02:52.452098 29804 net.cpp:100] Creating Layer conv2_2/3/bn
I0223 12:02:52.452107 29804 net.cpp:434] conv2_2/3/bn <- conv2_2/3
I0223 12:02:52.452121 29804 net.cpp:395] conv2_2/3/bn -> conv2_2/3 (in-place)
I0223 12:02:52.452952 29804 net.cpp:150] Setting up conv2_2/3/bn
I0223 12:02:52.452970 29804 net.cpp:157] Top shape: 1 64 216 360 (4976640)
I0223 12:02:52.452977 29804 net.cpp:165] Memory required for data: 736542804
I0223 12:02:52.452994 29804 layer_factory.hpp:77] Creating layer conv2_2/3/bn_scale
I0223 12:02:52.453012 29804 net.cpp:100] Creating Layer conv2_2/3/bn_scale
I0223 12:02:52.453021 29804 net.cpp:434] conv2_2/3/bn_scale <- conv2_2/3
I0223 12:02:52.453030 29804 net.cpp:395] conv2_2/3/bn_scale -> conv2_2/3 (in-place)
I0223 12:02:52.453156 29804 layer_factory.hpp:77] Creating layer conv2_2/3/bn_scale
I0223 12:02:52.454860 29804 net.cpp:150] Setting up conv2_2/3/bn_scale
I0223 12:02:52.454887 29804 net.cpp:157] Top shape: 1 64 216 360 (4976640)
I0223 12:02:52.454905 29804 net.cpp:165] Memory required for data: 756449364
I0223 12:02:52.454919 29804 layer_factory.hpp:77] Creating layer conv2_2/input
I0223 12:02:52.454936 29804 net.cpp:100] Creating Layer conv2_2/input
I0223 12:02:52.454944 29804 net.cpp:434] conv2_2/input <- conv2_1_conv2_1_0_split_1
I0223 12:02:52.454957 29804 net.cpp:408] conv2_2/input -> conv2_2/input
I0223 12:02:52.455044 29804 net.cpp:150] Setting up conv2_2/input
I0223 12:02:52.455062 29804 net.cpp:157] Top shape: 1 64 216 360 (4976640)
I0223 12:02:52.455070 29804 net.cpp:165] Memory required for data: 776355924
I0223 12:02:52.455076 29804 layer_factory.hpp:77] Creating layer conv2_2
I0223 12:02:52.455090 29804 net.cpp:100] Creating Layer conv2_2
I0223 12:02:52.455099 29804 net.cpp:434] conv2_2 <- conv2_2/3
I0223 12:02:52.455108 29804 net.cpp:434] conv2_2 <- conv2_2/input
I0223 12:02:52.455119 29804 net.cpp:408] conv2_2 -> conv2_2
I0223 12:02:52.455195 29804 net.cpp:150] Setting up conv2_2
I0223 12:02:52.455209 29804 net.cpp:157] Top shape: 1 64 216 360 (4976640)
I0223 12:02:52.455216 29804 net.cpp:165] Memory required for data: 796262484
I0223 12:02:52.455224 29804 layer_factory.hpp:77] Creating layer conv2_2_conv2_2_0_split
I0223 12:02:52.455235 29804 net.cpp:100] Creating Layer conv2_2_conv2_2_0_split
I0223 12:02:52.455245 29804 net.cpp:434] conv2_2_conv2_2_0_split <- conv2_2
I0223 12:02:52.455258 29804 net.cpp:408] conv2_2_conv2_2_0_split -> conv2_2_conv2_2_0_split_0
I0223 12:02:52.455272 29804 net.cpp:408] conv2_2_conv2_2_0_split -> conv2_2_conv2_2_0_split_1
I0223 12:02:52.455394 29804 net.cpp:150] Setting up conv2_2_conv2_2_0_split
I0223 12:02:52.455406 29804 net.cpp:157] Top shape: 1 64 216 360 (4976640)
I0223 12:02:52.455416 29804 net.cpp:157] Top shape: 1 64 216 360 (4976640)
I0223 12:02:52.455423 29804 net.cpp:165] Memory required for data: 836075604
I0223 12:02:52.455430 29804 layer_factory.hpp:77] Creating layer conv2_3/1/conv
I0223 12:02:52.455451 29804 net.cpp:100] Creating Layer conv2_3/1/conv
I0223 12:02:52.455458 29804 net.cpp:434] conv2_3/1/conv <- conv2_2_conv2_2_0_split_0
I0223 12:02:52.455472 29804 net.cpp:408] conv2_3/1/conv -> conv2_3/1
I0223 12:02:52.458420 29804 net.cpp:150] Setting up conv2_3/1/conv
I0223 12:02:52.458448 29804 net.cpp:157] Top shape: 1 24 216 360 (1866240)
I0223 12:02:52.458458 29804 net.cpp:165] Memory required for data: 843540564
I0223 12:02:52.458470 29804 layer_factory.hpp:77] Creating layer conv2_3/1/bn
I0223 12:02:52.458483 29804 net.cpp:100] Creating Layer conv2_3/1/bn
I0223 12:02:52.458492 29804 net.cpp:434] conv2_3/1/bn <- conv2_3/1
I0223 12:02:52.458506 29804 net.cpp:395] conv2_3/1/bn -> conv2_3/1 (in-place)
I0223 12:02:52.459298 29804 net.cpp:150] Setting up conv2_3/1/bn
I0223 12:02:52.459316 29804 net.cpp:157] Top shape: 1 24 216 360 (1866240)
I0223 12:02:52.459323 29804 net.cpp:165] Memory required for data: 851005524
I0223 12:02:52.459338 29804 layer_factory.hpp:77] Creating layer conv2_3/1/bn_scale
I0223 12:02:52.459353 29804 net.cpp:100] Creating Layer conv2_3/1/bn_scale
I0223 12:02:52.459362 29804 net.cpp:434] conv2_3/1/bn_scale <- conv2_3/1
I0223 12:02:52.459372 29804 net.cpp:395] conv2_3/1/bn_scale -> conv2_3/1 (in-place)
I0223 12:02:52.459484 29804 layer_factory.hpp:77] Creating layer conv2_3/1/bn_scale
I0223 12:02:52.461089 29804 net.cpp:150] Setting up conv2_3/1/bn_scale
I0223 12:02:52.461114 29804 net.cpp:157] Top shape: 1 24 216 360 (1866240)
I0223 12:02:52.461122 29804 net.cpp:165] Memory required for data: 858470484
I0223 12:02:52.461136 29804 layer_factory.hpp:77] Creating layer conv2_3/1/relu
I0223 12:02:52.461148 29804 net.cpp:100] Creating Layer conv2_3/1/relu
I0223 12:02:52.461156 29804 net.cpp:434] conv2_3/1/relu <- conv2_3/1
I0223 12:02:52.461168 29804 net.cpp:395] conv2_3/1/relu -> conv2_3/1 (in-place)
I0223 12:02:52.461802 29804 net.cpp:150] Setting up conv2_3/1/relu
I0223 12:02:52.461827 29804 net.cpp:157] Top shape: 1 24 216 360 (1866240)
I0223 12:02:52.461833 29804 net.cpp:165] Memory required for data: 865935444
I0223 12:02:52.461843 29804 layer_factory.hpp:77] Creating layer conv2_3/2/conv
I0223 12:02:52.461869 29804 net.cpp:100] Creating Layer conv2_3/2/conv
I0223 12:02:52.461879 29804 net.cpp:434] conv2_3/2/conv <- conv2_3/1
I0223 12:02:52.461894 29804 net.cpp:408] conv2_3/2/conv -> conv2_3/2/conv
I0223 12:02:52.464510 29804 net.cpp:150] Setting up conv2_3/2/conv
I0223 12:02:52.464541 29804 net.cpp:157] Top shape: 1 24 216 360 (1866240)
I0223 12:02:52.464550 29804 net.cpp:165] Memory required for data: 873400404
I0223 12:02:52.464560 29804 layer_factory.hpp:77] Creating layer conv2_3/2/bn
I0223 12:02:52.464576 29804 net.cpp:100] Creating Layer conv2_3/2/bn
I0223 12:02:52.464583 29804 net.cpp:434] conv2_3/2/bn <- conv2_3/2/conv
I0223 12:02:52.464596 29804 net.cpp:395] conv2_3/2/bn -> conv2_3/2/conv (in-place)
I0223 12:02:52.465430 29804 net.cpp:150] Setting up conv2_3/2/bn
I0223 12:02:52.465448 29804 net.cpp:157] Top shape: 1 24 216 360 (1866240)
I0223 12:02:52.465456 29804 net.cpp:165] Memory required for data: 880865364
I0223 12:02:52.465469 29804 layer_factory.hpp:77] Creating layer conv2_3/2/conv_conv2_3/2/bn_0_split
I0223 12:02:52.465482 29804 net.cpp:100] Creating Layer conv2_3/2/conv_conv2_3/2/bn_0_split
I0223 12:02:52.465490 29804 net.cpp:434] conv2_3/2/conv_conv2_3/2/bn_0_split <- conv2_3/2/conv
I0223 12:02:52.465503 29804 net.cpp:408] conv2_3/2/conv_conv2_3/2/bn_0_split -> conv2_3/2/conv_conv2_3/2/bn_0_split_0
I0223 12:02:52.465518 29804 net.cpp:408] conv2_3/2/conv_conv2_3/2/bn_0_split -> conv2_3/2/conv_conv2_3/2/bn_0_split_1
I0223 12:02:52.465632 29804 net.cpp:150] Setting up conv2_3/2/conv_conv2_3/2/bn_0_split
I0223 12:02:52.465646 29804 net.cpp:157] Top shape: 1 24 216 360 (1866240)
I0223 12:02:52.465656 29804 net.cpp:157] Top shape: 1 24 216 360 (1866240)
I0223 12:02:52.465662 29804 net.cpp:165] Memory required for data: 895795284
I0223 12:02:52.465668 29804 layer_factory.hpp:77] Creating layer conv2_3/2/neg
I0223 12:02:52.465693 29804 net.cpp:100] Creating Layer conv2_3/2/neg
I0223 12:02:52.465701 29804 net.cpp:434] conv2_3/2/neg <- conv2_3/2/conv_conv2_3/2/bn_0_split_0
I0223 12:02:52.465713 29804 net.cpp:408] conv2_3/2/neg -> conv2_3/2/neg
I0223 12:02:52.465778 29804 net.cpp:150] Setting up conv2_3/2/neg
I0223 12:02:52.465793 29804 net.cpp:157] Top shape: 1 24 216 360 (1866240)
I0223 12:02:52.465800 29804 net.cpp:165] Memory required for data: 903260244
I0223 12:02:52.465806 29804 layer_factory.hpp:77] Creating layer conv2_3/2/concat
I0223 12:02:52.465817 29804 net.cpp:100] Creating Layer conv2_3/2/concat
I0223 12:02:52.465826 29804 net.cpp:434] conv2_3/2/concat <- conv2_3/2/conv_conv2_3/2/bn_0_split_1
I0223 12:02:52.465834 29804 net.cpp:434] conv2_3/2/concat <- conv2_3/2/neg
I0223 12:02:52.465844 29804 net.cpp:408] conv2_3/2/concat -> conv2_3/2
I0223 12:02:52.465919 29804 net.cpp:150] Setting up conv2_3/2/concat
I0223 12:02:52.465932 29804 net.cpp:157] Top shape: 1 48 216 360 (3732480)
I0223 12:02:52.465939 29804 net.cpp:165] Memory required for data: 918190164
I0223 12:02:52.465945 29804 layer_factory.hpp:77] Creating layer conv2_3/2/scale
I0223 12:02:52.465957 29804 net.cpp:100] Creating Layer conv2_3/2/scale
I0223 12:02:52.465965 29804 net.cpp:434] conv2_3/2/scale <- conv2_3/2
I0223 12:02:52.465978 29804 net.cpp:395] conv2_3/2/scale -> conv2_3/2 (in-place)
I0223 12:02:52.466100 29804 layer_factory.hpp:77] Creating layer conv2_3/2/scale
I0223 12:02:52.467777 29804 net.cpp:150] Setting up conv2_3/2/scale
I0223 12:02:52.467803 29804 net.cpp:157] Top shape: 1 48 216 360 (3732480)
I0223 12:02:52.467810 29804 net.cpp:165] Memory required for data: 933120084
I0223 12:02:52.467823 29804 layer_factory.hpp:77] Creating layer conv2_3/2/relu
I0223 12:02:52.467836 29804 net.cpp:100] Creating Layer conv2_3/2/relu
I0223 12:02:52.467844 29804 net.cpp:434] conv2_3/2/relu <- conv2_3/2
I0223 12:02:52.467857 29804 net.cpp:395] conv2_3/2/relu -> conv2_3/2 (in-place)
I0223 12:02:52.468240 29804 net.cpp:150] Setting up conv2_3/2/relu
I0223 12:02:52.468256 29804 net.cpp:157] Top shape: 1 48 216 360 (3732480)
I0223 12:02:52.468263 29804 net.cpp:165] Memory required for data: 948050004
I0223 12:02:52.468286 29804 layer_factory.hpp:77] Creating layer conv2_3/3/conv
I0223 12:02:52.468304 29804 net.cpp:100] Creating Layer conv2_3/3/conv
I0223 12:02:52.468313 29804 net.cpp:434] conv2_3/3/conv <- conv2_3/2
I0223 12:02:52.468328 29804 net.cpp:408] conv2_3/3/conv -> conv2_3/3
I0223 12:02:52.470962 29804 net.cpp:150] Setting up conv2_3/3/conv
I0223 12:02:52.470988 29804 net.cpp:157] Top shape: 1 64 216 360 (4976640)
I0223 12:02:52.470994 29804 net.cpp:165] Memory required for data: 967956564
I0223 12:02:52.471005 29804 layer_factory.hpp:77] Creating layer conv2_3/3/bn
I0223 12:02:52.471021 29804 net.cpp:100] Creating Layer conv2_3/3/bn
I0223 12:02:52.471029 29804 net.cpp:434] conv2_3/3/bn <- conv2_3/3
I0223 12:02:52.471050 29804 net.cpp:395] conv2_3/3/bn -> conv2_3/3 (in-place)
I0223 12:02:52.471796 29804 net.cpp:150] Setting up conv2_3/3/bn
I0223 12:02:52.471812 29804 net.cpp:157] Top shape: 1 64 216 360 (4976640)
I0223 12:02:52.471818 29804 net.cpp:165] Memory required for data: 987863124
I0223 12:02:52.471848 29804 layer_factory.hpp:77] Creating layer conv2_3/3/bn_scale
I0223 12:02:52.471868 29804 net.cpp:100] Creating Layer conv2_3/3/bn_scale
I0223 12:02:52.471876 29804 net.cpp:434] conv2_3/3/bn_scale <- conv2_3/3
I0223 12:02:52.471887 29804 net.cpp:395] conv2_3/3/bn_scale -> conv2_3/3 (in-place)
I0223 12:02:52.472000 29804 layer_factory.hpp:77] Creating layer conv2_3/3/bn_scale
I0223 12:02:52.473541 29804 net.cpp:150] Setting up conv2_3/3/bn_scale
I0223 12:02:52.473564 29804 net.cpp:157] Top shape: 1 64 216 360 (4976640)
I0223 12:02:52.473570 29804 net.cpp:165] Memory required for data: 1007769684
I0223 12:02:52.473582 29804 layer_factory.hpp:77] Creating layer conv2_3/input
I0223 12:02:52.473597 29804 net.cpp:100] Creating Layer conv2_3/input
I0223 12:02:52.473603 29804 net.cpp:434] conv2_3/input <- conv2_2_conv2_2_0_split_1
I0223 12:02:52.473614 29804 net.cpp:408] conv2_3/input -> conv2_3/input
I0223 12:02:52.473702 29804 net.cpp:150] Setting up conv2_3/input
I0223 12:02:52.473718 29804 net.cpp:157] Top shape: 1 64 216 360 (4976640)
I0223 12:02:52.473724 29804 net.cpp:165] Memory required for data: 1027676244
I0223 12:02:52.473731 29804 layer_factory.hpp:77] Creating layer conv2_3
I0223 12:02:52.473762 29804 net.cpp:100] Creating Layer conv2_3
I0223 12:02:52.473769 29804 net.cpp:434] conv2_3 <- conv2_3/3
I0223 12:02:52.473778 29804 net.cpp:434] conv2_3 <- conv2_3/input
I0223 12:02:52.473788 29804 net.cpp:408] conv2_3 -> conv2_3
I0223 12:02:52.473855 29804 net.cpp:150] Setting up conv2_3
I0223 12:02:52.473866 29804 net.cpp:157] Top shape: 1 64 216 360 (4976640)
I0223 12:02:52.473872 29804 net.cpp:165] Memory required for data: 1047582804
I0223 12:02:52.473879 29804 layer_factory.hpp:77] Creating layer conv2_3_conv2_3_0_split
I0223 12:02:52.473892 29804 net.cpp:100] Creating Layer conv2_3_conv2_3_0_split
I0223 12:02:52.473899 29804 net.cpp:434] conv2_3_conv2_3_0_split <- conv2_3
I0223 12:02:52.473909 29804 net.cpp:408] conv2_3_conv2_3_0_split -> conv2_3_conv2_3_0_split_0
I0223 12:02:52.473922 29804 net.cpp:408] conv2_3_conv2_3_0_split -> conv2_3_conv2_3_0_split_1
I0223 12:02:52.474023 29804 net.cpp:150] Setting up conv2_3_conv2_3_0_split
I0223 12:02:52.474038 29804 net.cpp:157] Top shape: 1 64 216 360 (4976640)
I0223 12:02:52.474046 29804 net.cpp:157] Top shape: 1 64 216 360 (4976640)
I0223 12:02:52.474052 29804 net.cpp:165] Memory required for data: 1087395924
I0223 12:02:52.474058 29804 layer_factory.hpp:77] Creating layer conv3_1/1/conv
I0223 12:02:52.474081 29804 net.cpp:100] Creating Layer conv3_1/1/conv
I0223 12:02:52.474088 29804 net.cpp:434] conv3_1/1/conv <- conv2_3_conv2_3_0_split_0
I0223 12:02:52.474102 29804 net.cpp:408] conv3_1/1/conv -> conv3_1/1
I0223 12:02:52.476547 29804 net.cpp:150] Setting up conv3_1/1/conv
I0223 12:02:52.476572 29804 net.cpp:157] Top shape: 1 48 108 180 (933120)
I0223 12:02:52.476579 29804 net.cpp:165] Memory required for data: 1091128404
I0223 12:02:52.476589 29804 layer_factory.hpp:77] Creating layer conv3_1/1/bn
I0223 12:02:52.476608 29804 net.cpp:100] Creating Layer conv3_1/1/bn
I0223 12:02:52.476624 29804 net.cpp:434] conv3_1/1/bn <- conv3_1/1
I0223 12:02:52.476636 29804 net.cpp:395] conv3_1/1/bn -> conv3_1/1 (in-place)
I0223 12:02:52.478365 29804 net.cpp:150] Setting up conv3_1/1/bn
I0223 12:02:52.478389 29804 net.cpp:157] Top shape: 1 48 108 180 (933120)
I0223 12:02:52.478396 29804 net.cpp:165] Memory required for data: 1094860884
I0223 12:02:52.478411 29804 layer_factory.hpp:77] Creating layer conv3_1/1/bn_scale
I0223 12:02:52.478427 29804 net.cpp:100] Creating Layer conv3_1/1/bn_scale
I0223 12:02:52.478435 29804 net.cpp:434] conv3_1/1/bn_scale <- conv3_1/1
I0223 12:02:52.478446 29804 net.cpp:395] conv3_1/1/bn_scale -> conv3_1/1 (in-place)
I0223 12:02:52.478569 29804 layer_factory.hpp:77] Creating layer conv3_1/1/bn_scale
I0223 12:02:52.479020 29804 net.cpp:150] Setting up conv3_1/1/bn_scale
I0223 12:02:52.479035 29804 net.cpp:157] Top shape: 1 48 108 180 (933120)
I0223 12:02:52.479043 29804 net.cpp:165] Memory required for data: 1098593364
I0223 12:02:52.479053 29804 layer_factory.hpp:77] Creating layer conv3_1/1/relu
I0223 12:02:52.479064 29804 net.cpp:100] Creating Layer conv3_1/1/relu
I0223 12:02:52.479070 29804 net.cpp:434] conv3_1/1/relu <- conv3_1/1
I0223 12:02:52.479080 29804 net.cpp:395] conv3_1/1/relu -> conv3_1/1 (in-place)
I0223 12:02:52.479435 29804 net.cpp:150] Setting up conv3_1/1/relu
I0223 12:02:52.479449 29804 net.cpp:157] Top shape: 1 48 108 180 (933120)
I0223 12:02:52.479455 29804 net.cpp:165] Memory required for data: 1102325844
I0223 12:02:52.479463 29804 layer_factory.hpp:77] Creating layer conv3_1/2/conv
I0223 12:02:52.479480 29804 net.cpp:100] Creating Layer conv3_1/2/conv
I0223 12:02:52.479486 29804 net.cpp:434] conv3_1/2/conv <- conv3_1/1
I0223 12:02:52.479498 29804 net.cpp:408] conv3_1/2/conv -> conv3_1/2/conv
I0223 12:02:52.482036 29804 net.cpp:150] Setting up conv3_1/2/conv
I0223 12:02:52.482061 29804 net.cpp:157] Top shape: 1 48 108 180 (933120)
I0223 12:02:52.482069 29804 net.cpp:165] Memory required for data: 1106058324
I0223 12:02:52.482079 29804 layer_factory.hpp:77] Creating layer conv3_1/2/bn
I0223 12:02:52.482095 29804 net.cpp:100] Creating Layer conv3_1/2/bn
I0223 12:02:52.482101 29804 net.cpp:434] conv3_1/2/bn <- conv3_1/2/conv
I0223 12:02:52.482115 29804 net.cpp:395] conv3_1/2/bn -> conv3_1/2/conv (in-place)
I0223 12:02:52.482791 29804 net.cpp:150] Setting up conv3_1/2/bn
I0223 12:02:52.482808 29804 net.cpp:157] Top shape: 1 48 108 180 (933120)
I0223 12:02:52.482815 29804 net.cpp:165] Memory required for data: 1109790804
I0223 12:02:52.482827 29804 layer_factory.hpp:77] Creating layer conv3_1/2/conv_conv3_1/2/bn_0_split
I0223 12:02:52.482838 29804 net.cpp:100] Creating Layer conv3_1/2/conv_conv3_1/2/bn_0_split
I0223 12:02:52.482846 29804 net.cpp:434] conv3_1/2/conv_conv3_1/2/bn_0_split <- conv3_1/2/conv
I0223 12:02:52.482856 29804 net.cpp:408] conv3_1/2/conv_conv3_1/2/bn_0_split -> conv3_1/2/conv_conv3_1/2/bn_0_split_0
I0223 12:02:52.482869 29804 net.cpp:408] conv3_1/2/conv_conv3_1/2/bn_0_split -> conv3_1/2/conv_conv3_1/2/bn_0_split_1
I0223 12:02:52.482986 29804 net.cpp:150] Setting up conv3_1/2/conv_conv3_1/2/bn_0_split
I0223 12:02:52.482998 29804 net.cpp:157] Top shape: 1 48 108 180 (933120)
I0223 12:02:52.483006 29804 net.cpp:157] Top shape: 1 48 108 180 (933120)
I0223 12:02:52.483011 29804 net.cpp:165] Memory required for data: 1117255764
I0223 12:02:52.483017 29804 layer_factory.hpp:77] Creating layer conv3_1/2/neg
I0223 12:02:52.483028 29804 net.cpp:100] Creating Layer conv3_1/2/neg
I0223 12:02:52.483036 29804 net.cpp:434] conv3_1/2/neg <- conv3_1/2/conv_conv3_1/2/bn_0_split_0
I0223 12:02:52.483047 29804 net.cpp:408] conv3_1/2/neg -> conv3_1/2/neg
I0223 12:02:52.483103 29804 net.cpp:150] Setting up conv3_1/2/neg
I0223 12:02:52.483114 29804 net.cpp:157] Top shape: 1 48 108 180 (933120)
I0223 12:02:52.483119 29804 net.cpp:165] Memory required for data: 1120988244
I0223 12:02:52.483125 29804 layer_factory.hpp:77] Creating layer conv3_1/2/concat
I0223 12:02:52.483135 29804 net.cpp:100] Creating Layer conv3_1/2/concat
I0223 12:02:52.483150 29804 net.cpp:434] conv3_1/2/concat <- conv3_1/2/conv_conv3_1/2/bn_0_split_1
I0223 12:02:52.483160 29804 net.cpp:434] conv3_1/2/concat <- conv3_1/2/neg
I0223 12:02:52.483171 29804 net.cpp:408] conv3_1/2/concat -> conv3_1/2
I0223 12:02:52.483229 29804 net.cpp:150] Setting up conv3_1/2/concat
I0223 12:02:52.483240 29804 net.cpp:157] Top shape: 1 96 108 180 (1866240)
I0223 12:02:52.483247 29804 net.cpp:165] Memory required for data: 1128453204
I0223 12:02:52.483253 29804 layer_factory.hpp:77] Creating layer conv3_1/2/scale
I0223 12:02:52.483265 29804 net.cpp:100] Creating Layer conv3_1/2/scale
I0223 12:02:52.483273 29804 net.cpp:434] conv3_1/2/scale <- conv3_1/2
I0223 12:02:52.483283 29804 net.cpp:395] conv3_1/2/scale -> conv3_1/2 (in-place)
I0223 12:02:52.483392 29804 layer_factory.hpp:77] Creating layer conv3_1/2/scale
I0223 12:02:52.483783 29804 net.cpp:150] Setting up conv3_1/2/scale
I0223 12:02:52.483795 29804 net.cpp:157] Top shape: 1 96 108 180 (1866240)
I0223 12:02:52.483801 29804 net.cpp:165] Memory required for data: 1135918164
I0223 12:02:52.483811 29804 layer_factory.hpp:77] Creating layer conv3_1/2/relu
I0223 12:02:52.483821 29804 net.cpp:100] Creating Layer conv3_1/2/relu
I0223 12:02:52.483829 29804 net.cpp:434] conv3_1/2/relu <- conv3_1/2
I0223 12:02:52.483836 29804 net.cpp:395] conv3_1/2/relu -> conv3_1/2 (in-place)
I0223 12:02:52.484413 29804 net.cpp:150] Setting up conv3_1/2/relu
I0223 12:02:52.484446 29804 net.cpp:157] Top shape: 1 96 108 180 (1866240)
I0223 12:02:52.484452 29804 net.cpp:165] Memory required for data: 1143383124
I0223 12:02:52.484458 29804 layer_factory.hpp:77] Creating layer conv3_1/3/conv
I0223 12:02:52.484475 29804 net.cpp:100] Creating Layer conv3_1/3/conv
I0223 12:02:52.484483 29804 net.cpp:434] conv3_1/3/conv <- conv3_1/2
I0223 12:02:52.484495 29804 net.cpp:408] conv3_1/3/conv -> conv3_1/3
I0223 12:02:52.486768 29804 net.cpp:150] Setting up conv3_1/3/conv
I0223 12:02:52.486798 29804 net.cpp:157] Top shape: 1 128 108 180 (2488320)
I0223 12:02:52.486804 29804 net.cpp:165] Memory required for data: 1153336404
I0223 12:02:52.486815 29804 layer_factory.hpp:77] Creating layer conv3_1/3/bn
I0223 12:02:52.486827 29804 net.cpp:100] Creating Layer conv3_1/3/bn
I0223 12:02:52.486835 29804 net.cpp:434] conv3_1/3/bn <- conv3_1/3
I0223 12:02:52.486846 29804 net.cpp:395] conv3_1/3/bn -> conv3_1/3 (in-place)
I0223 12:02:52.487462 29804 net.cpp:150] Setting up conv3_1/3/bn
I0223 12:02:52.487474 29804 net.cpp:157] Top shape: 1 128 108 180 (2488320)
I0223 12:02:52.487480 29804 net.cpp:165] Memory required for data: 1163289684
I0223 12:02:52.487493 29804 layer_factory.hpp:77] Creating layer conv3_1/3/bn_scale
I0223 12:02:52.487507 29804 net.cpp:100] Creating Layer conv3_1/3/bn_scale
I0223 12:02:52.487514 29804 net.cpp:434] conv3_1/3/bn_scale <- conv3_1/3
I0223 12:02:52.487524 29804 net.cpp:395] conv3_1/3/bn_scale -> conv3_1/3 (in-place)
I0223 12:02:52.487627 29804 layer_factory.hpp:77] Creating layer conv3_1/3/bn_scale
I0223 12:02:52.488001 29804 net.cpp:150] Setting up conv3_1/3/bn_scale
I0223 12:02:52.488013 29804 net.cpp:157] Top shape: 1 128 108 180 (2488320)
I0223 12:02:52.488019 29804 net.cpp:165] Memory required for data: 1173242964
I0223 12:02:52.488029 29804 layer_factory.hpp:77] Creating layer conv3_1/proj
I0223 12:02:52.488046 29804 net.cpp:100] Creating Layer conv3_1/proj
I0223 12:02:52.488054 29804 net.cpp:434] conv3_1/proj <- conv2_3_conv2_3_0_split_1
I0223 12:02:52.488066 29804 net.cpp:408] conv3_1/proj -> conv3_1/proj
I0223 12:02:52.490453 29804 net.cpp:150] Setting up conv3_1/proj
I0223 12:02:52.490478 29804 net.cpp:157] Top shape: 1 128 108 180 (2488320)
I0223 12:02:52.490483 29804 net.cpp:165] Memory required for data: 1183196244
I0223 12:02:52.490497 29804 layer_factory.hpp:77] Creating layer conv3_1/proj_bn
I0223 12:02:52.490511 29804 net.cpp:100] Creating Layer conv3_1/proj_bn
I0223 12:02:52.490520 29804 net.cpp:434] conv3_1/proj_bn <- conv3_1/proj
I0223 12:02:52.490532 29804 net.cpp:395] conv3_1/proj_bn -> conv3_1/proj (in-place)
I0223 12:02:52.491158 29804 net.cpp:150] Setting up conv3_1/proj_bn
I0223 12:02:52.491178 29804 net.cpp:157] Top shape: 1 128 108 180 (2488320)
I0223 12:02:52.491185 29804 net.cpp:165] Memory required for data: 1193149524
I0223 12:02:52.491199 29804 layer_factory.hpp:77] Creating layer conv3_1/proj_bn_scale
I0223 12:02:52.491212 29804 net.cpp:100] Creating Layer conv3_1/proj_bn_scale
I0223 12:02:52.491219 29804 net.cpp:434] conv3_1/proj_bn_scale <- conv3_1/proj
I0223 12:02:52.491231 29804 net.cpp:395] conv3_1/proj_bn_scale -> conv3_1/proj (in-place)
I0223 12:02:52.491338 29804 layer_factory.hpp:77] Creating layer conv3_1/proj_bn_scale
I0223 12:02:52.492738 29804 net.cpp:150] Setting up conv3_1/proj_bn_scale
I0223 12:02:52.492760 29804 net.cpp:157] Top shape: 1 128 108 180 (2488320)
I0223 12:02:52.492768 29804 net.cpp:165] Memory required for data: 1203102804
I0223 12:02:52.492779 29804 layer_factory.hpp:77] Creating layer conv3_1
I0223 12:02:52.492794 29804 net.cpp:100] Creating Layer conv3_1
I0223 12:02:52.492800 29804 net.cpp:434] conv3_1 <- conv3_1/3
I0223 12:02:52.492810 29804 net.cpp:434] conv3_1 <- conv3_1/proj
I0223 12:02:52.492825 29804 net.cpp:408] conv3_1 -> conv3_1
I0223 12:02:52.492898 29804 net.cpp:150] Setting up conv3_1
I0223 12:02:52.492910 29804 net.cpp:157] Top shape: 1 128 108 180 (2488320)
I0223 12:02:52.492918 29804 net.cpp:165] Memory required for data: 1213056084
I0223 12:02:52.492923 29804 layer_factory.hpp:77] Creating layer conv3_1_conv3_1_0_split
I0223 12:02:52.492936 29804 net.cpp:100] Creating Layer conv3_1_conv3_1_0_split
I0223 12:02:52.492944 29804 net.cpp:434] conv3_1_conv3_1_0_split <- conv3_1
I0223 12:02:52.492954 29804 net.cpp:408] conv3_1_conv3_1_0_split -> conv3_1_conv3_1_0_split_0
I0223 12:02:52.492967 29804 net.cpp:408] conv3_1_conv3_1_0_split -> conv3_1_conv3_1_0_split_1
I0223 12:02:52.493069 29804 net.cpp:150] Setting up conv3_1_conv3_1_0_split
I0223 12:02:52.493080 29804 net.cpp:157] Top shape: 1 128 108 180 (2488320)
I0223 12:02:52.493088 29804 net.cpp:157] Top shape: 1 128 108 180 (2488320)
I0223 12:02:52.493094 29804 net.cpp:165] Memory required for data: 1232962644
I0223 12:02:52.493100 29804 layer_factory.hpp:77] Creating layer conv3_2/1/conv
I0223 12:02:52.493116 29804 net.cpp:100] Creating Layer conv3_2/1/conv
I0223 12:02:52.493126 29804 net.cpp:434] conv3_2/1/conv <- conv3_1_conv3_1_0_split_0
I0223 12:02:52.493144 29804 net.cpp:408] conv3_2/1/conv -> conv3_2/1
I0223 12:02:52.495513 29804 net.cpp:150] Setting up conv3_2/1/conv
I0223 12:02:52.495537 29804 net.cpp:157] Top shape: 1 48 108 180 (933120)
I0223 12:02:52.495543 29804 net.cpp:165] Memory required for data: 1236695124
I0223 12:02:52.495553 29804 layer_factory.hpp:77] Creating layer conv3_2/1/bn
I0223 12:02:52.495566 29804 net.cpp:100] Creating Layer conv3_2/1/bn
I0223 12:02:52.495573 29804 net.cpp:434] conv3_2/1/bn <- conv3_2/1
I0223 12:02:52.495584 29804 net.cpp:395] conv3_2/1/bn -> conv3_2/1 (in-place)
I0223 12:02:52.496213 29804 net.cpp:150] Setting up conv3_2/1/bn
I0223 12:02:52.496232 29804 net.cpp:157] Top shape: 1 48 108 180 (933120)
I0223 12:02:52.496237 29804 net.cpp:165] Memory required for data: 1240427604
I0223 12:02:52.496250 29804 layer_factory.hpp:77] Creating layer conv3_2/1/bn_scale
I0223 12:02:52.496261 29804 net.cpp:100] Creating Layer conv3_2/1/bn_scale
I0223 12:02:52.496270 29804 net.cpp:434] conv3_2/1/bn_scale <- conv3_2/1
I0223 12:02:52.496279 29804 net.cpp:395] conv3_2/1/bn_scale -> conv3_2/1 (in-place)
I0223 12:02:52.496377 29804 layer_factory.hpp:77] Creating layer conv3_2/1/bn_scale
I0223 12:02:52.496768 29804 net.cpp:150] Setting up conv3_2/1/bn_scale
I0223 12:02:52.496780 29804 net.cpp:157] Top shape: 1 48 108 180 (933120)
I0223 12:02:52.496786 29804 net.cpp:165] Memory required for data: 1244160084
I0223 12:02:52.496798 29804 layer_factory.hpp:77] Creating layer conv3_2/1/relu
I0223 12:02:52.496807 29804 net.cpp:100] Creating Layer conv3_2/1/relu
I0223 12:02:52.496814 29804 net.cpp:434] conv3_2/1/relu <- conv3_2/1
I0223 12:02:52.496820 29804 net.cpp:395] conv3_2/1/relu -> conv3_2/1 (in-place)
I0223 12:02:52.497385 29804 net.cpp:150] Setting up conv3_2/1/relu
I0223 12:02:52.497406 29804 net.cpp:157] Top shape: 1 48 108 180 (933120)
I0223 12:02:52.497411 29804 net.cpp:165] Memory required for data: 1247892564
I0223 12:02:52.497417 29804 layer_factory.hpp:77] Creating layer conv3_2/2/conv
I0223 12:02:52.497436 29804 net.cpp:100] Creating Layer conv3_2/2/conv
I0223 12:02:52.497442 29804 net.cpp:434] conv3_2/2/conv <- conv3_2/1
I0223 12:02:52.497452 29804 net.cpp:408] conv3_2/2/conv -> conv3_2/2/conv
I0223 12:02:52.499503 29804 net.cpp:150] Setting up conv3_2/2/conv
I0223 12:02:52.499526 29804 net.cpp:157] Top shape: 1 48 108 180 (933120)
I0223 12:02:52.499531 29804 net.cpp:165] Memory required for data: 1251625044
I0223 12:02:52.499541 29804 layer_factory.hpp:77] Creating layer conv3_2/2/bn
I0223 12:02:52.499554 29804 net.cpp:100] Creating Layer conv3_2/2/bn
I0223 12:02:52.499562 29804 net.cpp:434] conv3_2/2/bn <- conv3_2/2/conv
I0223 12:02:52.499570 29804 net.cpp:395] conv3_2/2/bn -> conv3_2/2/conv (in-place)
I0223 12:02:52.500167 29804 net.cpp:150] Setting up conv3_2/2/bn
I0223 12:02:52.500180 29804 net.cpp:157] Top shape: 1 48 108 180 (933120)
I0223 12:02:52.500186 29804 net.cpp:165] Memory required for data: 1255357524
I0223 12:02:52.500197 29804 layer_factory.hpp:77] Creating layer conv3_2/2/conv_conv3_2/2/bn_0_split
I0223 12:02:52.500207 29804 net.cpp:100] Creating Layer conv3_2/2/conv_conv3_2/2/bn_0_split
I0223 12:02:52.500216 29804 net.cpp:434] conv3_2/2/conv_conv3_2/2/bn_0_split <- conv3_2/2/conv
I0223 12:02:52.500226 29804 net.cpp:408] conv3_2/2/conv_conv3_2/2/bn_0_split -> conv3_2/2/conv_conv3_2/2/bn_0_split_0
I0223 12:02:52.500237 29804 net.cpp:408] conv3_2/2/conv_conv3_2/2/bn_0_split -> conv3_2/2/conv_conv3_2/2/bn_0_split_1
I0223 12:02:52.500356 29804 net.cpp:150] Setting up conv3_2/2/conv_conv3_2/2/bn_0_split
I0223 12:02:52.500367 29804 net.cpp:157] Top shape: 1 48 108 180 (933120)
I0223 12:02:52.500377 29804 net.cpp:157] Top shape: 1 48 108 180 (933120)
I0223 12:02:52.500383 29804 net.cpp:165] Memory required for data: 1262822484
I0223 12:02:52.500388 29804 layer_factory.hpp:77] Creating layer conv3_2/2/neg
I0223 12:02:52.500399 29804 net.cpp:100] Creating Layer conv3_2/2/neg
I0223 12:02:52.500406 29804 net.cpp:434] conv3_2/2/neg <- conv3_2/2/conv_conv3_2/2/bn_0_split_0
I0223 12:02:52.500416 29804 net.cpp:408] conv3_2/2/neg -> conv3_2/2/neg
I0223 12:02:52.500473 29804 net.cpp:150] Setting up conv3_2/2/neg
I0223 12:02:52.500483 29804 net.cpp:157] Top shape: 1 48 108 180 (933120)
I0223 12:02:52.500488 29804 net.cpp:165] Memory required for data: 1266554964
I0223 12:02:52.500494 29804 layer_factory.hpp:77] Creating layer conv3_2/2/concat
I0223 12:02:52.500507 29804 net.cpp:100] Creating Layer conv3_2/2/concat
I0223 12:02:52.500514 29804 net.cpp:434] conv3_2/2/concat <- conv3_2/2/conv_conv3_2/2/bn_0_split_1
I0223 12:02:52.500521 29804 net.cpp:434] conv3_2/2/concat <- conv3_2/2/neg
I0223 12:02:52.500530 29804 net.cpp:408] conv3_2/2/concat -> conv3_2/2
I0223 12:02:52.500586 29804 net.cpp:150] Setting up conv3_2/2/concat
I0223 12:02:52.500597 29804 net.cpp:157] Top shape: 1 96 108 180 (1866240)
I0223 12:02:52.500603 29804 net.cpp:165] Memory required for data: 1274019924
I0223 12:02:52.500608 29804 layer_factory.hpp:77] Creating layer conv3_2/2/scale
I0223 12:02:52.500619 29804 net.cpp:100] Creating Layer conv3_2/2/scale
I0223 12:02:52.500624 29804 net.cpp:434] conv3_2/2/scale <- conv3_2/2
I0223 12:02:52.500636 29804 net.cpp:395] conv3_2/2/scale -> conv3_2/2 (in-place)
I0223 12:02:52.500741 29804 layer_factory.hpp:77] Creating layer conv3_2/2/scale
I0223 12:02:52.501118 29804 net.cpp:150] Setting up conv3_2/2/scale
I0223 12:02:52.501130 29804 net.cpp:157] Top shape: 1 96 108 180 (1866240)
I0223 12:02:52.501137 29804 net.cpp:165] Memory required for data: 1281484884
I0223 12:02:52.501147 29804 layer_factory.hpp:77] Creating layer conv3_2/2/relu
I0223 12:02:52.501155 29804 net.cpp:100] Creating Layer conv3_2/2/relu
I0223 12:02:52.501161 29804 net.cpp:434] conv3_2/2/relu <- conv3_2/2
I0223 12:02:52.501173 29804 net.cpp:395] conv3_2/2/relu -> conv3_2/2 (in-place)
I0223 12:02:52.501732 29804 net.cpp:150] Setting up conv3_2/2/relu
I0223 12:02:52.501751 29804 net.cpp:157] Top shape: 1 96 108 180 (1866240)
I0223 12:02:52.501756 29804 net.cpp:165] Memory required for data: 1288949844
I0223 12:02:52.501763 29804 layer_factory.hpp:77] Creating layer conv3_2/3/conv
I0223 12:02:52.501780 29804 net.cpp:100] Creating Layer conv3_2/3/conv
I0223 12:02:52.501786 29804 net.cpp:434] conv3_2/3/conv <- conv3_2/2
I0223 12:02:52.501798 29804 net.cpp:408] conv3_2/3/conv -> conv3_2/3
I0223 12:02:52.504361 29804 net.cpp:150] Setting up conv3_2/3/conv
I0223 12:02:52.504385 29804 net.cpp:157] Top shape: 1 128 108 180 (2488320)
I0223 12:02:52.504392 29804 net.cpp:165] Memory required for data: 1298903124
I0223 12:02:52.504401 29804 layer_factory.hpp:77] Creating layer conv3_2/3/bn
I0223 12:02:52.504415 29804 net.cpp:100] Creating Layer conv3_2/3/bn
I0223 12:02:52.504422 29804 net.cpp:434] conv3_2/3/bn <- conv3_2/3
I0223 12:02:52.504431 29804 net.cpp:395] conv3_2/3/bn -> conv3_2/3 (in-place)
I0223 12:02:52.505019 29804 net.cpp:150] Setting up conv3_2/3/bn
I0223 12:02:52.505033 29804 net.cpp:157] Top shape: 1 128 108 180 (2488320)
I0223 12:02:52.505038 29804 net.cpp:165] Memory required for data: 1308856404
I0223 12:02:52.505051 29804 layer_factory.hpp:77] Creating layer conv3_2/3/bn_scale
I0223 12:02:52.505066 29804 net.cpp:100] Creating Layer conv3_2/3/bn_scale
I0223 12:02:52.505074 29804 net.cpp:434] conv3_2/3/bn_scale <- conv3_2/3
I0223 12:02:52.505084 29804 net.cpp:395] conv3_2/3/bn_scale -> conv3_2/3 (in-place)
I0223 12:02:52.505183 29804 layer_factory.hpp:77] Creating layer conv3_2/3/bn_scale
I0223 12:02:52.505545 29804 net.cpp:150] Setting up conv3_2/3/bn_scale
I0223 12:02:52.505558 29804 net.cpp:157] Top shape: 1 128 108 180 (2488320)
I0223 12:02:52.505563 29804 net.cpp:165] Memory required for data: 1318809684
I0223 12:02:52.505573 29804 layer_factory.hpp:77] Creating layer conv3_2/input
I0223 12:02:52.505584 29804 net.cpp:100] Creating Layer conv3_2/input
I0223 12:02:52.505592 29804 net.cpp:434] conv3_2/input <- conv3_1_conv3_1_0_split_1
I0223 12:02:52.505601 29804 net.cpp:408] conv3_2/input -> conv3_2/input
I0223 12:02:52.505662 29804 net.cpp:150] Setting up conv3_2/input
I0223 12:02:52.505673 29804 net.cpp:157] Top shape: 1 128 108 180 (2488320)
I0223 12:02:52.505679 29804 net.cpp:165] Memory required for data: 1328762964
I0223 12:02:52.505686 29804 layer_factory.hpp:77] Creating layer conv3_2
I0223 12:02:52.505697 29804 net.cpp:100] Creating Layer conv3_2
I0223 12:02:52.505702 29804 net.cpp:434] conv3_2 <- conv3_2/3
I0223 12:02:52.505710 29804 net.cpp:434] conv3_2 <- conv3_2/input
I0223 12:02:52.505719 29804 net.cpp:408] conv3_2 -> conv3_2
I0223 12:02:52.505784 29804 net.cpp:150] Setting up conv3_2
I0223 12:02:52.505795 29804 net.cpp:157] Top shape: 1 128 108 180 (2488320)
I0223 12:02:52.505800 29804 net.cpp:165] Memory required for data: 1338716244
I0223 12:02:52.505806 29804 layer_factory.hpp:77] Creating layer conv3_2_conv3_2_0_split
I0223 12:02:52.505815 29804 net.cpp:100] Creating Layer conv3_2_conv3_2_0_split
I0223 12:02:52.505821 29804 net.cpp:434] conv3_2_conv3_2_0_split <- conv3_2
I0223 12:02:52.505833 29804 net.cpp:408] conv3_2_conv3_2_0_split -> conv3_2_conv3_2_0_split_0
I0223 12:02:52.505844 29804 net.cpp:408] conv3_2_conv3_2_0_split -> conv3_2_conv3_2_0_split_1
I0223 12:02:52.505949 29804 net.cpp:150] Setting up conv3_2_conv3_2_0_split
I0223 12:02:52.505959 29804 net.cpp:157] Top shape: 1 128 108 180 (2488320)
I0223 12:02:52.505966 29804 net.cpp:157] Top shape: 1 128 108 180 (2488320)
I0223 12:02:52.505971 29804 net.cpp:165] Memory required for data: 1358622804
I0223 12:02:52.505977 29804 layer_factory.hpp:77] Creating layer conv3_3/1/conv
I0223 12:02:52.505992 29804 net.cpp:100] Creating Layer conv3_3/1/conv
I0223 12:02:52.506000 29804 net.cpp:434] conv3_3/1/conv <- conv3_2_conv3_2_0_split_0
I0223 12:02:52.506014 29804 net.cpp:408] conv3_3/1/conv -> conv3_3/1
I0223 12:02:52.507776 29804 net.cpp:150] Setting up conv3_3/1/conv
I0223 12:02:52.507802 29804 net.cpp:157] Top shape: 1 48 108 180 (933120)
I0223 12:02:52.507809 29804 net.cpp:165] Memory required for data: 1362355284
I0223 12:02:52.507818 29804 layer_factory.hpp:77] Creating layer conv3_3/1/bn
I0223 12:02:52.507832 29804 net.cpp:100] Creating Layer conv3_3/1/bn
I0223 12:02:52.507838 29804 net.cpp:434] conv3_3/1/bn <- conv3_3/1
I0223 12:02:52.507848 29804 net.cpp:395] conv3_3/1/bn -> conv3_3/1 (in-place)
I0223 12:02:52.508440 29804 net.cpp:150] Setting up conv3_3/1/bn
I0223 12:02:52.508451 29804 net.cpp:157] Top shape: 1 48 108 180 (933120)
I0223 12:02:52.508456 29804 net.cpp:165] Memory required for data: 1366087764
I0223 12:02:52.508469 29804 layer_factory.hpp:77] Creating layer conv3_3/1/bn_scale
I0223 12:02:52.508481 29804 net.cpp:100] Creating Layer conv3_3/1/bn_scale
I0223 12:02:52.508487 29804 net.cpp:434] conv3_3/1/bn_scale <- conv3_3/1
I0223 12:02:52.508497 29804 net.cpp:395] conv3_3/1/bn_scale -> conv3_3/1 (in-place)
I0223 12:02:52.508595 29804 layer_factory.hpp:77] Creating layer conv3_3/1/bn_scale
I0223 12:02:52.509932 29804 net.cpp:150] Setting up conv3_3/1/bn_scale
I0223 12:02:52.509953 29804 net.cpp:157] Top shape: 1 48 108 180 (933120)
I0223 12:02:52.509958 29804 net.cpp:165] Memory required for data: 1369820244
I0223 12:02:52.509968 29804 layer_factory.hpp:77] Creating layer conv3_3/1/relu
I0223 12:02:52.509979 29804 net.cpp:100] Creating Layer conv3_3/1/relu
I0223 12:02:52.509984 29804 net.cpp:434] conv3_3/1/relu <- conv3_3/1
I0223 12:02:52.509992 29804 net.cpp:395] conv3_3/1/relu -> conv3_3/1 (in-place)
I0223 12:02:52.510521 29804 net.cpp:150] Setting up conv3_3/1/relu
I0223 12:02:52.510540 29804 net.cpp:157] Top shape: 1 48 108 180 (933120)
I0223 12:02:52.510545 29804 net.cpp:165] Memory required for data: 1373552724
I0223 12:02:52.510551 29804 layer_factory.hpp:77] Creating layer conv3_3/2/conv
I0223 12:02:52.510567 29804 net.cpp:100] Creating Layer conv3_3/2/conv
I0223 12:02:52.510574 29804 net.cpp:434] conv3_3/2/conv <- conv3_3/1
I0223 12:02:52.510586 29804 net.cpp:408] conv3_3/2/conv -> conv3_3/2/conv
I0223 12:02:52.512958 29804 net.cpp:150] Setting up conv3_3/2/conv
I0223 12:02:52.512979 29804 net.cpp:157] Top shape: 1 48 108 180 (933120)
I0223 12:02:52.512984 29804 net.cpp:165] Memory required for data: 1377285204
I0223 12:02:52.512994 29804 layer_factory.hpp:77] Creating layer conv3_3/2/bn
I0223 12:02:52.513008 29804 net.cpp:100] Creating Layer conv3_3/2/bn
I0223 12:02:52.513015 29804 net.cpp:434] conv3_3/2/bn <- conv3_3/2/conv
I0223 12:02:52.513025 29804 net.cpp:395] conv3_3/2/bn -> conv3_3/2/conv (in-place)
I0223 12:02:52.513603 29804 net.cpp:150] Setting up conv3_3/2/bn
I0223 12:02:52.513625 29804 net.cpp:157] Top shape: 1 48 108 180 (933120)
I0223 12:02:52.513631 29804 net.cpp:165] Memory required for data: 1381017684
I0223 12:02:52.513644 29804 layer_factory.hpp:77] Creating layer conv3_3/2/conv_conv3_3/2/bn_0_split
I0223 12:02:52.513653 29804 net.cpp:100] Creating Layer conv3_3/2/conv_conv3_3/2/bn_0_split
I0223 12:02:52.513659 29804 net.cpp:434] conv3_3/2/conv_conv3_3/2/bn_0_split <- conv3_3/2/conv
I0223 12:02:52.513670 29804 net.cpp:408] conv3_3/2/conv_conv3_3/2/bn_0_split -> conv3_3/2/conv_conv3_3/2/bn_0_split_0
I0223 12:02:52.513682 29804 net.cpp:408] conv3_3/2/conv_conv3_3/2/bn_0_split -> conv3_3/2/conv_conv3_3/2/bn_0_split_1
I0223 12:02:52.513782 29804 net.cpp:150] Setting up conv3_3/2/conv_conv3_3/2/bn_0_split
I0223 12:02:52.513792 29804 net.cpp:157] Top shape: 1 48 108 180 (933120)
I0223 12:02:52.513800 29804 net.cpp:157] Top shape: 1 48 108 180 (933120)
I0223 12:02:52.513805 29804 net.cpp:165] Memory required for data: 1388482644
I0223 12:02:52.513810 29804 layer_factory.hpp:77] Creating layer conv3_3/2/neg
I0223 12:02:52.513820 29804 net.cpp:100] Creating Layer conv3_3/2/neg
I0223 12:02:52.513826 29804 net.cpp:434] conv3_3/2/neg <- conv3_3/2/conv_conv3_3/2/bn_0_split_0
I0223 12:02:52.513837 29804 net.cpp:408] conv3_3/2/neg -> conv3_3/2/neg
I0223 12:02:52.513890 29804 net.cpp:150] Setting up conv3_3/2/neg
I0223 12:02:52.513900 29804 net.cpp:157] Top shape: 1 48 108 180 (933120)
I0223 12:02:52.513911 29804 net.cpp:165] Memory required for data: 1392215124
I0223 12:02:52.513917 29804 layer_factory.hpp:77] Creating layer conv3_3/2/concat
I0223 12:02:52.513929 29804 net.cpp:100] Creating Layer conv3_3/2/concat
I0223 12:02:52.513936 29804 net.cpp:434] conv3_3/2/concat <- conv3_3/2/conv_conv3_3/2/bn_0_split_1
I0223 12:02:52.513943 29804 net.cpp:434] conv3_3/2/concat <- conv3_3/2/neg
I0223 12:02:52.513950 29804 net.cpp:408] conv3_3/2/concat -> conv3_3/2
I0223 12:02:52.514005 29804 net.cpp:150] Setting up conv3_3/2/concat
I0223 12:02:52.514015 29804 net.cpp:157] Top shape: 1 96 108 180 (1866240)
I0223 12:02:52.514029 29804 net.cpp:165] Memory required for data: 1399680084
I0223 12:02:52.514034 29804 layer_factory.hpp:77] Creating layer conv3_3/2/scale
I0223 12:02:52.514045 29804 net.cpp:100] Creating Layer conv3_3/2/scale
I0223 12:02:52.514050 29804 net.cpp:434] conv3_3/2/scale <- conv3_3/2
I0223 12:02:52.514060 29804 net.cpp:395] conv3_3/2/scale -> conv3_3/2 (in-place)
I0223 12:02:52.514163 29804 layer_factory.hpp:77] Creating layer conv3_3/2/scale
I0223 12:02:52.514544 29804 net.cpp:150] Setting up conv3_3/2/scale
I0223 12:02:52.514557 29804 net.cpp:157] Top shape: 1 96 108 180 (1866240)
I0223 12:02:52.514562 29804 net.cpp:165] Memory required for data: 1407145044
I0223 12:02:52.514572 29804 layer_factory.hpp:77] Creating layer conv3_3/2/relu
I0223 12:02:52.514581 29804 net.cpp:100] Creating Layer conv3_3/2/relu
I0223 12:02:52.514586 29804 net.cpp:434] conv3_3/2/relu <- conv3_3/2
I0223 12:02:52.514595 29804 net.cpp:395] conv3_3/2/relu -> conv3_3/2 (in-place)
I0223 12:02:52.514906 29804 net.cpp:150] Setting up conv3_3/2/relu
I0223 12:02:52.514919 29804 net.cpp:157] Top shape: 1 96 108 180 (1866240)
I0223 12:02:52.514924 29804 net.cpp:165] Memory required for data: 1414610004
I0223 12:02:52.514930 29804 layer_factory.hpp:77] Creating layer conv3_3/3/conv
I0223 12:02:52.514945 29804 net.cpp:100] Creating Layer conv3_3/3/conv
I0223 12:02:52.514950 29804 net.cpp:434] conv3_3/3/conv <- conv3_3/2
I0223 12:02:52.514958 29804 net.cpp:408] conv3_3/3/conv -> conv3_3/3
I0223 12:02:52.517048 29804 net.cpp:150] Setting up conv3_3/3/conv
I0223 12:02:52.517069 29804 net.cpp:157] Top shape: 1 128 108 180 (2488320)
I0223 12:02:52.517076 29804 net.cpp:165] Memory required for data: 1424563284
I0223 12:02:52.517083 29804 layer_factory.hpp:77] Creating layer conv3_3/3/bn
I0223 12:02:52.517096 29804 net.cpp:100] Creating Layer conv3_3/3/bn
I0223 12:02:52.517102 29804 net.cpp:434] conv3_3/3/bn <- conv3_3/3
I0223 12:02:52.517113 29804 net.cpp:395] conv3_3/3/bn -> conv3_3/3 (in-place)
I0223 12:02:52.517683 29804 net.cpp:150] Setting up conv3_3/3/bn
I0223 12:02:52.517694 29804 net.cpp:157] Top shape: 1 128 108 180 (2488320)
I0223 12:02:52.517700 29804 net.cpp:165] Memory required for data: 1434516564
I0223 12:02:52.517712 29804 layer_factory.hpp:77] Creating layer conv3_3/3/bn_scale
I0223 12:02:52.517724 29804 net.cpp:100] Creating Layer conv3_3/3/bn_scale
I0223 12:02:52.517731 29804 net.cpp:434] conv3_3/3/bn_scale <- conv3_3/3
I0223 12:02:52.517740 29804 net.cpp:395] conv3_3/3/bn_scale -> conv3_3/3 (in-place)
I0223 12:02:52.517834 29804 layer_factory.hpp:77] Creating layer conv3_3/3/bn_scale
I0223 12:02:52.518196 29804 net.cpp:150] Setting up conv3_3/3/bn_scale
I0223 12:02:52.518209 29804 net.cpp:157] Top shape: 1 128 108 180 (2488320)
I0223 12:02:52.518214 29804 net.cpp:165] Memory required for data: 1444469844
I0223 12:02:52.518224 29804 layer_factory.hpp:77] Creating layer conv3_3/input
I0223 12:02:52.518234 29804 net.cpp:100] Creating Layer conv3_3/input
I0223 12:02:52.518241 29804 net.cpp:434] conv3_3/input <- conv3_2_conv3_2_0_split_1
I0223 12:02:52.518252 29804 net.cpp:408] conv3_3/input -> conv3_3/input
I0223 12:02:52.518311 29804 net.cpp:150] Setting up conv3_3/input
I0223 12:02:52.518332 29804 net.cpp:157] Top shape: 1 128 108 180 (2488320)
I0223 12:02:52.518337 29804 net.cpp:165] Memory required for data: 1454423124
I0223 12:02:52.518342 29804 layer_factory.hpp:77] Creating layer conv3_3
I0223 12:02:52.518362 29804 net.cpp:100] Creating Layer conv3_3
I0223 12:02:52.518369 29804 net.cpp:434] conv3_3 <- conv3_3/3
I0223 12:02:52.518378 29804 net.cpp:434] conv3_3 <- conv3_3/input
I0223 12:02:52.518385 29804 net.cpp:408] conv3_3 -> conv3_3
I0223 12:02:52.518443 29804 net.cpp:150] Setting up conv3_3
I0223 12:02:52.518453 29804 net.cpp:157] Top shape: 1 128 108 180 (2488320)
I0223 12:02:52.518458 29804 net.cpp:165] Memory required for data: 1464376404
I0223 12:02:52.518463 29804 layer_factory.hpp:77] Creating layer conv3_3_conv3_3_0_split
I0223 12:02:52.518476 29804 net.cpp:100] Creating Layer conv3_3_conv3_3_0_split
I0223 12:02:52.518482 29804 net.cpp:434] conv3_3_conv3_3_0_split <- conv3_3
I0223 12:02:52.518492 29804 net.cpp:408] conv3_3_conv3_3_0_split -> conv3_3_conv3_3_0_split_0
I0223 12:02:52.518503 29804 net.cpp:408] conv3_3_conv3_3_0_split -> conv3_3_conv3_3_0_split_1
I0223 12:02:52.518605 29804 net.cpp:150] Setting up conv3_3_conv3_3_0_split
I0223 12:02:52.518615 29804 net.cpp:157] Top shape: 1 128 108 180 (2488320)
I0223 12:02:52.518621 29804 net.cpp:157] Top shape: 1 128 108 180 (2488320)
I0223 12:02:52.518625 29804 net.cpp:165] Memory required for data: 1484282964
I0223 12:02:52.518631 29804 layer_factory.hpp:77] Creating layer conv3_4/1/conv
I0223 12:02:52.518645 29804 net.cpp:100] Creating Layer conv3_4/1/conv
I0223 12:02:52.518651 29804 net.cpp:434] conv3_4/1/conv <- conv3_3_conv3_3_0_split_0
I0223 12:02:52.518659 29804 net.cpp:408] conv3_4/1/conv -> conv3_4/1
I0223 12:02:52.520740 29804 net.cpp:150] Setting up conv3_4/1/conv
I0223 12:02:52.520759 29804 net.cpp:157] Top shape: 1 48 108 180 (933120)
I0223 12:02:52.520766 29804 net.cpp:165] Memory required for data: 1488015444
I0223 12:02:52.520807 29804 layer_factory.hpp:77] Creating layer conv3_4/1/bn
I0223 12:02:52.520820 29804 net.cpp:100] Creating Layer conv3_4/1/bn
I0223 12:02:52.520828 29804 net.cpp:434] conv3_4/1/bn <- conv3_4/1
I0223 12:02:52.520838 29804 net.cpp:395] conv3_4/1/bn -> conv3_4/1 (in-place)
I0223 12:02:52.521438 29804 net.cpp:150] Setting up conv3_4/1/bn
I0223 12:02:52.521450 29804 net.cpp:157] Top shape: 1 48 108 180 (933120)
I0223 12:02:52.521456 29804 net.cpp:165] Memory required for data: 1491747924
I0223 12:02:52.521467 29804 layer_factory.hpp:77] Creating layer conv3_4/1/bn_scale
I0223 12:02:52.521479 29804 net.cpp:100] Creating Layer conv3_4/1/bn_scale
I0223 12:02:52.521484 29804 net.cpp:434] conv3_4/1/bn_scale <- conv3_4/1
I0223 12:02:52.521498 29804 net.cpp:395] conv3_4/1/bn_scale -> conv3_4/1 (in-place)
I0223 12:02:52.521594 29804 layer_factory.hpp:77] Creating layer conv3_4/1/bn_scale
I0223 12:02:52.521950 29804 net.cpp:150] Setting up conv3_4/1/bn_scale
I0223 12:02:52.521960 29804 net.cpp:157] Top shape: 1 48 108 180 (933120)
I0223 12:02:52.521965 29804 net.cpp:165] Memory required for data: 1495480404
I0223 12:02:52.521975 29804 layer_factory.hpp:77] Creating layer conv3_4/1/relu
I0223 12:02:52.521984 29804 net.cpp:100] Creating Layer conv3_4/1/relu
I0223 12:02:52.521989 29804 net.cpp:434] conv3_4/1/relu <- conv3_4/1
I0223 12:02:52.521996 29804 net.cpp:395] conv3_4/1/relu -> conv3_4/1 (in-place)
I0223 12:02:52.522307 29804 net.cpp:150] Setting up conv3_4/1/relu
I0223 12:02:52.522320 29804 net.cpp:157] Top shape: 1 48 108 180 (933120)
I0223 12:02:52.522325 29804 net.cpp:165] Memory required for data: 1499212884
I0223 12:02:52.522330 29804 layer_factory.hpp:77] Creating layer conv3_4/2/conv
I0223 12:02:52.522344 29804 net.cpp:100] Creating Layer conv3_4/2/conv
I0223 12:02:52.522351 29804 net.cpp:434] conv3_4/2/conv <- conv3_4/1
I0223 12:02:52.522362 29804 net.cpp:408] conv3_4/2/conv -> conv3_4/2/conv
I0223 12:02:52.524425 29804 net.cpp:150] Setting up conv3_4/2/conv
I0223 12:02:52.524446 29804 net.cpp:157] Top shape: 1 48 108 180 (933120)
I0223 12:02:52.524452 29804 net.cpp:165] Memory required for data: 1502945364
I0223 12:02:52.524461 29804 layer_factory.hpp:77] Creating layer conv3_4/2/bn
I0223 12:02:52.524479 29804 net.cpp:100] Creating Layer conv3_4/2/bn
I0223 12:02:52.524487 29804 net.cpp:434] conv3_4/2/bn <- conv3_4/2/conv
I0223 12:02:52.524503 29804 net.cpp:395] conv3_4/2/bn -> conv3_4/2/conv (in-place)
I0223 12:02:52.525066 29804 net.cpp:150] Setting up conv3_4/2/bn
I0223 12:02:52.525079 29804 net.cpp:157] Top shape: 1 48 108 180 (933120)
I0223 12:02:52.525084 29804 net.cpp:165] Memory required for data: 1506677844
I0223 12:02:52.525095 29804 layer_factory.hpp:77] Creating layer conv3_4/2/conv_conv3_4/2/bn_0_split
I0223 12:02:52.525107 29804 net.cpp:100] Creating Layer conv3_4/2/conv_conv3_4/2/bn_0_split
I0223 12:02:52.525113 29804 net.cpp:434] conv3_4/2/conv_conv3_4/2/bn_0_split <- conv3_4/2/conv
I0223 12:02:52.525123 29804 net.cpp:408] conv3_4/2/conv_conv3_4/2/bn_0_split -> conv3_4/2/conv_conv3_4/2/bn_0_split_0
I0223 12:02:52.525135 29804 net.cpp:408] conv3_4/2/conv_conv3_4/2/bn_0_split -> conv3_4/2/conv_conv3_4/2/bn_0_split_1
I0223 12:02:52.525223 29804 net.cpp:150] Setting up conv3_4/2/conv_conv3_4/2/bn_0_split
I0223 12:02:52.525233 29804 net.cpp:157] Top shape: 1 48 108 180 (933120)
I0223 12:02:52.525239 29804 net.cpp:157] Top shape: 1 48 108 180 (933120)
I0223 12:02:52.525243 29804 net.cpp:165] Memory required for data: 1514142804
I0223 12:02:52.525249 29804 layer_factory.hpp:77] Creating layer conv3_4/2/neg
I0223 12:02:52.525260 29804 net.cpp:100] Creating Layer conv3_4/2/neg
I0223 12:02:52.525266 29804 net.cpp:434] conv3_4/2/neg <- conv3_4/2/conv_conv3_4/2/bn_0_split_0
I0223 12:02:52.525277 29804 net.cpp:408] conv3_4/2/neg -> conv3_4/2/neg
I0223 12:02:52.525329 29804 net.cpp:150] Setting up conv3_4/2/neg
I0223 12:02:52.525338 29804 net.cpp:157] Top shape: 1 48 108 180 (933120)
I0223 12:02:52.525343 29804 net.cpp:165] Memory required for data: 1517875284
I0223 12:02:52.525348 29804 layer_factory.hpp:77] Creating layer conv3_4/2/concat
I0223 12:02:52.525357 29804 net.cpp:100] Creating Layer conv3_4/2/concat
I0223 12:02:52.525363 29804 net.cpp:434] conv3_4/2/concat <- conv3_4/2/conv_conv3_4/2/bn_0_split_1
I0223 12:02:52.525370 29804 net.cpp:434] conv3_4/2/concat <- conv3_4/2/neg
I0223 12:02:52.525379 29804 net.cpp:408] conv3_4/2/concat -> conv3_4/2
I0223 12:02:52.525430 29804 net.cpp:150] Setting up conv3_4/2/concat
I0223 12:02:52.525439 29804 net.cpp:157] Top shape: 1 96 108 180 (1866240)
I0223 12:02:52.525444 29804 net.cpp:165] Memory required for data: 1525340244
I0223 12:02:52.525449 29804 layer_factory.hpp:77] Creating layer conv3_4/2/scale
I0223 12:02:52.525490 29804 net.cpp:100] Creating Layer conv3_4/2/scale
I0223 12:02:52.525496 29804 net.cpp:434] conv3_4/2/scale <- conv3_4/2
I0223 12:02:52.525504 29804 net.cpp:395] conv3_4/2/scale -> conv3_4/2 (in-place)
I0223 12:02:52.525600 29804 layer_factory.hpp:77] Creating layer conv3_4/2/scale
I0223 12:02:52.526993 29804 net.cpp:150] Setting up conv3_4/2/scale
I0223 12:02:52.527014 29804 net.cpp:157] Top shape: 1 96 108 180 (1866240)
I0223 12:02:52.527019 29804 net.cpp:165] Memory required for data: 1532805204
I0223 12:02:52.527029 29804 layer_factory.hpp:77] Creating layer conv3_4/2/relu
I0223 12:02:52.527045 29804 net.cpp:100] Creating Layer conv3_4/2/relu
I0223 12:02:52.527050 29804 net.cpp:434] conv3_4/2/relu <- conv3_4/2
I0223 12:02:52.527060 29804 net.cpp:395] conv3_4/2/relu -> conv3_4/2 (in-place)
I0223 12:02:52.527582 29804 net.cpp:150] Setting up conv3_4/2/relu
I0223 12:02:52.527601 29804 net.cpp:157] Top shape: 1 96 108 180 (1866240)
I0223 12:02:52.527606 29804 net.cpp:165] Memory required for data: 1540270164
I0223 12:02:52.527611 29804 layer_factory.hpp:77] Creating layer conv3_4/3/conv
I0223 12:02:52.527626 29804 net.cpp:100] Creating Layer conv3_4/3/conv
I0223 12:02:52.527632 29804 net.cpp:434] conv3_4/3/conv <- conv3_4/2
I0223 12:02:52.527644 29804 net.cpp:408] conv3_4/3/conv -> conv3_4/3
I0223 12:02:52.529846 29804 net.cpp:150] Setting up conv3_4/3/conv
I0223 12:02:52.529866 29804 net.cpp:157] Top shape: 1 128 108 180 (2488320)
I0223 12:02:52.529871 29804 net.cpp:165] Memory required for data: 1550223444
I0223 12:02:52.529880 29804 layer_factory.hpp:77] Creating layer conv3_4/3/bn
I0223 12:02:52.529893 29804 net.cpp:100] Creating Layer conv3_4/3/bn
I0223 12:02:52.529906 29804 net.cpp:434] conv3_4/3/bn <- conv3_4/3
I0223 12:02:52.529917 29804 net.cpp:395] conv3_4/3/bn -> conv3_4/3 (in-place)
I0223 12:02:52.530500 29804 net.cpp:150] Setting up conv3_4/3/bn
I0223 12:02:52.530524 29804 net.cpp:157] Top shape: 1 128 108 180 (2488320)
I0223 12:02:52.530529 29804 net.cpp:165] Memory required for data: 1560176724
I0223 12:02:52.530540 29804 layer_factory.hpp:77] Creating layer conv3_4/3/bn_scale
I0223 12:02:52.530551 29804 net.cpp:100] Creating Layer conv3_4/3/bn_scale
I0223 12:02:52.530556 29804 net.cpp:434] conv3_4/3/bn_scale <- conv3_4/3
I0223 12:02:52.530567 29804 net.cpp:395] conv3_4/3/bn_scale -> conv3_4/3 (in-place)
I0223 12:02:52.530664 29804 layer_factory.hpp:77] Creating layer conv3_4/3/bn_scale
I0223 12:02:52.530972 29804 net.cpp:150] Setting up conv3_4/3/bn_scale
I0223 12:02:52.530983 29804 net.cpp:157] Top shape: 1 128 108 180 (2488320)
I0223 12:02:52.530988 29804 net.cpp:165] Memory required for data: 1570130004
I0223 12:02:52.530997 29804 layer_factory.hpp:77] Creating layer conv3_4/input
I0223 12:02:52.531008 29804 net.cpp:100] Creating Layer conv3_4/input
I0223 12:02:52.531013 29804 net.cpp:434] conv3_4/input <- conv3_3_conv3_3_0_split_1
I0223 12:02:52.531021 29804 net.cpp:408] conv3_4/input -> conv3_4/input
I0223 12:02:52.531078 29804 net.cpp:150] Setting up conv3_4/input
I0223 12:02:52.531087 29804 net.cpp:157] Top shape: 1 128 108 180 (2488320)
I0223 12:02:52.531092 29804 net.cpp:165] Memory required for data: 1580083284
I0223 12:02:52.531097 29804 layer_factory.hpp:77] Creating layer conv3_4
I0223 12:02:52.531108 29804 net.cpp:100] Creating Layer conv3_4
I0223 12:02:52.531113 29804 net.cpp:434] conv3_4 <- conv3_4/3
I0223 12:02:52.531119 29804 net.cpp:434] conv3_4 <- conv3_4/input
I0223 12:02:52.531126 29804 net.cpp:408] conv3_4 -> conv3_4
I0223 12:02:52.531179 29804 net.cpp:150] Setting up conv3_4
I0223 12:02:52.531188 29804 net.cpp:157] Top shape: 1 128 108 180 (2488320)
I0223 12:02:52.531193 29804 net.cpp:165] Memory required for data: 1590036564
I0223 12:02:52.531198 29804 layer_factory.hpp:77] Creating layer conv3_4_conv3_4_0_split
I0223 12:02:52.531220 29804 net.cpp:100] Creating Layer conv3_4_conv3_4_0_split
I0223 12:02:52.531225 29804 net.cpp:434] conv3_4_conv3_4_0_split <- conv3_4
I0223 12:02:52.531236 29804 net.cpp:408] conv3_4_conv3_4_0_split -> conv3_4_conv3_4_0_split_0
I0223 12:02:52.531246 29804 net.cpp:408] conv3_4_conv3_4_0_split -> conv3_4_conv3_4_0_split_1
I0223 12:02:52.531255 29804 net.cpp:408] conv3_4_conv3_4_0_split -> conv3_4_conv3_4_0_split_2
I0223 12:02:52.531265 29804 net.cpp:408] conv3_4_conv3_4_0_split -> conv3_4_conv3_4_0_split_3
I0223 12:02:52.531275 29804 net.cpp:408] conv3_4_conv3_4_0_split -> conv3_4_conv3_4_0_split_4
I0223 12:02:52.531286 29804 net.cpp:408] conv3_4_conv3_4_0_split -> conv3_4_conv3_4_0_split_5
I0223 12:02:52.531484 29804 net.cpp:150] Setting up conv3_4_conv3_4_0_split
I0223 12:02:52.531496 29804 net.cpp:157] Top shape: 1 128 108 180 (2488320)
I0223 12:02:52.531502 29804 net.cpp:157] Top shape: 1 128 108 180 (2488320)
I0223 12:02:52.531508 29804 net.cpp:157] Top shape: 1 128 108 180 (2488320)
I0223 12:02:52.531513 29804 net.cpp:157] Top shape: 1 128 108 180 (2488320)
I0223 12:02:52.531519 29804 net.cpp:157] Top shape: 1 128 108 180 (2488320)
I0223 12:02:52.531525 29804 net.cpp:157] Top shape: 1 128 108 180 (2488320)
I0223 12:02:52.531529 29804 net.cpp:165] Memory required for data: 1649756244
I0223 12:02:52.531534 29804 layer_factory.hpp:77] Creating layer conv4_1/incep/0/conv
I0223 12:02:52.531543 29804 net.cpp:100] Creating Layer conv4_1/incep/0/conv
I0223 12:02:52.531549 29804 net.cpp:434] conv4_1/incep/0/conv <- conv3_4_conv3_4_0_split_0
I0223 12:02:52.531558 29804 net.cpp:408] conv4_1/incep/0/conv -> conv4_1/incep/0
I0223 12:02:52.533427 29804 net.cpp:150] Setting up conv4_1/incep/0/conv
I0223 12:02:52.533447 29804 net.cpp:157] Top shape: 1 64 54 90 (311040)
I0223 12:02:52.533452 29804 net.cpp:165] Memory required for data: 1651000404
I0223 12:02:52.533460 29804 layer_factory.hpp:77] Creating layer conv4_1/incep/0/bn
I0223 12:02:52.533481 29804 net.cpp:100] Creating Layer conv4_1/incep/0/bn
I0223 12:02:52.533488 29804 net.cpp:434] conv4_1/incep/0/bn <- conv4_1/incep/0
I0223 12:02:52.533499 29804 net.cpp:395] conv4_1/incep/0/bn -> conv4_1/incep/0 (in-place)
I0223 12:02:52.534036 29804 net.cpp:150] Setting up conv4_1/incep/0/bn
I0223 12:02:52.534047 29804 net.cpp:157] Top shape: 1 64 54 90 (311040)
I0223 12:02:52.534051 29804 net.cpp:165] Memory required for data: 1652244564
I0223 12:02:52.534063 29804 layer_factory.hpp:77] Creating layer conv4_1/incep/0/bn_scale
I0223 12:02:52.534075 29804 net.cpp:100] Creating Layer conv4_1/incep/0/bn_scale
I0223 12:02:52.534081 29804 net.cpp:434] conv4_1/incep/0/bn_scale <- conv4_1/incep/0
I0223 12:02:52.534090 29804 net.cpp:395] conv4_1/incep/0/bn_scale -> conv4_1/incep/0 (in-place)
I0223 12:02:52.534206 29804 layer_factory.hpp:77] Creating layer conv4_1/incep/0/bn_scale
I0223 12:02:52.534518 29804 net.cpp:150] Setting up conv4_1/incep/0/bn_scale
I0223 12:02:52.534528 29804 net.cpp:157] Top shape: 1 64 54 90 (311040)
I0223 12:02:52.534533 29804 net.cpp:165] Memory required for data: 1653488724
I0223 12:02:52.534541 29804 layer_factory.hpp:77] Creating layer conv4_1/incep/0/relu
I0223 12:02:52.534550 29804 net.cpp:100] Creating Layer conv4_1/incep/0/relu
I0223 12:02:52.534556 29804 net.cpp:434] conv4_1/incep/0/relu <- conv4_1/incep/0
I0223 12:02:52.534569 29804 net.cpp:395] conv4_1/incep/0/relu -> conv4_1/incep/0 (in-place)
I0223 12:02:52.535069 29804 net.cpp:150] Setting up conv4_1/incep/0/relu
I0223 12:02:52.535086 29804 net.cpp:157] Top shape: 1 64 54 90 (311040)
I0223 12:02:52.535090 29804 net.cpp:165] Memory required for data: 1654732884
I0223 12:02:52.535095 29804 layer_factory.hpp:77] Creating layer conv4_1/incep/1_reduce/conv
I0223 12:02:52.535110 29804 net.cpp:100] Creating Layer conv4_1/incep/1_reduce/conv
I0223 12:02:52.535116 29804 net.cpp:434] conv4_1/incep/1_reduce/conv <- conv3_4_conv3_4_0_split_1
I0223 12:02:52.535127 29804 net.cpp:408] conv4_1/incep/1_reduce/conv -> conv4_1/incep/1_reduce
I0223 12:02:52.536964 29804 net.cpp:150] Setting up conv4_1/incep/1_reduce/conv
I0223 12:02:52.536983 29804 net.cpp:157] Top shape: 1 48 54 90 (233280)
I0223 12:02:52.536988 29804 net.cpp:165] Memory required for data: 1655666004
I0223 12:02:52.536996 29804 layer_factory.hpp:77] Creating layer conv4_1/incep/1_reduce/bn
I0223 12:02:52.537009 29804 net.cpp:100] Creating Layer conv4_1/incep/1_reduce/bn
I0223 12:02:52.537015 29804 net.cpp:434] conv4_1/incep/1_reduce/bn <- conv4_1/incep/1_reduce
I0223 12:02:52.537024 29804 net.cpp:395] conv4_1/incep/1_reduce/bn -> conv4_1/incep/1_reduce (in-place)
I0223 12:02:52.537549 29804 net.cpp:150] Setting up conv4_1/incep/1_reduce/bn
I0223 12:02:52.537559 29804 net.cpp:157] Top shape: 1 48 54 90 (233280)
I0223 12:02:52.537564 29804 net.cpp:165] Memory required for data: 1656599124
I0223 12:02:52.537575 29804 layer_factory.hpp:77] Creating layer conv4_1/incep/1_reduce/bn_scale
I0223 12:02:52.537586 29804 net.cpp:100] Creating Layer conv4_1/incep/1_reduce/bn_scale
I0223 12:02:52.537591 29804 net.cpp:434] conv4_1/incep/1_reduce/bn_scale <- conv4_1/incep/1_reduce
I0223 12:02:52.537600 29804 net.cpp:395] conv4_1/incep/1_reduce/bn_scale -> conv4_1/incep/1_reduce (in-place)
I0223 12:02:52.537690 29804 layer_factory.hpp:77] Creating layer conv4_1/incep/1_reduce/bn_scale
I0223 12:02:52.538008 29804 net.cpp:150] Setting up conv4_1/incep/1_reduce/bn_scale
I0223 12:02:52.538018 29804 net.cpp:157] Top shape: 1 48 54 90 (233280)
I0223 12:02:52.538023 29804 net.cpp:165] Memory required for data: 1657532244
I0223 12:02:52.538031 29804 layer_factory.hpp:77] Creating layer conv4_1/incep/1_reduce/relu
I0223 12:02:52.538040 29804 net.cpp:100] Creating Layer conv4_1/incep/1_reduce/relu
I0223 12:02:52.538046 29804 net.cpp:434] conv4_1/incep/1_reduce/relu <- conv4_1/incep/1_reduce
I0223 12:02:52.538055 29804 net.cpp:395] conv4_1/incep/1_reduce/relu -> conv4_1/incep/1_reduce (in-place)
I0223 12:02:52.538348 29804 net.cpp:150] Setting up conv4_1/incep/1_reduce/relu
I0223 12:02:52.538367 29804 net.cpp:157] Top shape: 1 48 54 90 (233280)
I0223 12:02:52.538372 29804 net.cpp:165] Memory required for data: 1658465364
I0223 12:02:52.538377 29804 layer_factory.hpp:77] Creating layer conv4_1/incep/1_0/conv
I0223 12:02:52.538391 29804 net.cpp:100] Creating Layer conv4_1/incep/1_0/conv
I0223 12:02:52.538398 29804 net.cpp:434] conv4_1/incep/1_0/conv <- conv4_1/incep/1_reduce
I0223 12:02:52.538408 29804 net.cpp:408] conv4_1/incep/1_0/conv -> conv4_1/incep/1_0
I0223 12:02:52.541057 29804 net.cpp:150] Setting up conv4_1/incep/1_0/conv
I0223 12:02:52.541077 29804 net.cpp:157] Top shape: 1 128 54 90 (622080)
I0223 12:02:52.541084 29804 net.cpp:165] Memory required for data: 1660953684
I0223 12:02:52.541090 29804 layer_factory.hpp:77] Creating layer conv4_1/incep/1_0/bn
I0223 12:02:52.541102 29804 net.cpp:100] Creating Layer conv4_1/incep/1_0/bn
I0223 12:02:52.541108 29804 net.cpp:434] conv4_1/incep/1_0/bn <- conv4_1/incep/1_0
I0223 12:02:52.541118 29804 net.cpp:395] conv4_1/incep/1_0/bn -> conv4_1/incep/1_0 (in-place)
I0223 12:02:52.541630 29804 net.cpp:150] Setting up conv4_1/incep/1_0/bn
I0223 12:02:52.541640 29804 net.cpp:157] Top shape: 1 128 54 90 (622080)
I0223 12:02:52.541646 29804 net.cpp:165] Memory required for data: 1663442004
I0223 12:02:52.541656 29804 layer_factory.hpp:77] Creating layer conv4_1/incep/1_0/bn_scale
I0223 12:02:52.541668 29804 net.cpp:100] Creating Layer conv4_1/incep/1_0/bn_scale
I0223 12:02:52.541674 29804 net.cpp:434] conv4_1/incep/1_0/bn_scale <- conv4_1/incep/1_0
I0223 12:02:52.541685 29804 net.cpp:395] conv4_1/incep/1_0/bn_scale -> conv4_1/incep/1_0 (in-place)
I0223 12:02:52.541774 29804 layer_factory.hpp:77] Creating layer conv4_1/incep/1_0/bn_scale
I0223 12:02:52.542079 29804 net.cpp:150] Setting up conv4_1/incep/1_0/bn_scale
I0223 12:02:52.542090 29804 net.cpp:157] Top shape: 1 128 54 90 (622080)
I0223 12:02:52.542095 29804 net.cpp:165] Memory required for data: 1665930324
I0223 12:02:52.542104 29804 layer_factory.hpp:77] Creating layer conv4_1/incep/1_0/relu
I0223 12:02:52.542112 29804 net.cpp:100] Creating Layer conv4_1/incep/1_0/relu
I0223 12:02:52.542119 29804 net.cpp:434] conv4_1/incep/1_0/relu <- conv4_1/incep/1_0
I0223 12:02:52.542127 29804 net.cpp:395] conv4_1/incep/1_0/relu -> conv4_1/incep/1_0 (in-place)
I0223 12:02:52.542649 29804 net.cpp:150] Setting up conv4_1/incep/1_0/relu
I0223 12:02:52.542666 29804 net.cpp:157] Top shape: 1 128 54 90 (622080)
I0223 12:02:52.542671 29804 net.cpp:165] Memory required for data: 1668418644
I0223 12:02:52.542685 29804 layer_factory.hpp:77] Creating layer conv4_1/incep/2_reduce/conv
I0223 12:02:52.542699 29804 net.cpp:100] Creating Layer conv4_1/incep/2_reduce/conv
I0223 12:02:52.542706 29804 net.cpp:434] conv4_1/incep/2_reduce/conv <- conv3_4_conv3_4_0_split_2
I0223 12:02:52.542716 29804 net.cpp:408] conv4_1/incep/2_reduce/conv -> conv4_1/incep/2_reduce
I0223 12:02:52.544580 29804 net.cpp:150] Setting up conv4_1/incep/2_reduce/conv
I0223 12:02:52.544622 29804 net.cpp:157] Top shape: 1 24 54 90 (116640)
I0223 12:02:52.544631 29804 net.cpp:165] Memory required for data: 1668885204
I0223 12:02:52.544648 29804 layer_factory.hpp:77] Creating layer conv4_1/incep/2_reduce/bn
I0223 12:02:52.544670 29804 net.cpp:100] Creating Layer conv4_1/incep/2_reduce/bn
I0223 12:02:52.544683 29804 net.cpp:434] conv4_1/incep/2_reduce/bn <- conv4_1/incep/2_reduce
I0223 12:02:52.544701 29804 net.cpp:395] conv4_1/incep/2_reduce/bn -> conv4_1/incep/2_reduce (in-place)
I0223 12:02:52.545680 29804 net.cpp:150] Setting up conv4_1/incep/2_reduce/bn
I0223 12:02:52.545701 29804 net.cpp:157] Top shape: 1 24 54 90 (116640)
I0223 12:02:52.545708 29804 net.cpp:165] Memory required for data: 1669351764
I0223 12:02:52.545727 29804 layer_factory.hpp:77] Creating layer conv4_1/incep/2_reduce/bn_scale
I0223 12:02:52.545743 29804 net.cpp:100] Creating Layer conv4_1/incep/2_reduce/bn_scale
I0223 12:02:52.545755 29804 net.cpp:434] conv4_1/incep/2_reduce/bn_scale <- conv4_1/incep/2_reduce
I0223 12:02:52.545771 29804 net.cpp:395] conv4_1/incep/2_reduce/bn_scale -> conv4_1/incep/2_reduce (in-place)
I0223 12:02:52.545933 29804 layer_factory.hpp:77] Creating layer conv4_1/incep/2_reduce/bn_scale
I0223 12:02:52.546470 29804 net.cpp:150] Setting up conv4_1/incep/2_reduce/bn_scale
I0223 12:02:52.546491 29804 net.cpp:157] Top shape: 1 24 54 90 (116640)
I0223 12:02:52.546499 29804 net.cpp:165] Memory required for data: 1669818324
I0223 12:02:52.546519 29804 layer_factory.hpp:77] Creating layer conv4_1/incep/2_reduce/relu
I0223 12:02:52.546535 29804 net.cpp:100] Creating Layer conv4_1/incep/2_reduce/relu
I0223 12:02:52.546545 29804 net.cpp:434] conv4_1/incep/2_reduce/relu <- conv4_1/incep/2_reduce
I0223 12:02:52.546556 29804 net.cpp:395] conv4_1/incep/2_reduce/relu -> conv4_1/incep/2_reduce (in-place)
I0223 12:02:52.547363 29804 net.cpp:150] Setting up conv4_1/incep/2_reduce/relu
I0223 12:02:52.547391 29804 net.cpp:157] Top shape: 1 24 54 90 (116640)
I0223 12:02:52.547399 29804 net.cpp:165] Memory required for data: 1670284884
I0223 12:02:52.547408 29804 layer_factory.hpp:77] Creating layer conv4_1/incep/2_0/conv
I0223 12:02:52.547431 29804 net.cpp:100] Creating Layer conv4_1/incep/2_0/conv
I0223 12:02:52.547443 29804 net.cpp:434] conv4_1/incep/2_0/conv <- conv4_1/incep/2_reduce
I0223 12:02:52.547462 29804 net.cpp:408] conv4_1/incep/2_0/conv -> conv4_1/incep/2_0
I0223 12:02:52.550324 29804 net.cpp:150] Setting up conv4_1/incep/2_0/conv
I0223 12:02:52.550356 29804 net.cpp:157] Top shape: 1 48 54 90 (233280)
I0223 12:02:52.550366 29804 net.cpp:165] Memory required for data: 1671218004
I0223 12:02:52.550379 29804 layer_factory.hpp:77] Creating layer conv4_1/incep/2_0/bn
I0223 12:02:52.550398 29804 net.cpp:100] Creating Layer conv4_1/incep/2_0/bn
I0223 12:02:52.550410 29804 net.cpp:434] conv4_1/incep/2_0/bn <- conv4_1/incep/2_0
I0223 12:02:52.550427 29804 net.cpp:395] conv4_1/incep/2_0/bn -> conv4_1/incep/2_0 (in-place)
I0223 12:02:52.551259 29804 net.cpp:150] Setting up conv4_1/incep/2_0/bn
I0223 12:02:52.551282 29804 net.cpp:157] Top shape: 1 48 54 90 (233280)
I0223 12:02:52.551290 29804 net.cpp:165] Memory required for data: 1672151124
I0223 12:02:52.551308 29804 layer_factory.hpp:77] Creating layer conv4_1/incep/2_0/bn_scale
I0223 12:02:52.551324 29804 net.cpp:100] Creating Layer conv4_1/incep/2_0/bn_scale
I0223 12:02:52.551334 29804 net.cpp:434] conv4_1/incep/2_0/bn_scale <- conv4_1/incep/2_0
I0223 12:02:52.551350 29804 net.cpp:395] conv4_1/incep/2_0/bn_scale -> conv4_1/incep/2_0 (in-place)
I0223 12:02:52.551499 29804 layer_factory.hpp:77] Creating layer conv4_1/incep/2_0/bn_scale
I0223 12:02:52.551988 29804 net.cpp:150] Setting up conv4_1/incep/2_0/bn_scale
I0223 12:02:52.552007 29804 net.cpp:157] Top shape: 1 48 54 90 (233280)
I0223 12:02:52.552016 29804 net.cpp:165] Memory required for data: 1673084244
I0223 12:02:52.552031 29804 layer_factory.hpp:77] Creating layer conv4_1/incep/2_0/relu
I0223 12:02:52.552048 29804 net.cpp:100] Creating Layer conv4_1/incep/2_0/relu
I0223 12:02:52.552058 29804 net.cpp:434] conv4_1/incep/2_0/relu <- conv4_1/incep/2_0
I0223 12:02:52.552070 29804 net.cpp:395] conv4_1/incep/2_0/relu -> conv4_1/incep/2_0 (in-place)
I0223 12:02:52.552495 29804 net.cpp:150] Setting up conv4_1/incep/2_0/relu
I0223 12:02:52.552515 29804 net.cpp:157] Top shape: 1 48 54 90 (233280)
I0223 12:02:52.552523 29804 net.cpp:165] Memory required for data: 1674017364
I0223 12:02:52.552531 29804 layer_factory.hpp:77] Creating layer conv4_1/incep/2_1/conv
I0223 12:02:52.552556 29804 net.cpp:100] Creating Layer conv4_1/incep/2_1/conv
I0223 12:02:52.552567 29804 net.cpp:434] conv4_1/incep/2_1/conv <- conv4_1/incep/2_0
I0223 12:02:52.552582 29804 net.cpp:408] conv4_1/incep/2_1/conv -> conv4_1/incep/2_1
I0223 12:02:52.555593 29804 net.cpp:150] Setting up conv4_1/incep/2_1/conv
I0223 12:02:52.555624 29804 net.cpp:157] Top shape: 1 48 54 90 (233280)
I0223 12:02:52.555634 29804 net.cpp:165] Memory required for data: 1674950484
I0223 12:02:52.555646 29804 layer_factory.hpp:77] Creating layer conv4_1/incep/2_1/bn
I0223 12:02:52.555665 29804 net.cpp:100] Creating Layer conv4_1/incep/2_1/bn
I0223 12:02:52.555677 29804 net.cpp:434] conv4_1/incep/2_1/bn <- conv4_1/incep/2_1
I0223 12:02:52.555701 29804 net.cpp:395] conv4_1/incep/2_1/bn -> conv4_1/incep/2_1 (in-place)
I0223 12:02:52.556548 29804 net.cpp:150] Setting up conv4_1/incep/2_1/bn
I0223 12:02:52.556568 29804 net.cpp:157] Top shape: 1 48 54 90 (233280)
I0223 12:02:52.556577 29804 net.cpp:165] Memory required for data: 1675883604
I0223 12:02:52.556596 29804 layer_factory.hpp:77] Creating layer conv4_1/incep/2_1/bn_scale
I0223 12:02:52.556613 29804 net.cpp:100] Creating Layer conv4_1/incep/2_1/bn_scale
I0223 12:02:52.556624 29804 net.cpp:434] conv4_1/incep/2_1/bn_scale <- conv4_1/incep/2_1
I0223 12:02:52.556640 29804 net.cpp:395] conv4_1/incep/2_1/bn_scale -> conv4_1/incep/2_1 (in-place)
I0223 12:02:52.556790 29804 layer_factory.hpp:77] Creating layer conv4_1/incep/2_1/bn_scale
I0223 12:02:52.557281 29804 net.cpp:150] Setting up conv4_1/incep/2_1/bn_scale
I0223 12:02:52.557301 29804 net.cpp:157] Top shape: 1 48 54 90 (233280)
I0223 12:02:52.557309 29804 net.cpp:165] Memory required for data: 1676816724
I0223 12:02:52.557323 29804 layer_factory.hpp:77] Creating layer conv4_1/incep/2_1/relu
I0223 12:02:52.557343 29804 net.cpp:100] Creating Layer conv4_1/incep/2_1/relu
I0223 12:02:52.557351 29804 net.cpp:434] conv4_1/incep/2_1/relu <- conv4_1/incep/2_1
I0223 12:02:52.557364 29804 net.cpp:395] conv4_1/incep/2_1/relu -> conv4_1/incep/2_1 (in-place)
I0223 12:02:52.558074 29804 net.cpp:150] Setting up conv4_1/incep/2_1/relu
I0223 12:02:52.558104 29804 net.cpp:157] Top shape: 1 48 54 90 (233280)
I0223 12:02:52.558111 29804 net.cpp:165] Memory required for data: 1677749844
I0223 12:02:52.558120 29804 layer_factory.hpp:77] Creating layer conv4_1/incep/pool
I0223 12:02:52.558140 29804 net.cpp:100] Creating Layer conv4_1/incep/pool
I0223 12:02:52.558151 29804 net.cpp:434] conv4_1/incep/pool <- conv3_4_conv3_4_0_split_3
I0223 12:02:52.558166 29804 net.cpp:408] conv4_1/incep/pool -> conv4_1/incep/pool
I0223 12:02:52.558360 29804 net.cpp:150] Setting up conv4_1/incep/pool
I0223 12:02:52.558379 29804 net.cpp:157] Top shape: 1 128 54 90 (622080)
I0223 12:02:52.558387 29804 net.cpp:165] Memory required for data: 1680238164
I0223 12:02:52.558399 29804 layer_factory.hpp:77] Creating layer conv4_1/incep/poolproj/conv
I0223 12:02:52.558423 29804 net.cpp:100] Creating Layer conv4_1/incep/poolproj/conv
I0223 12:02:52.558435 29804 net.cpp:434] conv4_1/incep/poolproj/conv <- conv4_1/incep/pool
I0223 12:02:52.558450 29804 net.cpp:408] conv4_1/incep/poolproj/conv -> conv4_1/incep/poolproj
I0223 12:02:52.560950 29804 net.cpp:150] Setting up conv4_1/incep/poolproj/conv
I0223 12:02:52.560979 29804 net.cpp:157] Top shape: 1 128 54 90 (622080)
I0223 12:02:52.560987 29804 net.cpp:165] Memory required for data: 1682726484
I0223 12:02:52.560999 29804 layer_factory.hpp:77] Creating layer conv4_1/incep/poolproj/bn
I0223 12:02:52.561018 29804 net.cpp:100] Creating Layer conv4_1/incep/poolproj/bn
I0223 12:02:52.561029 29804 net.cpp:434] conv4_1/incep/poolproj/bn <- conv4_1/incep/poolproj
I0223 12:02:52.561050 29804 net.cpp:395] conv4_1/incep/poolproj/bn -> conv4_1/incep/poolproj (in-place)
I0223 12:02:52.561781 29804 net.cpp:150] Setting up conv4_1/incep/poolproj/bn
I0223 12:02:52.561800 29804 net.cpp:157] Top shape: 1 128 54 90 (622080)
I0223 12:02:52.561808 29804 net.cpp:165] Memory required for data: 1685214804
I0223 12:02:52.561825 29804 layer_factory.hpp:77] Creating layer conv4_1/incep/poolproj/bn_scale
I0223 12:02:52.561841 29804 net.cpp:100] Creating Layer conv4_1/incep/poolproj/bn_scale
I0223 12:02:52.561851 29804 net.cpp:434] conv4_1/incep/poolproj/bn_scale <- conv4_1/incep/poolproj
I0223 12:02:52.561863 29804 net.cpp:395] conv4_1/incep/poolproj/bn_scale -> conv4_1/incep/poolproj (in-place)
I0223 12:02:52.561998 29804 layer_factory.hpp:77] Creating layer conv4_1/incep/poolproj/bn_scale
I0223 12:02:52.562448 29804 net.cpp:150] Setting up conv4_1/incep/poolproj/bn_scale
I0223 12:02:52.562466 29804 net.cpp:157] Top shape: 1 128 54 90 (622080)
I0223 12:02:52.562474 29804 net.cpp:165] Memory required for data: 1687703124
I0223 12:02:52.562495 29804 layer_factory.hpp:77] Creating layer conv4_1/incep/poolproj/relu
I0223 12:02:52.562511 29804 net.cpp:100] Creating Layer conv4_1/incep/poolproj/relu
I0223 12:02:52.562520 29804 net.cpp:434] conv4_1/incep/poolproj/relu <- conv4_1/incep/poolproj
I0223 12:02:52.562536 29804 net.cpp:395] conv4_1/incep/poolproj/relu -> conv4_1/incep/poolproj (in-place)
I0223 12:02:52.563274 29804 net.cpp:150] Setting up conv4_1/incep/poolproj/relu
I0223 12:02:52.563300 29804 net.cpp:157] Top shape: 1 128 54 90 (622080)
I0223 12:02:52.563308 29804 net.cpp:165] Memory required for data: 1690191444
I0223 12:02:52.563318 29804 layer_factory.hpp:77] Creating layer conv4_1/incep
I0223 12:02:52.563331 29804 net.cpp:100] Creating Layer conv4_1/incep
I0223 12:02:52.563340 29804 net.cpp:434] conv4_1/incep <- conv4_1/incep/0
I0223 12:02:52.563352 29804 net.cpp:434] conv4_1/incep <- conv4_1/incep/1_0
I0223 12:02:52.563364 29804 net.cpp:434] conv4_1/incep <- conv4_1/incep/2_1
I0223 12:02:52.563374 29804 net.cpp:434] conv4_1/incep <- conv4_1/incep/poolproj
I0223 12:02:52.563385 29804 net.cpp:408] conv4_1/incep -> conv4_1/incep
I0223 12:02:52.563479 29804 net.cpp:150] Setting up conv4_1/incep
I0223 12:02:52.563498 29804 net.cpp:157] Top shape: 1 368 54 90 (1788480)
I0223 12:02:52.563504 29804 net.cpp:165] Memory required for data: 1697345364
I0223 12:02:52.563513 29804 layer_factory.hpp:77] Creating layer conv4_1/out/conv
I0223 12:02:52.563529 29804 net.cpp:100] Creating Layer conv4_1/out/conv
I0223 12:02:52.563539 29804 net.cpp:434] conv4_1/out/conv <- conv4_1/incep
I0223 12:02:52.563552 29804 net.cpp:408] conv4_1/out/conv -> conv4_1/out
I0223 12:02:52.567564 29804 net.cpp:150] Setting up conv4_1/out/conv
I0223 12:02:52.567594 29804 net.cpp:157] Top shape: 1 256 54 90 (1244160)
I0223 12:02:52.567602 29804 net.cpp:165] Memory required for data: 1702322004
I0223 12:02:52.567615 29804 layer_factory.hpp:77] Creating layer conv4_1/out/bn
I0223 12:02:52.567632 29804 net.cpp:100] Creating Layer conv4_1/out/bn
I0223 12:02:52.567642 29804 net.cpp:434] conv4_1/out/bn <- conv4_1/out
I0223 12:02:52.567656 29804 net.cpp:395] conv4_1/out/bn -> conv4_1/out (in-place)
I0223 12:02:52.568414 29804 net.cpp:150] Setting up conv4_1/out/bn
I0223 12:02:52.568431 29804 net.cpp:157] Top shape: 1 256 54 90 (1244160)
I0223 12:02:52.568439 29804 net.cpp:165] Memory required for data: 1707298644
I0223 12:02:52.568455 29804 layer_factory.hpp:77] Creating layer conv4_1/out/bn_scale
I0223 12:02:52.568472 29804 net.cpp:100] Creating Layer conv4_1/out/bn_scale
I0223 12:02:52.568482 29804 net.cpp:434] conv4_1/out/bn_scale <- conv4_1/out
I0223 12:02:52.568496 29804 net.cpp:395] conv4_1/out/bn_scale -> conv4_1/out (in-place)
I0223 12:02:52.568632 29804 layer_factory.hpp:77] Creating layer conv4_1/out/bn_scale
I0223 12:02:52.569063 29804 net.cpp:150] Setting up conv4_1/out/bn_scale
I0223 12:02:52.569082 29804 net.cpp:157] Top shape: 1 256 54 90 (1244160)
I0223 12:02:52.569088 29804 net.cpp:165] Memory required for data: 1712275284
I0223 12:02:52.569102 29804 layer_factory.hpp:77] Creating layer conv4_1/proj
I0223 12:02:52.569126 29804 net.cpp:100] Creating Layer conv4_1/proj
I0223 12:02:52.569135 29804 net.cpp:434] conv4_1/proj <- conv3_4_conv3_4_0_split_4
I0223 12:02:52.569149 29804 net.cpp:408] conv4_1/proj -> conv4_1/proj
I0223 12:02:52.572262 29804 net.cpp:150] Setting up conv4_1/proj
I0223 12:02:52.572291 29804 net.cpp:157] Top shape: 1 256 54 90 (1244160)
I0223 12:02:52.572300 29804 net.cpp:165] Memory required for data: 1717251924
I0223 12:02:52.572314 29804 layer_factory.hpp:77] Creating layer conv4_1/proj_bn
I0223 12:02:52.572329 29804 net.cpp:100] Creating Layer conv4_1/proj_bn
I0223 12:02:52.572337 29804 net.cpp:434] conv4_1/proj_bn <- conv4_1/proj
I0223 12:02:52.572351 29804 net.cpp:395] conv4_1/proj_bn -> conv4_1/proj (in-place)
I0223 12:02:52.573058 29804 net.cpp:150] Setting up conv4_1/proj_bn
I0223 12:02:52.573076 29804 net.cpp:157] Top shape: 1 256 54 90 (1244160)
I0223 12:02:52.573083 29804 net.cpp:165] Memory required for data: 1722228564
I0223 12:02:52.573106 29804 layer_factory.hpp:77] Creating layer conv4_1/proj_bn_scale
I0223 12:02:52.573123 29804 net.cpp:100] Creating Layer conv4_1/proj_bn_scale
I0223 12:02:52.573132 29804 net.cpp:434] conv4_1/proj_bn_scale <- conv4_1/proj
I0223 12:02:52.573143 29804 net.cpp:395] conv4_1/proj_bn_scale -> conv4_1/proj (in-place)
I0223 12:02:52.573276 29804 layer_factory.hpp:77] Creating layer conv4_1/proj_bn_scale
I0223 12:02:52.574736 29804 net.cpp:150] Setting up conv4_1/proj_bn_scale
I0223 12:02:52.574764 29804 net.cpp:157] Top shape: 1 256 54 90 (1244160)
I0223 12:02:52.574771 29804 net.cpp:165] Memory required for data: 1727205204
I0223 12:02:52.574784 29804 layer_factory.hpp:77] Creating layer conv4_1
I0223 12:02:52.574800 29804 net.cpp:100] Creating Layer conv4_1
I0223 12:02:52.574810 29804 net.cpp:434] conv4_1 <- conv4_1/out
I0223 12:02:52.574820 29804 net.cpp:434] conv4_1 <- conv4_1/proj
I0223 12:02:52.574831 29804 net.cpp:408] conv4_1 -> conv4_1
I0223 12:02:52.574918 29804 net.cpp:150] Setting up conv4_1
I0223 12:02:52.574934 29804 net.cpp:157] Top shape: 1 256 54 90 (1244160)
I0223 12:02:52.574940 29804 net.cpp:165] Memory required for data: 1732181844
I0223 12:02:52.574949 29804 layer_factory.hpp:77] Creating layer conv4_1_conv4_1_0_split
I0223 12:02:52.574960 29804 net.cpp:100] Creating Layer conv4_1_conv4_1_0_split
I0223 12:02:52.574968 29804 net.cpp:434] conv4_1_conv4_1_0_split <- conv4_1
I0223 12:02:52.574983 29804 net.cpp:408] conv4_1_conv4_1_0_split -> conv4_1_conv4_1_0_split_0
I0223 12:02:52.575000 29804 net.cpp:408] conv4_1_conv4_1_0_split -> conv4_1_conv4_1_0_split_1
I0223 12:02:52.575013 29804 net.cpp:408] conv4_1_conv4_1_0_split -> conv4_1_conv4_1_0_split_2
I0223 12:02:52.575029 29804 net.cpp:408] conv4_1_conv4_1_0_split -> conv4_1_conv4_1_0_split_3
I0223 12:02:52.575243 29804 net.cpp:150] Setting up conv4_1_conv4_1_0_split
I0223 12:02:52.575258 29804 net.cpp:157] Top shape: 1 256 54 90 (1244160)
I0223 12:02:52.575268 29804 net.cpp:157] Top shape: 1 256 54 90 (1244160)
I0223 12:02:52.575276 29804 net.cpp:157] Top shape: 1 256 54 90 (1244160)
I0223 12:02:52.575284 29804 net.cpp:157] Top shape: 1 256 54 90 (1244160)
I0223 12:02:52.575291 29804 net.cpp:165] Memory required for data: 1752088404
I0223 12:02:52.575299 29804 layer_factory.hpp:77] Creating layer conv4_2/incep/0/conv
I0223 12:02:52.575319 29804 net.cpp:100] Creating Layer conv4_2/incep/0/conv
I0223 12:02:52.575327 29804 net.cpp:434] conv4_2/incep/0/conv <- conv4_1_conv4_1_0_split_0
I0223 12:02:52.575341 29804 net.cpp:408] conv4_2/incep/0/conv -> conv4_2/incep/0
I0223 12:02:52.577651 29804 net.cpp:150] Setting up conv4_2/incep/0/conv
I0223 12:02:52.577678 29804 net.cpp:157] Top shape: 1 64 54 90 (311040)
I0223 12:02:52.577687 29804 net.cpp:165] Memory required for data: 1753332564
I0223 12:02:52.577697 29804 layer_factory.hpp:77] Creating layer conv4_2/incep/0/bn
I0223 12:02:52.577714 29804 net.cpp:100] Creating Layer conv4_2/incep/0/bn
I0223 12:02:52.577725 29804 net.cpp:434] conv4_2/incep/0/bn <- conv4_2/incep/0
I0223 12:02:52.577739 29804 net.cpp:395] conv4_2/incep/0/bn -> conv4_2/incep/0 (in-place)
I0223 12:02:52.578474 29804 net.cpp:150] Setting up conv4_2/incep/0/bn
I0223 12:02:52.578492 29804 net.cpp:157] Top shape: 1 64 54 90 (311040)
I0223 12:02:52.578500 29804 net.cpp:165] Memory required for data: 1754576724
I0223 12:02:52.578516 29804 layer_factory.hpp:77] Creating layer conv4_2/incep/0/bn_scale
I0223 12:02:52.578531 29804 net.cpp:100] Creating Layer conv4_2/incep/0/bn_scale
I0223 12:02:52.578539 29804 net.cpp:434] conv4_2/incep/0/bn_scale <- conv4_2/incep/0
I0223 12:02:52.578553 29804 net.cpp:395] conv4_2/incep/0/bn_scale -> conv4_2/incep/0 (in-place)
I0223 12:02:52.578682 29804 layer_factory.hpp:77] Creating layer conv4_2/incep/0/bn_scale
I0223 12:02:52.579102 29804 net.cpp:150] Setting up conv4_2/incep/0/bn_scale
I0223 12:02:52.579119 29804 net.cpp:157] Top shape: 1 64 54 90 (311040)
I0223 12:02:52.579128 29804 net.cpp:165] Memory required for data: 1755820884
I0223 12:02:52.579138 29804 layer_factory.hpp:77] Creating layer conv4_2/incep/0/relu
I0223 12:02:52.579159 29804 net.cpp:100] Creating Layer conv4_2/incep/0/relu
I0223 12:02:52.579169 29804 net.cpp:434] conv4_2/incep/0/relu <- conv4_2/incep/0
I0223 12:02:52.579179 29804 net.cpp:395] conv4_2/incep/0/relu -> conv4_2/incep/0 (in-place)
I0223 12:02:52.579803 29804 net.cpp:150] Setting up conv4_2/incep/0/relu
I0223 12:02:52.579828 29804 net.cpp:157] Top shape: 1 64 54 90 (311040)
I0223 12:02:52.579834 29804 net.cpp:165] Memory required for data: 1757065044
I0223 12:02:52.579843 29804 layer_factory.hpp:77] Creating layer conv4_2/incep/1_reduce/conv
I0223 12:02:52.579862 29804 net.cpp:100] Creating Layer conv4_2/incep/1_reduce/conv
I0223 12:02:52.579872 29804 net.cpp:434] conv4_2/incep/1_reduce/conv <- conv4_1_conv4_1_0_split_1
I0223 12:02:52.579888 29804 net.cpp:408] conv4_2/incep/1_reduce/conv -> conv4_2/incep/1_reduce
I0223 12:02:52.582705 29804 net.cpp:150] Setting up conv4_2/incep/1_reduce/conv
I0223 12:02:52.582732 29804 net.cpp:157] Top shape: 1 64 54 90 (311040)
I0223 12:02:52.582741 29804 net.cpp:165] Memory required for data: 1758309204
I0223 12:02:52.582751 29804 layer_factory.hpp:77] Creating layer conv4_2/incep/1_reduce/bn
I0223 12:02:52.582765 29804 net.cpp:100] Creating Layer conv4_2/incep/1_reduce/bn
I0223 12:02:52.582774 29804 net.cpp:434] conv4_2/incep/1_reduce/bn <- conv4_2/incep/1_reduce
I0223 12:02:52.582788 29804 net.cpp:395] conv4_2/incep/1_reduce/bn -> conv4_2/incep/1_reduce (in-place)
I0223 12:02:52.583454 29804 net.cpp:150] Setting up conv4_2/incep/1_reduce/bn
I0223 12:02:52.583470 29804 net.cpp:157] Top shape: 1 64 54 90 (311040)
I0223 12:02:52.583477 29804 net.cpp:165] Memory required for data: 1759553364
I0223 12:02:52.583492 29804 layer_factory.hpp:77] Creating layer conv4_2/incep/1_reduce/bn_scale
I0223 12:02:52.583506 29804 net.cpp:100] Creating Layer conv4_2/incep/1_reduce/bn_scale
I0223 12:02:52.583515 29804 net.cpp:434] conv4_2/incep/1_reduce/bn_scale <- conv4_2/incep/1_reduce
I0223 12:02:52.583528 29804 net.cpp:395] conv4_2/incep/1_reduce/bn_scale -> conv4_2/incep/1_reduce (in-place)
I0223 12:02:52.583652 29804 layer_factory.hpp:77] Creating layer conv4_2/incep/1_reduce/bn_scale
I0223 12:02:52.584043 29804 net.cpp:150] Setting up conv4_2/incep/1_reduce/bn_scale
I0223 12:02:52.584059 29804 net.cpp:157] Top shape: 1 64 54 90 (311040)
I0223 12:02:52.584065 29804 net.cpp:165] Memory required for data: 1760797524
I0223 12:02:52.584076 29804 layer_factory.hpp:77] Creating layer conv4_2/incep/1_reduce/relu
I0223 12:02:52.584089 29804 net.cpp:100] Creating Layer conv4_2/incep/1_reduce/relu
I0223 12:02:52.584096 29804 net.cpp:434] conv4_2/incep/1_reduce/relu <- conv4_2/incep/1_reduce
I0223 12:02:52.584106 29804 net.cpp:395] conv4_2/incep/1_reduce/relu -> conv4_2/incep/1_reduce (in-place)
I0223 12:02:52.584460 29804 net.cpp:150] Setting up conv4_2/incep/1_reduce/relu
I0223 12:02:52.584476 29804 net.cpp:157] Top shape: 1 64 54 90 (311040)
I0223 12:02:52.584483 29804 net.cpp:165] Memory required for data: 1762041684
I0223 12:02:52.584491 29804 layer_factory.hpp:77] Creating layer conv4_2/incep/1_0/conv
I0223 12:02:52.584511 29804 net.cpp:100] Creating Layer conv4_2/incep/1_0/conv
I0223 12:02:52.584520 29804 net.cpp:434] conv4_2/incep/1_0/conv <- conv4_2/incep/1_reduce
I0223 12:02:52.584532 29804 net.cpp:408] conv4_2/incep/1_0/conv -> conv4_2/incep/1_0
I0223 12:02:52.588001 29804 net.cpp:150] Setting up conv4_2/incep/1_0/conv
I0223 12:02:52.588026 29804 net.cpp:157] Top shape: 1 128 54 90 (622080)
I0223 12:02:52.588032 29804 net.cpp:165] Memory required for data: 1764530004
I0223 12:02:52.588044 29804 layer_factory.hpp:77] Creating layer conv4_2/incep/1_0/bn
I0223 12:02:52.588062 29804 net.cpp:100] Creating Layer conv4_2/incep/1_0/bn
I0223 12:02:52.588070 29804 net.cpp:434] conv4_2/incep/1_0/bn <- conv4_2/incep/1_0
I0223 12:02:52.588084 29804 net.cpp:395] conv4_2/incep/1_0/bn -> conv4_2/incep/1_0 (in-place)
I0223 12:02:52.588759 29804 net.cpp:150] Setting up conv4_2/incep/1_0/bn
I0223 12:02:52.588775 29804 net.cpp:157] Top shape: 1 128 54 90 (622080)
I0223 12:02:52.588789 29804 net.cpp:165] Memory required for data: 1767018324
I0223 12:02:52.588804 29804 layer_factory.hpp:77] Creating layer conv4_2/incep/1_0/bn_scale
I0223 12:02:52.588820 29804 net.cpp:100] Creating Layer conv4_2/incep/1_0/bn_scale
I0223 12:02:52.588829 29804 net.cpp:434] conv4_2/incep/1_0/bn_scale <- conv4_2/incep/1_0
I0223 12:02:52.588840 29804 net.cpp:395] conv4_2/incep/1_0/bn_scale -> conv4_2/incep/1_0 (in-place)
I0223 12:02:52.588961 29804 layer_factory.hpp:77] Creating layer conv4_2/incep/1_0/bn_scale
I0223 12:02:52.589339 29804 net.cpp:150] Setting up conv4_2/incep/1_0/bn_scale
I0223 12:02:52.589354 29804 net.cpp:157] Top shape: 1 128 54 90 (622080)
I0223 12:02:52.589360 29804 net.cpp:165] Memory required for data: 1769506644
I0223 12:02:52.589371 29804 layer_factory.hpp:77] Creating layer conv4_2/incep/1_0/relu
I0223 12:02:52.589383 29804 net.cpp:100] Creating Layer conv4_2/incep/1_0/relu
I0223 12:02:52.589391 29804 net.cpp:434] conv4_2/incep/1_0/relu <- conv4_2/incep/1_0
I0223 12:02:52.589407 29804 net.cpp:395] conv4_2/incep/1_0/relu -> conv4_2/incep/1_0 (in-place)
I0223 12:02:52.590004 29804 net.cpp:150] Setting up conv4_2/incep/1_0/relu
I0223 12:02:52.590028 29804 net.cpp:157] Top shape: 1 128 54 90 (622080)
I0223 12:02:52.590034 29804 net.cpp:165] Memory required for data: 1771994964
I0223 12:02:52.590040 29804 layer_factory.hpp:77] Creating layer conv4_2/incep/2_reduce/conv
I0223 12:02:52.590059 29804 net.cpp:100] Creating Layer conv4_2/incep/2_reduce/conv
I0223 12:02:52.590068 29804 net.cpp:434] conv4_2/incep/2_reduce/conv <- conv4_1_conv4_1_0_split_2
I0223 12:02:52.590085 29804 net.cpp:408] conv4_2/incep/2_reduce/conv -> conv4_2/incep/2_reduce
I0223 12:02:52.592154 29804 net.cpp:150] Setting up conv4_2/incep/2_reduce/conv
I0223 12:02:52.592177 29804 net.cpp:157] Top shape: 1 24 54 90 (116640)
I0223 12:02:52.592185 29804 net.cpp:165] Memory required for data: 1772461524
I0223 12:02:52.592196 29804 layer_factory.hpp:77] Creating layer conv4_2/incep/2_reduce/bn
I0223 12:02:52.592213 29804 net.cpp:100] Creating Layer conv4_2/incep/2_reduce/bn
I0223 12:02:52.592222 29804 net.cpp:434] conv4_2/incep/2_reduce/bn <- conv4_2/incep/2_reduce
I0223 12:02:52.592234 29804 net.cpp:395] conv4_2/incep/2_reduce/bn -> conv4_2/incep/2_reduce (in-place)
I0223 12:02:52.593041 29804 net.cpp:150] Setting up conv4_2/incep/2_reduce/bn
I0223 12:02:52.593061 29804 net.cpp:157] Top shape: 1 24 54 90 (116640)
I0223 12:02:52.593068 29804 net.cpp:165] Memory required for data: 1772928084
I0223 12:02:52.593083 29804 layer_factory.hpp:77] Creating layer conv4_2/incep/2_reduce/bn_scale
I0223 12:02:52.593101 29804 net.cpp:100] Creating Layer conv4_2/incep/2_reduce/bn_scale
I0223 12:02:52.593108 29804 net.cpp:434] conv4_2/incep/2_reduce/bn_scale <- conv4_2/incep/2_reduce
I0223 12:02:52.593119 29804 net.cpp:395] conv4_2/incep/2_reduce/bn_scale -> conv4_2/incep/2_reduce (in-place)
I0223 12:02:52.593250 29804 layer_factory.hpp:77] Creating layer conv4_2/incep/2_reduce/bn_scale
I0223 12:02:52.593659 29804 net.cpp:150] Setting up conv4_2/incep/2_reduce/bn_scale
I0223 12:02:52.593674 29804 net.cpp:157] Top shape: 1 24 54 90 (116640)
I0223 12:02:52.593682 29804 net.cpp:165] Memory required for data: 1773394644
I0223 12:02:52.593693 29804 layer_factory.hpp:77] Creating layer conv4_2/incep/2_reduce/relu
I0223 12:02:52.593706 29804 net.cpp:100] Creating Layer conv4_2/incep/2_reduce/relu
I0223 12:02:52.593713 29804 net.cpp:434] conv4_2/incep/2_reduce/relu <- conv4_2/incep/2_reduce
I0223 12:02:52.593725 29804 net.cpp:395] conv4_2/incep/2_reduce/relu -> conv4_2/incep/2_reduce (in-place)
I0223 12:02:52.594321 29804 net.cpp:150] Setting up conv4_2/incep/2_reduce/relu
I0223 12:02:52.594343 29804 net.cpp:157] Top shape: 1 24 54 90 (116640)
I0223 12:02:52.594349 29804 net.cpp:165] Memory required for data: 1773861204
I0223 12:02:52.594357 29804 layer_factory.hpp:77] Creating layer conv4_2/incep/2_0/conv
I0223 12:02:52.594375 29804 net.cpp:100] Creating Layer conv4_2/incep/2_0/conv
I0223 12:02:52.594384 29804 net.cpp:434] conv4_2/incep/2_0/conv <- conv4_2/incep/2_reduce
I0223 12:02:52.594408 29804 net.cpp:408] conv4_2/incep/2_0/conv -> conv4_2/incep/2_0
I0223 12:02:52.596644 29804 net.cpp:150] Setting up conv4_2/incep/2_0/conv
I0223 12:02:52.596670 29804 net.cpp:157] Top shape: 1 48 54 90 (233280)
I0223 12:02:52.596678 29804 net.cpp:165] Memory required for data: 1774794324
I0223 12:02:52.596688 29804 layer_factory.hpp:77] Creating layer conv4_2/incep/2_0/bn
I0223 12:02:52.596700 29804 net.cpp:100] Creating Layer conv4_2/incep/2_0/bn
I0223 12:02:52.596709 29804 net.cpp:434] conv4_2/incep/2_0/bn <- conv4_2/incep/2_0
I0223 12:02:52.596722 29804 net.cpp:395] conv4_2/incep/2_0/bn -> conv4_2/incep/2_0 (in-place)
I0223 12:02:52.597369 29804 net.cpp:150] Setting up conv4_2/incep/2_0/bn
I0223 12:02:52.597385 29804 net.cpp:157] Top shape: 1 48 54 90 (233280)
I0223 12:02:52.597393 29804 net.cpp:165] Memory required for data: 1775727444
I0223 12:02:52.597406 29804 layer_factory.hpp:77] Creating layer conv4_2/incep/2_0/bn_scale
I0223 12:02:52.597420 29804 net.cpp:100] Creating Layer conv4_2/incep/2_0/bn_scale
I0223 12:02:52.597429 29804 net.cpp:434] conv4_2/incep/2_0/bn_scale <- conv4_2/incep/2_0
I0223 12:02:52.597440 29804 net.cpp:395] conv4_2/incep/2_0/bn_scale -> conv4_2/incep/2_0 (in-place)
I0223 12:02:52.597558 29804 layer_factory.hpp:77] Creating layer conv4_2/incep/2_0/bn_scale
I0223 12:02:52.597936 29804 net.cpp:150] Setting up conv4_2/incep/2_0/bn_scale
I0223 12:02:52.597951 29804 net.cpp:157] Top shape: 1 48 54 90 (233280)
I0223 12:02:52.597959 29804 net.cpp:165] Memory required for data: 1776660564
I0223 12:02:52.597970 29804 layer_factory.hpp:77] Creating layer conv4_2/incep/2_0/relu
I0223 12:02:52.597980 29804 net.cpp:100] Creating Layer conv4_2/incep/2_0/relu
I0223 12:02:52.597987 29804 net.cpp:434] conv4_2/incep/2_0/relu <- conv4_2/incep/2_0
I0223 12:02:52.597997 29804 net.cpp:395] conv4_2/incep/2_0/relu -> conv4_2/incep/2_0 (in-place)
I0223 12:02:52.598330 29804 net.cpp:150] Setting up conv4_2/incep/2_0/relu
I0223 12:02:52.598346 29804 net.cpp:157] Top shape: 1 48 54 90 (233280)
I0223 12:02:52.598352 29804 net.cpp:165] Memory required for data: 1777593684
I0223 12:02:52.598359 29804 layer_factory.hpp:77] Creating layer conv4_2/incep/2_1/conv
I0223 12:02:52.598376 29804 net.cpp:100] Creating Layer conv4_2/incep/2_1/conv
I0223 12:02:52.598386 29804 net.cpp:434] conv4_2/incep/2_1/conv <- conv4_2/incep/2_0
I0223 12:02:52.598399 29804 net.cpp:408] conv4_2/incep/2_1/conv -> conv4_2/incep/2_1
I0223 12:02:52.600744 29804 net.cpp:150] Setting up conv4_2/incep/2_1/conv
I0223 12:02:52.600767 29804 net.cpp:157] Top shape: 1 48 54 90 (233280)
I0223 12:02:52.600774 29804 net.cpp:165] Memory required for data: 1778526804
I0223 12:02:52.600783 29804 layer_factory.hpp:77] Creating layer conv4_2/incep/2_1/bn
I0223 12:02:52.600796 29804 net.cpp:100] Creating Layer conv4_2/incep/2_1/bn
I0223 12:02:52.600805 29804 net.cpp:434] conv4_2/incep/2_1/bn <- conv4_2/incep/2_1
I0223 12:02:52.600818 29804 net.cpp:395] conv4_2/incep/2_1/bn -> conv4_2/incep/2_1 (in-place)
I0223 12:02:52.601480 29804 net.cpp:150] Setting up conv4_2/incep/2_1/bn
I0223 12:02:52.601495 29804 net.cpp:157] Top shape: 1 48 54 90 (233280)
I0223 12:02:52.601501 29804 net.cpp:165] Memory required for data: 1779459924
I0223 12:02:52.601514 29804 layer_factory.hpp:77] Creating layer conv4_2/incep/2_1/bn_scale
I0223 12:02:52.601528 29804 net.cpp:100] Creating Layer conv4_2/incep/2_1/bn_scale
I0223 12:02:52.601537 29804 net.cpp:434] conv4_2/incep/2_1/bn_scale <- conv4_2/incep/2_1
I0223 12:02:52.601549 29804 net.cpp:395] conv4_2/incep/2_1/bn_scale -> conv4_2/incep/2_1 (in-place)
I0223 12:02:52.601667 29804 layer_factory.hpp:77] Creating layer conv4_2/incep/2_1/bn_scale
I0223 12:02:52.602056 29804 net.cpp:150] Setting up conv4_2/incep/2_1/bn_scale
I0223 12:02:52.602072 29804 net.cpp:157] Top shape: 1 48 54 90 (233280)
I0223 12:02:52.602077 29804 net.cpp:165] Memory required for data: 1780393044
I0223 12:02:52.602087 29804 layer_factory.hpp:77] Creating layer conv4_2/incep/2_1/relu
I0223 12:02:52.602102 29804 net.cpp:100] Creating Layer conv4_2/incep/2_1/relu
I0223 12:02:52.602118 29804 net.cpp:434] conv4_2/incep/2_1/relu <- conv4_2/incep/2_1
I0223 12:02:52.602128 29804 net.cpp:395] conv4_2/incep/2_1/relu -> conv4_2/incep/2_1 (in-place)
I0223 12:02:52.602692 29804 net.cpp:150] Setting up conv4_2/incep/2_1/relu
I0223 12:02:52.602715 29804 net.cpp:157] Top shape: 1 48 54 90 (233280)
I0223 12:02:52.602721 29804 net.cpp:165] Memory required for data: 1781326164
I0223 12:02:52.602727 29804 layer_factory.hpp:77] Creating layer conv4_2/incep
I0223 12:02:52.602742 29804 net.cpp:100] Creating Layer conv4_2/incep
I0223 12:02:52.602751 29804 net.cpp:434] conv4_2/incep <- conv4_2/incep/0
I0223 12:02:52.602761 29804 net.cpp:434] conv4_2/incep <- conv4_2/incep/1_0
I0223 12:02:52.602768 29804 net.cpp:434] conv4_2/incep <- conv4_2/incep/2_1
I0223 12:02:52.602778 29804 net.cpp:408] conv4_2/incep -> conv4_2/incep
I0223 12:02:52.602864 29804 net.cpp:150] Setting up conv4_2/incep
I0223 12:02:52.602879 29804 net.cpp:157] Top shape: 1 240 54 90 (1166400)
I0223 12:02:52.602885 29804 net.cpp:165] Memory required for data: 1785991764
I0223 12:02:52.602890 29804 layer_factory.hpp:77] Creating layer conv4_2/out/conv
I0223 12:02:52.602907 29804 net.cpp:100] Creating Layer conv4_2/out/conv
I0223 12:02:52.602916 29804 net.cpp:434] conv4_2/out/conv <- conv4_2/incep
I0223 12:02:52.602926 29804 net.cpp:408] conv4_2/out/conv -> conv4_2/out
I0223 12:02:52.606714 29804 net.cpp:150] Setting up conv4_2/out/conv
I0223 12:02:52.606740 29804 net.cpp:157] Top shape: 1 256 54 90 (1244160)
I0223 12:02:52.606748 29804 net.cpp:165] Memory required for data: 1790968404
I0223 12:02:52.606758 29804 layer_factory.hpp:77] Creating layer conv4_2/out/bn
I0223 12:02:52.606770 29804 net.cpp:100] Creating Layer conv4_2/out/bn
I0223 12:02:52.606777 29804 net.cpp:434] conv4_2/out/bn <- conv4_2/out
I0223 12:02:52.606791 29804 net.cpp:395] conv4_2/out/bn -> conv4_2/out (in-place)
I0223 12:02:52.607406 29804 net.cpp:150] Setting up conv4_2/out/bn
I0223 12:02:52.607421 29804 net.cpp:157] Top shape: 1 256 54 90 (1244160)
I0223 12:02:52.607427 29804 net.cpp:165] Memory required for data: 1795945044
I0223 12:02:52.607440 29804 layer_factory.hpp:77] Creating layer conv4_2/out/bn_scale
I0223 12:02:52.607455 29804 net.cpp:100] Creating Layer conv4_2/out/bn_scale
I0223 12:02:52.607461 29804 net.cpp:434] conv4_2/out/bn_scale <- conv4_2/out
I0223 12:02:52.607471 29804 net.cpp:395] conv4_2/out/bn_scale -> conv4_2/out (in-place)
I0223 12:02:52.607584 29804 layer_factory.hpp:77] Creating layer conv4_2/out/bn_scale
I0223 12:02:52.607924 29804 net.cpp:150] Setting up conv4_2/out/bn_scale
I0223 12:02:52.607939 29804 net.cpp:157] Top shape: 1 256 54 90 (1244160)
I0223 12:02:52.607944 29804 net.cpp:165] Memory required for data: 1800921684
…
I0223 12:02:52.757536 29804 net.cpp:157] Top shape: 1 384 27 45 (466560)
I0223 12:02:52.757541 29804 net.cpp:165] Memory required for data: 2091122004
I0223 12:02:52.757546 29804 layer_factory.hpp:77] Creating layer conv5_4/incep/0/conv
I0223 12:02:52.757561 29804 net.cpp:100] Creating Layer conv5_4/incep/0/conv
I0223 12:02:52.757567 29804 net.cpp:434] conv5_4/incep/0/conv <- conv5_3_conv5_3_0_split_0
I0223 12:02:52.757576 29804 net.cpp:408] conv5_4/incep/0/conv -> conv5_4/incep/0
I0223 12:02:52.759524 29804 net.cpp:150] Setting up conv5_4/incep/0/conv
I0223 12:02:52.759548 29804 net.cpp:157] Top shape: 1 64 27 45 (77760)
I0223 12:02:52.759554 29804 net.cpp:165] Memory required for data: 2091433044
I0223 12:02:52.759562 29804 layer_factory.hpp:77] Creating layer conv5_4/incep/0/bn
I0223 12:02:52.759572 29804 net.cpp:100] Creating Layer conv5_4/incep/0/bn
I0223 12:02:52.759582 29804 net.cpp:434] conv5_4/incep/0/bn <- conv5_4/incep/0
I0223 12:02:52.759589 29804 net.cpp:395] conv5_4/incep/0/bn -> conv5_4/incep/0 (in-place)
I0223 12:02:52.760093 29804 net.cpp:150] Setting up conv5_4/incep/0/bn
I0223 12:02:52.760107 29804 net.cpp:157] Top shape: 1 64 27 45 (77760)
I0223 12:02:52.760110 29804 net.cpp:165] Memory required for data: 2091744084
I0223 12:02:52.760121 29804 layer_factory.hpp:77] Creating layer conv5_4/incep/0/bn_scale
I0223 12:02:52.760133 29804 net.cpp:100] Creating Layer conv5_4/incep/0/bn_scale
I0223 12:02:52.760139 29804 net.cpp:434] conv5_4/incep/0/bn_scale <- conv5_4/incep/0
I0223 12:02:52.760157 29804 net.cpp:395] conv5_4/incep/0/bn_scale -> conv5_4/incep/0 (in-place)
I0223 12:02:52.760244 29804 layer_factory.hpp:77] Creating layer conv5_4/incep/0/bn_scale
I0223 12:02:52.760558 29804 net.cpp:150] Setting up conv5_4/incep/0/bn_scale
I0223 12:02:52.760571 29804 net.cpp:157] Top shape: 1 64 27 45 (77760)
I0223 12:02:52.760576 29804 net.cpp:165] Memory required for data: 2092055124
I0223 12:02:52.760589 29804 layer_factory.hpp:77] Creating layer conv5_4/incep/0/relu
I0223 12:02:52.760599 29804 net.cpp:100] Creating Layer conv5_4/incep/0/relu
I0223 12:02:52.760606 29804 net.cpp:434] conv5_4/incep/0/relu <- conv5_4/incep/0
I0223 12:02:52.760612 29804 net.cpp:395] conv5_4/incep/0/relu -> conv5_4/incep/0 (in-place)
I0223 12:02:52.761119 29804 net.cpp:150] Setting up conv5_4/incep/0/relu
I0223 12:02:52.761137 29804 net.cpp:157] Top shape: 1 64 27 45 (77760)
I0223 12:02:52.761142 29804 net.cpp:165] Memory required for data: 2092366164
I0223 12:02:52.761147 29804 layer_factory.hpp:77] Creating layer conv5_4/incep/1_reduce/conv
I0223 12:02:52.761162 29804 net.cpp:100] Creating Layer conv5_4/incep/1_reduce/conv
I0223 12:02:52.761168 29804 net.cpp:434] conv5_4/incep/1_reduce/conv <- conv5_3_conv5_3_0_split_1
I0223 12:02:52.761179 29804 net.cpp:408] conv5_4/incep/1_reduce/conv -> conv5_4/incep/1_reduce
I0223 12:02:52.763495 29804 net.cpp:150] Setting up conv5_4/incep/1_reduce/conv
I0223 12:02:52.763515 29804 net.cpp:157] Top shape: 1 96 27 45 (116640)
I0223 12:02:52.763521 29804 net.cpp:165] Memory required for data: 2092832724
I0223 12:02:52.763538 29804 layer_factory.hpp:77] Creating layer conv5_4/incep/1_reduce/bn
I0223 12:02:52.763551 29804 net.cpp:100] Creating Layer conv5_4/incep/1_reduce/bn
I0223 12:02:52.763558 29804 net.cpp:434] conv5_4/incep/1_reduce/bn <- conv5_4/incep/1_reduce
I0223 12:02:52.763567 29804 net.cpp:395] conv5_4/incep/1_reduce/bn -> conv5_4/incep/1_reduce (in-place)
I0223 12:02:52.764077 29804 net.cpp:150] Setting up conv5_4/incep/1_reduce/bn
I0223 12:02:52.764091 29804 net.cpp:157] Top shape: 1 96 27 45 (116640)
I0223 12:02:52.764096 29804 net.cpp:165] Memory required for data: 2093299284
I0223 12:02:52.764106 29804 layer_factory.hpp:77] Creating layer conv5_4/incep/1_reduce/bn_scale
I0223 12:02:52.764117 29804 net.cpp:100] Creating Layer conv5_4/incep/1_reduce/bn_scale
I0223 12:02:52.764123 29804 net.cpp:434] conv5_4/incep/1_reduce/bn_scale <- conv5_4/incep/1_reduce
I0223 12:02:52.764133 29804 net.cpp:395] conv5_4/incep/1_reduce/bn_scale -> conv5_4/incep/1_reduce (in-place)
I0223 12:02:52.764221 29804 layer_factory.hpp:77] Creating layer conv5_4/incep/1_reduce/bn_scale
I0223 12:02:52.764545 29804 net.cpp:150] Setting up conv5_4/incep/1_reduce/bn_scale
I0223 12:02:52.764559 29804 net.cpp:157] Top shape: 1 96 27 45 (116640)
I0223 12:02:52.764562 29804 net.cpp:165] Memory required for data: 2093765844
I0223 12:02:52.764572 29804 layer_factory.hpp:77] Creating layer conv5_4/incep/1_reduce/relu
I0223 12:02:52.764581 29804 net.cpp:100] Creating Layer conv5_4/incep/1_reduce/relu
I0223 12:02:52.764587 29804 net.cpp:434] conv5_4/incep/1_reduce/relu <- conv5_4/incep/1_reduce
I0223 12:02:52.764595 29804 net.cpp:395] conv5_4/incep/1_reduce/relu -> conv5_4/incep/1_reduce (in-place)
I0223 12:02:52.764891 29804 net.cpp:150] Setting up conv5_4/incep/1_reduce/relu
I0223 12:02:52.764905 29804 net.cpp:157] Top shape: 1 96 27 45 (116640)
I0223 12:02:52.764909 29804 net.cpp:165] Memory required for data: 2094232404
I0223 12:02:52.764914 29804 layer_factory.hpp:77] Creating layer conv5_4/incep/1_0/conv
I0223 12:02:52.764928 29804 net.cpp:100] Creating Layer conv5_4/incep/1_0/conv
I0223 12:02:52.764935 29804 net.cpp:434] conv5_4/incep/1_0/conv <- conv5_4/incep/1_reduce
I0223 12:02:52.764945 29804 net.cpp:408] conv5_4/incep/1_0/conv -> conv5_4/incep/1_0
I0223 12:02:52.769166 29804 net.cpp:150] Setting up conv5_4/incep/1_0/conv
I0223 12:02:52.769186 29804 net.cpp:157] Top shape: 1 192 27 45 (233280)
I0223 12:02:52.769192 29804 net.cpp:165] Memory required for data: 2095165524
I0223 12:02:52.769201 29804 layer_factory.hpp:77] Creating layer conv5_4/incep/1_0/bn
I0223 12:02:52.769215 29804 net.cpp:100] Creating Layer conv5_4/incep/1_0/bn
I0223 12:02:52.769222 29804 net.cpp:434] conv5_4/incep/1_0/bn <- conv5_4/incep/1_0
I0223 12:02:52.769242 29804 net.cpp:395] conv5_4/incep/1_0/bn -> conv5_4/incep/1_0 (in-place)
I0223 12:02:52.769744 29804 net.cpp:150] Setting up conv5_4/incep/1_0/bn
I0223 12:02:52.769759 29804 net.cpp:157] Top shape: 1 192 27 45 (233280)
I0223 12:02:52.769770 29804 net.cpp:165] Memory required for data: 2096098644
I0223 12:02:52.769781 29804 layer_factory.hpp:77] Creating layer conv5_4/incep/1_0/bn_scale
I0223 12:02:52.769793 29804 net.cpp:100] Creating Layer conv5_4/incep/1_0/bn_scale
I0223 12:02:52.769798 29804 net.cpp:434] conv5_4/incep/1_0/bn_scale <- conv5_4/incep/1_0
I0223 12:02:52.769809 29804 net.cpp:395] conv5_4/incep/1_0/bn_scale -> conv5_4/incep/1_0 (in-place)
I0223 12:02:52.769894 29804 layer_factory.hpp:77] Creating layer conv5_4/incep/1_0/bn_scale
I0223 12:02:52.770227 29804 net.cpp:150] Setting up conv5_4/incep/1_0/bn_scale
I0223 12:02:52.770241 29804 net.cpp:157] Top shape: 1 192 27 45 (233280)
I0223 12:02:52.770246 29804 net.cpp:165] Memory required for data: 2097031764
I0223 12:02:52.770253 29804 layer_factory.hpp:77] Creating layer conv5_4/incep/1_0/relu
I0223 12:02:52.770265 29804 net.cpp:100] Creating Layer conv5_4/incep/1_0/relu
I0223 12:02:52.770272 29804 net.cpp:434] conv5_4/incep/1_0/relu <- conv5_4/incep/1_0
I0223 12:02:52.770278 29804 net.cpp:395] conv5_4/incep/1_0/relu -> conv5_4/incep/1_0 (in-place)
I0223 12:02:52.770555 29804 net.cpp:150] Setting up conv5_4/incep/1_0/relu
I0223 12:02:52.770568 29804 net.cpp:157] Top shape: 1 192 27 45 (233280)
I0223 12:02:52.770573 29804 net.cpp:165] Memory required for data: 2097964884
I0223 12:02:52.770579 29804 layer_factory.hpp:77] Creating layer conv5_4/incep/2_reduce/conv
I0223 12:02:52.770596 29804 net.cpp:100] Creating Layer conv5_4/incep/2_reduce/conv
I0223 12:02:52.770601 29804 net.cpp:434] conv5_4/incep/2_reduce/conv <- conv5_3_conv5_3_0_split_2
I0223 12:02:52.770611 29804 net.cpp:408] conv5_4/incep/2_reduce/conv -> conv5_4/incep/2_reduce
I0223 12:02:52.773288 29804 net.cpp:150] Setting up conv5_4/incep/2_reduce/conv
I0223 12:02:52.773308 29804 net.cpp:157] Top shape: 1 32 27 45 (38880)
I0223 12:02:52.773314 29804 net.cpp:165] Memory required for data: 2098120404
I0223 12:02:52.773322 29804 layer_factory.hpp:77] Creating layer conv5_4/incep/2_reduce/bn
I0223 12:02:52.773334 29804 net.cpp:100] Creating Layer conv5_4/incep/2_reduce/bn
I0223 12:02:52.773341 29804 net.cpp:434] conv5_4/incep/2_reduce/bn <- conv5_4/incep/2_reduce
I0223 12:02:52.773351 29804 net.cpp:395] conv5_4/incep/2_reduce/bn -> conv5_4/incep/2_reduce (in-place)
I0223 12:02:52.773866 29804 net.cpp:150] Setting up conv5_4/incep/2_reduce/bn
I0223 12:02:52.773880 29804 net.cpp:157] Top shape: 1 32 27 45 (38880)
I0223 12:02:52.773885 29804 net.cpp:165] Memory required for data: 2098275924
I0223 12:02:52.773895 29804 layer_factory.hpp:77] Creating layer conv5_4/incep/2_reduce/bn_scale
I0223 12:02:52.773906 29804 net.cpp:100] Creating Layer conv5_4/incep/2_reduce/bn_scale
I0223 12:02:52.773913 29804 net.cpp:434] conv5_4/incep/2_reduce/bn_scale <- conv5_4/incep/2_reduce
I0223 12:02:52.773921 29804 net.cpp:395] conv5_4/incep/2_reduce/bn_scale -> conv5_4/incep/2_reduce (in-place)
I0223 12:02:52.774011 29804 layer_factory.hpp:77] Creating layer conv5_4/incep/2_reduce/bn_scale
I0223 12:02:52.774363 29804 net.cpp:150] Setting up conv5_4/incep/2_reduce/bn_scale
I0223 12:02:52.774375 29804 net.cpp:157] Top shape: 1 32 27 45 (38880)
I0223 12:02:52.774380 29804 net.cpp:165] Memory required for data: 2098431444
I0223 12:02:52.774389 29804 layer_factory.hpp:77] Creating layer conv5_4/incep/2_reduce/relu
I0223 12:02:52.774399 29804 net.cpp:100] Creating Layer conv5_4/incep/2_reduce/relu
I0223 12:02:52.774405 29804 net.cpp:434] conv5_4/incep/2_reduce/relu <- conv5_4/incep/2_reduce
I0223 12:02:52.774411 29804 net.cpp:395] conv5_4/incep/2_reduce/relu -> conv5_4/incep/2_reduce (in-place)
I0223 12:02:52.774916 29804 net.cpp:150] Setting up conv5_4/incep/2_reduce/relu
I0223 12:02:52.774935 29804 net.cpp:157] Top shape: 1 32 27 45 (38880)
I0223 12:02:52.774940 29804 net.cpp:165] Memory required for data: 2098586964
I0223 12:02:52.774945 29804 layer_factory.hpp:77] Creating layer conv5_4/incep/2_0/conv
I0223 12:02:52.774958 29804 net.cpp:100] Creating Layer conv5_4/incep/2_0/conv
I0223 12:02:52.774972 29804 net.cpp:434] conv5_4/incep/2_0/conv <- conv5_4/incep/2_reduce
I0223 12:02:52.774986 29804 net.cpp:408] conv5_4/incep/2_0/conv -> conv5_4/incep/2_0
I0223 12:02:52.776888 29804 net.cpp:150] Setting up conv5_4/incep/2_0/conv
I0223 12:02:52.776908 29804 net.cpp:157] Top shape: 1 64 27 45 (77760)
I0223 12:02:52.776913 29804 net.cpp:165] Memory required for data: 2098898004
I0223 12:02:52.776921 29804 layer_factory.hpp:77] Creating layer conv5_4/incep/2_0/bn
I0223 12:02:52.776933 29804 net.cpp:100] Creating Layer conv5_4/incep/2_0/bn
I0223 12:02:52.776940 29804 net.cpp:434] conv5_4/incep/2_0/bn <- conv5_4/incep/2_0
I0223 12:02:52.776950 29804 net.cpp:395] conv5_4/incep/2_0/bn -> conv5_4/incep/2_0 (in-place)
I0223 12:02:52.777452 29804 net.cpp:150] Setting up conv5_4/incep/2_0/bn
I0223 12:02:52.777465 29804 net.cpp:157] Top shape: 1 64 27 45 (77760)
I0223 12:02:52.777469 29804 net.cpp:165] Memory required for data: 2099209044
I0223 12:02:52.777480 29804 layer_factory.hpp:77] Creating layer conv5_4/incep/2_0/bn_scale
I0223 12:02:52.777490 29804 net.cpp:100] Creating Layer conv5_4/incep/2_0/bn_scale
I0223 12:02:52.777496 29804 net.cpp:434] conv5_4/incep/2_0/bn_scale <- conv5_4/incep/2_0
I0223 12:02:52.777506 29804 net.cpp:395] conv5_4/incep/2_0/bn_scale -> conv5_4/incep/2_0 (in-place)
I0223 12:02:52.777601 29804 layer_factory.hpp:77] Creating layer conv5_4/incep/2_0/bn_scale
I0223 12:02:52.777925 29804 net.cpp:150] Setting up conv5_4/incep/2_0/bn_scale
I0223 12:02:52.777937 29804 net.cpp:157] Top shape: 1 64 27 45 (77760)
I0223 12:02:52.777941 29804 net.cpp:165] Memory required for data: 2099520084
I0223 12:02:52.777951 29804 layer_factory.hpp:77] Creating layer conv5_4/incep/2_0/relu
I0223 12:02:52.777961 29804 net.cpp:100] Creating Layer conv5_4/incep/2_0/relu
I0223 12:02:52.777967 29804 net.cpp:434] conv5_4/incep/2_0/relu <- conv5_4/incep/2_0
I0223 12:02:52.777974 29804 net.cpp:395] conv5_4/incep/2_0/relu -> conv5_4/incep/2_0 (in-place)
I0223 12:02:52.778264 29804 net.cpp:150] Setting up conv5_4/incep/2_0/relu
I0223 12:02:52.778277 29804 net.cpp:157] Top shape: 1 64 27 45 (77760)
I0223 12:02:52.778282 29804 net.cpp:165] Memory required for data: 2099831124
I0223 12:02:52.778287 29804 layer_factory.hpp:77] Creating layer conv5_4/incep/2_1/conv
I0223 12:02:52.778301 29804 net.cpp:100] Creating Layer conv5_4/incep/2_1/conv
I0223 12:02:52.778307 29804 net.cpp:434] conv5_4/incep/2_1/conv <- conv5_4/incep/2_0
I0223 12:02:52.778318 29804 net.cpp:408] conv5_4/incep/2_1/conv -> conv5_4/incep/2_1
I0223 12:02:52.780421 29804 net.cpp:150] Setting up conv5_4/incep/2_1/conv
I0223 12:02:52.780441 29804 net.cpp:157] Top shape: 1 64 27 45 (77760)
I0223 12:02:52.780447 29804 net.cpp:165] Memory required for data: 2100142164
I0223 12:02:52.780454 29804 layer_factory.hpp:77] Creating layer conv5_4/incep/2_1/bn
I0223 12:02:52.780467 29804 net.cpp:100] Creating Layer conv5_4/incep/2_1/bn
I0223 12:02:52.780473 29804 net.cpp:434] conv5_4/incep/2_1/bn <- conv5_4/incep/2_1
I0223 12:02:52.780481 29804 net.cpp:395] conv5_4/incep/2_1/bn -> conv5_4/incep/2_1 (in-place)
I0223 12:02:52.780978 29804 net.cpp:150] Setting up conv5_4/incep/2_1/bn
I0223 12:02:52.780992 29804 net.cpp:157] Top shape: 1 64 27 45 (77760)
I0223 12:02:52.780997 29804 net.cpp:165] Memory required for data: 2100453204
I0223 12:02:52.781007 29804 layer_factory.hpp:77] Creating layer conv5_4/incep/2_1/bn_scale
I0223 12:02:52.781018 29804 net.cpp:100] Creating Layer conv5_4/incep/2_1/bn_scale
I0223 12:02:52.781024 29804 net.cpp:434] conv5_4/incep/2_1/bn_scale <- conv5_4/incep/2_1
I0223 12:02:52.781034 29804 net.cpp:395] conv5_4/incep/2_1/bn_scale -> conv5_4/incep/2_1 (in-place)
I0223 12:02:52.781121 29804 layer_factory.hpp:77] Creating layer conv5_4/incep/2_1/bn_scale
I0223 12:02:52.781436 29804 net.cpp:150] Setting up conv5_4/incep/2_1/bn_scale
I0223 12:02:52.781450 29804 net.cpp:157] Top shape: 1 64 27 45 (77760)
I0223 12:02:52.781455 29804 net.cpp:165] Memory required for data: 2100764244
I0223 12:02:52.781464 29804 layer_factory.hpp:77] Creating layer conv5_4/incep/2_1/relu
I0223 12:02:52.781479 29804 net.cpp:100] Creating Layer conv5_4/incep/2_1/relu
I0223 12:02:52.781486 29804 net.cpp:434] conv5_4/incep/2_1/relu <- conv5_4/incep/2_1
I0223 12:02:52.781493 29804 net.cpp:395] conv5_4/incep/2_1/relu -> conv5_4/incep/2_1 (in-place)
I0223 12:02:52.781779 29804 net.cpp:150] Setting up conv5_4/incep/2_1/relu
I0223 12:02:52.781792 29804 net.cpp:157] Top shape: 1 64 27 45 (77760)
I0223 12:02:52.781796 29804 net.cpp:165] Memory required for data: 2101075284
I0223 12:02:52.781801 29804 layer_factory.hpp:77] Creating layer conv5_4/incep
I0223 12:02:52.781810 29804 net.cpp:100] Creating Layer conv5_4/incep
I0223 12:02:52.781816 29804 net.cpp:434] conv5_4/incep <- conv5_4/incep/0
I0223 12:02:52.781823 29804 net.cpp:434] conv5_4/incep <- conv5_4/incep/1_0
I0223 12:02:52.781829 29804 net.cpp:434] conv5_4/incep <- conv5_4/incep/2_1
I0223 12:02:52.781841 29804 net.cpp:408] conv5_4/incep -> conv5_4/incep
I0223 12:02:52.781903 29804 net.cpp:150] Setting up conv5_4/incep
I0223 12:02:52.781913 29804 net.cpp:157] Top shape: 1 320 27 45 (388800)
I0223 12:02:52.781916 29804 net.cpp:165] Memory required for data: 2102630484
I0223 12:02:52.781922 29804 layer_factory.hpp:77] Creating layer conv5_4/out/conv
I0223 12:02:52.781934 29804 net.cpp:100] Creating Layer conv5_4/out/conv
I0223 12:02:52.781940 29804 net.cpp:434] conv5_4/out/conv <- conv5_4/incep
I0223 12:02:52.781951 29804 net.cpp:408] conv5_4/out/conv -> conv5_4/out
I0223 12:02:52.785730 29804 net.cpp:150] Setting up conv5_4/out/conv
I0223 12:02:52.785750 29804 net.cpp:157] Top shape: 1 384 27 45 (466560)
I0223 12:02:52.785756 29804 net.cpp:165] Memory required for data: 2104496724
I0223 12:02:52.785764 29804 layer_factory.hpp:77] Creating layer conv5_4/out/bn
I0223 12:02:52.785774 29804 net.cpp:100] Creating Layer conv5_4/out/bn
I0223 12:02:52.785780 29804 net.cpp:434] conv5_4/out/bn <- conv5_4/out
I0223 12:02:52.785790 29804 net.cpp:395] conv5_4/out/bn -> conv5_4/out (in-place)
I0223 12:02:52.786320 29804 net.cpp:150] Setting up conv5_4/out/bn
I0223 12:02:52.786334 29804 net.cpp:157] Top shape: 1 384 27 45 (466560)
I0223 12:02:52.786339 29804 net.cpp:165] Memory required for data: 2106362964
I0223 12:02:52.786350 29804 layer_factory.hpp:77] Creating layer conv5_4/out/bn_scale
I0223 12:02:52.786361 29804 net.cpp:100] Creating Layer conv5_4/out/bn_scale
I0223 12:02:52.786367 29804 net.cpp:434] conv5_4/out/bn_scale <- conv5_4/out
I0223 12:02:52.786376 29804 net.cpp:395] conv5_4/out/bn_scale -> conv5_4/out (in-place)
I0223 12:02:52.786470 29804 layer_factory.hpp:77] Creating layer conv5_4/out/bn_scale
I0223 12:02:52.786804 29804 net.cpp:150] Setting up conv5_4/out/bn_scale
I0223 12:02:52.786818 29804 net.cpp:157] Top shape: 1 384 27 45 (466560)
I0223 12:02:52.786823 29804 net.cpp:165] Memory required for data: 2108229204
I0223 12:02:52.786830 29804 layer_factory.hpp:77] Creating layer conv5_4/input
I0223 12:02:52.786839 29804 net.cpp:100] Creating Layer conv5_4/input
I0223 12:02:52.786846 29804 net.cpp:434] conv5_4/input <- conv5_3_conv5_3_0_split_3
I0223 12:02:52.786855 29804 net.cpp:408] conv5_4/input -> conv5_4/input
I0223 12:02:52.786914 29804 net.cpp:150] Setting up conv5_4/input
I0223 12:02:52.786926 29804 net.cpp:157] Top shape: 1 384 27 45 (466560)
I0223 12:02:52.786931 29804 net.cpp:165] Memory required for data: 2110095444
I0223 12:02:52.786934 29804 layer_factory.hpp:77] Creating layer conv5_4
I0223 12:02:52.786945 29804 net.cpp:100] Creating Layer conv5_4
I0223 12:02:52.786952 29804 net.cpp:434] conv5_4 <- conv5_4/out
I0223 12:02:52.786958 29804 net.cpp:434] conv5_4 <- conv5_4/input
I0223 12:02:52.786967 29804 net.cpp:408] conv5_4 -> conv5_4
I0223 12:02:52.787019 29804 net.cpp:150] Setting up conv5_4
I0223 12:02:52.787029 29804 net.cpp:157] Top shape: 1 384 27 45 (466560)
I0223 12:02:52.787034 29804 net.cpp:165] Memory required for data: 2111961684
I0223 12:02:52.787039 29804 layer_factory.hpp:77] Creating layer downsample
I0223 12:02:52.787050 29804 net.cpp:100] Creating Layer downsample
I0223 12:02:52.787056 29804 net.cpp:434] downsample <- conv3_4_conv3_4_0_split_5
I0223 12:02:52.787072 29804 net.cpp:408] downsample -> downsample
I0223 12:02:52.787156 29804 net.cpp:150] Setting up downsample
I0223 12:02:52.787168 29804 net.cpp:157] Top shape: 1 128 54 90 (622080)
I0223 12:02:52.787171 29804 net.cpp:165] Memory required for data: 2114450004
I0223 12:02:52.787176 29804 layer_factory.hpp:77] Creating layer upsample
I0223 12:02:52.787189 29804 net.cpp:100] Creating Layer upsample
I0223 12:02:52.787195 29804 net.cpp:434] upsample <- conv5_4
I0223 12:02:52.787204 29804 net.cpp:408] upsample -> upsample
I0223 12:02:52.787904 29804 net.cpp:150] Setting up upsample
I0223 12:02:52.787917 29804 net.cpp:157] Top shape: 1 384 54 90 (1866240)
I0223 12:02:52.787922 29804 net.cpp:165] Memory required for data: 2121914964
I0223 12:02:52.787930 29804 layer_factory.hpp:77] Creating layer concat
I0223 12:02:52.787940 29804 net.cpp:100] Creating Layer concat
I0223 12:02:52.787945 29804 net.cpp:434] concat <- downsample
I0223 12:02:52.787955 29804 net.cpp:434] concat <- conv4_4_conv4_4_0_split_5
I0223 12:02:52.787961 29804 net.cpp:434] concat <- upsample
I0223 12:02:52.787968 29804 net.cpp:408] concat -> concat
I0223 12:02:52.788022 29804 net.cpp:150] Setting up concat
I0223 12:02:52.788031 29804 net.cpp:157] Top shape: 1 768 54 90 (3732480)
I0223 12:02:52.788036 29804 net.cpp:165] Memory required for data: 2136844884
I0223 12:02:52.788041 29804 layer_factory.hpp:77] Creating layer concat_concat_0_split
I0223 12:02:52.788051 29804 net.cpp:100] Creating Layer concat_concat_0_split
I0223 12:02:52.788058 29804 net.cpp:434] concat_concat_0_split <- concat
I0223 12:02:52.788064 29804 net.cpp:408] concat_concat_0_split -> concat_concat_0_split_0
I0223 12:02:52.788076 29804 net.cpp:408] concat_concat_0_split -> concat_concat_0_split_1
I0223 12:02:52.788158 29804 net.cpp:150] Setting up concat_concat_0_split
I0223 12:02:52.788168 29804 net.cpp:157] Top shape: 1 768 54 90 (3732480)
I0223 12:02:52.788174 29804 net.cpp:157] Top shape: 1 768 54 90 (3732480)
I0223 12:02:52.788179 29804 net.cpp:165] Memory required for data: 2166704724
I0223 12:02:52.788184 29804 layer_factory.hpp:77] Creating layer convf_rpn
I0223 12:02:52.788199 29804 net.cpp:100] Creating Layer convf_rpn
I0223 12:02:52.788205 29804 net.cpp:434] convf_rpn <- concat_concat_0_split_0
I0223 12:02:52.788214 29804 net.cpp:408] convf_rpn -> convf_rpn
I0223 12:02:52.791033 29804 net.cpp:150] Setting up convf_rpn
I0223 12:02:52.791054 29804 net.cpp:157] Top shape: 1 128 54 90 (622080)
I0223 12:02:52.791059 29804 net.cpp:165] Memory required for data: 2169193044
I0223 12:02:52.791069 29804 layer_factory.hpp:77] Creating layer reluf_rpn
I0223 12:02:52.791077 29804 net.cpp:100] Creating Layer reluf_rpn
I0223 12:02:52.791084 29804 net.cpp:434] reluf_rpn <- convf_rpn
I0223 12:02:52.791093 29804 net.cpp:395] reluf_rpn -> convf_rpn (in-place)
I0223 12:02:52.791585 29804 net.cpp:150] Setting up reluf_rpn
I0223 12:02:52.791602 29804 net.cpp:157] Top shape: 1 128 54 90 (622080)
I0223 12:02:52.791607 29804 net.cpp:165] Memory required for data: 2171681364
I0223 12:02:52.791612 29804 layer_factory.hpp:77] Creating layer convf_rpn_reluf_rpn_0_split
I0223 12:02:52.791622 29804 net.cpp:100] Creating Layer convf_rpn_reluf_rpn_0_split
I0223 12:02:52.791627 29804 net.cpp:434] convf_rpn_reluf_rpn_0_split <- convf_rpn
I0223 12:02:52.791638 29804 net.cpp:408] convf_rpn_reluf_rpn_0_split -> convf_rpn_reluf_rpn_0_split_0
I0223 12:02:52.791651 29804 net.cpp:408] convf_rpn_reluf_rpn_0_split -> convf_rpn_reluf_rpn_0_split_1
I0223 12:02:52.791750 29804 net.cpp:150] Setting up convf_rpn_reluf_rpn_0_split
I0223 12:02:52.791762 29804 net.cpp:157] Top shape: 1 128 54 90 (622080)
I0223 12:02:52.791767 29804 net.cpp:157] Top shape: 1 128 54 90 (622080)
I0223 12:02:52.791772 29804 net.cpp:165] Memory required for data: 2176658004
I0223 12:02:52.791777 29804 layer_factory.hpp:77] Creating layer convf_2
I0223 12:02:52.791791 29804 net.cpp:100] Creating Layer convf_2
I0223 12:02:52.791797 29804 net.cpp:434] convf_2 <- concat_concat_0_split_1
I0223 12:02:52.791810 29804 net.cpp:408] convf_2 -> convf_2
I0223 12:02:52.797591 29804 net.cpp:150] Setting up convf_2
I0223 12:02:52.797612 29804 net.cpp:157] Top shape: 1 384 54 90 (1866240)
I0223 12:02:52.797617 29804 net.cpp:165] Memory required for data: 2184122964
I0223 12:02:52.797698 29804 layer_factory.hpp:77] Creating layer reluf_2
I0223 12:02:52.797710 29804 net.cpp:100] Creating Layer reluf_2
I0223 12:02:52.797716 29804 net.cpp:434] reluf_2 <- convf_2
I0223 12:02:52.797724 29804 net.cpp:395] reluf_2 -> convf_2 (in-place)
I0223 12:02:52.798249 29804 net.cpp:150] Setting up reluf_2
I0223 12:02:52.798269 29804 net.cpp:157] Top shape: 1 384 54 90 (1866240)
I0223 12:02:52.798274 29804 net.cpp:165] Memory required for data: 2191587924
I0223 12:02:52.798280 29804 layer_factory.hpp:77] Creating layer concat_convf
I0223 12:02:52.798288 29804 net.cpp:100] Creating Layer concat_convf
I0223 12:02:52.798295 29804 net.cpp:434] concat_convf <- convf_rpn_reluf_rpn_0_split_0
I0223 12:02:52.798303 29804 net.cpp:434] concat_convf <- convf_2
I0223 12:02:52.798312 29804 net.cpp:408] concat_convf -> convf
I0223 12:02:52.798380 29804 net.cpp:150] Setting up concat_convf
I0223 12:02:52.798393 29804 net.cpp:157] Top shape: 1 512 54 90 (2488320)
I0223 12:02:52.798398 29804 net.cpp:165] Memory required for data: 2201541204
I0223 12:02:52.798401 29804 layer_factory.hpp:77] Creating layer convf_concat_convf_0_split
I0223 12:02:52.798413 29804 net.cpp:100] Creating Layer convf_concat_convf_0_split
I0223 12:02:52.798418 29804 net.cpp:434] convf_concat_convf_0_split <- convf
I0223 12:02:52.798426 29804 net.cpp:408] convf_concat_convf_0_split -> convf_concat_convf_0_split_0
I0223 12:02:52.798436 29804 net.cpp:408] convf_concat_convf_0_split -> convf_concat_convf_0_split_1
I0223 12:02:52.798527 29804 net.cpp:150] Setting up convf_concat_convf_0_split
I0223 12:02:52.798537 29804 net.cpp:157] Top shape: 1 512 54 90 (2488320)
I0223 12:02:52.798543 29804 net.cpp:157] Top shape: 1 512 54 90 (2488320)
I0223 12:02:52.798548 29804 net.cpp:165] Memory required for data: 2221447764
I0223 12:02:52.798553 29804 layer_factory.hpp:77] Creating layer rpn_conv1
I0223 12:02:52.798570 29804 net.cpp:100] Creating Layer rpn_conv1
I0223 12:02:52.798576 29804 net.cpp:434] rpn_conv1 <- convf_rpn_reluf_rpn_0_split_1
I0223 12:02:52.798585 29804 net.cpp:408] rpn_conv1 -> rpn_conv1
I0223 12:02:52.808259 29804 net.cpp:150] Setting up rpn_conv1
I0223 12:02:52.808280 29804 net.cpp:157] Top shape: 1 384 54 90 (1866240)
I0223 12:02:52.808285 29804 net.cpp:165] Memory required for data: 2228912724
I0223 12:02:52.808295 29804 layer_factory.hpp:77] Creating layer rpn_relu1
I0223 12:02:52.808305 29804 net.cpp:100] Creating Layer rpn_relu1
I0223 12:02:52.808310 29804 net.cpp:434] rpn_relu1 <- rpn_conv1
I0223 12:02:52.808320 29804 net.cpp:395] rpn_relu1 -> rpn_conv1 (in-place)
I0223 12:02:52.808609 29804 net.cpp:150] Setting up rpn_relu1
I0223 12:02:52.808622 29804 net.cpp:157] Top shape: 1 384 54 90 (1866240)
I0223 12:02:52.808627 29804 net.cpp:165] Memory required for data: 2236377684
I0223 12:02:52.808632 29804 layer_factory.hpp:77] Creating layer rpn_conv1_rpn_relu1_0_split
I0223 12:02:52.808641 29804 net.cpp:100] Creating Layer rpn_conv1_rpn_relu1_0_split
I0223 12:02:52.808646 29804 net.cpp:434] rpn_conv1_rpn_relu1_0_split <- rpn_conv1
I0223 12:02:52.808657 29804 net.cpp:408] rpn_conv1_rpn_relu1_0_split -> rpn_conv1_rpn_relu1_0_split_0
I0223 12:02:52.808667 29804 net.cpp:408] rpn_conv1_rpn_relu1_0_split -> rpn_conv1_rpn_relu1_0_split_1
I0223 12:02:52.808771 29804 net.cpp:150] Setting up rpn_conv1_rpn_relu1_0_split
I0223 12:02:52.808782 29804 net.cpp:157] Top shape: 1 384 54 90 (1866240)
I0223 12:02:52.808789 29804 net.cpp:157] Top shape: 1 384 54 90 (1866240)
I0223 12:02:52.808794 29804 net.cpp:165] Memory required for data: 2251307604
I0223 12:02:52.808799 29804 layer_factory.hpp:77] Creating layer rpn_cls_score
I0223 12:02:52.808815 29804 net.cpp:100] Creating Layer rpn_cls_score
I0223 12:02:52.808821 29804 net.cpp:434] rpn_cls_score <- rpn_conv1_rpn_relu1_0_split_0
I0223 12:02:52.808830 29804 net.cpp:408] rpn_cls_score -> rpn_cls_score
I0223 12:02:52.811041 29804 net.cpp:150] Setting up rpn_cls_score
I0223 12:02:52.811061 29804 net.cpp:157] Top shape: 1 50 54 90 (243000)
I0223 12:02:52.811067 29804 net.cpp:165] Memory required for data: 2252279604
I0223 12:02:52.811076 29804 layer_factory.hpp:77] Creating layer rpn_cls_score_rpn_cls_score_0_split
I0223 12:02:52.811089 29804 net.cpp:100] Creating Layer rpn_cls_score_rpn_cls_score_0_split
I0223 12:02:52.811095 29804 net.cpp:434] rpn_cls_score_rpn_cls_score_0_split <- rpn_cls_score
I0223 12:02:52.811105 29804 net.cpp:408] rpn_cls_score_rpn_cls_score_0_split -> rpn_cls_score_rpn_cls_score_0_split_0
I0223 12:02:52.811117 29804 net.cpp:408] rpn_cls_score_rpn_cls_score_0_split -> rpn_cls_score_rpn_cls_score_0_split_1
I0223 12:02:52.811213 29804 net.cpp:150] Setting up rpn_cls_score_rpn_cls_score_0_split
I0223 12:02:52.811223 29804 net.cpp:157] Top shape: 1 50 54 90 (243000)
I0223 12:02:52.811230 29804 net.cpp:157] Top shape: 1 50 54 90 (243000)
I0223 12:02:52.811234 29804 net.cpp:165] Memory required for data: 2254223604
I0223 12:02:52.811239 29804 layer_factory.hpp:77] Creating layer rpn_bbox_pred
I0223 12:02:52.811255 29804 net.cpp:100] Creating Layer rpn_bbox_pred
I0223 12:02:52.811262 29804 net.cpp:434] rpn_bbox_pred <- rpn_conv1_rpn_relu1_0_split_1
I0223 12:02:52.811271 29804 net.cpp:408] rpn_bbox_pred -> rpn_bbox_pred
I0223 12:02:52.813736 29804 net.cpp:150] Setting up rpn_bbox_pred
I0223 12:02:52.813757 29804 net.cpp:157] Top shape: 1 100 54 90 (486000)
I0223 12:02:52.813763 29804 net.cpp:165] Memory required for data: 2256167604
I0223 12:02:52.813773 29804 layer_factory.hpp:77] Creating layer rpn_bbox_pred_rpn_bbox_pred_0_split
I0223 12:02:52.813782 29804 net.cpp:100] Creating Layer rpn_bbox_pred_rpn_bbox_pred_0_split
I0223 12:02:52.813788 29804 net.cpp:434] rpn_bbox_pred_rpn_bbox_pred_0_split <- rpn_bbox_pred
I0223 12:02:52.813798 29804 net.cpp:408] rpn_bbox_pred_rpn_bbox_pred_0_split -> rpn_bbox_pred_rpn_bbox_pred_0_split_0
I0223 12:02:52.813810 29804 net.cpp:408] rpn_bbox_pred_rpn_bbox_pred_0_split -> rpn_bbox_pred_rpn_bbox_pred_0_split_1
I0223 12:02:52.813904 29804 net.cpp:150] Setting up rpn_bbox_pred_rpn_bbox_pred_0_split
I0223 12:02:52.813915 29804 net.cpp:157] Top shape: 1 100 54 90 (486000)
I0223 12:02:52.813921 29804 net.cpp:157] Top shape: 1 100 54 90 (486000)
I0223 12:02:52.813926 29804 net.cpp:165] Memory required for data: 2260055604
I0223 12:02:52.813931 29804 layer_factory.hpp:77] Creating layer rpn_cls_score_reshape
I0223 12:02:52.813944 29804 net.cpp:100] Creating Layer rpn_cls_score_reshape
I0223 12:02:52.813951 29804 net.cpp:434] rpn_cls_score_reshape <- rpn_cls_score_rpn_cls_score_0_split_0
I0223 12:02:52.813961 29804 net.cpp:408] rpn_cls_score_reshape -> rpn_cls_score_reshape
I0223 12:02:52.814020 29804 net.cpp:150] Setting up rpn_cls_score_reshape
I0223 12:02:52.814030 29804 net.cpp:157] Top shape: 1 2 1350 90 (243000)
I0223 12:02:52.814035 29804 net.cpp:165] Memory required for data: 2261027604
I0223 12:02:52.814040 29804 layer_factory.hpp:77] Creating layer rpn_cls_score_reshape_rpn_cls_score_reshape_0_split
I0223 12:02:52.814052 29804 net.cpp:100] Creating Layer rpn_cls_score_reshape_rpn_cls_score_reshape_0_split
I0223 12:02:52.814059 29804 net.cpp:434] rpn_cls_score_reshape_rpn_cls_score_reshape_0_split <- rpn_cls_score_reshape
I0223 12:02:52.814067 29804 net.cpp:408] rpn_cls_score_reshape_rpn_cls_score_reshape_0_split -> rpn_cls_score_reshape_rpn_cls_score_reshape_0_split_0
I0223 12:02:52.814077 29804 net.cpp:408] rpn_cls_score_reshape_rpn_cls_score_reshape_0_split -> rpn_cls_score_reshape_rpn_cls_score_reshape_0_split_1
I0223 12:02:52.814157 29804 net.cpp:150] Setting up rpn_cls_score_reshape_rpn_cls_score_reshape_0_split
I0223 12:02:52.814169 29804 net.cpp:157] Top shape: 1 2 1350 90 (243000)
I0223 12:02:52.814182 29804 net.cpp:157] Top shape: 1 2 1350 90 (243000)
I0223 12:02:52.814187 29804 net.cpp:165] Memory required for data: 2262971604
I0223 12:02:52.814191 29804 layer_factory.hpp:77] Creating layer rpn-data
I0223 12:02:52.814867 29804 net.cpp:100] Creating Layer rpn-data
I0223 12:02:52.814891 29804 net.cpp:434] rpn-data <- rpn_cls_score_rpn_cls_score_0_split_1
I0223 12:02:52.814901 29804 net.cpp:434] rpn-data <- gt_boxes_input-data_2_split_0
I0223 12:02:52.814908 29804 net.cpp:434] rpn-data <- im_info_input-data_1_split_0
I0223 12:02:52.814915 29804 net.cpp:434] rpn-data <- data_input-data_0_split_1
I0223 12:02:52.814924 29804 net.cpp:408] rpn-data -> rpn_labels
I0223 12:02:52.814936 29804 net.cpp:408] rpn-data -> rpn_bbox_targets
I0223 12:02:52.814949 29804 net.cpp:408] rpn-data -> rpn_bbox_inside_weights
I0223 12:02:52.814959 29804 net.cpp:408] rpn-data -> rpn_bbox_outside_weights
I0223 12:02:52.818111 29804 net.cpp:150] Setting up rpn-data
I0223 12:02:52.818133 29804 net.cpp:157] Top shape: 1 1 1350 90 (121500)
I0223 12:02:52.818140 29804 net.cpp:157] Top shape: 1 100 54 90 (486000)
I0223 12:02:52.818146 29804 net.cpp:157] Top shape: 1 100 54 90 (486000)
I0223 12:02:52.818152 29804 net.cpp:157] Top shape: 1 100 54 90 (486000)
I0223 12:02:52.818156 29804 net.cpp:165] Memory required for data: 2269289604
I0223 12:02:52.818161 29804 layer_factory.hpp:77] Creating layer rpn_loss_cls
I0223 12:02:52.818173 29804 net.cpp:100] Creating Layer rpn_loss_cls
I0223 12:02:52.818197 29804 net.cpp:434] rpn_loss_cls <- rpn_cls_score_reshape_rpn_cls_score_reshape_0_split_0
I0223 12:02:52.818204 29804 net.cpp:434] rpn_loss_cls <- rpn_labels
…
I0223 12:02:52.825791 29804 net.cpp:157] Top shape: (1)
I0223 12:02:52.825795 29804 net.cpp:160]     with loss weight 1
I0223 12:02:52.825803 29804 net.cpp:165] Memory required for data: 2269289612
I0223 12:02:52.825809 29804 layer_factory.hpp:77] Creating layer rpn_cls_prob
I0223 12:02:52.825821 29804 net.cpp:100] Creating Layer rpn_cls_prob
I0223 12:02:52.825829 29804 net.cpp:434] rpn_cls_prob <- rpn_cls_score_reshape_rpn_cls_score_reshape_0_split_1
I0223 12:02:52.825836 29804 net.cpp:408] rpn_cls_prob -> rpn_cls_prob
I0223 12:02:52.826514 29804 net.cpp:150] Setting up rpn_cls_prob
I0223 12:02:52.826532 29804 net.cpp:157] Top shape: 1 2 1350 90 (243000)
I0223 12:02:52.826537 29804 net.cpp:165] Memory required for data: 2270261612
I0223 12:02:52.826542 29804 layer_factory.hpp:77] Creating layer rpn_cls_prob_reshape
I0223 12:02:52.826556 29804 net.cpp:100] Creating Layer rpn_cls_prob_reshape
I0223 12:02:52.826565 29804 net.cpp:434] rpn_cls_prob_reshape <- rpn_cls_prob
I0223 12:02:52.826573 29804 net.cpp:408] rpn_cls_prob_reshape -> rpn_cls_prob_reshape
I0223 12:02:52.826635 29804 net.cpp:150] Setting up rpn_cls_prob_reshape
I0223 12:02:52.826647 29804 net.cpp:157] Top shape: 1 50 54 90 (243000)
I0223 12:02:52.826652 29804 net.cpp:165] Memory required for data: 2271233612
I0223 12:02:52.826655 29804 layer_factory.hpp:77] Creating layer proposal
I0223 12:02:52.826673 29804 net.cpp:100] Creating Layer proposal
I0223 12:02:52.826679 29804 net.cpp:434] proposal <- rpn_cls_prob_reshape
I0223 12:02:52.826686 29804 net.cpp:434] proposal <- rpn_bbox_pred_rpn_bbox_pred_0_split_1
I0223 12:02:52.826694 29804 net.cpp:434] proposal <- im_info_input-data_1_split_1
I0223 12:02:52.826709 29804 net.cpp:408] proposal -> rpn_rois
I0223 12:02:52.826720 29804 net.cpp:408] proposal -> rpn_scores
I0223 12:02:52.826917 29804 net.cpp:150] Setting up proposal
I0223 12:02:52.826934 29804 net.cpp:157] Top shape: 2000 5 (10000)
I0223 12:02:52.826939 29804 net.cpp:157] Top shape: 2000 (2000)
I0223 12:02:52.826943 29804 net.cpp:165] Memory required for data: 2271281612
I0223 12:02:52.826949 29804 layer_factory.hpp:77] Creating layer mute_rpn_scores
I0223 12:02:52.826956 29804 net.cpp:100] Creating Layer mute_rpn_scores
I0223 12:02:52.826962 29804 net.cpp:434] mute_rpn_scores <- rpn_scores
I0223 12:02:52.826969 29804 net.cpp:150] Setting up mute_rpn_scores
I0223 12:02:52.826973 29804 net.cpp:165] Memory required for data: 2271281612
I0223 12:02:52.826978 29804 layer_factory.hpp:77] Creating layer roi-data
I0223 12:02:52.827181 29804 net.cpp:100] Creating Layer roi-data
I0223 12:02:52.827194 29804 net.cpp:434] roi-data <- rpn_rois
I0223 12:02:52.827203 29804 net.cpp:434] roi-data <- gt_boxes_input-data_2_split_1
I0223 12:02:52.827213 29804 net.cpp:408] roi-data -> rois
I0223 12:02:52.827224 29804 net.cpp:408] roi-data -> labels
I0223 12:02:52.827234 29804 net.cpp:408] roi-data -> bbox_targets
I0223 12:02:52.827244 29804 net.cpp:408] roi-data -> bbox_inside_weights
I0223 12:02:52.827252 29804 net.cpp:408] roi-data -> bbox_outside_weights
I0223 12:02:52.827855 29804 net.cpp:150] Setting up roi-data
I0223 12:02:52.827873 29804 net.cpp:157] Top shape: 1 5 (5)
I0223 12:02:52.827879 29804 net.cpp:157] Top shape: 1 1 (1)
I0223 12:02:52.827884 29804 net.cpp:157] Top shape: 1 8 (8)
I0223 12:02:52.827889 29804 net.cpp:157] Top shape: 1 8 (8)
I0223 12:02:52.827894 29804 net.cpp:157] Top shape: 1 8 (8)
I0223 12:02:52.827898 29804 net.cpp:165] Memory required for data: 2271281732
I0223 12:02:52.827904 29804 layer_factory.hpp:77] Creating layer rois_roi-data_0_split
I0223 12:02:52.827913 29804 net.cpp:100] Creating Layer rois_roi-data_0_split
I0223 12:02:52.827919 29804 net.cpp:434] rois_roi-data_0_split <- rois
I0223 12:02:52.827929 29804 net.cpp:408] rois_roi-data_0_split -> rois_roi-data_0_split_0
I0223 12:02:52.827939 29804 net.cpp:408] rois_roi-data_0_split -> rois_roi-data_0_split_1
I0223 12:02:52.828023 29804 net.cpp:150] Setting up rois_roi-data_0_split
I0223 12:02:52.828033 29804 net.cpp:157] Top shape: 1 5 (5)
I0223 12:02:52.828039 29804 net.cpp:157] Top shape: 1 5 (5)
I0223 12:02:52.828043 29804 net.cpp:165] Memory required for data: 2271281772
I0223 12:02:52.828048 29804 layer_factory.hpp:77] Creating layer roi_pool5_readonly
I0223 12:02:52.828060 29804 net.cpp:100] Creating Layer roi_pool5_readonly
I0223 12:02:52.828066 29804 net.cpp:434] roi_pool5_readonly <- convf_concat_convf_0_split_0
I0223 12:02:52.828073 29804 net.cpp:434] roi_pool5_readonly <- rois_roi-data_0_split_0
I0223 12:02:52.828081 29804 net.cpp:408] roi_pool5_readonly -> pool5_readonly
I0223 12:02:52.828091 29804 roi_pooling_layer.cpp:34] Spatial scale: 0.0625
I0223 12:02:52.828186 29804 net.cpp:150] Setting up roi_pool5_readonly
I0223 12:02:52.828197 29804 net.cpp:157] Top shape: 1 512 6 6 (18432)
I0223 12:02:52.828202 29804 net.cpp:165] Memory required for data: 2271355500
I0223 12:02:52.828207 29804 layer_factory.hpp:77] Creating layer fc6_readonly
I0223 12:02:52.828220 29804 net.cpp:100] Creating Layer fc6_readonly
I0223 12:02:52.828225 29804 net.cpp:434] fc6_readonly <- pool5_readonly
I0223 12:02:52.828233 29804 net.cpp:408] fc6_readonly -> fc6_readonly
I0223 12:02:53.070410 29804 net.cpp:150] Setting up fc6_readonly
I0223 12:02:53.070471 29804 net.cpp:157] Top shape: 1 4096 (4096)
I0223 12:02:53.070475 29804 net.cpp:165] Memory required for data: 2271371884
I0223 12:02:53.070490 29804 layer_factory.hpp:77] Creating layer relu6_readonly
I0223 12:02:53.070507 29804 net.cpp:100] Creating Layer relu6_readonly
I0223 12:02:53.070523 29804 net.cpp:434] relu6_readonly <- fc6_readonly
I0223 12:02:53.070535 29804 net.cpp:395] relu6_readonly -> fc6_readonly (in-place)
I0223 12:02:53.070925 29804 net.cpp:150] Setting up relu6_readonly
I0223 12:02:53.070956 29804 net.cpp:157] Top shape: 1 4096 (4096)
I0223 12:02:53.070961 29804 net.cpp:165] Memory required for data: 2271388268
I0223 12:02:53.070966 29804 layer_factory.hpp:77] Creating layer drop6_readonly
I0223 12:02:53.070987 29804 net.cpp:100] Creating Layer drop6_readonly
I0223 12:02:53.070992 29804 net.cpp:434] drop6_readonly <- fc6_readonly
I0223 12:02:53.071003 29804 net.cpp:395] drop6_readonly -> fc6_readonly (in-place)
I0223 12:02:53.071066 29804 net.cpp:150] Setting up drop6_readonly
I0223 12:02:53.071076 29804 net.cpp:157] Top shape: 1 4096 (4096)
I0223 12:02:53.071081 29804 net.cpp:165] Memory required for data: 2271404652
I0223 12:02:53.071086 29804 layer_factory.hpp:77] Creating layer fc7_readonly
I0223 12:02:53.071099 29804 net.cpp:100] Creating Layer fc7_readonly
I0223 12:02:53.071105 29804 net.cpp:434] fc7_readonly <- fc6_readonly
I0223 12:02:53.071115 29804 net.cpp:408] fc7_readonly -> fc7_readonly
I0223 12:02:53.132261 29804 net.cpp:150] Setting up fc7_readonly
I0223 12:02:53.132333 29804 net.cpp:157] Top shape: 1 4096 (4096)
I0223 12:02:53.132336 29804 net.cpp:165] Memory required for data: 2271421036
I0223 12:02:53.132352 29804 layer_factory.hpp:77] Creating layer relu7_readonly
I0223 12:02:53.132367 29804 net.cpp:100] Creating Layer relu7_readonly
I0223 12:02:53.132375 29804 net.cpp:434] relu7_readonly <- fc7_readonly
I0223 12:02:53.132387 29804 net.cpp:395] relu7_readonly -> fc7_readonly (in-place)
I0223 12:02:53.133199 29804 net.cpp:150] Setting up relu7_readonly
I0223 12:02:53.133218 29804 net.cpp:157] Top shape: 1 4096 (4096)
I0223 12:02:53.133221 29804 net.cpp:165] Memory required for data: 2271437420
I0223 12:02:53.133226 29804 layer_factory.hpp:77] Creating layer drop7_readonly
I0223 12:02:53.133239 29804 net.cpp:100] Creating Layer drop7_readonly
I0223 12:02:53.133246 29804 net.cpp:434] drop7_readonly <- fc7_readonly
I0223 12:02:53.133255 29804 net.cpp:395] drop7_readonly -> fc7_readonly (in-place)
I0223 12:02:53.133318 29804 net.cpp:150] Setting up drop7_readonly
I0223 12:02:53.133330 29804 net.cpp:157] Top shape: 1 4096 (4096)
I0223 12:02:53.133335 29804 net.cpp:165] Memory required for data: 2271453804
I0223 12:02:53.133340 29804 layer_factory.hpp:77] Creating layer fc7_readonly_drop7_readonly_0_split
I0223 12:02:53.133349 29804 net.cpp:100] Creating Layer fc7_readonly_drop7_readonly_0_split
I0223 12:02:53.133354 29804 net.cpp:434] fc7_readonly_drop7_readonly_0_split <- fc7_readonly
I0223 12:02:53.133370 29804 net.cpp:408] fc7_readonly_drop7_readonly_0_split -> fc7_readonly_drop7_readonly_0_split_0
I0223 12:02:53.133455 29804 net.cpp:408] fc7_readonly_drop7_readonly_0_split -> fc7_readonly_drop7_readonly_0_split_1
I0223 12:02:53.133545 29804 net.cpp:150] Setting up fc7_readonly_drop7_readonly_0_split
I0223 12:02:53.133556 29804 net.cpp:157] Top shape: 1 4096 (4096)
I0223 12:02:53.133563 29804 net.cpp:157] Top shape: 1 4096 (4096)
I0223 12:02:53.133568 29804 net.cpp:165] Memory required for data: 2271486572
I0223 12:02:53.133571 29804 layer_factory.hpp:77] Creating layer cls_score_readonly
I0223 12:02:53.133584 29804 net.cpp:100] Creating Layer cls_score_readonly
I0223 12:02:53.133589 29804 net.cpp:434] cls_score_readonly <- fc7_readonly_drop7_readonly_0_split_0
I0223 12:02:53.133599 29804 net.cpp:408] cls_score_readonly -> cls_score_readonly
I0223 12:02:53.134008 29804 net.cpp:150] Setting up cls_score_readonly
I0223 12:02:53.134027 29804 net.cpp:157] Top shape: 1 2 (2)
I0223 12:02:53.134032 29804 net.cpp:165] Memory required for data: 2271486580
I0223 12:02:53.134040 29804 layer_factory.hpp:77] Creating layer bbox_pred_readonly
I0223 12:02:53.134052 29804 net.cpp:100] Creating Layer bbox_pred_readonly
I0223 12:02:53.134058 29804 net.cpp:434] bbox_pred_readonly <- fc7_readonly_drop7_readonly_0_split_1
I0223 12:02:53.134068 29804 net.cpp:408] bbox_pred_readonly -> bbox_pred_readonly
I0223 12:02:53.135833 29804 net.cpp:150] Setting up bbox_pred_readonly
I0223 12:02:53.135850 29804 net.cpp:157] Top shape: 1 8 (8)
I0223 12:02:53.135854 29804 net.cpp:165] Memory required for data: 2271486612
I0223 12:02:53.135875 29804 layer_factory.hpp:77] Creating layer cls_prob_readonly
I0223 12:02:53.135892 29804 net.cpp:100] Creating Layer cls_prob_readonly
I0223 12:02:53.135898 29804 net.cpp:434] cls_prob_readonly <- cls_score_readonly
I0223 12:02:53.135907 29804 net.cpp:408] cls_prob_readonly -> cls_prob_readonly
I0223 12:02:53.136550 29804 net.cpp:150] Setting up cls_prob_readonly
I0223 12:02:53.136569 29804 net.cpp:157] Top shape: 1 2 (2)
I0223 12:02:53.136572 29804 net.cpp:165] Memory required for data: 2271486620
I0223 12:02:53.136579 29804 layer_factory.hpp:77] Creating layer hard_roi_mining
I0223 12:02:53.136664 29804 net.cpp:100] Creating Layer hard_roi_mining
I0223 12:02:53.136673 29804 net.cpp:434] hard_roi_mining <- cls_prob_readonly
I0223 12:02:53.136682 29804 net.cpp:434] hard_roi_mining <- bbox_pred_readonly
I0223 12:02:53.136688 29804 net.cpp:434] hard_roi_mining <- rois_roi-data_0_split_1
I0223 12:02:53.136695 29804 net.cpp:434] hard_roi_mining <- labels
I0223 12:02:53.136701 29804 net.cpp:434] hard_roi_mining <- bbox_targets
I0223 12:02:53.136708 29804 net.cpp:434] hard_roi_mining <- bbox_inside_weights
I0223 12:02:53.136713 29804 net.cpp:434] hard_roi_mining <- bbox_outside_weights
I0223 12:02:53.136723 29804 net.cpp:408] hard_roi_mining -> rois_hard
I0223 12:02:53.136734 29804 net.cpp:408] hard_roi_mining -> labels_hard
I0223 12:02:53.136745 29804 net.cpp:408] hard_roi_mining -> bbox_targets_hard
I0223 12:02:53.136756 29804 net.cpp:408] hard_roi_mining -> bbox_inside_weights_hard
I0223 12:02:53.136767 29804 net.cpp:408] hard_roi_mining -> bbox_outside_weights_hard
I0223 12:02:53.137583 29804 net.cpp:150] Setting up hard_roi_mining
I0223 12:02:53.137600 29804 net.cpp:157] Top shape: 1 5 (5)
I0223 12:02:53.137606 29804 net.cpp:157] Top shape: 1 (1)
I0223 12:02:53.137611 29804 net.cpp:157] Top shape: 1 8 (8)
I0223 12:02:53.137616 29804 net.cpp:157] Top shape: 1 8 (8)
I0223 12:02:53.137621 29804 net.cpp:157] Top shape: 1 8 (8)
I0223 12:02:53.137625 29804 net.cpp:165] Memory required for data: 2271486740
I0223 12:02:53.137631 29804 layer_factory.hpp:77] Creating layer roi_pool5
I0223 12:02:53.137641 29804 net.cpp:100] Creating Layer roi_pool5
I0223 12:02:53.137647 29804 net.cpp:434] roi_pool5 <- convf_concat_convf_0_split_1
I0223 12:02:53.137655 29804 net.cpp:434] roi_pool5 <- rois_hard
I0223 12:02:53.137667 29804 net.cpp:408] roi_pool5 -> pool5
I0223 12:02:53.137679 29804 roi_pooling_layer.cpp:34] Spatial scale: 0.0625
I0223 12:02:53.137795 29804 net.cpp:150] Setting up roi_pool5
I0223 12:02:53.137807 29804 net.cpp:157] Top shape: 1 512 6 6 (18432)
I0223 12:02:53.137812 29804 net.cpp:165] Memory required for data: 2271560468
I0223 12:02:53.137817 29804 layer_factory.hpp:77] Creating layer fc6
I0223 12:02:53.137826 29804 net.cpp:100] Creating Layer fc6
I0223 12:02:53.137832 29804 net.cpp:434] fc6 <- pool5
I0223 12:02:53.137845 29804 net.cpp:408] fc6 -> fc6
I0223 12:02:53.393908 29804 net.cpp:150] Setting up fc6
I0223 12:02:53.393959 29804 net.cpp:157] Top shape: 1 4096 (4096)
I0223 12:02:53.393962 29804 net.cpp:165] Memory required for data: 2271576852
I0223 12:02:53.393971 29804 net.cpp:493] Sharing parameters 'fc6_w' owned by layer 'fc6_readonly', param index 0
I0223 12:02:53.393978 29804 net.cpp:493] Sharing parameters 'fc6_b' owned by layer 'fc6_readonly', param index 1
I0223 12:02:53.393983 29804 layer_factory.hpp:77] Creating layer relu6
I0223 12:02:53.393996 29804 net.cpp:100] Creating Layer relu6
I0223 12:02:53.394003 29804 net.cpp:434] relu6 <- fc6
I0223 12:02:53.394014 29804 net.cpp:395] relu6 -> fc6 (in-place)
I0223 12:02:53.394361 29804 net.cpp:150] Setting up relu6
I0223 12:02:53.394372 29804 net.cpp:157] Top shape: 1 4096 (4096)
I0223 12:02:53.394376 29804 net.cpp:165] Memory required for data: 2271593236
I0223 12:02:53.394379 29804 layer_factory.hpp:77] Creating layer drop6
I0223 12:02:53.394388 29804 net.cpp:100] Creating Layer drop6
I0223 12:02:53.394392 29804 net.cpp:434] drop6 <- fc6
I0223 12:02:53.394399 29804 net.cpp:395] drop6 -> fc6 (in-place)
I0223 12:02:53.394459 29804 net.cpp:150] Setting up drop6
I0223 12:02:53.394467 29804 net.cpp:157] Top shape: 1 4096 (4096)
I0223 12:02:53.394470 29804 net.cpp:165] Memory required for data: 2271609620
I0223 12:02:53.394474 29804 layer_factory.hpp:77] Creating layer fc7
I0223 12:02:53.394484 29804 net.cpp:100] Creating Layer fc7
I0223 12:02:53.394487 29804 net.cpp:434] fc7 <- fc6
I0223 12:02:53.394493 29804 net.cpp:408] fc7 -> fc7
I0223 12:02:53.451669 29804 net.cpp:150] Setting up fc7
I0223 12:02:53.451722 29804 net.cpp:157] Top shape: 1 4096 (4096)
I0223 12:02:53.451725 29804 net.cpp:165] Memory required for data: 2271626004
I0223 12:02:53.451735 29804 net.cpp:493] Sharing parameters 'fc7_w' owned by layer 'fc7_readonly', param index 0
I0223 12:02:53.451742 29804 net.cpp:493] Sharing parameters 'fc7_b' owned by layer 'fc7_readonly', param index 1
I0223 12:02:53.451747 29804 layer_factory.hpp:77] Creating layer relu7
I0223 12:02:53.451758 29804 net.cpp:100] Creating Layer relu7
I0223 12:02:53.451764 29804 net.cpp:434] relu7 <- fc7
I0223 12:02:53.451776 29804 net.cpp:395] relu7 -> fc7 (in-place)
I0223 12:02:53.452442 29804 net.cpp:150] Setting up relu7
I0223 12:02:53.452455 29804 net.cpp:157] Top shape: 1 4096 (4096)
I0223 12:02:53.452458 29804 net.cpp:165] Memory required for data: 2271642388
I0223 12:02:53.452462 29804 layer_factory.hpp:77] Creating layer drop7
I0223 12:02:53.452471 29804 net.cpp:100] Creating Layer drop7
I0223 12:02:53.452476 29804 net.cpp:434] drop7 <- fc7
I0223 12:02:53.452482 29804 net.cpp:395] drop7 -> fc7 (in-place)
I0223 12:02:53.452533 29804 net.cpp:150] Setting up drop7
I0223 12:02:53.452540 29804 net.cpp:157] Top shape: 1 4096 (4096)
I0223 12:02:53.452543 29804 net.cpp:165] Memory required for data: 2271658772
I0223 12:02:53.452546 29804 layer_factory.hpp:77] Creating layer fc7_drop7_0_split
I0223 12:02:53.452555 29804 net.cpp:100] Creating Layer fc7_drop7_0_split
I0223 12:02:53.452559 29804 net.cpp:434] fc7_drop7_0_split <- fc7
I0223 12:02:53.452565 29804 net.cpp:408] fc7_drop7_0_split -> fc7_drop7_0_split_0
I0223 12:02:53.452574 29804 net.cpp:408] fc7_drop7_0_split -> fc7_drop7_0_split_1
I0223 12:02:53.452639 29804 net.cpp:150] Setting up fc7_drop7_0_split
I0223 12:02:53.452647 29804 net.cpp:157] Top shape: 1 4096 (4096)
I0223 12:02:53.452651 29804 net.cpp:157] Top shape: 1 4096 (4096)
I0223 12:02:53.452654 29804 net.cpp:165] Memory required for data: 2271691540
I0223 12:02:53.452658 29804 layer_factory.hpp:77] Creating layer full1_cls_score
I0223 12:02:53.452668 29804 net.cpp:100] Creating Layer full1_cls_score
I0223 12:02:53.452673 29804 net.cpp:434] full1_cls_score <- fc7_drop7_0_split_0
I0223 12:02:53.452682 29804 net.cpp:408] full1_cls_score -> cls_score
I0223 12:02:53.452968 29804 net.cpp:150] Setting up full1_cls_score
I0223 12:02:53.452977 29804 net.cpp:157] Top shape: 1 2 (2)
I0223 12:02:53.452980 29804 net.cpp:165] Memory required for data: 2271691548
I0223 12:02:53.452986 29804 net.cpp:493] Sharing parameters 'cls_score_w' owned by layer 'cls_score_readonly', param index 0
I0223 12:02:53.452992 29804 net.cpp:493] Sharing parameters 'cls_score_b' owned by layer 'cls_score_readonly', param index 1
I0223 12:02:53.452996 29804 layer_factory.hpp:77] Creating layer sjtuOhem_cg_bbox_pred
I0223 12:02:53.453006 29804 net.cpp:100] Creating Layer sjtuOhem_cg_bbox_pred
I0223 12:02:53.453009 29804 net.cpp:434] sjtuOhem_cg_bbox_pred <- fc7_drop7_0_split_1
I0223 12:02:53.453019 29804 net.cpp:408] sjtuOhem_cg_bbox_pred -> bbox_pred
I0223 12:02:53.453575 29804 net.cpp:150] Setting up sjtuOhem_cg_bbox_pred
I0223 12:02:53.453584 29804 net.cpp:157] Top shape: 1 8 (8)
I0223 12:02:53.453588 29804 net.cpp:165] Memory required for data: 2271691580
I0223 12:02:53.453593 29804 net.cpp:493] Sharing parameters 'bbox_pred_w' owned by layer 'bbox_pred_readonly', param index 0
I0223 12:02:53.453598 29804 net.cpp:493] Sharing parameters 'bbox_pred_b' owned by layer 'bbox_pred_readonly', param index 1
I0223 12:02:53.453603 29804 layer_factory.hpp:77] Creating layer loss_cls
…
