…
weight_decay: 0.0005
stepsize: 50000
snapshot: 0
snapshot_prefix: "zf_faster_rcnn"
average_loss: 100
iter_size: 2
I0222 22:45:44.076990 26202 solver.cpp:81] Creating training net from train_net file: models/pvanet/full1/original.pt
I0222 22:45:44.082155 26202 net.cpp:58] Initializing net from parameters: 
name: "PVANET"
state {
  phase: TRAIN
}
layer {
  name: "input-data"
  type: "Python"
  top: "data"
  top: "im_info"
  top: "gt_boxes"
  python_param {
    module: "roi_data_layer.layer"
    layer: "RoIDataLayer"
    param_str: "\'num_classes\': 2"
  }
}
layer {
  name: "conv1_1/conv"
  type: "Convolution"
  bottom: "data"
  top: "conv1_1/conv"
  param {
    lr_mult: 0.1
    decay_mult: 0.1
  }
  convolution_param {
    num_output: 16
    bias_term: false
    weight_filler {
      type: "xavier"
    }
    pad_h: 3
    pad_w: 3
    kernel_h: 7
    kernel_w: 7
    stride_h: 2
    stride_w: 2
  }
}
layer {
  name: "conv1_1/bn"
  type: "BatchNorm"
  bottom: "conv1_1/conv"
  top: "conv1_1/conv"
  param {
    lr_mult: 0
    decay_mult: 0
  }
  param {
    lr_mult: 0
    decay_mult: 0
  }
  param {
    lr_mult: 0
    decay_mult: 0
  }
  batch_norm_param {
    use_global_stats: true
  }
}
layer {
  name: "conv1_1/neg"
  type: "Power"
  bottom: "conv1_1/conv"
  top: "conv1_1/neg"
  power_param {
    power: 1
    scale: -1
    shift: 0
  }
}
layer {
  name: "conv1_1/concat"
  type: "Concat"
  bottom: "conv1_1/conv"
  bottom: "conv1_1/neg"
  top: "conv1_1"
}
layer {
  name: "conv1_1/scale"
  type: "Scale"
  bottom: "conv1_1"
  top: "conv1_1"
  param {
    lr_mult: 0.1
    decay_mult: 0
  }
  param {
    lr_mult: 0.2
    decay_mult: 0
  }
  scale_param {
    bias_term: true
  }
}
layer {
  name: "conv1_1/relu"
  type: "ReLU"
  bottom: "conv1_1"
  top: "conv1_1"
}
layer {
  name: "pool1"
  type: "Pooling"
  bottom: "conv1_1"
  top: "pool1"
  pooling_param {
    pool: MAX
    kernel_size: 3
    stride: 2
    pad: 0
  }
}
layer {
  name: "conv2_1/1/conv"
  type: "Convolution"
  bottom: "pool1"
  top: "conv2_1/1"
  param {
    lr_mult: 0.1
    decay_mult: 0.1
  }
  convolution_param {
    num_output: 24
    bias_term: false
    weight_filler {
      type: "xavier"
    }
    pad_h: 0
    pad_w: 0
    kernel_h: 1
    kernel_w: 1
    stride_h: 1
    stride_w: 1
  }
}
layer {
  name: "conv2_1/1/bn"
  type: "BatchNorm"
  bottom: "conv2_1/1"
  top: "conv2_1/1"
  param {
    lr_mult: 0
    decay_mult: 0
  }
  param {
    lr_mult: 0
    decay_mult: 0
  }
  param {
    lr_mult: 0
    decay_mult: 0
  }
  batch_norm_param {
    use_global_stats: true
  }
}
layer {
  name: "conv2_1/1/bn_scale"
  type: "Scale"
  bottom: "conv2_1/1"
  top: "conv2_1/1"
  param {
    lr_mult: 0.1
    decay_mult: 0
  }
  param {
    lr_mult: 0.1
    decay_mult: 0
  }
  scale_param {
    bias_term: true
  }
}
layer {
  name: "conv2_1/1/relu"
  type: "ReLU"
  bottom: "conv2_1/1"
  top: "conv2_1/1"
}
layer {
  name: "conv2_1/2/conv"
  type: "Convolution"
  bottom: "conv2_1/1"
  top: "conv2_1/2/conv"
  param {
    lr_mult: 0.1
    decay_mult: 0.1
  }
  convolution_param {
    num_output: 24
    bias_term: false
    weight_filler {
      type: "xavier"
    }
    pad_h: 1
    pad_w: 1
    kernel_h: 3
    kernel_w: 3
    stride_h: 1
    stride_w: 1
  }
}
layer {
  name: "conv2_1/2/bn"
  type: "BatchNorm"
  bottom: "conv2_1/2/conv"
  top: "conv2_1/2/conv"
  param {
    lr_mult: 0
    decay_mult: 0
  }
  param {
    lr_mult: 0
    decay_mult: 0
  }
  param {
    lr_mult: 0
    decay_mult: 0
  }
  batch_norm_param {
    use_global_stats: true
  }
}
layer {
  name: "conv2_1/2/neg"
  type: "Power"
  bottom: "conv2_1/2/conv"
  top: "conv2_1/2/neg"
  power_param {
    power: 1
    scale: -1
    shift: 0
  }
}
layer {
  name: "conv2_1/2/concat"
  type: "Concat"
  bottom: "conv2_1/2/conv"
  bottom: "conv2_1/2/neg"
  top: "conv2_1/2"
}
layer {
  name: "conv2_1/2/scale"
  type: "Scale"
  bottom: "conv2_1/2"
  top: "conv2_1/2"
  param {
    lr_mult: 0.1
    decay_mult: 0
  }
  param {
    lr_mult: 0.2
    decay_mult: 0
  }
  scale_param {
    bias_term: true
  }
}
layer {
  name: "conv2_1/2/relu"
  type: "ReLU"
  bottom: "conv2_1/2"
  top: "conv2_1/2"
}
layer {
  name: "conv2_1/3/conv"
  type: "Convolution"
  bottom: "conv2_1/2"
  top: "conv2_1/3"
  param {
    lr_mult: 0.1
    decay_mult: 0.1
  }
  convolution_param {
    num_output: 64
    bias_term: false
    weight_filler {
      type: "xavier"
    }
    pad_h: 0
    pad_w: 0
    kernel_h: 1
    kernel_w: 1
    stride_h: 1
    stride_w: 1
  }
}
layer {
  name: "conv2_1/3/bn"
  type: "BatchNorm"
  bottom: "conv2_1/3"
  top: "conv2_1/3"
  param {
    lr_mult: 0
    decay_mult: 0
  }
  param {
    lr_mult: 0
    decay_mult: 0
  }
  param {
    lr_mult: 0
    decay_mult: 0
  }
  batch_norm_param {
    use_global_stats: true
  }
}
layer {
  name: "conv2_1/3/bn_scale"
  type: "Scale"
  bottom: "conv2_1/3"
  top: "conv2_1/3"
  param {
    lr_mult: 0.1
    decay_mult: 0
  }
  param {
    lr_mult: 0.1
    decay_mult: 0
  }
  scale_param {
    bias_term: true
  }
}
layer {
  name: "conv2_1/proj"
  type: "Convolution"
  bottom: "pool1"
  top: "conv2_1/proj"
  param {
    lr_mult: 0.1
    decay_mult: 0.1
  }
  param {
    lr_mult: 0.2
    decay_mult: 0
  }
  convolution_param {
    num_output: 64
    weight_filler {
      type: "xavier"
    }
    bias_filler {
      type: "constant"
      value: 0.1
    }
    pad_h: 0
    pad_w: 0
    kernel_h: 1
    kernel_w: 1
    stride_h: 1
    stride_w: 1
  }
}
layer {
  name: "conv2_1/proj_bn"
  type: "BatchNorm"
  bottom: "conv2_1/proj"
  top: "conv2_1/proj"
  param {
    lr_mult: 0
    decay_mult: 0
  }
  param {
    lr_mult: 0
    decay_mult: 0
  }
  param {
    lr_mult: 0
    decay_mult: 0
  }
  batch_norm_param {
    use_global_stats: true
  }
}
layer {
  name: "conv2_1/proj_bn_scale"
  type: "Scale"
  bottom: "conv2_1/proj"
  top: "conv2_1/proj"
  param {
    lr_mult: 0.1
    decay_mult: 0
  }
  param {
    lr_mult: 0.1
    decay_mult: 0
  }
  scale_param {
    bias_term: true
  }
}
layer {
  name: "conv2_1"
  type: "Eltwise"
  bottom: "conv2_1/3"
  bottom: "conv2_1/proj"
  top: "conv2_1"
  eltwise_param {
    operation: SUM
    coeff: 1
    coeff: 1
  }
}
layer {
  name: "conv2_2/1/conv"
  type: "Convolution"
  bottom: "conv2_1"
  top: "conv2_2/1"
  param {
    lr_mult: 0.1
    decay_mult: 0.1
  }
  convolution_param {
    num_output: 24
    bias_term: false
    weight_filler {
      type: "xavier"
    }
    pad_h: 0
    pad_w: 0
    kernel_h: 1
    kernel_w: 1
    stride_h: 1
    stride_w: 1
  }
}
layer {
  name: "conv2_2/1/bn"
  type: "BatchNorm"
  bottom: "conv2_2/1"
  top: "conv2_2/1"
  param {
    lr_mult: 0
    decay_mult: 0
  }
  param {
    lr_mult: 0
    decay_mult: 0
  }
  param {
    lr_mult: 0
    decay_mult: 0
  }
  batch_norm_param {
    use_global_stats: true
  }
}
layer {
  name: "conv2_2/1/bn_scale"
  type: "Scale"
  bottom: "conv2_2/1"
  top: "conv2_2/1"
  param {
    lr_mult: 0.1
    decay_mult: 0
  }
  param {
    lr_mult: 0.1
    decay_mult: 0
  }
  scale_param {
    bias_term: true
  }
}
layer {
  name: "conv2_2/1/relu"
  type: "ReLU"
  bottom: "conv2_2/1"
  top: "conv2_2/1"
}
layer {
  name: "conv2_2/2/conv"
  type: "Convolution"
  bottom: "conv2_2/1"
  top: "conv2_2/2/conv"
  param {
    lr_mult: 0.1
    decay_mult: 0.1
  }
  convolution_param {
    num_output: 24
    bias_term: false
    weight_filler {
      type: "xavier"
    }
    pad_h: 1
    pad_w: 1
    kernel_h: 3
    kernel_w: 3
    stride_h: 1
    stride_w: 1
  }
}
layer {
  name: "conv2_2/2/bn"
  type: "BatchNorm"
  bottom: "conv2_2/2/conv"
  top: "conv2_2/2/conv"
  param {
    lr_mult: 0
    decay_mult: 0
  }
  param {
    lr_mult: 0
    decay_mult: 0
  }
  param {
    lr_mult: 0
    decay_mult: 0
  }
  batch_norm_param {
    use_global_stats: true
  }
}
layer {
  name: "conv2_2/2/neg"
  type: "Power"
  bottom: "conv2_2/2/conv"
  top: "conv2_2/2/neg"
  power_param {
    power: 1
    scale: -1
    shift: 0
  }
}
layer {
  name: "conv2_2/2/concat"
  type: "Concat"
  bottom: "conv2_2/2/conv"
  bottom: "conv2_2/2/neg"
  top: "conv2_2/2"
}
layer {
  name: "conv2_2/2/scale"
  type: "Scale"
  bottom: "conv2_2/2"
  top: "conv2_2/2"
  param {
    lr_mult: 0.1
    decay_mult: 0
  }
  param {
    lr_mult: 0.2
    decay_mult: 0
  }
  scale_param {
    bias_term: true
  }
}
layer {
  name: "conv2_2/2/relu"
  type: "ReLU"
  bottom: "conv2_2/2"
  top: "conv2_2/2"
}
layer {
  name: "conv2_2/3/conv"
  type: "Convolution"
  bottom: "conv2_2/2"
  top: "conv2_2/3"
  param {
    lr_mult: 0.1
    decay_mult: 0.1
  }
  convolution_param {
    num_output: 64
    bias_term: false
    weight_filler {
      type: "xavier"
    }
    pad_h: 0
    pad_w: 0
    kernel_h: 1
    kernel_w: 1
    stride_h: 1
    stride_w: 1
  }
}
layer {
  name: "conv2_2/3/bn"
  type: "BatchNorm"
  bottom: "conv2_2/3"
  top: "conv2_2/3"
  param {
    lr_mult: 0
    decay_mult: 0
  }
  param {
    lr_mult: 0
    decay_mult: 0
  }
  param {
    lr_mult: 0
    decay_mult: 0
  }
  batch_norm_param {
    use_global_stats: true
  }
}
layer {
  name: "conv2_2/3/bn_scale"
  type: "Scale"
  bottom: "conv2_2/3"
  top: "conv2_2/3"
  param {
    lr_mult: 0.1
    decay_mult: 0
  }
  param {
    lr_mult: 0.1
    decay_mult: 0
  }
  scale_param {
    bias_term: true
  }
}
layer {
  name: "conv2_2/input"
  type: "Power"
  bottom: "conv2_1"
  top: "conv2_2/input"
  power_param {
    power: 1
    scale: 1
    shift: 0
  }
}
layer {
  name: "conv2_2"
  type: "Eltwise"
  bottom: "conv2_2/3"
  bottom: "conv2_2/input"
  top: "conv2_2"
  eltwise_param {
    operation: SUM
    coeff: 1
    coeff: 1
  }
}
layer {
  name: "conv2_3/1/conv"
  type: "Convolution"
  bottom: "conv2_2"
  top: "conv2_3/1"
  param {
    lr_mult: 0.1
    decay_mult: 0.1
  }
  convolution_param {
    num_output: 24
    bias_term: false
    weight_filler {
      type: "xavier"
    }
    pad_h: 0
    pad_w: 0
    kernel_h: 1
    kernel_w: 1
    stride_h: 1
    stride_w: 1
  }
}
layer {
  name: "conv2_3/1/bn"
  type: "BatchNorm"
  bottom: "conv2_3/1"
  top: "conv2_3/1"
  param {
    lr_mult: 0
    decay_mult: 0
  }
  param {
    lr_mult: 0
    decay_mult: 0
  }
  param {
    lr_mult: 0
    decay_mult: 0
  }
  batch_norm_param {
    use_global_stats: true
  }
}
layer {
  name: "conv2_3/1/bn_scale"
  type: "Scale"
  bottom: "conv2_3/1"
  top: "conv2_3/1"
  param {
    lr_mult: 0.1
    decay_mult: 0
  }
  param {
    lr_mult: 0.1
    decay_mult: 0
  }
  scale_param {
    bias_term: true
  }
}
layer {
  name: "conv2_3/1/relu"
  type: "ReLU"
  bottom: "conv2_3/1"
  top: "conv2_3/1"
}
layer {
  name: "conv2_3/2/conv"
  type: "Convolution"
  bottom: "conv2_3/1"
  top: "conv2_3/2/conv"
  param {
    lr_mult: 0.1
    decay_mult: 0.1
  }
  convolution_param {
    num_output: 24
    bias_term: false
    weight_filler {
      type: "xavier"
    }
    pad_h: 1
    pad_w: 1
    kernel_h: 3
    kernel_w: 3
    stride_h: 1
    stride_w: 1
  }
}
layer {
  name: "conv2_3/2/bn"
  type: "BatchNorm"
  bottom: "conv2_3/2/conv"
  top: "conv2_3/2/conv"
  param {
    lr_mult: 0
    decay_mult: 0
  }
  param {
    lr_mult: 0
    decay_mult: 0
  }
  param {
    lr_mult: 0
    decay_mult: 0
  }
  batch_norm_param {
    use_global_stats: true
  }
}
layer {
  name: "conv2_3/2/neg"
  type: "Power"
  bottom: "conv2_3/2/conv"
  top: "conv2_3/2/neg"
  power_param {
    power: 1
    scale: -1
    shift: 0
  }
}
layer {
  name: "conv2_3/2/concat"
  type: "Concat"
  bottom: "conv2_3/2/conv"
  bottom: "conv2_3/2/neg"
  top: "conv2_3/2"
}
layer {
  name: "conv2_3/2/scale"
  type: "Scale"
  bottom: "conv2_3/2"
  top: "conv2_3/2"
  param {
    lr_mult: 0.1
    decay_mult: 0
  }
  param {
    lr_mult: 0.2
    decay_mult: 0
  }
  scale_param {
    bias_term: true
  }
}
layer {
  name: "conv2_3/2/relu"
  type: "ReLU"
  bottom: "conv2_3/2"
  top: "conv2_3/2"
}
layer {
  name: "conv2_3/3/conv"
  type: "Convolution"
  bottom: "conv2_3/2"
  top: "conv2_3/3"
  param {
    lr_mult: 0.1
    decay_mult: 0.1
  }
  convolution_param {
    num_output: 64
    bias_term: false
    weight_filler {
      type: "xavier"
    }
    pad_h: 0
    pad_w: 0
    kernel_h: 1
    kernel_w: 1
    stride_h: 1
    stride_w: 1
  }
}
layer {
  name: "conv2_3/3/bn"
  type: "BatchNorm"
  bottom: "conv2_3/3"
  top: "conv2_3/3"
  param {
    lr_mult: 0
    decay_mult: 0
  }
  param {
    lr_mult: 0
    decay_mult: 0
  }
  param {
    lr_mult: 0
    decay_mult: 0
  }
  batch_norm_param {
    use_global_stats: true
  }
}
layer {
  name: "conv2_3/3/bn_scale"
  type: "Scale"
  bottom: "conv2_3/3"
  top: "conv2_3/3"
  param {
    lr_mult: 0.1
    decay_mult: 0
  }
  param {
    lr_mult: 0.1
    decay_mult: 0
  }
  scale_param {
    bias_term: true
  }
}
layer {
  name: "conv2_3/input"
  type: "Power"
  bottom: "conv2_2"
  top: "conv2_3/input"
  power_param {
    power: 1
    scale: 1
    shift: 0
  }
}
layer {
  name: "conv2_3"
  type: "Eltwise"
  bottom: "conv2_3/3"
  bottom: "conv2_3/input"
  top: "conv2_3"
  eltwise_param {
    operation: SUM
    coeff: 1
    coeff: 1
  }
}
layer {
  name: "conv3_1/1/conv"
  type: "Convolution"
  bottom: "conv2_3"
  top: "conv3_1/1"
  param {
    lr_mult: 0.1
    decay_mult: 0.1
  }
  convolution_param {
    num_output: 48
    bias_term: false
    weight_filler {
      type: "xavier"
    }
    pad_h: 0
    pad_w: 0
    kernel_h: 1
    kernel_w: 1
    stride_h: 2
    stride_w: 2
  }
}
layer {
  name: "conv3_1/1/bn"
  type: "BatchNorm"
  bottom: "conv3_1/1"
  top: "conv3_1/1"
  param {
    lr_mult: 0
    decay_mult: 0
  }
  param {
    lr_mult: 0
    decay_mult: 0
  }
  param {
    lr_mult: 0
    decay_mult: 0
  }
  batch_norm_param {
    use_global_stats: true
  }
}
layer {
  name: "conv3_1/1/bn_scale"
  type: "Scale"
  bottom: "conv3_1/1"
  top: "conv3_1/1"
  param {
    lr_mult: 0.1
    decay_mult: 0
  }
  param {
    lr_mult: 0.1
    decay_mult: 0
  }
  scale_param {
    bias_term: true
  }
}
layer {
  name: "conv3_1/1/relu"
  type: "ReLU"
  bottom: "conv3_1/1"
  top: "conv3_1/1"
}
layer {
  name: "conv3_1/2/conv"
  type: "Convolution"
  bottom: "conv3_1/1"
  top: "conv3_1/2/conv"
  param {
    lr_mult: 0.1
    decay_mult: 0.1
  }
  convolution_param {
    num_output: 48
    bias_term: false
    weight_filler {
      type: "xavier"
    }
    pad_h: 1
    pad_w: 1
    kernel_h: 3
    kernel_w: 3
    stride_h: 1
    stride_w: 1
  }
}
layer {
  name: "conv3_1/2/bn"
  type: "BatchNorm"
  bottom: "conv3_1/2/conv"
  top: "conv3_1/2/conv"
  param {
    lr_mult: 0
    decay_mult: 0
  }
  param {
    lr_mult: 0
    decay_mult: 0
  }
  param {
    lr_mult: 0
    decay_mult: 0
  }
  batch_norm_param {
    use_global_stats: true
  }
}
layer {
  name: "conv3_1/2/neg"
  type: "Power"
  bottom: "conv3_1/2/conv"
  top: "conv3_1/2/neg"
  power_param {
    power: 1
    scale: -1
    shift: 0
  }
}
layer {
  name: "conv3_1/2/concat"
  type: "Concat"
  bottom: "conv3_1/2/conv"
  bottom: "conv3_1/2/neg"
  top: "conv3_1/2"
}
layer {
  name: "conv3_1/2/scale"
  type: "Scale"
  bottom: "conv3_1/2"
  top: "conv3_1/2"
  param {
    lr_mult: 0.1
    decay_mult: 0
  }
  param {
    lr_mult: 0.2
    decay_mult: 0
  }
  scale_param {
    bias_term: true
  }
}
layer {
  name: "conv3_1/2/relu"
  type: "ReLU"
  bottom: "conv3_1/2"
  top: "conv3_1/2"
}
layer {
  name: "conv3_1/3/conv"
  type: "Convolution"
  bottom: "conv3_1/2"
  top: "conv3_1/3"
  param {
    lr_mult: 0.1
    decay_mult: 0.1
  }
  convolution_param {
    num_output: 128
    bias_term: false
    weight_filler {
      type: "xavier"
    }
    pad_h: 0
    pad_w: 0
    kernel_h: 1
    kernel_w: 1
    stride_h: 1
    stride_w: 1
  }
}
layer {
  name: "conv3_1/3/bn"
  type: "BatchNorm"
  bottom: "conv3_1/3"
  top: "conv3_1/3"
  param {
    lr_mult: 0
    decay_mult: 0
  }
  param {
    lr_mult: 0
    decay_mult: 0
  }
  param {
    lr_mult: 0
    decay_mult: 0
  }
  batch_norm_param {
    use_global_stats: true
  }
}
layer {
  name: "conv3_1/3/bn_scale"
  type: "Scale"
  bottom: "conv3_1/3"
  top: "conv3_1/3"
  param {
    lr_mult: 0.1
    decay_mult: 0
  }
  param {
    lr_mult: 0.1
    decay_mult: 0
  }
  scale_param {
    bias_term: true
  }
}
layer {
  name: "conv3_1/proj"
  type: "Convolution"
  bottom: "conv2_3"
  top: "conv3_1/proj"
  param {
    lr_mult: 0.1
    decay_mult: 0.1
  }
  param {
    lr_mult: 0.2
    decay_mult: 0
  }
  convolution_param {
    num_output: 128
    weight_filler {
      type: "xavier"
    }
    bias_filler {
      type: "constant"
      value: 0.1
    }
    pad_h: 0
    pad_w: 0
    kernel_h: 1
    kernel_w: 1
    stride_h: 2
    stride_w: 2
  }
}
layer {
  name: "conv3_1/proj_bn"
  type: "BatchNorm"
  bottom: "conv3_1/proj"
  top: "conv3_1/proj"
  param {
    lr_mult: 0
    decay_mult: 0
  }
  param {
    lr_mult: 0
    decay_mult: 0
  }
  param {
    lr_mult: 0
    decay_mult: 0
  }
  batch_norm_param {
    use_global_stats: true
  }
}
layer {
  name: "conv3_1/proj_bn_scale"
  type: "Scale"
  bottom: "conv3_1/proj"
  top: "conv3_1/proj"
  param {
    lr_mult: 0.1
    decay_mult: 0
  }
  param {
    lr_mult: 0.1
    decay_mult: 0
  }
  scale_param {
    bias_term: true
  }
}
layer {
  name: "conv3_1"
  type: "Eltwise"
  bottom: "conv3_1/3"
  bottom: "conv3_1/proj"
  top: "conv3_1"
  eltwise_param {
    operation: SUM
    coeff: 1
    coeff: 1
  }
}
layer {
  name: "conv3_2/1/conv"
  type: "Convolution"
  bottom: "conv3_1"
  top: "conv3_2/1"
  param {
    lr_mult: 0.1
    decay_mult: 0.1
  }
  convolution_param {
    num_output: 48
    bias_term: false
    weight_filler {
      type: "xavier"
    }
    pad_h: 0
    pad_w: 0
    kernel_h: 1
    kernel_w: 1
    stride_h: 1
    stride_w: 1
  }
}
layer {
  name: "conv3_2/1/bn"
  type: "BatchNorm"
  bottom: "conv3_2/1"
  top: "conv3_2/1"
  param {
    lr_mult: 0
    decay_mult: 0
  }
  param {
    lr_mult: 0
    decay_mult: 0
  }
  param {
    lr_mult: 0
    decay_mult: 0
  }
  batch_norm_param {
    use_global_stats: true
  }
}
layer {
  name: "conv3_2/1/bn_scale"
  type: "Scale"
  bottom: "conv3_2/1"
  top: "conv3_2/1"
  param {
    lr_mult: 0.1
    decay_mult: 0
  }
  param {
    lr_mult: 0.1
    decay_mult: 0
  }
  scale_param {
    bias_term: true
  }
}
layer {
  name: "conv3_2/1/relu"
  type: "ReLU"
  bottom: "conv3_2/1"
  top: "conv3_2/1"
}
layer {
  name: "conv3_2/2/conv"
  type: "Convolution"
  bottom: "conv3_2/1"
  top: "conv3_2/2/conv"
  param {
    lr_mult: 0.1
    decay_mult: 0.1
  }
  convolution_param {
    num_output: 48
    bias_term: false
    weight_filler {
      type: "xavier"
    }
    pad_h: 1
    pad_w: 1
    kernel_h: 3
    kernel_w: 3
    stride_h: 1
    stride_w: 1
  }
}
layer {
  name: "conv3_2/2/bn"
  type: "BatchNorm"
  bottom: "conv3_2/2/conv"
  top: "conv3_2/2/conv"
  param {
    lr_mult: 0
    decay_mult: 0
  }
  param {
    lr_mult: 0
    decay_mult: 0
  }
  param {
    lr_mult: 0
    decay_mult: 0
  }
  batch_norm_param {
    use_global_stats: true
  }
}
layer {
  name: "conv3_2/2/neg"
  type: "Power"
  bottom: "conv3_2/2/conv"
  top: "conv3_2/2/neg"
  power_param {
    power: 1
    scale: -1
    shift: 0
  }
}
layer {
  name: "conv3_2/2/concat"
  type: "Concat"
  bottom: "conv3_2/2/conv"
  bottom: "conv3_2/2/neg"
  top: "conv3_2/2"
}
layer {
  name: "conv3_2/2/scale"
  type: "Scale"
  bottom: "conv3_2/2"
  top: "conv3_2/2"
  param {
    lr_mult: 0.1
    decay_mult: 0
  }
  param {
    lr_mult: 0.2
    decay_mult: 0
  }
  scale_param {
    bias_term: true
  }
}
layer {
  name: "conv3_2/2/relu"
  type: "ReLU"
  bottom: "conv3_2/2"
  top: "conv3_2/2"
}
layer {
  name: "conv3_2/3/conv"
  type: "Convolution"
  bottom: "conv3_2/2"
  top: "conv3_2/3"
  param {
    lr_mult: 0.1
    decay_mult: 0.1
  }
  convolution_param {
    num_output: 128
    bias_term: false
    weight_filler {
      type: "xavier"
    }
    pad_h: 0
    pad_w: 0
    kernel_h: 1
    kernel_w: 1
    stride_h: 1
    stride_w: 1
  }
}
layer {
  name: "conv3_2/3/bn"
  type: "BatchNorm"
  bottom: "conv3_2/3"
  top: "conv3_2/3"
  param {
    lr_mult: 0
    decay_mult: 0
  }
  param {
    lr_mult: 0
    decay_mult: 0
  }
  param {
    lr_mult: 0
    decay_mult: 0
  }
  batch_norm_param {
    use_global_stats: true
  }
}
layer {
  name: "conv3_2/3/bn_scale"
  type: "Scale"
  bottom: "conv3_2/3"
  top: "conv3_2/3"
  param {
    lr_mult: 0.1
    decay_mult: 0
  }
  param {
    lr_mult: 0.1
    decay_mult: 0
  }
  scale_param {
    bias_term: true
  }
}
layer {
  name: "conv3_2/input"
  type: "Power"
  bottom: "conv3_1"
  top: "conv3_2/input"
  power_param {
    power: 1
    scale: 1
    shift: 0
  }
}
layer {
  name: "conv3_2"
  type: "Eltwise"
  bottom: "conv3_2/3"
  bottom: "conv3_2/input"
  top: "conv3_2"
  eltwise_param {
    operation: SUM
    coeff: 1
    coeff: 1
  }
}
layer {
  name: "conv3_3/1/conv"
  type: "Convolution"
  bottom: "conv3_2"
  top: "conv3_3/1"
  param {
    lr_mult: 0.1
    decay_mult: 0.1
  }
  convolution_param {
    num_output: 48
    bias_term: false
    weight_filler {
      type: "xavier"
    }
    pad_h: 0
    pad_w: 0
    kernel_h: 1
    kernel_w: 1
    stride_h: 1
    stride_w: 1
  }
}
layer {
  name: "conv3_3/1/bn"
  type: "BatchNorm"
  bottom: "conv3_3/1"
  top: "conv3_3/1"
  param {
    lr_mult: 0
    decay_mult: 0
  }
  param {
    lr_mult: 0
    decay_mult: 0
  }
  param {
    lr_mult: 0
    decay_mult: 0
  }
  batch_norm_param {
    use_global_stats: true
  }
}
layer {
  name: "conv3_3/1/bn_scale"
  type: "Scale"
  bottom: "conv3_3/1"
  top: "conv3_3/1"
  param {
    lr_mult: 0.1
    decay_mult: 0
  }
  param {
    lr_mult: 0.1
    decay_mult: 0
  }
  scale_param {
    bias_term: true
  }
}
layer {
  name: "conv3_3/1/relu"
  type: "ReLU"
  bottom: "conv3_3/1"
  top: "conv3_3/1"
}
layer {
  name: "conv3_3/2/conv"
  type: "Convolution"
  bottom: "conv3_3/1"
  top: "conv3_3/2/conv"
  param {
    lr_mult: 0.1
    decay_mult: 0.1
  }
  convolution_param {
    num_output: 48
    bias_term: false
    weight_filler {
      type: "xavier"
    }
    pad_h: 1
    pad_w: 1
    kernel_h: 3
    kernel_w: 3
    stride_h: 1
    stride_w: 1
  }
}
layer {
  name: "conv3_3/2/bn"
  type: "BatchNorm"
  bottom: "conv3_3/2/conv"
  top: "conv3_3/2/conv"
  param {
    lr_mult: 0
    decay_mult: 0
  }
  param {
    lr_mult: 0
    decay_mult: 0
  }
  param {
    lr_mult: 0
    decay_mult: 0
  }
  batch_norm_param {
    use_global_stats: true
  }
}
layer {
  name: "conv3_3/2/neg"
  type: "Power"
  bottom: "conv3_3/2/conv"
  top: "conv3_3/2/neg"
  power_param {
    power: 1
    scale: -1
    shift: 0
  }
}
layer {
  name: "conv3_3/2/concat"
  type: "Concat"
  bottom: "conv3_3/2/conv"
  bottom: "conv3_3/2/neg"
  top: "conv3_3/2"
}
layer {
  name: "conv3_3/2/scale"
  type: "Scale"
  bottom: "conv3_3/2"
  top: "conv3_3/2"
  param {
    lr_mult: 0.1
    decay_mult: 0
  }
  param {
    lr_mult: 0.2
    decay_mult: 0
  }
  scale_param {
    bias_term: true
  }
}
layer {
  name: "conv3_3/2/relu"
  type: "ReLU"
  bottom: "conv3_3/2"
  top: "conv3_3/2"
}
layer {
  name: "conv3_3/3/conv"
  type: "Convolution"
  bottom: "conv3_3/2"
  top: "conv3_3/3"
  param {
    lr_mult: 0.1
    decay_mult: 0.1
  }
  convolution_param {
    num_output: 128
    bias_term: false
    weight_filler {
      type: "xavier"
    }
    pad_h: 0
    pad_w: 0
    kernel_h: 1
    kernel_w: 1
    stride_h: 1
    stride_w: 1
  }
}
layer {
  name: "conv3_3/3/bn"
  type: "BatchNorm"
  bottom: "conv3_3/3"
  top: "conv3_3/3"
  param {
    lr_mult: 0
    decay_mult: 0
  }
  param {
    lr_mult: 0
    decay_mult: 0
  }
  param {
    lr_mult: 0
    decay_mult: 0
  }
  batch_norm_param {
    use_global_stats: true
  }
}
layer {
  name: "conv3_3/3/bn_scale"
  type: "Scale"
  bottom: "conv3_3/3"
  top: "conv3_3/3"
  param {
    lr_mult: 0.1
    decay_mult: 0
  }
  param {
    lr_mult: 0.1
    decay_mult: 0
  }
  scale_param {
    bias_term: true
  }
}
layer {
  name: "conv3_3/input"
  type: "Power"
  bottom: "conv3_2"
  top: "conv3_3/input"
  power_param {
    power: 1
    scale: 1
    shift: 0
  }
}
layer {
  name: "conv3_3"
  type: "Eltwise"
  bottom: "conv3_3/3"
  bottom: "conv3_3/input"
  top: "conv3_3"
  eltwise_param {
    operation: SUM
    coeff: 1
    coeff: 1
  }
}
layer {
  name: "conv3_4/1/conv"
  type: "Convolution"
  bottom: "conv3_3"
  top: "conv3_4/1"
  param {
    lr_mult: 0.1
    decay_mult: 0.1
  }
  convolution_param {
    num_output: 48
    bias_term: false
    weight_filler {
      type: "xavier"
    }
    pad_h: 0
    pad_w: 0
    kernel_h: 1
    kernel_w: 1
    stride_h: 1
    stride_w: 1
  }
}
layer {
  name: "conv3_4/1/bn"
  type: "BatchNorm"
  bottom: "conv3_4/1"
  top: "conv3_4/1"
  param {
    lr_mult: 0
    decay_mult: 0
  }
  param {
    lr_mult: 0
    decay_mult: 0
  }
  param {
    lr_mult: 0
    decay_mult: 0
  }
  batch_norm_param {
    use_global_stats: true
  }
}
layer {
  name: "conv3_4/1/bn_scale"
  type: "Scale"
  bottom: "conv3_4/1"
  top: "conv3_4/1"
  param {
    lr_mult: 0.1
    decay_mult: 0
  }
  param {
    lr_mult: 0.1
    decay_mult: 0
  }
  scale_param {
    bias_term: true
  }
}
layer {
  name: "conv3_4/1/relu"
  type: "ReLU"
  bottom: "conv3_4/1"
  top: "conv3_4/1"
}
layer {
  name: "conv3_4/2/conv"
  type: "Convolution"
  bottom: "conv3_4/1"
  top: "conv3_4/2/conv"
  param {
    lr_mult: 0.1
    decay_mult: 0.1
  }
  convolution_param {
    num_output: 48
    bias_term: false
    weight_filler {
      type: "xavier"
    }
    pad_h: 1
    pad_w: 1
    kernel_h: 3
    kernel_w: 3
    stride_h: 1
    stride_w: 1
  }
}
layer {
  name: "conv3_4/2/bn"
  type: "BatchNorm"
  bottom: "conv3_4/2/conv"
  top: "conv3_4/2/conv"
  param {
    lr_mult: 0
    decay_mult: 0
  }
  param {
    lr_mult: 0
    decay_mult: 0
  }
  param {
    lr_mult: 0
    decay_mult: 0
  }
  batch_norm_param {
    use_global_stats: true
  }
}
layer {
  name: "conv3_4/2/neg"
  type: "Power"
  bottom: "conv3_4/2/conv"
  top: "conv3_4/2/neg"
  power_param {
    power: 1
    scale: -1
    shift: 0
  }
}
layer {
  name: "conv3_4/2/concat"
  type: "Concat"
  bottom: "conv3_4/2/conv"
  bottom: "conv3_4/2/neg"
  top: "conv3_4/2"
}
layer {
  name: "conv3_4/2/scale"
  type: "Scale"
  bottom: "conv3_4/2"
  top: "conv3_4/2"
  param {
    lr_mult: 0.1
    decay_mult: 0
  }
  param {
    lr_mult: 0.2
    decay_mult: 0
  }
  scale_param {
    bias_term: true
  }
}
layer {
  name: "conv3_4/2/relu"
  type: "ReLU"
  bottom: "conv3_4/2"
  top: "conv3_4/2"
}
layer {
  name: "conv3_4/3/conv"
  type: "Convolution"
  bottom: "conv3_4/2"
  top: "conv3_4/3"
  param {
    lr_mult: 0.1
    decay_mult: 0.1
  }
  convolution_param {
    num_output: 128
    bias_term: false
    weight_filler {
      type: "xavier"
    }
    pad_h: 0
    pad_w: 0
    kernel_h: 1
    kernel_w: 1
    stride_h: 1
    stride_w: 1
  }
}
layer {
  name: "conv3_4/3/bn"
  type: "BatchNorm"
  bottom: "conv3_4/3"
  top: "conv3_4/3"
  param {
    lr_mult: 0
    decay_mult: 0
  }
  param {
    lr_mult: 0
    decay_mult: 0
  }
  param {
    lr_mult: 0
    decay_mult: 0
  }
  batch_norm_param {
    use_global_stats: true
  }
}
layer {
  name: "conv3_4/3/bn_scale"
  type: "Scale"
  bottom: "conv3_4/3"
  top: "conv3_4/3"
  param {
    lr_mult: 0.1
    decay_mult: 0
  }
  param {
    lr_mult: 0.1
    decay_mult: 0
  }
  scale_param {
    bias_term: true
  }
}
layer {
  name: "conv3_4/input"
  type: "Power"
  bottom: "conv3_3"
  top: "conv3_4/input"
  power_param {
    power: 1
    scale: 1
    shift: 0
  }
}
layer {
  name: "conv3_4"
  type: "Eltwise"
  bottom: "conv3_4/3"
  bottom: "conv3_4/input"
  top: "conv3_4"
  eltwise_param {
    operation: SUM
    coeff: 1
    coeff: 1
  }
}
layer {
  name: "conv4_1/incep/0/conv"
  type: "Convolution"
  bottom: "conv3_4"
  top: "conv4_1/incep/0"
  param {
    lr_mult: 0.1
    decay_mult: 0.1
  }
  convolution_param {
    num_output: 64
    bias_term: false
    weight_filler {
      type: "xavier"
    }
    pad_h: 0
    pad_w: 0
    kernel_h: 1
    kernel_w: 1
    stride_h: 2
    stride_w: 2
  }
}
layer {
  name: "conv4_1/incep/0/bn"
  type: "BatchNorm"
  bottom: "conv4_1/incep/0"
  top: "conv4_1/incep/0"
  param {
    lr_mult: 0
    decay_mult: 0
  }
  param {
    lr_mult: 0
    decay_mult: 0
  }
  param {
    lr_mult: 0
    decay_mult: 0
  }
  batch_norm_param {
    use_global_stats: true
  }
}
layer {
  name: "conv4_1/incep/0/bn_scale"
  type: "Scale"
  bottom: "conv4_1/incep/0"
  top: "conv4_1/incep/0"
  param {
    lr_mult: 0.1
    decay_mult: 0
  }
  param {
    lr_mult: 0.1
    decay_mult: 0
  }
  scale_param {
    bias_term: true
  }
}
layer {
  name: "conv4_1/incep/0/relu"
  type: "ReLU"
  bottom: "conv4_1/incep/0"
  top: "conv4_1/incep/0"
}
layer {
  name: "conv4_1/incep/1_reduce/conv"
  type: "Convolution"
  bottom: "conv3_4"
  top: "conv4_1/incep/1_reduce"
  param {
    lr_mult: 0.1
    decay_mult: 0.1
  }
  convolution_param {
    num_output: 48
    bias_term: false
    weight_filler {
      type: "xavier"
    }
    pad_h: 0
    pad_w: 0
    kernel_h: 1
    kernel_w: 1
    stride_h: 2
    stride_w: 2
  }
}
layer {
  name: "conv4_1/incep/1_reduce/bn"
  type: "BatchNorm"
  bottom: "conv4_1/incep/1_reduce"
  top: "conv4_1/incep/1_reduce"
  param {
    lr_mult: 0
    decay_mult: 0
  }
  param {
    lr_mult: 0
    decay_mult: 0
  }
  param {
    lr_mult: 0
    decay_mult: 0
  }
  batch_norm_param {
    use_global_stats: true
  }
}
layer {
  name: "conv4_1/incep/1_reduce/bn_scale"
  type: "Scale"
  bottom: "conv4_1/incep/1_reduce"
  top: "conv4_1/incep/1_reduce"
  param {
    lr_mult: 0.1
    decay_mult: 0
  }
  param {
    lr_mult: 0.1
    decay_mult: 0
  }
  scale_param {
    bias_term: true
  }
}
layer {
  name: "conv4_1/incep/1_reduce/relu"
  type: "ReLU"
  bottom: "conv4_1/incep/1_reduce"
  top: "conv4_1/incep/1_reduce"
}
layer {
  name: "conv4_1/incep/1_0/conv"
  type: "Convolution"
  bottom: "conv4_1/incep/1_reduce"
  top: "conv4_1/incep/1_0"
  param {
    lr_mult: 0.1
    decay_mult: 0.1
  }
  convolution_param {
    num_output: 128
    bias_term: false
    weight_filler {
      type: "xavier"
    }
    pad_h: 1
    pad_w: 1
    kernel_h: 3
    kernel_w: 3
    stride_h: 1
    stride_w: 1
  }
}
layer {
  name: "conv4_1/incep/1_0/bn"
  type: "BatchNorm"
  bottom: "conv4_1/incep/1_0"
  top: "conv4_1/incep/1_0"
  param {
I0222 22:45:44.083658 26202 layer_factory.hpp:77] Creating layer input-data
I0222 22:45:44.092880 26202 net.cpp:100] Creating Layer input-data
I0222 22:45:44.092895 26202 net.cpp:408] input-data -> data
I0222 22:45:44.092906 26202 net.cpp:408] input-data -> im_info
I0222 22:45:44.092913 26202 net.cpp:408] input-data -> gt_boxes
I0222 22:45:44.105831 26202 net.cpp:150] Setting up input-data
I0222 22:45:44.105865 26202 net.cpp:157] Top shape: 1 3 864 1440 (3732480)
I0222 22:45:44.105870 26202 net.cpp:157] Top shape: 1 3 (3)
I0222 22:45:44.105875 26202 net.cpp:157] Top shape: 1 4 (4)
I0222 22:45:44.105877 26202 net.cpp:165] Memory required for data: 14929948
I0222 22:45:44.105883 26202 layer_factory.hpp:77] Creating layer data_input-data_0_split
I0222 22:45:44.105893 26202 net.cpp:100] Creating Layer data_input-data_0_split
I0222 22:45:44.105897 26202 net.cpp:434] data_input-data_0_split <- data
I0222 22:45:44.105907 26202 net.cpp:408] data_input-data_0_split -> data_input-data_0_split_0
I0222 22:45:44.105916 26202 net.cpp:408] data_input-data_0_split -> data_input-data_0_split_1
I0222 22:45:44.105952 26202 net.cpp:150] Setting up data_input-data_0_split
I0222 22:45:44.105957 26202 net.cpp:157] Top shape: 1 3 864 1440 (3732480)
I0222 22:45:44.105962 26202 net.cpp:157] Top shape: 1 3 864 1440 (3732480)
I0222 22:45:44.105965 26202 net.cpp:165] Memory required for data: 44789788
I0222 22:45:44.105969 26202 layer_factory.hpp:77] Creating layer im_info_input-data_1_split
I0222 22:45:44.105975 26202 net.cpp:100] Creating Layer im_info_input-data_1_split
I0222 22:45:44.105979 26202 net.cpp:434] im_info_input-data_1_split <- im_info
I0222 22:45:44.105988 26202 net.cpp:408] im_info_input-data_1_split -> im_info_input-data_1_split_0
I0222 22:45:44.105993 26202 net.cpp:408] im_info_input-data_1_split -> im_info_input-data_1_split_1
I0222 22:45:44.106021 26202 net.cpp:150] Setting up im_info_input-data_1_split
I0222 22:45:44.106027 26202 net.cpp:157] Top shape: 1 3 (3)
I0222 22:45:44.106031 26202 net.cpp:157] Top shape: 1 3 (3)
I0222 22:45:44.106034 26202 net.cpp:165] Memory required for data: 44789812
I0222 22:45:44.106037 26202 layer_factory.hpp:77] Creating layer gt_boxes_input-data_2_split
I0222 22:45:44.106042 26202 net.cpp:100] Creating Layer gt_boxes_input-data_2_split
I0222 22:45:44.106060 26202 net.cpp:434] gt_boxes_input-data_2_split <- gt_boxes
I0222 22:45:44.106066 26202 net.cpp:408] gt_boxes_input-data_2_split -> gt_boxes_input-data_2_split_0
I0222 22:45:44.106072 26202 net.cpp:408] gt_boxes_input-data_2_split -> gt_boxes_input-data_2_split_1
I0222 22:45:44.106103 26202 net.cpp:150] Setting up gt_boxes_input-data_2_split
I0222 22:45:44.106108 26202 net.cpp:157] Top shape: 1 4 (4)
I0222 22:45:44.106113 26202 net.cpp:157] Top shape: 1 4 (4)
I0222 22:45:44.106115 26202 net.cpp:165] Memory required for data: 44789844
I0222 22:45:44.106119 26202 layer_factory.hpp:77] Creating layer conv1_1/conv
I0222 22:45:44.106132 26202 net.cpp:100] Creating Layer conv1_1/conv
I0222 22:45:44.106135 26202 net.cpp:434] conv1_1/conv <- data_input-data_0_split_0
I0222 22:45:44.106142 26202 net.cpp:408] conv1_1/conv -> conv1_1/conv
I0222 22:45:44.284687 26202 net.cpp:150] Setting up conv1_1/conv
I0222 22:45:44.284735 26202 net.cpp:157] Top shape: 1 16 432 720 (4976640)
I0222 22:45:44.284739 26202 net.cpp:165] Memory required for data: 64696404
I0222 22:45:44.284754 26202 layer_factory.hpp:77] Creating layer conv1_1/bn
I0222 22:45:44.284767 26202 net.cpp:100] Creating Layer conv1_1/bn
I0222 22:45:44.284772 26202 net.cpp:434] conv1_1/bn <- conv1_1/conv
I0222 22:45:44.284780 26202 net.cpp:395] conv1_1/bn -> conv1_1/conv (in-place)
I0222 22:45:44.285763 26202 net.cpp:150] Setting up conv1_1/bn
I0222 22:45:44.285778 26202 net.cpp:157] Top shape: 1 16 432 720 (4976640)
I0222 22:45:44.285781 26202 net.cpp:165] Memory required for data: 84602964
I0222 22:45:44.285792 26202 layer_factory.hpp:77] Creating layer conv1_1/conv_conv1_1/bn_0_split
I0222 22:45:44.285799 26202 net.cpp:100] Creating Layer conv1_1/conv_conv1_1/bn_0_split
I0222 22:45:44.285804 26202 net.cpp:434] conv1_1/conv_conv1_1/bn_0_split <- conv1_1/conv
I0222 22:45:44.285809 26202 net.cpp:408] conv1_1/conv_conv1_1/bn_0_split -> conv1_1/conv_conv1_1/bn_0_split_0
I0222 22:45:44.285817 26202 net.cpp:408] conv1_1/conv_conv1_1/bn_0_split -> conv1_1/conv_conv1_1/bn_0_split_1
I0222 22:45:44.285851 26202 net.cpp:150] Setting up conv1_1/conv_conv1_1/bn_0_split
I0222 22:45:44.285856 26202 net.cpp:157] Top shape: 1 16 432 720 (4976640)
I0222 22:45:44.285861 26202 net.cpp:157] Top shape: 1 16 432 720 (4976640)
I0222 22:45:44.285863 26202 net.cpp:165] Memory required for data: 124416084
I0222 22:45:44.285867 26202 layer_factory.hpp:77] Creating layer conv1_1/neg
I0222 22:45:44.285873 26202 net.cpp:100] Creating Layer conv1_1/neg
I0222 22:45:44.285877 26202 net.cpp:434] conv1_1/neg <- conv1_1/conv_conv1_1/bn_0_split_0
I0222 22:45:44.285882 26202 net.cpp:408] conv1_1/neg -> conv1_1/neg
I0222 22:45:44.285902 26202 net.cpp:150] Setting up conv1_1/neg
I0222 22:45:44.285907 26202 net.cpp:157] Top shape: 1 16 432 720 (4976640)
I0222 22:45:44.285910 26202 net.cpp:165] Memory required for data: 144322644
I0222 22:45:44.285913 26202 layer_factory.hpp:77] Creating layer conv1_1/concat
I0222 22:45:44.285923 26202 net.cpp:100] Creating Layer conv1_1/concat
I0222 22:45:44.285925 26202 net.cpp:434] conv1_1/concat <- conv1_1/conv_conv1_1/bn_0_split_1
I0222 22:45:44.285930 26202 net.cpp:434] conv1_1/concat <- conv1_1/neg
I0222 22:45:44.285935 26202 net.cpp:408] conv1_1/concat -> conv1_1
I0222 22:45:44.285954 26202 net.cpp:150] Setting up conv1_1/concat
I0222 22:45:44.285959 26202 net.cpp:157] Top shape: 1 32 432 720 (9953280)
I0222 22:45:44.285964 26202 net.cpp:165] Memory required for data: 184135764
I0222 22:45:44.285966 26202 layer_factory.hpp:77] Creating layer conv1_1/scale
I0222 22:45:44.285974 26202 net.cpp:100] Creating Layer conv1_1/scale
I0222 22:45:44.285976 26202 net.cpp:434] conv1_1/scale <- conv1_1
I0222 22:45:44.285981 26202 net.cpp:395] conv1_1/scale -> conv1_1 (in-place)
I0222 22:45:44.286018 26202 layer_factory.hpp:77] Creating layer conv1_1/scale
I0222 22:45:44.287714 26202 net.cpp:150] Setting up conv1_1/scale
I0222 22:45:44.287727 26202 net.cpp:157] Top shape: 1 32 432 720 (9953280)
I0222 22:45:44.287731 26202 net.cpp:165] Memory required for data: 223948884
I0222 22:45:44.287751 26202 layer_factory.hpp:77] Creating layer conv1_1/relu
I0222 22:45:44.287760 26202 net.cpp:100] Creating Layer conv1_1/relu
I0222 22:45:44.287763 26202 net.cpp:434] conv1_1/relu <- conv1_1
I0222 22:45:44.287768 26202 net.cpp:395] conv1_1/relu -> conv1_1 (in-place)
I0222 22:45:44.288075 26202 net.cpp:150] Setting up conv1_1/relu
I0222 22:45:44.288086 26202 net.cpp:157] Top shape: 1 32 432 720 (9953280)
I0222 22:45:44.288089 26202 net.cpp:165] Memory required for data: 263762004
I0222 22:45:44.288094 26202 layer_factory.hpp:77] Creating layer pool1
I0222 22:45:44.288100 26202 net.cpp:100] Creating Layer pool1
I0222 22:45:44.288105 26202 net.cpp:434] pool1 <- conv1_1
I0222 22:45:44.288110 26202 net.cpp:408] pool1 -> pool1
I0222 22:45:44.288149 26202 net.cpp:150] Setting up pool1
I0222 22:45:44.288156 26202 net.cpp:157] Top shape: 1 32 216 360 (2488320)
I0222 22:45:44.288158 26202 net.cpp:165] Memory required for data: 273715284
I0222 22:45:44.288161 26202 layer_factory.hpp:77] Creating layer pool1_pool1_0_split
I0222 22:45:44.288167 26202 net.cpp:100] Creating Layer pool1_pool1_0_split
I0222 22:45:44.288170 26202 net.cpp:434] pool1_pool1_0_split <- pool1
I0222 22:45:44.288175 26202 net.cpp:408] pool1_pool1_0_split -> pool1_pool1_0_split_0
I0222 22:45:44.288182 26202 net.cpp:408] pool1_pool1_0_split -> pool1_pool1_0_split_1
I0222 22:45:44.288213 26202 net.cpp:150] Setting up pool1_pool1_0_split
I0222 22:45:44.288218 26202 net.cpp:157] Top shape: 1 32 216 360 (2488320)
I0222 22:45:44.288223 26202 net.cpp:157] Top shape: 1 32 216 360 (2488320)
I0222 22:45:44.288225 26202 net.cpp:165] Memory required for data: 293621844
I0222 22:45:44.288228 26202 layer_factory.hpp:77] Creating layer conv2_1/1/conv
I0222 22:45:44.288238 26202 net.cpp:100] Creating Layer conv2_1/1/conv
I0222 22:45:44.288241 26202 net.cpp:434] conv2_1/1/conv <- pool1_pool1_0_split_0
I0222 22:45:44.288246 26202 net.cpp:408] conv2_1/1/conv -> conv2_1/1
I0222 22:45:44.289808 26202 net.cpp:150] Setting up conv2_1/1/conv
I0222 22:45:44.289820 26202 net.cpp:157] Top shape: 1 24 216 360 (1866240)
I0222 22:45:44.289824 26202 net.cpp:165] Memory required for data: 301086804
I0222 22:45:44.289830 26202 layer_factory.hpp:77] Creating layer conv2_1/1/bn
I0222 22:45:44.289837 26202 net.cpp:100] Creating Layer conv2_1/1/bn
I0222 22:45:44.289840 26202 net.cpp:434] conv2_1/1/bn <- conv2_1/1
I0222 22:45:44.289846 26202 net.cpp:395] conv2_1/1/bn -> conv2_1/1 (in-place)
I0222 22:45:44.290593 26202 net.cpp:150] Setting up conv2_1/1/bn
I0222 22:45:44.290604 26202 net.cpp:157] Top shape: 1 24 216 360 (1866240)
I0222 22:45:44.290608 26202 net.cpp:165] Memory required for data: 308551764
I0222 22:45:44.290618 26202 layer_factory.hpp:77] Creating layer conv2_1/1/bn_scale
I0222 22:45:44.290626 26202 net.cpp:100] Creating Layer conv2_1/1/bn_scale
I0222 22:45:44.290629 26202 net.cpp:434] conv2_1/1/bn_scale <- conv2_1/1
I0222 22:45:44.290634 26202 net.cpp:395] conv2_1/1/bn_scale -> conv2_1/1 (in-place)
I0222 22:45:44.290669 26202 layer_factory.hpp:77] Creating layer conv2_1/1/bn_scale
I0222 22:45:44.290851 26202 net.cpp:150] Setting up conv2_1/1/bn_scale
I0222 22:45:44.290859 26202 net.cpp:157] Top shape: 1 24 216 360 (1866240)
I0222 22:45:44.290863 26202 net.cpp:165] Memory required for data: 316016724
I0222 22:45:44.290868 26202 layer_factory.hpp:77] Creating layer conv2_1/1/relu
I0222 22:45:44.290875 26202 net.cpp:100] Creating Layer conv2_1/1/relu
I0222 22:45:44.290879 26202 net.cpp:434] conv2_1/1/relu <- conv2_1/1
I0222 22:45:44.290884 26202 net.cpp:395] conv2_1/1/relu -> conv2_1/1 (in-place)
I0222 22:45:44.291036 26202 net.cpp:150] Setting up conv2_1/1/relu
I0222 22:45:44.291045 26202 net.cpp:157] Top shape: 1 24 216 360 (1866240)
I0222 22:45:44.291049 26202 net.cpp:165] Memory required for data: 323481684
I0222 22:45:44.291052 26202 layer_factory.hpp:77] Creating layer conv2_1/2/conv
I0222 22:45:44.291060 26202 net.cpp:100] Creating Layer conv2_1/2/conv
I0222 22:45:44.291064 26202 net.cpp:434] conv2_1/2/conv <- conv2_1/1
I0222 22:45:44.291069 26202 net.cpp:408] conv2_1/2/conv -> conv2_1/2/conv
I0222 22:45:44.292702 26202 net.cpp:150] Setting up conv2_1/2/conv
I0222 22:45:44.292716 26202 net.cpp:157] Top shape: 1 24 216 360 (1866240)
I0222 22:45:44.292721 26202 net.cpp:165] Memory required for data: 330946644
I0222 22:45:44.292726 26202 layer_factory.hpp:77] Creating layer conv2_1/2/bn
I0222 22:45:44.292733 26202 net.cpp:100] Creating Layer conv2_1/2/bn
I0222 22:45:44.292737 26202 net.cpp:434] conv2_1/2/bn <- conv2_1/2/conv
I0222 22:45:44.292743 26202 net.cpp:395] conv2_1/2/bn -> conv2_1/2/conv (in-place)
I0222 22:45:44.293483 26202 net.cpp:150] Setting up conv2_1/2/bn
I0222 22:45:44.293494 26202 net.cpp:157] Top shape: 1 24 216 360 (1866240)
I0222 22:45:44.293498 26202 net.cpp:165] Memory required for data: 338411604
I0222 22:45:44.293505 26202 layer_factory.hpp:77] Creating layer conv2_1/2/conv_conv2_1/2/bn_0_split
I0222 22:45:44.293511 26202 net.cpp:100] Creating Layer conv2_1/2/conv_conv2_1/2/bn_0_split
I0222 22:45:44.293514 26202 net.cpp:434] conv2_1/2/conv_conv2_1/2/bn_0_split <- conv2_1/2/conv
I0222 22:45:44.293521 26202 net.cpp:408] conv2_1/2/conv_conv2_1/2/bn_0_split -> conv2_1/2/conv_conv2_1/2/bn_0_split_0
I0222 22:45:44.293529 26202 net.cpp:408] conv2_1/2/conv_conv2_1/2/bn_0_split -> conv2_1/2/conv_conv2_1/2/bn_0_split_1
I0222 22:45:44.293562 26202 net.cpp:150] Setting up conv2_1/2/conv_conv2_1/2/bn_0_split
I0222 22:45:44.293568 26202 net.cpp:157] Top shape: 1 24 216 360 (1866240)
I0222 22:45:44.293572 26202 net.cpp:157] Top shape: 1 24 216 360 (1866240)
I0222 22:45:44.293576 26202 net.cpp:165] Memory required for data: 353341524
I0222 22:45:44.293579 26202 layer_factory.hpp:77] Creating layer conv2_1/2/neg
I0222 22:45:44.293586 26202 net.cpp:100] Creating Layer conv2_1/2/neg
I0222 22:45:44.293588 26202 net.cpp:434] conv2_1/2/neg <- conv2_1/2/conv_conv2_1/2/bn_0_split_0
I0222 22:45:44.293594 26202 net.cpp:408] conv2_1/2/neg -> conv2_1/2/neg
I0222 22:45:44.293617 26202 net.cpp:150] Setting up conv2_1/2/neg
I0222 22:45:44.293623 26202 net.cpp:157] Top shape: 1 24 216 360 (1866240)
I0222 22:45:44.293627 26202 net.cpp:165] Memory required for data: 360806484
I0222 22:45:44.293630 26202 layer_factory.hpp:77] Creating layer conv2_1/2/concat
I0222 22:45:44.293635 26202 net.cpp:100] Creating Layer conv2_1/2/concat
I0222 22:45:44.293639 26202 net.cpp:434] conv2_1/2/concat <- conv2_1/2/conv_conv2_1/2/bn_0_split_1
I0222 22:45:44.293643 26202 net.cpp:434] conv2_1/2/concat <- conv2_1/2/neg
I0222 22:45:44.293649 26202 net.cpp:408] conv2_1/2/concat -> conv2_1/2
I0222 22:45:44.293669 26202 net.cpp:150] Setting up conv2_1/2/concat
I0222 22:45:44.293674 26202 net.cpp:157] Top shape: 1 48 216 360 (3732480)
I0222 22:45:44.293678 26202 net.cpp:165] Memory required for data: 375736404
I0222 22:45:44.293680 26202 layer_factory.hpp:77] Creating layer conv2_1/2/scale
I0222 22:45:44.293689 26202 net.cpp:100] Creating Layer conv2_1/2/scale
I0222 22:45:44.293692 26202 net.cpp:434] conv2_1/2/scale <- conv2_1/2
I0222 22:45:44.293699 26202 net.cpp:395] conv2_1/2/scale -> conv2_1/2 (in-place)
I0222 22:45:44.293737 26202 layer_factory.hpp:77] Creating layer conv2_1/2/scale
I0222 22:45:44.293926 26202 net.cpp:150] Setting up conv2_1/2/scale
I0222 22:45:44.293933 26202 net.cpp:157] Top shape: 1 48 216 360 (3732480)
I0222 22:45:44.293936 26202 net.cpp:165] Memory required for data: 390666324
I0222 22:45:44.293946 26202 layer_factory.hpp:77] Creating layer conv2_1/2/relu
I0222 22:45:44.293951 26202 net.cpp:100] Creating Layer conv2_1/2/relu
I0222 22:45:44.293954 26202 net.cpp:434] conv2_1/2/relu <- conv2_1/2
I0222 22:45:44.293959 26202 net.cpp:395] conv2_1/2/relu -> conv2_1/2 (in-place)
I0222 22:45:44.294117 26202 net.cpp:150] Setting up conv2_1/2/relu
I0222 22:45:44.294128 26202 net.cpp:157] Top shape: 1 48 216 360 (3732480)
I0222 22:45:44.294131 26202 net.cpp:165] Memory required for data: 405596244
I0222 22:45:44.294134 26202 layer_factory.hpp:77] Creating layer conv2_1/3/conv
I0222 22:45:44.294143 26202 net.cpp:100] Creating Layer conv2_1/3/conv
I0222 22:45:44.294147 26202 net.cpp:434] conv2_1/3/conv <- conv2_1/2
I0222 22:45:44.294157 26202 net.cpp:408] conv2_1/3/conv -> conv2_1/3
I0222 22:45:44.295336 26202 net.cpp:150] Setting up conv2_1/3/conv
I0222 22:45:44.295349 26202 net.cpp:157] Top shape: 1 64 216 360 (4976640)
I0222 22:45:44.295353 26202 net.cpp:165] Memory required for data: 425502804
I0222 22:45:44.295358 26202 layer_factory.hpp:77] Creating layer conv2_1/3/bn
I0222 22:45:44.295367 26202 net.cpp:100] Creating Layer conv2_1/3/bn
I0222 22:45:44.295370 26202 net.cpp:434] conv2_1/3/bn <- conv2_1/3
I0222 22:45:44.295377 26202 net.cpp:395] conv2_1/3/bn -> conv2_1/3 (in-place)
I0222 22:45:44.296108 26202 net.cpp:150] Setting up conv2_1/3/bn
I0222 22:45:44.296120 26202 net.cpp:157] Top shape: 1 64 216 360 (4976640)
I0222 22:45:44.296123 26202 net.cpp:165] Memory required for data: 445409364
I0222 22:45:44.296130 26202 layer_factory.hpp:77] Creating layer conv2_1/3/bn_scale
I0222 22:45:44.296138 26202 net.cpp:100] Creating Layer conv2_1/3/bn_scale
I0222 22:45:44.296140 26202 net.cpp:434] conv2_1/3/bn_scale <- conv2_1/3
I0222 22:45:44.296146 26202 net.cpp:395] conv2_1/3/bn_scale -> conv2_1/3 (in-place)
I0222 22:45:44.296185 26202 layer_factory.hpp:77] Creating layer conv2_1/3/bn_scale
I0222 22:45:44.296375 26202 net.cpp:150] Setting up conv2_1/3/bn_scale
I0222 22:45:44.296383 26202 net.cpp:157] Top shape: 1 64 216 360 (4976640)
I0222 22:45:44.296387 26202 net.cpp:165] Memory required for data: 465315924
I0222 22:45:44.296392 26202 layer_factory.hpp:77] Creating layer conv2_1/proj
I0222 22:45:44.296402 26202 net.cpp:100] Creating Layer conv2_1/proj
I0222 22:45:44.296406 26202 net.cpp:434] conv2_1/proj <- pool1_pool1_0_split_1
I0222 22:45:44.296411 26202 net.cpp:408] conv2_1/proj -> conv2_1/proj
I0222 22:45:44.298140 26202 net.cpp:150] Setting up conv2_1/proj
I0222 22:45:44.298153 26202 net.cpp:157] Top shape: 1 64 216 360 (4976640)
I0222 22:45:44.298156 26202 net.cpp:165] Memory required for data: 485222484
I0222 22:45:44.298163 26202 layer_factory.hpp:77] Creating layer conv2_1/proj_bn
I0222 22:45:44.298171 26202 net.cpp:100] Creating Layer conv2_1/proj_bn
I0222 22:45:44.298176 26202 net.cpp:434] conv2_1/proj_bn <- conv2_1/proj
I0222 22:45:44.298189 26202 net.cpp:395] conv2_1/proj_bn -> conv2_1/proj (in-place)
I0222 22:45:44.298418 26202 net.cpp:150] Setting up conv2_1/proj_bn
I0222 22:45:44.298425 26202 net.cpp:157] Top shape: 1 64 216 360 (4976640)
I0222 22:45:44.298429 26202 net.cpp:165] Memory required for data: 505129044
I0222 22:45:44.298434 26202 layer_factory.hpp:77] Creating layer conv2_1/proj_bn_scale
I0222 22:45:44.298442 26202 net.cpp:100] Creating Layer conv2_1/proj_bn_scale
I0222 22:45:44.298446 26202 net.cpp:434] conv2_1/proj_bn_scale <- conv2_1/proj
I0222 22:45:44.298451 26202 net.cpp:395] conv2_1/proj_bn_scale -> conv2_1/proj (in-place)
I0222 22:45:44.298488 26202 layer_factory.hpp:77] Creating layer conv2_1/proj_bn_scale
I0222 22:45:44.299198 26202 net.cpp:150] Setting up conv2_1/proj_bn_scale
I0222 22:45:44.299209 26202 net.cpp:157] Top shape: 1 64 216 360 (4976640)
I0222 22:45:44.299212 26202 net.cpp:165] Memory required for data: 525035604
I0222 22:45:44.299218 26202 layer_factory.hpp:77] Creating layer conv2_1
I0222 22:45:44.299226 26202 net.cpp:100] Creating Layer conv2_1
I0222 22:45:44.299229 26202 net.cpp:434] conv2_1 <- conv2_1/3
I0222 22:45:44.299234 26202 net.cpp:434] conv2_1 <- conv2_1/proj
I0222 22:45:44.299238 26202 net.cpp:408] conv2_1 -> conv2_1
I0222 22:45:44.299266 26202 net.cpp:150] Setting up conv2_1
I0222 22:45:44.299273 26202 net.cpp:157] Top shape: 1 64 216 360 (4976640)
I0222 22:45:44.299276 26202 net.cpp:165] Memory required for data: 544942164
I0222 22:45:44.299279 26202 layer_factory.hpp:77] Creating layer conv2_1_conv2_1_0_split
I0222 22:45:44.299284 26202 net.cpp:100] Creating Layer conv2_1_conv2_1_0_split
I0222 22:45:44.299288 26202 net.cpp:434] conv2_1_conv2_1_0_split <- conv2_1
I0222 22:45:44.299293 26202 net.cpp:408] conv2_1_conv2_1_0_split -> conv2_1_conv2_1_0_split_0
I0222 22:45:44.299299 26202 net.cpp:408] conv2_1_conv2_1_0_split -> conv2_1_conv2_1_0_split_1
I0222 22:45:44.299337 26202 net.cpp:150] Setting up conv2_1_conv2_1_0_split
I0222 22:45:44.299343 26202 net.cpp:157] Top shape: 1 64 216 360 (4976640)
I0222 22:45:44.299347 26202 net.cpp:157] Top shape: 1 64 216 360 (4976640)
I0222 22:45:44.299350 26202 net.cpp:165] Memory required for data: 584755284
I0222 22:45:44.299353 26202 layer_factory.hpp:77] Creating layer conv2_2/1/conv
I0222 22:45:44.299367 26202 net.cpp:100] Creating Layer conv2_2/1/conv
I0222 22:45:44.299371 26202 net.cpp:434] conv2_2/1/conv <- conv2_1_conv2_1_0_split_0
I0222 22:45:44.299377 26202 net.cpp:408] conv2_2/1/conv -> conv2_2/1
I0222 22:45:44.300494 26202 net.cpp:150] Setting up conv2_2/1/conv
I0222 22:45:44.300508 26202 net.cpp:157] Top shape: 1 24 216 360 (1866240)
I0222 22:45:44.300511 26202 net.cpp:165] Memory required for data: 592220244
I0222 22:45:44.300518 26202 layer_factory.hpp:77] Creating layer conv2_2/1/bn
I0222 22:45:44.300525 26202 net.cpp:100] Creating Layer conv2_2/1/bn
I0222 22:45:44.300530 26202 net.cpp:434] conv2_2/1/bn <- conv2_2/1
I0222 22:45:44.300537 26202 net.cpp:395] conv2_2/1/bn -> conv2_2/1 (in-place)
I0222 22:45:44.300761 26202 net.cpp:150] Setting up conv2_2/1/bn
I0222 22:45:44.300770 26202 net.cpp:157] Top shape: 1 24 216 360 (1866240)
I0222 22:45:44.300772 26202 net.cpp:165] Memory required for data: 599685204
I0222 22:45:44.300783 26202 layer_factory.hpp:77] Creating layer conv2_2/1/bn_scale
I0222 22:45:44.300791 26202 net.cpp:100] Creating Layer conv2_2/1/bn_scale
I0222 22:45:44.300793 26202 net.cpp:434] conv2_2/1/bn_scale <- conv2_2/1
I0222 22:45:44.300799 26202 net.cpp:395] conv2_2/1/bn_scale -> conv2_2/1 (in-place)
I0222 22:45:44.300837 26202 layer_factory.hpp:77] Creating layer conv2_2/1/bn_scale
I0222 22:45:44.301565 26202 net.cpp:150] Setting up conv2_2/1/bn_scale
I0222 22:45:44.301576 26202 net.cpp:157] Top shape: 1 24 216 360 (1866240)
I0222 22:45:44.301580 26202 net.cpp:165] Memory required for data: 607150164
I0222 22:45:44.301586 26202 layer_factory.hpp:77] Creating layer conv2_2/1/relu
I0222 22:45:44.301592 26202 net.cpp:100] Creating Layer conv2_2/1/relu
I0222 22:45:44.301595 26202 net.cpp:434] conv2_2/1/relu <- conv2_2/1
I0222 22:45:44.301604 26202 net.cpp:395] conv2_2/1/relu -> conv2_2/1 (in-place)
I0222 22:45:44.301770 26202 net.cpp:150] Setting up conv2_2/1/relu
I0222 22:45:44.301779 26202 net.cpp:157] Top shape: 1 24 216 360 (1866240)
I0222 22:45:44.301782 26202 net.cpp:165] Memory required for data: 614615124
I0222 22:45:44.301786 26202 layer_factory.hpp:77] Creating layer conv2_2/2/conv
I0222 22:45:44.301795 26202 net.cpp:100] Creating Layer conv2_2/2/conv
I0222 22:45:44.301800 26202 net.cpp:434] conv2_2/2/conv <- conv2_2/1
I0222 22:45:44.301806 26202 net.cpp:408] conv2_2/2/conv -> conv2_2/2/conv
I0222 22:45:44.302961 26202 net.cpp:150] Setting up conv2_2/2/conv
I0222 22:45:44.302976 26202 net.cpp:157] Top shape: 1 24 216 360 (1866240)
I0222 22:45:44.302979 26202 net.cpp:165] Memory required for data: 622080084
I0222 22:45:44.302985 26202 layer_factory.hpp:77] Creating layer conv2_2/2/bn
I0222 22:45:44.302991 26202 net.cpp:100] Creating Layer conv2_2/2/bn
I0222 22:45:44.302995 26202 net.cpp:434] conv2_2/2/bn <- conv2_2/2/conv
I0222 22:45:44.303002 26202 net.cpp:395] conv2_2/2/bn -> conv2_2/2/conv (in-place)
I0222 22:45:44.303232 26202 net.cpp:150] Setting up conv2_2/2/bn
I0222 22:45:44.303241 26202 net.cpp:157] Top shape: 1 24 216 360 (1866240)
I0222 22:45:44.303243 26202 net.cpp:165] Memory required for data: 629545044
I0222 22:45:44.303251 26202 layer_factory.hpp:77] Creating layer conv2_2/2/conv_conv2_2/2/bn_0_split
I0222 22:45:44.303257 26202 net.cpp:100] Creating Layer conv2_2/2/conv_conv2_2/2/bn_0_split
I0222 22:45:44.303261 26202 net.cpp:434] conv2_2/2/conv_conv2_2/2/bn_0_split <- conv2_2/2/conv
I0222 22:45:44.303267 26202 net.cpp:408] conv2_2/2/conv_conv2_2/2/bn_0_split -> conv2_2/2/conv_conv2_2/2/bn_0_split_0
I0222 22:45:44.303273 26202 net.cpp:408] conv2_2/2/conv_conv2_2/2/bn_0_split -> conv2_2/2/conv_conv2_2/2/bn_0_split_1
I0222 22:45:44.303308 26202 net.cpp:150] Setting up conv2_2/2/conv_conv2_2/2/bn_0_split
I0222 22:45:44.303319 26202 net.cpp:157] Top shape: 1 24 216 360 (1866240)
I0222 22:45:44.303323 26202 net.cpp:157] Top shape: 1 24 216 360 (1866240)
I0222 22:45:44.303326 26202 net.cpp:165] Memory required for data: 644474964
I0222 22:45:44.303330 26202 layer_factory.hpp:77] Creating layer conv2_2/2/neg
I0222 22:45:44.303336 26202 net.cpp:100] Creating Layer conv2_2/2/neg
I0222 22:45:44.303339 26202 net.cpp:434] conv2_2/2/neg <- conv2_2/2/conv_conv2_2/2/bn_0_split_0
I0222 22:45:44.303344 26202 net.cpp:408] conv2_2/2/neg -> conv2_2/2/neg
I0222 22:45:44.303373 26202 net.cpp:150] Setting up conv2_2/2/neg
I0222 22:45:44.303380 26202 net.cpp:157] Top shape: 1 24 216 360 (1866240)
I0222 22:45:44.303383 26202 net.cpp:165] Memory required for data: 651939924
I0222 22:45:44.303386 26202 layer_factory.hpp:77] Creating layer conv2_2/2/concat
I0222 22:45:44.303393 26202 net.cpp:100] Creating Layer conv2_2/2/concat
I0222 22:45:44.303397 26202 net.cpp:434] conv2_2/2/concat <- conv2_2/2/conv_conv2_2/2/bn_0_split_1
I0222 22:45:44.303402 26202 net.cpp:434] conv2_2/2/concat <- conv2_2/2/neg
I0222 22:45:44.303407 26202 net.cpp:408] conv2_2/2/concat -> conv2_2/2
I0222 22:45:44.303429 26202 net.cpp:150] Setting up conv2_2/2/concat
I0222 22:45:44.303436 26202 net.cpp:157] Top shape: 1 48 216 360 (3732480)
I0222 22:45:44.303438 26202 net.cpp:165] Memory required for data: 666869844
I0222 22:45:44.303442 26202 layer_factory.hpp:77] Creating layer conv2_2/2/scale
I0222 22:45:44.303447 26202 net.cpp:100] Creating Layer conv2_2/2/scale
I0222 22:45:44.303450 26202 net.cpp:434] conv2_2/2/scale <- conv2_2/2
I0222 22:45:44.303457 26202 net.cpp:395] conv2_2/2/scale -> conv2_2/2 (in-place)
I0222 22:45:44.303495 26202 layer_factory.hpp:77] Creating layer conv2_2/2/scale
I0222 22:45:44.304195 26202 net.cpp:150] Setting up conv2_2/2/scale
I0222 22:45:44.304206 26202 net.cpp:157] Top shape: 1 48 216 360 (3732480)
I0222 22:45:44.304210 26202 net.cpp:165] Memory required for data: 681799764
I0222 22:45:44.304216 26202 layer_factory.hpp:77] Creating layer conv2_2/2/relu
I0222 22:45:44.304221 26202 net.cpp:100] Creating Layer conv2_2/2/relu
I0222 22:45:44.304225 26202 net.cpp:434] conv2_2/2/relu <- conv2_2/2
I0222 22:45:44.304230 26202 net.cpp:395] conv2_2/2/relu -> conv2_2/2 (in-place)
I0222 22:45:44.304558 26202 net.cpp:150] Setting up conv2_2/2/relu
I0222 22:45:44.304569 26202 net.cpp:157] Top shape: 1 48 216 360 (3732480)
I0222 22:45:44.304572 26202 net.cpp:165] Memory required for data: 696729684
I0222 22:45:44.304576 26202 layer_factory.hpp:77] Creating layer conv2_2/3/conv
I0222 22:45:44.304586 26202 net.cpp:100] Creating Layer conv2_2/3/conv
I0222 22:45:44.304590 26202 net.cpp:434] conv2_2/3/conv <- conv2_2/2
I0222 22:45:44.304599 26202 net.cpp:408] conv2_2/3/conv -> conv2_2/3
I0222 22:45:44.305588 26202 net.cpp:150] Setting up conv2_2/3/conv
I0222 22:45:44.305603 26202 net.cpp:157] Top shape: 1 64 216 360 (4976640)
I0222 22:45:44.305606 26202 net.cpp:165] Memory required for data: 716636244
I0222 22:45:44.305613 26202 layer_factory.hpp:77] Creating layer conv2_2/3/bn
I0222 22:45:44.305619 26202 net.cpp:100] Creating Layer conv2_2/3/bn
I0222 22:45:44.305622 26202 net.cpp:434] conv2_2/3/bn <- conv2_2/3
I0222 22:45:44.305629 26202 net.cpp:395] conv2_2/3/bn -> conv2_2/3 (in-place)
I0222 22:45:44.305855 26202 net.cpp:150] Setting up conv2_2/3/bn
I0222 22:45:44.305862 26202 net.cpp:157] Top shape: 1 64 216 360 (4976640)
I0222 22:45:44.305866 26202 net.cpp:165] Memory required for data: 736542804
I0222 22:45:44.305872 26202 layer_factory.hpp:77] Creating layer conv2_2/3/bn_scale
I0222 22:45:44.305878 26202 net.cpp:100] Creating Layer conv2_2/3/bn_scale
I0222 22:45:44.305882 26202 net.cpp:434] conv2_2/3/bn_scale <- conv2_2/3
I0222 22:45:44.305888 26202 net.cpp:395] conv2_2/3/bn_scale -> conv2_2/3 (in-place)
I0222 22:45:44.305923 26202 layer_factory.hpp:77] Creating layer conv2_2/3/bn_scale
I0222 22:45:44.306638 26202 net.cpp:150] Setting up conv2_2/3/bn_scale
I0222 22:45:44.306649 26202 net.cpp:157] Top shape: 1 64 216 360 (4976640)
I0222 22:45:44.306658 26202 net.cpp:165] Memory required for data: 756449364
I0222 22:45:44.306664 26202 layer_factory.hpp:77] Creating layer conv2_2/input
I0222 22:45:44.306670 26202 net.cpp:100] Creating Layer conv2_2/input
I0222 22:45:44.306674 26202 net.cpp:434] conv2_2/input <- conv2_1_conv2_1_0_split_1
I0222 22:45:44.306681 26202 net.cpp:408] conv2_2/input -> conv2_2/input
I0222 22:45:44.306709 26202 net.cpp:150] Setting up conv2_2/input
I0222 22:45:44.306715 26202 net.cpp:157] Top shape: 1 64 216 360 (4976640)
I0222 22:45:44.306718 26202 net.cpp:165] Memory required for data: 776355924
I0222 22:45:44.306721 26202 layer_factory.hpp:77] Creating layer conv2_2
I0222 22:45:44.306730 26202 net.cpp:100] Creating Layer conv2_2
I0222 22:45:44.306735 26202 net.cpp:434] conv2_2 <- conv2_2/3
I0222 22:45:44.306740 26202 net.cpp:434] conv2_2 <- conv2_2/input
I0222 22:45:44.306743 26202 net.cpp:408] conv2_2 -> conv2_2
I0222 22:45:44.306766 26202 net.cpp:150] Setting up conv2_2
I0222 22:45:44.306771 26202 net.cpp:157] Top shape: 1 64 216 360 (4976640)
I0222 22:45:44.306774 26202 net.cpp:165] Memory required for data: 796262484
I0222 22:45:44.306777 26202 layer_factory.hpp:77] Creating layer conv2_2_conv2_2_0_split
I0222 22:45:44.306784 26202 net.cpp:100] Creating Layer conv2_2_conv2_2_0_split
I0222 22:45:44.306788 26202 net.cpp:434] conv2_2_conv2_2_0_split <- conv2_2
I0222 22:45:44.306793 26202 net.cpp:408] conv2_2_conv2_2_0_split -> conv2_2_conv2_2_0_split_0
I0222 22:45:44.306799 26202 net.cpp:408] conv2_2_conv2_2_0_split -> conv2_2_conv2_2_0_split_1
I0222 22:45:44.306830 26202 net.cpp:150] Setting up conv2_2_conv2_2_0_split
I0222 22:45:44.306838 26202 net.cpp:157] Top shape: 1 64 216 360 (4976640)
I0222 22:45:44.306843 26202 net.cpp:157] Top shape: 1 64 216 360 (4976640)
I0222 22:45:44.306845 26202 net.cpp:165] Memory required for data: 836075604
I0222 22:45:44.306849 26202 layer_factory.hpp:77] Creating layer conv2_3/1/conv
I0222 22:45:44.306855 26202 net.cpp:100] Creating Layer conv2_3/1/conv
I0222 22:45:44.306859 26202 net.cpp:434] conv2_3/1/conv <- conv2_2_conv2_2_0_split_0
I0222 22:45:44.306865 26202 net.cpp:408] conv2_3/1/conv -> conv2_3/1
I0222 22:45:44.308126 26202 net.cpp:150] Setting up conv2_3/1/conv
I0222 22:45:44.308140 26202 net.cpp:157] Top shape: 1 24 216 360 (1866240)
I0222 22:45:44.308143 26202 net.cpp:165] Memory required for data: 843540564
I0222 22:45:44.308148 26202 layer_factory.hpp:77] Creating layer conv2_3/1/bn
I0222 22:45:44.308156 26202 net.cpp:100] Creating Layer conv2_3/1/bn
I0222 22:45:44.308161 26202 net.cpp:434] conv2_3/1/bn <- conv2_3/1
I0222 22:45:44.308167 26202 net.cpp:395] conv2_3/1/bn -> conv2_3/1 (in-place)
I0222 22:45:44.308398 26202 net.cpp:150] Setting up conv2_3/1/bn
I0222 22:45:44.308405 26202 net.cpp:157] Top shape: 1 24 216 360 (1866240)
I0222 22:45:44.308408 26202 net.cpp:165] Memory required for data: 851005524
I0222 22:45:44.308415 26202 layer_factory.hpp:77] Creating layer conv2_3/1/bn_scale
I0222 22:45:44.308423 26202 net.cpp:100] Creating Layer conv2_3/1/bn_scale
I0222 22:45:44.308425 26202 net.cpp:434] conv2_3/1/bn_scale <- conv2_3/1
I0222 22:45:44.308431 26202 net.cpp:395] conv2_3/1/bn_scale -> conv2_3/1 (in-place)
I0222 22:45:44.308466 26202 layer_factory.hpp:77] Creating layer conv2_3/1/bn_scale
I0222 22:45:44.309187 26202 net.cpp:150] Setting up conv2_3/1/bn_scale
I0222 22:45:44.309198 26202 net.cpp:157] Top shape: 1 24 216 360 (1866240)
I0222 22:45:44.309201 26202 net.cpp:165] Memory required for data: 858470484
I0222 22:45:44.309208 26202 layer_factory.hpp:77] Creating layer conv2_3/1/relu
I0222 22:45:44.309214 26202 net.cpp:100] Creating Layer conv2_3/1/relu
I0222 22:45:44.309217 26202 net.cpp:434] conv2_3/1/relu <- conv2_3/1
I0222 22:45:44.309222 26202 net.cpp:395] conv2_3/1/relu -> conv2_3/1 (in-place)
I0222 22:45:44.309543 26202 net.cpp:150] Setting up conv2_3/1/relu
I0222 22:45:44.309554 26202 net.cpp:157] Top shape: 1 24 216 360 (1866240)
I0222 22:45:44.309557 26202 net.cpp:165] Memory required for data: 865935444
I0222 22:45:44.309561 26202 layer_factory.hpp:77] Creating layer conv2_3/2/conv
I0222 22:45:44.309577 26202 net.cpp:100] Creating Layer conv2_3/2/conv
I0222 22:45:44.309582 26202 net.cpp:434] conv2_3/2/conv <- conv2_3/1
I0222 22:45:44.309588 26202 net.cpp:408] conv2_3/2/conv -> conv2_3/2/conv
I0222 22:45:44.310745 26202 net.cpp:150] Setting up conv2_3/2/conv
I0222 22:45:44.310757 26202 net.cpp:157] Top shape: 1 24 216 360 (1866240)
I0222 22:45:44.310760 26202 net.cpp:165] Memory required for data: 873400404
I0222 22:45:44.310766 26202 layer_factory.hpp:77] Creating layer conv2_3/2/bn
I0222 22:45:44.310775 26202 net.cpp:100] Creating Layer conv2_3/2/bn
I0222 22:45:44.310780 26202 net.cpp:434] conv2_3/2/bn <- conv2_3/2/conv
I0222 22:45:44.310786 26202 net.cpp:395] conv2_3/2/bn -> conv2_3/2/conv (in-place)
I0222 22:45:44.311024 26202 net.cpp:150] Setting up conv2_3/2/bn
I0222 22:45:44.311033 26202 net.cpp:157] Top shape: 1 24 216 360 (1866240)
I0222 22:45:44.311035 26202 net.cpp:165] Memory required for data: 880865364
I0222 22:45:44.311043 26202 layer_factory.hpp:77] Creating layer conv2_3/2/conv_conv2_3/2/bn_0_split
I0222 22:45:44.311048 26202 net.cpp:100] Creating Layer conv2_3/2/conv_conv2_3/2/bn_0_split
I0222 22:45:44.311051 26202 net.cpp:434] conv2_3/2/conv_conv2_3/2/bn_0_split <- conv2_3/2/conv
I0222 22:45:44.311056 26202 net.cpp:408] conv2_3/2/conv_conv2_3/2/bn_0_split -> conv2_3/2/conv_conv2_3/2/bn_0_split_0
I0222 22:45:44.311065 26202 net.cpp:408] conv2_3/2/conv_conv2_3/2/bn_0_split -> conv2_3/2/conv_conv2_3/2/bn_0_split_1
I0222 22:45:44.311098 26202 net.cpp:150] Setting up conv2_3/2/conv_conv2_3/2/bn_0_split
I0222 22:45:44.311105 26202 net.cpp:157] Top shape: 1 24 216 360 (1866240)
I0222 22:45:44.311108 26202 net.cpp:157] Top shape: 1 24 216 360 (1866240)
I0222 22:45:44.311111 26202 net.cpp:165] Memory required for data: 895795284
I0222 22:45:44.311115 26202 layer_factory.hpp:77] Creating layer conv2_3/2/neg
I0222 22:45:44.311122 26202 net.cpp:100] Creating Layer conv2_3/2/neg
I0222 22:45:44.311126 26202 net.cpp:434] conv2_3/2/neg <- conv2_3/2/conv_conv2_3/2/bn_0_split_0
I0222 22:45:44.311131 26202 net.cpp:408] conv2_3/2/neg -> conv2_3/2/neg
I0222 22:45:44.311153 26202 net.cpp:150] Setting up conv2_3/2/neg
I0222 22:45:44.311161 26202 net.cpp:157] Top shape: 1 24 216 360 (1866240)
I0222 22:45:44.311163 26202 net.cpp:165] Memory required for data: 903260244
I0222 22:45:44.311167 26202 layer_factory.hpp:77] Creating layer conv2_3/2/concat
I0222 22:45:44.311172 26202 net.cpp:100] Creating Layer conv2_3/2/concat
I0222 22:45:44.311175 26202 net.cpp:434] conv2_3/2/concat <- conv2_3/2/conv_conv2_3/2/bn_0_split_1
I0222 22:45:44.311179 26202 net.cpp:434] conv2_3/2/concat <- conv2_3/2/neg
I0222 22:45:44.311185 26202 net.cpp:408] conv2_3/2/concat -> conv2_3/2
I0222 22:45:44.311208 26202 net.cpp:150] Setting up conv2_3/2/concat
I0222 22:45:44.311213 26202 net.cpp:157] Top shape: 1 48 216 360 (3732480)
I0222 22:45:44.311216 26202 net.cpp:165] Memory required for data: 918190164
I0222 22:45:44.311219 26202 layer_factory.hpp:77] Creating layer conv2_3/2/scale
I0222 22:45:44.311225 26202 net.cpp:100] Creating Layer conv2_3/2/scale
I0222 22:45:44.311229 26202 net.cpp:434] conv2_3/2/scale <- conv2_3/2
I0222 22:45:44.311235 26202 net.cpp:395] conv2_3/2/scale -> conv2_3/2 (in-place)
I0222 22:45:44.311274 26202 layer_factory.hpp:77] Creating layer conv2_3/2/scale
I0222 22:45:44.311982 26202 net.cpp:150] Setting up conv2_3/2/scale
I0222 22:45:44.311993 26202 net.cpp:157] Top shape: 1 48 216 360 (3732480)
I0222 22:45:44.311996 26202 net.cpp:165] Memory required for data: 933120084
I0222 22:45:44.312002 26202 layer_factory.hpp:77] Creating layer conv2_3/2/relu
I0222 22:45:44.312008 26202 net.cpp:100] Creating Layer conv2_3/2/relu
I0222 22:45:44.312012 26202 net.cpp:434] conv2_3/2/relu <- conv2_3/2
I0222 22:45:44.312017 26202 net.cpp:395] conv2_3/2/relu -> conv2_3/2 (in-place)
I0222 22:45:44.312183 26202 net.cpp:150] Setting up conv2_3/2/relu
I0222 22:45:44.312192 26202 net.cpp:157] Top shape: 1 48 216 360 (3732480)
I0222 22:45:44.312196 26202 net.cpp:165] Memory required for data: 948050004
I0222 22:45:44.312207 26202 layer_factory.hpp:77] Creating layer conv2_3/3/conv
I0222 22:45:44.312216 26202 net.cpp:100] Creating Layer conv2_3/3/conv
I0222 22:45:44.312221 26202 net.cpp:434] conv2_3/3/conv <- conv2_3/2
I0222 22:45:44.312227 26202 net.cpp:408] conv2_3/3/conv -> conv2_3/3
I0222 22:45:44.313391 26202 net.cpp:150] Setting up conv2_3/3/conv
I0222 22:45:44.313405 26202 net.cpp:157] Top shape: 1 64 216 360 (4976640)
I0222 22:45:44.313410 26202 net.cpp:165] Memory required for data: 967956564
I0222 22:45:44.313416 26202 layer_factory.hpp:77] Creating layer conv2_3/3/bn
I0222 22:45:44.313421 26202 net.cpp:100] Creating Layer conv2_3/3/bn
I0222 22:45:44.313426 26202 net.cpp:434] conv2_3/3/bn <- conv2_3/3
I0222 22:45:44.313431 26202 net.cpp:395] conv2_3/3/bn -> conv2_3/3 (in-place)
I0222 22:45:44.313670 26202 net.cpp:150] Setting up conv2_3/3/bn
I0222 22:45:44.313678 26202 net.cpp:157] Top shape: 1 64 216 360 (4976640)
I0222 22:45:44.313681 26202 net.cpp:165] Memory required for data: 987863124
I0222 22:45:44.313694 26202 layer_factory.hpp:77] Creating layer conv2_3/3/bn_scale
I0222 22:45:44.313702 26202 net.cpp:100] Creating Layer conv2_3/3/bn_scale
I0222 22:45:44.313706 26202 net.cpp:434] conv2_3/3/bn_scale <- conv2_3/3
I0222 22:45:44.313711 26202 net.cpp:395] conv2_3/3/bn_scale -> conv2_3/3 (in-place)
I0222 22:45:44.313753 26202 layer_factory.hpp:77] Creating layer conv2_3/3/bn_scale
I0222 22:45:44.314476 26202 net.cpp:150] Setting up conv2_3/3/bn_scale
I0222 22:45:44.314488 26202 net.cpp:157] Top shape: 1 64 216 360 (4976640)
I0222 22:45:44.314492 26202 net.cpp:165] Memory required for data: 1007769684
I0222 22:45:44.314498 26202 layer_factory.hpp:77] Creating layer conv2_3/input
I0222 22:45:44.314504 26202 net.cpp:100] Creating Layer conv2_3/input
I0222 22:45:44.314508 26202 net.cpp:434] conv2_3/input <- conv2_2_conv2_2_0_split_1
I0222 22:45:44.314513 26202 net.cpp:408] conv2_3/input -> conv2_3/input
I0222 22:45:44.314543 26202 net.cpp:150] Setting up conv2_3/input
I0222 22:45:44.314550 26202 net.cpp:157] Top shape: 1 64 216 360 (4976640)
I0222 22:45:44.314553 26202 net.cpp:165] Memory required for data: 1027676244
I0222 22:45:44.314558 26202 layer_factory.hpp:77] Creating layer conv2_3
I0222 22:45:44.314569 26202 net.cpp:100] Creating Layer conv2_3
I0222 22:45:44.314574 26202 net.cpp:434] conv2_3 <- conv2_3/3
I0222 22:45:44.314579 26202 net.cpp:434] conv2_3 <- conv2_3/input
I0222 22:45:44.314584 26202 net.cpp:408] conv2_3 -> conv2_3
I0222 22:45:44.314606 26202 net.cpp:150] Setting up conv2_3
I0222 22:45:44.314612 26202 net.cpp:157] Top shape: 1 64 216 360 (4976640)
I0222 22:45:44.314615 26202 net.cpp:165] Memory required for data: 1047582804
I0222 22:45:44.314620 26202 layer_factory.hpp:77] Creating layer conv2_3_conv2_3_0_split
I0222 22:45:44.314626 26202 net.cpp:100] Creating Layer conv2_3_conv2_3_0_split
I0222 22:45:44.314630 26202 net.cpp:434] conv2_3_conv2_3_0_split <- conv2_3
I0222 22:45:44.314635 26202 net.cpp:408] conv2_3_conv2_3_0_split -> conv2_3_conv2_3_0_split_0
I0222 22:45:44.314641 26202 net.cpp:408] conv2_3_conv2_3_0_split -> conv2_3_conv2_3_0_split_1
I0222 22:45:44.314674 26202 net.cpp:150] Setting up conv2_3_conv2_3_0_split
I0222 22:45:44.314680 26202 net.cpp:157] Top shape: 1 64 216 360 (4976640)
I0222 22:45:44.314684 26202 net.cpp:157] Top shape: 1 64 216 360 (4976640)
I0222 22:45:44.314687 26202 net.cpp:165] Memory required for data: 1087395924
I0222 22:45:44.314690 26202 layer_factory.hpp:77] Creating layer conv3_1/1/conv
I0222 22:45:44.314699 26202 net.cpp:100] Creating Layer conv3_1/1/conv
I0222 22:45:44.314703 26202 net.cpp:434] conv3_1/1/conv <- conv2_3_conv2_3_0_split_0
I0222 22:45:44.314709 26202 net.cpp:408] conv3_1/1/conv -> conv3_1/1
I0222 22:45:44.315863 26202 net.cpp:150] Setting up conv3_1/1/conv
I0222 22:45:44.315877 26202 net.cpp:157] Top shape: 1 48 108 180 (933120)
I0222 22:45:44.315881 26202 net.cpp:165] Memory required for data: 1091128404
I0222 22:45:44.315886 26202 layer_factory.hpp:77] Creating layer conv3_1/1/bn
I0222 22:45:44.315894 26202 net.cpp:100] Creating Layer conv3_1/1/bn
I0222 22:45:44.315903 26202 net.cpp:434] conv3_1/1/bn <- conv3_1/1
I0222 22:45:44.315910 26202 net.cpp:395] conv3_1/1/bn -> conv3_1/1 (in-place)
I0222 22:45:44.316634 26202 net.cpp:150] Setting up conv3_1/1/bn
I0222 22:45:44.316645 26202 net.cpp:157] Top shape: 1 48 108 180 (933120)
I0222 22:45:44.316649 26202 net.cpp:165] Memory required for data: 1094860884
I0222 22:45:44.316656 26202 layer_factory.hpp:77] Creating layer conv3_1/1/bn_scale
I0222 22:45:44.316664 26202 net.cpp:100] Creating Layer conv3_1/1/bn_scale
I0222 22:45:44.316668 26202 net.cpp:434] conv3_1/1/bn_scale <- conv3_1/1
I0222 22:45:44.316674 26202 net.cpp:395] conv3_1/1/bn_scale -> conv3_1/1 (in-place)
I0222 22:45:44.316715 26202 layer_factory.hpp:77] Creating layer conv3_1/1/bn_scale
I0222 22:45:44.316857 26202 net.cpp:150] Setting up conv3_1/1/bn_scale
I0222 22:45:44.316864 26202 net.cpp:157] Top shape: 1 48 108 180 (933120)
I0222 22:45:44.316869 26202 net.cpp:165] Memory required for data: 1098593364
I0222 22:45:44.316874 26202 layer_factory.hpp:77] Creating layer conv3_1/1/relu
I0222 22:45:44.316879 26202 net.cpp:100] Creating Layer conv3_1/1/relu
I0222 22:45:44.316882 26202 net.cpp:434] conv3_1/1/relu <- conv3_1/1
I0222 22:45:44.316890 26202 net.cpp:395] conv3_1/1/relu -> conv3_1/1 (in-place)
I0222 22:45:44.317054 26202 net.cpp:150] Setting up conv3_1/1/relu
I0222 22:45:44.317062 26202 net.cpp:157] Top shape: 1 48 108 180 (933120)
I0222 22:45:44.317065 26202 net.cpp:165] Memory required for data: 1102325844
I0222 22:45:44.317070 26202 layer_factory.hpp:77] Creating layer conv3_1/2/conv
I0222 22:45:44.317078 26202 net.cpp:100] Creating Layer conv3_1/2/conv
I0222 22:45:44.317081 26202 net.cpp:434] conv3_1/2/conv <- conv3_1/1
I0222 22:45:44.317087 26202 net.cpp:408] conv3_1/2/conv -> conv3_1/2/conv
I0222 22:45:44.318240 26202 net.cpp:150] Setting up conv3_1/2/conv
I0222 22:45:44.318255 26202 net.cpp:157] Top shape: 1 48 108 180 (933120)
I0222 22:45:44.318259 26202 net.cpp:165] Memory required for data: 1106058324
I0222 22:45:44.318264 26202 layer_factory.hpp:77] Creating layer conv3_1/2/bn
I0222 22:45:44.318271 26202 net.cpp:100] Creating Layer conv3_1/2/bn
I0222 22:45:44.318274 26202 net.cpp:434] conv3_1/2/bn <- conv3_1/2/conv
I0222 22:45:44.318282 26202 net.cpp:395] conv3_1/2/bn -> conv3_1/2/conv (in-place)
I0222 22:45:44.318482 26202 net.cpp:150] Setting up conv3_1/2/bn
I0222 22:45:44.318490 26202 net.cpp:157] Top shape: 1 48 108 180 (933120)
I0222 22:45:44.318495 26202 net.cpp:165] Memory required for data: 1109790804
I0222 22:45:44.318500 26202 layer_factory.hpp:77] Creating layer conv3_1/2/conv_conv3_1/2/bn_0_split
I0222 22:45:44.318507 26202 net.cpp:100] Creating Layer conv3_1/2/conv_conv3_1/2/bn_0_split
I0222 22:45:44.318511 26202 net.cpp:434] conv3_1/2/conv_conv3_1/2/bn_0_split <- conv3_1/2/conv
I0222 22:45:44.318516 26202 net.cpp:408] conv3_1/2/conv_conv3_1/2/bn_0_split -> conv3_1/2/conv_conv3_1/2/bn_0_split_0
I0222 22:45:44.318523 26202 net.cpp:408] conv3_1/2/conv_conv3_1/2/bn_0_split -> conv3_1/2/conv_conv3_1/2/bn_0_split_1
I0222 22:45:44.318559 26202 net.cpp:150] Setting up conv3_1/2/conv_conv3_1/2/bn_0_split
I0222 22:45:44.318567 26202 net.cpp:157] Top shape: 1 48 108 180 (933120)
I0222 22:45:44.318572 26202 net.cpp:157] Top shape: 1 48 108 180 (933120)
I0222 22:45:44.318574 26202 net.cpp:165] Memory required for data: 1117255764
I0222 22:45:44.318578 26202 layer_factory.hpp:77] Creating layer conv3_1/2/neg
I0222 22:45:44.318583 26202 net.cpp:100] Creating Layer conv3_1/2/neg
I0222 22:45:44.318586 26202 net.cpp:434] conv3_1/2/neg <- conv3_1/2/conv_conv3_1/2/bn_0_split_0
I0222 22:45:44.318591 26202 net.cpp:408] conv3_1/2/neg -> conv3_1/2/neg
I0222 22:45:44.318614 26202 net.cpp:150] Setting up conv3_1/2/neg
I0222 22:45:44.318620 26202 net.cpp:157] Top shape: 1 48 108 180 (933120)
I0222 22:45:44.318624 26202 net.cpp:165] Memory required for data: 1120988244
I0222 22:45:44.318626 26202 layer_factory.hpp:77] Creating layer conv3_1/2/concat
I0222 22:45:44.318634 26202 net.cpp:100] Creating Layer conv3_1/2/concat
I0222 22:45:44.318641 26202 net.cpp:434] conv3_1/2/concat <- conv3_1/2/conv_conv3_1/2/bn_0_split_1
I0222 22:45:44.318645 26202 net.cpp:434] conv3_1/2/concat <- conv3_1/2/neg
I0222 22:45:44.318650 26202 net.cpp:408] conv3_1/2/concat -> conv3_1/2
I0222 22:45:44.318673 26202 net.cpp:150] Setting up conv3_1/2/concat
I0222 22:45:44.318681 26202 net.cpp:157] Top shape: 1 96 108 180 (1866240)
I0222 22:45:44.318683 26202 net.cpp:165] Memory required for data: 1128453204
I0222 22:45:44.318686 26202 layer_factory.hpp:77] Creating layer conv3_1/2/scale
I0222 22:45:44.318692 26202 net.cpp:100] Creating Layer conv3_1/2/scale
I0222 22:45:44.318696 26202 net.cpp:434] conv3_1/2/scale <- conv3_1/2
I0222 22:45:44.318702 26202 net.cpp:395] conv3_1/2/scale -> conv3_1/2 (in-place)
I0222 22:45:44.318743 26202 layer_factory.hpp:77] Creating layer conv3_1/2/scale
I0222 22:45:44.318881 26202 net.cpp:150] Setting up conv3_1/2/scale
I0222 22:45:44.318887 26202 net.cpp:157] Top shape: 1 96 108 180 (1866240)
I0222 22:45:44.318892 26202 net.cpp:165] Memory required for data: 1135918164
I0222 22:45:44.318897 26202 layer_factory.hpp:77] Creating layer conv3_1/2/relu
I0222 22:45:44.318902 26202 net.cpp:100] Creating Layer conv3_1/2/relu
I0222 22:45:44.318905 26202 net.cpp:434] conv3_1/2/relu <- conv3_1/2
I0222 22:45:44.318910 26202 net.cpp:395] conv3_1/2/relu -> conv3_1/2 (in-place)
I0222 22:45:44.319236 26202 net.cpp:150] Setting up conv3_1/2/relu
I0222 22:45:44.319247 26202 net.cpp:157] Top shape: 1 96 108 180 (1866240)
I0222 22:45:44.319250 26202 net.cpp:165] Memory required for data: 1143383124
I0222 22:45:44.319254 26202 layer_factory.hpp:77] Creating layer conv3_1/3/conv
I0222 22:45:44.319263 26202 net.cpp:100] Creating Layer conv3_1/3/conv
I0222 22:45:44.319267 26202 net.cpp:434] conv3_1/3/conv <- conv3_1/2
I0222 22:45:44.319274 26202 net.cpp:408] conv3_1/3/conv -> conv3_1/3
I0222 22:45:44.320354 26202 net.cpp:150] Setting up conv3_1/3/conv
I0222 22:45:44.320368 26202 net.cpp:157] Top shape: 1 128 108 180 (2488320)
I0222 22:45:44.320370 26202 net.cpp:165] Memory required for data: 1153336404
I0222 22:45:44.320376 26202 layer_factory.hpp:77] Creating layer conv3_1/3/bn
I0222 22:45:44.320384 26202 net.cpp:100] Creating Layer conv3_1/3/bn
I0222 22:45:44.320389 26202 net.cpp:434] conv3_1/3/bn <- conv3_1/3
I0222 22:45:44.320394 26202 net.cpp:395] conv3_1/3/bn -> conv3_1/3 (in-place)
I0222 22:45:44.320593 26202 net.cpp:150] Setting up conv3_1/3/bn
I0222 22:45:44.320600 26202 net.cpp:157] Top shape: 1 128 108 180 (2488320)
I0222 22:45:44.320605 26202 net.cpp:165] Memory required for data: 1163289684
I0222 22:45:44.320611 26202 layer_factory.hpp:77] Creating layer conv3_1/3/bn_scale
I0222 22:45:44.320617 26202 net.cpp:100] Creating Layer conv3_1/3/bn_scale
I0222 22:45:44.320621 26202 net.cpp:434] conv3_1/3/bn_scale <- conv3_1/3
I0222 22:45:44.320626 26202 net.cpp:395] conv3_1/3/bn_scale -> conv3_1/3 (in-place)
I0222 22:45:44.320663 26202 layer_factory.hpp:77] Creating layer conv3_1/3/bn_scale
I0222 22:45:44.320791 26202 net.cpp:150] Setting up conv3_1/3/bn_scale
I0222 22:45:44.320797 26202 net.cpp:157] Top shape: 1 128 108 180 (2488320)
I0222 22:45:44.320801 26202 net.cpp:165] Memory required for data: 1173242964
I0222 22:45:44.320806 26202 layer_factory.hpp:77] Creating layer conv3_1/proj
I0222 22:45:44.320816 26202 net.cpp:100] Creating Layer conv3_1/proj
I0222 22:45:44.320819 26202 net.cpp:434] conv3_1/proj <- conv2_3_conv2_3_0_split_1
I0222 22:45:44.320825 26202 net.cpp:408] conv3_1/proj -> conv3_1/proj
I0222 22:45:44.321940 26202 net.cpp:150] Setting up conv3_1/proj
I0222 22:45:44.321954 26202 net.cpp:157] Top shape: 1 128 108 180 (2488320)
I0222 22:45:44.321957 26202 net.cpp:165] Memory required for data: 1183196244
I0222 22:45:44.321964 26202 layer_factory.hpp:77] Creating layer conv3_1/proj_bn
I0222 22:45:44.321971 26202 net.cpp:100] Creating Layer conv3_1/proj_bn
I0222 22:45:44.321976 26202 net.cpp:434] conv3_1/proj_bn <- conv3_1/proj
I0222 22:45:44.321981 26202 net.cpp:395] conv3_1/proj_bn -> conv3_1/proj (in-place)
I0222 22:45:44.322185 26202 net.cpp:150] Setting up conv3_1/proj_bn
I0222 22:45:44.322197 26202 net.cpp:157] Top shape: 1 128 108 180 (2488320)
I0222 22:45:44.322201 26202 net.cpp:165] Memory required for data: 1193149524
I0222 22:45:44.322208 26202 layer_factory.hpp:77] Creating layer conv3_1/proj_bn_scale
I0222 22:45:44.322214 26202 net.cpp:100] Creating Layer conv3_1/proj_bn_scale
I0222 22:45:44.322218 26202 net.cpp:434] conv3_1/proj_bn_scale <- conv3_1/proj
I0222 22:45:44.322226 26202 net.cpp:395] conv3_1/proj_bn_scale -> conv3_1/proj (in-place)
I0222 22:45:44.322263 26202 layer_factory.hpp:77] Creating layer conv3_1/proj_bn_scale
I0222 22:45:44.322906 26202 net.cpp:150] Setting up conv3_1/proj_bn_scale
I0222 22:45:44.322917 26202 net.cpp:157] Top shape: 1 128 108 180 (2488320)
I0222 22:45:44.322921 26202 net.cpp:165] Memory required for data: 1203102804
I0222 22:45:44.322927 26202 layer_factory.hpp:77] Creating layer conv3_1
I0222 22:45:44.322935 26202 net.cpp:100] Creating Layer conv3_1
I0222 22:45:44.322939 26202 net.cpp:434] conv3_1 <- conv3_1/3
I0222 22:45:44.322943 26202 net.cpp:434] conv3_1 <- conv3_1/proj
I0222 22:45:44.322948 26202 net.cpp:408] conv3_1 -> conv3_1
I0222 22:45:44.322978 26202 net.cpp:150] Setting up conv3_1
I0222 22:45:44.322984 26202 net.cpp:157] Top shape: 1 128 108 180 (2488320)
I0222 22:45:44.322988 26202 net.cpp:165] Memory required for data: 1213056084
I0222 22:45:44.322991 26202 layer_factory.hpp:77] Creating layer conv3_1_conv3_1_0_split
I0222 22:45:44.322998 26202 net.cpp:100] Creating Layer conv3_1_conv3_1_0_split
I0222 22:45:44.323000 26202 net.cpp:434] conv3_1_conv3_1_0_split <- conv3_1
I0222 22:45:44.323007 26202 net.cpp:408] conv3_1_conv3_1_0_split -> conv3_1_conv3_1_0_split_0
I0222 22:45:44.323014 26202 net.cpp:408] conv3_1_conv3_1_0_split -> conv3_1_conv3_1_0_split_1
I0222 22:45:44.323050 26202 net.cpp:150] Setting up conv3_1_conv3_1_0_split
I0222 22:45:44.323055 26202 net.cpp:157] Top shape: 1 128 108 180 (2488320)
I0222 22:45:44.323060 26202 net.cpp:157] Top shape: 1 128 108 180 (2488320)
I0222 22:45:44.323062 26202 net.cpp:165] Memory required for data: 1232962644
I0222 22:45:44.323065 26202 layer_factory.hpp:77] Creating layer conv3_2/1/conv
I0222 22:45:44.323073 26202 net.cpp:100] Creating Layer conv3_2/1/conv
I0222 22:45:44.323077 26202 net.cpp:434] conv3_2/1/conv <- conv3_1_conv3_1_0_split_0
I0222 22:45:44.323086 26202 net.cpp:408] conv3_2/1/conv -> conv3_2/1
I0222 22:45:44.324261 26202 net.cpp:150] Setting up conv3_2/1/conv
I0222 22:45:44.324275 26202 net.cpp:157] Top shape: 1 48 108 180 (933120)
I0222 22:45:44.324280 26202 net.cpp:165] Memory required for data: 1236695124
I0222 22:45:44.324286 26202 layer_factory.hpp:77] Creating layer conv3_2/1/bn
I0222 22:45:44.324292 26202 net.cpp:100] Creating Layer conv3_2/1/bn
I0222 22:45:44.324296 26202 net.cpp:434] conv3_2/1/bn <- conv3_2/1
I0222 22:45:44.324303 26202 net.cpp:395] conv3_2/1/bn -> conv3_2/1 (in-place)
I0222 22:45:44.324517 26202 net.cpp:150] Setting up conv3_2/1/bn
I0222 22:45:44.324524 26202 net.cpp:157] Top shape: 1 48 108 180 (933120)
I0222 22:45:44.324527 26202 net.cpp:165] Memory required for data: 1240427604
I0222 22:45:44.324534 26202 layer_factory.hpp:77] Creating layer conv3_2/1/bn_scale
I0222 22:45:44.324540 26202 net.cpp:100] Creating Layer conv3_2/1/bn_scale
I0222 22:45:44.324544 26202 net.cpp:434] conv3_2/1/bn_scale <- conv3_2/1
I0222 22:45:44.324550 26202 net.cpp:395] conv3_2/1/bn_scale -> conv3_2/1 (in-place)
I0222 22:45:44.324589 26202 layer_factory.hpp:77] Creating layer conv3_2/1/bn_scale
I0222 22:45:44.324729 26202 net.cpp:150] Setting up conv3_2/1/bn_scale
I0222 22:45:44.324736 26202 net.cpp:157] Top shape: 1 48 108 180 (933120)
I0222 22:45:44.324739 26202 net.cpp:165] Memory required for data: 1244160084
I0222 22:45:44.324745 26202 layer_factory.hpp:77] Creating layer conv3_2/1/relu
I0222 22:45:44.324750 26202 net.cpp:100] Creating Layer conv3_2/1/relu
I0222 22:45:44.324753 26202 net.cpp:434] conv3_2/1/relu <- conv3_2/1
I0222 22:45:44.324759 26202 net.cpp:395] conv3_2/1/relu -> conv3_2/1 (in-place)
I0222 22:45:44.325110 26202 net.cpp:150] Setting up conv3_2/1/relu
I0222 22:45:44.325125 26202 net.cpp:157] Top shape: 1 48 108 180 (933120)
I0222 22:45:44.325129 26202 net.cpp:165] Memory required for data: 1247892564
I0222 22:45:44.325134 26202 layer_factory.hpp:77] Creating layer conv3_2/2/conv
I0222 22:45:44.325143 26202 net.cpp:100] Creating Layer conv3_2/2/conv
I0222 22:45:44.325147 26202 net.cpp:434] conv3_2/2/conv <- conv3_2/1
I0222 22:45:44.325155 26202 net.cpp:408] conv3_2/2/conv -> conv3_2/2/conv
I0222 22:45:44.326160 26202 net.cpp:150] Setting up conv3_2/2/conv
I0222 22:45:44.326174 26202 net.cpp:157] Top shape: 1 48 108 180 (933120)
I0222 22:45:44.326181 26202 net.cpp:165] Memory required for data: 1251625044
I0222 22:45:44.326187 26202 layer_factory.hpp:77] Creating layer conv3_2/2/bn
I0222 22:45:44.326194 26202 net.cpp:100] Creating Layer conv3_2/2/bn
I0222 22:45:44.326197 26202 net.cpp:434] conv3_2/2/bn <- conv3_2/2/conv
I0222 22:45:44.326205 26202 net.cpp:395] conv3_2/2/bn -> conv3_2/2/conv (in-place)
I0222 22:45:44.326413 26202 net.cpp:150] Setting up conv3_2/2/bn
I0222 22:45:44.326421 26202 net.cpp:157] Top shape: 1 48 108 180 (933120)
I0222 22:45:44.326424 26202 net.cpp:165] Memory required for data: 1255357524
I0222 22:45:44.326431 26202 layer_factory.hpp:77] Creating layer conv3_2/2/conv_conv3_2/2/bn_0_split
I0222 22:45:44.326436 26202 net.cpp:100] Creating Layer conv3_2/2/conv_conv3_2/2/bn_0_split
I0222 22:45:44.326439 26202 net.cpp:434] conv3_2/2/conv_conv3_2/2/bn_0_split <- conv3_2/2/conv
I0222 22:45:44.326447 26202 net.cpp:408] conv3_2/2/conv_conv3_2/2/bn_0_split -> conv3_2/2/conv_conv3_2/2/bn_0_split_0
I0222 22:45:44.326453 26202 net.cpp:408] conv3_2/2/conv_conv3_2/2/bn_0_split -> conv3_2/2/conv_conv3_2/2/bn_0_split_1
I0222 22:45:44.326500 26202 net.cpp:150] Setting up conv3_2/2/conv_conv3_2/2/bn_0_split
I0222 22:45:44.326508 26202 net.cpp:157] Top shape: 1 48 108 180 (933120)
I0222 22:45:44.326514 26202 net.cpp:157] Top shape: 1 48 108 180 (933120)
I0222 22:45:44.326516 26202 net.cpp:165] Memory required for data: 1262822484
I0222 22:45:44.326520 26202 layer_factory.hpp:77] Creating layer conv3_2/2/neg
I0222 22:45:44.326525 26202 net.cpp:100] Creating Layer conv3_2/2/neg
I0222 22:45:44.326529 26202 net.cpp:434] conv3_2/2/neg <- conv3_2/2/conv_conv3_2/2/bn_0_split_0
I0222 22:45:44.326534 26202 net.cpp:408] conv3_2/2/neg -> conv3_2/2/neg
I0222 22:45:44.326558 26202 net.cpp:150] Setting up conv3_2/2/neg
I0222 22:45:44.326565 26202 net.cpp:157] Top shape: 1 48 108 180 (933120)
I0222 22:45:44.326568 26202 net.cpp:165] Memory required for data: 1266554964
I0222 22:45:44.326571 26202 layer_factory.hpp:77] Creating layer conv3_2/2/concat
I0222 22:45:44.326576 26202 net.cpp:100] Creating Layer conv3_2/2/concat
I0222 22:45:44.326581 26202 net.cpp:434] conv3_2/2/concat <- conv3_2/2/conv_conv3_2/2/bn_0_split_1
I0222 22:45:44.326584 26202 net.cpp:434] conv3_2/2/concat <- conv3_2/2/neg
I0222 22:45:44.326591 26202 net.cpp:408] conv3_2/2/concat -> conv3_2/2
I0222 22:45:44.326612 26202 net.cpp:150] Setting up conv3_2/2/concat
I0222 22:45:44.326619 26202 net.cpp:157] Top shape: 1 96 108 180 (1866240)
I0222 22:45:44.326623 26202 net.cpp:165] Memory required for data: 1274019924
I0222 22:45:44.326627 26202 layer_factory.hpp:77] Creating layer conv3_2/2/scale
I0222 22:45:44.326632 26202 net.cpp:100] Creating Layer conv3_2/2/scale
I0222 22:45:44.326635 26202 net.cpp:434] conv3_2/2/scale <- conv3_2/2
I0222 22:45:44.326643 26202 net.cpp:395] conv3_2/2/scale -> conv3_2/2 (in-place)
I0222 22:45:44.326683 26202 layer_factory.hpp:77] Creating layer conv3_2/2/scale
I0222 22:45:44.326817 26202 net.cpp:150] Setting up conv3_2/2/scale
I0222 22:45:44.326824 26202 net.cpp:157] Top shape: 1 96 108 180 (1866240)
I0222 22:45:44.326828 26202 net.cpp:165] Memory required for data: 1281484884
I0222 22:45:44.326833 26202 layer_factory.hpp:77] Creating layer conv3_2/2/relu
I0222 22:45:44.326838 26202 net.cpp:100] Creating Layer conv3_2/2/relu
I0222 22:45:44.326843 26202 net.cpp:434] conv3_2/2/relu <- conv3_2/2
I0222 22:45:44.326848 26202 net.cpp:395] conv3_2/2/relu -> conv3_2/2 (in-place)
I0222 22:45:44.327183 26202 net.cpp:150] Setting up conv3_2/2/relu
I0222 22:45:44.327194 26202 net.cpp:157] Top shape: 1 96 108 180 (1866240)
I0222 22:45:44.327198 26202 net.cpp:165] Memory required for data: 1288949844
I0222 22:45:44.327203 26202 layer_factory.hpp:77] Creating layer conv3_2/3/conv
I0222 22:45:44.327211 26202 net.cpp:100] Creating Layer conv3_2/3/conv
I0222 22:45:44.327215 26202 net.cpp:434] conv3_2/3/conv <- conv3_2/2
I0222 22:45:44.327220 26202 net.cpp:408] conv3_2/3/conv -> conv3_2/3
I0222 22:45:44.328606 26202 net.cpp:150] Setting up conv3_2/3/conv
I0222 22:45:44.328619 26202 net.cpp:157] Top shape: 1 128 108 180 (2488320)
I0222 22:45:44.328622 26202 net.cpp:165] Memory required for data: 1298903124
I0222 22:45:44.328629 26202 layer_factory.hpp:77] Creating layer conv3_2/3/bn
I0222 22:45:44.328636 26202 net.cpp:100] Creating Layer conv3_2/3/bn
I0222 22:45:44.328640 26202 net.cpp:434] conv3_2/3/bn <- conv3_2/3
I0222 22:45:44.328646 26202 net.cpp:395] conv3_2/3/bn -> conv3_2/3 (in-place)
I0222 22:45:44.328850 26202 net.cpp:150] Setting up conv3_2/3/bn
I0222 22:45:44.328857 26202 net.cpp:157] Top shape: 1 128 108 180 (2488320)
I0222 22:45:44.328860 26202 net.cpp:165] Memory required for data: 1308856404
I0222 22:45:44.328867 26202 layer_factory.hpp:77] Creating layer conv3_2/3/bn_scale
I0222 22:45:44.328873 26202 net.cpp:100] Creating Layer conv3_2/3/bn_scale
I0222 22:45:44.328877 26202 net.cpp:434] conv3_2/3/bn_scale <- conv3_2/3
I0222 22:45:44.328883 26202 net.cpp:395] conv3_2/3/bn_scale -> conv3_2/3 (in-place)
I0222 22:45:44.328920 26202 layer_factory.hpp:77] Creating layer conv3_2/3/bn_scale
I0222 22:45:44.329052 26202 net.cpp:150] Setting up conv3_2/3/bn_scale
I0222 22:45:44.329061 26202 net.cpp:157] Top shape: 1 128 108 180 (2488320)
I0222 22:45:44.329064 26202 net.cpp:165] Memory required for data: 1318809684
I0222 22:45:44.329069 26202 layer_factory.hpp:77] Creating layer conv3_2/input
I0222 22:45:44.329076 26202 net.cpp:100] Creating Layer conv3_2/input
I0222 22:45:44.329079 26202 net.cpp:434] conv3_2/input <- conv3_1_conv3_1_0_split_1
I0222 22:45:44.329084 26202 net.cpp:408] conv3_2/input -> conv3_2/input
I0222 22:45:44.329113 26202 net.cpp:150] Setting up conv3_2/input
I0222 22:45:44.329118 26202 net.cpp:157] Top shape: 1 128 108 180 (2488320)
I0222 22:45:44.329121 26202 net.cpp:165] Memory required for data: 1328762964
I0222 22:45:44.329124 26202 layer_factory.hpp:77] Creating layer conv3_2
I0222 22:45:44.329131 26202 net.cpp:100] Creating Layer conv3_2
I0222 22:45:44.329135 26202 net.cpp:434] conv3_2 <- conv3_2/3
I0222 22:45:44.329139 26202 net.cpp:434] conv3_2 <- conv3_2/input
I0222 22:45:44.329144 26202 net.cpp:408] conv3_2 -> conv3_2
I0222 22:45:44.329169 26202 net.cpp:150] Setting up conv3_2
I0222 22:45:44.329175 26202 net.cpp:157] Top shape: 1 128 108 180 (2488320)
I0222 22:45:44.329179 26202 net.cpp:165] Memory required for data: 1338716244
I0222 22:45:44.329181 26202 layer_factory.hpp:77] Creating layer conv3_2_conv3_2_0_split
I0222 22:45:44.329187 26202 net.cpp:100] Creating Layer conv3_2_conv3_2_0_split
I0222 22:45:44.329190 26202 net.cpp:434] conv3_2_conv3_2_0_split <- conv3_2
I0222 22:45:44.329195 26202 net.cpp:408] conv3_2_conv3_2_0_split -> conv3_2_conv3_2_0_split_0
I0222 22:45:44.329201 26202 net.cpp:408] conv3_2_conv3_2_0_split -> conv3_2_conv3_2_0_split_1
I0222 22:45:44.329236 26202 net.cpp:150] Setting up conv3_2_conv3_2_0_split
I0222 22:45:44.329242 26202 net.cpp:157] Top shape: 1 128 108 180 (2488320)
I0222 22:45:44.329246 26202 net.cpp:157] Top shape: 1 128 108 180 (2488320)
I0222 22:45:44.329249 26202 net.cpp:165] Memory required for data: 1358622804
I0222 22:45:44.329252 26202 layer_factory.hpp:77] Creating layer conv3_3/1/conv
I0222 22:45:44.329262 26202 net.cpp:100] Creating Layer conv3_3/1/conv
I0222 22:45:44.329265 26202 net.cpp:434] conv3_3/1/conv <- conv3_2_conv3_2_0_split_0
I0222 22:45:44.329272 26202 net.cpp:408] conv3_3/1/conv -> conv3_3/1
I0222 22:45:44.330185 26202 net.cpp:150] Setting up conv3_3/1/conv
I0222 22:45:44.330200 26202 net.cpp:157] Top shape: 1 48 108 180 (933120)
I0222 22:45:44.330209 26202 net.cpp:165] Memory required for data: 1362355284
I0222 22:45:44.330214 26202 layer_factory.hpp:77] Creating layer conv3_3/1/bn
I0222 22:45:44.330220 26202 net.cpp:100] Creating Layer conv3_3/1/bn
I0222 22:45:44.330224 26202 net.cpp:434] conv3_3/1/bn <- conv3_3/1
I0222 22:45:44.330231 26202 net.cpp:395] conv3_3/1/bn -> conv3_3/1 (in-place)
I0222 22:45:44.330445 26202 net.cpp:150] Setting up conv3_3/1/bn
I0222 22:45:44.330452 26202 net.cpp:157] Top shape: 1 48 108 180 (933120)
I0222 22:45:44.330456 26202 net.cpp:165] Memory required for data: 1366087764
I0222 22:45:44.330462 26202 layer_factory.hpp:77] Creating layer conv3_3/1/bn_scale
I0222 22:45:44.330469 26202 net.cpp:100] Creating Layer conv3_3/1/bn_scale
I0222 22:45:44.330473 26202 net.cpp:434] conv3_3/1/bn_scale <- conv3_3/1
I0222 22:45:44.330478 26202 net.cpp:395] conv3_3/1/bn_scale -> conv3_3/1 (in-place)
I0222 22:45:44.330519 26202 layer_factory.hpp:77] Creating layer conv3_3/1/bn_scale
I0222 22:45:44.331179 26202 net.cpp:150] Setting up conv3_3/1/bn_scale
I0222 22:45:44.331190 26202 net.cpp:157] Top shape: 1 48 108 180 (933120)
I0222 22:45:44.331193 26202 net.cpp:165] Memory required for data: 1369820244
I0222 22:45:44.331200 26202 layer_factory.hpp:77] Creating layer conv3_3/1/relu
I0222 22:45:44.331207 26202 net.cpp:100] Creating Layer conv3_3/1/relu
I0222 22:45:44.331209 26202 net.cpp:434] conv3_3/1/relu <- conv3_3/1
I0222 22:45:44.331215 26202 net.cpp:395] conv3_3/1/relu -> conv3_3/1 (in-place)
I0222 22:45:44.331535 26202 net.cpp:150] Setting up conv3_3/1/relu
I0222 22:45:44.331547 26202 net.cpp:157] Top shape: 1 48 108 180 (933120)
I0222 22:45:44.331550 26202 net.cpp:165] Memory required for data: 1373552724
I0222 22:45:44.331554 26202 layer_factory.hpp:77] Creating layer conv3_3/2/conv
I0222 22:45:44.331563 26202 net.cpp:100] Creating Layer conv3_3/2/conv
I0222 22:45:44.331568 26202 net.cpp:434] conv3_3/2/conv <- conv3_3/1
I0222 22:45:44.331574 26202 net.cpp:408] conv3_3/2/conv -> conv3_3/2/conv
I0222 22:45:44.332885 26202 net.cpp:150] Setting up conv3_3/2/conv
I0222 22:45:44.332897 26202 net.cpp:157] Top shape: 1 48 108 180 (933120)
I0222 22:45:44.332902 26202 net.cpp:165] Memory required for data: 1377285204
I0222 22:45:44.332908 26202 layer_factory.hpp:77] Creating layer conv3_3/2/bn
I0222 22:45:44.332914 26202 net.cpp:100] Creating Layer conv3_3/2/bn
I0222 22:45:44.332919 26202 net.cpp:434] conv3_3/2/bn <- conv3_3/2/conv
I0222 22:45:44.332926 26202 net.cpp:395] conv3_3/2/bn -> conv3_3/2/conv (in-place)
I0222 22:45:44.333139 26202 net.cpp:150] Setting up conv3_3/2/bn
I0222 22:45:44.333148 26202 net.cpp:157] Top shape: 1 48 108 180 (933120)
I0222 22:45:44.333150 26202 net.cpp:165] Memory required for data: 1381017684
I0222 22:45:44.333158 26202 layer_factory.hpp:77] Creating layer conv3_3/2/conv_conv3_3/2/bn_0_split
I0222 22:45:44.333163 26202 net.cpp:100] Creating Layer conv3_3/2/conv_conv3_3/2/bn_0_split
I0222 22:45:44.333166 26202 net.cpp:434] conv3_3/2/conv_conv3_3/2/bn_0_split <- conv3_3/2/conv
I0222 22:45:44.333173 26202 net.cpp:408] conv3_3/2/conv_conv3_3/2/bn_0_split -> conv3_3/2/conv_conv3_3/2/bn_0_split_0
I0222 22:45:44.333178 26202 net.cpp:408] conv3_3/2/conv_conv3_3/2/bn_0_split -> conv3_3/2/conv_conv3_3/2/bn_0_split_1
I0222 22:45:44.333215 26202 net.cpp:150] Setting up conv3_3/2/conv_conv3_3/2/bn_0_split
I0222 22:45:44.333222 26202 net.cpp:157] Top shape: 1 48 108 180 (933120)
I0222 22:45:44.333226 26202 net.cpp:157] Top shape: 1 48 108 180 (933120)
I0222 22:45:44.333230 26202 net.cpp:165] Memory required for data: 1388482644
I0222 22:45:44.333232 26202 layer_factory.hpp:77] Creating layer conv3_3/2/neg
I0222 22:45:44.333238 26202 net.cpp:100] Creating Layer conv3_3/2/neg
I0222 22:45:44.333242 26202 net.cpp:434] conv3_3/2/neg <- conv3_3/2/conv_conv3_3/2/bn_0_split_0
I0222 22:45:44.333250 26202 net.cpp:408] conv3_3/2/neg -> conv3_3/2/neg
I0222 22:45:44.333272 26202 net.cpp:150] Setting up conv3_3/2/neg
I0222 22:45:44.333278 26202 net.cpp:157] Top shape: 1 48 108 180 (933120)
I0222 22:45:44.333287 26202 net.cpp:165] Memory required for data: 1392215124
I0222 22:45:44.333289 26202 layer_factory.hpp:77] Creating layer conv3_3/2/concat
I0222 22:45:44.333295 26202 net.cpp:100] Creating Layer conv3_3/2/concat
I0222 22:45:44.333298 26202 net.cpp:434] conv3_3/2/concat <- conv3_3/2/conv_conv3_3/2/bn_0_split_1
I0222 22:45:44.333303 26202 net.cpp:434] conv3_3/2/concat <- conv3_3/2/neg
I0222 22:45:44.333309 26202 net.cpp:408] conv3_3/2/concat -> conv3_3/2
I0222 22:45:44.333333 26202 net.cpp:150] Setting up conv3_3/2/concat
I0222 22:45:44.333340 26202 net.cpp:157] Top shape: 1 96 108 180 (1866240)
I0222 22:45:44.333343 26202 net.cpp:165] Memory required for data: 1399680084
I0222 22:45:44.333346 26202 layer_factory.hpp:77] Creating layer conv3_3/2/scale
I0222 22:45:44.333353 26202 net.cpp:100] Creating Layer conv3_3/2/scale
I0222 22:45:44.333356 26202 net.cpp:434] conv3_3/2/scale <- conv3_3/2
I0222 22:45:44.333364 26202 net.cpp:395] conv3_3/2/scale -> conv3_3/2 (in-place)
I0222 22:45:44.333403 26202 layer_factory.hpp:77] Creating layer conv3_3/2/scale
I0222 22:45:44.333544 26202 net.cpp:150] Setting up conv3_3/2/scale
I0222 22:45:44.333550 26202 net.cpp:157] Top shape: 1 96 108 180 (1866240)
I0222 22:45:44.333554 26202 net.cpp:165] Memory required for data: 1407145044
I0222 22:45:44.333559 26202 layer_factory.hpp:77] Creating layer conv3_3/2/relu
I0222 22:45:44.333565 26202 net.cpp:100] Creating Layer conv3_3/2/relu
I0222 22:45:44.333569 26202 net.cpp:434] conv3_3/2/relu <- conv3_3/2
I0222 22:45:44.333575 26202 net.cpp:395] conv3_3/2/relu -> conv3_3/2 (in-place)
I0222 22:45:44.333746 26202 net.cpp:150] Setting up conv3_3/2/relu
I0222 22:45:44.333755 26202 net.cpp:157] Top shape: 1 96 108 180 (1866240)
I0222 22:45:44.333758 26202 net.cpp:165] Memory required for data: 1414610004
I0222 22:45:44.333762 26202 layer_factory.hpp:77] Creating layer conv3_3/3/conv
I0222 22:45:44.333770 26202 net.cpp:100] Creating Layer conv3_3/3/conv
I0222 22:45:44.333775 26202 net.cpp:434] conv3_3/3/conv <- conv3_3/2
I0222 22:45:44.333781 26202 net.cpp:408] conv3_3/3/conv -> conv3_3/3
I0222 22:45:44.334902 26202 net.cpp:150] Setting up conv3_3/3/conv
I0222 22:45:44.334915 26202 net.cpp:157] Top shape: 1 128 108 180 (2488320)
I0222 22:45:44.334918 26202 net.cpp:165] Memory required for data: 1424563284
I0222 22:45:44.334923 26202 layer_factory.hpp:77] Creating layer conv3_3/3/bn
I0222 22:45:44.334930 26202 net.cpp:100] Creating Layer conv3_3/3/bn
I0222 22:45:44.334934 26202 net.cpp:434] conv3_3/3/bn <- conv3_3/3
I0222 22:45:44.334941 26202 net.cpp:395] conv3_3/3/bn -> conv3_3/3 (in-place)
I0222 22:45:44.335146 26202 net.cpp:150] Setting up conv3_3/3/bn
I0222 22:45:44.335153 26202 net.cpp:157] Top shape: 1 128 108 180 (2488320)
I0222 22:45:44.335156 26202 net.cpp:165] Memory required for data: 1434516564
I0222 22:45:44.335163 26202 layer_factory.hpp:77] Creating layer conv3_3/3/bn_scale
I0222 22:45:44.335170 26202 net.cpp:100] Creating Layer conv3_3/3/bn_scale
I0222 22:45:44.335173 26202 net.cpp:434] conv3_3/3/bn_scale <- conv3_3/3
I0222 22:45:44.335177 26202 net.cpp:395] conv3_3/3/bn_scale -> conv3_3/3 (in-place)
I0222 22:45:44.335216 26202 layer_factory.hpp:77] Creating layer conv3_3/3/bn_scale
I0222 22:45:44.335348 26202 net.cpp:150] Setting up conv3_3/3/bn_scale
I0222 22:45:44.335356 26202 net.cpp:157] Top shape: 1 128 108 180 (2488320)
I0222 22:45:44.335360 26202 net.cpp:165] Memory required for data: 1444469844
I0222 22:45:44.335366 26202 layer_factory.hpp:77] Creating layer conv3_3/input
I0222 22:45:44.335372 26202 net.cpp:100] Creating Layer conv3_3/input
I0222 22:45:44.335376 26202 net.cpp:434] conv3_3/input <- conv3_2_conv3_2_0_split_1
I0222 22:45:44.335381 26202 net.cpp:408] conv3_3/input -> conv3_3/input
I0222 22:45:44.335410 26202 net.cpp:150] Setting up conv3_3/input
I0222 22:45:44.335417 26202 net.cpp:157] Top shape: 1 128 108 180 (2488320)
I0222 22:45:44.335420 26202 net.cpp:165] Memory required for data: 1454423124
I0222 22:45:44.335423 26202 layer_factory.hpp:77] Creating layer conv3_3
I0222 22:45:44.335434 26202 net.cpp:100] Creating Layer conv3_3
I0222 22:45:44.335438 26202 net.cpp:434] conv3_3 <- conv3_3/3
I0222 22:45:44.335443 26202 net.cpp:434] conv3_3 <- conv3_3/input
I0222 22:45:44.335449 26202 net.cpp:408] conv3_3 -> conv3_3
I0222 22:45:44.335474 26202 net.cpp:150] Setting up conv3_3
I0222 22:45:44.335479 26202 net.cpp:157] Top shape: 1 128 108 180 (2488320)
I0222 22:45:44.335484 26202 net.cpp:165] Memory required for data: 1464376404
I0222 22:45:44.335486 26202 layer_factory.hpp:77] Creating layer conv3_3_conv3_3_0_split
I0222 22:45:44.335494 26202 net.cpp:100] Creating Layer conv3_3_conv3_3_0_split
I0222 22:45:44.335496 26202 net.cpp:434] conv3_3_conv3_3_0_split <- conv3_3
I0222 22:45:44.335501 26202 net.cpp:408] conv3_3_conv3_3_0_split -> conv3_3_conv3_3_0_split_0
I0222 22:45:44.335508 26202 net.cpp:408] conv3_3_conv3_3_0_split -> conv3_3_conv3_3_0_split_1
I0222 22:45:44.335541 26202 net.cpp:150] Setting up conv3_3_conv3_3_0_split
I0222 22:45:44.335547 26202 net.cpp:157] Top shape: 1 128 108 180 (2488320)
I0222 22:45:44.335551 26202 net.cpp:157] Top shape: 1 128 108 180 (2488320)
I0222 22:45:44.335554 26202 net.cpp:165] Memory required for data: 1484282964
I0222 22:45:44.335557 26202 layer_factory.hpp:77] Creating layer conv3_4/1/conv
I0222 22:45:44.335564 26202 net.cpp:100] Creating Layer conv3_4/1/conv
I0222 22:45:44.335568 26202 net.cpp:434] conv3_4/1/conv <- conv3_3_conv3_3_0_split_0
I0222 22:45:44.335575 26202 net.cpp:408] conv3_4/1/conv -> conv3_4/1
I0222 22:45:44.336773 26202 net.cpp:150] Setting up conv3_4/1/conv
I0222 22:45:44.336786 26202 net.cpp:157] Top shape: 1 48 108 180 (933120)
I0222 22:45:44.336791 26202 net.cpp:165] Memory required for data: 1488015444
I0222 22:45:44.336810 26202 layer_factory.hpp:77] Creating layer conv3_4/1/bn
I0222 22:45:44.336818 26202 net.cpp:100] Creating Layer conv3_4/1/bn
I0222 22:45:44.336822 26202 net.cpp:434] conv3_4/1/bn <- conv3_4/1
I0222 22:45:44.336828 26202 net.cpp:395] conv3_4/1/bn -> conv3_4/1 (in-place)
I0222 22:45:44.337051 26202 net.cpp:150] Setting up conv3_4/1/bn
I0222 22:45:44.337059 26202 net.cpp:157] Top shape: 1 48 108 180 (933120)
I0222 22:45:44.337062 26202 net.cpp:165] Memory required for data: 1491747924
I0222 22:45:44.337069 26202 layer_factory.hpp:77] Creating layer conv3_4/1/bn_scale
I0222 22:45:44.337075 26202 net.cpp:100] Creating Layer conv3_4/1/bn_scale
I0222 22:45:44.337080 26202 net.cpp:434] conv3_4/1/bn_scale <- conv3_4/1
I0222 22:45:44.337083 26202 net.cpp:395] conv3_4/1/bn_scale -> conv3_4/1 (in-place)
I0222 22:45:44.337126 26202 layer_factory.hpp:77] Creating layer conv3_4/1/bn_scale
I0222 22:45:44.337266 26202 net.cpp:150] Setting up conv3_4/1/bn_scale
I0222 22:45:44.337275 26202 net.cpp:157] Top shape: 1 48 108 180 (933120)
I0222 22:45:44.337278 26202 net.cpp:165] Memory required for data: 1495480404
I0222 22:45:44.337283 26202 layer_factory.hpp:77] Creating layer conv3_4/1/relu
I0222 22:45:44.337290 26202 net.cpp:100] Creating Layer conv3_4/1/relu
I0222 22:45:44.337292 26202 net.cpp:434] conv3_4/1/relu <- conv3_4/1
I0222 22:45:44.337297 26202 net.cpp:395] conv3_4/1/relu -> conv3_4/1 (in-place)
I0222 22:45:44.337478 26202 net.cpp:150] Setting up conv3_4/1/relu
I0222 22:45:44.337487 26202 net.cpp:157] Top shape: 1 48 108 180 (933120)
I0222 22:45:44.337491 26202 net.cpp:165] Memory required for data: 1499212884
I0222 22:45:44.337493 26202 layer_factory.hpp:77] Creating layer conv3_4/2/conv
I0222 22:45:44.337502 26202 net.cpp:100] Creating Layer conv3_4/2/conv
I0222 22:45:44.337507 26202 net.cpp:434] conv3_4/2/conv <- conv3_4/1
I0222 22:45:44.337512 26202 net.cpp:408] conv3_4/2/conv -> conv3_4/2/conv
I0222 22:45:44.338687 26202 net.cpp:150] Setting up conv3_4/2/conv
I0222 22:45:44.338701 26202 net.cpp:157] Top shape: 1 48 108 180 (933120)
I0222 22:45:44.338704 26202 net.cpp:165] Memory required for data: 1502945364
I0222 22:45:44.338709 26202 layer_factory.hpp:77] Creating layer conv3_4/2/bn
I0222 22:45:44.338717 26202 net.cpp:100] Creating Layer conv3_4/2/bn
I0222 22:45:44.338722 26202 net.cpp:434] conv3_4/2/bn <- conv3_4/2/conv
I0222 22:45:44.338733 26202 net.cpp:395] conv3_4/2/bn -> conv3_4/2/conv (in-place)
I0222 22:45:44.338949 26202 net.cpp:150] Setting up conv3_4/2/bn
I0222 22:45:44.338958 26202 net.cpp:157] Top shape: 1 48 108 180 (933120)
I0222 22:45:44.338960 26202 net.cpp:165] Memory required for data: 1506677844
I0222 22:45:44.338968 26202 layer_factory.hpp:77] Creating layer conv3_4/2/conv_conv3_4/2/bn_0_split
I0222 22:45:44.338973 26202 net.cpp:100] Creating Layer conv3_4/2/conv_conv3_4/2/bn_0_split
I0222 22:45:44.338977 26202 net.cpp:434] conv3_4/2/conv_conv3_4/2/bn_0_split <- conv3_4/2/conv
I0222 22:45:44.338982 26202 net.cpp:408] conv3_4/2/conv_conv3_4/2/bn_0_split -> conv3_4/2/conv_conv3_4/2/bn_0_split_0
I0222 22:45:44.338989 26202 net.cpp:408] conv3_4/2/conv_conv3_4/2/bn_0_split -> conv3_4/2/conv_conv3_4/2/bn_0_split_1
I0222 22:45:44.339026 26202 net.cpp:150] Setting up conv3_4/2/conv_conv3_4/2/bn_0_split
I0222 22:45:44.339032 26202 net.cpp:157] Top shape: 1 48 108 180 (933120)
I0222 22:45:44.339037 26202 net.cpp:157] Top shape: 1 48 108 180 (933120)
I0222 22:45:44.339040 26202 net.cpp:165] Memory required for data: 1514142804
I0222 22:45:44.339043 26202 layer_factory.hpp:77] Creating layer conv3_4/2/neg
I0222 22:45:44.339049 26202 net.cpp:100] Creating Layer conv3_4/2/neg
I0222 22:45:44.339053 26202 net.cpp:434] conv3_4/2/neg <- conv3_4/2/conv_conv3_4/2/bn_0_split_0
I0222 22:45:44.339059 26202 net.cpp:408] conv3_4/2/neg -> conv3_4/2/neg
I0222 22:45:44.339084 26202 net.cpp:150] Setting up conv3_4/2/neg
I0222 22:45:44.339089 26202 net.cpp:157] Top shape: 1 48 108 180 (933120)
I0222 22:45:44.339093 26202 net.cpp:165] Memory required for data: 1517875284
I0222 22:45:44.339097 26202 layer_factory.hpp:77] Creating layer conv3_4/2/concat
I0222 22:45:44.339102 26202 net.cpp:100] Creating Layer conv3_4/2/concat
I0222 22:45:44.339104 26202 net.cpp:434] conv3_4/2/concat <- conv3_4/2/conv_conv3_4/2/bn_0_split_1
I0222 22:45:44.339109 26202 net.cpp:434] conv3_4/2/concat <- conv3_4/2/neg
I0222 22:45:44.339115 26202 net.cpp:408] conv3_4/2/concat -> conv3_4/2
I0222 22:45:44.339138 26202 net.cpp:150] Setting up conv3_4/2/concat
I0222 22:45:44.339144 26202 net.cpp:157] Top shape: 1 96 108 180 (1866240)
I0222 22:45:44.339148 26202 net.cpp:165] Memory required for data: 1525340244
I0222 22:45:44.339151 26202 layer_factory.hpp:77] Creating layer conv3_4/2/scale
I0222 22:45:44.339172 26202 net.cpp:100] Creating Layer conv3_4/2/scale
I0222 22:45:44.339176 26202 net.cpp:434] conv3_4/2/scale <- conv3_4/2
I0222 22:45:44.339181 26202 net.cpp:395] conv3_4/2/scale -> conv3_4/2 (in-place)
I0222 22:45:44.339221 26202 layer_factory.hpp:77] Creating layer conv3_4/2/scale
I0222 22:45:44.339876 26202 net.cpp:150] Setting up conv3_4/2/scale
I0222 22:45:44.339887 26202 net.cpp:157] Top shape: 1 96 108 180 (1866240)
I0222 22:45:44.339891 26202 net.cpp:165] Memory required for data: 1532805204
I0222 22:45:44.339897 26202 layer_factory.hpp:77] Creating layer conv3_4/2/relu
I0222 22:45:44.339903 26202 net.cpp:100] Creating Layer conv3_4/2/relu
I0222 22:45:44.339906 26202 net.cpp:434] conv3_4/2/relu <- conv3_4/2
I0222 22:45:44.339911 26202 net.cpp:395] conv3_4/2/relu -> conv3_4/2 (in-place)
I0222 22:45:44.340242 26202 net.cpp:150] Setting up conv3_4/2/relu
I0222 22:45:44.340255 26202 net.cpp:157] Top shape: 1 96 108 180 (1866240)
I0222 22:45:44.340257 26202 net.cpp:165] Memory required for data: 1540270164
I0222 22:45:44.340261 26202 layer_factory.hpp:77] Creating layer conv3_4/3/conv
I0222 22:45:44.340272 26202 net.cpp:100] Creating Layer conv3_4/3/conv
I0222 22:45:44.340276 26202 net.cpp:434] conv3_4/3/conv <- conv3_4/2
I0222 22:45:44.340282 26202 net.cpp:408] conv3_4/3/conv -> conv3_4/3
I0222 22:45:44.341543 26202 net.cpp:150] Setting up conv3_4/3/conv
I0222 22:45:44.341557 26202 net.cpp:157] Top shape: 1 128 108 180 (2488320)
I0222 22:45:44.341560 26202 net.cpp:165] Memory required for data: 1550223444
I0222 22:45:44.341565 26202 layer_factory.hpp:77] Creating layer conv3_4/3/bn
I0222 22:45:44.341574 26202 net.cpp:100] Creating Layer conv3_4/3/bn
I0222 22:45:44.341578 26202 net.cpp:434] conv3_4/3/bn <- conv3_4/3
I0222 22:45:44.341588 26202 net.cpp:395] conv3_4/3/bn -> conv3_4/3 (in-place)
I0222 22:45:44.341800 26202 net.cpp:150] Setting up conv3_4/3/bn
I0222 22:45:44.341809 26202 net.cpp:157] Top shape: 1 128 108 180 (2488320)
I0222 22:45:44.341812 26202 net.cpp:165] Memory required for data: 1560176724
I0222 22:45:44.341820 26202 layer_factory.hpp:77] Creating layer conv3_4/3/bn_scale
I0222 22:45:44.341826 26202 net.cpp:100] Creating Layer conv3_4/3/bn_scale
I0222 22:45:44.341830 26202 net.cpp:434] conv3_4/3/bn_scale <- conv3_4/3
I0222 22:45:44.341835 26202 net.cpp:395] conv3_4/3/bn_scale -> conv3_4/3 (in-place)
I0222 22:45:44.341876 26202 layer_factory.hpp:77] Creating layer conv3_4/3/bn_scale
I0222 22:45:44.342016 26202 net.cpp:150] Setting up conv3_4/3/bn_scale
I0222 22:45:44.342025 26202 net.cpp:157] Top shape: 1 128 108 180 (2488320)
I0222 22:45:44.342027 26202 net.cpp:165] Memory required for data: 1570130004
I0222 22:45:44.342032 26202 layer_factory.hpp:77] Creating layer conv3_4/input
I0222 22:45:44.342039 26202 net.cpp:100] Creating Layer conv3_4/input
I0222 22:45:44.342043 26202 net.cpp:434] conv3_4/input <- conv3_3_conv3_3_0_split_1
I0222 22:45:44.342049 26202 net.cpp:408] conv3_4/input -> conv3_4/input
I0222 22:45:44.342077 26202 net.cpp:150] Setting up conv3_4/input
I0222 22:45:44.342083 26202 net.cpp:157] Top shape: 1 128 108 180 (2488320)
I0222 22:45:44.342087 26202 net.cpp:165] Memory required for data: 1580083284
I0222 22:45:44.342089 26202 layer_factory.hpp:77] Creating layer conv3_4
I0222 22:45:44.342095 26202 net.cpp:100] Creating Layer conv3_4
I0222 22:45:44.342098 26202 net.cpp:434] conv3_4 <- conv3_4/3
I0222 22:45:44.342104 26202 net.cpp:434] conv3_4 <- conv3_4/input
I0222 22:45:44.342109 26202 net.cpp:408] conv3_4 -> conv3_4
I0222 22:45:44.342133 26202 net.cpp:150] Setting up conv3_4
I0222 22:45:44.342139 26202 net.cpp:157] Top shape: 1 128 108 180 (2488320)
I0222 22:45:44.342142 26202 net.cpp:165] Memory required for data: 1590036564
I0222 22:45:44.342145 26202 layer_factory.hpp:77] Creating layer conv3_4_conv3_4_0_split
I0222 22:45:44.342152 26202 net.cpp:100] Creating Layer conv3_4_conv3_4_0_split
I0222 22:45:44.342155 26202 net.cpp:434] conv3_4_conv3_4_0_split <- conv3_4
I0222 22:45:44.342162 26202 net.cpp:408] conv3_4_conv3_4_0_split -> conv3_4_conv3_4_0_split_0
I0222 22:45:44.342170 26202 net.cpp:408] conv3_4_conv3_4_0_split -> conv3_4_conv3_4_0_split_1
I0222 22:45:44.342175 26202 net.cpp:408] conv3_4_conv3_4_0_split -> conv3_4_conv3_4_0_split_2
I0222 22:45:44.342187 26202 net.cpp:408] conv3_4_conv3_4_0_split -> conv3_4_conv3_4_0_split_3
I0222 22:45:44.342193 26202 net.cpp:408] conv3_4_conv3_4_0_split -> conv3_4_conv3_4_0_split_4
I0222 22:45:44.342198 26202 net.cpp:408] conv3_4_conv3_4_0_split -> conv3_4_conv3_4_0_split_5
I0222 22:45:44.342283 26202 net.cpp:150] Setting up conv3_4_conv3_4_0_split
I0222 22:45:44.342291 26202 net.cpp:157] Top shape: 1 128 108 180 (2488320)
I0222 22:45:44.342296 26202 net.cpp:157] Top shape: 1 128 108 180 (2488320)
I0222 22:45:44.342299 26202 net.cpp:157] Top shape: 1 128 108 180 (2488320)
I0222 22:45:44.342303 26202 net.cpp:157] Top shape: 1 128 108 180 (2488320)
I0222 22:45:44.342308 26202 net.cpp:157] Top shape: 1 128 108 180 (2488320)
I0222 22:45:44.342311 26202 net.cpp:157] Top shape: 1 128 108 180 (2488320)
I0222 22:45:44.342314 26202 net.cpp:165] Memory required for data: 1649756244
I0222 22:45:44.342319 26202 layer_factory.hpp:77] Creating layer conv4_1/incep/0/conv
I0222 22:45:44.342325 26202 net.cpp:100] Creating Layer conv4_1/incep/0/conv
I0222 22:45:44.342329 26202 net.cpp:434] conv4_1/incep/0/conv <- conv3_4_conv3_4_0_split_0
I0222 22:45:44.342336 26202 net.cpp:408] conv4_1/incep/0/conv -> conv4_1/incep/0
I0222 22:45:44.343430 26202 net.cpp:150] Setting up conv4_1/incep/0/conv
I0222 22:45:44.343446 26202 net.cpp:157] Top shape: 1 64 54 90 (311040)
I0222 22:45:44.343448 26202 net.cpp:165] Memory required for data: 1651000404
I0222 22:45:44.343454 26202 layer_factory.hpp:77] Creating layer conv4_1/incep/0/bn
I0222 22:45:44.343466 26202 net.cpp:100] Creating Layer conv4_1/incep/0/bn
I0222 22:45:44.343472 26202 net.cpp:434] conv4_1/incep/0/bn <- conv4_1/incep/0
I0222 22:45:44.343477 26202 net.cpp:395] conv4_1/incep/0/bn -> conv4_1/incep/0 (in-place)
I0222 22:45:44.343686 26202 net.cpp:150] Setting up conv4_1/incep/0/bn
I0222 22:45:44.343693 26202 net.cpp:157] Top shape: 1 64 54 90 (311040)
I0222 22:45:44.343698 26202 net.cpp:165] Memory required for data: 1652244564
I0222 22:45:44.343704 26202 layer_factory.hpp:77] Creating layer conv4_1/incep/0/bn_scale
I0222 22:45:44.343711 26202 net.cpp:100] Creating Layer conv4_1/incep/0/bn_scale
I0222 22:45:44.343715 26202 net.cpp:434] conv4_1/incep/0/bn_scale <- conv4_1/incep/0
I0222 22:45:44.343720 26202 net.cpp:395] conv4_1/incep/0/bn_scale -> conv4_1/incep/0 (in-place)
I0222 22:45:44.343762 26202 layer_factory.hpp:77] Creating layer conv4_1/incep/0/bn_scale
I0222 22:45:44.343890 26202 net.cpp:150] Setting up conv4_1/incep/0/bn_scale
I0222 22:45:44.343897 26202 net.cpp:157] Top shape: 1 64 54 90 (311040)
I0222 22:45:44.343900 26202 net.cpp:165] Memory required for data: 1653488724
I0222 22:45:44.343906 26202 layer_factory.hpp:77] Creating layer conv4_1/incep/0/relu
I0222 22:45:44.343912 26202 net.cpp:100] Creating Layer conv4_1/incep/0/relu
I0222 22:45:44.343916 26202 net.cpp:434] conv4_1/incep/0/relu <- conv4_1/incep/0
I0222 22:45:44.343920 26202 net.cpp:395] conv4_1/incep/0/relu -> conv4_1/incep/0 (in-place)
I0222 22:45:44.344256 26202 net.cpp:150] Setting up conv4_1/incep/0/relu
I0222 22:45:44.344269 26202 net.cpp:157] Top shape: 1 64 54 90 (311040)
I0222 22:45:44.344271 26202 net.cpp:165] Memory required for data: 1654732884
I0222 22:45:44.344275 26202 layer_factory.hpp:77] Creating layer conv4_1/incep/1_reduce/conv
I0222 22:45:44.344285 26202 net.cpp:100] Creating Layer conv4_1/incep/1_reduce/conv
I0222 22:45:44.344290 26202 net.cpp:434] conv4_1/incep/1_reduce/conv <- conv3_4_conv3_4_0_split_1
I0222 22:45:44.344297 26202 net.cpp:408] conv4_1/incep/1_reduce/conv -> conv4_1/incep/1_reduce
I0222 22:45:44.345382 26202 net.cpp:150] Setting up conv4_1/incep/1_reduce/conv
I0222 22:45:44.345396 26202 net.cpp:157] Top shape: 1 48 54 90 (233280)
I0222 22:45:44.345399 26202 net.cpp:165] Memory required for data: 1655666004
I0222 22:45:44.345404 26202 layer_factory.hpp:77] Creating layer conv4_1/incep/1_reduce/bn
I0222 22:45:44.345412 26202 net.cpp:100] Creating Layer conv4_1/incep/1_reduce/bn
I0222 22:45:44.345417 26202 net.cpp:434] conv4_1/incep/1_reduce/bn <- conv4_1/incep/1_reduce
I0222 22:45:44.345424 26202 net.cpp:395] conv4_1/incep/1_reduce/bn -> conv4_1/incep/1_reduce (in-place)
I0222 22:45:44.345638 26202 net.cpp:150] Setting up conv4_1/incep/1_reduce/bn
I0222 22:45:44.345644 26202 net.cpp:157] Top shape: 1 48 54 90 (233280)
I0222 22:45:44.345649 26202 net.cpp:165] Memory required for data: 1656599124
I0222 22:45:44.345654 26202 layer_factory.hpp:77] Creating layer conv4_1/incep/1_reduce/bn_scale
I0222 22:45:44.345662 26202 net.cpp:100] Creating Layer conv4_1/incep/1_reduce/bn_scale
I0222 22:45:44.345665 26202 net.cpp:434] conv4_1/incep/1_reduce/bn_scale <- conv4_1/incep/1_reduce
I0222 22:45:44.345671 26202 net.cpp:395] conv4_1/incep/1_reduce/bn_scale -> conv4_1/incep/1_reduce (in-place)
I0222 22:45:44.345711 26202 layer_factory.hpp:77] Creating layer conv4_1/incep/1_reduce/bn_scale
I0222 22:45:44.345845 26202 net.cpp:150] Setting up conv4_1/incep/1_reduce/bn_scale
I0222 22:45:44.345852 26202 net.cpp:157] Top shape: 1 48 54 90 (233280)
I0222 22:45:44.345855 26202 net.cpp:165] Memory required for data: 1657532244
I0222 22:45:44.345861 26202 layer_factory.hpp:77] Creating layer conv4_1/incep/1_reduce/relu
I0222 22:45:44.345867 26202 net.cpp:100] Creating Layer conv4_1/incep/1_reduce/relu
I0222 22:45:44.345870 26202 net.cpp:434] conv4_1/incep/1_reduce/relu <- conv4_1/incep/1_reduce
I0222 22:45:44.345876 26202 net.cpp:395] conv4_1/incep/1_reduce/relu -> conv4_1/incep/1_reduce (in-place)
I0222 22:45:44.346040 26202 net.cpp:150] Setting up conv4_1/incep/1_reduce/relu
I0222 22:45:44.346047 26202 net.cpp:157] Top shape: 1 48 54 90 (233280)
I0222 22:45:44.346055 26202 net.cpp:165] Memory required for data: 1658465364
I0222 22:45:44.346060 26202 layer_factory.hpp:77] Creating layer conv4_1/incep/1_0/conv
I0222 22:45:44.346071 26202 net.cpp:100] Creating Layer conv4_1/incep/1_0/conv
I0222 22:45:44.346076 26202 net.cpp:434] conv4_1/incep/1_0/conv <- conv4_1/incep/1_reduce
I0222 22:45:44.346081 26202 net.cpp:408] conv4_1/incep/1_0/conv -> conv4_1/incep/1_0
I0222 22:45:44.347678 26202 net.cpp:150] Setting up conv4_1/incep/1_0/conv
I0222 22:45:44.347693 26202 net.cpp:157] Top shape: 1 128 54 90 (622080)
I0222 22:45:44.347697 26202 net.cpp:165] Memory required for data: 1660953684
I0222 22:45:44.347702 26202 layer_factory.hpp:77] Creating layer conv4_1/incep/1_0/bn
I0222 22:45:44.347709 26202 net.cpp:100] Creating Layer conv4_1/incep/1_0/bn
I0222 22:45:44.347713 26202 net.cpp:434] conv4_1/incep/1_0/bn <- conv4_1/incep/1_0
I0222 22:45:44.347720 26202 net.cpp:395] conv4_1/incep/1_0/bn -> conv4_1/incep/1_0 (in-place)
I0222 22:45:44.347931 26202 net.cpp:150] Setting up conv4_1/incep/1_0/bn
I0222 22:45:44.347939 26202 net.cpp:157] Top shape: 1 128 54 90 (622080)
I0222 22:45:44.347941 26202 net.cpp:165] Memory required for data: 1663442004
I0222 22:45:44.347949 26202 layer_factory.hpp:77] Creating layer conv4_1/incep/1_0/bn_scale
I0222 22:45:44.347954 26202 net.cpp:100] Creating Layer conv4_1/incep/1_0/bn_scale
I0222 22:45:44.347959 26202 net.cpp:434] conv4_1/incep/1_0/bn_scale <- conv4_1/incep/1_0
I0222 22:45:44.347966 26202 net.cpp:395] conv4_1/incep/1_0/bn_scale -> conv4_1/incep/1_0 (in-place)
I0222 22:45:44.348007 26202 layer_factory.hpp:77] Creating layer conv4_1/incep/1_0/bn_scale
I0222 22:45:44.348130 26202 net.cpp:150] Setting up conv4_1/incep/1_0/bn_scale
I0222 22:45:44.348139 26202 net.cpp:157] Top shape: 1 128 54 90 (622080)
I0222 22:45:44.348141 26202 net.cpp:165] Memory required for data: 1665930324
I0222 22:45:44.348147 26202 layer_factory.hpp:77] Creating layer conv4_1/incep/1_0/relu
I0222 22:45:44.348152 26202 net.cpp:100] Creating Layer conv4_1/incep/1_0/relu
I0222 22:45:44.348156 26202 net.cpp:434] conv4_1/incep/1_0/relu <- conv4_1/incep/1_0
I0222 22:45:44.348161 26202 net.cpp:395] conv4_1/incep/1_0/relu -> conv4_1/incep/1_0 (in-place)
I0222 22:45:44.348497 26202 net.cpp:150] Setting up conv4_1/incep/1_0/relu
I0222 22:45:44.348510 26202 net.cpp:157] Top shape: 1 128 54 90 (622080)
I0222 22:45:44.348512 26202 net.cpp:165] Memory required for data: 1668418644
I0222 22:45:44.348516 26202 layer_factory.hpp:77] Creating layer conv4_1/incep/2_reduce/conv
I0222 22:45:44.348526 26202 net.cpp:100] Creating Layer conv4_1/incep/2_reduce/conv
I0222 22:45:44.348531 26202 net.cpp:434] conv4_1/incep/2_reduce/conv <- conv3_4_conv3_4_0_split_2
I0222 22:45:44.348537 26202 net.cpp:408] conv4_1/incep/2_reduce/conv -> conv4_1/incep/2_reduce
I0222 22:45:44.349467 26202 net.cpp:150] Setting up conv4_1/incep/2_reduce/conv
I0222 22:45:44.349480 26202 net.cpp:157] Top shape: 1 24 54 90 (116640)
I0222 22:45:44.349484 26202 net.cpp:165] Memory required for data: 1668885204
I0222 22:45:44.349489 26202 layer_factory.hpp:77] Creating layer conv4_1/incep/2_reduce/bn
I0222 22:45:44.349498 26202 net.cpp:100] Creating Layer conv4_1/incep/2_reduce/bn
I0222 22:45:44.349503 26202 net.cpp:434] conv4_1/incep/2_reduce/bn <- conv4_1/incep/2_reduce
I0222 22:45:44.349509 26202 net.cpp:395] conv4_1/incep/2_reduce/bn -> conv4_1/incep/2_reduce (in-place)
I0222 22:45:44.349727 26202 net.cpp:150] Setting up conv4_1/incep/2_reduce/bn
I0222 22:45:44.349735 26202 net.cpp:157] Top shape: 1 24 54 90 (116640)
I0222 22:45:44.349737 26202 net.cpp:165] Memory required for data: 1669351764
I0222 22:45:44.349745 26202 layer_factory.hpp:77] Creating layer conv4_1/incep/2_reduce/bn_scale
I0222 22:45:44.349750 26202 net.cpp:100] Creating Layer conv4_1/incep/2_reduce/bn_scale
I0222 22:45:44.349755 26202 net.cpp:434] conv4_1/incep/2_reduce/bn_scale <- conv4_1/incep/2_reduce
I0222 22:45:44.349759 26202 net.cpp:395] conv4_1/incep/2_reduce/bn_scale -> conv4_1/incep/2_reduce (in-place)
I0222 22:45:44.349807 26202 layer_factory.hpp:77] Creating layer conv4_1/incep/2_reduce/bn_scale
I0222 22:45:44.349942 26202 net.cpp:150] Setting up conv4_1/incep/2_reduce/bn_scale
I0222 22:45:44.349949 26202 net.cpp:157] Top shape: 1 24 54 90 (116640)
I0222 22:45:44.349952 26202 net.cpp:165] Memory required for data: 1669818324
I0222 22:45:44.349958 26202 layer_factory.hpp:77] Creating layer conv4_1/incep/2_reduce/relu
I0222 22:45:44.349964 26202 net.cpp:100] Creating Layer conv4_1/incep/2_reduce/relu
I0222 22:45:44.349967 26202 net.cpp:434] conv4_1/incep/2_reduce/relu <- conv4_1/incep/2_reduce
I0222 22:45:44.349973 26202 net.cpp:395] conv4_1/incep/2_reduce/relu -> conv4_1/incep/2_reduce (in-place)
I0222 22:45:44.350311 26202 net.cpp:150] Setting up conv4_1/incep/2_reduce/relu
I0222 22:45:44.350323 26202 net.cpp:157] Top shape: 1 24 54 90 (116640)
I0222 22:45:44.350327 26202 net.cpp:165] Memory required for data: 1670284884
I0222 22:45:44.350330 26202 layer_factory.hpp:77] Creating layer conv4_1/incep/2_0/conv
I0222 22:45:44.350340 26202 net.cpp:100] Creating Layer conv4_1/incep/2_0/conv
I0222 22:45:44.350344 26202 net.cpp:434] conv4_1/incep/2_0/conv <- conv4_1/incep/2_reduce
I0222 22:45:44.350353 26202 net.cpp:408] conv4_1/incep/2_0/conv -> conv4_1/incep/2_0
I0222 22:45:44.351466 26202 net.cpp:150] Setting up conv4_1/incep/2_0/conv
I0222 22:45:44.351478 26202 net.cpp:157] Top shape: 1 48 54 90 (233280)
I0222 22:45:44.351482 26202 net.cpp:165] Memory required for data: 1671218004
I0222 22:45:44.351487 26202 layer_factory.hpp:77] Creating layer conv4_1/incep/2_0/bn
I0222 22:45:44.351496 26202 net.cpp:100] Creating Layer conv4_1/incep/2_0/bn
I0222 22:45:44.351500 26202 net.cpp:434] conv4_1/incep/2_0/bn <- conv4_1/incep/2_0
I0222 22:45:44.351506 26202 net.cpp:395] conv4_1/incep/2_0/bn -> conv4_1/incep/2_0 (in-place)
I0222 22:45:44.351719 26202 net.cpp:150] Setting up conv4_1/incep/2_0/bn
I0222 22:45:44.351727 26202 net.cpp:157] Top shape: 1 48 54 90 (233280)
I0222 22:45:44.351729 26202 net.cpp:165] Memory required for data: 1672151124
I0222 22:45:44.351737 26202 layer_factory.hpp:77] Creating layer conv4_1/incep/2_0/bn_scale
I0222 22:45:44.351744 26202 net.cpp:100] Creating Layer conv4_1/incep/2_0/bn_scale
I0222 22:45:44.351747 26202 net.cpp:434] conv4_1/incep/2_0/bn_scale <- conv4_1/incep/2_0
I0222 22:45:44.351752 26202 net.cpp:395] conv4_1/incep/2_0/bn_scale -> conv4_1/incep/2_0 (in-place)
I0222 22:45:44.351797 26202 layer_factory.hpp:77] Creating layer conv4_1/incep/2_0/bn_scale
I0222 22:45:44.351929 26202 net.cpp:150] Setting up conv4_1/incep/2_0/bn_scale
I0222 22:45:44.351938 26202 net.cpp:157] Top shape: 1 48 54 90 (233280)
I0222 22:45:44.351940 26202 net.cpp:165] Memory required for data: 1673084244
I0222 22:45:44.351946 26202 layer_factory.hpp:77] Creating layer conv4_1/incep/2_0/relu
I0222 22:45:44.351951 26202 net.cpp:100] Creating Layer conv4_1/incep/2_0/relu
I0222 22:45:44.351954 26202 net.cpp:434] conv4_1/incep/2_0/relu <- conv4_1/incep/2_0
I0222 22:45:44.351959 26202 net.cpp:395] conv4_1/incep/2_0/relu -> conv4_1/incep/2_0 (in-place)
I0222 22:45:44.352129 26202 net.cpp:150] Setting up conv4_1/incep/2_0/relu
I0222 22:45:44.352138 26202 net.cpp:157] Top shape: 1 48 54 90 (233280)
I0222 22:45:44.352140 26202 net.cpp:165] Memory required for data: 1674017364
I0222 22:45:44.352144 26202 layer_factory.hpp:77] Creating layer conv4_1/incep/2_1/conv
I0222 22:45:44.352154 26202 net.cpp:100] Creating Layer conv4_1/incep/2_1/conv
I0222 22:45:44.352157 26202 net.cpp:434] conv4_1/incep/2_1/conv <- conv4_1/incep/2_0
I0222 22:45:44.352162 26202 net.cpp:408] conv4_1/incep/2_1/conv -> conv4_1/incep/2_1
I0222 22:45:44.353337 26202 net.cpp:150] Setting up conv4_1/incep/2_1/conv
I0222 22:45:44.353349 26202 net.cpp:157] Top shape: 1 48 54 90 (233280)
I0222 22:45:44.353353 26202 net.cpp:165] Memory required for data: 1674950484
I0222 22:45:44.353358 26202 layer_factory.hpp:77] Creating layer conv4_1/incep/2_1/bn
I0222 22:45:44.353366 26202 net.cpp:100] Creating Layer conv4_1/incep/2_1/bn
I0222 22:45:44.353371 26202 net.cpp:434] conv4_1/incep/2_1/bn <- conv4_1/incep/2_1
I0222 22:45:44.353382 26202 net.cpp:395] conv4_1/incep/2_1/bn -> conv4_1/incep/2_1 (in-place)
I0222 22:45:44.353605 26202 net.cpp:150] Setting up conv4_1/incep/2_1/bn
I0222 22:45:44.353612 26202 net.cpp:157] Top shape: 1 48 54 90 (233280)
I0222 22:45:44.353616 26202 net.cpp:165] Memory required for data: 1675883604
I0222 22:45:44.353622 26202 layer_factory.hpp:77] Creating layer conv4_1/incep/2_1/bn_scale
I0222 22:45:44.353628 26202 net.cpp:100] Creating Layer conv4_1/incep/2_1/bn_scale
I0222 22:45:44.353632 26202 net.cpp:434] conv4_1/incep/2_1/bn_scale <- conv4_1/incep/2_1
I0222 22:45:44.353638 26202 net.cpp:395] conv4_1/incep/2_1/bn_scale -> conv4_1/incep/2_1 (in-place)
I0222 22:45:44.353679 26202 layer_factory.hpp:77] Creating layer conv4_1/incep/2_1/bn_scale
I0222 22:45:44.353817 26202 net.cpp:150] Setting up conv4_1/incep/2_1/bn_scale
I0222 22:45:44.353824 26202 net.cpp:157] Top shape: 1 48 54 90 (233280)
I0222 22:45:44.353827 26202 net.cpp:165] Memory required for data: 1676816724
I0222 22:45:44.353833 26202 layer_factory.hpp:77] Creating layer conv4_1/incep/2_1/relu
I0222 22:45:44.353838 26202 net.cpp:100] Creating Layer conv4_1/incep/2_1/relu
I0222 22:45:44.353842 26202 net.cpp:434] conv4_1/incep/2_1/relu <- conv4_1/incep/2_1
I0222 22:45:44.353848 26202 net.cpp:395] conv4_1/incep/2_1/relu -> conv4_1/incep/2_1 (in-place)
I0222 22:45:44.354182 26202 net.cpp:150] Setting up conv4_1/incep/2_1/relu
I0222 22:45:44.354194 26202 net.cpp:157] Top shape: 1 48 54 90 (233280)
I0222 22:45:44.354197 26202 net.cpp:165] Memory required for data: 1677749844
I0222 22:45:44.354202 26202 layer_factory.hpp:77] Creating layer conv4_1/incep/pool
I0222 22:45:44.354209 26202 net.cpp:100] Creating Layer conv4_1/incep/pool
I0222 22:45:44.354213 26202 net.cpp:434] conv4_1/incep/pool <- conv3_4_conv3_4_0_split_3
I0222 22:45:44.354219 26202 net.cpp:408] conv4_1/incep/pool -> conv4_1/incep/pool
I0222 22:45:44.354274 26202 net.cpp:150] Setting up conv4_1/incep/pool
I0222 22:45:44.354280 26202 net.cpp:157] Top shape: 1 128 54 90 (622080)
I0222 22:45:44.354284 26202 net.cpp:165] Memory required for data: 1680238164
I0222 22:45:44.354286 26202 layer_factory.hpp:77] Creating layer conv4_1/incep/poolproj/conv
I0222 22:45:44.354295 26202 net.cpp:100] Creating Layer conv4_1/incep/poolproj/conv
I0222 22:45:44.354300 26202 net.cpp:434] conv4_1/incep/poolproj/conv <- conv4_1/incep/pool
I0222 22:45:44.354306 26202 net.cpp:408] conv4_1/incep/poolproj/conv -> conv4_1/incep/poolproj
I0222 22:45:44.355309 26202 net.cpp:150] Setting up conv4_1/incep/poolproj/conv
I0222 22:45:44.355324 26202 net.cpp:157] Top shape: 1 128 54 90 (622080)
I0222 22:45:44.355327 26202 net.cpp:165] Memory required for data: 1682726484
I0222 22:45:44.355332 26202 layer_factory.hpp:77] Creating layer conv4_1/incep/poolproj/bn
I0222 22:45:44.355340 26202 net.cpp:100] Creating Layer conv4_1/incep/poolproj/bn
I0222 22:45:44.355345 26202 net.cpp:434] conv4_1/incep/poolproj/bn <- conv4_1/incep/poolproj
I0222 22:45:44.355350 26202 net.cpp:395] conv4_1/incep/poolproj/bn -> conv4_1/incep/poolproj (in-place)
I0222 22:45:44.355558 26202 net.cpp:150] Setting up conv4_1/incep/poolproj/bn
I0222 22:45:44.355566 26202 net.cpp:157] Top shape: 1 128 54 90 (622080)
I0222 22:45:44.355568 26202 net.cpp:165] Memory required for data: 1685214804
I0222 22:45:44.355576 26202 layer_factory.hpp:77] Creating layer conv4_1/incep/poolproj/bn_scale
I0222 22:45:44.355584 26202 net.cpp:100] Creating Layer conv4_1/incep/poolproj/bn_scale
I0222 22:45:44.355587 26202 net.cpp:434] conv4_1/incep/poolproj/bn_scale <- conv4_1/incep/poolproj
I0222 22:45:44.355593 26202 net.cpp:395] conv4_1/incep/poolproj/bn_scale -> conv4_1/incep/poolproj (in-place)
I0222 22:45:44.355634 26202 layer_factory.hpp:77] Creating layer conv4_1/incep/poolproj/bn_scale
I0222 22:45:44.355762 26202 net.cpp:150] Setting up conv4_1/incep/poolproj/bn_scale
I0222 22:45:44.355768 26202 net.cpp:157] Top shape: 1 128 54 90 (622080)
I0222 22:45:44.355772 26202 net.cpp:165] Memory required for data: 1687703124
I0222 22:45:44.355782 26202 layer_factory.hpp:77] Creating layer conv4_1/incep/poolproj/relu
I0222 22:45:44.355789 26202 net.cpp:100] Creating Layer conv4_1/incep/poolproj/relu
I0222 22:45:44.355792 26202 net.cpp:434] conv4_1/incep/poolproj/relu <- conv4_1/incep/poolproj
I0222 22:45:44.355798 26202 net.cpp:395] conv4_1/incep/poolproj/relu -> conv4_1/incep/poolproj (in-place)
I0222 22:45:44.356129 26202 net.cpp:150] Setting up conv4_1/incep/poolproj/relu
I0222 22:45:44.356142 26202 net.cpp:157] Top shape: 1 128 54 90 (622080)
I0222 22:45:44.356144 26202 net.cpp:165] Memory required for data: 1690191444
I0222 22:45:44.356148 26202 layer_factory.hpp:77] Creating layer conv4_1/incep
I0222 22:45:44.356156 26202 net.cpp:100] Creating Layer conv4_1/incep
I0222 22:45:44.356160 26202 net.cpp:434] conv4_1/incep <- conv4_1/incep/0
I0222 22:45:44.356165 26202 net.cpp:434] conv4_1/incep <- conv4_1/incep/1_0
I0222 22:45:44.356169 26202 net.cpp:434] conv4_1/incep <- conv4_1/incep/2_1
I0222 22:45:44.356173 26202 net.cpp:434] conv4_1/incep <- conv4_1/incep/poolproj
I0222 22:45:44.356178 26202 net.cpp:408] conv4_1/incep -> conv4_1/incep
I0222 22:45:44.356212 26202 net.cpp:150] Setting up conv4_1/incep
I0222 22:45:44.356220 26202 net.cpp:157] Top shape: 1 368 54 90 (1788480)
I0222 22:45:44.356222 26202 net.cpp:165] Memory required for data: 1697345364
I0222 22:45:44.356226 26202 layer_factory.hpp:77] Creating layer conv4_1/out/conv
I0222 22:45:44.356235 26202 net.cpp:100] Creating Layer conv4_1/out/conv
I0222 22:45:44.356238 26202 net.cpp:434] conv4_1/out/conv <- conv4_1/incep
I0222 22:45:44.356245 26202 net.cpp:408] conv4_1/out/conv -> conv4_1/out
I0222 22:45:44.357980 26202 net.cpp:150] Setting up conv4_1/out/conv
I0222 22:45:44.357993 26202 net.cpp:157] Top shape: 1 256 54 90 (1244160)
I0222 22:45:44.357997 26202 net.cpp:165] Memory required for data: 1702322004
I0222 22:45:44.358002 26202 layer_factory.hpp:77] Creating layer conv4_1/out/bn
I0222 22:45:44.358011 26202 net.cpp:100] Creating Layer conv4_1/out/bn
I0222 22:45:44.358014 26202 net.cpp:434] conv4_1/out/bn <- conv4_1/out
I0222 22:45:44.358021 26202 net.cpp:395] conv4_1/out/bn -> conv4_1/out (in-place)
I0222 22:45:44.358240 26202 net.cpp:150] Setting up conv4_1/out/bn
I0222 22:45:44.358248 26202 net.cpp:157] Top shape: 1 256 54 90 (1244160)
I0222 22:45:44.358252 26202 net.cpp:165] Memory required for data: 1707298644
I0222 22:45:44.358258 26202 layer_factory.hpp:77] Creating layer conv4_1/out/bn_scale
I0222 22:45:44.358266 26202 net.cpp:100] Creating Layer conv4_1/out/bn_scale
I0222 22:45:44.358270 26202 net.cpp:434] conv4_1/out/bn_scale <- conv4_1/out
I0222 22:45:44.358274 26202 net.cpp:395] conv4_1/out/bn_scale -> conv4_1/out (in-place)
I0222 22:45:44.358316 26202 layer_factory.hpp:77] Creating layer conv4_1/out/bn_scale
I0222 22:45:44.358444 26202 net.cpp:150] Setting up conv4_1/out/bn_scale
I0222 22:45:44.358451 26202 net.cpp:157] Top shape: 1 256 54 90 (1244160)
I0222 22:45:44.358454 26202 net.cpp:165] Memory required for data: 1712275284
I0222 22:45:44.358459 26202 layer_factory.hpp:77] Creating layer conv4_1/proj
I0222 22:45:44.358469 26202 net.cpp:100] Creating Layer conv4_1/proj
I0222 22:45:44.358474 26202 net.cpp:434] conv4_1/proj <- conv3_4_conv3_4_0_split_4
I0222 22:45:44.358479 26202 net.cpp:408] conv4_1/proj -> conv4_1/proj
I0222 22:45:44.359819 26202 net.cpp:150] Setting up conv4_1/proj
I0222 22:45:44.359833 26202 net.cpp:157] Top shape: 1 256 54 90 (1244160)
I0222 22:45:44.359835 26202 net.cpp:165] Memory required for data: 1717251924
I0222 22:45:44.359843 26202 layer_factory.hpp:77] Creating layer conv4_1/proj_bn
I0222 22:45:44.359851 26202 net.cpp:100] Creating Layer conv4_1/proj_bn
I0222 22:45:44.359855 26202 net.cpp:434] conv4_1/proj_bn <- conv4_1/proj
I0222 22:45:44.359860 26202 net.cpp:395] conv4_1/proj_bn -> conv4_1/proj (in-place)
I0222 22:45:44.360075 26202 net.cpp:150] Setting up conv4_1/proj_bn
I0222 22:45:44.360082 26202 net.cpp:157] Top shape: 1 256 54 90 (1244160)
I0222 22:45:44.360085 26202 net.cpp:165] Memory required for data: 1722228564
I0222 22:45:44.360096 26202 layer_factory.hpp:77] Creating layer conv4_1/proj_bn_scale
I0222 22:45:44.360105 26202 net.cpp:100] Creating Layer conv4_1/proj_bn_scale
I0222 22:45:44.360110 26202 net.cpp:434] conv4_1/proj_bn_scale <- conv4_1/proj
I0222 22:45:44.360113 26202 net.cpp:395] conv4_1/proj_bn_scale -> conv4_1/proj (in-place)
I0222 22:45:44.360157 26202 layer_factory.hpp:77] Creating layer conv4_1/proj_bn_scale
I0222 22:45:44.360807 26202 net.cpp:150] Setting up conv4_1/proj_bn_scale
I0222 22:45:44.360819 26202 net.cpp:157] Top shape: 1 256 54 90 (1244160)
I0222 22:45:44.360822 26202 net.cpp:165] Memory required for data: 1727205204
I0222 22:45:44.360828 26202 layer_factory.hpp:77] Creating layer conv4_1
I0222 22:45:44.360836 26202 net.cpp:100] Creating Layer conv4_1
I0222 22:45:44.360841 26202 net.cpp:434] conv4_1 <- conv4_1/out
I0222 22:45:44.360846 26202 net.cpp:434] conv4_1 <- conv4_1/proj
I0222 22:45:44.360851 26202 net.cpp:408] conv4_1 -> conv4_1
I0222 22:45:44.360880 26202 net.cpp:150] Setting up conv4_1
I0222 22:45:44.360887 26202 net.cpp:157] Top shape: 1 256 54 90 (1244160)
I0222 22:45:44.360889 26202 net.cpp:165] Memory required for data: 1732181844
I0222 22:45:44.360893 26202 layer_factory.hpp:77] Creating layer conv4_1_conv4_1_0_split
I0222 22:45:44.360899 26202 net.cpp:100] Creating Layer conv4_1_conv4_1_0_split
I0222 22:45:44.360903 26202 net.cpp:434] conv4_1_conv4_1_0_split <- conv4_1
I0222 22:45:44.360908 26202 net.cpp:408] conv4_1_conv4_1_0_split -> conv4_1_conv4_1_0_split_0
I0222 22:45:44.360914 26202 net.cpp:408] conv4_1_conv4_1_0_split -> conv4_1_conv4_1_0_split_1
I0222 22:45:44.360920 26202 net.cpp:408] conv4_1_conv4_1_0_split -> conv4_1_conv4_1_0_split_2
I0222 22:45:44.360927 26202 net.cpp:408] conv4_1_conv4_1_0_split -> conv4_1_conv4_1_0_split_3
I0222 22:45:44.360990 26202 net.cpp:150] Setting up conv4_1_conv4_1_0_split
I0222 22:45:44.360996 26202 net.cpp:157] Top shape: 1 256 54 90 (1244160)
I0222 22:45:44.361001 26202 net.cpp:157] Top shape: 1 256 54 90 (1244160)
I0222 22:45:44.361004 26202 net.cpp:157] Top shape: 1 256 54 90 (1244160)
I0222 22:45:44.361008 26202 net.cpp:157] Top shape: 1 256 54 90 (1244160)
I0222 22:45:44.361011 26202 net.cpp:165] Memory required for data: 1752088404
I0222 22:45:44.361014 26202 layer_factory.hpp:77] Creating layer conv4_2/incep/0/conv
I0222 22:45:44.361023 26202 net.cpp:100] Creating Layer conv4_2/incep/0/conv
I0222 22:45:44.361027 26202 net.cpp:434] conv4_2/incep/0/conv <- conv4_1_conv4_1_0_split_0
I0222 22:45:44.361033 26202 net.cpp:408] conv4_2/incep/0/conv -> conv4_2/incep/0
I0222 22:45:44.362043 26202 net.cpp:150] Setting up conv4_2/incep/0/conv
I0222 22:45:44.362056 26202 net.cpp:157] Top shape: 1 64 54 90 (311040)
I0222 22:45:44.362061 26202 net.cpp:165] Memory required for data: 1753332564
I0222 22:45:44.362066 26202 layer_factory.hpp:77] Creating layer conv4_2/incep/0/bn
I0222 22:45:44.362073 26202 net.cpp:100] Creating Layer conv4_2/incep/0/bn
I0222 22:45:44.362078 26202 net.cpp:434] conv4_2/incep/0/bn <- conv4_2/incep/0
I0222 22:45:44.362084 26202 net.cpp:395] conv4_2/incep/0/bn -> conv4_2/incep/0 (in-place)
I0222 22:45:44.362309 26202 net.cpp:150] Setting up conv4_2/incep/0/bn
I0222 22:45:44.362316 26202 net.cpp:157] Top shape: 1 64 54 90 (311040)
I0222 22:45:44.362320 26202 net.cpp:165] Memory required for data: 1754576724
I0222 22:45:44.362327 26202 layer_factory.hpp:77] Creating layer conv4_2/incep/0/bn_scale
I0222 22:45:44.362334 26202 net.cpp:100] Creating Layer conv4_2/incep/0/bn_scale
I0222 22:45:44.362337 26202 net.cpp:434] conv4_2/incep/0/bn_scale <- conv4_2/incep/0
I0222 22:45:44.362342 26202 net.cpp:395] conv4_2/incep/0/bn_scale -> conv4_2/incep/0 (in-place)
I0222 22:45:44.362385 26202 layer_factory.hpp:77] Creating layer conv4_2/incep/0/bn_scale
I0222 22:45:44.362514 26202 net.cpp:150] Setting up conv4_2/incep/0/bn_scale
I0222 22:45:44.362520 26202 net.cpp:157] Top shape: 1 64 54 90 (311040)
I0222 22:45:44.362524 26202 net.cpp:165] Memory required for data: 1755820884
I0222 22:45:44.362529 26202 layer_factory.hpp:77] Creating layer conv4_2/incep/0/relu
I0222 22:45:44.362538 26202 net.cpp:100] Creating Layer conv4_2/incep/0/relu
I0222 22:45:44.362542 26202 net.cpp:434] conv4_2/incep/0/relu <- conv4_2/incep/0
I0222 22:45:44.362547 26202 net.cpp:395] conv4_2/incep/0/relu -> conv4_2/incep/0 (in-place)
I0222 22:45:44.362890 26202 net.cpp:150] Setting up conv4_2/incep/0/relu
I0222 22:45:44.362902 26202 net.cpp:157] Top shape: 1 64 54 90 (311040)
I0222 22:45:44.362905 26202 net.cpp:165] Memory required for data: 1757065044
I0222 22:45:44.362910 26202 layer_factory.hpp:77] Creating layer conv4_2/incep/1_reduce/conv
I0222 22:45:44.362920 26202 net.cpp:100] Creating Layer conv4_2/incep/1_reduce/conv
I0222 22:45:44.362924 26202 net.cpp:434] conv4_2/incep/1_reduce/conv <- conv4_1_conv4_1_0_split_1
I0222 22:45:44.362931 26202 net.cpp:408] conv4_2/incep/1_reduce/conv -> conv4_2/incep/1_reduce
I0222 22:45:44.364248 26202 net.cpp:150] Setting up conv4_2/incep/1_reduce/conv
I0222 22:45:44.364260 26202 net.cpp:157] Top shape: 1 64 54 90 (311040)
I0222 22:45:44.364264 26202 net.cpp:165] Memory required for data: 1758309204
I0222 22:45:44.364269 26202 layer_factory.hpp:77] Creating layer conv4_2/incep/1_reduce/bn
I0222 22:45:44.364279 26202 net.cpp:100] Creating Layer conv4_2/incep/1_reduce/bn
I0222 22:45:44.364282 26202 net.cpp:434] conv4_2/incep/1_reduce/bn <- conv4_2/incep/1_reduce
I0222 22:45:44.364289 26202 net.cpp:395] conv4_2/incep/1_reduce/bn -> conv4_2/incep/1_reduce (in-place)
I0222 22:45:44.364511 26202 net.cpp:150] Setting up conv4_2/incep/1_reduce/bn
I0222 22:45:44.364517 26202 net.cpp:157] Top shape: 1 64 54 90 (311040)
I0222 22:45:44.364521 26202 net.cpp:165] Memory required for data: 1759553364
I0222 22:45:44.364527 26202 layer_factory.hpp:77] Creating layer conv4_2/incep/1_reduce/bn_scale
I0222 22:45:44.364533 26202 net.cpp:100] Creating Layer conv4_2/incep/1_reduce/bn_scale
I0222 22:45:44.364537 26202 net.cpp:434] conv4_2/incep/1_reduce/bn_scale <- conv4_2/incep/1_reduce
I0222 22:45:44.364544 26202 net.cpp:395] conv4_2/incep/1_reduce/bn_scale -> conv4_2/incep/1_reduce (in-place)
I0222 22:45:44.364586 26202 layer_factory.hpp:77] Creating layer conv4_2/incep/1_reduce/bn_scale
I0222 22:45:44.364717 26202 net.cpp:150] Setting up conv4_2/incep/1_reduce/bn_scale
I0222 22:45:44.364724 26202 net.cpp:157] Top shape: 1 64 54 90 (311040)
I0222 22:45:44.364727 26202 net.cpp:165] Memory required for data: 1760797524
I0222 22:45:44.364732 26202 layer_factory.hpp:77] Creating layer conv4_2/incep/1_reduce/relu
I0222 22:45:44.364738 26202 net.cpp:100] Creating Layer conv4_2/incep/1_reduce/relu
I0222 22:45:44.364742 26202 net.cpp:434] conv4_2/incep/1_reduce/relu <- conv4_2/incep/1_reduce
I0222 22:45:44.364748 26202 net.cpp:395] conv4_2/incep/1_reduce/relu -> conv4_2/incep/1_reduce (in-place)
I0222 22:45:44.364928 26202 net.cpp:150] Setting up conv4_2/incep/1_reduce/relu
I0222 22:45:44.364936 26202 net.cpp:157] Top shape: 1 64 54 90 (311040)
I0222 22:45:44.364939 26202 net.cpp:165] Memory required for data: 1762041684
I0222 22:45:44.364943 26202 layer_factory.hpp:77] Creating layer conv4_2/incep/1_0/conv
I0222 22:45:44.364953 26202 net.cpp:100] Creating Layer conv4_2/incep/1_0/conv
I0222 22:45:44.364956 26202 net.cpp:434] conv4_2/incep/1_0/conv <- conv4_2/incep/1_reduce
I0222 22:45:44.364964 26202 net.cpp:408] conv4_2/incep/1_0/conv -> conv4_2/incep/1_0
I0222 22:45:44.366703 26202 net.cpp:150] Setting up conv4_2/incep/1_0/conv
I0222 22:45:44.366716 26202 net.cpp:157] Top shape: 1 128 54 90 (622080)
I0222 22:45:44.366720 26202 net.cpp:165] Memory required for data: 1764530004
I0222 22:45:44.366726 26202 layer_factory.hpp:77] Creating layer conv4_2/incep/1_0/bn
I0222 22:45:44.366734 26202 net.cpp:100] Creating Layer conv4_2/incep/1_0/bn
I0222 22:45:44.366739 26202 net.cpp:434] conv4_2/incep/1_0/bn <- conv4_2/incep/1_0
I0222 22:45:44.366745 26202 net.cpp:395] conv4_2/incep/1_0/bn -> conv4_2/incep/1_0 (in-place)
I0222 22:45:44.366963 26202 net.cpp:150] Setting up conv4_2/incep/1_0/bn
I0222 22:45:44.366971 26202 net.cpp:157] Top shape: 1 128 54 90 (622080)
I0222 22:45:44.366974 26202 net.cpp:165] Memory required for data: 1767018324
I0222 22:45:44.366986 26202 layer_factory.hpp:77] Creating layer conv4_2/incep/1_0/bn_scale
I0222 22:45:44.366997 26202 net.cpp:100] Creating Layer conv4_2/incep/1_0/bn_scale
I0222 22:45:44.367000 26202 net.cpp:434] conv4_2/incep/1_0/bn_scale <- conv4_2/incep/1_0
I0222 22:45:44.367005 26202 net.cpp:395] conv4_2/incep/1_0/bn_scale -> conv4_2/incep/1_0 (in-place)
I0222 22:45:44.367050 26202 layer_factory.hpp:77] Creating layer conv4_2/incep/1_0/bn_scale
I0222 22:45:44.367173 26202 net.cpp:150] Setting up conv4_2/incep/1_0/bn_scale
I0222 22:45:44.367180 26202 net.cpp:157] Top shape: 1 128 54 90 (622080)
I0222 22:45:44.367183 26202 net.cpp:165] Memory required for data: 1769506644
I0222 22:45:44.367189 26202 layer_factory.hpp:77] Creating layer conv4_2/incep/1_0/relu
I0222 22:45:44.367195 26202 net.cpp:100] Creating Layer conv4_2/incep/1_0/relu
I0222 22:45:44.367198 26202 net.cpp:434] conv4_2/incep/1_0/relu <- conv4_2/incep/1_0
I0222 22:45:44.367204 26202 net.cpp:395] conv4_2/incep/1_0/relu -> conv4_2/incep/1_0 (in-place)
I0222 22:45:44.367545 26202 net.cpp:150] Setting up conv4_2/incep/1_0/relu
I0222 22:45:44.367558 26202 net.cpp:157] Top shape: 1 128 54 90 (622080)
I0222 22:45:44.367560 26202 net.cpp:165] Memory required for data: 1771994964
I0222 22:45:44.367564 26202 layer_factory.hpp:77] Creating layer conv4_2/incep/2_reduce/conv
I0222 22:45:44.367573 26202 net.cpp:100] Creating Layer conv4_2/incep/2_reduce/conv
I0222 22:45:44.367578 26202 net.cpp:434] conv4_2/incep/2_reduce/conv <- conv4_1_conv4_1_0_split_2
I0222 22:45:44.367588 26202 net.cpp:408] conv4_2/incep/2_reduce/conv -> conv4_2/incep/2_reduce
I0222 22:45:44.368541 26202 net.cpp:150] Setting up conv4_2/incep/2_reduce/conv
I0222 22:45:44.368554 26202 net.cpp:157] Top shape: 1 24 54 90 (116640)
I0222 22:45:44.368558 26202 net.cpp:165] Memory required for data: 1772461524
I0222 22:45:44.368563 26202 layer_factory.hpp:77] Creating layer conv4_2/incep/2_reduce/bn
I0222 22:45:44.368571 26202 net.cpp:100] Creating Layer conv4_2/incep/2_reduce/bn
I0222 22:45:44.368576 26202 net.cpp:434] conv4_2/incep/2_reduce/bn <- conv4_2/incep/2_reduce
I0222 22:45:44.368583 26202 net.cpp:395] conv4_2/incep/2_reduce/bn -> conv4_2/incep/2_reduce (in-place)
I0222 22:45:44.368808 26202 net.cpp:150] Setting up conv4_2/incep/2_reduce/bn
I0222 22:45:44.368814 26202 net.cpp:157] Top shape: 1 24 54 90 (116640)
I0222 22:45:44.368818 26202 net.cpp:165] Memory required for data: 1772928084
I0222 22:45:44.368824 26202 layer_factory.hpp:77] Creating layer conv4_2/incep/2_reduce/bn_scale
I0222 22:45:44.368832 26202 net.cpp:100] Creating Layer conv4_2/incep/2_reduce/bn_scale
I0222 22:45:44.368835 26202 net.cpp:434] conv4_2/incep/2_reduce/bn_scale <- conv4_2/incep/2_reduce
I0222 22:45:44.368841 26202 net.cpp:395] conv4_2/incep/2_reduce/bn_scale -> conv4_2/incep/2_reduce (in-place)
I0222 22:45:44.368885 26202 layer_factory.hpp:77] Creating layer conv4_2/incep/2_reduce/bn_scale
I0222 22:45:44.369020 26202 net.cpp:150] Setting up conv4_2/incep/2_reduce/bn_scale
I0222 22:45:44.369027 26202 net.cpp:157] Top shape: 1 24 54 90 (116640)
I0222 22:45:44.369030 26202 net.cpp:165] Memory required for data: 1773394644
I0222 22:45:44.369036 26202 layer_factory.hpp:77] Creating layer conv4_2/incep/2_reduce/relu
I0222 22:45:44.369041 26202 net.cpp:100] Creating Layer conv4_2/incep/2_reduce/relu
I0222 22:45:44.369045 26202 net.cpp:434] conv4_2/incep/2_reduce/relu <- conv4_2/incep/2_reduce
I0222 22:45:44.369051 26202 net.cpp:395] conv4_2/incep/2_reduce/relu -> conv4_2/incep/2_reduce (in-place)
I0222 22:45:44.369387 26202 net.cpp:150] Setting up conv4_2/incep/2_reduce/relu
I0222 22:45:44.369398 26202 net.cpp:157] Top shape: 1 24 54 90 (116640)
I0222 22:45:44.369402 26202 net.cpp:165] Memory required for data: 1773861204
I0222 22:45:44.369405 26202 layer_factory.hpp:77] Creating layer conv4_2/incep/2_0/conv
I0222 22:45:44.369415 26202 net.cpp:100] Creating Layer conv4_2/incep/2_0/conv
I0222 22:45:44.369421 26202 net.cpp:434] conv4_2/incep/2_0/conv <- conv4_2/incep/2_reduce
I0222 22:45:44.369431 26202 net.cpp:408] conv4_2/incep/2_0/conv -> conv4_2/incep/2_0
I0222 22:45:44.370586 26202 net.cpp:150] Setting up conv4_2/incep/2_0/conv
I0222 22:45:44.370600 26202 net.cpp:157] Top shape: 1 48 54 90 (233280)
I0222 22:45:44.370604 26202 net.cpp:165] Memory required for data: 1774794324
I0222 22:45:44.370609 26202 layer_factory.hpp:77] Creating layer conv4_2/incep/2_0/bn
I0222 22:45:44.370616 26202 net.cpp:100] Creating Layer conv4_2/incep/2_0/bn
I0222 22:45:44.370620 26202 net.cpp:434] conv4_2/incep/2_0/bn <- conv4_2/incep/2_0
I0222 22:45:44.370627 26202 net.cpp:395] conv4_2/incep/2_0/bn -> conv4_2/incep/2_0 (in-place)
I0222 22:45:44.370851 26202 net.cpp:150] Setting up conv4_2/incep/2_0/bn
I0222 22:45:44.370858 26202 net.cpp:157] Top shape: 1 48 54 90 (233280)
I0222 22:45:44.370862 26202 net.cpp:165] Memory required for data: 1775727444
I0222 22:45:44.370868 26202 layer_factory.hpp:77] Creating layer conv4_2/incep/2_0/bn_scale
I0222 22:45:44.370874 26202 net.cpp:100] Creating Layer conv4_2/incep/2_0/bn_scale
I0222 22:45:44.370878 26202 net.cpp:434] conv4_2/incep/2_0/bn_scale <- conv4_2/incep/2_0
I0222 22:45:44.370885 26202 net.cpp:395] conv4_2/incep/2_0/bn_scale -> conv4_2/incep/2_0 (in-place)
I0222 22:45:44.370929 26202 layer_factory.hpp:77] Creating layer conv4_2/incep/2_0/bn_scale
I0222 22:45:44.371060 26202 net.cpp:150] Setting up conv4_2/incep/2_0/bn_scale
I0222 22:45:44.371068 26202 net.cpp:157] Top shape: 1 48 54 90 (233280)
I0222 22:45:44.371071 26202 net.cpp:165] Memory required for data: 1776660564
I0222 22:45:44.371078 26202 layer_factory.hpp:77] Creating layer conv4_2/incep/2_0/relu
I0222 22:45:44.371083 26202 net.cpp:100] Creating Layer conv4_2/incep/2_0/relu
I0222 22:45:44.371088 26202 net.cpp:434] conv4_2/incep/2_0/relu <- conv4_2/incep/2_0
I0222 22:45:44.371093 26202 net.cpp:395] conv4_2/incep/2_0/relu -> conv4_2/incep/2_0 (in-place)
I0222 22:45:44.371263 26202 net.cpp:150] Setting up conv4_2/incep/2_0/relu
I0222 22:45:44.371271 26202 net.cpp:157] Top shape: 1 48 54 90 (233280)
I0222 22:45:44.371274 26202 net.cpp:165] Memory required for data: 1777593684
I0222 22:45:44.371279 26202 layer_factory.hpp:77] Creating layer conv4_2/incep/2_1/conv
I0222 22:45:44.371289 26202 net.cpp:100] Creating Layer conv4_2/incep/2_1/conv
I0222 22:45:44.371292 26202 net.cpp:434] conv4_2/incep/2_1/conv <- conv4_2/incep/2_0
I0222 22:45:44.371299 26202 net.cpp:408] conv4_2/incep/2_1/conv -> conv4_2/incep/2_1
I0222 22:45:44.372511 26202 net.cpp:150] Setting up conv4_2/incep/2_1/conv
I0222 22:45:44.372524 26202 net.cpp:157] Top shape: 1 48 54 90 (233280)
I0222 22:45:44.372527 26202 net.cpp:165] Memory required for data: 1778526804
I0222 22:45:44.372532 26202 layer_factory.hpp:77] Creating layer conv4_2/incep/2_1/bn
I0222 22:45:44.372542 26202 net.cpp:100] Creating Layer conv4_2/incep/2_1/bn
I0222 22:45:44.372546 26202 net.cpp:434] conv4_2/incep/2_1/bn <- conv4_2/incep/2_1
I0222 22:45:44.372551 26202 net.cpp:395] conv4_2/incep/2_1/bn -> conv4_2/incep/2_1 (in-place)
I0222 22:45:44.372779 26202 net.cpp:150] Setting up conv4_2/incep/2_1/bn
I0222 22:45:44.372787 26202 net.cpp:157] Top shape: 1 48 54 90 (233280)
I0222 22:45:44.372791 26202 net.cpp:165] Memory required for data: 1779459924
I0222 22:45:44.372797 26202 layer_factory.hpp:77] Creating layer conv4_2/incep/2_1/bn_scale
I0222 22:45:44.372807 26202 net.cpp:100] Creating Layer conv4_2/incep/2_1/bn_scale
I0222 22:45:44.372812 26202 net.cpp:434] conv4_2/incep/2_1/bn_scale <- conv4_2/incep/2_1
I0222 22:45:44.372817 26202 net.cpp:395] conv4_2/incep/2_1/bn_scale -> conv4_2/incep/2_1 (in-place)
I0222 22:45:44.372861 26202 layer_factory.hpp:77] Creating layer conv4_2/incep/2_1/bn_scale
I0222 22:45:44.372994 26202 net.cpp:150] Setting up conv4_2/incep/2_1/bn_scale
I0222 22:45:44.373003 26202 net.cpp:157] Top shape: 1 48 54 90 (233280)
I0222 22:45:44.373005 26202 net.cpp:165] Memory required for data: 1780393044
I0222 22:45:44.373010 26202 layer_factory.hpp:77] Creating layer conv4_2/incep/2_1/relu
I0222 22:45:44.373016 26202 net.cpp:100] Creating Layer conv4_2/incep/2_1/relu
I0222 22:45:44.373024 26202 net.cpp:434] conv4_2/incep/2_1/relu <- conv4_2/incep/2_1
I0222 22:45:44.373030 26202 net.cpp:395] conv4_2/incep/2_1/relu -> conv4_2/incep/2_1 (in-place)
I0222 22:45:44.373366 26202 net.cpp:150] Setting up conv4_2/incep/2_1/relu
I0222 22:45:44.373378 26202 net.cpp:157] Top shape: 1 48 54 90 (233280)
I0222 22:45:44.373381 26202 net.cpp:165] Memory required for data: 1781326164
I0222 22:45:44.373384 26202 layer_factory.hpp:77] Creating layer conv4_2/incep
I0222 22:45:44.373390 26202 net.cpp:100] Creating Layer conv4_2/incep
I0222 22:45:44.373394 26202 net.cpp:434] conv4_2/incep <- conv4_2/incep/0
I0222 22:45:44.373400 26202 net.cpp:434] conv4_2/incep <- conv4_2/incep/1_0
I0222 22:45:44.373404 26202 net.cpp:434] conv4_2/incep <- conv4_2/incep/2_1
I0222 22:45:44.373410 26202 net.cpp:408] conv4_2/incep -> conv4_2/incep
I0222 22:45:44.373443 26202 net.cpp:150] Setting up conv4_2/incep
I0222 22:45:44.373452 26202 net.cpp:157] Top shape: 1 240 54 90 (1166400)
I0222 22:45:44.373456 26202 net.cpp:165] Memory required for data: 1785991764
I0222 22:45:44.373458 26202 layer_factory.hpp:77] Creating layer conv4_2/out/conv
I0222 22:45:44.373466 26202 net.cpp:100] Creating Layer conv4_2/out/conv
I0222 22:45:44.373471 26202 net.cpp:434] conv4_2/out/conv <- conv4_2/incep
I0222 22:45:44.373477 26202 net.cpp:408] conv4_2/out/conv -> conv4_2/out
I0222 22:45:44.375501 26202 net.cpp:150] Setting up conv4_2/out/conv
I0222 22:45:44.375514 26202 net.cpp:157] Top shape: 1 256 54 90 (1244160)
I0222 22:45:44.375519 26202 net.cpp:165] Memory required for data: 1790968404
I0222 22:45:44.375524 26202 layer_factory.hpp:77] Creating layer conv4_2/out/bn
I0222 22:45:44.375532 26202 net.cpp:100] Creating Layer conv4_2/out/bn
I0222 22:45:44.375536 26202 net.cpp:434] conv4_2/out/bn <- conv4_2/out
I0222 22:45:44.375543 26202 net.cpp:395] conv4_2/out/bn -> conv4_2/out (in-place)
I0222 22:45:44.375766 26202 net.cpp:150] Setting up conv4_2/out/bn
I0222 22:45:44.375773 26202 net.cpp:157] Top shape: 1 256 54 90 (1244160)
I0222 22:45:44.375777 26202 net.cpp:165] Memory required for data: 1795945044
I0222 22:45:44.375783 26202 layer_factory.hpp:77] Creating layer conv4_2/out/bn_scale
I0222 22:45:44.375789 26202 net.cpp:100] Creating Layer conv4_2/out/bn_scale
I0222 22:45:44.375793 26202 net.cpp:434] conv4_2/out/bn_scale <- conv4_2/out
I0222 22:45:44.375800 26202 net.cpp:395] conv4_2/out/bn_scale -> conv4_2/out (in-place)
I0222 22:45:44.375844 26202 layer_factory.hpp:77] Creating layer conv4_2/out/bn_scale
I0222 22:45:44.375969 26202 net.cpp:150] Setting up conv4_2/out/bn_scale
I0222 22:45:44.375977 26202 net.cpp:157] Top shape: 1 256 54 90 (1244160)
I0222 22:45:44.375980 26202 net.cpp:165] Memory required for data: 1800921684
…
I0222 22:45:44.459149 26202 net.cpp:434] conv5_3/incep/2_0/bn_scale <- conv5_3/incep/2_0
I0222 22:45:44.459154 26202 net.cpp:395] conv5_3/incep/2_0/bn_scale -> conv5_3/incep/2_0 (in-place)
I0222 22:45:44.459197 26202 layer_factory.hpp:77] Creating layer conv5_3/incep/2_0/bn_scale
I0222 22:45:44.459334 26202 net.cpp:150] Setting up conv5_3/incep/2_0/bn_scale
I0222 22:45:44.459342 26202 net.cpp:157] Top shape: 1 64 27 45 (77760)
I0222 22:45:44.459345 26202 net.cpp:165] Memory required for data: 2071215444
I0222 22:45:44.459350 26202 layer_factory.hpp:77] Creating layer conv5_3/incep/2_0/relu
I0222 22:45:44.459357 26202 net.cpp:100] Creating Layer conv5_3/incep/2_0/relu
I0222 22:45:44.459360 26202 net.cpp:434] conv5_3/incep/2_0/relu <- conv5_3/incep/2_0
I0222 22:45:44.459367 26202 net.cpp:395] conv5_3/incep/2_0/relu -> conv5_3/incep/2_0 (in-place)
I0222 22:45:44.459556 26202 net.cpp:150] Setting up conv5_3/incep/2_0/relu
I0222 22:45:44.459565 26202 net.cpp:157] Top shape: 1 64 27 45 (77760)
I0222 22:45:44.459568 26202 net.cpp:165] Memory required for data: 2071526484
I0222 22:45:44.459573 26202 layer_factory.hpp:77] Creating layer conv5_3/incep/2_1/conv
I0222 22:45:44.459583 26202 net.cpp:100] Creating Layer conv5_3/incep/2_1/conv
I0222 22:45:44.459586 26202 net.cpp:434] conv5_3/incep/2_1/conv <- conv5_3/incep/2_0
I0222 22:45:44.459594 26202 net.cpp:408] conv5_3/incep/2_1/conv -> conv5_3/incep/2_1
I0222 22:45:44.460953 26202 net.cpp:150] Setting up conv5_3/incep/2_1/conv
I0222 22:45:44.460966 26202 net.cpp:157] Top shape: 1 64 27 45 (77760)
I0222 22:45:44.460974 26202 net.cpp:165] Memory required for data: 2071837524
I0222 22:45:44.460980 26202 layer_factory.hpp:77] Creating layer conv5_3/incep/2_1/bn
I0222 22:45:44.460988 26202 net.cpp:100] Creating Layer conv5_3/incep/2_1/bn
I0222 22:45:44.460994 26202 net.cpp:434] conv5_3/incep/2_1/bn <- conv5_3/incep/2_1
I0222 22:45:44.461000 26202 net.cpp:395] conv5_3/incep/2_1/bn -> conv5_3/incep/2_1 (in-place)
I0222 22:45:44.461213 26202 net.cpp:150] Setting up conv5_3/incep/2_1/bn
I0222 22:45:44.461221 26202 net.cpp:157] Top shape: 1 64 27 45 (77760)
I0222 22:45:44.461225 26202 net.cpp:165] Memory required for data: 2072148564
I0222 22:45:44.461230 26202 layer_factory.hpp:77] Creating layer conv5_3/incep/2_1/bn_scale
I0222 22:45:44.461237 26202 net.cpp:100] Creating Layer conv5_3/incep/2_1/bn_scale
I0222 22:45:44.461241 26202 net.cpp:434] conv5_3/incep/2_1/bn_scale <- conv5_3/incep/2_1
I0222 22:45:44.461247 26202 net.cpp:395] conv5_3/incep/2_1/bn_scale -> conv5_3/incep/2_1 (in-place)
I0222 22:45:44.461283 26202 layer_factory.hpp:77] Creating layer conv5_3/incep/2_1/bn_scale
I0222 22:45:44.461419 26202 net.cpp:150] Setting up conv5_3/incep/2_1/bn_scale
I0222 22:45:44.461427 26202 net.cpp:157] Top shape: 1 64 27 45 (77760)
I0222 22:45:44.461431 26202 net.cpp:165] Memory required for data: 2072459604
I0222 22:45:44.461436 26202 layer_factory.hpp:77] Creating layer conv5_3/incep/2_1/relu
I0222 22:45:44.461441 26202 net.cpp:100] Creating Layer conv5_3/incep/2_1/relu
I0222 22:45:44.461446 26202 net.cpp:434] conv5_3/incep/2_1/relu <- conv5_3/incep/2_1
I0222 22:45:44.461450 26202 net.cpp:395] conv5_3/incep/2_1/relu -> conv5_3/incep/2_1 (in-place)
I0222 22:45:44.461819 26202 net.cpp:150] Setting up conv5_3/incep/2_1/relu
I0222 22:45:44.461833 26202 net.cpp:157] Top shape: 1 64 27 45 (77760)
I0222 22:45:44.461836 26202 net.cpp:165] Memory required for data: 2072770644
I0222 22:45:44.461840 26202 layer_factory.hpp:77] Creating layer conv5_3/incep
I0222 22:45:44.461846 26202 net.cpp:100] Creating Layer conv5_3/incep
I0222 22:45:44.461851 26202 net.cpp:434] conv5_3/incep <- conv5_3/incep/0
I0222 22:45:44.461856 26202 net.cpp:434] conv5_3/incep <- conv5_3/incep/1_0
I0222 22:45:44.461860 26202 net.cpp:434] conv5_3/incep <- conv5_3/incep/2_1
I0222 22:45:44.461865 26202 net.cpp:408] conv5_3/incep -> conv5_3/incep
I0222 22:45:44.461896 26202 net.cpp:150] Setting up conv5_3/incep
I0222 22:45:44.461902 26202 net.cpp:157] Top shape: 1 320 27 45 (388800)
I0222 22:45:44.461905 26202 net.cpp:165] Memory required for data: 2074325844
I0222 22:45:44.461908 26202 layer_factory.hpp:77] Creating layer conv5_3/out/conv
I0222 22:45:44.461918 26202 net.cpp:100] Creating Layer conv5_3/out/conv
I0222 22:45:44.461921 26202 net.cpp:434] conv5_3/out/conv <- conv5_3/incep
I0222 22:45:44.461928 26202 net.cpp:408] conv5_3/out/conv -> conv5_3/out
I0222 22:45:44.463717 26202 net.cpp:150] Setting up conv5_3/out/conv
I0222 22:45:44.463732 26202 net.cpp:157] Top shape: 1 384 27 45 (466560)
I0222 22:45:44.463737 26202 net.cpp:165] Memory required for data: 2076192084
I0222 22:45:44.463742 26202 layer_factory.hpp:77] Creating layer conv5_3/out/bn
I0222 22:45:44.463748 26202 net.cpp:100] Creating Layer conv5_3/out/bn
I0222 22:45:44.463752 26202 net.cpp:434] conv5_3/out/bn <- conv5_3/out
I0222 22:45:44.463759 26202 net.cpp:395] conv5_3/out/bn -> conv5_3/out (in-place)
I0222 22:45:44.463981 26202 net.cpp:150] Setting up conv5_3/out/bn
I0222 22:45:44.463989 26202 net.cpp:157] Top shape: 1 384 27 45 (466560)
I0222 22:45:44.463992 26202 net.cpp:165] Memory required for data: 2078058324
I0222 22:45:44.463999 26202 layer_factory.hpp:77] Creating layer conv5_3/out/bn_scale
I0222 22:45:44.464005 26202 net.cpp:100] Creating Layer conv5_3/out/bn_scale
I0222 22:45:44.464010 26202 net.cpp:434] conv5_3/out/bn_scale <- conv5_3/out
I0222 22:45:44.464015 26202 net.cpp:395] conv5_3/out/bn_scale -> conv5_3/out (in-place)
I0222 22:45:44.464057 26202 layer_factory.hpp:77] Creating layer conv5_3/out/bn_scale
I0222 22:45:44.464200 26202 net.cpp:150] Setting up conv5_3/out/bn_scale
I0222 22:45:44.464210 26202 net.cpp:157] Top shape: 1 384 27 45 (466560)
I0222 22:45:44.464215 26202 net.cpp:165] Memory required for data: 2079924564
I0222 22:45:44.464220 26202 layer_factory.hpp:77] Creating layer conv5_3/input
I0222 22:45:44.464226 26202 net.cpp:100] Creating Layer conv5_3/input
I0222 22:45:44.464231 26202 net.cpp:434] conv5_3/input <- conv5_2_conv5_2_0_split_3
I0222 22:45:44.464236 26202 net.cpp:408] conv5_3/input -> conv5_3/input
I0222 22:45:44.464262 26202 net.cpp:150] Setting up conv5_3/input
I0222 22:45:44.464268 26202 net.cpp:157] Top shape: 1 384 27 45 (466560)
I0222 22:45:44.464272 26202 net.cpp:165] Memory required for data: 2081790804
I0222 22:45:44.464275 26202 layer_factory.hpp:77] Creating layer conv5_3
I0222 22:45:44.464280 26202 net.cpp:100] Creating Layer conv5_3
I0222 22:45:44.464284 26202 net.cpp:434] conv5_3 <- conv5_3/out
I0222 22:45:44.464288 26202 net.cpp:434] conv5_3 <- conv5_3/input
I0222 22:45:44.464296 26202 net.cpp:408] conv5_3 -> conv5_3
I0222 22:45:44.464319 26202 net.cpp:150] Setting up conv5_3
I0222 22:45:44.464324 26202 net.cpp:157] Top shape: 1 384 27 45 (466560)
I0222 22:45:44.464328 26202 net.cpp:165] Memory required for data: 2083657044
I0222 22:45:44.464331 26202 layer_factory.hpp:77] Creating layer conv5_3_conv5_3_0_split
I0222 22:45:44.464339 26202 net.cpp:100] Creating Layer conv5_3_conv5_3_0_split
I0222 22:45:44.464342 26202 net.cpp:434] conv5_3_conv5_3_0_split <- conv5_3
I0222 22:45:44.464347 26202 net.cpp:408] conv5_3_conv5_3_0_split -> conv5_3_conv5_3_0_split_0
I0222 22:45:44.464354 26202 net.cpp:408] conv5_3_conv5_3_0_split -> conv5_3_conv5_3_0_split_1
I0222 22:45:44.464360 26202 net.cpp:408] conv5_3_conv5_3_0_split -> conv5_3_conv5_3_0_split_2
I0222 22:45:44.464366 26202 net.cpp:408] conv5_3_conv5_3_0_split -> conv5_3_conv5_3_0_split_3
I0222 22:45:44.464422 26202 net.cpp:150] Setting up conv5_3_conv5_3_0_split
I0222 22:45:44.464428 26202 net.cpp:157] Top shape: 1 384 27 45 (466560)
I0222 22:45:44.464432 26202 net.cpp:157] Top shape: 1 384 27 45 (466560)
I0222 22:45:44.464437 26202 net.cpp:157] Top shape: 1 384 27 45 (466560)
I0222 22:45:44.464439 26202 net.cpp:157] Top shape: 1 384 27 45 (466560)
I0222 22:45:44.464443 26202 net.cpp:165] Memory required for data: 2091122004
I0222 22:45:44.464447 26202 layer_factory.hpp:77] Creating layer conv5_4/incep/0/conv
I0222 22:45:44.464454 26202 net.cpp:100] Creating Layer conv5_4/incep/0/conv
I0222 22:45:44.464458 26202 net.cpp:434] conv5_4/incep/0/conv <- conv5_3_conv5_3_0_split_0
I0222 22:45:44.464465 26202 net.cpp:408] conv5_4/incep/0/conv -> conv5_4/incep/0
I0222 22:45:44.465742 26202 net.cpp:150] Setting up conv5_4/incep/0/conv
I0222 22:45:44.465754 26202 net.cpp:157] Top shape: 1 64 27 45 (77760)
I0222 22:45:44.465759 26202 net.cpp:165] Memory required for data: 2091433044
I0222 22:45:44.465765 26202 layer_factory.hpp:77] Creating layer conv5_4/incep/0/bn
I0222 22:45:44.465772 26202 net.cpp:100] Creating Layer conv5_4/incep/0/bn
I0222 22:45:44.465776 26202 net.cpp:434] conv5_4/incep/0/bn <- conv5_4/incep/0
I0222 22:45:44.465783 26202 net.cpp:395] conv5_4/incep/0/bn -> conv5_4/incep/0 (in-place)
I0222 22:45:44.465999 26202 net.cpp:150] Setting up conv5_4/incep/0/bn
I0222 22:45:44.466006 26202 net.cpp:157] Top shape: 1 64 27 45 (77760)
I0222 22:45:44.466009 26202 net.cpp:165] Memory required for data: 2091744084
I0222 22:45:44.466017 26202 layer_factory.hpp:77] Creating layer conv5_4/incep/0/bn_scale
I0222 22:45:44.466022 26202 net.cpp:100] Creating Layer conv5_4/incep/0/bn_scale
I0222 22:45:44.466027 26202 net.cpp:434] conv5_4/incep/0/bn_scale <- conv5_4/incep/0
I0222 22:45:44.466032 26202 net.cpp:395] conv5_4/incep/0/bn_scale -> conv5_4/incep/0 (in-place)
I0222 22:45:44.466070 26202 layer_factory.hpp:77] Creating layer conv5_4/incep/0/bn_scale
I0222 22:45:44.466217 26202 net.cpp:150] Setting up conv5_4/incep/0/bn_scale
I0222 22:45:44.466225 26202 net.cpp:157] Top shape: 1 64 27 45 (77760)
I0222 22:45:44.466228 26202 net.cpp:165] Memory required for data: 2092055124
I0222 22:45:44.466238 26202 layer_factory.hpp:77] Creating layer conv5_4/incep/0/relu
I0222 22:45:44.466244 26202 net.cpp:100] Creating Layer conv5_4/incep/0/relu
I0222 22:45:44.466248 26202 net.cpp:434] conv5_4/incep/0/relu <- conv5_4/incep/0
I0222 22:45:44.466254 26202 net.cpp:395] conv5_4/incep/0/relu -> conv5_4/incep/0 (in-place)
I0222 22:45:44.466629 26202 net.cpp:150] Setting up conv5_4/incep/0/relu
I0222 22:45:44.466640 26202 net.cpp:157] Top shape: 1 64 27 45 (77760)
I0222 22:45:44.466644 26202 net.cpp:165] Memory required for data: 2092366164
I0222 22:45:44.466647 26202 layer_factory.hpp:77] Creating layer conv5_4/incep/1_reduce/conv
I0222 22:45:44.466656 26202 net.cpp:100] Creating Layer conv5_4/incep/1_reduce/conv
I0222 22:45:44.466661 26202 net.cpp:434] conv5_4/incep/1_reduce/conv <- conv5_3_conv5_3_0_split_1
I0222 22:45:44.466668 26202 net.cpp:408] conv5_4/incep/1_reduce/conv -> conv5_4/incep/1_reduce
I0222 22:45:44.468200 26202 net.cpp:150] Setting up conv5_4/incep/1_reduce/conv
I0222 22:45:44.468214 26202 net.cpp:157] Top shape: 1 96 27 45 (116640)
I0222 22:45:44.468219 26202 net.cpp:165] Memory required for data: 2092832724
I0222 22:45:44.468224 26202 layer_factory.hpp:77] Creating layer conv5_4/incep/1_reduce/bn
I0222 22:45:44.468230 26202 net.cpp:100] Creating Layer conv5_4/incep/1_reduce/bn
I0222 22:45:44.468235 26202 net.cpp:434] conv5_4/incep/1_reduce/bn <- conv5_4/incep/1_reduce
I0222 22:45:44.468242 26202 net.cpp:395] conv5_4/incep/1_reduce/bn -> conv5_4/incep/1_reduce (in-place)
I0222 22:45:44.468456 26202 net.cpp:150] Setting up conv5_4/incep/1_reduce/bn
I0222 22:45:44.468462 26202 net.cpp:157] Top shape: 1 96 27 45 (116640)
I0222 22:45:44.468466 26202 net.cpp:165] Memory required for data: 2093299284
I0222 22:45:44.468473 26202 layer_factory.hpp:77] Creating layer conv5_4/incep/1_reduce/bn_scale
I0222 22:45:44.468479 26202 net.cpp:100] Creating Layer conv5_4/incep/1_reduce/bn_scale
I0222 22:45:44.468482 26202 net.cpp:434] conv5_4/incep/1_reduce/bn_scale <- conv5_4/incep/1_reduce
I0222 22:45:44.468489 26202 net.cpp:395] conv5_4/incep/1_reduce/bn_scale -> conv5_4/incep/1_reduce (in-place)
I0222 22:45:44.468529 26202 layer_factory.hpp:77] Creating layer conv5_4/incep/1_reduce/bn_scale
I0222 22:45:44.468669 26202 net.cpp:150] Setting up conv5_4/incep/1_reduce/bn_scale
I0222 22:45:44.468677 26202 net.cpp:157] Top shape: 1 96 27 45 (116640)
I0222 22:45:44.468679 26202 net.cpp:165] Memory required for data: 2093765844
I0222 22:45:44.468684 26202 layer_factory.hpp:77] Creating layer conv5_4/incep/1_reduce/relu
I0222 22:45:44.468693 26202 net.cpp:100] Creating Layer conv5_4/incep/1_reduce/relu
I0222 22:45:44.468696 26202 net.cpp:434] conv5_4/incep/1_reduce/relu <- conv5_4/incep/1_reduce
I0222 22:45:44.468701 26202 net.cpp:395] conv5_4/incep/1_reduce/relu -> conv5_4/incep/1_reduce (in-place)
I0222 22:45:44.468904 26202 net.cpp:150] Setting up conv5_4/incep/1_reduce/relu
I0222 22:45:44.468914 26202 net.cpp:157] Top shape: 1 96 27 45 (116640)
I0222 22:45:44.468916 26202 net.cpp:165] Memory required for data: 2094232404
I0222 22:45:44.468919 26202 layer_factory.hpp:77] Creating layer conv5_4/incep/1_0/conv
I0222 22:45:44.468930 26202 net.cpp:100] Creating Layer conv5_4/incep/1_0/conv
I0222 22:45:44.468933 26202 net.cpp:434] conv5_4/incep/1_0/conv <- conv5_4/incep/1_reduce
I0222 22:45:44.468940 26202 net.cpp:408] conv5_4/incep/1_0/conv -> conv5_4/incep/1_0
I0222 22:45:44.471735 26202 net.cpp:150] Setting up conv5_4/incep/1_0/conv
I0222 22:45:44.471747 26202 net.cpp:157] Top shape: 1 192 27 45 (233280)
I0222 22:45:44.471751 26202 net.cpp:165] Memory required for data: 2095165524
I0222 22:45:44.471757 26202 layer_factory.hpp:77] Creating layer conv5_4/incep/1_0/bn
I0222 22:45:44.471765 26202 net.cpp:100] Creating Layer conv5_4/incep/1_0/bn
I0222 22:45:44.471771 26202 net.cpp:434] conv5_4/incep/1_0/bn <- conv5_4/incep/1_0
I0222 22:45:44.471777 26202 net.cpp:395] conv5_4/incep/1_0/bn -> conv5_4/incep/1_0 (in-place)
I0222 22:45:44.471992 26202 net.cpp:150] Setting up conv5_4/incep/1_0/bn
I0222 22:45:44.472000 26202 net.cpp:157] Top shape: 1 192 27 45 (233280)
I0222 22:45:44.472007 26202 net.cpp:165] Memory required for data: 2096098644
I0222 22:45:44.472015 26202 layer_factory.hpp:77] Creating layer conv5_4/incep/1_0/bn_scale
I0222 22:45:44.472023 26202 net.cpp:100] Creating Layer conv5_4/incep/1_0/bn_scale
I0222 22:45:44.472026 26202 net.cpp:434] conv5_4/incep/1_0/bn_scale <- conv5_4/incep/1_0
I0222 22:45:44.472033 26202 net.cpp:395] conv5_4/incep/1_0/bn_scale -> conv5_4/incep/1_0 (in-place)
I0222 22:45:44.472069 26202 layer_factory.hpp:77] Creating layer conv5_4/incep/1_0/bn_scale
I0222 22:45:44.472213 26202 net.cpp:150] Setting up conv5_4/incep/1_0/bn_scale
I0222 22:45:44.472219 26202 net.cpp:157] Top shape: 1 192 27 45 (233280)
I0222 22:45:44.472223 26202 net.cpp:165] Memory required for data: 2097031764
I0222 22:45:44.472229 26202 layer_factory.hpp:77] Creating layer conv5_4/incep/1_0/relu
I0222 22:45:44.472234 26202 net.cpp:100] Creating Layer conv5_4/incep/1_0/relu
I0222 22:45:44.472239 26202 net.cpp:434] conv5_4/incep/1_0/relu <- conv5_4/incep/1_0
I0222 22:45:44.472244 26202 net.cpp:395] conv5_4/incep/1_0/relu -> conv5_4/incep/1_0 (in-place)
I0222 22:45:44.472436 26202 net.cpp:150] Setting up conv5_4/incep/1_0/relu
I0222 22:45:44.472445 26202 net.cpp:157] Top shape: 1 192 27 45 (233280)
I0222 22:45:44.472448 26202 net.cpp:165] Memory required for data: 2097964884
I0222 22:45:44.472452 26202 layer_factory.hpp:77] Creating layer conv5_4/incep/2_reduce/conv
I0222 22:45:44.472465 26202 net.cpp:100] Creating Layer conv5_4/incep/2_reduce/conv
I0222 22:45:44.472468 26202 net.cpp:434] conv5_4/incep/2_reduce/conv <- conv5_3_conv5_3_0_split_2
I0222 22:45:44.472475 26202 net.cpp:408] conv5_4/incep/2_reduce/conv -> conv5_4/incep/2_reduce
I0222 22:45:44.474227 26202 net.cpp:150] Setting up conv5_4/incep/2_reduce/conv
I0222 22:45:44.474241 26202 net.cpp:157] Top shape: 1 32 27 45 (38880)
I0222 22:45:44.474244 26202 net.cpp:165] Memory required for data: 2098120404
I0222 22:45:44.474251 26202 layer_factory.hpp:77] Creating layer conv5_4/incep/2_reduce/bn
I0222 22:45:44.474258 26202 net.cpp:100] Creating Layer conv5_4/incep/2_reduce/bn
I0222 22:45:44.474263 26202 net.cpp:434] conv5_4/incep/2_reduce/bn <- conv5_4/incep/2_reduce
I0222 22:45:44.474268 26202 net.cpp:395] conv5_4/incep/2_reduce/bn -> conv5_4/incep/2_reduce (in-place)
I0222 22:45:44.474493 26202 net.cpp:150] Setting up conv5_4/incep/2_reduce/bn
I0222 22:45:44.474500 26202 net.cpp:157] Top shape: 1 32 27 45 (38880)
I0222 22:45:44.474503 26202 net.cpp:165] Memory required for data: 2098275924
I0222 22:45:44.474510 26202 layer_factory.hpp:77] Creating layer conv5_4/incep/2_reduce/bn_scale
I0222 22:45:44.474516 26202 net.cpp:100] Creating Layer conv5_4/incep/2_reduce/bn_scale
I0222 22:45:44.474520 26202 net.cpp:434] conv5_4/incep/2_reduce/bn_scale <- conv5_4/incep/2_reduce
I0222 22:45:44.474525 26202 net.cpp:395] conv5_4/incep/2_reduce/bn_scale -> conv5_4/incep/2_reduce (in-place)
I0222 22:45:44.474567 26202 layer_factory.hpp:77] Creating layer conv5_4/incep/2_reduce/bn_scale
I0222 22:45:44.474714 26202 net.cpp:150] Setting up conv5_4/incep/2_reduce/bn_scale
I0222 22:45:44.474720 26202 net.cpp:157] Top shape: 1 32 27 45 (38880)
I0222 22:45:44.474725 26202 net.cpp:165] Memory required for data: 2098431444
I0222 22:45:44.474730 26202 layer_factory.hpp:77] Creating layer conv5_4/incep/2_reduce/relu
I0222 22:45:44.474735 26202 net.cpp:100] Creating Layer conv5_4/incep/2_reduce/relu
I0222 22:45:44.474740 26202 net.cpp:434] conv5_4/incep/2_reduce/relu <- conv5_4/incep/2_reduce
I0222 22:45:44.474745 26202 net.cpp:395] conv5_4/incep/2_reduce/relu -> conv5_4/incep/2_reduce (in-place)
I0222 22:45:44.475117 26202 net.cpp:150] Setting up conv5_4/incep/2_reduce/relu
I0222 22:45:44.475129 26202 net.cpp:157] Top shape: 1 32 27 45 (38880)
I0222 22:45:44.475132 26202 net.cpp:165] Memory required for data: 2098586964
I0222 22:45:44.475136 26202 layer_factory.hpp:77] Creating layer conv5_4/incep/2_0/conv
I0222 22:45:44.475147 26202 net.cpp:100] Creating Layer conv5_4/incep/2_0/conv
I0222 22:45:44.475150 26202 net.cpp:434] conv5_4/incep/2_0/conv <- conv5_4/incep/2_reduce
I0222 22:45:44.475163 26202 net.cpp:408] conv5_4/incep/2_0/conv -> conv5_4/incep/2_0
I0222 22:45:44.476416 26202 net.cpp:150] Setting up conv5_4/incep/2_0/conv
I0222 22:45:44.476429 26202 net.cpp:157] Top shape: 1 64 27 45 (77760)
I0222 22:45:44.476433 26202 net.cpp:165] Memory required for data: 2098898004
I0222 22:45:44.476438 26202 layer_factory.hpp:77] Creating layer conv5_4/incep/2_0/bn
I0222 22:45:44.476446 26202 net.cpp:100] Creating Layer conv5_4/incep/2_0/bn
I0222 22:45:44.476451 26202 net.cpp:434] conv5_4/incep/2_0/bn <- conv5_4/incep/2_0
I0222 22:45:44.476459 26202 net.cpp:395] conv5_4/incep/2_0/bn -> conv5_4/incep/2_0 (in-place)
I0222 22:45:44.476676 26202 net.cpp:150] Setting up conv5_4/incep/2_0/bn
I0222 22:45:44.476683 26202 net.cpp:157] Top shape: 1 64 27 45 (77760)
I0222 22:45:44.476686 26202 net.cpp:165] Memory required for data: 2099209044
I0222 22:45:44.476693 26202 layer_factory.hpp:77] Creating layer conv5_4/incep/2_0/bn_scale
I0222 22:45:44.476701 26202 net.cpp:100] Creating Layer conv5_4/incep/2_0/bn_scale
I0222 22:45:44.476706 26202 net.cpp:434] conv5_4/incep/2_0/bn_scale <- conv5_4/incep/2_0
I0222 22:45:44.476711 26202 net.cpp:395] conv5_4/incep/2_0/bn_scale -> conv5_4/incep/2_0 (in-place)
I0222 22:45:44.476753 26202 layer_factory.hpp:77] Creating layer conv5_4/incep/2_0/bn_scale
I0222 22:45:44.476896 26202 net.cpp:150] Setting up conv5_4/incep/2_0/bn_scale
I0222 22:45:44.476903 26202 net.cpp:157] Top shape: 1 64 27 45 (77760)
I0222 22:45:44.476907 26202 net.cpp:165] Memory required for data: 2099520084
I0222 22:45:44.476912 26202 layer_factory.hpp:77] Creating layer conv5_4/incep/2_0/relu
I0222 22:45:44.476918 26202 net.cpp:100] Creating Layer conv5_4/incep/2_0/relu
I0222 22:45:44.476922 26202 net.cpp:434] conv5_4/incep/2_0/relu <- conv5_4/incep/2_0
I0222 22:45:44.476927 26202 net.cpp:395] conv5_4/incep/2_0/relu -> conv5_4/incep/2_0 (in-place)
I0222 22:45:44.477121 26202 net.cpp:150] Setting up conv5_4/incep/2_0/relu
I0222 22:45:44.477130 26202 net.cpp:157] Top shape: 1 64 27 45 (77760)
I0222 22:45:44.477134 26202 net.cpp:165] Memory required for data: 2099831124
I0222 22:45:44.477138 26202 layer_factory.hpp:77] Creating layer conv5_4/incep/2_1/conv
I0222 22:45:44.477147 26202 net.cpp:100] Creating Layer conv5_4/incep/2_1/conv
I0222 22:45:44.477151 26202 net.cpp:434] conv5_4/incep/2_1/conv <- conv5_4/incep/2_0
I0222 22:45:44.477159 26202 net.cpp:408] conv5_4/incep/2_1/conv -> conv5_4/incep/2_1
I0222 22:45:44.478540 26202 net.cpp:150] Setting up conv5_4/incep/2_1/conv
I0222 22:45:44.478554 26202 net.cpp:157] Top shape: 1 64 27 45 (77760)
I0222 22:45:44.478557 26202 net.cpp:165] Memory required for data: 2100142164
I0222 22:45:44.478562 26202 layer_factory.hpp:77] Creating layer conv5_4/incep/2_1/bn
I0222 22:45:44.478571 26202 net.cpp:100] Creating Layer conv5_4/incep/2_1/bn
I0222 22:45:44.478575 26202 net.cpp:434] conv5_4/incep/2_1/bn <- conv5_4/incep/2_1
I0222 22:45:44.478582 26202 net.cpp:395] conv5_4/incep/2_1/bn -> conv5_4/incep/2_1 (in-place)
I0222 22:45:44.478804 26202 net.cpp:150] Setting up conv5_4/incep/2_1/bn
I0222 22:45:44.478812 26202 net.cpp:157] Top shape: 1 64 27 45 (77760)
I0222 22:45:44.478816 26202 net.cpp:165] Memory required for data: 2100453204
I0222 22:45:44.478822 26202 layer_factory.hpp:77] Creating layer conv5_4/incep/2_1/bn_scale
I0222 22:45:44.478828 26202 net.cpp:100] Creating Layer conv5_4/incep/2_1/bn_scale
I0222 22:45:44.478832 26202 net.cpp:434] conv5_4/incep/2_1/bn_scale <- conv5_4/incep/2_1
I0222 22:45:44.478838 26202 net.cpp:395] conv5_4/incep/2_1/bn_scale -> conv5_4/incep/2_1 (in-place)
I0222 22:45:44.478876 26202 layer_factory.hpp:77] Creating layer conv5_4/incep/2_1/bn_scale
I0222 22:45:44.479018 26202 net.cpp:150] Setting up conv5_4/incep/2_1/bn_scale
I0222 22:45:44.479027 26202 net.cpp:157] Top shape: 1 64 27 45 (77760)
I0222 22:45:44.479029 26202 net.cpp:165] Memory required for data: 2100764244
I0222 22:45:44.479035 26202 layer_factory.hpp:77] Creating layer conv5_4/incep/2_1/relu
I0222 22:45:44.479045 26202 net.cpp:100] Creating Layer conv5_4/incep/2_1/relu
I0222 22:45:44.479049 26202 net.cpp:434] conv5_4/incep/2_1/relu <- conv5_4/incep/2_1
I0222 22:45:44.479055 26202 net.cpp:395] conv5_4/incep/2_1/relu -> conv5_4/incep/2_1 (in-place)
I0222 22:45:44.479250 26202 net.cpp:150] Setting up conv5_4/incep/2_1/relu
I0222 22:45:44.479259 26202 net.cpp:157] Top shape: 1 64 27 45 (77760)
I0222 22:45:44.479262 26202 net.cpp:165] Memory required for data: 2101075284
I0222 22:45:44.479266 26202 layer_factory.hpp:77] Creating layer conv5_4/incep
I0222 22:45:44.479274 26202 net.cpp:100] Creating Layer conv5_4/incep
I0222 22:45:44.479277 26202 net.cpp:434] conv5_4/incep <- conv5_4/incep/0
I0222 22:45:44.479282 26202 net.cpp:434] conv5_4/incep <- conv5_4/incep/1_0
I0222 22:45:44.479286 26202 net.cpp:434] conv5_4/incep <- conv5_4/incep/2_1
I0222 22:45:44.479291 26202 net.cpp:408] conv5_4/incep -> conv5_4/incep
I0222 22:45:44.479322 26202 net.cpp:150] Setting up conv5_4/incep
I0222 22:45:44.479328 26202 net.cpp:157] Top shape: 1 320 27 45 (388800)
I0222 22:45:44.479331 26202 net.cpp:165] Memory required for data: 2102630484
I0222 22:45:44.479334 26202 layer_factory.hpp:77] Creating layer conv5_4/out/conv
I0222 22:45:44.479343 26202 net.cpp:100] Creating Layer conv5_4/out/conv
I0222 22:45:44.479347 26202 net.cpp:434] conv5_4/out/conv <- conv5_4/incep
I0222 22:45:44.479354 26202 net.cpp:408] conv5_4/out/conv -> conv5_4/out
I0222 22:45:44.481850 26202 net.cpp:150] Setting up conv5_4/out/conv
I0222 22:45:44.481863 26202 net.cpp:157] Top shape: 1 384 27 45 (466560)
I0222 22:45:44.481868 26202 net.cpp:165] Memory required for data: 2104496724
I0222 22:45:44.481873 26202 layer_factory.hpp:77] Creating layer conv5_4/out/bn
I0222 22:45:44.481884 26202 net.cpp:100] Creating Layer conv5_4/out/bn
I0222 22:45:44.481887 26202 net.cpp:434] conv5_4/out/bn <- conv5_4/out
I0222 22:45:44.481894 26202 net.cpp:395] conv5_4/out/bn -> conv5_4/out (in-place)
I0222 22:45:44.482120 26202 net.cpp:150] Setting up conv5_4/out/bn
I0222 22:45:44.482128 26202 net.cpp:157] Top shape: 1 384 27 45 (466560)
I0222 22:45:44.482131 26202 net.cpp:165] Memory required for data: 2106362964
I0222 22:45:44.482139 26202 layer_factory.hpp:77] Creating layer conv5_4/out/bn_scale
I0222 22:45:44.482146 26202 net.cpp:100] Creating Layer conv5_4/out/bn_scale
I0222 22:45:44.482149 26202 net.cpp:434] conv5_4/out/bn_scale <- conv5_4/out
I0222 22:45:44.482156 26202 net.cpp:395] conv5_4/out/bn_scale -> conv5_4/out (in-place)
I0222 22:45:44.482208 26202 layer_factory.hpp:77] Creating layer conv5_4/out/bn_scale
I0222 22:45:44.482357 26202 net.cpp:150] Setting up conv5_4/out/bn_scale
I0222 22:45:44.482363 26202 net.cpp:157] Top shape: 1 384 27 45 (466560)
I0222 22:45:44.482367 26202 net.cpp:165] Memory required for data: 2108229204
I0222 22:45:44.482372 26202 layer_factory.hpp:77] Creating layer conv5_4/input
I0222 22:45:44.482378 26202 net.cpp:100] Creating Layer conv5_4/input
I0222 22:45:44.482383 26202 net.cpp:434] conv5_4/input <- conv5_3_conv5_3_0_split_3
I0222 22:45:44.482388 26202 net.cpp:408] conv5_4/input -> conv5_4/input
I0222 22:45:44.482414 26202 net.cpp:150] Setting up conv5_4/input
I0222 22:45:44.482421 26202 net.cpp:157] Top shape: 1 384 27 45 (466560)
I0222 22:45:44.482425 26202 net.cpp:165] Memory required for data: 2110095444
I0222 22:45:44.482429 26202 layer_factory.hpp:77] Creating layer conv5_4
I0222 22:45:44.482434 26202 net.cpp:100] Creating Layer conv5_4
I0222 22:45:44.482437 26202 net.cpp:434] conv5_4 <- conv5_4/out
I0222 22:45:44.482442 26202 net.cpp:434] conv5_4 <- conv5_4/input
I0222 22:45:44.482447 26202 net.cpp:408] conv5_4 -> conv5_4
I0222 22:45:44.482472 26202 net.cpp:150] Setting up conv5_4
I0222 22:45:44.482478 26202 net.cpp:157] Top shape: 1 384 27 45 (466560)
I0222 22:45:44.482481 26202 net.cpp:165] Memory required for data: 2111961684
I0222 22:45:44.482484 26202 layer_factory.hpp:77] Creating layer downsample
I0222 22:45:44.482491 26202 net.cpp:100] Creating Layer downsample
I0222 22:45:44.482496 26202 net.cpp:434] downsample <- conv3_4_conv3_4_0_split_5
I0222 22:45:44.482504 26202 net.cpp:408] downsample -> downsample
I0222 22:45:44.482544 26202 net.cpp:150] Setting up downsample
I0222 22:45:44.482550 26202 net.cpp:157] Top shape: 1 128 54 90 (622080)
I0222 22:45:44.482553 26202 net.cpp:165] Memory required for data: 2114450004
I0222 22:45:44.482558 26202 layer_factory.hpp:77] Creating layer upsample
I0222 22:45:44.482565 26202 net.cpp:100] Creating Layer upsample
I0222 22:45:44.482569 26202 net.cpp:434] upsample <- conv5_4
I0222 22:45:44.482576 26202 net.cpp:408] upsample -> upsample
I0222 22:45:44.482951 26202 net.cpp:150] Setting up upsample
I0222 22:45:44.482959 26202 net.cpp:157] Top shape: 1 384 54 90 (1866240)
I0222 22:45:44.482962 26202 net.cpp:165] Memory required for data: 2121914964
I0222 22:45:44.482967 26202 layer_factory.hpp:77] Creating layer concat
I0222 22:45:44.482973 26202 net.cpp:100] Creating Layer concat
I0222 22:45:44.482976 26202 net.cpp:434] concat <- downsample
I0222 22:45:44.482981 26202 net.cpp:434] concat <- conv4_4_conv4_4_0_split_5
I0222 22:45:44.482985 26202 net.cpp:434] concat <- upsample
I0222 22:45:44.482991 26202 net.cpp:408] concat -> concat
I0222 22:45:44.483013 26202 net.cpp:150] Setting up concat
I0222 22:45:44.483019 26202 net.cpp:157] Top shape: 1 768 54 90 (3732480)
I0222 22:45:44.483022 26202 net.cpp:165] Memory required for data: 2136844884
I0222 22:45:44.483026 26202 layer_factory.hpp:77] Creating layer concat_concat_0_split
I0222 22:45:44.483033 26202 net.cpp:100] Creating Layer concat_concat_0_split
I0222 22:45:44.483036 26202 net.cpp:434] concat_concat_0_split <- concat
I0222 22:45:44.483042 26202 net.cpp:408] concat_concat_0_split -> concat_concat_0_split_0
I0222 22:45:44.483048 26202 net.cpp:408] concat_concat_0_split -> concat_concat_0_split_1
I0222 22:45:44.483083 26202 net.cpp:150] Setting up concat_concat_0_split
I0222 22:45:44.483089 26202 net.cpp:157] Top shape: 1 768 54 90 (3732480)
I0222 22:45:44.483093 26202 net.cpp:157] Top shape: 1 768 54 90 (3732480)
I0222 22:45:44.483096 26202 net.cpp:165] Memory required for data: 2166704724
I0222 22:45:44.483099 26202 layer_factory.hpp:77] Creating layer convf_rpn
I0222 22:45:44.483109 26202 net.cpp:100] Creating Layer convf_rpn
I0222 22:45:44.483113 26202 net.cpp:434] convf_rpn <- concat_concat_0_split_0
I0222 22:45:44.483119 26202 net.cpp:408] convf_rpn -> convf_rpn
I0222 22:45:44.484988 26202 net.cpp:150] Setting up convf_rpn
I0222 22:45:44.485002 26202 net.cpp:157] Top shape: 1 128 54 90 (622080)
I0222 22:45:44.485005 26202 net.cpp:165] Memory required for data: 2169193044
I0222 22:45:44.485013 26202 layer_factory.hpp:77] Creating layer reluf_rpn
I0222 22:45:44.485018 26202 net.cpp:100] Creating Layer reluf_rpn
I0222 22:45:44.485023 26202 net.cpp:434] reluf_rpn <- convf_rpn
I0222 22:45:44.485030 26202 net.cpp:395] reluf_rpn -> convf_rpn (in-place)
I0222 22:45:44.485399 26202 net.cpp:150] Setting up reluf_rpn
I0222 22:45:44.485409 26202 net.cpp:157] Top shape: 1 128 54 90 (622080)
I0222 22:45:44.485414 26202 net.cpp:165] Memory required for data: 2171681364
I0222 22:45:44.485416 26202 layer_factory.hpp:77] Creating layer convf_rpn_reluf_rpn_0_split
I0222 22:45:44.485425 26202 net.cpp:100] Creating Layer convf_rpn_reluf_rpn_0_split
I0222 22:45:44.485430 26202 net.cpp:434] convf_rpn_reluf_rpn_0_split <- convf_rpn
I0222 22:45:44.485435 26202 net.cpp:408] convf_rpn_reluf_rpn_0_split -> convf_rpn_reluf_rpn_0_split_0
I0222 22:45:44.485443 26202 net.cpp:408] convf_rpn_reluf_rpn_0_split -> convf_rpn_reluf_rpn_0_split_1
I0222 22:45:44.485491 26202 net.cpp:150] Setting up convf_rpn_reluf_rpn_0_split
I0222 22:45:44.485496 26202 net.cpp:157] Top shape: 1 128 54 90 (622080)
I0222 22:45:44.485501 26202 net.cpp:157] Top shape: 1 128 54 90 (622080)
I0222 22:45:44.485503 26202 net.cpp:165] Memory required for data: 2176658004
I0222 22:45:44.485507 26202 layer_factory.hpp:77] Creating layer convf_2
I0222 22:45:44.485519 26202 net.cpp:100] Creating Layer convf_2
I0222 22:45:44.485523 26202 net.cpp:434] convf_2 <- concat_concat_0_split_1
I0222 22:45:44.485532 26202 net.cpp:408] convf_2 -> convf_2
I0222 22:45:44.489356 26202 net.cpp:150] Setting up convf_2
I0222 22:45:44.489369 26202 net.cpp:157] Top shape: 1 384 54 90 (1866240)
I0222 22:45:44.489372 26202 net.cpp:165] Memory required for data: 2184122964
I0222 22:45:44.489437 26202 layer_factory.hpp:77] Creating layer reluf_2
I0222 22:45:44.489445 26202 net.cpp:100] Creating Layer reluf_2
I0222 22:45:44.489449 26202 net.cpp:434] reluf_2 <- convf_2
I0222 22:45:44.489454 26202 net.cpp:395] reluf_2 -> convf_2 (in-place)
I0222 22:45:44.489828 26202 net.cpp:150] Setting up reluf_2
I0222 22:45:44.489840 26202 net.cpp:157] Top shape: 1 384 54 90 (1866240)
I0222 22:45:44.489843 26202 net.cpp:165] Memory required for data: 2191587924
I0222 22:45:44.489847 26202 layer_factory.hpp:77] Creating layer concat_convf
I0222 22:45:44.489856 26202 net.cpp:100] Creating Layer concat_convf
I0222 22:45:44.489861 26202 net.cpp:434] concat_convf <- convf_rpn_reluf_rpn_0_split_0
I0222 22:45:44.489866 26202 net.cpp:434] concat_convf <- convf_2
I0222 22:45:44.489871 26202 net.cpp:408] concat_convf -> convf
I0222 22:45:44.489903 26202 net.cpp:150] Setting up concat_convf
I0222 22:45:44.489910 26202 net.cpp:157] Top shape: 1 512 54 90 (2488320)
I0222 22:45:44.489913 26202 net.cpp:165] Memory required for data: 2201541204
I0222 22:45:44.489917 26202 layer_factory.hpp:77] Creating layer rpn_conv1
I0222 22:45:44.489926 26202 net.cpp:100] Creating Layer rpn_conv1
I0222 22:45:44.489931 26202 net.cpp:434] rpn_conv1 <- convf_rpn_reluf_rpn_0_split_1
I0222 22:45:44.489938 26202 net.cpp:408] rpn_conv1 -> rpn_conv1
I0222 22:45:44.496624 26202 net.cpp:150] Setting up rpn_conv1
I0222 22:45:44.496639 26202 net.cpp:157] Top shape: 1 384 54 90 (1866240)
I0222 22:45:44.496642 26202 net.cpp:165] Memory required for data: 2209006164
I0222 22:45:44.496649 26202 layer_factory.hpp:77] Creating layer rpn_relu1
I0222 22:45:44.496655 26202 net.cpp:100] Creating Layer rpn_relu1
I0222 22:45:44.496659 26202 net.cpp:434] rpn_relu1 <- rpn_conv1
I0222 22:45:44.496666 26202 net.cpp:395] rpn_relu1 -> rpn_conv1 (in-place)
I0222 22:45:44.496875 26202 net.cpp:150] Setting up rpn_relu1
I0222 22:45:44.496884 26202 net.cpp:157] Top shape: 1 384 54 90 (1866240)
I0222 22:45:44.496887 26202 net.cpp:165] Memory required for data: 2216471124
I0222 22:45:44.496891 26202 layer_factory.hpp:77] Creating layer rpn_conv1_rpn_relu1_0_split
I0222 22:45:44.496898 26202 net.cpp:100] Creating Layer rpn_conv1_rpn_relu1_0_split
I0222 22:45:44.496901 26202 net.cpp:434] rpn_conv1_rpn_relu1_0_split <- rpn_conv1
I0222 22:45:44.496907 26202 net.cpp:408] rpn_conv1_rpn_relu1_0_split -> rpn_conv1_rpn_relu1_0_split_0
I0222 22:45:44.496914 26202 net.cpp:408] rpn_conv1_rpn_relu1_0_split -> rpn_conv1_rpn_relu1_0_split_1
I0222 22:45:44.496963 26202 net.cpp:150] Setting up rpn_conv1_rpn_relu1_0_split
I0222 22:45:44.496968 26202 net.cpp:157] Top shape: 1 384 54 90 (1866240)
I0222 22:45:44.496973 26202 net.cpp:157] Top shape: 1 384 54 90 (1866240)
I0222 22:45:44.496976 26202 net.cpp:165] Memory required for data: 2231401044
I0222 22:45:44.496979 26202 layer_factory.hpp:77] Creating layer rpn_cls_score
I0222 22:45:44.496991 26202 net.cpp:100] Creating Layer rpn_cls_score
I0222 22:45:44.496994 26202 net.cpp:434] rpn_cls_score <- rpn_conv1_rpn_relu1_0_split_0
I0222 22:45:44.497001 26202 net.cpp:408] rpn_cls_score -> rpn_cls_score
I0222 22:45:44.498414 26202 net.cpp:150] Setting up rpn_cls_score
I0222 22:45:44.498427 26202 net.cpp:157] Top shape: 1 50 54 90 (243000)
I0222 22:45:44.498432 26202 net.cpp:165] Memory required for data: 2232373044
I0222 22:45:44.498440 26202 layer_factory.hpp:77] Creating layer rpn_cls_score_rpn_cls_score_0_split
I0222 22:45:44.498445 26202 net.cpp:100] Creating Layer rpn_cls_score_rpn_cls_score_0_split
I0222 22:45:44.498450 26202 net.cpp:434] rpn_cls_score_rpn_cls_score_0_split <- rpn_cls_score
I0222 22:45:44.498455 26202 net.cpp:408] rpn_cls_score_rpn_cls_score_0_split -> rpn_cls_score_rpn_cls_score_0_split_0
I0222 22:45:44.498464 26202 net.cpp:408] rpn_cls_score_rpn_cls_score_0_split -> rpn_cls_score_rpn_cls_score_0_split_1
I0222 22:45:44.498514 26202 net.cpp:150] Setting up rpn_cls_score_rpn_cls_score_0_split
I0222 22:45:44.498522 26202 net.cpp:157] Top shape: 1 50 54 90 (243000)
I0222 22:45:44.498525 26202 net.cpp:157] Top shape: 1 50 54 90 (243000)
I0222 22:45:44.498528 26202 net.cpp:165] Memory required for data: 2234317044
I0222 22:45:44.498533 26202 layer_factory.hpp:77] Creating layer rpn_bbox_pred
I0222 22:45:44.498543 26202 net.cpp:100] Creating Layer rpn_bbox_pred
I0222 22:45:44.498548 26202 net.cpp:434] rpn_bbox_pred <- rpn_conv1_rpn_relu1_0_split_1
I0222 22:45:44.498553 26202 net.cpp:408] rpn_bbox_pred -> rpn_bbox_pred
I0222 22:45:44.500152 26202 net.cpp:150] Setting up rpn_bbox_pred
I0222 22:45:44.500165 26202 net.cpp:157] Top shape: 1 100 54 90 (486000)
I0222 22:45:44.500169 26202 net.cpp:165] Memory required for data: 2236261044
I0222 22:45:44.500175 26202 layer_factory.hpp:77] Creating layer rpn_bbox_pred_rpn_bbox_pred_0_split
I0222 22:45:44.500182 26202 net.cpp:100] Creating Layer rpn_bbox_pred_rpn_bbox_pred_0_split
I0222 22:45:44.500186 26202 net.cpp:434] rpn_bbox_pred_rpn_bbox_pred_0_split <- rpn_bbox_pred
I0222 22:45:44.500192 26202 net.cpp:408] rpn_bbox_pred_rpn_bbox_pred_0_split -> rpn_bbox_pred_rpn_bbox_pred_0_split_0
I0222 22:45:44.500200 26202 net.cpp:408] rpn_bbox_pred_rpn_bbox_pred_0_split -> rpn_bbox_pred_rpn_bbox_pred_0_split_1
I0222 22:45:44.500243 26202 net.cpp:150] Setting up rpn_bbox_pred_rpn_bbox_pred_0_split
I0222 22:45:44.500249 26202 net.cpp:157] Top shape: 1 100 54 90 (486000)
I0222 22:45:44.500254 26202 net.cpp:157] Top shape: 1 100 54 90 (486000)
I0222 22:45:44.500257 26202 net.cpp:165] Memory required for data: 2240149044
I0222 22:45:44.500260 26202 layer_factory.hpp:77] Creating layer rpn_cls_score_reshape
I0222 22:45:44.500267 26202 net.cpp:100] Creating Layer rpn_cls_score_reshape
I0222 22:45:44.500272 26202 net.cpp:434] rpn_cls_score_reshape <- rpn_cls_score_rpn_cls_score_0_split_0
I0222 22:45:44.500278 26202 net.cpp:408] rpn_cls_score_reshape -> rpn_cls_score_reshape
I0222 22:45:44.500306 26202 net.cpp:150] Setting up rpn_cls_score_reshape
I0222 22:45:44.500313 26202 net.cpp:157] Top shape: 1 2 1350 90 (243000)
I0222 22:45:44.500315 26202 net.cpp:165] Memory required for data: 2241121044
I0222 22:45:44.500319 26202 layer_factory.hpp:77] Creating layer rpn_cls_score_reshape_rpn_cls_score_reshape_0_split
I0222 22:45:44.500324 26202 net.cpp:100] Creating Layer rpn_cls_score_reshape_rpn_cls_score_reshape_0_split
I0222 22:45:44.500327 26202 net.cpp:434] rpn_cls_score_reshape_rpn_cls_score_reshape_0_split <- rpn_cls_score_reshape
I0222 22:45:44.500334 26202 net.cpp:408] rpn_cls_score_reshape_rpn_cls_score_reshape_0_split -> rpn_cls_score_reshape_rpn_cls_score_reshape_0_split_0
I0222 22:45:44.500342 26202 net.cpp:408] rpn_cls_score_reshape_rpn_cls_score_reshape_0_split -> rpn_cls_score_reshape_rpn_cls_score_reshape_0_split_1
I0222 22:45:44.500380 26202 net.cpp:150] Setting up rpn_cls_score_reshape_rpn_cls_score_reshape_0_split
I0222 22:45:44.500385 26202 net.cpp:157] Top shape: 1 2 1350 90 (243000)
I0222 22:45:44.500389 26202 net.cpp:157] Top shape: 1 2 1350 90 (243000)
I0222 22:45:44.500392 26202 net.cpp:165] Memory required for data: 2243065044
I0222 22:45:44.500396 26202 layer_factory.hpp:77] Creating layer rpn-data
I0222 22:45:44.500941 26202 net.cpp:100] Creating Layer rpn-data
I0222 22:45:44.500952 26202 net.cpp:434] rpn-data <- rpn_cls_score_rpn_cls_score_0_split_1
I0222 22:45:44.500959 26202 net.cpp:434] rpn-data <- gt_boxes_input-data_2_split_0
I0222 22:45:44.500963 26202 net.cpp:434] rpn-data <- im_info_input-data_1_split_0
I0222 22:45:44.500967 26202 net.cpp:434] rpn-data <- data_input-data_0_split_1
I0222 22:45:44.500973 26202 net.cpp:408] rpn-data -> rpn_labels
I0222 22:45:44.500982 26202 net.cpp:408] rpn-data -> rpn_bbox_targets
I0222 22:45:44.500989 26202 net.cpp:408] rpn-data -> rpn_bbox_inside_weights
I0222 22:45:44.500996 26202 net.cpp:408] rpn-data -> rpn_bbox_outside_weights
I0222 22:45:44.503154 26202 net.cpp:150] Setting up rpn-data
I0222 22:45:44.503170 26202 net.cpp:157] Top shape: 1 1 1350 90 (121500)
I0222 22:45:44.503180 26202 net.cpp:157] Top shape: 1 100 54 90 (486000)
I0222 22:45:44.503183 26202 net.cpp:157] Top shape: 1 100 54 90 (486000)
I0222 22:45:44.503187 26202 net.cpp:157] Top shape: 1 100 54 90 (486000)
I0222 22:45:44.503190 26202 net.cpp:165] Memory required for data: 2249383044
I0222 22:45:44.503195 26202 layer_factory.hpp:77] Creating layer rpn_loss_cls
I0222 22:45:44.503202 26202 net.cpp:100] Creating Layer rpn_loss_cls
I0222 22:45:44.503206 26202 net.cpp:434] rpn_loss_cls <- rpn_cls_score_reshape_rpn_cls_score_reshape_0_split_0
I0222 22:45:44.503212 26202 net.cpp:434] rpn_loss_cls <- rpn_labels
…
I0222 22:45:44.508350 26202 net.cpp:157] Top shape: (1)
I0222 22:45:44.508354 26202 net.cpp:160]     with loss weight 1
I0222 22:45:44.508359 26202 net.cpp:165] Memory required for data: 2249383052
I0222 22:45:44.508363 26202 layer_factory.hpp:77] Creating layer rpn_cls_prob
I0222 22:45:44.508369 26202 net.cpp:100] Creating Layer rpn_cls_prob
I0222 22:45:44.508373 26202 net.cpp:434] rpn_cls_prob <- rpn_cls_score_reshape_rpn_cls_score_reshape_0_split_1
I0222 22:45:44.508381 26202 net.cpp:408] rpn_cls_prob -> rpn_cls_prob
I0222 22:45:44.508826 26202 net.cpp:150] Setting up rpn_cls_prob
I0222 22:45:44.508841 26202 net.cpp:157] Top shape: 1 2 1350 90 (243000)
I0222 22:45:44.508844 26202 net.cpp:165] Memory required for data: 2250355052
I0222 22:45:44.508847 26202 layer_factory.hpp:77] Creating layer rpn_cls_prob_reshape
I0222 22:45:44.508855 26202 net.cpp:100] Creating Layer rpn_cls_prob_reshape
I0222 22:45:44.508859 26202 net.cpp:434] rpn_cls_prob_reshape <- rpn_cls_prob
I0222 22:45:44.508867 26202 net.cpp:408] rpn_cls_prob_reshape -> rpn_cls_prob_reshape
I0222 22:45:44.508895 26202 net.cpp:150] Setting up rpn_cls_prob_reshape
I0222 22:45:44.508903 26202 net.cpp:157] Top shape: 1 50 54 90 (243000)
I0222 22:45:44.508906 26202 net.cpp:165] Memory required for data: 2251327052
I0222 22:45:44.508910 26202 layer_factory.hpp:77] Creating layer proposal
I0222 22:45:44.508918 26202 net.cpp:100] Creating Layer proposal
I0222 22:45:44.508920 26202 net.cpp:434] proposal <- rpn_cls_prob_reshape
I0222 22:45:44.508925 26202 net.cpp:434] proposal <- rpn_bbox_pred_rpn_bbox_pred_0_split_1
I0222 22:45:44.508929 26202 net.cpp:434] proposal <- im_info_input-data_1_split_1
I0222 22:45:44.508934 26202 net.cpp:408] proposal -> rpn_rois
I0222 22:45:44.508944 26202 net.cpp:408] proposal -> rpn_scores
I0222 22:45:44.509027 26202 net.cpp:150] Setting up proposal
I0222 22:45:44.509033 26202 net.cpp:157] Top shape: 2000 5 (10000)
I0222 22:45:44.509037 26202 net.cpp:157] Top shape: 2000 (2000)
I0222 22:45:44.509039 26202 net.cpp:165] Memory required for data: 2251375052
I0222 22:45:44.509043 26202 layer_factory.hpp:77] Creating layer mute_rpn_scores
I0222 22:45:44.509048 26202 net.cpp:100] Creating Layer mute_rpn_scores
I0222 22:45:44.509052 26202 net.cpp:434] mute_rpn_scores <- rpn_scores
I0222 22:45:44.509055 26202 net.cpp:150] Setting up mute_rpn_scores
I0222 22:45:44.509058 26202 net.cpp:165] Memory required for data: 2251375052
I0222 22:45:44.509066 26202 layer_factory.hpp:77] Creating layer roi-data
I0222 22:45:44.509220 26202 net.cpp:100] Creating Layer roi-data
I0222 22:45:44.509229 26202 net.cpp:434] roi-data <- rpn_rois
I0222 22:45:44.509235 26202 net.cpp:434] roi-data <- gt_boxes_input-data_2_split_1
I0222 22:45:44.509241 26202 net.cpp:408] roi-data -> rois
I0222 22:45:44.509248 26202 net.cpp:408] roi-data -> labels
I0222 22:45:44.509255 26202 net.cpp:408] roi-data -> bbox_targets
I0222 22:45:44.509261 26202 net.cpp:408] roi-data -> bbox_inside_weights
I0222 22:45:44.509268 26202 net.cpp:408] roi-data -> bbox_outside_weights
I0222 22:45:44.509634 26202 net.cpp:150] Setting up roi-data
I0222 22:45:44.509645 26202 net.cpp:157] Top shape: 1 5 (5)
I0222 22:45:44.509649 26202 net.cpp:157] Top shape: 1 1 (1)
I0222 22:45:44.509654 26202 net.cpp:157] Top shape: 1 8 (8)
I0222 22:45:44.509657 26202 net.cpp:157] Top shape: 1 8 (8)
I0222 22:45:44.509660 26202 net.cpp:157] Top shape: 1 8 (8)
I0222 22:45:44.509663 26202 net.cpp:165] Memory required for data: 2251375172
I0222 22:45:44.509667 26202 layer_factory.hpp:77] Creating layer roi_pool_conv5
I0222 22:45:44.509675 26202 net.cpp:100] Creating Layer roi_pool_conv5
I0222 22:45:44.509678 26202 net.cpp:434] roi_pool_conv5 <- convf
I0222 22:45:44.509683 26202 net.cpp:434] roi_pool_conv5 <- rois
I0222 22:45:44.509690 26202 net.cpp:408] roi_pool_conv5 -> roi_pool_conv5
I0222 22:45:44.509696 26202 roi_pooling_layer.cpp:34] Spatial scale: 0.0625
I0222 22:45:44.509740 26202 net.cpp:150] Setting up roi_pool_conv5
I0222 22:45:44.509747 26202 net.cpp:157] Top shape: 1 512 6 6 (18432)
I0222 22:45:44.509750 26202 net.cpp:165] Memory required for data: 2251448900
I0222 22:45:44.509753 26202 layer_factory.hpp:77] Creating layer fc6
I0222 22:45:44.509760 26202 net.cpp:100] Creating Layer fc6
I0222 22:45:44.509764 26202 net.cpp:434] fc6 <- roi_pool_conv5
I0222 22:45:44.509770 26202 net.cpp:408] fc6 -> fc6
I0222 22:45:45.167500 26202 net.cpp:150] Setting up fc6
I0222 22:45:45.167551 26202 net.cpp:157] Top shape: 1 4096 (4096)
I0222 22:45:45.167554 26202 net.cpp:165] Memory required for data: 2251465284
I0222 22:45:45.167567 26202 layer_factory.hpp:77] Creating layer fc6/bn
I0222 22:45:45.167578 26202 net.cpp:100] Creating Layer fc6/bn
I0222 22:45:45.167585 26202 net.cpp:434] fc6/bn <- fc6
I0222 22:45:45.167594 26202 net.cpp:395] fc6/bn -> fc6 (in-place)
I0222 22:45:45.167816 26202 net.cpp:150] Setting up fc6/bn
I0222 22:45:45.167824 26202 net.cpp:157] Top shape: 1 4096 (4096)
I0222 22:45:45.167827 26202 net.cpp:165] Memory required for data: 2251481668
I0222 22:45:45.167834 26202 layer_factory.hpp:77] Creating layer fc6/scale
I0222 22:45:45.167842 26202 net.cpp:100] Creating Layer fc6/scale
I0222 22:45:45.167846 26202 net.cpp:434] fc6/scale <- fc6
I0222 22:45:45.167850 26202 net.cpp:395] fc6/scale -> fc6 (in-place)
I0222 22:45:45.167906 26202 layer_factory.hpp:77] Creating layer fc6/scale
I0222 22:45:45.168041 26202 net.cpp:150] Setting up fc6/scale
I0222 22:45:45.168047 26202 net.cpp:157] Top shape: 1 4096 (4096)
I0222 22:45:45.168051 26202 net.cpp:165] Memory required for data: 2251498052
I0222 22:45:45.168056 26202 layer_factory.hpp:77] Creating layer fc6/dropout
I0222 22:45:45.168066 26202 net.cpp:100] Creating Layer fc6/dropout
I0222 22:45:45.168068 26202 net.cpp:434] fc6/dropout <- fc6
I0222 22:45:45.168073 26202 net.cpp:395] fc6/dropout -> fc6 (in-place)
I0222 22:45:45.168098 26202 net.cpp:150] Setting up fc6/dropout
I0222 22:45:45.168103 26202 net.cpp:157] Top shape: 1 4096 (4096)
I0222 22:45:45.168107 26202 net.cpp:165] Memory required for data: 2251514436
I0222 22:45:45.168109 26202 layer_factory.hpp:77] Creating layer fc6/relu
I0222 22:45:45.168115 26202 net.cpp:100] Creating Layer fc6/relu
I0222 22:45:45.168119 26202 net.cpp:434] fc6/relu <- fc6
I0222 22:45:45.168125 26202 net.cpp:395] fc6/relu -> fc6 (in-place)
I0222 22:45:45.168421 26202 net.cpp:150] Setting up fc6/relu
I0222 22:45:45.168428 26202 net.cpp:157] Top shape: 1 4096 (4096)
I0222 22:45:45.168432 26202 net.cpp:165] Memory required for data: 2251530820
I0222 22:45:45.168447 26202 layer_factory.hpp:77] Creating layer fc7
I0222 22:45:45.168457 26202 net.cpp:100] Creating Layer fc7
I0222 22:45:45.168462 26202 net.cpp:434] fc7 <- fc6
I0222 22:45:45.168467 26202 net.cpp:408] fc7 -> fc7
I0222 22:45:45.315675 26202 net.cpp:150] Setting up fc7
I0222 22:45:45.315727 26202 net.cpp:157] Top shape: 1 4096 (4096)
I0222 22:45:45.315732 26202 net.cpp:165] Memory required for data: 2251547204
I0222 22:45:45.315743 26202 layer_factory.hpp:77] Creating layer fc7/bn
I0222 22:45:45.315757 26202 net.cpp:100] Creating Layer fc7/bn
I0222 22:45:45.315762 26202 net.cpp:434] fc7/bn <- fc7
I0222 22:45:45.315771 26202 net.cpp:395] fc7/bn -> fc7 (in-place)
I0222 22:45:45.315997 26202 net.cpp:150] Setting up fc7/bn
I0222 22:45:45.316004 26202 net.cpp:157] Top shape: 1 4096 (4096)
I0222 22:45:45.316007 26202 net.cpp:165] Memory required for data: 2251563588
I0222 22:45:45.316015 26202 layer_factory.hpp:77] Creating layer fc7/scale
I0222 22:45:45.316022 26202 net.cpp:100] Creating Layer fc7/scale
I0222 22:45:45.316026 26202 net.cpp:434] fc7/scale <- fc7
I0222 22:45:45.316032 26202 net.cpp:395] fc7/scale -> fc7 (in-place)
I0222 22:45:45.316085 26202 layer_factory.hpp:77] Creating layer fc7/scale
I0222 22:45:45.316220 26202 net.cpp:150] Setting up fc7/scale
I0222 22:45:45.316226 26202 net.cpp:157] Top shape: 1 4096 (4096)
I0222 22:45:45.316229 26202 net.cpp:165] Memory required for data: 2251579972
I0222 22:45:45.316236 26202 layer_factory.hpp:77] Creating layer fc7/dropout
I0222 22:45:45.316242 26202 net.cpp:100] Creating Layer fc7/dropout
I0222 22:45:45.316246 26202 net.cpp:434] fc7/dropout <- fc7
I0222 22:45:45.316252 26202 net.cpp:395] fc7/dropout -> fc7 (in-place)
I0222 22:45:45.316275 26202 net.cpp:150] Setting up fc7/dropout
I0222 22:45:45.316282 26202 net.cpp:157] Top shape: 1 4096 (4096)
I0222 22:45:45.316283 26202 net.cpp:165] Memory required for data: 2251596356
I0222 22:45:45.316287 26202 layer_factory.hpp:77] Creating layer fc7/relu
I0222 22:45:45.316294 26202 net.cpp:100] Creating Layer fc7/relu
I0222 22:45:45.316298 26202 net.cpp:434] fc7/relu <- fc7
I0222 22:45:45.316303 26202 net.cpp:395] fc7/relu -> fc7 (in-place)
I0222 22:45:45.316926 26202 net.cpp:150] Setting up fc7/relu
I0222 22:45:45.316938 26202 net.cpp:157] Top shape: 1 4096 (4096)
I0222 22:45:45.316941 26202 net.cpp:165] Memory required for data: 2251612740
I0222 22:45:45.316946 26202 layer_factory.hpp:77] Creating layer fc7_fc7/relu_0_split
I0222 22:45:45.316954 26202 net.cpp:100] Creating Layer fc7_fc7/relu_0_split
I0222 22:45:45.316958 26202 net.cpp:434] fc7_fc7/relu_0_split <- fc7
I0222 22:45:45.316965 26202 net.cpp:408] fc7_fc7/relu_0_split -> fc7_fc7/relu_0_split_0
I0222 22:45:45.316974 26202 net.cpp:408] fc7_fc7/relu_0_split -> fc7_fc7/relu_0_split_1
I0222 22:45:45.317019 26202 net.cpp:150] Setting up fc7_fc7/relu_0_split
I0222 22:45:45.317026 26202 net.cpp:157] Top shape: 1 4096 (4096)
I0222 22:45:45.317030 26202 net.cpp:157] Top shape: 1 4096 (4096)
I0222 22:45:45.317034 26202 net.cpp:165] Memory required for data: 2251645508
I0222 22:45:45.317036 26202 layer_factory.hpp:77] Creating layer stju_cg_cls_score
I0222 22:45:45.317045 26202 net.cpp:100] Creating Layer stju_cg_cls_score
I0222 22:45:45.317049 26202 net.cpp:434] stju_cg_cls_score <- fc7_fc7/relu_0_split_0
I0222 22:45:45.317057 26202 net.cpp:408] stju_cg_cls_score -> cls_score
I0222 22:45:45.317273 26202 net.cpp:150] Setting up stju_cg_cls_score
I0222 22:45:45.317279 26202 net.cpp:157] Top shape: 1 2 (2)
I0222 22:45:45.317283 26202 net.cpp:165] Memory required for data: 2251645516
I0222 22:45:45.317289 26202 layer_factory.hpp:77] Creating layer sjtu_cg_bbox_pred
I0222 22:45:45.317298 26202 net.cpp:100] Creating Layer sjtu_cg_bbox_pred
I0222 22:45:45.317302 26202 net.cpp:434] sjtu_cg_bbox_pred <- fc7_fc7/relu_0_split_1
I0222 22:45:45.317309 26202 net.cpp:408] sjtu_cg_bbox_pred -> bbox_pred
I0222 22:45:45.318372 26202 net.cpp:150] Setting up sjtu_cg_bbox_pred
I0222 22:45:45.318383 26202 net.cpp:157] Top shape: 1 8 (8)
I0222 22:45:45.318397 26202 net.cpp:165] Memory required for data: 2251645548
I0222 22:45:45.318403 26202 layer_factory.hpp:77] Creating layer loss_cls
I0222 22:45:45.318411 26202 net.cpp:100] Creating Layer loss_cls
I0222 22:45:45.318415 26202 net.cpp:434] loss_cls <- cls_score
I0222 22:45:45.318419 26202 net.cpp:434] loss_cls <- labels
I0222 22:45:45.318426 26202 net.cpp:408] loss_cls -> cls_loss
…
