…
weight_decay: 0.0005
stepsize: 50000
snapshot: 0
snapshot_prefix: "zf_faster_rcnn"
average_loss: 100
iter_size: 2
I0303 16:54:02.081856 23022 solver.cpp:81] Creating training net from train_net file: models/pvanet/full1_ohem/original.pt
I0303 16:54:02.087801 23022 net.cpp:58] Initializing net from parameters: 
name: "PVANET"
state {
  phase: TRAIN
}
layer {
  name: "input-data"
  type: "Python"
  top: "data"
  top: "im_info"
  top: "gt_boxes"
  python_param {
    module: "roi_data_layer.layer"
    layer: "RoIDataLayer"
    param_str: "\'num_classes\': 2"
  }
}
layer {
  name: "conv1_1/conv"
  type: "Convolution"
  bottom: "data"
  top: "conv1_1/conv"
  param {
    lr_mult: 0.1
    decay_mult: 0.1
  }
  convolution_param {
    num_output: 16
    bias_term: false
    weight_filler {
      type: "xavier"
    }
    pad_h: 3
    pad_w: 3
    kernel_h: 7
    kernel_w: 7
    stride_h: 2
    stride_w: 2
  }
}
layer {
  name: "conv1_1/bn"
  type: "BatchNorm"
  bottom: "conv1_1/conv"
  top: "conv1_1/conv"
  param {
    lr_mult: 0
    decay_mult: 0
  }
  param {
    lr_mult: 0
    decay_mult: 0
  }
  param {
    lr_mult: 0
    decay_mult: 0
  }
  batch_norm_param {
    use_global_stats: true
  }
}
layer {
  name: "conv1_1/neg"
  type: "Power"
  bottom: "conv1_1/conv"
  top: "conv1_1/neg"
  power_param {
    power: 1
    scale: -1
    shift: 0
  }
}
layer {
  name: "conv1_1/concat"
  type: "Concat"
  bottom: "conv1_1/conv"
  bottom: "conv1_1/neg"
  top: "conv1_1"
}
layer {
  name: "conv1_1/scale"
  type: "Scale"
  bottom: "conv1_1"
  top: "conv1_1"
  param {
    lr_mult: 0.1
    decay_mult: 0
  }
  param {
    lr_mult: 0.2
    decay_mult: 0
  }
  scale_param {
    bias_term: true
  }
}
layer {
  name: "conv1_1/relu"
  type: "ReLU"
  bottom: "conv1_1"
  top: "conv1_1"
}
layer {
  name: "pool1"
  type: "Pooling"
  bottom: "conv1_1"
  top: "pool1"
  pooling_param {
    pool: MAX
    kernel_size: 3
    stride: 2
    pad: 0
  }
}
layer {
  name: "conv2_1/1/conv"
  type: "Convolution"
  bottom: "pool1"
  top: "conv2_1/1"
  param {
    lr_mult: 0.1
    decay_mult: 0.1
  }
  convolution_param {
    num_output: 24
    bias_term: false
    weight_filler {
      type: "xavier"
    }
    pad_h: 0
    pad_w: 0
    kernel_h: 1
    kernel_w: 1
    stride_h: 1
    stride_w: 1
  }
}
layer {
  name: "conv2_1/1/bn"
  type: "BatchNorm"
  bottom: "conv2_1/1"
  top: "conv2_1/1"
  param {
    lr_mult: 0
    decay_mult: 0
  }
  param {
    lr_mult: 0
    decay_mult: 0
  }
  param {
    lr_mult: 0
    decay_mult: 0
  }
  batch_norm_param {
    use_global_stats: true
  }
}
layer {
  name: "conv2_1/1/bn_scale"
  type: "Scale"
  bottom: "conv2_1/1"
  top: "conv2_1/1"
  param {
    lr_mult: 0.1
    decay_mult: 0
  }
  param {
    lr_mult: 0.1
    decay_mult: 0
  }
  scale_param {
    bias_term: true
  }
}
layer {
  name: "conv2_1/1/relu"
  type: "ReLU"
  bottom: "conv2_1/1"
  top: "conv2_1/1"
}
layer {
  name: "conv2_1/2/conv"
  type: "Convolution"
  bottom: "conv2_1/1"
  top: "conv2_1/2/conv"
  param {
    lr_mult: 0.1
    decay_mult: 0.1
  }
  convolution_param {
    num_output: 24
    bias_term: false
    weight_filler {
      type: "xavier"
    }
    pad_h: 1
    pad_w: 1
    kernel_h: 3
    kernel_w: 3
    stride_h: 1
    stride_w: 1
  }
}
layer {
  name: "conv2_1/2/bn"
  type: "BatchNorm"
  bottom: "conv2_1/2/conv"
  top: "conv2_1/2/conv"
  param {
    lr_mult: 0
    decay_mult: 0
  }
  param {
    lr_mult: 0
    decay_mult: 0
  }
  param {
    lr_mult: 0
    decay_mult: 0
  }
  batch_norm_param {
    use_global_stats: true
  }
}
layer {
  name: "conv2_1/2/neg"
  type: "Power"
  bottom: "conv2_1/2/conv"
  top: "conv2_1/2/neg"
  power_param {
    power: 1
    scale: -1
    shift: 0
  }
}
layer {
  name: "conv2_1/2/concat"
  type: "Concat"
  bottom: "conv2_1/2/conv"
  bottom: "conv2_1/2/neg"
  top: "conv2_1/2"
}
layer {
  name: "conv2_1/2/scale"
  type: "Scale"
  bottom: "conv2_1/2"
  top: "conv2_1/2"
  param {
    lr_mult: 0.1
    decay_mult: 0
  }
  param {
    lr_mult: 0.2
    decay_mult: 0
  }
  scale_param {
    bias_term: true
  }
}
layer {
  name: "conv2_1/2/relu"
  type: "ReLU"
  bottom: "conv2_1/2"
  top: "conv2_1/2"
}
layer {
  name: "conv2_1/3/conv"
  type: "Convolution"
  bottom: "conv2_1/2"
  top: "conv2_1/3"
  param {
    lr_mult: 0.1
    decay_mult: 0.1
  }
  convolution_param {
    num_output: 64
    bias_term: false
    weight_filler {
      type: "xavier"
    }
    pad_h: 0
    pad_w: 0
    kernel_h: 1
    kernel_w: 1
    stride_h: 1
    stride_w: 1
  }
}
layer {
  name: "conv2_1/3/bn"
  type: "BatchNorm"
  bottom: "conv2_1/3"
  top: "conv2_1/3"
  param {
    lr_mult: 0
    decay_mult: 0
  }
  param {
    lr_mult: 0
    decay_mult: 0
  }
  param {
    lr_mult: 0
    decay_mult: 0
  }
  batch_norm_param {
    use_global_stats: true
  }
}
layer {
  name: "conv2_1/3/bn_scale"
  type: "Scale"
  bottom: "conv2_1/3"
  top: "conv2_1/3"
  param {
    lr_mult: 0.1
    decay_mult: 0
  }
  param {
    lr_mult: 0.1
    decay_mult: 0
  }
  scale_param {
    bias_term: true
  }
}
layer {
  name: "conv2_1/proj"
  type: "Convolution"
  bottom: "pool1"
  top: "conv2_1/proj"
  param {
    lr_mult: 0.1
    decay_mult: 0.1
  }
  param {
    lr_mult: 0.2
    decay_mult: 0
  }
  convolution_param {
    num_output: 64
    weight_filler {
      type: "xavier"
    }
    bias_filler {
      type: "constant"
      value: 0.1
    }
    pad_h: 0
    pad_w: 0
    kernel_h: 1
    kernel_w: 1
    stride_h: 1
    stride_w: 1
  }
}
layer {
  name: "conv2_1/proj_bn"
  type: "BatchNorm"
  bottom: "conv2_1/proj"
  top: "conv2_1/proj"
  param {
    lr_mult: 0
    decay_mult: 0
  }
  param {
    lr_mult: 0
    decay_mult: 0
  }
  param {
    lr_mult: 0
    decay_mult: 0
  }
  batch_norm_param {
    use_global_stats: true
  }
}
layer {
  name: "conv2_1/proj_bn_scale"
  type: "Scale"
  bottom: "conv2_1/proj"
  top: "conv2_1/proj"
  param {
    lr_mult: 0.1
    decay_mult: 0
  }
  param {
    lr_mult: 0.1
    decay_mult: 0
  }
  scale_param {
    bias_term: true
  }
}
layer {
  name: "conv2_1"
  type: "Eltwise"
  bottom: "conv2_1/3"
  bottom: "conv2_1/proj"
  top: "conv2_1"
  eltwise_param {
    operation: SUM
    coeff: 1
    coeff: 1
  }
}
layer {
  name: "conv2_2/1/conv"
  type: "Convolution"
  bottom: "conv2_1"
  top: "conv2_2/1"
  param {
    lr_mult: 0.1
    decay_mult: 0.1
  }
  convolution_param {
    num_output: 24
    bias_term: false
    weight_filler {
      type: "xavier"
    }
    pad_h: 0
    pad_w: 0
    kernel_h: 1
    kernel_w: 1
    stride_h: 1
    stride_w: 1
  }
}
layer {
  name: "conv2_2/1/bn"
  type: "BatchNorm"
  bottom: "conv2_2/1"
  top: "conv2_2/1"
  param {
    lr_mult: 0
    decay_mult: 0
  }
  param {
    lr_mult: 0
    decay_mult: 0
  }
  param {
    lr_mult: 0
    decay_mult: 0
  }
  batch_norm_param {
    use_global_stats: true
  }
}
layer {
  name: "conv2_2/1/bn_scale"
  type: "Scale"
  bottom: "conv2_2/1"
  top: "conv2_2/1"
  param {
    lr_mult: 0.1
    decay_mult: 0
  }
  param {
    lr_mult: 0.1
    decay_mult: 0
  }
  scale_param {
    bias_term: true
  }
}
layer {
  name: "conv2_2/1/relu"
  type: "ReLU"
  bottom: "conv2_2/1"
  top: "conv2_2/1"
}
layer {
  name: "conv2_2/2/conv"
  type: "Convolution"
  bottom: "conv2_2/1"
  top: "conv2_2/2/conv"
  param {
    lr_mult: 0.1
    decay_mult: 0.1
  }
  convolution_param {
    num_output: 24
    bias_term: false
    weight_filler {
      type: "xavier"
    }
    pad_h: 1
    pad_w: 1
    kernel_h: 3
    kernel_w: 3
    stride_h: 1
    stride_w: 1
  }
}
layer {
  name: "conv2_2/2/bn"
  type: "BatchNorm"
  bottom: "conv2_2/2/conv"
  top: "conv2_2/2/conv"
  param {
    lr_mult: 0
    decay_mult: 0
  }
  param {
    lr_mult: 0
    decay_mult: 0
  }
  param {
    lr_mult: 0
    decay_mult: 0
  }
  batch_norm_param {
    use_global_stats: true
  }
}
layer {
  name: "conv2_2/2/neg"
  type: "Power"
  bottom: "conv2_2/2/conv"
  top: "conv2_2/2/neg"
  power_param {
    power: 1
    scale: -1
    shift: 0
  }
}
layer {
  name: "conv2_2/2/concat"
  type: "Concat"
  bottom: "conv2_2/2/conv"
  bottom: "conv2_2/2/neg"
  top: "conv2_2/2"
}
layer {
  name: "conv2_2/2/scale"
  type: "Scale"
  bottom: "conv2_2/2"
  top: "conv2_2/2"
  param {
    lr_mult: 0.1
    decay_mult: 0
  }
  param {
    lr_mult: 0.2
    decay_mult: 0
  }
  scale_param {
    bias_term: true
  }
}
layer {
  name: "conv2_2/2/relu"
  type: "ReLU"
  bottom: "conv2_2/2"
  top: "conv2_2/2"
}
layer {
  name: "conv2_2/3/conv"
  type: "Convolution"
  bottom: "conv2_2/2"
  top: "conv2_2/3"
  param {
    lr_mult: 0.1
    decay_mult: 0.1
  }
  convolution_param {
    num_output: 64
    bias_term: false
    weight_filler {
      type: "xavier"
    }
    pad_h: 0
    pad_w: 0
    kernel_h: 1
    kernel_w: 1
    stride_h: 1
    stride_w: 1
  }
}
layer {
  name: "conv2_2/3/bn"
  type: "BatchNorm"
  bottom: "conv2_2/3"
  top: "conv2_2/3"
  param {
    lr_mult: 0
    decay_mult: 0
  }
  param {
    lr_mult: 0
    decay_mult: 0
  }
  param {
    lr_mult: 0
    decay_mult: 0
  }
  batch_norm_param {
    use_global_stats: true
  }
}
layer {
  name: "conv2_2/3/bn_scale"
  type: "Scale"
  bottom: "conv2_2/3"
  top: "conv2_2/3"
  param {
    lr_mult: 0.1
    decay_mult: 0
  }
  param {
    lr_mult: 0.1
    decay_mult: 0
  }
  scale_param {
    bias_term: true
  }
}
layer {
  name: "conv2_2/input"
  type: "Power"
  bottom: "conv2_1"
  top: "conv2_2/input"
  power_param {
    power: 1
    scale: 1
    shift: 0
  }
}
layer {
  name: "conv2_2"
  type: "Eltwise"
  bottom: "conv2_2/3"
  bottom: "conv2_2/input"
  top: "conv2_2"
  eltwise_param {
    operation: SUM
    coeff: 1
    coeff: 1
  }
}
layer {
  name: "conv2_3/1/conv"
  type: "Convolution"
  bottom: "conv2_2"
  top: "conv2_3/1"
  param {
    lr_mult: 0.1
    decay_mult: 0.1
  }
  convolution_param {
    num_output: 24
    bias_term: false
    weight_filler {
      type: "xavier"
    }
    pad_h: 0
    pad_w: 0
    kernel_h: 1
    kernel_w: 1
    stride_h: 1
    stride_w: 1
  }
}
layer {
  name: "conv2_3/1/bn"
  type: "BatchNorm"
  bottom: "conv2_3/1"
  top: "conv2_3/1"
  param {
    lr_mult: 0
    decay_mult: 0
  }
  param {
    lr_mult: 0
    decay_mult: 0
  }
  param {
    lr_mult: 0
    decay_mult: 0
  }
  batch_norm_param {
    use_global_stats: true
  }
}
layer {
  name: "conv2_3/1/bn_scale"
  type: "Scale"
  bottom: "conv2_3/1"
  top: "conv2_3/1"
  param {
    lr_mult: 0.1
    decay_mult: 0
  }
  param {
    lr_mult: 0.1
    decay_mult: 0
  }
  scale_param {
    bias_term: true
  }
}
layer {
  name: "conv2_3/1/relu"
  type: "ReLU"
  bottom: "conv2_3/1"
  top: "conv2_3/1"
}
layer {
  name: "conv2_3/2/conv"
  type: "Convolution"
  bottom: "conv2_3/1"
  top: "conv2_3/2/conv"
  param {
    lr_mult: 0.1
    decay_mult: 0.1
  }
  convolution_param {
    num_output: 24
    bias_term: false
    weight_filler {
      type: "xavier"
    }
    pad_h: 1
    pad_w: 1
    kernel_h: 3
    kernel_w: 3
    stride_h: 1
    stride_w: 1
  }
}
layer {
  name: "conv2_3/2/bn"
  type: "BatchNorm"
  bottom: "conv2_3/2/conv"
  top: "conv2_3/2/conv"
  param {
    lr_mult: 0
    decay_mult: 0
  }
  param {
    lr_mult: 0
    decay_mult: 0
  }
  param {
    lr_mult: 0
    decay_mult: 0
  }
  batch_norm_param {
    use_global_stats: true
  }
}
layer {
  name: "conv2_3/2/neg"
  type: "Power"
  bottom: "conv2_3/2/conv"
  top: "conv2_3/2/neg"
  power_param {
    power: 1
    scale: -1
    shift: 0
  }
}
layer {
  name: "conv2_3/2/concat"
  type: "Concat"
  bottom: "conv2_3/2/conv"
  bottom: "conv2_3/2/neg"
  top: "conv2_3/2"
}
layer {
  name: "conv2_3/2/scale"
  type: "Scale"
  bottom: "conv2_3/2"
  top: "conv2_3/2"
  param {
    lr_mult: 0.1
    decay_mult: 0
  }
  param {
    lr_mult: 0.2
    decay_mult: 0
  }
  scale_param {
    bias_term: true
  }
}
layer {
  name: "conv2_3/2/relu"
  type: "ReLU"
  bottom: "conv2_3/2"
  top: "conv2_3/2"
}
layer {
  name: "conv2_3/3/conv"
  type: "Convolution"
  bottom: "conv2_3/2"
  top: "conv2_3/3"
  param {
    lr_mult: 0.1
    decay_mult: 0.1
  }
  convolution_param {
    num_output: 64
    bias_term: false
    weight_filler {
      type: "xavier"
    }
    pad_h: 0
    pad_w: 0
    kernel_h: 1
    kernel_w: 1
    stride_h: 1
    stride_w: 1
  }
}
layer {
  name: "conv2_3/3/bn"
  type: "BatchNorm"
  bottom: "conv2_3/3"
  top: "conv2_3/3"
  param {
    lr_mult: 0
    decay_mult: 0
  }
  param {
    lr_mult: 0
    decay_mult: 0
  }
  param {
    lr_mult: 0
    decay_mult: 0
  }
  batch_norm_param {
    use_global_stats: true
  }
}
layer {
  name: "conv2_3/3/bn_scale"
  type: "Scale"
  bottom: "conv2_3/3"
  top: "conv2_3/3"
  param {
    lr_mult: 0.1
    decay_mult: 0
  }
  param {
    lr_mult: 0.1
    decay_mult: 0
  }
  scale_param {
    bias_term: true
  }
}
layer {
  name: "conv2_3/input"
  type: "Power"
  bottom: "conv2_2"
  top: "conv2_3/input"
  power_param {
    power: 1
    scale: 1
    shift: 0
  }
}
layer {
  name: "conv2_3"
  type: "Eltwise"
  bottom: "conv2_3/3"
  bottom: "conv2_3/input"
  top: "conv2_3"
  eltwise_param {
    operation: SUM
    coeff: 1
    coeff: 1
  }
}
layer {
  name: "conv3_1/1/conv"
  type: "Convolution"
  bottom: "conv2_3"
  top: "conv3_1/1"
  param {
    lr_mult: 0.1
    decay_mult: 0.1
  }
  convolution_param {
    num_output: 48
    bias_term: false
    weight_filler {
      type: "xavier"
    }
    pad_h: 0
    pad_w: 0
    kernel_h: 1
    kernel_w: 1
    stride_h: 2
    stride_w: 2
  }
}
layer {
  name: "conv3_1/1/bn"
  type: "BatchNorm"
  bottom: "conv3_1/1"
  top: "conv3_1/1"
  param {
    lr_mult: 0
    decay_mult: 0
  }
  param {
    lr_mult: 0
    decay_mult: 0
  }
  param {
    lr_mult: 0
    decay_mult: 0
  }
  batch_norm_param {
    use_global_stats: true
  }
}
layer {
  name: "conv3_1/1/bn_scale"
  type: "Scale"
  bottom: "conv3_1/1"
  top: "conv3_1/1"
  param {
    lr_mult: 0.1
    decay_mult: 0
  }
  param {
    lr_mult: 0.1
    decay_mult: 0
  }
  scale_param {
    bias_term: true
  }
}
layer {
  name: "conv3_1/1/relu"
  type: "ReLU"
  bottom: "conv3_1/1"
  top: "conv3_1/1"
}
layer {
  name: "conv3_1/2/conv"
  type: "Convolution"
  bottom: "conv3_1/1"
  top: "conv3_1/2/conv"
  param {
    lr_mult: 0.1
    decay_mult: 0.1
  }
  convolution_param {
    num_output: 48
    bias_term: false
    weight_filler {
      type: "xavier"
    }
    pad_h: 1
    pad_w: 1
    kernel_h: 3
    kernel_w: 3
    stride_h: 1
    stride_w: 1
  }
}
layer {
  name: "conv3_1/2/bn"
  type: "BatchNorm"
  bottom: "conv3_1/2/conv"
  top: "conv3_1/2/conv"
  param {
    lr_mult: 0
    decay_mult: 0
  }
  param {
    lr_mult: 0
    decay_mult: 0
  }
  param {
    lr_mult: 0
    decay_mult: 0
  }
  batch_norm_param {
    use_global_stats: true
  }
}
layer {
  name: "conv3_1/2/neg"
  type: "Power"
  bottom: "conv3_1/2/conv"
  top: "conv3_1/2/neg"
  power_param {
    power: 1
    scale: -1
    shift: 0
  }
}
layer {
  name: "conv3_1/2/concat"
  type: "Concat"
  bottom: "conv3_1/2/conv"
  bottom: "conv3_1/2/neg"
  top: "conv3_1/2"
}
layer {
  name: "conv3_1/2/scale"
  type: "Scale"
  bottom: "conv3_1/2"
  top: "conv3_1/2"
  param {
    lr_mult: 0.1
    decay_mult: 0
  }
  param {
    lr_mult: 0.2
    decay_mult: 0
  }
  scale_param {
    bias_term: true
  }
}
layer {
  name: "conv3_1/2/relu"
  type: "ReLU"
  bottom: "conv3_1/2"
  top: "conv3_1/2"
}
layer {
  name: "conv3_1/3/conv"
  type: "Convolution"
  bottom: "conv3_1/2"
  top: "conv3_1/3"
  param {
    lr_mult: 0.1
    decay_mult: 0.1
  }
  convolution_param {
    num_output: 128
    bias_term: false
    weight_filler {
      type: "xavier"
    }
    pad_h: 0
    pad_w: 0
    kernel_h: 1
    kernel_w: 1
    stride_h: 1
    stride_w: 1
  }
}
layer {
  name: "conv3_1/3/bn"
  type: "BatchNorm"
  bottom: "conv3_1/3"
  top: "conv3_1/3"
  param {
    lr_mult: 0
    decay_mult: 0
  }
  param {
    lr_mult: 0
    decay_mult: 0
  }
  param {
    lr_mult: 0
    decay_mult: 0
  }
  batch_norm_param {
    use_global_stats: true
  }
}
layer {
  name: "conv3_1/3/bn_scale"
  type: "Scale"
  bottom: "conv3_1/3"
  top: "conv3_1/3"
  param {
    lr_mult: 0.1
    decay_mult: 0
  }
  param {
    lr_mult: 0.1
    decay_mult: 0
  }
  scale_param {
    bias_term: true
  }
}
layer {
  name: "conv3_1/proj"
  type: "Convolution"
  bottom: "conv2_3"
  top: "conv3_1/proj"
  param {
    lr_mult: 0.1
    decay_mult: 0.1
  }
  param {
    lr_mult: 0.2
    decay_mult: 0
  }
  convolution_param {
    num_output: 128
    weight_filler {
      type: "xavier"
    }
    bias_filler {
      type: "constant"
      value: 0.1
    }
    pad_h: 0
    pad_w: 0
    kernel_h: 1
    kernel_w: 1
    stride_h: 2
    stride_w: 2
  }
}
layer {
  name: "conv3_1/proj_bn"
  type: "BatchNorm"
  bottom: "conv3_1/proj"
  top: "conv3_1/proj"
  param {
    lr_mult: 0
    decay_mult: 0
  }
  param {
    lr_mult: 0
    decay_mult: 0
  }
  param {
    lr_mult: 0
    decay_mult: 0
  }
  batch_norm_param {
    use_global_stats: true
  }
}
layer {
  name: "conv3_1/proj_bn_scale"
  type: "Scale"
  bottom: "conv3_1/proj"
  top: "conv3_1/proj"
  param {
    lr_mult: 0.1
    decay_mult: 0
  }
  param {
    lr_mult: 0.1
    decay_mult: 0
  }
  scale_param {
    bias_term: true
  }
}
layer {
  name: "conv3_1"
  type: "Eltwise"
  bottom: "conv3_1/3"
  bottom: "conv3_1/proj"
  top: "conv3_1"
  eltwise_param {
    operation: SUM
    coeff: 1
    coeff: 1
  }
}
layer {
  name: "conv3_2/1/conv"
  type: "Convolution"
  bottom: "conv3_1"
  top: "conv3_2/1"
  param {
    lr_mult: 0.1
    decay_mult: 0.1
  }
  convolution_param {
    num_output: 48
    bias_term: false
    weight_filler {
      type: "xavier"
    }
    pad_h: 0
    pad_w: 0
    kernel_h: 1
    kernel_w: 1
    stride_h: 1
    stride_w: 1
  }
}
layer {
  name: "conv3_2/1/bn"
  type: "BatchNorm"
  bottom: "conv3_2/1"
  top: "conv3_2/1"
  param {
    lr_mult: 0
    decay_mult: 0
  }
  param {
    lr_mult: 0
    decay_mult: 0
  }
  param {
    lr_mult: 0
    decay_mult: 0
  }
  batch_norm_param {
    use_global_stats: true
  }
}
layer {
  name: "conv3_2/1/bn_scale"
  type: "Scale"
  bottom: "conv3_2/1"
  top: "conv3_2/1"
  param {
    lr_mult: 0.1
    decay_mult: 0
  }
  param {
    lr_mult: 0.1
    decay_mult: 0
  }
  scale_param {
    bias_term: true
  }
}
layer {
  name: "conv3_2/1/relu"
  type: "ReLU"
  bottom: "conv3_2/1"
  top: "conv3_2/1"
}
layer {
  name: "conv3_2/2/conv"
  type: "Convolution"
  bottom: "conv3_2/1"
  top: "conv3_2/2/conv"
  param {
    lr_mult: 0.1
    decay_mult: 0.1
  }
  convolution_param {
    num_output: 48
    bias_term: false
    weight_filler {
      type: "xavier"
    }
    pad_h: 1
    pad_w: 1
    kernel_h: 3
    kernel_w: 3
    stride_h: 1
    stride_w: 1
  }
}
layer {
  name: "conv3_2/2/bn"
  type: "BatchNorm"
  bottom: "conv3_2/2/conv"
  top: "conv3_2/2/conv"
  param {
    lr_mult: 0
    decay_mult: 0
  }
  param {
    lr_mult: 0
    decay_mult: 0
  }
  param {
    lr_mult: 0
    decay_mult: 0
  }
  batch_norm_param {
    use_global_stats: true
  }
}
layer {
  name: "conv3_2/2/neg"
  type: "Power"
  bottom: "conv3_2/2/conv"
  top: "conv3_2/2/neg"
  power_param {
    power: 1
    scale: -1
    shift: 0
  }
}
layer {
  name: "conv3_2/2/concat"
  type: "Concat"
  bottom: "conv3_2/2/conv"
  bottom: "conv3_2/2/neg"
  top: "conv3_2/2"
}
layer {
  name: "conv3_2/2/scale"
  type: "Scale"
  bottom: "conv3_2/2"
  top: "conv3_2/2"
  param {
    lr_mult: 0.1
    decay_mult: 0
  }
  param {
    lr_mult: 0.2
    decay_mult: 0
  }
  scale_param {
    bias_term: true
  }
}
layer {
  name: "conv3_2/2/relu"
  type: "ReLU"
  bottom: "conv3_2/2"
  top: "conv3_2/2"
}
layer {
  name: "conv3_2/3/conv"
  type: "Convolution"
  bottom: "conv3_2/2"
  top: "conv3_2/3"
  param {
    lr_mult: 0.1
    decay_mult: 0.1
  }
  convolution_param {
    num_output: 128
    bias_term: false
    weight_filler {
      type: "xavier"
    }
    pad_h: 0
    pad_w: 0
    kernel_h: 1
    kernel_w: 1
    stride_h: 1
    stride_w: 1
  }
}
layer {
  name: "conv3_2/3/bn"
  type: "BatchNorm"
  bottom: "conv3_2/3"
  top: "conv3_2/3"
  param {
    lr_mult: 0
    decay_mult: 0
  }
  param {
    lr_mult: 0
    decay_mult: 0
  }
  param {
    lr_mult: 0
    decay_mult: 0
  }
  batch_norm_param {
    use_global_stats: true
  }
}
layer {
  name: "conv3_2/3/bn_scale"
  type: "Scale"
  bottom: "conv3_2/3"
  top: "conv3_2/3"
  param {
    lr_mult: 0.1
    decay_mult: 0
  }
  param {
    lr_mult: 0.1
    decay_mult: 0
  }
  scale_param {
    bias_term: true
  }
}
layer {
  name: "conv3_2/input"
  type: "Power"
  bottom: "conv3_1"
  top: "conv3_2/input"
  power_param {
    power: 1
    scale: 1
    shift: 0
  }
}
layer {
  name: "conv3_2"
  type: "Eltwise"
  bottom: "conv3_2/3"
  bottom: "conv3_2/input"
  top: "conv3_2"
  eltwise_param {
    operation: SUM
    coeff: 1
    coeff: 1
  }
}
layer {
  name: "conv3_3/1/conv"
  type: "Convolution"
  bottom: "conv3_2"
  top: "conv3_3/1"
  param {
    lr_mult: 0.1
    decay_mult: 0.1
  }
  convolution_param {
    num_output: 48
    bias_term: false
    weight_filler {
      type: "xavier"
    }
    pad_h: 0
    pad_w: 0
    kernel_h: 1
    kernel_w: 1
    stride_h: 1
    stride_w: 1
  }
}
layer {
  name: "conv3_3/1/bn"
  type: "BatchNorm"
  bottom: "conv3_3/1"
  top: "conv3_3/1"
  param {
    lr_mult: 0
    decay_mult: 0
  }
  param {
    lr_mult: 0
    decay_mult: 0
  }
  param {
    lr_mult: 0
    decay_mult: 0
  }
  batch_norm_param {
    use_global_stats: true
  }
}
layer {
  name: "conv3_3/1/bn_scale"
  type: "Scale"
  bottom: "conv3_3/1"
  top: "conv3_3/1"
  param {
    lr_mult: 0.1
    decay_mult: 0
  }
  param {
    lr_mult: 0.1
    decay_mult: 0
  }
  scale_param {
    bias_term: true
  }
}
layer {
  name: "conv3_3/1/relu"
  type: "ReLU"
  bottom: "conv3_3/1"
  top: "conv3_3/1"
}
layer {
  name: "conv3_3/2/conv"
  type: "Convolution"
  bottom: "conv3_3/1"
  top: "conv3_3/2/conv"
  param {
    lr_mult: 0.1
    decay_mult: 0.1
  }
  convolution_param {
    num_output: 48
    bias_term: false
    weight_filler {
      type: "xavier"
    }
    pad_h: 1
    pad_w: 1
    kernel_h: 3
    kernel_w: 3
    stride_h: 1
    stride_w: 1
  }
}
layer {
  name: "conv3_3/2/bn"
  type: "BatchNorm"
  bottom: "conv3_3/2/conv"
  top: "conv3_3/2/conv"
  param {
    lr_mult: 0
    decay_mult: 0
  }
  param {
    lr_mult: 0
    decay_mult: 0
  }
  param {
    lr_mult: 0
    decay_mult: 0
  }
  batch_norm_param {
    use_global_stats: true
  }
}
layer {
  name: "conv3_3/2/neg"
  type: "Power"
  bottom: "conv3_3/2/conv"
  top: "conv3_3/2/neg"
  power_param {
    power: 1
    scale: -1
    shift: 0
  }
}
layer {
  name: "conv3_3/2/concat"
  type: "Concat"
  bottom: "conv3_3/2/conv"
  bottom: "conv3_3/2/neg"
  top: "conv3_3/2"
}
layer {
  name: "conv3_3/2/scale"
  type: "Scale"
  bottom: "conv3_3/2"
  top: "conv3_3/2"
  param {
    lr_mult: 0.1
    decay_mult: 0
  }
  param {
    lr_mult: 0.2
    decay_mult: 0
  }
  scale_param {
    bias_term: true
  }
}
layer {
  name: "conv3_3/2/relu"
  type: "ReLU"
  bottom: "conv3_3/2"
  top: "conv3_3/2"
}
layer {
  name: "conv3_3/3/conv"
  type: "Convolution"
  bottom: "conv3_3/2"
  top: "conv3_3/3"
  param {
    lr_mult: 0.1
    decay_mult: 0.1
  }
  convolution_param {
    num_output: 128
    bias_term: false
    weight_filler {
      type: "xavier"
    }
    pad_h: 0
    pad_w: 0
    kernel_h: 1
    kernel_w: 1
    stride_h: 1
    stride_w: 1
  }
}
layer {
  name: "conv3_3/3/bn"
  type: "BatchNorm"
  bottom: "conv3_3/3"
  top: "conv3_3/3"
  param {
    lr_mult: 0
    decay_mult: 0
  }
  param {
    lr_mult: 0
    decay_mult: 0
  }
  param {
    lr_mult: 0
    decay_mult: 0
  }
  batch_norm_param {
    use_global_stats: true
  }
}
layer {
  name: "conv3_3/3/bn_scale"
  type: "Scale"
  bottom: "conv3_3/3"
  top: "conv3_3/3"
  param {
    lr_mult: 0.1
    decay_mult: 0
  }
  param {
    lr_mult: 0.1
    decay_mult: 0
  }
  scale_param {
    bias_term: true
  }
}
layer {
  name: "conv3_3/input"
  type: "Power"
  bottom: "conv3_2"
  top: "conv3_3/input"
  power_param {
    power: 1
    scale: 1
    shift: 0
  }
}
layer {
  name: "conv3_3"
  type: "Eltwise"
  bottom: "conv3_3/3"
  bottom: "conv3_3/input"
  top: "conv3_3"
  eltwise_param {
    operation: SUM
    coeff: 1
    coeff: 1
  }
}
layer {
  name: "conv3_4/1/conv"
  type: "Convolution"
  bottom: "conv3_3"
  top: "conv3_4/1"
  param {
    lr_mult: 0.1
    decay_mult: 0.1
  }
  convolution_param {
    num_output: 48
    bias_term: false
    weight_filler {
      type: "xavier"
    }
    pad_h: 0
    pad_w: 0
    kernel_h: 1
    kernel_w: 1
    stride_h: 1
    stride_w: 1
  }
}
layer {
  name: "conv3_4/1/bn"
  type: "BatchNorm"
  bottom: "conv3_4/1"
  top: "conv3_4/1"
  param {
    lr_mult: 0
    decay_mult: 0
  }
  param {
    lr_mult: 0
    decay_mult: 0
  }
  param {
    lr_mult: 0
    decay_mult: 0
  }
  batch_norm_param {
    use_global_stats: true
  }
}
layer {
  name: "conv3_4/1/bn_scale"
  type: "Scale"
  bottom: "conv3_4/1"
  top: "conv3_4/1"
  param {
    lr_mult: 0.1
    decay_mult: 0
  }
  param {
    lr_mult: 0.1
    decay_mult: 0
  }
  scale_param {
    bias_term: true
  }
}
layer {
  name: "conv3_4/1/relu"
  type: "ReLU"
  bottom: "conv3_4/1"
  top: "conv3_4/1"
}
layer {
  name: "conv3_4/2/conv"
  type: "Convolution"
  bottom: "conv3_4/1"
  top: "conv3_4/2/conv"
  param {
    lr_mult: 0.1
    decay_mult: 0.1
  }
  convolution_param {
    num_output: 48
    bias_term: false
    weight_filler {
      type: "xavier"
    }
    pad_h: 1
    pad_w: 1
    kernel_h: 3
    kernel_w: 3
    stride_h: 1
    stride_w: 1
  }
}
layer {
  name: "conv3_4/2/bn"
  type: "BatchNorm"
  bottom: "conv3_4/2/conv"
  top: "conv3_4/2/conv"
  param {
    lr_mult: 0
    decay_mult: 0
  }
  param {
    lr_mult: 0
    decay_mult: 0
  }
  param {
    lr_mult: 0
    decay_mult: 0
  }
  batch_norm_param {
    use_global_stats: true
  }
}
layer {
  name: "conv3_4/2/neg"
  type: "Power"
  bottom: "conv3_4/2/conv"
  top: "conv3_4/2/neg"
  power_param {
    power: 1
    scale: -1
    shift: 0
  }
}
layer {
  name: "conv3_4/2/concat"
  type: "Concat"
  bottom: "conv3_4/2/conv"
  bottom: "conv3_4/2/neg"
  top: "conv3_4/2"
}
layer {
  name: "conv3_4/2/scale"
  type: "Scale"
  bottom: "conv3_4/2"
  top: "conv3_4/2"
  param {
    lr_mult: 0.1
    decay_mult: 0
  }
  param {
    lr_mult: 0.2
    decay_mult: 0
  }
  scale_param {
    bias_term: true
  }
}
layer {
  name: "conv3_4/2/relu"
  type: "ReLU"
  bottom: "conv3_4/2"
  top: "conv3_4/2"
}
layer {
  name: "conv3_4/3/conv"
  type: "Convolution"
  bottom: "conv3_4/2"
  top: "conv3_4/3"
  param {
    lr_mult: 0.1
    decay_mult: 0.1
  }
  convolution_param {
    num_output: 128
    bias_term: false
    weight_filler {
      type: "xavier"
    }
    pad_h: 0
    pad_w: 0
    kernel_h: 1
    kernel_w: 1
    stride_h: 1
    stride_w: 1
  }
}
layer {
  name: "conv3_4/3/bn"
  type: "BatchNorm"
  bottom: "conv3_4/3"
  top: "conv3_4/3"
  param {
    lr_mult: 0
    decay_mult: 0
  }
  param {
    lr_mult: 0
    decay_mult: 0
  }
  param {
    lr_mult: 0
    decay_mult: 0
  }
  batch_norm_param {
    use_global_stats: true
  }
}
layer {
  name: "conv3_4/3/bn_scale"
  type: "Scale"
  bottom: "conv3_4/3"
  top: "conv3_4/3"
  param {
    lr_mult: 0.1
    decay_mult: 0
  }
  param {
    lr_mult: 0.1
    decay_mult: 0
  }
  scale_param {
    bias_term: true
  }
}
layer {
  name: "conv3_4/input"
  type: "Power"
  bottom: "conv3_3"
  top: "conv3_4/input"
  power_param {
    power: 1
    scale: 1
    shift: 0
  }
}
layer {
  name: "conv3_4"
  type: "Eltwise"
  bottom: "conv3_4/3"
  bottom: "conv3_4/input"
  top: "conv3_4"
  eltwise_param {
    operation: SUM
    coeff: 1
    coeff: 1
  }
}
layer {
  name: "conv4_1/incep/0/conv"
  type: "Convolution"
  bottom: "conv3_4"
  top: "conv4_1/incep/0"
  param {
    lr_mult: 0.1
    decay_mult: 0.1
  }
  convolution_param {
    num_output: 64
    bias_term: false
    weight_filler {
      type: "xavier"
    }
    pad_h: 0
    pad_w: 0
    kernel_h: 1
    kernel_w: 1
    stride_h: 2
    stride_w: 2
  }
}
layer {
  name: "conv4_1/incep/0/bn"
  type: "BatchNorm"
  bottom: "conv4_1/incep/0"
  top: "conv4_1/incep/0"
  param {
    lr_mult: 0
    decay_mult: 0
  }
  param {
    lr_mult: 0
    decay_mult: 0
  }
  param {
    lr_mult: 0
    decay_mult: 0
  }
  batch_norm_param {
    use_global_stats: true
  }
}
layer {
  name: "conv4_1/incep/0/bn_scale"
  type: "Scale"
  bottom: "conv4_1/incep/0"
  top: "conv4_1/incep/0"
  param {
    lr_mult: 0.1
    decay_mult: 0
  }
  param {
    lr_mult: 0.1
    decay_mult: 0
  }
  scale_param {
    bias_term: true
  }
}
layer {
  name: "conv4_1/incep/0/relu"
  type: "ReLU"
  bottom: "conv4_1/incep/0"
  top: "conv4_1/incep/0"
}
layer {
  name: "conv4_1/incep/1_reduce/conv"
  type: "Convolution"
  bottom: "conv3_4"
  top: "conv4_1/incep/1_reduce"
  param {
    lr_mult: 0.1
    decay_mult: 0.1
  }
  convolution_param {
    num_output: 48
    bias_term: false
    weight_filler {
      type: "xavier"
    }
    pad_h: 0
    pad_w: 0
    kernel_h: 1
    kernel_w: 1
    stride_h: 2
    stride_w: 2
  }
}
layer {
  name: "conv4_1/incep/1_reduce/bn"
  type: "BatchNorm"
  bottom: "conv4_1/incep/1_reduce"
  top: "conv4_1/incep/1_reduce"
  param {
    lr_mult: 0
    decay_mult: 0
  }
  param {
    lr_mult: 0
    decay_mult: 0
  }
  param {
    lr_mult: 0
    decay_mult: 0
  }
  batch_norm_param {
    use_global_stats: true
  }
}
layer {
  name: "conv4_1/incep/1_reduce/bn_scale"
  type: "Scale"
  bottom: "conv4_1/incep/1_reduce"
  top: "conv4_1/incep/1_reduce"
  param {
    lr_mult: 0.1
    decay_mult: 0
  }
  param {
    lr_mult: 0.1
    decay_mult: 0
  }
  scale_param {
    bias_term: true
  }
}
layer {
  name: "conv4_1/incep/1_reduce/relu"
  type: "ReLU"
  bottom: "conv4_1/incep/1_reduce"
  top: "conv4_1/incep/1_reduce"
}
layer {
  name: "conv4_1/incep/1_0/conv"
  type: "Convolution"
  bottom: "conv4_1/incep/1_reduce"
  top: "conv4_1/incep/1_0"
  param {
    lr_mult: 0.1
    decay_mult: 0.1
  }
  convolution_param {
    num_output: 128
    bias_term: false
    weight_filler {
      type: "xavier"
    }
    pad_h: 1
    pad_w: 1
    kernel_h: 3
    kernel_w: 3
    stride_h: 1
    stride_w: 1
  }
}
layer {
  name: "conv4_1/incep/1_0/bn"
  type: "BatchNorm"
  bottom: "conv4_1/incep/1_0"
  top: "conv4_1/incep/1_0"
  param {
I0303 16:54:02.089519 23022 layer_factory.hpp:77] Creating layer input-data
I0303 16:54:02.099797 23022 net.cpp:100] Creating Layer input-data
I0303 16:54:02.099833 23022 net.cpp:408] input-data -> data
I0303 16:54:02.099843 23022 net.cpp:408] input-data -> im_info
I0303 16:54:02.099849 23022 net.cpp:408] input-data -> gt_boxes
I0303 16:54:02.112406 23022 net.cpp:150] Setting up input-data
I0303 16:54:02.112428 23022 net.cpp:157] Top shape: 1 3 864 1440 (3732480)
I0303 16:54:02.112434 23022 net.cpp:157] Top shape: 1 3 (3)
I0303 16:54:02.112438 23022 net.cpp:157] Top shape: 1 4 (4)
I0303 16:54:02.112442 23022 net.cpp:165] Memory required for data: 14929948
I0303 16:54:02.112447 23022 layer_factory.hpp:77] Creating layer data_input-data_0_split
I0303 16:54:02.112457 23022 net.cpp:100] Creating Layer data_input-data_0_split
I0303 16:54:02.112462 23022 net.cpp:434] data_input-data_0_split <- data
I0303 16:54:02.112471 23022 net.cpp:408] data_input-data_0_split -> data_input-data_0_split_0
I0303 16:54:02.112480 23022 net.cpp:408] data_input-data_0_split -> data_input-data_0_split_1
I0303 16:54:02.112541 23022 net.cpp:150] Setting up data_input-data_0_split
I0303 16:54:02.112550 23022 net.cpp:157] Top shape: 1 3 864 1440 (3732480)
I0303 16:54:02.112553 23022 net.cpp:157] Top shape: 1 3 864 1440 (3732480)
I0303 16:54:02.112557 23022 net.cpp:165] Memory required for data: 44789788
I0303 16:54:02.112561 23022 layer_factory.hpp:77] Creating layer im_info_input-data_1_split
I0303 16:54:02.112568 23022 net.cpp:100] Creating Layer im_info_input-data_1_split
I0303 16:54:02.112571 23022 net.cpp:434] im_info_input-data_1_split <- im_info
I0303 16:54:02.112581 23022 net.cpp:408] im_info_input-data_1_split -> im_info_input-data_1_split_0
I0303 16:54:02.112586 23022 net.cpp:408] im_info_input-data_1_split -> im_info_input-data_1_split_1
I0303 16:54:02.112634 23022 net.cpp:150] Setting up im_info_input-data_1_split
I0303 16:54:02.112640 23022 net.cpp:157] Top shape: 1 3 (3)
I0303 16:54:02.112644 23022 net.cpp:157] Top shape: 1 3 (3)
I0303 16:54:02.112648 23022 net.cpp:165] Memory required for data: 44789812
I0303 16:54:02.112651 23022 layer_factory.hpp:77] Creating layer gt_boxes_input-data_2_split
I0303 16:54:02.112656 23022 net.cpp:100] Creating Layer gt_boxes_input-data_2_split
I0303 16:54:02.112669 23022 net.cpp:434] gt_boxes_input-data_2_split <- gt_boxes
I0303 16:54:02.112678 23022 net.cpp:408] gt_boxes_input-data_2_split -> gt_boxes_input-data_2_split_0
I0303 16:54:02.112684 23022 net.cpp:408] gt_boxes_input-data_2_split -> gt_boxes_input-data_2_split_1
I0303 16:54:02.112731 23022 net.cpp:150] Setting up gt_boxes_input-data_2_split
I0303 16:54:02.112740 23022 net.cpp:157] Top shape: 1 4 (4)
I0303 16:54:02.112745 23022 net.cpp:157] Top shape: 1 4 (4)
I0303 16:54:02.112747 23022 net.cpp:165] Memory required for data: 44789844
I0303 16:54:02.112751 23022 layer_factory.hpp:77] Creating layer conv1_1/conv
I0303 16:54:02.112766 23022 net.cpp:100] Creating Layer conv1_1/conv
I0303 16:54:02.112769 23022 net.cpp:434] conv1_1/conv <- data_input-data_0_split_0
I0303 16:54:02.112776 23022 net.cpp:408] conv1_1/conv -> conv1_1/conv
I0303 16:54:02.300254 23022 net.cpp:150] Setting up conv1_1/conv
I0303 16:54:02.300297 23022 net.cpp:157] Top shape: 1 16 432 720 (4976640)
I0303 16:54:02.300300 23022 net.cpp:165] Memory required for data: 64696404
I0303 16:54:02.300317 23022 layer_factory.hpp:77] Creating layer conv1_1/bn
I0303 16:54:02.300330 23022 net.cpp:100] Creating Layer conv1_1/bn
I0303 16:54:02.300335 23022 net.cpp:434] conv1_1/bn <- conv1_1/conv
I0303 16:54:02.300343 23022 net.cpp:395] conv1_1/bn -> conv1_1/conv (in-place)
I0303 16:54:02.301669 23022 net.cpp:150] Setting up conv1_1/bn
I0303 16:54:02.301683 23022 net.cpp:157] Top shape: 1 16 432 720 (4976640)
I0303 16:54:02.301687 23022 net.cpp:165] Memory required for data: 84602964
I0303 16:54:02.301699 23022 layer_factory.hpp:77] Creating layer conv1_1/conv_conv1_1/bn_0_split
I0303 16:54:02.301707 23022 net.cpp:100] Creating Layer conv1_1/conv_conv1_1/bn_0_split
I0303 16:54:02.301710 23022 net.cpp:434] conv1_1/conv_conv1_1/bn_0_split <- conv1_1/conv
I0303 16:54:02.301717 23022 net.cpp:408] conv1_1/conv_conv1_1/bn_0_split -> conv1_1/conv_conv1_1/bn_0_split_0
I0303 16:54:02.301724 23022 net.cpp:408] conv1_1/conv_conv1_1/bn_0_split -> conv1_1/conv_conv1_1/bn_0_split_1
I0303 16:54:02.301777 23022 net.cpp:150] Setting up conv1_1/conv_conv1_1/bn_0_split
I0303 16:54:02.301784 23022 net.cpp:157] Top shape: 1 16 432 720 (4976640)
I0303 16:54:02.301789 23022 net.cpp:157] Top shape: 1 16 432 720 (4976640)
I0303 16:54:02.301792 23022 net.cpp:165] Memory required for data: 124416084
I0303 16:54:02.301795 23022 layer_factory.hpp:77] Creating layer conv1_1/neg
I0303 16:54:02.301802 23022 net.cpp:100] Creating Layer conv1_1/neg
I0303 16:54:02.301806 23022 net.cpp:434] conv1_1/neg <- conv1_1/conv_conv1_1/bn_0_split_0
I0303 16:54:02.301812 23022 net.cpp:408] conv1_1/neg -> conv1_1/neg
I0303 16:54:02.301841 23022 net.cpp:150] Setting up conv1_1/neg
I0303 16:54:02.301847 23022 net.cpp:157] Top shape: 1 16 432 720 (4976640)
I0303 16:54:02.301851 23022 net.cpp:165] Memory required for data: 144322644
I0303 16:54:02.301854 23022 layer_factory.hpp:77] Creating layer conv1_1/concat
I0303 16:54:02.301863 23022 net.cpp:100] Creating Layer conv1_1/concat
I0303 16:54:02.301867 23022 net.cpp:434] conv1_1/concat <- conv1_1/conv_conv1_1/bn_0_split_1
I0303 16:54:02.301872 23022 net.cpp:434] conv1_1/concat <- conv1_1/neg
I0303 16:54:02.301877 23022 net.cpp:408] conv1_1/concat -> conv1_1
I0303 16:54:02.301906 23022 net.cpp:150] Setting up conv1_1/concat
I0303 16:54:02.301913 23022 net.cpp:157] Top shape: 1 32 432 720 (9953280)
I0303 16:54:02.301916 23022 net.cpp:165] Memory required for data: 184135764
I0303 16:54:02.301920 23022 layer_factory.hpp:77] Creating layer conv1_1/scale
I0303 16:54:02.301928 23022 net.cpp:100] Creating Layer conv1_1/scale
I0303 16:54:02.301931 23022 net.cpp:434] conv1_1/scale <- conv1_1
I0303 16:54:02.301936 23022 net.cpp:395] conv1_1/scale -> conv1_1 (in-place)
I0303 16:54:02.302000 23022 layer_factory.hpp:77] Creating layer conv1_1/scale
I0303 16:54:02.306501 23022 net.cpp:150] Setting up conv1_1/scale
I0303 16:54:02.306517 23022 net.cpp:157] Top shape: 1 32 432 720 (9953280)
I0303 16:54:02.306521 23022 net.cpp:165] Memory required for data: 223948884
I0303 16:54:02.306541 23022 layer_factory.hpp:77] Creating layer conv1_1/relu
I0303 16:54:02.306550 23022 net.cpp:100] Creating Layer conv1_1/relu
I0303 16:54:02.306553 23022 net.cpp:434] conv1_1/relu <- conv1_1
I0303 16:54:02.306558 23022 net.cpp:395] conv1_1/relu -> conv1_1 (in-place)
I0303 16:54:02.306900 23022 net.cpp:150] Setting up conv1_1/relu
I0303 16:54:02.306912 23022 net.cpp:157] Top shape: 1 32 432 720 (9953280)
I0303 16:54:02.306915 23022 net.cpp:165] Memory required for data: 263762004
I0303 16:54:02.306920 23022 layer_factory.hpp:77] Creating layer pool1
I0303 16:54:02.306926 23022 net.cpp:100] Creating Layer pool1
I0303 16:54:02.306931 23022 net.cpp:434] pool1 <- conv1_1
I0303 16:54:02.306936 23022 net.cpp:408] pool1 -> pool1
I0303 16:54:02.307000 23022 net.cpp:150] Setting up pool1
I0303 16:54:02.307008 23022 net.cpp:157] Top shape: 1 32 216 360 (2488320)
I0303 16:54:02.307010 23022 net.cpp:165] Memory required for data: 273715284
I0303 16:54:02.307014 23022 layer_factory.hpp:77] Creating layer pool1_pool1_0_split
I0303 16:54:02.307019 23022 net.cpp:100] Creating Layer pool1_pool1_0_split
I0303 16:54:02.307024 23022 net.cpp:434] pool1_pool1_0_split <- pool1
I0303 16:54:02.307029 23022 net.cpp:408] pool1_pool1_0_split -> pool1_pool1_0_split_0
I0303 16:54:02.307034 23022 net.cpp:408] pool1_pool1_0_split -> pool1_pool1_0_split_1
I0303 16:54:02.307087 23022 net.cpp:150] Setting up pool1_pool1_0_split
I0303 16:54:02.307093 23022 net.cpp:157] Top shape: 1 32 216 360 (2488320)
I0303 16:54:02.307098 23022 net.cpp:157] Top shape: 1 32 216 360 (2488320)
I0303 16:54:02.307101 23022 net.cpp:165] Memory required for data: 293621844
I0303 16:54:02.307106 23022 layer_factory.hpp:77] Creating layer conv2_1/1/conv
I0303 16:54:02.307116 23022 net.cpp:100] Creating Layer conv2_1/1/conv
I0303 16:54:02.307119 23022 net.cpp:434] conv2_1/1/conv <- pool1_pool1_0_split_0
I0303 16:54:02.307124 23022 net.cpp:408] conv2_1/1/conv -> conv2_1/1
I0303 16:54:02.309038 23022 net.cpp:150] Setting up conv2_1/1/conv
I0303 16:54:02.309053 23022 net.cpp:157] Top shape: 1 24 216 360 (1866240)
I0303 16:54:02.309057 23022 net.cpp:165] Memory required for data: 301086804
I0303 16:54:02.309063 23022 layer_factory.hpp:77] Creating layer conv2_1/1/bn
I0303 16:54:02.309072 23022 net.cpp:100] Creating Layer conv2_1/1/bn
I0303 16:54:02.309075 23022 net.cpp:434] conv2_1/1/bn <- conv2_1/1
I0303 16:54:02.309080 23022 net.cpp:395] conv2_1/1/bn -> conv2_1/1 (in-place)
I0303 16:54:02.310130 23022 net.cpp:150] Setting up conv2_1/1/bn
I0303 16:54:02.310144 23022 net.cpp:157] Top shape: 1 24 216 360 (1866240)
I0303 16:54:02.310148 23022 net.cpp:165] Memory required for data: 308551764
I0303 16:54:02.310158 23022 layer_factory.hpp:77] Creating layer conv2_1/1/bn_scale
I0303 16:54:02.310166 23022 net.cpp:100] Creating Layer conv2_1/1/bn_scale
I0303 16:54:02.310170 23022 net.cpp:434] conv2_1/1/bn_scale <- conv2_1/1
I0303 16:54:02.310183 23022 net.cpp:395] conv2_1/1/bn_scale -> conv2_1/1 (in-place)
I0303 16:54:02.310240 23022 layer_factory.hpp:77] Creating layer conv2_1/1/bn_scale
I0303 16:54:02.310521 23022 net.cpp:150] Setting up conv2_1/1/bn_scale
I0303 16:54:02.310530 23022 net.cpp:157] Top shape: 1 24 216 360 (1866240)
I0303 16:54:02.310534 23022 net.cpp:165] Memory required for data: 316016724
I0303 16:54:02.310539 23022 layer_factory.hpp:77] Creating layer conv2_1/1/relu
I0303 16:54:02.310550 23022 net.cpp:100] Creating Layer conv2_1/1/relu
I0303 16:54:02.310554 23022 net.cpp:434] conv2_1/1/relu <- conv2_1/1
I0303 16:54:02.310560 23022 net.cpp:395] conv2_1/1/relu -> conv2_1/1 (in-place)
I0303 16:54:02.310750 23022 net.cpp:150] Setting up conv2_1/1/relu
I0303 16:54:02.310758 23022 net.cpp:157] Top shape: 1 24 216 360 (1866240)
I0303 16:54:02.310762 23022 net.cpp:165] Memory required for data: 323481684
I0303 16:54:02.310766 23022 layer_factory.hpp:77] Creating layer conv2_1/2/conv
I0303 16:54:02.310775 23022 net.cpp:100] Creating Layer conv2_1/2/conv
I0303 16:54:02.310780 23022 net.cpp:434] conv2_1/2/conv <- conv2_1/1
I0303 16:54:02.310786 23022 net.cpp:408] conv2_1/2/conv -> conv2_1/2/conv
I0303 16:54:02.312852 23022 net.cpp:150] Setting up conv2_1/2/conv
I0303 16:54:02.312867 23022 net.cpp:157] Top shape: 1 24 216 360 (1866240)
I0303 16:54:02.312871 23022 net.cpp:165] Memory required for data: 330946644
I0303 16:54:02.312877 23022 layer_factory.hpp:77] Creating layer conv2_1/2/bn
I0303 16:54:02.312885 23022 net.cpp:100] Creating Layer conv2_1/2/bn
I0303 16:54:02.312888 23022 net.cpp:434] conv2_1/2/bn <- conv2_1/2/conv
I0303 16:54:02.312896 23022 net.cpp:395] conv2_1/2/bn -> conv2_1/2/conv (in-place)
I0303 16:54:02.313941 23022 net.cpp:150] Setting up conv2_1/2/bn
I0303 16:54:02.313954 23022 net.cpp:157] Top shape: 1 24 216 360 (1866240)
I0303 16:54:02.313957 23022 net.cpp:165] Memory required for data: 338411604
I0303 16:54:02.313966 23022 layer_factory.hpp:77] Creating layer conv2_1/2/conv_conv2_1/2/bn_0_split
I0303 16:54:02.313977 23022 net.cpp:100] Creating Layer conv2_1/2/conv_conv2_1/2/bn_0_split
I0303 16:54:02.313980 23022 net.cpp:434] conv2_1/2/conv_conv2_1/2/bn_0_split <- conv2_1/2/conv
I0303 16:54:02.313988 23022 net.cpp:408] conv2_1/2/conv_conv2_1/2/bn_0_split -> conv2_1/2/conv_conv2_1/2/bn_0_split_0
I0303 16:54:02.313995 23022 net.cpp:408] conv2_1/2/conv_conv2_1/2/bn_0_split -> conv2_1/2/conv_conv2_1/2/bn_0_split_1
I0303 16:54:02.314052 23022 net.cpp:150] Setting up conv2_1/2/conv_conv2_1/2/bn_0_split
I0303 16:54:02.314060 23022 net.cpp:157] Top shape: 1 24 216 360 (1866240)
I0303 16:54:02.314064 23022 net.cpp:157] Top shape: 1 24 216 360 (1866240)
I0303 16:54:02.314067 23022 net.cpp:165] Memory required for data: 353341524
I0303 16:54:02.314071 23022 layer_factory.hpp:77] Creating layer conv2_1/2/neg
I0303 16:54:02.314077 23022 net.cpp:100] Creating Layer conv2_1/2/neg
I0303 16:54:02.314080 23022 net.cpp:434] conv2_1/2/neg <- conv2_1/2/conv_conv2_1/2/bn_0_split_0
I0303 16:54:02.314087 23022 net.cpp:408] conv2_1/2/neg -> conv2_1/2/neg
I0303 16:54:02.314121 23022 net.cpp:150] Setting up conv2_1/2/neg
I0303 16:54:02.314126 23022 net.cpp:157] Top shape: 1 24 216 360 (1866240)
I0303 16:54:02.314129 23022 net.cpp:165] Memory required for data: 360806484
I0303 16:54:02.314133 23022 layer_factory.hpp:77] Creating layer conv2_1/2/concat
I0303 16:54:02.314141 23022 net.cpp:100] Creating Layer conv2_1/2/concat
I0303 16:54:02.314146 23022 net.cpp:434] conv2_1/2/concat <- conv2_1/2/conv_conv2_1/2/bn_0_split_1
I0303 16:54:02.314149 23022 net.cpp:434] conv2_1/2/concat <- conv2_1/2/neg
I0303 16:54:02.314154 23022 net.cpp:408] conv2_1/2/concat -> conv2_1/2
I0303 16:54:02.314199 23022 net.cpp:150] Setting up conv2_1/2/concat
I0303 16:54:02.314208 23022 net.cpp:157] Top shape: 1 48 216 360 (3732480)
I0303 16:54:02.314211 23022 net.cpp:165] Memory required for data: 375736404
I0303 16:54:02.314215 23022 layer_factory.hpp:77] Creating layer conv2_1/2/scale
I0303 16:54:02.314221 23022 net.cpp:100] Creating Layer conv2_1/2/scale
I0303 16:54:02.314225 23022 net.cpp:434] conv2_1/2/scale <- conv2_1/2
I0303 16:54:02.314231 23022 net.cpp:395] conv2_1/2/scale -> conv2_1/2 (in-place)
I0303 16:54:02.314311 23022 layer_factory.hpp:77] Creating layer conv2_1/2/scale
I0303 16:54:02.314585 23022 net.cpp:150] Setting up conv2_1/2/scale
I0303 16:54:02.314594 23022 net.cpp:157] Top shape: 1 48 216 360 (3732480)
I0303 16:54:02.314597 23022 net.cpp:165] Memory required for data: 390666324
I0303 16:54:02.314609 23022 layer_factory.hpp:77] Creating layer conv2_1/2/relu
I0303 16:54:02.314615 23022 net.cpp:100] Creating Layer conv2_1/2/relu
I0303 16:54:02.314618 23022 net.cpp:434] conv2_1/2/relu <- conv2_1/2
I0303 16:54:02.314623 23022 net.cpp:395] conv2_1/2/relu -> conv2_1/2 (in-place)
I0303 16:54:02.314816 23022 net.cpp:150] Setting up conv2_1/2/relu
I0303 16:54:02.314826 23022 net.cpp:157] Top shape: 1 48 216 360 (3732480)
I0303 16:54:02.314829 23022 net.cpp:165] Memory required for data: 405596244
I0303 16:54:02.314833 23022 layer_factory.hpp:77] Creating layer conv2_1/3/conv
I0303 16:54:02.314842 23022 net.cpp:100] Creating Layer conv2_1/3/conv
I0303 16:54:02.314847 23022 net.cpp:434] conv2_1/3/conv <- conv2_1/2
I0303 16:54:02.314858 23022 net.cpp:408] conv2_1/3/conv -> conv2_1/3
I0303 16:54:02.316229 23022 net.cpp:150] Setting up conv2_1/3/conv
I0303 16:54:02.316243 23022 net.cpp:157] Top shape: 1 64 216 360 (4976640)
I0303 16:54:02.316247 23022 net.cpp:165] Memory required for data: 425502804
I0303 16:54:02.316254 23022 layer_factory.hpp:77] Creating layer conv2_1/3/bn
I0303 16:54:02.316262 23022 net.cpp:100] Creating Layer conv2_1/3/bn
I0303 16:54:02.316267 23022 net.cpp:434] conv2_1/3/bn <- conv2_1/3
I0303 16:54:02.316272 23022 net.cpp:395] conv2_1/3/bn -> conv2_1/3 (in-place)
I0303 16:54:02.317322 23022 net.cpp:150] Setting up conv2_1/3/bn
I0303 16:54:02.317334 23022 net.cpp:157] Top shape: 1 64 216 360 (4976640)
I0303 16:54:02.317337 23022 net.cpp:165] Memory required for data: 445409364
I0303 16:54:02.317347 23022 layer_factory.hpp:77] Creating layer conv2_1/3/bn_scale
I0303 16:54:02.317355 23022 net.cpp:100] Creating Layer conv2_1/3/bn_scale
I0303 16:54:02.317359 23022 net.cpp:434] conv2_1/3/bn_scale <- conv2_1/3
I0303 16:54:02.317365 23022 net.cpp:395] conv2_1/3/bn_scale -> conv2_1/3 (in-place)
I0303 16:54:02.317426 23022 layer_factory.hpp:77] Creating layer conv2_1/3/bn_scale
I0303 16:54:02.317729 23022 net.cpp:150] Setting up conv2_1/3/bn_scale
I0303 16:54:02.317737 23022 net.cpp:157] Top shape: 1 64 216 360 (4976640)
I0303 16:54:02.317741 23022 net.cpp:165] Memory required for data: 465315924
I0303 16:54:02.317747 23022 layer_factory.hpp:77] Creating layer conv2_1/proj
I0303 16:54:02.317757 23022 net.cpp:100] Creating Layer conv2_1/proj
I0303 16:54:02.317762 23022 net.cpp:434] conv2_1/proj <- pool1_pool1_0_split_1
I0303 16:54:02.317769 23022 net.cpp:408] conv2_1/proj -> conv2_1/proj
I0303 16:54:02.319923 23022 net.cpp:150] Setting up conv2_1/proj
I0303 16:54:02.319938 23022 net.cpp:157] Top shape: 1 64 216 360 (4976640)
I0303 16:54:02.319942 23022 net.cpp:165] Memory required for data: 485222484
I0303 16:54:02.319949 23022 layer_factory.hpp:77] Creating layer conv2_1/proj_bn
I0303 16:54:02.319958 23022 net.cpp:100] Creating Layer conv2_1/proj_bn
I0303 16:54:02.319963 23022 net.cpp:434] conv2_1/proj_bn <- conv2_1/proj
I0303 16:54:02.319968 23022 net.cpp:395] conv2_1/proj_bn -> conv2_1/proj (in-place)
I0303 16:54:02.320354 23022 net.cpp:150] Setting up conv2_1/proj_bn
I0303 16:54:02.320365 23022 net.cpp:157] Top shape: 1 64 216 360 (4976640)
I0303 16:54:02.320369 23022 net.cpp:165] Memory required for data: 505129044
I0303 16:54:02.320376 23022 layer_factory.hpp:77] Creating layer conv2_1/proj_bn_scale
I0303 16:54:02.320384 23022 net.cpp:100] Creating Layer conv2_1/proj_bn_scale
I0303 16:54:02.320387 23022 net.cpp:434] conv2_1/proj_bn_scale <- conv2_1/proj
I0303 16:54:02.320394 23022 net.cpp:395] conv2_1/proj_bn_scale -> conv2_1/proj (in-place)
I0303 16:54:02.320456 23022 layer_factory.hpp:77] Creating layer conv2_1/proj_bn_scale
I0303 16:54:02.321408 23022 net.cpp:150] Setting up conv2_1/proj_bn_scale
I0303 16:54:02.321422 23022 net.cpp:157] Top shape: 1 64 216 360 (4976640)
I0303 16:54:02.321425 23022 net.cpp:165] Memory required for data: 525035604
I0303 16:54:02.321432 23022 layer_factory.hpp:77] Creating layer conv2_1
I0303 16:54:02.321440 23022 net.cpp:100] Creating Layer conv2_1
I0303 16:54:02.321444 23022 net.cpp:434] conv2_1 <- conv2_1/3
I0303 16:54:02.321449 23022 net.cpp:434] conv2_1 <- conv2_1/proj
I0303 16:54:02.321456 23022 net.cpp:408] conv2_1 -> conv2_1
I0303 16:54:02.321499 23022 net.cpp:150] Setting up conv2_1
I0303 16:54:02.321506 23022 net.cpp:157] Top shape: 1 64 216 360 (4976640)
I0303 16:54:02.321511 23022 net.cpp:165] Memory required for data: 544942164
I0303 16:54:02.321513 23022 layer_factory.hpp:77] Creating layer conv2_1_conv2_1_0_split
I0303 16:54:02.321519 23022 net.cpp:100] Creating Layer conv2_1_conv2_1_0_split
I0303 16:54:02.321523 23022 net.cpp:434] conv2_1_conv2_1_0_split <- conv2_1
I0303 16:54:02.321529 23022 net.cpp:408] conv2_1_conv2_1_0_split -> conv2_1_conv2_1_0_split_0
I0303 16:54:02.321537 23022 net.cpp:408] conv2_1_conv2_1_0_split -> conv2_1_conv2_1_0_split_1
I0303 16:54:02.321599 23022 net.cpp:150] Setting up conv2_1_conv2_1_0_split
I0303 16:54:02.321606 23022 net.cpp:157] Top shape: 1 64 216 360 (4976640)
I0303 16:54:02.321610 23022 net.cpp:157] Top shape: 1 64 216 360 (4976640)
I0303 16:54:02.321614 23022 net.cpp:165] Memory required for data: 584755284
I0303 16:54:02.321616 23022 layer_factory.hpp:77] Creating layer conv2_2/1/conv
I0303 16:54:02.321632 23022 net.cpp:100] Creating Layer conv2_2/1/conv
I0303 16:54:02.321636 23022 net.cpp:434] conv2_2/1/conv <- conv2_1_conv2_1_0_split_0
I0303 16:54:02.321642 23022 net.cpp:408] conv2_2/1/conv -> conv2_2/1
I0303 16:54:02.323024 23022 net.cpp:150] Setting up conv2_2/1/conv
I0303 16:54:02.323040 23022 net.cpp:157] Top shape: 1 24 216 360 (1866240)
I0303 16:54:02.323045 23022 net.cpp:165] Memory required for data: 592220244
I0303 16:54:02.323050 23022 layer_factory.hpp:77] Creating layer conv2_2/1/bn
I0303 16:54:02.323060 23022 net.cpp:100] Creating Layer conv2_2/1/bn
I0303 16:54:02.323065 23022 net.cpp:434] conv2_2/1/bn <- conv2_2/1
I0303 16:54:02.323071 23022 net.cpp:395] conv2_2/1/bn -> conv2_2/1 (in-place)
I0303 16:54:02.323473 23022 net.cpp:150] Setting up conv2_2/1/bn
I0303 16:54:02.323484 23022 net.cpp:157] Top shape: 1 24 216 360 (1866240)
I0303 16:54:02.323488 23022 net.cpp:165] Memory required for data: 599685204
I0303 16:54:02.323501 23022 layer_factory.hpp:77] Creating layer conv2_2/1/bn_scale
I0303 16:54:02.323509 23022 net.cpp:100] Creating Layer conv2_2/1/bn_scale
I0303 16:54:02.323513 23022 net.cpp:434] conv2_2/1/bn_scale <- conv2_2/1
I0303 16:54:02.323520 23022 net.cpp:395] conv2_2/1/bn_scale -> conv2_2/1 (in-place)
I0303 16:54:02.323582 23022 layer_factory.hpp:77] Creating layer conv2_2/1/bn_scale
I0303 16:54:02.324569 23022 net.cpp:150] Setting up conv2_2/1/bn_scale
I0303 16:54:02.324582 23022 net.cpp:157] Top shape: 1 24 216 360 (1866240)
I0303 16:54:02.324586 23022 net.cpp:165] Memory required for data: 607150164
I0303 16:54:02.324594 23022 layer_factory.hpp:77] Creating layer conv2_2/1/relu
I0303 16:54:02.324600 23022 net.cpp:100] Creating Layer conv2_2/1/relu
I0303 16:54:02.324604 23022 net.cpp:434] conv2_2/1/relu <- conv2_2/1
I0303 16:54:02.324610 23022 net.cpp:395] conv2_2/1/relu -> conv2_2/1 (in-place)
I0303 16:54:02.324811 23022 net.cpp:150] Setting up conv2_2/1/relu
I0303 16:54:02.324820 23022 net.cpp:157] Top shape: 1 24 216 360 (1866240)
I0303 16:54:02.324825 23022 net.cpp:165] Memory required for data: 614615124
I0303 16:54:02.324828 23022 layer_factory.hpp:77] Creating layer conv2_2/2/conv
I0303 16:54:02.324838 23022 net.cpp:100] Creating Layer conv2_2/2/conv
I0303 16:54:02.324843 23022 net.cpp:434] conv2_2/2/conv <- conv2_2/1
I0303 16:54:02.324851 23022 net.cpp:408] conv2_2/2/conv -> conv2_2/2/conv
I0303 16:54:02.326319 23022 net.cpp:150] Setting up conv2_2/2/conv
I0303 16:54:02.326334 23022 net.cpp:157] Top shape: 1 24 216 360 (1866240)
I0303 16:54:02.326339 23022 net.cpp:165] Memory required for data: 622080084
I0303 16:54:02.326344 23022 layer_factory.hpp:77] Creating layer conv2_2/2/bn
I0303 16:54:02.326354 23022 net.cpp:100] Creating Layer conv2_2/2/bn
I0303 16:54:02.326359 23022 net.cpp:434] conv2_2/2/bn <- conv2_2/2/conv
I0303 16:54:02.326366 23022 net.cpp:395] conv2_2/2/bn -> conv2_2/2/conv (in-place)
I0303 16:54:02.326767 23022 net.cpp:150] Setting up conv2_2/2/bn
I0303 16:54:02.326776 23022 net.cpp:157] Top shape: 1 24 216 360 (1866240)
I0303 16:54:02.326781 23022 net.cpp:165] Memory required for data: 629545044
I0303 16:54:02.326787 23022 layer_factory.hpp:77] Creating layer conv2_2/2/conv_conv2_2/2/bn_0_split
I0303 16:54:02.326793 23022 net.cpp:100] Creating Layer conv2_2/2/conv_conv2_2/2/bn_0_split
I0303 16:54:02.326797 23022 net.cpp:434] conv2_2/2/conv_conv2_2/2/bn_0_split <- conv2_2/2/conv
I0303 16:54:02.326805 23022 net.cpp:408] conv2_2/2/conv_conv2_2/2/bn_0_split -> conv2_2/2/conv_conv2_2/2/bn_0_split_0
I0303 16:54:02.326812 23022 net.cpp:408] conv2_2/2/conv_conv2_2/2/bn_0_split -> conv2_2/2/conv_conv2_2/2/bn_0_split_1
I0303 16:54:02.326874 23022 net.cpp:150] Setting up conv2_2/2/conv_conv2_2/2/bn_0_split
I0303 16:54:02.326887 23022 net.cpp:157] Top shape: 1 24 216 360 (1866240)
I0303 16:54:02.326892 23022 net.cpp:157] Top shape: 1 24 216 360 (1866240)
I0303 16:54:02.326895 23022 net.cpp:165] Memory required for data: 644474964
I0303 16:54:02.326900 23022 layer_factory.hpp:77] Creating layer conv2_2/2/neg
I0303 16:54:02.326906 23022 net.cpp:100] Creating Layer conv2_2/2/neg
I0303 16:54:02.326910 23022 net.cpp:434] conv2_2/2/neg <- conv2_2/2/conv_conv2_2/2/bn_0_split_0
I0303 16:54:02.326917 23022 net.cpp:408] conv2_2/2/neg -> conv2_2/2/neg
I0303 16:54:02.326958 23022 net.cpp:150] Setting up conv2_2/2/neg
I0303 16:54:02.326968 23022 net.cpp:157] Top shape: 1 24 216 360 (1866240)
I0303 16:54:02.326972 23022 net.cpp:165] Memory required for data: 651939924
I0303 16:54:02.326975 23022 layer_factory.hpp:77] Creating layer conv2_2/2/concat
I0303 16:54:02.326982 23022 net.cpp:100] Creating Layer conv2_2/2/concat
I0303 16:54:02.326985 23022 net.cpp:434] conv2_2/2/concat <- conv2_2/2/conv_conv2_2/2/bn_0_split_1
I0303 16:54:02.326990 23022 net.cpp:434] conv2_2/2/concat <- conv2_2/2/neg
I0303 16:54:02.326995 23022 net.cpp:408] conv2_2/2/concat -> conv2_2/2
I0303 16:54:02.327030 23022 net.cpp:150] Setting up conv2_2/2/concat
I0303 16:54:02.327038 23022 net.cpp:157] Top shape: 1 48 216 360 (3732480)
I0303 16:54:02.327040 23022 net.cpp:165] Memory required for data: 666869844
I0303 16:54:02.327044 23022 layer_factory.hpp:77] Creating layer conv2_2/2/scale
I0303 16:54:02.327052 23022 net.cpp:100] Creating Layer conv2_2/2/scale
I0303 16:54:02.327056 23022 net.cpp:434] conv2_2/2/scale <- conv2_2/2
I0303 16:54:02.327061 23022 net.cpp:395] conv2_2/2/scale -> conv2_2/2 (in-place)
I0303 16:54:02.327126 23022 layer_factory.hpp:77] Creating layer conv2_2/2/scale
I0303 16:54:02.328107 23022 net.cpp:150] Setting up conv2_2/2/scale
I0303 16:54:02.328121 23022 net.cpp:157] Top shape: 1 48 216 360 (3732480)
I0303 16:54:02.328125 23022 net.cpp:165] Memory required for data: 681799764
I0303 16:54:02.328132 23022 layer_factory.hpp:77] Creating layer conv2_2/2/relu
I0303 16:54:02.328140 23022 net.cpp:100] Creating Layer conv2_2/2/relu
I0303 16:54:02.328143 23022 net.cpp:434] conv2_2/2/relu <- conv2_2/2
I0303 16:54:02.328150 23022 net.cpp:395] conv2_2/2/relu -> conv2_2/2 (in-place)
I0303 16:54:02.328523 23022 net.cpp:150] Setting up conv2_2/2/relu
I0303 16:54:02.328536 23022 net.cpp:157] Top shape: 1 48 216 360 (3732480)
I0303 16:54:02.328541 23022 net.cpp:165] Memory required for data: 696729684
I0303 16:54:02.328544 23022 layer_factory.hpp:77] Creating layer conv2_2/3/conv
I0303 16:54:02.328555 23022 net.cpp:100] Creating Layer conv2_2/3/conv
I0303 16:54:02.328559 23022 net.cpp:434] conv2_2/3/conv <- conv2_2/2
I0303 16:54:02.328567 23022 net.cpp:408] conv2_2/3/conv -> conv2_2/3
I0303 16:54:02.329854 23022 net.cpp:150] Setting up conv2_2/3/conv
I0303 16:54:02.329869 23022 net.cpp:157] Top shape: 1 64 216 360 (4976640)
I0303 16:54:02.329872 23022 net.cpp:165] Memory required for data: 716636244
I0303 16:54:02.329879 23022 layer_factory.hpp:77] Creating layer conv2_2/3/bn
I0303 16:54:02.329886 23022 net.cpp:100] Creating Layer conv2_2/3/bn
I0303 16:54:02.329890 23022 net.cpp:434] conv2_2/3/bn <- conv2_2/3
I0303 16:54:02.329897 23022 net.cpp:395] conv2_2/3/bn -> conv2_2/3 (in-place)
I0303 16:54:02.330288 23022 net.cpp:150] Setting up conv2_2/3/bn
I0303 16:54:02.330298 23022 net.cpp:157] Top shape: 1 64 216 360 (4976640)
I0303 16:54:02.330302 23022 net.cpp:165] Memory required for data: 736542804
I0303 16:54:02.330309 23022 layer_factory.hpp:77] Creating layer conv2_2/3/bn_scale
I0303 16:54:02.330317 23022 net.cpp:100] Creating Layer conv2_2/3/bn_scale
I0303 16:54:02.330322 23022 net.cpp:434] conv2_2/3/bn_scale <- conv2_2/3
I0303 16:54:02.330327 23022 net.cpp:395] conv2_2/3/bn_scale -> conv2_2/3 (in-place)
I0303 16:54:02.330389 23022 layer_factory.hpp:77] Creating layer conv2_2/3/bn_scale
I0303 16:54:02.331338 23022 net.cpp:150] Setting up conv2_2/3/bn_scale
I0303 16:54:02.331351 23022 net.cpp:157] Top shape: 1 64 216 360 (4976640)
I0303 16:54:02.331360 23022 net.cpp:165] Memory required for data: 756449364
I0303 16:54:02.331367 23022 layer_factory.hpp:77] Creating layer conv2_2/input
I0303 16:54:02.331375 23022 net.cpp:100] Creating Layer conv2_2/input
I0303 16:54:02.331379 23022 net.cpp:434] conv2_2/input <- conv2_1_conv2_1_0_split_1
I0303 16:54:02.331387 23022 net.cpp:408] conv2_2/input -> conv2_2/input
I0303 16:54:02.331432 23022 net.cpp:150] Setting up conv2_2/input
I0303 16:54:02.331439 23022 net.cpp:157] Top shape: 1 64 216 360 (4976640)
I0303 16:54:02.331444 23022 net.cpp:165] Memory required for data: 776355924
I0303 16:54:02.331446 23022 layer_factory.hpp:77] Creating layer conv2_2
I0303 16:54:02.331454 23022 net.cpp:100] Creating Layer conv2_2
I0303 16:54:02.331459 23022 net.cpp:434] conv2_2 <- conv2_2/3
I0303 16:54:02.331462 23022 net.cpp:434] conv2_2 <- conv2_2/input
I0303 16:54:02.331468 23022 net.cpp:408] conv2_2 -> conv2_2
I0303 16:54:02.331508 23022 net.cpp:150] Setting up conv2_2
I0303 16:54:02.331516 23022 net.cpp:157] Top shape: 1 64 216 360 (4976640)
I0303 16:54:02.331519 23022 net.cpp:165] Memory required for data: 796262484
I0303 16:54:02.331522 23022 layer_factory.hpp:77] Creating layer conv2_2_conv2_2_0_split
I0303 16:54:02.331528 23022 net.cpp:100] Creating Layer conv2_2_conv2_2_0_split
I0303 16:54:02.331532 23022 net.cpp:434] conv2_2_conv2_2_0_split <- conv2_2
I0303 16:54:02.331539 23022 net.cpp:408] conv2_2_conv2_2_0_split -> conv2_2_conv2_2_0_split_0
I0303 16:54:02.331545 23022 net.cpp:408] conv2_2_conv2_2_0_split -> conv2_2_conv2_2_0_split_1
I0303 16:54:02.331604 23022 net.cpp:150] Setting up conv2_2_conv2_2_0_split
I0303 16:54:02.331610 23022 net.cpp:157] Top shape: 1 64 216 360 (4976640)
I0303 16:54:02.331614 23022 net.cpp:157] Top shape: 1 64 216 360 (4976640)
I0303 16:54:02.331617 23022 net.cpp:165] Memory required for data: 836075604
I0303 16:54:02.331621 23022 layer_factory.hpp:77] Creating layer conv2_3/1/conv
I0303 16:54:02.331631 23022 net.cpp:100] Creating Layer conv2_3/1/conv
I0303 16:54:02.331636 23022 net.cpp:434] conv2_3/1/conv <- conv2_2_conv2_2_0_split_0
I0303 16:54:02.331643 23022 net.cpp:408] conv2_3/1/conv -> conv2_3/1
I0303 16:54:02.333122 23022 net.cpp:150] Setting up conv2_3/1/conv
I0303 16:54:02.333135 23022 net.cpp:157] Top shape: 1 24 216 360 (1866240)
I0303 16:54:02.333139 23022 net.cpp:165] Memory required for data: 843540564
I0303 16:54:02.333145 23022 layer_factory.hpp:77] Creating layer conv2_3/1/bn
I0303 16:54:02.333154 23022 net.cpp:100] Creating Layer conv2_3/1/bn
I0303 16:54:02.333158 23022 net.cpp:434] conv2_3/1/bn <- conv2_3/1
I0303 16:54:02.333166 23022 net.cpp:395] conv2_3/1/bn -> conv2_3/1 (in-place)
I0303 16:54:02.333560 23022 net.cpp:150] Setting up conv2_3/1/bn
I0303 16:54:02.333569 23022 net.cpp:157] Top shape: 1 24 216 360 (1866240)
I0303 16:54:02.333572 23022 net.cpp:165] Memory required for data: 851005524
I0303 16:54:02.333580 23022 layer_factory.hpp:77] Creating layer conv2_3/1/bn_scale
I0303 16:54:02.333586 23022 net.cpp:100] Creating Layer conv2_3/1/bn_scale
I0303 16:54:02.333590 23022 net.cpp:434] conv2_3/1/bn_scale <- conv2_3/1
I0303 16:54:02.333597 23022 net.cpp:395] conv2_3/1/bn_scale -> conv2_3/1 (in-place)
I0303 16:54:02.333658 23022 layer_factory.hpp:77] Creating layer conv2_3/1/bn_scale
I0303 16:54:02.334621 23022 net.cpp:150] Setting up conv2_3/1/bn_scale
I0303 16:54:02.334635 23022 net.cpp:157] Top shape: 1 24 216 360 (1866240)
I0303 16:54:02.334638 23022 net.cpp:165] Memory required for data: 858470484
I0303 16:54:02.334645 23022 layer_factory.hpp:77] Creating layer conv2_3/1/relu
I0303 16:54:02.334651 23022 net.cpp:100] Creating Layer conv2_3/1/relu
I0303 16:54:02.334656 23022 net.cpp:434] conv2_3/1/relu <- conv2_3/1
I0303 16:54:02.334663 23022 net.cpp:395] conv2_3/1/relu -> conv2_3/1 (in-place)
I0303 16:54:02.335021 23022 net.cpp:150] Setting up conv2_3/1/relu
I0303 16:54:02.335033 23022 net.cpp:157] Top shape: 1 24 216 360 (1866240)
I0303 16:54:02.335037 23022 net.cpp:165] Memory required for data: 865935444
I0303 16:54:02.335041 23022 layer_factory.hpp:77] Creating layer conv2_3/2/conv
I0303 16:54:02.335057 23022 net.cpp:100] Creating Layer conv2_3/2/conv
I0303 16:54:02.335062 23022 net.cpp:434] conv2_3/2/conv <- conv2_3/1
I0303 16:54:02.335070 23022 net.cpp:408] conv2_3/2/conv -> conv2_3/2/conv
I0303 16:54:02.336458 23022 net.cpp:150] Setting up conv2_3/2/conv
I0303 16:54:02.336472 23022 net.cpp:157] Top shape: 1 24 216 360 (1866240)
I0303 16:54:02.336475 23022 net.cpp:165] Memory required for data: 873400404
I0303 16:54:02.336482 23022 layer_factory.hpp:77] Creating layer conv2_3/2/bn
I0303 16:54:02.336490 23022 net.cpp:100] Creating Layer conv2_3/2/bn
I0303 16:54:02.336494 23022 net.cpp:434] conv2_3/2/bn <- conv2_3/2/conv
I0303 16:54:02.336501 23022 net.cpp:395] conv2_3/2/bn -> conv2_3/2/conv (in-place)
I0303 16:54:02.336933 23022 net.cpp:150] Setting up conv2_3/2/bn
I0303 16:54:02.336942 23022 net.cpp:157] Top shape: 1 24 216 360 (1866240)
I0303 16:54:02.336946 23022 net.cpp:165] Memory required for data: 880865364
I0303 16:54:02.336953 23022 layer_factory.hpp:77] Creating layer conv2_3/2/conv_conv2_3/2/bn_0_split
I0303 16:54:02.336959 23022 net.cpp:100] Creating Layer conv2_3/2/conv_conv2_3/2/bn_0_split
I0303 16:54:02.336964 23022 net.cpp:434] conv2_3/2/conv_conv2_3/2/bn_0_split <- conv2_3/2/conv
I0303 16:54:02.336971 23022 net.cpp:408] conv2_3/2/conv_conv2_3/2/bn_0_split -> conv2_3/2/conv_conv2_3/2/bn_0_split_0
I0303 16:54:02.336978 23022 net.cpp:408] conv2_3/2/conv_conv2_3/2/bn_0_split -> conv2_3/2/conv_conv2_3/2/bn_0_split_1
I0303 16:54:02.337041 23022 net.cpp:150] Setting up conv2_3/2/conv_conv2_3/2/bn_0_split
I0303 16:54:02.337049 23022 net.cpp:157] Top shape: 1 24 216 360 (1866240)
I0303 16:54:02.337069 23022 net.cpp:157] Top shape: 1 24 216 360 (1866240)
I0303 16:54:02.337071 23022 net.cpp:165] Memory required for data: 895795284
I0303 16:54:02.337075 23022 layer_factory.hpp:77] Creating layer conv2_3/2/neg
I0303 16:54:02.337081 23022 net.cpp:100] Creating Layer conv2_3/2/neg
I0303 16:54:02.337085 23022 net.cpp:434] conv2_3/2/neg <- conv2_3/2/conv_conv2_3/2/bn_0_split_0
I0303 16:54:02.337091 23022 net.cpp:408] conv2_3/2/neg -> conv2_3/2/neg
I0303 16:54:02.337126 23022 net.cpp:150] Setting up conv2_3/2/neg
I0303 16:54:02.337133 23022 net.cpp:157] Top shape: 1 24 216 360 (1866240)
I0303 16:54:02.337136 23022 net.cpp:165] Memory required for data: 903260244
I0303 16:54:02.337139 23022 layer_factory.hpp:77] Creating layer conv2_3/2/concat
I0303 16:54:02.337147 23022 net.cpp:100] Creating Layer conv2_3/2/concat
I0303 16:54:02.337152 23022 net.cpp:434] conv2_3/2/concat <- conv2_3/2/conv_conv2_3/2/bn_0_split_1
I0303 16:54:02.337155 23022 net.cpp:434] conv2_3/2/concat <- conv2_3/2/neg
I0303 16:54:02.337160 23022 net.cpp:408] conv2_3/2/concat -> conv2_3/2
I0303 16:54:02.337195 23022 net.cpp:150] Setting up conv2_3/2/concat
I0303 16:54:02.337203 23022 net.cpp:157] Top shape: 1 48 216 360 (3732480)
I0303 16:54:02.337205 23022 net.cpp:165] Memory required for data: 918190164
I0303 16:54:02.337208 23022 layer_factory.hpp:77] Creating layer conv2_3/2/scale
I0303 16:54:02.337214 23022 net.cpp:100] Creating Layer conv2_3/2/scale
I0303 16:54:02.337218 23022 net.cpp:434] conv2_3/2/scale <- conv2_3/2
I0303 16:54:02.337225 23022 net.cpp:395] conv2_3/2/scale -> conv2_3/2 (in-place)
I0303 16:54:02.337293 23022 layer_factory.hpp:77] Creating layer conv2_3/2/scale
I0303 16:54:02.338256 23022 net.cpp:150] Setting up conv2_3/2/scale
I0303 16:54:02.338270 23022 net.cpp:157] Top shape: 1 48 216 360 (3732480)
I0303 16:54:02.338274 23022 net.cpp:165] Memory required for data: 933120084
I0303 16:54:02.338281 23022 layer_factory.hpp:77] Creating layer conv2_3/2/relu
I0303 16:54:02.338287 23022 net.cpp:100] Creating Layer conv2_3/2/relu
I0303 16:54:02.338291 23022 net.cpp:434] conv2_3/2/relu <- conv2_3/2
I0303 16:54:02.338296 23022 net.cpp:395] conv2_3/2/relu -> conv2_3/2 (in-place)
I0303 16:54:02.338488 23022 net.cpp:150] Setting up conv2_3/2/relu
I0303 16:54:02.338498 23022 net.cpp:157] Top shape: 1 48 216 360 (3732480)
I0303 16:54:02.338501 23022 net.cpp:165] Memory required for data: 948050004
I0303 16:54:02.338516 23022 layer_factory.hpp:77] Creating layer conv2_3/3/conv
I0303 16:54:02.338526 23022 net.cpp:100] Creating Layer conv2_3/3/conv
I0303 16:54:02.338531 23022 net.cpp:434] conv2_3/3/conv <- conv2_3/2
I0303 16:54:02.338537 23022 net.cpp:408] conv2_3/3/conv -> conv2_3/3
I0303 16:54:02.339975 23022 net.cpp:150] Setting up conv2_3/3/conv
I0303 16:54:02.339989 23022 net.cpp:157] Top shape: 1 64 216 360 (4976640)
I0303 16:54:02.339993 23022 net.cpp:165] Memory required for data: 967956564
I0303 16:54:02.339999 23022 layer_factory.hpp:77] Creating layer conv2_3/3/bn
I0303 16:54:02.340006 23022 net.cpp:100] Creating Layer conv2_3/3/bn
I0303 16:54:02.340010 23022 net.cpp:434] conv2_3/3/bn <- conv2_3/3
I0303 16:54:02.340018 23022 net.cpp:395] conv2_3/3/bn -> conv2_3/3 (in-place)
I0303 16:54:02.340420 23022 net.cpp:150] Setting up conv2_3/3/bn
I0303 16:54:02.340430 23022 net.cpp:157] Top shape: 1 64 216 360 (4976640)
I0303 16:54:02.340432 23022 net.cpp:165] Memory required for data: 987863124
I0303 16:54:02.340451 23022 layer_factory.hpp:77] Creating layer conv2_3/3/bn_scale
I0303 16:54:02.340461 23022 net.cpp:100] Creating Layer conv2_3/3/bn_scale
I0303 16:54:02.340466 23022 net.cpp:434] conv2_3/3/bn_scale <- conv2_3/3
I0303 16:54:02.340471 23022 net.cpp:395] conv2_3/3/bn_scale -> conv2_3/3 (in-place)
I0303 16:54:02.340535 23022 layer_factory.hpp:77] Creating layer conv2_3/3/bn_scale
I0303 16:54:02.341497 23022 net.cpp:150] Setting up conv2_3/3/bn_scale
I0303 16:54:02.341511 23022 net.cpp:157] Top shape: 1 64 216 360 (4976640)
I0303 16:54:02.341513 23022 net.cpp:165] Memory required for data: 1007769684
I0303 16:54:02.341521 23022 layer_factory.hpp:77] Creating layer conv2_3/input
I0303 16:54:02.341527 23022 net.cpp:100] Creating Layer conv2_3/input
I0303 16:54:02.341531 23022 net.cpp:434] conv2_3/input <- conv2_2_conv2_2_0_split_1
I0303 16:54:02.341538 23022 net.cpp:408] conv2_3/input -> conv2_3/input
I0303 16:54:02.341583 23022 net.cpp:150] Setting up conv2_3/input
I0303 16:54:02.341591 23022 net.cpp:157] Top shape: 1 64 216 360 (4976640)
I0303 16:54:02.341594 23022 net.cpp:165] Memory required for data: 1027676244
I0303 16:54:02.341598 23022 layer_factory.hpp:77] Creating layer conv2_3
I0303 16:54:02.341615 23022 net.cpp:100] Creating Layer conv2_3
I0303 16:54:02.341619 23022 net.cpp:434] conv2_3 <- conv2_3/3
I0303 16:54:02.341624 23022 net.cpp:434] conv2_3 <- conv2_3/input
I0303 16:54:02.341629 23022 net.cpp:408] conv2_3 -> conv2_3
I0303 16:54:02.341667 23022 net.cpp:150] Setting up conv2_3
I0303 16:54:02.341675 23022 net.cpp:157] Top shape: 1 64 216 360 (4976640)
I0303 16:54:02.341677 23022 net.cpp:165] Memory required for data: 1047582804
I0303 16:54:02.341681 23022 layer_factory.hpp:77] Creating layer conv2_3_conv2_3_0_split
I0303 16:54:02.341689 23022 net.cpp:100] Creating Layer conv2_3_conv2_3_0_split
I0303 16:54:02.341693 23022 net.cpp:434] conv2_3_conv2_3_0_split <- conv2_3
I0303 16:54:02.341698 23022 net.cpp:408] conv2_3_conv2_3_0_split -> conv2_3_conv2_3_0_split_0
I0303 16:54:02.341706 23022 net.cpp:408] conv2_3_conv2_3_0_split -> conv2_3_conv2_3_0_split_1
I0303 16:54:02.341763 23022 net.cpp:150] Setting up conv2_3_conv2_3_0_split
I0303 16:54:02.341770 23022 net.cpp:157] Top shape: 1 64 216 360 (4976640)
I0303 16:54:02.341775 23022 net.cpp:157] Top shape: 1 64 216 360 (4976640)
I0303 16:54:02.341778 23022 net.cpp:165] Memory required for data: 1087395924
I0303 16:54:02.341781 23022 layer_factory.hpp:77] Creating layer conv3_1/1/conv
I0303 16:54:02.341792 23022 net.cpp:100] Creating Layer conv3_1/1/conv
I0303 16:54:02.341796 23022 net.cpp:434] conv3_1/1/conv <- conv2_3_conv2_3_0_split_0
I0303 16:54:02.341802 23022 net.cpp:408] conv3_1/1/conv -> conv3_1/1
I0303 16:54:02.343210 23022 net.cpp:150] Setting up conv3_1/1/conv
I0303 16:54:02.343225 23022 net.cpp:157] Top shape: 1 48 108 180 (933120)
I0303 16:54:02.343230 23022 net.cpp:165] Memory required for data: 1091128404
I0303 16:54:02.343235 23022 layer_factory.hpp:77] Creating layer conv3_1/1/bn
I0303 16:54:02.343245 23022 net.cpp:100] Creating Layer conv3_1/1/bn
I0303 16:54:02.343253 23022 net.cpp:434] conv3_1/1/bn <- conv3_1/1
I0303 16:54:02.343260 23022 net.cpp:395] conv3_1/1/bn -> conv3_1/1 (in-place)
I0303 16:54:02.344300 23022 net.cpp:150] Setting up conv3_1/1/bn
I0303 16:54:02.344313 23022 net.cpp:157] Top shape: 1 48 108 180 (933120)
I0303 16:54:02.344317 23022 net.cpp:165] Memory required for data: 1094860884
I0303 16:54:02.344326 23022 layer_factory.hpp:77] Creating layer conv3_1/1/bn_scale
I0303 16:54:02.344333 23022 net.cpp:100] Creating Layer conv3_1/1/bn_scale
I0303 16:54:02.344337 23022 net.cpp:434] conv3_1/1/bn_scale <- conv3_1/1
I0303 16:54:02.344344 23022 net.cpp:395] conv3_1/1/bn_scale -> conv3_1/1 (in-place)
I0303 16:54:02.344411 23022 layer_factory.hpp:77] Creating layer conv3_1/1/bn_scale
I0303 16:54:02.344650 23022 net.cpp:150] Setting up conv3_1/1/bn_scale
I0303 16:54:02.344657 23022 net.cpp:157] Top shape: 1 48 108 180 (933120)
I0303 16:54:02.344661 23022 net.cpp:165] Memory required for data: 1098593364
I0303 16:54:02.344667 23022 layer_factory.hpp:77] Creating layer conv3_1/1/relu
I0303 16:54:02.344674 23022 net.cpp:100] Creating Layer conv3_1/1/relu
I0303 16:54:02.344678 23022 net.cpp:434] conv3_1/1/relu <- conv3_1/1
I0303 16:54:02.344683 23022 net.cpp:395] conv3_1/1/relu -> conv3_1/1 (in-place)
I0303 16:54:02.344877 23022 net.cpp:150] Setting up conv3_1/1/relu
I0303 16:54:02.344887 23022 net.cpp:157] Top shape: 1 48 108 180 (933120)
I0303 16:54:02.344889 23022 net.cpp:165] Memory required for data: 1102325844
I0303 16:54:02.344893 23022 layer_factory.hpp:77] Creating layer conv3_1/2/conv
I0303 16:54:02.344903 23022 net.cpp:100] Creating Layer conv3_1/2/conv
I0303 16:54:02.344907 23022 net.cpp:434] conv3_1/2/conv <- conv3_1/1
I0303 16:54:02.344913 23022 net.cpp:408] conv3_1/2/conv -> conv3_1/2/conv
I0303 16:54:02.346316 23022 net.cpp:150] Setting up conv3_1/2/conv
I0303 16:54:02.346331 23022 net.cpp:157] Top shape: 1 48 108 180 (933120)
I0303 16:54:02.346335 23022 net.cpp:165] Memory required for data: 1106058324
I0303 16:54:02.346341 23022 layer_factory.hpp:77] Creating layer conv3_1/2/bn
I0303 16:54:02.346349 23022 net.cpp:100] Creating Layer conv3_1/2/bn
I0303 16:54:02.346352 23022 net.cpp:434] conv3_1/2/bn <- conv3_1/2/conv
I0303 16:54:02.346359 23022 net.cpp:395] conv3_1/2/bn -> conv3_1/2/conv (in-place)
I0303 16:54:02.346720 23022 net.cpp:150] Setting up conv3_1/2/bn
I0303 16:54:02.346729 23022 net.cpp:157] Top shape: 1 48 108 180 (933120)
I0303 16:54:02.346734 23022 net.cpp:165] Memory required for data: 1109790804
I0303 16:54:02.346740 23022 layer_factory.hpp:77] Creating layer conv3_1/2/conv_conv3_1/2/bn_0_split
I0303 16:54:02.346748 23022 net.cpp:100] Creating Layer conv3_1/2/conv_conv3_1/2/bn_0_split
I0303 16:54:02.346752 23022 net.cpp:434] conv3_1/2/conv_conv3_1/2/bn_0_split <- conv3_1/2/conv
I0303 16:54:02.346757 23022 net.cpp:408] conv3_1/2/conv_conv3_1/2/bn_0_split -> conv3_1/2/conv_conv3_1/2/bn_0_split_0
I0303 16:54:02.346770 23022 net.cpp:408] conv3_1/2/conv_conv3_1/2/bn_0_split -> conv3_1/2/conv_conv3_1/2/bn_0_split_1
I0303 16:54:02.346830 23022 net.cpp:150] Setting up conv3_1/2/conv_conv3_1/2/bn_0_split
I0303 16:54:02.346838 23022 net.cpp:157] Top shape: 1 48 108 180 (933120)
I0303 16:54:02.346843 23022 net.cpp:157] Top shape: 1 48 108 180 (933120)
I0303 16:54:02.346845 23022 net.cpp:165] Memory required for data: 1117255764
I0303 16:54:02.346849 23022 layer_factory.hpp:77] Creating layer conv3_1/2/neg
I0303 16:54:02.346856 23022 net.cpp:100] Creating Layer conv3_1/2/neg
I0303 16:54:02.346860 23022 net.cpp:434] conv3_1/2/neg <- conv3_1/2/conv_conv3_1/2/bn_0_split_0
I0303 16:54:02.346868 23022 net.cpp:408] conv3_1/2/neg -> conv3_1/2/neg
I0303 16:54:02.346902 23022 net.cpp:150] Setting up conv3_1/2/neg
I0303 16:54:02.346909 23022 net.cpp:157] Top shape: 1 48 108 180 (933120)
I0303 16:54:02.346912 23022 net.cpp:165] Memory required for data: 1120988244
I0303 16:54:02.346915 23022 layer_factory.hpp:77] Creating layer conv3_1/2/concat
I0303 16:54:02.346921 23022 net.cpp:100] Creating Layer conv3_1/2/concat
I0303 16:54:02.346930 23022 net.cpp:434] conv3_1/2/concat <- conv3_1/2/conv_conv3_1/2/bn_0_split_1
I0303 16:54:02.346935 23022 net.cpp:434] conv3_1/2/concat <- conv3_1/2/neg
I0303 16:54:02.346942 23022 net.cpp:408] conv3_1/2/concat -> conv3_1/2
I0303 16:54:02.346978 23022 net.cpp:150] Setting up conv3_1/2/concat
I0303 16:54:02.346984 23022 net.cpp:157] Top shape: 1 96 108 180 (1866240)
I0303 16:54:02.346988 23022 net.cpp:165] Memory required for data: 1128453204
I0303 16:54:02.346992 23022 layer_factory.hpp:77] Creating layer conv3_1/2/scale
I0303 16:54:02.346998 23022 net.cpp:100] Creating Layer conv3_1/2/scale
I0303 16:54:02.347003 23022 net.cpp:434] conv3_1/2/scale <- conv3_1/2
I0303 16:54:02.347007 23022 net.cpp:395] conv3_1/2/scale -> conv3_1/2 (in-place)
I0303 16:54:02.347074 23022 layer_factory.hpp:77] Creating layer conv3_1/2/scale
I0303 16:54:02.347297 23022 net.cpp:150] Setting up conv3_1/2/scale
I0303 16:54:02.347306 23022 net.cpp:157] Top shape: 1 96 108 180 (1866240)
I0303 16:54:02.347308 23022 net.cpp:165] Memory required for data: 1135918164
I0303 16:54:02.347314 23022 layer_factory.hpp:77] Creating layer conv3_1/2/relu
I0303 16:54:02.347321 23022 net.cpp:100] Creating Layer conv3_1/2/relu
I0303 16:54:02.347324 23022 net.cpp:434] conv3_1/2/relu <- conv3_1/2
I0303 16:54:02.347331 23022 net.cpp:395] conv3_1/2/relu -> conv3_1/2 (in-place)
I0303 16:54:02.348187 23022 net.cpp:150] Setting up conv3_1/2/relu
I0303 16:54:02.348238 23022 net.cpp:157] Top shape: 1 96 108 180 (1866240)
I0303 16:54:02.348248 23022 net.cpp:165] Memory required for data: 1143383124
I0303 16:54:02.348258 23022 layer_factory.hpp:77] Creating layer conv3_1/3/conv
I0303 16:54:02.348285 23022 net.cpp:100] Creating Layer conv3_1/3/conv
I0303 16:54:02.348296 23022 net.cpp:434] conv3_1/3/conv <- conv3_1/2
I0303 16:54:02.348312 23022 net.cpp:408] conv3_1/3/conv -> conv3_1/3
I0303 16:54:02.351012 23022 net.cpp:150] Setting up conv3_1/3/conv
I0303 16:54:02.351044 23022 net.cpp:157] Top shape: 1 128 108 180 (2488320)
I0303 16:54:02.351052 23022 net.cpp:165] Memory required for data: 1153336404
I0303 16:54:02.351065 23022 layer_factory.hpp:77] Creating layer conv3_1/3/bn
I0303 16:54:02.351080 23022 net.cpp:100] Creating Layer conv3_1/3/bn
I0303 16:54:02.351089 23022 net.cpp:434] conv3_1/3/bn <- conv3_1/3
I0303 16:54:02.351102 23022 net.cpp:395] conv3_1/3/bn -> conv3_1/3 (in-place)
I0303 16:54:02.351838 23022 net.cpp:150] Setting up conv3_1/3/bn
I0303 16:54:02.351855 23022 net.cpp:157] Top shape: 1 128 108 180 (2488320)
I0303 16:54:02.351862 23022 net.cpp:165] Memory required for data: 1163289684
I0303 16:54:02.351877 23022 layer_factory.hpp:77] Creating layer conv3_1/3/bn_scale
I0303 16:54:02.351894 23022 net.cpp:100] Creating Layer conv3_1/3/bn_scale
I0303 16:54:02.351902 23022 net.cpp:434] conv3_1/3/bn_scale <- conv3_1/3
I0303 16:54:02.351912 23022 net.cpp:395] conv3_1/3/bn_scale -> conv3_1/3 (in-place)
I0303 16:54:02.352037 23022 layer_factory.hpp:77] Creating layer conv3_1/3/bn_scale
I0303 16:54:02.352474 23022 net.cpp:150] Setting up conv3_1/3/bn_scale
I0303 16:54:02.352490 23022 net.cpp:157] Top shape: 1 128 108 180 (2488320)
I0303 16:54:02.352496 23022 net.cpp:165] Memory required for data: 1173242964
I0303 16:54:02.352509 23022 layer_factory.hpp:77] Creating layer conv3_1/proj
I0303 16:54:02.352529 23022 net.cpp:100] Creating Layer conv3_1/proj
I0303 16:54:02.352537 23022 net.cpp:434] conv3_1/proj <- conv2_3_conv2_3_0_split_1
I0303 16:54:02.352550 23022 net.cpp:408] conv3_1/proj -> conv3_1/proj
I0303 16:54:02.355250 23022 net.cpp:150] Setting up conv3_1/proj
I0303 16:54:02.355279 23022 net.cpp:157] Top shape: 1 128 108 180 (2488320)
I0303 16:54:02.355286 23022 net.cpp:165] Memory required for data: 1183196244
I0303 16:54:02.355300 23022 layer_factory.hpp:77] Creating layer conv3_1/proj_bn
I0303 16:54:02.355316 23022 net.cpp:100] Creating Layer conv3_1/proj_bn
I0303 16:54:02.355326 23022 net.cpp:434] conv3_1/proj_bn <- conv3_1/proj
I0303 16:54:02.355337 23022 net.cpp:395] conv3_1/proj_bn -> conv3_1/proj (in-place)
I0303 16:54:02.356050 23022 net.cpp:150] Setting up conv3_1/proj_bn
I0303 16:54:02.356081 23022 net.cpp:157] Top shape: 1 128 108 180 (2488320)
I0303 16:54:02.356089 23022 net.cpp:165] Memory required for data: 1193149524
I0303 16:54:02.356104 23022 layer_factory.hpp:77] Creating layer conv3_1/proj_bn_scale
I0303 16:54:02.356117 23022 net.cpp:100] Creating Layer conv3_1/proj_bn_scale
I0303 16:54:02.356125 23022 net.cpp:434] conv3_1/proj_bn_scale <- conv3_1/proj
I0303 16:54:02.356138 23022 net.cpp:395] conv3_1/proj_bn_scale -> conv3_1/proj (in-place)
I0303 16:54:02.356261 23022 layer_factory.hpp:77] Creating layer conv3_1/proj_bn_scale
I0303 16:54:02.357764 23022 net.cpp:150] Setting up conv3_1/proj_bn_scale
I0303 16:54:02.357789 23022 net.cpp:157] Top shape: 1 128 108 180 (2488320)
I0303 16:54:02.357797 23022 net.cpp:165] Memory required for data: 1203102804
I0303 16:54:02.357811 23022 layer_factory.hpp:77] Creating layer conv3_1
I0303 16:54:02.357825 23022 net.cpp:100] Creating Layer conv3_1
I0303 16:54:02.357833 23022 net.cpp:434] conv3_1 <- conv3_1/3
I0303 16:54:02.357844 23022 net.cpp:434] conv3_1 <- conv3_1/proj
I0303 16:54:02.357856 23022 net.cpp:408] conv3_1 -> conv3_1
I0303 16:54:02.357944 23022 net.cpp:150] Setting up conv3_1
I0303 16:54:02.357957 23022 net.cpp:157] Top shape: 1 128 108 180 (2488320)
I0303 16:54:02.357965 23022 net.cpp:165] Memory required for data: 1213056084
I0303 16:54:02.357972 23022 layer_factory.hpp:77] Creating layer conv3_1_conv3_1_0_split
I0303 16:54:02.357986 23022 net.cpp:100] Creating Layer conv3_1_conv3_1_0_split
I0303 16:54:02.357993 23022 net.cpp:434] conv3_1_conv3_1_0_split <- conv3_1
I0303 16:54:02.358006 23022 net.cpp:408] conv3_1_conv3_1_0_split -> conv3_1_conv3_1_0_split_0
I0303 16:54:02.358019 23022 net.cpp:408] conv3_1_conv3_1_0_split -> conv3_1_conv3_1_0_split_1
I0303 16:54:02.358135 23022 net.cpp:150] Setting up conv3_1_conv3_1_0_split
I0303 16:54:02.358149 23022 net.cpp:157] Top shape: 1 128 108 180 (2488320)
I0303 16:54:02.358158 23022 net.cpp:157] Top shape: 1 128 108 180 (2488320)
I0303 16:54:02.358165 23022 net.cpp:165] Memory required for data: 1232962644
I0303 16:54:02.358171 23022 layer_factory.hpp:77] Creating layer conv3_2/1/conv
I0303 16:54:02.358217 23022 net.cpp:100] Creating Layer conv3_2/1/conv
I0303 16:54:02.358228 23022 net.cpp:434] conv3_2/1/conv <- conv3_1_conv3_1_0_split_0
I0303 16:54:02.358250 23022 net.cpp:408] conv3_2/1/conv -> conv3_2/1
I0303 16:54:02.360885 23022 net.cpp:150] Setting up conv3_2/1/conv
I0303 16:54:02.360911 23022 net.cpp:157] Top shape: 1 48 108 180 (933120)
I0303 16:54:02.360919 23022 net.cpp:165] Memory required for data: 1236695124
I0303 16:54:02.360931 23022 layer_factory.hpp:77] Creating layer conv3_2/1/bn
I0303 16:54:02.360947 23022 net.cpp:100] Creating Layer conv3_2/1/bn
I0303 16:54:02.360956 23022 net.cpp:434] conv3_2/1/bn <- conv3_2/1
I0303 16:54:02.360970 23022 net.cpp:395] conv3_2/1/bn -> conv3_2/1 (in-place)
I0303 16:54:02.361730 23022 net.cpp:150] Setting up conv3_2/1/bn
I0303 16:54:02.361747 23022 net.cpp:157] Top shape: 1 48 108 180 (933120)
I0303 16:54:02.361753 23022 net.cpp:165] Memory required for data: 1240427604
I0303 16:54:02.361769 23022 layer_factory.hpp:77] Creating layer conv3_2/1/bn_scale
I0303 16:54:02.361783 23022 net.cpp:100] Creating Layer conv3_2/1/bn_scale
I0303 16:54:02.361790 23022 net.cpp:434] conv3_2/1/bn_scale <- conv3_2/1
I0303 16:54:02.361802 23022 net.cpp:395] conv3_2/1/bn_scale -> conv3_2/1 (in-place)
I0303 16:54:02.361928 23022 layer_factory.hpp:77] Creating layer conv3_2/1/bn_scale
I0303 16:54:02.362416 23022 net.cpp:150] Setting up conv3_2/1/bn_scale
I0303 16:54:02.362433 23022 net.cpp:157] Top shape: 1 48 108 180 (933120)
I0303 16:54:02.362440 23022 net.cpp:165] Memory required for data: 1244160084
I0303 16:54:02.362452 23022 layer_factory.hpp:77] Creating layer conv3_2/1/relu
I0303 16:54:02.362468 23022 net.cpp:100] Creating Layer conv3_2/1/relu
I0303 16:54:02.362474 23022 net.cpp:434] conv3_2/1/relu <- conv3_2/1
I0303 16:54:02.362484 23022 net.cpp:395] conv3_2/1/relu -> conv3_2/1 (in-place)
I0303 16:54:02.363137 23022 net.cpp:150] Setting up conv3_2/1/relu
I0303 16:54:02.363162 23022 net.cpp:157] Top shape: 1 48 108 180 (933120)
I0303 16:54:02.363168 23022 net.cpp:165] Memory required for data: 1247892564
I0303 16:54:02.363175 23022 layer_factory.hpp:77] Creating layer conv3_2/2/conv
I0303 16:54:02.363191 23022 net.cpp:100] Creating Layer conv3_2/2/conv
I0303 16:54:02.363199 23022 net.cpp:434] conv3_2/2/conv <- conv3_2/1
I0303 16:54:02.363212 23022 net.cpp:408] conv3_2/2/conv -> conv3_2/2/conv
I0303 16:54:02.365509 23022 net.cpp:150] Setting up conv3_2/2/conv
I0303 16:54:02.365535 23022 net.cpp:157] Top shape: 1 48 108 180 (933120)
I0303 16:54:02.365542 23022 net.cpp:165] Memory required for data: 1251625044
I0303 16:54:02.365553 23022 layer_factory.hpp:77] Creating layer conv3_2/2/bn
I0303 16:54:02.365567 23022 net.cpp:100] Creating Layer conv3_2/2/bn
I0303 16:54:02.365576 23022 net.cpp:434] conv3_2/2/bn <- conv3_2/2/conv
I0303 16:54:02.365586 23022 net.cpp:395] conv3_2/2/bn -> conv3_2/2/conv (in-place)
I0303 16:54:02.366288 23022 net.cpp:150] Setting up conv3_2/2/bn
I0303 16:54:02.366304 23022 net.cpp:157] Top shape: 1 48 108 180 (933120)
I0303 16:54:02.366312 23022 net.cpp:165] Memory required for data: 1255357524
I0303 16:54:02.366325 23022 layer_factory.hpp:77] Creating layer conv3_2/2/conv_conv3_2/2/bn_0_split
I0303 16:54:02.366335 23022 net.cpp:100] Creating Layer conv3_2/2/conv_conv3_2/2/bn_0_split
I0303 16:54:02.366343 23022 net.cpp:434] conv3_2/2/conv_conv3_2/2/bn_0_split <- conv3_2/2/conv
I0303 16:54:02.366355 23022 net.cpp:408] conv3_2/2/conv_conv3_2/2/bn_0_split -> conv3_2/2/conv_conv3_2/2/bn_0_split_0
I0303 16:54:02.366369 23022 net.cpp:408] conv3_2/2/conv_conv3_2/2/bn_0_split -> conv3_2/2/conv_conv3_2/2/bn_0_split_1
I0303 16:54:02.366513 23022 net.cpp:150] Setting up conv3_2/2/conv_conv3_2/2/bn_0_split
I0303 16:54:02.366525 23022 net.cpp:157] Top shape: 1 48 108 180 (933120)
I0303 16:54:02.366535 23022 net.cpp:157] Top shape: 1 48 108 180 (933120)
I0303 16:54:02.366541 23022 net.cpp:165] Memory required for data: 1262822484
I0303 16:54:02.366547 23022 layer_factory.hpp:77] Creating layer conv3_2/2/neg
I0303 16:54:02.366562 23022 net.cpp:100] Creating Layer conv3_2/2/neg
I0303 16:54:02.366585 23022 net.cpp:434] conv3_2/2/neg <- conv3_2/2/conv_conv3_2/2/bn_0_split_0
I0303 16:54:02.366595 23022 net.cpp:408] conv3_2/2/neg -> conv3_2/2/neg
I0303 16:54:02.366660 23022 net.cpp:150] Setting up conv3_2/2/neg
I0303 16:54:02.366672 23022 net.cpp:157] Top shape: 1 48 108 180 (933120)
I0303 16:54:02.366679 23022 net.cpp:165] Memory required for data: 1266554964
I0303 16:54:02.366685 23022 layer_factory.hpp:77] Creating layer conv3_2/2/concat
I0303 16:54:02.366696 23022 net.cpp:100] Creating Layer conv3_2/2/concat
I0303 16:54:02.366703 23022 net.cpp:434] conv3_2/2/concat <- conv3_2/2/conv_conv3_2/2/bn_0_split_1
I0303 16:54:02.366713 23022 net.cpp:434] conv3_2/2/concat <- conv3_2/2/neg
I0303 16:54:02.366724 23022 net.cpp:408] conv3_2/2/concat -> conv3_2/2
I0303 16:54:02.366788 23022 net.cpp:150] Setting up conv3_2/2/concat
I0303 16:54:02.366799 23022 net.cpp:157] Top shape: 1 96 108 180 (1866240)
I0303 16:54:02.366806 23022 net.cpp:165] Memory required for data: 1274019924
I0303 16:54:02.366813 23022 layer_factory.hpp:77] Creating layer conv3_2/2/scale
I0303 16:54:02.366827 23022 net.cpp:100] Creating Layer conv3_2/2/scale
I0303 16:54:02.366834 23022 net.cpp:434] conv3_2/2/scale <- conv3_2/2
I0303 16:54:02.366847 23022 net.cpp:395] conv3_2/2/scale -> conv3_2/2 (in-place)
I0303 16:54:02.366962 23022 layer_factory.hpp:77] Creating layer conv3_2/2/scale
I0303 16:54:02.367383 23022 net.cpp:150] Setting up conv3_2/2/scale
I0303 16:54:02.367396 23022 net.cpp:157] Top shape: 1 96 108 180 (1866240)
I0303 16:54:02.367403 23022 net.cpp:165] Memory required for data: 1281484884
I0303 16:54:02.367414 23022 layer_factory.hpp:77] Creating layer conv3_2/2/relu
I0303 16:54:02.367424 23022 net.cpp:100] Creating Layer conv3_2/2/relu
I0303 16:54:02.367431 23022 net.cpp:434] conv3_2/2/relu <- conv3_2/2
I0303 16:54:02.367440 23022 net.cpp:395] conv3_2/2/relu -> conv3_2/2 (in-place)
I0303 16:54:02.368048 23022 net.cpp:150] Setting up conv3_2/2/relu
I0303 16:54:02.368069 23022 net.cpp:157] Top shape: 1 96 108 180 (1866240)
I0303 16:54:02.368077 23022 net.cpp:165] Memory required for data: 1288949844
I0303 16:54:02.368083 23022 layer_factory.hpp:77] Creating layer conv3_2/3/conv
I0303 16:54:02.368101 23022 net.cpp:100] Creating Layer conv3_2/3/conv
I0303 16:54:02.368109 23022 net.cpp:434] conv3_2/3/conv <- conv3_2/2
I0303 16:54:02.368122 23022 net.cpp:408] conv3_2/3/conv -> conv3_2/3
I0303 16:54:02.370923 23022 net.cpp:150] Setting up conv3_2/3/conv
I0303 16:54:02.370950 23022 net.cpp:157] Top shape: 1 128 108 180 (2488320)
I0303 16:54:02.370959 23022 net.cpp:165] Memory required for data: 1298903124
I0303 16:54:02.370970 23022 layer_factory.hpp:77] Creating layer conv3_2/3/bn
I0303 16:54:02.370982 23022 net.cpp:100] Creating Layer conv3_2/3/bn
I0303 16:54:02.370990 23022 net.cpp:434] conv3_2/3/bn <- conv3_2/3
I0303 16:54:02.371002 23022 net.cpp:395] conv3_2/3/bn -> conv3_2/3 (in-place)
I0303 16:54:02.371680 23022 net.cpp:150] Setting up conv3_2/3/bn
I0303 16:54:02.371695 23022 net.cpp:157] Top shape: 1 128 108 180 (2488320)
I0303 16:54:02.371701 23022 net.cpp:165] Memory required for data: 1308856404
I0303 16:54:02.371716 23022 layer_factory.hpp:77] Creating layer conv3_2/3/bn_scale
I0303 16:54:02.371729 23022 net.cpp:100] Creating Layer conv3_2/3/bn_scale
I0303 16:54:02.371737 23022 net.cpp:434] conv3_2/3/bn_scale <- conv3_2/3
I0303 16:54:02.371747 23022 net.cpp:395] conv3_2/3/bn_scale -> conv3_2/3 (in-place)
I0303 16:54:02.371865 23022 layer_factory.hpp:77] Creating layer conv3_2/3/bn_scale
I0303 16:54:02.372264 23022 net.cpp:150] Setting up conv3_2/3/bn_scale
I0303 16:54:02.372279 23022 net.cpp:157] Top shape: 1 128 108 180 (2488320)
I0303 16:54:02.372285 23022 net.cpp:165] Memory required for data: 1318809684
I0303 16:54:02.372297 23022 layer_factory.hpp:77] Creating layer conv3_2/input
I0303 16:54:02.372308 23022 net.cpp:100] Creating Layer conv3_2/input
I0303 16:54:02.372316 23022 net.cpp:434] conv3_2/input <- conv3_1_conv3_1_0_split_1
I0303 16:54:02.372329 23022 net.cpp:408] conv3_2/input -> conv3_2/input
I0303 16:54:02.372396 23022 net.cpp:150] Setting up conv3_2/input
I0303 16:54:02.372408 23022 net.cpp:157] Top shape: 1 128 108 180 (2488320)
I0303 16:54:02.372416 23022 net.cpp:165] Memory required for data: 1328762964
I0303 16:54:02.372421 23022 layer_factory.hpp:77] Creating layer conv3_2
I0303 16:54:02.372436 23022 net.cpp:100] Creating Layer conv3_2
I0303 16:54:02.372442 23022 net.cpp:434] conv3_2 <- conv3_2/3
I0303 16:54:02.372452 23022 net.cpp:434] conv3_2 <- conv3_2/input
I0303 16:54:02.372462 23022 net.cpp:408] conv3_2 -> conv3_2
I0303 16:54:02.372529 23022 net.cpp:150] Setting up conv3_2
I0303 16:54:02.372540 23022 net.cpp:157] Top shape: 1 128 108 180 (2488320)
I0303 16:54:02.372547 23022 net.cpp:165] Memory required for data: 1338716244
I0303 16:54:02.372553 23022 layer_factory.hpp:77] Creating layer conv3_2_conv3_2_0_split
I0303 16:54:02.372566 23022 net.cpp:100] Creating Layer conv3_2_conv3_2_0_split
I0303 16:54:02.372573 23022 net.cpp:434] conv3_2_conv3_2_0_split <- conv3_2
I0303 16:54:02.372587 23022 net.cpp:408] conv3_2_conv3_2_0_split -> conv3_2_conv3_2_0_split_0
I0303 16:54:02.372599 23022 net.cpp:408] conv3_2_conv3_2_0_split -> conv3_2_conv3_2_0_split_1
I0303 16:54:02.372709 23022 net.cpp:150] Setting up conv3_2_conv3_2_0_split
I0303 16:54:02.372720 23022 net.cpp:157] Top shape: 1 128 108 180 (2488320)
I0303 16:54:02.372730 23022 net.cpp:157] Top shape: 1 128 108 180 (2488320)
I0303 16:54:02.372735 23022 net.cpp:165] Memory required for data: 1358622804
I0303 16:54:02.372742 23022 layer_factory.hpp:77] Creating layer conv3_3/1/conv
I0303 16:54:02.372758 23022 net.cpp:100] Creating Layer conv3_3/1/conv
I0303 16:54:02.372766 23022 net.cpp:434] conv3_3/1/conv <- conv3_2_conv3_2_0_split_0
I0303 16:54:02.372776 23022 net.cpp:408] conv3_3/1/conv -> conv3_3/1
I0303 16:54:02.374820 23022 net.cpp:150] Setting up conv3_3/1/conv
I0303 16:54:02.374850 23022 net.cpp:157] Top shape: 1 48 108 180 (933120)
I0303 16:54:02.374858 23022 net.cpp:165] Memory required for data: 1362355284
I0303 16:54:02.374868 23022 layer_factory.hpp:77] Creating layer conv3_3/1/bn
I0303 16:54:02.374882 23022 net.cpp:100] Creating Layer conv3_3/1/bn
I0303 16:54:02.374889 23022 net.cpp:434] conv3_3/1/bn <- conv3_3/1
I0303 16:54:02.374900 23022 net.cpp:395] conv3_3/1/bn -> conv3_3/1 (in-place)
I0303 16:54:02.375579 23022 net.cpp:150] Setting up conv3_3/1/bn
I0303 16:54:02.375596 23022 net.cpp:157] Top shape: 1 48 108 180 (933120)
I0303 16:54:02.375602 23022 net.cpp:165] Memory required for data: 1366087764
I0303 16:54:02.375615 23022 layer_factory.hpp:77] Creating layer conv3_3/1/bn_scale
I0303 16:54:02.375627 23022 net.cpp:100] Creating Layer conv3_3/1/bn_scale
I0303 16:54:02.375633 23022 net.cpp:434] conv3_3/1/bn_scale <- conv3_3/1
I0303 16:54:02.375644 23022 net.cpp:395] conv3_3/1/bn_scale -> conv3_3/1 (in-place)
I0303 16:54:02.375761 23022 layer_factory.hpp:77] Creating layer conv3_3/1/bn_scale
I0303 16:54:02.377152 23022 net.cpp:150] Setting up conv3_3/1/bn_scale
I0303 16:54:02.377173 23022 net.cpp:157] Top shape: 1 48 108 180 (933120)
I0303 16:54:02.377179 23022 net.cpp:165] Memory required for data: 1369820244
I0303 16:54:02.377192 23022 layer_factory.hpp:77] Creating layer conv3_3/1/relu
I0303 16:54:02.377203 23022 net.cpp:100] Creating Layer conv3_3/1/relu
I0303 16:54:02.377210 23022 net.cpp:434] conv3_3/1/relu <- conv3_3/1
I0303 16:54:02.377219 23022 net.cpp:395] conv3_3/1/relu -> conv3_3/1 (in-place)
I0303 16:54:02.377794 23022 net.cpp:150] Setting up conv3_3/1/relu
I0303 16:54:02.377815 23022 net.cpp:157] Top shape: 1 48 108 180 (933120)
I0303 16:54:02.377821 23022 net.cpp:165] Memory required for data: 1373552724
I0303 16:54:02.377828 23022 layer_factory.hpp:77] Creating layer conv3_3/2/conv
I0303 16:54:02.377849 23022 net.cpp:100] Creating Layer conv3_3/2/conv
I0303 16:54:02.377856 23022 net.cpp:434] conv3_3/2/conv <- conv3_3/1
I0303 16:54:02.377867 23022 net.cpp:408] conv3_3/2/conv -> conv3_3/2/conv
I0303 16:54:02.380486 23022 net.cpp:150] Setting up conv3_3/2/conv
I0303 16:54:02.380509 23022 net.cpp:157] Top shape: 1 48 108 180 (933120)
I0303 16:54:02.380517 23022 net.cpp:165] Memory required for data: 1377285204
I0303 16:54:02.380527 23022 layer_factory.hpp:77] Creating layer conv3_3/2/bn
I0303 16:54:02.380537 23022 net.cpp:100] Creating Layer conv3_3/2/bn
I0303 16:54:02.380545 23022 net.cpp:434] conv3_3/2/bn <- conv3_3/2/conv
I0303 16:54:02.380558 23022 net.cpp:395] conv3_3/2/bn -> conv3_3/2/conv (in-place)
I0303 16:54:02.381219 23022 net.cpp:150] Setting up conv3_3/2/bn
I0303 16:54:02.381234 23022 net.cpp:157] Top shape: 1 48 108 180 (933120)
I0303 16:54:02.381242 23022 net.cpp:165] Memory required for data: 1381017684
I0303 16:54:02.381266 23022 layer_factory.hpp:77] Creating layer conv3_3/2/conv_conv3_3/2/bn_0_split
I0303 16:54:02.381276 23022 net.cpp:100] Creating Layer conv3_3/2/conv_conv3_3/2/bn_0_split
I0303 16:54:02.381283 23022 net.cpp:434] conv3_3/2/conv_conv3_3/2/bn_0_split <- conv3_3/2/conv
I0303 16:54:02.381296 23022 net.cpp:408] conv3_3/2/conv_conv3_3/2/bn_0_split -> conv3_3/2/conv_conv3_3/2/bn_0_split_0
I0303 16:54:02.381309 23022 net.cpp:408] conv3_3/2/conv_conv3_3/2/bn_0_split -> conv3_3/2/conv_conv3_3/2/bn_0_split_1
I0303 16:54:02.381414 23022 net.cpp:150] Setting up conv3_3/2/conv_conv3_3/2/bn_0_split
I0303 16:54:02.381427 23022 net.cpp:157] Top shape: 1 48 108 180 (933120)
I0303 16:54:02.381435 23022 net.cpp:157] Top shape: 1 48 108 180 (933120)
I0303 16:54:02.381440 23022 net.cpp:165] Memory required for data: 1388482644
I0303 16:54:02.381446 23022 layer_factory.hpp:77] Creating layer conv3_3/2/neg
I0303 16:54:02.381456 23022 net.cpp:100] Creating Layer conv3_3/2/neg
I0303 16:54:02.381464 23022 net.cpp:434] conv3_3/2/neg <- conv3_3/2/conv_conv3_3/2/bn_0_split_0
I0303 16:54:02.381475 23022 net.cpp:408] conv3_3/2/neg -> conv3_3/2/neg
I0303 16:54:02.381536 23022 net.cpp:150] Setting up conv3_3/2/neg
I0303 16:54:02.381546 23022 net.cpp:157] Top shape: 1 48 108 180 (933120)
I0303 16:54:02.381561 23022 net.cpp:165] Memory required for data: 1392215124
I0303 16:54:02.381567 23022 layer_factory.hpp:77] Creating layer conv3_3/2/concat
I0303 16:54:02.381578 23022 net.cpp:100] Creating Layer conv3_3/2/concat
I0303 16:54:02.381585 23022 net.cpp:434] conv3_3/2/concat <- conv3_3/2/conv_conv3_3/2/bn_0_split_1
I0303 16:54:02.381594 23022 net.cpp:434] conv3_3/2/concat <- conv3_3/2/neg
I0303 16:54:02.381603 23022 net.cpp:408] conv3_3/2/concat -> conv3_3/2
I0303 16:54:02.381680 23022 net.cpp:150] Setting up conv3_3/2/concat
I0303 16:54:02.381690 23022 net.cpp:157] Top shape: 1 96 108 180 (1866240)
I0303 16:54:02.381696 23022 net.cpp:165] Memory required for data: 1399680084
I0303 16:54:02.381702 23022 layer_factory.hpp:77] Creating layer conv3_3/2/scale
I0303 16:54:02.381712 23022 net.cpp:100] Creating Layer conv3_3/2/scale
I0303 16:54:02.381719 23022 net.cpp:434] conv3_3/2/scale <- conv3_3/2
I0303 16:54:02.381731 23022 net.cpp:395] conv3_3/2/scale -> conv3_3/2 (in-place)
I0303 16:54:02.381844 23022 layer_factory.hpp:77] Creating layer conv3_3/2/scale
I0303 16:54:02.382254 23022 net.cpp:150] Setting up conv3_3/2/scale
I0303 16:54:02.382268 23022 net.cpp:157] Top shape: 1 96 108 180 (1866240)
I0303 16:54:02.382275 23022 net.cpp:165] Memory required for data: 1407145044
I0303 16:54:02.382285 23022 layer_factory.hpp:77] Creating layer conv3_3/2/relu
I0303 16:54:02.382302 23022 net.cpp:100] Creating Layer conv3_3/2/relu
I0303 16:54:02.382309 23022 net.cpp:434] conv3_3/2/relu <- conv3_3/2
I0303 16:54:02.382320 23022 net.cpp:395] conv3_3/2/relu -> conv3_3/2 (in-place)
I0303 16:54:02.382664 23022 net.cpp:150] Setting up conv3_3/2/relu
I0303 16:54:02.382679 23022 net.cpp:157] Top shape: 1 96 108 180 (1866240)
I0303 16:54:02.382685 23022 net.cpp:165] Memory required for data: 1414610004
I0303 16:54:02.382692 23022 layer_factory.hpp:77] Creating layer conv3_3/3/conv
I0303 16:54:02.382709 23022 net.cpp:100] Creating Layer conv3_3/3/conv
I0303 16:54:02.382716 23022 net.cpp:434] conv3_3/3/conv <- conv3_3/2
I0303 16:54:02.382726 23022 net.cpp:408] conv3_3/3/conv -> conv3_3/3
I0303 16:54:02.385013 23022 net.cpp:150] Setting up conv3_3/3/conv
I0303 16:54:02.385038 23022 net.cpp:157] Top shape: 1 128 108 180 (2488320)
I0303 16:54:02.385046 23022 net.cpp:165] Memory required for data: 1424563284
I0303 16:54:02.385056 23022 layer_factory.hpp:77] Creating layer conv3_3/3/bn
I0303 16:54:02.385067 23022 net.cpp:100] Creating Layer conv3_3/3/bn
I0303 16:54:02.385074 23022 net.cpp:434] conv3_3/3/bn <- conv3_3/3
I0303 16:54:02.385085 23022 net.cpp:395] conv3_3/3/bn -> conv3_3/3 (in-place)
I0303 16:54:02.385736 23022 net.cpp:150] Setting up conv3_3/3/bn
I0303 16:54:02.385751 23022 net.cpp:157] Top shape: 1 128 108 180 (2488320)
I0303 16:54:02.385756 23022 net.cpp:165] Memory required for data: 1434516564
I0303 16:54:02.385769 23022 layer_factory.hpp:77] Creating layer conv3_3/3/bn_scale
I0303 16:54:02.385782 23022 net.cpp:100] Creating Layer conv3_3/3/bn_scale
I0303 16:54:02.385789 23022 net.cpp:434] conv3_3/3/bn_scale <- conv3_3/3
I0303 16:54:02.385798 23022 net.cpp:395] conv3_3/3/bn_scale -> conv3_3/3 (in-place)
I0303 16:54:02.385905 23022 layer_factory.hpp:77] Creating layer conv3_3/3/bn_scale
I0303 16:54:02.386322 23022 net.cpp:150] Setting up conv3_3/3/bn_scale
I0303 16:54:02.386337 23022 net.cpp:157] Top shape: 1 128 108 180 (2488320)
I0303 16:54:02.386343 23022 net.cpp:165] Memory required for data: 1444469844
I0303 16:54:02.386353 23022 layer_factory.hpp:77] Creating layer conv3_3/input
I0303 16:54:02.386364 23022 net.cpp:100] Creating Layer conv3_3/input
I0303 16:54:02.386371 23022 net.cpp:434] conv3_3/input <- conv3_2_conv3_2_0_split_1
I0303 16:54:02.386384 23022 net.cpp:408] conv3_3/input -> conv3_3/input
I0303 16:54:02.386451 23022 net.cpp:150] Setting up conv3_3/input
I0303 16:54:02.386462 23022 net.cpp:157] Top shape: 1 128 108 180 (2488320)
I0303 16:54:02.386469 23022 net.cpp:165] Memory required for data: 1454423124
I0303 16:54:02.386476 23022 layer_factory.hpp:77] Creating layer conv3_3
I0303 16:54:02.386493 23022 net.cpp:100] Creating Layer conv3_3
I0303 16:54:02.386500 23022 net.cpp:434] conv3_3 <- conv3_3/3
I0303 16:54:02.386509 23022 net.cpp:434] conv3_3 <- conv3_3/input
I0303 16:54:02.386518 23022 net.cpp:408] conv3_3 -> conv3_3
I0303 16:54:02.386600 23022 net.cpp:150] Setting up conv3_3
I0303 16:54:02.386613 23022 net.cpp:157] Top shape: 1 128 108 180 (2488320)
I0303 16:54:02.386620 23022 net.cpp:165] Memory required for data: 1464376404
I0303 16:54:02.386626 23022 layer_factory.hpp:77] Creating layer conv3_3_conv3_3_0_split
I0303 16:54:02.386636 23022 net.cpp:100] Creating Layer conv3_3_conv3_3_0_split
I0303 16:54:02.386642 23022 net.cpp:434] conv3_3_conv3_3_0_split <- conv3_3
I0303 16:54:02.386652 23022 net.cpp:408] conv3_3_conv3_3_0_split -> conv3_3_conv3_3_0_split_0
I0303 16:54:02.386667 23022 net.cpp:408] conv3_3_conv3_3_0_split -> conv3_3_conv3_3_0_split_1
I0303 16:54:02.386777 23022 net.cpp:150] Setting up conv3_3_conv3_3_0_split
I0303 16:54:02.386788 23022 net.cpp:157] Top shape: 1 128 108 180 (2488320)
I0303 16:54:02.386796 23022 net.cpp:157] Top shape: 1 128 108 180 (2488320)
I0303 16:54:02.386801 23022 net.cpp:165] Memory required for data: 1484282964
I0303 16:54:02.386807 23022 layer_factory.hpp:77] Creating layer conv3_4/1/conv
I0303 16:54:02.386822 23022 net.cpp:100] Creating Layer conv3_4/1/conv
I0303 16:54:02.386829 23022 net.cpp:434] conv3_4/1/conv <- conv3_3_conv3_3_0_split_0
I0303 16:54:02.386838 23022 net.cpp:408] conv3_4/1/conv -> conv3_4/1
I0303 16:54:02.389107 23022 net.cpp:150] Setting up conv3_4/1/conv
I0303 16:54:02.389130 23022 net.cpp:157] Top shape: 1 48 108 180 (933120)
I0303 16:54:02.389137 23022 net.cpp:165] Memory required for data: 1488015444
I0303 16:54:02.389178 23022 layer_factory.hpp:77] Creating layer conv3_4/1/bn
I0303 16:54:02.389189 23022 net.cpp:100] Creating Layer conv3_4/1/bn
I0303 16:54:02.389196 23022 net.cpp:434] conv3_4/1/bn <- conv3_4/1
I0303 16:54:02.389209 23022 net.cpp:395] conv3_4/1/bn -> conv3_4/1 (in-place)
I0303 16:54:02.389883 23022 net.cpp:150] Setting up conv3_4/1/bn
I0303 16:54:02.389896 23022 net.cpp:157] Top shape: 1 48 108 180 (933120)
I0303 16:54:02.389902 23022 net.cpp:165] Memory required for data: 1491747924
I0303 16:54:02.389915 23022 layer_factory.hpp:77] Creating layer conv3_4/1/bn_scale
I0303 16:54:02.389927 23022 net.cpp:100] Creating Layer conv3_4/1/bn_scale
I0303 16:54:02.389935 23022 net.cpp:434] conv3_4/1/bn_scale <- conv3_4/1
I0303 16:54:02.389942 23022 net.cpp:395] conv3_4/1/bn_scale -> conv3_4/1 (in-place)
I0303 16:54:02.390071 23022 layer_factory.hpp:77] Creating layer conv3_4/1/bn_scale
I0303 16:54:02.390480 23022 net.cpp:150] Setting up conv3_4/1/bn_scale
I0303 16:54:02.390492 23022 net.cpp:157] Top shape: 1 48 108 180 (933120)
I0303 16:54:02.390498 23022 net.cpp:165] Memory required for data: 1495480404
I0303 16:54:02.390508 23022 layer_factory.hpp:77] Creating layer conv3_4/1/relu
I0303 16:54:02.390518 23022 net.cpp:100] Creating Layer conv3_4/1/relu
I0303 16:54:02.390524 23022 net.cpp:434] conv3_4/1/relu <- conv3_4/1
I0303 16:54:02.390534 23022 net.cpp:395] conv3_4/1/relu -> conv3_4/1 (in-place)
I0303 16:54:02.390877 23022 net.cpp:150] Setting up conv3_4/1/relu
I0303 16:54:02.390890 23022 net.cpp:157] Top shape: 1 48 108 180 (933120)
I0303 16:54:02.390895 23022 net.cpp:165] Memory required for data: 1499212884
I0303 16:54:02.390902 23022 layer_factory.hpp:77] Creating layer conv3_4/2/conv
I0303 16:54:02.390918 23022 net.cpp:100] Creating Layer conv3_4/2/conv
I0303 16:54:02.390923 23022 net.cpp:434] conv3_4/2/conv <- conv3_4/1
I0303 16:54:02.390935 23022 net.cpp:408] conv3_4/2/conv -> conv3_4/2/conv
I0303 16:54:02.393331 23022 net.cpp:150] Setting up conv3_4/2/conv
I0303 16:54:02.393353 23022 net.cpp:157] Top shape: 1 48 108 180 (933120)
I0303 16:54:02.393359 23022 net.cpp:165] Memory required for data: 1502945364
I0303 16:54:02.393368 23022 layer_factory.hpp:77] Creating layer conv3_4/2/bn
I0303 16:54:02.393385 23022 net.cpp:100] Creating Layer conv3_4/2/bn
I0303 16:54:02.393393 23022 net.cpp:434] conv3_4/2/bn <- conv3_4/2/conv
I0303 16:54:02.393411 23022 net.cpp:395] conv3_4/2/bn -> conv3_4/2/conv (in-place)
I0303 16:54:02.394071 23022 net.cpp:150] Setting up conv3_4/2/bn
I0303 16:54:02.394084 23022 net.cpp:157] Top shape: 1 48 108 180 (933120)
I0303 16:54:02.394091 23022 net.cpp:165] Memory required for data: 1506677844
I0303 16:54:02.394104 23022 layer_factory.hpp:77] Creating layer conv3_4/2/conv_conv3_4/2/bn_0_split
I0303 16:54:02.394116 23022 net.cpp:100] Creating Layer conv3_4/2/conv_conv3_4/2/bn_0_split
I0303 16:54:02.394124 23022 net.cpp:434] conv3_4/2/conv_conv3_4/2/bn_0_split <- conv3_4/2/conv
I0303 16:54:02.394132 23022 net.cpp:408] conv3_4/2/conv_conv3_4/2/bn_0_split -> conv3_4/2/conv_conv3_4/2/bn_0_split_0
I0303 16:54:02.394145 23022 net.cpp:408] conv3_4/2/conv_conv3_4/2/bn_0_split -> conv3_4/2/conv_conv3_4/2/bn_0_split_1
I0303 16:54:02.394268 23022 net.cpp:150] Setting up conv3_4/2/conv_conv3_4/2/bn_0_split
I0303 16:54:02.394281 23022 net.cpp:157] Top shape: 1 48 108 180 (933120)
I0303 16:54:02.394289 23022 net.cpp:157] Top shape: 1 48 108 180 (933120)
I0303 16:54:02.394294 23022 net.cpp:165] Memory required for data: 1514142804
I0303 16:54:02.394300 23022 layer_factory.hpp:77] Creating layer conv3_4/2/neg
I0303 16:54:02.394310 23022 net.cpp:100] Creating Layer conv3_4/2/neg
I0303 16:54:02.394317 23022 net.cpp:434] conv3_4/2/neg <- conv3_4/2/conv_conv3_4/2/bn_0_split_0
I0303 16:54:02.394326 23022 net.cpp:408] conv3_4/2/neg -> conv3_4/2/neg
I0303 16:54:02.394387 23022 net.cpp:150] Setting up conv3_4/2/neg
I0303 16:54:02.394397 23022 net.cpp:157] Top shape: 1 48 108 180 (933120)
I0303 16:54:02.394403 23022 net.cpp:165] Memory required for data: 1517875284
I0303 16:54:02.394409 23022 layer_factory.hpp:77] Creating layer conv3_4/2/concat
I0303 16:54:02.394418 23022 net.cpp:100] Creating Layer conv3_4/2/concat
I0303 16:54:02.394424 23022 net.cpp:434] conv3_4/2/concat <- conv3_4/2/conv_conv3_4/2/bn_0_split_1
I0303 16:54:02.394433 23022 net.cpp:434] conv3_4/2/concat <- conv3_4/2/neg
I0303 16:54:02.394443 23022 net.cpp:408] conv3_4/2/concat -> conv3_4/2
I0303 16:54:02.394501 23022 net.cpp:150] Setting up conv3_4/2/concat
I0303 16:54:02.394511 23022 net.cpp:157] Top shape: 1 96 108 180 (1866240)
I0303 16:54:02.394517 23022 net.cpp:165] Memory required for data: 1525340244
I0303 16:54:02.394523 23022 layer_factory.hpp:77] Creating layer conv3_4/2/scale
I0303 16:54:02.394563 23022 net.cpp:100] Creating Layer conv3_4/2/scale
I0303 16:54:02.394570 23022 net.cpp:434] conv3_4/2/scale <- conv3_4/2
I0303 16:54:02.394580 23022 net.cpp:395] conv3_4/2/scale -> conv3_4/2 (in-place)
I0303 16:54:02.394690 23022 layer_factory.hpp:77] Creating layer conv3_4/2/scale
I0303 16:54:02.396118 23022 net.cpp:150] Setting up conv3_4/2/scale
I0303 16:54:02.396140 23022 net.cpp:157] Top shape: 1 96 108 180 (1866240)
I0303 16:54:02.396147 23022 net.cpp:165] Memory required for data: 1532805204
I0303 16:54:02.396158 23022 layer_factory.hpp:77] Creating layer conv3_4/2/relu
I0303 16:54:02.396169 23022 net.cpp:100] Creating Layer conv3_4/2/relu
I0303 16:54:02.396175 23022 net.cpp:434] conv3_4/2/relu <- conv3_4/2
I0303 16:54:02.396184 23022 net.cpp:395] conv3_4/2/relu -> conv3_4/2 (in-place)
I0303 16:54:02.396735 23022 net.cpp:150] Setting up conv3_4/2/relu
I0303 16:54:02.396767 23022 net.cpp:157] Top shape: 1 96 108 180 (1866240)
I0303 16:54:02.396773 23022 net.cpp:165] Memory required for data: 1540270164
I0303 16:54:02.396780 23022 layer_factory.hpp:77] Creating layer conv3_4/3/conv
I0303 16:54:02.396796 23022 net.cpp:100] Creating Layer conv3_4/3/conv
I0303 16:54:02.396803 23022 net.cpp:434] conv3_4/3/conv <- conv3_4/2
I0303 16:54:02.396816 23022 net.cpp:408] conv3_4/3/conv -> conv3_4/3
I0303 16:54:02.399219 23022 net.cpp:150] Setting up conv3_4/3/conv
I0303 16:54:02.399238 23022 net.cpp:157] Top shape: 1 128 108 180 (2488320)
I0303 16:54:02.399245 23022 net.cpp:165] Memory required for data: 1550223444
I0303 16:54:02.399255 23022 layer_factory.hpp:77] Creating layer conv3_4/3/bn
I0303 16:54:02.399268 23022 net.cpp:100] Creating Layer conv3_4/3/bn
I0303 16:54:02.399281 23022 net.cpp:434] conv3_4/3/bn <- conv3_4/3
I0303 16:54:02.399291 23022 net.cpp:395] conv3_4/3/bn -> conv3_4/3 (in-place)
I0303 16:54:02.399899 23022 net.cpp:150] Setting up conv3_4/3/bn
I0303 16:54:02.399927 23022 net.cpp:157] Top shape: 1 128 108 180 (2488320)
I0303 16:54:02.399933 23022 net.cpp:165] Memory required for data: 1560176724
I0303 16:54:02.399945 23022 layer_factory.hpp:77] Creating layer conv3_4/3/bn_scale
I0303 16:54:02.399955 23022 net.cpp:100] Creating Layer conv3_4/3/bn_scale
I0303 16:54:02.399961 23022 net.cpp:434] conv3_4/3/bn_scale <- conv3_4/3
I0303 16:54:02.399971 23022 net.cpp:395] conv3_4/3/bn_scale -> conv3_4/3 (in-place)
I0303 16:54:02.400074 23022 layer_factory.hpp:77] Creating layer conv3_4/3/bn_scale
I0303 16:54:02.400419 23022 net.cpp:150] Setting up conv3_4/3/bn_scale
I0303 16:54:02.400432 23022 net.cpp:157] Top shape: 1 128 108 180 (2488320)
I0303 16:54:02.400437 23022 net.cpp:165] Memory required for data: 1570130004
I0303 16:54:02.400446 23022 layer_factory.hpp:77] Creating layer conv3_4/input
I0303 16:54:02.400456 23022 net.cpp:100] Creating Layer conv3_4/input
I0303 16:54:02.400462 23022 net.cpp:434] conv3_4/input <- conv3_3_conv3_3_0_split_1
I0303 16:54:02.400471 23022 net.cpp:408] conv3_4/input -> conv3_4/input
I0303 16:54:02.400532 23022 net.cpp:150] Setting up conv3_4/input
I0303 16:54:02.400543 23022 net.cpp:157] Top shape: 1 128 108 180 (2488320)
I0303 16:54:02.400548 23022 net.cpp:165] Memory required for data: 1580083284
I0303 16:54:02.400554 23022 layer_factory.hpp:77] Creating layer conv3_4
I0303 16:54:02.400564 23022 net.cpp:100] Creating Layer conv3_4
I0303 16:54:02.400570 23022 net.cpp:434] conv3_4 <- conv3_4/3
I0303 16:54:02.400578 23022 net.cpp:434] conv3_4 <- conv3_4/input
I0303 16:54:02.400588 23022 net.cpp:408] conv3_4 -> conv3_4
I0303 16:54:02.400647 23022 net.cpp:150] Setting up conv3_4
I0303 16:54:02.400657 23022 net.cpp:157] Top shape: 1 128 108 180 (2488320)
I0303 16:54:02.400662 23022 net.cpp:165] Memory required for data: 1590036564
I0303 16:54:02.400668 23022 layer_factory.hpp:77] Creating layer conv3_4_conv3_4_0_split
I0303 16:54:02.400681 23022 net.cpp:100] Creating Layer conv3_4_conv3_4_0_split
I0303 16:54:02.400686 23022 net.cpp:434] conv3_4_conv3_4_0_split <- conv3_4
I0303 16:54:02.400696 23022 net.cpp:408] conv3_4_conv3_4_0_split -> conv3_4_conv3_4_0_split_0
I0303 16:54:02.400709 23022 net.cpp:408] conv3_4_conv3_4_0_split -> conv3_4_conv3_4_0_split_1
I0303 16:54:02.400719 23022 net.cpp:408] conv3_4_conv3_4_0_split -> conv3_4_conv3_4_0_split_2
I0303 16:54:02.400729 23022 net.cpp:408] conv3_4_conv3_4_0_split -> conv3_4_conv3_4_0_split_3
I0303 16:54:02.400739 23022 net.cpp:408] conv3_4_conv3_4_0_split -> conv3_4_conv3_4_0_split_4
I0303 16:54:02.400748 23022 net.cpp:408] conv3_4_conv3_4_0_split -> conv3_4_conv3_4_0_split_5
I0303 16:54:02.400979 23022 net.cpp:150] Setting up conv3_4_conv3_4_0_split
I0303 16:54:02.400990 23022 net.cpp:157] Top shape: 1 128 108 180 (2488320)
I0303 16:54:02.400997 23022 net.cpp:157] Top shape: 1 128 108 180 (2488320)
I0303 16:54:02.401005 23022 net.cpp:157] Top shape: 1 128 108 180 (2488320)
I0303 16:54:02.401010 23022 net.cpp:157] Top shape: 1 128 108 180 (2488320)
I0303 16:54:02.401017 23022 net.cpp:157] Top shape: 1 128 108 180 (2488320)
I0303 16:54:02.401024 23022 net.cpp:157] Top shape: 1 128 108 180 (2488320)
I0303 16:54:02.401029 23022 net.cpp:165] Memory required for data: 1649756244
I0303 16:54:02.401034 23022 layer_factory.hpp:77] Creating layer conv4_1/incep/0/conv
I0303 16:54:02.401046 23022 net.cpp:100] Creating Layer conv4_1/incep/0/conv
I0303 16:54:02.401052 23022 net.cpp:434] conv4_1/incep/0/conv <- conv3_4_conv3_4_0_split_0
I0303 16:54:02.401063 23022 net.cpp:408] conv4_1/incep/0/conv -> conv4_1/incep/0
I0303 16:54:02.403112 23022 net.cpp:150] Setting up conv4_1/incep/0/conv
I0303 16:54:02.403134 23022 net.cpp:157] Top shape: 1 64 54 90 (311040)
I0303 16:54:02.403141 23022 net.cpp:165] Memory required for data: 1651000404
I0303 16:54:02.403149 23022 layer_factory.hpp:77] Creating layer conv4_1/incep/0/bn
I0303 16:54:02.403174 23022 net.cpp:100] Creating Layer conv4_1/incep/0/bn
I0303 16:54:02.403182 23022 net.cpp:434] conv4_1/incep/0/bn <- conv4_1/incep/0
I0303 16:54:02.403193 23022 net.cpp:395] conv4_1/incep/0/bn -> conv4_1/incep/0 (in-place)
I0303 16:54:02.403786 23022 net.cpp:150] Setting up conv4_1/incep/0/bn
I0303 16:54:02.403800 23022 net.cpp:157] Top shape: 1 64 54 90 (311040)
I0303 16:54:02.403805 23022 net.cpp:165] Memory required for data: 1652244564
I0303 16:54:02.403817 23022 layer_factory.hpp:77] Creating layer conv4_1/incep/0/bn_scale
I0303 16:54:02.403830 23022 net.cpp:100] Creating Layer conv4_1/incep/0/bn_scale
I0303 16:54:02.403836 23022 net.cpp:434] conv4_1/incep/0/bn_scale <- conv4_1/incep/0
I0303 16:54:02.403846 23022 net.cpp:395] conv4_1/incep/0/bn_scale -> conv4_1/incep/0 (in-place)
I0303 16:54:02.403949 23022 layer_factory.hpp:77] Creating layer conv4_1/incep/0/bn_scale
I0303 16:54:02.404289 23022 net.cpp:150] Setting up conv4_1/incep/0/bn_scale
I0303 16:54:02.404301 23022 net.cpp:157] Top shape: 1 64 54 90 (311040)
I0303 16:54:02.404306 23022 net.cpp:165] Memory required for data: 1653488724
I0303 16:54:02.404316 23022 layer_factory.hpp:77] Creating layer conv4_1/incep/0/relu
I0303 16:54:02.404325 23022 net.cpp:100] Creating Layer conv4_1/incep/0/relu
I0303 16:54:02.404331 23022 net.cpp:434] conv4_1/incep/0/relu <- conv4_1/incep/0
I0303 16:54:02.404350 23022 net.cpp:395] conv4_1/incep/0/relu -> conv4_1/incep/0 (in-place)
I0303 16:54:02.404875 23022 net.cpp:150] Setting up conv4_1/incep/0/relu
I0303 16:54:02.404893 23022 net.cpp:157] Top shape: 1 64 54 90 (311040)
I0303 16:54:02.404899 23022 net.cpp:165] Memory required for data: 1654732884
I0303 16:54:02.404906 23022 layer_factory.hpp:77] Creating layer conv4_1/incep/1_reduce/conv
I0303 16:54:02.404922 23022 net.cpp:100] Creating Layer conv4_1/incep/1_reduce/conv
I0303 16:54:02.404927 23022 net.cpp:434] conv4_1/incep/1_reduce/conv <- conv3_4_conv3_4_0_split_1
I0303 16:54:02.404944 23022 net.cpp:408] conv4_1/incep/1_reduce/conv -> conv4_1/incep/1_reduce
I0303 16:54:02.406960 23022 net.cpp:150] Setting up conv4_1/incep/1_reduce/conv
I0303 16:54:02.406985 23022 net.cpp:157] Top shape: 1 48 54 90 (233280)
I0303 16:54:02.406991 23022 net.cpp:165] Memory required for data: 1655666004
I0303 16:54:02.407001 23022 layer_factory.hpp:77] Creating layer conv4_1/incep/1_reduce/bn
I0303 16:54:02.407016 23022 net.cpp:100] Creating Layer conv4_1/incep/1_reduce/bn
I0303 16:54:02.407022 23022 net.cpp:434] conv4_1/incep/1_reduce/bn <- conv4_1/incep/1_reduce
I0303 16:54:02.407032 23022 net.cpp:395] conv4_1/incep/1_reduce/bn -> conv4_1/incep/1_reduce (in-place)
I0303 16:54:02.407636 23022 net.cpp:150] Setting up conv4_1/incep/1_reduce/bn
I0303 16:54:02.407649 23022 net.cpp:157] Top shape: 1 48 54 90 (233280)
I0303 16:54:02.407661 23022 net.cpp:165] Memory required for data: 1656599124
I0303 16:54:02.407673 23022 layer_factory.hpp:77] Creating layer conv4_1/incep/1_reduce/bn_scale
I0303 16:54:02.407683 23022 net.cpp:100] Creating Layer conv4_1/incep/1_reduce/bn_scale
I0303 16:54:02.407690 23022 net.cpp:434] conv4_1/incep/1_reduce/bn_scale <- conv4_1/incep/1_reduce
I0303 16:54:02.407701 23022 net.cpp:395] conv4_1/incep/1_reduce/bn_scale -> conv4_1/incep/1_reduce (in-place)
I0303 16:54:02.407806 23022 layer_factory.hpp:77] Creating layer conv4_1/incep/1_reduce/bn_scale
I0303 16:54:02.408179 23022 net.cpp:150] Setting up conv4_1/incep/1_reduce/bn_scale
I0303 16:54:02.408190 23022 net.cpp:157] Top shape: 1 48 54 90 (233280)
I0303 16:54:02.408195 23022 net.cpp:165] Memory required for data: 1657532244
I0303 16:54:02.408205 23022 layer_factory.hpp:77] Creating layer conv4_1/incep/1_reduce/relu
I0303 16:54:02.408213 23022 net.cpp:100] Creating Layer conv4_1/incep/1_reduce/relu
I0303 16:54:02.408219 23022 net.cpp:434] conv4_1/incep/1_reduce/relu <- conv4_1/incep/1_reduce
I0303 16:54:02.408228 23022 net.cpp:395] conv4_1/incep/1_reduce/relu -> conv4_1/incep/1_reduce (in-place)
I0303 16:54:02.408532 23022 net.cpp:150] Setting up conv4_1/incep/1_reduce/relu
I0303 16:54:02.408552 23022 net.cpp:157] Top shape: 1 48 54 90 (233280)
I0303 16:54:02.408558 23022 net.cpp:165] Memory required for data: 1658465364
I0303 16:54:02.408565 23022 layer_factory.hpp:77] Creating layer conv4_1/incep/1_0/conv
I0303 16:54:02.408579 23022 net.cpp:100] Creating Layer conv4_1/incep/1_0/conv
I0303 16:54:02.408586 23022 net.cpp:434] conv4_1/incep/1_0/conv <- conv4_1/incep/1_reduce
I0303 16:54:02.408596 23022 net.cpp:408] conv4_1/incep/1_0/conv -> conv4_1/incep/1_0
I0303 16:54:02.411445 23022 net.cpp:150] Setting up conv4_1/incep/1_0/conv
I0303 16:54:02.411465 23022 net.cpp:157] Top shape: 1 128 54 90 (622080)
I0303 16:54:02.411470 23022 net.cpp:165] Memory required for data: 1660953684
I0303 16:54:02.411478 23022 layer_factory.hpp:77] Creating layer conv4_1/incep/1_0/bn
I0303 16:54:02.411492 23022 net.cpp:100] Creating Layer conv4_1/incep/1_0/bn
I0303 16:54:02.411499 23022 net.cpp:434] conv4_1/incep/1_0/bn <- conv4_1/incep/1_0
I0303 16:54:02.411509 23022 net.cpp:395] conv4_1/incep/1_0/bn -> conv4_1/incep/1_0 (in-place)
I0303 16:54:02.412053 23022 net.cpp:150] Setting up conv4_1/incep/1_0/bn
I0303 16:54:02.412065 23022 net.cpp:157] Top shape: 1 128 54 90 (622080)
I0303 16:54:02.412070 23022 net.cpp:165] Memory required for data: 1663442004
I0303 16:54:02.412081 23022 layer_factory.hpp:77] Creating layer conv4_1/incep/1_0/bn_scale
I0303 16:54:02.412093 23022 net.cpp:100] Creating Layer conv4_1/incep/1_0/bn_scale
I0303 16:54:02.412101 23022 net.cpp:434] conv4_1/incep/1_0/bn_scale <- conv4_1/incep/1_0
I0303 16:54:02.412107 23022 net.cpp:395] conv4_1/incep/1_0/bn_scale -> conv4_1/incep/1_0 (in-place)
I0303 16:54:02.412206 23022 layer_factory.hpp:77] Creating layer conv4_1/incep/1_0/bn_scale
I0303 16:54:02.412523 23022 net.cpp:150] Setting up conv4_1/incep/1_0/bn_scale
I0303 16:54:02.412535 23022 net.cpp:157] Top shape: 1 128 54 90 (622080)
I0303 16:54:02.412540 23022 net.cpp:165] Memory required for data: 1665930324
I0303 16:54:02.412549 23022 layer_factory.hpp:77] Creating layer conv4_1/incep/1_0/relu
I0303 16:54:02.412557 23022 net.cpp:100] Creating Layer conv4_1/incep/1_0/relu
I0303 16:54:02.412564 23022 net.cpp:434] conv4_1/incep/1_0/relu <- conv4_1/incep/1_0
I0303 16:54:02.412572 23022 net.cpp:395] conv4_1/incep/1_0/relu -> conv4_1/incep/1_0 (in-place)
I0303 16:54:02.413079 23022 net.cpp:150] Setting up conv4_1/incep/1_0/relu
I0303 16:54:02.413096 23022 net.cpp:157] Top shape: 1 128 54 90 (622080)
I0303 16:54:02.413101 23022 net.cpp:165] Memory required for data: 1668418644
I0303 16:54:02.413106 23022 layer_factory.hpp:77] Creating layer conv4_1/incep/2_reduce/conv
I0303 16:54:02.413121 23022 net.cpp:100] Creating Layer conv4_1/incep/2_reduce/conv
I0303 16:54:02.413127 23022 net.cpp:434] conv4_1/incep/2_reduce/conv <- conv3_4_conv3_4_0_split_2
I0303 16:54:02.413141 23022 net.cpp:408] conv4_1/incep/2_reduce/conv -> conv4_1/incep/2_reduce
I0303 16:54:02.414861 23022 net.cpp:150] Setting up conv4_1/incep/2_reduce/conv
I0303 16:54:02.414880 23022 net.cpp:157] Top shape: 1 24 54 90 (116640)
I0303 16:54:02.414885 23022 net.cpp:165] Memory required for data: 1668885204
I0303 16:54:02.414894 23022 layer_factory.hpp:77] Creating layer conv4_1/incep/2_reduce/bn
I0303 16:54:02.414908 23022 net.cpp:100] Creating Layer conv4_1/incep/2_reduce/bn
I0303 16:54:02.414916 23022 net.cpp:434] conv4_1/incep/2_reduce/bn <- conv4_1/incep/2_reduce
I0303 16:54:02.414925 23022 net.cpp:395] conv4_1/incep/2_reduce/bn -> conv4_1/incep/2_reduce (in-place)
I0303 16:54:02.415529 23022 net.cpp:150] Setting up conv4_1/incep/2_reduce/bn
I0303 16:54:02.415540 23022 net.cpp:157] Top shape: 1 24 54 90 (116640)
I0303 16:54:02.415545 23022 net.cpp:165] Memory required for data: 1669351764
I0303 16:54:02.415555 23022 layer_factory.hpp:77] Creating layer conv4_1/incep/2_reduce/bn_scale
I0303 16:54:02.415568 23022 net.cpp:100] Creating Layer conv4_1/incep/2_reduce/bn_scale
I0303 16:54:02.415575 23022 net.cpp:434] conv4_1/incep/2_reduce/bn_scale <- conv4_1/incep/2_reduce
I0303 16:54:02.415583 23022 net.cpp:395] conv4_1/incep/2_reduce/bn_scale -> conv4_1/incep/2_reduce (in-place)
I0303 16:54:02.415690 23022 layer_factory.hpp:77] Creating layer conv4_1/incep/2_reduce/bn_scale
I0303 16:54:02.416029 23022 net.cpp:150] Setting up conv4_1/incep/2_reduce/bn_scale
I0303 16:54:02.416040 23022 net.cpp:157] Top shape: 1 24 54 90 (116640)
I0303 16:54:02.416045 23022 net.cpp:165] Memory required for data: 1669818324
I0303 16:54:02.416054 23022 layer_factory.hpp:77] Creating layer conv4_1/incep/2_reduce/relu
I0303 16:54:02.416064 23022 net.cpp:100] Creating Layer conv4_1/incep/2_reduce/relu
I0303 16:54:02.416069 23022 net.cpp:434] conv4_1/incep/2_reduce/relu <- conv4_1/incep/2_reduce
I0303 16:54:02.416076 23022 net.cpp:395] conv4_1/incep/2_reduce/relu -> conv4_1/incep/2_reduce (in-place)
I0303 16:54:02.416574 23022 net.cpp:150] Setting up conv4_1/incep/2_reduce/relu
I0303 16:54:02.416592 23022 net.cpp:157] Top shape: 1 24 54 90 (116640)
I0303 16:54:02.416597 23022 net.cpp:165] Memory required for data: 1670284884
I0303 16:54:02.416604 23022 layer_factory.hpp:77] Creating layer conv4_1/incep/2_0/conv
I0303 16:54:02.416620 23022 net.cpp:100] Creating Layer conv4_1/incep/2_0/conv
I0303 16:54:02.416626 23022 net.cpp:434] conv4_1/incep/2_0/conv <- conv4_1/incep/2_reduce
I0303 16:54:02.416636 23022 net.cpp:408] conv4_1/incep/2_0/conv -> conv4_1/incep/2_0
I0303 16:54:02.418632 23022 net.cpp:150] Setting up conv4_1/incep/2_0/conv
I0303 16:54:02.418651 23022 net.cpp:157] Top shape: 1 48 54 90 (233280)
I0303 16:54:02.418658 23022 net.cpp:165] Memory required for data: 1671218004
I0303 16:54:02.418665 23022 layer_factory.hpp:77] Creating layer conv4_1/incep/2_0/bn
I0303 16:54:02.418679 23022 net.cpp:100] Creating Layer conv4_1/incep/2_0/bn
I0303 16:54:02.418686 23022 net.cpp:434] conv4_1/incep/2_0/bn <- conv4_1/incep/2_0
I0303 16:54:02.418696 23022 net.cpp:395] conv4_1/incep/2_0/bn -> conv4_1/incep/2_0 (in-place)
I0303 16:54:02.419286 23022 net.cpp:150] Setting up conv4_1/incep/2_0/bn
I0303 16:54:02.419297 23022 net.cpp:157] Top shape: 1 48 54 90 (233280)
I0303 16:54:02.419302 23022 net.cpp:165] Memory required for data: 1672151124
I0303 16:54:02.419324 23022 layer_factory.hpp:77] Creating layer conv4_1/incep/2_0/bn_scale
I0303 16:54:02.419337 23022 net.cpp:100] Creating Layer conv4_1/incep/2_0/bn_scale
I0303 16:54:02.419342 23022 net.cpp:434] conv4_1/incep/2_0/bn_scale <- conv4_1/incep/2_0
I0303 16:54:02.419353 23022 net.cpp:395] conv4_1/incep/2_0/bn_scale -> conv4_1/incep/2_0 (in-place)
I0303 16:54:02.419456 23022 layer_factory.hpp:77] Creating layer conv4_1/incep/2_0/bn_scale
I0303 16:54:02.419801 23022 net.cpp:150] Setting up conv4_1/incep/2_0/bn_scale
I0303 16:54:02.419813 23022 net.cpp:157] Top shape: 1 48 54 90 (233280)
I0303 16:54:02.419818 23022 net.cpp:165] Memory required for data: 1673084244
I0303 16:54:02.419827 23022 layer_factory.hpp:77] Creating layer conv4_1/incep/2_0/relu
I0303 16:54:02.419836 23022 net.cpp:100] Creating Layer conv4_1/incep/2_0/relu
I0303 16:54:02.419842 23022 net.cpp:434] conv4_1/incep/2_0/relu <- conv4_1/incep/2_0
I0303 16:54:02.419848 23022 net.cpp:395] conv4_1/incep/2_0/relu -> conv4_1/incep/2_0 (in-place)
I0303 16:54:02.420136 23022 net.cpp:150] Setting up conv4_1/incep/2_0/relu
I0303 16:54:02.420156 23022 net.cpp:157] Top shape: 1 48 54 90 (233280)
I0303 16:54:02.420161 23022 net.cpp:165] Memory required for data: 1674017364
I0303 16:54:02.420166 23022 layer_factory.hpp:77] Creating layer conv4_1/incep/2_1/conv
I0303 16:54:02.420179 23022 net.cpp:100] Creating Layer conv4_1/incep/2_1/conv
I0303 16:54:02.420186 23022 net.cpp:434] conv4_1/incep/2_1/conv <- conv4_1/incep/2_0
I0303 16:54:02.420194 23022 net.cpp:408] conv4_1/incep/2_1/conv -> conv4_1/incep/2_1
I0303 16:54:02.422282 23022 net.cpp:150] Setting up conv4_1/incep/2_1/conv
I0303 16:54:02.422303 23022 net.cpp:157] Top shape: 1 48 54 90 (233280)
I0303 16:54:02.422308 23022 net.cpp:165] Memory required for data: 1674950484
I0303 16:54:02.422317 23022 layer_factory.hpp:77] Creating layer conv4_1/incep/2_1/bn
I0303 16:54:02.422327 23022 net.cpp:100] Creating Layer conv4_1/incep/2_1/bn
I0303 16:54:02.422334 23022 net.cpp:434] conv4_1/incep/2_1/bn <- conv4_1/incep/2_1
I0303 16:54:02.422363 23022 net.cpp:395] conv4_1/incep/2_1/bn -> conv4_1/incep/2_1 (in-place)
I0303 16:54:02.422915 23022 net.cpp:150] Setting up conv4_1/incep/2_1/bn
I0303 16:54:02.422926 23022 net.cpp:157] Top shape: 1 48 54 90 (233280)
I0303 16:54:02.422931 23022 net.cpp:165] Memory required for data: 1675883604
I0303 16:54:02.422942 23022 layer_factory.hpp:77] Creating layer conv4_1/incep/2_1/bn_scale
I0303 16:54:02.422953 23022 net.cpp:100] Creating Layer conv4_1/incep/2_1/bn_scale
I0303 16:54:02.422958 23022 net.cpp:434] conv4_1/incep/2_1/bn_scale <- conv4_1/incep/2_1
I0303 16:54:02.422969 23022 net.cpp:395] conv4_1/incep/2_1/bn_scale -> conv4_1/incep/2_1 (in-place)
I0303 16:54:02.423068 23022 layer_factory.hpp:77] Creating layer conv4_1/incep/2_1/bn_scale
I0303 16:54:02.423394 23022 net.cpp:150] Setting up conv4_1/incep/2_1/bn_scale
I0303 16:54:02.423404 23022 net.cpp:157] Top shape: 1 48 54 90 (233280)
I0303 16:54:02.423409 23022 net.cpp:165] Memory required for data: 1676816724
I0303 16:54:02.423418 23022 layer_factory.hpp:77] Creating layer conv4_1/incep/2_1/relu
I0303 16:54:02.423429 23022 net.cpp:100] Creating Layer conv4_1/incep/2_1/relu
I0303 16:54:02.423434 23022 net.cpp:434] conv4_1/incep/2_1/relu <- conv4_1/incep/2_1
I0303 16:54:02.423441 23022 net.cpp:395] conv4_1/incep/2_1/relu -> conv4_1/incep/2_1 (in-place)
I0303 16:54:02.423921 23022 net.cpp:150] Setting up conv4_1/incep/2_1/relu
I0303 16:54:02.423938 23022 net.cpp:157] Top shape: 1 48 54 90 (233280)
I0303 16:54:02.423943 23022 net.cpp:165] Memory required for data: 1677749844
I0303 16:54:02.423949 23022 layer_factory.hpp:77] Creating layer conv4_1/incep/pool
I0303 16:54:02.423961 23022 net.cpp:100] Creating Layer conv4_1/incep/pool
I0303 16:54:02.423966 23022 net.cpp:434] conv4_1/incep/pool <- conv3_4_conv3_4_0_split_3
I0303 16:54:02.423975 23022 net.cpp:408] conv4_1/incep/pool -> conv4_1/incep/pool
I0303 16:54:02.424088 23022 net.cpp:150] Setting up conv4_1/incep/pool
I0303 16:54:02.424098 23022 net.cpp:157] Top shape: 1 128 54 90 (622080)
I0303 16:54:02.424103 23022 net.cpp:165] Memory required for data: 1680238164
I0303 16:54:02.424108 23022 layer_factory.hpp:77] Creating layer conv4_1/incep/poolproj/conv
I0303 16:54:02.424121 23022 net.cpp:100] Creating Layer conv4_1/incep/poolproj/conv
I0303 16:54:02.424127 23022 net.cpp:434] conv4_1/incep/poolproj/conv <- conv4_1/incep/pool
I0303 16:54:02.424140 23022 net.cpp:408] conv4_1/incep/poolproj/conv -> conv4_1/incep/poolproj
I0303 16:54:02.425917 23022 net.cpp:150] Setting up conv4_1/incep/poolproj/conv
I0303 16:54:02.425935 23022 net.cpp:157] Top shape: 1 128 54 90 (622080)
I0303 16:54:02.425940 23022 net.cpp:165] Memory required for data: 1682726484
I0303 16:54:02.425948 23022 layer_factory.hpp:77] Creating layer conv4_1/incep/poolproj/bn
I0303 16:54:02.425961 23022 net.cpp:100] Creating Layer conv4_1/incep/poolproj/bn
I0303 16:54:02.425967 23022 net.cpp:434] conv4_1/incep/poolproj/bn <- conv4_1/incep/poolproj
I0303 16:54:02.425976 23022 net.cpp:395] conv4_1/incep/poolproj/bn -> conv4_1/incep/poolproj (in-place)
I0303 16:54:02.426504 23022 net.cpp:150] Setting up conv4_1/incep/poolproj/bn
I0303 16:54:02.426515 23022 net.cpp:157] Top shape: 1 128 54 90 (622080)
I0303 16:54:02.426522 23022 net.cpp:165] Memory required for data: 1685214804
I0303 16:54:02.426532 23022 layer_factory.hpp:77] Creating layer conv4_1/incep/poolproj/bn_scale
I0303 16:54:02.426543 23022 net.cpp:100] Creating Layer conv4_1/incep/poolproj/bn_scale
I0303 16:54:02.426549 23022 net.cpp:434] conv4_1/incep/poolproj/bn_scale <- conv4_1/incep/poolproj
I0303 16:54:02.426556 23022 net.cpp:395] conv4_1/incep/poolproj/bn_scale -> conv4_1/incep/poolproj (in-place)
I0303 16:54:02.426658 23022 layer_factory.hpp:77] Creating layer conv4_1/incep/poolproj/bn_scale
I0303 16:54:02.426965 23022 net.cpp:150] Setting up conv4_1/incep/poolproj/bn_scale
I0303 16:54:02.426976 23022 net.cpp:157] Top shape: 1 128 54 90 (622080)
I0303 16:54:02.426981 23022 net.cpp:165] Memory required for data: 1687703124
I0303 16:54:02.426995 23022 layer_factory.hpp:77] Creating layer conv4_1/incep/poolproj/relu
I0303 16:54:02.427004 23022 net.cpp:100] Creating Layer conv4_1/incep/poolproj/relu
I0303 16:54:02.427009 23022 net.cpp:434] conv4_1/incep/poolproj/relu <- conv4_1/incep/poolproj
I0303 16:54:02.427027 23022 net.cpp:395] conv4_1/incep/poolproj/relu -> conv4_1/incep/poolproj (in-place)
I0303 16:54:02.427568 23022 net.cpp:150] Setting up conv4_1/incep/poolproj/relu
I0303 16:54:02.427587 23022 net.cpp:157] Top shape: 1 128 54 90 (622080)
I0303 16:54:02.427592 23022 net.cpp:165] Memory required for data: 1690191444
I0303 16:54:02.427597 23022 layer_factory.hpp:77] Creating layer conv4_1/incep
I0303 16:54:02.427608 23022 net.cpp:100] Creating Layer conv4_1/incep
I0303 16:54:02.427614 23022 net.cpp:434] conv4_1/incep <- conv4_1/incep/0
I0303 16:54:02.427623 23022 net.cpp:434] conv4_1/incep <- conv4_1/incep/1_0
I0303 16:54:02.427629 23022 net.cpp:434] conv4_1/incep <- conv4_1/incep/2_1
I0303 16:54:02.427635 23022 net.cpp:434] conv4_1/incep <- conv4_1/incep/poolproj
I0303 16:54:02.427642 23022 net.cpp:408] conv4_1/incep -> conv4_1/incep
I0303 16:54:02.427708 23022 net.cpp:150] Setting up conv4_1/incep
I0303 16:54:02.427718 23022 net.cpp:157] Top shape: 1 368 54 90 (1788480)
I0303 16:54:02.427723 23022 net.cpp:165] Memory required for data: 1697345364
I0303 16:54:02.427728 23022 layer_factory.hpp:77] Creating layer conv4_1/out/conv
I0303 16:54:02.427739 23022 net.cpp:100] Creating Layer conv4_1/out/conv
I0303 16:54:02.427745 23022 net.cpp:434] conv4_1/out/conv <- conv4_1/incep
I0303 16:54:02.427753 23022 net.cpp:408] conv4_1/out/conv -> conv4_1/out
I0303 16:54:02.430644 23022 net.cpp:150] Setting up conv4_1/out/conv
I0303 16:54:02.430663 23022 net.cpp:157] Top shape: 1 256 54 90 (1244160)
I0303 16:54:02.430670 23022 net.cpp:165] Memory required for data: 1702322004
I0303 16:54:02.430677 23022 layer_factory.hpp:77] Creating layer conv4_1/out/bn
I0303 16:54:02.430691 23022 net.cpp:100] Creating Layer conv4_1/out/bn
I0303 16:54:02.430697 23022 net.cpp:434] conv4_1/out/bn <- conv4_1/out
I0303 16:54:02.430706 23022 net.cpp:395] conv4_1/out/bn -> conv4_1/out (in-place)
I0303 16:54:02.431241 23022 net.cpp:150] Setting up conv4_1/out/bn
I0303 16:54:02.431252 23022 net.cpp:157] Top shape: 1 256 54 90 (1244160)
I0303 16:54:02.431257 23022 net.cpp:165] Memory required for data: 1707298644
I0303 16:54:02.431267 23022 layer_factory.hpp:77] Creating layer conv4_1/out/bn_scale
I0303 16:54:02.431279 23022 net.cpp:100] Creating Layer conv4_1/out/bn_scale
I0303 16:54:02.431284 23022 net.cpp:434] conv4_1/out/bn_scale <- conv4_1/out
I0303 16:54:02.431293 23022 net.cpp:395] conv4_1/out/bn_scale -> conv4_1/out (in-place)
I0303 16:54:02.431394 23022 layer_factory.hpp:77] Creating layer conv4_1/out/bn_scale
I0303 16:54:02.431699 23022 net.cpp:150] Setting up conv4_1/out/bn_scale
I0303 16:54:02.431710 23022 net.cpp:157] Top shape: 1 256 54 90 (1244160)
I0303 16:54:02.431715 23022 net.cpp:165] Memory required for data: 1712275284
I0303 16:54:02.431731 23022 layer_factory.hpp:77] Creating layer conv4_1/proj
I0303 16:54:02.431743 23022 net.cpp:100] Creating Layer conv4_1/proj
I0303 16:54:02.431748 23022 net.cpp:434] conv4_1/proj <- conv3_4_conv3_4_0_split_4
I0303 16:54:02.431759 23022 net.cpp:408] conv4_1/proj -> conv4_1/proj
I0303 16:54:02.434064 23022 net.cpp:150] Setting up conv4_1/proj
I0303 16:54:02.434082 23022 net.cpp:157] Top shape: 1 256 54 90 (1244160)
I0303 16:54:02.434087 23022 net.cpp:165] Memory required for data: 1717251924
I0303 16:54:02.434098 23022 layer_factory.hpp:77] Creating layer conv4_1/proj_bn
I0303 16:54:02.434109 23022 net.cpp:100] Creating Layer conv4_1/proj_bn
I0303 16:54:02.434115 23022 net.cpp:434] conv4_1/proj_bn <- conv4_1/proj
I0303 16:54:02.434124 23022 net.cpp:395] conv4_1/proj_bn -> conv4_1/proj (in-place)
I0303 16:54:02.434664 23022 net.cpp:150] Setting up conv4_1/proj_bn
I0303 16:54:02.434675 23022 net.cpp:157] Top shape: 1 256 54 90 (1244160)
I0303 16:54:02.434680 23022 net.cpp:165] Memory required for data: 1722228564
I0303 16:54:02.434696 23022 layer_factory.hpp:77] Creating layer conv4_1/proj_bn_scale
I0303 16:54:02.434708 23022 net.cpp:100] Creating Layer conv4_1/proj_bn_scale
I0303 16:54:02.434715 23022 net.cpp:434] conv4_1/proj_bn_scale <- conv4_1/proj
I0303 16:54:02.434720 23022 net.cpp:395] conv4_1/proj_bn_scale -> conv4_1/proj (in-place)
I0303 16:54:02.434811 23022 layer_factory.hpp:77] Creating layer conv4_1/proj_bn_scale
I0303 16:54:02.436005 23022 net.cpp:150] Setting up conv4_1/proj_bn_scale
I0303 16:54:02.436022 23022 net.cpp:157] Top shape: 1 256 54 90 (1244160)
I0303 16:54:02.436027 23022 net.cpp:165] Memory required for data: 1727205204
I0303 16:54:02.436036 23022 layer_factory.hpp:77] Creating layer conv4_1
I0303 16:54:02.436048 23022 net.cpp:100] Creating Layer conv4_1
I0303 16:54:02.436054 23022 net.cpp:434] conv4_1 <- conv4_1/out
I0303 16:54:02.436061 23022 net.cpp:434] conv4_1 <- conv4_1/proj
I0303 16:54:02.436072 23022 net.cpp:408] conv4_1 -> conv4_1
I0303 16:54:02.436131 23022 net.cpp:150] Setting up conv4_1
I0303 16:54:02.436141 23022 net.cpp:157] Top shape: 1 256 54 90 (1244160)
I0303 16:54:02.436146 23022 net.cpp:165] Memory required for data: 1732181844
I0303 16:54:02.436151 23022 layer_factory.hpp:77] Creating layer conv4_1_conv4_1_0_split
I0303 16:54:02.436161 23022 net.cpp:100] Creating Layer conv4_1_conv4_1_0_split
I0303 16:54:02.436167 23022 net.cpp:434] conv4_1_conv4_1_0_split <- conv4_1
I0303 16:54:02.436177 23022 net.cpp:408] conv4_1_conv4_1_0_split -> conv4_1_conv4_1_0_split_0
I0303 16:54:02.436185 23022 net.cpp:408] conv4_1_conv4_1_0_split -> conv4_1_conv4_1_0_split_1
I0303 16:54:02.436194 23022 net.cpp:408] conv4_1_conv4_1_0_split -> conv4_1_conv4_1_0_split_2
I0303 16:54:02.436203 23022 net.cpp:408] conv4_1_conv4_1_0_split -> conv4_1_conv4_1_0_split_3
I0303 16:54:02.436355 23022 net.cpp:150] Setting up conv4_1_conv4_1_0_split
I0303 16:54:02.436364 23022 net.cpp:157] Top shape: 1 256 54 90 (1244160)
I0303 16:54:02.436370 23022 net.cpp:157] Top shape: 1 256 54 90 (1244160)
I0303 16:54:02.436377 23022 net.cpp:157] Top shape: 1 256 54 90 (1244160)
I0303 16:54:02.436381 23022 net.cpp:157] Top shape: 1 256 54 90 (1244160)
I0303 16:54:02.436385 23022 net.cpp:165] Memory required for data: 1752088404
I0303 16:54:02.436390 23022 layer_factory.hpp:77] Creating layer conv4_2/incep/0/conv
I0303 16:54:02.436408 23022 net.cpp:100] Creating Layer conv4_2/incep/0/conv
I0303 16:54:02.436414 23022 net.cpp:434] conv4_2/incep/0/conv <- conv4_1_conv4_1_0_split_0
I0303 16:54:02.436424 23022 net.cpp:408] conv4_2/incep/0/conv -> conv4_2/incep/0
I0303 16:54:02.438127 23022 net.cpp:150] Setting up conv4_2/incep/0/conv
I0303 16:54:02.438145 23022 net.cpp:157] Top shape: 1 64 54 90 (311040)
I0303 16:54:02.438150 23022 net.cpp:165] Memory required for data: 1753332564
I0303 16:54:02.438158 23022 layer_factory.hpp:77] Creating layer conv4_2/incep/0/bn
I0303 16:54:02.438170 23022 net.cpp:100] Creating Layer conv4_2/incep/0/bn
I0303 16:54:02.438181 23022 net.cpp:434] conv4_2/incep/0/bn <- conv4_2/incep/0
I0303 16:54:02.438201 23022 net.cpp:395] conv4_2/incep/0/bn -> conv4_2/incep/0 (in-place)
I0303 16:54:02.438730 23022 net.cpp:150] Setting up conv4_2/incep/0/bn
I0303 16:54:02.438740 23022 net.cpp:157] Top shape: 1 64 54 90 (311040)
I0303 16:54:02.438746 23022 net.cpp:165] Memory required for data: 1754576724
I0303 16:54:02.438755 23022 layer_factory.hpp:77] Creating layer conv4_2/incep/0/bn_scale
I0303 16:54:02.438766 23022 net.cpp:100] Creating Layer conv4_2/incep/0/bn_scale
I0303 16:54:02.438772 23022 net.cpp:434] conv4_2/incep/0/bn_scale <- conv4_2/incep/0
I0303 16:54:02.438779 23022 net.cpp:395] conv4_2/incep/0/bn_scale -> conv4_2/incep/0 (in-place)
I0303 16:54:02.438870 23022 layer_factory.hpp:77] Creating layer conv4_2/incep/0/bn_scale
I0303 16:54:02.439184 23022 net.cpp:150] Setting up conv4_2/incep/0/bn_scale
I0303 16:54:02.439194 23022 net.cpp:157] Top shape: 1 64 54 90 (311040)
I0303 16:54:02.439199 23022 net.cpp:165] Memory required for data: 1755820884
I0303 16:54:02.439208 23022 layer_factory.hpp:77] Creating layer conv4_2/incep/0/relu
I0303 16:54:02.439221 23022 net.cpp:100] Creating Layer conv4_2/incep/0/relu
I0303 16:54:02.439227 23022 net.cpp:434] conv4_2/incep/0/relu <- conv4_2/incep/0
I0303 16:54:02.439236 23022 net.cpp:395] conv4_2/incep/0/relu -> conv4_2/incep/0 (in-place)
I0303 16:54:02.439723 23022 net.cpp:150] Setting up conv4_2/incep/0/relu
I0303 16:54:02.439738 23022 net.cpp:157] Top shape: 1 64 54 90 (311040)
I0303 16:54:02.439743 23022 net.cpp:165] Memory required for data: 1757065044
I0303 16:54:02.439749 23022 layer_factory.hpp:77] Creating layer conv4_2/incep/1_reduce/conv
I0303 16:54:02.439762 23022 net.cpp:100] Creating Layer conv4_2/incep/1_reduce/conv
I0303 16:54:02.439769 23022 net.cpp:434] conv4_2/incep/1_reduce/conv <- conv4_1_conv4_1_0_split_1
I0303 16:54:02.439779 23022 net.cpp:408] conv4_2/incep/1_reduce/conv -> conv4_2/incep/1_reduce
I0303 16:54:02.441881 23022 net.cpp:150] Setting up conv4_2/incep/1_reduce/conv
I0303 16:54:02.441898 23022 net.cpp:157] Top shape: 1 64 54 90 (311040)
I0303 16:54:02.441903 23022 net.cpp:165] Memory required for data: 1758309204
I0303 16:54:02.441911 23022 layer_factory.hpp:77] Creating layer conv4_2/incep/1_reduce/bn
I0303 16:54:02.441923 23022 net.cpp:100] Creating Layer conv4_2/incep/1_reduce/bn
I0303 16:54:02.441929 23022 net.cpp:434] conv4_2/incep/1_reduce/bn <- conv4_2/incep/1_reduce
I0303 16:54:02.441938 23022 net.cpp:395] conv4_2/incep/1_reduce/bn -> conv4_2/incep/1_reduce (in-place)
I0303 16:54:02.442476 23022 net.cpp:150] Setting up conv4_2/incep/1_reduce/bn
I0303 16:54:02.442489 23022 net.cpp:157] Top shape: 1 64 54 90 (311040)
I0303 16:54:02.442494 23022 net.cpp:165] Memory required for data: 1759553364
I0303 16:54:02.442504 23022 layer_factory.hpp:77] Creating layer conv4_2/incep/1_reduce/bn_scale
I0303 16:54:02.442513 23022 net.cpp:100] Creating Layer conv4_2/incep/1_reduce/bn_scale
I0303 16:54:02.442519 23022 net.cpp:434] conv4_2/incep/1_reduce/bn_scale <- conv4_2/incep/1_reduce
I0303 16:54:02.442528 23022 net.cpp:395] conv4_2/incep/1_reduce/bn_scale -> conv4_2/incep/1_reduce (in-place)
I0303 16:54:02.442625 23022 layer_factory.hpp:77] Creating layer conv4_2/incep/1_reduce/bn_scale
I0303 16:54:02.442941 23022 net.cpp:150] Setting up conv4_2/incep/1_reduce/bn_scale
I0303 16:54:02.442951 23022 net.cpp:157] Top shape: 1 64 54 90 (311040)
I0303 16:54:02.442956 23022 net.cpp:165] Memory required for data: 1760797524
I0303 16:54:02.442965 23022 layer_factory.hpp:77] Creating layer conv4_2/incep/1_reduce/relu
I0303 16:54:02.442975 23022 net.cpp:100] Creating Layer conv4_2/incep/1_reduce/relu
I0303 16:54:02.442980 23022 net.cpp:434] conv4_2/incep/1_reduce/relu <- conv4_2/incep/1_reduce
I0303 16:54:02.442986 23022 net.cpp:395] conv4_2/incep/1_reduce/relu -> conv4_2/incep/1_reduce (in-place)
I0303 16:54:02.443267 23022 net.cpp:150] Setting up conv4_2/incep/1_reduce/relu
I0303 16:54:02.443279 23022 net.cpp:157] Top shape: 1 64 54 90 (311040)
I0303 16:54:02.443284 23022 net.cpp:165] Memory required for data: 1762041684
I0303 16:54:02.443289 23022 layer_factory.hpp:77] Creating layer conv4_2/incep/1_0/conv
I0303 16:54:02.443302 23022 net.cpp:100] Creating Layer conv4_2/incep/1_0/conv
I0303 16:54:02.443308 23022 net.cpp:434] conv4_2/incep/1_0/conv <- conv4_2/incep/1_reduce
I0303 16:54:02.443316 23022 net.cpp:408] conv4_2/incep/1_0/conv -> conv4_2/incep/1_0
I0303 16:54:02.446226 23022 net.cpp:150] Setting up conv4_2/incep/1_0/conv
I0303 16:54:02.446254 23022 net.cpp:157] Top shape: 1 128 54 90 (622080)
I0303 16:54:02.446259 23022 net.cpp:165] Memory required for data: 1764530004
I0303 16:54:02.446269 23022 layer_factory.hpp:77] Creating layer conv4_2/incep/1_0/bn
I0303 16:54:02.446281 23022 net.cpp:100] Creating Layer conv4_2/incep/1_0/bn
I0303 16:54:02.446288 23022 net.cpp:434] conv4_2/incep/1_0/bn <- conv4_2/incep/1_0
I0303 16:54:02.446298 23022 net.cpp:395] conv4_2/incep/1_0/bn -> conv4_2/incep/1_0 (in-place)
I0303 16:54:02.446833 23022 net.cpp:150] Setting up conv4_2/incep/1_0/bn
I0303 16:54:02.446844 23022 net.cpp:157] Top shape: 1 128 54 90 (622080)
I0303 16:54:02.446854 23022 net.cpp:165] Memory required for data: 1767018324
I0303 16:54:02.446866 23022 layer_factory.hpp:77] Creating layer conv4_2/incep/1_0/bn_scale
I0303 16:54:02.446877 23022 net.cpp:100] Creating Layer conv4_2/incep/1_0/bn_scale
I0303 16:54:02.446882 23022 net.cpp:434] conv4_2/incep/1_0/bn_scale <- conv4_2/incep/1_0
I0303 16:54:02.446889 23022 net.cpp:395] conv4_2/incep/1_0/bn_scale -> conv4_2/incep/1_0 (in-place)
I0303 16:54:02.446980 23022 layer_factory.hpp:77] Creating layer conv4_2/incep/1_0/bn_scale
I0303 16:54:02.447274 23022 net.cpp:150] Setting up conv4_2/incep/1_0/bn_scale
I0303 16:54:02.447284 23022 net.cpp:157] Top shape: 1 128 54 90 (622080)
I0303 16:54:02.447288 23022 net.cpp:165] Memory required for data: 1769506644
I0303 16:54:02.447296 23022 layer_factory.hpp:77] Creating layer conv4_2/incep/1_0/relu
I0303 16:54:02.447304 23022 net.cpp:100] Creating Layer conv4_2/incep/1_0/relu
I0303 16:54:02.447309 23022 net.cpp:434] conv4_2/incep/1_0/relu <- conv4_2/incep/1_0
I0303 16:54:02.447317 23022 net.cpp:395] conv4_2/incep/1_0/relu -> conv4_2/incep/1_0 (in-place)
I0303 16:54:02.447785 23022 net.cpp:150] Setting up conv4_2/incep/1_0/relu
I0303 16:54:02.447801 23022 net.cpp:157] Top shape: 1 128 54 90 (622080)
I0303 16:54:02.447806 23022 net.cpp:165] Memory required for data: 1771994964
I0303 16:54:02.447811 23022 layer_factory.hpp:77] Creating layer conv4_2/incep/2_reduce/conv
I0303 16:54:02.447825 23022 net.cpp:100] Creating Layer conv4_2/incep/2_reduce/conv
I0303 16:54:02.447831 23022 net.cpp:434] conv4_2/incep/2_reduce/conv <- conv4_1_conv4_1_0_split_2
I0303 16:54:02.447842 23022 net.cpp:408] conv4_2/incep/2_reduce/conv -> conv4_2/incep/2_reduce
I0303 16:54:02.449425 23022 net.cpp:150] Setting up conv4_2/incep/2_reduce/conv
I0303 16:54:02.449442 23022 net.cpp:157] Top shape: 1 24 54 90 (116640)
I0303 16:54:02.449447 23022 net.cpp:165] Memory required for data: 1772461524
I0303 16:54:02.449455 23022 layer_factory.hpp:77] Creating layer conv4_2/incep/2_reduce/bn
I0303 16:54:02.449466 23022 net.cpp:100] Creating Layer conv4_2/incep/2_reduce/bn
I0303 16:54:02.449472 23022 net.cpp:434] conv4_2/incep/2_reduce/bn <- conv4_2/incep/2_reduce
I0303 16:54:02.449479 23022 net.cpp:395] conv4_2/incep/2_reduce/bn -> conv4_2/incep/2_reduce (in-place)
I0303 16:54:02.450021 23022 net.cpp:150] Setting up conv4_2/incep/2_reduce/bn
I0303 16:54:02.450031 23022 net.cpp:157] Top shape: 1 24 54 90 (116640)
I0303 16:54:02.450037 23022 net.cpp:165] Memory required for data: 1772928084
I0303 16:54:02.450047 23022 layer_factory.hpp:77] Creating layer conv4_2/incep/2_reduce/bn_scale
I0303 16:54:02.450055 23022 net.cpp:100] Creating Layer conv4_2/incep/2_reduce/bn_scale
I0303 16:54:02.450060 23022 net.cpp:434] conv4_2/incep/2_reduce/bn_scale <- conv4_2/incep/2_reduce
I0303 16:54:02.450069 23022 net.cpp:395] conv4_2/incep/2_reduce/bn_scale -> conv4_2/incep/2_reduce (in-place)
I0303 16:54:02.450168 23022 layer_factory.hpp:77] Creating layer conv4_2/incep/2_reduce/bn_scale
I0303 16:54:02.450484 23022 net.cpp:150] Setting up conv4_2/incep/2_reduce/bn_scale
I0303 16:54:02.450503 23022 net.cpp:157] Top shape: 1 24 54 90 (116640)
I0303 16:54:02.450507 23022 net.cpp:165] Memory required for data: 1773394644
I0303 16:54:02.450515 23022 layer_factory.hpp:77] Creating layer conv4_2/incep/2_reduce/relu
I0303 16:54:02.450523 23022 net.cpp:100] Creating Layer conv4_2/incep/2_reduce/relu
I0303 16:54:02.450528 23022 net.cpp:434] conv4_2/incep/2_reduce/relu <- conv4_2/incep/2_reduce
I0303 16:54:02.450536 23022 net.cpp:395] conv4_2/incep/2_reduce/relu -> conv4_2/incep/2_reduce (in-place)
I0303 16:54:02.450979 23022 net.cpp:150] Setting up conv4_2/incep/2_reduce/relu
I0303 16:54:02.450994 23022 net.cpp:157] Top shape: 1 24 54 90 (116640)
I0303 16:54:02.450999 23022 net.cpp:165] Memory required for data: 1773861204
I0303 16:54:02.451004 23022 layer_factory.hpp:77] Creating layer conv4_2/incep/2_0/conv
I0303 16:54:02.451016 23022 net.cpp:100] Creating Layer conv4_2/incep/2_0/conv
I0303 16:54:02.451022 23022 net.cpp:434] conv4_2/incep/2_0/conv <- conv4_2/incep/2_reduce
I0303 16:54:02.451040 23022 net.cpp:408] conv4_2/incep/2_0/conv -> conv4_2/incep/2_0
I0303 16:54:02.452844 23022 net.cpp:150] Setting up conv4_2/incep/2_0/conv
I0303 16:54:02.452867 23022 net.cpp:157] Top shape: 1 48 54 90 (233280)
I0303 16:54:02.452872 23022 net.cpp:165] Memory required for data: 1774794324
I0303 16:54:02.452879 23022 layer_factory.hpp:77] Creating layer conv4_2/incep/2_0/bn
I0303 16:54:02.452889 23022 net.cpp:100] Creating Layer conv4_2/incep/2_0/bn
I0303 16:54:02.452895 23022 net.cpp:434] conv4_2/incep/2_0/bn <- conv4_2/incep/2_0
I0303 16:54:02.452904 23022 net.cpp:395] conv4_2/incep/2_0/bn -> conv4_2/incep/2_0 (in-place)
I0303 16:54:02.453449 23022 net.cpp:150] Setting up conv4_2/incep/2_0/bn
I0303 16:54:02.453461 23022 net.cpp:157] Top shape: 1 48 54 90 (233280)
I0303 16:54:02.453467 23022 net.cpp:165] Memory required for data: 1775727444
I0303 16:54:02.453476 23022 layer_factory.hpp:77] Creating layer conv4_2/incep/2_0/bn_scale
I0303 16:54:02.453485 23022 net.cpp:100] Creating Layer conv4_2/incep/2_0/bn_scale
I0303 16:54:02.453490 23022 net.cpp:434] conv4_2/incep/2_0/bn_scale <- conv4_2/incep/2_0
I0303 16:54:02.453500 23022 net.cpp:395] conv4_2/incep/2_0/bn_scale -> conv4_2/incep/2_0 (in-place)
I0303 16:54:02.453593 23022 layer_factory.hpp:77] Creating layer conv4_2/incep/2_0/bn_scale
I0303 16:54:02.453908 23022 net.cpp:150] Setting up conv4_2/incep/2_0/bn_scale
I0303 16:54:02.453918 23022 net.cpp:157] Top shape: 1 48 54 90 (233280)
I0303 16:54:02.453923 23022 net.cpp:165] Memory required for data: 1776660564
I0303 16:54:02.453932 23022 layer_factory.hpp:77] Creating layer conv4_2/incep/2_0/relu
I0303 16:54:02.453940 23022 net.cpp:100] Creating Layer conv4_2/incep/2_0/relu
I0303 16:54:02.453946 23022 net.cpp:434] conv4_2/incep/2_0/relu <- conv4_2/incep/2_0
I0303 16:54:02.453953 23022 net.cpp:395] conv4_2/incep/2_0/relu -> conv4_2/incep/2_0 (in-place)
I0303 16:54:02.454223 23022 net.cpp:150] Setting up conv4_2/incep/2_0/relu
I0303 16:54:02.454236 23022 net.cpp:157] Top shape: 1 48 54 90 (233280)
I0303 16:54:02.454241 23022 net.cpp:165] Memory required for data: 1777593684
I0303 16:54:02.454246 23022 layer_factory.hpp:77] Creating layer conv4_2/incep/2_1/conv
I0303 16:54:02.454259 23022 net.cpp:100] Creating Layer conv4_2/incep/2_1/conv
I0303 16:54:02.454265 23022 net.cpp:434] conv4_2/incep/2_1/conv <- conv4_2/incep/2_0
I0303 16:54:02.454272 23022 net.cpp:408] conv4_2/incep/2_1/conv -> conv4_2/incep/2_1
I0303 16:54:02.456857 23022 net.cpp:150] Setting up conv4_2/incep/2_1/conv
I0303 16:54:02.456902 23022 net.cpp:157] Top shape: 1 48 54 90 (233280)
I0303 16:54:02.456912 23022 net.cpp:165] Memory required for data: 1778526804
I0303 16:54:02.456928 23022 layer_factory.hpp:77] Creating layer conv4_2/incep/2_1/bn
I0303 16:54:02.456951 23022 net.cpp:100] Creating Layer conv4_2/incep/2_1/bn
I0303 16:54:02.456965 23022 net.cpp:434] conv4_2/incep/2_1/bn <- conv4_2/incep/2_1
I0303 16:54:02.456981 23022 net.cpp:395] conv4_2/incep/2_1/bn -> conv4_2/incep/2_1 (in-place)
I0303 16:54:02.457898 23022 net.cpp:150] Setting up conv4_2/incep/2_1/bn
I0303 16:54:02.457919 23022 net.cpp:157] Top shape: 1 48 54 90 (233280)
I0303 16:54:02.457927 23022 net.cpp:165] Memory required for data: 1779459924
I0303 16:54:02.457945 23022 layer_factory.hpp:77] Creating layer conv4_2/incep/2_1/bn_scale
I0303 16:54:02.457965 23022 net.cpp:100] Creating Layer conv4_2/incep/2_1/bn_scale
I0303 16:54:02.457976 23022 net.cpp:434] conv4_2/incep/2_1/bn_scale <- conv4_2/incep/2_1
I0303 16:54:02.457993 23022 net.cpp:395] conv4_2/incep/2_1/bn_scale -> conv4_2/incep/2_1 (in-place)
I0303 16:54:02.458149 23022 layer_factory.hpp:77] Creating layer conv4_2/incep/2_1/bn_scale
I0303 16:54:02.458714 23022 net.cpp:150] Setting up conv4_2/incep/2_1/bn_scale
I0303 16:54:02.458735 23022 net.cpp:157] Top shape: 1 48 54 90 (233280)
I0303 16:54:02.458745 23022 net.cpp:165] Memory required for data: 1780393044
I0303 16:54:02.458760 23022 layer_factory.hpp:77] Creating layer conv4_2/incep/2_1/relu
I0303 16:54:02.458775 23022 net.cpp:100] Creating Layer conv4_2/incep/2_1/relu
I0303 16:54:02.458796 23022 net.cpp:434] conv4_2/incep/2_1/relu <- conv4_2/incep/2_1
I0303 16:54:02.458811 23022 net.cpp:395] conv4_2/incep/2_1/relu -> conv4_2/incep/2_1 (in-place)
I0303 16:54:02.459590 23022 net.cpp:150] Setting up conv4_2/incep/2_1/relu
I0303 16:54:02.459619 23022 net.cpp:157] Top shape: 1 48 54 90 (233280)
I0303 16:54:02.459627 23022 net.cpp:165] Memory required for data: 1781326164
I0303 16:54:02.459636 23022 layer_factory.hpp:77] Creating layer conv4_2/incep
I0303 16:54:02.459655 23022 net.cpp:100] Creating Layer conv4_2/incep
I0303 16:54:02.459666 23022 net.cpp:434] conv4_2/incep <- conv4_2/incep/0
I0303 16:54:02.459679 23022 net.cpp:434] conv4_2/incep <- conv4_2/incep/1_0
I0303 16:54:02.459692 23022 net.cpp:434] conv4_2/incep <- conv4_2/incep/2_1
I0303 16:54:02.459705 23022 net.cpp:408] conv4_2/incep -> conv4_2/incep
I0303 16:54:02.459812 23022 net.cpp:150] Setting up conv4_2/incep
I0303 16:54:02.459831 23022 net.cpp:157] Top shape: 1 240 54 90 (1166400)
I0303 16:54:02.459841 23022 net.cpp:165] Memory required for data: 1785991764
I0303 16:54:02.459848 23022 layer_factory.hpp:77] Creating layer conv4_2/out/conv
I0303 16:54:02.459873 23022 net.cpp:100] Creating Layer conv4_2/out/conv
I0303 16:54:02.459884 23022 net.cpp:434] conv4_2/out/conv <- conv4_2/incep
I0303 16:54:02.459899 23022 net.cpp:408] conv4_2/out/conv -> conv4_2/out
I0303 16:54:02.464844 23022 net.cpp:150] Setting up conv4_2/out/conv
I0303 16:54:02.464877 23022 net.cpp:157] Top shape: 1 256 54 90 (1244160)
I0303 16:54:02.464889 23022 net.cpp:165] Memory required for data: 1790968404
I0303 16:54:02.464902 23022 layer_factory.hpp:77] Creating layer conv4_2/out/bn
I0303 16:54:02.464921 23022 net.cpp:100] Creating Layer conv4_2/out/bn
I0303 16:54:02.464933 23022 net.cpp:434] conv4_2/out/bn <- conv4_2/out
I0303 16:54:02.464951 23022 net.cpp:395] conv4_2/out/bn -> conv4_2/out (in-place)
I0303 16:54:02.465811 23022 net.cpp:150] Setting up conv4_2/out/bn
I0303 16:54:02.465831 23022 net.cpp:157] Top shape: 1 256 54 90 (1244160)
I0303 16:54:02.465839 23022 net.cpp:165] Memory required for data: 1795945044
I0303 16:54:02.465858 23022 layer_factory.hpp:77] Creating layer conv4_2/out/bn_scale
I0303 16:54:02.465878 23022 net.cpp:100] Creating Layer conv4_2/out/bn_scale
I0303 16:54:02.465888 23022 net.cpp:434] conv4_2/out/bn_scale <- conv4_2/out
I0303 16:54:02.465901 23022 net.cpp:395] conv4_2/out/bn_scale -> conv4_2/out (in-place)
I0303 16:54:02.466054 23022 layer_factory.hpp:77] Creating layer conv4_2/out/bn_scale
I0303 16:54:02.466557 23022 net.cpp:150] Setting up conv4_2/out/bn_scale
I0303 16:54:02.466578 23022 net.cpp:157] Top shape: 1 256 54 90 (1244160)
I0303 16:54:02.466586 23022 net.cpp:165] Memory required for data: 1800921684
…
I0303 16:54:02.651216 23022 net.cpp:157] Top shape: 1 384 27 45 (466560)
I0303 16:54:02.651222 23022 net.cpp:165] Memory required for data: 2091122004
I0303 16:54:02.651231 23022 layer_factory.hpp:77] Creating layer conv5_4/incep/0/conv
I0303 16:54:02.651247 23022 net.cpp:100] Creating Layer conv5_4/incep/0/conv
I0303 16:54:02.651254 23022 net.cpp:434] conv5_4/incep/0/conv <- conv5_3_conv5_3_0_split_0
I0303 16:54:02.651270 23022 net.cpp:408] conv5_4/incep/0/conv -> conv5_4/incep/0
I0303 16:54:02.654439 23022 net.cpp:150] Setting up conv5_4/incep/0/conv
I0303 16:54:02.654469 23022 net.cpp:157] Top shape: 1 64 27 45 (77760)
I0303 16:54:02.654475 23022 net.cpp:165] Memory required for data: 2091433044
I0303 16:54:02.654489 23022 layer_factory.hpp:77] Creating layer conv5_4/incep/0/bn
I0303 16:54:02.654501 23022 net.cpp:100] Creating Layer conv5_4/incep/0/bn
I0303 16:54:02.654510 23022 net.cpp:434] conv5_4/incep/0/bn <- conv5_4/incep/0
I0303 16:54:02.654525 23022 net.cpp:395] conv5_4/incep/0/bn -> conv5_4/incep/0 (in-place)
I0303 16:54:02.655289 23022 net.cpp:150] Setting up conv5_4/incep/0/bn
I0303 16:54:02.655305 23022 net.cpp:157] Top shape: 1 64 27 45 (77760)
I0303 16:54:02.655313 23022 net.cpp:165] Memory required for data: 2091744084
I0303 16:54:02.655328 23022 layer_factory.hpp:77] Creating layer conv5_4/incep/0/bn_scale
I0303 16:54:02.655346 23022 net.cpp:100] Creating Layer conv5_4/incep/0/bn_scale
I0303 16:54:02.655355 23022 net.cpp:434] conv5_4/incep/0/bn_scale <- conv5_4/incep/0
I0303 16:54:02.655365 23022 net.cpp:395] conv5_4/incep/0/bn_scale -> conv5_4/incep/0 (in-place)
I0303 16:54:02.655493 23022 layer_factory.hpp:77] Creating layer conv5_4/incep/0/bn_scale
I0303 16:54:02.655974 23022 net.cpp:150] Setting up conv5_4/incep/0/bn_scale
I0303 16:54:02.655990 23022 net.cpp:157] Top shape: 1 64 27 45 (77760)
I0303 16:54:02.655997 23022 net.cpp:165] Memory required for data: 2092055124
I0303 16:54:02.656018 23022 layer_factory.hpp:77] Creating layer conv5_4/incep/0/relu
I0303 16:54:02.656030 23022 net.cpp:100] Creating Layer conv5_4/incep/0/relu
I0303 16:54:02.656038 23022 net.cpp:434] conv5_4/incep/0/relu <- conv5_4/incep/0
I0303 16:54:02.656050 23022 net.cpp:395] conv5_4/incep/0/relu -> conv5_4/incep/0 (in-place)
I0303 16:54:02.658391 23022 net.cpp:150] Setting up conv5_4/incep/0/relu
I0303 16:54:02.658427 23022 net.cpp:157] Top shape: 1 64 27 45 (77760)
I0303 16:54:02.658434 23022 net.cpp:165] Memory required for data: 2092366164
I0303 16:54:02.658442 23022 layer_factory.hpp:77] Creating layer conv5_4/incep/1_reduce/conv
I0303 16:54:02.658463 23022 net.cpp:100] Creating Layer conv5_4/incep/1_reduce/conv
I0303 16:54:02.658474 23022 net.cpp:434] conv5_4/incep/1_reduce/conv <- conv5_3_conv5_3_0_split_1
I0303 16:54:02.658491 23022 net.cpp:408] conv5_4/incep/1_reduce/conv -> conv5_4/incep/1_reduce
I0303 16:54:02.661913 23022 net.cpp:150] Setting up conv5_4/incep/1_reduce/conv
I0303 16:54:02.661942 23022 net.cpp:157] Top shape: 1 96 27 45 (116640)
I0303 16:54:02.661949 23022 net.cpp:165] Memory required for data: 2092832724
I0303 16:54:02.661962 23022 layer_factory.hpp:77] Creating layer conv5_4/incep/1_reduce/bn
I0303 16:54:02.661978 23022 net.cpp:100] Creating Layer conv5_4/incep/1_reduce/bn
I0303 16:54:02.661988 23022 net.cpp:434] conv5_4/incep/1_reduce/bn <- conv5_4/incep/1_reduce
I0303 16:54:02.662000 23022 net.cpp:395] conv5_4/incep/1_reduce/bn -> conv5_4/incep/1_reduce (in-place)
I0303 16:54:02.665037 23022 net.cpp:150] Setting up conv5_4/incep/1_reduce/bn
I0303 16:54:02.665071 23022 net.cpp:157] Top shape: 1 96 27 45 (116640)
I0303 16:54:02.665078 23022 net.cpp:165] Memory required for data: 2093299284
I0303 16:54:02.665096 23022 layer_factory.hpp:77] Creating layer conv5_4/incep/1_reduce/bn_scale
I0303 16:54:02.665110 23022 net.cpp:100] Creating Layer conv5_4/incep/1_reduce/bn_scale
I0303 16:54:02.665119 23022 net.cpp:434] conv5_4/incep/1_reduce/bn_scale <- conv5_4/incep/1_reduce
I0303 16:54:02.665134 23022 net.cpp:395] conv5_4/incep/1_reduce/bn_scale -> conv5_4/incep/1_reduce (in-place)
I0303 16:54:02.665271 23022 layer_factory.hpp:77] Creating layer conv5_4/incep/1_reduce/bn_scale
I0303 16:54:02.665756 23022 net.cpp:150] Setting up conv5_4/incep/1_reduce/bn_scale
I0303 16:54:02.665772 23022 net.cpp:157] Top shape: 1 96 27 45 (116640)
I0303 16:54:02.665779 23022 net.cpp:165] Memory required for data: 2093765844
I0303 16:54:02.665791 23022 layer_factory.hpp:77] Creating layer conv5_4/incep/1_reduce/relu
I0303 16:54:02.665807 23022 net.cpp:100] Creating Layer conv5_4/incep/1_reduce/relu
I0303 16:54:02.665815 23022 net.cpp:434] conv5_4/incep/1_reduce/relu <- conv5_4/incep/1_reduce
I0303 16:54:02.665825 23022 net.cpp:395] conv5_4/incep/1_reduce/relu -> conv5_4/incep/1_reduce (in-place)
I0303 16:54:02.666302 23022 net.cpp:150] Setting up conv5_4/incep/1_reduce/relu
I0303 16:54:02.666321 23022 net.cpp:157] Top shape: 1 96 27 45 (116640)
I0303 16:54:02.666327 23022 net.cpp:165] Memory required for data: 2094232404
I0303 16:54:02.666335 23022 layer_factory.hpp:77] Creating layer conv5_4/incep/1_0/conv
I0303 16:54:02.666354 23022 net.cpp:100] Creating Layer conv5_4/incep/1_0/conv
I0303 16:54:02.666363 23022 net.cpp:434] conv5_4/incep/1_0/conv <- conv5_4/incep/1_reduce
I0303 16:54:02.666375 23022 net.cpp:408] conv5_4/incep/1_0/conv -> conv5_4/incep/1_0
I0303 16:54:02.672300 23022 net.cpp:150] Setting up conv5_4/incep/1_0/conv
I0303 16:54:02.672330 23022 net.cpp:157] Top shape: 1 192 27 45 (233280)
I0303 16:54:02.672338 23022 net.cpp:165] Memory required for data: 2095165524
I0303 16:54:02.672348 23022 layer_factory.hpp:77] Creating layer conv5_4/incep/1_0/bn
I0303 16:54:02.672364 23022 net.cpp:100] Creating Layer conv5_4/incep/1_0/bn
I0303 16:54:02.672374 23022 net.cpp:434] conv5_4/incep/1_0/bn <- conv5_4/incep/1_0
I0303 16:54:02.672384 23022 net.cpp:395] conv5_4/incep/1_0/bn -> conv5_4/incep/1_0 (in-place)
I0303 16:54:02.673096 23022 net.cpp:150] Setting up conv5_4/incep/1_0/bn
I0303 16:54:02.673112 23022 net.cpp:157] Top shape: 1 192 27 45 (233280)
I0303 16:54:02.673127 23022 net.cpp:165] Memory required for data: 2096098644
I0303 16:54:02.673142 23022 layer_factory.hpp:77] Creating layer conv5_4/incep/1_0/bn_scale
I0303 16:54:02.673156 23022 net.cpp:100] Creating Layer conv5_4/incep/1_0/bn_scale
I0303 16:54:02.673164 23022 net.cpp:434] conv5_4/incep/1_0/bn_scale <- conv5_4/incep/1_0
I0303 16:54:02.673177 23022 net.cpp:395] conv5_4/incep/1_0/bn_scale -> conv5_4/incep/1_0 (in-place)
I0303 16:54:02.673296 23022 layer_factory.hpp:77] Creating layer conv5_4/incep/1_0/bn_scale
I0303 16:54:02.673741 23022 net.cpp:150] Setting up conv5_4/incep/1_0/bn_scale
I0303 16:54:02.673755 23022 net.cpp:157] Top shape: 1 192 27 45 (233280)
I0303 16:54:02.673763 23022 net.cpp:165] Memory required for data: 2097031764
I0303 16:54:02.673774 23022 layer_factory.hpp:77] Creating layer conv5_4/incep/1_0/relu
I0303 16:54:02.673784 23022 net.cpp:100] Creating Layer conv5_4/incep/1_0/relu
I0303 16:54:02.673791 23022 net.cpp:434] conv5_4/incep/1_0/relu <- conv5_4/incep/1_0
I0303 16:54:02.673801 23022 net.cpp:395] conv5_4/incep/1_0/relu -> conv5_4/incep/1_0 (in-place)
I0303 16:54:02.674211 23022 net.cpp:150] Setting up conv5_4/incep/1_0/relu
I0303 16:54:02.674227 23022 net.cpp:157] Top shape: 1 192 27 45 (233280)
I0303 16:54:02.674233 23022 net.cpp:165] Memory required for data: 2097964884
I0303 16:54:02.674240 23022 layer_factory.hpp:77] Creating layer conv5_4/incep/2_reduce/conv
I0303 16:54:02.674257 23022 net.cpp:100] Creating Layer conv5_4/incep/2_reduce/conv
I0303 16:54:02.674266 23022 net.cpp:434] conv5_4/incep/2_reduce/conv <- conv5_3_conv5_3_0_split_2
I0303 16:54:02.674278 23022 net.cpp:408] conv5_4/incep/2_reduce/conv -> conv5_4/incep/2_reduce
I0303 16:54:02.677858 23022 net.cpp:150] Setting up conv5_4/incep/2_reduce/conv
I0303 16:54:02.677884 23022 net.cpp:157] Top shape: 1 32 27 45 (38880)
I0303 16:54:02.677891 23022 net.cpp:165] Memory required for data: 2098120404
I0303 16:54:02.677901 23022 layer_factory.hpp:77] Creating layer conv5_4/incep/2_reduce/bn
I0303 16:54:02.677917 23022 net.cpp:100] Creating Layer conv5_4/incep/2_reduce/bn
I0303 16:54:02.677927 23022 net.cpp:434] conv5_4/incep/2_reduce/bn <- conv5_4/incep/2_reduce
I0303 16:54:02.677940 23022 net.cpp:395] conv5_4/incep/2_reduce/bn -> conv5_4/incep/2_reduce (in-place)
I0303 16:54:02.678678 23022 net.cpp:150] Setting up conv5_4/incep/2_reduce/bn
I0303 16:54:02.678695 23022 net.cpp:157] Top shape: 1 32 27 45 (38880)
I0303 16:54:02.678701 23022 net.cpp:165] Memory required for data: 2098275924
I0303 16:54:02.678714 23022 layer_factory.hpp:77] Creating layer conv5_4/incep/2_reduce/bn_scale
I0303 16:54:02.678727 23022 net.cpp:100] Creating Layer conv5_4/incep/2_reduce/bn_scale
I0303 16:54:02.678736 23022 net.cpp:434] conv5_4/incep/2_reduce/bn_scale <- conv5_4/incep/2_reduce
I0303 16:54:02.678745 23022 net.cpp:395] conv5_4/incep/2_reduce/bn_scale -> conv5_4/incep/2_reduce (in-place)
I0303 16:54:02.678858 23022 layer_factory.hpp:77] Creating layer conv5_4/incep/2_reduce/bn_scale
I0303 16:54:02.679288 23022 net.cpp:150] Setting up conv5_4/incep/2_reduce/bn_scale
I0303 16:54:02.679302 23022 net.cpp:157] Top shape: 1 32 27 45 (38880)
I0303 16:54:02.679308 23022 net.cpp:165] Memory required for data: 2098431444
I0303 16:54:02.679318 23022 layer_factory.hpp:77] Creating layer conv5_4/incep/2_reduce/relu
I0303 16:54:02.679329 23022 net.cpp:100] Creating Layer conv5_4/incep/2_reduce/relu
I0303 16:54:02.679337 23022 net.cpp:434] conv5_4/incep/2_reduce/relu <- conv5_4/incep/2_reduce
I0303 16:54:02.679347 23022 net.cpp:395] conv5_4/incep/2_reduce/relu -> conv5_4/incep/2_reduce (in-place)
I0303 16:54:02.679987 23022 net.cpp:150] Setting up conv5_4/incep/2_reduce/relu
I0303 16:54:02.680008 23022 net.cpp:157] Top shape: 1 32 27 45 (38880)
I0303 16:54:02.680014 23022 net.cpp:165] Memory required for data: 2098586964
I0303 16:54:02.680022 23022 layer_factory.hpp:77] Creating layer conv5_4/incep/2_0/conv
I0303 16:54:02.680038 23022 net.cpp:100] Creating Layer conv5_4/incep/2_0/conv
I0303 16:54:02.680053 23022 net.cpp:434] conv5_4/incep/2_0/conv <- conv5_4/incep/2_reduce
I0303 16:54:02.680070 23022 net.cpp:408] conv5_4/incep/2_0/conv -> conv5_4/incep/2_0
I0303 16:54:02.682611 23022 net.cpp:150] Setting up conv5_4/incep/2_0/conv
I0303 16:54:02.682634 23022 net.cpp:157] Top shape: 1 64 27 45 (77760)
I0303 16:54:02.682641 23022 net.cpp:165] Memory required for data: 2098898004
I0303 16:54:02.682651 23022 layer_factory.hpp:77] Creating layer conv5_4/incep/2_0/bn
I0303 16:54:02.682665 23022 net.cpp:100] Creating Layer conv5_4/incep/2_0/bn
I0303 16:54:02.682673 23022 net.cpp:434] conv5_4/incep/2_0/bn <- conv5_4/incep/2_0
I0303 16:54:02.682683 23022 net.cpp:395] conv5_4/incep/2_0/bn -> conv5_4/incep/2_0 (in-place)
I0303 16:54:02.683357 23022 net.cpp:150] Setting up conv5_4/incep/2_0/bn
I0303 16:54:02.683370 23022 net.cpp:157] Top shape: 1 64 27 45 (77760)
I0303 16:54:02.683377 23022 net.cpp:165] Memory required for data: 2099209044
I0303 16:54:02.683390 23022 layer_factory.hpp:77] Creating layer conv5_4/incep/2_0/bn_scale
I0303 16:54:02.683404 23022 net.cpp:100] Creating Layer conv5_4/incep/2_0/bn_scale
I0303 16:54:02.683411 23022 net.cpp:434] conv5_4/incep/2_0/bn_scale <- conv5_4/incep/2_0
I0303 16:54:02.683423 23022 net.cpp:395] conv5_4/incep/2_0/bn_scale -> conv5_4/incep/2_0 (in-place)
I0303 16:54:02.683538 23022 layer_factory.hpp:77] Creating layer conv5_4/incep/2_0/bn_scale
I0303 16:54:02.683964 23022 net.cpp:150] Setting up conv5_4/incep/2_0/bn_scale
I0303 16:54:02.683979 23022 net.cpp:157] Top shape: 1 64 27 45 (77760)
I0303 16:54:02.683984 23022 net.cpp:165] Memory required for data: 2099520084
I0303 16:54:02.683995 23022 layer_factory.hpp:77] Creating layer conv5_4/incep/2_0/relu
I0303 16:54:02.684005 23022 net.cpp:100] Creating Layer conv5_4/incep/2_0/relu
I0303 16:54:02.684011 23022 net.cpp:434] conv5_4/incep/2_0/relu <- conv5_4/incep/2_0
I0303 16:54:02.684020 23022 net.cpp:395] conv5_4/incep/2_0/relu -> conv5_4/incep/2_0 (in-place)
I0303 16:54:02.684394 23022 net.cpp:150] Setting up conv5_4/incep/2_0/relu
I0303 16:54:02.684411 23022 net.cpp:157] Top shape: 1 64 27 45 (77760)
I0303 16:54:02.684417 23022 net.cpp:165] Memory required for data: 2099831124
I0303 16:54:02.684423 23022 layer_factory.hpp:77] Creating layer conv5_4/incep/2_1/conv
I0303 16:54:02.684438 23022 net.cpp:100] Creating Layer conv5_4/incep/2_1/conv
I0303 16:54:02.684447 23022 net.cpp:434] conv5_4/incep/2_1/conv <- conv5_4/incep/2_0
I0303 16:54:02.684460 23022 net.cpp:408] conv5_4/incep/2_1/conv -> conv5_4/incep/2_1
I0303 16:54:02.687257 23022 net.cpp:150] Setting up conv5_4/incep/2_1/conv
I0303 16:54:02.687279 23022 net.cpp:157] Top shape: 1 64 27 45 (77760)
I0303 16:54:02.687286 23022 net.cpp:165] Memory required for data: 2100142164
I0303 16:54:02.687296 23022 layer_factory.hpp:77] Creating layer conv5_4/incep/2_1/bn
I0303 16:54:02.687310 23022 net.cpp:100] Creating Layer conv5_4/incep/2_1/bn
I0303 16:54:02.687319 23022 net.cpp:434] conv5_4/incep/2_1/bn <- conv5_4/incep/2_1
I0303 16:54:02.687330 23022 net.cpp:395] conv5_4/incep/2_1/bn -> conv5_4/incep/2_1 (in-place)
I0303 16:54:02.687993 23022 net.cpp:150] Setting up conv5_4/incep/2_1/bn
I0303 16:54:02.688009 23022 net.cpp:157] Top shape: 1 64 27 45 (77760)
I0303 16:54:02.688015 23022 net.cpp:165] Memory required for data: 2100453204
I0303 16:54:02.688029 23022 layer_factory.hpp:77] Creating layer conv5_4/incep/2_1/bn_scale
I0303 16:54:02.688040 23022 net.cpp:100] Creating Layer conv5_4/incep/2_1/bn_scale
I0303 16:54:02.688046 23022 net.cpp:434] conv5_4/incep/2_1/bn_scale <- conv5_4/incep/2_1
I0303 16:54:02.688060 23022 net.cpp:395] conv5_4/incep/2_1/bn_scale -> conv5_4/incep/2_1 (in-place)
I0303 16:54:02.688175 23022 layer_factory.hpp:77] Creating layer conv5_4/incep/2_1/bn_scale
I0303 16:54:02.688587 23022 net.cpp:150] Setting up conv5_4/incep/2_1/bn_scale
I0303 16:54:02.688601 23022 net.cpp:157] Top shape: 1 64 27 45 (77760)
I0303 16:54:02.688607 23022 net.cpp:165] Memory required for data: 2100764244
I0303 16:54:02.688617 23022 layer_factory.hpp:77] Creating layer conv5_4/incep/2_1/relu
I0303 16:54:02.688637 23022 net.cpp:100] Creating Layer conv5_4/incep/2_1/relu
I0303 16:54:02.688645 23022 net.cpp:434] conv5_4/incep/2_1/relu <- conv5_4/incep/2_1
I0303 16:54:02.688654 23022 net.cpp:395] conv5_4/incep/2_1/relu -> conv5_4/incep/2_1 (in-place)
I0303 16:54:02.689026 23022 net.cpp:150] Setting up conv5_4/incep/2_1/relu
I0303 16:54:02.689041 23022 net.cpp:157] Top shape: 1 64 27 45 (77760)
I0303 16:54:02.689048 23022 net.cpp:165] Memory required for data: 2101075284
I0303 16:54:02.689054 23022 layer_factory.hpp:77] Creating layer conv5_4/incep
I0303 16:54:02.689065 23022 net.cpp:100] Creating Layer conv5_4/incep
I0303 16:54:02.689072 23022 net.cpp:434] conv5_4/incep <- conv5_4/incep/0
I0303 16:54:02.689081 23022 net.cpp:434] conv5_4/incep <- conv5_4/incep/1_0
I0303 16:54:02.689090 23022 net.cpp:434] conv5_4/incep <- conv5_4/incep/2_1
I0303 16:54:02.689103 23022 net.cpp:408] conv5_4/incep -> conv5_4/incep
I0303 16:54:02.689182 23022 net.cpp:150] Setting up conv5_4/incep
I0303 16:54:02.689193 23022 net.cpp:157] Top shape: 1 320 27 45 (388800)
I0303 16:54:02.689199 23022 net.cpp:165] Memory required for data: 2102630484
I0303 16:54:02.689206 23022 layer_factory.hpp:77] Creating layer conv5_4/out/conv
I0303 16:54:02.689221 23022 net.cpp:100] Creating Layer conv5_4/out/conv
I0303 16:54:02.689229 23022 net.cpp:434] conv5_4/out/conv <- conv5_4/incep
I0303 16:54:02.689240 23022 net.cpp:408] conv5_4/out/conv -> conv5_4/out
I0303 16:54:02.693943 23022 net.cpp:150] Setting up conv5_4/out/conv
I0303 16:54:02.693969 23022 net.cpp:157] Top shape: 1 384 27 45 (466560)
I0303 16:54:02.693974 23022 net.cpp:165] Memory required for data: 2104496724
I0303 16:54:02.693984 23022 layer_factory.hpp:77] Creating layer conv5_4/out/bn
I0303 16:54:02.693996 23022 net.cpp:100] Creating Layer conv5_4/out/bn
I0303 16:54:02.694003 23022 net.cpp:434] conv5_4/out/bn <- conv5_4/out
I0303 16:54:02.694015 23022 net.cpp:395] conv5_4/out/bn -> conv5_4/out (in-place)
I0303 16:54:02.694669 23022 net.cpp:150] Setting up conv5_4/out/bn
I0303 16:54:02.694684 23022 net.cpp:157] Top shape: 1 384 27 45 (466560)
I0303 16:54:02.694689 23022 net.cpp:165] Memory required for data: 2106362964
I0303 16:54:02.694701 23022 layer_factory.hpp:77] Creating layer conv5_4/out/bn_scale
I0303 16:54:02.694715 23022 net.cpp:100] Creating Layer conv5_4/out/bn_scale
I0303 16:54:02.694721 23022 net.cpp:434] conv5_4/out/bn_scale <- conv5_4/out
I0303 16:54:02.694810 23022 net.cpp:395] conv5_4/out/bn_scale -> conv5_4/out (in-place)
I0303 16:54:02.694936 23022 layer_factory.hpp:77] Creating layer conv5_4/out/bn_scale
I0303 16:54:02.695340 23022 net.cpp:150] Setting up conv5_4/out/bn_scale
I0303 16:54:02.695354 23022 net.cpp:157] Top shape: 1 384 27 45 (466560)
I0303 16:54:02.695359 23022 net.cpp:165] Memory required for data: 2108229204
I0303 16:54:02.695369 23022 layer_factory.hpp:77] Creating layer conv5_4/input
I0303 16:54:02.695380 23022 net.cpp:100] Creating Layer conv5_4/input
I0303 16:54:02.695387 23022 net.cpp:434] conv5_4/input <- conv5_3_conv5_3_0_split_3
I0303 16:54:02.695397 23022 net.cpp:408] conv5_4/input -> conv5_4/input
I0303 16:54:02.695462 23022 net.cpp:150] Setting up conv5_4/input
I0303 16:54:02.695473 23022 net.cpp:157] Top shape: 1 384 27 45 (466560)
I0303 16:54:02.695479 23022 net.cpp:165] Memory required for data: 2110095444
I0303 16:54:02.695485 23022 layer_factory.hpp:77] Creating layer conv5_4
I0303 16:54:02.695495 23022 net.cpp:100] Creating Layer conv5_4
I0303 16:54:02.695502 23022 net.cpp:434] conv5_4 <- conv5_4/out
I0303 16:54:02.695510 23022 net.cpp:434] conv5_4 <- conv5_4/input
I0303 16:54:02.695518 23022 net.cpp:408] conv5_4 -> conv5_4
I0303 16:54:02.695581 23022 net.cpp:150] Setting up conv5_4
I0303 16:54:02.695593 23022 net.cpp:157] Top shape: 1 384 27 45 (466560)
I0303 16:54:02.695600 23022 net.cpp:165] Memory required for data: 2111961684
I0303 16:54:02.695605 23022 layer_factory.hpp:77] Creating layer downsample
I0303 16:54:02.695616 23022 net.cpp:100] Creating Layer downsample
I0303 16:54:02.695622 23022 net.cpp:434] downsample <- conv3_4_conv3_4_0_split_5
I0303 16:54:02.695642 23022 net.cpp:408] downsample -> downsample
I0303 16:54:02.695744 23022 net.cpp:150] Setting up downsample
I0303 16:54:02.695756 23022 net.cpp:157] Top shape: 1 128 54 90 (622080)
I0303 16:54:02.695761 23022 net.cpp:165] Memory required for data: 2114450004
I0303 16:54:02.695767 23022 layer_factory.hpp:77] Creating layer upsample
I0303 16:54:02.695778 23022 net.cpp:100] Creating Layer upsample
I0303 16:54:02.695785 23022 net.cpp:434] upsample <- conv5_4
I0303 16:54:02.695796 23022 net.cpp:408] upsample -> upsample
I0303 16:54:02.696707 23022 net.cpp:150] Setting up upsample
I0303 16:54:02.696720 23022 net.cpp:157] Top shape: 1 384 54 90 (1866240)
I0303 16:54:02.696727 23022 net.cpp:165] Memory required for data: 2121914964
I0303 16:54:02.696734 23022 layer_factory.hpp:77] Creating layer concat
I0303 16:54:02.696745 23022 net.cpp:100] Creating Layer concat
I0303 16:54:02.696754 23022 net.cpp:434] concat <- downsample
I0303 16:54:02.696763 23022 net.cpp:434] concat <- conv4_4_conv4_4_0_split_5
I0303 16:54:02.696769 23022 net.cpp:434] concat <- upsample
I0303 16:54:02.696779 23022 net.cpp:408] concat -> concat
I0303 16:54:02.696841 23022 net.cpp:150] Setting up concat
I0303 16:54:02.696853 23022 net.cpp:157] Top shape: 1 768 54 90 (3732480)
I0303 16:54:02.696858 23022 net.cpp:165] Memory required for data: 2136844884
I0303 16:54:02.696864 23022 layer_factory.hpp:77] Creating layer concat_concat_0_split
I0303 16:54:02.696874 23022 net.cpp:100] Creating Layer concat_concat_0_split
I0303 16:54:02.696880 23022 net.cpp:434] concat_concat_0_split <- concat
I0303 16:54:02.696888 23022 net.cpp:408] concat_concat_0_split -> concat_concat_0_split_0
I0303 16:54:02.696900 23022 net.cpp:408] concat_concat_0_split -> concat_concat_0_split_1
I0303 16:54:02.696995 23022 net.cpp:150] Setting up concat_concat_0_split
I0303 16:54:02.697006 23022 net.cpp:157] Top shape: 1 768 54 90 (3732480)
I0303 16:54:02.697015 23022 net.cpp:157] Top shape: 1 768 54 90 (3732480)
I0303 16:54:02.697021 23022 net.cpp:165] Memory required for data: 2166704724
I0303 16:54:02.697026 23022 layer_factory.hpp:77] Creating layer convf_rpn
I0303 16:54:02.697041 23022 net.cpp:100] Creating Layer convf_rpn
I0303 16:54:02.697048 23022 net.cpp:434] convf_rpn <- concat_concat_0_split_0
I0303 16:54:02.697059 23022 net.cpp:408] convf_rpn -> convf_rpn
I0303 16:54:02.700618 23022 net.cpp:150] Setting up convf_rpn
I0303 16:54:02.700640 23022 net.cpp:157] Top shape: 1 128 54 90 (622080)
I0303 16:54:02.700647 23022 net.cpp:165] Memory required for data: 2169193044
I0303 16:54:02.700659 23022 layer_factory.hpp:77] Creating layer reluf_rpn
I0303 16:54:02.700670 23022 net.cpp:100] Creating Layer reluf_rpn
I0303 16:54:02.700676 23022 net.cpp:434] reluf_rpn <- convf_rpn
I0303 16:54:02.700687 23022 net.cpp:395] reluf_rpn -> convf_rpn (in-place)
I0303 16:54:02.701289 23022 net.cpp:150] Setting up reluf_rpn
I0303 16:54:02.701309 23022 net.cpp:157] Top shape: 1 128 54 90 (622080)
I0303 16:54:02.701314 23022 net.cpp:165] Memory required for data: 2171681364
I0303 16:54:02.701321 23022 layer_factory.hpp:77] Creating layer convf_rpn_reluf_rpn_0_split
I0303 16:54:02.701331 23022 net.cpp:100] Creating Layer convf_rpn_reluf_rpn_0_split
I0303 16:54:02.701339 23022 net.cpp:434] convf_rpn_reluf_rpn_0_split <- convf_rpn
I0303 16:54:02.701350 23022 net.cpp:408] convf_rpn_reluf_rpn_0_split -> convf_rpn_reluf_rpn_0_split_0
I0303 16:54:02.701364 23022 net.cpp:408] convf_rpn_reluf_rpn_0_split -> convf_rpn_reluf_rpn_0_split_1
I0303 16:54:02.701488 23022 net.cpp:150] Setting up convf_rpn_reluf_rpn_0_split
I0303 16:54:02.701498 23022 net.cpp:157] Top shape: 1 128 54 90 (622080)
I0303 16:54:02.701505 23022 net.cpp:157] Top shape: 1 128 54 90 (622080)
I0303 16:54:02.701510 23022 net.cpp:165] Memory required for data: 2176658004
I0303 16:54:02.701517 23022 layer_factory.hpp:77] Creating layer convf_2
I0303 16:54:02.701534 23022 net.cpp:100] Creating Layer convf_2
I0303 16:54:02.701540 23022 net.cpp:434] convf_2 <- concat_concat_0_split_1
I0303 16:54:02.701553 23022 net.cpp:408] convf_2 -> convf_2
I0303 16:54:02.708420 23022 net.cpp:150] Setting up convf_2
I0303 16:54:02.708443 23022 net.cpp:157] Top shape: 1 384 54 90 (1866240)
I0303 16:54:02.708449 23022 net.cpp:165] Memory required for data: 2184122964
I0303 16:54:02.708545 23022 layer_factory.hpp:77] Creating layer reluf_2
I0303 16:54:02.708559 23022 net.cpp:100] Creating Layer reluf_2
I0303 16:54:02.708564 23022 net.cpp:434] reluf_2 <- convf_2
I0303 16:54:02.708573 23022 net.cpp:395] reluf_2 -> convf_2 (in-place)
I0303 16:54:02.709143 23022 net.cpp:150] Setting up reluf_2
I0303 16:54:02.709162 23022 net.cpp:157] Top shape: 1 384 54 90 (1866240)
I0303 16:54:02.709167 23022 net.cpp:165] Memory required for data: 2191587924
I0303 16:54:02.709173 23022 layer_factory.hpp:77] Creating layer concat_convf
I0303 16:54:02.709184 23022 net.cpp:100] Creating Layer concat_convf
I0303 16:54:02.709192 23022 net.cpp:434] concat_convf <- convf_rpn_reluf_rpn_0_split_0
I0303 16:54:02.709199 23022 net.cpp:434] concat_convf <- convf_2
I0303 16:54:02.709210 23022 net.cpp:408] concat_convf -> convf
I0303 16:54:02.709290 23022 net.cpp:150] Setting up concat_convf
I0303 16:54:02.709300 23022 net.cpp:157] Top shape: 1 512 54 90 (2488320)
I0303 16:54:02.709306 23022 net.cpp:165] Memory required for data: 2201541204
I0303 16:54:02.709311 23022 layer_factory.hpp:77] Creating layer convf_concat_convf_0_split
I0303 16:54:02.709322 23022 net.cpp:100] Creating Layer convf_concat_convf_0_split
I0303 16:54:02.709328 23022 net.cpp:434] convf_concat_convf_0_split <- convf
I0303 16:54:02.709337 23022 net.cpp:408] convf_concat_convf_0_split -> convf_concat_convf_0_split_0
I0303 16:54:02.709348 23022 net.cpp:408] convf_concat_convf_0_split -> convf_concat_convf_0_split_1
I0303 16:54:02.709450 23022 net.cpp:150] Setting up convf_concat_convf_0_split
I0303 16:54:02.709461 23022 net.cpp:157] Top shape: 1 512 54 90 (2488320)
I0303 16:54:02.709468 23022 net.cpp:157] Top shape: 1 512 54 90 (2488320)
I0303 16:54:02.709473 23022 net.cpp:165] Memory required for data: 2221447764
I0303 16:54:02.709480 23022 layer_factory.hpp:77] Creating layer rpn_conv1
I0303 16:54:02.709496 23022 net.cpp:100] Creating Layer rpn_conv1
I0303 16:54:02.709502 23022 net.cpp:434] rpn_conv1 <- convf_rpn_reluf_rpn_0_split_1
I0303 16:54:02.709514 23022 net.cpp:408] rpn_conv1 -> rpn_conv1
I0303 16:54:02.720839 23022 net.cpp:150] Setting up rpn_conv1
I0303 16:54:02.720866 23022 net.cpp:157] Top shape: 1 384 54 90 (1866240)
I0303 16:54:02.720872 23022 net.cpp:165] Memory required for data: 2228912724
I0303 16:54:02.720882 23022 layer_factory.hpp:77] Creating layer rpn_relu1
I0303 16:54:02.720892 23022 net.cpp:100] Creating Layer rpn_relu1
I0303 16:54:02.720898 23022 net.cpp:434] rpn_relu1 <- rpn_conv1
I0303 16:54:02.720908 23022 net.cpp:395] rpn_relu1 -> rpn_conv1 (in-place)
I0303 16:54:02.721230 23022 net.cpp:150] Setting up rpn_relu1
I0303 16:54:02.721242 23022 net.cpp:157] Top shape: 1 384 54 90 (1866240)
I0303 16:54:02.721248 23022 net.cpp:165] Memory required for data: 2236377684
I0303 16:54:02.721253 23022 layer_factory.hpp:77] Creating layer rpn_conv1_rpn_relu1_0_split
I0303 16:54:02.721262 23022 net.cpp:100] Creating Layer rpn_conv1_rpn_relu1_0_split
I0303 16:54:02.721268 23022 net.cpp:434] rpn_conv1_rpn_relu1_0_split <- rpn_conv1
I0303 16:54:02.721279 23022 net.cpp:408] rpn_conv1_rpn_relu1_0_split -> rpn_conv1_rpn_relu1_0_split_0
I0303 16:54:02.721290 23022 net.cpp:408] rpn_conv1_rpn_relu1_0_split -> rpn_conv1_rpn_relu1_0_split_1
I0303 16:54:02.721401 23022 net.cpp:150] Setting up rpn_conv1_rpn_relu1_0_split
I0303 16:54:02.721411 23022 net.cpp:157] Top shape: 1 384 54 90 (1866240)
I0303 16:54:02.721418 23022 net.cpp:157] Top shape: 1 384 54 90 (1866240)
I0303 16:54:02.721423 23022 net.cpp:165] Memory required for data: 2251307604
I0303 16:54:02.721428 23022 layer_factory.hpp:77] Creating layer rpn_cls_score
I0303 16:54:02.721443 23022 net.cpp:100] Creating Layer rpn_cls_score
I0303 16:54:02.721451 23022 net.cpp:434] rpn_cls_score <- rpn_conv1_rpn_relu1_0_split_0
I0303 16:54:02.721462 23022 net.cpp:408] rpn_cls_score -> rpn_cls_score
I0303 16:54:02.723932 23022 net.cpp:150] Setting up rpn_cls_score
I0303 16:54:02.723953 23022 net.cpp:157] Top shape: 1 50 54 90 (243000)
I0303 16:54:02.723958 23022 net.cpp:165] Memory required for data: 2252279604
I0303 16:54:02.723968 23022 layer_factory.hpp:77] Creating layer rpn_cls_score_rpn_cls_score_0_split
I0303 16:54:02.723980 23022 net.cpp:100] Creating Layer rpn_cls_score_rpn_cls_score_0_split
I0303 16:54:02.723986 23022 net.cpp:434] rpn_cls_score_rpn_cls_score_0_split <- rpn_cls_score
I0303 16:54:02.723996 23022 net.cpp:408] rpn_cls_score_rpn_cls_score_0_split -> rpn_cls_score_rpn_cls_score_0_split_0
I0303 16:54:02.724009 23022 net.cpp:408] rpn_cls_score_rpn_cls_score_0_split -> rpn_cls_score_rpn_cls_score_0_split_1
I0303 16:54:02.724114 23022 net.cpp:150] Setting up rpn_cls_score_rpn_cls_score_0_split
I0303 16:54:02.724126 23022 net.cpp:157] Top shape: 1 50 54 90 (243000)
I0303 16:54:02.724133 23022 net.cpp:157] Top shape: 1 50 54 90 (243000)
I0303 16:54:02.724138 23022 net.cpp:165] Memory required for data: 2254223604
I0303 16:54:02.724143 23022 layer_factory.hpp:77] Creating layer rpn_bbox_pred
I0303 16:54:02.724159 23022 net.cpp:100] Creating Layer rpn_bbox_pred
I0303 16:54:02.724166 23022 net.cpp:434] rpn_bbox_pred <- rpn_conv1_rpn_relu1_0_split_1
I0303 16:54:02.724175 23022 net.cpp:408] rpn_bbox_pred -> rpn_bbox_pred
I0303 16:54:02.726956 23022 net.cpp:150] Setting up rpn_bbox_pred
I0303 16:54:02.726975 23022 net.cpp:157] Top shape: 1 100 54 90 (486000)
I0303 16:54:02.726984 23022 net.cpp:165] Memory required for data: 2256167604
I0303 16:54:02.726992 23022 layer_factory.hpp:77] Creating layer rpn_bbox_pred_rpn_bbox_pred_0_split
I0303 16:54:02.727002 23022 net.cpp:100] Creating Layer rpn_bbox_pred_rpn_bbox_pred_0_split
I0303 16:54:02.727008 23022 net.cpp:434] rpn_bbox_pred_rpn_bbox_pred_0_split <- rpn_bbox_pred
I0303 16:54:02.727016 23022 net.cpp:408] rpn_bbox_pred_rpn_bbox_pred_0_split -> rpn_bbox_pred_rpn_bbox_pred_0_split_0
I0303 16:54:02.727030 23022 net.cpp:408] rpn_bbox_pred_rpn_bbox_pred_0_split -> rpn_bbox_pred_rpn_bbox_pred_0_split_1
I0303 16:54:02.727128 23022 net.cpp:150] Setting up rpn_bbox_pred_rpn_bbox_pred_0_split
I0303 16:54:02.727139 23022 net.cpp:157] Top shape: 1 100 54 90 (486000)
I0303 16:54:02.727146 23022 net.cpp:157] Top shape: 1 100 54 90 (486000)
I0303 16:54:02.727151 23022 net.cpp:165] Memory required for data: 2260055604
I0303 16:54:02.727156 23022 layer_factory.hpp:77] Creating layer rpn_cls_score_reshape
I0303 16:54:02.727167 23022 net.cpp:100] Creating Layer rpn_cls_score_reshape
I0303 16:54:02.727174 23022 net.cpp:434] rpn_cls_score_reshape <- rpn_cls_score_rpn_cls_score_0_split_0
I0303 16:54:02.727183 23022 net.cpp:408] rpn_cls_score_reshape -> rpn_cls_score_reshape
I0303 16:54:02.727241 23022 net.cpp:150] Setting up rpn_cls_score_reshape
I0303 16:54:02.727250 23022 net.cpp:157] Top shape: 1 2 1350 90 (243000)
I0303 16:54:02.727255 23022 net.cpp:165] Memory required for data: 2261027604
I0303 16:54:02.727259 23022 layer_factory.hpp:77] Creating layer rpn_cls_score_reshape_rpn_cls_score_reshape_0_split
I0303 16:54:02.727267 23022 net.cpp:100] Creating Layer rpn_cls_score_reshape_rpn_cls_score_reshape_0_split
I0303 16:54:02.727272 23022 net.cpp:434] rpn_cls_score_reshape_rpn_cls_score_reshape_0_split <- rpn_cls_score_reshape
I0303 16:54:02.727283 23022 net.cpp:408] rpn_cls_score_reshape_rpn_cls_score_reshape_0_split -> rpn_cls_score_reshape_rpn_cls_score_reshape_0_split_0
I0303 16:54:02.727293 23022 net.cpp:408] rpn_cls_score_reshape_rpn_cls_score_reshape_0_split -> rpn_cls_score_reshape_rpn_cls_score_reshape_0_split_1
I0303 16:54:02.727377 23022 net.cpp:150] Setting up rpn_cls_score_reshape_rpn_cls_score_reshape_0_split
I0303 16:54:02.727386 23022 net.cpp:157] Top shape: 1 2 1350 90 (243000)
I0303 16:54:02.727392 23022 net.cpp:157] Top shape: 1 2 1350 90 (243000)
I0303 16:54:02.727397 23022 net.cpp:165] Memory required for data: 2262971604
I0303 16:54:02.727401 23022 layer_factory.hpp:77] Creating layer rpn-data
I0303 16:54:02.728080 23022 net.cpp:100] Creating Layer rpn-data
I0303 16:54:02.728104 23022 net.cpp:434] rpn-data <- rpn_cls_score_rpn_cls_score_0_split_1
I0303 16:54:02.728114 23022 net.cpp:434] rpn-data <- gt_boxes_input-data_2_split_0
I0303 16:54:02.728121 23022 net.cpp:434] rpn-data <- im_info_input-data_1_split_0
I0303 16:54:02.728127 23022 net.cpp:434] rpn-data <- data_input-data_0_split_1
I0303 16:54:02.728137 23022 net.cpp:408] rpn-data -> rpn_labels
I0303 16:54:02.728148 23022 net.cpp:408] rpn-data -> rpn_bbox_targets
I0303 16:54:02.728159 23022 net.cpp:408] rpn-data -> rpn_bbox_inside_weights
I0303 16:54:02.728169 23022 net.cpp:408] rpn-data -> rpn_bbox_outside_weights
I0303 16:54:02.731536 23022 net.cpp:150] Setting up rpn-data
I0303 16:54:02.731559 23022 net.cpp:157] Top shape: 1 1 1350 90 (121500)
I0303 16:54:02.731566 23022 net.cpp:157] Top shape: 1 100 54 90 (486000)
I0303 16:54:02.731571 23022 net.cpp:157] Top shape: 1 100 54 90 (486000)
I0303 16:54:02.731578 23022 net.cpp:157] Top shape: 1 100 54 90 (486000)
I0303 16:54:02.731582 23022 net.cpp:165] Memory required for data: 2269289604
I0303 16:54:02.731588 23022 layer_factory.hpp:77] Creating layer rpn_loss_cls
I0303 16:54:02.731598 23022 net.cpp:100] Creating Layer rpn_loss_cls
I0303 16:54:02.731606 23022 net.cpp:434] rpn_loss_cls <- rpn_cls_score_reshape_rpn_cls_score_reshape_0_split_0
I0303 16:54:02.731613 23022 net.cpp:434] rpn_loss_cls <- rpn_labels
…
I0303 16:54:02.739796 23022 net.cpp:157] Top shape: (1)
I0303 16:54:02.739801 23022 net.cpp:160]     with loss weight 1
I0303 16:54:02.739809 23022 net.cpp:165] Memory required for data: 2269289612
I0303 16:54:02.739815 23022 layer_factory.hpp:77] Creating layer rpn_cls_prob
I0303 16:54:02.739825 23022 net.cpp:100] Creating Layer rpn_cls_prob
I0303 16:54:02.739830 23022 net.cpp:434] rpn_cls_prob <- rpn_cls_score_reshape_rpn_cls_score_reshape_0_split_1
I0303 16:54:02.739841 23022 net.cpp:408] rpn_cls_prob -> rpn_cls_prob
I0303 16:54:02.740567 23022 net.cpp:150] Setting up rpn_cls_prob
I0303 16:54:02.740586 23022 net.cpp:157] Top shape: 1 2 1350 90 (243000)
I0303 16:54:02.740592 23022 net.cpp:165] Memory required for data: 2270261612
I0303 16:54:02.740597 23022 layer_factory.hpp:77] Creating layer rpn_cls_prob_reshape
I0303 16:54:02.740609 23022 net.cpp:100] Creating Layer rpn_cls_prob_reshape
I0303 16:54:02.740617 23022 net.cpp:434] rpn_cls_prob_reshape <- rpn_cls_prob
I0303 16:54:02.740624 23022 net.cpp:408] rpn_cls_prob_reshape -> rpn_cls_prob_reshape
I0303 16:54:02.740689 23022 net.cpp:150] Setting up rpn_cls_prob_reshape
I0303 16:54:02.740698 23022 net.cpp:157] Top shape: 1 50 54 90 (243000)
I0303 16:54:02.740703 23022 net.cpp:165] Memory required for data: 2271233612
I0303 16:54:02.740708 23022 layer_factory.hpp:77] Creating layer proposal
I0303 16:54:02.740718 23022 net.cpp:100] Creating Layer proposal
I0303 16:54:02.740725 23022 net.cpp:434] proposal <- rpn_cls_prob_reshape
I0303 16:54:02.740731 23022 net.cpp:434] proposal <- rpn_bbox_pred_rpn_bbox_pred_0_split_1
I0303 16:54:02.740737 23022 net.cpp:434] proposal <- im_info_input-data_1_split_1
I0303 16:54:02.740754 23022 net.cpp:408] proposal -> rpn_rois
I0303 16:54:02.740766 23022 net.cpp:408] proposal -> rpn_scores
I0303 16:54:02.740963 23022 net.cpp:150] Setting up proposal
I0303 16:54:02.740973 23022 net.cpp:157] Top shape: 2000 5 (10000)
I0303 16:54:02.740978 23022 net.cpp:157] Top shape: 2000 (2000)
I0303 16:54:02.740983 23022 net.cpp:165] Memory required for data: 2271281612
I0303 16:54:02.740988 23022 layer_factory.hpp:77] Creating layer mute_rpn_scores
I0303 16:54:02.740995 23022 net.cpp:100] Creating Layer mute_rpn_scores
I0303 16:54:02.741001 23022 net.cpp:434] mute_rpn_scores <- rpn_scores
I0303 16:54:02.741008 23022 net.cpp:150] Setting up mute_rpn_scores
I0303 16:54:02.741013 23022 net.cpp:165] Memory required for data: 2271281612
I0303 16:54:02.741016 23022 layer_factory.hpp:77] Creating layer roi-data
I0303 16:54:02.741242 23022 net.cpp:100] Creating Layer roi-data
I0303 16:54:02.741256 23022 net.cpp:434] roi-data <- rpn_rois
I0303 16:54:02.741264 23022 net.cpp:434] roi-data <- gt_boxes_input-data_2_split_1
I0303 16:54:02.741273 23022 net.cpp:408] roi-data -> rois
I0303 16:54:02.741284 23022 net.cpp:408] roi-data -> labels
I0303 16:54:02.741293 23022 net.cpp:408] roi-data -> bbox_targets
I0303 16:54:02.741303 23022 net.cpp:408] roi-data -> bbox_inside_weights
I0303 16:54:02.741312 23022 net.cpp:408] roi-data -> bbox_outside_weights
I0303 16:54:02.741966 23022 net.cpp:150] Setting up roi-data
I0303 16:54:02.741982 23022 net.cpp:157] Top shape: 1 5 (5)
I0303 16:54:02.741989 23022 net.cpp:157] Top shape: 1 1 (1)
I0303 16:54:02.741996 23022 net.cpp:157] Top shape: 1 8 (8)
I0303 16:54:02.742000 23022 net.cpp:157] Top shape: 1 8 (8)
I0303 16:54:02.742005 23022 net.cpp:157] Top shape: 1 8 (8)
I0303 16:54:02.742010 23022 net.cpp:165] Memory required for data: 2271281732
I0303 16:54:02.742015 23022 layer_factory.hpp:77] Creating layer rois_roi-data_0_split
I0303 16:54:02.742025 23022 net.cpp:100] Creating Layer rois_roi-data_0_split
I0303 16:54:02.742032 23022 net.cpp:434] rois_roi-data_0_split <- rois
I0303 16:54:02.742040 23022 net.cpp:408] rois_roi-data_0_split -> rois_roi-data_0_split_0
I0303 16:54:02.742051 23022 net.cpp:408] rois_roi-data_0_split -> rois_roi-data_0_split_1
I0303 16:54:02.742141 23022 net.cpp:150] Setting up rois_roi-data_0_split
I0303 16:54:02.742151 23022 net.cpp:157] Top shape: 1 5 (5)
I0303 16:54:02.742156 23022 net.cpp:157] Top shape: 1 5 (5)
I0303 16:54:02.742161 23022 net.cpp:165] Memory required for data: 2271281772
I0303 16:54:02.742166 23022 layer_factory.hpp:77] Creating layer roi_pool5_readonly
I0303 16:54:02.742175 23022 net.cpp:100] Creating Layer roi_pool5_readonly
I0303 16:54:02.742198 23022 net.cpp:434] roi_pool5_readonly <- convf_concat_convf_0_split_0
I0303 16:54:02.742207 23022 net.cpp:434] roi_pool5_readonly <- rois_roi-data_0_split_0
I0303 16:54:02.742223 23022 net.cpp:408] roi_pool5_readonly -> pool5_readonly
I0303 16:54:02.742234 23022 roi_pooling_layer.cpp:34] Spatial scale: 0.0625
I0303 16:54:02.742341 23022 net.cpp:150] Setting up roi_pool5_readonly
I0303 16:54:02.742352 23022 net.cpp:157] Top shape: 1 512 6 6 (18432)
I0303 16:54:02.742357 23022 net.cpp:165] Memory required for data: 2271355500
I0303 16:54:02.742362 23022 layer_factory.hpp:77] Creating layer fc6_readonly
I0303 16:54:02.742372 23022 net.cpp:100] Creating Layer fc6_readonly
I0303 16:54:02.742377 23022 net.cpp:434] fc6_readonly <- pool5_readonly
I0303 16:54:02.742388 23022 net.cpp:408] fc6_readonly -> fc6_readonly
I0303 16:54:02.976843 23022 net.cpp:150] Setting up fc6_readonly
I0303 16:54:02.976897 23022 net.cpp:157] Top shape: 1 4096 (4096)
I0303 16:54:02.976902 23022 net.cpp:165] Memory required for data: 2271371884
I0303 16:54:02.976917 23022 layer_factory.hpp:77] Creating layer relu6_readonly
I0303 16:54:02.976928 23022 net.cpp:100] Creating Layer relu6_readonly
I0303 16:54:02.976936 23022 net.cpp:434] relu6_readonly <- fc6_readonly
I0303 16:54:02.976945 23022 net.cpp:395] relu6_readonly -> fc6_readonly (in-place)
I0303 16:54:02.977324 23022 net.cpp:150] Setting up relu6_readonly
I0303 16:54:02.977349 23022 net.cpp:157] Top shape: 1 4096 (4096)
I0303 16:54:02.977354 23022 net.cpp:165] Memory required for data: 2271388268
I0303 16:54:02.977358 23022 layer_factory.hpp:77] Creating layer drop6_readonly
I0303 16:54:02.977367 23022 net.cpp:100] Creating Layer drop6_readonly
I0303 16:54:02.977372 23022 net.cpp:434] drop6_readonly <- fc6_readonly
I0303 16:54:02.977381 23022 net.cpp:395] drop6_readonly -> fc6_readonly (in-place)
I0303 16:54:02.977439 23022 net.cpp:150] Setting up drop6_readonly
I0303 16:54:02.977447 23022 net.cpp:157] Top shape: 1 4096 (4096)
I0303 16:54:02.977452 23022 net.cpp:165] Memory required for data: 2271404652
I0303 16:54:02.977457 23022 layer_factory.hpp:77] Creating layer fc7_readonly
I0303 16:54:02.977468 23022 net.cpp:100] Creating Layer fc7_readonly
I0303 16:54:02.977473 23022 net.cpp:434] fc7_readonly <- fc6_readonly
I0303 16:54:02.977478 23022 net.cpp:408] fc7_readonly -> fc7_readonly
I0303 16:54:03.041560 23022 net.cpp:150] Setting up fc7_readonly
I0303 16:54:03.041632 23022 net.cpp:157] Top shape: 1 4096 (4096)
I0303 16:54:03.041640 23022 net.cpp:165] Memory required for data: 2271421036
I0303 16:54:03.041663 23022 layer_factory.hpp:77] Creating layer relu7_readonly
I0303 16:54:03.041684 23022 net.cpp:100] Creating Layer relu7_readonly
I0303 16:54:03.041695 23022 net.cpp:434] relu7_readonly <- fc7_readonly
I0303 16:54:03.041718 23022 net.cpp:395] relu7_readonly -> fc7_readonly (in-place)
I0303 16:54:03.042781 23022 net.cpp:150] Setting up relu7_readonly
I0303 16:54:03.042804 23022 net.cpp:157] Top shape: 1 4096 (4096)
I0303 16:54:03.042810 23022 net.cpp:165] Memory required for data: 2271437420
I0303 16:54:03.042817 23022 layer_factory.hpp:77] Creating layer drop7_readonly
I0303 16:54:03.042831 23022 net.cpp:100] Creating Layer drop7_readonly
I0303 16:54:03.042840 23022 net.cpp:434] drop7_readonly <- fc7_readonly
I0303 16:54:03.042851 23022 net.cpp:395] drop7_readonly -> fc7_readonly (in-place)
I0303 16:54:03.042935 23022 net.cpp:150] Setting up drop7_readonly
I0303 16:54:03.042946 23022 net.cpp:157] Top shape: 1 4096 (4096)
I0303 16:54:03.042953 23022 net.cpp:165] Memory required for data: 2271453804
I0303 16:54:03.042959 23022 layer_factory.hpp:77] Creating layer fc7_readonly_drop7_readonly_0_split
I0303 16:54:03.042973 23022 net.cpp:100] Creating Layer fc7_readonly_drop7_readonly_0_split
I0303 16:54:03.042979 23022 net.cpp:434] fc7_readonly_drop7_readonly_0_split <- fc7_readonly
I0303 16:54:03.042990 23022 net.cpp:408] fc7_readonly_drop7_readonly_0_split -> fc7_readonly_drop7_readonly_0_split_0
I0303 16:54:03.043108 23022 net.cpp:408] fc7_readonly_drop7_readonly_0_split -> fc7_readonly_drop7_readonly_0_split_1
I0303 16:54:03.043223 23022 net.cpp:150] Setting up fc7_readonly_drop7_readonly_0_split
I0303 16:54:03.043236 23022 net.cpp:157] Top shape: 1 4096 (4096)
I0303 16:54:03.043243 23022 net.cpp:157] Top shape: 1 4096 (4096)
I0303 16:54:03.043249 23022 net.cpp:165] Memory required for data: 2271486572
I0303 16:54:03.043256 23022 layer_factory.hpp:77] Creating layer cls_score_readonly
I0303 16:54:03.043272 23022 net.cpp:100] Creating Layer cls_score_readonly
I0303 16:54:03.043279 23022 net.cpp:434] cls_score_readonly <- fc7_readonly_drop7_readonly_0_split_0
I0303 16:54:03.043292 23022 net.cpp:408] cls_score_readonly -> cls_score_readonly
I0303 16:54:03.043841 23022 net.cpp:150] Setting up cls_score_readonly
I0303 16:54:03.043854 23022 net.cpp:157] Top shape: 1 2 (2)
I0303 16:54:03.043861 23022 net.cpp:165] Memory required for data: 2271486580
I0303 16:54:03.043871 23022 layer_factory.hpp:77] Creating layer bbox_pred_readonly
I0303 16:54:03.043884 23022 net.cpp:100] Creating Layer bbox_pred_readonly
I0303 16:54:03.043893 23022 net.cpp:434] bbox_pred_readonly <- fc7_readonly_drop7_readonly_0_split_1
I0303 16:54:03.043905 23022 net.cpp:408] bbox_pred_readonly -> bbox_pred_readonly
I0303 16:54:03.046082 23022 net.cpp:150] Setting up bbox_pred_readonly
I0303 16:54:03.046103 23022 net.cpp:157] Top shape: 1 8 (8)
I0303 16:54:03.046109 23022 net.cpp:165] Memory required for data: 2271486612
I0303 16:54:03.046135 23022 layer_factory.hpp:77] Creating layer cls_prob_readonly
I0303 16:54:03.046149 23022 net.cpp:100] Creating Layer cls_prob_readonly
I0303 16:54:03.046156 23022 net.cpp:434] cls_prob_readonly <- cls_score_readonly
I0303 16:54:03.046166 23022 net.cpp:408] cls_prob_readonly -> cls_prob_readonly
I0303 16:54:03.047087 23022 net.cpp:150] Setting up cls_prob_readonly
I0303 16:54:03.047108 23022 net.cpp:157] Top shape: 1 2 (2)
I0303 16:54:03.047114 23022 net.cpp:165] Memory required for data: 2271486620
I0303 16:54:03.047122 23022 layer_factory.hpp:77] Creating layer hard_roi_mining
I0303 16:54:03.047227 23022 net.cpp:100] Creating Layer hard_roi_mining
I0303 16:54:03.047240 23022 net.cpp:434] hard_roi_mining <- cls_prob_readonly
I0303 16:54:03.047250 23022 net.cpp:434] hard_roi_mining <- bbox_pred_readonly
I0303 16:54:03.047258 23022 net.cpp:434] hard_roi_mining <- rois_roi-data_0_split_1
I0303 16:54:03.047268 23022 net.cpp:434] hard_roi_mining <- labels
I0303 16:54:03.047276 23022 net.cpp:434] hard_roi_mining <- bbox_targets
I0303 16:54:03.047283 23022 net.cpp:434] hard_roi_mining <- bbox_inside_weights
I0303 16:54:03.047291 23022 net.cpp:434] hard_roi_mining <- bbox_outside_weights
I0303 16:54:03.047303 23022 net.cpp:408] hard_roi_mining -> rois_hard
I0303 16:54:03.047317 23022 net.cpp:408] hard_roi_mining -> labels_hard
I0303 16:54:03.047333 23022 net.cpp:408] hard_roi_mining -> bbox_targets_hard
I0303 16:54:03.047348 23022 net.cpp:408] hard_roi_mining -> bbox_inside_weights_hard
I0303 16:54:03.047361 23022 net.cpp:408] hard_roi_mining -> bbox_outside_weights_hard
I0303 16:54:03.048527 23022 net.cpp:150] Setting up hard_roi_mining
I0303 16:54:03.048549 23022 net.cpp:157] Top shape: 1 5 (5)
I0303 16:54:03.048557 23022 net.cpp:157] Top shape: 1 (1)
I0303 16:54:03.048564 23022 net.cpp:157] Top shape: 1 8 (8)
I0303 16:54:03.048570 23022 net.cpp:157] Top shape: 1 8 (8)
I0303 16:54:03.048578 23022 net.cpp:157] Top shape: 1 8 (8)
I0303 16:54:03.048583 23022 net.cpp:165] Memory required for data: 2271486740
I0303 16:54:03.048590 23022 layer_factory.hpp:77] Creating layer roi_pool5
I0303 16:54:03.048610 23022 net.cpp:100] Creating Layer roi_pool5
I0303 16:54:03.048619 23022 net.cpp:434] roi_pool5 <- convf_concat_convf_0_split_1
I0303 16:54:03.048629 23022 net.cpp:434] roi_pool5 <- rois_hard
I0303 16:54:03.048641 23022 net.cpp:408] roi_pool5 -> pool5
I0303 16:54:03.048655 23022 roi_pooling_layer.cpp:34] Spatial scale: 0.0625
I0303 16:54:03.048830 23022 net.cpp:150] Setting up roi_pool5
I0303 16:54:03.048841 23022 net.cpp:157] Top shape: 1 512 6 6 (18432)
I0303 16:54:03.048848 23022 net.cpp:165] Memory required for data: 2271560468
I0303 16:54:03.048856 23022 layer_factory.hpp:77] Creating layer fc6
I0303 16:54:03.048869 23022 net.cpp:100] Creating Layer fc6
I0303 16:54:03.048877 23022 net.cpp:434] fc6 <- pool5
I0303 16:54:03.048887 23022 net.cpp:408] fc6 -> fc6
I0303 16:54:03.308331 23022 net.cpp:150] Setting up fc6
I0303 16:54:03.308404 23022 net.cpp:157] Top shape: 1 4096 (4096)
I0303 16:54:03.308409 23022 net.cpp:165] Memory required for data: 2271576852
I0303 16:54:03.308423 23022 net.cpp:493] Sharing parameters 'fc6_w' owned by layer 'fc6_readonly', param index 0
I0303 16:54:03.308432 23022 net.cpp:493] Sharing parameters 'fc6_b' owned by layer 'fc6_readonly', param index 1
I0303 16:54:03.308439 23022 layer_factory.hpp:77] Creating layer relu6
I0303 16:54:03.308456 23022 net.cpp:100] Creating Layer relu6
I0303 16:54:03.308465 23022 net.cpp:434] relu6 <- fc6
I0303 16:54:03.308475 23022 net.cpp:395] relu6 -> fc6 (in-place)
I0303 16:54:03.308881 23022 net.cpp:150] Setting up relu6
I0303 16:54:03.308893 23022 net.cpp:157] Top shape: 1 4096 (4096)
I0303 16:54:03.308897 23022 net.cpp:165] Memory required for data: 2271593236
I0303 16:54:03.308902 23022 layer_factory.hpp:77] Creating layer drop6
I0303 16:54:03.308912 23022 net.cpp:100] Creating Layer drop6
I0303 16:54:03.308917 23022 net.cpp:434] drop6 <- fc6
I0303 16:54:03.308926 23022 net.cpp:395] drop6 -> fc6 (in-place)
I0303 16:54:03.309000 23022 net.cpp:150] Setting up drop6
I0303 16:54:03.309008 23022 net.cpp:157] Top shape: 1 4096 (4096)
I0303 16:54:03.309012 23022 net.cpp:165] Memory required for data: 2271609620
I0303 16:54:03.309017 23022 layer_factory.hpp:77] Creating layer fc7
I0303 16:54:03.309029 23022 net.cpp:100] Creating Layer fc7
I0303 16:54:03.309034 23022 net.cpp:434] fc7 <- fc6
I0303 16:54:03.309041 23022 net.cpp:408] fc7 -> fc7
I0303 16:54:03.375836 23022 net.cpp:150] Setting up fc7
I0303 16:54:03.375917 23022 net.cpp:157] Top shape: 1 4096 (4096)
I0303 16:54:03.375926 23022 net.cpp:165] Memory required for data: 2271626004
I0303 16:54:03.375937 23022 net.cpp:493] Sharing parameters 'fc7_w' owned by layer 'fc7_readonly', param index 0
I0303 16:54:03.375948 23022 net.cpp:493] Sharing parameters 'fc7_b' owned by layer 'fc7_readonly', param index 1
I0303 16:54:03.375957 23022 layer_factory.hpp:77] Creating layer relu7
I0303 16:54:03.375972 23022 net.cpp:100] Creating Layer relu7
I0303 16:54:03.375982 23022 net.cpp:434] relu7 <- fc7
I0303 16:54:03.375995 23022 net.cpp:395] relu7 -> fc7 (in-place)
I0303 16:54:03.376992 23022 net.cpp:150] Setting up relu7
I0303 16:54:03.377012 23022 net.cpp:157] Top shape: 1 4096 (4096)
I0303 16:54:03.377018 23022 net.cpp:165] Memory required for data: 2271642388
I0303 16:54:03.377025 23022 layer_factory.hpp:77] Creating layer drop7
I0303 16:54:03.377038 23022 net.cpp:100] Creating Layer drop7
I0303 16:54:03.377046 23022 net.cpp:434] drop7 <- fc7
I0303 16:54:03.377058 23022 net.cpp:395] drop7 -> fc7 (in-place)
I0303 16:54:03.377140 23022 net.cpp:150] Setting up drop7
I0303 16:54:03.377151 23022 net.cpp:157] Top shape: 1 4096 (4096)
I0303 16:54:03.377157 23022 net.cpp:165] Memory required for data: 2271658772
I0303 16:54:03.377163 23022 layer_factory.hpp:77] Creating layer fc7_drop7_0_split
I0303 16:54:03.377174 23022 net.cpp:100] Creating Layer fc7_drop7_0_split
I0303 16:54:03.377180 23022 net.cpp:434] fc7_drop7_0_split <- fc7
I0303 16:54:03.377192 23022 net.cpp:408] fc7_drop7_0_split -> fc7_drop7_0_split_0
I0303 16:54:03.377207 23022 net.cpp:408] fc7_drop7_0_split -> fc7_drop7_0_split_1
I0303 16:54:03.377334 23022 net.cpp:150] Setting up fc7_drop7_0_split
I0303 16:54:03.377346 23022 net.cpp:157] Top shape: 1 4096 (4096)
I0303 16:54:03.377352 23022 net.cpp:157] Top shape: 1 4096 (4096)
I0303 16:54:03.377357 23022 net.cpp:165] Memory required for data: 2271691540
I0303 16:54:03.377364 23022 layer_factory.hpp:77] Creating layer full1_cls_score
I0303 16:54:03.377382 23022 net.cpp:100] Creating Layer full1_cls_score
I0303 16:54:03.377389 23022 net.cpp:434] full1_cls_score <- fc7_drop7_0_split_0
I0303 16:54:03.377403 23022 net.cpp:408] full1_cls_score -> cls_score
I0303 16:54:03.377915 23022 net.cpp:150] Setting up full1_cls_score
I0303 16:54:03.377928 23022 net.cpp:157] Top shape: 1 2 (2)
I0303 16:54:03.377934 23022 net.cpp:165] Memory required for data: 2271691548
I0303 16:54:03.377943 23022 net.cpp:493] Sharing parameters 'cls_score_w' owned by layer 'cls_score_readonly', param index 0
I0303 16:54:03.377952 23022 net.cpp:493] Sharing parameters 'cls_score_b' owned by layer 'cls_score_readonly', param index 1
I0303 16:54:03.377960 23022 layer_factory.hpp:77] Creating layer sjtuOhem_cg_bbox_pred
I0303 16:54:03.377971 23022 net.cpp:100] Creating Layer sjtuOhem_cg_bbox_pred
I0303 16:54:03.377979 23022 net.cpp:434] sjtuOhem_cg_bbox_pred <- fc7_drop7_0_split_1
I0303 16:54:03.377992 23022 net.cpp:408] sjtuOhem_cg_bbox_pred -> bbox_pred
I0303 16:54:03.379034 23022 net.cpp:150] Setting up sjtuOhem_cg_bbox_pred
I0303 16:54:03.379047 23022 net.cpp:157] Top shape: 1 8 (8)
I0303 16:54:03.379052 23022 net.cpp:165] Memory required for data: 2271691580
I0303 16:54:03.379060 23022 net.cpp:493] Sharing parameters 'bbox_pred_w' owned by layer 'bbox_pred_readonly', param index 0
I0303 16:54:03.379068 23022 net.cpp:493] Sharing parameters 'bbox_pred_b' owned by layer 'bbox_pred_readonly', param index 1
I0303 16:54:03.379075 23022 layer_factory.hpp:77] Creating layer loss_cls
…
