…
snapshot_prefix: "zf_faster_rcnn"
average_loss: 100
iter_size: 2
I0315 18:48:54.586892  1399 solver.cpp:81] Creating training net from train_net file: models/pvanet/full7_ohem_softmax/original.pt
I0315 18:48:54.590730  1399 net.cpp:58] Initializing net from parameters: 
name: "PVANET"
state {
  phase: TRAIN
}
layer {
  name: "input-data"
  type: "Python"
  top: "data"
  top: "im_info"
  top: "gt_boxes"
  top: "label"
  python_param {
    module: "roi_data_layer.layer"
    layer: "RoISoftmaxDataLayer"
    param_str: "\'num_classes\': 8"
  }
}
layer {
  name: "conv1_1/conv"
  type: "Convolution"
  bottom: "data"
  top: "conv1_1/conv"
  param {
    lr_mult: 0
    decay_mult: 0.1
  }
  convolution_param {
    num_output: 16
    bias_term: false
    weight_filler {
      type: "xavier"
    }
    pad_h: 3
    pad_w: 3
    kernel_h: 7
    kernel_w: 7
    stride_h: 2
    stride_w: 2
  }
}
layer {
  name: "conv1_1/bn"
  type: "BatchNorm"
  bottom: "conv1_1/conv"
  top: "conv1_1/conv"
  param {
    lr_mult: 0
    decay_mult: 0
  }
  param {
    lr_mult: 0
    decay_mult: 0
  }
  param {
    lr_mult: 0
    decay_mult: 0
  }
  batch_norm_param {
    use_global_stats: true
  }
}
layer {
  name: "conv1_1/neg"
  type: "Power"
  bottom: "conv1_1/conv"
  top: "conv1_1/neg"
  power_param {
    power: 1
    scale: -1
    shift: 0
  }
}
layer {
  name: "conv1_1/concat"
  type: "Concat"
  bottom: "conv1_1/conv"
  bottom: "conv1_1/neg"
  top: "conv1_1"
}
layer {
  name: "conv1_1/scale"
  type: "Scale"
  bottom: "conv1_1"
  top: "conv1_1"
  param {
    lr_mult: 0
    decay_mult: 0
  }
  param {
    lr_mult: 0
    decay_mult: 0
  }
  scale_param {
    bias_term: true
  }
}
layer {
  name: "conv1_1/relu"
  type: "ReLU"
  bottom: "conv1_1"
  top: "conv1_1"
}
layer {
  name: "pool1"
  type: "Pooling"
  bottom: "conv1_1"
  top: "pool1"
  pooling_param {
    pool: MAX
    kernel_size: 3
    stride: 2
    pad: 0
  }
}
layer {
  name: "conv2_1/1/conv"
  type: "Convolution"
  bottom: "pool1"
  top: "conv2_1/1"
  param {
    lr_mult: 0
    decay_mult: 0.1
  }
  convolution_param {
    num_output: 24
    bias_term: false
    weight_filler {
      type: "xavier"
    }
    pad_h: 0
    pad_w: 0
    kernel_h: 1
    kernel_w: 1
    stride_h: 1
    stride_w: 1
  }
}
layer {
  name: "conv2_1/1/bn"
  type: "BatchNorm"
  bottom: "conv2_1/1"
  top: "conv2_1/1"
  param {
    lr_mult: 0
    decay_mult: 0
  }
  param {
    lr_mult: 0
    decay_mult: 0
  }
  param {
    lr_mult: 0
    decay_mult: 0
  }
  batch_norm_param {
    use_global_stats: true
  }
}
layer {
  name: "conv2_1/1/bn_scale"
  type: "Scale"
  bottom: "conv2_1/1"
  top: "conv2_1/1"
  param {
    lr_mult: 0
    decay_mult: 0
  }
  param {
    lr_mult: 0
    decay_mult: 0
  }
  scale_param {
    bias_term: true
  }
}
layer {
  name: "conv2_1/1/relu"
  type: "ReLU"
  bottom: "conv2_1/1"
  top: "conv2_1/1"
}
layer {
  name: "conv2_1/2/conv"
  type: "Convolution"
  bottom: "conv2_1/1"
  top: "conv2_1/2/conv"
  param {
    lr_mult: 0
    decay_mult: 0.1
  }
  convolution_param {
    num_output: 24
    bias_term: false
    weight_filler {
      type: "xavier"
    }
    pad_h: 1
    pad_w: 1
    kernel_h: 3
    kernel_w: 3
    stride_h: 1
    stride_w: 1
  }
}
layer {
  name: "conv2_1/2/bn"
  type: "BatchNorm"
  bottom: "conv2_1/2/conv"
  top: "conv2_1/2/conv"
  param {
    lr_mult: 0
    decay_mult: 0
  }
  param {
    lr_mult: 0
    decay_mult: 0
  }
  param {
    lr_mult: 0
    decay_mult: 0
  }
  batch_norm_param {
    use_global_stats: true
  }
}
layer {
  name: "conv2_1/2/neg"
  type: "Power"
  bottom: "conv2_1/2/conv"
  top: "conv2_1/2/neg"
  power_param {
    power: 1
    scale: -1
    shift: 0
  }
}
layer {
  name: "conv2_1/2/concat"
  type: "Concat"
  bottom: "conv2_1/2/conv"
  bottom: "conv2_1/2/neg"
  top: "conv2_1/2"
}
layer {
  name: "conv2_1/2/scale"
  type: "Scale"
  bottom: "conv2_1/2"
  top: "conv2_1/2"
  param {
    lr_mult: 0
    decay_mult: 0
  }
  param {
    lr_mult: 0
    decay_mult: 0
  }
  scale_param {
    bias_term: true
  }
}
layer {
  name: "conv2_1/2/relu"
  type: "ReLU"
  bottom: "conv2_1/2"
  top: "conv2_1/2"
}
layer {
  name: "conv2_1/3/conv"
  type: "Convolution"
  bottom: "conv2_1/2"
  top: "conv2_1/3"
  param {
    lr_mult: 0
    decay_mult: 0.1
  }
  convolution_param {
    num_output: 64
    bias_term: false
    weight_filler {
      type: "xavier"
    }
    pad_h: 0
    pad_w: 0
    kernel_h: 1
    kernel_w: 1
    stride_h: 1
    stride_w: 1
  }
}
layer {
  name: "conv2_1/3/bn"
  type: "BatchNorm"
  bottom: "conv2_1/3"
  top: "conv2_1/3"
  param {
    lr_mult: 0
    decay_mult: 0
  }
  param {
    lr_mult: 0
    decay_mult: 0
  }
  param {
    lr_mult: 0
    decay_mult: 0
  }
  batch_norm_param {
    use_global_stats: true
  }
}
layer {
  name: "conv2_1/3/bn_scale"
  type: "Scale"
  bottom: "conv2_1/3"
  top: "conv2_1/3"
  param {
    lr_mult: 0
    decay_mult: 0
  }
  param {
    lr_mult: 0
    decay_mult: 0
  }
  scale_param {
    bias_term: true
  }
}
layer {
  name: "conv2_1/proj"
  type: "Convolution"
  bottom: "pool1"
  top: "conv2_1/proj"
  param {
    lr_mult: 0
    decay_mult: 0.1
  }
  param {
    lr_mult: 0
    decay_mult: 0
  }
  convolution_param {
    num_output: 64
    weight_filler {
      type: "xavier"
    }
    bias_filler {
      type: "constant"
      value: 0.1
    }
    pad_h: 0
    pad_w: 0
    kernel_h: 1
    kernel_w: 1
    stride_h: 1
    stride_w: 1
  }
}
layer {
  name: "conv2_1/proj_bn"
  type: "BatchNorm"
  bottom: "conv2_1/proj"
  top: "conv2_1/proj"
  param {
    lr_mult: 0
    decay_mult: 0
  }
  param {
    lr_mult: 0
    decay_mult: 0
  }
  param {
    lr_mult: 0
    decay_mult: 0
  }
  batch_norm_param {
    use_global_stats: true
  }
}
layer {
  name: "conv2_1/proj_bn_scale"
  type: "Scale"
  bottom: "conv2_1/proj"
  top: "conv2_1/proj"
  param {
    lr_mult: 0
    decay_mult: 0
  }
  param {
    lr_mult: 0
    decay_mult: 0
  }
  scale_param {
    bias_term: true
  }
}
layer {
  name: "conv2_1"
  type: "Eltwise"
  bottom: "conv2_1/3"
  bottom: "conv2_1/proj"
  top: "conv2_1"
  eltwise_param {
    operation: SUM
    coeff: 1
    coeff: 1
  }
}
layer {
  name: "conv2_2/1/conv"
  type: "Convolution"
  bottom: "conv2_1"
  top: "conv2_2/1"
  param {
    lr_mult: 0
    decay_mult: 0.1
  }
  convolution_param {
    num_output: 24
    bias_term: false
    weight_filler {
      type: "xavier"
    }
    pad_h: 0
    pad_w: 0
    kernel_h: 1
    kernel_w: 1
    stride_h: 1
    stride_w: 1
  }
}
layer {
  name: "conv2_2/1/bn"
  type: "BatchNorm"
  bottom: "conv2_2/1"
  top: "conv2_2/1"
  param {
    lr_mult: 0
    decay_mult: 0
  }
  param {
    lr_mult: 0
    decay_mult: 0
  }
  param {
    lr_mult: 0
    decay_mult: 0
  }
  batch_norm_param {
    use_global_stats: true
  }
}
layer {
  name: "conv2_2/1/bn_scale"
  type: "Scale"
  bottom: "conv2_2/1"
  top: "conv2_2/1"
  param {
    lr_mult: 0
    decay_mult: 0
  }
  param {
    lr_mult: 0
    decay_mult: 0
  }
  scale_param {
    bias_term: true
  }
}
layer {
  name: "conv2_2/1/relu"
  type: "ReLU"
  bottom: "conv2_2/1"
  top: "conv2_2/1"
}
layer {
  name: "conv2_2/2/conv"
  type: "Convolution"
  bottom: "conv2_2/1"
  top: "conv2_2/2/conv"
  param {
    lr_mult: 0
    decay_mult: 0.1
  }
  convolution_param {
    num_output: 24
    bias_term: false
    weight_filler {
      type: "xavier"
    }
    pad_h: 1
    pad_w: 1
    kernel_h: 3
    kernel_w: 3
    stride_h: 1
    stride_w: 1
  }
}
layer {
  name: "conv2_2/2/bn"
  type: "BatchNorm"
  bottom: "conv2_2/2/conv"
  top: "conv2_2/2/conv"
  param {
    lr_mult: 0
    decay_mult: 0
  }
  param {
    lr_mult: 0
    decay_mult: 0
  }
  param {
    lr_mult: 0
    decay_mult: 0
  }
  batch_norm_param {
    use_global_stats: true
  }
}
layer {
  name: "conv2_2/2/neg"
  type: "Power"
  bottom: "conv2_2/2/conv"
  top: "conv2_2/2/neg"
  power_param {
    power: 1
    scale: -1
    shift: 0
  }
}
layer {
  name: "conv2_2/2/concat"
  type: "Concat"
  bottom: "conv2_2/2/conv"
  bottom: "conv2_2/2/neg"
  top: "conv2_2/2"
}
layer {
  name: "conv2_2/2/scale"
  type: "Scale"
  bottom: "conv2_2/2"
  top: "conv2_2/2"
  param {
    lr_mult: 0
    decay_mult: 0
  }
  param {
    lr_mult: 0
    decay_mult: 0
  }
  scale_param {
    bias_term: true
  }
}
layer {
  name: "conv2_2/2/relu"
  type: "ReLU"
  bottom: "conv2_2/2"
  top: "conv2_2/2"
}
layer {
  name: "conv2_2/3/conv"
  type: "Convolution"
  bottom: "conv2_2/2"
  top: "conv2_2/3"
  param {
    lr_mult: 0
    decay_mult: 0.1
  }
  convolution_param {
    num_output: 64
    bias_term: false
    weight_filler {
      type: "xavier"
    }
    pad_h: 0
    pad_w: 0
    kernel_h: 1
    kernel_w: 1
    stride_h: 1
    stride_w: 1
  }
}
layer {
  name: "conv2_2/3/bn"
  type: "BatchNorm"
  bottom: "conv2_2/3"
  top: "conv2_2/3"
  param {
    lr_mult: 0
    decay_mult: 0
  }
  param {
    lr_mult: 0
    decay_mult: 0
  }
  param {
    lr_mult: 0
    decay_mult: 0
  }
  batch_norm_param {
    use_global_stats: true
  }
}
layer {
  name: "conv2_2/3/bn_scale"
  type: "Scale"
  bottom: "conv2_2/3"
  top: "conv2_2/3"
  param {
    lr_mult: 0
    decay_mult: 0
  }
  param {
    lr_mult: 0
    decay_mult: 0
  }
  scale_param {
    bias_term: true
  }
}
layer {
  name: "conv2_2/input"
  type: "Power"
  bottom: "conv2_1"
  top: "conv2_2/input"
  power_param {
    power: 1
    scale: 1
    shift: 0
  }
}
layer {
  name: "conv2_2"
  type: "Eltwise"
  bottom: "conv2_2/3"
  bottom: "conv2_2/input"
  top: "conv2_2"
  eltwise_param {
    operation: SUM
    coeff: 1
    coeff: 1
  }
}
layer {
  name: "conv2_3/1/conv"
  type: "Convolution"
  bottom: "conv2_2"
  top: "conv2_3/1"
  param {
    lr_mult: 0
    decay_mult: 0.1
  }
  convolution_param {
    num_output: 24
    bias_term: false
    weight_filler {
      type: "xavier"
    }
    pad_h: 0
    pad_w: 0
    kernel_h: 1
    kernel_w: 1
    stride_h: 1
    stride_w: 1
  }
}
layer {
  name: "conv2_3/1/bn"
  type: "BatchNorm"
  bottom: "conv2_3/1"
  top: "conv2_3/1"
  param {
    lr_mult: 0
    decay_mult: 0
  }
  param {
    lr_mult: 0
    decay_mult: 0
  }
  param {
    lr_mult: 0
    decay_mult: 0
  }
  batch_norm_param {
    use_global_stats: true
  }
}
layer {
  name: "conv2_3/1/bn_scale"
  type: "Scale"
  bottom: "conv2_3/1"
  top: "conv2_3/1"
  param {
    lr_mult: 0
    decay_mult: 0
  }
  param {
    lr_mult: 0
    decay_mult: 0
  }
  scale_param {
    bias_term: true
  }
}
layer {
  name: "conv2_3/1/relu"
  type: "ReLU"
  bottom: "conv2_3/1"
  top: "conv2_3/1"
}
layer {
  name: "conv2_3/2/conv"
  type: "Convolution"
  bottom: "conv2_3/1"
  top: "conv2_3/2/conv"
  param {
    lr_mult: 0
    decay_mult: 0.1
  }
  convolution_param {
    num_output: 24
    bias_term: false
    weight_filler {
      type: "xavier"
    }
    pad_h: 1
    pad_w: 1
    kernel_h: 3
    kernel_w: 3
    stride_h: 1
    stride_w: 1
  }
}
layer {
  name: "conv2_3/2/bn"
  type: "BatchNorm"
  bottom: "conv2_3/2/conv"
  top: "conv2_3/2/conv"
  param {
    lr_mult: 0
    decay_mult: 0
  }
  param {
    lr_mult: 0
    decay_mult: 0
  }
  param {
    lr_mult: 0
    decay_mult: 0
  }
  batch_norm_param {
    use_global_stats: true
  }
}
layer {
  name: "conv2_3/2/neg"
  type: "Power"
  bottom: "conv2_3/2/conv"
  top: "conv2_3/2/neg"
  power_param {
    power: 1
    scale: -1
    shift: 0
  }
}
layer {
  name: "conv2_3/2/concat"
  type: "Concat"
  bottom: "conv2_3/2/conv"
  bottom: "conv2_3/2/neg"
  top: "conv2_3/2"
}
layer {
  name: "conv2_3/2/scale"
  type: "Scale"
  bottom: "conv2_3/2"
  top: "conv2_3/2"
  param {
    lr_mult: 0
    decay_mult: 0
  }
  param {
    lr_mult: 0
    decay_mult: 0
  }
  scale_param {
    bias_term: true
  }
}
layer {
  name: "conv2_3/2/relu"
  type: "ReLU"
  bottom: "conv2_3/2"
  top: "conv2_3/2"
}
layer {
  name: "conv2_3/3/conv"
  type: "Convolution"
  bottom: "conv2_3/2"
  top: "conv2_3/3"
  param {
    lr_mult: 0
    decay_mult: 0.1
  }
  convolution_param {
    num_output: 64
    bias_term: false
    weight_filler {
      type: "xavier"
    }
    pad_h: 0
    pad_w: 0
    kernel_h: 1
    kernel_w: 1
    stride_h: 1
    stride_w: 1
  }
}
layer {
  name: "conv2_3/3/bn"
  type: "BatchNorm"
  bottom: "conv2_3/3"
  top: "conv2_3/3"
  param {
    lr_mult: 0
    decay_mult: 0
  }
  param {
    lr_mult: 0
    decay_mult: 0
  }
  param {
    lr_mult: 0
    decay_mult: 0
  }
  batch_norm_param {
    use_global_stats: true
  }
}
layer {
  name: "conv2_3/3/bn_scale"
  type: "Scale"
  bottom: "conv2_3/3"
  top: "conv2_3/3"
  param {
    lr_mult: 0
    decay_mult: 0
  }
  param {
    lr_mult: 0
    decay_mult: 0
  }
  scale_param {
    bias_term: true
  }
}
layer {
  name: "conv2_3/input"
  type: "Power"
  bottom: "conv2_2"
  top: "conv2_3/input"
  power_param {
    power: 1
    scale: 1
    shift: 0
  }
}
layer {
  name: "conv2_3"
  type: "Eltwise"
  bottom: "conv2_3/3"
  bottom: "conv2_3/input"
  top: "conv2_3"
  eltwise_param {
    operation: SUM
    coeff: 1
    coeff: 1
  }
}
layer {
  name: "conv3_1/1/conv"
  type: "Convolution"
  bottom: "conv2_3"
  top: "conv3_1/1"
  param {
    lr_mult: 0
    decay_mult: 0.1
  }
  convolution_param {
    num_output: 48
    bias_term: false
    weight_filler {
      type: "xavier"
    }
    pad_h: 0
    pad_w: 0
    kernel_h: 1
    kernel_w: 1
    stride_h: 2
    stride_w: 2
  }
}
layer {
  name: "conv3_1/1/bn"
  type: "BatchNorm"
  bottom: "conv3_1/1"
  top: "conv3_1/1"
  param {
    lr_mult: 0
    decay_mult: 0
  }
  param {
    lr_mult: 0
    decay_mult: 0
  }
  param {
    lr_mult: 0
    decay_mult: 0
  }
  batch_norm_param {
    use_global_stats: true
  }
}
layer {
  name: "conv3_1/1/bn_scale"
  type: "Scale"
  bottom: "conv3_1/1"
  top: "conv3_1/1"
  param {
    lr_mult: 0
    decay_mult: 0
  }
  param {
    lr_mult: 0
    decay_mult: 0
  }
  scale_param {
    bias_term: true
  }
}
layer {
  name: "conv3_1/1/relu"
  type: "ReLU"
  bottom: "conv3_1/1"
  top: "conv3_1/1"
}
layer {
  name: "conv3_1/2/conv"
  type: "Convolution"
  bottom: "conv3_1/1"
  top: "conv3_1/2/conv"
  param {
    lr_mult: 0
    decay_mult: 0.1
  }
  convolution_param {
    num_output: 48
    bias_term: false
    weight_filler {
      type: "xavier"
    }
    pad_h: 1
    pad_w: 1
    kernel_h: 3
    kernel_w: 3
    stride_h: 1
    stride_w: 1
  }
}
layer {
  name: "conv3_1/2/bn"
  type: "BatchNorm"
  bottom: "conv3_1/2/conv"
  top: "conv3_1/2/conv"
  param {
    lr_mult: 0
    decay_mult: 0
  }
  param {
    lr_mult: 0
    decay_mult: 0
  }
  param {
    lr_mult: 0
    decay_mult: 0
  }
  batch_norm_param {
    use_global_stats: true
  }
}
layer {
  name: "conv3_1/2/neg"
  type: "Power"
  bottom: "conv3_1/2/conv"
  top: "conv3_1/2/neg"
  power_param {
    power: 1
    scale: -1
    shift: 0
  }
}
layer {
  name: "conv3_1/2/concat"
  type: "Concat"
  bottom: "conv3_1/2/conv"
  bottom: "conv3_1/2/neg"
  top: "conv3_1/2"
}
layer {
  name: "conv3_1/2/scale"
  type: "Scale"
  bottom: "conv3_1/2"
  top: "conv3_1/2"
  param {
    lr_mult: 0
    decay_mult: 0
  }
  param {
    lr_mult: 0
    decay_mult: 0
  }
  scale_param {
    bias_term: true
  }
}
layer {
  name: "conv3_1/2/relu"
  type: "ReLU"
  bottom: "conv3_1/2"
  top: "conv3_1/2"
}
layer {
  name: "conv3_1/3/conv"
  type: "Convolution"
  bottom: "conv3_1/2"
  top: "conv3_1/3"
  param {
    lr_mult: 0
    decay_mult: 0.1
  }
  convolution_param {
    num_output: 128
    bias_term: false
    weight_filler {
      type: "xavier"
    }
    pad_h: 0
    pad_w: 0
    kernel_h: 1
    kernel_w: 1
    stride_h: 1
    stride_w: 1
  }
}
layer {
  name: "conv3_1/3/bn"
  type: "BatchNorm"
  bottom: "conv3_1/3"
  top: "conv3_1/3"
  param {
    lr_mult: 0
    decay_mult: 0
  }
  param {
    lr_mult: 0
    decay_mult: 0
  }
  param {
    lr_mult: 0
    decay_mult: 0
  }
  batch_norm_param {
    use_global_stats: true
  }
}
layer {
  name: "conv3_1/3/bn_scale"
  type: "Scale"
  bottom: "conv3_1/3"
  top: "conv3_1/3"
  param {
    lr_mult: 0
    decay_mult: 0
  }
  param {
    lr_mult: 0
    decay_mult: 0
  }
  scale_param {
    bias_term: true
  }
}
layer {
  name: "conv3_1/proj"
  type: "Convolution"
  bottom: "conv2_3"
  top: "conv3_1/proj"
  param {
    lr_mult: 0
    decay_mult: 0.1
  }
  param {
    lr_mult: 0
    decay_mult: 0
  }
  convolution_param {
    num_output: 128
    weight_filler {
      type: "xavier"
    }
    bias_filler {
      type: "constant"
      value: 0.1
    }
    pad_h: 0
    pad_w: 0
    kernel_h: 1
    kernel_w: 1
    stride_h: 2
    stride_w: 2
  }
}
layer {
  name: "conv3_1/proj_bn"
  type: "BatchNorm"
  bottom: "conv3_1/proj"
  top: "conv3_1/proj"
  param {
    lr_mult: 0
    decay_mult: 0
  }
  param {
    lr_mult: 0
    decay_mult: 0
  }
  param {
    lr_mult: 0
    decay_mult: 0
  }
  batch_norm_param {
    use_global_stats: true
  }
}
layer {
  name: "conv3_1/proj_bn_scale"
  type: "Scale"
  bottom: "conv3_1/proj"
  top: "conv3_1/proj"
  param {
    lr_mult: 0
    decay_mult: 0
  }
  param {
    lr_mult: 0
    decay_mult: 0
  }
  scale_param {
    bias_term: true
  }
}
layer {
  name: "conv3_1"
  type: "Eltwise"
  bottom: "conv3_1/3"
  bottom: "conv3_1/proj"
  top: "conv3_1"
  eltwise_param {
    operation: SUM
    coeff: 1
    coeff: 1
  }
}
layer {
  name: "conv3_2/1/conv"
  type: "Convolution"
  bottom: "conv3_1"
  top: "conv3_2/1"
  param {
    lr_mult: 0
    decay_mult: 0.1
  }
  convolution_param {
    num_output: 48
    bias_term: false
    weight_filler {
      type: "xavier"
    }
    pad_h: 0
    pad_w: 0
    kernel_h: 1
    kernel_w: 1
    stride_h: 1
    stride_w: 1
  }
}
layer {
  name: "conv3_2/1/bn"
  type: "BatchNorm"
  bottom: "conv3_2/1"
  top: "conv3_2/1"
  param {
    lr_mult: 0
    decay_mult: 0
  }
  param {
    lr_mult: 0
    decay_mult: 0
  }
  param {
    lr_mult: 0
    decay_mult: 0
  }
  batch_norm_param {
    use_global_stats: true
  }
}
layer {
  name: "conv3_2/1/bn_scale"
  type: "Scale"
  bottom: "conv3_2/1"
  top: "conv3_2/1"
  param {
    lr_mult: 0
    decay_mult: 0
  }
  param {
    lr_mult: 0
    decay_mult: 0
  }
  scale_param {
    bias_term: true
  }
}
layer {
  name: "conv3_2/1/relu"
  type: "ReLU"
  bottom: "conv3_2/1"
  top: "conv3_2/1"
}
layer {
  name: "conv3_2/2/conv"
  type: "Convolution"
  bottom: "conv3_2/1"
  top: "conv3_2/2/conv"
  param {
    lr_mult: 0
    decay_mult: 0.1
  }
  convolution_param {
    num_output: 48
    bias_term: false
    weight_filler {
      type: "xavier"
    }
    pad_h: 1
    pad_w: 1
    kernel_h: 3
    kernel_w: 3
    stride_h: 1
    stride_w: 1
  }
}
layer {
  name: "conv3_2/2/bn"
  type: "BatchNorm"
  bottom: "conv3_2/2/conv"
  top: "conv3_2/2/conv"
  param {
    lr_mult: 0
    decay_mult: 0
  }
  param {
    lr_mult: 0
    decay_mult: 0
  }
  param {
    lr_mult: 0
    decay_mult: 0
  }
  batch_norm_param {
    use_global_stats: true
  }
}
layer {
  name: "conv3_2/2/neg"
  type: "Power"
  bottom: "conv3_2/2/conv"
  top: "conv3_2/2/neg"
  power_param {
    power: 1
    scale: -1
    shift: 0
  }
}
layer {
  name: "conv3_2/2/concat"
  type: "Concat"
  bottom: "conv3_2/2/conv"
  bottom: "conv3_2/2/neg"
  top: "conv3_2/2"
}
layer {
  name: "conv3_2/2/scale"
  type: "Scale"
  bottom: "conv3_2/2"
  top: "conv3_2/2"
  param {
    lr_mult: 0
    decay_mult: 0
  }
  param {
    lr_mult: 0
    decay_mult: 0
  }
  scale_param {
    bias_term: true
  }
}
layer {
  name: "conv3_2/2/relu"
  type: "ReLU"
  bottom: "conv3_2/2"
  top: "conv3_2/2"
}
layer {
  name: "conv3_2/3/conv"
  type: "Convolution"
  bottom: "conv3_2/2"
  top: "conv3_2/3"
  param {
    lr_mult: 0
    decay_mult: 0.1
  }
  convolution_param {
    num_output: 128
    bias_term: false
    weight_filler {
      type: "xavier"
    }
    pad_h: 0
    pad_w: 0
    kernel_h: 1
    kernel_w: 1
    stride_h: 1
    stride_w: 1
  }
}
layer {
  name: "conv3_2/3/bn"
  type: "BatchNorm"
  bottom: "conv3_2/3"
  top: "conv3_2/3"
  param {
    lr_mult: 0
    decay_mult: 0
  }
  param {
    lr_mult: 0
    decay_mult: 0
  }
  param {
    lr_mult: 0
    decay_mult: 0
  }
  batch_norm_param {
    use_global_stats: true
  }
}
layer {
  name: "conv3_2/3/bn_scale"
  type: "Scale"
  bottom: "conv3_2/3"
  top: "conv3_2/3"
  param {
    lr_mult: 0
    decay_mult: 0
  }
  param {
    lr_mult: 0
    decay_mult: 0
  }
  scale_param {
    bias_term: true
  }
}
layer {
  name: "conv3_2/input"
  type: "Power"
  bottom: "conv3_1"
  top: "conv3_2/input"
  power_param {
    power: 1
    scale: 1
    shift: 0
  }
}
layer {
  name: "conv3_2"
  type: "Eltwise"
  bottom: "conv3_2/3"
  bottom: "conv3_2/input"
  top: "conv3_2"
  eltwise_param {
    operation: SUM
    coeff: 1
    coeff: 1
  }
}
layer {
  name: "conv3_3/1/conv"
  type: "Convolution"
  bottom: "conv3_2"
  top: "conv3_3/1"
  param {
    lr_mult: 0
    decay_mult: 0.1
  }
  convolution_param {
    num_output: 48
    bias_term: false
    weight_filler {
      type: "xavier"
    }
    pad_h: 0
    pad_w: 0
    kernel_h: 1
    kernel_w: 1
    stride_h: 1
    stride_w: 1
  }
}
layer {
  name: "conv3_3/1/bn"
  type: "BatchNorm"
  bottom: "conv3_3/1"
  top: "conv3_3/1"
  param {
    lr_mult: 0
    decay_mult: 0
  }
  param {
    lr_mult: 0
    decay_mult: 0
  }
  param {
    lr_mult: 0
    decay_mult: 0
  }
  batch_norm_param {
    use_global_stats: true
  }
}
layer {
  name: "conv3_3/1/bn_scale"
  type: "Scale"
  bottom: "conv3_3/1"
  top: "conv3_3/1"
  param {
    lr_mult: 0
    decay_mult: 0
  }
  param {
    lr_mult: 0
    decay_mult: 0
  }
  scale_param {
    bias_term: true
  }
}
layer {
  name: "conv3_3/1/relu"
  type: "ReLU"
  bottom: "conv3_3/1"
  top: "conv3_3/1"
}
layer {
  name: "conv3_3/2/conv"
  type: "Convolution"
  bottom: "conv3_3/1"
  top: "conv3_3/2/conv"
  param {
    lr_mult: 0
    decay_mult: 0.1
  }
  convolution_param {
    num_output: 48
    bias_term: false
    weight_filler {
      type: "xavier"
    }
    pad_h: 1
    pad_w: 1
    kernel_h: 3
    kernel_w: 3
    stride_h: 1
    stride_w: 1
  }
}
layer {
  name: "conv3_3/2/bn"
  type: "BatchNorm"
  bottom: "conv3_3/2/conv"
  top: "conv3_3/2/conv"
  param {
    lr_mult: 0
    decay_mult: 0
  }
  param {
    lr_mult: 0
    decay_mult: 0
  }
  param {
    lr_mult: 0
    decay_mult: 0
  }
  batch_norm_param {
    use_global_stats: true
  }
}
layer {
  name: "conv3_3/2/neg"
  type: "Power"
  bottom: "conv3_3/2/conv"
  top: "conv3_3/2/neg"
  power_param {
    power: 1
    scale: -1
    shift: 0
  }
}
layer {
  name: "conv3_3/2/concat"
  type: "Concat"
  bottom: "conv3_3/2/conv"
  bottom: "conv3_3/2/neg"
  top: "conv3_3/2"
}
layer {
  name: "conv3_3/2/scale"
  type: "Scale"
  bottom: "conv3_3/2"
  top: "conv3_3/2"
  param {
    lr_mult: 0
    decay_mult: 0
  }
  param {
    lr_mult: 0
    decay_mult: 0
  }
  scale_param {
    bias_term: true
  }
}
layer {
  name: "conv3_3/2/relu"
  type: "ReLU"
  bottom: "conv3_3/2"
  top: "conv3_3/2"
}
layer {
  name: "conv3_3/3/conv"
  type: "Convolution"
  bottom: "conv3_3/2"
  top: "conv3_3/3"
  param {
    lr_mult: 0
    decay_mult: 0.1
  }
  convolution_param {
    num_output: 128
    bias_term: false
    weight_filler {
      type: "xavier"
    }
    pad_h: 0
    pad_w: 0
    kernel_h: 1
    kernel_w: 1
    stride_h: 1
    stride_w: 1
  }
}
layer {
  name: "conv3_3/3/bn"
  type: "BatchNorm"
  bottom: "conv3_3/3"
  top: "conv3_3/3"
  param {
    lr_mult: 0
    decay_mult: 0
  }
  param {
    lr_mult: 0
    decay_mult: 0
  }
  param {
    lr_mult: 0
    decay_mult: 0
  }
  batch_norm_param {
    use_global_stats: true
  }
}
layer {
  name: "conv3_3/3/bn_scale"
  type: "Scale"
  bottom: "conv3_3/3"
  top: "conv3_3/3"
  param {
    lr_mult: 0
    decay_mult: 0
  }
  param {
    lr_mult: 0
    decay_mult: 0
  }
  scale_param {
    bias_term: true
  }
}
layer {
  name: "conv3_3/input"
  type: "Power"
  bottom: "conv3_2"
  top: "conv3_3/input"
  power_param {
    power: 1
    scale: 1
    shift: 0
  }
}
layer {
  name: "conv3_3"
  type: "Eltwise"
  bottom: "conv3_3/3"
  bottom: "conv3_3/input"
  top: "conv3_3"
  eltwise_param {
    operation: SUM
    coeff: 1
    coeff: 1
  }
}
layer {
  name: "conv3_4/1/conv"
  type: "Convolution"
  bottom: "conv3_3"
  top: "conv3_4/1"
  param {
    lr_mult: 0
    decay_mult: 0.1
  }
  convolution_param {
    num_output: 48
    bias_term: false
    weight_filler {
      type: "xavier"
    }
    pad_h: 0
    pad_w: 0
    kernel_h: 1
    kernel_w: 1
    stride_h: 1
    stride_w: 1
  }
}
layer {
  name: "conv3_4/1/bn"
  type: "BatchNorm"
  bottom: "conv3_4/1"
  top: "conv3_4/1"
  param {
    lr_mult: 0
    decay_mult: 0
  }
  param {
    lr_mult: 0
    decay_mult: 0
  }
  param {
    lr_mult: 0
    decay_mult: 0
  }
  batch_norm_param {
    use_global_stats: true
  }
}
layer {
  name: "conv3_4/1/bn_scale"
  type: "Scale"
  bottom: "conv3_4/1"
  top: "conv3_4/1"
  param {
    lr_mult: 0
    decay_mult: 0
  }
  param {
    lr_mult: 0
    decay_mult: 0
  }
  scale_param {
    bias_term: true
  }
}
layer {
  name: "conv3_4/1/relu"
  type: "ReLU"
  bottom: "conv3_4/1"
  top: "conv3_4/1"
}
layer {
  name: "conv3_4/2/conv"
  type: "Convolution"
  bottom: "conv3_4/1"
  top: "conv3_4/2/conv"
  param {
    lr_mult: 0
    decay_mult: 0.1
  }
  convolution_param {
    num_output: 48
    bias_term: false
    weight_filler {
      type: "xavier"
    }
    pad_h: 1
    pad_w: 1
    kernel_h: 3
    kernel_w: 3
    stride_h: 1
    stride_w: 1
  }
}
layer {
  name: "conv3_4/2/bn"
  type: "BatchNorm"
  bottom: "conv3_4/2/conv"
  top: "conv3_4/2/conv"
  param {
    lr_mult: 0
    decay_mult: 0
  }
  param {
    lr_mult: 0
    decay_mult: 0
  }
  param {
    lr_mult: 0
    decay_mult: 0
  }
  batch_norm_param {
    use_global_stats: true
  }
}
layer {
  name: "conv3_4/2/neg"
  type: "Power"
  bottom: "conv3_4/2/conv"
  top: "conv3_4/2/neg"
  power_param {
    power: 1
    scale: -1
    shift: 0
  }
}
layer {
  name: "conv3_4/2/concat"
  type: "Concat"
  bottom: "conv3_4/2/conv"
  bottom: "conv3_4/2/neg"
  top: "conv3_4/2"
}
layer {
  name: "conv3_4/2/scale"
  type: "Scale"
  bottom: "conv3_4/2"
  top: "conv3_4/2"
  param {
    lr_mult: 0
    decay_mult: 0
  }
  param {
    lr_mult: 0
    decay_mult: 0
  }
  scale_param {
    bias_term: true
  }
}
layer {
  name: "conv3_4/2/relu"
  type: "ReLU"
  bottom: "conv3_4/2"
  top: "conv3_4/2"
}
layer {
  name: "conv3_4/3/conv"
  type: "Convolution"
  bottom: "conv3_4/2"
  top: "conv3_4/3"
  param {
    lr_mult: 0
    decay_mult: 0.1
  }
  convolution_param {
    num_output: 128
    bias_term: false
    weight_filler {
      type: "xavier"
    }
    pad_h: 0
    pad_w: 0
    kernel_h: 1
    kernel_w: 1
    stride_h: 1
    stride_w: 1
  }
}
layer {
  name: "conv3_4/3/bn"
  type: "BatchNorm"
  bottom: "conv3_4/3"
  top: "conv3_4/3"
  param {
    lr_mult: 0
    decay_mult: 0
  }
  param {
    lr_mult: 0
    decay_mult: 0
  }
  param {
    lr_mult: 0
    decay_mult: 0
  }
  batch_norm_param {
    use_global_stats: true
  }
}
layer {
  name: "conv3_4/3/bn_scale"
  type: "Scale"
  bottom: "conv3_4/3"
  top: "conv3_4/3"
  param {
    lr_mult: 0
    decay_mult: 0
  }
  param {
    lr_mult: 0
    decay_mult: 0
  }
  scale_param {
    bias_term: true
  }
}
layer {
  name: "conv3_4/input"
  type: "Power"
  bottom: "conv3_3"
  top: "conv3_4/input"
  power_param {
    power: 1
    scale: 1
    shift: 0
  }
}
layer {
  name: "conv3_4"
  type: "Eltwise"
  bottom: "conv3_4/3"
  bottom: "conv3_4/input"
  top: "conv3_4"
  eltwise_param {
    operation: SUM
    coeff: 1
    coeff: 1
  }
}
layer {
  name: "conv4_1/incep/0/conv"
  type: "Convolution"
  bottom: "conv3_4"
  top: "conv4_1/incep/0"
  param {
    lr_mult: 0
    decay_mult: 0.1
  }
  convolution_param {
    num_output: 64
    bias_term: false
    weight_filler {
      type: "xavier"
    }
    pad_h: 0
    pad_w: 0
    kernel_h: 1
    kernel_w: 1
    stride_h: 2
    stride_w: 2
  }
}
layer {
  name: "conv4_1/incep/0/bn"
  type: "BatchNorm"
  bottom: "conv4_1/incep/0"
  top: "conv4_1/incep/0"
  param {
    lr_mult: 0
    decay_mult: 0
  }
  param {
    lr_mult: 0
    decay_mult: 0
  }
  param {
    lr_mult: 0
    decay_mult: 0
  }
  batch_norm_param {
    use_global_stats: true
  }
}
layer {
  name: "conv4_1/incep/0/bn_scale"
  type: "Scale"
  bottom: "conv4_1/incep/0"
  top: "conv4_1/incep/0"
  param {
    lr_mult: 0
    decay_mult: 0
  }
  param {
    lr_mult: 0
    decay_mult: 0
  }
  scale_param {
    bias_term: true
  }
}
layer {
  name: "conv4_1/incep/0/relu"
  type: "ReLU"
  bottom: "conv4_1/incep/0"
  top: "conv4_1/incep/0"
}
layer {
  name: "conv4_1/incep/1_reduce/conv"
  type: "Convolution"
  bottom: "conv3_4"
  top: "conv4_1/incep/1_reduce"
  param {
    lr_mult: 0
    decay_mult: 0.1
  }
  convolution_param {
    num_output: 48
    bias_term: false
    weight_filler {
      type: "xavier"
    }
    pad_h: 0
    pad_w: 0
    kernel_h: 1
    kernel_w: 1
    stride_h: 2
    stride_w: 2
  }
}
layer {
  name: "conv4_1/incep/1_reduce/bn"
  type: "BatchNorm"
  bottom: "conv4_1/incep/1_reduce"
  top: "conv4_1/incep/1_reduce"
  param {
    lr_mult: 0
    decay_mult: 0
  }
  param {
    lr_mult: 0
    decay_mult: 0
  }
  param {
    lr_mult: 0
    decay_mult: 0
  }
  batch_norm_param {
    use_global_stats: true
  }
}
layer {
  name: "conv4_1/incep/1_reduce/bn_scale"
  type: "Scale"
  bottom: "conv4_1/incep/1_reduce"
  top: "conv4_1/incep/1_reduce"
  param {
    lr_mult: 0
    decay_mult: 0
  }
  param {
    lr_mult: 0
    decay_mult: 0
  }
  scale_param {
    bias_term: true
  }
}
layer {
  name: "conv4_1/incep/1_reduce/relu"
  type: "ReLU"
  bottom: "conv4_1/incep/1_reduce"
  top: "conv4_1/incep/1_reduce"
}
layer {
  name: "conv4_1/incep/1_0/conv"
  type: "Convolution"
  bottom: "conv4_1/incep/1_reduce"
  top: "conv4_1/incep/1_0"
  param {
    lr_mult: 0
    decay_mult: 0.1
  }
  convolution_param {
    num_output: 128
    bias_term: false
    weight_filler {
      type: "xavier"
    }
    pad_h: 1
    pad_w: 1
    kernel_h: 3
    kernel_w: 3
    stride_h: 1
    stride_w: 1
  }
}
layer {
  name: "conv4_1/incep/1_0/bn"
  type: "BatchNorm"
  bottom: "conv4_1/incep/1_0"
  top: "conv4_1/incep/1_0"
  param {
    lr_mult: 0
    decay_mult: 0
  }
  param {
    lr_mult: 0
    decay_mult: 0
  }
  param {
    lr_mult: 0
    decay_mult: 0
  }
  batch_
I0315 18:48:54.591867  1399 layer_factory.hpp:77] Creating layer input-data
I0315 18:48:54.598295  1399 net.cpp:100] Creating Layer input-data
I0315 18:48:54.598311  1399 net.cpp:408] input-data -> data
I0315 18:48:54.598320  1399 net.cpp:408] input-data -> im_info
I0315 18:48:54.598325  1399 net.cpp:408] input-data -> gt_boxes
I0315 18:48:54.598330  1399 net.cpp:408] input-data -> label
I0315 18:48:54.605499  1399 net.cpp:150] Setting up input-data
I0315 18:48:54.605517  1399 net.cpp:157] Top shape: 1 3 864 1440 (3732480)
I0315 18:48:54.605521  1399 net.cpp:157] Top shape: 1 3 (3)
I0315 18:48:54.605525  1399 net.cpp:157] Top shape: 1 4 (4)
I0315 18:48:54.605527  1399 net.cpp:157] Top shape: 1 1 (1)
I0315 18:48:54.605530  1399 net.cpp:165] Memory required for data: 14929952
I0315 18:48:54.605535  1399 layer_factory.hpp:77] Creating layer data_input-data_0_split
I0315 18:48:54.605541  1399 net.cpp:100] Creating Layer data_input-data_0_split
I0315 18:48:54.605545  1399 net.cpp:434] data_input-data_0_split <- data
I0315 18:48:54.605551  1399 net.cpp:408] data_input-data_0_split -> data_input-data_0_split_0
I0315 18:48:54.605557  1399 net.cpp:408] data_input-data_0_split -> data_input-data_0_split_1
I0315 18:48:54.605582  1399 net.cpp:150] Setting up data_input-data_0_split
I0315 18:48:54.605588  1399 net.cpp:157] Top shape: 1 3 864 1440 (3732480)
I0315 18:48:54.605592  1399 net.cpp:157] Top shape: 1 3 864 1440 (3732480)
I0315 18:48:54.605594  1399 net.cpp:165] Memory required for data: 44789792
I0315 18:48:54.605597  1399 layer_factory.hpp:77] Creating layer im_info_input-data_1_split
I0315 18:48:54.605602  1399 net.cpp:100] Creating Layer im_info_input-data_1_split
I0315 18:48:54.605604  1399 net.cpp:434] im_info_input-data_1_split <- im_info
I0315 18:48:54.605609  1399 net.cpp:408] im_info_input-data_1_split -> im_info_input-data_1_split_0
I0315 18:48:54.605613  1399 net.cpp:408] im_info_input-data_1_split -> im_info_input-data_1_split_1
I0315 18:48:54.605633  1399 net.cpp:150] Setting up im_info_input-data_1_split
I0315 18:48:54.605638  1399 net.cpp:157] Top shape: 1 3 (3)
I0315 18:48:54.605640  1399 net.cpp:157] Top shape: 1 3 (3)
I0315 18:48:54.605643  1399 net.cpp:165] Memory required for data: 44789816
I0315 18:48:54.605644  1399 layer_factory.hpp:77] Creating layer gt_boxes_input-data_2_split
I0315 18:48:54.605654  1399 net.cpp:100] Creating Layer gt_boxes_input-data_2_split
I0315 18:48:54.605657  1399 net.cpp:434] gt_boxes_input-data_2_split <- gt_boxes
I0315 18:48:54.605662  1399 net.cpp:408] gt_boxes_input-data_2_split -> gt_boxes_input-data_2_split_0
I0315 18:48:54.605667  1399 net.cpp:408] gt_boxes_input-data_2_split -> gt_boxes_input-data_2_split_1
I0315 18:48:54.605690  1399 net.cpp:150] Setting up gt_boxes_input-data_2_split
I0315 18:48:54.605695  1399 net.cpp:157] Top shape: 1 4 (4)
I0315 18:48:54.605697  1399 net.cpp:157] Top shape: 1 4 (4)
I0315 18:48:54.605700  1399 net.cpp:165] Memory required for data: 44789848
I0315 18:48:54.605702  1399 layer_factory.hpp:77] Creating layer conv1_1/conv
I0315 18:48:54.605712  1399 net.cpp:100] Creating Layer conv1_1/conv
I0315 18:48:54.605715  1399 net.cpp:434] conv1_1/conv <- data_input-data_0_split_0
I0315 18:48:54.605720  1399 net.cpp:408] conv1_1/conv -> conv1_1/conv
I0315 18:48:54.717502  1399 net.cpp:150] Setting up conv1_1/conv
I0315 18:48:54.717530  1399 net.cpp:157] Top shape: 1 16 432 720 (4976640)
I0315 18:48:54.717533  1399 net.cpp:165] Memory required for data: 64696408
I0315 18:48:54.717545  1399 layer_factory.hpp:77] Creating layer conv1_1/bn
I0315 18:48:54.717555  1399 net.cpp:100] Creating Layer conv1_1/bn
I0315 18:48:54.717559  1399 net.cpp:434] conv1_1/bn <- conv1_1/conv
I0315 18:48:54.717564  1399 net.cpp:395] conv1_1/bn -> conv1_1/conv (in-place)
I0315 18:48:54.718112  1399 net.cpp:150] Setting up conv1_1/bn
I0315 18:48:54.718122  1399 net.cpp:157] Top shape: 1 16 432 720 (4976640)
I0315 18:48:54.718124  1399 net.cpp:165] Memory required for data: 84602968
I0315 18:48:54.718132  1399 layer_factory.hpp:77] Creating layer conv1_1/conv_conv1_1/bn_0_split
I0315 18:48:54.718138  1399 net.cpp:100] Creating Layer conv1_1/conv_conv1_1/bn_0_split
I0315 18:48:54.718142  1399 net.cpp:434] conv1_1/conv_conv1_1/bn_0_split <- conv1_1/conv
I0315 18:48:54.718147  1399 net.cpp:408] conv1_1/conv_conv1_1/bn_0_split -> conv1_1/conv_conv1_1/bn_0_split_0
I0315 18:48:54.718152  1399 net.cpp:408] conv1_1/conv_conv1_1/bn_0_split -> conv1_1/conv_conv1_1/bn_0_split_1
I0315 18:48:54.718186  1399 net.cpp:150] Setting up conv1_1/conv_conv1_1/bn_0_split
I0315 18:48:54.718191  1399 net.cpp:157] Top shape: 1 16 432 720 (4976640)
I0315 18:48:54.718194  1399 net.cpp:157] Top shape: 1 16 432 720 (4976640)
I0315 18:48:54.718197  1399 net.cpp:165] Memory required for data: 124416088
I0315 18:48:54.718200  1399 layer_factory.hpp:77] Creating layer conv1_1/neg
I0315 18:48:54.718205  1399 net.cpp:100] Creating Layer conv1_1/neg
I0315 18:48:54.718209  1399 net.cpp:434] conv1_1/neg <- conv1_1/conv_conv1_1/bn_0_split_0
I0315 18:48:54.718212  1399 net.cpp:408] conv1_1/neg -> conv1_1/neg
I0315 18:48:54.718227  1399 net.cpp:150] Setting up conv1_1/neg
I0315 18:48:54.718231  1399 net.cpp:157] Top shape: 1 16 432 720 (4976640)
I0315 18:48:54.718233  1399 net.cpp:165] Memory required for data: 144322648
I0315 18:48:54.718236  1399 layer_factory.hpp:77] Creating layer conv1_1/concat
I0315 18:48:54.718243  1399 net.cpp:100] Creating Layer conv1_1/concat
I0315 18:48:54.718246  1399 net.cpp:434] conv1_1/concat <- conv1_1/conv_conv1_1/bn_0_split_1
I0315 18:48:54.718250  1399 net.cpp:434] conv1_1/concat <- conv1_1/neg
I0315 18:48:54.718263  1399 net.cpp:408] conv1_1/concat -> conv1_1
I0315 18:48:54.718278  1399 net.cpp:150] Setting up conv1_1/concat
I0315 18:48:54.718282  1399 net.cpp:157] Top shape: 1 32 432 720 (9953280)
I0315 18:48:54.718284  1399 net.cpp:165] Memory required for data: 184135768
I0315 18:48:54.718287  1399 layer_factory.hpp:77] Creating layer conv1_1/scale
I0315 18:48:54.718292  1399 net.cpp:100] Creating Layer conv1_1/scale
I0315 18:48:54.718296  1399 net.cpp:434] conv1_1/scale <- conv1_1
I0315 18:48:54.718299  1399 net.cpp:395] conv1_1/scale -> conv1_1 (in-place)
I0315 18:48:54.718327  1399 layer_factory.hpp:77] Creating layer conv1_1/scale
I0315 18:48:54.719193  1399 net.cpp:150] Setting up conv1_1/scale
I0315 18:48:54.719208  1399 net.cpp:157] Top shape: 1 32 432 720 (9953280)
I0315 18:48:54.719211  1399 net.cpp:165] Memory required for data: 223948888
I0315 18:48:54.719218  1399 layer_factory.hpp:77] Creating layer conv1_1/relu
I0315 18:48:54.719223  1399 net.cpp:100] Creating Layer conv1_1/relu
I0315 18:48:54.719226  1399 net.cpp:434] conv1_1/relu <- conv1_1
I0315 18:48:54.719230  1399 net.cpp:395] conv1_1/relu -> conv1_1 (in-place)
I0315 18:48:54.719444  1399 net.cpp:150] Setting up conv1_1/relu
I0315 18:48:54.719451  1399 net.cpp:157] Top shape: 1 32 432 720 (9953280)
I0315 18:48:54.719455  1399 net.cpp:165] Memory required for data: 263762008
I0315 18:48:54.719457  1399 layer_factory.hpp:77] Creating layer pool1
I0315 18:48:54.719462  1399 net.cpp:100] Creating Layer pool1
I0315 18:48:54.719465  1399 net.cpp:434] pool1 <- conv1_1
I0315 18:48:54.719470  1399 net.cpp:408] pool1 -> pool1
I0315 18:48:54.719498  1399 net.cpp:150] Setting up pool1
I0315 18:48:54.719502  1399 net.cpp:157] Top shape: 1 32 216 360 (2488320)
I0315 18:48:54.719506  1399 net.cpp:165] Memory required for data: 273715288
I0315 18:48:54.719507  1399 layer_factory.hpp:77] Creating layer pool1_pool1_0_split
I0315 18:48:54.719511  1399 net.cpp:100] Creating Layer pool1_pool1_0_split
I0315 18:48:54.719514  1399 net.cpp:434] pool1_pool1_0_split <- pool1
I0315 18:48:54.719518  1399 net.cpp:408] pool1_pool1_0_split -> pool1_pool1_0_split_0
I0315 18:48:54.719525  1399 net.cpp:408] pool1_pool1_0_split -> pool1_pool1_0_split_1
I0315 18:48:54.719547  1399 net.cpp:150] Setting up pool1_pool1_0_split
I0315 18:48:54.719550  1399 net.cpp:157] Top shape: 1 32 216 360 (2488320)
I0315 18:48:54.719553  1399 net.cpp:157] Top shape: 1 32 216 360 (2488320)
I0315 18:48:54.719557  1399 net.cpp:165] Memory required for data: 293621848
I0315 18:48:54.719558  1399 layer_factory.hpp:77] Creating layer conv2_1/1/conv
I0315 18:48:54.719565  1399 net.cpp:100] Creating Layer conv2_1/1/conv
I0315 18:48:54.719569  1399 net.cpp:434] conv2_1/1/conv <- pool1_pool1_0_split_0
I0315 18:48:54.719573  1399 net.cpp:408] conv2_1/1/conv -> conv2_1/1
I0315 18:48:54.720508  1399 net.cpp:150] Setting up conv2_1/1/conv
I0315 18:48:54.720518  1399 net.cpp:157] Top shape: 1 24 216 360 (1866240)
I0315 18:48:54.720520  1399 net.cpp:165] Memory required for data: 301086808
I0315 18:48:54.720525  1399 layer_factory.hpp:77] Creating layer conv2_1/1/bn
I0315 18:48:54.720531  1399 net.cpp:100] Creating Layer conv2_1/1/bn
I0315 18:48:54.720535  1399 net.cpp:434] conv2_1/1/bn <- conv2_1/1
I0315 18:48:54.720538  1399 net.cpp:395] conv2_1/1/bn -> conv2_1/1 (in-place)
I0315 18:48:54.720953  1399 net.cpp:150] Setting up conv2_1/1/bn
I0315 18:48:54.720973  1399 net.cpp:157] Top shape: 1 24 216 360 (1866240)
I0315 18:48:54.720985  1399 net.cpp:165] Memory required for data: 308551768
I0315 18:48:54.720993  1399 layer_factory.hpp:77] Creating layer conv2_1/1/bn_scale
I0315 18:48:54.720999  1399 net.cpp:100] Creating Layer conv2_1/1/bn_scale
I0315 18:48:54.721001  1399 net.cpp:434] conv2_1/1/bn_scale <- conv2_1/1
I0315 18:48:54.721005  1399 net.cpp:395] conv2_1/1/bn_scale -> conv2_1/1 (in-place)
I0315 18:48:54.721032  1399 layer_factory.hpp:77] Creating layer conv2_1/1/bn_scale
I0315 18:48:54.721187  1399 net.cpp:150] Setting up conv2_1/1/bn_scale
I0315 18:48:54.721192  1399 net.cpp:157] Top shape: 1 24 216 360 (1866240)
I0315 18:48:54.721195  1399 net.cpp:165] Memory required for data: 316016728
I0315 18:48:54.721199  1399 layer_factory.hpp:77] Creating layer conv2_1/1/relu
I0315 18:48:54.721205  1399 net.cpp:100] Creating Layer conv2_1/1/relu
I0315 18:48:54.721209  1399 net.cpp:434] conv2_1/1/relu <- conv2_1/1
I0315 18:48:54.721212  1399 net.cpp:395] conv2_1/1/relu -> conv2_1/1 (in-place)
I0315 18:48:54.721325  1399 net.cpp:150] Setting up conv2_1/1/relu
I0315 18:48:54.721331  1399 net.cpp:157] Top shape: 1 24 216 360 (1866240)
I0315 18:48:54.721334  1399 net.cpp:165] Memory required for data: 323481688
I0315 18:48:54.721338  1399 layer_factory.hpp:77] Creating layer conv2_1/2/conv
I0315 18:48:54.721343  1399 net.cpp:100] Creating Layer conv2_1/2/conv
I0315 18:48:54.721349  1399 net.cpp:434] conv2_1/2/conv <- conv2_1/1
I0315 18:48:54.721354  1399 net.cpp:408] conv2_1/2/conv -> conv2_1/2/conv
I0315 18:48:54.722350  1399 net.cpp:150] Setting up conv2_1/2/conv
I0315 18:48:54.722359  1399 net.cpp:157] Top shape: 1 24 216 360 (1866240)
I0315 18:48:54.722362  1399 net.cpp:165] Memory required for data: 330946648
I0315 18:48:54.722368  1399 layer_factory.hpp:77] Creating layer conv2_1/2/bn
I0315 18:48:54.722373  1399 net.cpp:100] Creating Layer conv2_1/2/bn
I0315 18:48:54.722375  1399 net.cpp:434] conv2_1/2/bn <- conv2_1/2/conv
I0315 18:48:54.722390  1399 net.cpp:395] conv2_1/2/bn -> conv2_1/2/conv (in-place)
I0315 18:48:54.722841  1399 net.cpp:150] Setting up conv2_1/2/bn
I0315 18:48:54.722849  1399 net.cpp:157] Top shape: 1 24 216 360 (1866240)
I0315 18:48:54.722852  1399 net.cpp:165] Memory required for data: 338411608
I0315 18:48:54.722858  1399 layer_factory.hpp:77] Creating layer conv2_1/2/conv_conv2_1/2/bn_0_split
I0315 18:48:54.722863  1399 net.cpp:100] Creating Layer conv2_1/2/conv_conv2_1/2/bn_0_split
I0315 18:48:54.722867  1399 net.cpp:434] conv2_1/2/conv_conv2_1/2/bn_0_split <- conv2_1/2/conv
I0315 18:48:54.722872  1399 net.cpp:408] conv2_1/2/conv_conv2_1/2/bn_0_split -> conv2_1/2/conv_conv2_1/2/bn_0_split_0
I0315 18:48:54.722877  1399 net.cpp:408] conv2_1/2/conv_conv2_1/2/bn_0_split -> conv2_1/2/conv_conv2_1/2/bn_0_split_1
I0315 18:48:54.722901  1399 net.cpp:150] Setting up conv2_1/2/conv_conv2_1/2/bn_0_split
I0315 18:48:54.722906  1399 net.cpp:157] Top shape: 1 24 216 360 (1866240)
I0315 18:48:54.722909  1399 net.cpp:157] Top shape: 1 24 216 360 (1866240)
I0315 18:48:54.722913  1399 net.cpp:165] Memory required for data: 353341528
I0315 18:48:54.722915  1399 layer_factory.hpp:77] Creating layer conv2_1/2/neg
I0315 18:48:54.722920  1399 net.cpp:100] Creating Layer conv2_1/2/neg
I0315 18:48:54.722923  1399 net.cpp:434] conv2_1/2/neg <- conv2_1/2/conv_conv2_1/2/bn_0_split_0
I0315 18:48:54.722928  1399 net.cpp:408] conv2_1/2/neg -> conv2_1/2/neg
I0315 18:48:54.722951  1399 net.cpp:150] Setting up conv2_1/2/neg
I0315 18:48:54.722956  1399 net.cpp:157] Top shape: 1 24 216 360 (1866240)
I0315 18:48:54.722959  1399 net.cpp:165] Memory required for data: 360806488
I0315 18:48:54.722961  1399 layer_factory.hpp:77] Creating layer conv2_1/2/concat
I0315 18:48:54.722965  1399 net.cpp:100] Creating Layer conv2_1/2/concat
I0315 18:48:54.722968  1399 net.cpp:434] conv2_1/2/concat <- conv2_1/2/conv_conv2_1/2/bn_0_split_1
I0315 18:48:54.722972  1399 net.cpp:434] conv2_1/2/concat <- conv2_1/2/neg
I0315 18:48:54.722975  1399 net.cpp:408] conv2_1/2/concat -> conv2_1/2
I0315 18:48:54.722990  1399 net.cpp:150] Setting up conv2_1/2/concat
I0315 18:48:54.722995  1399 net.cpp:157] Top shape: 1 48 216 360 (3732480)
I0315 18:48:54.722997  1399 net.cpp:165] Memory required for data: 375736408
I0315 18:48:54.723000  1399 layer_factory.hpp:77] Creating layer conv2_1/2/scale
I0315 18:48:54.723004  1399 net.cpp:100] Creating Layer conv2_1/2/scale
I0315 18:48:54.723007  1399 net.cpp:434] conv2_1/2/scale <- conv2_1/2
I0315 18:48:54.723011  1399 net.cpp:395] conv2_1/2/scale -> conv2_1/2 (in-place)
I0315 18:48:54.723039  1399 layer_factory.hpp:77] Creating layer conv2_1/2/scale
I0315 18:48:54.723176  1399 net.cpp:150] Setting up conv2_1/2/scale
I0315 18:48:54.723192  1399 net.cpp:157] Top shape: 1 48 216 360 (3732480)
I0315 18:48:54.723194  1399 net.cpp:165] Memory required for data: 390666328
I0315 18:48:54.723212  1399 layer_factory.hpp:77] Creating layer conv2_1/2/relu
I0315 18:48:54.723215  1399 net.cpp:100] Creating Layer conv2_1/2/relu
I0315 18:48:54.723218  1399 net.cpp:434] conv2_1/2/relu <- conv2_1/2
I0315 18:48:54.723222  1399 net.cpp:395] conv2_1/2/relu -> conv2_1/2 (in-place)
I0315 18:48:54.723338  1399 net.cpp:150] Setting up conv2_1/2/relu
I0315 18:48:54.723345  1399 net.cpp:157] Top shape: 1 48 216 360 (3732480)
I0315 18:48:54.723348  1399 net.cpp:165] Memory required for data: 405596248
I0315 18:48:54.723351  1399 layer_factory.hpp:77] Creating layer conv2_1/3/conv
I0315 18:48:54.723361  1399 net.cpp:100] Creating Layer conv2_1/3/conv
I0315 18:48:54.723364  1399 net.cpp:434] conv2_1/3/conv <- conv2_1/2
I0315 18:48:54.723368  1399 net.cpp:408] conv2_1/3/conv -> conv2_1/3
I0315 18:48:54.725292  1399 net.cpp:150] Setting up conv2_1/3/conv
I0315 18:48:54.725302  1399 net.cpp:157] Top shape: 1 64 216 360 (4976640)
I0315 18:48:54.725306  1399 net.cpp:165] Memory required for data: 425502808
I0315 18:48:54.725311  1399 layer_factory.hpp:77] Creating layer conv2_1/3/bn
I0315 18:48:54.725316  1399 net.cpp:100] Creating Layer conv2_1/3/bn
I0315 18:48:54.725318  1399 net.cpp:434] conv2_1/3/bn <- conv2_1/3
I0315 18:48:54.725322  1399 net.cpp:395] conv2_1/3/bn -> conv2_1/3 (in-place)
I0315 18:48:54.725730  1399 net.cpp:150] Setting up conv2_1/3/bn
I0315 18:48:54.725739  1399 net.cpp:157] Top shape: 1 64 216 360 (4976640)
I0315 18:48:54.725741  1399 net.cpp:165] Memory required for data: 445409368
I0315 18:48:54.725747  1399 layer_factory.hpp:77] Creating layer conv2_1/3/bn_scale
I0315 18:48:54.725752  1399 net.cpp:100] Creating Layer conv2_1/3/bn_scale
I0315 18:48:54.725755  1399 net.cpp:434] conv2_1/3/bn_scale <- conv2_1/3
I0315 18:48:54.725759  1399 net.cpp:395] conv2_1/3/bn_scale -> conv2_1/3 (in-place)
I0315 18:48:54.725786  1399 layer_factory.hpp:77] Creating layer conv2_1/3/bn_scale
I0315 18:48:54.725975  1399 net.cpp:150] Setting up conv2_1/3/bn_scale
I0315 18:48:54.725982  1399 net.cpp:157] Top shape: 1 64 216 360 (4976640)
I0315 18:48:54.725986  1399 net.cpp:165] Memory required for data: 465315928
I0315 18:48:54.725991  1399 layer_factory.hpp:77] Creating layer conv2_1/proj
I0315 18:48:54.725998  1399 net.cpp:100] Creating Layer conv2_1/proj
I0315 18:48:54.726001  1399 net.cpp:434] conv2_1/proj <- pool1_pool1_0_split_1
I0315 18:48:54.726006  1399 net.cpp:408] conv2_1/proj -> conv2_1/proj
I0315 18:48:54.727272  1399 net.cpp:150] Setting up conv2_1/proj
I0315 18:48:54.727285  1399 net.cpp:157] Top shape: 1 64 216 360 (4976640)
I0315 18:48:54.727288  1399 net.cpp:165] Memory required for data: 485222488
I0315 18:48:54.727293  1399 layer_factory.hpp:77] Creating layer conv2_1/proj_bn
I0315 18:48:54.727300  1399 net.cpp:100] Creating Layer conv2_1/proj_bn
I0315 18:48:54.727303  1399 net.cpp:434] conv2_1/proj_bn <- conv2_1/proj
I0315 18:48:54.727308  1399 net.cpp:395] conv2_1/proj_bn -> conv2_1/proj (in-place)
I0315 18:48:54.727505  1399 net.cpp:150] Setting up conv2_1/proj_bn
I0315 18:48:54.727512  1399 net.cpp:157] Top shape: 1 64 216 360 (4976640)
I0315 18:48:54.727514  1399 net.cpp:165] Memory required for data: 505129048
I0315 18:48:54.727520  1399 layer_factory.hpp:77] Creating layer conv2_1/proj_bn_scale
I0315 18:48:54.727525  1399 net.cpp:100] Creating Layer conv2_1/proj_bn_scale
I0315 18:48:54.727529  1399 net.cpp:434] conv2_1/proj_bn_scale <- conv2_1/proj
I0315 18:48:54.727532  1399 net.cpp:395] conv2_1/proj_bn_scale -> conv2_1/proj (in-place)
I0315 18:48:54.727560  1399 layer_factory.hpp:77] Creating layer conv2_1/proj_bn_scale
I0315 18:48:54.727948  1399 net.cpp:150] Setting up conv2_1/proj_bn_scale
I0315 18:48:54.727957  1399 net.cpp:157] Top shape: 1 64 216 360 (4976640)
I0315 18:48:54.727959  1399 net.cpp:165] Memory required for data: 525035608
I0315 18:48:54.727964  1399 layer_factory.hpp:77] Creating layer conv2_1
I0315 18:48:54.727969  1399 net.cpp:100] Creating Layer conv2_1
I0315 18:48:54.727972  1399 net.cpp:434] conv2_1 <- conv2_1/3
I0315 18:48:54.727977  1399 net.cpp:434] conv2_1 <- conv2_1/proj
I0315 18:48:54.727980  1399 net.cpp:408] conv2_1 -> conv2_1
I0315 18:48:54.728001  1399 net.cpp:150] Setting up conv2_1
I0315 18:48:54.728006  1399 net.cpp:157] Top shape: 1 64 216 360 (4976640)
I0315 18:48:54.728008  1399 net.cpp:165] Memory required for data: 544942168
I0315 18:48:54.728011  1399 layer_factory.hpp:77] Creating layer conv2_1_conv2_1_0_split
I0315 18:48:54.728015  1399 net.cpp:100] Creating Layer conv2_1_conv2_1_0_split
I0315 18:48:54.728018  1399 net.cpp:434] conv2_1_conv2_1_0_split <- conv2_1
I0315 18:48:54.728022  1399 net.cpp:408] conv2_1_conv2_1_0_split -> conv2_1_conv2_1_0_split_0
I0315 18:48:54.728032  1399 net.cpp:408] conv2_1_conv2_1_0_split -> conv2_1_conv2_1_0_split_1
I0315 18:48:54.728055  1399 net.cpp:150] Setting up conv2_1_conv2_1_0_split
I0315 18:48:54.728060  1399 net.cpp:157] Top shape: 1 64 216 360 (4976640)
I0315 18:48:54.728063  1399 net.cpp:157] Top shape: 1 64 216 360 (4976640)
I0315 18:48:54.728065  1399 net.cpp:165] Memory required for data: 584755288
I0315 18:48:54.728068  1399 layer_factory.hpp:77] Creating layer conv2_2/1/conv
I0315 18:48:54.728081  1399 net.cpp:100] Creating Layer conv2_2/1/conv
I0315 18:48:54.728085  1399 net.cpp:434] conv2_2/1/conv <- conv2_1_conv2_1_0_split_0
I0315 18:48:54.728090  1399 net.cpp:408] conv2_2/1/conv -> conv2_2/1
I0315 18:48:54.728842  1399 net.cpp:150] Setting up conv2_2/1/conv
I0315 18:48:54.728850  1399 net.cpp:157] Top shape: 1 24 216 360 (1866240)
I0315 18:48:54.728854  1399 net.cpp:165] Memory required for data: 592220248
I0315 18:48:54.728858  1399 layer_factory.hpp:77] Creating layer conv2_2/1/bn
I0315 18:48:54.728863  1399 net.cpp:100] Creating Layer conv2_2/1/bn
I0315 18:48:54.728866  1399 net.cpp:434] conv2_2/1/bn <- conv2_2/1
I0315 18:48:54.728871  1399 net.cpp:395] conv2_2/1/bn -> conv2_2/1 (in-place)
I0315 18:48:54.729084  1399 net.cpp:150] Setting up conv2_2/1/bn
I0315 18:48:54.729090  1399 net.cpp:157] Top shape: 1 24 216 360 (1866240)
I0315 18:48:54.729094  1399 net.cpp:165] Memory required for data: 599685208
I0315 18:48:54.729102  1399 layer_factory.hpp:77] Creating layer conv2_2/1/bn_scale
I0315 18:48:54.729107  1399 net.cpp:100] Creating Layer conv2_2/1/bn_scale
I0315 18:48:54.729110  1399 net.cpp:434] conv2_2/1/bn_scale <- conv2_2/1
I0315 18:48:54.729115  1399 net.cpp:395] conv2_2/1/bn_scale -> conv2_2/1 (in-place)
I0315 18:48:54.729140  1399 layer_factory.hpp:77] Creating layer conv2_2/1/bn_scale
I0315 18:48:54.729522  1399 net.cpp:150] Setting up conv2_2/1/bn_scale
I0315 18:48:54.729531  1399 net.cpp:157] Top shape: 1 24 216 360 (1866240)
I0315 18:48:54.729533  1399 net.cpp:165] Memory required for data: 607150168
I0315 18:48:54.729537  1399 layer_factory.hpp:77] Creating layer conv2_2/1/relu
I0315 18:48:54.729542  1399 net.cpp:100] Creating Layer conv2_2/1/relu
I0315 18:48:54.729545  1399 net.cpp:434] conv2_2/1/relu <- conv2_2/1
I0315 18:48:54.729550  1399 net.cpp:395] conv2_2/1/relu -> conv2_2/1 (in-place)
I0315 18:48:54.729671  1399 net.cpp:150] Setting up conv2_2/1/relu
I0315 18:48:54.729677  1399 net.cpp:157] Top shape: 1 24 216 360 (1866240)
I0315 18:48:54.729679  1399 net.cpp:165] Memory required for data: 614615128
I0315 18:48:54.729682  1399 layer_factory.hpp:77] Creating layer conv2_2/2/conv
I0315 18:48:54.729689  1399 net.cpp:100] Creating Layer conv2_2/2/conv
I0315 18:48:54.729692  1399 net.cpp:434] conv2_2/2/conv <- conv2_2/1
I0315 18:48:54.729697  1399 net.cpp:408] conv2_2/2/conv -> conv2_2/2/conv
I0315 18:48:54.730461  1399 net.cpp:150] Setting up conv2_2/2/conv
I0315 18:48:54.730471  1399 net.cpp:157] Top shape: 1 24 216 360 (1866240)
I0315 18:48:54.730474  1399 net.cpp:165] Memory required for data: 622080088
I0315 18:48:54.730479  1399 layer_factory.hpp:77] Creating layer conv2_2/2/bn
I0315 18:48:54.730484  1399 net.cpp:100] Creating Layer conv2_2/2/bn
I0315 18:48:54.730486  1399 net.cpp:434] conv2_2/2/bn <- conv2_2/2/conv
I0315 18:48:54.730491  1399 net.cpp:395] conv2_2/2/bn -> conv2_2/2/conv (in-place)
I0315 18:48:54.730655  1399 net.cpp:150] Setting up conv2_2/2/bn
I0315 18:48:54.730661  1399 net.cpp:157] Top shape: 1 24 216 360 (1866240)
I0315 18:48:54.730664  1399 net.cpp:165] Memory required for data: 629545048
I0315 18:48:54.730669  1399 layer_factory.hpp:77] Creating layer conv2_2/2/conv_conv2_2/2/bn_0_split
I0315 18:48:54.730674  1399 net.cpp:100] Creating Layer conv2_2/2/conv_conv2_2/2/bn_0_split
I0315 18:48:54.730677  1399 net.cpp:434] conv2_2/2/conv_conv2_2/2/bn_0_split <- conv2_2/2/conv
I0315 18:48:54.730681  1399 net.cpp:408] conv2_2/2/conv_conv2_2/2/bn_0_split -> conv2_2/2/conv_conv2_2/2/bn_0_split_0
I0315 18:48:54.730686  1399 net.cpp:408] conv2_2/2/conv_conv2_2/2/bn_0_split -> conv2_2/2/conv_conv2_2/2/bn_0_split_1
I0315 18:48:54.730718  1399 net.cpp:150] Setting up conv2_2/2/conv_conv2_2/2/bn_0_split
I0315 18:48:54.730723  1399 net.cpp:157] Top shape: 1 24 216 360 (1866240)
I0315 18:48:54.730727  1399 net.cpp:157] Top shape: 1 24 216 360 (1866240)
I0315 18:48:54.730731  1399 net.cpp:165] Memory required for data: 644474968
I0315 18:48:54.730732  1399 layer_factory.hpp:77] Creating layer conv2_2/2/neg
I0315 18:48:54.730737  1399 net.cpp:100] Creating Layer conv2_2/2/neg
I0315 18:48:54.730741  1399 net.cpp:434] conv2_2/2/neg <- conv2_2/2/conv_conv2_2/2/bn_0_split_0
I0315 18:48:54.730744  1399 net.cpp:408] conv2_2/2/neg -> conv2_2/2/neg
I0315 18:48:54.730761  1399 net.cpp:150] Setting up conv2_2/2/neg
I0315 18:48:54.730764  1399 net.cpp:157] Top shape: 1 24 216 360 (1866240)
I0315 18:48:54.730767  1399 net.cpp:165] Memory required for data: 651939928
I0315 18:48:54.730769  1399 layer_factory.hpp:77] Creating layer conv2_2/2/concat
I0315 18:48:54.730773  1399 net.cpp:100] Creating Layer conv2_2/2/concat
I0315 18:48:54.730777  1399 net.cpp:434] conv2_2/2/concat <- conv2_2/2/conv_conv2_2/2/bn_0_split_1
I0315 18:48:54.730780  1399 net.cpp:434] conv2_2/2/concat <- conv2_2/2/neg
I0315 18:48:54.730784  1399 net.cpp:408] conv2_2/2/concat -> conv2_2/2
I0315 18:48:54.730801  1399 net.cpp:150] Setting up conv2_2/2/concat
I0315 18:48:54.730806  1399 net.cpp:157] Top shape: 1 48 216 360 (3732480)
I0315 18:48:54.730808  1399 net.cpp:165] Memory required for data: 666869848
I0315 18:48:54.730811  1399 layer_factory.hpp:77] Creating layer conv2_2/2/scale
I0315 18:48:54.730815  1399 net.cpp:100] Creating Layer conv2_2/2/scale
I0315 18:48:54.730818  1399 net.cpp:434] conv2_2/2/scale <- conv2_2/2
I0315 18:48:54.730823  1399 net.cpp:395] conv2_2/2/scale -> conv2_2/2 (in-place)
I0315 18:48:54.730852  1399 layer_factory.hpp:77] Creating layer conv2_2/2/scale
I0315 18:48:54.731240  1399 net.cpp:150] Setting up conv2_2/2/scale
I0315 18:48:54.731247  1399 net.cpp:157] Top shape: 1 48 216 360 (3732480)
I0315 18:48:54.731251  1399 net.cpp:165] Memory required for data: 681799768
I0315 18:48:54.731256  1399 layer_factory.hpp:77] Creating layer conv2_2/2/relu
I0315 18:48:54.731259  1399 net.cpp:100] Creating Layer conv2_2/2/relu
I0315 18:48:54.731262  1399 net.cpp:434] conv2_2/2/relu <- conv2_2/2
I0315 18:48:54.731266  1399 net.cpp:395] conv2_2/2/relu -> conv2_2/2 (in-place)
I0315 18:48:54.731500  1399 net.cpp:150] Setting up conv2_2/2/relu
I0315 18:48:54.731508  1399 net.cpp:157] Top shape: 1 48 216 360 (3732480)
I0315 18:48:54.731511  1399 net.cpp:165] Memory required for data: 696729688
I0315 18:48:54.731514  1399 layer_factory.hpp:77] Creating layer conv2_2/3/conv
I0315 18:48:54.731521  1399 net.cpp:100] Creating Layer conv2_2/3/conv
I0315 18:48:54.731525  1399 net.cpp:434] conv2_2/3/conv <- conv2_2/2
I0315 18:48:54.731530  1399 net.cpp:408] conv2_2/3/conv -> conv2_2/3
I0315 18:48:54.732200  1399 net.cpp:150] Setting up conv2_2/3/conv
I0315 18:48:54.732209  1399 net.cpp:157] Top shape: 1 64 216 360 (4976640)
I0315 18:48:54.732213  1399 net.cpp:165] Memory required for data: 716636248
I0315 18:48:54.732218  1399 layer_factory.hpp:77] Creating layer conv2_2/3/bn
I0315 18:48:54.732221  1399 net.cpp:100] Creating Layer conv2_2/3/bn
I0315 18:48:54.732224  1399 net.cpp:434] conv2_2/3/bn <- conv2_2/3
I0315 18:48:54.732229  1399 net.cpp:395] conv2_2/3/bn -> conv2_2/3 (in-place)
I0315 18:48:54.732393  1399 net.cpp:150] Setting up conv2_2/3/bn
I0315 18:48:54.732398  1399 net.cpp:157] Top shape: 1 64 216 360 (4976640)
I0315 18:48:54.732399  1399 net.cpp:165] Memory required for data: 736542808
I0315 18:48:54.732404  1399 layer_factory.hpp:77] Creating layer conv2_2/3/bn_scale
I0315 18:48:54.732409  1399 net.cpp:100] Creating Layer conv2_2/3/bn_scale
I0315 18:48:54.732412  1399 net.cpp:434] conv2_2/3/bn_scale <- conv2_2/3
I0315 18:48:54.732416  1399 net.cpp:395] conv2_2/3/bn_scale -> conv2_2/3 (in-place)
I0315 18:48:54.732445  1399 layer_factory.hpp:77] Creating layer conv2_2/3/bn_scale
I0315 18:48:54.732837  1399 net.cpp:150] Setting up conv2_2/3/bn_scale
I0315 18:48:54.732846  1399 net.cpp:157] Top shape: 1 64 216 360 (4976640)
I0315 18:48:54.732849  1399 net.cpp:165] Memory required for data: 756449368
I0315 18:48:54.732854  1399 layer_factory.hpp:77] Creating layer conv2_2/input
I0315 18:48:54.732859  1399 net.cpp:100] Creating Layer conv2_2/input
I0315 18:48:54.732863  1399 net.cpp:434] conv2_2/input <- conv2_1_conv2_1_0_split_1
I0315 18:48:54.732867  1399 net.cpp:408] conv2_2/input -> conv2_2/input
I0315 18:48:54.732888  1399 net.cpp:150] Setting up conv2_2/input
I0315 18:48:54.732893  1399 net.cpp:157] Top shape: 1 64 216 360 (4976640)
I0315 18:48:54.732895  1399 net.cpp:165] Memory required for data: 776355928
I0315 18:48:54.732898  1399 layer_factory.hpp:77] Creating layer conv2_2
I0315 18:48:54.732903  1399 net.cpp:100] Creating Layer conv2_2
I0315 18:48:54.732906  1399 net.cpp:434] conv2_2 <- conv2_2/3
I0315 18:48:54.732925  1399 net.cpp:434] conv2_2 <- conv2_2/input
I0315 18:48:54.732930  1399 net.cpp:408] conv2_2 -> conv2_2
I0315 18:48:54.732949  1399 net.cpp:150] Setting up conv2_2
I0315 18:48:54.732964  1399 net.cpp:157] Top shape: 1 64 216 360 (4976640)
I0315 18:48:54.732966  1399 net.cpp:165] Memory required for data: 796262488
I0315 18:48:54.732969  1399 layer_factory.hpp:77] Creating layer conv2_2_conv2_2_0_split
I0315 18:48:54.732975  1399 net.cpp:100] Creating Layer conv2_2_conv2_2_0_split
I0315 18:48:54.732977  1399 net.cpp:434] conv2_2_conv2_2_0_split <- conv2_2
I0315 18:48:54.732981  1399 net.cpp:408] conv2_2_conv2_2_0_split -> conv2_2_conv2_2_0_split_0
I0315 18:48:54.732985  1399 net.cpp:408] conv2_2_conv2_2_0_split -> conv2_2_conv2_2_0_split_1
I0315 18:48:54.733011  1399 net.cpp:150] Setting up conv2_2_conv2_2_0_split
I0315 18:48:54.733014  1399 net.cpp:157] Top shape: 1 64 216 360 (4976640)
I0315 18:48:54.733018  1399 net.cpp:157] Top shape: 1 64 216 360 (4976640)
I0315 18:48:54.733021  1399 net.cpp:165] Memory required for data: 836075608
I0315 18:48:54.733023  1399 layer_factory.hpp:77] Creating layer conv2_3/1/conv
I0315 18:48:54.733028  1399 net.cpp:100] Creating Layer conv2_3/1/conv
I0315 18:48:54.733042  1399 net.cpp:434] conv2_3/1/conv <- conv2_2_conv2_2_0_split_0
I0315 18:48:54.733045  1399 net.cpp:408] conv2_3/1/conv -> conv2_3/1
I0315 18:48:54.733865  1399 net.cpp:150] Setting up conv2_3/1/conv
I0315 18:48:54.733873  1399 net.cpp:157] Top shape: 1 24 216 360 (1866240)
I0315 18:48:54.733876  1399 net.cpp:165] Memory required for data: 843540568
I0315 18:48:54.733880  1399 layer_factory.hpp:77] Creating layer conv2_3/1/bn
I0315 18:48:54.733886  1399 net.cpp:100] Creating Layer conv2_3/1/bn
I0315 18:48:54.733889  1399 net.cpp:434] conv2_3/1/bn <- conv2_3/1
I0315 18:48:54.733894  1399 net.cpp:395] conv2_3/1/bn -> conv2_3/1 (in-place)
I0315 18:48:54.734061  1399 net.cpp:150] Setting up conv2_3/1/bn
I0315 18:48:54.734066  1399 net.cpp:157] Top shape: 1 24 216 360 (1866240)
I0315 18:48:54.734069  1399 net.cpp:165] Memory required for data: 851005528
I0315 18:48:54.734074  1399 layer_factory.hpp:77] Creating layer conv2_3/1/bn_scale
I0315 18:48:54.734081  1399 net.cpp:100] Creating Layer conv2_3/1/bn_scale
I0315 18:48:54.734083  1399 net.cpp:434] conv2_3/1/bn_scale <- conv2_3/1
I0315 18:48:54.734086  1399 net.cpp:395] conv2_3/1/bn_scale -> conv2_3/1 (in-place)
I0315 18:48:54.734112  1399 layer_factory.hpp:77] Creating layer conv2_3/1/bn_scale
I0315 18:48:54.734501  1399 net.cpp:150] Setting up conv2_3/1/bn_scale
I0315 18:48:54.734509  1399 net.cpp:157] Top shape: 1 24 216 360 (1866240)
I0315 18:48:54.734513  1399 net.cpp:165] Memory required for data: 858470488
I0315 18:48:54.734518  1399 layer_factory.hpp:77] Creating layer conv2_3/1/relu
I0315 18:48:54.734521  1399 net.cpp:100] Creating Layer conv2_3/1/relu
I0315 18:48:54.734524  1399 net.cpp:434] conv2_3/1/relu <- conv2_3/1
I0315 18:48:54.734529  1399 net.cpp:395] conv2_3/1/relu -> conv2_3/1 (in-place)
I0315 18:48:54.734741  1399 net.cpp:150] Setting up conv2_3/1/relu
I0315 18:48:54.734750  1399 net.cpp:157] Top shape: 1 24 216 360 (1866240)
I0315 18:48:54.734755  1399 net.cpp:165] Memory required for data: 865935448
I0315 18:48:54.734757  1399 layer_factory.hpp:77] Creating layer conv2_3/2/conv
I0315 18:48:54.734766  1399 net.cpp:100] Creating Layer conv2_3/2/conv
I0315 18:48:54.734768  1399 net.cpp:434] conv2_3/2/conv <- conv2_3/1
I0315 18:48:54.734773  1399 net.cpp:408] conv2_3/2/conv -> conv2_3/2/conv
I0315 18:48:54.735535  1399 net.cpp:150] Setting up conv2_3/2/conv
I0315 18:48:54.735544  1399 net.cpp:157] Top shape: 1 24 216 360 (1866240)
I0315 18:48:54.735548  1399 net.cpp:165] Memory required for data: 873400408
I0315 18:48:54.735551  1399 layer_factory.hpp:77] Creating layer conv2_3/2/bn
I0315 18:48:54.735558  1399 net.cpp:100] Creating Layer conv2_3/2/bn
I0315 18:48:54.735560  1399 net.cpp:434] conv2_3/2/bn <- conv2_3/2/conv
I0315 18:48:54.735565  1399 net.cpp:395] conv2_3/2/bn -> conv2_3/2/conv (in-place)
I0315 18:48:54.735738  1399 net.cpp:150] Setting up conv2_3/2/bn
I0315 18:48:54.735743  1399 net.cpp:157] Top shape: 1 24 216 360 (1866240)
I0315 18:48:54.735745  1399 net.cpp:165] Memory required for data: 880865368
I0315 18:48:54.735750  1399 layer_factory.hpp:77] Creating layer conv2_3/2/conv_conv2_3/2/bn_0_split
I0315 18:48:54.735755  1399 net.cpp:100] Creating Layer conv2_3/2/conv_conv2_3/2/bn_0_split
I0315 18:48:54.735757  1399 net.cpp:434] conv2_3/2/conv_conv2_3/2/bn_0_split <- conv2_3/2/conv
I0315 18:48:54.735761  1399 net.cpp:408] conv2_3/2/conv_conv2_3/2/bn_0_split -> conv2_3/2/conv_conv2_3/2/bn_0_split_0
I0315 18:48:54.735767  1399 net.cpp:408] conv2_3/2/conv_conv2_3/2/bn_0_split -> conv2_3/2/conv_conv2_3/2/bn_0_split_1
I0315 18:48:54.735792  1399 net.cpp:150] Setting up conv2_3/2/conv_conv2_3/2/bn_0_split
I0315 18:48:54.735796  1399 net.cpp:157] Top shape: 1 24 216 360 (1866240)
I0315 18:48:54.735800  1399 net.cpp:157] Top shape: 1 24 216 360 (1866240)
I0315 18:48:54.735802  1399 net.cpp:165] Memory required for data: 895795288
I0315 18:48:54.735805  1399 layer_factory.hpp:77] Creating layer conv2_3/2/neg
I0315 18:48:54.735810  1399 net.cpp:100] Creating Layer conv2_3/2/neg
I0315 18:48:54.735812  1399 net.cpp:434] conv2_3/2/neg <- conv2_3/2/conv_conv2_3/2/bn_0_split_0
I0315 18:48:54.735816  1399 net.cpp:408] conv2_3/2/neg -> conv2_3/2/neg
I0315 18:48:54.735832  1399 net.cpp:150] Setting up conv2_3/2/neg
I0315 18:48:54.735837  1399 net.cpp:157] Top shape: 1 24 216 360 (1866240)
I0315 18:48:54.735839  1399 net.cpp:165] Memory required for data: 903260248
I0315 18:48:54.735841  1399 layer_factory.hpp:77] Creating layer conv2_3/2/concat
I0315 18:48:54.735846  1399 net.cpp:100] Creating Layer conv2_3/2/concat
I0315 18:48:54.735848  1399 net.cpp:434] conv2_3/2/concat <- conv2_3/2/conv_conv2_3/2/bn_0_split_1
I0315 18:48:54.735852  1399 net.cpp:434] conv2_3/2/concat <- conv2_3/2/neg
I0315 18:48:54.735857  1399 net.cpp:408] conv2_3/2/concat -> conv2_3/2
I0315 18:48:54.735874  1399 net.cpp:150] Setting up conv2_3/2/concat
I0315 18:48:54.735878  1399 net.cpp:157] Top shape: 1 48 216 360 (3732480)
I0315 18:48:54.735882  1399 net.cpp:165] Memory required for data: 918190168
I0315 18:48:54.735883  1399 layer_factory.hpp:77] Creating layer conv2_3/2/scale
I0315 18:48:54.735888  1399 net.cpp:100] Creating Layer conv2_3/2/scale
I0315 18:48:54.735890  1399 net.cpp:434] conv2_3/2/scale <- conv2_3/2
I0315 18:48:54.735895  1399 net.cpp:395] conv2_3/2/scale -> conv2_3/2 (in-place)
I0315 18:48:54.735924  1399 layer_factory.hpp:77] Creating layer conv2_3/2/scale
I0315 18:48:54.736309  1399 net.cpp:150] Setting up conv2_3/2/scale
I0315 18:48:54.736316  1399 net.cpp:157] Top shape: 1 48 216 360 (3732480)
I0315 18:48:54.736318  1399 net.cpp:165] Memory required for data: 933120088
I0315 18:48:54.736323  1399 layer_factory.hpp:77] Creating layer conv2_3/2/relu
I0315 18:48:54.736328  1399 net.cpp:100] Creating Layer conv2_3/2/relu
I0315 18:48:54.736331  1399 net.cpp:434] conv2_3/2/relu <- conv2_3/2
I0315 18:48:54.736335  1399 net.cpp:395] conv2_3/2/relu -> conv2_3/2 (in-place)
I0315 18:48:54.736454  1399 net.cpp:150] Setting up conv2_3/2/relu
I0315 18:48:54.736464  1399 net.cpp:157] Top shape: 1 48 216 360 (3732480)
I0315 18:48:54.736466  1399 net.cpp:165] Memory required for data: 948050008
I0315 18:48:54.736469  1399 layer_factory.hpp:77] Creating layer conv2_3/3/conv
I0315 18:48:54.736475  1399 net.cpp:100] Creating Layer conv2_3/3/conv
I0315 18:48:54.736479  1399 net.cpp:434] conv2_3/3/conv <- conv2_3/2
I0315 18:48:54.736484  1399 net.cpp:408] conv2_3/3/conv -> conv2_3/3
I0315 18:48:54.737287  1399 net.cpp:150] Setting up conv2_3/3/conv
I0315 18:48:54.737296  1399 net.cpp:157] Top shape: 1 64 216 360 (4976640)
I0315 18:48:54.737299  1399 net.cpp:165] Memory required for data: 967956568
I0315 18:48:54.737303  1399 layer_factory.hpp:77] Creating layer conv2_3/3/bn
I0315 18:48:54.737308  1399 net.cpp:100] Creating Layer conv2_3/3/bn
I0315 18:48:54.737311  1399 net.cpp:434] conv2_3/3/bn <- conv2_3/3
I0315 18:48:54.737316  1399 net.cpp:395] conv2_3/3/bn -> conv2_3/3 (in-place)
I0315 18:48:54.737493  1399 net.cpp:150] Setting up conv2_3/3/bn
I0315 18:48:54.737499  1399 net.cpp:157] Top shape: 1 64 216 360 (4976640)
I0315 18:48:54.737501  1399 net.cpp:165] Memory required for data: 987863128
I0315 18:48:54.737514  1399 layer_factory.hpp:77] Creating layer conv2_3/3/bn_scale
I0315 18:48:54.737519  1399 net.cpp:100] Creating Layer conv2_3/3/bn_scale
I0315 18:48:54.737522  1399 net.cpp:434] conv2_3/3/bn_scale <- conv2_3/3
I0315 18:48:54.737526  1399 net.cpp:395] conv2_3/3/bn_scale -> conv2_3/3 (in-place)
I0315 18:48:54.737555  1399 layer_factory.hpp:77] Creating layer conv2_3/3/bn_scale
I0315 18:48:54.737943  1399 net.cpp:150] Setting up conv2_3/3/bn_scale
I0315 18:48:54.737951  1399 net.cpp:157] Top shape: 1 64 216 360 (4976640)
I0315 18:48:54.737954  1399 net.cpp:165] Memory required for data: 1007769688
I0315 18:48:54.737959  1399 layer_factory.hpp:77] Creating layer conv2_3/input
I0315 18:48:54.737964  1399 net.cpp:100] Creating Layer conv2_3/input
I0315 18:48:54.737967  1399 net.cpp:434] conv2_3/input <- conv2_2_conv2_2_0_split_1
I0315 18:48:54.737972  1399 net.cpp:408] conv2_3/input -> conv2_3/input
I0315 18:48:54.737993  1399 net.cpp:150] Setting up conv2_3/input
I0315 18:48:54.737998  1399 net.cpp:157] Top shape: 1 64 216 360 (4976640)
I0315 18:48:54.737999  1399 net.cpp:165] Memory required for data: 1027676248
I0315 18:48:54.738003  1399 layer_factory.hpp:77] Creating layer conv2_3
I0315 18:48:54.738013  1399 net.cpp:100] Creating Layer conv2_3
I0315 18:48:54.738016  1399 net.cpp:434] conv2_3 <- conv2_3/3
I0315 18:48:54.738019  1399 net.cpp:434] conv2_3 <- conv2_3/input
I0315 18:48:54.738023  1399 net.cpp:408] conv2_3 -> conv2_3
I0315 18:48:54.738041  1399 net.cpp:150] Setting up conv2_3
I0315 18:48:54.738045  1399 net.cpp:157] Top shape: 1 64 216 360 (4976640)
I0315 18:48:54.738049  1399 net.cpp:165] Memory required for data: 1047582808
I0315 18:48:54.738051  1399 layer_factory.hpp:77] Creating layer conv2_3_conv2_3_0_split
I0315 18:48:54.738056  1399 net.cpp:100] Creating Layer conv2_3_conv2_3_0_split
I0315 18:48:54.738059  1399 net.cpp:434] conv2_3_conv2_3_0_split <- conv2_3
I0315 18:48:54.738064  1399 net.cpp:408] conv2_3_conv2_3_0_split -> conv2_3_conv2_3_0_split_0
I0315 18:48:54.738067  1399 net.cpp:408] conv2_3_conv2_3_0_split -> conv2_3_conv2_3_0_split_1
I0315 18:48:54.738092  1399 net.cpp:150] Setting up conv2_3_conv2_3_0_split
I0315 18:48:54.738096  1399 net.cpp:157] Top shape: 1 64 216 360 (4976640)
I0315 18:48:54.738099  1399 net.cpp:157] Top shape: 1 64 216 360 (4976640)
I0315 18:48:54.738101  1399 net.cpp:165] Memory required for data: 1087395928
I0315 18:48:54.738104  1399 layer_factory.hpp:77] Creating layer conv3_1/1/conv
I0315 18:48:54.738111  1399 net.cpp:100] Creating Layer conv3_1/1/conv
I0315 18:48:54.738113  1399 net.cpp:434] conv3_1/1/conv <- conv2_3_conv2_3_0_split_0
I0315 18:48:54.738118  1399 net.cpp:408] conv3_1/1/conv -> conv3_1/1
I0315 18:48:54.738885  1399 net.cpp:150] Setting up conv3_1/1/conv
I0315 18:48:54.738895  1399 net.cpp:157] Top shape: 1 48 108 180 (933120)
I0315 18:48:54.738898  1399 net.cpp:165] Memory required for data: 1091128408
I0315 18:48:54.738905  1399 layer_factory.hpp:77] Creating layer conv3_1/1/bn
I0315 18:48:54.738910  1399 net.cpp:100] Creating Layer conv3_1/1/bn
I0315 18:48:54.738914  1399 net.cpp:434] conv3_1/1/bn <- conv3_1/1
I0315 18:48:54.738919  1399 net.cpp:395] conv3_1/1/bn -> conv3_1/1 (in-place)
I0315 18:48:54.739315  1399 net.cpp:150] Setting up conv3_1/1/bn
I0315 18:48:54.739325  1399 net.cpp:157] Top shape: 1 48 108 180 (933120)
I0315 18:48:54.739326  1399 net.cpp:165] Memory required for data: 1094860888
I0315 18:48:54.739332  1399 layer_factory.hpp:77] Creating layer conv3_1/1/bn_scale
I0315 18:48:54.739338  1399 net.cpp:100] Creating Layer conv3_1/1/bn_scale
I0315 18:48:54.739341  1399 net.cpp:434] conv3_1/1/bn_scale <- conv3_1/1
I0315 18:48:54.739346  1399 net.cpp:395] conv3_1/1/bn_scale -> conv3_1/1 (in-place)
I0315 18:48:54.739375  1399 layer_factory.hpp:77] Creating layer conv3_1/1/bn_scale
I0315 18:48:54.739475  1399 net.cpp:150] Setting up conv3_1/1/bn_scale
I0315 18:48:54.739480  1399 net.cpp:157] Top shape: 1 48 108 180 (933120)
I0315 18:48:54.739482  1399 net.cpp:165] Memory required for data: 1098593368
I0315 18:48:54.739487  1399 layer_factory.hpp:77] Creating layer conv3_1/1/relu
I0315 18:48:54.739491  1399 net.cpp:100] Creating Layer conv3_1/1/relu
I0315 18:48:54.739495  1399 net.cpp:434] conv3_1/1/relu <- conv3_1/1
I0315 18:48:54.739500  1399 net.cpp:395] conv3_1/1/relu -> conv3_1/1 (in-place)
I0315 18:48:54.739620  1399 net.cpp:150] Setting up conv3_1/1/relu
I0315 18:48:54.739627  1399 net.cpp:157] Top shape: 1 48 108 180 (933120)
I0315 18:48:54.739630  1399 net.cpp:165] Memory required for data: 1102325848
I0315 18:48:54.739632  1399 layer_factory.hpp:77] Creating layer conv3_1/2/conv
I0315 18:48:54.739639  1399 net.cpp:100] Creating Layer conv3_1/2/conv
I0315 18:48:54.739642  1399 net.cpp:434] conv3_1/2/conv <- conv3_1/1
I0315 18:48:54.739646  1399 net.cpp:408] conv3_1/2/conv -> conv3_1/2/conv
I0315 18:48:54.740409  1399 net.cpp:150] Setting up conv3_1/2/conv
I0315 18:48:54.740419  1399 net.cpp:157] Top shape: 1 48 108 180 (933120)
I0315 18:48:54.740422  1399 net.cpp:165] Memory required for data: 1106058328
I0315 18:48:54.740427  1399 layer_factory.hpp:77] Creating layer conv3_1/2/bn
I0315 18:48:54.740432  1399 net.cpp:100] Creating Layer conv3_1/2/bn
I0315 18:48:54.740435  1399 net.cpp:434] conv3_1/2/bn <- conv3_1/2/conv
I0315 18:48:54.740439  1399 net.cpp:395] conv3_1/2/bn -> conv3_1/2/conv (in-place)
I0315 18:48:54.740583  1399 net.cpp:150] Setting up conv3_1/2/bn
I0315 18:48:54.740588  1399 net.cpp:157] Top shape: 1 48 108 180 (933120)
I0315 18:48:54.740591  1399 net.cpp:165] Memory required for data: 1109790808
I0315 18:48:54.740597  1399 layer_factory.hpp:77] Creating layer conv3_1/2/conv_conv3_1/2/bn_0_split
I0315 18:48:54.740602  1399 net.cpp:100] Creating Layer conv3_1/2/conv_conv3_1/2/bn_0_split
I0315 18:48:54.740604  1399 net.cpp:434] conv3_1/2/conv_conv3_1/2/bn_0_split <- conv3_1/2/conv
I0315 18:48:54.740608  1399 net.cpp:408] conv3_1/2/conv_conv3_1/2/bn_0_split -> conv3_1/2/conv_conv3_1/2/bn_0_split_0
I0315 18:48:54.740612  1399 net.cpp:408] conv3_1/2/conv_conv3_1/2/bn_0_split -> conv3_1/2/conv_conv3_1/2/bn_0_split_1
I0315 18:48:54.740638  1399 net.cpp:150] Setting up conv3_1/2/conv_conv3_1/2/bn_0_split
I0315 18:48:54.740643  1399 net.cpp:157] Top shape: 1 48 108 180 (933120)
I0315 18:48:54.740648  1399 net.cpp:157] Top shape: 1 48 108 180 (933120)
I0315 18:48:54.740649  1399 net.cpp:165] Memory required for data: 1117255768
I0315 18:48:54.740651  1399 layer_factory.hpp:77] Creating layer conv3_1/2/neg
I0315 18:48:54.740655  1399 net.cpp:100] Creating Layer conv3_1/2/neg
I0315 18:48:54.740658  1399 net.cpp:434] conv3_1/2/neg <- conv3_1/2/conv_conv3_1/2/bn_0_split_0
I0315 18:48:54.740663  1399 net.cpp:408] conv3_1/2/neg -> conv3_1/2/neg
I0315 18:48:54.740679  1399 net.cpp:150] Setting up conv3_1/2/neg
I0315 18:48:54.740684  1399 net.cpp:157] Top shape: 1 48 108 180 (933120)
I0315 18:48:54.740685  1399 net.cpp:165] Memory required for data: 1120988248
I0315 18:48:54.740690  1399 layer_factory.hpp:77] Creating layer conv3_1/2/concat
I0315 18:48:54.740695  1399 net.cpp:100] Creating Layer conv3_1/2/concat
I0315 18:48:54.740698  1399 net.cpp:434] conv3_1/2/concat <- conv3_1/2/conv_conv3_1/2/bn_0_split_1
I0315 18:48:54.740702  1399 net.cpp:434] conv3_1/2/concat <- conv3_1/2/neg
I0315 18:48:54.740705  1399 net.cpp:408] conv3_1/2/concat -> conv3_1/2
I0315 18:48:54.740722  1399 net.cpp:150] Setting up conv3_1/2/concat
I0315 18:48:54.740726  1399 net.cpp:157] Top shape: 1 96 108 180 (1866240)
I0315 18:48:54.740730  1399 net.cpp:165] Memory required for data: 1128453208
I0315 18:48:54.740731  1399 layer_factory.hpp:77] Creating layer conv3_1/2/scale
I0315 18:48:54.740736  1399 net.cpp:100] Creating Layer conv3_1/2/scale
I0315 18:48:54.740739  1399 net.cpp:434] conv3_1/2/scale <- conv3_1/2
I0315 18:48:54.740743  1399 net.cpp:395] conv3_1/2/scale -> conv3_1/2 (in-place)
I0315 18:48:54.740773  1399 layer_factory.hpp:77] Creating layer conv3_1/2/scale
I0315 18:48:54.740869  1399 net.cpp:150] Setting up conv3_1/2/scale
I0315 18:48:54.740875  1399 net.cpp:157] Top shape: 1 96 108 180 (1866240)
I0315 18:48:54.740877  1399 net.cpp:165] Memory required for data: 1135918168
I0315 18:48:54.740881  1399 layer_factory.hpp:77] Creating layer conv3_1/2/relu
I0315 18:48:54.740885  1399 net.cpp:100] Creating Layer conv3_1/2/relu
I0315 18:48:54.740888  1399 net.cpp:434] conv3_1/2/relu <- conv3_1/2
I0315 18:48:54.740892  1399 net.cpp:395] conv3_1/2/relu -> conv3_1/2 (in-place)
I0315 18:48:54.741132  1399 net.cpp:150] Setting up conv3_1/2/relu
I0315 18:48:54.741142  1399 net.cpp:157] Top shape: 1 96 108 180 (1866240)
I0315 18:48:54.741143  1399 net.cpp:165] Memory required for data: 1143383128
I0315 18:48:54.741147  1399 layer_factory.hpp:77] Creating layer conv3_1/3/conv
I0315 18:48:54.741153  1399 net.cpp:100] Creating Layer conv3_1/3/conv
I0315 18:48:54.741156  1399 net.cpp:434] conv3_1/3/conv <- conv3_1/2
I0315 18:48:54.741161  1399 net.cpp:408] conv3_1/3/conv -> conv3_1/3
I0315 18:48:54.741888  1399 net.cpp:150] Setting up conv3_1/3/conv
I0315 18:48:54.741897  1399 net.cpp:157] Top shape: 1 128 108 180 (2488320)
I0315 18:48:54.741899  1399 net.cpp:165] Memory required for data: 1153336408
I0315 18:48:54.741904  1399 layer_factory.hpp:77] Creating layer conv3_1/3/bn
I0315 18:48:54.741909  1399 net.cpp:100] Creating Layer conv3_1/3/bn
I0315 18:48:54.741912  1399 net.cpp:434] conv3_1/3/bn <- conv3_1/3
I0315 18:48:54.741917  1399 net.cpp:395] conv3_1/3/bn -> conv3_1/3 (in-place)
I0315 18:48:54.742063  1399 net.cpp:150] Setting up conv3_1/3/bn
I0315 18:48:54.742069  1399 net.cpp:157] Top shape: 1 128 108 180 (2488320)
I0315 18:48:54.742071  1399 net.cpp:165] Memory required for data: 1163289688
I0315 18:48:54.742076  1399 layer_factory.hpp:77] Creating layer conv3_1/3/bn_scale
I0315 18:48:54.742080  1399 net.cpp:100] Creating Layer conv3_1/3/bn_scale
I0315 18:48:54.742084  1399 net.cpp:434] conv3_1/3/bn_scale <- conv3_1/3
I0315 18:48:54.742089  1399 net.cpp:395] conv3_1/3/bn_scale -> conv3_1/3 (in-place)
I0315 18:48:54.742115  1399 layer_factory.hpp:77] Creating layer conv3_1/3/bn_scale
I0315 18:48:54.742210  1399 net.cpp:150] Setting up conv3_1/3/bn_scale
I0315 18:48:54.742215  1399 net.cpp:157] Top shape: 1 128 108 180 (2488320)
I0315 18:48:54.742218  1399 net.cpp:165] Memory required for data: 1173242968
I0315 18:48:54.742223  1399 layer_factory.hpp:77] Creating layer conv3_1/proj
I0315 18:48:54.742228  1399 net.cpp:100] Creating Layer conv3_1/proj
I0315 18:48:54.742231  1399 net.cpp:434] conv3_1/proj <- conv2_3_conv2_3_0_split_1
I0315 18:48:54.742236  1399 net.cpp:408] conv3_1/proj -> conv3_1/proj
I0315 18:48:54.742985  1399 net.cpp:150] Setting up conv3_1/proj
I0315 18:48:54.742995  1399 net.cpp:157] Top shape: 1 128 108 180 (2488320)
I0315 18:48:54.742997  1399 net.cpp:165] Memory required for data: 1183196248
I0315 18:48:54.743002  1399 layer_factory.hpp:77] Creating layer conv3_1/proj_bn
I0315 18:48:54.743008  1399 net.cpp:100] Creating Layer conv3_1/proj_bn
I0315 18:48:54.743011  1399 net.cpp:434] conv3_1/proj_bn <- conv3_1/proj
I0315 18:48:54.743019  1399 net.cpp:395] conv3_1/proj_bn -> conv3_1/proj (in-place)
I0315 18:48:54.743182  1399 net.cpp:150] Setting up conv3_1/proj_bn
I0315 18:48:54.743187  1399 net.cpp:157] Top shape: 1 128 108 180 (2488320)
I0315 18:48:54.743191  1399 net.cpp:165] Memory required for data: 1193149528
I0315 18:48:54.743196  1399 layer_factory.hpp:77] Creating layer conv3_1/proj_bn_scale
I0315 18:48:54.743201  1399 net.cpp:100] Creating Layer conv3_1/proj_bn_scale
I0315 18:48:54.743203  1399 net.cpp:434] conv3_1/proj_bn_scale <- conv3_1/proj
I0315 18:48:54.743207  1399 net.cpp:395] conv3_1/proj_bn_scale -> conv3_1/proj (in-place)
I0315 18:48:54.743234  1399 layer_factory.hpp:77] Creating layer conv3_1/proj_bn_scale
I0315 18:48:54.743569  1399 net.cpp:150] Setting up conv3_1/proj_bn_scale
I0315 18:48:54.743577  1399 net.cpp:157] Top shape: 1 128 108 180 (2488320)
I0315 18:48:54.743579  1399 net.cpp:165] Memory required for data: 1203102808
I0315 18:48:54.743584  1399 layer_factory.hpp:77] Creating layer conv3_1
I0315 18:48:54.743590  1399 net.cpp:100] Creating Layer conv3_1
I0315 18:48:54.743593  1399 net.cpp:434] conv3_1 <- conv3_1/3
I0315 18:48:54.743597  1399 net.cpp:434] conv3_1 <- conv3_1/proj
I0315 18:48:54.743600  1399 net.cpp:408] conv3_1 -> conv3_1
I0315 18:48:54.743623  1399 net.cpp:150] Setting up conv3_1
I0315 18:48:54.743626  1399 net.cpp:157] Top shape: 1 128 108 180 (2488320)
I0315 18:48:54.743629  1399 net.cpp:165] Memory required for data: 1213056088
I0315 18:48:54.743631  1399 layer_factory.hpp:77] Creating layer conv3_1_conv3_1_0_split
I0315 18:48:54.743635  1399 net.cpp:100] Creating Layer conv3_1_conv3_1_0_split
I0315 18:48:54.743638  1399 net.cpp:434] conv3_1_conv3_1_0_split <- conv3_1
I0315 18:48:54.743643  1399 net.cpp:408] conv3_1_conv3_1_0_split -> conv3_1_conv3_1_0_split_0
I0315 18:48:54.743649  1399 net.cpp:408] conv3_1_conv3_1_0_split -> conv3_1_conv3_1_0_split_1
I0315 18:48:54.743674  1399 net.cpp:150] Setting up conv3_1_conv3_1_0_split
I0315 18:48:54.743679  1399 net.cpp:157] Top shape: 1 128 108 180 (2488320)
I0315 18:48:54.743681  1399 net.cpp:157] Top shape: 1 128 108 180 (2488320)
I0315 18:48:54.743685  1399 net.cpp:165] Memory required for data: 1232962648
I0315 18:48:54.743686  1399 layer_factory.hpp:77] Creating layer conv3_2/1/conv
I0315 18:48:54.743691  1399 net.cpp:100] Creating Layer conv3_2/1/conv
I0315 18:48:54.743695  1399 net.cpp:434] conv3_2/1/conv <- conv3_1_conv3_1_0_split_0
I0315 18:48:54.743700  1399 net.cpp:408] conv3_2/1/conv -> conv3_2/1
I0315 18:48:54.744487  1399 net.cpp:150] Setting up conv3_2/1/conv
I0315 18:48:54.744496  1399 net.cpp:157] Top shape: 1 48 108 180 (933120)
I0315 18:48:54.744498  1399 net.cpp:165] Memory required for data: 1236695128
I0315 18:48:54.744503  1399 layer_factory.hpp:77] Creating layer conv3_2/1/bn
I0315 18:48:54.744508  1399 net.cpp:100] Creating Layer conv3_2/1/bn
I0315 18:48:54.744511  1399 net.cpp:434] conv3_2/1/bn <- conv3_2/1
I0315 18:48:54.744516  1399 net.cpp:395] conv3_2/1/bn -> conv3_2/1 (in-place)
I0315 18:48:54.744670  1399 net.cpp:150] Setting up conv3_2/1/bn
I0315 18:48:54.744676  1399 net.cpp:157] Top shape: 1 48 108 180 (933120)
I0315 18:48:54.744679  1399 net.cpp:165] Memory required for data: 1240427608
I0315 18:48:54.744684  1399 layer_factory.hpp:77] Creating layer conv3_2/1/bn_scale
I0315 18:48:54.744688  1399 net.cpp:100] Creating Layer conv3_2/1/bn_scale
I0315 18:48:54.744691  1399 net.cpp:434] conv3_2/1/bn_scale <- conv3_2/1
I0315 18:48:54.744696  1399 net.cpp:395] conv3_2/1/bn_scale -> conv3_2/1 (in-place)
I0315 18:48:54.744725  1399 layer_factory.hpp:77] Creating layer conv3_2/1/bn_scale
I0315 18:48:54.744827  1399 net.cpp:150] Setting up conv3_2/1/bn_scale
I0315 18:48:54.744832  1399 net.cpp:157] Top shape: 1 48 108 180 (933120)
I0315 18:48:54.744835  1399 net.cpp:165] Memory required for data: 1244160088
I0315 18:48:54.744839  1399 layer_factory.hpp:77] Creating layer conv3_2/1/relu
I0315 18:48:54.744843  1399 net.cpp:100] Creating Layer conv3_2/1/relu
I0315 18:48:54.744846  1399 net.cpp:434] conv3_2/1/relu <- conv3_2/1
I0315 18:48:54.744853  1399 net.cpp:395] conv3_2/1/relu -> conv3_2/1 (in-place)
I0315 18:48:54.745106  1399 net.cpp:150] Setting up conv3_2/1/relu
I0315 18:48:54.745115  1399 net.cpp:157] Top shape: 1 48 108 180 (933120)
I0315 18:48:54.745117  1399 net.cpp:165] Memory required for data: 1247892568
I0315 18:48:54.745121  1399 layer_factory.hpp:77] Creating layer conv3_2/2/conv
I0315 18:48:54.745127  1399 net.cpp:100] Creating Layer conv3_2/2/conv
I0315 18:48:54.745131  1399 net.cpp:434] conv3_2/2/conv <- conv3_2/1
I0315 18:48:54.745136  1399 net.cpp:408] conv3_2/2/conv -> conv3_2/2/conv
I0315 18:48:54.745812  1399 net.cpp:150] Setting up conv3_2/2/conv
I0315 18:48:54.745821  1399 net.cpp:157] Top shape: 1 48 108 180 (933120)
I0315 18:48:54.745824  1399 net.cpp:165] Memory required for data: 1251625048
I0315 18:48:54.745828  1399 layer_factory.hpp:77] Creating layer conv3_2/2/bn
I0315 18:48:54.745833  1399 net.cpp:100] Creating Layer conv3_2/2/bn
I0315 18:48:54.745836  1399 net.cpp:434] conv3_2/2/bn <- conv3_2/2/conv
I0315 18:48:54.745841  1399 net.cpp:395] conv3_2/2/bn -> conv3_2/2/conv (in-place)
I0315 18:48:54.745991  1399 net.cpp:150] Setting up conv3_2/2/bn
I0315 18:48:54.745996  1399 net.cpp:157] Top shape: 1 48 108 180 (933120)
I0315 18:48:54.746000  1399 net.cpp:165] Memory required for data: 1255357528
I0315 18:48:54.746004  1399 layer_factory.hpp:77] Creating layer conv3_2/2/conv_conv3_2/2/bn_0_split
I0315 18:48:54.746008  1399 net.cpp:100] Creating Layer conv3_2/2/conv_conv3_2/2/bn_0_split
I0315 18:48:54.746011  1399 net.cpp:434] conv3_2/2/conv_conv3_2/2/bn_0_split <- conv3_2/2/conv
I0315 18:48:54.746016  1399 net.cpp:408] conv3_2/2/conv_conv3_2/2/bn_0_split -> conv3_2/2/conv_conv3_2/2/bn_0_split_0
I0315 18:48:54.746027  1399 net.cpp:408] conv3_2/2/conv_conv3_2/2/bn_0_split -> conv3_2/2/conv_conv3_2/2/bn_0_split_1
I0315 18:48:54.746054  1399 net.cpp:150] Setting up conv3_2/2/conv_conv3_2/2/bn_0_split
I0315 18:48:54.746059  1399 net.cpp:157] Top shape: 1 48 108 180 (933120)
I0315 18:48:54.746062  1399 net.cpp:157] Top shape: 1 48 108 180 (933120)
I0315 18:48:54.746064  1399 net.cpp:165] Memory required for data: 1262822488
I0315 18:48:54.746068  1399 layer_factory.hpp:77] Creating layer conv3_2/2/neg
I0315 18:48:54.746073  1399 net.cpp:100] Creating Layer conv3_2/2/neg
I0315 18:48:54.746075  1399 net.cpp:434] conv3_2/2/neg <- conv3_2/2/conv_conv3_2/2/bn_0_split_0
I0315 18:48:54.746079  1399 net.cpp:408] conv3_2/2/neg -> conv3_2/2/neg
I0315 18:48:54.746098  1399 net.cpp:150] Setting up conv3_2/2/neg
I0315 18:48:54.746101  1399 net.cpp:157] Top shape: 1 48 108 180 (933120)
I0315 18:48:54.746104  1399 net.cpp:165] Memory required for data: 1266554968
I0315 18:48:54.746106  1399 layer_factory.hpp:77] Creating layer conv3_2/2/concat
I0315 18:48:54.746110  1399 net.cpp:100] Creating Layer conv3_2/2/concat
I0315 18:48:54.746114  1399 net.cpp:434] conv3_2/2/concat <- conv3_2/2/conv_conv3_2/2/bn_0_split_1
I0315 18:48:54.746117  1399 net.cpp:434] conv3_2/2/concat <- conv3_2/2/neg
I0315 18:48:54.746124  1399 net.cpp:408] conv3_2/2/concat -> conv3_2/2
I0315 18:48:54.746141  1399 net.cpp:150] Setting up conv3_2/2/concat
I0315 18:48:54.746145  1399 net.cpp:157] Top shape: 1 96 108 180 (1866240)
I0315 18:48:54.746148  1399 net.cpp:165] Memory required for data: 1274019928
I0315 18:48:54.746150  1399 layer_factory.hpp:77] Creating layer conv3_2/2/scale
I0315 18:48:54.746155  1399 net.cpp:100] Creating Layer conv3_2/2/scale
I0315 18:48:54.746158  1399 net.cpp:434] conv3_2/2/scale <- conv3_2/2
I0315 18:48:54.746162  1399 net.cpp:395] conv3_2/2/scale -> conv3_2/2 (in-place)
I0315 18:48:54.746191  1399 layer_factory.hpp:77] Creating layer conv3_2/2/scale
I0315 18:48:54.746291  1399 net.cpp:150] Setting up conv3_2/2/scale
I0315 18:48:54.746296  1399 net.cpp:157] Top shape: 1 96 108 180 (1866240)
I0315 18:48:54.746299  1399 net.cpp:165] Memory required for data: 1281484888
I0315 18:48:54.746304  1399 layer_factory.hpp:77] Creating layer conv3_2/2/relu
I0315 18:48:54.746307  1399 net.cpp:100] Creating Layer conv3_2/2/relu
I0315 18:48:54.746312  1399 net.cpp:434] conv3_2/2/relu <- conv3_2/2
I0315 18:48:54.746317  1399 net.cpp:395] conv3_2/2/relu -> conv3_2/2 (in-place)
I0315 18:48:54.746533  1399 net.cpp:150] Setting up conv3_2/2/relu
I0315 18:48:54.746541  1399 net.cpp:157] Top shape: 1 96 108 180 (1866240)
I0315 18:48:54.746543  1399 net.cpp:165] Memory required for data: 1288949848
I0315 18:48:54.746546  1399 layer_factory.hpp:77] Creating layer conv3_2/3/conv
I0315 18:48:54.746553  1399 net.cpp:100] Creating Layer conv3_2/3/conv
I0315 18:48:54.746556  1399 net.cpp:434] conv3_2/3/conv <- conv3_2/2
I0315 18:48:54.746562  1399 net.cpp:408] conv3_2/3/conv -> conv3_2/3
I0315 18:48:54.747468  1399 net.cpp:150] Setting up conv3_2/3/conv
I0315 18:48:54.747478  1399 net.cpp:157] Top shape: 1 128 108 180 (2488320)
I0315 18:48:54.747480  1399 net.cpp:165] Memory required for data: 1298903128
I0315 18:48:54.747484  1399 layer_factory.hpp:77] Creating layer conv3_2/3/bn
I0315 18:48:54.747490  1399 net.cpp:100] Creating Layer conv3_2/3/bn
I0315 18:48:54.747493  1399 net.cpp:434] conv3_2/3/bn <- conv3_2/3
I0315 18:48:54.747498  1399 net.cpp:395] conv3_2/3/bn -> conv3_2/3 (in-place)
I0315 18:48:54.747645  1399 net.cpp:150] Setting up conv3_2/3/bn
I0315 18:48:54.747650  1399 net.cpp:157] Top shape: 1 128 108 180 (2488320)
I0315 18:48:54.747653  1399 net.cpp:165] Memory required for data: 1308856408
I0315 18:48:54.747658  1399 layer_factory.hpp:77] Creating layer conv3_2/3/bn_scale
I0315 18:48:54.747663  1399 net.cpp:100] Creating Layer conv3_2/3/bn_scale
I0315 18:48:54.747666  1399 net.cpp:434] conv3_2/3/bn_scale <- conv3_2/3
I0315 18:48:54.747670  1399 net.cpp:395] conv3_2/3/bn_scale -> conv3_2/3 (in-place)
I0315 18:48:54.747697  1399 layer_factory.hpp:77] Creating layer conv3_2/3/bn_scale
I0315 18:48:54.747792  1399 net.cpp:150] Setting up conv3_2/3/bn_scale
I0315 18:48:54.747798  1399 net.cpp:157] Top shape: 1 128 108 180 (2488320)
I0315 18:48:54.747800  1399 net.cpp:165] Memory required for data: 1318809688
I0315 18:48:54.747805  1399 layer_factory.hpp:77] Creating layer conv3_2/input
I0315 18:48:54.747809  1399 net.cpp:100] Creating Layer conv3_2/input
I0315 18:48:54.747812  1399 net.cpp:434] conv3_2/input <- conv3_1_conv3_1_0_split_1
I0315 18:48:54.747817  1399 net.cpp:408] conv3_2/input -> conv3_2/input
I0315 18:48:54.747835  1399 net.cpp:150] Setting up conv3_2/input
I0315 18:48:54.747839  1399 net.cpp:157] Top shape: 1 128 108 180 (2488320)
I0315 18:48:54.747843  1399 net.cpp:165] Memory required for data: 1328762968
I0315 18:48:54.747844  1399 layer_factory.hpp:77] Creating layer conv3_2
I0315 18:48:54.747849  1399 net.cpp:100] Creating Layer conv3_2
I0315 18:48:54.747853  1399 net.cpp:434] conv3_2 <- conv3_2/3
I0315 18:48:54.747856  1399 net.cpp:434] conv3_2 <- conv3_2/input
I0315 18:48:54.747859  1399 net.cpp:408] conv3_2 -> conv3_2
I0315 18:48:54.747877  1399 net.cpp:150] Setting up conv3_2
I0315 18:48:54.747881  1399 net.cpp:157] Top shape: 1 128 108 180 (2488320)
I0315 18:48:54.747884  1399 net.cpp:165] Memory required for data: 1338716248
I0315 18:48:54.747886  1399 layer_factory.hpp:77] Creating layer conv3_2_conv3_2_0_split
I0315 18:48:54.747890  1399 net.cpp:100] Creating Layer conv3_2_conv3_2_0_split
I0315 18:48:54.747894  1399 net.cpp:434] conv3_2_conv3_2_0_split <- conv3_2
I0315 18:48:54.747897  1399 net.cpp:408] conv3_2_conv3_2_0_split -> conv3_2_conv3_2_0_split_0
I0315 18:48:54.747901  1399 net.cpp:408] conv3_2_conv3_2_0_split -> conv3_2_conv3_2_0_split_1
I0315 18:48:54.747928  1399 net.cpp:150] Setting up conv3_2_conv3_2_0_split
I0315 18:48:54.747933  1399 net.cpp:157] Top shape: 1 128 108 180 (2488320)
I0315 18:48:54.747936  1399 net.cpp:157] Top shape: 1 128 108 180 (2488320)
I0315 18:48:54.747938  1399 net.cpp:165] Memory required for data: 1358622808
I0315 18:48:54.747941  1399 layer_factory.hpp:77] Creating layer conv3_3/1/conv
I0315 18:48:54.747947  1399 net.cpp:100] Creating Layer conv3_3/1/conv
I0315 18:48:54.747951  1399 net.cpp:434] conv3_3/1/conv <- conv3_2_conv3_2_0_split_0
I0315 18:48:54.747958  1399 net.cpp:408] conv3_3/1/conv -> conv3_3/1
I0315 18:48:54.748584  1399 net.cpp:150] Setting up conv3_3/1/conv
I0315 18:48:54.748594  1399 net.cpp:157] Top shape: 1 48 108 180 (933120)
I0315 18:48:54.748597  1399 net.cpp:165] Memory required for data: 1362355288
I0315 18:48:54.748601  1399 layer_factory.hpp:77] Creating layer conv3_3/1/bn
I0315 18:48:54.748606  1399 net.cpp:100] Creating Layer conv3_3/1/bn
I0315 18:48:54.748610  1399 net.cpp:434] conv3_3/1/bn <- conv3_3/1
I0315 18:48:54.748615  1399 net.cpp:395] conv3_3/1/bn -> conv3_3/1 (in-place)
I0315 18:48:54.748769  1399 net.cpp:150] Setting up conv3_3/1/bn
I0315 18:48:54.748774  1399 net.cpp:157] Top shape: 1 48 108 180 (933120)
I0315 18:48:54.748775  1399 net.cpp:165] Memory required for data: 1366087768
I0315 18:48:54.748781  1399 layer_factory.hpp:77] Creating layer conv3_3/1/bn_scale
I0315 18:48:54.748785  1399 net.cpp:100] Creating Layer conv3_3/1/bn_scale
I0315 18:48:54.748788  1399 net.cpp:434] conv3_3/1/bn_scale <- conv3_3/1
I0315 18:48:54.748792  1399 net.cpp:395] conv3_3/1/bn_scale -> conv3_3/1 (in-place)
I0315 18:48:54.748821  1399 layer_factory.hpp:77] Creating layer conv3_3/1/bn_scale
I0315 18:48:54.749215  1399 net.cpp:150] Setting up conv3_3/1/bn_scale
I0315 18:48:54.749224  1399 net.cpp:157] Top shape: 1 48 108 180 (933120)
I0315 18:48:54.749228  1399 net.cpp:165] Memory required for data: 1369820248
I0315 18:48:54.749231  1399 layer_factory.hpp:77] Creating layer conv3_3/1/relu
I0315 18:48:54.749236  1399 net.cpp:100] Creating Layer conv3_3/1/relu
I0315 18:48:54.749239  1399 net.cpp:434] conv3_3/1/relu <- conv3_3/1
I0315 18:48:54.749244  1399 net.cpp:395] conv3_3/1/relu -> conv3_3/1 (in-place)
I0315 18:48:54.749455  1399 net.cpp:150] Setting up conv3_3/1/relu
I0315 18:48:54.749464  1399 net.cpp:157] Top shape: 1 48 108 180 (933120)
I0315 18:48:54.749466  1399 net.cpp:165] Memory required for data: 1373552728
I0315 18:48:54.749469  1399 layer_factory.hpp:77] Creating layer conv3_3/2/conv
I0315 18:48:54.749476  1399 net.cpp:100] Creating Layer conv3_3/2/conv
I0315 18:48:54.749480  1399 net.cpp:434] conv3_3/2/conv <- conv3_3/1
I0315 18:48:54.749485  1399 net.cpp:408] conv3_3/2/conv -> conv3_3/2/conv
I0315 18:48:54.750344  1399 net.cpp:150] Setting up conv3_3/2/conv
I0315 18:48:54.750352  1399 net.cpp:157] Top shape: 1 48 108 180 (933120)
I0315 18:48:54.750355  1399 net.cpp:165] Memory required for data: 1377285208
I0315 18:48:54.750360  1399 layer_factory.hpp:77] Creating layer conv3_3/2/bn
I0315 18:48:54.750365  1399 net.cpp:100] Creating Layer conv3_3/2/bn
I0315 18:48:54.750367  1399 net.cpp:434] conv3_3/2/bn <- conv3_3/2/conv
I0315 18:48:54.750372  1399 net.cpp:395] conv3_3/2/bn -> conv3_3/2/conv (in-place)
I0315 18:48:54.750529  1399 net.cpp:150] Setting up conv3_3/2/bn
I0315 18:48:54.750533  1399 net.cpp:157] Top shape: 1 48 108 180 (933120)
I0315 18:48:54.750536  1399 net.cpp:165] Memory required for data: 1381017688
I0315 18:48:54.750541  1399 layer_factory.hpp:77] Creating layer conv3_3/2/conv_conv3_3/2/bn_0_split
I0315 18:48:54.750545  1399 net.cpp:100] Creating Layer conv3_3/2/conv_conv3_3/2/bn_0_split
I0315 18:48:54.750548  1399 net.cpp:434] conv3_3/2/conv_conv3_3/2/bn_0_split <- conv3_3/2/conv
I0315 18:48:54.750552  1399 net.cpp:408] conv3_3/2/conv_conv3_3/2/bn_0_split -> conv3_3/2/conv_conv3_3/2/bn_0_split_0
I0315 18:48:54.750557  1399 net.cpp:408] conv3_3/2/conv_conv3_3/2/bn_0_split -> conv3_3/2/conv_conv3_3/2/bn_0_split_1
I0315 18:48:54.750584  1399 net.cpp:150] Setting up conv3_3/2/conv_conv3_3/2/bn_0_split
I0315 18:48:54.750589  1399 net.cpp:157] Top shape: 1 48 108 180 (933120)
I0315 18:48:54.750592  1399 net.cpp:157] Top shape: 1 48 108 180 (933120)
I0315 18:48:54.750594  1399 net.cpp:165] Memory required for data: 1388482648
I0315 18:48:54.750597  1399 layer_factory.hpp:77] Creating layer conv3_3/2/neg
I0315 18:48:54.750602  1399 net.cpp:100] Creating Layer conv3_3/2/neg
I0315 18:48:54.750605  1399 net.cpp:434] conv3_3/2/neg <- conv3_3/2/conv_conv3_3/2/bn_0_split_0
I0315 18:48:54.750609  1399 net.cpp:408] conv3_3/2/neg -> conv3_3/2/neg
I0315 18:48:54.750629  1399 net.cpp:150] Setting up conv3_3/2/neg
I0315 18:48:54.750634  1399 net.cpp:157] Top shape: 1 48 108 180 (933120)
I0315 18:48:54.750636  1399 net.cpp:165] Memory required for data: 1392215128
I0315 18:48:54.750639  1399 layer_factory.hpp:77] Creating layer conv3_3/2/concat
I0315 18:48:54.750643  1399 net.cpp:100] Creating Layer conv3_3/2/concat
I0315 18:48:54.750646  1399 net.cpp:434] conv3_3/2/concat <- conv3_3/2/conv_conv3_3/2/bn_0_split_1
I0315 18:48:54.750649  1399 net.cpp:434] conv3_3/2/concat <- conv3_3/2/neg
I0315 18:48:54.750653  1399 net.cpp:408] conv3_3/2/concat -> conv3_3/2
I0315 18:48:54.750671  1399 net.cpp:150] Setting up conv3_3/2/concat
I0315 18:48:54.750675  1399 net.cpp:157] Top shape: 1 96 108 180 (1866240)
I0315 18:48:54.750677  1399 net.cpp:165] Memory required for data: 1399680088
I0315 18:48:54.750680  1399 layer_factory.hpp:77] Creating layer conv3_3/2/scale
I0315 18:48:54.750684  1399 net.cpp:100] Creating Layer conv3_3/2/scale
I0315 18:48:54.750687  1399 net.cpp:434] conv3_3/2/scale <- conv3_3/2
I0315 18:48:54.750691  1399 net.cpp:395] conv3_3/2/scale -> conv3_3/2 (in-place)
I0315 18:48:54.750721  1399 layer_factory.hpp:77] Creating layer conv3_3/2/scale
I0315 18:48:54.750823  1399 net.cpp:150] Setting up conv3_3/2/scale
I0315 18:48:54.750828  1399 net.cpp:157] Top shape: 1 96 108 180 (1866240)
I0315 18:48:54.750829  1399 net.cpp:165] Memory required for data: 1407145048
I0315 18:48:54.750834  1399 layer_factory.hpp:77] Creating layer conv3_3/2/relu
I0315 18:48:54.750838  1399 net.cpp:100] Creating Layer conv3_3/2/relu
I0315 18:48:54.750841  1399 net.cpp:434] conv3_3/2/relu <- conv3_3/2
I0315 18:48:54.750845  1399 net.cpp:395] conv3_3/2/relu -> conv3_3/2 (in-place)
I0315 18:48:54.750969  1399 net.cpp:150] Setting up conv3_3/2/relu
I0315 18:48:54.750975  1399 net.cpp:157] Top shape: 1 96 108 180 (1866240)
I0315 18:48:54.750978  1399 net.cpp:165] Memory required for data: 1414610008
I0315 18:48:54.750980  1399 layer_factory.hpp:77] Creating layer conv3_3/3/conv
I0315 18:48:54.750986  1399 net.cpp:100] Creating Layer conv3_3/3/conv
I0315 18:48:54.750990  1399 net.cpp:434] conv3_3/3/conv <- conv3_3/2
I0315 18:48:54.750994  1399 net.cpp:408] conv3_3/3/conv -> conv3_3/3
I0315 18:48:54.751735  1399 net.cpp:150] Setting up conv3_3/3/conv
I0315 18:48:54.751744  1399 net.cpp:157] Top shape: 1 128 108 180 (2488320)
I0315 18:48:54.751747  1399 net.cpp:165] Memory required for data: 1424563288
I0315 18:48:54.751751  1399 layer_factory.hpp:77] Creating layer conv3_3/3/bn
I0315 18:48:54.751756  1399 net.cpp:100] Creating Layer conv3_3/3/bn
I0315 18:48:54.751760  1399 net.cpp:434] conv3_3/3/bn <- conv3_3/3
I0315 18:48:54.751765  1399 net.cpp:395] conv3_3/3/bn -> conv3_3/3 (in-place)
I0315 18:48:54.751914  1399 net.cpp:150] Setting up conv3_3/3/bn
I0315 18:48:54.751919  1399 net.cpp:157] Top shape: 1 128 108 180 (2488320)
I0315 18:48:54.751921  1399 net.cpp:165] Memory required for data: 1434516568
I0315 18:48:54.751926  1399 layer_factory.hpp:77] Creating layer conv3_3/3/bn_scale
I0315 18:48:54.751930  1399 net.cpp:100] Creating Layer conv3_3/3/bn_scale
I0315 18:48:54.751934  1399 net.cpp:434] conv3_3/3/bn_scale <- conv3_3/3
I0315 18:48:54.751938  1399 net.cpp:395] conv3_3/3/bn_scale -> conv3_3/3 (in-place)
I0315 18:48:54.751965  1399 layer_factory.hpp:77] Creating layer conv3_3/3/bn_scale
I0315 18:48:54.752060  1399 net.cpp:150] Setting up conv3_3/3/bn_scale
I0315 18:48:54.752065  1399 net.cpp:157] Top shape: 1 128 108 180 (2488320)
I0315 18:48:54.752068  1399 net.cpp:165] Memory required for data: 1444469848
I0315 18:48:54.752071  1399 layer_factory.hpp:77] Creating layer conv3_3/input
I0315 18:48:54.752076  1399 net.cpp:100] Creating Layer conv3_3/input
I0315 18:48:54.752079  1399 net.cpp:434] conv3_3/input <- conv3_2_conv3_2_0_split_1
I0315 18:48:54.752084  1399 net.cpp:408] conv3_3/input -> conv3_3/input
I0315 18:48:54.752104  1399 net.cpp:150] Setting up conv3_3/input
I0315 18:48:54.752110  1399 net.cpp:157] Top shape: 1 128 108 180 (2488320)
I0315 18:48:54.752112  1399 net.cpp:165] Memory required for data: 1454423128
I0315 18:48:54.752117  1399 layer_factory.hpp:77] Creating layer conv3_3
I0315 18:48:54.752122  1399 net.cpp:100] Creating Layer conv3_3
I0315 18:48:54.752125  1399 net.cpp:434] conv3_3 <- conv3_3/3
I0315 18:48:54.752128  1399 net.cpp:434] conv3_3 <- conv3_3/input
I0315 18:48:54.752133  1399 net.cpp:408] conv3_3 -> conv3_3
I0315 18:48:54.752151  1399 net.cpp:150] Setting up conv3_3
I0315 18:48:54.752156  1399 net.cpp:157] Top shape: 1 128 108 180 (2488320)
I0315 18:48:54.752158  1399 net.cpp:165] Memory required for data: 1464376408
I0315 18:48:54.752161  1399 layer_factory.hpp:77] Creating layer conv3_3_conv3_3_0_split
I0315 18:48:54.752167  1399 net.cpp:100] Creating Layer conv3_3_conv3_3_0_split
I0315 18:48:54.752171  1399 net.cpp:434] conv3_3_conv3_3_0_split <- conv3_3
I0315 18:48:54.752174  1399 net.cpp:408] conv3_3_conv3_3_0_split -> conv3_3_conv3_3_0_split_0
I0315 18:48:54.752178  1399 net.cpp:408] conv3_3_conv3_3_0_split -> conv3_3_conv3_3_0_split_1
I0315 18:48:54.752204  1399 net.cpp:150] Setting up conv3_3_conv3_3_0_split
I0315 18:48:54.752208  1399 net.cpp:157] Top shape: 1 128 108 180 (2488320)
I0315 18:48:54.752212  1399 net.cpp:157] Top shape: 1 128 108 180 (2488320)
I0315 18:48:54.752214  1399 net.cpp:165] Memory required for data: 1484282968
I0315 18:48:54.752216  1399 layer_factory.hpp:77] Creating layer conv3_4/1/conv
I0315 18:48:54.752223  1399 net.cpp:100] Creating Layer conv3_4/1/conv
I0315 18:48:54.752225  1399 net.cpp:434] conv3_4/1/conv <- conv3_3_conv3_3_0_split_0
I0315 18:48:54.752229  1399 net.cpp:408] conv3_4/1/conv -> conv3_4/1
I0315 18:48:54.753057  1399 net.cpp:150] Setting up conv3_4/1/conv
I0315 18:48:54.753067  1399 net.cpp:157] Top shape: 1 48 108 180 (933120)
I0315 18:48:54.753069  1399 net.cpp:165] Memory required for data: 1488015448
I0315 18:48:54.753084  1399 layer_factory.hpp:77] Creating layer conv3_4/1/bn
I0315 18:48:54.753090  1399 net.cpp:100] Creating Layer conv3_4/1/bn
I0315 18:48:54.753093  1399 net.cpp:434] conv3_4/1/bn <- conv3_4/1
I0315 18:48:54.753098  1399 net.cpp:395] conv3_4/1/bn -> conv3_4/1 (in-place)
I0315 18:48:54.753280  1399 net.cpp:150] Setting up conv3_4/1/bn
I0315 18:48:54.753286  1399 net.cpp:157] Top shape: 1 48 108 180 (933120)
I0315 18:48:54.753288  1399 net.cpp:165] Memory required for data: 1491747928
I0315 18:48:54.753293  1399 layer_factory.hpp:77] Creating layer conv3_4/1/bn_scale
I0315 18:48:54.753298  1399 net.cpp:100] Creating Layer conv3_4/1/bn_scale
I0315 18:48:54.753301  1399 net.cpp:434] conv3_4/1/bn_scale <- conv3_4/1
I0315 18:48:54.753304  1399 net.cpp:395] conv3_4/1/bn_scale -> conv3_4/1 (in-place)
I0315 18:48:54.753334  1399 layer_factory.hpp:77] Creating layer conv3_4/1/bn_scale
I0315 18:48:54.753435  1399 net.cpp:150] Setting up conv3_4/1/bn_scale
I0315 18:48:54.753440  1399 net.cpp:157] Top shape: 1 48 108 180 (933120)
I0315 18:48:54.753443  1399 net.cpp:165] Memory required for data: 1495480408
I0315 18:48:54.753448  1399 layer_factory.hpp:77] Creating layer conv3_4/1/relu
I0315 18:48:54.753451  1399 net.cpp:100] Creating Layer conv3_4/1/relu
I0315 18:48:54.753454  1399 net.cpp:434] conv3_4/1/relu <- conv3_4/1
I0315 18:48:54.753458  1399 net.cpp:395] conv3_4/1/relu -> conv3_4/1 (in-place)
I0315 18:48:54.753585  1399 net.cpp:150] Setting up conv3_4/1/relu
I0315 18:48:54.753592  1399 net.cpp:157] Top shape: 1 48 108 180 (933120)
I0315 18:48:54.753594  1399 net.cpp:165] Memory required for data: 1499212888
I0315 18:48:54.753597  1399 layer_factory.hpp:77] Creating layer conv3_4/2/conv
I0315 18:48:54.753603  1399 net.cpp:100] Creating Layer conv3_4/2/conv
I0315 18:48:54.753607  1399 net.cpp:434] conv3_4/2/conv <- conv3_4/1
I0315 18:48:54.753610  1399 net.cpp:408] conv3_4/2/conv -> conv3_4/2/conv
I0315 18:48:54.754385  1399 net.cpp:150] Setting up conv3_4/2/conv
I0315 18:48:54.754395  1399 net.cpp:157] Top shape: 1 48 108 180 (933120)
I0315 18:48:54.754397  1399 net.cpp:165] Memory required for data: 1502945368
I0315 18:48:54.754401  1399 layer_factory.hpp:77] Creating layer conv3_4/2/bn
I0315 18:48:54.754410  1399 net.cpp:100] Creating Layer conv3_4/2/bn
I0315 18:48:54.754413  1399 net.cpp:434] conv3_4/2/bn <- conv3_4/2/conv
I0315 18:48:54.754418  1399 net.cpp:395] conv3_4/2/bn -> conv3_4/2/conv (in-place)
I0315 18:48:54.754575  1399 net.cpp:150] Setting up conv3_4/2/bn
I0315 18:48:54.754581  1399 net.cpp:157] Top shape: 1 48 108 180 (933120)
I0315 18:48:54.754583  1399 net.cpp:165] Memory required for data: 1506677848
I0315 18:48:54.754590  1399 layer_factory.hpp:77] Creating layer conv3_4/2/conv_conv3_4/2/bn_0_split
I0315 18:48:54.754593  1399 net.cpp:100] Creating Layer conv3_4/2/conv_conv3_4/2/bn_0_split
I0315 18:48:54.754596  1399 net.cpp:434] conv3_4/2/conv_conv3_4/2/bn_0_split <- conv3_4/2/conv
I0315 18:48:54.754601  1399 net.cpp:408] conv3_4/2/conv_conv3_4/2/bn_0_split -> conv3_4/2/conv_conv3_4/2/bn_0_split_0
I0315 18:48:54.754606  1399 net.cpp:408] conv3_4/2/conv_conv3_4/2/bn_0_split -> conv3_4/2/conv_conv3_4/2/bn_0_split_1
I0315 18:48:54.754633  1399 net.cpp:150] Setting up conv3_4/2/conv_conv3_4/2/bn_0_split
I0315 18:48:54.754638  1399 net.cpp:157] Top shape: 1 48 108 180 (933120)
I0315 18:48:54.754642  1399 net.cpp:157] Top shape: 1 48 108 180 (933120)
I0315 18:48:54.754643  1399 net.cpp:165] Memory required for data: 1514142808
I0315 18:48:54.754647  1399 layer_factory.hpp:77] Creating layer conv3_4/2/neg
I0315 18:48:54.754650  1399 net.cpp:100] Creating Layer conv3_4/2/neg
I0315 18:48:54.754653  1399 net.cpp:434] conv3_4/2/neg <- conv3_4/2/conv_conv3_4/2/bn_0_split_0
I0315 18:48:54.754657  1399 net.cpp:408] conv3_4/2/neg -> conv3_4/2/neg
I0315 18:48:54.754676  1399 net.cpp:150] Setting up conv3_4/2/neg
I0315 18:48:54.754680  1399 net.cpp:157] Top shape: 1 48 108 180 (933120)
I0315 18:48:54.754683  1399 net.cpp:165] Memory required for data: 1517875288
I0315 18:48:54.754685  1399 layer_factory.hpp:77] Creating layer conv3_4/2/concat
I0315 18:48:54.754689  1399 net.cpp:100] Creating Layer conv3_4/2/concat
I0315 18:48:54.754693  1399 net.cpp:434] conv3_4/2/concat <- conv3_4/2/conv_conv3_4/2/bn_0_split_1
I0315 18:48:54.754695  1399 net.cpp:434] conv3_4/2/concat <- conv3_4/2/neg
I0315 18:48:54.754700  1399 net.cpp:408] conv3_4/2/concat -> conv3_4/2
I0315 18:48:54.754717  1399 net.cpp:150] Setting up conv3_4/2/concat
I0315 18:48:54.754724  1399 net.cpp:157] Top shape: 1 96 108 180 (1866240)
I0315 18:48:54.754725  1399 net.cpp:165] Memory required for data: 1525340248
I0315 18:48:54.754729  1399 layer_factory.hpp:77] Creating layer conv3_4/2/scale
I0315 18:48:54.754743  1399 net.cpp:100] Creating Layer conv3_4/2/scale
I0315 18:48:54.754746  1399 net.cpp:434] conv3_4/2/scale <- conv3_4/2
I0315 18:48:54.754750  1399 net.cpp:395] conv3_4/2/scale -> conv3_4/2 (in-place)
I0315 18:48:54.754781  1399 layer_factory.hpp:77] Creating layer conv3_4/2/scale
I0315 18:48:54.755134  1399 net.cpp:150] Setting up conv3_4/2/scale
I0315 18:48:54.755142  1399 net.cpp:157] Top shape: 1 96 108 180 (1866240)
I0315 18:48:54.755146  1399 net.cpp:165] Memory required for data: 1532805208
I0315 18:48:54.755151  1399 layer_factory.hpp:77] Creating layer conv3_4/2/relu
I0315 18:48:54.755154  1399 net.cpp:100] Creating Layer conv3_4/2/relu
I0315 18:48:54.755157  1399 net.cpp:434] conv3_4/2/relu <- conv3_4/2
I0315 18:48:54.755162  1399 net.cpp:395] conv3_4/2/relu -> conv3_4/2 (in-place)
I0315 18:48:54.755383  1399 net.cpp:150] Setting up conv3_4/2/relu
I0315 18:48:54.755390  1399 net.cpp:157] Top shape: 1 96 108 180 (1866240)
I0315 18:48:54.755393  1399 net.cpp:165] Memory required for data: 1540270168
I0315 18:48:54.755395  1399 layer_factory.hpp:77] Creating layer conv3_4/3/conv
I0315 18:48:54.755403  1399 net.cpp:100] Creating Layer conv3_4/3/conv
I0315 18:48:54.755408  1399 net.cpp:434] conv3_4/3/conv <- conv3_4/2
I0315 18:48:54.755411  1399 net.cpp:408] conv3_4/3/conv -> conv3_4/3
I0315 18:48:54.756244  1399 net.cpp:150] Setting up conv3_4/3/conv
I0315 18:48:54.756253  1399 net.cpp:157] Top shape: 1 128 108 180 (2488320)
I0315 18:48:54.756256  1399 net.cpp:165] Memory required for data: 1550223448
I0315 18:48:54.756260  1399 layer_factory.hpp:77] Creating layer conv3_4/3/bn
I0315 18:48:54.756269  1399 net.cpp:100] Creating Layer conv3_4/3/bn
I0315 18:48:54.756273  1399 net.cpp:434] conv3_4/3/bn <- conv3_4/3
I0315 18:48:54.756278  1399 net.cpp:395] conv3_4/3/bn -> conv3_4/3 (in-place)
I0315 18:48:54.756429  1399 net.cpp:150] Setting up conv3_4/3/bn
I0315 18:48:54.756434  1399 net.cpp:157] Top shape: 1 128 108 180 (2488320)
I0315 18:48:54.756438  1399 net.cpp:165] Memory required for data: 1560176728
I0315 18:48:54.756443  1399 layer_factory.hpp:77] Creating layer conv3_4/3/bn_scale
I0315 18:48:54.756448  1399 net.cpp:100] Creating Layer conv3_4/3/bn_scale
I0315 18:48:54.756450  1399 net.cpp:434] conv3_4/3/bn_scale <- conv3_4/3
I0315 18:48:54.756454  1399 net.cpp:395] conv3_4/3/bn_scale -> conv3_4/3 (in-place)
I0315 18:48:54.756484  1399 layer_factory.hpp:77] Creating layer conv3_4/3/bn_scale
I0315 18:48:54.756582  1399 net.cpp:150] Setting up conv3_4/3/bn_scale
I0315 18:48:54.756587  1399 net.cpp:157] Top shape: 1 128 108 180 (2488320)
I0315 18:48:54.756589  1399 net.cpp:165] Memory required for data: 1570130008
I0315 18:48:54.756594  1399 layer_factory.hpp:77] Creating layer conv3_4/input
I0315 18:48:54.756599  1399 net.cpp:100] Creating Layer conv3_4/input
I0315 18:48:54.756603  1399 net.cpp:434] conv3_4/input <- conv3_3_conv3_3_0_split_1
I0315 18:48:54.756606  1399 net.cpp:408] conv3_4/input -> conv3_4/input
I0315 18:48:54.756626  1399 net.cpp:150] Setting up conv3_4/input
I0315 18:48:54.756631  1399 net.cpp:157] Top shape: 1 128 108 180 (2488320)
I0315 18:48:54.756633  1399 net.cpp:165] Memory required for data: 1580083288
I0315 18:48:54.756636  1399 layer_factory.hpp:77] Creating layer conv3_4
I0315 18:48:54.756641  1399 net.cpp:100] Creating Layer conv3_4
I0315 18:48:54.756644  1399 net.cpp:434] conv3_4 <- conv3_4/3
I0315 18:48:54.756647  1399 net.cpp:434] conv3_4 <- conv3_4/input
I0315 18:48:54.756651  1399 net.cpp:408] conv3_4 -> conv3_4
I0315 18:48:54.756669  1399 net.cpp:150] Setting up conv3_4
I0315 18:48:54.756674  1399 net.cpp:157] Top shape: 1 128 108 180 (2488320)
I0315 18:48:54.756676  1399 net.cpp:165] Memory required for data: 1590036568
I0315 18:48:54.756678  1399 layer_factory.hpp:77] Creating layer conv3_4_conv3_4_0_split
I0315 18:48:54.756683  1399 net.cpp:100] Creating Layer conv3_4_conv3_4_0_split
I0315 18:48:54.756685  1399 net.cpp:434] conv3_4_conv3_4_0_split <- conv3_4
I0315 18:48:54.756691  1399 net.cpp:408] conv3_4_conv3_4_0_split -> conv3_4_conv3_4_0_split_0
I0315 18:48:54.756697  1399 net.cpp:408] conv3_4_conv3_4_0_split -> conv3_4_conv3_4_0_split_1
I0315 18:48:54.756701  1399 net.cpp:408] conv3_4_conv3_4_0_split -> conv3_4_conv3_4_0_split_2
I0315 18:48:54.756706  1399 net.cpp:408] conv3_4_conv3_4_0_split -> conv3_4_conv3_4_0_split_3
I0315 18:48:54.756711  1399 net.cpp:408] conv3_4_conv3_4_0_split -> conv3_4_conv3_4_0_split_4
I0315 18:48:54.756714  1399 net.cpp:408] conv3_4_conv3_4_0_split -> conv3_4_conv3_4_0_split_5
I0315 18:48:54.756775  1399 net.cpp:150] Setting up conv3_4_conv3_4_0_split
I0315 18:48:54.756780  1399 net.cpp:157] Top shape: 1 128 108 180 (2488320)
I0315 18:48:54.756784  1399 net.cpp:157] Top shape: 1 128 108 180 (2488320)
I0315 18:48:54.756788  1399 net.cpp:157] Top shape: 1 128 108 180 (2488320)
I0315 18:48:54.756790  1399 net.cpp:157] Top shape: 1 128 108 180 (2488320)
I0315 18:48:54.756793  1399 net.cpp:157] Top shape: 1 128 108 180 (2488320)
I0315 18:48:54.756795  1399 net.cpp:157] Top shape: 1 128 108 180 (2488320)
I0315 18:48:54.756798  1399 net.cpp:165] Memory required for data: 1649756248
I0315 18:48:54.756800  1399 layer_factory.hpp:77] Creating layer conv4_1/incep/0/conv
I0315 18:48:54.756806  1399 net.cpp:100] Creating Layer conv4_1/incep/0/conv
I0315 18:48:54.756809  1399 net.cpp:434] conv4_1/incep/0/conv <- conv3_4_conv3_4_0_split_0
I0315 18:48:54.756814  1399 net.cpp:408] conv4_1/incep/0/conv -> conv4_1/incep/0
I0315 18:48:54.757555  1399 net.cpp:150] Setting up conv4_1/incep/0/conv
I0315 18:48:54.757565  1399 net.cpp:157] Top shape: 1 64 54 90 (311040)
I0315 18:48:54.757570  1399 net.cpp:165] Memory required for data: 1651000408
I0315 18:48:54.757575  1399 layer_factory.hpp:77] Creating layer conv4_1/incep/0/bn
I0315 18:48:54.757580  1399 net.cpp:100] Creating Layer conv4_1/incep/0/bn
I0315 18:48:54.757583  1399 net.cpp:434] conv4_1/incep/0/bn <- conv4_1/incep/0
I0315 18:48:54.757587  1399 net.cpp:395] conv4_1/incep/0/bn -> conv4_1/incep/0 (in-place)
I0315 18:48:54.757741  1399 net.cpp:150] Setting up conv4_1/incep/0/bn
I0315 18:48:54.757746  1399 net.cpp:157] Top shape: 1 64 54 90 (311040)
I0315 18:48:54.757750  1399 net.cpp:165] Memory required for data: 1652244568
I0315 18:48:54.757755  1399 layer_factory.hpp:77] Creating layer conv4_1/incep/0/bn_scale
I0315 18:48:54.757760  1399 net.cpp:100] Creating Layer conv4_1/incep/0/bn_scale
I0315 18:48:54.757762  1399 net.cpp:434] conv4_1/incep/0/bn_scale <- conv4_1/incep/0
I0315 18:48:54.757766  1399 net.cpp:395] conv4_1/incep/0/bn_scale -> conv4_1/incep/0 (in-place)
I0315 18:48:54.757797  1399 layer_factory.hpp:77] Creating layer conv4_1/incep/0/bn_scale
I0315 18:48:54.757887  1399 net.cpp:150] Setting up conv4_1/incep/0/bn_scale
I0315 18:48:54.757892  1399 net.cpp:157] Top shape: 1 64 54 90 (311040)
I0315 18:48:54.757894  1399 net.cpp:165] Memory required for data: 1653488728
I0315 18:48:54.757899  1399 layer_factory.hpp:77] Creating layer conv4_1/incep/0/relu
I0315 18:48:54.757903  1399 net.cpp:100] Creating Layer conv4_1/incep/0/relu
I0315 18:48:54.757906  1399 net.cpp:434] conv4_1/incep/0/relu <- conv4_1/incep/0
I0315 18:48:54.757910  1399 net.cpp:395] conv4_1/incep/0/relu -> conv4_1/incep/0 (in-place)
I0315 18:48:54.758128  1399 net.cpp:150] Setting up conv4_1/incep/0/relu
I0315 18:48:54.758136  1399 net.cpp:157] Top shape: 1 64 54 90 (311040)
I0315 18:48:54.758139  1399 net.cpp:165] Memory required for data: 1654732888
I0315 18:48:54.758142  1399 layer_factory.hpp:77] Creating layer conv4_1/incep/1_reduce/conv
I0315 18:48:54.758149  1399 net.cpp:100] Creating Layer conv4_1/incep/1_reduce/conv
I0315 18:48:54.758152  1399 net.cpp:434] conv4_1/incep/1_reduce/conv <- conv3_4_conv3_4_0_split_1
I0315 18:48:54.758157  1399 net.cpp:408] conv4_1/incep/1_reduce/conv -> conv4_1/incep/1_reduce
I0315 18:48:54.758888  1399 net.cpp:150] Setting up conv4_1/incep/1_reduce/conv
I0315 18:48:54.758896  1399 net.cpp:157] Top shape: 1 48 54 90 (233280)
I0315 18:48:54.758898  1399 net.cpp:165] Memory required for data: 1655666008
I0315 18:48:54.758903  1399 layer_factory.hpp:77] Creating layer conv4_1/incep/1_reduce/bn
I0315 18:48:54.758908  1399 net.cpp:100] Creating Layer conv4_1/incep/1_reduce/bn
I0315 18:48:54.758913  1399 net.cpp:434] conv4_1/incep/1_reduce/bn <- conv4_1/incep/1_reduce
I0315 18:48:54.758918  1399 net.cpp:395] conv4_1/incep/1_reduce/bn -> conv4_1/incep/1_reduce (in-place)
I0315 18:48:54.759066  1399 net.cpp:150] Setting up conv4_1/incep/1_reduce/bn
I0315 18:48:54.759073  1399 net.cpp:157] Top shape: 1 48 54 90 (233280)
I0315 18:48:54.759074  1399 net.cpp:165] Memory required for data: 1656599128
I0315 18:48:54.759079  1399 layer_factory.hpp:77] Creating layer conv4_1/incep/1_reduce/bn_scale
I0315 18:48:54.759085  1399 net.cpp:100] Creating Layer conv4_1/incep/1_reduce/bn_scale
I0315 18:48:54.759088  1399 net.cpp:434] conv4_1/incep/1_reduce/bn_scale <- conv4_1/incep/1_reduce
I0315 18:48:54.759093  1399 net.cpp:395] conv4_1/incep/1_reduce/bn_scale -> conv4_1/incep/1_reduce (in-place)
I0315 18:48:54.759122  1399 layer_factory.hpp:77] Creating layer conv4_1/incep/1_reduce/bn_scale
I0315 18:48:54.759217  1399 net.cpp:150] Setting up conv4_1/incep/1_reduce/bn_scale
I0315 18:48:54.759222  1399 net.cpp:157] Top shape: 1 48 54 90 (233280)
I0315 18:48:54.759223  1399 net.cpp:165] Memory required for data: 1657532248
I0315 18:48:54.759227  1399 layer_factory.hpp:77] Creating layer conv4_1/incep/1_reduce/relu
I0315 18:48:54.759232  1399 net.cpp:100] Creating Layer conv4_1/incep/1_reduce/relu
I0315 18:48:54.759235  1399 net.cpp:434] conv4_1/incep/1_reduce/relu <- conv4_1/incep/1_reduce
I0315 18:48:54.759239  1399 net.cpp:395] conv4_1/incep/1_reduce/relu -> conv4_1/incep/1_reduce (in-place)
I0315 18:48:54.759359  1399 net.cpp:150] Setting up conv4_1/incep/1_reduce/relu
I0315 18:48:54.759366  1399 net.cpp:157] Top shape: 1 48 54 90 (233280)
I0315 18:48:54.759368  1399 net.cpp:165] Memory required for data: 1658465368
I0315 18:48:54.759371  1399 layer_factory.hpp:77] Creating layer conv4_1/incep/1_0/conv
I0315 18:48:54.759377  1399 net.cpp:100] Creating Layer conv4_1/incep/1_0/conv
I0315 18:48:54.759382  1399 net.cpp:434] conv4_1/incep/1_0/conv <- conv4_1/incep/1_reduce
I0315 18:48:54.759385  1399 net.cpp:408] conv4_1/incep/1_0/conv -> conv4_1/incep/1_0
I0315 18:48:54.760401  1399 net.cpp:150] Setting up conv4_1/incep/1_0/conv
I0315 18:48:54.760409  1399 net.cpp:157] Top shape: 1 128 54 90 (622080)
I0315 18:48:54.760411  1399 net.cpp:165] Memory required for data: 1660953688
I0315 18:48:54.760416  1399 layer_factory.hpp:77] Creating layer conv4_1/incep/1_0/bn
I0315 18:48:54.760421  1399 net.cpp:100] Creating Layer conv4_1/incep/1_0/bn
I0315 18:48:54.760424  1399 net.cpp:434] conv4_1/incep/1_0/bn <- conv4_1/incep/1_0
I0315 18:48:54.760429  1399 net.cpp:395] conv4_1/incep/1_0/bn -> conv4_1/incep/1_0 (in-place)
I0315 18:48:54.760581  1399 net.cpp:150] Setting up conv4_1/incep/1_0/bn
I0315 18:48:54.760587  1399 net.cpp:157] Top shape: 1 128 54 90 (622080)
I0315 18:48:54.760589  1399 net.cpp:165] Memory required for data: 1663442008
I0315 18:48:54.760594  1399 layer_factory.hpp:77] Creating layer conv4_1/incep/1_0/bn_scale
I0315 18:48:54.760599  1399 net.cpp:100] Creating Layer conv4_1/incep/1_0/bn_scale
I0315 18:48:54.760602  1399 net.cpp:434] conv4_1/incep/1_0/bn_scale <- conv4_1/incep/1_0
I0315 18:48:54.760608  1399 net.cpp:395] conv4_1/incep/1_0/bn_scale -> conv4_1/incep/1_0 (in-place)
I0315 18:48:54.760638  1399 layer_factory.hpp:77] Creating layer conv4_1/incep/1_0/bn_scale
I0315 18:48:54.760725  1399 net.cpp:150] Setting up conv4_1/incep/1_0/bn_scale
I0315 18:48:54.760731  1399 net.cpp:157] Top shape: 1 128 54 90 (622080)
I0315 18:48:54.760733  1399 net.cpp:165] Memory required for data: 1665930328
I0315 18:48:54.760738  1399 layer_factory.hpp:77] Creating layer conv4_1/incep/1_0/relu
I0315 18:48:54.760742  1399 net.cpp:100] Creating Layer conv4_1/incep/1_0/relu
I0315 18:48:54.760746  1399 net.cpp:434] conv4_1/incep/1_0/relu <- conv4_1/incep/1_0
I0315 18:48:54.760749  1399 net.cpp:395] conv4_1/incep/1_0/relu -> conv4_1/incep/1_0 (in-place)
I0315 18:48:54.761055  1399 net.cpp:150] Setting up conv4_1/incep/1_0/relu
I0315 18:48:54.761073  1399 net.cpp:157] Top shape: 1 128 54 90 (622080)
I0315 18:48:54.761076  1399 net.cpp:165] Memory required for data: 1668418648
I0315 18:48:54.761080  1399 layer_factory.hpp:77] Creating layer conv4_1/incep/2_reduce/conv
I0315 18:48:54.761097  1399 net.cpp:100] Creating Layer conv4_1/incep/2_reduce/conv
I0315 18:48:54.761111  1399 net.cpp:434] conv4_1/incep/2_reduce/conv <- conv3_4_conv3_4_0_split_2
I0315 18:48:54.761116  1399 net.cpp:408] conv4_1/incep/2_reduce/conv -> conv4_1/incep/2_reduce
I0315 18:48:54.761765  1399 net.cpp:150] Setting up conv4_1/incep/2_reduce/conv
I0315 18:48:54.761775  1399 net.cpp:157] Top shape: 1 24 54 90 (116640)
I0315 18:48:54.761777  1399 net.cpp:165] Memory required for data: 1668885208
I0315 18:48:54.761781  1399 layer_factory.hpp:77] Creating layer conv4_1/incep/2_reduce/bn
I0315 18:48:54.761787  1399 net.cpp:100] Creating Layer conv4_1/incep/2_reduce/bn
I0315 18:48:54.761791  1399 net.cpp:434] conv4_1/incep/2_reduce/bn <- conv4_1/incep/2_reduce
I0315 18:48:54.761795  1399 net.cpp:395] conv4_1/incep/2_reduce/bn -> conv4_1/incep/2_reduce (in-place)
I0315 18:48:54.761956  1399 net.cpp:150] Setting up conv4_1/incep/2_reduce/bn
I0315 18:48:54.761961  1399 net.cpp:157] Top shape: 1 24 54 90 (116640)
I0315 18:48:54.761965  1399 net.cpp:165] Memory required for data: 1669351768
I0315 18:48:54.761970  1399 layer_factory.hpp:77] Creating layer conv4_1/incep/2_reduce/bn_scale
I0315 18:48:54.761973  1399 net.cpp:100] Creating Layer conv4_1/incep/2_reduce/bn_scale
I0315 18:48:54.761976  1399 net.cpp:434] conv4_1/incep/2_reduce/bn_scale <- conv4_1/incep/2_reduce
I0315 18:48:54.761984  1399 net.cpp:395] conv4_1/incep/2_reduce/bn_scale -> conv4_1/incep/2_reduce (in-place)
I0315 18:48:54.762015  1399 layer_factory.hpp:77] Creating layer conv4_1/incep/2_reduce/bn_scale
I0315 18:48:54.762109  1399 net.cpp:150] Setting up conv4_1/incep/2_reduce/bn_scale
I0315 18:48:54.762114  1399 net.cpp:157] Top shape: 1 24 54 90 (116640)
I0315 18:48:54.762116  1399 net.cpp:165] Memory required for data: 1669818328
I0315 18:48:54.762120  1399 layer_factory.hpp:77] Creating layer conv4_1/incep/2_reduce/relu
I0315 18:48:54.762125  1399 net.cpp:100] Creating Layer conv4_1/incep/2_reduce/relu
I0315 18:48:54.762127  1399 net.cpp:434] conv4_1/incep/2_reduce/relu <- conv4_1/incep/2_reduce
I0315 18:48:54.762131  1399 net.cpp:395] conv4_1/incep/2_reduce/relu -> conv4_1/incep/2_reduce (in-place)
I0315 18:48:54.762351  1399 net.cpp:150] Setting up conv4_1/incep/2_reduce/relu
I0315 18:48:54.762359  1399 net.cpp:157] Top shape: 1 24 54 90 (116640)
I0315 18:48:54.762362  1399 net.cpp:165] Memory required for data: 1670284888
I0315 18:48:54.762364  1399 layer_factory.hpp:77] Creating layer conv4_1/incep/2_0/conv
I0315 18:48:54.762372  1399 net.cpp:100] Creating Layer conv4_1/incep/2_0/conv
I0315 18:48:54.762374  1399 net.cpp:434] conv4_1/incep/2_0/conv <- conv4_1/incep/2_reduce
I0315 18:48:54.762380  1399 net.cpp:408] conv4_1/incep/2_0/conv -> conv4_1/incep/2_0
I0315 18:48:54.763150  1399 net.cpp:150] Setting up conv4_1/incep/2_0/conv
I0315 18:48:54.763159  1399 net.cpp:157] Top shape: 1 48 54 90 (233280)
I0315 18:48:54.763161  1399 net.cpp:165] Memory required for data: 1671218008
I0315 18:48:54.763165  1399 layer_factory.hpp:77] Creating layer conv4_1/incep/2_0/bn
I0315 18:48:54.763171  1399 net.cpp:100] Creating Layer conv4_1/incep/2_0/bn
I0315 18:48:54.763175  1399 net.cpp:434] conv4_1/incep/2_0/bn <- conv4_1/incep/2_0
I0315 18:48:54.763180  1399 net.cpp:395] conv4_1/incep/2_0/bn -> conv4_1/incep/2_0 (in-place)
I0315 18:48:54.763334  1399 net.cpp:150] Setting up conv4_1/incep/2_0/bn
I0315 18:48:54.763339  1399 net.cpp:157] Top shape: 1 48 54 90 (233280)
I0315 18:48:54.763341  1399 net.cpp:165] Memory required for data: 1672151128
I0315 18:48:54.763346  1399 layer_factory.hpp:77] Creating layer conv4_1/incep/2_0/bn_scale
I0315 18:48:54.763351  1399 net.cpp:100] Creating Layer conv4_1/incep/2_0/bn_scale
I0315 18:48:54.763355  1399 net.cpp:434] conv4_1/incep/2_0/bn_scale <- conv4_1/incep/2_0
I0315 18:48:54.763358  1399 net.cpp:395] conv4_1/incep/2_0/bn_scale -> conv4_1/incep/2_0 (in-place)
I0315 18:48:54.763391  1399 layer_factory.hpp:77] Creating layer conv4_1/incep/2_0/bn_scale
I0315 18:48:54.763484  1399 net.cpp:150] Setting up conv4_1/incep/2_0/bn_scale
I0315 18:48:54.763489  1399 net.cpp:157] Top shape: 1 48 54 90 (233280)
I0315 18:48:54.763492  1399 net.cpp:165] Memory required for data: 1673084248
I0315 18:48:54.763496  1399 layer_factory.hpp:77] Creating layer conv4_1/incep/2_0/relu
I0315 18:48:54.763500  1399 net.cpp:100] Creating Layer conv4_1/incep/2_0/relu
I0315 18:48:54.763504  1399 net.cpp:434] conv4_1/incep/2_0/relu <- conv4_1/incep/2_0
I0315 18:48:54.763507  1399 net.cpp:395] conv4_1/incep/2_0/relu -> conv4_1/incep/2_0 (in-place)
I0315 18:48:54.763626  1399 net.cpp:150] Setting up conv4_1/incep/2_0/relu
I0315 18:48:54.763633  1399 net.cpp:157] Top shape: 1 48 54 90 (233280)
I0315 18:48:54.763635  1399 net.cpp:165] Memory required for data: 1674017368
I0315 18:48:54.763638  1399 layer_factory.hpp:77] Creating layer conv4_1/incep/2_1/conv
I0315 18:48:54.763645  1399 net.cpp:100] Creating Layer conv4_1/incep/2_1/conv
I0315 18:48:54.763648  1399 net.cpp:434] conv4_1/incep/2_1/conv <- conv4_1/incep/2_0
I0315 18:48:54.763653  1399 net.cpp:408] conv4_1/incep/2_1/conv -> conv4_1/incep/2_1
I0315 18:48:54.764427  1399 net.cpp:150] Setting up conv4_1/incep/2_1/conv
I0315 18:48:54.764436  1399 net.cpp:157] Top shape: 1 48 54 90 (233280)
I0315 18:48:54.764438  1399 net.cpp:165] Memory required for data: 1674950488
I0315 18:48:54.764442  1399 layer_factory.hpp:77] Creating layer conv4_1/incep/2_1/bn
I0315 18:48:54.764451  1399 net.cpp:100] Creating Layer conv4_1/incep/2_1/bn
I0315 18:48:54.764454  1399 net.cpp:434] conv4_1/incep/2_1/bn <- conv4_1/incep/2_1
I0315 18:48:54.764459  1399 net.cpp:395] conv4_1/incep/2_1/bn -> conv4_1/incep/2_1 (in-place)
I0315 18:48:54.764617  1399 net.cpp:150] Setting up conv4_1/incep/2_1/bn
I0315 18:48:54.764622  1399 net.cpp:157] Top shape: 1 48 54 90 (233280)
I0315 18:48:54.764624  1399 net.cpp:165] Memory required for data: 1675883608
I0315 18:48:54.764629  1399 layer_factory.hpp:77] Creating layer conv4_1/incep/2_1/bn_scale
I0315 18:48:54.764634  1399 net.cpp:100] Creating Layer conv4_1/incep/2_1/bn_scale
I0315 18:48:54.764637  1399 net.cpp:434] conv4_1/incep/2_1/bn_scale <- conv4_1/incep/2_1
I0315 18:48:54.764642  1399 net.cpp:395] conv4_1/incep/2_1/bn_scale -> conv4_1/incep/2_1 (in-place)
I0315 18:48:54.764672  1399 layer_factory.hpp:77] Creating layer conv4_1/incep/2_1/bn_scale
I0315 18:48:54.764770  1399 net.cpp:150] Setting up conv4_1/incep/2_1/bn_scale
I0315 18:48:54.764775  1399 net.cpp:157] Top shape: 1 48 54 90 (233280)
I0315 18:48:54.764778  1399 net.cpp:165] Memory required for data: 1676816728
I0315 18:48:54.764782  1399 layer_factory.hpp:77] Creating layer conv4_1/incep/2_1/relu
I0315 18:48:54.764787  1399 net.cpp:100] Creating Layer conv4_1/incep/2_1/relu
I0315 18:48:54.764791  1399 net.cpp:434] conv4_1/incep/2_1/relu <- conv4_1/incep/2_1
I0315 18:48:54.764794  1399 net.cpp:395] conv4_1/incep/2_1/relu -> conv4_1/incep/2_1 (in-place)
I0315 18:48:54.765020  1399 net.cpp:150] Setting up conv4_1/incep/2_1/relu
I0315 18:48:54.765029  1399 net.cpp:157] Top shape: 1 48 54 90 (233280)
I0315 18:48:54.765033  1399 net.cpp:165] Memory required for data: 1677749848
I0315 18:48:54.765034  1399 layer_factory.hpp:77] Creating layer conv4_1/incep/pool
I0315 18:48:54.765041  1399 net.cpp:100] Creating Layer conv4_1/incep/pool
I0315 18:48:54.765044  1399 net.cpp:434] conv4_1/incep/pool <- conv3_4_conv3_4_0_split_3
I0315 18:48:54.765048  1399 net.cpp:408] conv4_1/incep/pool -> conv4_1/incep/pool
I0315 18:48:54.765087  1399 net.cpp:150] Setting up conv4_1/incep/pool
I0315 18:48:54.765092  1399 net.cpp:157] Top shape: 1 128 54 90 (622080)
I0315 18:48:54.765094  1399 net.cpp:165] Memory required for data: 1680238168
I0315 18:48:54.765097  1399 layer_factory.hpp:77] Creating layer conv4_1/incep/poolproj/conv
I0315 18:48:54.765103  1399 net.cpp:100] Creating Layer conv4_1/incep/poolproj/conv
I0315 18:48:54.765106  1399 net.cpp:434] conv4_1/incep/poolproj/conv <- conv4_1/incep/pool
I0315 18:48:54.765111  1399 net.cpp:408] conv4_1/incep/poolproj/conv -> conv4_1/incep/poolproj
I0315 18:48:54.765792  1399 net.cpp:150] Setting up conv4_1/incep/poolproj/conv
I0315 18:48:54.765801  1399 net.cpp:157] Top shape: 1 128 54 90 (622080)
I0315 18:48:54.765803  1399 net.cpp:165] Memory required for data: 1682726488
I0315 18:48:54.765807  1399 layer_factory.hpp:77] Creating layer conv4_1/incep/poolproj/bn
I0315 18:48:54.765813  1399 net.cpp:100] Creating Layer conv4_1/incep/poolproj/bn
I0315 18:48:54.765817  1399 net.cpp:434] conv4_1/incep/poolproj/bn <- conv4_1/incep/poolproj
I0315 18:48:54.765821  1399 net.cpp:395] conv4_1/incep/poolproj/bn -> conv4_1/incep/poolproj (in-place)
I0315 18:48:54.765971  1399 net.cpp:150] Setting up conv4_1/incep/poolproj/bn
I0315 18:48:54.765976  1399 net.cpp:157] Top shape: 1 128 54 90 (622080)
I0315 18:48:54.765980  1399 net.cpp:165] Memory required for data: 1685214808
I0315 18:48:54.765985  1399 layer_factory.hpp:77] Creating layer conv4_1/incep/poolproj/bn_scale
I0315 18:48:54.765990  1399 net.cpp:100] Creating Layer conv4_1/incep/poolproj/bn_scale
I0315 18:48:54.765992  1399 net.cpp:434] conv4_1/incep/poolproj/bn_scale <- conv4_1/incep/poolproj
I0315 18:48:54.765996  1399 net.cpp:395] conv4_1/incep/poolproj/bn_scale -> conv4_1/incep/poolproj (in-place)
I0315 18:48:54.766027  1399 layer_factory.hpp:77] Creating layer conv4_1/incep/poolproj/bn_scale
I0315 18:48:54.766116  1399 net.cpp:150] Setting up conv4_1/incep/poolproj/bn_scale
I0315 18:48:54.766125  1399 net.cpp:157] Top shape: 1 128 54 90 (622080)
I0315 18:48:54.766127  1399 net.cpp:165] Memory required for data: 1687703128
I0315 18:48:54.766132  1399 layer_factory.hpp:77] Creating layer conv4_1/incep/poolproj/relu
I0315 18:48:54.766137  1399 net.cpp:100] Creating Layer conv4_1/incep/poolproj/relu
I0315 18:48:54.766140  1399 net.cpp:434] conv4_1/incep/poolproj/relu <- conv4_1/incep/poolproj
I0315 18:48:54.766144  1399 net.cpp:395] conv4_1/incep/poolproj/relu -> conv4_1/incep/poolproj (in-place)
I0315 18:48:54.766366  1399 net.cpp:150] Setting up conv4_1/incep/poolproj/relu
I0315 18:48:54.766374  1399 net.cpp:157] Top shape: 1 128 54 90 (622080)
I0315 18:48:54.766377  1399 net.cpp:165] Memory required for data: 1690191448
I0315 18:48:54.766381  1399 layer_factory.hpp:77] Creating layer conv4_1/incep
I0315 18:48:54.766386  1399 net.cpp:100] Creating Layer conv4_1/incep
I0315 18:48:54.766388  1399 net.cpp:434] conv4_1/incep <- conv4_1/incep/0
I0315 18:48:54.766391  1399 net.cpp:434] conv4_1/incep <- conv4_1/incep/1_0
I0315 18:48:54.766396  1399 net.cpp:434] conv4_1/incep <- conv4_1/incep/2_1
I0315 18:48:54.766398  1399 net.cpp:434] conv4_1/incep <- conv4_1/incep/poolproj
I0315 18:48:54.766402  1399 net.cpp:408] conv4_1/incep -> conv4_1/incep
I0315 18:48:54.766427  1399 net.cpp:150] Setting up conv4_1/incep
I0315 18:48:54.766432  1399 net.cpp:157] Top shape: 1 368 54 90 (1788480)
I0315 18:48:54.766434  1399 net.cpp:165] Memory required for data: 1697345368
I0315 18:48:54.766436  1399 layer_factory.hpp:77] Creating layer conv4_1/out/conv
I0315 18:48:54.766443  1399 net.cpp:100] Creating Layer conv4_1/out/conv
I0315 18:48:54.766446  1399 net.cpp:434] conv4_1/out/conv <- conv4_1/incep
I0315 18:48:54.766451  1399 net.cpp:408] conv4_1/out/conv -> conv4_1/out
I0315 18:48:54.767546  1399 net.cpp:150] Setting up conv4_1/out/conv
I0315 18:48:54.767554  1399 net.cpp:157] Top shape: 1 256 54 90 (1244160)
I0315 18:48:54.767557  1399 net.cpp:165] Memory required for data: 1702322008
I0315 18:48:54.767561  1399 layer_factory.hpp:77] Creating layer conv4_1/out/bn
I0315 18:48:54.767567  1399 net.cpp:100] Creating Layer conv4_1/out/bn
I0315 18:48:54.767571  1399 net.cpp:434] conv4_1/out/bn <- conv4_1/out
I0315 18:48:54.767575  1399 net.cpp:395] conv4_1/out/bn -> conv4_1/out (in-place)
I0315 18:48:54.767729  1399 net.cpp:150] Setting up conv4_1/out/bn
I0315 18:48:54.767735  1399 net.cpp:157] Top shape: 1 256 54 90 (1244160)
I0315 18:48:54.767737  1399 net.cpp:165] Memory required for data: 1707298648
I0315 18:48:54.767742  1399 layer_factory.hpp:77] Creating layer conv4_1/out/bn_scale
I0315 18:48:54.767747  1399 net.cpp:100] Creating Layer conv4_1/out/bn_scale
I0315 18:48:54.767750  1399 net.cpp:434] conv4_1/out/bn_scale <- conv4_1/out
I0315 18:48:54.767755  1399 net.cpp:395] conv4_1/out/bn_scale -> conv4_1/out (in-place)
I0315 18:48:54.767786  1399 layer_factory.hpp:77] Creating layer conv4_1/out/bn_scale
I0315 18:48:54.767876  1399 net.cpp:150] Setting up conv4_1/out/bn_scale
I0315 18:48:54.767881  1399 net.cpp:157] Top shape: 1 256 54 90 (1244160)
I0315 18:48:54.767884  1399 net.cpp:165] Memory required for data: 1712275288
I0315 18:48:54.767889  1399 layer_factory.hpp:77] Creating layer conv4_1/proj
I0315 18:48:54.767895  1399 net.cpp:100] Creating Layer conv4_1/proj
I0315 18:48:54.767899  1399 net.cpp:434] conv4_1/proj <- conv3_4_conv3_4_0_split_4
I0315 18:48:54.767904  1399 net.cpp:408] conv4_1/proj -> conv4_1/proj
I0315 18:48:54.768780  1399 net.cpp:150] Setting up conv4_1/proj
I0315 18:48:54.768790  1399 net.cpp:157] Top shape: 1 256 54 90 (1244160)
I0315 18:48:54.768792  1399 net.cpp:165] Memory required for data: 1717251928
I0315 18:48:54.768796  1399 layer_factory.hpp:77] Creating layer conv4_1/proj_bn
I0315 18:48:54.768803  1399 net.cpp:100] Creating Layer conv4_1/proj_bn
I0315 18:48:54.768806  1399 net.cpp:434] conv4_1/proj_bn <- conv4_1/proj
I0315 18:48:54.768810  1399 net.cpp:395] conv4_1/proj_bn -> conv4_1/proj (in-place)
I0315 18:48:54.768971  1399 net.cpp:150] Setting up conv4_1/proj_bn
I0315 18:48:54.768981  1399 net.cpp:157] Top shape: 1 256 54 90 (1244160)
I0315 18:48:54.768983  1399 net.cpp:165] Memory required for data: 1722228568
I0315 18:48:54.768990  1399 layer_factory.hpp:77] Creating layer conv4_1/proj_bn_scale
I0315 18:48:54.768995  1399 net.cpp:100] Creating Layer conv4_1/proj_bn_scale
I0315 18:48:54.768997  1399 net.cpp:434] conv4_1/proj_bn_scale <- conv4_1/proj
I0315 18:48:54.769001  1399 net.cpp:395] conv4_1/proj_bn_scale -> conv4_1/proj (in-place)
I0315 18:48:54.769033  1399 layer_factory.hpp:77] Creating layer conv4_1/proj_bn_scale
I0315 18:48:54.769387  1399 net.cpp:150] Setting up conv4_1/proj_bn_scale
I0315 18:48:54.769395  1399 net.cpp:157] Top shape: 1 256 54 90 (1244160)
I0315 18:48:54.769398  1399 net.cpp:165] Memory required for data: 1727205208
I0315 18:48:54.769403  1399 layer_factory.hpp:77] Creating layer conv4_1
I0315 18:48:54.769409  1399 net.cpp:100] Creating Layer conv4_1
I0315 18:48:54.769412  1399 net.cpp:434] conv4_1 <- conv4_1/out
I0315 18:48:54.769417  1399 net.cpp:434] conv4_1 <- conv4_1/proj
I0315 18:48:54.769420  1399 net.cpp:408] conv4_1 -> conv4_1
I0315 18:48:54.769443  1399 net.cpp:150] Setting up conv4_1
I0315 18:48:54.769448  1399 net.cpp:157] Top shape: 1 256 54 90 (1244160)
I0315 18:48:54.769449  1399 net.cpp:165] Memory required for data: 1732181848
I0315 18:48:54.769453  1399 layer_factory.hpp:77] Creating layer conv4_1_conv4_1_0_split
I0315 18:48:54.769456  1399 net.cpp:100] Creating Layer conv4_1_conv4_1_0_split
I0315 18:48:54.769459  1399 net.cpp:434] conv4_1_conv4_1_0_split <- conv4_1
I0315 18:48:54.769464  1399 net.cpp:408] conv4_1_conv4_1_0_split -> conv4_1_conv4_1_0_split_0
I0315 18:48:54.769469  1399 net.cpp:408] conv4_1_conv4_1_0_split -> conv4_1_conv4_1_0_split_1
I0315 18:48:54.769472  1399 net.cpp:408] conv4_1_conv4_1_0_split -> conv4_1_conv4_1_0_split_2
I0315 18:48:54.769477  1399 net.cpp:408] conv4_1_conv4_1_0_split -> conv4_1_conv4_1_0_split_3
I0315 18:48:54.769525  1399 net.cpp:150] Setting up conv4_1_conv4_1_0_split
I0315 18:48:54.769528  1399 net.cpp:157] Top shape: 1 256 54 90 (1244160)
I0315 18:48:54.769531  1399 net.cpp:157] Top shape: 1 256 54 90 (1244160)
I0315 18:48:54.769534  1399 net.cpp:157] Top shape: 1 256 54 90 (1244160)
I0315 18:48:54.769537  1399 net.cpp:157] Top shape: 1 256 54 90 (1244160)
I0315 18:48:54.769539  1399 net.cpp:165] Memory required for data: 1752088408
I0315 18:48:54.769542  1399 layer_factory.hpp:77] Creating layer conv4_2/incep/0/conv
I0315 18:48:54.769548  1399 net.cpp:100] Creating Layer conv4_2/incep/0/conv
I0315 18:48:54.769551  1399 net.cpp:434] conv4_2/incep/0/conv <- conv4_1_conv4_1_0_split_0
I0315 18:48:54.769556  1399 net.cpp:408] conv4_2/incep/0/conv -> conv4_2/incep/0
I0315 18:48:54.770243  1399 net.cpp:150] Setting up conv4_2/incep/0/conv
I0315 18:48:54.770251  1399 net.cpp:157] Top shape: 1 64 54 90 (311040)
I0315 18:48:54.770254  1399 net.cpp:165] Memory required for data: 1753332568
I0315 18:48:54.770258  1399 layer_factory.hpp:77] Creating layer conv4_2/incep/0/bn
I0315 18:48:54.770264  1399 net.cpp:100] Creating Layer conv4_2/incep/0/bn
I0315 18:48:54.770267  1399 net.cpp:434] conv4_2/incep/0/bn <- conv4_2/incep/0
I0315 18:48:54.770272  1399 net.cpp:395] conv4_2/incep/0/bn -> conv4_2/incep/0 (in-place)
I0315 18:48:54.770429  1399 net.cpp:150] Setting up conv4_2/incep/0/bn
I0315 18:48:54.770434  1399 net.cpp:157] Top shape: 1 64 54 90 (311040)
I0315 18:48:54.770437  1399 net.cpp:165] Memory required for data: 1754576728
I0315 18:48:54.770442  1399 layer_factory.hpp:77] Creating layer conv4_2/incep/0/bn_scale
I0315 18:48:54.770447  1399 net.cpp:100] Creating Layer conv4_2/incep/0/bn_scale
I0315 18:48:54.770449  1399 net.cpp:434] conv4_2/incep/0/bn_scale <- conv4_2/incep/0
I0315 18:48:54.770453  1399 net.cpp:395] conv4_2/incep/0/bn_scale -> conv4_2/incep/0 (in-place)
I0315 18:48:54.770484  1399 layer_factory.hpp:77] Creating layer conv4_2/incep/0/bn_scale
I0315 18:48:54.770578  1399 net.cpp:150] Setting up conv4_2/incep/0/bn_scale
I0315 18:48:54.770583  1399 net.cpp:157] Top shape: 1 64 54 90 (311040)
I0315 18:48:54.770588  1399 net.cpp:165] Memory required for data: 1755820888
I0315 18:48:54.770592  1399 layer_factory.hpp:77] Creating layer conv4_2/incep/0/relu
I0315 18:48:54.770597  1399 net.cpp:100] Creating Layer conv4_2/incep/0/relu
I0315 18:48:54.770599  1399 net.cpp:434] conv4_2/incep/0/relu <- conv4_2/incep/0
I0315 18:48:54.770603  1399 net.cpp:395] conv4_2/incep/0/relu -> conv4_2/incep/0 (in-place)
I0315 18:48:54.770828  1399 net.cpp:150] Setting up conv4_2/incep/0/relu
I0315 18:48:54.770835  1399 net.cpp:157] Top shape: 1 64 54 90 (311040)
I0315 18:48:54.770838  1399 net.cpp:165] Memory required for data: 1757065048
I0315 18:48:54.770840  1399 layer_factory.hpp:77] Creating layer conv4_2/incep/1_reduce/conv
I0315 18:48:54.770849  1399 net.cpp:100] Creating Layer conv4_2/incep/1_reduce/conv
I0315 18:48:54.770853  1399 net.cpp:434] conv4_2/incep/1_reduce/conv <- conv4_1_conv4_1_0_split_1
I0315 18:48:54.770858  1399 net.cpp:408] conv4_2/incep/1_reduce/conv -> conv4_2/incep/1_reduce
I0315 18:48:54.771730  1399 net.cpp:150] Setting up conv4_2/incep/1_reduce/conv
I0315 18:48:54.771739  1399 net.cpp:157] Top shape: 1 64 54 90 (311040)
I0315 18:48:54.771741  1399 net.cpp:165] Memory required for data: 1758309208
I0315 18:48:54.771746  1399 layer_factory.hpp:77] Creating layer conv4_2/incep/1_reduce/bn
I0315 18:48:54.771752  1399 net.cpp:100] Creating Layer conv4_2/incep/1_reduce/bn
I0315 18:48:54.771755  1399 net.cpp:434] conv4_2/incep/1_reduce/bn <- conv4_2/incep/1_reduce
I0315 18:48:54.771760  1399 net.cpp:395] conv4_2/incep/1_reduce/bn -> conv4_2/incep/1_reduce (in-place)
I0315 18:48:54.771919  1399 net.cpp:150] Setting up conv4_2/incep/1_reduce/bn
I0315 18:48:54.771924  1399 net.cpp:157] Top shape: 1 64 54 90 (311040)
I0315 18:48:54.771926  1399 net.cpp:165] Memory required for data: 1759553368
I0315 18:48:54.771931  1399 layer_factory.hpp:77] Creating layer conv4_2/incep/1_reduce/bn_scale
I0315 18:48:54.771936  1399 net.cpp:100] Creating Layer conv4_2/incep/1_reduce/bn_scale
I0315 18:48:54.771939  1399 net.cpp:434] conv4_2/incep/1_reduce/bn_scale <- conv4_2/incep/1_reduce
I0315 18:48:54.771944  1399 net.cpp:395] conv4_2/incep/1_reduce/bn_scale -> conv4_2/incep/1_reduce (in-place)
I0315 18:48:54.771975  1399 layer_factory.hpp:77] Creating layer conv4_2/incep/1_reduce/bn_scale
I0315 18:48:54.772069  1399 net.cpp:150] Setting up conv4_2/incep/1_reduce/bn_scale
I0315 18:48:54.772074  1399 net.cpp:157] Top shape: 1 64 54 90 (311040)
I0315 18:48:54.772076  1399 net.cpp:165] Memory required for data: 1760797528
I0315 18:48:54.772081  1399 layer_factory.hpp:77] Creating layer conv4_2/incep/1_reduce/relu
I0315 18:48:54.772085  1399 net.cpp:100] Creating Layer conv4_2/incep/1_reduce/relu
I0315 18:48:54.772089  1399 net.cpp:434] conv4_2/incep/1_reduce/relu <- conv4_2/incep/1_reduce
I0315 18:48:54.772092  1399 net.cpp:395] conv4_2/incep/1_reduce/relu -> conv4_2/incep/1_reduce (in-place)
I0315 18:48:54.772219  1399 net.cpp:150] Setting up conv4_2/incep/1_reduce/relu
I0315 18:48:54.772225  1399 net.cpp:157] Top shape: 1 64 54 90 (311040)
I0315 18:48:54.772228  1399 net.cpp:165] Memory required for data: 1762041688
I0315 18:48:54.772231  1399 layer_factory.hpp:77] Creating layer conv4_2/incep/1_0/conv
I0315 18:48:54.772238  1399 net.cpp:100] Creating Layer conv4_2/incep/1_0/conv
I0315 18:48:54.772241  1399 net.cpp:434] conv4_2/incep/1_0/conv <- conv4_2/incep/1_reduce
I0315 18:48:54.772246  1399 net.cpp:408] conv4_2/incep/1_0/conv -> conv4_2/incep/1_0
I0315 18:48:54.773358  1399 net.cpp:150] Setting up conv4_2/incep/1_0/conv
I0315 18:48:54.773367  1399 net.cpp:157] Top shape: 1 128 54 90 (622080)
I0315 18:48:54.773370  1399 net.cpp:165] Memory required for data: 1764530008
I0315 18:48:54.773375  1399 layer_factory.hpp:77] Creating layer conv4_2/incep/1_0/bn
I0315 18:48:54.773380  1399 net.cpp:100] Creating Layer conv4_2/incep/1_0/bn
I0315 18:48:54.773383  1399 net.cpp:434] conv4_2/incep/1_0/bn <- conv4_2/incep/1_0
I0315 18:48:54.773388  1399 net.cpp:395] conv4_2/incep/1_0/bn -> conv4_2/incep/1_0 (in-place)
I0315 18:48:54.773548  1399 net.cpp:150] Setting up conv4_2/incep/1_0/bn
I0315 18:48:54.773555  1399 net.cpp:157] Top shape: 1 128 54 90 (622080)
I0315 18:48:54.773558  1399 net.cpp:165] Memory required for data: 1767018328
I0315 18:48:54.773563  1399 layer_factory.hpp:77] Creating layer conv4_2/incep/1_0/bn_scale
I0315 18:48:54.773571  1399 net.cpp:100] Creating Layer conv4_2/incep/1_0/bn_scale
I0315 18:48:54.773574  1399 net.cpp:434] conv4_2/incep/1_0/bn_scale <- conv4_2/incep/1_0
I0315 18:48:54.773578  1399 net.cpp:395] conv4_2/incep/1_0/bn_scale -> conv4_2/incep/1_0 (in-place)
I0315 18:48:54.773612  1399 layer_factory.hpp:77] Creating layer conv4_2/incep/1_0/bn_scale
I0315 18:48:54.773700  1399 net.cpp:150] Setting up conv4_2/incep/1_0/bn_scale
I0315 18:48:54.773705  1399 net.cpp:157] Top shape: 1 128 54 90 (622080)
I0315 18:48:54.773708  1399 net.cpp:165] Memory required for data: 1769506648
I0315 18:48:54.773712  1399 layer_factory.hpp:77] Creating layer conv4_2/incep/1_0/relu
I0315 18:48:54.773717  1399 net.cpp:100] Creating Layer conv4_2/incep/1_0/relu
I0315 18:48:54.773720  1399 net.cpp:434] conv4_2/incep/1_0/relu <- conv4_2/incep/1_0
I0315 18:48:54.773725  1399 net.cpp:395] conv4_2/incep/1_0/relu -> conv4_2/incep/1_0 (in-place)
I0315 18:48:54.773950  1399 net.cpp:150] Setting up conv4_2/incep/1_0/relu
I0315 18:48:54.773958  1399 net.cpp:157] Top shape: 1 128 54 90 (622080)
I0315 18:48:54.773960  1399 net.cpp:165] Memory required for data: 1771994968
I0315 18:48:54.773963  1399 layer_factory.hpp:77] Creating layer conv4_2/incep/2_reduce/conv
I0315 18:48:54.773970  1399 net.cpp:100] Creating Layer conv4_2/incep/2_reduce/conv
I0315 18:48:54.773974  1399 net.cpp:434] conv4_2/incep/2_reduce/conv <- conv4_1_conv4_1_0_split_2
I0315 18:48:54.773979  1399 net.cpp:408] conv4_2/incep/2_reduce/conv -> conv4_2/incep/2_reduce
I0315 18:48:54.774638  1399 net.cpp:150] Setting up conv4_2/incep/2_reduce/conv
I0315 18:48:54.774647  1399 net.cpp:157] Top shape: 1 24 54 90 (116640)
I0315 18:48:54.774651  1399 net.cpp:165] Memory required for data: 1772461528
I0315 18:48:54.774654  1399 layer_factory.hpp:77] Creating layer conv4_2/incep/2_reduce/bn
I0315 18:48:54.774660  1399 net.cpp:100] Creating Layer conv4_2/incep/2_reduce/bn
I0315 18:48:54.774663  1399 net.cpp:434] conv4_2/incep/2_reduce/bn <- conv4_2/incep/2_reduce
I0315 18:48:54.774668  1399 net.cpp:395] conv4_2/incep/2_reduce/bn -> conv4_2/incep/2_reduce (in-place)
I0315 18:48:54.774832  1399 net.cpp:150] Setting up conv4_2/incep/2_reduce/bn
I0315 18:48:54.774837  1399 net.cpp:157] Top shape: 1 24 54 90 (116640)
I0315 18:48:54.774839  1399 net.cpp:165] Memory required for data: 1772928088
I0315 18:48:54.774845  1399 layer_factory.hpp:77] Creating layer conv4_2/incep/2_reduce/bn_scale
I0315 18:48:54.774850  1399 net.cpp:100] Creating Layer conv4_2/incep/2_reduce/bn_scale
I0315 18:48:54.774853  1399 net.cpp:434] conv4_2/incep/2_reduce/bn_scale <- conv4_2/incep/2_reduce
I0315 18:48:54.774857  1399 net.cpp:395] conv4_2/incep/2_reduce/bn_scale -> conv4_2/incep/2_reduce (in-place)
I0315 18:48:54.774888  1399 layer_factory.hpp:77] Creating layer conv4_2/incep/2_reduce/bn_scale
I0315 18:48:54.774988  1399 net.cpp:150] Setting up conv4_2/incep/2_reduce/bn_scale
I0315 18:48:54.774993  1399 net.cpp:157] Top shape: 1 24 54 90 (116640)
I0315 18:48:54.774996  1399 net.cpp:165] Memory required for data: 1773394648
I0315 18:48:54.775001  1399 layer_factory.hpp:77] Creating layer conv4_2/incep/2_reduce/relu
I0315 18:48:54.775004  1399 net.cpp:100] Creating Layer conv4_2/incep/2_reduce/relu
I0315 18:48:54.775007  1399 net.cpp:434] conv4_2/incep/2_reduce/relu <- conv4_2/incep/2_reduce
I0315 18:48:54.775012  1399 net.cpp:395] conv4_2/incep/2_reduce/relu -> conv4_2/incep/2_reduce (in-place)
I0315 18:48:54.775234  1399 net.cpp:150] Setting up conv4_2/incep/2_reduce/relu
I0315 18:48:54.775243  1399 net.cpp:157] Top shape: 1 24 54 90 (116640)
I0315 18:48:54.775244  1399 net.cpp:165] Memory required for data: 1773861208
I0315 18:48:54.775248  1399 layer_factory.hpp:77] Creating layer conv4_2/incep/2_0/conv
I0315 18:48:54.775257  1399 net.cpp:100] Creating Layer conv4_2/incep/2_0/conv
I0315 18:48:54.775260  1399 net.cpp:434] conv4_2/incep/2_0/conv <- conv4_2/incep/2_reduce
I0315 18:48:54.775266  1399 net.cpp:408] conv4_2/incep/2_0/conv -> conv4_2/incep/2_0
I0315 18:48:54.776036  1399 net.cpp:150] Setting up conv4_2/incep/2_0/conv
I0315 18:48:54.776046  1399 net.cpp:157] Top shape: 1 48 54 90 (233280)
I0315 18:48:54.776047  1399 net.cpp:165] Memory required for data: 1774794328
I0315 18:48:54.776051  1399 layer_factory.hpp:77] Creating layer conv4_2/incep/2_0/bn
I0315 18:48:54.776058  1399 net.cpp:100] Creating Layer conv4_2/incep/2_0/bn
I0315 18:48:54.776062  1399 net.cpp:434] conv4_2/incep/2_0/bn <- conv4_2/incep/2_0
I0315 18:48:54.776065  1399 net.cpp:395] conv4_2/incep/2_0/bn -> conv4_2/incep/2_0 (in-place)
I0315 18:48:54.776231  1399 net.cpp:150] Setting up conv4_2/incep/2_0/bn
I0315 18:48:54.776235  1399 net.cpp:157] Top shape: 1 48 54 90 (233280)
I0315 18:48:54.776237  1399 net.cpp:165] Memory required for data: 1775727448
I0315 18:48:54.776243  1399 layer_factory.hpp:77] Creating layer conv4_2/incep/2_0/bn_scale
I0315 18:48:54.776247  1399 net.cpp:100] Creating Layer conv4_2/incep/2_0/bn_scale
I0315 18:48:54.776250  1399 net.cpp:434] conv4_2/incep/2_0/bn_scale <- conv4_2/incep/2_0
I0315 18:48:54.776255  1399 net.cpp:395] conv4_2/incep/2_0/bn_scale -> conv4_2/incep/2_0 (in-place)
I0315 18:48:54.776288  1399 layer_factory.hpp:77] Creating layer conv4_2/incep/2_0/bn_scale
I0315 18:48:54.776386  1399 net.cpp:150] Setting up conv4_2/incep/2_0/bn_scale
I0315 18:48:54.776391  1399 net.cpp:157] Top shape: 1 48 54 90 (233280)
I0315 18:48:54.776393  1399 net.cpp:165] Memory required for data: 1776660568
I0315 18:48:54.776397  1399 layer_factory.hpp:77] Creating layer conv4_2/incep/2_0/relu
I0315 18:48:54.776402  1399 net.cpp:100] Creating Layer conv4_2/incep/2_0/relu
I0315 18:48:54.776406  1399 net.cpp:434] conv4_2/incep/2_0/relu <- conv4_2/incep/2_0
I0315 18:48:54.776409  1399 net.cpp:395] conv4_2/incep/2_0/relu -> conv4_2/incep/2_0 (in-place)
I0315 18:48:54.776532  1399 net.cpp:150] Setting up conv4_2/incep/2_0/relu
I0315 18:48:54.776538  1399 net.cpp:157] Top shape: 1 48 54 90 (233280)
I0315 18:48:54.776541  1399 net.cpp:165] Memory required for data: 1777593688
I0315 18:48:54.776543  1399 layer_factory.hpp:77] Creating layer conv4_2/incep/2_1/conv
I0315 18:48:54.776551  1399 net.cpp:100] Creating Layer conv4_2/incep/2_1/conv
I0315 18:48:54.776554  1399 net.cpp:434] conv4_2/incep/2_1/conv <- conv4_2/incep/2_0
I0315 18:48:54.776558  1399 net.cpp:408] conv4_2/incep/2_1/conv -> conv4_2/incep/2_1
I0315 18:48:54.777390  1399 net.cpp:150] Setting up conv4_2/incep/2_1/conv
I0315 18:48:54.777400  1399 net.cpp:157] Top shape: 1 48 54 90 (233280)
I0315 18:48:54.777401  1399 net.cpp:165] Memory required for data: 1778526808
I0315 18:48:54.777405  1399 layer_factory.hpp:77] Creating layer conv4_2/incep/2_1/bn
I0315 18:48:54.777412  1399 net.cpp:100] Creating Layer conv4_2/incep/2_1/bn
I0315 18:48:54.777415  1399 net.cpp:434] conv4_2/incep/2_1/bn <- conv4_2/incep/2_1
I0315 18:48:54.777420  1399 net.cpp:395] conv4_2/incep/2_1/bn -> conv4_2/incep/2_1 (in-place)
I0315 18:48:54.777585  1399 net.cpp:150] Setting up conv4_2/incep/2_1/bn
I0315 18:48:54.777590  1399 net.cpp:157] Top shape: 1 48 54 90 (233280)
I0315 18:48:54.777593  1399 net.cpp:165] Memory required for data: 1779459928
I0315 18:48:54.777598  1399 layer_factory.hpp:77] Creating layer conv4_2/incep/2_1/bn_scale
I0315 18:48:54.777606  1399 net.cpp:100] Creating Layer conv4_2/incep/2_1/bn_scale
I0315 18:48:54.777609  1399 net.cpp:434] conv4_2/incep/2_1/bn_scale <- conv4_2/incep/2_1
I0315 18:48:54.777613  1399 net.cpp:395] conv4_2/incep/2_1/bn_scale -> conv4_2/incep/2_1 (in-place)
I0315 18:48:54.777645  1399 layer_factory.hpp:77] Creating layer conv4_2/incep/2_1/bn_scale
I0315 18:48:54.777743  1399 net.cpp:150] Setting up conv4_2/incep/2_1/bn_scale
I0315 18:48:54.777750  1399 net.cpp:157] Top shape: 1 48 54 90 (233280)
I0315 18:48:54.777751  1399 net.cpp:165] Memory required for data: 1780393048
I0315 18:48:54.777758  1399 layer_factory.hpp:77] Creating layer conv4_2/incep/2_1/relu
I0315 18:48:54.777763  1399 net.cpp:100] Creating Layer conv4_2/incep/2_1/relu
I0315 18:48:54.777766  1399 net.cpp:434] conv4_2/incep/2_1/relu <- conv4_2/incep/2_1
I0315 18:48:54.777770  1399 net.cpp:395] conv4_2/incep/2_1/relu -> conv4_2/incep/2_1 (in-place)
I0315 18:48:54.777997  1399 net.cpp:150] Setting up conv4_2/incep/2_1/relu
I0315 18:48:54.778004  1399 net.cpp:157] Top shape: 1 48 54 90 (233280)
I0315 18:48:54.778007  1399 net.cpp:165] Memory required for data: 1781326168
I0315 18:48:54.778010  1399 layer_factory.hpp:77] Creating layer conv4_2/incep
I0315 18:48:54.778015  1399 net.cpp:100] Creating Layer conv4_2/incep
I0315 18:48:54.778018  1399 net.cpp:434] conv4_2/incep <- conv4_2/incep/0
I0315 18:48:54.778023  1399 net.cpp:434] conv4_2/incep <- conv4_2/incep/1_0
I0315 18:48:54.778025  1399 net.cpp:434] conv4_2/incep <- conv4_2/incep/2_1
I0315 18:48:54.778030  1399 net.cpp:408] conv4_2/incep -> conv4_2/incep
I0315 18:48:54.778054  1399 net.cpp:150] Setting up conv4_2/incep
I0315 18:48:54.778060  1399 net.cpp:157] Top shape: 1 240 54 90 (1166400)
I0315 18:48:54.778064  1399 net.cpp:165] Memory required for data: 1785991768
I0315 18:48:54.778065  1399 layer_factory.hpp:77] Creating layer conv4_2/out/conv
I0315 18:48:54.778071  1399 net.cpp:100] Creating Layer conv4_2/out/conv
I0315 18:48:54.778074  1399 net.cpp:434] conv4_2/out/conv <- conv4_2/incep
I0315 18:48:54.778079  1399 net.cpp:408] conv4_2/out/conv -> conv4_2/out
I0315 18:48:54.779300  1399 net.cpp:150] Setting up conv4_2/out/conv
I0315 18:48:54.779309  1399 net.cpp:157] Top shape: 1 256 54 90 (1244160)
I0315 18:48:54.779312  1399 net.cpp:165] Memory required for data: 1790968408
I0315 18:48:54.779316  1399 layer_factory.hpp:77] Creating layer conv4_2/out/bn
I0315 18:48:54.779322  1399 net.cpp:100] Creating Layer conv4_2/out/bn
I0315 18:48:54.779325  1399 net.cpp:434] conv4_2/out/bn <- conv4_2/out
I0315 18:48:54.779330  1399 net.cpp:395] conv4_2/out/bn -> conv4_2/out (in-place)
I0315 18:48:54.779494  1399 net.cpp:150] Setting up conv4_2/out/bn
I0315 18:48:54.779498  1399 net.cpp:157] Top shape: 1 256 54 90 (1244160)
I0315 18:48:54.779501  1399 net.cpp:165] Memory required for data: 1795945048
I0315 18:48:54.779506  1399 layer_factory.hpp:77] Creating layer conv4_2/out/bn_scale
I0315 18:48:54.779511  1399 net.cpp:100] Creating Layer conv4_2/out/bn_scale
I0315 18:48:54.779515  1399 net.cpp:434] conv4_2/out/bn_scale <- conv4_2/out
I0315 18:48:54.779520  1399 net.cpp:395] conv4_2/out/bn_scale -> conv4_2/out (in-place)
I0315 18:48:54.779551  1399 layer_factory.hpp:77] Creating layer conv4_2/out/bn_scale
I0315 18:48:54.779644  1399 net.cpp:150] Setting up conv4_2/out/bn_scale
…
I0315 18:48:54.843017  1399 net.cpp:395] conv5_4/incep/1_reduce/bn_scale -> conv5_4/incep/1_reduce (in-place)
I0315 18:48:54.843045  1399 layer_factory.hpp:77] Creating layer conv5_4/incep/1_reduce/bn_scale
I0315 18:48:54.843147  1399 net.cpp:150] Setting up conv5_4/incep/1_reduce/bn_scale
I0315 18:48:54.843152  1399 net.cpp:157] Top shape: 1 96 27 45 (116640)
I0315 18:48:54.843153  1399 net.cpp:165] Memory required for data: 2093765848
I0315 18:48:54.843158  1399 layer_factory.hpp:77] Creating layer conv5_4/incep/1_reduce/relu
I0315 18:48:54.843164  1399 net.cpp:100] Creating Layer conv5_4/incep/1_reduce/relu
I0315 18:48:54.843168  1399 net.cpp:434] conv5_4/incep/1_reduce/relu <- conv5_4/incep/1_reduce
I0315 18:48:54.843171  1399 net.cpp:395] conv5_4/incep/1_reduce/relu -> conv5_4/incep/1_reduce (in-place)
I0315 18:48:54.843317  1399 net.cpp:150] Setting up conv5_4/incep/1_reduce/relu
I0315 18:48:54.843322  1399 net.cpp:157] Top shape: 1 96 27 45 (116640)
I0315 18:48:54.843325  1399 net.cpp:165] Memory required for data: 2094232408
I0315 18:48:54.843327  1399 layer_factory.hpp:77] Creating layer conv5_4/incep/1_0/conv
I0315 18:48:54.843334  1399 net.cpp:100] Creating Layer conv5_4/incep/1_0/conv
I0315 18:48:54.843338  1399 net.cpp:434] conv5_4/incep/1_0/conv <- conv5_4/incep/1_reduce
I0315 18:48:54.843343  1399 net.cpp:408] conv5_4/incep/1_0/conv -> conv5_4/incep/1_0
I0315 18:48:54.845043  1399 net.cpp:150] Setting up conv5_4/incep/1_0/conv
I0315 18:48:54.845053  1399 net.cpp:157] Top shape: 1 192 27 45 (233280)
I0315 18:48:54.845057  1399 net.cpp:165] Memory required for data: 2095165528
I0315 18:48:54.845062  1399 layer_factory.hpp:77] Creating layer conv5_4/incep/1_0/bn
I0315 18:48:54.845067  1399 net.cpp:100] Creating Layer conv5_4/incep/1_0/bn
I0315 18:48:54.845069  1399 net.cpp:434] conv5_4/incep/1_0/bn <- conv5_4/incep/1_0
I0315 18:48:54.845074  1399 net.cpp:395] conv5_4/incep/1_0/bn -> conv5_4/incep/1_0 (in-place)
I0315 18:48:54.845234  1399 net.cpp:150] Setting up conv5_4/incep/1_0/bn
I0315 18:48:54.845239  1399 net.cpp:157] Top shape: 1 192 27 45 (233280)
I0315 18:48:54.845242  1399 net.cpp:165] Memory required for data: 2096098648
I0315 18:48:54.845247  1399 layer_factory.hpp:77] Creating layer conv5_4/incep/1_0/bn_scale
I0315 18:48:54.845252  1399 net.cpp:100] Creating Layer conv5_4/incep/1_0/bn_scale
I0315 18:48:54.845255  1399 net.cpp:434] conv5_4/incep/1_0/bn_scale <- conv5_4/incep/1_0
I0315 18:48:54.845262  1399 net.cpp:395] conv5_4/incep/1_0/bn_scale -> conv5_4/incep/1_0 (in-place)
I0315 18:48:54.845290  1399 layer_factory.hpp:77] Creating layer conv5_4/incep/1_0/bn_scale
I0315 18:48:54.845394  1399 net.cpp:150] Setting up conv5_4/incep/1_0/bn_scale
I0315 18:48:54.845399  1399 net.cpp:157] Top shape: 1 192 27 45 (233280)
I0315 18:48:54.845402  1399 net.cpp:165] Memory required for data: 2097031768
I0315 18:48:54.845407  1399 layer_factory.hpp:77] Creating layer conv5_4/incep/1_0/relu
I0315 18:48:54.845412  1399 net.cpp:100] Creating Layer conv5_4/incep/1_0/relu
I0315 18:48:54.845414  1399 net.cpp:434] conv5_4/incep/1_0/relu <- conv5_4/incep/1_0
I0315 18:48:54.845418  1399 net.cpp:395] conv5_4/incep/1_0/relu -> conv5_4/incep/1_0 (in-place)
I0315 18:48:54.845561  1399 net.cpp:150] Setting up conv5_4/incep/1_0/relu
I0315 18:48:54.845567  1399 net.cpp:157] Top shape: 1 192 27 45 (233280)
I0315 18:48:54.845571  1399 net.cpp:165] Memory required for data: 2097964888
I0315 18:48:54.845572  1399 layer_factory.hpp:77] Creating layer conv5_4/incep/2_reduce/conv
I0315 18:48:54.845579  1399 net.cpp:100] Creating Layer conv5_4/incep/2_reduce/conv
I0315 18:48:54.845582  1399 net.cpp:434] conv5_4/incep/2_reduce/conv <- conv5_3_conv5_3_0_split_2
I0315 18:48:54.845587  1399 net.cpp:408] conv5_4/incep/2_reduce/conv -> conv5_4/incep/2_reduce
I0315 18:48:54.846667  1399 net.cpp:150] Setting up conv5_4/incep/2_reduce/conv
I0315 18:48:54.846675  1399 net.cpp:157] Top shape: 1 32 27 45 (38880)
I0315 18:48:54.846678  1399 net.cpp:165] Memory required for data: 2098120408
I0315 18:48:54.846683  1399 layer_factory.hpp:77] Creating layer conv5_4/incep/2_reduce/bn
I0315 18:48:54.846688  1399 net.cpp:100] Creating Layer conv5_4/incep/2_reduce/bn
I0315 18:48:54.846693  1399 net.cpp:434] conv5_4/incep/2_reduce/bn <- conv5_4/incep/2_reduce
I0315 18:48:54.846696  1399 net.cpp:395] conv5_4/incep/2_reduce/bn -> conv5_4/incep/2_reduce (in-place)
I0315 18:48:54.846858  1399 net.cpp:150] Setting up conv5_4/incep/2_reduce/bn
I0315 18:48:54.846863  1399 net.cpp:157] Top shape: 1 32 27 45 (38880)
I0315 18:48:54.846866  1399 net.cpp:165] Memory required for data: 2098275928
I0315 18:48:54.846871  1399 layer_factory.hpp:77] Creating layer conv5_4/incep/2_reduce/bn_scale
I0315 18:48:54.846876  1399 net.cpp:100] Creating Layer conv5_4/incep/2_reduce/bn_scale
I0315 18:48:54.846879  1399 net.cpp:434] conv5_4/incep/2_reduce/bn_scale <- conv5_4/incep/2_reduce
I0315 18:48:54.846884  1399 net.cpp:395] conv5_4/incep/2_reduce/bn_scale -> conv5_4/incep/2_reduce (in-place)
I0315 18:48:54.846912  1399 layer_factory.hpp:77] Creating layer conv5_4/incep/2_reduce/bn_scale
I0315 18:48:54.847015  1399 net.cpp:150] Setting up conv5_4/incep/2_reduce/bn_scale
I0315 18:48:54.847020  1399 net.cpp:157] Top shape: 1 32 27 45 (38880)
I0315 18:48:54.847023  1399 net.cpp:165] Memory required for data: 2098431448
I0315 18:48:54.847028  1399 layer_factory.hpp:77] Creating layer conv5_4/incep/2_reduce/relu
I0315 18:48:54.847031  1399 net.cpp:100] Creating Layer conv5_4/incep/2_reduce/relu
I0315 18:48:54.847034  1399 net.cpp:434] conv5_4/incep/2_reduce/relu <- conv5_4/incep/2_reduce
I0315 18:48:54.847038  1399 net.cpp:395] conv5_4/incep/2_reduce/relu -> conv5_4/incep/2_reduce (in-place)
I0315 18:48:54.847290  1399 net.cpp:150] Setting up conv5_4/incep/2_reduce/relu
I0315 18:48:54.847298  1399 net.cpp:157] Top shape: 1 32 27 45 (38880)
I0315 18:48:54.847301  1399 net.cpp:165] Memory required for data: 2098586968
I0315 18:48:54.847304  1399 layer_factory.hpp:77] Creating layer conv5_4/incep/2_0/conv
I0315 18:48:54.847314  1399 net.cpp:100] Creating Layer conv5_4/incep/2_0/conv
I0315 18:48:54.847318  1399 net.cpp:434] conv5_4/incep/2_0/conv <- conv5_4/incep/2_reduce
I0315 18:48:54.847323  1399 net.cpp:408] conv5_4/incep/2_0/conv -> conv5_4/incep/2_0
I0315 18:48:54.848167  1399 net.cpp:150] Setting up conv5_4/incep/2_0/conv
I0315 18:48:54.848177  1399 net.cpp:157] Top shape: 1 64 27 45 (77760)
I0315 18:48:54.848181  1399 net.cpp:165] Memory required for data: 2098898008
I0315 18:48:54.848184  1399 layer_factory.hpp:77] Creating layer conv5_4/incep/2_0/bn
I0315 18:48:54.848189  1399 net.cpp:100] Creating Layer conv5_4/incep/2_0/bn
I0315 18:48:54.848192  1399 net.cpp:434] conv5_4/incep/2_0/bn <- conv5_4/incep/2_0
I0315 18:48:54.848197  1399 net.cpp:395] conv5_4/incep/2_0/bn -> conv5_4/incep/2_0 (in-place)
I0315 18:48:54.848356  1399 net.cpp:150] Setting up conv5_4/incep/2_0/bn
I0315 18:48:54.848361  1399 net.cpp:157] Top shape: 1 64 27 45 (77760)
I0315 18:48:54.848363  1399 net.cpp:165] Memory required for data: 2099209048
I0315 18:48:54.848369  1399 layer_factory.hpp:77] Creating layer conv5_4/incep/2_0/bn_scale
I0315 18:48:54.848374  1399 net.cpp:100] Creating Layer conv5_4/incep/2_0/bn_scale
I0315 18:48:54.848377  1399 net.cpp:434] conv5_4/incep/2_0/bn_scale <- conv5_4/incep/2_0
I0315 18:48:54.848381  1399 net.cpp:395] conv5_4/incep/2_0/bn_scale -> conv5_4/incep/2_0 (in-place)
I0315 18:48:54.848412  1399 layer_factory.hpp:77] Creating layer conv5_4/incep/2_0/bn_scale
I0315 18:48:54.848515  1399 net.cpp:150] Setting up conv5_4/incep/2_0/bn_scale
I0315 18:48:54.848520  1399 net.cpp:157] Top shape: 1 64 27 45 (77760)
I0315 18:48:54.848523  1399 net.cpp:165] Memory required for data: 2099520088
I0315 18:48:54.848527  1399 layer_factory.hpp:77] Creating layer conv5_4/incep/2_0/relu
I0315 18:48:54.848532  1399 net.cpp:100] Creating Layer conv5_4/incep/2_0/relu
I0315 18:48:54.848536  1399 net.cpp:434] conv5_4/incep/2_0/relu <- conv5_4/incep/2_0
I0315 18:48:54.848538  1399 net.cpp:395] conv5_4/incep/2_0/relu -> conv5_4/incep/2_0 (in-place)
I0315 18:48:54.848680  1399 net.cpp:150] Setting up conv5_4/incep/2_0/relu
I0315 18:48:54.848686  1399 net.cpp:157] Top shape: 1 64 27 45 (77760)
I0315 18:48:54.848690  1399 net.cpp:165] Memory required for data: 2099831128
I0315 18:48:54.848691  1399 layer_factory.hpp:77] Creating layer conv5_4/incep/2_1/conv
I0315 18:48:54.848698  1399 net.cpp:100] Creating Layer conv5_4/incep/2_1/conv
I0315 18:48:54.848701  1399 net.cpp:434] conv5_4/incep/2_1/conv <- conv5_4/incep/2_0
I0315 18:48:54.848706  1399 net.cpp:408] conv5_4/incep/2_1/conv -> conv5_4/incep/2_1
I0315 18:48:54.849653  1399 net.cpp:150] Setting up conv5_4/incep/2_1/conv
I0315 18:48:54.849661  1399 net.cpp:157] Top shape: 1 64 27 45 (77760)
I0315 18:48:54.849664  1399 net.cpp:165] Memory required for data: 2100142168
I0315 18:48:54.849668  1399 layer_factory.hpp:77] Creating layer conv5_4/incep/2_1/bn
I0315 18:48:54.849674  1399 net.cpp:100] Creating Layer conv5_4/incep/2_1/bn
I0315 18:48:54.849678  1399 net.cpp:434] conv5_4/incep/2_1/bn <- conv5_4/incep/2_1
I0315 18:48:54.849683  1399 net.cpp:395] conv5_4/incep/2_1/bn -> conv5_4/incep/2_1 (in-place)
I0315 18:48:54.849843  1399 net.cpp:150] Setting up conv5_4/incep/2_1/bn
I0315 18:48:54.849848  1399 net.cpp:157] Top shape: 1 64 27 45 (77760)
I0315 18:48:54.849850  1399 net.cpp:165] Memory required for data: 2100453208
I0315 18:48:54.849855  1399 layer_factory.hpp:77] Creating layer conv5_4/incep/2_1/bn_scale
I0315 18:48:54.849860  1399 net.cpp:100] Creating Layer conv5_4/incep/2_1/bn_scale
I0315 18:48:54.849864  1399 net.cpp:434] conv5_4/incep/2_1/bn_scale <- conv5_4/incep/2_1
I0315 18:48:54.849869  1399 net.cpp:395] conv5_4/incep/2_1/bn_scale -> conv5_4/incep/2_1 (in-place)
I0315 18:48:54.849898  1399 layer_factory.hpp:77] Creating layer conv5_4/incep/2_1/bn_scale
I0315 18:48:54.849999  1399 net.cpp:150] Setting up conv5_4/incep/2_1/bn_scale
I0315 18:48:54.850005  1399 net.cpp:157] Top shape: 1 64 27 45 (77760)
I0315 18:48:54.850008  1399 net.cpp:165] Memory required for data: 2100764248
I0315 18:48:54.850015  1399 layer_factory.hpp:77] Creating layer conv5_4/incep/2_1/relu
I0315 18:48:54.850019  1399 net.cpp:100] Creating Layer conv5_4/incep/2_1/relu
I0315 18:48:54.850023  1399 net.cpp:434] conv5_4/incep/2_1/relu <- conv5_4/incep/2_1
I0315 18:48:54.850028  1399 net.cpp:395] conv5_4/incep/2_1/relu -> conv5_4/incep/2_1 (in-place)
I0315 18:48:54.850170  1399 net.cpp:150] Setting up conv5_4/incep/2_1/relu
I0315 18:48:54.850178  1399 net.cpp:157] Top shape: 1 64 27 45 (77760)
I0315 18:48:54.850179  1399 net.cpp:165] Memory required for data: 2101075288
I0315 18:48:54.850183  1399 layer_factory.hpp:77] Creating layer conv5_4/incep
I0315 18:48:54.850188  1399 net.cpp:100] Creating Layer conv5_4/incep
I0315 18:48:54.850191  1399 net.cpp:434] conv5_4/incep <- conv5_4/incep/0
I0315 18:48:54.850194  1399 net.cpp:434] conv5_4/incep <- conv5_4/incep/1_0
I0315 18:48:54.850198  1399 net.cpp:434] conv5_4/incep <- conv5_4/incep/2_1
I0315 18:48:54.850203  1399 net.cpp:408] conv5_4/incep -> conv5_4/incep
I0315 18:48:54.850225  1399 net.cpp:150] Setting up conv5_4/incep
I0315 18:48:54.850230  1399 net.cpp:157] Top shape: 1 320 27 45 (388800)
I0315 18:48:54.850232  1399 net.cpp:165] Memory required for data: 2102630488
I0315 18:48:54.850235  1399 layer_factory.hpp:77] Creating layer conv5_4/out/conv
I0315 18:48:54.850241  1399 net.cpp:100] Creating Layer conv5_4/out/conv
I0315 18:48:54.850244  1399 net.cpp:434] conv5_4/out/conv <- conv5_4/incep
I0315 18:48:54.850250  1399 net.cpp:408] conv5_4/out/conv -> conv5_4/out
I0315 18:48:54.851781  1399 net.cpp:150] Setting up conv5_4/out/conv
I0315 18:48:54.851790  1399 net.cpp:157] Top shape: 1 384 27 45 (466560)
I0315 18:48:54.851794  1399 net.cpp:165] Memory required for data: 2104496728
I0315 18:48:54.851797  1399 layer_factory.hpp:77] Creating layer conv5_4/out/bn
I0315 18:48:54.851804  1399 net.cpp:100] Creating Layer conv5_4/out/bn
I0315 18:48:54.851807  1399 net.cpp:434] conv5_4/out/bn <- conv5_4/out
I0315 18:48:54.851811  1399 net.cpp:395] conv5_4/out/bn -> conv5_4/out (in-place)
I0315 18:48:54.851975  1399 net.cpp:150] Setting up conv5_4/out/bn
I0315 18:48:54.851981  1399 net.cpp:157] Top shape: 1 384 27 45 (466560)
I0315 18:48:54.851984  1399 net.cpp:165] Memory required for data: 2106362968
I0315 18:48:54.851989  1399 layer_factory.hpp:77] Creating layer conv5_4/out/bn_scale
I0315 18:48:54.851994  1399 net.cpp:100] Creating Layer conv5_4/out/bn_scale
I0315 18:48:54.851996  1399 net.cpp:434] conv5_4/out/bn_scale <- conv5_4/out
I0315 18:48:54.852001  1399 net.cpp:395] conv5_4/out/bn_scale -> conv5_4/out (in-place)
I0315 18:48:54.852033  1399 layer_factory.hpp:77] Creating layer conv5_4/out/bn_scale
I0315 18:48:54.852140  1399 net.cpp:150] Setting up conv5_4/out/bn_scale
I0315 18:48:54.852145  1399 net.cpp:157] Top shape: 1 384 27 45 (466560)
I0315 18:48:54.852147  1399 net.cpp:165] Memory required for data: 2108229208
I0315 18:48:54.852152  1399 layer_factory.hpp:77] Creating layer conv5_4/input
I0315 18:48:54.852156  1399 net.cpp:100] Creating Layer conv5_4/input
I0315 18:48:54.852159  1399 net.cpp:434] conv5_4/input <- conv5_3_conv5_3_0_split_3
I0315 18:48:54.852165  1399 net.cpp:408] conv5_4/input -> conv5_4/input
I0315 18:48:54.852185  1399 net.cpp:150] Setting up conv5_4/input
I0315 18:48:54.852190  1399 net.cpp:157] Top shape: 1 384 27 45 (466560)
I0315 18:48:54.852191  1399 net.cpp:165] Memory required for data: 2110095448
I0315 18:48:54.852195  1399 layer_factory.hpp:77] Creating layer conv5_4
I0315 18:48:54.852200  1399 net.cpp:100] Creating Layer conv5_4
I0315 18:48:54.852201  1399 net.cpp:434] conv5_4 <- conv5_4/out
I0315 18:48:54.852205  1399 net.cpp:434] conv5_4 <- conv5_4/input
I0315 18:48:54.852210  1399 net.cpp:408] conv5_4 -> conv5_4
I0315 18:48:54.852228  1399 net.cpp:150] Setting up conv5_4
I0315 18:48:54.852232  1399 net.cpp:157] Top shape: 1 384 27 45 (466560)
I0315 18:48:54.852236  1399 net.cpp:165] Memory required for data: 2111961688
I0315 18:48:54.852237  1399 layer_factory.hpp:77] Creating layer downsample
I0315 18:48:54.852246  1399 net.cpp:100] Creating Layer downsample
I0315 18:48:54.852249  1399 net.cpp:434] downsample <- conv3_4_conv3_4_0_split_5
I0315 18:48:54.852253  1399 net.cpp:408] downsample -> downsample
I0315 18:48:54.852284  1399 net.cpp:150] Setting up downsample
I0315 18:48:54.852289  1399 net.cpp:157] Top shape: 1 128 54 90 (622080)
I0315 18:48:54.852291  1399 net.cpp:165] Memory required for data: 2114450008
I0315 18:48:54.852294  1399 layer_factory.hpp:77] Creating layer upsample
I0315 18:48:54.852300  1399 net.cpp:100] Creating Layer upsample
I0315 18:48:54.852303  1399 net.cpp:434] upsample <- conv5_4
I0315 18:48:54.852308  1399 net.cpp:408] upsample -> upsample
I0315 18:48:54.852596  1399 net.cpp:150] Setting up upsample
I0315 18:48:54.852601  1399 net.cpp:157] Top shape: 1 384 54 90 (1866240)
I0315 18:48:54.852602  1399 net.cpp:165] Memory required for data: 2121914968
I0315 18:48:54.852607  1399 layer_factory.hpp:77] Creating layer concat
I0315 18:48:54.852612  1399 net.cpp:100] Creating Layer concat
I0315 18:48:54.852614  1399 net.cpp:434] concat <- downsample
I0315 18:48:54.852617  1399 net.cpp:434] concat <- conv4_4_conv4_4_0_split_5
I0315 18:48:54.852622  1399 net.cpp:434] concat <- upsample
I0315 18:48:54.852625  1399 net.cpp:408] concat -> concat
I0315 18:48:54.852643  1399 net.cpp:150] Setting up concat
I0315 18:48:54.852648  1399 net.cpp:157] Top shape: 1 768 54 90 (3732480)
I0315 18:48:54.852649  1399 net.cpp:165] Memory required for data: 2136844888
I0315 18:48:54.852653  1399 layer_factory.hpp:77] Creating layer concat_concat_0_split
I0315 18:48:54.852658  1399 net.cpp:100] Creating Layer concat_concat_0_split
I0315 18:48:54.852660  1399 net.cpp:434] concat_concat_0_split <- concat
I0315 18:48:54.852663  1399 net.cpp:408] concat_concat_0_split -> concat_concat_0_split_0
I0315 18:48:54.852669  1399 net.cpp:408] concat_concat_0_split -> concat_concat_0_split_1
I0315 18:48:54.852694  1399 net.cpp:150] Setting up concat_concat_0_split
I0315 18:48:54.852699  1399 net.cpp:157] Top shape: 1 768 54 90 (3732480)
I0315 18:48:54.852702  1399 net.cpp:157] Top shape: 1 768 54 90 (3732480)
I0315 18:48:54.852705  1399 net.cpp:165] Memory required for data: 2166704728
I0315 18:48:54.852707  1399 layer_factory.hpp:77] Creating layer convf_rpn
I0315 18:48:54.852715  1399 net.cpp:100] Creating Layer convf_rpn
I0315 18:48:54.852717  1399 net.cpp:434] convf_rpn <- concat_concat_0_split_0
I0315 18:48:54.852721  1399 net.cpp:408] convf_rpn -> convf_rpn
I0315 18:48:54.853972  1399 net.cpp:150] Setting up convf_rpn
I0315 18:48:54.853982  1399 net.cpp:157] Top shape: 1 128 54 90 (622080)
I0315 18:48:54.853984  1399 net.cpp:165] Memory required for data: 2169193048
I0315 18:48:54.853989  1399 layer_factory.hpp:77] Creating layer reluf_rpn
I0315 18:48:54.853996  1399 net.cpp:100] Creating Layer reluf_rpn
I0315 18:48:54.853998  1399 net.cpp:434] reluf_rpn <- convf_rpn
I0315 18:48:54.854002  1399 net.cpp:395] reluf_rpn -> convf_rpn (in-place)
I0315 18:48:54.854249  1399 net.cpp:150] Setting up reluf_rpn
I0315 18:48:54.854257  1399 net.cpp:157] Top shape: 1 128 54 90 (622080)
I0315 18:48:54.854260  1399 net.cpp:165] Memory required for data: 2171681368
I0315 18:48:54.854264  1399 layer_factory.hpp:77] Creating layer convf_rpn_reluf_rpn_0_split
I0315 18:48:54.854269  1399 net.cpp:100] Creating Layer convf_rpn_reluf_rpn_0_split
I0315 18:48:54.854271  1399 net.cpp:434] convf_rpn_reluf_rpn_0_split <- convf_rpn
I0315 18:48:54.854276  1399 net.cpp:408] convf_rpn_reluf_rpn_0_split -> convf_rpn_reluf_rpn_0_split_0
I0315 18:48:54.854281  1399 net.cpp:408] convf_rpn_reluf_rpn_0_split -> convf_rpn_reluf_rpn_0_split_1
I0315 18:48:54.854315  1399 net.cpp:150] Setting up convf_rpn_reluf_rpn_0_split
I0315 18:48:54.854321  1399 net.cpp:157] Top shape: 1 128 54 90 (622080)
I0315 18:48:54.854323  1399 net.cpp:157] Top shape: 1 128 54 90 (622080)
I0315 18:48:54.854326  1399 net.cpp:165] Memory required for data: 2176658008
I0315 18:48:54.854328  1399 layer_factory.hpp:77] Creating layer convf_2
I0315 18:48:54.854336  1399 net.cpp:100] Creating Layer convf_2
I0315 18:48:54.854342  1399 net.cpp:434] convf_2 <- concat_concat_0_split_1
I0315 18:48:54.854347  1399 net.cpp:408] convf_2 -> convf_2
I0315 18:48:54.856570  1399 net.cpp:150] Setting up convf_2
I0315 18:48:54.856580  1399 net.cpp:157] Top shape: 1 384 54 90 (1866240)
I0315 18:48:54.856582  1399 net.cpp:165] Memory required for data: 2184122968
I0315 18:48:54.856638  1399 layer_factory.hpp:77] Creating layer reluf_2
I0315 18:48:54.856644  1399 net.cpp:100] Creating Layer reluf_2
I0315 18:48:54.856647  1399 net.cpp:434] reluf_2 <- convf_2
I0315 18:48:54.856652  1399 net.cpp:395] reluf_2 -> convf_2 (in-place)
I0315 18:48:54.856900  1399 net.cpp:150] Setting up reluf_2
I0315 18:48:54.856925  1399 net.cpp:157] Top shape: 1 384 54 90 (1866240)
I0315 18:48:54.856930  1399 net.cpp:165] Memory required for data: 2191587928
I0315 18:48:54.856932  1399 layer_factory.hpp:77] Creating layer concat_convf
I0315 18:48:54.856937  1399 net.cpp:100] Creating Layer concat_convf
I0315 18:48:54.856940  1399 net.cpp:434] concat_convf <- convf_rpn_reluf_rpn_0_split_0
I0315 18:48:54.856945  1399 net.cpp:434] concat_convf <- convf_2
I0315 18:48:54.856959  1399 net.cpp:408] concat_convf -> convf
I0315 18:48:54.856993  1399 net.cpp:150] Setting up concat_convf
I0315 18:48:54.856998  1399 net.cpp:157] Top shape: 1 512 54 90 (2488320)
I0315 18:48:54.857000  1399 net.cpp:165] Memory required for data: 2201541208
I0315 18:48:54.857003  1399 layer_factory.hpp:77] Creating layer convf_concat_convf_0_split
I0315 18:48:54.857008  1399 net.cpp:100] Creating Layer convf_concat_convf_0_split
I0315 18:48:54.857010  1399 net.cpp:434] convf_concat_convf_0_split <- convf
I0315 18:48:54.857014  1399 net.cpp:408] convf_concat_convf_0_split -> convf_concat_convf_0_split_0
I0315 18:48:54.857019  1399 net.cpp:408] convf_concat_convf_0_split -> convf_concat_convf_0_split_1
I0315 18:48:54.857050  1399 net.cpp:150] Setting up convf_concat_convf_0_split
I0315 18:48:54.857054  1399 net.cpp:157] Top shape: 1 512 54 90 (2488320)
I0315 18:48:54.857058  1399 net.cpp:157] Top shape: 1 512 54 90 (2488320)
I0315 18:48:54.857059  1399 net.cpp:165] Memory required for data: 2221447768
I0315 18:48:54.857062  1399 layer_factory.hpp:77] Creating layer rpn_conv1
I0315 18:48:54.857070  1399 net.cpp:100] Creating Layer rpn_conv1
I0315 18:48:54.857074  1399 net.cpp:434] rpn_conv1 <- convf_rpn_reluf_rpn_0_split_1
I0315 18:48:54.857079  1399 net.cpp:408] rpn_conv1 -> rpn_conv1
I0315 18:48:54.861518  1399 net.cpp:150] Setting up rpn_conv1
I0315 18:48:54.861528  1399 net.cpp:157] Top shape: 1 384 54 90 (1866240)
I0315 18:48:54.861531  1399 net.cpp:165] Memory required for data: 2228912728
I0315 18:48:54.861536  1399 layer_factory.hpp:77] Creating layer rpn_relu1
I0315 18:48:54.861541  1399 net.cpp:100] Creating Layer rpn_relu1
I0315 18:48:54.861544  1399 net.cpp:434] rpn_relu1 <- rpn_conv1
I0315 18:48:54.861549  1399 net.cpp:395] rpn_relu1 -> rpn_conv1 (in-place)
I0315 18:48:54.861701  1399 net.cpp:150] Setting up rpn_relu1
I0315 18:48:54.861708  1399 net.cpp:157] Top shape: 1 384 54 90 (1866240)
I0315 18:48:54.861711  1399 net.cpp:165] Memory required for data: 2236377688
I0315 18:48:54.861713  1399 layer_factory.hpp:77] Creating layer rpn_conv1_rpn_relu1_0_split
I0315 18:48:54.861718  1399 net.cpp:100] Creating Layer rpn_conv1_rpn_relu1_0_split
I0315 18:48:54.861722  1399 net.cpp:434] rpn_conv1_rpn_relu1_0_split <- rpn_conv1
I0315 18:48:54.861726  1399 net.cpp:408] rpn_conv1_rpn_relu1_0_split -> rpn_conv1_rpn_relu1_0_split_0
I0315 18:48:54.861732  1399 net.cpp:408] rpn_conv1_rpn_relu1_0_split -> rpn_conv1_rpn_relu1_0_split_1
I0315 18:48:54.861766  1399 net.cpp:150] Setting up rpn_conv1_rpn_relu1_0_split
I0315 18:48:54.861771  1399 net.cpp:157] Top shape: 1 384 54 90 (1866240)
I0315 18:48:54.861774  1399 net.cpp:157] Top shape: 1 384 54 90 (1866240)
I0315 18:48:54.861778  1399 net.cpp:165] Memory required for data: 2251307608
I0315 18:48:54.861779  1399 layer_factory.hpp:77] Creating layer rpn_cls_score
I0315 18:48:54.861788  1399 net.cpp:100] Creating Layer rpn_cls_score
I0315 18:48:54.861794  1399 net.cpp:434] rpn_cls_score <- rpn_conv1_rpn_relu1_0_split_0
I0315 18:48:54.861799  1399 net.cpp:408] rpn_cls_score -> rpn_cls_score
I0315 18:48:54.862792  1399 net.cpp:150] Setting up rpn_cls_score
I0315 18:48:54.862800  1399 net.cpp:157] Top shape: 1 50 54 90 (243000)
I0315 18:48:54.862802  1399 net.cpp:165] Memory required for data: 2252279608
I0315 18:48:54.862807  1399 layer_factory.hpp:77] Creating layer rpn_cls_score_rpn_cls_score_0_split
I0315 18:48:54.862813  1399 net.cpp:100] Creating Layer rpn_cls_score_rpn_cls_score_0_split
I0315 18:48:54.862817  1399 net.cpp:434] rpn_cls_score_rpn_cls_score_0_split <- rpn_cls_score
I0315 18:48:54.862820  1399 net.cpp:408] rpn_cls_score_rpn_cls_score_0_split -> rpn_cls_score_rpn_cls_score_0_split_0
I0315 18:48:54.862828  1399 net.cpp:408] rpn_cls_score_rpn_cls_score_0_split -> rpn_cls_score_rpn_cls_score_0_split_1
I0315 18:48:54.862859  1399 net.cpp:150] Setting up rpn_cls_score_rpn_cls_score_0_split
I0315 18:48:54.862864  1399 net.cpp:157] Top shape: 1 50 54 90 (243000)
I0315 18:48:54.862867  1399 net.cpp:157] Top shape: 1 50 54 90 (243000)
I0315 18:48:54.862869  1399 net.cpp:165] Memory required for data: 2254223608
I0315 18:48:54.862872  1399 layer_factory.hpp:77] Creating layer rpn_bbox_pred
I0315 18:48:54.862880  1399 net.cpp:100] Creating Layer rpn_bbox_pred
I0315 18:48:54.862884  1399 net.cpp:434] rpn_bbox_pred <- rpn_conv1_rpn_relu1_0_split_1
I0315 18:48:54.862887  1399 net.cpp:408] rpn_bbox_pred -> rpn_bbox_pred
I0315 18:48:54.864023  1399 net.cpp:150] Setting up rpn_bbox_pred
I0315 18:48:54.864032  1399 net.cpp:157] Top shape: 1 100 54 90 (486000)
I0315 18:48:54.864034  1399 net.cpp:165] Memory required for data: 2256167608
I0315 18:48:54.864039  1399 layer_factory.hpp:77] Creating layer rpn_bbox_pred_rpn_bbox_pred_0_split
I0315 18:48:54.864043  1399 net.cpp:100] Creating Layer rpn_bbox_pred_rpn_bbox_pred_0_split
I0315 18:48:54.864048  1399 net.cpp:434] rpn_bbox_pred_rpn_bbox_pred_0_split <- rpn_bbox_pred
I0315 18:48:54.864053  1399 net.cpp:408] rpn_bbox_pred_rpn_bbox_pred_0_split -> rpn_bbox_pred_rpn_bbox_pred_0_split_0
I0315 18:48:54.864058  1399 net.cpp:408] rpn_bbox_pred_rpn_bbox_pred_0_split -> rpn_bbox_pred_rpn_bbox_pred_0_split_1
I0315 18:48:54.864090  1399 net.cpp:150] Setting up rpn_bbox_pred_rpn_bbox_pred_0_split
I0315 18:48:54.864094  1399 net.cpp:157] Top shape: 1 100 54 90 (486000)
I0315 18:48:54.864097  1399 net.cpp:157] Top shape: 1 100 54 90 (486000)
I0315 18:48:54.864100  1399 net.cpp:165] Memory required for data: 2260055608
I0315 18:48:54.864102  1399 layer_factory.hpp:77] Creating layer rpn_cls_score_reshape
I0315 18:48:54.864109  1399 net.cpp:100] Creating Layer rpn_cls_score_reshape
I0315 18:48:54.864112  1399 net.cpp:434] rpn_cls_score_reshape <- rpn_cls_score_rpn_cls_score_0_split_0
I0315 18:48:54.864116  1399 net.cpp:408] rpn_cls_score_reshape -> rpn_cls_score_reshape
I0315 18:48:54.864137  1399 net.cpp:150] Setting up rpn_cls_score_reshape
I0315 18:48:54.864141  1399 net.cpp:157] Top shape: 1 2 1350 90 (243000)
I0315 18:48:54.864145  1399 net.cpp:165] Memory required for data: 2261027608
I0315 18:48:54.864146  1399 layer_factory.hpp:77] Creating layer rpn_cls_score_reshape_rpn_cls_score_reshape_0_split
I0315 18:48:54.864151  1399 net.cpp:100] Creating Layer rpn_cls_score_reshape_rpn_cls_score_reshape_0_split
I0315 18:48:54.864153  1399 net.cpp:434] rpn_cls_score_reshape_rpn_cls_score_reshape_0_split <- rpn_cls_score_reshape
I0315 18:48:54.864158  1399 net.cpp:408] rpn_cls_score_reshape_rpn_cls_score_reshape_0_split -> rpn_cls_score_reshape_rpn_cls_score_reshape_0_split_0
I0315 18:48:54.864163  1399 net.cpp:408] rpn_cls_score_reshape_rpn_cls_score_reshape_0_split -> rpn_cls_score_reshape_rpn_cls_score_reshape_0_split_1
I0315 18:48:54.864192  1399 net.cpp:150] Setting up rpn_cls_score_reshape_rpn_cls_score_reshape_0_split
I0315 18:48:54.864195  1399 net.cpp:157] Top shape: 1 2 1350 90 (243000)
I0315 18:48:54.864198  1399 net.cpp:157] Top shape: 1 2 1350 90 (243000)
I0315 18:48:54.864202  1399 net.cpp:165] Memory required for data: 2262971608
I0315 18:48:54.864207  1399 layer_factory.hpp:77] Creating layer rpn-data
I0315 18:48:54.864552  1399 net.cpp:100] Creating Layer rpn-data
I0315 18:48:54.864559  1399 net.cpp:434] rpn-data <- rpn_cls_score_rpn_cls_score_0_split_1
I0315 18:48:54.864563  1399 net.cpp:434] rpn-data <- gt_boxes_input-data_2_split_0
I0315 18:48:54.864567  1399 net.cpp:434] rpn-data <- im_info_input-data_1_split_0
I0315 18:48:54.864572  1399 net.cpp:434] rpn-data <- data_input-data_0_split_1
I0315 18:48:54.864575  1399 net.cpp:408] rpn-data -> rpn_labels
I0315 18:48:54.864581  1399 net.cpp:408] rpn-data -> rpn_bbox_targets
I0315 18:48:54.864588  1399 net.cpp:408] rpn-data -> rpn_bbox_inside_weights
I0315 18:48:54.864593  1399 net.cpp:408] rpn-data -> rpn_bbox_outside_weights
I0315 18:48:54.866050  1399 net.cpp:150] Setting up rpn-data
I0315 18:48:54.866060  1399 net.cpp:157] Top shape: 1 1 1350 90 (121500)
I0315 18:48:54.866065  1399 net.cpp:157] Top shape: 1 100 54 90 (486000)
I0315 18:48:54.866067  1399 net.cpp:157] Top shape: 1 100 54 90 (486000)
I0315 18:48:54.866070  1399 net.cpp:157] Top shape: 1 100 54 90 (486000)
I0315 18:48:54.866072  1399 net.cpp:165] Memory required for data: 2269289608
I0315 18:48:54.866075  1399 layer_factory.hpp:77] Creating layer rpn_loss_cls
I0315 18:48:54.866081  1399 net.cpp:100] Creating Layer rpn_loss_cls
I0315 18:48:54.866086  1399 net.cpp:434] rpn_loss_cls <- rpn_cls_score_reshape_rpn_cls_score_reshape_0_split_0
I0315 18:48:54.866089  1399 net.cpp:434] rpn_loss_cls <- rpn_labels
…
I0315 18:48:54.869362  1399 net.cpp:157] Top shape: (1)
I0315 18:48:54.869364  1399 net.cpp:160]     with loss weight 1
I0315 18:48:54.869369  1399 net.cpp:165] Memory required for data: 2269289616
I0315 18:48:54.869372  1399 layer_factory.hpp:77] Creating layer rpn_cls_prob
I0315 18:48:54.869379  1399 net.cpp:100] Creating Layer rpn_cls_prob
I0315 18:48:54.869381  1399 net.cpp:434] rpn_cls_prob <- rpn_cls_score_reshape_rpn_cls_score_reshape_0_split_1
I0315 18:48:54.869386  1399 net.cpp:408] rpn_cls_prob -> rpn_cls_prob
I0315 18:48:54.869725  1399 net.cpp:150] Setting up rpn_cls_prob
I0315 18:48:54.869735  1399 net.cpp:157] Top shape: 1 2 1350 90 (243000)
I0315 18:48:54.869736  1399 net.cpp:165] Memory required for data: 2270261616
I0315 18:48:54.869740  1399 layer_factory.hpp:77] Creating layer rpn_cls_prob_reshape
I0315 18:48:54.869745  1399 net.cpp:100] Creating Layer rpn_cls_prob_reshape
I0315 18:48:54.869748  1399 net.cpp:434] rpn_cls_prob_reshape <- rpn_cls_prob
I0315 18:48:54.869755  1399 net.cpp:408] rpn_cls_prob_reshape -> rpn_cls_prob_reshape
I0315 18:48:54.869777  1399 net.cpp:150] Setting up rpn_cls_prob_reshape
I0315 18:48:54.869782  1399 net.cpp:157] Top shape: 1 50 54 90 (243000)
I0315 18:48:54.869786  1399 net.cpp:165] Memory required for data: 2271233616
I0315 18:48:54.869788  1399 layer_factory.hpp:77] Creating layer proposal
I0315 18:48:54.869793  1399 net.cpp:100] Creating Layer proposal
I0315 18:48:54.869796  1399 net.cpp:434] proposal <- rpn_cls_prob_reshape
I0315 18:48:54.869804  1399 net.cpp:434] proposal <- rpn_bbox_pred_rpn_bbox_pred_0_split_1
I0315 18:48:54.869808  1399 net.cpp:434] proposal <- im_info_input-data_1_split_1
I0315 18:48:54.869813  1399 net.cpp:408] proposal -> rpn_rois
I0315 18:48:54.869819  1399 net.cpp:408] proposal -> rpn_scores
I0315 18:48:54.869887  1399 net.cpp:150] Setting up proposal
I0315 18:48:54.869892  1399 net.cpp:157] Top shape: 2000 5 (10000)
I0315 18:48:54.869895  1399 net.cpp:157] Top shape: 2000 (2000)
I0315 18:48:54.869899  1399 net.cpp:165] Memory required for data: 2271281616
I0315 18:48:54.869900  1399 layer_factory.hpp:77] Creating layer mute_rpn_scores
I0315 18:48:54.869905  1399 net.cpp:100] Creating Layer mute_rpn_scores
I0315 18:48:54.869907  1399 net.cpp:434] mute_rpn_scores <- rpn_scores
I0315 18:48:54.869911  1399 net.cpp:150] Setting up mute_rpn_scores
I0315 18:48:54.869915  1399 net.cpp:165] Memory required for data: 2271281616
I0315 18:48:54.869916  1399 layer_factory.hpp:77] Creating layer roi-data
I0315 18:48:54.870050  1399 net.cpp:100] Creating Layer roi-data
I0315 18:48:54.870057  1399 net.cpp:434] roi-data <- rpn_rois
I0315 18:48:54.870062  1399 net.cpp:434] roi-data <- gt_boxes_input-data_2_split_1
I0315 18:48:54.870066  1399 net.cpp:408] roi-data -> rois
I0315 18:48:54.870072  1399 net.cpp:408] roi-data -> labels
I0315 18:48:54.870079  1399 net.cpp:408] roi-data -> bbox_targets
I0315 18:48:54.870082  1399 net.cpp:408] roi-data -> bbox_inside_weights
I0315 18:48:54.870087  1399 net.cpp:408] roi-data -> bbox_outside_weights
I0315 18:48:54.870401  1399 net.cpp:150] Setting up roi-data
I0315 18:48:54.870409  1399 net.cpp:157] Top shape: 100 5 (500)
I0315 18:48:54.870412  1399 net.cpp:157] Top shape: 100 1 (100)
I0315 18:48:54.870415  1399 net.cpp:157] Top shape: 100 32 (3200)
I0315 18:48:54.870419  1399 net.cpp:157] Top shape: 100 32 (3200)
I0315 18:48:54.870421  1399 net.cpp:157] Top shape: 100 32 (3200)
I0315 18:48:54.870424  1399 net.cpp:165] Memory required for data: 2271322416
I0315 18:48:54.870426  1399 layer_factory.hpp:77] Creating layer rois_roi-data_0_split
I0315 18:48:54.870431  1399 net.cpp:100] Creating Layer rois_roi-data_0_split
I0315 18:48:54.870434  1399 net.cpp:434] rois_roi-data_0_split <- rois
I0315 18:48:54.870438  1399 net.cpp:408] rois_roi-data_0_split -> rois_roi-data_0_split_0
I0315 18:48:54.870443  1399 net.cpp:408] rois_roi-data_0_split -> rois_roi-data_0_split_1
I0315 18:48:54.870471  1399 net.cpp:150] Setting up rois_roi-data_0_split
I0315 18:48:54.870476  1399 net.cpp:157] Top shape: 100 5 (500)
I0315 18:48:54.870478  1399 net.cpp:157] Top shape: 100 5 (500)
I0315 18:48:54.870481  1399 net.cpp:165] Memory required for data: 2271326416
I0315 18:48:54.870483  1399 layer_factory.hpp:77] Creating layer roi_pool5_readonly
I0315 18:48:54.870488  1399 net.cpp:100] Creating Layer roi_pool5_readonly
I0315 18:48:54.870491  1399 net.cpp:434] roi_pool5_readonly <- convf_concat_convf_0_split_0
I0315 18:48:54.870496  1399 net.cpp:434] roi_pool5_readonly <- rois_roi-data_0_split_0
I0315 18:48:54.870499  1399 net.cpp:408] roi_pool5_readonly -> pool5_readonly
I0315 18:48:54.870504  1399 roi_pooling_layer.cpp:34] Spatial scale: 0.0625
I0315 18:48:54.870535  1399 net.cpp:150] Setting up roi_pool5_readonly
I0315 18:48:54.870540  1399 net.cpp:157] Top shape: 100 512 6 6 (1843200)
I0315 18:48:54.870543  1399 net.cpp:165] Memory required for data: 2278699216
I0315 18:48:54.870545  1399 layer_factory.hpp:77] Creating layer fc6_readonly
I0315 18:48:54.870553  1399 net.cpp:100] Creating Layer fc6_readonly
I0315 18:48:54.870555  1399 net.cpp:434] fc6_readonly <- pool5_readonly
I0315 18:48:54.870560  1399 net.cpp:408] fc6_readonly -> fc6_readonly
I0315 18:48:54.959926  1399 net.cpp:150] Setting up fc6_readonly
I0315 18:48:54.959959  1399 net.cpp:157] Top shape: 100 4096 (409600)
I0315 18:48:54.959962  1399 net.cpp:165] Memory required for data: 2280337616
I0315 18:48:54.959970  1399 layer_factory.hpp:77] Creating layer relu6_readonly
I0315 18:48:54.959978  1399 net.cpp:100] Creating Layer relu6_readonly
I0315 18:48:54.959990  1399 net.cpp:434] relu6_readonly <- fc6_readonly
I0315 18:48:54.959995  1399 net.cpp:395] relu6_readonly -> fc6_readonly (in-place)
I0315 18:48:54.960212  1399 net.cpp:150] Setting up relu6_readonly
I0315 18:48:54.960219  1399 net.cpp:157] Top shape: 100 4096 (409600)
I0315 18:48:54.960222  1399 net.cpp:165] Memory required for data: 2281976016
I0315 18:48:54.960224  1399 layer_factory.hpp:77] Creating layer drop6_readonly
I0315 18:48:54.960232  1399 net.cpp:100] Creating Layer drop6_readonly
I0315 18:48:54.960234  1399 net.cpp:434] drop6_readonly <- fc6_readonly
I0315 18:48:54.960238  1399 net.cpp:395] drop6_readonly -> fc6_readonly (in-place)
I0315 18:48:54.960265  1399 net.cpp:150] Setting up drop6_readonly
I0315 18:48:54.960270  1399 net.cpp:157] Top shape: 100 4096 (409600)
I0315 18:48:54.960273  1399 net.cpp:165] Memory required for data: 2283614416
I0315 18:48:54.960274  1399 layer_factory.hpp:77] Creating layer fc7_readonly
I0315 18:48:54.960280  1399 net.cpp:100] Creating Layer fc7_readonly
I0315 18:48:54.960283  1399 net.cpp:434] fc7_readonly <- fc6_readonly
I0315 18:48:54.960289  1399 net.cpp:408] fc7_readonly -> fc7_readonly
I0315 18:48:54.980065  1399 net.cpp:150] Setting up fc7_readonly
I0315 18:48:54.980098  1399 net.cpp:157] Top shape: 100 4096 (409600)
I0315 18:48:54.980101  1399 net.cpp:165] Memory required for data: 2285252816
I0315 18:48:54.980109  1399 layer_factory.hpp:77] Creating layer relu7_readonly
I0315 18:48:54.980118  1399 net.cpp:100] Creating Layer relu7_readonly
I0315 18:48:54.980121  1399 net.cpp:434] relu7_readonly <- fc7_readonly
I0315 18:48:54.980128  1399 net.cpp:395] relu7_readonly -> fc7_readonly (in-place)
I0315 18:48:54.980551  1399 net.cpp:150] Setting up relu7_readonly
I0315 18:48:54.980558  1399 net.cpp:157] Top shape: 100 4096 (409600)
I0315 18:48:54.980561  1399 net.cpp:165] Memory required for data: 2286891216
I0315 18:48:54.980564  1399 layer_factory.hpp:77] Creating layer drop7_readonly
I0315 18:48:54.980571  1399 net.cpp:100] Creating Layer drop7_readonly
I0315 18:48:54.980573  1399 net.cpp:434] drop7_readonly <- fc7_readonly
I0315 18:48:54.980578  1399 net.cpp:395] drop7_readonly -> fc7_readonly (in-place)
I0315 18:48:54.980604  1399 net.cpp:150] Setting up drop7_readonly
I0315 18:48:54.980609  1399 net.cpp:157] Top shape: 100 4096 (409600)
I0315 18:48:54.980612  1399 net.cpp:165] Memory required for data: 2288529616
I0315 18:48:54.980614  1399 layer_factory.hpp:77] Creating layer fc7_readonly_drop7_readonly_0_split
I0315 18:48:54.980620  1399 net.cpp:100] Creating Layer fc7_readonly_drop7_readonly_0_split
I0315 18:48:54.980623  1399 net.cpp:434] fc7_readonly_drop7_readonly_0_split <- fc7_readonly
I0315 18:48:54.980628  1399 net.cpp:408] fc7_readonly_drop7_readonly_0_split -> fc7_readonly_drop7_readonly_0_split_0
I0315 18:48:54.980633  1399 net.cpp:408] fc7_readonly_drop7_readonly_0_split -> fc7_readonly_drop7_readonly_0_split_1
I0315 18:48:54.980664  1399 net.cpp:150] Setting up fc7_readonly_drop7_readonly_0_split
I0315 18:48:54.980667  1399 net.cpp:157] Top shape: 100 4096 (409600)
I0315 18:48:54.980670  1399 net.cpp:157] Top shape: 100 4096 (409600)
I0315 18:48:54.980672  1399 net.cpp:165] Memory required for data: 2291806416
I0315 18:48:54.980675  1399 layer_factory.hpp:77] Creating layer cls_score_readonly
I0315 18:48:54.980682  1399 net.cpp:100] Creating Layer cls_score_readonly
I0315 18:48:54.980685  1399 net.cpp:434] cls_score_readonly <- fc7_readonly_drop7_readonly_0_split_0
I0315 18:48:54.980691  1399 net.cpp:408] cls_score_readonly -> cls_score_readonly
I0315 18:48:54.981307  1399 net.cpp:150] Setting up cls_score_readonly
I0315 18:48:54.981317  1399 net.cpp:157] Top shape: 100 8 (800)
I0315 18:48:54.981318  1399 net.cpp:165] Memory required for data: 2291809616
I0315 18:48:54.981323  1399 layer_factory.hpp:77] Creating layer bbox_pred_readonly
I0315 18:48:54.981329  1399 net.cpp:100] Creating Layer bbox_pred_readonly
I0315 18:48:54.981333  1399 net.cpp:434] bbox_pred_readonly <- fc7_readonly_drop7_readonly_0_split_1
I0315 18:48:54.981338  1399 net.cpp:408] bbox_pred_readonly -> bbox_pred_readonly
I0315 18:48:54.982594  1399 net.cpp:150] Setting up bbox_pred_readonly
I0315 18:48:54.982602  1399 net.cpp:157] Top shape: 100 32 (3200)
I0315 18:48:54.982604  1399 net.cpp:165] Memory required for data: 2291822416
I0315 18:48:54.982609  1399 layer_factory.hpp:77] Creating layer cls_prob_readonly
I0315 18:48:54.982614  1399 net.cpp:100] Creating Layer cls_prob_readonly
I0315 18:48:54.982617  1399 net.cpp:434] cls_prob_readonly <- cls_score_readonly
I0315 18:48:54.982621  1399 net.cpp:408] cls_prob_readonly -> cls_prob_readonly
I0315 18:48:54.982925  1399 net.cpp:150] Setting up cls_prob_readonly
I0315 18:48:54.982933  1399 net.cpp:157] Top shape: 100 8 (800)
I0315 18:48:54.982936  1399 net.cpp:165] Memory required for data: 2291825616
I0315 18:48:54.982939  1399 layer_factory.hpp:77] Creating layer hard_roi_mining
I0315 18:48:54.982981  1399 net.cpp:100] Creating Layer hard_roi_mining
I0315 18:48:54.982986  1399 net.cpp:434] hard_roi_mining <- cls_prob_readonly
I0315 18:48:54.982990  1399 net.cpp:434] hard_roi_mining <- bbox_pred_readonly
I0315 18:48:54.982995  1399 net.cpp:434] hard_roi_mining <- rois_roi-data_0_split_1
I0315 18:48:54.983000  1399 net.cpp:434] hard_roi_mining <- labels
I0315 18:48:54.983002  1399 net.cpp:434] hard_roi_mining <- bbox_targets
I0315 18:48:54.983006  1399 net.cpp:434] hard_roi_mining <- bbox_inside_weights
I0315 18:48:54.983008  1399 net.cpp:434] hard_roi_mining <- bbox_outside_weights
I0315 18:48:54.983013  1399 net.cpp:408] hard_roi_mining -> rois_hard
I0315 18:48:54.983019  1399 net.cpp:408] hard_roi_mining -> labels_hard
I0315 18:48:54.983026  1399 net.cpp:408] hard_roi_mining -> bbox_targets_hard
I0315 18:48:54.983031  1399 net.cpp:408] hard_roi_mining -> bbox_inside_weights_hard
I0315 18:48:54.983036  1399 net.cpp:408] hard_roi_mining -> bbox_outside_weights_hard
I0315 18:48:54.983438  1399 net.cpp:150] Setting up hard_roi_mining
I0315 18:48:54.983445  1399 net.cpp:157] Top shape: 100 5 (500)
I0315 18:48:54.983448  1399 net.cpp:157] Top shape: 100 (100)
I0315 18:48:54.983451  1399 net.cpp:157] Top shape: 100 32 (3200)
I0315 18:48:54.983454  1399 net.cpp:157] Top shape: 100 32 (3200)
I0315 18:48:54.983458  1399 net.cpp:157] Top shape: 100 32 (3200)
I0315 18:48:54.983459  1399 net.cpp:165] Memory required for data: 2291866416
I0315 18:48:54.983463  1399 layer_factory.hpp:77] Creating layer roi_pool5
I0315 18:48:54.983469  1399 net.cpp:100] Creating Layer roi_pool5
I0315 18:48:54.983471  1399 net.cpp:434] roi_pool5 <- convf_concat_convf_0_split_1
I0315 18:48:54.983475  1399 net.cpp:434] roi_pool5 <- rois_hard
I0315 18:48:54.983479  1399 net.cpp:408] roi_pool5 -> pool5
I0315 18:48:54.983485  1399 roi_pooling_layer.cpp:34] Spatial scale: 0.0625
I0315 18:48:54.983532  1399 net.cpp:150] Setting up roi_pool5
I0315 18:48:54.983538  1399 net.cpp:157] Top shape: 100 512 6 6 (1843200)
I0315 18:48:54.983541  1399 net.cpp:165] Memory required for data: 2299239216
I0315 18:48:54.983543  1399 layer_factory.hpp:77] Creating layer fc6
I0315 18:48:54.983548  1399 net.cpp:100] Creating Layer fc6
I0315 18:48:54.983551  1399 net.cpp:434] fc6 <- pool5
I0315 18:48:54.983556  1399 net.cpp:408] fc6 -> fc6
I0315 18:48:55.072715  1399 net.cpp:150] Setting up fc6
I0315 18:48:55.072749  1399 net.cpp:157] Top shape: 100 4096 (409600)
I0315 18:48:55.072752  1399 net.cpp:165] Memory required for data: 2300877616
I0315 18:48:55.072759  1399 net.cpp:493] Sharing parameters 'fc6_w' owned by layer 'fc6_readonly', param index 0
I0315 18:48:55.072763  1399 net.cpp:493] Sharing parameters 'fc6_b' owned by layer 'fc6_readonly', param index 1
I0315 18:48:55.072767  1399 layer_factory.hpp:77] Creating layer relu6
I0315 18:48:55.072774  1399 net.cpp:100] Creating Layer relu6
I0315 18:48:55.072779  1399 net.cpp:434] relu6 <- fc6
I0315 18:48:55.072784  1399 net.cpp:395] relu6 -> fc6 (in-place)
I0315 18:48:55.073005  1399 net.cpp:150] Setting up relu6
I0315 18:48:55.073014  1399 net.cpp:157] Top shape: 100 4096 (409600)
I0315 18:48:55.073015  1399 net.cpp:165] Memory required for data: 2302516016
I0315 18:48:55.073025  1399 layer_factory.hpp:77] Creating layer drop6
I0315 18:48:55.073034  1399 net.cpp:100] Creating Layer drop6
I0315 18:48:55.073036  1399 net.cpp:434] drop6 <- fc6
I0315 18:48:55.073040  1399 net.cpp:395] drop6 -> fc6 (in-place)
I0315 18:48:55.073067  1399 net.cpp:150] Setting up drop6
I0315 18:48:55.073071  1399 net.cpp:157] Top shape: 100 4096 (409600)
I0315 18:48:55.073074  1399 net.cpp:165] Memory required for data: 2304154416
I0315 18:48:55.073076  1399 layer_factory.hpp:77] Creating layer fc7
I0315 18:48:55.073082  1399 net.cpp:100] Creating Layer fc7
I0315 18:48:55.073086  1399 net.cpp:434] fc7 <- fc6
I0315 18:48:55.073089  1399 net.cpp:408] fc7 -> fc7
I0315 18:48:55.093019  1399 net.cpp:150] Setting up fc7
I0315 18:48:55.093051  1399 net.cpp:157] Top shape: 100 4096 (409600)
I0315 18:48:55.093055  1399 net.cpp:165] Memory required for data: 2305792816
I0315 18:48:55.093060  1399 net.cpp:493] Sharing parameters 'fc7_w' owned by layer 'fc7_readonly', param index 0
I0315 18:48:55.093065  1399 net.cpp:493] Sharing parameters 'fc7_b' owned by layer 'fc7_readonly', param index 1
I0315 18:48:55.093067  1399 layer_factory.hpp:77] Creating layer relu7
I0315 18:48:55.093075  1399 net.cpp:100] Creating Layer relu7
I0315 18:48:55.093080  1399 net.cpp:434] relu7 <- fc7
I0315 18:48:55.093086  1399 net.cpp:395] relu7 -> fc7 (in-place)
I0315 18:48:55.093515  1399 net.cpp:150] Setting up relu7
I0315 18:48:55.093524  1399 net.cpp:157] Top shape: 100 4096 (409600)
I0315 18:48:55.093528  1399 net.cpp:165] Memory required for data: 2307431216
I0315 18:48:55.093529  1399 layer_factory.hpp:77] Creating layer drop7
I0315 18:48:55.093536  1399 net.cpp:100] Creating Layer drop7
I0315 18:48:55.093539  1399 net.cpp:434] drop7 <- fc7
I0315 18:48:55.093544  1399 net.cpp:395] drop7 -> fc7 (in-place)
I0315 18:48:55.093577  1399 net.cpp:150] Setting up drop7
I0315 18:48:55.093582  1399 net.cpp:157] Top shape: 100 4096 (409600)
I0315 18:48:55.093585  1399 net.cpp:165] Memory required for data: 2309069616
I0315 18:48:55.093587  1399 layer_factory.hpp:77] Creating layer fc7_drop7_0_split
I0315 18:48:55.093592  1399 net.cpp:100] Creating Layer fc7_drop7_0_split
I0315 18:48:55.093595  1399 net.cpp:434] fc7_drop7_0_split <- fc7
I0315 18:48:55.093600  1399 net.cpp:408] fc7_drop7_0_split -> fc7_drop7_0_split_0
I0315 18:48:55.093605  1399 net.cpp:408] fc7_drop7_0_split -> fc7_drop7_0_split_1
I0315 18:48:55.093636  1399 net.cpp:150] Setting up fc7_drop7_0_split
I0315 18:48:55.093641  1399 net.cpp:157] Top shape: 100 4096 (409600)
I0315 18:48:55.093644  1399 net.cpp:157] Top shape: 100 4096 (409600)
I0315 18:48:55.093647  1399 net.cpp:165] Memory required for data: 2312346416
I0315 18:48:55.093648  1399 layer_factory.hpp:77] Creating layer full7_cls_score
I0315 18:48:55.093655  1399 net.cpp:100] Creating Layer full7_cls_score
I0315 18:48:55.093658  1399 net.cpp:434] full7_cls_score <- fc7_drop7_0_split_0
I0315 18:48:55.093663  1399 net.cpp:408] full7_cls_score -> cls_score
I0315 18:48:55.093989  1399 net.cpp:150] Setting up full7_cls_score
I0315 18:48:55.093996  1399 net.cpp:157] Top shape: 100 8 (800)
I0315 18:48:55.093997  1399 net.cpp:165] Memory required for data: 2312349616
I0315 18:48:55.094000  1399 net.cpp:493] Sharing parameters 'cls_score_w' owned by layer 'cls_score_readonly', param index 0
I0315 18:48:55.094004  1399 net.cpp:493] Sharing parameters 'cls_score_b' owned by layer 'cls_score_readonly', param index 1
I0315 18:48:55.094007  1399 layer_factory.hpp:77] Creating layer cls_score_full7_cls_score_0_split
I0315 18:48:55.094012  1399 net.cpp:100] Creating Layer cls_score_full7_cls_score_0_split
I0315 18:48:55.094015  1399 net.cpp:434] cls_score_full7_cls_score_0_split <- cls_score
I0315 18:48:55.094020  1399 net.cpp:408] cls_score_full7_cls_score_0_split -> cls_score_full7_cls_score_0_split_0
I0315 18:48:55.094025  1399 net.cpp:408] cls_score_full7_cls_score_0_split -> cls_score_full7_cls_score_0_split_1
I0315 18:48:55.094053  1399 net.cpp:150] Setting up cls_score_full7_cls_score_0_split
I0315 18:48:55.094065  1399 net.cpp:157] Top shape: 100 8 (800)
I0315 18:48:55.094069  1399 net.cpp:157] Top shape: 100 8 (800)
I0315 18:48:55.094070  1399 net.cpp:165] Memory required for data: 2312356016
I0315 18:48:55.094074  1399 layer_factory.hpp:77] Creating layer full7_cg_bbox_pred
I0315 18:48:55.094077  1399 net.cpp:100] Creating Layer full7_cg_bbox_pred
I0315 18:48:55.094080  1399 net.cpp:434] full7_cg_bbox_pred <- fc7_drop7_0_split_1
I0315 18:48:55.094085  1399 net.cpp:408] full7_cg_bbox_pred -> bbox_pred
I0315 18:48:55.095106  1399 net.cpp:150] Setting up full7_cg_bbox_pred
I0315 18:48:55.095111  1399 net.cpp:157] Top shape: 100 32 (3200)
I0315 18:48:55.095114  1399 net.cpp:165] Memory required for data: 2312368816
I0315 18:48:55.095118  1399 net.cpp:493] Sharing parameters 'bbox_pred_w' owned by layer 'bbox_pred_readonly', param index 0
I0315 18:48:55.095120  1399 net.cpp:493] Sharing parameters 'bbox_pred_b' owned by layer 'bbox_pred_readonly', param index 1
I0315 18:48:55.095124  1399 layer_factory.hpp:77] Creating layer loss_cls
I0315 18:48:55.095129  1399 net.cpp:100] Creating Layer loss_cls
I0315 18:48:55.095131  1399 net.cpp:434] loss_cls <- cls_score_full7_cls_score_0_split_0
I0315 18:48:55.095135  1399 net.cpp:434] loss_cls <- labels_hard
I0315 18:48:55.095140  1399 net.cpp:408] loss_cls -> loss_cls
I0315 18:48:55.095147  1399 layer_factory.hpp:77] Creating layer loss_cls
I0315 18:48:55.095371  1399 net.cpp:150] Setting up loss_cls
I0315 18:48:55.095377  1399 net.cpp:157] Top shape: (1)
I0315 18:48:55.095381  1399 net.cpp:160]     with loss weight 1
I0315 18:48:55.095388  1399 net.cpp:165] Memory required for data: 2312368820
I0315 18:48:55.095391  1399 layer_factory.hpp:77] Creating layer cls_score_reshape
I0315 18:48:55.095398  1399 net.cpp:100] Creating Layer cls_score_reshape
I0315 18:48:55.095402  1399 net.cpp:434] cls_score_reshape <- cls_score_full7_cls_score_0_split_1
I0315 18:48:55.095407  1399 net.cpp:408] cls_score_reshape -> cls_score_reshape
I0315 18:48:55.095432  1399 net.cpp:150] Setting up cls_score_reshape
I0315 18:48:55.095437  1399 net.cpp:157] Top shape: 1 1 100 8 (800)
I0315 18:48:55.095438  1399 net.cpp:165] Memory required for data: 2312372020
I0315 18:48:55.095441  1399 layer_factory.hpp:77] Creating layer cls_score_fc1
I0315 18:48:55.095446  1399 net.cpp:100] Creating Layer cls_score_fc1
I0315 18:48:55.095449  1399 net.cpp:434] cls_score_fc1 <- cls_score_reshape
I0315 18:48:55.095454  1399 net.cpp:408] cls_score_fc1 -> cls_score_fc1
I0315 18:48:55.096565  1399 net.cpp:150] Setting up cls_score_fc1
I0315 18:48:55.096573  1399 net.cpp:157] Top shape: 1 128 (128)
I0315 18:48:55.096576  1399 net.cpp:165] Memory required for data: 2312372532
I0315 18:48:55.096581  1399 layer_factory.hpp:77] Creating layer cls_score_fc2
I0315 18:48:55.096588  1399 net.cpp:100] Creating Layer cls_score_fc2
I0315 18:48:55.096591  1399 net.cpp:434] cls_score_fc2 <- cls_score_fc1
I0315 18:48:55.096596  1399 net.cpp:408] cls_score_fc2 -> cls_score_fc2
I0315 18:48:55.096791  1399 net.cpp:150] Setting up cls_score_fc2
I0315 18:48:55.096796  1399 net.cpp:157] Top shape: 1 128 (128)
I0315 18:48:55.096798  1399 net.cpp:165] Memory required for data: 2312373044
I0315 18:48:55.096802  1399 layer_factory.hpp:77] Creating layer cls_score_one
I0315 18:48:55.096807  1399 net.cpp:100] Creating Layer cls_score_one
I0315 18:48:55.096812  1399 net.cpp:434] cls_score_one <- cls_score_fc2
I0315 18:48:55.096815  1399 net.cpp:408] cls_score_one -> cls_score_one
I0315 18:48:55.096921  1399 net.cpp:150] Setting up cls_score_one
I0315 18:48:55.096927  1399 net.cpp:157] Top shape: 1 8 (8)
I0315 18:48:55.096930  1399 net.cpp:165] Memory required for data: 2312373076
I0315 18:48:55.096935  1399 layer_factory.hpp:77] Creating layer loss_cls_score_one
I0315 18:48:55.096940  1399 net.cpp:100] Creating Layer loss_cls_score_one
I0315 18:48:55.096942  1399 net.cpp:434] loss_cls_score_one <- cls_score_one
I0315 18:48:55.096946  1399 net.cpp:434] loss_cls_score_one <- label
I0315 18:48:55.096951  1399 net.cpp:408] loss_cls_score_one -> loss_cls_score_one
…
