…
weight_decay: 0.0005
stepsize: 50000
snapshot: 0
snapshot_prefix: "zf_faster_rcnn"
average_loss: 100
iter_size: 2
I0223 16:17:54.696630 22088 solver.cpp:81] Creating training net from train_net file: models/pvanet/full7_ohem/original.pt
I0223 16:17:54.702369 22088 net.cpp:58] Initializing net from parameters: 
name: "PVANET"
state {
  phase: TRAIN
}
layer {
  name: "input-data"
  type: "Python"
  top: "data"
  top: "im_info"
  top: "gt_boxes"
  python_param {
    module: "roi_data_layer.layer"
    layer: "RoIDataLayer"
    param_str: "\'num_classes\': 8"
  }
}
layer {
  name: "conv1_1/conv"
  type: "Convolution"
  bottom: "data"
  top: "conv1_1/conv"
  param {
    lr_mult: 0.1
    decay_mult: 0.1
  }
  convolution_param {
    num_output: 16
    bias_term: false
    weight_filler {
      type: "xavier"
    }
    pad_h: 3
    pad_w: 3
    kernel_h: 7
    kernel_w: 7
    stride_h: 2
    stride_w: 2
  }
}
layer {
  name: "conv1_1/bn"
  type: "BatchNorm"
  bottom: "conv1_1/conv"
  top: "conv1_1/conv"
  param {
    lr_mult: 0
    decay_mult: 0
  }
  param {
    lr_mult: 0
    decay_mult: 0
  }
  param {
    lr_mult: 0
    decay_mult: 0
  }
  batch_norm_param {
    use_global_stats: true
  }
}
layer {
  name: "conv1_1/neg"
  type: "Power"
  bottom: "conv1_1/conv"
  top: "conv1_1/neg"
  power_param {
    power: 1
    scale: -1
    shift: 0
  }
}
layer {
  name: "conv1_1/concat"
  type: "Concat"
  bottom: "conv1_1/conv"
  bottom: "conv1_1/neg"
  top: "conv1_1"
}
layer {
  name: "conv1_1/scale"
  type: "Scale"
  bottom: "conv1_1"
  top: "conv1_1"
  param {
    lr_mult: 0.1
    decay_mult: 0
  }
  param {
    lr_mult: 0.2
    decay_mult: 0
  }
  scale_param {
    bias_term: true
  }
}
layer {
  name: "conv1_1/relu"
  type: "ReLU"
  bottom: "conv1_1"
  top: "conv1_1"
}
layer {
  name: "pool1"
  type: "Pooling"
  bottom: "conv1_1"
  top: "pool1"
  pooling_param {
    pool: MAX
    kernel_size: 3
    stride: 2
    pad: 0
  }
}
layer {
  name: "conv2_1/1/conv"
  type: "Convolution"
  bottom: "pool1"
  top: "conv2_1/1"
  param {
    lr_mult: 0.1
    decay_mult: 0.1
  }
  convolution_param {
    num_output: 24
    bias_term: false
    weight_filler {
      type: "xavier"
    }
    pad_h: 0
    pad_w: 0
    kernel_h: 1
    kernel_w: 1
    stride_h: 1
    stride_w: 1
  }
}
layer {
  name: "conv2_1/1/bn"
  type: "BatchNorm"
  bottom: "conv2_1/1"
  top: "conv2_1/1"
  param {
    lr_mult: 0
    decay_mult: 0
  }
  param {
    lr_mult: 0
    decay_mult: 0
  }
  param {
    lr_mult: 0
    decay_mult: 0
  }
  batch_norm_param {
    use_global_stats: true
  }
}
layer {
  name: "conv2_1/1/bn_scale"
  type: "Scale"
  bottom: "conv2_1/1"
  top: "conv2_1/1"
  param {
    lr_mult: 0.1
    decay_mult: 0
  }
  param {
    lr_mult: 0.1
    decay_mult: 0
  }
  scale_param {
    bias_term: true
  }
}
layer {
  name: "conv2_1/1/relu"
  type: "ReLU"
  bottom: "conv2_1/1"
  top: "conv2_1/1"
}
layer {
  name: "conv2_1/2/conv"
  type: "Convolution"
  bottom: "conv2_1/1"
  top: "conv2_1/2/conv"
  param {
    lr_mult: 0.1
    decay_mult: 0.1
  }
  convolution_param {
    num_output: 24
    bias_term: false
    weight_filler {
      type: "xavier"
    }
    pad_h: 1
    pad_w: 1
    kernel_h: 3
    kernel_w: 3
    stride_h: 1
    stride_w: 1
  }
}
layer {
  name: "conv2_1/2/bn"
  type: "BatchNorm"
  bottom: "conv2_1/2/conv"
  top: "conv2_1/2/conv"
  param {
    lr_mult: 0
    decay_mult: 0
  }
  param {
    lr_mult: 0
    decay_mult: 0
  }
  param {
    lr_mult: 0
    decay_mult: 0
  }
  batch_norm_param {
    use_global_stats: true
  }
}
layer {
  name: "conv2_1/2/neg"
  type: "Power"
  bottom: "conv2_1/2/conv"
  top: "conv2_1/2/neg"
  power_param {
    power: 1
    scale: -1
    shift: 0
  }
}
layer {
  name: "conv2_1/2/concat"
  type: "Concat"
  bottom: "conv2_1/2/conv"
  bottom: "conv2_1/2/neg"
  top: "conv2_1/2"
}
layer {
  name: "conv2_1/2/scale"
  type: "Scale"
  bottom: "conv2_1/2"
  top: "conv2_1/2"
  param {
    lr_mult: 0.1
    decay_mult: 0
  }
  param {
    lr_mult: 0.2
    decay_mult: 0
  }
  scale_param {
    bias_term: true
  }
}
layer {
  name: "conv2_1/2/relu"
  type: "ReLU"
  bottom: "conv2_1/2"
  top: "conv2_1/2"
}
layer {
  name: "conv2_1/3/conv"
  type: "Convolution"
  bottom: "conv2_1/2"
  top: "conv2_1/3"
  param {
    lr_mult: 0.1
    decay_mult: 0.1
  }
  convolution_param {
    num_output: 64
    bias_term: false
    weight_filler {
      type: "xavier"
    }
    pad_h: 0
    pad_w: 0
    kernel_h: 1
    kernel_w: 1
    stride_h: 1
    stride_w: 1
  }
}
layer {
  name: "conv2_1/3/bn"
  type: "BatchNorm"
  bottom: "conv2_1/3"
  top: "conv2_1/3"
  param {
    lr_mult: 0
    decay_mult: 0
  }
  param {
    lr_mult: 0
    decay_mult: 0
  }
  param {
    lr_mult: 0
    decay_mult: 0
  }
  batch_norm_param {
    use_global_stats: true
  }
}
layer {
  name: "conv2_1/3/bn_scale"
  type: "Scale"
  bottom: "conv2_1/3"
  top: "conv2_1/3"
  param {
    lr_mult: 0.1
    decay_mult: 0
  }
  param {
    lr_mult: 0.1
    decay_mult: 0
  }
  scale_param {
    bias_term: true
  }
}
layer {
  name: "conv2_1/proj"
  type: "Convolution"
  bottom: "pool1"
  top: "conv2_1/proj"
  param {
    lr_mult: 0.1
    decay_mult: 0.1
  }
  param {
    lr_mult: 0.2
    decay_mult: 0
  }
  convolution_param {
    num_output: 64
    weight_filler {
      type: "xavier"
    }
    bias_filler {
      type: "constant"
      value: 0.1
    }
    pad_h: 0
    pad_w: 0
    kernel_h: 1
    kernel_w: 1
    stride_h: 1
    stride_w: 1
  }
}
layer {
  name: "conv2_1/proj_bn"
  type: "BatchNorm"
  bottom: "conv2_1/proj"
  top: "conv2_1/proj"
  param {
    lr_mult: 0
    decay_mult: 0
  }
  param {
    lr_mult: 0
    decay_mult: 0
  }
  param {
    lr_mult: 0
    decay_mult: 0
  }
  batch_norm_param {
    use_global_stats: true
  }
}
layer {
  name: "conv2_1/proj_bn_scale"
  type: "Scale"
  bottom: "conv2_1/proj"
  top: "conv2_1/proj"
  param {
    lr_mult: 0.1
    decay_mult: 0
  }
  param {
    lr_mult: 0.1
    decay_mult: 0
  }
  scale_param {
    bias_term: true
  }
}
layer {
  name: "conv2_1"
  type: "Eltwise"
  bottom: "conv2_1/3"
  bottom: "conv2_1/proj"
  top: "conv2_1"
  eltwise_param {
    operation: SUM
    coeff: 1
    coeff: 1
  }
}
layer {
  name: "conv2_2/1/conv"
  type: "Convolution"
  bottom: "conv2_1"
  top: "conv2_2/1"
  param {
    lr_mult: 0.1
    decay_mult: 0.1
  }
  convolution_param {
    num_output: 24
    bias_term: false
    weight_filler {
      type: "xavier"
    }
    pad_h: 0
    pad_w: 0
    kernel_h: 1
    kernel_w: 1
    stride_h: 1
    stride_w: 1
  }
}
layer {
  name: "conv2_2/1/bn"
  type: "BatchNorm"
  bottom: "conv2_2/1"
  top: "conv2_2/1"
  param {
    lr_mult: 0
    decay_mult: 0
  }
  param {
    lr_mult: 0
    decay_mult: 0
  }
  param {
    lr_mult: 0
    decay_mult: 0
  }
  batch_norm_param {
    use_global_stats: true
  }
}
layer {
  name: "conv2_2/1/bn_scale"
  type: "Scale"
  bottom: "conv2_2/1"
  top: "conv2_2/1"
  param {
    lr_mult: 0.1
    decay_mult: 0
  }
  param {
    lr_mult: 0.1
    decay_mult: 0
  }
  scale_param {
    bias_term: true
  }
}
layer {
  name: "conv2_2/1/relu"
  type: "ReLU"
  bottom: "conv2_2/1"
  top: "conv2_2/1"
}
layer {
  name: "conv2_2/2/conv"
  type: "Convolution"
  bottom: "conv2_2/1"
  top: "conv2_2/2/conv"
  param {
    lr_mult: 0.1
    decay_mult: 0.1
  }
  convolution_param {
    num_output: 24
    bias_term: false
    weight_filler {
      type: "xavier"
    }
    pad_h: 1
    pad_w: 1
    kernel_h: 3
    kernel_w: 3
    stride_h: 1
    stride_w: 1
  }
}
layer {
  name: "conv2_2/2/bn"
  type: "BatchNorm"
  bottom: "conv2_2/2/conv"
  top: "conv2_2/2/conv"
  param {
    lr_mult: 0
    decay_mult: 0
  }
  param {
    lr_mult: 0
    decay_mult: 0
  }
  param {
    lr_mult: 0
    decay_mult: 0
  }
  batch_norm_param {
    use_global_stats: true
  }
}
layer {
  name: "conv2_2/2/neg"
  type: "Power"
  bottom: "conv2_2/2/conv"
  top: "conv2_2/2/neg"
  power_param {
    power: 1
    scale: -1
    shift: 0
  }
}
layer {
  name: "conv2_2/2/concat"
  type: "Concat"
  bottom: "conv2_2/2/conv"
  bottom: "conv2_2/2/neg"
  top: "conv2_2/2"
}
layer {
  name: "conv2_2/2/scale"
  type: "Scale"
  bottom: "conv2_2/2"
  top: "conv2_2/2"
  param {
    lr_mult: 0.1
    decay_mult: 0
  }
  param {
    lr_mult: 0.2
    decay_mult: 0
  }
  scale_param {
    bias_term: true
  }
}
layer {
  name: "conv2_2/2/relu"
  type: "ReLU"
  bottom: "conv2_2/2"
  top: "conv2_2/2"
}
layer {
  name: "conv2_2/3/conv"
  type: "Convolution"
  bottom: "conv2_2/2"
  top: "conv2_2/3"
  param {
    lr_mult: 0.1
    decay_mult: 0.1
  }
  convolution_param {
    num_output: 64
    bias_term: false
    weight_filler {
      type: "xavier"
    }
    pad_h: 0
    pad_w: 0
    kernel_h: 1
    kernel_w: 1
    stride_h: 1
    stride_w: 1
  }
}
layer {
  name: "conv2_2/3/bn"
  type: "BatchNorm"
  bottom: "conv2_2/3"
  top: "conv2_2/3"
  param {
    lr_mult: 0
    decay_mult: 0
  }
  param {
    lr_mult: 0
    decay_mult: 0
  }
  param {
    lr_mult: 0
    decay_mult: 0
  }
  batch_norm_param {
    use_global_stats: true
  }
}
layer {
  name: "conv2_2/3/bn_scale"
  type: "Scale"
  bottom: "conv2_2/3"
  top: "conv2_2/3"
  param {
    lr_mult: 0.1
    decay_mult: 0
  }
  param {
    lr_mult: 0.1
    decay_mult: 0
  }
  scale_param {
    bias_term: true
  }
}
layer {
  name: "conv2_2/input"
  type: "Power"
  bottom: "conv2_1"
  top: "conv2_2/input"
  power_param {
    power: 1
    scale: 1
    shift: 0
  }
}
layer {
  name: "conv2_2"
  type: "Eltwise"
  bottom: "conv2_2/3"
  bottom: "conv2_2/input"
  top: "conv2_2"
  eltwise_param {
    operation: SUM
    coeff: 1
    coeff: 1
  }
}
layer {
  name: "conv2_3/1/conv"
  type: "Convolution"
  bottom: "conv2_2"
  top: "conv2_3/1"
  param {
    lr_mult: 0.1
    decay_mult: 0.1
  }
  convolution_param {
    num_output: 24
    bias_term: false
    weight_filler {
      type: "xavier"
    }
    pad_h: 0
    pad_w: 0
    kernel_h: 1
    kernel_w: 1
    stride_h: 1
    stride_w: 1
  }
}
layer {
  name: "conv2_3/1/bn"
  type: "BatchNorm"
  bottom: "conv2_3/1"
  top: "conv2_3/1"
  param {
    lr_mult: 0
    decay_mult: 0
  }
  param {
    lr_mult: 0
    decay_mult: 0
  }
  param {
    lr_mult: 0
    decay_mult: 0
  }
  batch_norm_param {
    use_global_stats: true
  }
}
layer {
  name: "conv2_3/1/bn_scale"
  type: "Scale"
  bottom: "conv2_3/1"
  top: "conv2_3/1"
  param {
    lr_mult: 0.1
    decay_mult: 0
  }
  param {
    lr_mult: 0.1
    decay_mult: 0
  }
  scale_param {
    bias_term: true
  }
}
layer {
  name: "conv2_3/1/relu"
  type: "ReLU"
  bottom: "conv2_3/1"
  top: "conv2_3/1"
}
layer {
  name: "conv2_3/2/conv"
  type: "Convolution"
  bottom: "conv2_3/1"
  top: "conv2_3/2/conv"
  param {
    lr_mult: 0.1
    decay_mult: 0.1
  }
  convolution_param {
    num_output: 24
    bias_term: false
    weight_filler {
      type: "xavier"
    }
    pad_h: 1
    pad_w: 1
    kernel_h: 3
    kernel_w: 3
    stride_h: 1
    stride_w: 1
  }
}
layer {
  name: "conv2_3/2/bn"
  type: "BatchNorm"
  bottom: "conv2_3/2/conv"
  top: "conv2_3/2/conv"
  param {
    lr_mult: 0
    decay_mult: 0
  }
  param {
    lr_mult: 0
    decay_mult: 0
  }
  param {
    lr_mult: 0
    decay_mult: 0
  }
  batch_norm_param {
    use_global_stats: true
  }
}
layer {
  name: "conv2_3/2/neg"
  type: "Power"
  bottom: "conv2_3/2/conv"
  top: "conv2_3/2/neg"
  power_param {
    power: 1
    scale: -1
    shift: 0
  }
}
layer {
  name: "conv2_3/2/concat"
  type: "Concat"
  bottom: "conv2_3/2/conv"
  bottom: "conv2_3/2/neg"
  top: "conv2_3/2"
}
layer {
  name: "conv2_3/2/scale"
  type: "Scale"
  bottom: "conv2_3/2"
  top: "conv2_3/2"
  param {
    lr_mult: 0.1
    decay_mult: 0
  }
  param {
    lr_mult: 0.2
    decay_mult: 0
  }
  scale_param {
    bias_term: true
  }
}
layer {
  name: "conv2_3/2/relu"
  type: "ReLU"
  bottom: "conv2_3/2"
  top: "conv2_3/2"
}
layer {
  name: "conv2_3/3/conv"
  type: "Convolution"
  bottom: "conv2_3/2"
  top: "conv2_3/3"
  param {
    lr_mult: 0.1
    decay_mult: 0.1
  }
  convolution_param {
    num_output: 64
    bias_term: false
    weight_filler {
      type: "xavier"
    }
    pad_h: 0
    pad_w: 0
    kernel_h: 1
    kernel_w: 1
    stride_h: 1
    stride_w: 1
  }
}
layer {
  name: "conv2_3/3/bn"
  type: "BatchNorm"
  bottom: "conv2_3/3"
  top: "conv2_3/3"
  param {
    lr_mult: 0
    decay_mult: 0
  }
  param {
    lr_mult: 0
    decay_mult: 0
  }
  param {
    lr_mult: 0
    decay_mult: 0
  }
  batch_norm_param {
    use_global_stats: true
  }
}
layer {
  name: "conv2_3/3/bn_scale"
  type: "Scale"
  bottom: "conv2_3/3"
  top: "conv2_3/3"
  param {
    lr_mult: 0.1
    decay_mult: 0
  }
  param {
    lr_mult: 0.1
    decay_mult: 0
  }
  scale_param {
    bias_term: true
  }
}
layer {
  name: "conv2_3/input"
  type: "Power"
  bottom: "conv2_2"
  top: "conv2_3/input"
  power_param {
    power: 1
    scale: 1
    shift: 0
  }
}
layer {
  name: "conv2_3"
  type: "Eltwise"
  bottom: "conv2_3/3"
  bottom: "conv2_3/input"
  top: "conv2_3"
  eltwise_param {
    operation: SUM
    coeff: 1
    coeff: 1
  }
}
layer {
  name: "conv3_1/1/conv"
  type: "Convolution"
  bottom: "conv2_3"
  top: "conv3_1/1"
  param {
    lr_mult: 0.1
    decay_mult: 0.1
  }
  convolution_param {
    num_output: 48
    bias_term: false
    weight_filler {
      type: "xavier"
    }
    pad_h: 0
    pad_w: 0
    kernel_h: 1
    kernel_w: 1
    stride_h: 2
    stride_w: 2
  }
}
layer {
  name: "conv3_1/1/bn"
  type: "BatchNorm"
  bottom: "conv3_1/1"
  top: "conv3_1/1"
  param {
    lr_mult: 0
    decay_mult: 0
  }
  param {
    lr_mult: 0
    decay_mult: 0
  }
  param {
    lr_mult: 0
    decay_mult: 0
  }
  batch_norm_param {
    use_global_stats: true
  }
}
layer {
  name: "conv3_1/1/bn_scale"
  type: "Scale"
  bottom: "conv3_1/1"
  top: "conv3_1/1"
  param {
    lr_mult: 0.1
    decay_mult: 0
  }
  param {
    lr_mult: 0.1
    decay_mult: 0
  }
  scale_param {
    bias_term: true
  }
}
layer {
  name: "conv3_1/1/relu"
  type: "ReLU"
  bottom: "conv3_1/1"
  top: "conv3_1/1"
}
layer {
  name: "conv3_1/2/conv"
  type: "Convolution"
  bottom: "conv3_1/1"
  top: "conv3_1/2/conv"
  param {
    lr_mult: 0.1
    decay_mult: 0.1
  }
  convolution_param {
    num_output: 48
    bias_term: false
    weight_filler {
      type: "xavier"
    }
    pad_h: 1
    pad_w: 1
    kernel_h: 3
    kernel_w: 3
    stride_h: 1
    stride_w: 1
  }
}
layer {
  name: "conv3_1/2/bn"
  type: "BatchNorm"
  bottom: "conv3_1/2/conv"
  top: "conv3_1/2/conv"
  param {
    lr_mult: 0
    decay_mult: 0
  }
  param {
    lr_mult: 0
    decay_mult: 0
  }
  param {
    lr_mult: 0
    decay_mult: 0
  }
  batch_norm_param {
    use_global_stats: true
  }
}
layer {
  name: "conv3_1/2/neg"
  type: "Power"
  bottom: "conv3_1/2/conv"
  top: "conv3_1/2/neg"
  power_param {
    power: 1
    scale: -1
    shift: 0
  }
}
layer {
  name: "conv3_1/2/concat"
  type: "Concat"
  bottom: "conv3_1/2/conv"
  bottom: "conv3_1/2/neg"
  top: "conv3_1/2"
}
layer {
  name: "conv3_1/2/scale"
  type: "Scale"
  bottom: "conv3_1/2"
  top: "conv3_1/2"
  param {
    lr_mult: 0.1
    decay_mult: 0
  }
  param {
    lr_mult: 0.2
    decay_mult: 0
  }
  scale_param {
    bias_term: true
  }
}
layer {
  name: "conv3_1/2/relu"
  type: "ReLU"
  bottom: "conv3_1/2"
  top: "conv3_1/2"
}
layer {
  name: "conv3_1/3/conv"
  type: "Convolution"
  bottom: "conv3_1/2"
  top: "conv3_1/3"
  param {
    lr_mult: 0.1
    decay_mult: 0.1
  }
  convolution_param {
    num_output: 128
    bias_term: false
    weight_filler {
      type: "xavier"
    }
    pad_h: 0
    pad_w: 0
    kernel_h: 1
    kernel_w: 1
    stride_h: 1
    stride_w: 1
  }
}
layer {
  name: "conv3_1/3/bn"
  type: "BatchNorm"
  bottom: "conv3_1/3"
  top: "conv3_1/3"
  param {
    lr_mult: 0
    decay_mult: 0
  }
  param {
    lr_mult: 0
    decay_mult: 0
  }
  param {
    lr_mult: 0
    decay_mult: 0
  }
  batch_norm_param {
    use_global_stats: true
  }
}
layer {
  name: "conv3_1/3/bn_scale"
  type: "Scale"
  bottom: "conv3_1/3"
  top: "conv3_1/3"
  param {
    lr_mult: 0.1
    decay_mult: 0
  }
  param {
    lr_mult: 0.1
    decay_mult: 0
  }
  scale_param {
    bias_term: true
  }
}
layer {
  name: "conv3_1/proj"
  type: "Convolution"
  bottom: "conv2_3"
  top: "conv3_1/proj"
  param {
    lr_mult: 0.1
    decay_mult: 0.1
  }
  param {
    lr_mult: 0.2
    decay_mult: 0
  }
  convolution_param {
    num_output: 128
    weight_filler {
      type: "xavier"
    }
    bias_filler {
      type: "constant"
      value: 0.1
    }
    pad_h: 0
    pad_w: 0
    kernel_h: 1
    kernel_w: 1
    stride_h: 2
    stride_w: 2
  }
}
layer {
  name: "conv3_1/proj_bn"
  type: "BatchNorm"
  bottom: "conv3_1/proj"
  top: "conv3_1/proj"
  param {
    lr_mult: 0
    decay_mult: 0
  }
  param {
    lr_mult: 0
    decay_mult: 0
  }
  param {
    lr_mult: 0
    decay_mult: 0
  }
  batch_norm_param {
    use_global_stats: true
  }
}
layer {
  name: "conv3_1/proj_bn_scale"
  type: "Scale"
  bottom: "conv3_1/proj"
  top: "conv3_1/proj"
  param {
    lr_mult: 0.1
    decay_mult: 0
  }
  param {
    lr_mult: 0.1
    decay_mult: 0
  }
  scale_param {
    bias_term: true
  }
}
layer {
  name: "conv3_1"
  type: "Eltwise"
  bottom: "conv3_1/3"
  bottom: "conv3_1/proj"
  top: "conv3_1"
  eltwise_param {
    operation: SUM
    coeff: 1
    coeff: 1
  }
}
layer {
  name: "conv3_2/1/conv"
  type: "Convolution"
  bottom: "conv3_1"
  top: "conv3_2/1"
  param {
    lr_mult: 0.1
    decay_mult: 0.1
  }
  convolution_param {
    num_output: 48
    bias_term: false
    weight_filler {
      type: "xavier"
    }
    pad_h: 0
    pad_w: 0
    kernel_h: 1
    kernel_w: 1
    stride_h: 1
    stride_w: 1
  }
}
layer {
  name: "conv3_2/1/bn"
  type: "BatchNorm"
  bottom: "conv3_2/1"
  top: "conv3_2/1"
  param {
    lr_mult: 0
    decay_mult: 0
  }
  param {
    lr_mult: 0
    decay_mult: 0
  }
  param {
    lr_mult: 0
    decay_mult: 0
  }
  batch_norm_param {
    use_global_stats: true
  }
}
layer {
  name: "conv3_2/1/bn_scale"
  type: "Scale"
  bottom: "conv3_2/1"
  top: "conv3_2/1"
  param {
    lr_mult: 0.1
    decay_mult: 0
  }
  param {
    lr_mult: 0.1
    decay_mult: 0
  }
  scale_param {
    bias_term: true
  }
}
layer {
  name: "conv3_2/1/relu"
  type: "ReLU"
  bottom: "conv3_2/1"
  top: "conv3_2/1"
}
layer {
  name: "conv3_2/2/conv"
  type: "Convolution"
  bottom: "conv3_2/1"
  top: "conv3_2/2/conv"
  param {
    lr_mult: 0.1
    decay_mult: 0.1
  }
  convolution_param {
    num_output: 48
    bias_term: false
    weight_filler {
      type: "xavier"
    }
    pad_h: 1
    pad_w: 1
    kernel_h: 3
    kernel_w: 3
    stride_h: 1
    stride_w: 1
  }
}
layer {
  name: "conv3_2/2/bn"
  type: "BatchNorm"
  bottom: "conv3_2/2/conv"
  top: "conv3_2/2/conv"
  param {
    lr_mult: 0
    decay_mult: 0
  }
  param {
    lr_mult: 0
    decay_mult: 0
  }
  param {
    lr_mult: 0
    decay_mult: 0
  }
  batch_norm_param {
    use_global_stats: true
  }
}
layer {
  name: "conv3_2/2/neg"
  type: "Power"
  bottom: "conv3_2/2/conv"
  top: "conv3_2/2/neg"
  power_param {
    power: 1
    scale: -1
    shift: 0
  }
}
layer {
  name: "conv3_2/2/concat"
  type: "Concat"
  bottom: "conv3_2/2/conv"
  bottom: "conv3_2/2/neg"
  top: "conv3_2/2"
}
layer {
  name: "conv3_2/2/scale"
  type: "Scale"
  bottom: "conv3_2/2"
  top: "conv3_2/2"
  param {
    lr_mult: 0.1
    decay_mult: 0
  }
  param {
    lr_mult: 0.2
    decay_mult: 0
  }
  scale_param {
    bias_term: true
  }
}
layer {
  name: "conv3_2/2/relu"
  type: "ReLU"
  bottom: "conv3_2/2"
  top: "conv3_2/2"
}
layer {
  name: "conv3_2/3/conv"
  type: "Convolution"
  bottom: "conv3_2/2"
  top: "conv3_2/3"
  param {
    lr_mult: 0.1
    decay_mult: 0.1
  }
  convolution_param {
    num_output: 128
    bias_term: false
    weight_filler {
      type: "xavier"
    }
    pad_h: 0
    pad_w: 0
    kernel_h: 1
    kernel_w: 1
    stride_h: 1
    stride_w: 1
  }
}
layer {
  name: "conv3_2/3/bn"
  type: "BatchNorm"
  bottom: "conv3_2/3"
  top: "conv3_2/3"
  param {
    lr_mult: 0
    decay_mult: 0
  }
  param {
    lr_mult: 0
    decay_mult: 0
  }
  param {
    lr_mult: 0
    decay_mult: 0
  }
  batch_norm_param {
    use_global_stats: true
  }
}
layer {
  name: "conv3_2/3/bn_scale"
  type: "Scale"
  bottom: "conv3_2/3"
  top: "conv3_2/3"
  param {
    lr_mult: 0.1
    decay_mult: 0
  }
  param {
    lr_mult: 0.1
    decay_mult: 0
  }
  scale_param {
    bias_term: true
  }
}
layer {
  name: "conv3_2/input"
  type: "Power"
  bottom: "conv3_1"
  top: "conv3_2/input"
  power_param {
    power: 1
    scale: 1
    shift: 0
  }
}
layer {
  name: "conv3_2"
  type: "Eltwise"
  bottom: "conv3_2/3"
  bottom: "conv3_2/input"
  top: "conv3_2"
  eltwise_param {
    operation: SUM
    coeff: 1
    coeff: 1
  }
}
layer {
  name: "conv3_3/1/conv"
  type: "Convolution"
  bottom: "conv3_2"
  top: "conv3_3/1"
  param {
    lr_mult: 0.1
    decay_mult: 0.1
  }
  convolution_param {
    num_output: 48
    bias_term: false
    weight_filler {
      type: "xavier"
    }
    pad_h: 0
    pad_w: 0
    kernel_h: 1
    kernel_w: 1
    stride_h: 1
    stride_w: 1
  }
}
layer {
  name: "conv3_3/1/bn"
  type: "BatchNorm"
  bottom: "conv3_3/1"
  top: "conv3_3/1"
  param {
    lr_mult: 0
    decay_mult: 0
  }
  param {
    lr_mult: 0
    decay_mult: 0
  }
  param {
    lr_mult: 0
    decay_mult: 0
  }
  batch_norm_param {
    use_global_stats: true
  }
}
layer {
  name: "conv3_3/1/bn_scale"
  type: "Scale"
  bottom: "conv3_3/1"
  top: "conv3_3/1"
  param {
    lr_mult: 0.1
    decay_mult: 0
  }
  param {
    lr_mult: 0.1
    decay_mult: 0
  }
  scale_param {
    bias_term: true
  }
}
layer {
  name: "conv3_3/1/relu"
  type: "ReLU"
  bottom: "conv3_3/1"
  top: "conv3_3/1"
}
layer {
  name: "conv3_3/2/conv"
  type: "Convolution"
  bottom: "conv3_3/1"
  top: "conv3_3/2/conv"
  param {
    lr_mult: 0.1
    decay_mult: 0.1
  }
  convolution_param {
    num_output: 48
    bias_term: false
    weight_filler {
      type: "xavier"
    }
    pad_h: 1
    pad_w: 1
    kernel_h: 3
    kernel_w: 3
    stride_h: 1
    stride_w: 1
  }
}
layer {
  name: "conv3_3/2/bn"
  type: "BatchNorm"
  bottom: "conv3_3/2/conv"
  top: "conv3_3/2/conv"
  param {
    lr_mult: 0
    decay_mult: 0
  }
  param {
    lr_mult: 0
    decay_mult: 0
  }
  param {
    lr_mult: 0
    decay_mult: 0
  }
  batch_norm_param {
    use_global_stats: true
  }
}
layer {
  name: "conv3_3/2/neg"
  type: "Power"
  bottom: "conv3_3/2/conv"
  top: "conv3_3/2/neg"
  power_param {
    power: 1
    scale: -1
    shift: 0
  }
}
layer {
  name: "conv3_3/2/concat"
  type: "Concat"
  bottom: "conv3_3/2/conv"
  bottom: "conv3_3/2/neg"
  top: "conv3_3/2"
}
layer {
  name: "conv3_3/2/scale"
  type: "Scale"
  bottom: "conv3_3/2"
  top: "conv3_3/2"
  param {
    lr_mult: 0.1
    decay_mult: 0
  }
  param {
    lr_mult: 0.2
    decay_mult: 0
  }
  scale_param {
    bias_term: true
  }
}
layer {
  name: "conv3_3/2/relu"
  type: "ReLU"
  bottom: "conv3_3/2"
  top: "conv3_3/2"
}
layer {
  name: "conv3_3/3/conv"
  type: "Convolution"
  bottom: "conv3_3/2"
  top: "conv3_3/3"
  param {
    lr_mult: 0.1
    decay_mult: 0.1
  }
  convolution_param {
    num_output: 128
    bias_term: false
    weight_filler {
      type: "xavier"
    }
    pad_h: 0
    pad_w: 0
    kernel_h: 1
    kernel_w: 1
    stride_h: 1
    stride_w: 1
  }
}
layer {
  name: "conv3_3/3/bn"
  type: "BatchNorm"
  bottom: "conv3_3/3"
  top: "conv3_3/3"
  param {
    lr_mult: 0
    decay_mult: 0
  }
  param {
    lr_mult: 0
    decay_mult: 0
  }
  param {
    lr_mult: 0
    decay_mult: 0
  }
  batch_norm_param {
    use_global_stats: true
  }
}
layer {
  name: "conv3_3/3/bn_scale"
  type: "Scale"
  bottom: "conv3_3/3"
  top: "conv3_3/3"
  param {
    lr_mult: 0.1
    decay_mult: 0
  }
  param {
    lr_mult: 0.1
    decay_mult: 0
  }
  scale_param {
    bias_term: true
  }
}
layer {
  name: "conv3_3/input"
  type: "Power"
  bottom: "conv3_2"
  top: "conv3_3/input"
  power_param {
    power: 1
    scale: 1
    shift: 0
  }
}
layer {
  name: "conv3_3"
  type: "Eltwise"
  bottom: "conv3_3/3"
  bottom: "conv3_3/input"
  top: "conv3_3"
  eltwise_param {
    operation: SUM
    coeff: 1
    coeff: 1
  }
}
layer {
  name: "conv3_4/1/conv"
  type: "Convolution"
  bottom: "conv3_3"
  top: "conv3_4/1"
  param {
    lr_mult: 0.1
    decay_mult: 0.1
  }
  convolution_param {
    num_output: 48
    bias_term: false
    weight_filler {
      type: "xavier"
    }
    pad_h: 0
    pad_w: 0
    kernel_h: 1
    kernel_w: 1
    stride_h: 1
    stride_w: 1
  }
}
layer {
  name: "conv3_4/1/bn"
  type: "BatchNorm"
  bottom: "conv3_4/1"
  top: "conv3_4/1"
  param {
    lr_mult: 0
    decay_mult: 0
  }
  param {
    lr_mult: 0
    decay_mult: 0
  }
  param {
    lr_mult: 0
    decay_mult: 0
  }
  batch_norm_param {
    use_global_stats: true
  }
}
layer {
  name: "conv3_4/1/bn_scale"
  type: "Scale"
  bottom: "conv3_4/1"
  top: "conv3_4/1"
  param {
    lr_mult: 0.1
    decay_mult: 0
  }
  param {
    lr_mult: 0.1
    decay_mult: 0
  }
  scale_param {
    bias_term: true
  }
}
layer {
  name: "conv3_4/1/relu"
  type: "ReLU"
  bottom: "conv3_4/1"
  top: "conv3_4/1"
}
layer {
  name: "conv3_4/2/conv"
  type: "Convolution"
  bottom: "conv3_4/1"
  top: "conv3_4/2/conv"
  param {
    lr_mult: 0.1
    decay_mult: 0.1
  }
  convolution_param {
    num_output: 48
    bias_term: false
    weight_filler {
      type: "xavier"
    }
    pad_h: 1
    pad_w: 1
    kernel_h: 3
    kernel_w: 3
    stride_h: 1
    stride_w: 1
  }
}
layer {
  name: "conv3_4/2/bn"
  type: "BatchNorm"
  bottom: "conv3_4/2/conv"
  top: "conv3_4/2/conv"
  param {
    lr_mult: 0
    decay_mult: 0
  }
  param {
    lr_mult: 0
    decay_mult: 0
  }
  param {
    lr_mult: 0
    decay_mult: 0
  }
  batch_norm_param {
    use_global_stats: true
  }
}
layer {
  name: "conv3_4/2/neg"
  type: "Power"
  bottom: "conv3_4/2/conv"
  top: "conv3_4/2/neg"
  power_param {
    power: 1
    scale: -1
    shift: 0
  }
}
layer {
  name: "conv3_4/2/concat"
  type: "Concat"
  bottom: "conv3_4/2/conv"
  bottom: "conv3_4/2/neg"
  top: "conv3_4/2"
}
layer {
  name: "conv3_4/2/scale"
  type: "Scale"
  bottom: "conv3_4/2"
  top: "conv3_4/2"
  param {
    lr_mult: 0.1
    decay_mult: 0
  }
  param {
    lr_mult: 0.2
    decay_mult: 0
  }
  scale_param {
    bias_term: true
  }
}
layer {
  name: "conv3_4/2/relu"
  type: "ReLU"
  bottom: "conv3_4/2"
  top: "conv3_4/2"
}
layer {
  name: "conv3_4/3/conv"
  type: "Convolution"
  bottom: "conv3_4/2"
  top: "conv3_4/3"
  param {
    lr_mult: 0.1
    decay_mult: 0.1
  }
  convolution_param {
    num_output: 128
    bias_term: false
    weight_filler {
      type: "xavier"
    }
    pad_h: 0
    pad_w: 0
    kernel_h: 1
    kernel_w: 1
    stride_h: 1
    stride_w: 1
  }
}
layer {
  name: "conv3_4/3/bn"
  type: "BatchNorm"
  bottom: "conv3_4/3"
  top: "conv3_4/3"
  param {
    lr_mult: 0
    decay_mult: 0
  }
  param {
    lr_mult: 0
    decay_mult: 0
  }
  param {
    lr_mult: 0
    decay_mult: 0
  }
  batch_norm_param {
    use_global_stats: true
  }
}
layer {
  name: "conv3_4/3/bn_scale"
  type: "Scale"
  bottom: "conv3_4/3"
  top: "conv3_4/3"
  param {
    lr_mult: 0.1
    decay_mult: 0
  }
  param {
    lr_mult: 0.1
    decay_mult: 0
  }
  scale_param {
    bias_term: true
  }
}
layer {
  name: "conv3_4/input"
  type: "Power"
  bottom: "conv3_3"
  top: "conv3_4/input"
  power_param {
    power: 1
    scale: 1
    shift: 0
  }
}
layer {
  name: "conv3_4"
  type: "Eltwise"
  bottom: "conv3_4/3"
  bottom: "conv3_4/input"
  top: "conv3_4"
  eltwise_param {
    operation: SUM
    coeff: 1
    coeff: 1
  }
}
layer {
  name: "conv4_1/incep/0/conv"
  type: "Convolution"
  bottom: "conv3_4"
  top: "conv4_1/incep/0"
  param {
    lr_mult: 0.1
    decay_mult: 0.1
  }
  convolution_param {
    num_output: 64
    bias_term: false
    weight_filler {
      type: "xavier"
    }
    pad_h: 0
    pad_w: 0
    kernel_h: 1
    kernel_w: 1
    stride_h: 2
    stride_w: 2
  }
}
layer {
  name: "conv4_1/incep/0/bn"
  type: "BatchNorm"
  bottom: "conv4_1/incep/0"
  top: "conv4_1/incep/0"
  param {
    lr_mult: 0
    decay_mult: 0
  }
  param {
    lr_mult: 0
    decay_mult: 0
  }
  param {
    lr_mult: 0
    decay_mult: 0
  }
  batch_norm_param {
    use_global_stats: true
  }
}
layer {
  name: "conv4_1/incep/0/bn_scale"
  type: "Scale"
  bottom: "conv4_1/incep/0"
  top: "conv4_1/incep/0"
  param {
    lr_mult: 0.1
    decay_mult: 0
  }
  param {
    lr_mult: 0.1
    decay_mult: 0
  }
  scale_param {
    bias_term: true
  }
}
layer {
  name: "conv4_1/incep/0/relu"
  type: "ReLU"
  bottom: "conv4_1/incep/0"
  top: "conv4_1/incep/0"
}
layer {
  name: "conv4_1/incep/1_reduce/conv"
  type: "Convolution"
  bottom: "conv3_4"
  top: "conv4_1/incep/1_reduce"
  param {
    lr_mult: 0.1
    decay_mult: 0.1
  }
  convolution_param {
    num_output: 48
    bias_term: false
    weight_filler {
      type: "xavier"
    }
    pad_h: 0
    pad_w: 0
    kernel_h: 1
    kernel_w: 1
    stride_h: 2
    stride_w: 2
  }
}
layer {
  name: "conv4_1/incep/1_reduce/bn"
  type: "BatchNorm"
  bottom: "conv4_1/incep/1_reduce"
  top: "conv4_1/incep/1_reduce"
  param {
    lr_mult: 0
    decay_mult: 0
  }
  param {
    lr_mult: 0
    decay_mult: 0
  }
  param {
    lr_mult: 0
    decay_mult: 0
  }
  batch_norm_param {
    use_global_stats: true
  }
}
layer {
  name: "conv4_1/incep/1_reduce/bn_scale"
  type: "Scale"
  bottom: "conv4_1/incep/1_reduce"
  top: "conv4_1/incep/1_reduce"
  param {
    lr_mult: 0.1
    decay_mult: 0
  }
  param {
    lr_mult: 0.1
    decay_mult: 0
  }
  scale_param {
    bias_term: true
  }
}
layer {
  name: "conv4_1/incep/1_reduce/relu"
  type: "ReLU"
  bottom: "conv4_1/incep/1_reduce"
  top: "conv4_1/incep/1_reduce"
}
layer {
  name: "conv4_1/incep/1_0/conv"
  type: "Convolution"
  bottom: "conv4_1/incep/1_reduce"
  top: "conv4_1/incep/1_0"
  param {
    lr_mult: 0.1
    decay_mult: 0.1
  }
  convolution_param {
    num_output: 128
    bias_term: false
    weight_filler {
      type: "xavier"
    }
    pad_h: 1
    pad_w: 1
    kernel_h: 3
    kernel_w: 3
    stride_h: 1
    stride_w: 1
  }
}
layer {
  name: "conv4_1/incep/1_0/bn"
  type: "BatchNorm"
  bottom: "conv4_1/incep/1_0"
  top: "conv4_1/incep/1_0"
  param {
I0223 16:17:54.704082 22088 layer_factory.hpp:77] Creating layer input-data
I0223 16:17:54.712813 22088 net.cpp:100] Creating Layer input-data
I0223 16:17:54.712829 22088 net.cpp:408] input-data -> data
I0223 16:17:54.712841 22088 net.cpp:408] input-data -> im_info
I0223 16:17:54.712847 22088 net.cpp:408] input-data -> gt_boxes
I0223 16:17:54.724730 22088 net.cpp:150] Setting up input-data
I0223 16:17:54.724751 22088 net.cpp:157] Top shape: 1 3 864 1440 (3732480)
I0223 16:17:54.724757 22088 net.cpp:157] Top shape: 1 3 (3)
I0223 16:17:54.724761 22088 net.cpp:157] Top shape: 1 4 (4)
I0223 16:17:54.724764 22088 net.cpp:165] Memory required for data: 14929948
I0223 16:17:54.724769 22088 layer_factory.hpp:77] Creating layer data_input-data_0_split
I0223 16:17:54.724781 22088 net.cpp:100] Creating Layer data_input-data_0_split
I0223 16:17:54.724784 22088 net.cpp:434] data_input-data_0_split <- data
I0223 16:17:54.724792 22088 net.cpp:408] data_input-data_0_split -> data_input-data_0_split_0
I0223 16:17:54.724802 22088 net.cpp:408] data_input-data_0_split -> data_input-data_0_split_1
I0223 16:17:54.724854 22088 net.cpp:150] Setting up data_input-data_0_split
I0223 16:17:54.724861 22088 net.cpp:157] Top shape: 1 3 864 1440 (3732480)
I0223 16:17:54.724865 22088 net.cpp:157] Top shape: 1 3 864 1440 (3732480)
I0223 16:17:54.724869 22088 net.cpp:165] Memory required for data: 44789788
I0223 16:17:54.724874 22088 layer_factory.hpp:77] Creating layer im_info_input-data_1_split
I0223 16:17:54.724880 22088 net.cpp:100] Creating Layer im_info_input-data_1_split
I0223 16:17:54.724884 22088 net.cpp:434] im_info_input-data_1_split <- im_info
I0223 16:17:54.724890 22088 net.cpp:408] im_info_input-data_1_split -> im_info_input-data_1_split_0
I0223 16:17:54.724896 22088 net.cpp:408] im_info_input-data_1_split -> im_info_input-data_1_split_1
I0223 16:17:54.724942 22088 net.cpp:150] Setting up im_info_input-data_1_split
I0223 16:17:54.724948 22088 net.cpp:157] Top shape: 1 3 (3)
I0223 16:17:54.724952 22088 net.cpp:157] Top shape: 1 3 (3)
I0223 16:17:54.724956 22088 net.cpp:165] Memory required for data: 44789812
I0223 16:17:54.724958 22088 layer_factory.hpp:77] Creating layer gt_boxes_input-data_2_split
I0223 16:17:54.724966 22088 net.cpp:100] Creating Layer gt_boxes_input-data_2_split
I0223 16:17:54.724975 22088 net.cpp:434] gt_boxes_input-data_2_split <- gt_boxes
I0223 16:17:54.724982 22088 net.cpp:408] gt_boxes_input-data_2_split -> gt_boxes_input-data_2_split_0
I0223 16:17:54.724987 22088 net.cpp:408] gt_boxes_input-data_2_split -> gt_boxes_input-data_2_split_1
I0223 16:17:54.725035 22088 net.cpp:150] Setting up gt_boxes_input-data_2_split
I0223 16:17:54.725042 22088 net.cpp:157] Top shape: 1 4 (4)
I0223 16:17:54.725046 22088 net.cpp:157] Top shape: 1 4 (4)
I0223 16:17:54.725049 22088 net.cpp:165] Memory required for data: 44789844
I0223 16:17:54.725052 22088 layer_factory.hpp:77] Creating layer conv1_1/conv
I0223 16:17:54.725065 22088 net.cpp:100] Creating Layer conv1_1/conv
I0223 16:17:54.725069 22088 net.cpp:434] conv1_1/conv <- data_input-data_0_split_0
I0223 16:17:54.725075 22088 net.cpp:408] conv1_1/conv -> conv1_1/conv
I0223 16:17:54.932819 22088 net.cpp:150] Setting up conv1_1/conv
I0223 16:17:54.932868 22088 net.cpp:157] Top shape: 1 16 432 720 (4976640)
I0223 16:17:54.932873 22088 net.cpp:165] Memory required for data: 64696404
I0223 16:17:54.932904 22088 layer_factory.hpp:77] Creating layer conv1_1/bn
I0223 16:17:54.932920 22088 net.cpp:100] Creating Layer conv1_1/bn
I0223 16:17:54.932925 22088 net.cpp:434] conv1_1/bn <- conv1_1/conv
I0223 16:17:54.932934 22088 net.cpp:395] conv1_1/bn -> conv1_1/conv (in-place)
I0223 16:17:54.934334 22088 net.cpp:150] Setting up conv1_1/bn
I0223 16:17:54.934348 22088 net.cpp:157] Top shape: 1 16 432 720 (4976640)
I0223 16:17:54.934353 22088 net.cpp:165] Memory required for data: 84602964
I0223 16:17:54.934365 22088 layer_factory.hpp:77] Creating layer conv1_1/conv_conv1_1/bn_0_split
I0223 16:17:54.934391 22088 net.cpp:100] Creating Layer conv1_1/conv_conv1_1/bn_0_split
I0223 16:17:54.934396 22088 net.cpp:434] conv1_1/conv_conv1_1/bn_0_split <- conv1_1/conv
I0223 16:17:54.934402 22088 net.cpp:408] conv1_1/conv_conv1_1/bn_0_split -> conv1_1/conv_conv1_1/bn_0_split_0
I0223 16:17:54.934413 22088 net.cpp:408] conv1_1/conv_conv1_1/bn_0_split -> conv1_1/conv_conv1_1/bn_0_split_1
I0223 16:17:54.934476 22088 net.cpp:150] Setting up conv1_1/conv_conv1_1/bn_0_split
I0223 16:17:54.934484 22088 net.cpp:157] Top shape: 1 16 432 720 (4976640)
I0223 16:17:54.934489 22088 net.cpp:157] Top shape: 1 16 432 720 (4976640)
I0223 16:17:54.934492 22088 net.cpp:165] Memory required for data: 124416084
I0223 16:17:54.934496 22088 layer_factory.hpp:77] Creating layer conv1_1/neg
I0223 16:17:54.934506 22088 net.cpp:100] Creating Layer conv1_1/neg
I0223 16:17:54.934510 22088 net.cpp:434] conv1_1/neg <- conv1_1/conv_conv1_1/bn_0_split_0
I0223 16:17:54.934517 22088 net.cpp:408] conv1_1/neg -> conv1_1/neg
I0223 16:17:54.934567 22088 net.cpp:150] Setting up conv1_1/neg
I0223 16:17:54.934574 22088 net.cpp:157] Top shape: 1 16 432 720 (4976640)
I0223 16:17:54.934578 22088 net.cpp:165] Memory required for data: 144322644
I0223 16:17:54.934581 22088 layer_factory.hpp:77] Creating layer conv1_1/concat
I0223 16:17:54.934593 22088 net.cpp:100] Creating Layer conv1_1/concat
I0223 16:17:54.934597 22088 net.cpp:434] conv1_1/concat <- conv1_1/conv_conv1_1/bn_0_split_1
I0223 16:17:54.934603 22088 net.cpp:434] conv1_1/concat <- conv1_1/neg
I0223 16:17:54.934608 22088 net.cpp:408] conv1_1/concat -> conv1_1
I0223 16:17:54.934643 22088 net.cpp:150] Setting up conv1_1/concat
I0223 16:17:54.934651 22088 net.cpp:157] Top shape: 1 32 432 720 (9953280)
I0223 16:17:54.934655 22088 net.cpp:165] Memory required for data: 184135764
I0223 16:17:54.934659 22088 layer_factory.hpp:77] Creating layer conv1_1/scale
I0223 16:17:54.934666 22088 net.cpp:100] Creating Layer conv1_1/scale
I0223 16:17:54.934670 22088 net.cpp:434] conv1_1/scale <- conv1_1
I0223 16:17:54.934675 22088 net.cpp:395] conv1_1/scale -> conv1_1 (in-place)
I0223 16:17:54.934761 22088 layer_factory.hpp:77] Creating layer conv1_1/scale
I0223 16:17:54.936905 22088 net.cpp:150] Setting up conv1_1/scale
I0223 16:17:54.936921 22088 net.cpp:157] Top shape: 1 32 432 720 (9953280)
I0223 16:17:54.936925 22088 net.cpp:165] Memory required for data: 223948884
I0223 16:17:54.936947 22088 layer_factory.hpp:77] Creating layer conv1_1/relu
I0223 16:17:54.936959 22088 net.cpp:100] Creating Layer conv1_1/relu
I0223 16:17:54.936962 22088 net.cpp:434] conv1_1/relu <- conv1_1
I0223 16:17:54.936969 22088 net.cpp:395] conv1_1/relu -> conv1_1 (in-place)
I0223 16:17:54.937352 22088 net.cpp:150] Setting up conv1_1/relu
I0223 16:17:54.937364 22088 net.cpp:157] Top shape: 1 32 432 720 (9953280)
I0223 16:17:54.937368 22088 net.cpp:165] Memory required for data: 263762004
I0223 16:17:54.937372 22088 layer_factory.hpp:77] Creating layer pool1
I0223 16:17:54.937382 22088 net.cpp:100] Creating Layer pool1
I0223 16:17:54.937386 22088 net.cpp:434] pool1 <- conv1_1
I0223 16:17:54.937391 22088 net.cpp:408] pool1 -> pool1
I0223 16:17:54.937471 22088 net.cpp:150] Setting up pool1
I0223 16:17:54.937479 22088 net.cpp:157] Top shape: 1 32 216 360 (2488320)
I0223 16:17:54.937482 22088 net.cpp:165] Memory required for data: 273715284
I0223 16:17:54.937486 22088 layer_factory.hpp:77] Creating layer pool1_pool1_0_split
I0223 16:17:54.937492 22088 net.cpp:100] Creating Layer pool1_pool1_0_split
I0223 16:17:54.937495 22088 net.cpp:434] pool1_pool1_0_split <- pool1
I0223 16:17:54.937502 22088 net.cpp:408] pool1_pool1_0_split -> pool1_pool1_0_split_0
I0223 16:17:54.937510 22088 net.cpp:408] pool1_pool1_0_split -> pool1_pool1_0_split_1
I0223 16:17:54.937579 22088 net.cpp:150] Setting up pool1_pool1_0_split
I0223 16:17:54.937587 22088 net.cpp:157] Top shape: 1 32 216 360 (2488320)
I0223 16:17:54.937592 22088 net.cpp:157] Top shape: 1 32 216 360 (2488320)
I0223 16:17:54.937594 22088 net.cpp:165] Memory required for data: 293621844
I0223 16:17:54.937598 22088 layer_factory.hpp:77] Creating layer conv2_1/1/conv
I0223 16:17:54.937611 22088 net.cpp:100] Creating Layer conv2_1/1/conv
I0223 16:17:54.937615 22088 net.cpp:434] conv2_1/1/conv <- pool1_pool1_0_split_0
I0223 16:17:54.937621 22088 net.cpp:408] conv2_1/1/conv -> conv2_1/1
I0223 16:17:54.939782 22088 net.cpp:150] Setting up conv2_1/1/conv
I0223 16:17:54.939797 22088 net.cpp:157] Top shape: 1 24 216 360 (1866240)
I0223 16:17:54.939800 22088 net.cpp:165] Memory required for data: 301086804
I0223 16:17:54.939806 22088 layer_factory.hpp:77] Creating layer conv2_1/1/bn
I0223 16:17:54.939816 22088 net.cpp:100] Creating Layer conv2_1/1/bn
I0223 16:17:54.939821 22088 net.cpp:434] conv2_1/1/bn <- conv2_1/1
I0223 16:17:54.939828 22088 net.cpp:395] conv2_1/1/bn -> conv2_1/1 (in-place)
I0223 16:17:54.940876 22088 net.cpp:150] Setting up conv2_1/1/bn
I0223 16:17:54.940891 22088 net.cpp:157] Top shape: 1 24 216 360 (1866240)
I0223 16:17:54.940894 22088 net.cpp:165] Memory required for data: 308551764
I0223 16:17:54.940904 22088 layer_factory.hpp:77] Creating layer conv2_1/1/bn_scale
I0223 16:17:54.940912 22088 net.cpp:100] Creating Layer conv2_1/1/bn_scale
I0223 16:17:54.940915 22088 net.cpp:434] conv2_1/1/bn_scale <- conv2_1/1
I0223 16:17:54.940922 22088 net.cpp:395] conv2_1/1/bn_scale -> conv2_1/1 (in-place)
I0223 16:17:54.940981 22088 layer_factory.hpp:77] Creating layer conv2_1/1/bn_scale
I0223 16:17:54.941242 22088 net.cpp:150] Setting up conv2_1/1/bn_scale
I0223 16:17:54.941251 22088 net.cpp:157] Top shape: 1 24 216 360 (1866240)
I0223 16:17:54.941254 22088 net.cpp:165] Memory required for data: 316016724
I0223 16:17:54.941260 22088 layer_factory.hpp:77] Creating layer conv2_1/1/relu
I0223 16:17:54.941269 22088 net.cpp:100] Creating Layer conv2_1/1/relu
I0223 16:17:54.941273 22088 net.cpp:434] conv2_1/1/relu <- conv2_1/1
I0223 16:17:54.941278 22088 net.cpp:395] conv2_1/1/relu -> conv2_1/1 (in-place)
I0223 16:17:54.941447 22088 net.cpp:150] Setting up conv2_1/1/relu
I0223 16:17:54.941454 22088 net.cpp:157] Top shape: 1 24 216 360 (1866240)
I0223 16:17:54.941457 22088 net.cpp:165] Memory required for data: 323481684
I0223 16:17:54.941462 22088 layer_factory.hpp:77] Creating layer conv2_1/2/conv
I0223 16:17:54.941469 22088 net.cpp:100] Creating Layer conv2_1/2/conv
I0223 16:17:54.941473 22088 net.cpp:434] conv2_1/2/conv <- conv2_1/1
I0223 16:17:54.941480 22088 net.cpp:408] conv2_1/2/conv -> conv2_1/2/conv
I0223 16:17:54.943470 22088 net.cpp:150] Setting up conv2_1/2/conv
I0223 16:17:54.943485 22088 net.cpp:157] Top shape: 1 24 216 360 (1866240)
I0223 16:17:54.943488 22088 net.cpp:165] Memory required for data: 330946644
I0223 16:17:54.943495 22088 layer_factory.hpp:77] Creating layer conv2_1/2/bn
I0223 16:17:54.943503 22088 net.cpp:100] Creating Layer conv2_1/2/bn
I0223 16:17:54.943507 22088 net.cpp:434] conv2_1/2/bn <- conv2_1/2/conv
I0223 16:17:54.943513 22088 net.cpp:395] conv2_1/2/bn -> conv2_1/2/conv (in-place)
I0223 16:17:54.944485 22088 net.cpp:150] Setting up conv2_1/2/bn
I0223 16:17:54.944497 22088 net.cpp:157] Top shape: 1 24 216 360 (1866240)
I0223 16:17:54.944500 22088 net.cpp:165] Memory required for data: 338411604
I0223 16:17:54.944509 22088 layer_factory.hpp:77] Creating layer conv2_1/2/conv_conv2_1/2/bn_0_split
I0223 16:17:54.944514 22088 net.cpp:100] Creating Layer conv2_1/2/conv_conv2_1/2/bn_0_split
I0223 16:17:54.944519 22088 net.cpp:434] conv2_1/2/conv_conv2_1/2/bn_0_split <- conv2_1/2/conv
I0223 16:17:54.944525 22088 net.cpp:408] conv2_1/2/conv_conv2_1/2/bn_0_split -> conv2_1/2/conv_conv2_1/2/bn_0_split_0
I0223 16:17:54.944532 22088 net.cpp:408] conv2_1/2/conv_conv2_1/2/bn_0_split -> conv2_1/2/conv_conv2_1/2/bn_0_split_1
I0223 16:17:54.944583 22088 net.cpp:150] Setting up conv2_1/2/conv_conv2_1/2/bn_0_split
I0223 16:17:54.944589 22088 net.cpp:157] Top shape: 1 24 216 360 (1866240)
I0223 16:17:54.944593 22088 net.cpp:157] Top shape: 1 24 216 360 (1866240)
I0223 16:17:54.944597 22088 net.cpp:165] Memory required for data: 353341524
I0223 16:17:54.944600 22088 layer_factory.hpp:77] Creating layer conv2_1/2/neg
I0223 16:17:54.944607 22088 net.cpp:100] Creating Layer conv2_1/2/neg
I0223 16:17:54.944609 22088 net.cpp:434] conv2_1/2/neg <- conv2_1/2/conv_conv2_1/2/bn_0_split_0
I0223 16:17:54.944617 22088 net.cpp:408] conv2_1/2/neg -> conv2_1/2/neg
I0223 16:17:54.944645 22088 net.cpp:150] Setting up conv2_1/2/neg
I0223 16:17:54.944651 22088 net.cpp:157] Top shape: 1 24 216 360 (1866240)
I0223 16:17:54.944654 22088 net.cpp:165] Memory required for data: 360806484
I0223 16:17:54.944658 22088 layer_factory.hpp:77] Creating layer conv2_1/2/concat
I0223 16:17:54.944665 22088 net.cpp:100] Creating Layer conv2_1/2/concat
I0223 16:17:54.944669 22088 net.cpp:434] conv2_1/2/concat <- conv2_1/2/conv_conv2_1/2/bn_0_split_1
I0223 16:17:54.944674 22088 net.cpp:434] conv2_1/2/concat <- conv2_1/2/neg
I0223 16:17:54.944679 22088 net.cpp:408] conv2_1/2/concat -> conv2_1/2
I0223 16:17:54.944710 22088 net.cpp:150] Setting up conv2_1/2/concat
I0223 16:17:54.944715 22088 net.cpp:157] Top shape: 1 48 216 360 (3732480)
I0223 16:17:54.944718 22088 net.cpp:165] Memory required for data: 375736404
I0223 16:17:54.944721 22088 layer_factory.hpp:77] Creating layer conv2_1/2/scale
I0223 16:17:54.944728 22088 net.cpp:100] Creating Layer conv2_1/2/scale
I0223 16:17:54.944731 22088 net.cpp:434] conv2_1/2/scale <- conv2_1/2
I0223 16:17:54.944737 22088 net.cpp:395] conv2_1/2/scale -> conv2_1/2 (in-place)
I0223 16:17:54.944800 22088 layer_factory.hpp:77] Creating layer conv2_1/2/scale
I0223 16:17:54.945050 22088 net.cpp:150] Setting up conv2_1/2/scale
I0223 16:17:54.945057 22088 net.cpp:157] Top shape: 1 48 216 360 (3732480)
I0223 16:17:54.945060 22088 net.cpp:165] Memory required for data: 390666324
I0223 16:17:54.945070 22088 layer_factory.hpp:77] Creating layer conv2_1/2/relu
I0223 16:17:54.945076 22088 net.cpp:100] Creating Layer conv2_1/2/relu
I0223 16:17:54.945080 22088 net.cpp:434] conv2_1/2/relu <- conv2_1/2
I0223 16:17:54.945085 22088 net.cpp:395] conv2_1/2/relu -> conv2_1/2 (in-place)
I0223 16:17:54.945256 22088 net.cpp:150] Setting up conv2_1/2/relu
I0223 16:17:54.945266 22088 net.cpp:157] Top shape: 1 48 216 360 (3732480)
I0223 16:17:54.945268 22088 net.cpp:165] Memory required for data: 405596244
I0223 16:17:54.945271 22088 layer_factory.hpp:77] Creating layer conv2_1/3/conv
I0223 16:17:54.945279 22088 net.cpp:100] Creating Layer conv2_1/3/conv
I0223 16:17:54.945283 22088 net.cpp:434] conv2_1/3/conv <- conv2_1/2
I0223 16:17:54.945296 22088 net.cpp:408] conv2_1/3/conv -> conv2_1/3
I0223 16:17:54.946636 22088 net.cpp:150] Setting up conv2_1/3/conv
I0223 16:17:54.946650 22088 net.cpp:157] Top shape: 1 64 216 360 (4976640)
I0223 16:17:54.946655 22088 net.cpp:165] Memory required for data: 425502804
I0223 16:17:54.946660 22088 layer_factory.hpp:77] Creating layer conv2_1/3/bn
I0223 16:17:54.946669 22088 net.cpp:100] Creating Layer conv2_1/3/bn
I0223 16:17:54.946688 22088 net.cpp:434] conv2_1/3/bn <- conv2_1/3
I0223 16:17:54.946696 22088 net.cpp:395] conv2_1/3/bn -> conv2_1/3 (in-place)
I0223 16:17:54.947655 22088 net.cpp:150] Setting up conv2_1/3/bn
I0223 16:17:54.947669 22088 net.cpp:157] Top shape: 1 64 216 360 (4976640)
I0223 16:17:54.947671 22088 net.cpp:165] Memory required for data: 445409364
I0223 16:17:54.947679 22088 layer_factory.hpp:77] Creating layer conv2_1/3/bn_scale
I0223 16:17:54.947688 22088 net.cpp:100] Creating Layer conv2_1/3/bn_scale
I0223 16:17:54.947692 22088 net.cpp:434] conv2_1/3/bn_scale <- conv2_1/3
I0223 16:17:54.947697 22088 net.cpp:395] conv2_1/3/bn_scale -> conv2_1/3 (in-place)
I0223 16:17:54.947752 22088 layer_factory.hpp:77] Creating layer conv2_1/3/bn_scale
I0223 16:17:54.948009 22088 net.cpp:150] Setting up conv2_1/3/bn_scale
I0223 16:17:54.948017 22088 net.cpp:157] Top shape: 1 64 216 360 (4976640)
I0223 16:17:54.948021 22088 net.cpp:165] Memory required for data: 465315924
I0223 16:17:54.948027 22088 layer_factory.hpp:77] Creating layer conv2_1/proj
I0223 16:17:54.948036 22088 net.cpp:100] Creating Layer conv2_1/proj
I0223 16:17:54.948040 22088 net.cpp:434] conv2_1/proj <- pool1_pool1_0_split_1
I0223 16:17:54.948046 22088 net.cpp:408] conv2_1/proj -> conv2_1/proj
I0223 16:17:54.950024 22088 net.cpp:150] Setting up conv2_1/proj
I0223 16:17:54.950038 22088 net.cpp:157] Top shape: 1 64 216 360 (4976640)
I0223 16:17:54.950042 22088 net.cpp:165] Memory required for data: 485222484
I0223 16:17:54.950048 22088 layer_factory.hpp:77] Creating layer conv2_1/proj_bn
I0223 16:17:54.950058 22088 net.cpp:100] Creating Layer conv2_1/proj_bn
I0223 16:17:54.950062 22088 net.cpp:434] conv2_1/proj_bn <- conv2_1/proj
I0223 16:17:54.950069 22088 net.cpp:395] conv2_1/proj_bn -> conv2_1/proj (in-place)
I0223 16:17:54.950510 22088 net.cpp:150] Setting up conv2_1/proj_bn
I0223 16:17:54.950521 22088 net.cpp:157] Top shape: 1 64 216 360 (4976640)
I0223 16:17:54.950539 22088 net.cpp:165] Memory required for data: 505129044
I0223 16:17:54.950547 22088 layer_factory.hpp:77] Creating layer conv2_1/proj_bn_scale
I0223 16:17:54.950553 22088 net.cpp:100] Creating Layer conv2_1/proj_bn_scale
I0223 16:17:54.950557 22088 net.cpp:434] conv2_1/proj_bn_scale <- conv2_1/proj
I0223 16:17:54.950564 22088 net.cpp:395] conv2_1/proj_bn_scale -> conv2_1/proj (in-place)
I0223 16:17:54.950625 22088 layer_factory.hpp:77] Creating layer conv2_1/proj_bn_scale
I0223 16:17:54.951537 22088 net.cpp:150] Setting up conv2_1/proj_bn_scale
I0223 16:17:54.951550 22088 net.cpp:157] Top shape: 1 64 216 360 (4976640)
I0223 16:17:54.951553 22088 net.cpp:165] Memory required for data: 525035604
I0223 16:17:54.951560 22088 layer_factory.hpp:77] Creating layer conv2_1
I0223 16:17:54.951567 22088 net.cpp:100] Creating Layer conv2_1
I0223 16:17:54.951571 22088 net.cpp:434] conv2_1 <- conv2_1/3
I0223 16:17:54.951575 22088 net.cpp:434] conv2_1 <- conv2_1/proj
I0223 16:17:54.951582 22088 net.cpp:408] conv2_1 -> conv2_1
I0223 16:17:54.951623 22088 net.cpp:150] Setting up conv2_1
I0223 16:17:54.951629 22088 net.cpp:157] Top shape: 1 64 216 360 (4976640)
I0223 16:17:54.951632 22088 net.cpp:165] Memory required for data: 544942164
I0223 16:17:54.951637 22088 layer_factory.hpp:77] Creating layer conv2_1_conv2_1_0_split
I0223 16:17:54.951643 22088 net.cpp:100] Creating Layer conv2_1_conv2_1_0_split
I0223 16:17:54.951647 22088 net.cpp:434] conv2_1_conv2_1_0_split <- conv2_1
I0223 16:17:54.951652 22088 net.cpp:408] conv2_1_conv2_1_0_split -> conv2_1_conv2_1_0_split_0
I0223 16:17:54.951659 22088 net.cpp:408] conv2_1_conv2_1_0_split -> conv2_1_conv2_1_0_split_1
I0223 16:17:54.951717 22088 net.cpp:150] Setting up conv2_1_conv2_1_0_split
I0223 16:17:54.951725 22088 net.cpp:157] Top shape: 1 64 216 360 (4976640)
I0223 16:17:54.951728 22088 net.cpp:157] Top shape: 1 64 216 360 (4976640)
I0223 16:17:54.951731 22088 net.cpp:165] Memory required for data: 584755284
I0223 16:17:54.951735 22088 layer_factory.hpp:77] Creating layer conv2_2/1/conv
I0223 16:17:54.951750 22088 net.cpp:100] Creating Layer conv2_2/1/conv
I0223 16:17:54.951753 22088 net.cpp:434] conv2_2/1/conv <- conv2_1_conv2_1_0_split_0
I0223 16:17:54.951759 22088 net.cpp:408] conv2_2/1/conv -> conv2_2/1
I0223 16:17:54.953006 22088 net.cpp:150] Setting up conv2_2/1/conv
I0223 16:17:54.953018 22088 net.cpp:157] Top shape: 1 24 216 360 (1866240)
I0223 16:17:54.953022 22088 net.cpp:165] Memory required for data: 592220244
I0223 16:17:54.953027 22088 layer_factory.hpp:77] Creating layer conv2_2/1/bn
I0223 16:17:54.953035 22088 net.cpp:100] Creating Layer conv2_2/1/bn
I0223 16:17:54.953039 22088 net.cpp:434] conv2_2/1/bn <- conv2_2/1
I0223 16:17:54.953045 22088 net.cpp:395] conv2_2/1/bn -> conv2_2/1 (in-place)
I0223 16:17:54.953397 22088 net.cpp:150] Setting up conv2_2/1/bn
I0223 16:17:54.953407 22088 net.cpp:157] Top shape: 1 24 216 360 (1866240)
I0223 16:17:54.953410 22088 net.cpp:165] Memory required for data: 599685204
I0223 16:17:54.953421 22088 layer_factory.hpp:77] Creating layer conv2_2/1/bn_scale
I0223 16:17:54.953430 22088 net.cpp:100] Creating Layer conv2_2/1/bn_scale
I0223 16:17:54.953434 22088 net.cpp:434] conv2_2/1/bn_scale <- conv2_2/1
I0223 16:17:54.953439 22088 net.cpp:395] conv2_2/1/bn_scale -> conv2_2/1 (in-place)
I0223 16:17:54.953493 22088 layer_factory.hpp:77] Creating layer conv2_2/1/bn_scale
I0223 16:17:54.954437 22088 net.cpp:150] Setting up conv2_2/1/bn_scale
I0223 16:17:54.954449 22088 net.cpp:157] Top shape: 1 24 216 360 (1866240)
I0223 16:17:54.954454 22088 net.cpp:165] Memory required for data: 607150164
I0223 16:17:54.954460 22088 layer_factory.hpp:77] Creating layer conv2_2/1/relu
I0223 16:17:54.954468 22088 net.cpp:100] Creating Layer conv2_2/1/relu
I0223 16:17:54.954471 22088 net.cpp:434] conv2_2/1/relu <- conv2_2/1
I0223 16:17:54.954478 22088 net.cpp:395] conv2_2/1/relu -> conv2_2/1 (in-place)
I0223 16:17:54.954699 22088 net.cpp:150] Setting up conv2_2/1/relu
I0223 16:17:54.954708 22088 net.cpp:157] Top shape: 1 24 216 360 (1866240)
I0223 16:17:54.954711 22088 net.cpp:165] Memory required for data: 614615124
I0223 16:17:54.954715 22088 layer_factory.hpp:77] Creating layer conv2_2/2/conv
I0223 16:17:54.954725 22088 net.cpp:100] Creating Layer conv2_2/2/conv
I0223 16:17:54.954728 22088 net.cpp:434] conv2_2/2/conv <- conv2_2/1
I0223 16:17:54.954735 22088 net.cpp:408] conv2_2/2/conv -> conv2_2/2/conv
I0223 16:17:54.956027 22088 net.cpp:150] Setting up conv2_2/2/conv
I0223 16:17:54.956040 22088 net.cpp:157] Top shape: 1 24 216 360 (1866240)
I0223 16:17:54.956043 22088 net.cpp:165] Memory required for data: 622080084
I0223 16:17:54.956049 22088 layer_factory.hpp:77] Creating layer conv2_2/2/bn
I0223 16:17:54.956058 22088 net.cpp:100] Creating Layer conv2_2/2/bn
I0223 16:17:54.956063 22088 net.cpp:434] conv2_2/2/bn <- conv2_2/2/conv
I0223 16:17:54.956069 22088 net.cpp:395] conv2_2/2/bn -> conv2_2/2/conv (in-place)
I0223 16:17:54.956420 22088 net.cpp:150] Setting up conv2_2/2/bn
I0223 16:17:54.956429 22088 net.cpp:157] Top shape: 1 24 216 360 (1866240)
I0223 16:17:54.956431 22088 net.cpp:165] Memory required for data: 629545044
I0223 16:17:54.956439 22088 layer_factory.hpp:77] Creating layer conv2_2/2/conv_conv2_2/2/bn_0_split
I0223 16:17:54.956444 22088 net.cpp:100] Creating Layer conv2_2/2/conv_conv2_2/2/bn_0_split
I0223 16:17:54.956449 22088 net.cpp:434] conv2_2/2/conv_conv2_2/2/bn_0_split <- conv2_2/2/conv
I0223 16:17:54.956454 22088 net.cpp:408] conv2_2/2/conv_conv2_2/2/bn_0_split -> conv2_2/2/conv_conv2_2/2/bn_0_split_0
I0223 16:17:54.956461 22088 net.cpp:408] conv2_2/2/conv_conv2_2/2/bn_0_split -> conv2_2/2/conv_conv2_2/2/bn_0_split_1
I0223 16:17:54.956516 22088 net.cpp:150] Setting up conv2_2/2/conv_conv2_2/2/bn_0_split
I0223 16:17:54.956527 22088 net.cpp:157] Top shape: 1 24 216 360 (1866240)
I0223 16:17:54.956532 22088 net.cpp:157] Top shape: 1 24 216 360 (1866240)
I0223 16:17:54.956535 22088 net.cpp:165] Memory required for data: 644474964
I0223 16:17:54.956538 22088 layer_factory.hpp:77] Creating layer conv2_2/2/neg
I0223 16:17:54.956544 22088 net.cpp:100] Creating Layer conv2_2/2/neg
I0223 16:17:54.956548 22088 net.cpp:434] conv2_2/2/neg <- conv2_2/2/conv_conv2_2/2/bn_0_split_0
I0223 16:17:54.956557 22088 net.cpp:408] conv2_2/2/neg -> conv2_2/2/neg
I0223 16:17:54.956594 22088 net.cpp:150] Setting up conv2_2/2/neg
I0223 16:17:54.956604 22088 net.cpp:157] Top shape: 1 24 216 360 (1866240)
I0223 16:17:54.956606 22088 net.cpp:165] Memory required for data: 651939924
I0223 16:17:54.956610 22088 layer_factory.hpp:77] Creating layer conv2_2/2/concat
I0223 16:17:54.956615 22088 net.cpp:100] Creating Layer conv2_2/2/concat
I0223 16:17:54.956619 22088 net.cpp:434] conv2_2/2/concat <- conv2_2/2/conv_conv2_2/2/bn_0_split_1
I0223 16:17:54.956624 22088 net.cpp:434] conv2_2/2/concat <- conv2_2/2/neg
I0223 16:17:54.956629 22088 net.cpp:408] conv2_2/2/concat -> conv2_2/2
I0223 16:17:54.956660 22088 net.cpp:150] Setting up conv2_2/2/concat
I0223 16:17:54.956668 22088 net.cpp:157] Top shape: 1 48 216 360 (3732480)
I0223 16:17:54.956671 22088 net.cpp:165] Memory required for data: 666869844
I0223 16:17:54.956674 22088 layer_factory.hpp:77] Creating layer conv2_2/2/scale
I0223 16:17:54.956679 22088 net.cpp:100] Creating Layer conv2_2/2/scale
I0223 16:17:54.956683 22088 net.cpp:434] conv2_2/2/scale <- conv2_2/2
I0223 16:17:54.956691 22088 net.cpp:395] conv2_2/2/scale -> conv2_2/2 (in-place)
I0223 16:17:54.956746 22088 layer_factory.hpp:77] Creating layer conv2_2/2/scale
I0223 16:17:54.957631 22088 net.cpp:150] Setting up conv2_2/2/scale
I0223 16:17:54.957644 22088 net.cpp:157] Top shape: 1 48 216 360 (3732480)
I0223 16:17:54.957648 22088 net.cpp:165] Memory required for data: 681799764
I0223 16:17:54.957653 22088 layer_factory.hpp:77] Creating layer conv2_2/2/relu
I0223 16:17:54.957660 22088 net.cpp:100] Creating Layer conv2_2/2/relu
I0223 16:17:54.957664 22088 net.cpp:434] conv2_2/2/relu <- conv2_2/2
I0223 16:17:54.957669 22088 net.cpp:395] conv2_2/2/relu -> conv2_2/2 (in-place)
I0223 16:17:54.958009 22088 net.cpp:150] Setting up conv2_2/2/relu
I0223 16:17:54.958021 22088 net.cpp:157] Top shape: 1 48 216 360 (3732480)
I0223 16:17:54.958024 22088 net.cpp:165] Memory required for data: 696729684
I0223 16:17:54.958029 22088 layer_factory.hpp:77] Creating layer conv2_2/3/conv
I0223 16:17:54.958039 22088 net.cpp:100] Creating Layer conv2_2/3/conv
I0223 16:17:54.958043 22088 net.cpp:434] conv2_2/3/conv <- conv2_2/2
I0223 16:17:54.958050 22088 net.cpp:408] conv2_2/3/conv -> conv2_2/3
I0223 16:17:54.959280 22088 net.cpp:150] Setting up conv2_2/3/conv
I0223 16:17:54.959296 22088 net.cpp:157] Top shape: 1 64 216 360 (4976640)
I0223 16:17:54.959300 22088 net.cpp:165] Memory required for data: 716636244
I0223 16:17:54.959306 22088 layer_factory.hpp:77] Creating layer conv2_2/3/bn
I0223 16:17:54.959312 22088 net.cpp:100] Creating Layer conv2_2/3/bn
I0223 16:17:54.959316 22088 net.cpp:434] conv2_2/3/bn <- conv2_2/3
I0223 16:17:54.959322 22088 net.cpp:395] conv2_2/3/bn -> conv2_2/3 (in-place)
I0223 16:17:54.959671 22088 net.cpp:150] Setting up conv2_2/3/bn
I0223 16:17:54.959678 22088 net.cpp:157] Top shape: 1 64 216 360 (4976640)
I0223 16:17:54.959681 22088 net.cpp:165] Memory required for data: 736542804
I0223 16:17:54.959687 22088 layer_factory.hpp:77] Creating layer conv2_2/3/bn_scale
I0223 16:17:54.959695 22088 net.cpp:100] Creating Layer conv2_2/3/bn_scale
I0223 16:17:54.959699 22088 net.cpp:434] conv2_2/3/bn_scale <- conv2_2/3
I0223 16:17:54.959704 22088 net.cpp:395] conv2_2/3/bn_scale -> conv2_2/3 (in-place)
I0223 16:17:54.959761 22088 layer_factory.hpp:77] Creating layer conv2_2/3/bn_scale
I0223 16:17:54.960642 22088 net.cpp:150] Setting up conv2_2/3/bn_scale
I0223 16:17:54.960655 22088 net.cpp:157] Top shape: 1 64 216 360 (4976640)
I0223 16:17:54.960664 22088 net.cpp:165] Memory required for data: 756449364
I0223 16:17:54.960669 22088 layer_factory.hpp:77] Creating layer conv2_2/input
I0223 16:17:54.960678 22088 net.cpp:100] Creating Layer conv2_2/input
I0223 16:17:54.960682 22088 net.cpp:434] conv2_2/input <- conv2_1_conv2_1_0_split_1
I0223 16:17:54.960688 22088 net.cpp:408] conv2_2/input -> conv2_2/input
I0223 16:17:54.960728 22088 net.cpp:150] Setting up conv2_2/input
I0223 16:17:54.960736 22088 net.cpp:157] Top shape: 1 64 216 360 (4976640)
I0223 16:17:54.960738 22088 net.cpp:165] Memory required for data: 776355924
I0223 16:17:54.960741 22088 layer_factory.hpp:77] Creating layer conv2_2
I0223 16:17:54.960749 22088 net.cpp:100] Creating Layer conv2_2
I0223 16:17:54.960752 22088 net.cpp:434] conv2_2 <- conv2_2/3
I0223 16:17:54.960757 22088 net.cpp:434] conv2_2 <- conv2_2/input
I0223 16:17:54.960763 22088 net.cpp:408] conv2_2 -> conv2_2
I0223 16:17:54.960799 22088 net.cpp:150] Setting up conv2_2
I0223 16:17:54.960806 22088 net.cpp:157] Top shape: 1 64 216 360 (4976640)
I0223 16:17:54.960809 22088 net.cpp:165] Memory required for data: 796262484
I0223 16:17:54.960813 22088 layer_factory.hpp:77] Creating layer conv2_2_conv2_2_0_split
I0223 16:17:54.960817 22088 net.cpp:100] Creating Layer conv2_2_conv2_2_0_split
I0223 16:17:54.960821 22088 net.cpp:434] conv2_2_conv2_2_0_split <- conv2_2
I0223 16:17:54.960829 22088 net.cpp:408] conv2_2_conv2_2_0_split -> conv2_2_conv2_2_0_split_0
I0223 16:17:54.960834 22088 net.cpp:408] conv2_2_conv2_2_0_split -> conv2_2_conv2_2_0_split_1
I0223 16:17:54.960886 22088 net.cpp:150] Setting up conv2_2_conv2_2_0_split
I0223 16:17:54.960891 22088 net.cpp:157] Top shape: 1 64 216 360 (4976640)
I0223 16:17:54.960896 22088 net.cpp:157] Top shape: 1 64 216 360 (4976640)
I0223 16:17:54.960898 22088 net.cpp:165] Memory required for data: 836075604
I0223 16:17:54.960901 22088 layer_factory.hpp:77] Creating layer conv2_3/1/conv
I0223 16:17:54.960911 22088 net.cpp:100] Creating Layer conv2_3/1/conv
I0223 16:17:54.960914 22088 net.cpp:434] conv2_3/1/conv <- conv2_2_conv2_2_0_split_0
I0223 16:17:54.960922 22088 net.cpp:408] conv2_3/1/conv -> conv2_3/1
I0223 16:17:54.962323 22088 net.cpp:150] Setting up conv2_3/1/conv
I0223 16:17:54.962338 22088 net.cpp:157] Top shape: 1 24 216 360 (1866240)
I0223 16:17:54.962342 22088 net.cpp:165] Memory required for data: 843540564
I0223 16:17:54.962347 22088 layer_factory.hpp:77] Creating layer conv2_3/1/bn
I0223 16:17:54.962357 22088 net.cpp:100] Creating Layer conv2_3/1/bn
I0223 16:17:54.962362 22088 net.cpp:434] conv2_3/1/bn <- conv2_3/1
I0223 16:17:54.962368 22088 net.cpp:395] conv2_3/1/bn -> conv2_3/1 (in-place)
I0223 16:17:54.962774 22088 net.cpp:150] Setting up conv2_3/1/bn
I0223 16:17:54.962782 22088 net.cpp:157] Top shape: 1 24 216 360 (1866240)
I0223 16:17:54.962785 22088 net.cpp:165] Memory required for data: 851005524
I0223 16:17:54.962792 22088 layer_factory.hpp:77] Creating layer conv2_3/1/bn_scale
I0223 16:17:54.962798 22088 net.cpp:100] Creating Layer conv2_3/1/bn_scale
I0223 16:17:54.962802 22088 net.cpp:434] conv2_3/1/bn_scale <- conv2_3/1
I0223 16:17:54.962808 22088 net.cpp:395] conv2_3/1/bn_scale -> conv2_3/1 (in-place)
I0223 16:17:54.962864 22088 layer_factory.hpp:77] Creating layer conv2_3/1/bn_scale
I0223 16:17:54.963747 22088 net.cpp:150] Setting up conv2_3/1/bn_scale
I0223 16:17:54.963759 22088 net.cpp:157] Top shape: 1 24 216 360 (1866240)
I0223 16:17:54.963762 22088 net.cpp:165] Memory required for data: 858470484
I0223 16:17:54.963768 22088 layer_factory.hpp:77] Creating layer conv2_3/1/relu
I0223 16:17:54.963775 22088 net.cpp:100] Creating Layer conv2_3/1/relu
I0223 16:17:54.963778 22088 net.cpp:434] conv2_3/1/relu <- conv2_3/1
I0223 16:17:54.963785 22088 net.cpp:395] conv2_3/1/relu -> conv2_3/1 (in-place)
I0223 16:17:54.964118 22088 net.cpp:150] Setting up conv2_3/1/relu
I0223 16:17:54.964129 22088 net.cpp:157] Top shape: 1 24 216 360 (1866240)
I0223 16:17:54.964133 22088 net.cpp:165] Memory required for data: 865935444
I0223 16:17:54.964136 22088 layer_factory.hpp:77] Creating layer conv2_3/2/conv
I0223 16:17:54.964150 22088 net.cpp:100] Creating Layer conv2_3/2/conv
I0223 16:17:54.964155 22088 net.cpp:434] conv2_3/2/conv <- conv2_3/1
I0223 16:17:54.964162 22088 net.cpp:408] conv2_3/2/conv -> conv2_3/2/conv
I0223 16:17:54.965451 22088 net.cpp:150] Setting up conv2_3/2/conv
I0223 16:17:54.965466 22088 net.cpp:157] Top shape: 1 24 216 360 (1866240)
I0223 16:17:54.965468 22088 net.cpp:165] Memory required for data: 873400404
I0223 16:17:54.965474 22088 layer_factory.hpp:77] Creating layer conv2_3/2/bn
I0223 16:17:54.965483 22088 net.cpp:100] Creating Layer conv2_3/2/bn
I0223 16:17:54.965487 22088 net.cpp:434] conv2_3/2/bn <- conv2_3/2/conv
I0223 16:17:54.965494 22088 net.cpp:395] conv2_3/2/bn -> conv2_3/2/conv (in-place)
I0223 16:17:54.965852 22088 net.cpp:150] Setting up conv2_3/2/bn
I0223 16:17:54.965860 22088 net.cpp:157] Top shape: 1 24 216 360 (1866240)
I0223 16:17:54.965863 22088 net.cpp:165] Memory required for data: 880865364
I0223 16:17:54.965869 22088 layer_factory.hpp:77] Creating layer conv2_3/2/conv_conv2_3/2/bn_0_split
I0223 16:17:54.965875 22088 net.cpp:100] Creating Layer conv2_3/2/conv_conv2_3/2/bn_0_split
I0223 16:17:54.965879 22088 net.cpp:434] conv2_3/2/conv_conv2_3/2/bn_0_split <- conv2_3/2/conv
I0223 16:17:54.965885 22088 net.cpp:408] conv2_3/2/conv_conv2_3/2/bn_0_split -> conv2_3/2/conv_conv2_3/2/bn_0_split_0
I0223 16:17:54.965893 22088 net.cpp:408] conv2_3/2/conv_conv2_3/2/bn_0_split -> conv2_3/2/conv_conv2_3/2/bn_0_split_1
I0223 16:17:54.965948 22088 net.cpp:150] Setting up conv2_3/2/conv_conv2_3/2/bn_0_split
I0223 16:17:54.965955 22088 net.cpp:157] Top shape: 1 24 216 360 (1866240)
I0223 16:17:54.965960 22088 net.cpp:157] Top shape: 1 24 216 360 (1866240)
I0223 16:17:54.965961 22088 net.cpp:165] Memory required for data: 895795284
I0223 16:17:54.965965 22088 layer_factory.hpp:77] Creating layer conv2_3/2/neg
I0223 16:17:54.965971 22088 net.cpp:100] Creating Layer conv2_3/2/neg
I0223 16:17:54.965975 22088 net.cpp:434] conv2_3/2/neg <- conv2_3/2/conv_conv2_3/2/bn_0_split_0
I0223 16:17:54.965981 22088 net.cpp:408] conv2_3/2/neg -> conv2_3/2/neg
I0223 16:17:54.966012 22088 net.cpp:150] Setting up conv2_3/2/neg
I0223 16:17:54.966019 22088 net.cpp:157] Top shape: 1 24 216 360 (1866240)
I0223 16:17:54.966022 22088 net.cpp:165] Memory required for data: 903260244
I0223 16:17:54.966025 22088 layer_factory.hpp:77] Creating layer conv2_3/2/concat
I0223 16:17:54.966032 22088 net.cpp:100] Creating Layer conv2_3/2/concat
I0223 16:17:54.966035 22088 net.cpp:434] conv2_3/2/concat <- conv2_3/2/conv_conv2_3/2/bn_0_split_1
I0223 16:17:54.966040 22088 net.cpp:434] conv2_3/2/concat <- conv2_3/2/neg
I0223 16:17:54.966044 22088 net.cpp:408] conv2_3/2/concat -> conv2_3/2
I0223 16:17:54.966076 22088 net.cpp:150] Setting up conv2_3/2/concat
I0223 16:17:54.966083 22088 net.cpp:157] Top shape: 1 48 216 360 (3732480)
I0223 16:17:54.966085 22088 net.cpp:165] Memory required for data: 918190164
I0223 16:17:54.966089 22088 layer_factory.hpp:77] Creating layer conv2_3/2/scale
I0223 16:17:54.966094 22088 net.cpp:100] Creating Layer conv2_3/2/scale
I0223 16:17:54.966099 22088 net.cpp:434] conv2_3/2/scale <- conv2_3/2
I0223 16:17:54.966104 22088 net.cpp:395] conv2_3/2/scale -> conv2_3/2 (in-place)
I0223 16:17:54.966166 22088 layer_factory.hpp:77] Creating layer conv2_3/2/scale
I0223 16:17:54.967145 22088 net.cpp:150] Setting up conv2_3/2/scale
I0223 16:17:54.967159 22088 net.cpp:157] Top shape: 1 48 216 360 (3732480)
I0223 16:17:54.967162 22088 net.cpp:165] Memory required for data: 933120084
I0223 16:17:54.967169 22088 layer_factory.hpp:77] Creating layer conv2_3/2/relu
I0223 16:17:54.967175 22088 net.cpp:100] Creating Layer conv2_3/2/relu
I0223 16:17:54.967178 22088 net.cpp:434] conv2_3/2/relu <- conv2_3/2
I0223 16:17:54.967183 22088 net.cpp:395] conv2_3/2/relu -> conv2_3/2 (in-place)
I0223 16:17:54.967355 22088 net.cpp:150] Setting up conv2_3/2/relu
I0223 16:17:54.967365 22088 net.cpp:157] Top shape: 1 48 216 360 (3732480)
I0223 16:17:54.967367 22088 net.cpp:165] Memory required for data: 948050004
I0223 16:17:54.967378 22088 layer_factory.hpp:77] Creating layer conv2_3/3/conv
I0223 16:17:54.967387 22088 net.cpp:100] Creating Layer conv2_3/3/conv
I0223 16:17:54.967391 22088 net.cpp:434] conv2_3/3/conv <- conv2_3/2
I0223 16:17:54.967398 22088 net.cpp:408] conv2_3/3/conv -> conv2_3/3
I0223 16:17:54.968683 22088 net.cpp:150] Setting up conv2_3/3/conv
I0223 16:17:54.968698 22088 net.cpp:157] Top shape: 1 64 216 360 (4976640)
I0223 16:17:54.968700 22088 net.cpp:165] Memory required for data: 967956564
I0223 16:17:54.968706 22088 layer_factory.hpp:77] Creating layer conv2_3/3/bn
I0223 16:17:54.968715 22088 net.cpp:100] Creating Layer conv2_3/3/bn
I0223 16:17:54.968719 22088 net.cpp:434] conv2_3/3/bn <- conv2_3/3
I0223 16:17:54.968724 22088 net.cpp:395] conv2_3/3/bn -> conv2_3/3 (in-place)
I0223 16:17:54.969084 22088 net.cpp:150] Setting up conv2_3/3/bn
I0223 16:17:54.969094 22088 net.cpp:157] Top shape: 1 64 216 360 (4976640)
I0223 16:17:54.969097 22088 net.cpp:165] Memory required for data: 987863124
I0223 16:17:54.969112 22088 layer_factory.hpp:77] Creating layer conv2_3/3/bn_scale
I0223 16:17:54.969121 22088 net.cpp:100] Creating Layer conv2_3/3/bn_scale
I0223 16:17:54.969125 22088 net.cpp:434] conv2_3/3/bn_scale <- conv2_3/3
I0223 16:17:54.969130 22088 net.cpp:395] conv2_3/3/bn_scale -> conv2_3/3 (in-place)
I0223 16:17:54.969188 22088 layer_factory.hpp:77] Creating layer conv2_3/3/bn_scale
I0223 16:17:54.970070 22088 net.cpp:150] Setting up conv2_3/3/bn_scale
I0223 16:17:54.970082 22088 net.cpp:157] Top shape: 1 64 216 360 (4976640)
I0223 16:17:54.970085 22088 net.cpp:165] Memory required for data: 1007769684
I0223 16:17:54.970093 22088 layer_factory.hpp:77] Creating layer conv2_3/input
I0223 16:17:54.970098 22088 net.cpp:100] Creating Layer conv2_3/input
I0223 16:17:54.970103 22088 net.cpp:434] conv2_3/input <- conv2_2_conv2_2_0_split_1
I0223 16:17:54.970109 22088 net.cpp:408] conv2_3/input -> conv2_3/input
I0223 16:17:54.970151 22088 net.cpp:150] Setting up conv2_3/input
I0223 16:17:54.970158 22088 net.cpp:157] Top shape: 1 64 216 360 (4976640)
I0223 16:17:54.970161 22088 net.cpp:165] Memory required for data: 1027676244
I0223 16:17:54.970165 22088 layer_factory.hpp:77] Creating layer conv2_3
I0223 16:17:54.970202 22088 net.cpp:100] Creating Layer conv2_3
I0223 16:17:54.970207 22088 net.cpp:434] conv2_3 <- conv2_3/3
I0223 16:17:54.970212 22088 net.cpp:434] conv2_3 <- conv2_3/input
I0223 16:17:54.970218 22088 net.cpp:408] conv2_3 -> conv2_3
I0223 16:17:54.970255 22088 net.cpp:150] Setting up conv2_3
I0223 16:17:54.970263 22088 net.cpp:157] Top shape: 1 64 216 360 (4976640)
I0223 16:17:54.970265 22088 net.cpp:165] Memory required for data: 1047582804
I0223 16:17:54.970269 22088 layer_factory.hpp:77] Creating layer conv2_3_conv2_3_0_split
I0223 16:17:54.970278 22088 net.cpp:100] Creating Layer conv2_3_conv2_3_0_split
I0223 16:17:54.970281 22088 net.cpp:434] conv2_3_conv2_3_0_split <- conv2_3
I0223 16:17:54.970286 22088 net.cpp:408] conv2_3_conv2_3_0_split -> conv2_3_conv2_3_0_split_0
I0223 16:17:54.970294 22088 net.cpp:408] conv2_3_conv2_3_0_split -> conv2_3_conv2_3_0_split_1
I0223 16:17:54.970350 22088 net.cpp:150] Setting up conv2_3_conv2_3_0_split
I0223 16:17:54.970355 22088 net.cpp:157] Top shape: 1 64 216 360 (4976640)
I0223 16:17:54.970360 22088 net.cpp:157] Top shape: 1 64 216 360 (4976640)
I0223 16:17:54.970363 22088 net.cpp:165] Memory required for data: 1087395924
I0223 16:17:54.970366 22088 layer_factory.hpp:77] Creating layer conv3_1/1/conv
I0223 16:17:54.970378 22088 net.cpp:100] Creating Layer conv3_1/1/conv
I0223 16:17:54.970382 22088 net.cpp:434] conv3_1/1/conv <- conv2_3_conv2_3_0_split_0
I0223 16:17:54.970388 22088 net.cpp:408] conv3_1/1/conv -> conv3_1/1
I0223 16:17:54.971694 22088 net.cpp:150] Setting up conv3_1/1/conv
I0223 16:17:54.971709 22088 net.cpp:157] Top shape: 1 48 108 180 (933120)
I0223 16:17:54.971711 22088 net.cpp:165] Memory required for data: 1091128404
I0223 16:17:54.971717 22088 layer_factory.hpp:77] Creating layer conv3_1/1/bn
I0223 16:17:54.971725 22088 net.cpp:100] Creating Layer conv3_1/1/bn
I0223 16:17:54.971735 22088 net.cpp:434] conv3_1/1/bn <- conv3_1/1
I0223 16:17:54.971740 22088 net.cpp:395] conv3_1/1/bn -> conv3_1/1 (in-place)
I0223 16:17:54.972693 22088 net.cpp:150] Setting up conv3_1/1/bn
I0223 16:17:54.972707 22088 net.cpp:157] Top shape: 1 48 108 180 (933120)
I0223 16:17:54.972709 22088 net.cpp:165] Memory required for data: 1094860884
I0223 16:17:54.972718 22088 layer_factory.hpp:77] Creating layer conv3_1/1/bn_scale
I0223 16:17:54.972725 22088 net.cpp:100] Creating Layer conv3_1/1/bn_scale
I0223 16:17:54.972729 22088 net.cpp:434] conv3_1/1/bn_scale <- conv3_1/1
I0223 16:17:54.972734 22088 net.cpp:395] conv3_1/1/bn_scale -> conv3_1/1 (in-place)
I0223 16:17:54.972797 22088 layer_factory.hpp:77] Creating layer conv3_1/1/bn_scale
I0223 16:17:54.973016 22088 net.cpp:150] Setting up conv3_1/1/bn_scale
I0223 16:17:54.973024 22088 net.cpp:157] Top shape: 1 48 108 180 (933120)
I0223 16:17:54.973027 22088 net.cpp:165] Memory required for data: 1098593364
I0223 16:17:54.973032 22088 layer_factory.hpp:77] Creating layer conv3_1/1/relu
I0223 16:17:54.973038 22088 net.cpp:100] Creating Layer conv3_1/1/relu
I0223 16:17:54.973042 22088 net.cpp:434] conv3_1/1/relu <- conv3_1/1
I0223 16:17:54.973047 22088 net.cpp:395] conv3_1/1/relu -> conv3_1/1 (in-place)
I0223 16:17:54.973222 22088 net.cpp:150] Setting up conv3_1/1/relu
I0223 16:17:54.973230 22088 net.cpp:157] Top shape: 1 48 108 180 (933120)
I0223 16:17:54.973234 22088 net.cpp:165] Memory required for data: 1102325844
I0223 16:17:54.973237 22088 layer_factory.hpp:77] Creating layer conv3_1/2/conv
I0223 16:17:54.973247 22088 net.cpp:100] Creating Layer conv3_1/2/conv
I0223 16:17:54.973250 22088 net.cpp:434] conv3_1/2/conv <- conv3_1/1
I0223 16:17:54.973255 22088 net.cpp:408] conv3_1/2/conv -> conv3_1/2/conv
I0223 16:17:54.974578 22088 net.cpp:150] Setting up conv3_1/2/conv
I0223 16:17:54.974594 22088 net.cpp:157] Top shape: 1 48 108 180 (933120)
I0223 16:17:54.974598 22088 net.cpp:165] Memory required for data: 1106058324
I0223 16:17:54.974603 22088 layer_factory.hpp:77] Creating layer conv3_1/2/bn
I0223 16:17:54.974611 22088 net.cpp:100] Creating Layer conv3_1/2/bn
I0223 16:17:54.974616 22088 net.cpp:434] conv3_1/2/bn <- conv3_1/2/conv
I0223 16:17:54.974623 22088 net.cpp:395] conv3_1/2/bn -> conv3_1/2/conv (in-place)
I0223 16:17:54.974962 22088 net.cpp:150] Setting up conv3_1/2/bn
I0223 16:17:54.974972 22088 net.cpp:157] Top shape: 1 48 108 180 (933120)
I0223 16:17:54.974974 22088 net.cpp:165] Memory required for data: 1109790804
I0223 16:17:54.974980 22088 layer_factory.hpp:77] Creating layer conv3_1/2/conv_conv3_1/2/bn_0_split
I0223 16:17:54.974988 22088 net.cpp:100] Creating Layer conv3_1/2/conv_conv3_1/2/bn_0_split
I0223 16:17:54.974992 22088 net.cpp:434] conv3_1/2/conv_conv3_1/2/bn_0_split <- conv3_1/2/conv
I0223 16:17:54.974998 22088 net.cpp:408] conv3_1/2/conv_conv3_1/2/bn_0_split -> conv3_1/2/conv_conv3_1/2/bn_0_split_0
I0223 16:17:54.975004 22088 net.cpp:408] conv3_1/2/conv_conv3_1/2/bn_0_split -> conv3_1/2/conv_conv3_1/2/bn_0_split_1
I0223 16:17:54.975061 22088 net.cpp:150] Setting up conv3_1/2/conv_conv3_1/2/bn_0_split
I0223 16:17:54.975069 22088 net.cpp:157] Top shape: 1 48 108 180 (933120)
I0223 16:17:54.975072 22088 net.cpp:157] Top shape: 1 48 108 180 (933120)
I0223 16:17:54.975075 22088 net.cpp:165] Memory required for data: 1117255764
I0223 16:17:54.975078 22088 layer_factory.hpp:77] Creating layer conv3_1/2/neg
I0223 16:17:54.975085 22088 net.cpp:100] Creating Layer conv3_1/2/neg
I0223 16:17:54.975088 22088 net.cpp:434] conv3_1/2/neg <- conv3_1/2/conv_conv3_1/2/bn_0_split_0
I0223 16:17:54.975095 22088 net.cpp:408] conv3_1/2/neg -> conv3_1/2/neg
I0223 16:17:54.975127 22088 net.cpp:150] Setting up conv3_1/2/neg
I0223 16:17:54.975133 22088 net.cpp:157] Top shape: 1 48 108 180 (933120)
I0223 16:17:54.975136 22088 net.cpp:165] Memory required for data: 1120988244
I0223 16:17:54.975139 22088 layer_factory.hpp:77] Creating layer conv3_1/2/concat
I0223 16:17:54.975145 22088 net.cpp:100] Creating Layer conv3_1/2/concat
I0223 16:17:54.975153 22088 net.cpp:434] conv3_1/2/concat <- conv3_1/2/conv_conv3_1/2/bn_0_split_1
I0223 16:17:54.975160 22088 net.cpp:434] conv3_1/2/concat <- conv3_1/2/neg
I0223 16:17:54.975165 22088 net.cpp:408] conv3_1/2/concat -> conv3_1/2
I0223 16:17:54.975198 22088 net.cpp:150] Setting up conv3_1/2/concat
I0223 16:17:54.975205 22088 net.cpp:157] Top shape: 1 96 108 180 (1866240)
I0223 16:17:54.975208 22088 net.cpp:165] Memory required for data: 1128453204
I0223 16:17:54.975213 22088 layer_factory.hpp:77] Creating layer conv3_1/2/scale
I0223 16:17:54.975217 22088 net.cpp:100] Creating Layer conv3_1/2/scale
I0223 16:17:54.975221 22088 net.cpp:434] conv3_1/2/scale <- conv3_1/2
I0223 16:17:54.975225 22088 net.cpp:395] conv3_1/2/scale -> conv3_1/2 (in-place)
I0223 16:17:54.975284 22088 layer_factory.hpp:77] Creating layer conv3_1/2/scale
I0223 16:17:54.975488 22088 net.cpp:150] Setting up conv3_1/2/scale
I0223 16:17:54.975495 22088 net.cpp:157] Top shape: 1 96 108 180 (1866240)
I0223 16:17:54.975499 22088 net.cpp:165] Memory required for data: 1135918164
I0223 16:17:54.975504 22088 layer_factory.hpp:77] Creating layer conv3_1/2/relu
I0223 16:17:54.975510 22088 net.cpp:100] Creating Layer conv3_1/2/relu
I0223 16:17:54.975513 22088 net.cpp:434] conv3_1/2/relu <- conv3_1/2
I0223 16:17:54.975519 22088 net.cpp:395] conv3_1/2/relu -> conv3_1/2 (in-place)
I0223 16:17:54.975848 22088 net.cpp:150] Setting up conv3_1/2/relu
I0223 16:17:54.975860 22088 net.cpp:157] Top shape: 1 96 108 180 (1866240)
I0223 16:17:54.975863 22088 net.cpp:165] Memory required for data: 1143383124
I0223 16:17:54.975867 22088 layer_factory.hpp:77] Creating layer conv3_1/3/conv
I0223 16:17:54.975877 22088 net.cpp:100] Creating Layer conv3_1/3/conv
I0223 16:17:54.975880 22088 net.cpp:434] conv3_1/3/conv <- conv3_1/2
I0223 16:17:54.975888 22088 net.cpp:408] conv3_1/3/conv -> conv3_1/3
I0223 16:17:54.977095 22088 net.cpp:150] Setting up conv3_1/3/conv
I0223 16:17:54.977111 22088 net.cpp:157] Top shape: 1 128 108 180 (2488320)
I0223 16:17:54.977114 22088 net.cpp:165] Memory required for data: 1153336404
I0223 16:17:54.977120 22088 layer_factory.hpp:77] Creating layer conv3_1/3/bn
I0223 16:17:54.977126 22088 net.cpp:100] Creating Layer conv3_1/3/bn
I0223 16:17:54.977130 22088 net.cpp:434] conv3_1/3/bn <- conv3_1/3
I0223 16:17:54.977136 22088 net.cpp:395] conv3_1/3/bn -> conv3_1/3 (in-place)
I0223 16:17:54.977458 22088 net.cpp:150] Setting up conv3_1/3/bn
I0223 16:17:54.977465 22088 net.cpp:157] Top shape: 1 128 108 180 (2488320)
I0223 16:17:54.977468 22088 net.cpp:165] Memory required for data: 1163289684
I0223 16:17:54.977475 22088 layer_factory.hpp:77] Creating layer conv3_1/3/bn_scale
I0223 16:17:54.977483 22088 net.cpp:100] Creating Layer conv3_1/3/bn_scale
I0223 16:17:54.977486 22088 net.cpp:434] conv3_1/3/bn_scale <- conv3_1/3
I0223 16:17:54.977491 22088 net.cpp:395] conv3_1/3/bn_scale -> conv3_1/3 (in-place)
I0223 16:17:54.977550 22088 layer_factory.hpp:77] Creating layer conv3_1/3/bn_scale
I0223 16:17:54.977743 22088 net.cpp:150] Setting up conv3_1/3/bn_scale
I0223 16:17:54.977751 22088 net.cpp:157] Top shape: 1 128 108 180 (2488320)
I0223 16:17:54.977754 22088 net.cpp:165] Memory required for data: 1173242964
I0223 16:17:54.977759 22088 layer_factory.hpp:77] Creating layer conv3_1/proj
I0223 16:17:54.977769 22088 net.cpp:100] Creating Layer conv3_1/proj
I0223 16:17:54.977773 22088 net.cpp:434] conv3_1/proj <- conv2_3_conv2_3_0_split_1
I0223 16:17:54.977779 22088 net.cpp:408] conv3_1/proj -> conv3_1/proj
I0223 16:17:54.979126 22088 net.cpp:150] Setting up conv3_1/proj
I0223 16:17:54.979140 22088 net.cpp:157] Top shape: 1 128 108 180 (2488320)
I0223 16:17:54.979143 22088 net.cpp:165] Memory required for data: 1183196244
I0223 16:17:54.979151 22088 layer_factory.hpp:77] Creating layer conv3_1/proj_bn
I0223 16:17:54.979158 22088 net.cpp:100] Creating Layer conv3_1/proj_bn
I0223 16:17:54.979162 22088 net.cpp:434] conv3_1/proj_bn <- conv3_1/proj
I0223 16:17:54.979167 22088 net.cpp:395] conv3_1/proj_bn -> conv3_1/proj (in-place)
I0223 16:17:54.979491 22088 net.cpp:150] Setting up conv3_1/proj_bn
I0223 16:17:54.979503 22088 net.cpp:157] Top shape: 1 128 108 180 (2488320)
I0223 16:17:54.979507 22088 net.cpp:165] Memory required for data: 1193149524
I0223 16:17:54.979514 22088 layer_factory.hpp:77] Creating layer conv3_1/proj_bn_scale
I0223 16:17:54.979521 22088 net.cpp:100] Creating Layer conv3_1/proj_bn_scale
I0223 16:17:54.979524 22088 net.cpp:434] conv3_1/proj_bn_scale <- conv3_1/proj
I0223 16:17:54.979531 22088 net.cpp:395] conv3_1/proj_bn_scale -> conv3_1/proj (in-place)
I0223 16:17:54.979590 22088 layer_factory.hpp:77] Creating layer conv3_1/proj_bn_scale
I0223 16:17:54.980449 22088 net.cpp:150] Setting up conv3_1/proj_bn_scale
I0223 16:17:54.980461 22088 net.cpp:157] Top shape: 1 128 108 180 (2488320)
I0223 16:17:54.980465 22088 net.cpp:165] Memory required for data: 1203102804
I0223 16:17:54.980471 22088 layer_factory.hpp:77] Creating layer conv3_1
I0223 16:17:54.980479 22088 net.cpp:100] Creating Layer conv3_1
I0223 16:17:54.980481 22088 net.cpp:434] conv3_1 <- conv3_1/3
I0223 16:17:54.980486 22088 net.cpp:434] conv3_1 <- conv3_1/proj
I0223 16:17:54.980491 22088 net.cpp:408] conv3_1 -> conv3_1
I0223 16:17:54.980533 22088 net.cpp:150] Setting up conv3_1
I0223 16:17:54.980541 22088 net.cpp:157] Top shape: 1 128 108 180 (2488320)
I0223 16:17:54.980545 22088 net.cpp:165] Memory required for data: 1213056084
I0223 16:17:54.980547 22088 layer_factory.hpp:77] Creating layer conv3_1_conv3_1_0_split
I0223 16:17:54.980554 22088 net.cpp:100] Creating Layer conv3_1_conv3_1_0_split
I0223 16:17:54.980558 22088 net.cpp:434] conv3_1_conv3_1_0_split <- conv3_1
I0223 16:17:54.980563 22088 net.cpp:408] conv3_1_conv3_1_0_split -> conv3_1_conv3_1_0_split_0
I0223 16:17:54.980569 22088 net.cpp:408] conv3_1_conv3_1_0_split -> conv3_1_conv3_1_0_split_1
I0223 16:17:54.980626 22088 net.cpp:150] Setting up conv3_1_conv3_1_0_split
I0223 16:17:54.980634 22088 net.cpp:157] Top shape: 1 128 108 180 (2488320)
I0223 16:17:54.980638 22088 net.cpp:157] Top shape: 1 128 108 180 (2488320)
I0223 16:17:54.980641 22088 net.cpp:165] Memory required for data: 1232962644
I0223 16:17:54.980644 22088 layer_factory.hpp:77] Creating layer conv3_2/1/conv
I0223 16:17:54.980651 22088 net.cpp:100] Creating Layer conv3_2/1/conv
I0223 16:17:54.980655 22088 net.cpp:434] conv3_2/1/conv <- conv3_1_conv3_1_0_split_0
I0223 16:17:54.980662 22088 net.cpp:408] conv3_2/1/conv -> conv3_2/1
I0223 16:17:54.981992 22088 net.cpp:150] Setting up conv3_2/1/conv
I0223 16:17:54.982005 22088 net.cpp:157] Top shape: 1 48 108 180 (933120)
I0223 16:17:54.982009 22088 net.cpp:165] Memory required for data: 1236695124
I0223 16:17:54.982014 22088 layer_factory.hpp:77] Creating layer conv3_2/1/bn
I0223 16:17:54.982023 22088 net.cpp:100] Creating Layer conv3_2/1/bn
I0223 16:17:54.982028 22088 net.cpp:434] conv3_2/1/bn <- conv3_2/1
I0223 16:17:54.982034 22088 net.cpp:395] conv3_2/1/bn -> conv3_2/1 (in-place)
I0223 16:17:54.982417 22088 net.cpp:150] Setting up conv3_2/1/bn
I0223 16:17:54.982426 22088 net.cpp:157] Top shape: 1 48 108 180 (933120)
I0223 16:17:54.982429 22088 net.cpp:165] Memory required for data: 1240427604
I0223 16:17:54.982437 22088 layer_factory.hpp:77] Creating layer conv3_2/1/bn_scale
I0223 16:17:54.982445 22088 net.cpp:100] Creating Layer conv3_2/1/bn_scale
I0223 16:17:54.982447 22088 net.cpp:434] conv3_2/1/bn_scale <- conv3_2/1
I0223 16:17:54.982455 22088 net.cpp:395] conv3_2/1/bn_scale -> conv3_2/1 (in-place)
I0223 16:17:54.982519 22088 layer_factory.hpp:77] Creating layer conv3_2/1/bn_scale
I0223 16:17:54.982758 22088 net.cpp:150] Setting up conv3_2/1/bn_scale
I0223 16:17:54.982765 22088 net.cpp:157] Top shape: 1 48 108 180 (933120)
I0223 16:17:54.982769 22088 net.cpp:165] Memory required for data: 1244160084
I0223 16:17:54.982774 22088 layer_factory.hpp:77] Creating layer conv3_2/1/relu
I0223 16:17:54.982781 22088 net.cpp:100] Creating Layer conv3_2/1/relu
I0223 16:17:54.982784 22088 net.cpp:434] conv3_2/1/relu <- conv3_2/1
I0223 16:17:54.982789 22088 net.cpp:395] conv3_2/1/relu -> conv3_2/1 (in-place)
I0223 16:17:54.983129 22088 net.cpp:150] Setting up conv3_2/1/relu
I0223 16:17:54.983142 22088 net.cpp:157] Top shape: 1 48 108 180 (933120)
I0223 16:17:54.983146 22088 net.cpp:165] Memory required for data: 1247892564
I0223 16:17:54.983150 22088 layer_factory.hpp:77] Creating layer conv3_2/2/conv
I0223 16:17:54.983160 22088 net.cpp:100] Creating Layer conv3_2/2/conv
I0223 16:17:54.983163 22088 net.cpp:434] conv3_2/2/conv <- conv3_2/1
I0223 16:17:54.983168 22088 net.cpp:408] conv3_2/2/conv -> conv3_2/2/conv
I0223 16:17:54.984308 22088 net.cpp:150] Setting up conv3_2/2/conv
I0223 16:17:54.984321 22088 net.cpp:157] Top shape: 1 48 108 180 (933120)
I0223 16:17:54.984324 22088 net.cpp:165] Memory required for data: 1251625044
I0223 16:17:54.984330 22088 layer_factory.hpp:77] Creating layer conv3_2/2/bn
I0223 16:17:54.984338 22088 net.cpp:100] Creating Layer conv3_2/2/bn
I0223 16:17:54.984342 22088 net.cpp:434] conv3_2/2/bn <- conv3_2/2/conv
I0223 16:17:54.984347 22088 net.cpp:395] conv3_2/2/bn -> conv3_2/2/conv (in-place)
I0223 16:17:54.984683 22088 net.cpp:150] Setting up conv3_2/2/bn
I0223 16:17:54.984691 22088 net.cpp:157] Top shape: 1 48 108 180 (933120)
I0223 16:17:54.984694 22088 net.cpp:165] Memory required for data: 1255357524
I0223 16:17:54.984701 22088 layer_factory.hpp:77] Creating layer conv3_2/2/conv_conv3_2/2/bn_0_split
I0223 16:17:54.984706 22088 net.cpp:100] Creating Layer conv3_2/2/conv_conv3_2/2/bn_0_split
I0223 16:17:54.984710 22088 net.cpp:434] conv3_2/2/conv_conv3_2/2/bn_0_split <- conv3_2/2/conv
I0223 16:17:54.984717 22088 net.cpp:408] conv3_2/2/conv_conv3_2/2/bn_0_split -> conv3_2/2/conv_conv3_2/2/bn_0_split_0
I0223 16:17:54.984724 22088 net.cpp:408] conv3_2/2/conv_conv3_2/2/bn_0_split -> conv3_2/2/conv_conv3_2/2/bn_0_split_1
I0223 16:17:54.984791 22088 net.cpp:150] Setting up conv3_2/2/conv_conv3_2/2/bn_0_split
I0223 16:17:54.984798 22088 net.cpp:157] Top shape: 1 48 108 180 (933120)
I0223 16:17:54.984802 22088 net.cpp:157] Top shape: 1 48 108 180 (933120)
I0223 16:17:54.984807 22088 net.cpp:165] Memory required for data: 1262822484
I0223 16:17:54.984809 22088 layer_factory.hpp:77] Creating layer conv3_2/2/neg
I0223 16:17:54.984817 22088 net.cpp:100] Creating Layer conv3_2/2/neg
I0223 16:17:54.984820 22088 net.cpp:434] conv3_2/2/neg <- conv3_2/2/conv_conv3_2/2/bn_0_split_0
I0223 16:17:54.984827 22088 net.cpp:408] conv3_2/2/neg -> conv3_2/2/neg
I0223 16:17:54.984860 22088 net.cpp:150] Setting up conv3_2/2/neg
I0223 16:17:54.984868 22088 net.cpp:157] Top shape: 1 48 108 180 (933120)
I0223 16:17:54.984870 22088 net.cpp:165] Memory required for data: 1266554964
I0223 16:17:54.984874 22088 layer_factory.hpp:77] Creating layer conv3_2/2/concat
I0223 16:17:54.984880 22088 net.cpp:100] Creating Layer conv3_2/2/concat
I0223 16:17:54.984884 22088 net.cpp:434] conv3_2/2/concat <- conv3_2/2/conv_conv3_2/2/bn_0_split_1
I0223 16:17:54.984889 22088 net.cpp:434] conv3_2/2/concat <- conv3_2/2/neg
I0223 16:17:54.984894 22088 net.cpp:408] conv3_2/2/concat -> conv3_2/2
I0223 16:17:54.984927 22088 net.cpp:150] Setting up conv3_2/2/concat
I0223 16:17:54.984933 22088 net.cpp:157] Top shape: 1 96 108 180 (1866240)
I0223 16:17:54.984937 22088 net.cpp:165] Memory required for data: 1274019924
I0223 16:17:54.984941 22088 layer_factory.hpp:77] Creating layer conv3_2/2/scale
I0223 16:17:54.984947 22088 net.cpp:100] Creating Layer conv3_2/2/scale
I0223 16:17:54.984951 22088 net.cpp:434] conv3_2/2/scale <- conv3_2/2
I0223 16:17:54.984957 22088 net.cpp:395] conv3_2/2/scale -> conv3_2/2 (in-place)
I0223 16:17:54.985015 22088 layer_factory.hpp:77] Creating layer conv3_2/2/scale
I0223 16:17:54.985226 22088 net.cpp:150] Setting up conv3_2/2/scale
I0223 16:17:54.985234 22088 net.cpp:157] Top shape: 1 96 108 180 (1866240)
I0223 16:17:54.985239 22088 net.cpp:165] Memory required for data: 1281484884
I0223 16:17:54.985244 22088 layer_factory.hpp:77] Creating layer conv3_2/2/relu
I0223 16:17:54.985249 22088 net.cpp:100] Creating Layer conv3_2/2/relu
I0223 16:17:54.985252 22088 net.cpp:434] conv3_2/2/relu <- conv3_2/2
I0223 16:17:54.985256 22088 net.cpp:395] conv3_2/2/relu -> conv3_2/2 (in-place)
I0223 16:17:54.985596 22088 net.cpp:150] Setting up conv3_2/2/relu
I0223 16:17:54.985608 22088 net.cpp:157] Top shape: 1 96 108 180 (1866240)
I0223 16:17:54.985611 22088 net.cpp:165] Memory required for data: 1288949844
I0223 16:17:54.985615 22088 layer_factory.hpp:77] Creating layer conv3_2/3/conv
I0223 16:17:54.985623 22088 net.cpp:100] Creating Layer conv3_2/3/conv
I0223 16:17:54.985627 22088 net.cpp:434] conv3_2/3/conv <- conv3_2/2
I0223 16:17:54.985635 22088 net.cpp:408] conv3_2/3/conv -> conv3_2/3
I0223 16:17:54.987216 22088 net.cpp:150] Setting up conv3_2/3/conv
I0223 16:17:54.987229 22088 net.cpp:157] Top shape: 1 128 108 180 (2488320)
I0223 16:17:54.987233 22088 net.cpp:165] Memory required for data: 1298903124
I0223 16:17:54.987238 22088 layer_factory.hpp:77] Creating layer conv3_2/3/bn
I0223 16:17:54.987246 22088 net.cpp:100] Creating Layer conv3_2/3/bn
I0223 16:17:54.987249 22088 net.cpp:434] conv3_2/3/bn <- conv3_2/3
I0223 16:17:54.987257 22088 net.cpp:395] conv3_2/3/bn -> conv3_2/3 (in-place)
I0223 16:17:54.987589 22088 net.cpp:150] Setting up conv3_2/3/bn
I0223 16:17:54.987598 22088 net.cpp:157] Top shape: 1 128 108 180 (2488320)
I0223 16:17:54.987601 22088 net.cpp:165] Memory required for data: 1308856404
I0223 16:17:54.987608 22088 layer_factory.hpp:77] Creating layer conv3_2/3/bn_scale
I0223 16:17:54.987617 22088 net.cpp:100] Creating Layer conv3_2/3/bn_scale
I0223 16:17:54.987620 22088 net.cpp:434] conv3_2/3/bn_scale <- conv3_2/3
I0223 16:17:54.987627 22088 net.cpp:395] conv3_2/3/bn_scale -> conv3_2/3 (in-place)
I0223 16:17:54.987684 22088 layer_factory.hpp:77] Creating layer conv3_2/3/bn_scale
I0223 16:17:54.987880 22088 net.cpp:150] Setting up conv3_2/3/bn_scale
I0223 16:17:54.987889 22088 net.cpp:157] Top shape: 1 128 108 180 (2488320)
I0223 16:17:54.987892 22088 net.cpp:165] Memory required for data: 1318809684
I0223 16:17:54.987897 22088 layer_factory.hpp:77] Creating layer conv3_2/input
I0223 16:17:54.987903 22088 net.cpp:100] Creating Layer conv3_2/input
I0223 16:17:54.987907 22088 net.cpp:434] conv3_2/input <- conv3_1_conv3_1_0_split_1
I0223 16:17:54.987915 22088 net.cpp:408] conv3_2/input -> conv3_2/input
I0223 16:17:54.987949 22088 net.cpp:150] Setting up conv3_2/input
I0223 16:17:54.987957 22088 net.cpp:157] Top shape: 1 128 108 180 (2488320)
I0223 16:17:54.987959 22088 net.cpp:165] Memory required for data: 1328762964
I0223 16:17:54.987963 22088 layer_factory.hpp:77] Creating layer conv3_2
I0223 16:17:54.987970 22088 net.cpp:100] Creating Layer conv3_2
I0223 16:17:54.987973 22088 net.cpp:434] conv3_2 <- conv3_2/3
I0223 16:17:54.987978 22088 net.cpp:434] conv3_2 <- conv3_2/input
I0223 16:17:54.987983 22088 net.cpp:408] conv3_2 -> conv3_2
I0223 16:17:54.988020 22088 net.cpp:150] Setting up conv3_2
I0223 16:17:54.988026 22088 net.cpp:157] Top shape: 1 128 108 180 (2488320)
I0223 16:17:54.988030 22088 net.cpp:165] Memory required for data: 1338716244
I0223 16:17:54.988034 22088 layer_factory.hpp:77] Creating layer conv3_2_conv3_2_0_split
I0223 16:17:54.988039 22088 net.cpp:100] Creating Layer conv3_2_conv3_2_0_split
I0223 16:17:54.988042 22088 net.cpp:434] conv3_2_conv3_2_0_split <- conv3_2
I0223 16:17:54.988049 22088 net.cpp:408] conv3_2_conv3_2_0_split -> conv3_2_conv3_2_0_split_0
I0223 16:17:54.988055 22088 net.cpp:408] conv3_2_conv3_2_0_split -> conv3_2_conv3_2_0_split_1
I0223 16:17:54.988111 22088 net.cpp:150] Setting up conv3_2_conv3_2_0_split
I0223 16:17:54.988116 22088 net.cpp:157] Top shape: 1 128 108 180 (2488320)
I0223 16:17:54.988121 22088 net.cpp:157] Top shape: 1 128 108 180 (2488320)
I0223 16:17:54.988123 22088 net.cpp:165] Memory required for data: 1358622804
I0223 16:17:54.988127 22088 layer_factory.hpp:77] Creating layer conv3_3/1/conv
I0223 16:17:54.988135 22088 net.cpp:100] Creating Layer conv3_3/1/conv
I0223 16:17:54.988139 22088 net.cpp:434] conv3_3/1/conv <- conv3_2_conv3_2_0_split_0
I0223 16:17:54.988144 22088 net.cpp:408] conv3_3/1/conv -> conv3_3/1
I0223 16:17:54.989233 22088 net.cpp:150] Setting up conv3_3/1/conv
I0223 16:17:54.989250 22088 net.cpp:157] Top shape: 1 48 108 180 (933120)
I0223 16:17:54.989254 22088 net.cpp:165] Memory required for data: 1362355284
I0223 16:17:54.989259 22088 layer_factory.hpp:77] Creating layer conv3_3/1/bn
I0223 16:17:54.989267 22088 net.cpp:100] Creating Layer conv3_3/1/bn
I0223 16:17:54.989271 22088 net.cpp:434] conv3_3/1/bn <- conv3_3/1
I0223 16:17:54.989279 22088 net.cpp:395] conv3_3/1/bn -> conv3_3/1 (in-place)
I0223 16:17:54.989625 22088 net.cpp:150] Setting up conv3_3/1/bn
I0223 16:17:54.989634 22088 net.cpp:157] Top shape: 1 48 108 180 (933120)
I0223 16:17:54.989637 22088 net.cpp:165] Memory required for data: 1366087764
I0223 16:17:54.989645 22088 layer_factory.hpp:77] Creating layer conv3_3/1/bn_scale
I0223 16:17:54.989650 22088 net.cpp:100] Creating Layer conv3_3/1/bn_scale
I0223 16:17:54.989653 22088 net.cpp:434] conv3_3/1/bn_scale <- conv3_3/1
I0223 16:17:54.989660 22088 net.cpp:395] conv3_3/1/bn_scale -> conv3_3/1 (in-place)
I0223 16:17:54.989722 22088 layer_factory.hpp:77] Creating layer conv3_3/1/bn_scale
I0223 16:17:54.990604 22088 net.cpp:150] Setting up conv3_3/1/bn_scale
I0223 16:17:54.990617 22088 net.cpp:157] Top shape: 1 48 108 180 (933120)
I0223 16:17:54.990622 22088 net.cpp:165] Memory required for data: 1369820244
I0223 16:17:54.990628 22088 layer_factory.hpp:77] Creating layer conv3_3/1/relu
I0223 16:17:54.990635 22088 net.cpp:100] Creating Layer conv3_3/1/relu
I0223 16:17:54.990639 22088 net.cpp:434] conv3_3/1/relu <- conv3_3/1
I0223 16:17:54.990645 22088 net.cpp:395] conv3_3/1/relu -> conv3_3/1 (in-place)
I0223 16:17:54.990999 22088 net.cpp:150] Setting up conv3_3/1/relu
I0223 16:17:54.991011 22088 net.cpp:157] Top shape: 1 48 108 180 (933120)
I0223 16:17:54.991014 22088 net.cpp:165] Memory required for data: 1373552724
I0223 16:17:54.991017 22088 layer_factory.hpp:77] Creating layer conv3_3/2/conv
I0223 16:17:54.991027 22088 net.cpp:100] Creating Layer conv3_3/2/conv
I0223 16:17:54.991031 22088 net.cpp:434] conv3_3/2/conv <- conv3_3/1
I0223 16:17:54.991037 22088 net.cpp:408] conv3_3/2/conv -> conv3_3/2/conv
I0223 16:17:54.992669 22088 net.cpp:150] Setting up conv3_3/2/conv
I0223 16:17:54.992686 22088 net.cpp:157] Top shape: 1 48 108 180 (933120)
I0223 16:17:54.992688 22088 net.cpp:165] Memory required for data: 1377285204
I0223 16:17:54.992694 22088 layer_factory.hpp:77] Creating layer conv3_3/2/bn
I0223 16:17:54.992703 22088 net.cpp:100] Creating Layer conv3_3/2/bn
I0223 16:17:54.992707 22088 net.cpp:434] conv3_3/2/bn <- conv3_3/2/conv
I0223 16:17:54.992713 22088 net.cpp:395] conv3_3/2/bn -> conv3_3/2/conv (in-place)
I0223 16:17:54.993054 22088 net.cpp:150] Setting up conv3_3/2/bn
I0223 16:17:54.993062 22088 net.cpp:157] Top shape: 1 48 108 180 (933120)
I0223 16:17:54.993067 22088 net.cpp:165] Memory required for data: 1381017684
I0223 16:17:54.993073 22088 layer_factory.hpp:77] Creating layer conv3_3/2/conv_conv3_3/2/bn_0_split
I0223 16:17:54.993078 22088 net.cpp:100] Creating Layer conv3_3/2/conv_conv3_3/2/bn_0_split
I0223 16:17:54.993083 22088 net.cpp:434] conv3_3/2/conv_conv3_3/2/bn_0_split <- conv3_3/2/conv
I0223 16:17:54.993089 22088 net.cpp:408] conv3_3/2/conv_conv3_3/2/bn_0_split -> conv3_3/2/conv_conv3_3/2/bn_0_split_0
I0223 16:17:54.993096 22088 net.cpp:408] conv3_3/2/conv_conv3_3/2/bn_0_split -> conv3_3/2/conv_conv3_3/2/bn_0_split_1
I0223 16:17:54.993155 22088 net.cpp:150] Setting up conv3_3/2/conv_conv3_3/2/bn_0_split
I0223 16:17:54.993161 22088 net.cpp:157] Top shape: 1 48 108 180 (933120)
I0223 16:17:54.993165 22088 net.cpp:157] Top shape: 1 48 108 180 (933120)
I0223 16:17:54.993168 22088 net.cpp:165] Memory required for data: 1388482644
I0223 16:17:54.993172 22088 layer_factory.hpp:77] Creating layer conv3_3/2/neg
I0223 16:17:54.993180 22088 net.cpp:100] Creating Layer conv3_3/2/neg
I0223 16:17:54.993183 22088 net.cpp:434] conv3_3/2/neg <- conv3_3/2/conv_conv3_3/2/bn_0_split_0
I0223 16:17:54.993188 22088 net.cpp:408] conv3_3/2/neg -> conv3_3/2/neg
I0223 16:17:54.993222 22088 net.cpp:150] Setting up conv3_3/2/neg
I0223 16:17:54.993230 22088 net.cpp:157] Top shape: 1 48 108 180 (933120)
I0223 16:17:54.993238 22088 net.cpp:165] Memory required for data: 1392215124
I0223 16:17:54.993242 22088 layer_factory.hpp:77] Creating layer conv3_3/2/concat
I0223 16:17:54.993247 22088 net.cpp:100] Creating Layer conv3_3/2/concat
I0223 16:17:54.993250 22088 net.cpp:434] conv3_3/2/concat <- conv3_3/2/conv_conv3_3/2/bn_0_split_1
I0223 16:17:54.993255 22088 net.cpp:434] conv3_3/2/concat <- conv3_3/2/neg
I0223 16:17:54.993260 22088 net.cpp:408] conv3_3/2/concat -> conv3_3/2
I0223 16:17:54.993295 22088 net.cpp:150] Setting up conv3_3/2/concat
I0223 16:17:54.993302 22088 net.cpp:157] Top shape: 1 96 108 180 (1866240)
I0223 16:17:54.993305 22088 net.cpp:165] Memory required for data: 1399680084
I0223 16:17:54.993309 22088 layer_factory.hpp:77] Creating layer conv3_3/2/scale
I0223 16:17:54.993314 22088 net.cpp:100] Creating Layer conv3_3/2/scale
I0223 16:17:54.993317 22088 net.cpp:434] conv3_3/2/scale <- conv3_3/2
I0223 16:17:54.993325 22088 net.cpp:395] conv3_3/2/scale -> conv3_3/2 (in-place)
I0223 16:17:54.993387 22088 layer_factory.hpp:77] Creating layer conv3_3/2/scale
I0223 16:17:54.993598 22088 net.cpp:150] Setting up conv3_3/2/scale
I0223 16:17:54.993607 22088 net.cpp:157] Top shape: 1 96 108 180 (1866240)
I0223 16:17:54.993609 22088 net.cpp:165] Memory required for data: 1407145044
I0223 16:17:54.993615 22088 layer_factory.hpp:77] Creating layer conv3_3/2/relu
I0223 16:17:54.993623 22088 net.cpp:100] Creating Layer conv3_3/2/relu
I0223 16:17:54.993625 22088 net.cpp:434] conv3_3/2/relu <- conv3_3/2
I0223 16:17:54.993630 22088 net.cpp:395] conv3_3/2/relu -> conv3_3/2 (in-place)
I0223 16:17:54.993810 22088 net.cpp:150] Setting up conv3_3/2/relu
I0223 16:17:54.993819 22088 net.cpp:157] Top shape: 1 96 108 180 (1866240)
I0223 16:17:54.993823 22088 net.cpp:165] Memory required for data: 1414610004
I0223 16:17:54.993826 22088 layer_factory.hpp:77] Creating layer conv3_3/3/conv
I0223 16:17:54.993836 22088 net.cpp:100] Creating Layer conv3_3/3/conv
I0223 16:17:54.993840 22088 net.cpp:434] conv3_3/3/conv <- conv3_3/2
I0223 16:17:54.993845 22088 net.cpp:408] conv3_3/3/conv -> conv3_3/3
I0223 16:17:54.995162 22088 net.cpp:150] Setting up conv3_3/3/conv
I0223 16:17:54.995177 22088 net.cpp:157] Top shape: 1 128 108 180 (2488320)
I0223 16:17:54.995180 22088 net.cpp:165] Memory required for data: 1424563284
I0223 16:17:54.995187 22088 layer_factory.hpp:77] Creating layer conv3_3/3/bn
I0223 16:17:54.995193 22088 net.cpp:100] Creating Layer conv3_3/3/bn
I0223 16:17:54.995198 22088 net.cpp:434] conv3_3/3/bn <- conv3_3/3
I0223 16:17:54.995204 22088 net.cpp:395] conv3_3/3/bn -> conv3_3/3 (in-place)
I0223 16:17:54.995535 22088 net.cpp:150] Setting up conv3_3/3/bn
I0223 16:17:54.995543 22088 net.cpp:157] Top shape: 1 128 108 180 (2488320)
I0223 16:17:54.995546 22088 net.cpp:165] Memory required for data: 1434516564
I0223 16:17:54.995553 22088 layer_factory.hpp:77] Creating layer conv3_3/3/bn_scale
I0223 16:17:54.995561 22088 net.cpp:100] Creating Layer conv3_3/3/bn_scale
I0223 16:17:54.995565 22088 net.cpp:434] conv3_3/3/bn_scale <- conv3_3/3
I0223 16:17:54.995570 22088 net.cpp:395] conv3_3/3/bn_scale -> conv3_3/3 (in-place)
I0223 16:17:54.995630 22088 layer_factory.hpp:77] Creating layer conv3_3/3/bn_scale
I0223 16:17:54.995829 22088 net.cpp:150] Setting up conv3_3/3/bn_scale
I0223 16:17:54.995837 22088 net.cpp:157] Top shape: 1 128 108 180 (2488320)
I0223 16:17:54.995841 22088 net.cpp:165] Memory required for data: 1444469844
I0223 16:17:54.995846 22088 layer_factory.hpp:77] Creating layer conv3_3/input
I0223 16:17:54.995852 22088 net.cpp:100] Creating Layer conv3_3/input
I0223 16:17:54.995857 22088 net.cpp:434] conv3_3/input <- conv3_2_conv3_2_0_split_1
I0223 16:17:54.995863 22088 net.cpp:408] conv3_3/input -> conv3_3/input
I0223 16:17:54.995900 22088 net.cpp:150] Setting up conv3_3/input
I0223 16:17:54.995908 22088 net.cpp:157] Top shape: 1 128 108 180 (2488320)
I0223 16:17:54.995911 22088 net.cpp:165] Memory required for data: 1454423124
I0223 16:17:54.995914 22088 layer_factory.hpp:77] Creating layer conv3_3
I0223 16:17:54.995924 22088 net.cpp:100] Creating Layer conv3_3
I0223 16:17:54.995929 22088 net.cpp:434] conv3_3 <- conv3_3/3
I0223 16:17:54.995934 22088 net.cpp:434] conv3_3 <- conv3_3/input
I0223 16:17:54.995939 22088 net.cpp:408] conv3_3 -> conv3_3
I0223 16:17:54.995976 22088 net.cpp:150] Setting up conv3_3
I0223 16:17:54.995982 22088 net.cpp:157] Top shape: 1 128 108 180 (2488320)
I0223 16:17:54.995985 22088 net.cpp:165] Memory required for data: 1464376404
I0223 16:17:54.995990 22088 layer_factory.hpp:77] Creating layer conv3_3_conv3_3_0_split
I0223 16:17:54.995995 22088 net.cpp:100] Creating Layer conv3_3_conv3_3_0_split
I0223 16:17:54.995997 22088 net.cpp:434] conv3_3_conv3_3_0_split <- conv3_3
I0223 16:17:54.996004 22088 net.cpp:408] conv3_3_conv3_3_0_split -> conv3_3_conv3_3_0_split_0
I0223 16:17:54.996027 22088 net.cpp:408] conv3_3_conv3_3_0_split -> conv3_3_conv3_3_0_split_1
I0223 16:17:54.996088 22088 net.cpp:150] Setting up conv3_3_conv3_3_0_split
I0223 16:17:54.996094 22088 net.cpp:157] Top shape: 1 128 108 180 (2488320)
I0223 16:17:54.996099 22088 net.cpp:157] Top shape: 1 128 108 180 (2488320)
I0223 16:17:54.996103 22088 net.cpp:165] Memory required for data: 1484282964
I0223 16:17:54.996105 22088 layer_factory.hpp:77] Creating layer conv3_4/1/conv
I0223 16:17:54.996114 22088 net.cpp:100] Creating Layer conv3_4/1/conv
I0223 16:17:54.996119 22088 net.cpp:434] conv3_4/1/conv <- conv3_3_conv3_3_0_split_0
I0223 16:17:54.996124 22088 net.cpp:408] conv3_4/1/conv -> conv3_4/1
I0223 16:17:54.997499 22088 net.cpp:150] Setting up conv3_4/1/conv
I0223 16:17:54.997514 22088 net.cpp:157] Top shape: 1 48 108 180 (933120)
I0223 16:17:54.997517 22088 net.cpp:165] Memory required for data: 1488015444
I0223 16:17:54.997537 22088 layer_factory.hpp:77] Creating layer conv3_4/1/bn
I0223 16:17:54.997545 22088 net.cpp:100] Creating Layer conv3_4/1/bn
I0223 16:17:54.997550 22088 net.cpp:434] conv3_4/1/bn <- conv3_4/1
I0223 16:17:54.997557 22088 net.cpp:395] conv3_4/1/bn -> conv3_4/1 (in-place)
I0223 16:17:54.997916 22088 net.cpp:150] Setting up conv3_4/1/bn
I0223 16:17:54.997925 22088 net.cpp:157] Top shape: 1 48 108 180 (933120)
I0223 16:17:54.997928 22088 net.cpp:165] Memory required for data: 1491747924
I0223 16:17:54.997936 22088 layer_factory.hpp:77] Creating layer conv3_4/1/bn_scale
I0223 16:17:54.997943 22088 net.cpp:100] Creating Layer conv3_4/1/bn_scale
I0223 16:17:54.997947 22088 net.cpp:434] conv3_4/1/bn_scale <- conv3_4/1
I0223 16:17:54.997952 22088 net.cpp:395] conv3_4/1/bn_scale -> conv3_4/1 (in-place)
I0223 16:17:54.998015 22088 layer_factory.hpp:77] Creating layer conv3_4/1/bn_scale
I0223 16:17:54.998265 22088 net.cpp:150] Setting up conv3_4/1/bn_scale
I0223 16:17:54.998275 22088 net.cpp:157] Top shape: 1 48 108 180 (933120)
I0223 16:17:54.998277 22088 net.cpp:165] Memory required for data: 1495480404
I0223 16:17:54.998283 22088 layer_factory.hpp:77] Creating layer conv3_4/1/relu
I0223 16:17:54.998289 22088 net.cpp:100] Creating Layer conv3_4/1/relu
I0223 16:17:54.998293 22088 net.cpp:434] conv3_4/1/relu <- conv3_4/1
I0223 16:17:54.998299 22088 net.cpp:395] conv3_4/1/relu -> conv3_4/1 (in-place)
I0223 16:17:54.998497 22088 net.cpp:150] Setting up conv3_4/1/relu
I0223 16:17:54.998505 22088 net.cpp:157] Top shape: 1 48 108 180 (933120)
I0223 16:17:54.998508 22088 net.cpp:165] Memory required for data: 1499212884
I0223 16:17:54.998512 22088 layer_factory.hpp:77] Creating layer conv3_4/2/conv
I0223 16:17:54.998523 22088 net.cpp:100] Creating Layer conv3_4/2/conv
I0223 16:17:54.998528 22088 net.cpp:434] conv3_4/2/conv <- conv3_4/1
I0223 16:17:54.998534 22088 net.cpp:408] conv3_4/2/conv -> conv3_4/2/conv
I0223 16:17:54.999899 22088 net.cpp:150] Setting up conv3_4/2/conv
I0223 16:17:54.999912 22088 net.cpp:157] Top shape: 1 48 108 180 (933120)
I0223 16:17:54.999917 22088 net.cpp:165] Memory required for data: 1502945364
I0223 16:17:54.999922 22088 layer_factory.hpp:77] Creating layer conv3_4/2/bn
I0223 16:17:54.999929 22088 net.cpp:100] Creating Layer conv3_4/2/bn
I0223 16:17:54.999934 22088 net.cpp:434] conv3_4/2/bn <- conv3_4/2/conv
I0223 16:17:54.999945 22088 net.cpp:395] conv3_4/2/bn -> conv3_4/2/conv (in-place)
I0223 16:17:55.000289 22088 net.cpp:150] Setting up conv3_4/2/bn
I0223 16:17:55.000299 22088 net.cpp:157] Top shape: 1 48 108 180 (933120)
I0223 16:17:55.000303 22088 net.cpp:165] Memory required for data: 1506677844
I0223 16:17:55.000309 22088 layer_factory.hpp:77] Creating layer conv3_4/2/conv_conv3_4/2/bn_0_split
I0223 16:17:55.000315 22088 net.cpp:100] Creating Layer conv3_4/2/conv_conv3_4/2/bn_0_split
I0223 16:17:55.000319 22088 net.cpp:434] conv3_4/2/conv_conv3_4/2/bn_0_split <- conv3_4/2/conv
I0223 16:17:55.000324 22088 net.cpp:408] conv3_4/2/conv_conv3_4/2/bn_0_split -> conv3_4/2/conv_conv3_4/2/bn_0_split_0
I0223 16:17:55.000332 22088 net.cpp:408] conv3_4/2/conv_conv3_4/2/bn_0_split -> conv3_4/2/conv_conv3_4/2/bn_0_split_1
I0223 16:17:55.000392 22088 net.cpp:150] Setting up conv3_4/2/conv_conv3_4/2/bn_0_split
I0223 16:17:55.000399 22088 net.cpp:157] Top shape: 1 48 108 180 (933120)
I0223 16:17:55.000404 22088 net.cpp:157] Top shape: 1 48 108 180 (933120)
I0223 16:17:55.000406 22088 net.cpp:165] Memory required for data: 1514142804
I0223 16:17:55.000411 22088 layer_factory.hpp:77] Creating layer conv3_4/2/neg
I0223 16:17:55.000416 22088 net.cpp:100] Creating Layer conv3_4/2/neg
I0223 16:17:55.000421 22088 net.cpp:434] conv3_4/2/neg <- conv3_4/2/conv_conv3_4/2/bn_0_split_0
I0223 16:17:55.000425 22088 net.cpp:408] conv3_4/2/neg -> conv3_4/2/neg
I0223 16:17:55.000463 22088 net.cpp:150] Setting up conv3_4/2/neg
I0223 16:17:55.000469 22088 net.cpp:157] Top shape: 1 48 108 180 (933120)
I0223 16:17:55.000473 22088 net.cpp:165] Memory required for data: 1517875284
I0223 16:17:55.000475 22088 layer_factory.hpp:77] Creating layer conv3_4/2/concat
I0223 16:17:55.000481 22088 net.cpp:100] Creating Layer conv3_4/2/concat
I0223 16:17:55.000484 22088 net.cpp:434] conv3_4/2/concat <- conv3_4/2/conv_conv3_4/2/bn_0_split_1
I0223 16:17:55.000489 22088 net.cpp:434] conv3_4/2/concat <- conv3_4/2/neg
I0223 16:17:55.000501 22088 net.cpp:408] conv3_4/2/concat -> conv3_4/2
I0223 16:17:55.000535 22088 net.cpp:150] Setting up conv3_4/2/concat
I0223 16:17:55.000541 22088 net.cpp:157] Top shape: 1 96 108 180 (1866240)
I0223 16:17:55.000545 22088 net.cpp:165] Memory required for data: 1525340244
I0223 16:17:55.000548 22088 layer_factory.hpp:77] Creating layer conv3_4/2/scale
I0223 16:17:55.000567 22088 net.cpp:100] Creating Layer conv3_4/2/scale
I0223 16:17:55.000571 22088 net.cpp:434] conv3_4/2/scale <- conv3_4/2
I0223 16:17:55.000577 22088 net.cpp:395] conv3_4/2/scale -> conv3_4/2 (in-place)
I0223 16:17:55.000639 22088 layer_factory.hpp:77] Creating layer conv3_4/2/scale
I0223 16:17:55.001515 22088 net.cpp:150] Setting up conv3_4/2/scale
I0223 16:17:55.001528 22088 net.cpp:157] Top shape: 1 96 108 180 (1866240)
I0223 16:17:55.001533 22088 net.cpp:165] Memory required for data: 1532805204
I0223 16:17:55.001538 22088 layer_factory.hpp:77] Creating layer conv3_4/2/relu
I0223 16:17:55.001544 22088 net.cpp:100] Creating Layer conv3_4/2/relu
I0223 16:17:55.001549 22088 net.cpp:434] conv3_4/2/relu <- conv3_4/2
I0223 16:17:55.001554 22088 net.cpp:395] conv3_4/2/relu -> conv3_4/2 (in-place)
I0223 16:17:55.001893 22088 net.cpp:150] Setting up conv3_4/2/relu
I0223 16:17:55.001904 22088 net.cpp:157] Top shape: 1 96 108 180 (1866240)
I0223 16:17:55.001907 22088 net.cpp:165] Memory required for data: 1540270164
I0223 16:17:55.001911 22088 layer_factory.hpp:77] Creating layer conv3_4/3/conv
I0223 16:17:55.001920 22088 net.cpp:100] Creating Layer conv3_4/3/conv
I0223 16:17:55.001925 22088 net.cpp:434] conv3_4/3/conv <- conv3_4/2
I0223 16:17:55.001932 22088 net.cpp:408] conv3_4/3/conv -> conv3_4/3
I0223 16:17:55.003413 22088 net.cpp:150] Setting up conv3_4/3/conv
I0223 16:17:55.003427 22088 net.cpp:157] Top shape: 1 128 108 180 (2488320)
I0223 16:17:55.003430 22088 net.cpp:165] Memory required for data: 1550223444
I0223 16:17:55.003435 22088 layer_factory.hpp:77] Creating layer conv3_4/3/bn
I0223 16:17:55.003444 22088 net.cpp:100] Creating Layer conv3_4/3/bn
I0223 16:17:55.003453 22088 net.cpp:434] conv3_4/3/bn <- conv3_4/3
I0223 16:17:55.003459 22088 net.cpp:395] conv3_4/3/bn -> conv3_4/3 (in-place)
I0223 16:17:55.003804 22088 net.cpp:150] Setting up conv3_4/3/bn
I0223 16:17:55.003813 22088 net.cpp:157] Top shape: 1 128 108 180 (2488320)
I0223 16:17:55.003816 22088 net.cpp:165] Memory required for data: 1560176724
I0223 16:17:55.003823 22088 layer_factory.hpp:77] Creating layer conv3_4/3/bn_scale
I0223 16:17:55.003829 22088 net.cpp:100] Creating Layer conv3_4/3/bn_scale
I0223 16:17:55.003834 22088 net.cpp:434] conv3_4/3/bn_scale <- conv3_4/3
I0223 16:17:55.003840 22088 net.cpp:395] conv3_4/3/bn_scale -> conv3_4/3 (in-place)
I0223 16:17:55.003902 22088 layer_factory.hpp:77] Creating layer conv3_4/3/bn_scale
I0223 16:17:55.004112 22088 net.cpp:150] Setting up conv3_4/3/bn_scale
I0223 16:17:55.004119 22088 net.cpp:157] Top shape: 1 128 108 180 (2488320)
I0223 16:17:55.004123 22088 net.cpp:165] Memory required for data: 1570130004
I0223 16:17:55.004128 22088 layer_factory.hpp:77] Creating layer conv3_4/input
I0223 16:17:55.004134 22088 net.cpp:100] Creating Layer conv3_4/input
I0223 16:17:55.004138 22088 net.cpp:434] conv3_4/input <- conv3_3_conv3_3_0_split_1
I0223 16:17:55.004143 22088 net.cpp:408] conv3_4/input -> conv3_4/input
I0223 16:17:55.004182 22088 net.cpp:150] Setting up conv3_4/input
I0223 16:17:55.004189 22088 net.cpp:157] Top shape: 1 128 108 180 (2488320)
I0223 16:17:55.004192 22088 net.cpp:165] Memory required for data: 1580083284
I0223 16:17:55.004195 22088 layer_factory.hpp:77] Creating layer conv3_4
I0223 16:17:55.004201 22088 net.cpp:100] Creating Layer conv3_4
I0223 16:17:55.004205 22088 net.cpp:434] conv3_4 <- conv3_4/3
I0223 16:17:55.004209 22088 net.cpp:434] conv3_4 <- conv3_4/input
I0223 16:17:55.004215 22088 net.cpp:408] conv3_4 -> conv3_4
I0223 16:17:55.004252 22088 net.cpp:150] Setting up conv3_4
I0223 16:17:55.004259 22088 net.cpp:157] Top shape: 1 128 108 180 (2488320)
I0223 16:17:55.004262 22088 net.cpp:165] Memory required for data: 1590036564
I0223 16:17:55.004266 22088 layer_factory.hpp:77] Creating layer conv3_4_conv3_4_0_split
I0223 16:17:55.004273 22088 net.cpp:100] Creating Layer conv3_4_conv3_4_0_split
I0223 16:17:55.004276 22088 net.cpp:434] conv3_4_conv3_4_0_split <- conv3_4
I0223 16:17:55.004283 22088 net.cpp:408] conv3_4_conv3_4_0_split -> conv3_4_conv3_4_0_split_0
I0223 16:17:55.004290 22088 net.cpp:408] conv3_4_conv3_4_0_split -> conv3_4_conv3_4_0_split_1
I0223 16:17:55.004297 22088 net.cpp:408] conv3_4_conv3_4_0_split -> conv3_4_conv3_4_0_split_2
I0223 16:17:55.004302 22088 net.cpp:408] conv3_4_conv3_4_0_split -> conv3_4_conv3_4_0_split_3
I0223 16:17:55.004308 22088 net.cpp:408] conv3_4_conv3_4_0_split -> conv3_4_conv3_4_0_split_4
I0223 16:17:55.004317 22088 net.cpp:408] conv3_4_conv3_4_0_split -> conv3_4_conv3_4_0_split_5
I0223 16:17:55.004449 22088 net.cpp:150] Setting up conv3_4_conv3_4_0_split
I0223 16:17:55.004456 22088 net.cpp:157] Top shape: 1 128 108 180 (2488320)
I0223 16:17:55.004461 22088 net.cpp:157] Top shape: 1 128 108 180 (2488320)
I0223 16:17:55.004463 22088 net.cpp:157] Top shape: 1 128 108 180 (2488320)
I0223 16:17:55.004467 22088 net.cpp:157] Top shape: 1 128 108 180 (2488320)
I0223 16:17:55.004472 22088 net.cpp:157] Top shape: 1 128 108 180 (2488320)
I0223 16:17:55.004475 22088 net.cpp:157] Top shape: 1 128 108 180 (2488320)
I0223 16:17:55.004478 22088 net.cpp:165] Memory required for data: 1649756244
I0223 16:17:55.004482 22088 layer_factory.hpp:77] Creating layer conv4_1/incep/0/conv
I0223 16:17:55.004488 22088 net.cpp:100] Creating Layer conv4_1/incep/0/conv
I0223 16:17:55.004492 22088 net.cpp:434] conv4_1/incep/0/conv <- conv3_4_conv3_4_0_split_0
I0223 16:17:55.004499 22088 net.cpp:408] conv4_1/incep/0/conv -> conv4_1/incep/0
I0223 16:17:55.005741 22088 net.cpp:150] Setting up conv4_1/incep/0/conv
I0223 16:17:55.005755 22088 net.cpp:157] Top shape: 1 64 54 90 (311040)
I0223 16:17:55.005759 22088 net.cpp:165] Memory required for data: 1651000404
I0223 16:17:55.005764 22088 layer_factory.hpp:77] Creating layer conv4_1/incep/0/bn
I0223 16:17:55.005779 22088 net.cpp:100] Creating Layer conv4_1/incep/0/bn
I0223 16:17:55.005782 22088 net.cpp:434] conv4_1/incep/0/bn <- conv4_1/incep/0
I0223 16:17:55.005789 22088 net.cpp:395] conv4_1/incep/0/bn -> conv4_1/incep/0 (in-place)
I0223 16:17:55.006130 22088 net.cpp:150] Setting up conv4_1/incep/0/bn
I0223 16:17:55.006139 22088 net.cpp:157] Top shape: 1 64 54 90 (311040)
I0223 16:17:55.006141 22088 net.cpp:165] Memory required for data: 1652244564
I0223 16:17:55.006148 22088 layer_factory.hpp:77] Creating layer conv4_1/incep/0/bn_scale
I0223 16:17:55.006156 22088 net.cpp:100] Creating Layer conv4_1/incep/0/bn_scale
I0223 16:17:55.006160 22088 net.cpp:434] conv4_1/incep/0/bn_scale <- conv4_1/incep/0
I0223 16:17:55.006167 22088 net.cpp:395] conv4_1/incep/0/bn_scale -> conv4_1/incep/0 (in-place)
I0223 16:17:55.006256 22088 layer_factory.hpp:77] Creating layer conv4_1/incep/0/bn_scale
I0223 16:17:55.006476 22088 net.cpp:150] Setting up conv4_1/incep/0/bn_scale
I0223 16:17:55.006484 22088 net.cpp:157] Top shape: 1 64 54 90 (311040)
I0223 16:17:55.006489 22088 net.cpp:165] Memory required for data: 1653488724
I0223 16:17:55.006494 22088 layer_factory.hpp:77] Creating layer conv4_1/incep/0/relu
I0223 16:17:55.006500 22088 net.cpp:100] Creating Layer conv4_1/incep/0/relu
I0223 16:17:55.006505 22088 net.cpp:434] conv4_1/incep/0/relu <- conv4_1/incep/0
I0223 16:17:55.006508 22088 net.cpp:395] conv4_1/incep/0/relu -> conv4_1/incep/0 (in-place)
I0223 16:17:55.006872 22088 net.cpp:150] Setting up conv4_1/incep/0/relu
I0223 16:17:55.006885 22088 net.cpp:157] Top shape: 1 64 54 90 (311040)
I0223 16:17:55.006887 22088 net.cpp:165] Memory required for data: 1654732884
I0223 16:17:55.006891 22088 layer_factory.hpp:77] Creating layer conv4_1/incep/1_reduce/conv
I0223 16:17:55.006901 22088 net.cpp:100] Creating Layer conv4_1/incep/1_reduce/conv
I0223 16:17:55.006904 22088 net.cpp:434] conv4_1/incep/1_reduce/conv <- conv3_4_conv3_4_0_split_1
I0223 16:17:55.006912 22088 net.cpp:408] conv4_1/incep/1_reduce/conv -> conv4_1/incep/1_reduce
I0223 16:17:55.010483 22088 net.cpp:150] Setting up conv4_1/incep/1_reduce/conv
I0223 16:17:55.010501 22088 net.cpp:157] Top shape: 1 48 54 90 (233280)
I0223 16:17:55.010505 22088 net.cpp:165] Memory required for data: 1655666004
I0223 16:17:55.010511 22088 layer_factory.hpp:77] Creating layer conv4_1/incep/1_reduce/bn
I0223 16:17:55.010521 22088 net.cpp:100] Creating Layer conv4_1/incep/1_reduce/bn
I0223 16:17:55.010526 22088 net.cpp:434] conv4_1/incep/1_reduce/bn <- conv4_1/incep/1_reduce
I0223 16:17:55.010532 22088 net.cpp:395] conv4_1/incep/1_reduce/bn -> conv4_1/incep/1_reduce (in-place)
I0223 16:17:55.010897 22088 net.cpp:150] Setting up conv4_1/incep/1_reduce/bn
I0223 16:17:55.010905 22088 net.cpp:157] Top shape: 1 48 54 90 (233280)
I0223 16:17:55.010910 22088 net.cpp:165] Memory required for data: 1656599124
I0223 16:17:55.010916 22088 layer_factory.hpp:77] Creating layer conv4_1/incep/1_reduce/bn_scale
I0223 16:17:55.010924 22088 net.cpp:100] Creating Layer conv4_1/incep/1_reduce/bn_scale
I0223 16:17:55.010927 22088 net.cpp:434] conv4_1/incep/1_reduce/bn_scale <- conv4_1/incep/1_reduce
I0223 16:17:55.010933 22088 net.cpp:395] conv4_1/incep/1_reduce/bn_scale -> conv4_1/incep/1_reduce (in-place)
I0223 16:17:55.010998 22088 layer_factory.hpp:77] Creating layer conv4_1/incep/1_reduce/bn_scale
I0223 16:17:55.011215 22088 net.cpp:150] Setting up conv4_1/incep/1_reduce/bn_scale
I0223 16:17:55.011224 22088 net.cpp:157] Top shape: 1 48 54 90 (233280)
I0223 16:17:55.011226 22088 net.cpp:165] Memory required for data: 1657532244
I0223 16:17:55.011232 22088 layer_factory.hpp:77] Creating layer conv4_1/incep/1_reduce/relu
I0223 16:17:55.011239 22088 net.cpp:100] Creating Layer conv4_1/incep/1_reduce/relu
I0223 16:17:55.011241 22088 net.cpp:434] conv4_1/incep/1_reduce/relu <- conv4_1/incep/1_reduce
I0223 16:17:55.011246 22088 net.cpp:395] conv4_1/incep/1_reduce/relu -> conv4_1/incep/1_reduce (in-place)
I0223 16:17:55.011420 22088 net.cpp:150] Setting up conv4_1/incep/1_reduce/relu
I0223 16:17:55.011432 22088 net.cpp:157] Top shape: 1 48 54 90 (233280)
I0223 16:17:55.011435 22088 net.cpp:165] Memory required for data: 1658465364
I0223 16:17:55.011440 22088 layer_factory.hpp:77] Creating layer conv4_1/incep/1_0/conv
I0223 16:17:55.011448 22088 net.cpp:100] Creating Layer conv4_1/incep/1_0/conv
I0223 16:17:55.011452 22088 net.cpp:434] conv4_1/incep/1_0/conv <- conv4_1/incep/1_reduce
I0223 16:17:55.011458 22088 net.cpp:408] conv4_1/incep/1_0/conv -> conv4_1/incep/1_0
I0223 16:17:55.013213 22088 net.cpp:150] Setting up conv4_1/incep/1_0/conv
I0223 16:17:55.013228 22088 net.cpp:157] Top shape: 1 128 54 90 (622080)
I0223 16:17:55.013232 22088 net.cpp:165] Memory required for data: 1660953684
I0223 16:17:55.013237 22088 layer_factory.hpp:77] Creating layer conv4_1/incep/1_0/bn
I0223 16:17:55.013244 22088 net.cpp:100] Creating Layer conv4_1/incep/1_0/bn
I0223 16:17:55.013248 22088 net.cpp:434] conv4_1/incep/1_0/bn <- conv4_1/incep/1_0
I0223 16:17:55.013257 22088 net.cpp:395] conv4_1/incep/1_0/bn -> conv4_1/incep/1_0 (in-place)
I0223 16:17:55.013589 22088 net.cpp:150] Setting up conv4_1/incep/1_0/bn
I0223 16:17:55.013597 22088 net.cpp:157] Top shape: 1 128 54 90 (622080)
I0223 16:17:55.013600 22088 net.cpp:165] Memory required for data: 1663442004
I0223 16:17:55.013607 22088 layer_factory.hpp:77] Creating layer conv4_1/incep/1_0/bn_scale
I0223 16:17:55.013615 22088 net.cpp:100] Creating Layer conv4_1/incep/1_0/bn_scale
I0223 16:17:55.013619 22088 net.cpp:434] conv4_1/incep/1_0/bn_scale <- conv4_1/incep/1_0
I0223 16:17:55.013624 22088 net.cpp:395] conv4_1/incep/1_0/bn_scale -> conv4_1/incep/1_0 (in-place)
I0223 16:17:55.013686 22088 layer_factory.hpp:77] Creating layer conv4_1/incep/1_0/bn_scale
I0223 16:17:55.013881 22088 net.cpp:150] Setting up conv4_1/incep/1_0/bn_scale
I0223 16:17:55.013888 22088 net.cpp:157] Top shape: 1 128 54 90 (622080)
I0223 16:17:55.013891 22088 net.cpp:165] Memory required for data: 1665930324
I0223 16:17:55.013897 22088 layer_factory.hpp:77] Creating layer conv4_1/incep/1_0/relu
I0223 16:17:55.013903 22088 net.cpp:100] Creating Layer conv4_1/incep/1_0/relu
I0223 16:17:55.013907 22088 net.cpp:434] conv4_1/incep/1_0/relu <- conv4_1/incep/1_0
I0223 16:17:55.013913 22088 net.cpp:395] conv4_1/incep/1_0/relu -> conv4_1/incep/1_0 (in-place)
I0223 16:17:55.014278 22088 net.cpp:150] Setting up conv4_1/incep/1_0/relu
I0223 16:17:55.014292 22088 net.cpp:157] Top shape: 1 128 54 90 (622080)
I0223 16:17:55.014295 22088 net.cpp:165] Memory required for data: 1668418644
I0223 16:17:55.014299 22088 layer_factory.hpp:77] Creating layer conv4_1/incep/2_reduce/conv
I0223 16:17:55.014309 22088 net.cpp:100] Creating Layer conv4_1/incep/2_reduce/conv
I0223 16:17:55.014313 22088 net.cpp:434] conv4_1/incep/2_reduce/conv <- conv3_4_conv3_4_0_split_2
I0223 16:17:55.014322 22088 net.cpp:408] conv4_1/incep/2_reduce/conv -> conv4_1/incep/2_reduce
I0223 16:17:55.015421 22088 net.cpp:150] Setting up conv4_1/incep/2_reduce/conv
I0223 16:17:55.015434 22088 net.cpp:157] Top shape: 1 24 54 90 (116640)
I0223 16:17:55.015437 22088 net.cpp:165] Memory required for data: 1668885204
I0223 16:17:55.015444 22088 layer_factory.hpp:77] Creating layer conv4_1/incep/2_reduce/bn
I0223 16:17:55.015451 22088 net.cpp:100] Creating Layer conv4_1/incep/2_reduce/bn
I0223 16:17:55.015455 22088 net.cpp:434] conv4_1/incep/2_reduce/bn <- conv4_1/incep/2_reduce
I0223 16:17:55.015462 22088 net.cpp:395] conv4_1/incep/2_reduce/bn -> conv4_1/incep/2_reduce (in-place)
I0223 16:17:55.015826 22088 net.cpp:150] Setting up conv4_1/incep/2_reduce/bn
I0223 16:17:55.015835 22088 net.cpp:157] Top shape: 1 24 54 90 (116640)
I0223 16:17:55.015837 22088 net.cpp:165] Memory required for data: 1669351764
I0223 16:17:55.015844 22088 layer_factory.hpp:77] Creating layer conv4_1/incep/2_reduce/bn_scale
I0223 16:17:55.015851 22088 net.cpp:100] Creating Layer conv4_1/incep/2_reduce/bn_scale
I0223 16:17:55.015856 22088 net.cpp:434] conv4_1/incep/2_reduce/bn_scale <- conv4_1/incep/2_reduce
I0223 16:17:55.015861 22088 net.cpp:395] conv4_1/incep/2_reduce/bn_scale -> conv4_1/incep/2_reduce (in-place)
I0223 16:17:55.015930 22088 layer_factory.hpp:77] Creating layer conv4_1/incep/2_reduce/bn_scale
I0223 16:17:55.016145 22088 net.cpp:150] Setting up conv4_1/incep/2_reduce/bn_scale
I0223 16:17:55.016152 22088 net.cpp:157] Top shape: 1 24 54 90 (116640)
I0223 16:17:55.016155 22088 net.cpp:165] Memory required for data: 1669818324
I0223 16:17:55.016161 22088 layer_factory.hpp:77] Creating layer conv4_1/incep/2_reduce/relu
I0223 16:17:55.016167 22088 net.cpp:100] Creating Layer conv4_1/incep/2_reduce/relu
I0223 16:17:55.016171 22088 net.cpp:434] conv4_1/incep/2_reduce/relu <- conv4_1/incep/2_reduce
I0223 16:17:55.016177 22088 net.cpp:395] conv4_1/incep/2_reduce/relu -> conv4_1/incep/2_reduce (in-place)
I0223 16:17:55.016518 22088 net.cpp:150] Setting up conv4_1/incep/2_reduce/relu
I0223 16:17:55.016530 22088 net.cpp:157] Top shape: 1 24 54 90 (116640)
I0223 16:17:55.016533 22088 net.cpp:165] Memory required for data: 1670284884
I0223 16:17:55.016537 22088 layer_factory.hpp:77] Creating layer conv4_1/incep/2_0/conv
I0223 16:17:55.016546 22088 net.cpp:100] Creating Layer conv4_1/incep/2_0/conv
I0223 16:17:55.016551 22088 net.cpp:434] conv4_1/incep/2_0/conv <- conv4_1/incep/2_reduce
I0223 16:17:55.016557 22088 net.cpp:408] conv4_1/incep/2_0/conv -> conv4_1/incep/2_0
I0223 16:17:55.017829 22088 net.cpp:150] Setting up conv4_1/incep/2_0/conv
I0223 16:17:55.017843 22088 net.cpp:157] Top shape: 1 48 54 90 (233280)
I0223 16:17:55.017848 22088 net.cpp:165] Memory required for data: 1671218004
I0223 16:17:55.017853 22088 layer_factory.hpp:77] Creating layer conv4_1/incep/2_0/bn
I0223 16:17:55.017860 22088 net.cpp:100] Creating Layer conv4_1/incep/2_0/bn
I0223 16:17:55.017864 22088 net.cpp:434] conv4_1/incep/2_0/bn <- conv4_1/incep/2_0
I0223 16:17:55.017871 22088 net.cpp:395] conv4_1/incep/2_0/bn -> conv4_1/incep/2_0 (in-place)
I0223 16:17:55.018254 22088 net.cpp:150] Setting up conv4_1/incep/2_0/bn
I0223 16:17:55.018262 22088 net.cpp:157] Top shape: 1 48 54 90 (233280)
I0223 16:17:55.018265 22088 net.cpp:165] Memory required for data: 1672151124
I0223 16:17:55.018272 22088 layer_factory.hpp:77] Creating layer conv4_1/incep/2_0/bn_scale
I0223 16:17:55.018281 22088 net.cpp:100] Creating Layer conv4_1/incep/2_0/bn_scale
I0223 16:17:55.018286 22088 net.cpp:434] conv4_1/incep/2_0/bn_scale <- conv4_1/incep/2_0
I0223 16:17:55.018292 22088 net.cpp:395] conv4_1/incep/2_0/bn_scale -> conv4_1/incep/2_0 (in-place)
I0223 16:17:55.018362 22088 layer_factory.hpp:77] Creating layer conv4_1/incep/2_0/bn_scale
I0223 16:17:55.018591 22088 net.cpp:150] Setting up conv4_1/incep/2_0/bn_scale
I0223 16:17:55.018599 22088 net.cpp:157] Top shape: 1 48 54 90 (233280)
I0223 16:17:55.018602 22088 net.cpp:165] Memory required for data: 1673084244
I0223 16:17:55.018610 22088 layer_factory.hpp:77] Creating layer conv4_1/incep/2_0/relu
I0223 16:17:55.018615 22088 net.cpp:100] Creating Layer conv4_1/incep/2_0/relu
I0223 16:17:55.018620 22088 net.cpp:434] conv4_1/incep/2_0/relu <- conv4_1/incep/2_0
I0223 16:17:55.018623 22088 net.cpp:395] conv4_1/incep/2_0/relu -> conv4_1/incep/2_0 (in-place)
I0223 16:17:55.018818 22088 net.cpp:150] Setting up conv4_1/incep/2_0/relu
I0223 16:17:55.018826 22088 net.cpp:157] Top shape: 1 48 54 90 (233280)
I0223 16:17:55.018829 22088 net.cpp:165] Memory required for data: 1674017364
I0223 16:17:55.018832 22088 layer_factory.hpp:77] Creating layer conv4_1/incep/2_1/conv
I0223 16:17:55.018842 22088 net.cpp:100] Creating Layer conv4_1/incep/2_1/conv
I0223 16:17:55.018846 22088 net.cpp:434] conv4_1/incep/2_1/conv <- conv4_1/incep/2_0
I0223 16:17:55.018851 22088 net.cpp:408] conv4_1/incep/2_1/conv -> conv4_1/incep/2_1
I0223 16:17:55.020184 22088 net.cpp:150] Setting up conv4_1/incep/2_1/conv
I0223 16:17:55.020197 22088 net.cpp:157] Top shape: 1 48 54 90 (233280)
I0223 16:17:55.020200 22088 net.cpp:165] Memory required for data: 1674950484
I0223 16:17:55.020205 22088 layer_factory.hpp:77] Creating layer conv4_1/incep/2_1/bn
I0223 16:17:55.020215 22088 net.cpp:100] Creating Layer conv4_1/incep/2_1/bn
I0223 16:17:55.020218 22088 net.cpp:434] conv4_1/incep/2_1/bn <- conv4_1/incep/2_1
I0223 16:17:55.020228 22088 net.cpp:395] conv4_1/incep/2_1/bn -> conv4_1/incep/2_1 (in-place)
I0223 16:17:55.020586 22088 net.cpp:150] Setting up conv4_1/incep/2_1/bn
I0223 16:17:55.020596 22088 net.cpp:157] Top shape: 1 48 54 90 (233280)
I0223 16:17:55.020598 22088 net.cpp:165] Memory required for data: 1675883604
I0223 16:17:55.020606 22088 layer_factory.hpp:77] Creating layer conv4_1/incep/2_1/bn_scale
I0223 16:17:55.020612 22088 net.cpp:100] Creating Layer conv4_1/incep/2_1/bn_scale
I0223 16:17:55.020615 22088 net.cpp:434] conv4_1/incep/2_1/bn_scale <- conv4_1/incep/2_1
I0223 16:17:55.020622 22088 net.cpp:395] conv4_1/incep/2_1/bn_scale -> conv4_1/incep/2_1 (in-place)
I0223 16:17:55.020689 22088 layer_factory.hpp:77] Creating layer conv4_1/incep/2_1/bn_scale
I0223 16:17:55.020905 22088 net.cpp:150] Setting up conv4_1/incep/2_1/bn_scale
I0223 16:17:55.020913 22088 net.cpp:157] Top shape: 1 48 54 90 (233280)
I0223 16:17:55.020916 22088 net.cpp:165] Memory required for data: 1676816724
I0223 16:17:55.020921 22088 layer_factory.hpp:77] Creating layer conv4_1/incep/2_1/relu
I0223 16:17:55.020928 22088 net.cpp:100] Creating Layer conv4_1/incep/2_1/relu
I0223 16:17:55.020932 22088 net.cpp:434] conv4_1/incep/2_1/relu <- conv4_1/incep/2_1
I0223 16:17:55.020937 22088 net.cpp:395] conv4_1/incep/2_1/relu -> conv4_1/incep/2_1 (in-place)
I0223 16:17:55.021278 22088 net.cpp:150] Setting up conv4_1/incep/2_1/relu
I0223 16:17:55.021291 22088 net.cpp:157] Top shape: 1 48 54 90 (233280)
I0223 16:17:55.021294 22088 net.cpp:165] Memory required for data: 1677749844
I0223 16:17:55.021298 22088 layer_factory.hpp:77] Creating layer conv4_1/incep/pool
I0223 16:17:55.021306 22088 net.cpp:100] Creating Layer conv4_1/incep/pool
I0223 16:17:55.021309 22088 net.cpp:434] conv4_1/incep/pool <- conv3_4_conv3_4_0_split_3
I0223 16:17:55.021314 22088 net.cpp:408] conv4_1/incep/pool -> conv4_1/incep/pool
I0223 16:17:55.021391 22088 net.cpp:150] Setting up conv4_1/incep/pool
I0223 16:17:55.021399 22088 net.cpp:157] Top shape: 1 128 54 90 (622080)
I0223 16:17:55.021402 22088 net.cpp:165] Memory required for data: 1680238164
I0223 16:17:55.021405 22088 layer_factory.hpp:77] Creating layer conv4_1/incep/poolproj/conv
I0223 16:17:55.021414 22088 net.cpp:100] Creating Layer conv4_1/incep/poolproj/conv
I0223 16:17:55.021417 22088 net.cpp:434] conv4_1/incep/poolproj/conv <- conv4_1/incep/pool
I0223 16:17:55.021425 22088 net.cpp:408] conv4_1/incep/poolproj/conv -> conv4_1/incep/poolproj
I0223 16:17:55.022641 22088 net.cpp:150] Setting up conv4_1/incep/poolproj/conv
I0223 16:17:55.022656 22088 net.cpp:157] Top shape: 1 128 54 90 (622080)
I0223 16:17:55.022660 22088 net.cpp:165] Memory required for data: 1682726484
I0223 16:17:55.022665 22088 layer_factory.hpp:77] Creating layer conv4_1/incep/poolproj/bn
I0223 16:17:55.022688 22088 net.cpp:100] Creating Layer conv4_1/incep/poolproj/bn
I0223 16:17:55.022693 22088 net.cpp:434] conv4_1/incep/poolproj/bn <- conv4_1/incep/poolproj
I0223 16:17:55.022699 22088 net.cpp:395] conv4_1/incep/poolproj/bn -> conv4_1/incep/poolproj (in-place)
I0223 16:17:55.023054 22088 net.cpp:150] Setting up conv4_1/incep/poolproj/bn
I0223 16:17:55.023062 22088 net.cpp:157] Top shape: 1 128 54 90 (622080)
I0223 16:17:55.023066 22088 net.cpp:165] Memory required for data: 1685214804
I0223 16:17:55.023072 22088 layer_factory.hpp:77] Creating layer conv4_1/incep/poolproj/bn_scale
I0223 16:17:55.023080 22088 net.cpp:100] Creating Layer conv4_1/incep/poolproj/bn_scale
I0223 16:17:55.023084 22088 net.cpp:434] conv4_1/incep/poolproj/bn_scale <- conv4_1/incep/poolproj
I0223 16:17:55.023090 22088 net.cpp:395] conv4_1/incep/poolproj/bn_scale -> conv4_1/incep/poolproj (in-place)
I0223 16:17:55.023157 22088 layer_factory.hpp:77] Creating layer conv4_1/incep/poolproj/bn_scale
I0223 16:17:55.023386 22088 net.cpp:150] Setting up conv4_1/incep/poolproj/bn_scale
I0223 16:17:55.023393 22088 net.cpp:157] Top shape: 1 128 54 90 (622080)
I0223 16:17:55.023397 22088 net.cpp:165] Memory required for data: 1687703124
I0223 16:17:55.023406 22088 layer_factory.hpp:77] Creating layer conv4_1/incep/poolproj/relu
I0223 16:17:55.023413 22088 net.cpp:100] Creating Layer conv4_1/incep/poolproj/relu
I0223 16:17:55.023416 22088 net.cpp:434] conv4_1/incep/poolproj/relu <- conv4_1/incep/poolproj
I0223 16:17:55.023423 22088 net.cpp:395] conv4_1/incep/poolproj/relu -> conv4_1/incep/poolproj (in-place)
I0223 16:17:55.023800 22088 net.cpp:150] Setting up conv4_1/incep/poolproj/relu
I0223 16:17:55.023813 22088 net.cpp:157] Top shape: 1 128 54 90 (622080)
I0223 16:17:55.023815 22088 net.cpp:165] Memory required for data: 1690191444
I0223 16:17:55.023819 22088 layer_factory.hpp:77] Creating layer conv4_1/incep
I0223 16:17:55.023825 22088 net.cpp:100] Creating Layer conv4_1/incep
I0223 16:17:55.023828 22088 net.cpp:434] conv4_1/incep <- conv4_1/incep/0
I0223 16:17:55.023834 22088 net.cpp:434] conv4_1/incep <- conv4_1/incep/1_0
I0223 16:17:55.023838 22088 net.cpp:434] conv4_1/incep <- conv4_1/incep/2_1
I0223 16:17:55.023843 22088 net.cpp:434] conv4_1/incep <- conv4_1/incep/poolproj
I0223 16:17:55.023846 22088 net.cpp:408] conv4_1/incep -> conv4_1/incep
I0223 16:17:55.023891 22088 net.cpp:150] Setting up conv4_1/incep
I0223 16:17:55.023897 22088 net.cpp:157] Top shape: 1 368 54 90 (1788480)
I0223 16:17:55.023900 22088 net.cpp:165] Memory required for data: 1697345364
I0223 16:17:55.023905 22088 layer_factory.hpp:77] Creating layer conv4_1/out/conv
I0223 16:17:55.023912 22088 net.cpp:100] Creating Layer conv4_1/out/conv
I0223 16:17:55.023916 22088 net.cpp:434] conv4_1/out/conv <- conv4_1/incep
I0223 16:17:55.023921 22088 net.cpp:408] conv4_1/out/conv -> conv4_1/out
I0223 16:17:55.025787 22088 net.cpp:150] Setting up conv4_1/out/conv
I0223 16:17:55.025800 22088 net.cpp:157] Top shape: 1 256 54 90 (1244160)
I0223 16:17:55.025804 22088 net.cpp:165] Memory required for data: 1702322004
I0223 16:17:55.025810 22088 layer_factory.hpp:77] Creating layer conv4_1/out/bn
I0223 16:17:55.025817 22088 net.cpp:100] Creating Layer conv4_1/out/bn
I0223 16:17:55.025821 22088 net.cpp:434] conv4_1/out/bn <- conv4_1/out
I0223 16:17:55.025827 22088 net.cpp:395] conv4_1/out/bn -> conv4_1/out (in-place)
I0223 16:17:55.026175 22088 net.cpp:150] Setting up conv4_1/out/bn
I0223 16:17:55.026206 22088 net.cpp:157] Top shape: 1 256 54 90 (1244160)
I0223 16:17:55.026208 22088 net.cpp:165] Memory required for data: 1707298644
I0223 16:17:55.026216 22088 layer_factory.hpp:77] Creating layer conv4_1/out/bn_scale
I0223 16:17:55.026222 22088 net.cpp:100] Creating Layer conv4_1/out/bn_scale
I0223 16:17:55.026226 22088 net.cpp:434] conv4_1/out/bn_scale <- conv4_1/out
I0223 16:17:55.026233 22088 net.cpp:395] conv4_1/out/bn_scale -> conv4_1/out (in-place)
I0223 16:17:55.026302 22088 layer_factory.hpp:77] Creating layer conv4_1/out/bn_scale
I0223 16:17:55.026515 22088 net.cpp:150] Setting up conv4_1/out/bn_scale
I0223 16:17:55.026523 22088 net.cpp:157] Top shape: 1 256 54 90 (1244160)
I0223 16:17:55.026526 22088 net.cpp:165] Memory required for data: 1712275284
I0223 16:17:55.026532 22088 layer_factory.hpp:77] Creating layer conv4_1/proj
I0223 16:17:55.026540 22088 net.cpp:100] Creating Layer conv4_1/proj
I0223 16:17:55.026545 22088 net.cpp:434] conv4_1/proj <- conv3_4_conv3_4_0_split_4
I0223 16:17:55.026552 22088 net.cpp:408] conv4_1/proj -> conv4_1/proj
I0223 16:17:55.028092 22088 net.cpp:150] Setting up conv4_1/proj
I0223 16:17:55.028107 22088 net.cpp:157] Top shape: 1 256 54 90 (1244160)
I0223 16:17:55.028111 22088 net.cpp:165] Memory required for data: 1717251924
I0223 16:17:55.028117 22088 layer_factory.hpp:77] Creating layer conv4_1/proj_bn
I0223 16:17:55.028125 22088 net.cpp:100] Creating Layer conv4_1/proj_bn
I0223 16:17:55.028128 22088 net.cpp:434] conv4_1/proj_bn <- conv4_1/proj
I0223 16:17:55.028136 22088 net.cpp:395] conv4_1/proj_bn -> conv4_1/proj (in-place)
I0223 16:17:55.028482 22088 net.cpp:150] Setting up conv4_1/proj_bn
I0223 16:17:55.028491 22088 net.cpp:157] Top shape: 1 256 54 90 (1244160)
I0223 16:17:55.028493 22088 net.cpp:165] Memory required for data: 1722228564
I0223 16:17:55.028504 22088 layer_factory.hpp:77] Creating layer conv4_1/proj_bn_scale
I0223 16:17:55.028513 22088 net.cpp:100] Creating Layer conv4_1/proj_bn_scale
I0223 16:17:55.028517 22088 net.cpp:434] conv4_1/proj_bn_scale <- conv4_1/proj
I0223 16:17:55.028522 22088 net.cpp:395] conv4_1/proj_bn_scale -> conv4_1/proj (in-place)
I0223 16:17:55.028586 22088 layer_factory.hpp:77] Creating layer conv4_1/proj_bn_scale
I0223 16:17:55.029428 22088 net.cpp:150] Setting up conv4_1/proj_bn_scale
I0223 16:17:55.029439 22088 net.cpp:157] Top shape: 1 256 54 90 (1244160)
I0223 16:17:55.029443 22088 net.cpp:165] Memory required for data: 1727205204
I0223 16:17:55.029449 22088 layer_factory.hpp:77] Creating layer conv4_1
I0223 16:17:55.029458 22088 net.cpp:100] Creating Layer conv4_1
I0223 16:17:55.029462 22088 net.cpp:434] conv4_1 <- conv4_1/out
I0223 16:17:55.029466 22088 net.cpp:434] conv4_1 <- conv4_1/proj
I0223 16:17:55.029471 22088 net.cpp:408] conv4_1 -> conv4_1
I0223 16:17:55.029512 22088 net.cpp:150] Setting up conv4_1
I0223 16:17:55.029520 22088 net.cpp:157] Top shape: 1 256 54 90 (1244160)
I0223 16:17:55.029522 22088 net.cpp:165] Memory required for data: 1732181844
I0223 16:17:55.029526 22088 layer_factory.hpp:77] Creating layer conv4_1_conv4_1_0_split
I0223 16:17:55.029533 22088 net.cpp:100] Creating Layer conv4_1_conv4_1_0_split
I0223 16:17:55.029537 22088 net.cpp:434] conv4_1_conv4_1_0_split <- conv4_1
I0223 16:17:55.029543 22088 net.cpp:408] conv4_1_conv4_1_0_split -> conv4_1_conv4_1_0_split_0
I0223 16:17:55.029551 22088 net.cpp:408] conv4_1_conv4_1_0_split -> conv4_1_conv4_1_0_split_1
I0223 16:17:55.029556 22088 net.cpp:408] conv4_1_conv4_1_0_split -> conv4_1_conv4_1_0_split_2
I0223 16:17:55.029562 22088 net.cpp:408] conv4_1_conv4_1_0_split -> conv4_1_conv4_1_0_split_3
I0223 16:17:55.029666 22088 net.cpp:150] Setting up conv4_1_conv4_1_0_split
I0223 16:17:55.029672 22088 net.cpp:157] Top shape: 1 256 54 90 (1244160)
I0223 16:17:55.029676 22088 net.cpp:157] Top shape: 1 256 54 90 (1244160)
I0223 16:17:55.029680 22088 net.cpp:157] Top shape: 1 256 54 90 (1244160)
I0223 16:17:55.029685 22088 net.cpp:157] Top shape: 1 256 54 90 (1244160)
I0223 16:17:55.029687 22088 net.cpp:165] Memory required for data: 1752088404
I0223 16:17:55.029690 22088 layer_factory.hpp:77] Creating layer conv4_2/incep/0/conv
I0223 16:17:55.029700 22088 net.cpp:100] Creating Layer conv4_2/incep/0/conv
I0223 16:17:55.029703 22088 net.cpp:434] conv4_2/incep/0/conv <- conv4_1_conv4_1_0_split_0
I0223 16:17:55.029711 22088 net.cpp:408] conv4_2/incep/0/conv -> conv4_2/incep/0
I0223 16:17:55.030933 22088 net.cpp:150] Setting up conv4_2/incep/0/conv
I0223 16:17:55.030947 22088 net.cpp:157] Top shape: 1 64 54 90 (311040)
I0223 16:17:55.030951 22088 net.cpp:165] Memory required for data: 1753332564
I0223 16:17:55.030956 22088 layer_factory.hpp:77] Creating layer conv4_2/incep/0/bn
I0223 16:17:55.030963 22088 net.cpp:100] Creating Layer conv4_2/incep/0/bn
I0223 16:17:55.030968 22088 net.cpp:434] conv4_2/incep/0/bn <- conv4_2/incep/0
I0223 16:17:55.030975 22088 net.cpp:395] conv4_2/incep/0/bn -> conv4_2/incep/0 (in-place)
I0223 16:17:55.031324 22088 net.cpp:150] Setting up conv4_2/incep/0/bn
I0223 16:17:55.031332 22088 net.cpp:157] Top shape: 1 64 54 90 (311040)
I0223 16:17:55.031337 22088 net.cpp:165] Memory required for data: 1754576724
I0223 16:17:55.031342 22088 layer_factory.hpp:77] Creating layer conv4_2/incep/0/bn_scale
I0223 16:17:55.031350 22088 net.cpp:100] Creating Layer conv4_2/incep/0/bn_scale
I0223 16:17:55.031354 22088 net.cpp:434] conv4_2/incep/0/bn_scale <- conv4_2/incep/0
I0223 16:17:55.031359 22088 net.cpp:395] conv4_2/incep/0/bn_scale -> conv4_2/incep/0 (in-place)
I0223 16:17:55.031426 22088 layer_factory.hpp:77] Creating layer conv4_2/incep/0/bn_scale
I0223 16:17:55.031638 22088 net.cpp:150] Setting up conv4_2/incep/0/bn_scale
I0223 16:17:55.031646 22088 net.cpp:157] Top shape: 1 64 54 90 (311040)
I0223 16:17:55.031649 22088 net.cpp:165] Memory required for data: 1755820884
I0223 16:17:55.031654 22088 layer_factory.hpp:77] Creating layer conv4_2/incep/0/relu
I0223 16:17:55.031664 22088 net.cpp:100] Creating Layer conv4_2/incep/0/relu
I0223 16:17:55.031668 22088 net.cpp:434] conv4_2/incep/0/relu <- conv4_2/incep/0
I0223 16:17:55.031674 22088 net.cpp:395] conv4_2/incep/0/relu -> conv4_2/incep/0 (in-place)
I0223 16:17:55.032019 22088 net.cpp:150] Setting up conv4_2/incep/0/relu
I0223 16:17:55.032032 22088 net.cpp:157] Top shape: 1 64 54 90 (311040)
I0223 16:17:55.032034 22088 net.cpp:165] Memory required for data: 1757065044
I0223 16:17:55.032037 22088 layer_factory.hpp:77] Creating layer conv4_2/incep/1_reduce/conv
I0223 16:17:55.032047 22088 net.cpp:100] Creating Layer conv4_2/incep/1_reduce/conv
I0223 16:17:55.032052 22088 net.cpp:434] conv4_2/incep/1_reduce/conv <- conv4_1_conv4_1_0_split_1
I0223 16:17:55.032058 22088 net.cpp:408] conv4_2/incep/1_reduce/conv -> conv4_2/incep/1_reduce
I0223 16:17:55.033541 22088 net.cpp:150] Setting up conv4_2/incep/1_reduce/conv
I0223 16:17:55.033555 22088 net.cpp:157] Top shape: 1 64 54 90 (311040)
I0223 16:17:55.033558 22088 net.cpp:165] Memory required for data: 1758309204
I0223 16:17:55.033563 22088 layer_factory.hpp:77] Creating layer conv4_2/incep/1_reduce/bn
I0223 16:17:55.033572 22088 net.cpp:100] Creating Layer conv4_2/incep/1_reduce/bn
I0223 16:17:55.033576 22088 net.cpp:434] conv4_2/incep/1_reduce/bn <- conv4_2/incep/1_reduce
I0223 16:17:55.033583 22088 net.cpp:395] conv4_2/incep/1_reduce/bn -> conv4_2/incep/1_reduce (in-place)
I0223 16:17:55.033934 22088 net.cpp:150] Setting up conv4_2/incep/1_reduce/bn
I0223 16:17:55.033944 22088 net.cpp:157] Top shape: 1 64 54 90 (311040)
I0223 16:17:55.033947 22088 net.cpp:165] Memory required for data: 1759553364
I0223 16:17:55.033954 22088 layer_factory.hpp:77] Creating layer conv4_2/incep/1_reduce/bn_scale
I0223 16:17:55.033960 22088 net.cpp:100] Creating Layer conv4_2/incep/1_reduce/bn_scale
I0223 16:17:55.033964 22088 net.cpp:434] conv4_2/incep/1_reduce/bn_scale <- conv4_2/incep/1_reduce
I0223 16:17:55.033970 22088 net.cpp:395] conv4_2/incep/1_reduce/bn_scale -> conv4_2/incep/1_reduce (in-place)
I0223 16:17:55.034039 22088 layer_factory.hpp:77] Creating layer conv4_2/incep/1_reduce/bn_scale
I0223 16:17:55.034276 22088 net.cpp:150] Setting up conv4_2/incep/1_reduce/bn_scale
I0223 16:17:55.034286 22088 net.cpp:157] Top shape: 1 64 54 90 (311040)
I0223 16:17:55.034289 22088 net.cpp:165] Memory required for data: 1760797524
I0223 16:17:55.034294 22088 layer_factory.hpp:77] Creating layer conv4_2/incep/1_reduce/relu
I0223 16:17:55.034303 22088 net.cpp:100] Creating Layer conv4_2/incep/1_reduce/relu
I0223 16:17:55.034307 22088 net.cpp:434] conv4_2/incep/1_reduce/relu <- conv4_2/incep/1_reduce
I0223 16:17:55.034312 22088 net.cpp:395] conv4_2/incep/1_reduce/relu -> conv4_2/incep/1_reduce (in-place)
I0223 16:17:55.034510 22088 net.cpp:150] Setting up conv4_2/incep/1_reduce/relu
I0223 16:17:55.034518 22088 net.cpp:157] Top shape: 1 64 54 90 (311040)
I0223 16:17:55.034523 22088 net.cpp:165] Memory required for data: 1762041684
I0223 16:17:55.034525 22088 layer_factory.hpp:77] Creating layer conv4_2/incep/1_0/conv
I0223 16:17:55.034535 22088 net.cpp:100] Creating Layer conv4_2/incep/1_0/conv
I0223 16:17:55.034539 22088 net.cpp:434] conv4_2/incep/1_0/conv <- conv4_2/incep/1_reduce
I0223 16:17:55.034546 22088 net.cpp:408] conv4_2/incep/1_0/conv -> conv4_2/incep/1_0
I0223 16:17:55.036461 22088 net.cpp:150] Setting up conv4_2/incep/1_0/conv
I0223 16:17:55.036475 22088 net.cpp:157] Top shape: 1 128 54 90 (622080)
I0223 16:17:55.036478 22088 net.cpp:165] Memory required for data: 1764530004
I0223 16:17:55.036484 22088 layer_factory.hpp:77] Creating layer conv4_2/incep/1_0/bn
I0223 16:17:55.036492 22088 net.cpp:100] Creating Layer conv4_2/incep/1_0/bn
I0223 16:17:55.036496 22088 net.cpp:434] conv4_2/incep/1_0/bn <- conv4_2/incep/1_0
I0223 16:17:55.036504 22088 net.cpp:395] conv4_2/incep/1_0/bn -> conv4_2/incep/1_0 (in-place)
I0223 16:17:55.036854 22088 net.cpp:150] Setting up conv4_2/incep/1_0/bn
I0223 16:17:55.036864 22088 net.cpp:157] Top shape: 1 128 54 90 (622080)
I0223 16:17:55.036870 22088 net.cpp:165] Memory required for data: 1767018324
I0223 16:17:55.036877 22088 layer_factory.hpp:77] Creating layer conv4_2/incep/1_0/bn_scale
I0223 16:17:55.036886 22088 net.cpp:100] Creating Layer conv4_2/incep/1_0/bn_scale
I0223 16:17:55.036890 22088 net.cpp:434] conv4_2/incep/1_0/bn_scale <- conv4_2/incep/1_0
I0223 16:17:55.036895 22088 net.cpp:395] conv4_2/incep/1_0/bn_scale -> conv4_2/incep/1_0 (in-place)
I0223 16:17:55.036962 22088 layer_factory.hpp:77] Creating layer conv4_2/incep/1_0/bn_scale
I0223 16:17:55.037158 22088 net.cpp:150] Setting up conv4_2/incep/1_0/bn_scale
I0223 16:17:55.037165 22088 net.cpp:157] Top shape: 1 128 54 90 (622080)
I0223 16:17:55.037168 22088 net.cpp:165] Memory required for data: 1769506644
I0223 16:17:55.037174 22088 layer_factory.hpp:77] Creating layer conv4_2/incep/1_0/relu
I0223 16:17:55.037180 22088 net.cpp:100] Creating Layer conv4_2/incep/1_0/relu
I0223 16:17:55.037184 22088 net.cpp:434] conv4_2/incep/1_0/relu <- conv4_2/incep/1_0
I0223 16:17:55.037190 22088 net.cpp:395] conv4_2/incep/1_0/relu -> conv4_2/incep/1_0 (in-place)
I0223 16:17:55.037538 22088 net.cpp:150] Setting up conv4_2/incep/1_0/relu
I0223 16:17:55.037549 22088 net.cpp:157] Top shape: 1 128 54 90 (622080)
I0223 16:17:55.037554 22088 net.cpp:165] Memory required for data: 1771994964
I0223 16:17:55.037556 22088 layer_factory.hpp:77] Creating layer conv4_2/incep/2_reduce/conv
I0223 16:17:55.037566 22088 net.cpp:100] Creating Layer conv4_2/incep/2_reduce/conv
I0223 16:17:55.037571 22088 net.cpp:434] conv4_2/incep/2_reduce/conv <- conv4_1_conv4_1_0_split_2
I0223 16:17:55.037580 22088 net.cpp:408] conv4_2/incep/2_reduce/conv -> conv4_2/incep/2_reduce
I0223 16:17:55.038823 22088 net.cpp:150] Setting up conv4_2/incep/2_reduce/conv
I0223 16:17:55.038836 22088 net.cpp:157] Top shape: 1 24 54 90 (116640)
I0223 16:17:55.038841 22088 net.cpp:165] Memory required for data: 1772461524
I0223 16:17:55.038846 22088 layer_factory.hpp:77] Creating layer conv4_2/incep/2_reduce/bn
I0223 16:17:55.038854 22088 net.cpp:100] Creating Layer conv4_2/incep/2_reduce/bn
I0223 16:17:55.038858 22088 net.cpp:434] conv4_2/incep/2_reduce/bn <- conv4_2/incep/2_reduce
I0223 16:17:55.038864 22088 net.cpp:395] conv4_2/incep/2_reduce/bn -> conv4_2/incep/2_reduce (in-place)
I0223 16:17:55.039227 22088 net.cpp:150] Setting up conv4_2/incep/2_reduce/bn
I0223 16:17:55.039234 22088 net.cpp:157] Top shape: 1 24 54 90 (116640)
I0223 16:17:55.039237 22088 net.cpp:165] Memory required for data: 1772928084
I0223 16:17:55.039244 22088 layer_factory.hpp:77] Creating layer conv4_2/incep/2_reduce/bn_scale
I0223 16:17:55.039254 22088 net.cpp:100] Creating Layer conv4_2/incep/2_reduce/bn_scale
I0223 16:17:55.039258 22088 net.cpp:434] conv4_2/incep/2_reduce/bn_scale <- conv4_2/incep/2_reduce
I0223 16:17:55.039263 22088 net.cpp:395] conv4_2/incep/2_reduce/bn_scale -> conv4_2/incep/2_reduce (in-place)
I0223 16:17:55.039330 22088 layer_factory.hpp:77] Creating layer conv4_2/incep/2_reduce/bn_scale
I0223 16:17:55.039548 22088 net.cpp:150] Setting up conv4_2/incep/2_reduce/bn_scale
I0223 16:17:55.039556 22088 net.cpp:157] Top shape: 1 24 54 90 (116640)
I0223 16:17:55.039559 22088 net.cpp:165] Memory required for data: 1773394644
I0223 16:17:55.039564 22088 layer_factory.hpp:77] Creating layer conv4_2/incep/2_reduce/relu
I0223 16:17:55.039571 22088 net.cpp:100] Creating Layer conv4_2/incep/2_reduce/relu
I0223 16:17:55.039574 22088 net.cpp:434] conv4_2/incep/2_reduce/relu <- conv4_2/incep/2_reduce
I0223 16:17:55.039578 22088 net.cpp:395] conv4_2/incep/2_reduce/relu -> conv4_2/incep/2_reduce (in-place)
I0223 16:17:55.039921 22088 net.cpp:150] Setting up conv4_2/incep/2_reduce/relu
I0223 16:17:55.039932 22088 net.cpp:157] Top shape: 1 24 54 90 (116640)
I0223 16:17:55.039935 22088 net.cpp:165] Memory required for data: 1773861204
I0223 16:17:55.039939 22088 layer_factory.hpp:77] Creating layer conv4_2/incep/2_0/conv
I0223 16:17:55.039949 22088 net.cpp:100] Creating Layer conv4_2/incep/2_0/conv
I0223 16:17:55.039953 22088 net.cpp:434] conv4_2/incep/2_0/conv <- conv4_2/incep/2_reduce
I0223 16:17:55.039965 22088 net.cpp:408] conv4_2/incep/2_0/conv -> conv4_2/incep/2_0
I0223 16:17:55.041262 22088 net.cpp:150] Setting up conv4_2/incep/2_0/conv
I0223 16:17:55.041277 22088 net.cpp:157] Top shape: 1 48 54 90 (233280)
I0223 16:17:55.041281 22088 net.cpp:165] Memory required for data: 1774794324
I0223 16:17:55.041287 22088 layer_factory.hpp:77] Creating layer conv4_2/incep/2_0/bn
I0223 16:17:55.041293 22088 net.cpp:100] Creating Layer conv4_2/incep/2_0/bn
I0223 16:17:55.041298 22088 net.cpp:434] conv4_2/incep/2_0/bn <- conv4_2/incep/2_0
I0223 16:17:55.041306 22088 net.cpp:395] conv4_2/incep/2_0/bn -> conv4_2/incep/2_0 (in-place)
I0223 16:17:55.041664 22088 net.cpp:150] Setting up conv4_2/incep/2_0/bn
I0223 16:17:55.041673 22088 net.cpp:157] Top shape: 1 48 54 90 (233280)
I0223 16:17:55.041677 22088 net.cpp:165] Memory required for data: 1775727444
I0223 16:17:55.041683 22088 layer_factory.hpp:77] Creating layer conv4_2/incep/2_0/bn_scale
I0223 16:17:55.041690 22088 net.cpp:100] Creating Layer conv4_2/incep/2_0/bn_scale
I0223 16:17:55.041694 22088 net.cpp:434] conv4_2/incep/2_0/bn_scale <- conv4_2/incep/2_0
I0223 16:17:55.041702 22088 net.cpp:395] conv4_2/incep/2_0/bn_scale -> conv4_2/incep/2_0 (in-place)
I0223 16:17:55.041769 22088 layer_factory.hpp:77] Creating layer conv4_2/incep/2_0/bn_scale
I0223 16:17:55.041981 22088 net.cpp:150] Setting up conv4_2/incep/2_0/bn_scale
I0223 16:17:55.041988 22088 net.cpp:157] Top shape: 1 48 54 90 (233280)
I0223 16:17:55.041992 22088 net.cpp:165] Memory required for data: 1776660564
I0223 16:17:55.041997 22088 layer_factory.hpp:77] Creating layer conv4_2/incep/2_0/relu
I0223 16:17:55.042004 22088 net.cpp:100] Creating Layer conv4_2/incep/2_0/relu
I0223 16:17:55.042008 22088 net.cpp:434] conv4_2/incep/2_0/relu <- conv4_2/incep/2_0
I0223 16:17:55.042013 22088 net.cpp:395] conv4_2/incep/2_0/relu -> conv4_2/incep/2_0 (in-place)
I0223 16:17:55.042213 22088 net.cpp:150] Setting up conv4_2/incep/2_0/relu
I0223 16:17:55.042222 22088 net.cpp:157] Top shape: 1 48 54 90 (233280)
I0223 16:17:55.042225 22088 net.cpp:165] Memory required for data: 1777593684
I0223 16:17:55.042229 22088 layer_factory.hpp:77] Creating layer conv4_2/incep/2_1/conv
I0223 16:17:55.042239 22088 net.cpp:100] Creating Layer conv4_2/incep/2_1/conv
I0223 16:17:55.042244 22088 net.cpp:434] conv4_2/incep/2_1/conv <- conv4_2/incep/2_0
I0223 16:17:55.042250 22088 net.cpp:408] conv4_2/incep/2_1/conv -> conv4_2/incep/2_1
I0223 16:17:55.043648 22088 net.cpp:150] Setting up conv4_2/incep/2_1/conv
I0223 16:17:55.043663 22088 net.cpp:157] Top shape: 1 48 54 90 (233280)
I0223 16:17:55.043666 22088 net.cpp:165] Memory required for data: 1778526804
I0223 16:17:55.043671 22088 layer_factory.hpp:77] Creating layer conv4_2/incep/2_1/bn
I0223 16:17:55.043678 22088 net.cpp:100] Creating Layer conv4_2/incep/2_1/bn
I0223 16:17:55.043684 22088 net.cpp:434] conv4_2/incep/2_1/bn <- conv4_2/incep/2_1
I0223 16:17:55.043689 22088 net.cpp:395] conv4_2/incep/2_1/bn -> conv4_2/incep/2_1 (in-place)
I0223 16:17:55.044056 22088 net.cpp:150] Setting up conv4_2/incep/2_1/bn
I0223 16:17:55.044065 22088 net.cpp:157] Top shape: 1 48 54 90 (233280)
I0223 16:17:55.044069 22088 net.cpp:165] Memory required for data: 1779459924
I0223 16:17:55.044075 22088 layer_factory.hpp:77] Creating layer conv4_2/incep/2_1/bn_scale
I0223 16:17:55.044082 22088 net.cpp:100] Creating Layer conv4_2/incep/2_1/bn_scale
I0223 16:17:55.044086 22088 net.cpp:434] conv4_2/incep/2_1/bn_scale <- conv4_2/incep/2_1
I0223 16:17:55.044092 22088 net.cpp:395] conv4_2/incep/2_1/bn_scale -> conv4_2/incep/2_1 (in-place)
I0223 16:17:55.044157 22088 layer_factory.hpp:77] Creating layer conv4_2/incep/2_1/bn_scale
I0223 16:17:55.044373 22088 net.cpp:150] Setting up conv4_2/incep/2_1/bn_scale
I0223 16:17:55.044380 22088 net.cpp:157] Top shape: 1 48 54 90 (233280)
I0223 16:17:55.044384 22088 net.cpp:165] Memory required for data: 1780393044
I0223 16:17:55.044389 22088 layer_factory.hpp:77] Creating layer conv4_2/incep/2_1/relu
I0223 16:17:55.044394 22088 net.cpp:100] Creating Layer conv4_2/incep/2_1/relu
I0223 16:17:55.044402 22088 net.cpp:434] conv4_2/incep/2_1/relu <- conv4_2/incep/2_1
I0223 16:17:55.044407 22088 net.cpp:395] conv4_2/incep/2_1/relu -> conv4_2/incep/2_1 (in-place)
I0223 16:17:55.044759 22088 net.cpp:150] Setting up conv4_2/incep/2_1/relu
I0223 16:17:55.044770 22088 net.cpp:157] Top shape: 1 48 54 90 (233280)
I0223 16:17:55.044773 22088 net.cpp:165] Memory required for data: 1781326164
I0223 16:17:55.044776 22088 layer_factory.hpp:77] Creating layer conv4_2/incep
I0223 16:17:55.044782 22088 net.cpp:100] Creating Layer conv4_2/incep
I0223 16:17:55.044786 22088 net.cpp:434] conv4_2/incep <- conv4_2/incep/0
I0223 16:17:55.044793 22088 net.cpp:434] conv4_2/incep <- conv4_2/incep/1_0
I0223 16:17:55.044797 22088 net.cpp:434] conv4_2/incep <- conv4_2/incep/2_1
I0223 16:17:55.044802 22088 net.cpp:408] conv4_2/incep -> conv4_2/incep
I0223 16:17:55.044849 22088 net.cpp:150] Setting up conv4_2/incep
I0223 16:17:55.044857 22088 net.cpp:157] Top shape: 1 240 54 90 (1166400)
I0223 16:17:55.044859 22088 net.cpp:165] Memory required for data: 1785991764
I0223 16:17:55.044862 22088 layer_factory.hpp:77] Creating layer conv4_2/out/conv
I0223 16:17:55.044873 22088 net.cpp:100] Creating Layer conv4_2/out/conv
I0223 16:17:55.044878 22088 net.cpp:434] conv4_2/out/conv <- conv4_2/incep
I0223 16:17:55.044883 22088 net.cpp:408] conv4_2/out/conv -> conv4_2/out
I0223 16:17:55.047224 22088 net.cpp:150] Setting up conv4_2/out/conv
I0223 16:17:55.047238 22088 net.cpp:157] Top shape: 1 256 54 90 (1244160)
I0223 16:17:55.047242 22088 net.cpp:165] Memory required for data: 1790968404
I0223 16:17:55.047247 22088 layer_factory.hpp:77] Creating layer conv4_2/out/bn
I0223 16:17:55.047255 22088 net.cpp:100] Creating Layer conv4_2/out/bn
I0223 16:17:55.047260 22088 net.cpp:434] conv4_2/out/bn <- conv4_2/out
I0223 16:17:55.047267 22088 net.cpp:395] conv4_2/out/bn -> conv4_2/out (in-place)
I0223 16:17:55.047626 22088 net.cpp:150] Setting up conv4_2/out/bn
I0223 16:17:55.047634 22088 net.cpp:157] Top shape: 1 256 54 90 (1244160)
I0223 16:17:55.047637 22088 net.cpp:165] Memory required for data: 1795945044
I0223 16:17:55.047644 22088 layer_factory.hpp:77] Creating layer conv4_2/out/bn_scale
I0223 16:17:55.047652 22088 net.cpp:100] Creating Layer conv4_2/out/bn_scale
I0223 16:17:55.047657 22088 net.cpp:434] conv4_2/out/bn_scale <- conv4_2/out
I0223 16:17:55.047660 22088 net.cpp:395] conv4_2/out/bn_scale -> conv4_2/out (in-place)
I0223 16:17:55.047727 22088 layer_factory.hpp:77] Creating layer conv4_2/out/bn_scale
I0223 16:17:55.047930 22088 net.cpp:150] Setting up conv4_2/out/bn_scale
I0223 16:17:55.047936 22088 net.cpp:157] Top shape: 1 256 54 90 (1244160)
I0223 16:17:55.047940 22088 net.cpp:165] Memory required for data: 1800921684
…
I0223 16:17:55.157104 22088 net.cpp:157] Top shape: 1 384 27 45 (466560)
I0223 16:17:55.157106 22088 net.cpp:165] Memory required for data: 2091122004
I0223 16:17:55.157110 22088 layer_factory.hpp:77] Creating layer conv5_4/incep/0/conv
I0223 16:17:55.157117 22088 net.cpp:100] Creating Layer conv5_4/incep/0/conv
I0223 16:17:55.157121 22088 net.cpp:434] conv5_4/incep/0/conv <- conv5_3_conv5_3_0_split_0
I0223 16:17:55.157131 22088 net.cpp:408] conv5_4/incep/0/conv -> conv5_4/incep/0
I0223 16:17:55.158802 22088 net.cpp:150] Setting up conv5_4/incep/0/conv
I0223 16:17:55.158818 22088 net.cpp:157] Top shape: 1 64 27 45 (77760)
I0223 16:17:55.158821 22088 net.cpp:165] Memory required for data: 2091433044
I0223 16:17:55.158828 22088 layer_factory.hpp:77] Creating layer conv5_4/incep/0/bn
I0223 16:17:55.158834 22088 net.cpp:100] Creating Layer conv5_4/incep/0/bn
I0223 16:17:55.158839 22088 net.cpp:434] conv5_4/incep/0/bn <- conv5_4/incep/0
I0223 16:17:55.158846 22088 net.cpp:395] conv5_4/incep/0/bn -> conv5_4/incep/0 (in-place)
I0223 16:17:55.159247 22088 net.cpp:150] Setting up conv5_4/incep/0/bn
I0223 16:17:55.159255 22088 net.cpp:157] Top shape: 1 64 27 45 (77760)
I0223 16:17:55.159260 22088 net.cpp:165] Memory required for data: 2091744084
I0223 16:17:55.159266 22088 layer_factory.hpp:77] Creating layer conv5_4/incep/0/bn_scale
I0223 16:17:55.159276 22088 net.cpp:100] Creating Layer conv5_4/incep/0/bn_scale
I0223 16:17:55.159279 22088 net.cpp:434] conv5_4/incep/0/bn_scale <- conv5_4/incep/0
I0223 16:17:55.159284 22088 net.cpp:395] conv5_4/incep/0/bn_scale -> conv5_4/incep/0 (in-place)
I0223 16:17:55.159363 22088 layer_factory.hpp:77] Creating layer conv5_4/incep/0/bn_scale
I0223 16:17:55.159600 22088 net.cpp:150] Setting up conv5_4/incep/0/bn_scale
I0223 16:17:55.159608 22088 net.cpp:157] Top shape: 1 64 27 45 (77760)
I0223 16:17:55.159611 22088 net.cpp:165] Memory required for data: 2092055124
I0223 16:17:55.159621 22088 layer_factory.hpp:77] Creating layer conv5_4/incep/0/relu
I0223 16:17:55.159628 22088 net.cpp:100] Creating Layer conv5_4/incep/0/relu
I0223 16:17:55.159632 22088 net.cpp:434] conv5_4/incep/0/relu <- conv5_4/incep/0
I0223 16:17:55.159638 22088 net.cpp:395] conv5_4/incep/0/relu -> conv5_4/incep/0 (in-place)
I0223 16:17:55.160065 22088 net.cpp:150] Setting up conv5_4/incep/0/relu
I0223 16:17:55.160079 22088 net.cpp:157] Top shape: 1 64 27 45 (77760)
I0223 16:17:55.160081 22088 net.cpp:165] Memory required for data: 2092366164
I0223 16:17:55.160085 22088 layer_factory.hpp:77] Creating layer conv5_4/incep/1_reduce/conv
I0223 16:17:55.160095 22088 net.cpp:100] Creating Layer conv5_4/incep/1_reduce/conv
I0223 16:17:55.160100 22088 net.cpp:434] conv5_4/incep/1_reduce/conv <- conv5_3_conv5_3_0_split_1
I0223 16:17:55.160109 22088 net.cpp:408] conv5_4/incep/1_reduce/conv -> conv5_4/incep/1_reduce
I0223 16:17:55.161972 22088 net.cpp:150] Setting up conv5_4/incep/1_reduce/conv
I0223 16:17:55.161986 22088 net.cpp:157] Top shape: 1 96 27 45 (116640)
I0223 16:17:55.161989 22088 net.cpp:165] Memory required for data: 2092832724
I0223 16:17:55.161995 22088 layer_factory.hpp:77] Creating layer conv5_4/incep/1_reduce/bn
I0223 16:17:55.162004 22088 net.cpp:100] Creating Layer conv5_4/incep/1_reduce/bn
I0223 16:17:55.162009 22088 net.cpp:434] conv5_4/incep/1_reduce/bn <- conv5_4/incep/1_reduce
I0223 16:17:55.162015 22088 net.cpp:395] conv5_4/incep/1_reduce/bn -> conv5_4/incep/1_reduce (in-place)
I0223 16:17:55.162480 22088 net.cpp:150] Setting up conv5_4/incep/1_reduce/bn
I0223 16:17:55.162492 22088 net.cpp:157] Top shape: 1 96 27 45 (116640)
I0223 16:17:55.162497 22088 net.cpp:165] Memory required for data: 2093299284
I0223 16:17:55.162504 22088 layer_factory.hpp:77] Creating layer conv5_4/incep/1_reduce/bn_scale
I0223 16:17:55.162511 22088 net.cpp:100] Creating Layer conv5_4/incep/1_reduce/bn_scale
I0223 16:17:55.162516 22088 net.cpp:434] conv5_4/incep/1_reduce/bn_scale <- conv5_4/incep/1_reduce
I0223 16:17:55.162523 22088 net.cpp:395] conv5_4/incep/1_reduce/bn_scale -> conv5_4/incep/1_reduce (in-place)
I0223 16:17:55.162609 22088 layer_factory.hpp:77] Creating layer conv5_4/incep/1_reduce/bn_scale
I0223 16:17:55.162883 22088 net.cpp:150] Setting up conv5_4/incep/1_reduce/bn_scale
I0223 16:17:55.162892 22088 net.cpp:157] Top shape: 1 96 27 45 (116640)
I0223 16:17:55.162895 22088 net.cpp:165] Memory required for data: 2093765844
I0223 16:17:55.162901 22088 layer_factory.hpp:77] Creating layer conv5_4/incep/1_reduce/relu
I0223 16:17:55.162909 22088 net.cpp:100] Creating Layer conv5_4/incep/1_reduce/relu
I0223 16:17:55.162914 22088 net.cpp:434] conv5_4/incep/1_reduce/relu <- conv5_4/incep/1_reduce
I0223 16:17:55.162919 22088 net.cpp:395] conv5_4/incep/1_reduce/relu -> conv5_4/incep/1_reduce (in-place)
I0223 16:17:55.163159 22088 net.cpp:150] Setting up conv5_4/incep/1_reduce/relu
I0223 16:17:55.163168 22088 net.cpp:157] Top shape: 1 96 27 45 (116640)
I0223 16:17:55.163172 22088 net.cpp:165] Memory required for data: 2094232404
I0223 16:17:55.163175 22088 layer_factory.hpp:77] Creating layer conv5_4/incep/1_0/conv
I0223 16:17:55.163187 22088 net.cpp:100] Creating Layer conv5_4/incep/1_0/conv
I0223 16:17:55.163190 22088 net.cpp:434] conv5_4/incep/1_0/conv <- conv5_4/incep/1_reduce
I0223 16:17:55.163197 22088 net.cpp:408] conv5_4/incep/1_0/conv -> conv5_4/incep/1_0
I0223 16:17:55.166760 22088 net.cpp:150] Setting up conv5_4/incep/1_0/conv
I0223 16:17:55.166779 22088 net.cpp:157] Top shape: 1 192 27 45 (233280)
I0223 16:17:55.166781 22088 net.cpp:165] Memory required for data: 2095165524
I0223 16:17:55.166787 22088 layer_factory.hpp:77] Creating layer conv5_4/incep/1_0/bn
I0223 16:17:55.166797 22088 net.cpp:100] Creating Layer conv5_4/incep/1_0/bn
I0223 16:17:55.166802 22088 net.cpp:434] conv5_4/incep/1_0/bn <- conv5_4/incep/1_0
I0223 16:17:55.166808 22088 net.cpp:395] conv5_4/incep/1_0/bn -> conv5_4/incep/1_0 (in-place)
I0223 16:17:55.167209 22088 net.cpp:150] Setting up conv5_4/incep/1_0/bn
I0223 16:17:55.167218 22088 net.cpp:157] Top shape: 1 192 27 45 (233280)
I0223 16:17:55.167227 22088 net.cpp:165] Memory required for data: 2096098644
I0223 16:17:55.167235 22088 layer_factory.hpp:77] Creating layer conv5_4/incep/1_0/bn_scale
I0223 16:17:55.167244 22088 net.cpp:100] Creating Layer conv5_4/incep/1_0/bn_scale
I0223 16:17:55.167248 22088 net.cpp:434] conv5_4/incep/1_0/bn_scale <- conv5_4/incep/1_0
I0223 16:17:55.167255 22088 net.cpp:395] conv5_4/incep/1_0/bn_scale -> conv5_4/incep/1_0 (in-place)
I0223 16:17:55.167320 22088 layer_factory.hpp:77] Creating layer conv5_4/incep/1_0/bn_scale
I0223 16:17:55.167574 22088 net.cpp:150] Setting up conv5_4/incep/1_0/bn_scale
I0223 16:17:55.167583 22088 net.cpp:157] Top shape: 1 192 27 45 (233280)
I0223 16:17:55.167587 22088 net.cpp:165] Memory required for data: 2097031764
I0223 16:17:55.167593 22088 layer_factory.hpp:77] Creating layer conv5_4/incep/1_0/relu
I0223 16:17:55.167598 22088 net.cpp:100] Creating Layer conv5_4/incep/1_0/relu
I0223 16:17:55.167603 22088 net.cpp:434] conv5_4/incep/1_0/relu <- conv5_4/incep/1_0
I0223 16:17:55.167608 22088 net.cpp:395] conv5_4/incep/1_0/relu -> conv5_4/incep/1_0 (in-place)
I0223 16:17:55.167837 22088 net.cpp:150] Setting up conv5_4/incep/1_0/relu
I0223 16:17:55.167846 22088 net.cpp:157] Top shape: 1 192 27 45 (233280)
I0223 16:17:55.167850 22088 net.cpp:165] Memory required for data: 2097964884
I0223 16:17:55.167853 22088 layer_factory.hpp:77] Creating layer conv5_4/incep/2_reduce/conv
I0223 16:17:55.167865 22088 net.cpp:100] Creating Layer conv5_4/incep/2_reduce/conv
I0223 16:17:55.167870 22088 net.cpp:434] conv5_4/incep/2_reduce/conv <- conv5_3_conv5_3_0_split_2
I0223 16:17:55.167876 22088 net.cpp:408] conv5_4/incep/2_reduce/conv -> conv5_4/incep/2_reduce
I0223 16:17:55.170102 22088 net.cpp:150] Setting up conv5_4/incep/2_reduce/conv
I0223 16:17:55.170117 22088 net.cpp:157] Top shape: 1 32 27 45 (38880)
I0223 16:17:55.170121 22088 net.cpp:165] Memory required for data: 2098120404
I0223 16:17:55.170127 22088 layer_factory.hpp:77] Creating layer conv5_4/incep/2_reduce/bn
I0223 16:17:55.170136 22088 net.cpp:100] Creating Layer conv5_4/incep/2_reduce/bn
I0223 16:17:55.170141 22088 net.cpp:434] conv5_4/incep/2_reduce/bn <- conv5_4/incep/2_reduce
I0223 16:17:55.170150 22088 net.cpp:395] conv5_4/incep/2_reduce/bn -> conv5_4/incep/2_reduce (in-place)
I0223 16:17:55.170639 22088 net.cpp:150] Setting up conv5_4/incep/2_reduce/bn
I0223 16:17:55.170650 22088 net.cpp:157] Top shape: 1 32 27 45 (38880)
I0223 16:17:55.170652 22088 net.cpp:165] Memory required for data: 2098275924
I0223 16:17:55.170660 22088 layer_factory.hpp:77] Creating layer conv5_4/incep/2_reduce/bn_scale
I0223 16:17:55.170670 22088 net.cpp:100] Creating Layer conv5_4/incep/2_reduce/bn_scale
I0223 16:17:55.170691 22088 net.cpp:434] conv5_4/incep/2_reduce/bn_scale <- conv5_4/incep/2_reduce
I0223 16:17:55.170696 22088 net.cpp:395] conv5_4/incep/2_reduce/bn_scale -> conv5_4/incep/2_reduce (in-place)
I0223 16:17:55.170760 22088 layer_factory.hpp:77] Creating layer conv5_4/incep/2_reduce/bn_scale
I0223 16:17:55.171028 22088 net.cpp:150] Setting up conv5_4/incep/2_reduce/bn_scale
I0223 16:17:55.171037 22088 net.cpp:157] Top shape: 1 32 27 45 (38880)
I0223 16:17:55.171041 22088 net.cpp:165] Memory required for data: 2098431444
I0223 16:17:55.171046 22088 layer_factory.hpp:77] Creating layer conv5_4/incep/2_reduce/relu
I0223 16:17:55.171052 22088 net.cpp:100] Creating Layer conv5_4/incep/2_reduce/relu
I0223 16:17:55.171057 22088 net.cpp:434] conv5_4/incep/2_reduce/relu <- conv5_4/incep/2_reduce
I0223 16:17:55.171064 22088 net.cpp:395] conv5_4/incep/2_reduce/relu -> conv5_4/incep/2_reduce (in-place)
I0223 16:17:55.171480 22088 net.cpp:150] Setting up conv5_4/incep/2_reduce/relu
I0223 16:17:55.171492 22088 net.cpp:157] Top shape: 1 32 27 45 (38880)
I0223 16:17:55.171496 22088 net.cpp:165] Memory required for data: 2098586964
I0223 16:17:55.171500 22088 layer_factory.hpp:77] Creating layer conv5_4/incep/2_0/conv
I0223 16:17:55.171510 22088 net.cpp:100] Creating Layer conv5_4/incep/2_0/conv
I0223 16:17:55.171519 22088 net.cpp:434] conv5_4/incep/2_0/conv <- conv5_4/incep/2_reduce
I0223 16:17:55.171530 22088 net.cpp:408] conv5_4/incep/2_0/conv -> conv5_4/incep/2_0
I0223 16:17:55.173102 22088 net.cpp:150] Setting up conv5_4/incep/2_0/conv
I0223 16:17:55.173116 22088 net.cpp:157] Top shape: 1 64 27 45 (77760)
I0223 16:17:55.173120 22088 net.cpp:165] Memory required for data: 2098898004
I0223 16:17:55.173126 22088 layer_factory.hpp:77] Creating layer conv5_4/incep/2_0/bn
I0223 16:17:55.173135 22088 net.cpp:100] Creating Layer conv5_4/incep/2_0/bn
I0223 16:17:55.173140 22088 net.cpp:434] conv5_4/incep/2_0/bn <- conv5_4/incep/2_0
I0223 16:17:55.173146 22088 net.cpp:395] conv5_4/incep/2_0/bn -> conv5_4/incep/2_0 (in-place)
I0223 16:17:55.173554 22088 net.cpp:150] Setting up conv5_4/incep/2_0/bn
I0223 16:17:55.173563 22088 net.cpp:157] Top shape: 1 64 27 45 (77760)
I0223 16:17:55.173566 22088 net.cpp:165] Memory required for data: 2099209044
I0223 16:17:55.173574 22088 layer_factory.hpp:77] Creating layer conv5_4/incep/2_0/bn_scale
I0223 16:17:55.173599 22088 net.cpp:100] Creating Layer conv5_4/incep/2_0/bn_scale
I0223 16:17:55.173602 22088 net.cpp:434] conv5_4/incep/2_0/bn_scale <- conv5_4/incep/2_0
I0223 16:17:55.173609 22088 net.cpp:395] conv5_4/incep/2_0/bn_scale -> conv5_4/incep/2_0 (in-place)
I0223 16:17:55.173676 22088 layer_factory.hpp:77] Creating layer conv5_4/incep/2_0/bn_scale
I0223 16:17:55.173918 22088 net.cpp:150] Setting up conv5_4/incep/2_0/bn_scale
I0223 16:17:55.173925 22088 net.cpp:157] Top shape: 1 64 27 45 (77760)
I0223 16:17:55.173928 22088 net.cpp:165] Memory required for data: 2099520084
I0223 16:17:55.173933 22088 layer_factory.hpp:77] Creating layer conv5_4/incep/2_0/relu
I0223 16:17:55.173956 22088 net.cpp:100] Creating Layer conv5_4/incep/2_0/relu
I0223 16:17:55.173961 22088 net.cpp:434] conv5_4/incep/2_0/relu <- conv5_4/incep/2_0
I0223 16:17:55.173966 22088 net.cpp:395] conv5_4/incep/2_0/relu -> conv5_4/incep/2_0 (in-place)
I0223 16:17:55.174223 22088 net.cpp:150] Setting up conv5_4/incep/2_0/relu
I0223 16:17:55.174234 22088 net.cpp:157] Top shape: 1 64 27 45 (77760)
I0223 16:17:55.174237 22088 net.cpp:165] Memory required for data: 2099831124
I0223 16:17:55.174242 22088 layer_factory.hpp:77] Creating layer conv5_4/incep/2_1/conv
I0223 16:17:55.174252 22088 net.cpp:100] Creating Layer conv5_4/incep/2_1/conv
I0223 16:17:55.174257 22088 net.cpp:434] conv5_4/incep/2_1/conv <- conv5_4/incep/2_0
I0223 16:17:55.174265 22088 net.cpp:408] conv5_4/incep/2_1/conv -> conv5_4/incep/2_1
I0223 16:17:55.176018 22088 net.cpp:150] Setting up conv5_4/incep/2_1/conv
I0223 16:17:55.176033 22088 net.cpp:157] Top shape: 1 64 27 45 (77760)
I0223 16:17:55.176036 22088 net.cpp:165] Memory required for data: 2100142164
I0223 16:17:55.176041 22088 layer_factory.hpp:77] Creating layer conv5_4/incep/2_1/bn
I0223 16:17:55.176050 22088 net.cpp:100] Creating Layer conv5_4/incep/2_1/bn
I0223 16:17:55.176055 22088 net.cpp:434] conv5_4/incep/2_1/bn <- conv5_4/incep/2_1
I0223 16:17:55.176061 22088 net.cpp:395] conv5_4/incep/2_1/bn -> conv5_4/incep/2_1 (in-place)
I0223 16:17:55.176465 22088 net.cpp:150] Setting up conv5_4/incep/2_1/bn
I0223 16:17:55.176475 22088 net.cpp:157] Top shape: 1 64 27 45 (77760)
I0223 16:17:55.176478 22088 net.cpp:165] Memory required for data: 2100453204
I0223 16:17:55.176486 22088 layer_factory.hpp:77] Creating layer conv5_4/incep/2_1/bn_scale
I0223 16:17:55.176493 22088 net.cpp:100] Creating Layer conv5_4/incep/2_1/bn_scale
I0223 16:17:55.176497 22088 net.cpp:434] conv5_4/incep/2_1/bn_scale <- conv5_4/incep/2_1
I0223 16:17:55.176504 22088 net.cpp:395] conv5_4/incep/2_1/bn_scale -> conv5_4/incep/2_1 (in-place)
I0223 16:17:55.176573 22088 layer_factory.hpp:77] Creating layer conv5_4/incep/2_1/bn_scale
I0223 16:17:55.176826 22088 net.cpp:150] Setting up conv5_4/incep/2_1/bn_scale
I0223 16:17:55.176834 22088 net.cpp:157] Top shape: 1 64 27 45 (77760)
I0223 16:17:55.176837 22088 net.cpp:165] Memory required for data: 2100764244
I0223 16:17:55.176843 22088 layer_factory.hpp:77] Creating layer conv5_4/incep/2_1/relu
I0223 16:17:55.176856 22088 net.cpp:100] Creating Layer conv5_4/incep/2_1/relu
I0223 16:17:55.176861 22088 net.cpp:434] conv5_4/incep/2_1/relu <- conv5_4/incep/2_1
I0223 16:17:55.176865 22088 net.cpp:395] conv5_4/incep/2_1/relu -> conv5_4/incep/2_1 (in-place)
I0223 16:17:55.177104 22088 net.cpp:150] Setting up conv5_4/incep/2_1/relu
I0223 16:17:55.177114 22088 net.cpp:157] Top shape: 1 64 27 45 (77760)
I0223 16:17:55.177117 22088 net.cpp:165] Memory required for data: 2101075284
I0223 16:17:55.177120 22088 layer_factory.hpp:77] Creating layer conv5_4/incep
I0223 16:17:55.177127 22088 net.cpp:100] Creating Layer conv5_4/incep
I0223 16:17:55.177132 22088 net.cpp:434] conv5_4/incep <- conv5_4/incep/0
I0223 16:17:55.177137 22088 net.cpp:434] conv5_4/incep <- conv5_4/incep/1_0
I0223 16:17:55.177141 22088 net.cpp:434] conv5_4/incep <- conv5_4/incep/2_1
I0223 16:17:55.177150 22088 net.cpp:408] conv5_4/incep -> conv5_4/incep
I0223 16:17:55.177198 22088 net.cpp:150] Setting up conv5_4/incep
I0223 16:17:55.177206 22088 net.cpp:157] Top shape: 1 320 27 45 (388800)
I0223 16:17:55.177208 22088 net.cpp:165] Memory required for data: 2102630484
I0223 16:17:55.177212 22088 layer_factory.hpp:77] Creating layer conv5_4/out/conv
I0223 16:17:55.177222 22088 net.cpp:100] Creating Layer conv5_4/out/conv
I0223 16:17:55.177225 22088 net.cpp:434] conv5_4/out/conv <- conv5_4/incep
I0223 16:17:55.177233 22088 net.cpp:408] conv5_4/out/conv -> conv5_4/out
I0223 16:17:55.180405 22088 net.cpp:150] Setting up conv5_4/out/conv
I0223 16:17:55.180421 22088 net.cpp:157] Top shape: 1 384 27 45 (466560)
I0223 16:17:55.180425 22088 net.cpp:165] Memory required for data: 2104496724
I0223 16:17:55.180431 22088 layer_factory.hpp:77] Creating layer conv5_4/out/bn
I0223 16:17:55.180439 22088 net.cpp:100] Creating Layer conv5_4/out/bn
I0223 16:17:55.180444 22088 net.cpp:434] conv5_4/out/bn <- conv5_4/out
I0223 16:17:55.180450 22088 net.cpp:395] conv5_4/out/bn -> conv5_4/out (in-place)
I0223 16:17:55.180888 22088 net.cpp:150] Setting up conv5_4/out/bn
I0223 16:17:55.180897 22088 net.cpp:157] Top shape: 1 384 27 45 (466560)
I0223 16:17:55.180902 22088 net.cpp:165] Memory required for data: 2106362964
I0223 16:17:55.180908 22088 layer_factory.hpp:77] Creating layer conv5_4/out/bn_scale
I0223 16:17:55.180917 22088 net.cpp:100] Creating Layer conv5_4/out/bn_scale
I0223 16:17:55.180922 22088 net.cpp:434] conv5_4/out/bn_scale <- conv5_4/out
I0223 16:17:55.180927 22088 net.cpp:395] conv5_4/out/bn_scale -> conv5_4/out (in-place)
I0223 16:17:55.181016 22088 layer_factory.hpp:77] Creating layer conv5_4/out/bn_scale
I0223 16:17:55.181262 22088 net.cpp:150] Setting up conv5_4/out/bn_scale
I0223 16:17:55.181270 22088 net.cpp:157] Top shape: 1 384 27 45 (466560)
I0223 16:17:55.181274 22088 net.cpp:165] Memory required for data: 2108229204
I0223 16:17:55.181279 22088 layer_factory.hpp:77] Creating layer conv5_4/input
I0223 16:17:55.181288 22088 net.cpp:100] Creating Layer conv5_4/input
I0223 16:17:55.181291 22088 net.cpp:434] conv5_4/input <- conv5_3_conv5_3_0_split_3
I0223 16:17:55.181298 22088 net.cpp:408] conv5_4/input -> conv5_4/input
I0223 16:17:55.181355 22088 net.cpp:150] Setting up conv5_4/input
I0223 16:17:55.181362 22088 net.cpp:157] Top shape: 1 384 27 45 (466560)
I0223 16:17:55.181366 22088 net.cpp:165] Memory required for data: 2110095444
I0223 16:17:55.181370 22088 layer_factory.hpp:77] Creating layer conv5_4
I0223 16:17:55.181377 22088 net.cpp:100] Creating Layer conv5_4
I0223 16:17:55.181381 22088 net.cpp:434] conv5_4 <- conv5_4/out
I0223 16:17:55.181386 22088 net.cpp:434] conv5_4 <- conv5_4/input
I0223 16:17:55.181392 22088 net.cpp:408] conv5_4 -> conv5_4
I0223 16:17:55.181433 22088 net.cpp:150] Setting up conv5_4
I0223 16:17:55.181442 22088 net.cpp:157] Top shape: 1 384 27 45 (466560)
I0223 16:17:55.181445 22088 net.cpp:165] Memory required for data: 2111961684
I0223 16:17:55.181448 22088 layer_factory.hpp:77] Creating layer downsample
I0223 16:17:55.181455 22088 net.cpp:100] Creating Layer downsample
I0223 16:17:55.181460 22088 net.cpp:434] downsample <- conv3_4_conv3_4_0_split_5
I0223 16:17:55.181471 22088 net.cpp:408] downsample -> downsample
I0223 16:17:55.181536 22088 net.cpp:150] Setting up downsample
I0223 16:17:55.181545 22088 net.cpp:157] Top shape: 1 128 54 90 (622080)
I0223 16:17:55.181548 22088 net.cpp:165] Memory required for data: 2114450004
I0223 16:17:55.181552 22088 layer_factory.hpp:77] Creating layer upsample
I0223 16:17:55.181560 22088 net.cpp:100] Creating Layer upsample
I0223 16:17:55.181563 22088 net.cpp:434] upsample <- conv5_4
I0223 16:17:55.181571 22088 net.cpp:408] upsample -> upsample
I0223 16:17:55.182142 22088 net.cpp:150] Setting up upsample
I0223 16:17:55.182149 22088 net.cpp:157] Top shape: 1 384 54 90 (1866240)
I0223 16:17:55.182153 22088 net.cpp:165] Memory required for data: 2121914964
I0223 16:17:55.182158 22088 layer_factory.hpp:77] Creating layer concat
I0223 16:17:55.182165 22088 net.cpp:100] Creating Layer concat
I0223 16:17:55.182171 22088 net.cpp:434] concat <- downsample
I0223 16:17:55.182183 22088 net.cpp:434] concat <- conv4_4_conv4_4_0_split_5
I0223 16:17:55.182204 22088 net.cpp:434] concat <- upsample
I0223 16:17:55.182209 22088 net.cpp:408] concat -> concat
I0223 16:17:55.182252 22088 net.cpp:150] Setting up concat
I0223 16:17:55.182260 22088 net.cpp:157] Top shape: 1 768 54 90 (3732480)
I0223 16:17:55.182265 22088 net.cpp:165] Memory required for data: 2136844884
I0223 16:17:55.182268 22088 layer_factory.hpp:77] Creating layer concat_concat_0_split
I0223 16:17:55.182274 22088 net.cpp:100] Creating Layer concat_concat_0_split
I0223 16:17:55.182278 22088 net.cpp:434] concat_concat_0_split <- concat
I0223 16:17:55.182284 22088 net.cpp:408] concat_concat_0_split -> concat_concat_0_split_0
I0223 16:17:55.182292 22088 net.cpp:408] concat_concat_0_split -> concat_concat_0_split_1
I0223 16:17:55.182358 22088 net.cpp:150] Setting up concat_concat_0_split
I0223 16:17:55.182365 22088 net.cpp:157] Top shape: 1 768 54 90 (3732480)
I0223 16:17:55.182370 22088 net.cpp:157] Top shape: 1 768 54 90 (3732480)
I0223 16:17:55.182374 22088 net.cpp:165] Memory required for data: 2166704724
I0223 16:17:55.182377 22088 layer_factory.hpp:77] Creating layer convf_rpn
I0223 16:17:55.182387 22088 net.cpp:100] Creating Layer convf_rpn
I0223 16:17:55.182392 22088 net.cpp:434] convf_rpn <- concat_concat_0_split_0
I0223 16:17:55.182399 22088 net.cpp:408] convf_rpn -> convf_rpn
I0223 16:17:55.184742 22088 net.cpp:150] Setting up convf_rpn
I0223 16:17:55.184756 22088 net.cpp:157] Top shape: 1 128 54 90 (622080)
I0223 16:17:55.184761 22088 net.cpp:165] Memory required for data: 2169193044
I0223 16:17:55.184767 22088 layer_factory.hpp:77] Creating layer reluf_rpn
I0223 16:17:55.184773 22088 net.cpp:100] Creating Layer reluf_rpn
I0223 16:17:55.184777 22088 net.cpp:434] reluf_rpn <- convf_rpn
I0223 16:17:55.184784 22088 net.cpp:395] reluf_rpn -> convf_rpn (in-place)
I0223 16:17:55.185199 22088 net.cpp:150] Setting up reluf_rpn
I0223 16:17:55.185210 22088 net.cpp:157] Top shape: 1 128 54 90 (622080)
I0223 16:17:55.185214 22088 net.cpp:165] Memory required for data: 2171681364
I0223 16:17:55.185219 22088 layer_factory.hpp:77] Creating layer convf_rpn_reluf_rpn_0_split
I0223 16:17:55.185225 22088 net.cpp:100] Creating Layer convf_rpn_reluf_rpn_0_split
I0223 16:17:55.185230 22088 net.cpp:434] convf_rpn_reluf_rpn_0_split <- convf_rpn
I0223 16:17:55.185236 22088 net.cpp:408] convf_rpn_reluf_rpn_0_split -> convf_rpn_reluf_rpn_0_split_0
I0223 16:17:55.185245 22088 net.cpp:408] convf_rpn_reluf_rpn_0_split -> convf_rpn_reluf_rpn_0_split_1
I0223 16:17:55.185325 22088 net.cpp:150] Setting up convf_rpn_reluf_rpn_0_split
I0223 16:17:55.185333 22088 net.cpp:157] Top shape: 1 128 54 90 (622080)
I0223 16:17:55.185336 22088 net.cpp:157] Top shape: 1 128 54 90 (622080)
I0223 16:17:55.185340 22088 net.cpp:165] Memory required for data: 2176658004
I0223 16:17:55.185343 22088 layer_factory.hpp:77] Creating layer convf_2
I0223 16:17:55.185354 22088 net.cpp:100] Creating Layer convf_2
I0223 16:17:55.185359 22088 net.cpp:434] convf_2 <- concat_concat_0_split_1
I0223 16:17:55.185382 22088 net.cpp:408] convf_2 -> convf_2
I0223 16:17:55.190171 22088 net.cpp:150] Setting up convf_2
I0223 16:17:55.190208 22088 net.cpp:157] Top shape: 1 384 54 90 (1866240)
I0223 16:17:55.190212 22088 net.cpp:165] Memory required for data: 2184122964
I0223 16:17:55.190287 22088 layer_factory.hpp:77] Creating layer reluf_2
I0223 16:17:55.190296 22088 net.cpp:100] Creating Layer reluf_2
I0223 16:17:55.190301 22088 net.cpp:434] reluf_2 <- convf_2
I0223 16:17:55.190306 22088 net.cpp:395] reluf_2 -> convf_2 (in-place)
I0223 16:17:55.190770 22088 net.cpp:150] Setting up reluf_2
I0223 16:17:55.190783 22088 net.cpp:157] Top shape: 1 384 54 90 (1866240)
I0223 16:17:55.190788 22088 net.cpp:165] Memory required for data: 2191587924
I0223 16:17:55.190791 22088 layer_factory.hpp:77] Creating layer concat_convf
I0223 16:17:55.190798 22088 net.cpp:100] Creating Layer concat_convf
I0223 16:17:55.190804 22088 net.cpp:434] concat_convf <- convf_rpn_reluf_rpn_0_split_0
I0223 16:17:55.190809 22088 net.cpp:434] concat_convf <- convf_2
I0223 16:17:55.190816 22088 net.cpp:408] concat_convf -> convf
I0223 16:17:55.190868 22088 net.cpp:150] Setting up concat_convf
I0223 16:17:55.190876 22088 net.cpp:157] Top shape: 1 512 54 90 (2488320)
I0223 16:17:55.190879 22088 net.cpp:165] Memory required for data: 2201541204
I0223 16:17:55.190882 22088 layer_factory.hpp:77] Creating layer convf_concat_convf_0_split
I0223 16:17:55.190891 22088 net.cpp:100] Creating Layer convf_concat_convf_0_split
I0223 16:17:55.190894 22088 net.cpp:434] convf_concat_convf_0_split <- convf
I0223 16:17:55.190899 22088 net.cpp:408] convf_concat_convf_0_split -> convf_concat_convf_0_split_0
I0223 16:17:55.190907 22088 net.cpp:408] convf_concat_convf_0_split -> convf_concat_convf_0_split_1
I0223 16:17:55.190975 22088 net.cpp:150] Setting up convf_concat_convf_0_split
I0223 16:17:55.190982 22088 net.cpp:157] Top shape: 1 512 54 90 (2488320)
I0223 16:17:55.190987 22088 net.cpp:157] Top shape: 1 512 54 90 (2488320)
I0223 16:17:55.190990 22088 net.cpp:165] Memory required for data: 2221447764
I0223 16:17:55.190994 22088 layer_factory.hpp:77] Creating layer rpn_conv1
I0223 16:17:55.191005 22088 net.cpp:100] Creating Layer rpn_conv1
I0223 16:17:55.191010 22088 net.cpp:434] rpn_conv1 <- convf_rpn_reluf_rpn_0_split_1
I0223 16:17:55.191018 22088 net.cpp:408] rpn_conv1 -> rpn_conv1
I0223 16:17:55.199033 22088 net.cpp:150] Setting up rpn_conv1
I0223 16:17:55.199059 22088 net.cpp:157] Top shape: 1 384 54 90 (1866240)
I0223 16:17:55.199064 22088 net.cpp:165] Memory required for data: 2228912724
I0223 16:17:55.199071 22088 layer_factory.hpp:77] Creating layer rpn_relu1
I0223 16:17:55.199079 22088 net.cpp:100] Creating Layer rpn_relu1
I0223 16:17:55.199084 22088 net.cpp:434] rpn_relu1 <- rpn_conv1
I0223 16:17:55.199090 22088 net.cpp:395] rpn_relu1 -> rpn_conv1 (in-place)
I0223 16:17:55.199329 22088 net.cpp:150] Setting up rpn_relu1
I0223 16:17:55.199338 22088 net.cpp:157] Top shape: 1 384 54 90 (1866240)
I0223 16:17:55.199342 22088 net.cpp:165] Memory required for data: 2236377684
I0223 16:17:55.199347 22088 layer_factory.hpp:77] Creating layer rpn_conv1_rpn_relu1_0_split
I0223 16:17:55.199353 22088 net.cpp:100] Creating Layer rpn_conv1_rpn_relu1_0_split
I0223 16:17:55.199357 22088 net.cpp:434] rpn_conv1_rpn_relu1_0_split <- rpn_conv1
I0223 16:17:55.199365 22088 net.cpp:408] rpn_conv1_rpn_relu1_0_split -> rpn_conv1_rpn_relu1_0_split_0
I0223 16:17:55.199373 22088 net.cpp:408] rpn_conv1_rpn_relu1_0_split -> rpn_conv1_rpn_relu1_0_split_1
I0223 16:17:55.199453 22088 net.cpp:150] Setting up rpn_conv1_rpn_relu1_0_split
I0223 16:17:55.199460 22088 net.cpp:157] Top shape: 1 384 54 90 (1866240)
I0223 16:17:55.199465 22088 net.cpp:157] Top shape: 1 384 54 90 (1866240)
I0223 16:17:55.199468 22088 net.cpp:165] Memory required for data: 2251307604
I0223 16:17:55.199472 22088 layer_factory.hpp:77] Creating layer rpn_cls_score
I0223 16:17:55.199483 22088 net.cpp:100] Creating Layer rpn_cls_score
I0223 16:17:55.199488 22088 net.cpp:434] rpn_cls_score <- rpn_conv1_rpn_relu1_0_split_0
I0223 16:17:55.199497 22088 net.cpp:408] rpn_cls_score -> rpn_cls_score
I0223 16:17:55.201361 22088 net.cpp:150] Setting up rpn_cls_score
I0223 16:17:55.201376 22088 net.cpp:157] Top shape: 1 50 54 90 (243000)
I0223 16:17:55.201380 22088 net.cpp:165] Memory required for data: 2252279604
I0223 16:17:55.201387 22088 layer_factory.hpp:77] Creating layer rpn_cls_score_rpn_cls_score_0_split
I0223 16:17:55.201395 22088 net.cpp:100] Creating Layer rpn_cls_score_rpn_cls_score_0_split
I0223 16:17:55.201400 22088 net.cpp:434] rpn_cls_score_rpn_cls_score_0_split <- rpn_cls_score
I0223 16:17:55.201406 22088 net.cpp:408] rpn_cls_score_rpn_cls_score_0_split -> rpn_cls_score_rpn_cls_score_0_split_0
I0223 16:17:55.201414 22088 net.cpp:408] rpn_cls_score_rpn_cls_score_0_split -> rpn_cls_score_rpn_cls_score_0_split_1
I0223 16:17:55.201490 22088 net.cpp:150] Setting up rpn_cls_score_rpn_cls_score_0_split
I0223 16:17:55.201499 22088 net.cpp:157] Top shape: 1 50 54 90 (243000)
I0223 16:17:55.201503 22088 net.cpp:157] Top shape: 1 50 54 90 (243000)
I0223 16:17:55.201508 22088 net.cpp:165] Memory required for data: 2254223604
I0223 16:17:55.201510 22088 layer_factory.hpp:77] Creating layer rpn_bbox_pred
I0223 16:17:55.201521 22088 net.cpp:100] Creating Layer rpn_bbox_pred
I0223 16:17:55.201526 22088 net.cpp:434] rpn_bbox_pred <- rpn_conv1_rpn_relu1_0_split_1
I0223 16:17:55.201534 22088 net.cpp:408] rpn_bbox_pred -> rpn_bbox_pred
I0223 16:17:55.203673 22088 net.cpp:150] Setting up rpn_bbox_pred
I0223 16:17:55.203702 22088 net.cpp:157] Top shape: 1 100 54 90 (486000)
I0223 16:17:55.203708 22088 net.cpp:165] Memory required for data: 2256167604
I0223 16:17:55.203716 22088 layer_factory.hpp:77] Creating layer rpn_bbox_pred_rpn_bbox_pred_0_split
I0223 16:17:55.203722 22088 net.cpp:100] Creating Layer rpn_bbox_pred_rpn_bbox_pred_0_split
I0223 16:17:55.203727 22088 net.cpp:434] rpn_bbox_pred_rpn_bbox_pred_0_split <- rpn_bbox_pred
I0223 16:17:55.203732 22088 net.cpp:408] rpn_bbox_pred_rpn_bbox_pred_0_split -> rpn_bbox_pred_rpn_bbox_pred_0_split_0
I0223 16:17:55.203742 22088 net.cpp:408] rpn_bbox_pred_rpn_bbox_pred_0_split -> rpn_bbox_pred_rpn_bbox_pred_0_split_1
I0223 16:17:55.203814 22088 net.cpp:150] Setting up rpn_bbox_pred_rpn_bbox_pred_0_split
I0223 16:17:55.203824 22088 net.cpp:157] Top shape: 1 100 54 90 (486000)
I0223 16:17:55.203829 22088 net.cpp:157] Top shape: 1 100 54 90 (486000)
I0223 16:17:55.203832 22088 net.cpp:165] Memory required for data: 2260055604
I0223 16:17:55.203835 22088 layer_factory.hpp:77] Creating layer rpn_cls_score_reshape
I0223 16:17:55.203845 22088 net.cpp:100] Creating Layer rpn_cls_score_reshape
I0223 16:17:55.203850 22088 net.cpp:434] rpn_cls_score_reshape <- rpn_cls_score_rpn_cls_score_0_split_0
I0223 16:17:55.203856 22088 net.cpp:408] rpn_cls_score_reshape -> rpn_cls_score_reshape
I0223 16:17:55.203899 22088 net.cpp:150] Setting up rpn_cls_score_reshape
I0223 16:17:55.203907 22088 net.cpp:157] Top shape: 1 2 1350 90 (243000)
I0223 16:17:55.203909 22088 net.cpp:165] Memory required for data: 2261027604
I0223 16:17:55.203913 22088 layer_factory.hpp:77] Creating layer rpn_cls_score_reshape_rpn_cls_score_reshape_0_split
I0223 16:17:55.203934 22088 net.cpp:100] Creating Layer rpn_cls_score_reshape_rpn_cls_score_reshape_0_split
I0223 16:17:55.203938 22088 net.cpp:434] rpn_cls_score_reshape_rpn_cls_score_reshape_0_split <- rpn_cls_score_reshape
I0223 16:17:55.203948 22088 net.cpp:408] rpn_cls_score_reshape_rpn_cls_score_reshape_0_split -> rpn_cls_score_reshape_rpn_cls_score_reshape_0_split_0
I0223 16:17:55.203955 22088 net.cpp:408] rpn_cls_score_reshape_rpn_cls_score_reshape_0_split -> rpn_cls_score_reshape_rpn_cls_score_reshape_0_split_1
I0223 16:17:55.204018 22088 net.cpp:150] Setting up rpn_cls_score_reshape_rpn_cls_score_reshape_0_split
I0223 16:17:55.204025 22088 net.cpp:157] Top shape: 1 2 1350 90 (243000)
I0223 16:17:55.204030 22088 net.cpp:157] Top shape: 1 2 1350 90 (243000)
I0223 16:17:55.204033 22088 net.cpp:165] Memory required for data: 2262971604
I0223 16:17:55.204036 22088 layer_factory.hpp:77] Creating layer rpn-data
I0223 16:17:55.204582 22088 net.cpp:100] Creating Layer rpn-data
I0223 16:17:55.204602 22088 net.cpp:434] rpn-data <- rpn_cls_score_rpn_cls_score_0_split_1
I0223 16:17:55.204609 22088 net.cpp:434] rpn-data <- gt_boxes_input-data_2_split_0
I0223 16:17:55.204614 22088 net.cpp:434] rpn-data <- im_info_input-data_1_split_0
I0223 16:17:55.204619 22088 net.cpp:434] rpn-data <- data_input-data_0_split_1
I0223 16:17:55.204627 22088 net.cpp:408] rpn-data -> rpn_labels
I0223 16:17:55.204635 22088 net.cpp:408] rpn-data -> rpn_bbox_targets
I0223 16:17:55.204644 22088 net.cpp:408] rpn-data -> rpn_bbox_inside_weights
I0223 16:17:55.204651 22088 net.cpp:408] rpn-data -> rpn_bbox_outside_weights
I0223 16:17:55.207383 22088 net.cpp:150] Setting up rpn-data
I0223 16:17:55.207401 22088 net.cpp:157] Top shape: 1 1 1350 90 (121500)
I0223 16:17:55.207406 22088 net.cpp:157] Top shape: 1 100 54 90 (486000)
I0223 16:17:55.207409 22088 net.cpp:157] Top shape: 1 100 54 90 (486000)
I0223 16:17:55.207413 22088 net.cpp:157] Top shape: 1 100 54 90 (486000)
I0223 16:17:55.207417 22088 net.cpp:165] Memory required for data: 2269289604
I0223 16:17:55.207422 22088 layer_factory.hpp:77] Creating layer rpn_loss_cls
I0223 16:17:55.207430 22088 net.cpp:100] Creating Layer rpn_loss_cls
I0223 16:17:55.207435 22088 net.cpp:434] rpn_loss_cls <- rpn_cls_score_reshape_rpn_cls_score_reshape_0_split_0
I0223 16:17:55.207442 22088 net.cpp:434] rpn_loss_cls <- rpn_labels
…
I0223 16:17:55.213800 22088 net.cpp:157] Top shape: (1)
I0223 16:17:55.213804 22088 net.cpp:160]     with loss weight 1
I0223 16:17:55.213810 22088 net.cpp:165] Memory required for data: 2269289612
I0223 16:17:55.213814 22088 layer_factory.hpp:77] Creating layer rpn_cls_prob
I0223 16:17:55.213822 22088 net.cpp:100] Creating Layer rpn_cls_prob
I0223 16:17:55.213827 22088 net.cpp:434] rpn_cls_prob <- rpn_cls_score_reshape_rpn_cls_score_reshape_0_split_1
I0223 16:17:55.213835 22088 net.cpp:408] rpn_cls_prob -> rpn_cls_prob
I0223 16:17:55.214475 22088 net.cpp:150] Setting up rpn_cls_prob
I0223 16:17:55.214489 22088 net.cpp:157] Top shape: 1 2 1350 90 (243000)
I0223 16:17:55.214493 22088 net.cpp:165] Memory required for data: 2270261612
I0223 16:17:55.214498 22088 layer_factory.hpp:77] Creating layer rpn_cls_prob_reshape
I0223 16:17:55.214506 22088 net.cpp:100] Creating Layer rpn_cls_prob_reshape
I0223 16:17:55.214511 22088 net.cpp:434] rpn_cls_prob_reshape <- rpn_cls_prob
I0223 16:17:55.214521 22088 net.cpp:408] rpn_cls_prob_reshape -> rpn_cls_prob_reshape
I0223 16:17:55.214571 22088 net.cpp:150] Setting up rpn_cls_prob_reshape
I0223 16:17:55.214578 22088 net.cpp:157] Top shape: 1 50 54 90 (243000)
I0223 16:17:55.214582 22088 net.cpp:165] Memory required for data: 2271233612
I0223 16:17:55.214586 22088 layer_factory.hpp:77] Creating layer proposal
I0223 16:17:55.214612 22088 net.cpp:100] Creating Layer proposal
I0223 16:17:55.214617 22088 net.cpp:434] proposal <- rpn_cls_prob_reshape
I0223 16:17:55.214622 22088 net.cpp:434] proposal <- rpn_bbox_pred_rpn_bbox_pred_0_split_1
I0223 16:17:55.214627 22088 net.cpp:434] proposal <- im_info_input-data_1_split_1
I0223 16:17:55.214644 22088 net.cpp:408] proposal -> rpn_rois
I0223 16:17:55.214653 22088 net.cpp:408] proposal -> rpn_scores
I0223 16:17:55.214824 22088 net.cpp:150] Setting up proposal
I0223 16:17:55.214831 22088 net.cpp:157] Top shape: 2000 5 (10000)
I0223 16:17:55.214851 22088 net.cpp:157] Top shape: 2000 (2000)
I0223 16:17:55.214854 22088 net.cpp:165] Memory required for data: 2271281612
I0223 16:17:55.214859 22088 layer_factory.hpp:77] Creating layer mute_rpn_scores
I0223 16:17:55.214864 22088 net.cpp:100] Creating Layer mute_rpn_scores
I0223 16:17:55.214869 22088 net.cpp:434] mute_rpn_scores <- rpn_scores
I0223 16:17:55.214874 22088 net.cpp:150] Setting up mute_rpn_scores
I0223 16:17:55.214876 22088 net.cpp:165] Memory required for data: 2271281612
I0223 16:17:55.214879 22088 layer_factory.hpp:77] Creating layer roi-data
I0223 16:17:55.215112 22088 net.cpp:100] Creating Layer roi-data
I0223 16:17:55.215122 22088 net.cpp:434] roi-data <- rpn_rois
I0223 16:17:55.215129 22088 net.cpp:434] roi-data <- gt_boxes_input-data_2_split_1
I0223 16:17:55.215136 22088 net.cpp:408] roi-data -> rois
I0223 16:17:55.215143 22088 net.cpp:408] roi-data -> labels
I0223 16:17:55.215152 22088 net.cpp:408] roi-data -> bbox_targets
I0223 16:17:55.215158 22088 net.cpp:408] roi-data -> bbox_inside_weights
I0223 16:17:55.215165 22088 net.cpp:408] roi-data -> bbox_outside_weights
I0223 16:17:55.215782 22088 net.cpp:150] Setting up roi-data
I0223 16:17:55.215796 22088 net.cpp:157] Top shape: 1 5 (5)
I0223 16:17:55.215801 22088 net.cpp:157] Top shape: 1 1 (1)
I0223 16:17:55.215806 22088 net.cpp:157] Top shape: 1 32 (32)
I0223 16:17:55.215808 22088 net.cpp:157] Top shape: 1 32 (32)
I0223 16:17:55.215812 22088 net.cpp:157] Top shape: 1 32 (32)
I0223 16:17:55.215816 22088 net.cpp:165] Memory required for data: 2271282020
I0223 16:17:55.215821 22088 layer_factory.hpp:77] Creating layer rois_roi-data_0_split
I0223 16:17:55.215827 22088 net.cpp:100] Creating Layer rois_roi-data_0_split
I0223 16:17:55.215831 22088 net.cpp:434] rois_roi-data_0_split <- rois
I0223 16:17:55.215838 22088 net.cpp:408] rois_roi-data_0_split -> rois_roi-data_0_split_0
I0223 16:17:55.215857 22088 net.cpp:408] rois_roi-data_0_split -> rois_roi-data_0_split_1
I0223 16:17:55.215921 22088 net.cpp:150] Setting up rois_roi-data_0_split
I0223 16:17:55.215929 22088 net.cpp:157] Top shape: 1 5 (5)
I0223 16:17:55.215932 22088 net.cpp:157] Top shape: 1 5 (5)
I0223 16:17:55.215935 22088 net.cpp:165] Memory required for data: 2271282060
I0223 16:17:55.215939 22088 layer_factory.hpp:77] Creating layer roi_pool5_readonly
I0223 16:17:55.215945 22088 net.cpp:100] Creating Layer roi_pool5_readonly
I0223 16:17:55.215950 22088 net.cpp:434] roi_pool5_readonly <- convf_concat_convf_0_split_0
I0223 16:17:55.215955 22088 net.cpp:434] roi_pool5_readonly <- rois_roi-data_0_split_0
I0223 16:17:55.215963 22088 net.cpp:408] roi_pool5_readonly -> pool5_readonly
I0223 16:17:55.215971 22088 roi_pooling_layer.cpp:34] Spatial scale: 0.0625
I0223 16:17:55.216042 22088 net.cpp:150] Setting up roi_pool5_readonly
I0223 16:17:55.216051 22088 net.cpp:157] Top shape: 1 512 6 6 (18432)
I0223 16:17:55.216054 22088 net.cpp:165] Memory required for data: 2271355788
I0223 16:17:55.216058 22088 layer_factory.hpp:77] Creating layer fc6_readonly
I0223 16:17:55.216078 22088 net.cpp:100] Creating Layer fc6_readonly
I0223 16:17:55.216083 22088 net.cpp:434] fc6_readonly <- pool5_readonly
I0223 16:17:55.216089 22088 net.cpp:408] fc6_readonly -> fc6_readonly
I0223 16:17:55.494565 22088 net.cpp:150] Setting up fc6_readonly
I0223 16:17:55.494638 22088 net.cpp:157] Top shape: 1 4096 (4096)
I0223 16:17:55.494643 22088 net.cpp:165] Memory required for data: 2271372172
I0223 16:17:55.494657 22088 layer_factory.hpp:77] Creating layer relu6_readonly
I0223 16:17:55.494674 22088 net.cpp:100] Creating Layer relu6_readonly
I0223 16:17:55.494681 22088 net.cpp:434] relu6_readonly <- fc6_readonly
I0223 16:17:55.494689 22088 net.cpp:395] relu6_readonly -> fc6_readonly (in-place)
I0223 16:17:55.495052 22088 net.cpp:150] Setting up relu6_readonly
I0223 16:17:55.495074 22088 net.cpp:157] Top shape: 1 4096 (4096)
I0223 16:17:55.495079 22088 net.cpp:165] Memory required for data: 2271388556
I0223 16:17:55.495082 22088 layer_factory.hpp:77] Creating layer drop6_readonly
I0223 16:17:55.495091 22088 net.cpp:100] Creating Layer drop6_readonly
I0223 16:17:55.495095 22088 net.cpp:434] drop6_readonly <- fc6_readonly
I0223 16:17:55.495107 22088 net.cpp:395] drop6_readonly -> fc6_readonly (in-place)
I0223 16:17:55.495153 22088 net.cpp:150] Setting up drop6_readonly
I0223 16:17:55.495159 22088 net.cpp:157] Top shape: 1 4096 (4096)
I0223 16:17:55.495162 22088 net.cpp:165] Memory required for data: 2271404940
I0223 16:17:55.495167 22088 layer_factory.hpp:77] Creating layer fc7_readonly
I0223 16:17:55.495177 22088 net.cpp:100] Creating Layer fc7_readonly
I0223 16:17:55.495180 22088 net.cpp:434] fc7_readonly <- fc6_readonly
I0223 16:17:55.495187 22088 net.cpp:408] fc7_readonly -> fc7_readonly
I0223 16:17:55.559144 22088 net.cpp:150] Setting up fc7_readonly
I0223 16:17:55.559203 22088 net.cpp:157] Top shape: 1 4096 (4096)
I0223 16:17:55.559206 22088 net.cpp:165] Memory required for data: 2271421324
I0223 16:17:55.559221 22088 layer_factory.hpp:77] Creating layer relu7_readonly
I0223 16:17:55.559234 22088 net.cpp:100] Creating Layer relu7_readonly
I0223 16:17:55.559239 22088 net.cpp:434] relu7_readonly <- fc7_readonly
I0223 16:17:55.559250 22088 net.cpp:395] relu7_readonly -> fc7_readonly (in-place)
I0223 16:17:55.559902 22088 net.cpp:150] Setting up relu7_readonly
I0223 16:17:55.559914 22088 net.cpp:157] Top shape: 1 4096 (4096)
I0223 16:17:55.559917 22088 net.cpp:165] Memory required for data: 2271437708
I0223 16:17:55.559921 22088 layer_factory.hpp:77] Creating layer drop7_readonly
I0223 16:17:55.559929 22088 net.cpp:100] Creating Layer drop7_readonly
I0223 16:17:55.559933 22088 net.cpp:434] drop7_readonly <- fc7_readonly
I0223 16:17:55.559940 22088 net.cpp:395] drop7_readonly -> fc7_readonly (in-place)
I0223 16:17:55.559988 22088 net.cpp:150] Setting up drop7_readonly
I0223 16:17:55.559993 22088 net.cpp:157] Top shape: 1 4096 (4096)
I0223 16:17:55.559996 22088 net.cpp:165] Memory required for data: 2271454092
I0223 16:17:55.560000 22088 layer_factory.hpp:77] Creating layer fc7_readonly_drop7_readonly_0_split
I0223 16:17:55.560009 22088 net.cpp:100] Creating Layer fc7_readonly_drop7_readonly_0_split
I0223 16:17:55.560011 22088 net.cpp:434] fc7_readonly_drop7_readonly_0_split <- fc7_readonly
I0223 16:17:55.560019 22088 net.cpp:408] fc7_readonly_drop7_readonly_0_split -> fc7_readonly_drop7_readonly_0_split_0
I0223 16:17:55.560084 22088 net.cpp:408] fc7_readonly_drop7_readonly_0_split -> fc7_readonly_drop7_readonly_0_split_1
I0223 16:17:55.560149 22088 net.cpp:150] Setting up fc7_readonly_drop7_readonly_0_split
I0223 16:17:55.560156 22088 net.cpp:157] Top shape: 1 4096 (4096)
I0223 16:17:55.560160 22088 net.cpp:157] Top shape: 1 4096 (4096)
I0223 16:17:55.560163 22088 net.cpp:165] Memory required for data: 2271486860
I0223 16:17:55.560166 22088 layer_factory.hpp:77] Creating layer cls_score_readonly
I0223 16:17:55.560176 22088 net.cpp:100] Creating Layer cls_score_readonly
I0223 16:17:55.560180 22088 net.cpp:434] cls_score_readonly <- fc7_readonly_drop7_readonly_0_split_0
I0223 16:17:55.560186 22088 net.cpp:408] cls_score_readonly -> cls_score_readonly
I0223 16:17:55.561586 22088 net.cpp:150] Setting up cls_score_readonly
I0223 16:17:55.561599 22088 net.cpp:157] Top shape: 1 8 (8)
I0223 16:17:55.561602 22088 net.cpp:165] Memory required for data: 2271486892
I0223 16:17:55.561609 22088 layer_factory.hpp:77] Creating layer bbox_pred_readonly
I0223 16:17:55.561619 22088 net.cpp:100] Creating Layer bbox_pred_readonly
I0223 16:17:55.561624 22088 net.cpp:434] bbox_pred_readonly <- fc7_readonly_drop7_readonly_0_split_1
I0223 16:17:55.561631 22088 net.cpp:408] bbox_pred_readonly -> bbox_pred_readonly
I0223 16:17:55.564043 22088 net.cpp:150] Setting up bbox_pred_readonly
I0223 16:17:55.564054 22088 net.cpp:157] Top shape: 1 32 (32)
I0223 16:17:55.564069 22088 net.cpp:165] Memory required for data: 2271487020
I0223 16:17:55.564076 22088 layer_factory.hpp:77] Creating layer cls_prob_readonly
I0223 16:17:55.564082 22088 net.cpp:100] Creating Layer cls_prob_readonly
I0223 16:17:55.564086 22088 net.cpp:434] cls_prob_readonly <- cls_score_readonly
I0223 16:17:55.564095 22088 net.cpp:408] cls_prob_readonly -> cls_prob_readonly
I0223 16:17:55.564591 22088 net.cpp:150] Setting up cls_prob_readonly
I0223 16:17:55.564604 22088 net.cpp:157] Top shape: 1 8 (8)
I0223 16:17:55.564606 22088 net.cpp:165] Memory required for data: 2271487052
I0223 16:17:55.564610 22088 layer_factory.hpp:77] Creating layer hard_roi_mining
I0223 16:17:55.564697 22088 net.cpp:100] Creating Layer hard_roi_mining
I0223 16:17:55.564703 22088 net.cpp:434] hard_roi_mining <- cls_prob_readonly
I0223 16:17:55.564709 22088 net.cpp:434] hard_roi_mining <- bbox_pred_readonly
I0223 16:17:55.564714 22088 net.cpp:434] hard_roi_mining <- rois_roi-data_0_split_1
I0223 16:17:55.564719 22088 net.cpp:434] hard_roi_mining <- labels
I0223 16:17:55.564723 22088 net.cpp:434] hard_roi_mining <- bbox_targets
I0223 16:17:55.564726 22088 net.cpp:434] hard_roi_mining <- bbox_inside_weights
I0223 16:17:55.564730 22088 net.cpp:434] hard_roi_mining <- bbox_outside_weights
I0223 16:17:55.564738 22088 net.cpp:408] hard_roi_mining -> rois_hard
I0223 16:17:55.564744 22088 net.cpp:408] hard_roi_mining -> labels_hard
I0223 16:17:55.564752 22088 net.cpp:408] hard_roi_mining -> bbox_targets_hard
I0223 16:17:55.564759 22088 net.cpp:408] hard_roi_mining -> bbox_inside_weights_hard
I0223 16:17:55.564766 22088 net.cpp:408] hard_roi_mining -> bbox_outside_weights_hard
I0223 16:17:55.565459 22088 net.cpp:150] Setting up hard_roi_mining
I0223 16:17:55.565471 22088 net.cpp:157] Top shape: 1 5 (5)
I0223 16:17:55.565475 22088 net.cpp:157] Top shape: 1 (1)
I0223 16:17:55.565479 22088 net.cpp:157] Top shape: 1 32 (32)
I0223 16:17:55.565484 22088 net.cpp:157] Top shape: 1 32 (32)
I0223 16:17:55.565486 22088 net.cpp:157] Top shape: 1 32 (32)
I0223 16:17:55.565490 22088 net.cpp:165] Memory required for data: 2271487460
I0223 16:17:55.565492 22088 layer_factory.hpp:77] Creating layer roi_pool5
I0223 16:17:55.565500 22088 net.cpp:100] Creating Layer roi_pool5
I0223 16:17:55.565505 22088 net.cpp:434] roi_pool5 <- convf_concat_convf_0_split_1
I0223 16:17:55.565510 22088 net.cpp:434] roi_pool5 <- rois_hard
I0223 16:17:55.565517 22088 net.cpp:408] roi_pool5 -> pool5
I0223 16:17:55.565526 22088 roi_pooling_layer.cpp:34] Spatial scale: 0.0625
I0223 16:17:55.565618 22088 net.cpp:150] Setting up roi_pool5
I0223 16:17:55.565626 22088 net.cpp:157] Top shape: 1 512 6 6 (18432)
I0223 16:17:55.565629 22088 net.cpp:165] Memory required for data: 2271561188
I0223 16:17:55.565634 22088 layer_factory.hpp:77] Creating layer fc6
I0223 16:17:55.565639 22088 net.cpp:100] Creating Layer fc6
I0223 16:17:55.565642 22088 net.cpp:434] fc6 <- pool5
I0223 16:17:55.565647 22088 net.cpp:408] fc6 -> fc6
I0223 16:17:55.837118 22088 net.cpp:150] Setting up fc6
I0223 16:17:55.837180 22088 net.cpp:157] Top shape: 1 4096 (4096)
I0223 16:17:55.837187 22088 net.cpp:165] Memory required for data: 2271577572
I0223 16:17:55.837198 22088 net.cpp:493] Sharing parameters 'fc6_w' owned by layer 'fc6_readonly', param index 0
I0223 16:17:55.837206 22088 net.cpp:493] Sharing parameters 'fc6_b' owned by layer 'fc6_readonly', param index 1
I0223 16:17:55.837213 22088 layer_factory.hpp:77] Creating layer relu6
I0223 16:17:55.837230 22088 net.cpp:100] Creating Layer relu6
I0223 16:17:55.837239 22088 net.cpp:434] relu6 <- fc6
I0223 16:17:55.837249 22088 net.cpp:395] relu6 -> fc6 (in-place)
I0223 16:17:55.837671 22088 net.cpp:150] Setting up relu6
I0223 16:17:55.837683 22088 net.cpp:157] Top shape: 1 4096 (4096)
I0223 16:17:55.837687 22088 net.cpp:165] Memory required for data: 2271593956
I0223 16:17:55.837692 22088 layer_factory.hpp:77] Creating layer drop6
I0223 16:17:55.837703 22088 net.cpp:100] Creating Layer drop6
I0223 16:17:55.837710 22088 net.cpp:434] drop6 <- fc6
I0223 16:17:55.837716 22088 net.cpp:395] drop6 -> fc6 (in-place)
I0223 16:17:55.837795 22088 net.cpp:150] Setting up drop6
I0223 16:17:55.837803 22088 net.cpp:157] Top shape: 1 4096 (4096)
I0223 16:17:55.837807 22088 net.cpp:165] Memory required for data: 2271610340
I0223 16:17:55.837812 22088 layer_factory.hpp:77] Creating layer fc7
I0223 16:17:55.837826 22088 net.cpp:100] Creating Layer fc7
I0223 16:17:55.837831 22088 net.cpp:434] fc7 <- fc6
I0223 16:17:55.837837 22088 net.cpp:408] fc7 -> fc7
I0223 16:17:55.890635 22088 net.cpp:150] Setting up fc7
I0223 16:17:55.890692 22088 net.cpp:157] Top shape: 1 4096 (4096)
I0223 16:17:55.890697 22088 net.cpp:165] Memory required for data: 2271626724
I0223 16:17:55.890707 22088 net.cpp:493] Sharing parameters 'fc7_w' owned by layer 'fc7_readonly', param index 0
I0223 16:17:55.890717 22088 net.cpp:493] Sharing parameters 'fc7_b' owned by layer 'fc7_readonly', param index 1
I0223 16:17:55.890722 22088 layer_factory.hpp:77] Creating layer relu7
I0223 16:17:55.890738 22088 net.cpp:100] Creating Layer relu7
I0223 16:17:55.890745 22088 net.cpp:434] relu7 <- fc7
I0223 16:17:55.890754 22088 net.cpp:395] relu7 -> fc7 (in-place)
I0223 16:17:55.891594 22088 net.cpp:150] Setting up relu7
I0223 16:17:55.891610 22088 net.cpp:157] Top shape: 1 4096 (4096)
I0223 16:17:55.891614 22088 net.cpp:165] Memory required for data: 2271643108
I0223 16:17:55.891619 22088 layer_factory.hpp:77] Creating layer drop7
I0223 16:17:55.891630 22088 net.cpp:100] Creating Layer drop7
I0223 16:17:55.891635 22088 net.cpp:434] drop7 <- fc7
I0223 16:17:55.891644 22088 net.cpp:395] drop7 -> fc7 (in-place)
I0223 16:17:55.891706 22088 net.cpp:150] Setting up drop7
I0223 16:17:55.891715 22088 net.cpp:157] Top shape: 1 4096 (4096)
I0223 16:17:55.891718 22088 net.cpp:165] Memory required for data: 2271659492
I0223 16:17:55.891722 22088 layer_factory.hpp:77] Creating layer fc7_drop7_0_split
I0223 16:17:55.891733 22088 net.cpp:100] Creating Layer fc7_drop7_0_split
I0223 16:17:55.891738 22088 net.cpp:434] fc7_drop7_0_split <- fc7
I0223 16:17:55.891746 22088 net.cpp:408] fc7_drop7_0_split -> fc7_drop7_0_split_0
I0223 16:17:55.891757 22088 net.cpp:408] fc7_drop7_0_split -> fc7_drop7_0_split_1
I0223 16:17:55.891842 22088 net.cpp:150] Setting up fc7_drop7_0_split
I0223 16:17:55.891850 22088 net.cpp:157] Top shape: 1 4096 (4096)
I0223 16:17:55.891855 22088 net.cpp:157] Top shape: 1 4096 (4096)
I0223 16:17:55.891860 22088 net.cpp:165] Memory required for data: 2271692260
I0223 16:17:55.891863 22088 layer_factory.hpp:77] Creating layer full7_cls_score
I0223 16:17:55.891877 22088 net.cpp:100] Creating Layer full7_cls_score
I0223 16:17:55.891883 22088 net.cpp:434] full7_cls_score <- fc7_drop7_0_split_0
I0223 16:17:55.891894 22088 net.cpp:408] full7_cls_score -> cls_score
I0223 16:17:55.892679 22088 net.cpp:150] Setting up full7_cls_score
I0223 16:17:55.892690 22088 net.cpp:157] Top shape: 1 8 (8)
I0223 16:17:55.892694 22088 net.cpp:165] Memory required for data: 2271692292
I0223 16:17:55.892700 22088 net.cpp:493] Sharing parameters 'cls_score_w' owned by layer 'cls_score_readonly', param index 0
I0223 16:17:55.892707 22088 net.cpp:493] Sharing parameters 'cls_score_b' owned by layer 'cls_score_readonly', param index 1
I0223 16:17:55.892714 22088 layer_factory.hpp:77] Creating layer full7_cg_bbox_pred
I0223 16:17:55.892722 22088 net.cpp:100] Creating Layer full7_cg_bbox_pred
I0223 16:17:55.892727 22088 net.cpp:434] full7_cg_bbox_pred <- fc7_drop7_0_split_1
I0223 16:17:55.892738 22088 net.cpp:408] full7_cg_bbox_pred -> bbox_pred
I0223 16:17:55.894999 22088 net.cpp:150] Setting up full7_cg_bbox_pred
I0223 16:17:55.895009 22088 net.cpp:157] Top shape: 1 32 (32)
I0223 16:17:55.895014 22088 net.cpp:165] Memory required for data: 2271692420
I0223 16:17:55.895020 22088 net.cpp:493] Sharing parameters 'bbox_pred_w' owned by layer 'bbox_pred_readonly', param index 0
I0223 16:17:55.895026 22088 net.cpp:493] Sharing parameters 'bbox_pred_b' owned by layer 'bbox_pred_readonly', param index 1
I0223 16:17:55.895031 22088 layer_factory.hpp:77] Creating layer loss_cls
…
